active_slam_rl/training_output_frontier/20260124_140852_frontier/d3qn_frontier_ep180.pth (torch, 901938 bytes, 11 tensors)

feature.0.weight f4 [256, 100]
00000000: 4a9c b6ba 4a1e 413d 943a b9bc 0348 48bd
00000010: e79b 173d 5dd6 643b e7b2 583d 2820 9bbd
00000020: 7e96 643d 1ed1 a0bd 9178 243d f49d 5cbd
00000030: d7fe d3bc a057 a03c 77ab bf3d 62dc 99bd
00000040: bead 073b 163d ebbd 8632 4ebd eaaa 283d
00000050: c034 823d 9a73 d03c 6b0b 093d bd79 efbc
00000060: 1e67 ec3c 44ce 9dbc 1823 913d 0987 3e3c
00000070: 4bbb cf3d 2d7a 32bd 2262 ef3d 4b7c f9bc
00000080: 4008 32bb 386c e83d 594a c83d 3a1b 9abd
00000090: 2f46 1fbb 364a 0bbd 8a4d 133d 8043 06be
000000a0: c48b 463c 1b9c 893d 3e6a bdbd bb2a 3c3d
000000b0: d716 c8bc b57c cebc c0d5 853d 7d49 8fbc
000000c0: 8055 69be d5ea 5dbe cc35 8cbe 852b 94be
000000d0: a279 32be d696 4fbe 4c7f d4bd f3de f3bd
000000e0: dfb9 c33c 3607 17be dfd9 22be c178 dbbc
000000f0: 3323 25bd c75d 44bc 4ecd 423d 00a9 c4bd
00000100: 66a7 963d 5b16 ae3d b249 86bd af74 9e3d
00000110: 5176 503d d345 1fbd 42ab 6c3d ca4f 1d3d
00000120: aef2 8aba ced5 32bd 9205 00bd eed9 e93c
00000130: 236f 3b3c 8df9 1d3e c298 b33d 7fce cf3d
00000140: fc47 763d b6ca 43bd cebe 4e3c acdc 16bd
00000150: 921a 1cbd 56f7 31bd 9bb5 d73d def2 3b3c
00000160: be8f 583d 16b9 c03d 91bd d4bd b5f7 343c
00000170: 5ca3 3e3d 26c0 c9bd 65f4 9abd c3da 23bd
00000180: e453 d3bd 461c ce3d 6ce3 26bc 1416 2b3d
00000190: 959c b03d 37d3 373d bb52 87bc 9872 23bc
000001a0: 46e0 d1bd c8ac 103d 6840 16bc 24ac 6f3d
000001b0: 8bff 85bd c857 aabc 50ad 0e3d 7792 c2bd
000001c0: f3a1 923d 8478 1c3d daaa 99bd 4704 9f3b
000001d0: d972 ffbd b36e 22bd 6239 e3bc 014f ae3c
000001e0: 975e 96bd e3ee 28be b1ef fdbd 7f4a 27be
000001f0: 6679 e0bd d7b1 23bd 1d42 89b9 56cf 67bd
00000200: 39ef 64bd d513 a5bc 813a 07be 5501 82bd
00000210: 055b a0bd 2bf8 92bd 6c3b 903d 3dc8 f53d
00000220: 5548 0f3e 3734 f43c 2beb 2d3e c93e f93d
00000230: 54eb e53d 7442 9c3d bf98 a83d 06c4 e53d
00000240: 6336 313e 8706 8c3d 6208 71bc 6cf0 99bc
00000250: 1ea9 183d dca5 d23d 23cc 263e 2679 1e3e
00000260: 3ccd c43d b8da d7bc 10fb 57bc 4101 65bb
00000270: 1bf0 553d 1109 2b3e 174d 003e 4347 613d
00000280: dac1 023e f83a 933d c4f1 b13d 05ea 9f3d
00000290: caa0 1c3c 3b3d 4b3d 0953 403d 8baf 20be
000002a0: 32a7 33bd 1380 53be eae8 1fbe e0d1 46bd
000002b0: e875 e0bd c0e4 9bbd 2ccf 8cbd ebac a6be
000002c0: 0932 89be 2add cfbd 6b28 1ebe fbd2 e8bd
000002d0: f765 9fbd 57c5 40be dab9 88bd 3224 00be
000002e0: 8490 18be ea0d d3bd 91dd 0abe 0aac 73bd
000002f0: 3f01 61bc a339 ad3c 6263 9abc ff7e 633b
00000300: 2179 103d 4bb0 023d db62 bcbd 6359 a9bc
00000310: a882 213d 6c86 bbbd de6f 31bd 1058 3f3c
00000320: c258 b5bd 7860 143c eb5c 4fbd 8619 6dbd
00000330: 711f 61bd f106 5c3d f9b7 8b3d 3c37 f13d
00000340: e315 e0bc 1b76 4b3d fd56 1d3c f9ea 94ba
00000350: 43ec 983d 3d90 8d3b 2044 013b 6036 c9bc
00000360: 4fc5 1a3d e9e4 21bd d420 173e d9f0 803d
00000370: 7073 5bbd f1a1 4abb 4b57 57bd 49e8 6abd
00000380: 6b2d 8e3d b5c3 a43d 66e0 5ebd 166f bdbd
00000390: 26d5 f6bc 71fe 433b eec2 e5bd e456 04b9
000003a0: 7db7 fc3b 75ca 95bd 3612 d63b f62d 8d3d
000003b0: 6952 063e fe91 ca3c ed21 123e 27b3 d73c
000003c0: 7e18 a23d 42e6 b5bc 72af 043e 694b fe3d
000003d0: 9e13 ee3d 6891 433d ce79 293e 54bd 093e
000003e0: f10c 36bd 6bc8 91bd e493 adba 7cd6 ee3c
000003f0: 3134 413d db31 283d 5a2e 023c 006b 683d
-0.0013932076 0.047148027 -0.02261094 -0.0488968 0.037013914 0.003491781 0.05290499 -0.07574493
0.055807583 -0.07852386 0.040154044 -0.053861573 -0.025878353 0.019573033 0.09358876 -0.07512738
0.0020702924 -0.114862606 -0.05034115 0.04117862 0.063577175 0.025445748 0.033458155 -0.029232854
0.028857764 -0.019263394 0.07086772 0.011628875 0.10143145 -0.043573547 0.11688639 -0.030454775
-0.0027165562 0.11348766 0.09779806 -0.07524724 -0.0024303307 -0.03400632 0.03596262 -0.13111687
0.012118284 0.06719228 -0.0924878 0.04593919 -0.024424953 -0.02520595 0.0653491 -0.017491097
-0.22786522 -0.21671613 -0.27384794 -0.28939453 -0.17429212 -0.20272383 -0.103758425 -0.119077586
0.023892341 -0.14748845 -0.15903424 -0.026790978 -0.04031677 -0.011985249 0.047559075 -0.09602547
0.073561475 0.08500358 -0.06557025 0.077370994 0.050894085 -0.03888495 0.05778051 0.03840617
-0.0010600889 -0.04366093 -0.031255312 0.0285463 0.011440071 0.15427227 0.087693706 0.10146808
0.060127243 -0.047800742 0.012618734 -0.036831543 -0.038111277 -0.04344877 0.10532685 0.011471478
0.05287146 0.09410302 -0.103877194 0.011045386 0.04654251 -0.098511025 -0.07566146 -0.04000355
-0.10318735 0.100639865 -0.010186058 0.041769102 0.08623616 0.044879165 -0.016518941 -0.009976052
-0.10247855 0.035321027 -0.009170629 0.058513775 -0.065428816 -0.02079381 0.034833252 -0.09500592
0.071597956 0.03820087 -0.075032905 0.004852805 -0.12473077 -0.039656352 -0.027737323 0.021277906
-0.0734226 -0.16497378 -0.12399233 -0.16337012 -0.10960655 -0.039964523 -0.00026179935 -0.056594215
-0.055892203 -0.020151058 -0.13205911 -0.0634791 -0.078298606 -0.071762405 0.07042584 0.12001083
0.13992436 0.029810054 0.1698424 0.121701784 0.11226526 0.076298624 0.08232259 0.11219029
0.17305903 0.068371825 -0.014711471 -0.0187914 0.037270658 0.102855414 0.1628881 0.15475902
0.09609458 -0.02634941 -0.013182417 -0.0034943374 0.052230936 0.16702677 0.12529407 0.0549996
0.12769261 0.07188982 0.08688691 0.078083076 0.0095598195 0.04961894 0.04695419 -0.15691964
-0.04386062 -0.20654325 -0.15616193 -0.048539996 -0.10959989 -0.0761199 -0.068754524 -0.325538
-0.26795986 -0.101496056 -0.15445106 -0.11368366 -0.0778312 -0.18825279 -0.06676073 -0.12513807
-0.14898878 -0.10305388 -0.13561083 -0.05949024 -0.013733207 0.021145647 -0.018846218 0.0034713147
0.035271768 0.031906407 -0.09198543 -0.020672506 0.039431244 -0.09156498 -0.043319575 0.011678711
-0.0885482 0.009056203 -0.050625723 -0.05788567 -0.054961625 0.053717557 0.068221994 0.11778113
-0.027354186 0.04967318 0.009603259 -0.0011361531 0.07466938 0.004320173 0.0019724444 -0.02456206
0.037785824 -0.039524946 0.14758617 0.06295938 -0.053576887 -0.0030919279 -0.052573483 -0.05735043
0.069422565 0.08045141 -0.05441322 -0.092497036 -0.030130934 0.0029906298 -0.112188205 -0.0001262087
0.007712303 -0.07314006 0.0065329326 0.06893532 0.13117374 0.024727818 0.14270754 0.026330544
0.07914828 -0.022204522 0.12957552 0.12416727 0.116248354 0.047746092 0.16550371 0.13451129
-0.044445936 -0.07118305 -0.0013242927 0.029155008 0.047168914 0.04106317 0.007945621 0.05674267

feature.0.bias f4 [256]
00000000: f8b0 573e fc83 2e3e c3ff dfbb 54cf 433e
00000010: 75f7 7abe fffb 58be 08ed 7d3d f8c7 383e
00000020: 6285 9d3e f887 3f3e c1cf 47be f49d 08bc
00000030: bbb5 5a3e ec5a 873e 1c07 21be e63d 043d
00000040: 609f bdbd 636e 7c3e e88d bc3d 0729 14be
00000050: 68e7 863e 3b65 853c 7cc6 6fbe f778 3f3e
00000060: 4d86 a9be 119b 39be 16d6 08be b6f5 363e
00000070: 471f 37be 5da3 613e b765 31bd c563 8cbe
00000080: bc6e dbbd 9506 f1bd 8619 303d 73bd 6fbe
00000090: 06f5 f7bc dad7 833e aa3f 633e 61eb 833e
000000a0: 2e16 533d 2d2a 07be fc47 a53d ec81 dd3d
000000b0: 971f 71be 813f 1cbe ba07 76be 8bb6 95bd
000000c0: 9c0e 813e e923 e43d bb59 b7bd c71b 65be
000000d0: 3eed 14be 44e2 2e3e 4772 f23a 3ffa f8bd
000000e0: 63c5 053e 37c0 cfbd ec1e 75bd a6ce ac3c
000000f0: d5ce c1bc e314 2a3e e0d1 85be ae73 663e
00000100: 3455 b43e e691 763e 94f6 f7bd e93f 833e
00000110: fe20 44be 87bf 76be 663d 2a3d be40 043e
00000120: 0798 303d 4601 30be 2187 08be fdaa 9c3c
00000130: d5b5 64bd c88f 0abe fba3 89bc 4be8 403e
00000140: 0b8b a03e d199 3a3d ab38 5f3e b85c 1dbe
00000150: 011d 7f3e f415 cabd adfd 243d adbf 673e
00000160: 319f ed3a ce80 5d3e 9b18 a63e 1f7e e9bd
00000170: 8377 de3c 6217 063c e963 803e 973a 7f3e
00000180: 4201 ff3d f1de 6d3e be24 283e 95ae 01be
00000190: 58a6 793e 59b5 3d3e a23b 8cbd 2ed0 7e3c
000001a0: 1696 b43e ef2f cf3e 6b78 853e 65b7 a03e
000001b0: ef73 273e e15e 3ebd d783 14be 354b 59be
000001c0: 19a3 3dbd da97 523e 579a 323e 0fbd 8bbd
000001d0: 2b48 70bd d31d 56be 5caf 913e 6cfc f5bc
000001e0: 40c9 58be f1ef 8abd bb1d bb3d c803 88be
000001f0: 5e35 573e 563f 1d3e 2628 af3e 1cf3 f83b
00000200: 165a 763d 0db7 8d3e 05b2 903e 0aa9 bbbb
00000210: a4ff 673e 791f 05be 881c 8b3e c4b6 5f3e
00000220: a0e9 5f3e 8cf7 5d3e 93d5 413e 3ee3 66be
00000230: ea83 a13e 3710 0ebe a5e3 8bbe a007 32be
00000240: 67bb 8d3e 1348 833e 99a2 00bd 23e1 57bb
00000250: 212d 703e 55f8 b5bd 803e 9a3e e7ed 96be
00000260: 365e 883e 79ca e8bd 573c a73e 0849 ad3e
00000270: b702 9a3e df17 1d3d c8d0 1c3e c051 4e3d
00000280: d653 82bd 526b 683e d02a 223e 6647 a23e
00000290: 7fc0 ef3c 189a 96bc f9d0 f03c ffff b2bc
000002a0: 19f9 a53e c87d 17bd 78ac 943d 41c8 4abd
000002b0: 7b32 843e ce17 bb3d 3c73 933e 64c3 78be
000002c0: 803d b0bd cf99 1ebe c9f6 03bd 4ce2 533e
000002d0: a763 3d3e 96d9 943d d804 76be db4a 90be
000002e0: 979f 4f3e 99f6 c7bd fac6 103d e01f 85be
000002f0: 517b 733e 060d 1d3e ae0b 963e 295f 1d3e
00000300: 83af 1f3d 11bc 0dbe af96 7e3e 0b7d 87bd
00000310: 031b a83d e437 7b3d 1e4c 85bd 93ba 61be
00000320: 3830 8f3b 4502 7bbe c1fe f5bd 4cdd 21be
00000330: c201 933e 9b90 3fbe 3822 953e 064e 15bd
00000340: b479 973e fbf7 153e 55e0 833e f17c 76be
00000350: 0edb 263e cf55 de3b 2cab e9bd 5c7e 11be
00000360: d3ea 363e 3f9f 6dbe ec15 e63d 3023 8c3d
00000370: 21f2 713e f4f6 963e 07a6 5ebe 5902 873e
00000380: 5179 c9ba 0de5 8c3e 1cb0 563e c4a9 4e3e
00000390: 9b94 453e c218 6a3e 7f63 613e 2a40 75bd
000003a0: e75a 2cbd d1b7 ea3d 7520 91be e3ad 4abe
000003b0: edf0 fc3c 76d0 28be 87e3 25be e6d6 8bbc
000003c0: 61de 743e ea7b 893e 8fae 903a e78f 69be
000003d0: 4dd5 c03c 519b b43d d442 10be 0bdb f63d
000003e0: 88ed 24be aaa1 7f3e 4874 c53e d21d abbd
000003f0: 9437 cabd 2a55 863e 212d 483e b06e 14be
0.21063602 0.17042536 -0.006835909 0.19122058 -0.2450846 -0.21189879 0.06199363 0.18045032
0.30765826 0.18704212 -0.19512846 -0.00833844 0.21358387 0.26436555 -0.15725368 0.032285593
-0.09258914 0.24651484 0.09206754 -0.14468776 0.26348424 0.016283622 -0.2341556 0.18698488
-0.33110276 -0.1812556 -0.13362917 0.17867169 -0.17883025 0.22034974 -0.043309893 -0.27419868
-0.1071448 -0.117688335 0.04299309 -0.23412113 -0.030268203 0.2575062 0.22192255 0.25765517
0.051534824 -0.13199683 0.080703706 0.10815796 -0.23547207 -0.152586 -0.24026385 -0.07310208
0.2520646 0.11139662 -0.089526616 -0.22373877 -0.14543626 0.17078501 0.0018497192 -0.12157106
0.13063578 -0.10144084 -0.059843943 0.021094631 -0.023658196 0.1660953 -0.26136684 0.22505066
0.35221255 0.24079093 -0.12107578 0.25634697 -0.1915321 -0.240965 0.04156246 0.12915322
0.043113735 -0.17187986 -0.13332798 0.019124502 -0.05583747 -0.1353141 -0.016801825 0.18838613
0.3135608 0.045556847 0.21798961 -0.153674 0.24913408 -0.098674685 0.040280987 0.22631712
0.0018129108 0.21631166 0.32440647 -0.11401009 0.027156597 0.008184286 0.25076225 0.24924694
0.12451412 0.23229577 0.16420266 -0.12664254 0.24379861 0.1852621 -0.068473116 0.015552564
0.35270756 0.40466258 0.26068434 0.3138992 0.16352819 -0.046477202 -0.14503418 -0.21220095
-0.04629812 0.2056574 0.17441688 -0.068231694 -0.058662575 -0.20909815 0.284541 -0.03002759
-0.21170521 -0.067840464 0.0913653 -0.26565385 0.21016452 0.15356192 0.34210318 0.0075973403
0.060144506 0.2767872 0.28260818 -0.005726938 0.22656113 -0.13000287 0.27170205 0.21847063
0.21866465 0.21676463 0.18929128 -0.22547624 0.31545955 -0.13873373 -0.27322116 -0.17385721
0.2768204 0.25640926 -0.031405065 -0.0032940588 0.23454715 -0.08885256 0.3012581 -0.2947838
0.26634377 -0.113667436 0.32663223 0.3384478 0.30080196 0.038352843 0.15314019 0.05037093
-0.06363647 0.2269719 0.15836644 0.31695098 0.029266594 -0.018384025 0.02939652 -0.021850584
0.3241661 -0.03698519 0.07259458 -0.049507383 0.25819764 0.091354 0.28798854 -0.24293286
-0.0860548 -0.15488361 -0.032217775 0.20691794 0.18495046 0.07268064 -0.24025285 -0.2818211
0.20275722 -0.09763832 0.03534601 -0.2600088 0.2377751 0.15337 0.29305786 0.15368332
0.03898574 -0.13841273 0.24862169 -0.06615647 0.08208277 0.0613326 -0.06508659 -0.22043829
0.004369762 -0.24512585 -0.12011481 -0.15807074 0.2871228 -0.18707506 0.2912767 -0.036451362
0.2958504 0.14645378 0.2575709 -0.24071099 0.162945 0.0067851315 -0.114096016 -0.14208359
0.17863016 -0.23205279 0.1123465 0.06842649 0.23627521 0.29485285 -0.21743022 0.2636898
-0.0015371238 0.27518502 0.20965618 0.20181948 0.1929497 0.22861007 0.22010611 -0.059875645
-0.04207888 0.114608414 -0.28345075 -0.19792895 0.030876601 -0.16485772 -0.16200076 -0.017070245
0.23912956 0.2685235 0.0011038351 -0.228088 0.02353921 0.08818687 -0.14087993 0.12053498
-0.16106236 0.24964014 0.38565278 -0.08355297 -0.09873882 0.2623685 0.19548465 -0.14495349

feature.2.weight f4 [256, 256]
00000000: 11a0 3dbc d35e ecbd b120 c5bc cff1 a7bd
00000010: 9d12 973c 7e25 ba3d 44f3 41bd 272b 5d3d
00000020: c7b1 193d 3d16 39bd 4c52 df3d 4a76 debd
00000030: 0fad 68bc a559 edbd 76a6 523d 22af d83c
00000040: 1c00 623c 72b6 6fbe d7e9 26be 0c4d 763c
00000050: cc4d 96be d3b0 86bd e214 273e d9ad 4dbe
00000060: 8c29 5f3c e5a4 283e fabd 5c3d cb4e 5a3d
00000070: d767 1dbe 45ed 71be 11a5 a73d 3523 ca3d
00000080: bb91 b73d 5538 063e 85fb e43d 7f54 953c
00000090: 78d4 43bd d0a1 9ebd b841 9a3c 182c 113d
000000a0: cd60 153d 4283 973d 2241 0cbd 2871 70be
000000b0: fa67 af3d fff7 72bc e430 e6bd bfd2 393c
000000c0: f171 46be 8a47 41be a1e1 9c3d d5cf 753c
000000d0: e91c d53d 2ef7 53bd c2e2 74be 8b50 873c
000000e0: 0935 8dbe 51aa 09bd d4b1 73bb d4d9 db3c
000000f0: 2bea bb3d 19d6 4bbe be20 bf3d d1b6 abbd
00000100: ab30 12be eef8 93be 2d07 833c 9e29 41bd
00000110: a7bd f63c 9854 f83a 6d5c 373d ef8b d4bc
00000120: ec5f 40be 6b39 40bd e306 ab3d 4bf3 933d
00000130: 91b0 c6bd 97a1 af3d cbdb 1b3d 41ae 513c
00000140: 91a0 13bc c065 f0bc 640e 013d 4f85 2ebd
00000150: 2397 2e3d 60f9 103e 9ea3 0dbd 9d75 683d
00000160: 9ebe 01bd 37ec a83d 6942 113d 9fe3 263d
00000170: 1459 96be e185 ca3c b032 db3c 15d3 c63d
00000180: e719 adbe 6695 9cbd 1d16 62bb fc17 c23c
00000190: 01e1 6ebd 4b86 fdbc c277 13bd 4057 a4bd
000001a0: 520d babd a9fc 99be 557e a8bd 88c6 09bf
000001b0: ba84 07bd e263 693c cdc1 dcbc b1cb 05be
000001c0: f54b c5bd 7aa0 a7bb 908b 8c3d 8833 953d
000001d0: b12c 9d3d 3986 053c aa3f 19bd 23cc 363d
000001e0: 61d6 153e ce17 873d 6eb9 45be d80c a5bb
000001f0: 1e3c babd dfba 98bd e1b1 a4bd cbd4 68bd
00000200: 2e6b da3d 3675 a9bd 472f 1fbe 4ca3 08bd
00000210: a506 a4bd d2f6 813d a253 b03b 8b4e 82bd
00000220: a10d c5bd 507a 3fbe 48df cabd 3302 283c
00000230: 8090 adbd 681a 0fbe 12bf 253e ee09 d13d
00000240: 5c2b 54be 65df 03bd 7a57 5dbe 7992 a73d
00000250: 7b29 823d 7b29 903d 79bf 583c 7bef fb3d
00000260: 02b2 a13d 0c8e 07bd d734 6e3d fcf0 76bd
00000270: e2ed afbb 658b a93c bc67 ea3c 146e 8cb9
00000280: 2ee4 48be a378 123d 2138 3f3d 0e89 57be
00000290: 790b e4bd 9024 2dbe fb21 a23c 0749 73be
000002a0: 6e00 d8bd efb4 9cbd eb1e 37bd 7eb0 26bd
000002b0: 50ff 1abb 7557 15be aa3c 2ebe d387 703c
000002c0: b940 a2bc 3bbb ba3d a0ef 0dbe 0697 9bbc
000002d0: e4ab 43bd 1481 babd 1a47 023d 526b d23d
000002e0: 726e 8d3c 622b 953c 3dcf 71bd 393c 8e3d
000002f0: 4a48 0a3e 0733 d4bc b587 81bd 8299 fbbc
00000300: 2a77 313e 286d 02bd 8453 2abd 6fe5 783d
00000310: 32b4 23bd d605 b3bd 1db5 01bb 40ca e63d
00000320: 31d1 443d 0aa8 a7bd dfb7 4bbc f58a 043e
00000330: b798 7f3d 8628 8a3d fce6 60bd d14c d73d
00000340: 9813 37bd 6ff9 16be a9d6 29bd 3e69 093d
00000350: c63e ccbd fb1b adbc deb1 bbbd 4352 f73d
00000360: 593e 653d 4dc8 f53d 4e89 993d 7ebc 63be
00000370: e4be 2abd 970c 893c eb13 64bd 32f9 823c
00000380: a11b b63c acce 8dbd 8612 483b 8d79 113d
00000390: 70c1 a4bd 8f42 d43b 2036 09be 1e98 013d
000003a0: bbec c63c 7a19 16be 89d1 ee3d ed93 e83c
000003b0: 81df e53c 6e5a fb3d 777e 8f3d e7e4 f8bd
000003c0: 8539 0cbe bd0c e4bd e26d 7dbe 02ac 8b3d
000003d0: f0fa 83be 4aca 0dbe 78e5 a2bb 6c64 87bc
000003e0: 3fef 71bd f547 07bb addf 2abe 24bc 8f3d
000003f0: 3232 b33d 3873 233d 485b 8bbe 9f9c 89bc
-0.011573807 -0.11541524 -0.02406344 -0.08200418 0.018441493 0.09089182 -0.047351137 0.05399623
0.037523057 -0.045187224 0.10904369 -0.108624056 -0.014201417 -0.11589364 0.05142828 0.026450697
0.013793971 -0.23409441 -0.1630014 0.015033018 -0.2935623 -0.06576695 0.1631656 -0.20085849
0.013620745 0.16469152 0.053892113 0.0532978 -0.15371643 -0.23625667 0.08185781 0.098699965
0.08963343 0.13107426 0.11180786 0.018228767 -0.047810048 -0.07745707 0.018830165 0.03544244
0.03646927 0.07398082 -0.034241803 -0.23480666 0.08564754 -0.014829635 -0.11239794 0.01134175
-0.19379403 -0.18874946 0.07660223 0.015003164 0.10405905 -0.0517494 -0.23914626 0.016517898
-0.27579525 -0.033609692 -0.0037184851 0.026837267 0.09175523 -0.1990589 0.09332417 -0.08384479
-0.14276378 -0.28900856 0.015994633 -0.04715883 0.03011973 0.0018946109 0.04476588 -0.025945632
-0.18786591 -0.046929758 0.08350923 0.07224139 -0.09701646 0.08575743 0.038051408 0.012797893
-0.00901045 -0.029345393 0.031507865 -0.0426076 0.042624604 0.14157629 -0.034579866 0.05675279
-0.031675927 0.082481794 0.035463724 0.04074442 -0.29364836 0.024722042 0.026757568 0.097082295
-0.33808824 -0.07645683 -0.0034498044 0.023693077 -0.05832005 -0.030947825 -0.03600288 -0.08024454
-0.09084572 -0.30075577 -0.08227221 -0.5381856 -0.033085562 0.014245005 -0.02694788 -0.13065983
-0.09633628 -0.005115566 0.06862557 0.072852194 0.0767454 0.008149677 -0.03741423 0.044628274
0.1463256 0.06596337 -0.19309017 -0.0050369315 -0.09093498 -0.07457518 -0.0804174 -0.05684356
0.10664974 -0.08274309 -0.15545379 -0.033358857 -0.0800908 0.06345905 0.0053810636 -0.06362637
-0.0962174 -0.18699002 -0.09905869 0.010254431 -0.08474827 -0.13974917 0.16186169 0.10206972
-0.20719665 -0.032195468 -0.21615401 0.08182234 0.06355568 0.07039162 0.013229244 0.12301537
0.078952804 -0.03309445 0.05815586 -0.060288414 -0.005368934 0.020696351 0.028613918 -0.00026784895
-0.19618294 0.03575958 0.046684388 -0.21048376 -0.11135001 -0.16908479 0.019791594 -0.23758326
-0.10546957 -0.07651698 -0.04470722 -0.04069566 -0.0023650713 -0.14584143 -0.17015329 0.0146808205
-0.019806253 0.09117743 -0.13860941 -0.018992912 -0.04777135 -0.09106651 0.03180609 0.10274376
0.017264578 0.018209163 -0.05903553 0.0694508 0.13504139 -0.025903238 -0.06324712 -0.030712847
0.17330614 -0.03184238 -0.041583553 0.06076568 -0.03996677 -0.087413475 -0.001979179 0.11269045
0.048051063 -0.08186348 -0.012433975 0.12943633 0.0624015 0.067460105 -0.054907784 0.105126984
-0.04469642 -0.14743589 -0.04146448 0.033547632 -0.099729106 -0.021131506 -0.09164785 0.12076237
0.055967662 0.12001095 0.07496892 -0.22239873 -0.041685954 0.016729636 -0.055683058 0.015987966
0.022229971 -0.06924185 0.003052862 0.03551631 -0.08044708 0.006477661 -0.13399553 0.03163921
0.024282804 -0.14658156 0.116610594 0.028390849 0.028060677 0.122731075 0.07006543 -0.12153035
-0.13693817 -0.11135242 -0.24748948 0.06819917 -0.25777388 -0.13846698 -0.0049712025 -0.016527377
-0.059066053 -0.0020642255 -0.16686888 0.07018307 0.08749808 0.039904803 -0.2721808 -0.016798316

feature.2.bias f4 [256]
00000000: 3ae7 36be c78e 14bd aed7 5bbe fec8 03be
00000010: 9981 50be 6345 833e 97e6 48be f44d 00be
00000020: de7b 9bbd 436d 473d f635 26be 61bc 17be
00000030: 2140 0d3d 3ed2 193e 6fbc 31be 700f 3e3e
00000040: ddbb f5bd 082c f3bd 5e9d 3cbe 3efb 683e
00000050: d33c 333e ae42 493e b97b eebd 180f 3f3e
00000060: ed27 5a3e 590d 20be c7ff 5b3e 5d9f 23bc
00000070: 9c72 0c3e 2835 a6bd 160f 703e 192b 2ebe
00000080: c3c9 b7bd e3ee 5d3e 28d7 2c3e 60d1 683e
00000090: 8093 173e 182a 503e ab26 4c3e 9dc0 9dbd
000000a0: 9a8a 783e e60d cbbd fef0 29be 9326 193e
000000b0: d49e 2e3e feb3 b3bd ed96 05bd 95bc 983d
000000c0: ab0b 303e 6716 efbc 978f dcbd 76df 373d
000000d0: ca9a 0c3e 8e2f 0bbd afc9 e6bd 7d96 5a3e
000000e0: 414e bebc a4a3 2ebe 1a14 333e 38f2 533e
000000f0: 1622 14be b4dd 5d3e 53d2 57be 5f01 183e
00000100: c643 363e c14f cfbd 23fa 1f3e 6fc8 483e
00000110: 12df 1d3e 4f2e f1bd 7c5f 4c3e c3af f43d
00000120: 6778 c6bd 823b 44be fba7 343e 98f9 0a3e
00000130: 4494 453e 0884 843e 278b 6b3e 8e2f 643e
00000140: e4fe 79be c6a3 093e 0fa3 2e3e 7bc0 123e
00000150: 04b5 203e eab8 403e 8915 00be 4f6c 593e
00000160: 3aff b0bd c2f2 b0bd f4e5 213e 3ac6 0fbe
00000170: 2e7a 1f3e 0bbc 533e b46a bebd 2720 083e
00000180: 391c 803e 1536 253e 8b3d e73d 03ed 143e
00000190: b482 0fbe f7ab 623e 05ef e4bd ba8b 873e
000001a0: f7db efbd c1c3 343e 76d1 7a3e 0d22 863e
000001b0: a487 6d3e 87d3 9fbd 800b 413e 8f6e 093e
000001c0: ab4f a43d 6551 213e e5a9 063e 40e2 30bd
000001d0: 3b42 793e aaee 4c3e b975 803e 6b95 7a3e
000001e0: f21c 1f3e c818 0f3e 2aa2 0b3e 1cf0 ea3d
000001f0: 089b c7bd 4010 60bd f976 97bd 117d 253e
00000200: 0823 4d3e 422d d1bd c7c0 b8bd 5791 27be
00000210: 1269 073e 9485 15be 018f eebd 53d5 563e
00000220: e6e6 473e 7fbb 303e 2901 90bd e685 0abe
00000230: 8113 03bd 5b81 e0bd 3ee7 62be 7dc7 313e
00000240: 5c22 933e 9f9f 10bd 0118 4c3e a503 a1bd
00000250: fd5b 9bbd a222 a83d c892 35be fd75 c13d
00000260: 568d 303e 868b 293e 1839 afbc e345 763e
00000270: bd50 dabd 8697 343e e50d 34bd 0172 2c3e
00000280: 6ed0 7b3e 9a65 1dbe 2b12 cfbd 9933 253e
00000290: 8b66 883e 732d 313e e069 97bd 9f8f 0c3e
000002a0: db64 3bbe 3736 16be 57f7 3d3e a888 b8bd
000002b0: 2ac4 b33d fd9a 85bd 3a55 4f3e a984 48be
000002c0: 86b6 653e 5e1b 30be b2cb 3a3e 8691 abbc
000002d0: b349 5d3e a4ed fabd 6c25 e9bd 5c88 173e
000002e0: 7470 d0bd c281 463e 4d11 d5bd ef55 f13d
000002f0: 808d 453e b315 293e a27e 20be c0be 6b3e
00000300: 6fdd 44be c5ab 58bd 0b14 89bd 2178 efbb
00000310: 3f5c 32be 640f 99bd ec7c 71be 04d1 513e
00000320: f3a4 4bbe f146 b4bd eae3 213e 34a9 5f3e
00000330: 1ab0 c9bd f013 653e a007 dfbd 9348 a6bd
00000340: 0eb1 41be c6eb 813b 32a3 05be 1934 58bc
00000350: 4520 74bd 4fb9 03be 599b 9cbd 88b9 5a3e
00000360: dee7 e5bd 9639 fd3d 795f 22be b76b 4b3e
00000370: 5161 773e 782d 6fbe 95d8 dabd e527 d0bd
00000380: d97f 1e3e ede9 2e3e 563b 64bd 0ad9 443e
00000390: b632 3dbd 5c5e bcbd f88d aebd d166 c3bd
000003a0: 6175 e83d c8ff 1b3e 2af6 7d3e 24ac 603e
000003b0: 0709 543e 5d72 ecbd 7270 b6bd 62db 30be
000003c0: ef81 07be 994b 75bd 7b19 35be 36ed 073e
000003d0: 7120 223e ba93 573e be21 1c3e 1baa f6bc
000003e0: 67fb 5d3e dfa0 f1bd 0f0f 52bd cece 3dbd
000003f0: dcd1 8cbd 51ea 0ebe 805a 4abe ac5e 353e
-0.17861643 -0.036268976 -0.21468994 -0.12869641 -0.20361938 0.25638875 -0.19619213 -0.12529737
-0.07591985 0.048688184 -0.16231522 -0.14817955 0.034484986 0.15021607 -0.17357038 0.18560576
-0.11998723 -0.11873633 -0.18419406 0.22752091 0.17503671 0.19654343 -0.11644692 0.18658102
0.21304293 -0.15630092 0.2148429 -0.009986726 0.13715595 -0.081156075 0.23443255 -0.17008628
-0.0897403 0.2167316 0.1687895 0.2273612 0.1480236 0.20328557 0.19936626 -0.07702754
0.24271622 -0.0991476 -0.16595837 0.14956121 0.17052776 -0.08774565 -0.032614637 0.07457844
0.17191951 -0.029185487 -0.10769575 0.044890843 0.13730922 -0.0339809 -0.11268937 0.21346469
-0.023230674 -0.17054611 0.17488137 0.20697868 -0.14466128 0.21666604 -0.21076326 0.14844273
0.17799291 -0.10122634 0.15622763 0.1960771 0.15417126 -0.11776411 0.199583 0.119475864
-0.09690934 -0.19163325 0.17642204 0.13571775 0.1929484 0.25881982 0.23002301 0.22283766
-0.2441364 0.13441381 0.1705439 0.14331238 0.15694052 0.18820539 -0.12508215 0.21232723
-0.086424306 -0.086400524 0.15810376 -0.14040461 0.15573952 0.20677201 -0.09297696 0.13293515
0.25021532 0.16133912 0.11291035 0.14543538 -0.14014703 0.22135912 -0.11178402 0.2647379
-0.11711877 0.17652799 0.24493966 0.26197854 0.23196274 -0.078040175 0.18852043 0.13421081
0.08023008 0.15753706 0.13150747 -0.04318452 0.24341671 0.20012918 0.25089815 0.24471061
0.15538386 0.13974297 0.1363608 0.114715785 -0.09746367 -0.054702997 -0.07395739 0.1616099
0.20032895 -0.1021371 -0.09021144 -0.16364037 0.13223675 -0.14601737 -0.116483696 0.20979814
0.19521675 0.17259024 -0.07031471 -0.1352764 -0.032001022 -0.109621726 -0.22158524 0.17361255
0.28737152 -0.035308477 0.19931032 -0.07862023 -0.07585905 0.08209731 -0.17731774 0.094463326
0.17241415 0.1655713 -0.02138953 0.24050097 -0.10659931 0.17635927 -0.043958563 0.16840364
0.24591228 -0.15370789 -0.10110887 0.16132964 0.26640734 0.17302494 -0.07393241 0.13726662
-0.18300192 -0.14669119 0.18551384 -0.0901044 0.0877765 -0.06523702 0.20247355 -0.19581856
0.22432908 -0.1719794 0.18241766 -0.020943414 0.21610145 -0.122523576 -0.11384091 0.1479811
-0.10177699 0.19385436 -0.104036905 0.11783969 0.19292259 0.16512184 -0.15673307 0.23021984
-0.19225095 -0.052898187 -0.06693276 -0.0073080217 -0.17418002 -0.07473639 -0.2358281 0.2048989
-0.19887142 -0.088025935 0.15809599 0.2184189 -0.09848042 0.22370887 -0.10890126 -0.08119311
-0.18915197 0.003964874 -0.13050535 -0.013196015 -0.059601087 -0.12863658 -0.07646818 0.21359837
-0.11225866 0.12364499 -0.15856732 0.19865309 0.24158217 -0.23357189 -0.10685841 -0.10163859
0.15478458 0.17081423 -0.05572065 0.19223419 -0.04619094 -0.09197685 -0.08523172 -0.09541095
0.11350513 0.15234292 0.24800935 0.21940666 0.20706569 -0.115452506 -0.08908166 -0.17271188
-0.1323316 -0.05988655 -0.17685501 0.13274083 0.15832688 0.21052447 0.15247247 -0.03011041
0.21677934 -0.11798262 -0.051283892 -0.046339802 -0.06875965 -0.13956572 -0.19761086 0.17711896

value_stream.0.weight f4 [256, 256]
00000000: 1116 66be f2b8 9bbd 4957 b8bd 1f2a 8abe
00000010: 4180 bdbd f260 c83c 9adf 52be 834a 5dbe
00000020: bca7 7fbe 6d59 8fbd 6176 8abe b9ec 59be
00000030: 2f1f efbd 0354 95bd 53d8 2fbe fe74 153d
00000040: a94f 20be 7f2b b6bc a2fd fdbd 8beb 09be
00000050: c311 ffbc efbb 18bd 6439 bcbd af42 713c
00000060: 177a 963d c5d3 66be 16f9 c7bd 6709 38be
00000070: 2348 733d db9a 56be 27a0 a5bd 9c1a a9bd
00000080: 6a97 62bd 8a8e 50be 48ad 84bd 4253 2cbe
00000090: 7bdd 8abd 41af 743c 1703 2cbc 286a 51be
000000a0: ca58 67be 113f 93be 4440 49be d991 fe3c
000000b0: 7ad2 49be 9c9d 82be 33e8 a8bd 3bfe ae3d
000000c0: f7fd 5f3d c2fe 21be 861d d2bd 8c3b daba
000000d0: bc94 27bd a357 1abe 07c4 96bd f819 113d
000000e0: 9fe2 97be 30f4 b4bd 87c6 3dba bf06 7f3d
000000f0: b725 b4bd b341 023c fa87 2cbe f734 303d
00000100: cb84 12bd 6c6e cabd 68a3 1dbd 29e4 35be
00000110: 4e51 e4bd 7800 1abe 2c3d ebbb 2ca6 913d
00000120: 7edf 0bbc 6c3d f4bd a6b0 5f3d 39bd b73c
00000130: 68cf 963d ecbc 6b3d 5722 babd 1cd3 523d
00000140: 24f9 1fbe bade 0e3c af67 2b3d 0ba0 e43c
00000150: bd63 80bd 82c9 f83c 45f3 c7bd c2d6 d3bc
00000160: 667b 07be 6b2a 22be b852 83bc 36c8 0dbe
00000170: 5e86 843c cb36 dabc 6a05 1cbe 6ed6 6abd
00000180: 7f85 0abe 10d6 083d 3fe2 1dbd afb9 e03c
00000190: e569 93be fd29 343d cfdb 4fbe a28b da3d
000001a0: 351a 08bd 9860 a93d 0bfe 643c 0cfa 2b3d
000001b0: 78dc 713c 947a 86bd 1583 10bc d8d4 0cbd
000001c0: f4c4 103d d92d 7c3d 2d2f 40bc 7b7c 713c
000001d0: 2f24 503b ea4c 883b 8c67 0cbe b1b6 77bc
000001e0: 8423 6d3c cbeb 1a3d 8199 8e3d f688 36bd
000001f0: 5ccf 7bbe 6106 23be ac31 bdbb 2e56 3cbd
00000200: fa4f 82bd fcef 80be e31f 2bbd c818 45be
00000210: ed13 863b eb74 17be dd0f 85bd 5a1e b83d
00000220: a283 3d3c 817d 923d c670 e1bc c86b cebd
00000230: 4666 a9bd fecb b4bd 9982 89be c33b 7fbc
00000240: 3259 d6bd 7e6d 80be 4b08 043d 6e04 d5bd
00000250: 88b0 11be dfd1 90bd b2e6 85be 720c a93d
00000260: 4ffe 9c3d 3f8d 4bbd f6d3 563d 7f2c 50bd
00000270: f711 4fbe cc5b cc3d ffc0 94bd 45df 5b3e
00000280: 24f9 66bd 3577 11be d5fd 1dbe 9f82 d2bc
00000290: 9702 a83d 54f7 763c d651 72be bea2 4d3c
000002a0: 48f7 99be 6c8f 84be 3897 953b ba7f 28be
000002b0: 5376 63bd bfeb d9bc 36c1 2bbd 2edf 4cbe
000002c0: 6520 9c3d 89fc 13be 4c14 4d3c dc5b 76be
000002d0: c2d2 c53d c6f8 20be 2193 3cbd e687 4abd
000002e0: 5542 09be d19d 2f3c 722f dbbd 4e2e 9fbd
000002f0: 559f d13c 0f11 92bd 5548 09be 87bd bcbd
00000300: 5ad3 dfbd 0524 49be 37cc 923d 7ad0 61be
00000310: 3ca2 29be 1a58 f1bd c528 38bc 6b1b a93c
00000320: 202d 2bbe b812 21be e22b 0bbd ae02 993c
00000330: c4d6 88be 5f1a 8cbd 0254 91bd ba5e c7bc
00000340: 69f3 7abe 5ae2 ebbc 19cd 03bd 7057 90bd
00000350: 7d86 b4bd ac7c 50be 896e 01be fca4 8e3d
00000360: 9c9c bebd 3a6d 723d adfe 64be b65f 583d
00000370: 6aef 3c3c fa9b a2bc abf1 a5bd 6148 59be
00000380: 076f 5a3d b8f7 823d b9af 09be eee2 93bd
00000390: 50a0 8bbc 0f55 03be 2157 04be 532d 2ebe
000003a0: c23e a2bb f154 98bd 99aa 22be a109 773a
000003b0: 15df 5cbb 6e79 d3bd 9e6e eebd 6755 42bd
000003c0: f737 e3bd ad58 b03d 38b1 24be 440a 033c
000003d0: 7d20 19bd 0c7a 8a3d 4cc1 1a3d 0e70 64be
000003e0: b073 023d 469b 2abe bf43 91be 9390 84be
000003f0: 3823 31bd a55e efbd cf26 21be bc9b f03b
-0.22469355 -0.07603635 -0.09001023 -0.2698526 -0.09252978 0.02446029 -0.2059311 -0.21610455
-0.2496633 -0.069994785 -0.2704344 -0.21281709 -0.1167587 -0.072914146 -0.17172365 0.036488526
-0.15655388 -0.022237537 -0.12401892 -0.13468759 -0.0311364 -0.037288602 -0.09190634 0.014725371
0.073475055 -0.22541721 -0.09764306 -0.17972337 0.059394967 -0.2095751 -0.08087187 -0.082570285
-0.05532018 -0.20366874 -0.06478363 -0.16828635 -0.06780525 0.014934362 -0.010498784 -0.20450652
-0.22592464 -0.28759053 -0.19653422 0.031075405 -0.19709197 -0.2551087 -0.082474135 0.08544584
0.05468556 -0.15819839 -0.102595374 -0.0016649826 -0.04091333 -0.15072493 -0.07361608 0.035425156
-0.29665086 -0.088356376 -0.0007239361 0.062262293 -0.08796256 0.007950234 -0.16848746 0.04301926
-0.035771172 -0.098843426 -0.038485914 -0.17762817 -0.1114832 -0.15039241 -0.007178923 0.07111773
-0.008537171 -0.11925778 0.054611824 0.022429096 0.07363778 0.057553217 -0.09088581 0.05147086
-0.15622383 0.008720094 0.041846927 0.027908346 -0.062690236 0.030369524 -0.09763197 -0.02585924
-0.13230667 -0.15836494 -0.016030654 -0.13845906 0.016177353 -0.026637455 -0.1523644 -0.057333402
-0.13527487 0.03340727 -0.038545843 0.02743229 -0.2879173 0.043985356 -0.20298694 0.10671164
-0.033228118 0.08270377 0.013976584 0.04198651 0.0147620365 -0.06566349 -0.008820315 -0.03438267
0.03534408 0.06156716 -0.011729998 0.014739151 0.0031759848 0.0041595595 -0.13711375 -0.015119241
0.0144738 0.037822526 0.06962872 -0.04456421 -0.2459082 -0.15920402 -0.0057737436 -0.045980625
-0.063629106 -0.25183094 -0.041778456 -0.19247735 0.004091731 -0.14790694 -0.06497166 0.08990164
0.011567028 0.07152844 -0.027519595 -0.100791514 -0.0827146 -0.08827971 -0.2685745 -0.015578213
-0.104662314 -0.25083536 0.03223447 -0.104012355 -0.14227498 -0.0707128 -0.2615257 0.08254327
0.07665693 -0.04969525 0.052448235 -0.050823685 -0.20221697 0.09978446 -0.072633736 0.2147189
-0.056389943 -0.1420563 -0.1542886 -0.02569705 0.08203619 0.015073616 -0.2366403 0.012551008
-0.30071473 -0.25890672 0.004565146 -0.16454974 -0.055532765 -0.02660167 -0.041932307 -0.20007011
0.07623366 -0.14451803 0.012517046 -0.24058479 0.096593395 -0.157199 -0.04603875 -0.04944601
-0.1340421 0.010718779 -0.10702409 -0.07772504 0.02558867 -0.0713216 -0.13406499 -0.09215837
-0.10928984 -0.19642647 0.07167857 -0.22052184 -0.16565794 -0.11784382 -0.011240189 0.020642957
-0.16716433 -0.15729797 -0.033977397 0.018678036 -0.26726353 -0.068409674 -0.07096101 -0.024337161
-0.24506916 -0.028794456 -0.03217802 -0.070479274 -0.08814714 -0.20360059 -0.12639822 0.06965062
-0.093072146 0.059186198 -0.22362776 0.052825652 0.01153169 -0.019849766 -0.08102735 -0.21219017
0.05332854 0.06394905 -0.13445939 -0.07221018 -0.017044216 -0.12825416 -0.12923862 -0.17009477
-0.004951329 -0.07438076 -0.1588539 0.0009423737 -0.0033702303 -0.10325895 -0.11642192 -0.047444727
-0.11094659 0.086106636 -0.16083229 0.007998053 -0.0373845 0.0676156 0.037782 -0.2230837
0.03184861 -0.16660795 -0.28372 -0.2589155 -0.043246478 -0.11687974 -0.1573746 0.0073427837

value_stream.0.bias f4 [256]
00000000: 32b9 0d3d 8d7e 813d bd45 b73d ee95 de3d
00000010: 36e5 1f3e d313 e63d dcc0 203e c709 e13d
00000020: 7f08 8f3c da04 53be 1b28 803e c404 89be
00000030: 4395 e13d 5e82 953e 253b 463e e4c9 5e3e
00000040: 0e5d 06be dff3 3a3e 0ad6 bd3c 97db 82be
00000050: b8ee 693d 6aab 143e ae14 a63d cd1f 1e3e
00000060: 9282 853e 2eff 2a3e 4130 a63d e287 ff3d
00000070: 2367 673e b92a 0d3e 5d30 703e 12ef aebc
00000080: 95d8 33be 5779 993d 99ed 143e 3c22 8a3d
00000090: e5b7 20bd 51ec 54be 119e 42bd 6b89 a23b
000000a0: e058 6cbe ccd0 a53e 36ba e23d d405 073c
000000b0: ff9d 31be ff8a 0d3e 14fd 1e3e e6d7 803e
000000c0: b10f 183e 3984 ee3d e5d2 923d a49a 81be
000000d0: 4fe9 103e 0e12 85bc f706 17be 7b7e 463e
000000e0: e36c f43d b116 e33d 58ea ca3d 82aa 0a3e
000000f0: 3da4 f9bb 4567 0a3e 9567 c73b e860 6f3e
00000100: 1dca 783d 948d 8b3d 0362 4d3e 0bd6 713d
00000110: 7840 253e f284 adbd a48c 513d ffaf 2b3e
00000120: 7312 693d aeb6 28be 7f51 f23d 2821 a63d
00000130: 9b48 703e ee5b 5fbe 93ac 083c 69eb 60be
00000140: e136 0d3e 97ce 9abe cefd e63d f199 663e
00000150: bcdc d33d c9d0 733d 4d40 30be a3d6 4f3e
00000160: 27cb 1abe a7de b53d bc63 893d f6ee 783d
00000170: 7a51 1f3e d094 12bd e5cd 60be c4dd 5d3e
00000180: c60d af3d 3fa5 7f3d 7198 d13c 8cbc 063e
00000190: a9cf 8e3d bf23 8cbd 0688 34be efaf 3bbe
000001a0: 8978 6d3e 414b 9c3e 4632 94bd d947 033e
000001b0: df36 0c3d 4f4b 2b3e a079 e73c 922a 34be
000001c0: fe37 11be 4efb 733d 6369 5b3d 0da9 ea3c
000001d0: 2e94 8c3d 1b44 1e3e a04d c9bc 372e 3ebe
000001e0: 4549 983e a3e1 173e d909 99bd bd67 103e
000001f0: ee9d 913d 8797 eb3d 28ca 03bd 7e0c 103e
00000200: 6f1b 443d b6d6 5a3e 995e 863e c238 3fbe
00000210: fd76 67be b093 053e 1184 683d 7497 af3d
00000220: 88aa 553e 1eb7 62be fac0 c33d fce2 443e
00000230: 3c6a 243e b92a 193e f9b3 663b 9482 ee3d
00000240: d09f 933d ca45 023e 41a1 593d 62ac e03c
00000250: ed79 0a3e a010 463d abd4 1d3e c185 9a3d
00000260: fbd3 2ebe e475 a73c 58e5 473d 22ac 99bc
00000270: 1808 0ebe aa5e 393e 8c17 05be f223 3c3e
00000280: add7 693d b91d 6e3d 522a 1a3e b67c 8dbe
00000290: 9527 3f3e 5664 793d d9b5 9a3d da4b 50be
000002a0: b5c0 57be def7 223e 510b 923d 40ea 183e
000002b0: 156c fe3d 2aff 193e 4c45 143e 6b30 253e
000002c0: 8524 353d b77b a23c b28e 763e 5317 043e
000002d0: 45a4 e23d 5c51 133e 1856 163d 6e86 c13c
000002e0: a411 5f3e ae2a 973e 9f3c 353d ba1e ae3c
000002f0: 1b5a 8e3e d11d ca3d b372 22be ade9 433e
00000300: 4bc4 cc3d 6ffb 843c 5945 323e 3753 f83d
00000310: 8a3f fbbd 06e6 123d c9d9 323e d473 3e3e
00000320: 1bd0 cd3d cd46 413d fcea ae3d 8788 183e
00000330: 98c8 46be 18c5 173d 1f5e 433d d070 5f3e
00000340: 218a 343e e5ea 9abb 8dbf 52be 3b78 af3d
00000350: 1ec2 5dbe b63d 963d 2491 013e a681 3fbe
00000360: 959c 293e c022 f73d 2372 033e 6a5f 2b3e
00000370: c092 173e c82d 30be e021 f73d e54a 473d
00000380: dcad 633e b752 053e 7556 7f3d cbd2 99be
00000390: bcea a73e e4da b53d ea0c 033d acbb 323e
000003a0: 4031 673d cf0e d83d 3082 16be f12b ee3d
000003b0: 7d61 103b d059 f03d 1d63 4a3d 57fe 0a3e
000003c0: 11c0 bb3d d325 213d f8da 223e 9cae 5a3d
000003d0: 8e1a c33d 368d 8abe d9fd 193e 26ce 66be
000003e0: 922c 47be aa1b 483d 5796 243e d11f 4e3d
000003f0: 3dcb 703e fcac bb3d 8c58 ef3d 4e4c dc3d
0.034600444 0.06322966 0.089488484 0.108684406 0.15614781 0.1123425 0.1569857 0.10988193
0.017460106 -0.2060732 0.25030598 -0.26761448 0.110147975 0.29201025 0.193585 0.21756703
-0.13121435 0.18257092 0.02317335 -0.2555816 0.057112426 0.14518514 0.08109413 0.15441819
0.2607618 0.16698906 0.081146725 0.124770895 0.22597937 0.13785829 0.23455949 -0.021354232
-0.17563088 0.07493847 0.14543761 0.06744811 -0.039237875 -0.20793273 -0.047514025 0.004960229
-0.23080778 0.32385862 0.11070673 0.008241136 -0.17345427 0.13822554 0.15526229 0.25164717
0.14849736 0.11646313 0.07169131 -0.25313294 0.141515 -0.01624396 -0.1474875 0.19384186
0.11934831 0.110883124 0.09907979 0.13541606 -0.0076184557 0.13515957 0.006085346 0.2337681
0.060739625 0.06814113 0.2005692 0.059042018 0.16137874 -0.08472623 0.051159516 0.16766356
0.05690236 -0.16475937 0.118319504 0.08111793 0.23465197 -0.21812412 0.008341926 -0.21964802
0.13790466 -0.3023574 0.11278878 0.22519661 0.10344836 0.059525285 -0.17212029 0.20296721
-0.15116559 0.08880358 0.06708476 0.060774766 0.15558425 -0.03578645 -0.21953543 0.21666628
0.08547549 0.06241345 0.025585385 0.13157862 0.06973202 -0.068427555 -0.17630014 -0.18328832
0.23190512 0.30526164 -0.072361514 0.12820376 0.034232017 0.16727947 0.028256238 -0.17594364
-0.14181516 0.059565835 0.0535673 0.028645063 0.068642005 0.15455668 -0.024573147 -0.18572317
0.297434 0.14832167 -0.074725814 0.14102073 0.07110201 0.11503511 -0.032175213 0.14067265
0.047877725 0.21370968 0.26244047 -0.18673995 -0.22603984 0.1304462 0.056766573 0.08573809
0.20865834 -0.22140166 0.09558292 0.19227213 0.1605615 0.14957704 0.0035202487 0.116459996
0.07208216 0.12721935 0.0531323 0.027425949 0.13523073 0.0483557 0.15413158 0.07545043
-0.17073052 0.020441957 0.048802704 -0.018758837 -0.13870275 0.18102518 -0.12997264 0.18373087
0.05709045 0.058133814 0.15055206 -0.2763421 0.18667443 0.060886703 0.07554216 -0.20341435
-0.21069606 0.15914866 0.07131065 0.1493311 0.12422959 0.15038744 0.1447956 0.16131751
0.04422428 0.019834382 0.24077871 0.12899522 0.11066488 0.14386505 0.0367032 0.023623671
0.21784073 0.2952475 0.044247266 0.021254886 0.2780312 0.09868968 -0.15864067 0.19132109
0.099983774 0.016233174 0.17409267 0.12125247 -0.122679785 0.0358639 0.17465891 0.18598872
0.100494586 0.04718666 0.085409135 0.14895831 -0.19412458 0.037053198 0.047697183 0.21820378
0.17630817 -0.0047277086 -0.20580883 0.08567854 -0.21656081 0.07335989 0.12653023 -0.187018
0.16563638 0.12067175 0.12836508 0.16735616 0.14802074 -0.17204964 0.12067008 0.04865541
0.22234291 0.13019834 0.06233831 -0.30043635 0.32796276 0.08879641 0.031994738 0.17454404
0.056443453 0.105496995 -0.146981 0.11629475 0.0022030764 0.117358804 0.049410928 0.13573585
0.09167493 0.039342713 0.15903842 0.053389177 0.09526549 -0.2706086 0.15038241 -0.22539577
-0.19450596 0.048854508 0.16072975 0.05032331 0.23515029 0.091638535 0.11686811 0.107567415

value_stream.2.weight f4 [1, 256]
00000000: b901 3fbe d8c0 07bf b6ee 17be 1320 28be
00000010: e627 18be 4127 27be 93bc 31be 1217 03bf
00000020: 332f c33d 9927 863e 88ce 0fbe 5db8 473e
00000030: 138a 26be 47b5 2bbf 52fc 05be 42b5 0cbe
00000040: 2e21 9d3e a97b 17be da18 113e 025f 503e
00000050: 6a72 d43d b9df 54be 41b9 06be 2e94 24be
00000060: f802 83be 0ed9 29be f172 2dbe 8943 41be
00000070: 52d5 4fbe 9e20 f8bd af44 06be 25b8 813d
00000080: 4bc9 7e3e c240 c03d 0f88 cebd 2226 1cbe
00000090: 3890 523d 8139 5a3e 3c21 943d 5226 603e
000000a0: 6438 583e 2ee6 21bf bb16 ebbd 62f4 343e
000000b0: 4894 623e 51dd 01be 4145 2fbe f013 0cbe
000000c0: 7abb 78be 3009 17be e3ad 673d a035 453e
000000d0: d17e 79be ccbb a33d bf36 483e 8b06 07be
000000e0: feaa 49be b837 16be 104c fb3d d790 c43d
000000f0: c6b5 803e e209 fbbd 25a5 943e d31f 07be
00000100: 73cd 3b3e 07ff 533e 91ee eebd 77c8 43be
00000110: 8f2d 54be ffcc 843e 65a5 f63d 9972 46be
00000120: cfcd 023e dc82 803e 88fe 2bbe 1d0d eebd
00000130: 70e0 09be db70 553e 5f15 653e 53cf 6d3e
00000140: f887 12be 85e2 583e 4846 11be e88f 06be
00000150: f223 17be e789 1abe 4bc7 813e be83 27be
00000160: 6388 593e 5362 0bbe f0c8 14be 2dd4 3bbe
00000170: ce88 0dbe 7da9 a03d bee4 663e 9c2c 00be
00000180: a991 0dbe 5fc4 e03d ce20 283e 3860 19be
00000190: 7b7f 33be 3c14 593d 00b0 733e b30b 673e
000001a0: 70fb 09be 5c95 c4be 7fcc d73d 18c1 17be
000001b0: 8e5f 033e bc2b 0fbe 02c1 7f3e a29d 3f3e
000001c0: d842 7f3e f25f 073e e193 4e3e 7433 bc3b
000001d0: 871e 613e 4657 21be d1c2 093e 4fc4 603e
000001e0: 367f 89be 3c41 11be 3d7b dd3c f8a1 f4bd
000001f0: 4307 843d 1da8 11be a7e1 6f3e 153a 06be
00000200: 0726 6b3e 0bce 53be 972a 21bf bf5a 503e
00000210: 1707 543e 396e 18be 71d3 1a3e 7d64 d9be
00000220: cb3d 37bf ad11 633e c720 f4be e90c 39be
00000230: 3bce 25be d332 f8bd b9ca 223e 91d0 fdbd
00000240: dbcc ee3d 5868 0cbe 8c70 f9bd 8dae b83d
00000250: b6f1 14be 88f4 19be 4c9a cfbe 34ed 8b3d
00000260: db00 833e 773d db3c 3542 733e 98f7 3f3d
00000270: 0afa 6a3e dfcd 1ebe c347 623e 0109 10be
00000280: 53a6 1f3e 9e64 a33d a37e 5cbe c755 4d3e
00000290: 8906 03be 39d7 4bbe d5dd 20be f091 6a3e
000002a0: 8d3b 343e 7daa 29be baa7 0ebe 4aec 34be
000002b0: 5469 11be 85ae f7bd 3dcd 31be 768d 1abe
000002c0: 1ed7 593e 03c1 0f3e 3682 12be 52a4 fbbd
000002d0: f455 ffbd 7e4b 42be 38e5 db3d 2eeb 693e
000002e0: 718d 04be 1f33 1cbe 8607 14be eff5 273e
000002f0: 8231 03be bc9f d5bd 7b40 823e 1516 0cbe
00000300: 16d3 143e ba34 0d3d 4f20 1bbe dd09 1cbe
00000310: f1c7 893e c860 553e 8f6a 04be bf14 36be
00000320: 0fc0 2abe 4aa6 363e dd06 7b3e 64cd 13be
00000330: f8a5 473e 8212 16be 00e0 2cbe 6da6 e4be
00000340: 26b1 e3bd 5eda 8a3d b1c5 633e 7e96 e43d
00000350: 2ac1 5f3e 1371 1ebe 2b8b 25be 4f69 663e
00000360: 0548 06be d2a1 1cbe 80a7 27be 8211 15be
00000370: bb65 ffbd b541 653e 0bee f9bd 9428 033e
00000380: cc90 4fbe 360b 24be 881d a73d 6b64 5d3e
00000390: e8f8 0fbe 23da 923d 81da 3f3e 5bb9 0bbe
000003a0: 0d90 0cbe 4db6 28be 6400 753e 0768 fcbd
000003b0: 7dc2 983d ca47 09be 8591 193e db19 02be
000003c0: 3ae5 10be 9637 ac3d 2b37 07be d205 873d
000003d0: 28f0 143e b90d 553e 4f3d 51be 66a1 5d3e
000003e0: b0d8 7a3e 2672 743d 7e43 04be c35d 533d
000003f0: 2c3d 08be 286f 16be 01fa 28be fa2c 32be
-0.18653001 -0.5302863 -0.14837155 -0.16418485 -0.1485897 -0.16323568 -0.17357092 -0.5120708
0.09530487 0.26202086 -0.14043629 0.19503923 -0.16263609 -0.6707348 -0.13084534 -0.1374102
0.30689377 -0.14793266 0.14169636 0.20348743 0.10373385 -0.20788468 -0.13156606 -0.16072151
-0.25588202 -0.16586706 -0.16938378 -0.18873419 -0.20296219 -0.12115596 -0.13112138 0.06333951
0.24881475 0.093873516 -0.10084545 -0.15248922 0.05140707 0.21310998 0.072329015 0.21889618
0.21115261 -0.6324185 -0.11478945 0.1767135 0.22126877 -0.12682082 -0.17116262 -0.1367948
-0.24290267 -0.14749599 0.056562316 0.19258738 -0.24364783 0.07994804 0.19552134 -0.1318609
-0.19694135 -0.14669693 0.12270367 0.095979385 0.25138682 -0.12257744 0.29032245 -0.13195734
0.18340091 0.20702754 -0.11666597 -0.1911944 -0.20720504 0.2593765 0.12043265 -0.19379653
0.12773822 0.25099838 -0.16796315 -0.11623595 -0.13464522 0.20843832 0.22371434 0.23223619
-0.1430968 0.2118016 -0.14186966 -0.13140833 -0.14759806 -0.15091668 0.2534736 -0.1635885
0.21243434 -0.13611726 -0.14529777 -0.18342657 -0.13821718 0.07844827 0.22548196 -0.12517017
-0.13825096 0.10974955 0.16418764 -0.14978111 -0.17529099 0.052997813 0.23797607 0.22563057
-0.13474822 -0.38395202 0.105370514 -0.14819753 0.1282942 -0.13981527 0.2497597 0.18712476
0.24927843 0.13220194 0.20173599 0.0057434384 0.21984302 -0.15755948 0.13453223 0.21949886
-0.26854867 -0.14185041 0.027036304 -0.119449556 0.064466976 -0.14224286 0.23425923 -0.13108094
0.22963725 -0.20684068 -0.6295561 0.20347117 0.2070583 -0.14885797 0.15119721 -0.4245948
-0.71578664 0.22174712 -0.47681257 -0.18071331 -0.16191952 -0.12119069 0.15897645 -0.123932965
0.11660167 -0.13711679 -0.1217967 0.09017668 -0.1454533 -0.15034688 -0.40547407 0.06832352
0.2558659 0.026762707 0.23755725 0.046866983 0.22946945 -0.15508221 0.22097687 -0.14065935
0.15590791 0.079781756 -0.21532683 0.20052253 -0.12795462 -0.1990632 -0.15709622 0.22907233
0.17600842 -0.16568942 -0.1393117 -0.17668262 -0.14200336 -0.12093834 -0.17363448 -0.15093026
0.21273467 0.14038472 -0.14307484 -0.12287201 -0.12467566 -0.1897411 0.107370794 0.2284362
-0.1294458 -0.15253876 -0.14455995 0.1640241 -0.12811854 -0.104308575 0.2543982 -0.13680299
0.14533648 0.034474112 -0.15149044 -0.15238138 0.26910356 0.208377 -0.12931274 -0.17781352
-0.16674827 0.17836872 0.24514337 -0.14433819 0.19496906 -0.14655498 -0.16882324 -0.44658223
-0.11117773 0.067799315 0.22243382 0.111615166 0.2185103 -0.15472822 -0.1616637 0.2250111
-0.13113411 -0.15296105 -0.1637249 -0.1455746 -0.124705754 0.22388346 -0.12203606 0.12808448
-0.2027008 -0.16019902 0.081599295 0.21620338 -0.14059794 0.071705125 0.18735696 -0.13644926
-0.13726826 -0.16475792 0.2392593 -0.12324529 0.07458971 -0.13406292 0.14996918 -0.12705176
-0.14149943 0.0840904 -0.13204639 0.06592907 0.14544737 0.20806016 -0.20433544 0.216436
0.24496722 0.059679173 -0.12916371 0.05160309 -0.13304585 -0.1469084 -0.16501619 -0.1739997

advantage_stream.0.weight f4 [256, 256]
00000000: 3d8b babc 3cbc c4be d003 273d 14fe 483d
00000010: 2710 b13d 68de 4b3d b29d 34bc 1e00 b3bc
00000020: 7f51 68be c04b 503d 2a44 c43c 5926 013d
00000030: c779 36bc 4cdd 343d 745d 423b f3f2 96be
00000040: c18b 863d c235 d7bd fa0d 0b3e 7f43 cebd
00000050: c9d5 e9bd 5010 92be e05e 4c3c ee85 cebd
00000060: d4fa 73be 6e84 fcbb 4656 b2be 502f b73c
00000070: 9873 423d 2b66 bd3c ff6f 8bbe e065 223d
00000080: cf9c 943b f29e 40be 9482 01be 379e 26be
00000090: d7f6 48be 7364 3abc 778f 9ebe 6737 c63d
000000a0: ff50 0abe a9a2 4a3d 85b1 253d e801 95be
000000b0: 631b f7bd 227f 7cbe cca8 c6be 71fc bdbd
000000c0: 15ce 83be 519c 7fbe 0961 af3c 9fa9 0f3e
000000d0: 4372 62bd 7698 af3d 8afc a8be b283 b2be
000000e0: e3f1 873d 10f8 a53d f635 163c ae95 8bbe
000000f0: a8b0 dfbe 69ea 32be 5f0f 0b3d d023 d1bd
00000100: 122d 243d ee81 b43b ad7d 0bbe f9a3 f4bd
00000110: f4d0 4fbe 75e2 4a3c 10e2 5fbd 8802 823c
00000120: c6d2 92be 51e3 ffba 5ce6 90be d69b 95bd
00000130: 4322 b5be 4325 9fbe 143a 58be 65c6 acbe
00000140: 7dd0 c93c e81d 08be e22c a4bc e609 81be
00000150: 0664 14be 295e a0be 6f54 d13d e4c0 87be
00000160: 1ffe 113d 88d6 6bbe e874 593e 90c3 17be
00000170: 6fd8 60bd 2cc4 26be 611b 793d 8647 853d
00000180: 0476 2abe 4535 c5be fc76 87be 2353 7dbe
00000190: f711 1cbc 819c 6dbe 3a05 973c 59ed 8ebe
000001a0: a869 be3d 23b5 45be d4e4 44be 65b9 32be
000001b0: 2972 a0be 955e 863d d387 8bbe 01da 30be
000001c0: a8b9 51be 4c68 97be e845 aabc aec2 2dbc
000001d0: 7622 92be 176c 23be 236e 8cbe bc2a ccbe
000001e0: 51e8 92be 851b 29be 525c 91be 20c0 313e
000001f0: 0c6b f03d f52e 0c3e 96ac 47be e4cc 553d
00000200: ef5c abbd 598f 0c3d d9b2 c0be d550 3f3d
00000210: c951 a4be 1725 1c3d e7af 9abe 664b 153d
00000220: a0bf 85be 6bf3 92be 5dc1 bcbe df25 c43c
00000230: d2f0 fc3d d494 bcbe 0427 0fbd 1ed1 76be
00000240: 8f05 b3bd ccb8 f73b 24ae 68be 868b fbbc
00000250: 78be d6be ad8b 81be cdb4 3f3d 9208 44bd
00000260: f800 1abd 73a9 11bd 8f03 f63d 464a 89be
00000270: f43d 3abe 78ea 49be 7eec e0be a682 303e
00000280: ce70 96be 017c 493c 878d 4ebd 3349 adbe
00000290: 9949 b1be 8f65 8fbd 684e d33c 7321 1ebe
000002a0: da12 703d 971e 89be bbf2 8dbd 6d41 d0bc
000002b0: 21c6 31be dd1c c8be 6adc dcbd dfa3 9f3c
000002c0: 42a9 a4be c273 1d3d 485e 88be a24a 05bb
000002d0: 47f2 85be 5c10 573d a9ad eebc 2bcc f6bd
000002e0: 932b a43d d0f8 bcbc 1d7a 2b3d 49d0 80be
000002f0: 8bd6 403d 6422 67be 6115 d63c f75f 63be
00000300: 886d 57bc 566f 77be 0360 21bc bf73 8b3d
00000310: e093 2d3d ad3d b73d d56a 403d a715 fdbb
00000320: 64f4 62bb 655e 513d b43e a43d 2aaa 09be
00000330: b4b7 633b ff7c 83be 977e b9be 9efc babb
00000340: 5019 9fbc 10c6 463c df76 c4be e795 c43b
00000350: f62e 2bbe a3a1 833b 701e 3fbb d3fa c1bb
00000360: b8a1 ae3d c99f a7be 7137 85bd 325b c73d
00000370: fe09 91be d578 febc 05af 70be 7674 933d
00000380: dcdf d2be 88b0 a5bd ef7c 0f3a 7f5a 56be
00000390: 5a6b f0be 1751 c13d c02e b93d 3c85 9f3d
000003a0: b1ba 32be ecfd ca3d efdb 04be be00 11be
000003b0: cd54 b3bc 29f4 8bbe 05e2 f4ba 7337 9cbe
000003c0: a0cb b23d 0692 6dbd 735d e63d 2126 6abe
000003d0: 3271 52be 8952 5cbe 14b1 4fbe f198 883c
000003e0: de50 513d f445 0fbc 6fa0 433b 6c24 143d
000003f0: ee81 e73c b61a e4be 408f 9d3d 2dfd 6dbe
-0.022771472 -0.3842486 0.04077512 0.049070433 0.08645659 0.04977265 -0.011023926 -0.021850642
-0.22687338 0.05085349 0.023958284 0.03153071 -0.011137432 0.044156358 0.0029657753 -0.2948223
0.06569625 -0.105083 0.1357955 -0.100714676 -0.114177294 -0.2852807 0.012473792 -0.10084139
-0.23826152 -0.0077062165 -0.34831446 0.022361428 0.04747352 0.023120007 -0.27233884 0.039647937
0.0045352946 -0.18810633 -0.12647468 -0.16271292 -0.19625412 -0.011376488 -0.3096883 0.09678536
-0.1350746 0.04947153 0.0404525 -0.29103017 -0.120657705 -0.24657872 -0.38800657 -0.09276665
-0.25743166 -0.24961974 0.021408575 0.14029549 -0.05528475 0.085740015 -0.33005172 -0.348661
0.06637933 0.08103955 0.009168139 -0.27262634 -0.43689466 -0.17472233 0.033950206 -0.10211909
0.040082045 0.005508653 -0.1362216 -0.11945338 -0.20294553 0.012383093 -0.05465895 0.015870348
-0.28676432 -0.0019522702 -0.2830075 -0.07305114 -0.35377702 -0.31083116 -0.21115905 -0.33745113
0.024635548 -0.13292658 -0.020040933 -0.25202864 -0.14491281 -0.31321838 0.102211826 -0.2651435
0.03564274 -0.23031056 0.21236002 -0.14820695 -0.054893907 -0.16285771 0.060817126 0.06507783
-0.16646582 -0.38517204 -0.26457965 -0.24738745 -0.0095257675 -0.23204233 0.01843511 -0.27915457
0.09297496 -0.1930738 -0.19227916 -0.17453535 -0.31337097 0.06561009 -0.27252063 -0.17270662
-0.20480978 -0.2957176 -0.020785287 -0.010605497 -0.28541917 -0.15959202 -0.27427778 -0.39876354
-0.28692868 -0.16514404 -0.28390747 0.17358446 0.117391676 0.13689788 -0.1949943 0.052197352
-0.08367335 0.034316394 -0.3763645 0.046707947 -0.32093647 0.03812131 -0.30212328 0.03644886
-0.2612276 -0.28701338 -0.36866274 0.02394384 0.1235062 -0.36832297 -0.034949318 -0.2410321
-0.087412946 0.0075598713 -0.2272268 -0.030706178 -0.4194219 -0.25301877 0.046803284 -0.047859736
-0.03759858 -0.03556199 0.120123975 -0.2681448 -0.18187696 -0.19718349 -0.4393043 0.17237338
-0.29382938 0.012297631 -0.05042794 -0.3384491 -0.34626463 -0.07001793 0.025794223 -0.15442447
0.05861173 -0.2678115 -0.06931063 -0.025421822 -0.17360736 -0.3908452 -0.10784228 0.01948732
-0.32160383 0.038440473 -0.2663443 -0.0020338674 -0.26161405 0.052505836 -0.029135542 -0.12050661
0.080161236 -0.023067862 0.041864503 -0.2515891 0.047079604 -0.22571713 0.026133241 -0.22204576
-0.013148673 -0.24163565 -0.009849551 0.06809186 0.042377353 0.089473106 0.046976883 -0.0077235284
-0.0034630531 0.051115412 0.08019772 -0.13443819 0.0034746947 -0.25681302 -0.36229393 -0.005706384
-0.01942125 0.012132183 -0.3837194 0.005999315 -0.16717133 0.0040170713 -0.002916243 -0.005919793
0.08526939 -0.32739094 -0.06504715 0.09734191 -0.28327936 -0.031063477 -0.23504265 0.071999475
-0.41186416 -0.08090311 0.00054736336 -0.20932959 -0.46956903 0.09439295 0.0904212 0.07789084
-0.1745403 0.09911713 -0.12974523 -0.1416044 -0.021891022 -0.27334717 -0.0018683082 -0.30511054
0.08730245 -0.058000587 0.11248293 -0.22866108 -0.20550993 -0.2151586 -0.20282394 0.01667449
0.05110251 -0.0087447055 0.0029850265 0.036167547 0.028260197 -0.4455163 0.076933384 -0.2324111
