active_slam_rl/training_output_frontier/20260124_140852_frontier/d3qn_frontier_ep1020.pth (torch, 901954 bytes, 11 tensors)

feature.0.weight f4 [256, 100]
-0.15263422 -0.11968102 -0.09014083 -0.1946541 -0.14290653 -0.20657627 -0.19426638 -0.2672019
-0.14525016 -0.2593191 -0.10335841 -0.21965201 -0.1362474 -0.14787501 -0.18339485 -0.21568665
-0.17197087 -0.23330708 -0.26062867 -0.10030431 -0.17477216 -0.15990321 -0.17553337 -0.13411495
-0.16559924 -0.11889903 0.021078242 -0.13314852 -0.021832936 -0.13551837 -0.06175637 -0.12733246
-0.08079708 -0.037821993 0.028111866 -0.16669486 0.022241393 -0.14907582 -0.09003723 -0.18486291
0.0046938015 -0.0029312714 -0.15337117 -0.06418233 -0.060920294 -0.091169365 -0.112227365 -0.14344127
-0.30298942 -0.31054965 -0.38409847 -0.44544545 -0.37602735 -0.32310635 0.13325156 0.059443846
-0.14059757 -0.14363062 -0.13033266 0.14097838 0.16662848 0.15371385 0.16495658 -0.013114398
0.118709564 0.038538963 -0.09541996 0.06517784 0.14385927 0.052571535 0.07869698 0.10656981
0.04690298 -0.0053345975 -0.019299755 0.0889787 -0.015839228 0.22008047 0.09694671 0.0671677
-0.026737267 -0.09802732 -0.057520248 -0.069681026 -0.0950239 -0.11662071 0.01306611 -0.07999451
-0.022575539 0.027529491 -0.14973857 -0.048356008 0.006738272 -0.122887775 -0.06989789 -0.14646667
-0.13697451 0.070815384 -0.023037631 0.082656495 0.0914586 0.06307386 0.10742854 0.050370067
-0.05395444 0.14556381 0.09905149 0.13224313 0.04690002 0.083323985 0.14516304 0.04364396
0.2092862 0.16890794 0.0011569322 0.07339502 -0.05324969 0.20046215 0.100412376 0.16368352
-0.04574417 -0.10057991 -0.016675094 -0.107188165 -0.06231974 -0.00941075 -0.08491676 -0.06891823
-0.10947485 -0.1559474 -0.17705569 -0.10686553 -0.16047317 -0.16157024 0.014450953 0.088887386
0.14010313 -0.04150677 0.15059042 0.21413848 0.12393868 0.11289198 0.11878063 0.15453027
0.22963299 0.13051084 -0.050779853 -0.03579362 0.022975655 0.013631559 -0.012608667 0.1617513
0.06725455 0.0015553391 0.00017008233 0.00811097 0.099585876 0.068565026 -0.009395278 -0.1622852
-0.08245843 -0.098768465 -0.3889899 -0.40449166 -0.548309 -0.4478921 -0.7374479 -0.9229248
-0.72675425 -0.9415317 -0.8683 -0.69480014 -0.6764623 -0.68535876 -0.5868839 -0.8824271
-0.8255156 -0.5504139 -0.8077592 -0.6318275 -0.52354664 -0.689888 -0.41169932 -0.68878764
-0.6737381 -0.5715049 -0.62926817 -0.6207075 -0.5397369 -0.3618921 -0.3299023 -0.41413388
-0.14465879 -0.19234064 -0.20082124 -0.13782507 0.028984189 0.028967649 0.11703062 0.23371743
0.051205926 0.12830406 -0.067514785 -0.017528076 -0.017015368 0.052039422 0.09132625 0.27207935
0.098431446 0.178612 0.13922411 0.14155631 0.27138904 0.2119521 0.25022918 0.17692722
0.2195066 0.018247917 0.20603754 0.013070006 -0.14580004 -0.104322106 -0.2534845 -0.20797458
-0.12062349 -0.053301044 -0.20180845 -0.27390066 -0.24752273 -0.24466117 -0.3210819 -0.110015124
-0.04741353 -0.15130101 -0.06440828 0.086648375 0.17084031 0.11037752 0.28098148 0.14760464
0.18071197 0.048745316 0.18033588 0.08149369 0.18208829 0.118985206 0.27815813 0.13377617
-0.11636848 -0.23952818 -0.13086763 -0.17920797 -0.15041043 -0.18698947 -0.12402295 -0.049560048
00000000: 254c 1cbe 531b f5bd c19b b8bd 6853 47be
00000010: 1756 12be bb88 53be c4ed 46be b0ce 88be
00000020: 75bc 14be 79c5 84be 93ad d3bd 75ec 60be
00000030: 7084 0bbe 8c6c 17be dccb 3bbe f6dc 5cbe
00000040: 2219 30be 0de8 6ebe 1f71 85be 596c cdbd
00000050: 79f7 32be abbd 23be 05bf 33be 6e55 09be
00000060: d992 29be 5681 f3bd 47ac ac3c 1658 08be
00000070: fcda b2bc 54c5 0abe 3ff4 7cbd 7163 02be
00000080: f178 a5bd 3ceb 1abd db4a e63c 0fb2 2abe
00000090: 9533 b63c 55a7 18be 7065 b8bd b44c 3dbe
000000a0: 76ce 993b 931a 40bb 550d 1dbe 0772 83bd
000000b0: 8f87 79bd 01b7 babd 76d7 e5bd 45e2 12be
000000c0: 6e21 9bbe 5d00 9fbe 8ea8 c4be 6d11 e4be
000000d0: a886 c0be 326e a5be 1973 083e 647b 733d
000000e0: cff8 0fbe e813 13be ed75 05be a35c 103e
000000f0: a8a0 2a3e 2a67 1d3e 61ea 283e c6dd 56bc
00000100: 001e f33d 08db 1d3d 8a6b c3bd f67b 853d
00000110: d84f 133e 4055 573d e22b a13d 4641 da3d
00000120: 571d 403d d9cd aebb 851a 9ebc 773a b63d
00000130: 45c1 81bc c65c 613e ff8b c63d 388f 893d
00000140: 1d08 dbbc 8cc2 c8bd 5a9a 6bbd edb4 8ebd
00000150: e49b c2bd d7d6 eebd 3d13 563c 29d4 a3bd
00000160: 56f0 b8bc 8785 e13c 1155 19be f310 46bd
00000170: b9cc dc3b 96ac fbbd a026 8fbd 5cfb 15be
00000180: 0c43 0cbe a807 913d 6ab9 bcbc cf47 a93d
00000190: a54e bb3d de2c 813d 7f03 dc3d d850 4e3d
000001a0: 55ff 5cbd ae0e 153e 82db ca3d be6a 073e
000001b0: 3c1a 403d c4a5 aa3d 9fa5 143e 02c4 323d
000001c0: 1f4f 563e 34f6 2c3e 34a4 973a 2150 963d
000001d0: 591c 5abd f345 4d3e 01a5 cd3d a79c 273e
000001e0: 3d5e 3bbd d7fc cdbd 359a 88bc 7885 dbbd
000001f0: fc42 7fbd 8c2f 1abc d7e8 adbd 0025 8dbd
00000200: 5a34 e0bd adb0 1fbe 164e 35be 51dc dabd
00000210: 1453 24be ab72 25be b1c3 6c3c 970a b63d
00000220: 3277 0f3e 0103 2abd 6034 1a3e 1e47 5b3e
00000230: 90d3 fd3d e933 e73d 4243 f33d 2f3d 1e3e
00000240: e924 6b3e a2a4 053e 89fe 4fbd 559c 12bd
00000250: 7137 bc3c e756 5f3c 9594 4ebc 22a2 253e
00000260: c1bc 893d 85dc cb3a 2158 3239 e0e3 043c
00000270: aef3 cb3d d26b 8c3d a7ee 19bc 172e 26be
00000280: f7df a8bd 1f47 cabd af29 c7be 8819 cfbe
00000290: fb5d 0cbf 1d52 e5be 63c9 3cbf cd44 6cbf
000002a0: 910c 3abf 3908 71bf e948 5ebf 6cde 31bf
000002b0: a22c 2dbf ac73 2fbf 063e 16bf bee6 61bf
000002c0: fe54 53bf ede7 0cbf 4fc9 4ebf 72bf 21bf
000002d0: 2707 06bf 809c 30bf 41ca d2be 6354 30bf
000002e0: 1a7a 2cbf 254e 12bf b817 21bf b0e6 1ebf
000002f0: 332c 0abf ec49 b9be f4e8 a8be 5b09 d4be
00000300: 6f21 14be f2f4 44be 15a4 4dbe 0422 0dbe
00000310: 4070 ed3c 904d ed3c c0ad ef3d 9f53 6f3e
00000320: 4ebd 513d 2462 033e 3145 8abd 0a97 8fbc
00000330: d063 8bbc 4a27 553d 4209 bb3d fc4d 8b3e
00000340: 6d96 c93d 10e6 363e c490 0e3e 23f4 103e
00000350: 81f3 8a3e f909 593e 0a1e 803e 692c 353e
00000360: 57c6 603e a87c 953c 81fb 523e 9423 563c
00000370: 9b4c 15be d4a6 d5bd b8c8 81be 4af7 54be
00000380: 7309 f7bd 3252 5abd e0a6 4ebe b53c 8cbe
00000390: 9976 7dbe 7588 7abe d964 a4be 9c4f e1bd
000003a0: b134 42bd a7ee 1abe 7de8 83bd b474 b13d
000003b0: c3f0 2e3e 9c0d e23d cedc 8f3e ac25 173e
000003c0: 8f0c 393e 2ba9 473d f8a9 383e 2ae6 a63d
000003d0: 5a75 3a3e 84ae f33d be6a 8e3e 9ffc 083e
000003e0: 9952 eebd e046 75be 2a02 06be 4b82 37be
000003f0: 3105 1abe 2b7a 3fbe bfff fdbd 7aff 4abd

feature.0.bias f4 [256]
0.30882296 0.49475193 -0.13968742 0.101553515 -0.5802135 -0.13300534 0.26556972 0.30452764
0.76806384 0.4706583 -0.43143654 -0.12923113 0.45648035 0.18271182 -0.35831773 0.18044472
-0.15581556 0.446929 0.061081734 -0.5387932 0.27527905 -0.12108112 -0.6839846 0.30066222
-0.9424651 -0.60198283 -0.32957533 0.16599421 -0.39559603 0.46006918 0.041815955 -0.9806768
-0.15735085 -0.46599236 0.018185852 -0.70514315 -0.08893999 0.40790454 0.20500703 0.6799731
0.076481916 -0.02000103 0.060823858 0.031169664 -0.7061609 -0.19421732 -0.53381115 -0.3274705
0.53009397 0.31206146 -0.099659376 -0.23569934 -0.038413793 0.14626832 0.03571715 0.05460187
0.13474475 -0.29935277 0.17660171 0.08786473 -0.17129627 0.17173365 -1.0021961 0.34598202
0.6541602 0.2807634 -0.10807743 0.5667139 -0.4290019 -0.4478413 -0.32573843 0.23429234
0.21725985 -0.33696684 -0.3285445 -0.14684246 -0.056940388 -0.22713089 -0.068432786 0.55660266
0.7637047 0.10112484 0.45918223 -0.107240394 0.51410604 -0.31568715 0.05722208 0.22923252
0.010490367 0.45612624 0.8600858 -0.36299354 0.052228995 -0.15883179 0.7426952 0.3414312
0.1660845 0.88049984 0.14271395 -0.2770597 0.5679269 0.19260103 -0.38758373 0.22563271
0.63140345 0.61972374 0.24940926 0.5576302 0.120966606 -0.16193332 -0.40749156 -0.23688103
-0.19801156 0.7059328 0.2326921 -0.31906018 -0.08715695 -0.60292584 0.59838784 -0.19624133
-0.48986858 -0.1008178 0.025309378 -0.5065343 0.41296592 0.18752155 0.69887644 -0.14912139
0.062179063 0.6266469 0.16469723 -0.05633261 0.27023742 -0.33621344 0.37795737 0.36350667
0.32972136 0.5348999 0.17642811 -0.32811418 0.68779385 -0.102306746 -0.81384426 -0.48546803
0.36190072 0.81638426 0.052011754 0.039397538 0.3902165 -0.5835946 0.46301532 -0.72371346
0.5330538 -0.2071431 0.6591665 0.9337 0.5650675 0.060636967 0.12916392 0.03839369
-0.10232451 0.40055755 0.25386578 0.65495867 -0.0017881398 -0.20559551 -0.0032184965 -0.1936997
0.4596996 -0.15264092 0.45280537 0.13716799 0.09304285 0.065234184 0.46686655 -0.54898405
0.12900813 -0.22142027 -0.09683069 0.22989053 0.49708807 0.16526623 -0.4360299 -0.5345383
0.3875999 -0.3986487 -0.022538062 -0.58562636 0.060847137 0.32647556 0.7845178 0.04607942
-0.33928597 -0.18052405 0.41666743 -0.22855084 0.3161278 0.22430295 -0.2208058 -0.3957892
-0.02863916 -0.46311632 -0.39233863 -0.19911781 0.3483663 -0.37861064 0.7460366 0.046711802
0.6428632 0.25760975 0.36882558 -0.4381449 0.13191864 0.17501971 -0.29585913 -0.28569338
0.55256724 -0.34830496 -0.30024254 0.10291817 0.5612179 0.88511115 -0.27607262 0.45781952
-0.14719442 0.48565596 0.1442956 0.43608364 0.13769358 0.36124995 0.5532245 -0.2917365
0.06736604 0.025512177 -0.40704587 -0.1516552 -0.31852818 -0.3344819 0.07783994 -0.11468078
0.66657466 0.44903773 -0.04683489 -0.35789338 0.05254439 0.01950983 -0.17871909 0.34340784
-0.6198935 0.7387962 0.54686546 -0.21973397 -0.110678904 0.67804414 0.39737043 -0.09778286
00000000: 0b1e 9e3e 2050 fd3e 380a 0fbe 4afb cf3d
00000010: df88 14bf 8d32 08be c1f8 873e 0ceb 9b3e
00000020: d59f 443f 20fa f03e 40e5 dcbe 2a55 04be
00000030: cbb7 e93e cf18 3b3e 6c75 b7be 80c6 383e
00000040: 1d8e 1fbe e1d3 e43e d730 7a3d 5aee 09bf
00000050: 60f1 8c3e 61f9 f7bd 9d19 2fbf 66f0 993e
00000060: 6545 71bf 8c1b 1abf 19be a8be 63fa 293e
00000070: 908b cabe 308e eb3e 3547 2b3d a20d 7bbf
00000080: 9520 21be 8d96 eebe 7ffa 943c 4384 34bf
00000090: 2b26 b6bd ddd8 d03e 5ded 513e b812 2e3f
000000a0: 8da2 9c3d 33d9 a3bc 7022 793d 8657 ff3c
000000b0: f6c6 34bf e8e0 46be d9a7 08bf 37aa a7be
000000c0: 3db4 073f 85c6 9f3e 371a ccbd 2b5b 71be
000000d0: c857 1dbd 5dc7 153e 254c 123d 36a6 5f3d
000000e0: 87fa 093e c444 99be 14d7 343e 6cf2 b33d
000000f0: 4a68 2fbe f2da 2f3e f647 80bf 8e24 b13e
00000100: 0b77 273f 38c0 8f3e b357 ddbd 2a14 113f
00000110: 23a6 dbbe 744b e5be 30c7 a6be 55ea 6f3e
00000120: 5e79 5e3e eb86 acbe fc36 a8be df5d 16be
00000130: 533a 69bd 0095 68be 7d26 8cbd 837d 0e3f
00000140: 2782 433f 8a1a cf3d ef19 eb3e daa0 dbbd
00000150: 749c 033f bfa1 a1be b361 6a3d eebb 6a3e
00000160: cadf 2b3c 6189 e93e 952e 5c3f 4ada b9be
00000170: 12ee 553d cda4 22be 4621 3e3f 12d0 ae3e
00000180: 0e12 2a3e 7068 613f 9b23 123e c5da 8dbe
00000190: a863 113f 3439 453e 6071 c6be 430c 673e
000001a0: a8a3 213f 37a6 1e3f 2465 7f3e dac0 0e3f
000001b0: 57bd f73d d9d1 25be bca2 d0be f190 72be
000001c0: 8bc3 4abe 03b8 343f d646 6e3e db5b a3be
000001d0: 587f b2bd 5959 1abf f22f 193f 7df3 48be
000001e0: 0ed0 fabe 9079 cebd 9d55 cf3c 3bac 01bf
000001f0: 4570 d33e a605 403e 91e9 323f 47b3 18be
00000200: 79af 7e3d ee6b 203f 64a6 283e 06bd 66bd
00000210: 8f5c 8a3e 2b24 acbe a183 c13e 8c1d ba3e
00000220: 3dd1 a83e 33ef 083f 92a9 343e 95fe a7be
00000230: 4213 303f 3386 d1bd 1958 50bf 448f f8be
00000240: 0d4b b93e 8ffe 503f 470a 553d 505f 213d
00000250: 75ca c73e 7566 15bf 5810 ed3e 4945 39bf
00000260: 3776 083f 521d 54be 23bf 283f f706 6f3f
00000270: 44a8 103f 785e 783d 8c43 043e b442 1d3d
00000280: 838f d1bd e115 cd3e b2fa 813e 5fab 273f
00000290: 0460 eaba a187 52be 69ed 52bb 3759 46be
000002a0: bf5d eb3e e74d 1cbe 1bd6 e73e c475 0c3e
000002b0: 408d be3d 8099 853d 2209 ef3e 388a 0cbf
000002c0: b51a 043e ffbb 62be 2b4f c6bd 6c68 6b3e
000002d0: 5482 fe3e 8d3b 293e 503f dfbe 81d7 08bf
000002e0: 7e73 c63e af1b ccbe bea1 b8bc 9ceb 15bf
000002f0: d93a 793d ce27 a73e 29d6 483f c6bd 3c3d
00000300: e4b6 adbe 4cdb 38be 6f55 d53e 3b09 6abe
00000310: 81db a13e acaf 653e ea1a 62be e2a4 cabe
00000320: ac9c eabc 951d edbe 9ce0 c8be 8ae5 4bbe
00000330: 115d b23e 41d9 c1be 41fc 3e3f e054 3f3d
00000340: af92 243f 6de5 833e b5d6 bc3e 8754 e0be
00000350: ae15 073e 5e38 333e d97a 97be 6746 92be
00000360: 0c75 0d3f 0755 b2be 64b9 99be c3c6 d23d
00000370: faab 0f3f a596 623f 6459 8dbe 5267 ea3e
00000380: 22ba 16be e6a7 f83e 3ac2 133e 5b46 df3e
00000390: 8cff 0c3e c1f5 b83e 1fa0 0d3f 7d5e 95be
000003a0: 35f7 893d eafe d03c 5168 d0be 804b 1bbe
000003b0: 2016 a3be 3641 abbe 8c6a 9f3d c2dd eabd
000003c0: a3a4 2a3f 46e8 e53e f1d5 3fbd cd3d b7be
000003d0: c938 573d 14d3 9f3c 2302 37be 27d3 af3e
000003e0: 57b1 1ebf bf21 3d3f 60ff 0b3f f101 61be
000003f0: 9fab e2bd 4d94 2d3f 2374 cb3e 6142 c8bd

feature.2.weight f4 [256, 256]
-0.029933602 -0.34913164 0.34872702 -0.34282497 -0.010726354 0.1460689 -0.08196987 0.0068400386
-0.26977754 -0.24767631 0.19602495 -0.16609253 -0.01636614 -0.1696565 0.05290368 0.07748318
-0.06693604 -0.5541156 -0.18940683 0.08877254 -0.3578022 0.03813207 0.10679959 -0.40228468
0.121884234 0.21276744 0.2510082 0.053601157 0.091024324 -0.44622943 -0.16565077 0.19169708
0.034449197 0.45649564 0.3565879 -0.07363281 0.005623967 -0.33470216 -0.19093432 -0.112781696
0.20832802 -0.45859993 -0.0014046043 -0.22346613 0.3093615 -0.1110946 -0.024085252 0.5662294
-0.7352496 -0.24443226 0.14187112 0.12690759 -0.38387623 0.0059292237 -0.45255873 -0.3081166
-0.41422763 -0.11721735 -0.16751878 -0.016517494 0.0037906077 -0.3714502 0.13384919 -0.22309573
-0.3858552 -0.35642532 0.12971522 -0.5130092 -0.41501778 -0.17309533 0.23370285 -0.23571096
-0.45476818 -0.29988328 -0.026243616 0.06013712 -0.059403792 -0.024572084 -0.028207533 -0.42767665
-0.21594925 -0.30725515 -0.31721497 0.061263796 0.075016566 0.19322532 -0.53941 0.32375148
0.31778848 -0.35628924 -0.13822621 -0.09816296 -0.2617091 0.16111688 -0.049674574 0.3260864
-0.3084742 -0.023979299 -0.119438276 0.23629461 -0.15295532 -0.09739569 0.063425496 -0.9285084
-0.9688439 -0.77364314 -0.23144759 -0.7562176 0.017199323 -0.07514636 -0.055698052 0.1619568
-0.026510192 -0.18858638 -0.3706173 0.22529978 0.05882505 0.28400537 -0.07398054 0.013981115
0.23017266 0.30854625 -0.17528121 -0.07892914 -0.4672487 -0.044389296 -0.31247512 -0.07505986
0.4896073 -0.6027529 -0.36717203 -0.047998928 -0.14433676 -0.01642986 -0.040393163 -0.3218033
-0.29293212 -0.672903 -0.04761078 -0.070430845 -0.25140175 -0.42474464 0.15993905 0.25149134
-0.47579873 0.01746776 -0.7002379 -0.18161622 0.0044783647 0.13035424 -0.35147488 0.2769356
0.19850548 0.5469295 -0.36881626 -0.21762569 -0.17924406 0.37378922 0.09185021 -0.17808418
-0.1771524 -0.35113052 -0.11887155 -1.01886 -0.27526146 0.061676055 -0.33318433 -0.5624716
-0.35247037 -0.3934935 0.020478433 -0.50685173 0.24758576 -0.73974985 -0.09386261 0.37394693
0.021314373 0.07569285 -0.26831275 -0.067821816 -0.30999005 -0.004048468 0.29175892 0.6004113
-0.06277439 0.22907262 -0.21375382 0.52057135 -0.057664584 -0.3160661 -0.3612867 0.111339405
0.2198623 -0.15542032 0.054362174 0.6610043 -0.23163655 -0.39821538 0.14801453 0.17513405
-0.057015836 -0.019192819 -0.34836912 -0.12436752 -0.0035076612 -0.059690777 -0.12984644 0.19941226
-0.43330285 -0.34304702 -0.4632475 -0.15060537 -0.447308 -0.37575728 0.21104872 0.024581714
0.06735442 0.05513761 0.24306335 -0.21259695 -0.15194423 -0.09280026 -0.019766293 0.021912385
0.060698498 -0.29469705 -0.07794446 -0.47280508 -0.29818833 0.08043083 -0.573777 0.023682123
-0.23784639 -0.19203742 0.021977693 0.060828306 -0.0015156302 0.2224985 -0.67614484 -0.0772249
-0.21049446 -0.49480367 -0.21985978 0.046002667 -0.45689914 -0.26993346 -0.20368746 -0.035429653
-0.06446364 -0.2940552 -0.3958219 -0.11278805 0.03377549 -0.17278694 -0.43062916 -0.024464555
00000000: 5037 f5bc 62c1 b2be 598c b23e c186 afbe
00000010: 97bd 2fbc 1693 153e d2df a7bd 6722 e03b
00000020: 4820 8abe dc9e 7dbe c4ba 483e 2914 2abe
00000030: 4912 86bc 6fba 2dbe 87b1 583d 80af 9e3d
00000040: c315 89bd 85da 0dbf ddf3 41be 61ce b53d
00000050: da31 b7be 6030 1c3d beb9 da3d 42f8 cdbe
00000060: 719e f93d b5df 593e 2684 803e e38c 5b3d
00000070: f66a ba3d 2f78 e4be 5ba0 29be 3d4c 443e
00000080: 9a1a 0d3d ccb9 e93e b092 b63e cccc 96bd
00000090: 4149 b83b 155e abbe 4984 43be 17fa e6bd
000000a0: f153 553e 9ccd eabe b31a b8ba 4ed4 64be
000000b0: a164 9e3e 9185 e3bd 6f4e c5bc 69f4 103f
000000c0: 5139 3cbf 734c 7abe aa46 113e 10f4 013e
000000d0: 6d8b c4be ef49 c23b c7b5 e7be 76c1 9dbe
000000e0: a515 d4be a60f f0bd 0b8a 2bbe b24f 87bc
000000f0: d86b 783b b82e bebe c30f 093e 3573 64be
00000100: d08e c5be 617d b6be 11d4 043e 9254 03bf
00000110: 367d d4be e73f 31be cd4f 6f3e 375e 71be
00000120: 60d7 e8be 4d8a 99be dafc d6bc 5752 763d
00000130: 6451 73bd 654b c9bc 7c13 e7bc 6ff8 dabe
00000140: cd21 5dbe 8c50 9dbe 006a a2be bfef 7a3d
00000150: 49a2 993d dcdc 453e c616 0abf c1c2 a53e
00000160: 2cb5 a23e 8b6b b6be 2c8b 0dbe a909 c9bd
00000170: bcfe 85be d3fb 243e 9177 4bbd ccf4 a63e
00000180: 55f0 9dbe 3c70 c4bc 0e9c f4bd 37f7 713e
00000190: 52a0 1cbe 6477 c7bd 3ae5 813d bab2 6dbf
000001a0: 2706 78bf 7a0d 46bf 9900 6dbe 7a97 41bf
000001b0: 98e5 8c3c 56e6 99bd a423 64bd 01d8 253e
000001c0: e72b d9bc ca1c 41be 8dc1 bdbe fcb4 663e
000001d0: 89f2 703d 2769 913e 1c83 97bd 0c11 653c
000001e0: 62b2 6b3e c6f9 9d3e eb7c 33be 9aa5 a1bd
000001f0: 393b efbe 8dd1 35bd bdfc 9fbe fcb8 99bd
00000200: cfad fa3e 044e 1abf f9fd bbbe 869a 44bd
00000210: 04cd 13be ea97 86bc 4d73 25bd 67c3 a4be
00000220: 33fb 95be 5f43 2cbf 8503 43bd 0c3e 90bd
00000230: bbb7 80be 2178 d9be 10c7 233e 79c3 803e
00000240: e49b f3be 8c18 8f3c ca42 33bf 9af9 39be
00000250: 3fbf 923b 957b 053e 84f4 b3be 81ca 8d3e
00000260: 0545 4b3e 9203 0c3f 7cd5 bcbe 45d9 5ebe
00000270: c18b 37be 4d61 bf3e f71b bc3d b35b 36be
00000280: 7067 35be 61c7 b3be ed72 f3bd 016a 82bf
00000290: 12ef 8cbe 08a0 7c3d 2397 aabe 24fe 0fbf
000002a0: ff76 b4be fb77 c9be 63c2 a73c 09c1 01bf
000002b0: 1f87 7d3e 3f60 3dbf 0a3b c0bd f975 bf3e
000002c0: 7b9b ae3c da04 9b3d 4a60 89be 2ae6 8abd
000002d0: 04b7 9ebe 03a9 84bb 6d61 953e 8eb4 193f
000002e0: dc8f 80bd 0392 6a3e 48e2 5abe 2a44 053f
000002f0: b331 6cbd 6ad3 a1be 92fa b8be ea05 e43d
00000300: 9523 613e 8126 1fbe dfaa 5e3d 9437 293f
00000310: 2232 6dbe e3e2 cbbe 1f91 173e 5756 333e
00000320: 7089 69bd 423a 9dbc 705d b2be 66b4 febd
00000330: cae0 65bb 517e 74bd 77f6 04be ba32 4c3e
00000340: dfd9 ddbe dca3 afbe c72e edbe 4b38 1abe
00000350: 8e05 e5be 4263 c0be 281d 583e 975f c93c
00000360: 1df1 893d f9d7 613d 99e5 783e 04b3 59be
00000370: 4597 1bbe 100e bebd ecec a1bc 9a81 b33c
00000380: fd9e 783d 88e2 96be 58a1 9fbd 8213 f2be
00000390: 24ac 98be ebb8 a43d 0de3 12bf 0301 c23c
000003a0: 018e 73be 75a5 44be 900a b43c 1a27 793d
000003b0: 1ca8 c6ba a6d6 633e d417 2dbf 1728 9ebd
000003c0: dc8b 57be e856 fdbe ec22 61be 4b6d 3c3d
000003d0: afee e9be b834 8abe 7293 50be af1e 11bd
000003e0: 8305 84bd 678e 96be 2ba9 cabe 6cfd e6bd
000003f0: 2b58 0a3d 0fef 30be 6d7b dcbe e469 c8bc

feature.2.bias f4 [256]
-0.3426511 0.021212308 -0.47743273 0.3358443 -0.44691896 0.5015616 -0.3315508 -0.14255543
-0.010504352 -0.046154108 -0.61829555 -0.3447617 -0.2585286 0.3609261 -0.29906726 0.47226855
0.049616814 -0.36185566 -0.08402011 0.031246742 0.08994725 0.13038528 0.047205962 0.7602869
0.7991661 -0.3786836 0.11273205 0.18916462 -0.008179929 -0.17332095 0.1019958 0.031840947
0.19180843 0.01187985 0.052520048 0.14938237 0.7833585 0.8247445 0.27400678 -0.10813767
0.24415146 -0.27586433 -0.0037859909 0.7897201 0.09533776 -0.0959995 0.22620675 -0.094908245
0.58472306 0.07448283 0.14368302 -0.12846364 0.09794124 0.061240435 -0.09325629 0.58020717
0.1391472 0.33119684 0.73231137 0.30608606 -0.28775054 0.2231032 -0.4324697 0.11949577
0.56738967 0.2711986 0.15158993 0.13838479 0.3009805 -0.3093707 0.55427325 0.08160147
-0.0053500985 -0.13828078 0.5817621 0.3768984 0.48796323 0.7715522 0.12794273 0.76185983
-0.2504614 -0.0071830843 0.51927453 0.4089477 0.020198986 0.84380203 -0.24620129 0.6447117
0.340407 -0.17407705 0.21543822 -0.19807369 0.7198445 0.059919972 -0.015686499 -0.04139592
0.31274575 0.16751085 0.52707756 0.51983696 -0.13832104 0.42582425 -0.37904894 0.80784
-0.04398768 0.40595317 0.69913 0.66256154 0.7658042 0.46775007 0.06402938 0.102736525
0.42837927 0.19506267 0.04038961 -0.33031118 0.13710687 0.60357773 0.38324946 0.3679974
-0.06749216 0.39408717 0.36120972 -0.020832019 0.08525772 0.14626543 -0.038938664 0.2605553
0.8609743 -0.15451992 0.01612561 0.012760616 0.09350775 -0.123778515 -0.27204102 -0.04718011
0.59441876 0.69158274 0.13521461 0.014041501 0.045314234 -0.098727904 -0.2909089 0.53550494
0.19397464 -0.25156173 0.23726393 0.3240411 0.07390205 -0.036170054 -0.3783667 -0.097768515
0.6884675 0.87322086 -0.14887139 0.09874594 -0.049642954 0.69006544 0.22071765 0.17554852
0.6997712 0.0729488 0.27592877 0.05230753 0.6910066 0.7714464 0.054408833 0.043406546
-0.4715569 -0.13915396 -0.15669656 0.5224641 -0.12778138 0.024540722 0.32024089 -0.44779333
0.72025925 -0.20062713 0.52855134 0.30815005 0.5636846 -0.34658507 0.10772825 -0.006489406
-0.02097773 0.04128131 -0.23409648 -0.12040862 0.57220423 -0.035387076 -0.44063658 0.06460105
-0.6136402 0.10588076 0.30358145 0.085052334 0.06585041 0.0070007644 -0.2762595 0.032643467
-0.6411312 0.16179213 -0.16828325 0.50180423 -0.1980973 0.35745838 -0.010544743 -0.07861771
-0.20200057 -0.19064766 -0.17029795 -0.11254003 0.16833213 -0.1901318 0.4420963 0.93675935
0.2364039 0.05853144 -0.18728204 0.7678648 0.8293572 -0.38017014 -0.09541968 -0.22254911
0.26540485 0.71538436 -0.51471126 0.30786732 0.0058288435 0.30621386 0.42596424 -0.11740678
0.0869673 0.010390728 0.09862957 0.68477184 0.32812113 0.014851309 0.08941587 -0.4016983
-0.26796418 -0.2322608 -0.20792508 0.09919098 0.122093625 0.7310732 0.09978944 0.1460839
0.27835643 0.22919963 0.31186065 0.1954937 -0.0812437 0.04458939 -0.41160378 0.6052143
00000000: f76f afbe 6fc5 ad3c 1072 f4be c9f3 ab3e
00000010: 90d2 e4be 5766 003f 07c1 a9be 0dfa 11be
00000020: 721a 2cbc 170c 3dbd 9e48 1ebf 9b84 b0be
00000030: dc5d 84be 4ecb b83e 581f 99be 2fcd f13e
00000040: 003b 4b3d 2545 b9be bc12 acbd 2bf9 ff3c
00000050: 4436 b83d b883 053e 0a5b 413d 2aa2 423f
00000060: 2696 4c3f d1e2 c1be 10e0 e63d 5fb4 413e
00000070: 1c05 06bc 0c7b 31be 2de3 d03d a76b 023d
00000080: 6e69 443e b4a3 423c 431f 573d b1f7 183e
00000090: 2f8a 483f 7522 533f 9e4a 8c3e 4877 ddbd
000000a0: d702 7a3e 173e 8dbe 631e 78bb 192b 4a3f
000000b0: 7240 c33d 639b c4bd bea2 673e 415f c2bd
000000c0: 69b0 153f 748a 983d a421 133e f98b 03be
000000d0: 6b95 c83d 40d7 7a3d 27fd bebd 7588 143f
000000e0: 9b7c 0e3e a292 a93e c278 3b3f 50b7 9c3e
000000f0: 0a54 93be 2a75 643e ab6c ddbe 33ba f43d
00000100: 7340 113f 8bda 8a3e 643a 1b3e beb4 0d3e
00000110: 1e1a 9a3e d665 9ebe dae4 0d3f ac1e a73d
00000120: e14f afbb 7a99 0dbe 5cee 143f d4f8 c03e
00000130: 51d6 f93e 7284 453f 6b03 033e 3f09 433f
00000140: 7a3c 80be 1460 ebbb 2def 043f 9861 d13e
00000150: 5878 a53c 6903 583f 311c 7cbe d30b 253f
00000160: d449 ae3e 4141 32be d69b 5c3e d4d3 4abe
00000170: bb47 383f a56e 753d f980 80bc c58e 29bd
00000180: 3620 a03e f787 2b3e 8eee 063f 0914 053f
00000190: 08a4 0dbe a305 da3e b412 c2be 9ace 4e3f
000001a0: 6d2c 34bd 18d9 cf3e 2ffa 323f a29d 293f
000001b0: be0b 443f f07c ef3e d621 833d 8767 d23d
000001c0: 8754 db3e 82be 473e 936f 253d 8c1e a9be
000001d0: be65 0c3e 1284 1a3f 4639 c43e 286a bc3e
000001e0: 5439 8abd cbc5 c93e 7bf0 b83e e9a7 aabc
000001f0: 999b ae3d 9bc6 153e 267e 1fbd 8167 853e
00000200: d068 5c3f 783a 1ebe db19 843c e711 513c
00000210: fe80 bf3d 977f fdbd f648 8bbe ee3f 41bd
00000220: d42b 183f 910b 313f b375 0a3e 530e 663c
00000230: 6b9b 393d db31 cabd 03f2 94be da16 093f
00000240: 4aa1 463e b3cc 80be 51f5 723e b7e8 a53e
00000250: f559 973d 0d27 14bd 48b9 c1be dc3a c8bd
00000260: 683f 303f 678b 5f3f be71 18be 503b ca3d
00000270: 6956 4bbd 21a8 303f cf03 623e fec2 333e
00000280: 3524 333f 2e66 953d 8946 8d3e 6c40 563d
00000290: cfe5 303f 837d 453f ccdb 5e3d 10cb 313d
000002a0: e86f f1be 607e 0ebe 1075 20be 35c0 053f
000002b0: 1fd9 02be a009 c93c 9df6 a33e 2b45 e5be
000002c0: e962 383f 3371 4dbe 244f 073f d8c5 9d3e
000002d0: a24d 103f 9973 b1be a1a0 dc3d 15a5 d4bb
000002e0: 7dd9 abbc 9716 293d fdb6 6fbe cb98 f6bd
000002f0: fa7b 123f 0af2 10bd 1e9b e1be 8e4d 843d
00000300: 8617 1dbf 03d8 d83d 076f 9b3e eb2f ae3d
00000310: 94dc 863d ab66 e53b e371 8dbe 28b5 053d
00000320: 2d21 24bf d6ac 253e 7252 2cbe 3e76 003f
00000330: 05da 4abe c904 b73e dcc3 2cbc 5202 a1bd
00000340: 3dd9 4ebe 2439 43be 9662 2ebe 637b e6bd
00000350: 425f 2c3e e9b1 42be 725a e23e 76cf 6f3f
00000360: dd13 723e aabe 6f3d ddc6 3fbe ca92 443f
00000370: c150 543f a9a5 c2be 656b c3bd eae3 63be
00000380: 25e3 873e 6e23 373f 1ec4 03bf c9a0 9d3e
00000390: e2ff be3b 10c8 9c3e fc17 da3e f772 f0bd
000003a0: e91b b23d df3d 2a3c 4dfe c93d 354d 2f3f
000003b0: 7eff a73e e852 733c ab1f b73d 66ab cdbe
000003c0: 9a32 89be c6d5 6dbe 50ea 54be a424 cb3d
000003d0: 390c fa3d 9d27 3b3f 685e cc3d 0597 153e
000003e0: bc84 8e3e 4fb3 6a3e 33ac 9f3e 802f 483e
000003f0: 1963 a6bd 5da3 363d bbbd d2be 53ef 1a3f

value_stream.0.weight f4 [256, 256]
-0.1731817 -0.12059732 0.09556149 -0.43666577 -0.46965894 -0.37405047 -0.20516077 -0.33423972
-0.20837544 -0.012480546 -0.1979244 -0.06221417 -0.19672439 -0.1405245 0.6000605 0.052463192
-0.4490646 0.13151324 -0.33908036 0.022484096 0.29741934 0.15319474 -0.6035887 -0.052375436
-0.031617828 -0.31963658 0.18844661 -0.3907532 0.13348152 -0.43483716 0.015425441 -0.43460208
-0.5852622 -0.085006334 0.31017852 0.043249328 -0.14355518 -0.04470358 -0.15739308 -0.42881745
-0.0432879 -0.28092015 -0.46421394 0.070561215 -0.23253487 -0.16533463 -0.1362722 0.20251705
-0.009541591 -0.20255558 -0.21307576 0.45322505 0.32928106 -0.19288866 -0.07867823 -0.14673516
-0.42429638 -0.19507398 -0.016726397 0.37450546 -0.03747595 0.56528395 -0.28811792 0.3399654
0.007616569 -0.37384778 0.29500815 0.019340076 -0.0034820817 -0.16841748 -0.102722704 0.109874316
0.13334288 0.11153374 0.03143327 -0.1970339 0.0059783915 0.07220536 -0.16588446 0.039973132
-0.4860373 0.29995075 -0.19087213 -0.3425601 0.0033162376 0.12751046 0.4126834 -0.09813294
-0.2298905 -0.105331875 -0.16972405 -0.084939376 0.01242725 -0.08947398 -0.32745665 0.38903284
0.23384857 -0.53528607 -0.11744101 -0.12555811 -0.2880789 0.20834978 -0.34798005 0.20755859
-0.64872 0.27685383 -0.0625687 -0.11216581 -0.014594482 -0.24297902 -0.45449793 0.28705025
-0.015285144 0.67593086 0.09995415 0.06750483 0.12173841 -0.042614426 0.011102884 0.05167919
0.30943373 -0.21275948 -0.15377642 0.09830176 -0.3908177 -0.21864538 0.04391537 0.5113776
-0.1217036 -0.3708769 0.006281744 -0.27871254 0.19660807 -0.26979017 -0.05161568 0.1113529
-0.084201075 0.14176357 -0.023393532 -0.08959749 -0.10503197 -0.06450811 -0.16151826 -0.08076053
-0.026363472 -0.31096125 0.2818526 -0.28238773 -0.13902327 0.57882774 -0.32774585 0.19163147
0.3505622 -0.0919993 0.18087685 -0.044131868 -0.27365366 0.16043617 -0.11036288 0.9026417
-0.12365455 -0.03440667 -0.23614043 0.24900804 0.06842948 -0.025782693 -0.37192714 0.037391067
-0.48345923 -0.19763643 0.059372693 -0.19015542 -0.111780286 -0.04117794 0.23382075 -0.3209559
0.0918362 -0.38843867 0.05156154 -0.3453455 -0.00743561 -0.047827557 -0.13882737 0.24167918
-0.38426575 0.2790137 -0.10608289 0.27305397 -0.004095924 -0.03207446 -0.20644492 0.1268336
0.3051612 -0.16239311 -0.24479917 -0.28351077 -0.26411077 -0.103640035 -0.09615963 0.008152614
0.2092882 -0.24293573 0.121344 -0.013279681 -0.3557015 0.39887455 -0.04821502 -0.13699022
-0.26222596 -0.6151683 -0.041346207 0.45603082 -0.044645637 0.19091558 -0.41364923 0.11565482
-0.2550935 -0.15903953 -0.2685173 0.013975253 -0.053116277 0.15011883 0.025188083 -0.94531095
0.18267 -0.05658093 -0.065067574 -0.6494798 0.08327469 -0.4102286 -0.18613678 -0.3057126
0.105719164 0.14967373 -0.017521644 -0.21298368 0.54907423 0.014446512 -0.29348114 -0.04513819
-0.17373389 0.16834213 -0.4562154 -0.0366293 0.020266896 0.094593346 0.06283672 -0.2993876
0.26485863 -0.27111462 -0.31149814 -0.39049327 0.17047204 -0.061692532 -0.18867886 0.004285675
00000000: 8b56 31be bafb f6bd beb5 c33d a892 dfbe
00000010: 2377 f0be 8b83 bfbe aa15 52be 7821 abbe
00000020: 5f60 55be 347b 4cbc b2ac 4abe 49d4 7ebd
00000030: 1e72 49be a8e5 0fbe 919d 193f a5e3 563d
00000040: cceb e5be 68ab 063e f19b adbe 9130 b83c
00000050: 5947 983e 15df 1c3e ca84 1abf a087 56bd
00000060: b281 01bd 68a7 a3be 26f8 403e ce10 c8be
00000070: 61af 083e faa2 debe fdba 7c3c 2a84 debe
00000080: bed3 15bf cd17 aebd b8cf 9e3e 3526 313d
00000090: 2100 13be 1a1b 37bd a72b 21be f68d dbbe
000000a0: a74e 31bd c4d4 8fbe 73ad edbe 6682 903d
000000b0: 9f1d 6ebe 7b4d 29be f18a 0bbe a160 4f3e
000000c0: 5554 1cbc bb6a 4fbe 8830 5abe 1d0d e83e
000000d0: 8797 a83e 9b84 45be 0d22 a1bd be41 16be
000000e0: 603d d9be 79c1 47be cc05 89bc 2ebf bf3e
000000f0: 6280 19bd 73b6 103f 3184 93be f20f ae3e
00000100: 6994 f93b fa68 bfbe 4f0b 973e 146f 9e3c
00000110: a333 64bb a275 2cbe 4860 d2bd c905 e13d
00000120: 098b 083e cd6b e43d 2cc0 003d 41c3 49be
00000130: 62e6 c33b 67e0 933d 9edd 29be deba 233d
00000140: e2d9 f8be 2593 993e fc73 43be 0a64 afbe
00000150: 3c55 593b 1a92 023e 3d4b d33e ecf9 c8bd
00000160: 6a68 6bbe 3db8 d7bd 24cc 2dbe b2f4 adbd
00000170: aa9b 4b3c 223e b7bd 66a8 a7be 502f c73e
00000180: 0076 6f3e 8208 09bf ea84 f0bd 4e92 00be
00000190: 147f 93be a559 553e 712a b2be 3d8a 543e
000001a0: 8412 26bf c9bf 8d3e 0524 80bd 30b7 e5bd
000001b0: b21d 6fbc 7ecf 78be f4b3 e8be 40f8 923e
000001c0: 8a6e 7abc ce09 2d3f c3b4 cc3d f93f 8a3d
000001d0: fd51 f93d 778c 2ebd dfe8 353c 8fad 533d
000001e0: 196e 9e3e 9fdd 59be 9177 1dbe 6f52 c93d
000001f0: 4219 c8be 93e4 5fbe 9ae0 333d a4e9 023f
00000200: bd3f f9bd 94e3 bdbe 17d7 cd3b 69b3 8ebe
00000210: a053 493e f021 8abe f76a 53bd fd0c e43d
00000220: 9d71 acbd 782a 113e cba3 bfbc e47e b7bd
00000230: 001b d7bd d41c 84bd 0b65 25be c765 a5bd
00000240: 35f8 d7bc 5036 9fbe fc4e 903e 2095 90be
00000250: 1e5c 0ebe 0e2e 143f 4ece a7be 0a3b 443e
00000260: e47c b33e 216a bcbd c837 393e 9ec3 34bd
00000270: 551c 8cbe 6149 243e ef05 e2bd 8713 673f
00000280: 993e fdbd 02ee 0cbd ccce 71be f7fb 7e3e
00000290: c124 8c3d 3a36 d3bc 3c6d bebe 6027 193d
000002a0: f887 f7be 3461 4abe c830 733d 1ab8 42be
000002b0: 10ed e4bd 33aa 28bd b56e 6f3e 5554 a4be
000002c0: 9e14 bc3d 6fe1 c6be 3232 533d 20d1 b0be
000002d0: 6ba6 f3bb d4e6 43bd c328 0ebe bf7a 773e
000002e0: 7bbe c4be e2da 8e3e fc41 d9bd bbcd 8b3e
000002f0: 1a37 86bb 8260 03bd 4c66 53be abe0 013e
00000300: 173e 9c3e 614a 26be a2ac 7abe 5328 91be
00000310: 8739 87be 3a41 d4bd 57ef c4bd 8b92 053c
00000320: a54f 563e 25c4 78be 3483 f83d 0593 59bc
00000330: 821e b6be 4939 cc3e 1d7d 45bd 2a47 0cbe
00000340: 7b42 86be ab7b 1dbf a45a 29bd df7c e93e
00000350: 58de 36bd 607f 433e d5c9 d3be 6fdc ec3d
00000360: 9d9b 82be 42db 22be 197b 89be 76f8 643c
00000370: 7490 59bd c0b8 193e 3d57 ce3c e6ff 71bf
00000380: d80d 3b3e 68c1 67bd 2642 85bd 4f44 26bf
00000390: ec8b aa3d 7c09 d2be a49a 3ebe 5d86 9cbe
000003a0: 4a83 d83d 1244 193e 8d89 8fbc 6518 5abe
000003b0: 2190 0c3f 10b1 6c3c 2943 96be d3e2 38bd
000003c0: 4ce7 31be e161 2c3e 1195 e9be 9b08 16bd
000003d0: c306 a63c 28ba c13d 8ab0 803d 5549 99be
000003e0: 8d9b 873e 89cf 8abe af7c 9fbe bcee c7be
000003f0: 3990 2e3e 4fb1 7cbd 0835 41be d96e 8c3b

value_stream.0.bias f4 [256]
-0.26854256 0.27330872 -0.09664882 -0.3926264 -0.20812498 0.27170172 -0.11395969 0.22258611
0.641678 0.19099037 0.31645396 0.057073254 -0.3875295 0.4991707 -0.14304996 0.48570585
0.3858486 0.19921 0.4311802 0.07919929 0.3184484 0.36679596 5.892209e-05 0.23721024
0.14258815 0.5789656 0.21846129 0.2935113 -0.11501411 0.0050023333 -0.13427852 0.036552843
0.16632546 0.5175182 0.14456512 0.089499906 -0.007889605 0.12031254 0.17273512 0.27993342
0.106772885 0.48306647 0.045854643 0.5142564 0.24488482 0.15824373 0.26772746 -0.06941387
0.5410773 -0.28234035 0.09659554 0.16292158 0.47291967 0.13460176 0.49632803 0.32152188
0.35092852 -0.10971659 0.40537092 0.6353892 0.5085654 0.13410528 0.5223719 0.44442815
0.4051075 0.57728827 0.029344192 -0.1973689 0.34901425 0.30528435 0.28051564 -0.16062264
0.26518902 0.17381322 0.25324747 -0.2562382 0.049735997 0.10742585 0.35508922 0.11047193
-0.05218612 0.032800563 -0.3714076 -0.15294151 -0.08466768 -0.23202193 0.17523111 -0.11656323
0.12821159 -0.08669928 -0.30447042 -0.41788363 0.3298036 0.6096151 0.0869943 0.70672864
-0.045971002 0.37968493 0.34813467 -0.15181649 0.26136377 -0.070906155 0.15584885 0.29568753
0.69898665 0.41315368 -0.097372346 -0.22635208 0.248843 -0.20037119 0.54125077 0.15162732
0.24005646 0.5217783 0.6738648 -0.44470003 0.56559 0.38458207 -0.023219671 0.1641323
0.05037187 0.048063207 -0.22136594 -0.07210056 0.30758306 0.020486344 0.48028 0.10168102
0.56068206 0.12976764 0.6671691 0.1427739 0.1341143 0.31554022 0.13344166 0.25886732
0.3864934 0.14714974 -0.1271227 0.38136345 -0.19887099 -0.13567488 0.12974933 -0.11471555
0.4890344 -0.070393726 0.077706166 0.0789859 0.009403043 -0.35964003 0.34162623 0.31639704
0.31752157 0.2297308 0.38567504 -0.2136721 0.104436725 -0.16554776 0.120674 0.17155035
0.6173979 0.3849454 0.24782857 0.09233271 -0.16171765 -0.2899178 0.1332814 0.18201719
0.1333004 -0.3435028 -0.026934093 0.60879785 0.32886532 -0.13581258 0.33511862 0.35877958
0.55445004 0.40240225 0.08209371 -0.13161209 -0.27402854 -0.1593997 0.314784 0.5394749
0.26428017 0.39915228 0.12128234 0.5632421 0.497611 -0.06664286 0.2740691 -0.14820261
0.6626201 -0.07383695 -0.1623367 -0.06949065 0.23366703 0.6227966 -0.22491968 -0.006280969
-0.18861805 0.6520532 0.66522974 0.3301098 0.37740803 -0.4629888 0.32921007 0.7233948
0.26397175 0.28106335 0.06678128 0.24142584 0.20288578 0.24169287 -0.3069732 0.17212418
-0.13233545 -0.047664344 0.03469403 0.3724247 0.050235767 0.20270288 -0.08312901 0.60224956
0.043896567 0.16553603 0.24972618 0.10546021 0.3529295 0.5763263 0.54203695 0.22240475
-0.40965816 -0.10759349 0.18756719 0.24008024 0.24585468 0.11908787 0.2627494 -0.23143
-0.019292666 0.57942384 -0.18502776 -0.16764377 0.6787533 0.07875277 0.36398572 0.17877787
0.3549394 0.29260233 -0.3001144 -0.052054785 -0.11657002 0.2156804 -0.36742264 -0.35570475
00000000: 697e 89be 1fef 8b3e d1ef c5bd 5406 c9be
00000010: b71e 55be 7d1c 8b3e b363 e9bd 9ded 633e
00000020: 0245 243f fb92 433e 4106 a23e a5c5 693d
00000030: 446a c6be 4d93 ff3e b07b 12be 70ae f83e
00000040: f38d c53e b5fd 4b3e a7c3 dc3e 3d33 a23d
00000050: ab0b a33e aecc bb3e 1d23 7738 3ee7 723e
00000060: a102 123e 1737 143f 51b4 5f3e 1d47 963e
00000070: 858c ebbd 9dea a33b 4f80 09be 6fb8 153d
00000080: 3951 2a3e 137c 043f e108 143e ba4b b73d
00000090: 6743 01bc 6c66 f63d 7ae1 303e 6f53 8f3e
000000a0: beab da3d 7d54 f73e 14d2 3b3d 4fa6 033f
000000b0: 16c3 7a3e a50a 223e 9313 893e dc28 8ebd
000000c0: 0b84 0a3f ea8e 90be e2d3 c53d ead4 263e
000000d0: 8722 f23e 0bd5 093e b51e fe3e 849e a43e
000000e0: e7ac b33e 17b3 e0bd c78c cf3e dea8 223f
000000f0: 5831 023f e552 093e 2aba 053f 168c e33e
00000100: 406a cf3e 2ac9 133f 3b63 f03c 131b 4abe
00000110: ffb1 b23e 3b4e 9c3e bf9f 8f3e 437a 24be
00000120: dbc6 873e 18fc 313e a7a9 813e a731 83be
00000130: f9b7 4b3d 1602 dc3d 41ce b53e 1b3f e23d
00000140: 1dc1 55bd e259 063d 2329 bebe b39c 1cbe
00000150: 4066 adbd 2897 6dbe c96f 333e b4b8 eebd
00000160: e649 033e 648f b1bd 8ce3 9bbe d8f4 d5be
00000170: 04dc a83e bc0f 1c3f 112a b23d 2bec 343f
00000180: 174c 3cbd 1066 c23e b53e b23e c875 1bbe
00000190: 79d1 853e 3f37 91bd d796 1f3e 5b64 973e
000001a0: caf0 323f e188 d33e 276b c7bd d7c8 67be
000001b0: b3d0 7e3e 1b2e 4dbe 698f 0a3f 3144 1b3e
000001c0: 5cd1 753e 4393 053f 6782 2c3f b9af e3be
000001d0: 82ca 103f f1e7 c43e 2e37 bebc 4c12 283e
000001e0: bc52 4e3d eddd 443d c1ad 62be 75a9 93bd
000001f0: 877b 9d3e fad2 a73c 43e7 f53e 233e d03d
00000200: dc88 0f3f cfe1 043e 98cb 2a3f 5233 123e
00000210: 4255 093e 7d8e a13e eea4 083e 428a 843e
00000220: 77e2 c53e 6cae 163e 742c 02be 1242 c33e
00000230: d6a4 4bbe 5bee 0abe 02dd 043e fcef eabd
00000240: b862 fa3e 962a 90bd 6924 9f3d 5cc3 a13d
00000250: 390f 1a3c bd22 b8be a2e9 ae3e cbfe a13e
00000260: 3092 a23e 8d3e 6b3e 3377 c53e dccc 5abe
00000270: ece2 d53d 5a85 29be ee23 f73d e5aa 2f3e
00000280: ca0d 1e3f 9017 c53e c6c6 7d3e ef18 bd3d
00000290: 5099 25be 1b70 94be eb7a 083e b762 3a3e
000002a0: e67f 083e 99df afbe e3a4 dcbc 2dda 1b3f
000002b0: 0961 a83e 7412 0bbe ab94 ab3e f5b1 b73e
000002c0: 70f0 0d3f ab07 ce3e bf20 a83d 52c5 06be
000002d0: 784d 8cbe ad39 23be 5e2b a13e 071b 0a3f
000002e0: bb4f 873e b05d cc3e e062 f83d a230 103f
000002f0: dec6 fe3e 0d7c 88bd c952 8c3e 6dc2 17be
00000300: 79a1 293f d437 97bd 983b 26be 1d51 8ebd
00000310: 6946 6f3e 996f 1f3f 5851 66be 96d0 cdbb
00000320: 1725 41be f5ec 263f 7f4c 2a3f 2704 a93e
00000330: a03b c13e de0c edbe 398e a83e 6730 393f
00000340: 4e27 873e 89e7 8f3e a0c4 883d 5638 773e
00000350: 4ac1 4f3e 567e 773e 972b 9dbe 5241 303e
00000360: f282 07be b03b 43bd 541b 0e3d 73ae be3e
00000370: 05c4 4d3d 5891 4f3e 8b3f aabd 072d 1a3f
00000380: e3cc 333d 4782 293e 38b8 7f3e 86fb d73d
00000390: 2db3 b43e 1f8a 133f efc2 0a3f 12be 633e
000003a0: b7be d1be fa59 dcbd 9d11 403e 98d7 753e
000003b0: 54c1 7b3e 57e4 f33d 1787 863e fcfb 6cbe
000003c0: a70b 9ebc 1f55 143f eb77 3dbe cfaa 2bbe
000003d0: c7c2 2d3f 2249 a13d 565c ba3e 8c11 373e
000003e0: 9eba b53e f9cf 953e 98a8 99be 6637 55bd
000003f0: 43bc eebd 53db 5c3e d21e bcbe ef1e b6be

value_stream.2.weight f4 [1, 256]
-0.25325423 -1.7861394 -0.182064 -0.2172365 -0.15965879 -0.7236781 -0.21804346 -1.6214278
0.56645715 0.36789095 -0.35766593 0.264716 -0.22138587 -1.9855554 -0.14017878 -0.5439915
0.37200007 -0.60659295 0.72405255 0.22558407 0.6408308 -0.75302225 -0.34822708 -0.4273278
-1.1627257 -0.75100267 -0.38493997 -0.71142465 -0.20898344 -0.26702115 -0.10555692 0.3186267
0.80714214 0.21131796 -0.48017445 -0.3638726 -1.5803884 0.30034602 0.46615425 0.7193391
0.23693557 -1.8249079 -0.116667084 0.24677806 0.5269584 -0.3930274 -0.7594559 -0.11467034
-0.9270265 -0.2106695 1.1095262 0.43272948 -1.046738 -0.65471584 0.6795352 -0.26922357
-1.2086625 -0.04899731 0.2990837 0.22361057 0.36625323 -0.30745414 0.35944253 -0.71802527
0.2917775 0.27264053 -0.17059521 -0.21223454 -0.8953565 0.49012077 1.1617303 -0.15102097
0.6436 0.28065392 -0.46262714 -0.111048855 -0.13167697 0.46831715 0.25857133 0.25021785
-0.12900087 0.210075 -0.18457223 -0.11182868 -0.15181834 -0.20795502 0.27245057 -0.21729752
0.36947897 -0.12828098 -0.14773327 -0.24619244 -0.27900138 0.47616738 0.4120648 -0.9878407
-0.2856347 0.6132982 0.29830754 -0.2133532 -0.7677465 -1.0772154 0.27040708 0.35662073
-0.9563524 -1.2703387 0.77381146 -0.15771294 0.48934 -0.173738 0.31912762 0.22361565
0.32581392 0.61943835 0.5372029 -0.6877666 0.29588932 -0.5318884 1.1285827 0.2501933
-0.9277627 -0.3308815 -0.76795834 -0.13756984 -1.0053291 -0.2754432 0.3122692 -0.45809963
0.31817034 -0.38203672 -1.4540694 0.20830631 0.26098827 -0.7087242 0.38033974 -1.6077203
-2.202337 0.31502044 -0.8159519 -0.5954449 -0.14251807 -0.17827392 0.5311083 -0.15943335
0.37654394 -0.13580775 -0.39081 0.8236047 -0.27939764 -0.19189852 -1.2315339 0.27068332
0.38784355 -1.5775636 1.0908316 -0.910893 0.752954 -0.15137038 0.7386399 -0.44840714
0.34187746 0.6115267 -1.0116925 0.54292256 -0.132172 -0.25462645 -0.5181875 0.4126045
0.4282163 -0.22111017 -0.3253053 -1.07308 -0.4966205 -0.10165767 -0.4657865 -0.92799395
0.28989723 0.19785324 -0.3700082 -0.16446707 -0.14459229 -0.14873883 0.13122799 0.35709435
-0.4167789 -0.4393348 -0.5458557 0.45977208 -0.9593876 -0.124385186 0.35432792 -0.15681368
0.39449006 -0.5582141 -0.09205021 -0.17408194 0.24099608 0.5446052 -0.13444388 -0.18716234
-0.23909697 0.56140155 0.630218 -0.40190306 0.46805453 -0.21051735 -0.87298566 -1.3985771
-0.30863252 0.14921612 1.2648716 0.834336 0.49485952 -0.89731693 -0.17711516 0.29094678
-0.07830597 -0.64093584 -0.3577541 -0.45875868 -0.23900662 0.2556688 -0.15013328 0.3064564
-0.15571323 -0.3610104 0.9302014 0.34579024 -0.6104442 0.17960931 0.28824705 -0.43512478
-0.19375075 -0.14738934 0.57699305 -0.35887554 0.46840122 -0.1258253 0.7022584 -0.14343967
-0.16111346 0.18482544 -0.12301114 -1.204778 0.69087213 0.21764229 -1.4106444 0.29257974
0.42049122 0.39126447 -0.1913869 -1.0767118 -0.14233856 -1.2130992 -0.21191499 -0.20915699
00000000: 8aaa 81be 37a0 e4bf fc6e 3abe 3f73 5ebe
00000010: 987d 23be f842 39bf c946 5fbe f28a cfbf
00000020: 5603 113f 345c bc3e fd1f b7be db88 873e
00000030: fab2 62be ae26 febf 078b 0fbe 0743 0bbf
00000040: cb76 be3e ad49 1bbf 825b 393f 83ff 663e
00000050: 7d0d 243f 11c6 40bf d24a b2be b6ca dabe
00000060: 32d4 94bf b641 40bf da16 c5be ed1f 36bf
00000070: c1ff 55be ffb6 88be 3a2e d8bd 0a23 a33e
00000080: dea0 4e3f bc63 583e 6dd9 f5be 824d babe
00000090: 2b4a cabf f4c6 993e c5ab ee3e 9b26 383f
000000a0: 3d9f 723e 9596 e9bf 27ef eebd 63b3 7c3e
000000b0: bfe6 063f e33a c9be b46b 42bf 49d8 eabd
000000c0: 9c51 6dbf bfb9 57be f404 8e3f b88e dd3e
000000d0: 83fb 85bf 759b 27bf 05f6 2d3f acd7 89be
000000e0: 74b5 9abf 67b1 48bd 8021 993e 2bfa 643e
000000f0: 8b85 bb3e a16a 9dbe da08 b83e 81d0 37bf
00000100: dc63 953e 8a97 8b3e 83b0 2ebe 0354 59be
00000110: 1536 65bf 1cf1 fa3e 94b3 943f 3ea5 1abe
00000120: f8c2 243f dfb1 8f3e 77dd ecbe 956d e3bd
00000130: 54d6 06be 44c7 ef3e 7663 843e 8e1c 803e
00000140: ce18 04be e71d 573e 8100 3dbe 6f06 e5bd
00000150: 4476 1bbe 29f2 54be a47e 8b3e 3e83 5ebe
00000160: 592c bd3e 175c 03be 6447 17be df19 7cbe
00000170: 45d9 8ebe 36cc f33e 28fa d23e 21e3 7cbf
00000180: b63e 92be 1c01 1d3f c4bb 983e 4379 5abe
00000190: 098b 44bf 32e2 89bf cc72 8a3e fe96 b63e
000001a0: 83d3 74bf 759a a2bf 8218 463f 807f 21be
000001b0: c68a fa3e 60e8 31be b264 a33e 80fb 643e
000001c0: 15d1 a63e 8393 1e3f 2186 093f 7911 30bf
000001d0: ce7e 973e d729 08bf 6675 903f 5619 803e
000001e0: db81 6dbf 4d69 a9be eb98 44bf 1cdf 0cbe
000001f0: a0ae 80bf e406 8dbe c0e1 9f3e 098c eabe
00000200: 39e7 a23e 519a c3be f21e babf 404e 553e
00000210: 41a0 853e f36e 35bf e4bb c23e c7c9 cdbf
00000220: 17f3 0cc0 5c4a a13e 39e2 50bf 146f 18bf
00000230: 42f0 11be 708d 36be b7f6 073f 7f42 23be
00000240: 5eca c03e 3011 0bbe 4018 c8be c2d7 523f
00000250: 350d 8fbe 0c81 44be e7a2 9dbf 0197 8a3e
00000260: 6e93 c63e 9bed c9bf 5fa0 8b3f 4930 69bf
00000270: 98c1 403f d600 1bbe 8117 3d3f 9f95 e5be
00000280: 900a af3e 048d 1c3f 247f 81bf f9fc 0a3f
00000290: 1958 07be 665e 82be f0a7 04bf e640 d33e
000002a0: 2b3f db3e b46a 62be 6b8e a6be af5a 89bf
000002b0: 0b45 febe e631 d0bd 917b eebe 0391 6dbf
000002c0: 696d 943e 0a9a 4a3e b771 bdbe 0e6a 28be
000002d0: 0010 14be fe4e 18be a160 063e 12d5 b63e
000002e0: 0b64 d5be 7ef0 e0be 33bd 0bbf 3f67 eb3e
000002f0: 6d9a 75bf a9bd febd 786a b53e c493 20be
00000300: 9afa c93e 1fe7 0ebf d284 bcbd 8942 32be
00000310: adc7 763e 3f6b 0b3f a8ab 09be 7ca7 3fbe
00000320: d6d5 74be 03b8 0f3f f855 213f 3dc6 cdbe
00000330: d8a4 ef3e dc91 57be fd7b 5fbf 9304 b3bf
00000340: 1505 9ebe 1ccc 183e 50e7 a13f 0b97 553f
00000350: 3a5e fd3e 90b6 65bf ad5d 35be faf6 943e
00000360: e15e a0bd 5f14 24bf 8c2b b7be 6be2 eabe
00000370: 27be 74be 05e7 823e 8abc 19be dae7 9c3e
00000380: 4a73 1fbe 5bd6 b8be ae21 6e3f 6b0b b13e
00000390: 1246 1cbf 81eb 373e 1e95 933e adc8 debe
000003a0: 9966 46be 3bed 16be d1b5 133f 89be b7be
000003b0: 49d2 ef3e 59d8 00be 35c7 333f d9e1 12be
000003c0: edfa 24be e142 3d3e 44ed fbbd 2a36 9abf
000003d0: ffdc 303f 9fdd 5e3e ff8f b4bf 03cd 953e
000003e0: a04a d73e d153 c83e edfa 43be b1d1 89bf
000003f0: 33c1 11be d646 9bbf 3e00 59be 402d 56be

advantage_stream.0.weight f4 [256, 256]
0.10527726 -0.47075 -0.35082674 0.18280561 0.050326195 -0.3718895 0.11320589 -0.24728724
-0.24971928 0.39421162 0.2876942 0.10135033 0.4145284 0.082860716 -0.017958593 -0.4111289
-0.2624952 -0.14334586 -0.18004559 -0.24755038 -0.13337485 -0.3530525 -0.40387064 0.14110304
-0.2328986 0.1108836 -0.44448087 -0.0038876466 0.2513287 0.05175637 -0.6535307 -0.6780473
0.036555365 -0.00048589832 -0.13429736 -0.63589704 -0.30002734 0.11862396 -0.7345827 0.13696586
0.5722197 0.09307132 0.2049237 -0.2681213 -0.48581305 -0.2587597 -0.5124049 -0.123877704
-0.26135865 -0.23705554 -0.07181934 0.49768323 0.1793568 0.11803582 -0.33053848 -0.40031964
0.21681142 0.09252985 -0.015451096 0.064927146 -0.46295172 -0.036054935 0.5015133 0.16469157
0.108377635 -0.18084964 0.58160454 0.2701282 -0.17129762 0.089139946 -0.27839378 0.17060405
-0.19912331 0.16071881 -0.31416142 -0.48518604 -0.44203684 -0.09204276 -0.37022546 -0.3524445
-0.23509537 -0.10012145 -0.3213965 -0.8748548 -0.26918754 -0.28864557 0.3307423 -0.53356546
0.15602514 -0.2488234 0.76476914 -0.18142991 0.1602822 0.17676081 0.09777754 -0.28887236
-0.09996784 -0.48073715 -0.34289408 -0.12909995 0.02290434 -0.2151651 0.21317554 -0.116492316
-0.5534073 -0.20279713 -0.28559598 -0.33962414 -0.14498588 0.20451474 0.09668642 -0.18037902
-0.3120054 -0.67538494 0.07255076 0.3328026 -0.56915313 -0.02938066 0.52869004 -0.3442555
0.116677485 -0.3544379 -0.25003824 0.16131909 0.15026447 0.11167926 -0.23064883 -0.05995098
-0.2842677 0.142146 -0.47830838 0.006401835 -0.0423144 0.05527965 -0.40588117 0.18578468
-0.26546377 -0.40691403 -0.43440038 0.08950256 0.2568489 -0.41439602 0.039425485 -0.47133136
-0.39095515 0.14729509 -0.19771908 -0.22615688 -0.63612986 -1.0765443 0.18063244 -0.13178371
0.33636108 -0.019321887 0.1397661 -0.31230482 -0.10957636 -0.2114869 -0.47953585 0.17621504
-0.36310998 -0.0018809133 -0.025838677 -0.10443536 -0.2834487 0.06199901 0.09925364 0.15556465
0.18923804 -0.26254603 -0.1636728 -0.028483307 -0.3341203 -0.40344855 0.31997085 0.13460487
-0.21209745 -0.01806497 -0.29717758 0.16548169 -0.34866637 0.25220886 -0.021873642 -0.48784888
0.056088366 0.100700065 -0.02917976 -0.05350617 0.124556735 -0.28406763 0.3805967 -0.018405337
0.42381954 -0.2344585 -0.1266495 0.09331806 0.20092212 0.55813414 0.091002956 0.31570503
0.36582062 -0.037709877 0.05438211 -0.34994605 0.1300895 0.10536774 -0.35902664 -0.40686753
0.044490177 0.28643474 -0.4165508 0.57102406 -0.1287057 0.2794491 0.1386012 0.19206424
0.03361369 -0.5717132 0.052609973 0.34343824 -0.1982943 0.2591345 -0.24371895 -0.45790938
-0.5702776 -0.31435817 0.2014175 -0.9917997 -0.38797772 0.14409317 -0.061709456 0.030037252
-0.041653298 -0.115250774 -0.064001694 -0.6096223 0.32413465 -0.2931616 0.110420346 -0.34342524
0.07957572 0.2900526 0.019247135 -0.39479974 0.098899014 -0.14481965 0.23662515 0.13316034
0.18189536 0.08229443 0.28037784 0.03353478 0.035855472 -0.50227374 -0.025012013 -0.26248968
00000000: 9b9b d73d 2506 f1be 909f b3be 6531 3b3e
00000010: d722 4e3d 4d68 bebe 7dd8 e73d de38 7dbe
00000020: 69b6 7fbe 1bd6 c93e a74c 933e c390 cf3d
00000030: 113d d43e e1b2 a93d e61d 93bc 7d7f d2be
00000040: c565 86be 42c9 12be df5d 38be d97d 7dbe
00000050: 6b93 08be 4cc3 b4be 22c8 cebe 517d 103e
00000060: f87c 6ebe f116 e33d ff92 e3be e3c7 7ebb
00000070: 28ae 803e 7dfe 533d ca4d 27bf 8294 2dbf
00000080: 14bb 153d 2bc0 feb9 3f85 09be 26ca 22bf
00000090: 2f9d 99be 1ef1 f23d 9d0d 3cbf c740 0c3e
000000a0: fe7c 123f 2d9c be3d 85d7 513e 3247 89be
000000b0: 7dbc f8be 277c 84be f82c 03bf 98b3 fdbd
000000c0: cdd0 85be b0be 72be 0516 93bd 56d0 fe3e
000000d0: 4fa9 373e c4bc f13d 573c a9be b2f6 ccbe
000000e0: d003 5e3e 4a80 bd3d 9826 7dbc 86f8 843d
000000f0: 0208 edbe 57ae 13bd 2d63 003f e8a4 283e
00000100: 18f5 dd3d a630 39be 09e4 143f 3e4e 8a3e
00000110: a568 2fbe 018f b63d a189 8ebe d4b2 2e3e
00000120: fbe6 4bbe 7993 243e c4d9 a0be 4e6a f8be
00000130: a752 e2be ea80 bcbd 318e bdbe 9b73 b4be
00000140: d7bc 70be 7a0c cdbd 158e a4be 7cf6 5fbf
00000150: f3d2 89be 5ac9 93be 0e57 a93e bf97 08bf
00000160: 0ec5 1f3e 90cb 7ebe e9c7 433f c3c8 39be
00000170: 0421 243e c900 353e 973f c83d 14e7 93be
00000180: f0bb ccbd 2e23 f6be d08f afbe c732 04be
00000190: e2a1 bb3c 3d54 5cbe b04a 5a3e 8693 eebd
000001a0: 1aac 0dbf 0daa 4fbe a339 92be 37e3 adbe
000001b0: 2e77 14be 506c 513e 8803 c63d 47b5 38be
000001c0: 2cbf 9fbe 07e6 2cbf 7e95 943d 1a65 aa3e
000001d0: 05b4 11bf b6af f0bc 3b58 073f 4242 b0be
000001e0: 9bf4 ee3d e278 b5be 0305 80be d530 253e
000001f0: eede 193e 19b8 e43d 352f 6cbe 298f 75bd
00000200: 898b 91be b98e 113e d6e4 f4be 7cc6 d13b
00000210: dd51 2dbd ea6c 623d a8cf cfbe 573e 3e3e
00000220: deea 87be 0957 d0be ba69 debe 1e4d b73d
00000230: b381 833e b72b d4be 9e7c 213d 5852 f1be
00000240: 462b c8be 86d4 163e df76 4abe ab95 67be
00000250: 68d9 22bf 34cc 89bf b6f7 383e 4ff2 06be
00000260: 8537 ac3e ef48 9ebc d81e 0f3e 6be6 9fbe
00000270: 9269 e0bd 0690 58be b985 f5be b771 343e
00000280: 8de9 b9be fa88 f6ba a2ab d3bc 35e2 d5bd
00000290: 3020 91be adf2 7d3d 7e45 cb3d 574c 1f3e
000002a0: 9ec7 413e 6f6c 86be d899 27be d355 e9bc
000002b0: d111 abbe cf90 cebe 38d3 a33e dcd5 093e
000002c0: 1330 59be fdfc 93bc a927 98be 0874 293e
000002d0: 6684 b2be 8521 813e 5a30 b3bc 54c7 f9be
000002e0: eabc 653d d63b ce3d 640a efbc 4929 5bbd
000002f0: 9a17 ff3d 5071 91be 92dd c23e cac6 96bc
00000300: e0fe d83e e415 70be 68b0 01be 8a1d bf3d
00000310: 87be 4d3e e1e1 0e3f c25f ba3d 17a4 a13e
00000320: d74c bb3e ac75 1abd c6bf 5e3d 212c b3be
00000330: 2f36 053e 0bcb d73d 57d2 b7be f150 d0be
00000340: 553b 363d 93a7 923e 2546 d5be a22e 123f
00000350: 6dcb 03be f413 8f3e 79ed 0d3e 7dac 443e
00000360: 82ae 093d cc5b 12bf 8e7d 573d 23d7 af3e
00000370: a90d 4bbe 47ad 843e 7691 79be 1973 eabe
00000380: b6fd 11bf 8ef3 a0be 6440 4e3e 96e6 7dbf
00000390: 04a5 c6be 298d 133e 0ec3 7cbd af10 f63c
000003a0: a69c 2abd 9908 ecbd 5213 83bd 3510 1cbf
000003b0: faf4 a53e 4719 96be 1024 e23d 6fd5 afbe
000003c0: 98f8 a23d c681 943e 2bac 9d3c 3123 cabe
000003d0: 918b ca3d 9a4b 14be dd4d 723e 2f5b 083e
000003e0: c742 3a3e fb89 a83d af8d 8f3e c45b 093d
000003f0: 30dd 123d 0395 00bf fee5 ccbc 0c65 86be
