active_slam_rl/training_output_frontier/20260124_140852_frontier/d3qn_frontier_ep420.pth (torch, 901938 bytes, 11 tensors)

feature.0.weight f4 [256, 100]
000000 2c e3 5e bd fd 29 0f bd 06 50 25 bd 76 8a de bd
       -0.054415867 -0.034952153 -0.04035952 -0.10866253
000010 6f ce aa bc 32 38 88 bd f7 c9 c6 bc 9f 2d 37 be
       -0.020850388 -0.066513434 -0.024266226 -0.17888497
000020 ae 70 82 bd 86 48 19 be e7 73 b4 bc 7f f1 16 be
       -0.06369148 -0.14969072 -0.022027923 -0.14740561
000030 9e d2 b9 bd 2a 61 69 bd c1 10 af 3c e0 c5 1e be
       -0.09073375 -0.05697743 0.021370294 -0.15505171
000040 35 1b 82 bd 57 11 5c be a9 b9 16 be f7 18 cc bb
       -0.063528456 -0.2149099 -0.14719261 -0.006228562
000050 d6 98 fd bc e4 72 7c bd 4b 08 6b bd f8 47 21 bd
       -0.030956667 -0.061633006 -0.057380956 -0.039375275
000060 cd 2d 79 bd 6e 44 7a 3c c8 01 5d 3c fd 22 4e bd
       -0.060834695 0.015275104 0.013489194 -0.050326336
000070 d2 fb 7c 3d e9 08 67 bd 0c ef 9a 3d c2 2b a1 bd
       0.061763592 -0.05640498 0.07565126 -0.07869674
000080 01 c3 32 bd 8c 0e 50 3d b1 ba 5f 3d f9 23 05 be
       -0.043643 0.050795123 0.054621402 -0.13002004
000090 0f 2e c8 bc 54 4d a8 bd 09 a1 3d bc 3a 8b 1d be
       -0.024436025 -0.08217874 -0.011574038 -0.15385142
0000a0 35 47 4a bd 0f 8e 39 3c 60 d5 38 be 12 1c 2d bd
       -0.049384315 0.011325373 -0.18050146 -0.042263098
0000b0 ae c7 bc bd dd 25 a3 bd d5 7f 17 bc 13 3a cf bd
       -0.092177734 -0.07966206 -0.009246786 -0.10118499
0000c0 20 f7 92 be 59 24 7c be a2 38 9d be 1d e1 b2 be
       -0.28704166 -0.2462324 -0.3070727 -0.34937373
0000d0 1c d8 7a be 1a a0 8a be 08 48 3f be d0 11 16 be
       -0.24496502 -0.27075273 -0.18679821 -0.14655232
0000e0 1a 7b 53 bb 89 1b 48 be f7 f1 5d be 74 f7 b2 bd
       -0.003226942 -0.19541754 -0.21674334 -0.08738604
0000f0 ea 02 55 bd 3c db 2e bc 8c d3 3e 3d e2 2a 05 be
       -0.052004732 -0.010672387 0.046588466 -0.1300464
000100 a9 e6 bd 3d b4 09 99 3d ad 51 7d bd 09 dd c0 3d
       0.092725106 0.07472554 -0.06184547 0.09417159
000110 ad 23 c2 3d f2 ec 20 bb 11 7d 4d 3d ba a8 21 3d
       0.09479461 -0.0024555293 0.0501681 0.03946755
000120 09 7e 19 bd c3 d2 b0 bd 4c 8b 74 bd cf a4 bd 3c
       -0.037473712 -0.086339496 -0.059703156 0.023149876
000130 72 94 8f bd 20 28 1d 3e 1a 6c 55 3d 33 a5 98 3d
       -0.070107356 0.15347338 0.052105047 0.07453384
000140 25 8e d0 3c 0d 9e 89 bd ce 53 eb 3b e4 c5 92 bc
       0.025458405 -0.06719599 0.007181621 -0.017916627
000150 bf cf fe bc 43 f1 42 bd 9e 2d a5 3d cf 4e 72 bd
       -0.03110492 -0.047593366 0.080653414 -0.05915719
000160 7d f8 c2 3b fa 06 76 3c 35 90 3a be 3c 88 bf bd
       0.0059500323 0.015016312 -0.18219073 -0.093521565
000170 cb c1 c4 bc 02 e9 09 be 08 5b dc bd 2c 9c c0 bd
       -0.024018189 -0.13467792 -0.1075955 -0.094047874
000180 55 ad 1a be ec eb 99 3d 85 94 4e bd e6 73 0d 3c
       -0.15105183 0.07515702 -0.050434608 0.008633589
000190 7d bc ab 3d 01 4f 45 3d 50 63 06 3c 62 f6 87 bc
       0.08385561 0.048171047 0.008202389 -0.016596977
0001a0 66 5e d3 bd 14 5c 8a 3d 6f 63 5f 3b 29 87 c8 3d
       -0.103207394 0.06755844 0.0034086367 0.09791405
0001b0 b2 27 2d bd 0c 1d f9 3c aa ac 94 3d da f9 42 bd
       -0.042274185 0.030409358 0.072594956 -0.04760156
0001c0 5c 08 24 3e f8 af 1b 3e bd e6 91 ba e5 63 ab 3d
       0.16018814 0.15203846 -0.0011131387 0.08368663
0001d0 00 16 71 bd 56 fa d4 3c 96 7d 03 bb fa 22 0c 3e
       -0.05885887 0.025998276 -0.0020063869 0.13685217
0001e0 e1 11 62 bc 61 ba f7 bd 48 37 4d bd 60 a2 a1 bd
       -0.013798208 -0.12096096 -0.05010155 -0.07892299
0001f0 18 31 5a bd a2 56 2f 3d 23 78 ac bc bd 95 57 bd
       -0.053269476 0.04280723 -0.02105338 -0.052633036
000200 77 fd 9b bd 0a 3d f1 bc ce 5a f9 bd 8e b8 68 bd
       -0.07616704 -0.029448051 -0.12175523 -0.05681663
000210 db 7d 87 bd 76 78 d0 bd 59 e0 9f 3d 64 82 fa 3d
       -0.06615802 -0.10179226 0.07806463 0.12231901
000220 7e 88 29 3e 47 3d 5f 3d 4d ab 57 3e d7 80 3c 3e
       0.16555974 0.054501798 0.2106144 0.18408523
000230 7c cf 17 3e 8c cb 19 3e 64 a5 2b 3e 66 28 15 3e
       0.14825243 0.15019053 0.1676231 0.14566192
000240 b0 cc 3f 3e 9b cc 8c 3d d9 b5 97 3c 52 44 e5 3b
       0.18730426 0.06874963 0.018519329 0.00699667
000250 75 a4 90 3d 3f 85 df 3d db b4 1c 3e c6 30 00 3e
       0.07062618 0.109140866 0.15303366 0.12518606
000260 60 3f 53 3d 68 68 2f bd 51 d6 7d bd 34 a1 a4 3c
       0.05157411 -0.04282418 -0.061971966 0.020096399
000270 eb 94 3a 3e b1 f7 d3 3d 3d 8f b7 bc 07 24 6f bd
       0.1822087 0.10349978 -0.022407169 -0.058383968
000280 27 52 d5 3c ad 8d 23 3d e6 44 bb 3d 3c 45 c0 3c
       0.02604015 0.039930034 0.09144001 0.023470514
000290 6d a1 6b bd 16 32 63 bd 4a f2 b7 bd 03 35 a5 be
       -0.057526994 -0.055467688 -0.0898176 -0.32267007
0002a0 73 3a 58 be 68 a7 da be a2 96 b0 be 9e 7a 68 be
       -0.21116047 -0.42705846 -0.34489924 -0.22703025
0002b0 35 c4 8e be 0e 63 5a be ec cc 4c be a8 5e e4 be
       -0.2788407 -0.21326849 -0.20000046 -0.44603467
0002c0 04 03 ed be 21 0a 7a be c5 57 b9 be d4 20 90 be
       -0.46291363 -0.24417926 -0.36199775 -0.28150046
0002d0 67 d2 8a be ff 80 ca be f4 21 49 be 04 56 b2 be
       -0.2711365 -0.3955154 -0.19641858 -0.3483125
0002e0 2d 37 a1 be b6 8a ac be c0 8b bc be 4d 83 a2 be
       -0.31487408 -0.33699578 -0.3682537 -0.317408
0002f0 49 4c 8a be 49 b4 20 be 6a 15 21 be 0c 7b 2b be
       -0.27011326 -0.15693773 -0.15730825 -0.16746157
000300 51 4f 78 bd a3 18 6f bd 9d cd 0a be 1f 8e a2 bd
       -0.060622517 -0.058373105 -0.13554998 -0.07937264
000310 0b f6 c4 3c 2c 81 4e bd d8 3d 29 3d 17 00 24 3e
       0.024043104 -0.050416157 0.041318744 0.1601566
000320 22 e3 10 bd 26 67 89 3d f1 fd 41 bd 1c 1e f8 bc
       -0.03537286 0.06709127 -0.047361318 -0.030287795
000330 3a 18 fa bc b2 e6 85 3d d3 6a b4 3d 4f a9 2f 3e
       -0.03052913 0.06538142 0.088094376 0.1715443
000340 ab 55 8b 3d b7 97 0e 3e d9 50 99 3d 57 86 fb 3d
       0.06803449 0.13925062 0.074861236 0.12281483
000350 eb b3 50 3e 19 0b c3 3d 1b cb f5 3d 98 f1 6d 3d
       0.20381133 0.09523601 0.1200163 0.05809173
000360 90 31 c1 3d 67 df e3 3c 75 00 6e 3e 0d b4 f3 3c
       0.094332814 0.027816487 0.23242362 0.02974894
000370 b4 da ce bd 9c c7 95 bc 75 8f b6 bd a9 32 a3 bd
       -0.10100308 -0.018283658 -0.08914081 -0.07968647
000380 ad ec ec 3a 3a 1a 7b 3c f1 23 cf bd 8e e4 fa bd
       0.0018075906 0.015326077 -0.10114277 -0.122506246
000390 1b 78 c2 bd 27 41 f4 bd d7 d9 39 be f5 ce 99 bd
       -0.094955646 -0.11926489 -0.18149506 -0.07510177
0003a0 dc e2 8b bd fe ab 15 be ce 8e 71 bd 06 75 05 3d
       -0.06830379 -0.14616391 -0.05897408 0.032582305
0003b0 6b 28 c0 3d 54 82 88 3c df 52 29 3e a3 ef 85 3c
       0.09382709 0.016663708 0.16535519 0.01634962
0003c0 ee f6 b6 3d 47 18 0d bd 14 83 d6 3d ec c7 c4 3d
       0.08933817 -0.03444698 0.1047422 0.096084446
0003d0 3c 23 ce 3d 39 ea 8a 3d 6c 2d 3f 3e d0 b0 34 3e
       0.10065314 0.06782956 0.18669671 0.17645574
0003e0 5b 8e a5 bd 7e 24 10 be 07 9a 56 bd f7 d0 b4 bc
       -0.08083793 -0.1407642 -0.052392986 -0.022072298
0003f0 f5 f8 8c 3c b6 83 05 bd b0 0e a5 bd 10 f6 2e bd
       0.017208556 -0.032596312 -0.08059442 -0.042715132

feature.0.bias f4 [256]
000000 5b 3f 7a 3e b3 d2 a1 3e 89 3a 99 3c cb 30 6e 3e
       0.2443823 0.31606063 0.01870467 0.232608
000010 fc 9a a2 be 90 5f 83 be 22 f5 5f 3e 4f b1 0b 3e
       -0.3175887 -0.25658846 0.21870854 0.13641857
000020 64 8e 0a 3f 5e 58 db 3e f0 11 8d be 96 7b 5b bd
       0.5412352 0.42840856 -0.27552748 -0.053584658
000030 8d f9 cd 3e e1 12 88 3e bb 3a 39 be c1 cd 13 3e
       0.40229455 0.26576903 -0.1808881 0.14433958
000040 bb a6 1d be 5d 2b b1 3e 8a 78 bb 3d 9f 6f 99 be
       -0.15395634 0.34603396 0.091538504 -0.29967973
000050 ab 62 b4 3e c8 8c 40 bd 6c 91 c9 be 1b 34 7a 3e
       0.35231528 -0.04700926 -0.3936876 0.24433939
000060 32 d9 0d bf 8e 0b b2 be d0 54 44 be 3c c2 3a 3e
       -0.5540954 -0.3477444 -0.19172978 0.18238157
000070 b5 bb 8a be d8 36 ba 3e 46 ee 32 bc 14 b9 0a bf
       -0.27096334 0.36369967 -0.010921067 -0.54188657
000080 8d f0 f4 bd f2 2b a1 be 70 2f a6 3d 57 9f cf be
       -0.11959944 -0.3147884 0.08114517 -0.40551254
000090 ef de 5a bd 0d 3a 93 3e 7f 05 91 3e a4 66 ee 3e
       -0.053435262 0.28755227 0.28324506 0.46562684
0000a0 39 8b 55 3e 33 4d 58 bd c0 f2 9f 3d f9 d8 e3 3d
       0.2085389 -0.052807998 0.07809973 0.111253686
0000b0 70 0a c3 be 81 de 00 be b4 5d 83 be e0 8a cb bd
       -0.380939 -0.12584879 -0.25657427 -0.09938598
0000c0 db 36 b8 3e 10 2f 45 3e 7c b9 99 bd d4 4e b6 bd
       0.3597935 0.19256234 -0.075060815 -0.08901754
0000d0 8b 22 dc bd 21 52 2f 3e a9 e1 47 3d 1a 51 99 bd
       -0.10748776 0.17121173 0.04879919 -0.07486172
0000e0 0e a0 36 3e 0d a8 3a be 14 3f ee 3b 83 86 93 3d
       0.17834494 -0.18228169 0.007270703 0.072033904
0000f0 f2 49 49 bd 2f 9d 67 3e e0 7c fb be 91 bc 58 3e
       -0.049142785 0.22618555 -0.4911871 0.21165682
000100 1c b2 d9 3e ea 73 98 3e 24 3d b9 bd 3d 2c af 3e
       0.425187 0.29775935 -0.09044865 0.3421344
000110 f5 5d 84 be 12 bb 97 be 47 17 f5 bd 8f 5e 24 3e
       -0.25852934 -0.2963491 -0.119673304 0.16051696
000120 d9 6e bd 3d aa b6 3f be 85 ab 18 be 3d fe 24 bc
       0.09249658 -0.18722025 -0.1490918 -0.010070381
000130 43 b2 f2 3b 6c 47 3c be b6 82 15 bd fe 76 ca 3e
       0.0074065044 -0.1838662 -0.03650161 0.3954391
000140 f1 ef 0e 3f 29 62 aa 3d 9c 78 a1 3e dc 4a 27 be
       0.5583487 0.08319504 0.3153733 -0.1633715
000150 a7 cf c3 3e e7 35 d5 bd 8e 01 b0 3d 0a ad 40 3e
       0.38244364 -0.10410672 0.085940465 0.18816009
000160 b8 22 f8 3c 62 1a b4 3e a0 4b 0d 3f 94 be 6a be
       0.030289993 0.35176378 0.5519352 -0.22924262
000170 a1 7b 70 3d a0 b2 b5 bd 1e 6f f2 3e bd 8f b6 3e
       0.05871165 -0.08871961 0.473504 0.3565654
000180 f1 f8 23 3e ff 5d fe 3e fa 27 4e 3e e6 be 1f be
       0.16012932 0.49681088 0.20132437 -0.15600166
000190 45 0a bf 3e 43 6a 70 3e 17 b5 1e be d7 91 09 3e
       0.37312523 0.23478036 -0.15498768 0.1343454
0001a0 b2 ab 00 3f 93 d1 0a 3f d7 45 8a 3e a1 46 c4 3e
       0.50261986 0.54226035 0.2700641 0.38335136
0001b0 d8 dd 20 3e b2 1f 47 bd 01 7c 97 be 62 0c 75 be
       0.15709627 -0.04861421 -0.29586795 -0.23930505
0001c0 e3 82 5d bd 87 76 ec 3e b1 f3 4c 3e 8b 90 5d be
       -0.0540799 0.4618418 0.20014836 -0.2163717
0001d0 38 60 28 bd 46 99 a9 be 76 68 ca 3e 3d 7c 8b bd
       -0.041107386 -0.3312475 0.39532822 -0.06810806
0001e0 c4 02 89 be d8 d9 99 bd 14 fc a3 3d e1 24 d5 be
       -0.26759923 -0.075122535 0.080070645 -0.416297
0001f0 92 77 a8 3e 14 73 17 3e f3 e7 11 3f cd 53 47 bd
       0.32903725 0.14789993 0.5699455 -0.048663903
000200 92 6c 04 3e b9 ce de 3e 45 a0 94 3e 8a 3b d6 bc
       0.12932041 0.43517092 0.29028526 -0.026151437
000210 db d3 87 3e fc 2c 4b be 4d d2 89 3e ae b7 5f 3e
       0.2652882 -0.19841379 0.2691826 0.21847412
000220 94 09 9b 3e a8 ae bd 3e fc 1d 4a 3e 1c dd a5 be
       0.30280745 0.37047315 0.19738 -0.32395256
000230 5d 87 dd 3e e0 f8 69 bd d7 f1 df be 63 12 8f be
       0.43267336 -0.05712211 -0.43739197 -0.27943715
000240 8d ce b6 3e d5 06 04 3f 04 1f 20 3d 0b f9 87 3c
       0.3570446 0.51572925 0.03909208 0.016598245
000250 ee 09 67 3e 31 f3 96 be 8e fc ba 3e 9c 8c 04 bf
       0.22562382 -0.29482415 0.3652081 -0.5177705
000260 4d b8 d4 3e ea 0d 01 be fd dd e9 3e 71 54 26 3f
       0.4154686 -0.12602964 0.45677176 0.649726
000270 80 d8 dd 3e 95 3b 46 3d 68 e2 3a 3e 4b 7f a5 3d
       0.4332924 0.048396666 0.1825043 0.0808092
000280 7a 4e 8c bd b0 e1 98 3e ef cb 43 3e b7 6f e8 3e
       -0.06850906 0.29859686 0.19120763 0.45397732
000290 db 6b 25 3d 61 47 f3 bd 95 50 80 3d 97 2f 5b bd
       0.040386062 -0.11878849 0.0626537 -0.053512182
0002a0 4f e3 b8 3e c3 b3 00 be 07 a6 80 3e 99 b8 2e bd
       0.36110923 -0.12568574 0.2512667 -0.042656515
0002b0 f4 3b 5d 3e d7 5c 96 3d b0 ab b4 3e fa 97 d1 be
       0.21604902 0.073419265 0.35287237 -0.4093626
0002c0 09 7d d7 bc 99 b4 56 be f8 d8 69 3c d0 d5 00 3e
       -0.026304739 -0.2096733 0.014272921 0.12581563
0002d0 20 a1 bf 3e d5 63 de 3d 92 00 95 be fe d0 bb be
       0.37427616 0.10858885 -0.29101998 -0.36682886
0002e0 bc 9a 98 3e fe 3d 47 be 5c d5 03 bb 3d 2e d9 be
       0.29805553 -0.19457242 -0.0020116186 -0.4241809
0002f0 e1 58 2a 3e f8 e0 8d 3e cc 38 04 3f e6 e0 db 3d
       0.16635467 0.277107 0.51649165 0.10736255
000300 c1 7f be bd cd 3c 0a be ab 76 b0 3e 12 95 3f bd
       -0.09301711 -0.13499756 0.34465536 -0.046773024
000310 72 54 5c 3e 38 fa 86 3d 5b a4 34 be 79 ec 7e be
       0.21516588 0.06590694 -0.17640822 -0.24894895
000320 75 0f ed 3c 24 e7 b6 be 8e 69 93 be c0 2d 03 be
       0.028938035 -0.3572322 -0.2879147 -0.12810421
000330 f2 05 ad 3e 44 99 87 be 82 0c 07 3f ef 23 e2 3c
       0.33793598 -0.2648412 0.5275346 0.027605025
000340 51 71 fa 3e 3c 12 74 3e 48 8b 96 3e 1a 4b ae be
       0.4891458 0.23835081 0.29403138 -0.34041673
000350 46 77 05 3e 8f 2e 03 3e 20 26 7b be 93 67 6d be
       0.1303378 0.1281073 -0.24526262 -0.23184042
000360 f7 ca bd 3e 07 b9 8d be bb fe 20 bd fb 41 d2 3d
       0.37068912 -0.27680227 -0.03930543 0.10266491
000370 f1 8b ea 3e 3c 1c 0c 3f 72 fc 55 be 60 04 d9 3e
       0.45809892 0.5473058 -0.20897081 0.4238615
000380 66 e2 3c bc fb b8 e7 3e 0e 36 50 3e 16 c2 9f 3e
       -0.011528587 0.45258316 0.2033312 0.31202763
000390 41 30 3e 3e 32 e5 c7 3e 5a 1b c5 3e 4e f3 e8 bd
       0.18573095 0.3904205 0.3849743 -0.11374532
0003a0 1f 15 f6 bc 45 a1 b5 3d 26 c0 c6 be 22 61 2e be
       -0.030039368 0.0886865 -0.38818473 -0.1702924
0003b0 c2 14 ac bd 98 2a 7d be 9b bd f0 bd 17 be 84 bd
       -0.08402397 -0.2472328 -0.117549144 -0.06481569
0003c0 28 5a df 3e 6b 78 ca 3e b5 4e af 3c ad 72 94 be
       0.4362347 0.39544997 0.021399835 -0.2899374
0003d0 18 82 a8 3d 75 43 86 3d a9 b2 80 be 86 b5 84 3e
       0.082279384 0.06555835 -0.25136307 0.2591974
0003e0 5d b6 c3 be 5c e7 e8 3e cc 79 f4 3e a2 11 5a bd
       -0.3822507 0.45489013 0.47749174 -0.053239472
0003f0 ee 37 9a bd fe 40 d6 3e 72 3b 90 3e 50 ac ac bd
       -0.07530199 0.4184646 0.28170353 -0.084313035

feature.2.weight f4 [256, 256]
000000 ac 88 4b bc 1e 39 9e 3c 64 fc 18 3e f2 41 92 be
       -0.012422722 0.019314345 0.1494003 -0.28565937
000010 fa 38 57 3d 3f b9 83 bd 54 17 8a bd 3c 56 4f 3e
       0.05254457 -0.06431817 -0.06742731 0.2024774
000020 af 84 1c bc 24 82 30 bd b4 11 23 3e de 93 35 be
       -0.009553119 -0.04309286 0.15924722 -0.17732188
000030 eb e4 74 3c 89 fa 77 be 5a 30 b9 3d b9 83 7b 3c
       0.014947156 -0.24216665 0.090424255 0.015351229
000040 5d 5d bc 3d 04 b6 ac be 5f 92 58 be e1 76 5b 3d
       0.09197495 -0.33732617 -0.21149586 0.05358017
000050 17 3f c0 be 86 ac fd bc cf 6a 0d 3e 59 aa d5 be
       -0.37548134 -0.030966055 0.13810275 -0.41731527
000060 47 04 d2 3d 53 8e 0b 3e 96 f6 c6 3e 6c 76 5c bc
       0.10254722 0.13628511 0.38860005 -0.013455968
000070 c7 4e 65 be 41 4e d4 be 53 82 93 3c 57 a4 2a 3e
       -0.22393332 -0.41465953 0.01800648 0.16664253
000080 fd b1 cb 3d d8 80 10 3e de 9f 4d 3e 46 4f 4b bd
       0.09946058 0.1411165 0.20080516 -0.049636148
000090 26 38 86 bd 21 85 39 be 52 6b 4e bc 67 b4 fe bc
       -0.06553678 -0.18117191 -0.012598829 -0.031091882
0000a0 a2 bd 4e 3d 25 6f 86 bc 93 7a 84 bd a1 a3 6b be
       0.050473817 -0.01641042 -0.06468692 -0.23011638
0000b0 36 d4 1e 3e 48 68 37 be ce 97 48 bc 78 84 84 3e
       0.1551064 -0.17910874 -0.012243224 0.25882316
0000c0 cb 07 c6 be 16 96 43 be c2 d8 d8 3d ca 4e 9e 3d
       -0.3867782 -0.19100222 0.10588218 0.077298716
0000d0 7c 01 d2 bd a3 69 f8 bd 11 e1 ed be e0 d7 52 be
       -0.10254189 -0.121295236 -0.46460775 -0.20590162
0000e0 52 8e d3 be 71 1f b1 bb 29 35 06 be 99 e6 0e be
       -0.4131952 -0.0054053594 -0.13106216 -0.13955154
0000f0 ba d8 db 3d bd d1 aa be 5a 13 8f 3d 04 53 8c bd
       0.10734697 -0.33363143 0.06986113 -0.068517715
000100 e6 c2 5f be db f9 cf be fb 12 51 3d 1b c8 5f be
       -0.21851692 -0.40620312 0.05104349 -0.21853678
000110 c1 60 d2 be 15 c8 70 3d d9 4b c4 3d 3e 9f 0e bd
       -0.41089442 0.058784563 0.09584779 -0.034819834
000120 7a 7e 24 be d5 3d 94 be ff d4 9c bd 00 cf b8 3d
       -0.16063872 -0.28953424 -0.07657813 0.09023857
000130 27 9f 0f be 33 29 22 bc d1 10 c5 3c 33 49 34 3c
       -0.14025556 -0.009897518 0.02405587 0.01100378
000140 e6 37 bc bd 75 8f 19 be cc 23 43 bd 77 6f 76 bd
       -0.09190349 -0.14996131 -0.04764156 -0.060164895
000150 ba b6 b0 bb a9 3d 10 3e da b4 4d be 9f a5 9c 3d
       -0.0053928765 0.14086021 -0.2008852 0.07648777
000160 38 91 c1 bd 90 d9 8d bd c2 8f 0a bd 13 5b 26 3d
       -0.094515264 -0.069262624 -0.033828504 0.0406142
000170 94 93 9e be 86 f6 8a 3d a4 c3 2a 3d 0e 12 9a 3e
       -0.30971968 0.06785302 0.041690484 0.300919
000180 55 45 b6 be 6f 1d f9 bd f0 58 f4 bd 38 a6 8e bc
       -0.3559977 -0.12163817 -0.11931026 -0.017413244
000190 86 66 4e be c1 b9 10 be 95 1d f1 bd 47 60 00 bf
       -0.20156297 -0.1413336 -0.117732204 -0.5014691
0001a0 af a2 02 bf 6e b0 f4 be 47 21 83 be eb c8 3b bf
       -0.51029485 -0.47790855 -0.25611326 -0.7335345
0001b0 84 ae 5c bd ca 60 30 be 3f 4a 2a bd b9 08 c0 bd
       -0.05387737 -0.17224422 -0.041574713 -0.09376664
0001c0 b7 c5 a1 bd 81 f6 78 3b 52 19 09 3b 01 9e 23 3e
       -0.07899039 0.0037988725 0.0020919633 0.15978242
0001d0 22 fa 0f 3e 5e 30 58 bd 9b 8a be bc 71 1e 65 bd
       0.14060262 -0.0527805 -0.023259452 -0.055937234
0001e0 12 f9 45 3e f0 4a df 3d 4c 39 66 be bf c0 91 bd
       0.19333294 0.10902965 -0.22482795 -0.071168415
0001f0 06 66 8e be 4a 6e 44 3d 99 33 f4 bd b7 d8 cc bd
       -0.27812213 0.047956742 -0.11923904 -0.100022726
000200 72 ed 7d 3e 13 0b 8f be fb 25 ba be c7 0d 0d be
       0.2479761 -0.27938136 -0.36357102 -0.13774787
000210 00 08 b9 bd 3e 0c 8e bc 55 61 91 3b 0c 9f 90 bd
       -0.09034729 -0.017339822 0.0044366517 -0.07061586
000220 f5 96 6a be 21 d9 93 be 19 42 22 be 97 c4 80 bd
       -0.22909148 -0.28876594 -0.15845527 -0.062874965
000230 ba 7f d4 bd 97 b6 d4 be 86 e4 0b 3e cf 96 88 3d
       -0.103759244 -0.41545555 0.13661394 0.066693895
000240 04 ac da be 03 93 35 3d ba bf 08 bf 1c 6d fc 3c
       -0.42709363 0.044329654 -0.5341755 0.030813746
000250 24 9e b3 bc 00 9b 74 3d 85 52 ee bc 82 5d 1c 3e
       -0.021925993 0.059718132 -0.029092083 0.15270045
000260 c7 7d af 3d 36 4e cf bd e4 4a 28 be e6 0b a4 bd
       0.08568912 -0.101223394 -0.16434819 -0.08010082
000270 8e 75 59 be 89 b4 f8 3d a6 91 75 3d 94 9b 28 bc
       -0.2123625 0.12143809 0.059953354 -0.010290999
000280 c3 3a 68 be 03 be 07 bd 0a 11 26 3d 83 22 12 bf
       -0.22678666 -0.033140194 0.040543593 -0.5708391
000290 d0 0a 4a be fb 74 f0 3d dc 82 2c be c7 50 19 bf
       -0.19730687 0.11741062 -0.16846794 -0.5988888
0002a0 c9 87 53 be 10 00 88 be d8 81 d8 bd 55 82 16 be
       -0.20657267 -0.26562548 -0.10571641 -0.14698155
0002b0 00 88 13 3e ff 8d d7 be a1 01 26 be e7 44 fe bb
       0.14407349 -0.42100522 -0.16211559 -0.0077596786
0002c0 eb 1d 93 bd 39 e9 a0 3e 52 7f 87 be 77 10 6e 3c
       -0.07183441 0.31427935 -0.26464325 0.014530293
0002d0 94 76 fa bd ce 48 03 be 22 60 79 be 48 59 64 bc
       -0.12229648 -0.12820742 -0.24353078 -0.013937302
0002e0 7f f4 59 3c 37 9e 1f bc 63 b2 22 be 5e ab 80 3d
       0.013302921 -0.009742311 -0.15888362 0.06282686
0002f0 16 c3 8f 3d 22 c1 5c bd aa aa 8e bd 3b 30 8a bd
       0.070196316 -0.053895123 -0.06966145 -0.067474805
000300 86 05 88 3e d3 20 32 be e2 61 55 bc a6 6e a8 3d
       0.26566714 -0.17395334 -0.013023825 0.082242295
000310 c7 fb bf bd 1d 99 54 be 05 d3 d2 bc 4c c7 02 3e
       -0.093741946 -0.20761533 -0.025735388 0.12771338
000320 5e b3 82 be c3 b1 bd bc 19 02 d2 bd bb e1 93 bd
       -0.2552747 -0.023156052 -0.10254306 -0.07220789
000330 89 27 06 3d 11 0e e6 3c 0b ae c2 bd b1 65 04 3e
       0.032752547 0.02808288 -0.09505852 0.12929417
000340 7d 93 23 be fd c0 dd bd d5 7f dc bd 9b fb 37 3c
       -0.15974231 -0.10827825 -0.107665695 0.011229421
000350 97 59 ac be f5 12 40 be 11 9d f9 ba f9 fe 25 3e
       -0.33662102 -0.18757232 -0.0019044002 0.16210546
000360 55 61 5c 3d 5e e3 c1 bc 49 24 06 3e 52 ee 89 be
       0.05380376 -0.023667987 0.13099779 -0.26939636
000370 92 d5 08 be 51 71 86 bd 04 93 99 bd a9 84 c7 3d
       -0.1336272 -0.06564582 -0.07498744 0.097421
000380 e0 1e 56 3d 99 0e 25 be 50 99 ec bd 77 a9 ed bc
       0.05227554 -0.1611885 -0.115526795 -0.029011471
000390 d6 5a bd be 0a 9a 8d bb 20 a5 b9 be a4 4f a2 3d
       -0.36983365 -0.0043213414 -0.36258793 0.079253465
0003a0 a7 af e6 3c 6e 63 5a be 79 6a cc 3b 87 a0 bf 3c
       0.02815993 -0.21326992 0.0062382785 0.023391975
0003b0 b2 6b 5d bd f7 d6 0c 3e a4 ce f2 be 84 fc 16 be
       -0.054057784 0.13753878 -0.4742328 -0.14744765
0003c0 f7 94 2e be 6a 89 93 be 78 05 89 be 96 bb 5d 3d
       -0.17049013 -0.28815776 -0.26761985 0.054133974
0003d0 2d 9a 00 bf 4f 7c 1e be e1 6a 2e be 65 97 99 bd
       -0.50235254 -0.15477107 -0.17032959 -0.07499579
0003e0 b2 81 68 bd df a2 08 be 5f c1 c6 be f7 55 10 be
       -0.056764312 -0.1334338 -0.38819405 -0.14095293
0003f0 f7 e8 ae 3d e7 cd 0e 3c cf f4 ea be 92 02 a1 bd
       0.08540528 0.008716083 -0.458899 -0.078618184

feature.2.bias f4 [256]
000000 a6 75 46 be 4a c7 b4 bb 3d 2c 92 be 21 eb 19 3d
       -0.19380817 -0.005516921 -0.28549376 0.037577752
000010 00 22 81 be 00 b0 d0 3e 3a 1c 87 be d2 f2 96 bd
       -0.25221252 0.40759277 -0.26388723 -0.07370533
000020 90 46 8f bc c5 7d 23 3d ae 4c 8c be 21 7b 5d be
       -0.017489702 0.039914865 -0.27402252 -0.21629001
000030 21 41 de bc a3 fc cc 3e 85 f9 78 be 84 61 92 3e
       -0.027130665 0.40036497 -0.24313934 0.28590024
000040 32 f9 a5 3b a1 07 6c be 1f 6c 23 be 83 3e 55 3e
       0.005065107 -0.23049785 -0.15959214 0.20824628
000050 3a 20 78 3e 2f 98 30 3e fd b7 af 3c b5 80 eb 3e
       0.24231043 0.17245553 0.021450037 0.45996633
000060 bf 0b f1 3e dd 52 4b be 6f 54 68 3e 68 9a 39 3d
       0.47079274 -0.19855829 0.22688459 0.04531327
000070 23 20 bf 3d fa 25 e3 bd c1 fe 80 3e 66 d8 40 bd
       0.093323015 -0.11091228 0.25194362 -0.047081374
000080 1a 23 b2 3d 66 48 6c 3e 50 c7 60 3e c6 fa 7e 3e
       0.08698101 0.23074493 0.21951032 0.2490035
000090 b5 5d e0 3e 47 c4 f0 3e 8f 75 8e 3e eb 37 b9 bd
       0.43821493 0.47024748 0.27824065 -0.09043869
0000a0 2b dc 8c 3e 47 3f bb bd 7f 2f 89 bd e7 e7 f4 3e
       0.27511725 -0.091429286 -0.06698512 0.47833177
0000b0 f9 fc 1a 3e d5 c2 ca bd 0f 84 4c 3d d9 cf e3 3c
       0.15135564 -0.099004425 0.04993063 0.02780907
0000c0 4a 67 b1 3e e6 89 21 3d b9 2d 18 bd e9 84 3c 3c
       0.34649116 0.03943815 -0.03715298 0.011506298
0000d0 c6 51 23 3e 8a 2a 18 bc 30 bf b3 bd 3a f7 c9 3e
       0.15949163 -0.009287486 -0.087767005 0.3944643
0000e0 cc 35 f9 ba b8 b3 28 3b ff 3a e9 3e b1 01 50 3e
       -0.0019013225 0.0025741886 0.45552823 0.20313145
0000f0 d3 78 10 be 67 58 93 3e e5 17 85 be e0 a5 2b 3e
       -0.14108591 0.28778383 -0.25994793 0.16762495
000100 87 45 e0 3e 29 61 38 3e 3f db 44 3e b2 a5 80 3e
       0.43803045 0.18005814 0.19224261 0.25126415
000110 86 24 2f 3e 0b dc 33 be 70 33 c7 3e ee 07 fc 3d
       0.17103776 -0.17564408 0.3890643 0.123062
000120 20 4f 3c bd c9 3d 13 be 7b 22 be 3e 43 a4 c4 3e
       -0.045973897 -0.14379038 0.37135682 0.38406572
000130 ad 62 bb 3e b3 cd e6 3e 39 f6 0b 3e 67 e0 e6 3e
       0.3659872 0.4507881 0.13668145 0.4509308
000140 e0 c3 18 be 5d 14 43 3e b3 10 bd 3e 28 37 18 3e
       -0.1491847 0.19050737 0.36926803 0.1486479
000150 22 1a 34 3e 72 c1 04 3f 61 41 40 be 5b 96 b7 3e
       0.17588094 0.51857674 -0.1877494 0.358569
000160 bd 45 ae 3d 8b 6f e6 bd 8c 1d 47 3e db 66 20 be
       0.08509395 -0.11251744 0.19444865 -0.15664236
000170 33 98 dc 3e 1a 85 da 3d be b2 8e bd b5 2a 83 3d
       0.4308487 0.10669918 -0.06967686 0.0640463
000180 61 9d 8f 3e 46 42 a5 3e 63 c9 9d 3e 43 cf 9d 3e
       0.28049758 0.32277125 0.30817708 0.3082219
000190 77 3f f4 bd 2c 8a d2 3e 1d 0f 26 be 5e ee 00 3f
       -0.119261675 0.41121042 -0.16216703 0.5036372
0001a0 12 0f a8 3c 05 4c ad 3e a6 8c c5 3e 41 70 eb 3e
       0.020514999 0.3384706 0.3858387 0.4598408
0001b0 78 91 db 3e 04 1a 0c 3e a1 c9 37 3e 17 53 1e 3e
       0.4288442 0.13681799 0.17948009 0.15461384
0001c0 b4 48 51 3e 1f e2 7f 3e b0 dc 50 3e 07 de 1d be
       0.2043789 0.24988602 0.20396686 -0.15416728
0001d0 71 46 62 3e 43 ce e8 3e 8b f8 aa 3e bd 2a c6 3e
       0.22097184 0.45469865 0.33392748 0.38704482
0001e0 4a f8 e2 3d 5f 13 98 3e 69 56 65 3e 92 7e d0 3d
       0.11082514 0.2970228 0.22396244 0.10180391
0001f0 b0 cd 20 bd e4 ab 1a 3d e3 ab 88 bd a1 d5 23 3e
       -0.03925866 0.037761584 -0.0667341 0.15999462
000200 8c 89 f3 3e 26 72 f5 bd 56 0a 88 bd 99 07 11 bd
       0.47565877 -0.11984663 -0.066425964 -0.035407636
000210 cb 3f cc 3d 92 25 19 bd 44 85 04 be 7e 34 35 3e
       0.09973105 -0.037389345 -0.12941462 0.17695805
000220 3b 17 c1 3e 0f 58 df 3e 89 1d 11 3c 6b 5a b3 bd
       0.37713036 0.4362187 0.008857139 -0.0875748
000230 d0 74 78 bd ac 1f be bd 82 fe 6d be 59 9a 91 3e
       -0.060658276 -0.09283385 -0.23241618 0.2843807
000240 eb dc 97 3e 41 b1 61 bd 7c 6a 66 3e 80 dd 61 3d
       0.29660735 -0.055100683 0.22501558 0.05514288
000250 da 8a 02 bd 10 cd ae 3d 67 39 25 be 71 1b 8b 3d
       -0.0318707 0.08535206 -0.16135179 0.067923434
000260 30 3a 00 3f d4 12 f6 3e bd f1 29 bc 07 88 7b 3e
       0.5008879 0.4806124 -0.010372576 0.24563609
000270 26 18 54 bd 5a 4f c7 3e 23 58 4b 3d f8 6d 8c 3e
       -0.051780842 0.38927728 0.0496446 0.2742765
000280 8f 78 f8 3e 04 56 81 3d b4 43 24 3d d3 7c f0 3d
       0.4852948 0.06315234 0.04010363 0.11742558
000290 a1 04 d6 3e 95 31 ea 3e 03 4c c7 bc 63 58 b9 3d
       0.41800407 0.45740953 -0.024328237 0.090500616
0002a0 81 b6 87 be 0d 47 e7 bd e5 20 69 3d ab e8 39 3e
       -0.26506427 -0.11292849 0.056916136 0.18155162
0002b0 21 dd 57 3d 55 82 ca bb aa 1c 8a 3e 05 aa 40 be
       0.05270112 -0.0061800876 0.26974994 -0.18814857
0002c0 dd 16 d9 3e 04 e1 8d bd e0 d6 ad 3e 9d 58 bf 3d
       0.42400256 -0.06927684 0.33953 0.093430735
0002d0 f3 1f b4 3e 85 5d 6a be 09 c1 25 bd e6 18 06 3e
       0.35180625 -0.22887237 -0.040467296 0.13095436
0002e0 5f 37 8a bd 95 ae 40 3e e2 93 2f be 7c 58 05 3e
       -0.067488424 0.18816598 -0.17146257 0.13022035
0002f0 15 a8 e3 3e 0a 95 d9 3d ec 3c 54 be a4 b5 96 3e
       0.44464174 0.1062413 -0.20726365 0.29435456
000300 15 ec b3 be 1b 22 6e 3d 4a 07 0a 3e 3b 46 05 3d
       -0.35141054 0.058137994 0.13479343 0.03253768
000310 56 13 32 bd 8f 56 c5 bd 85 f2 3d be 1f 40 6b 3e
       -0.04347547 -0.0963565 -0.18549545 0.22973679
000320 3e 1f ae be 80 a9 92 3d 88 f7 26 3d 5a 15 ac 3e
       -0.3400821 0.07161236 0.040763408 0.3361004
000330 79 dc 12 be 59 05 95 3e 71 82 5f bd e7 3a 6b bb
       -0.14341916 0.29105642 -0.054567758 -0.0035893263
000340 71 fb 34 be ff 01 53 bd 22 52 e0 bd 46 a0 80 bd
       -0.17674042 -0.051515575 -0.109531656 -0.0628057
000350 9e 57 db 3c f6 9a e1 bd 41 94 2b 3e e8 a3 07 3f
       0.026775178 -0.110158846 0.16755773 0.52984476
000360 07 00 16 3e 8b 41 0a 3e bd 1c 15 be 38 97 e9 3e
       0.14648448 0.13501565 -0.14561744 0.45623183
000370 88 8e ef 3e 46 88 a9 be e3 cb 8d bd da 0b 55 bd
       0.4678843 -0.3311178 -0.06923654 -0.052013256
000380 de 3d 54 3e cc e2 c7 3e 69 79 0d be 60 6b ac 3e
       0.20726725 0.3904022 -0.13815846 0.3367567
000390 43 0e fe bb aa fc 22 3d e8 a0 07 3e ed 61 99 bd
       -0.007753165 0.03979174 0.13244975 -0.07489381
0003a0 2a 8e 23 3e 7f e1 65 3d b0 7f 74 3e 08 d5 d2 3e
       0.159722 0.056123253 0.23876834 0.41178155
0003b0 64 4f 8a 3e fe 88 aa bd 3d 6c 31 bd 90 cd 4d be
       0.27013695 -0.083269104 -0.043316115 -0.20097947
0003c0 4e 32 2f be 5d 49 7c bd e8 46 ca bd 5b d3 f3 3d
       -0.17109033 -0.061593402 -0.098768055 0.11905547
0003d0 63 fb 02 3e a2 30 de 3e af b3 04 3e 62 2e 51 3d
       0.12791209 0.4339648 0.12959169 0.051069625
0003e0 01 3c 9a 3e da 47 5f 3d 76 c3 3d 3e 52 34 22 bc
       0.30123904 0.054511882 0.18531594 -0.009900169
0003f0 69 32 54 bd 2a 37 8f bd cd 30 5e be 0c fe b8 3e
       -0.051805887 -0.069929436 -0.21698304 0.36131322

value_stream.0.weight f4 [256, 256]
000000 ec 2c 44 be 80 d0 ef bd b1 e4 62 bc af 92 d6 be
       -0.19157761 -0.1170969 -0.01384847 -0.41908786
000010 6b e4 96 be 70 ce 9e bd 3d ec 93 be ab 64 a9 be
       -0.29471144 -0.077542186 -0.28891173 -0.33084616
000020 4a bd 82 be 09 65 e6 bd 3e 53 4e be 03 12 e6 bd
       -0.2553504 -0.1124974 -0.20148942 -0.11233904
000030 3b de 0d be 35 a5 01 be 6b 2a 09 be eb 3a c0 3d
       -0.13854305 -0.12660678 -0.13395087 0.09386238
000040 e6 b6 cc be 8c f8 f5 3d 75 37 3c be 43 33 89 bd
       -0.3998329 0.12010297 -0.1838053 -0.066992305
000050 af 10 97 ba 3a 2a 04 be 35 cd 5c be 9b b3 e3 bb
       -0.0011525358 -0.12906733 -0.21562655 -0.006948901
000060 e1 47 ac 3d 80 e6 5e be cd 60 5b be 22 a2 ad be
       0.08412147 -0.21767616 -0.21423645 -0.3391276
000070 62 da 86 3d 86 ed a9 be 3b e6 d9 bd c2 a0 53 be
       0.06584622 -0.33189029 -0.10639616 -0.20666793
000080 ff d9 dd be 77 c3 4a be 78 a1 22 3e 58 2d bd bd
       -0.4333038 -0.19801126 0.15881908 -0.09237164
000090 27 d6 8f bd 20 8c d1 3c 8a 9a 5f 3d c2 0b ba be
       -0.07023268 0.025579512 0.05459074 -0.36337095
0000a0 e7 e1 5d bd 49 98 9e be 6a 21 9b be 0a f8 8d 3d
       -0.054170515 -0.3097556 -0.3029893 0.06932075
0000b0 72 79 a4 be 36 5b 42 be 13 8a 39 be e0 48 d7 3d
       -0.32123905 -0.18980107 -0.18119077 0.10511947
0000c0 d6 06 a1 3d 09 34 75 be 2e be 2b be 10 5f 51 bd
       0.07862632 -0.23945631 -0.16771767 -0.05111605
0000d0 01 53 be 3d 67 20 5b be d9 f5 8d bd 68 1f d9 3c
       0.092931755 -0.2139908 -0.06931657 0.026504233
0000e0 31 e5 bd be cf f2 1d be 60 02 78 bd 82 73 d5 3d
       -0.37088922 -0.15424655 -0.06054914 0.10422422
0000f0 71 1d 85 bd ba b6 52 3e 92 04 81 be 4f e9 d1 3d
       -0.06499756 0.20577517 -0.251988 0.10249578
000100 7a 88 c2 3c d7 26 28 be e6 93 6d bd 1f 04 12 be
       0.023746718 -0.16421066 -0.058002375 -0.14259385
000110 fb 1a bc bd ac ee 17 be f3 9f 03 be b4 36 c8 3d
       -0.091848336 -0.1483714 -0.12853985 0.09776059
000120 80 41 95 3d 0e 6f 62 be 27 c5 c3 3d 04 c7 1b bc
       0.07287884 -0.22112677 0.09559088 -0.009507898
000130 7d 30 8b bc ab 8a c2 3d bd 48 1e bd be ff a4 3d
       -0.016990894 0.09499105 -0.038643587 0.080565915
000140 7c 8f 5a be b1 f6 3f 3e 73 69 20 bd c1 45 8e bd
       -0.21343797 0.18746449 -0.039163064 -0.06946898
000150 07 55 c6 bd 16 7c bb 3d 4f 40 ee bd 29 9f 9c 3b
       -0.096841864 0.09154527 -0.1163336 0.0047797156
000160 af dd 62 be b7 00 0c be 1c 7c 33 bd 0b fe fc bd
       -0.22154878 -0.13672148 -0.04381953 -0.12353142
000170 e9 e9 29 3d 2f f0 3a bb a3 34 81 be 45 ca a2 3c
       0.04148284 -0.0028524508 -0.2523547 0.01987184
000180 24 48 d3 bd 7a e6 ab bd d2 10 7e 3c 1b f6 ab bc
       -0.10316494 -0.08393569 0.01550694 -0.020991376
000190 de 0c a1 be 57 bd b8 3d 9b a5 64 be 8b 18 21 3e
       -0.3145513 0.09020489 -0.22328798 0.15732019
0001a0 fc f6 22 be 61 9c f4 3d 50 64 64 bc 16 0f d0 3d
       -0.1591453 0.119438894 -0.013939932 0.101591274
0001b0 4a 39 5e 3d cc 78 97 be d0 3f c1 be 3b b2 50 be
       0.054253854 -0.29584348 -0.37743998 -0.2038049
0001c0 10 d5 9e 3d d8 34 97 3e 66 c7 2a 3d 67 4b 6f 3d
       0.07755482 0.29532504 0.041694067 0.05842152
0001d0 ff 97 cc bd 6b 8b 41 3c 6b c3 40 be 9c f8 84 3d
       -0.099899285 0.011813025 -0.18824546 0.06492731
0001e0 79 25 d8 3d 2f b9 3d 3d 95 0e 68 3d 0a 71 04 bc
       0.10554022 0.046319183 0.05665453 -0.008083591
0001f0 71 c8 ba be af f1 58 be fb df 8c 3c 1a a8 d3 3d
       -0.3648105 -0.21185945 0.017196646 0.10334797
000200 8a 64 da bd ab a3 b5 be b8 cf da bc cc 78 a4 be
       -0.106637076 -0.3547643 -0.026710376 -0.3212341
000210 8a 37 8e 3d d1 1a ad bd b7 07 7c bd 90 3e d2 3d
       0.06944187 -0.084523804 -0.061530795 0.10265839
000220 b3 f1 6e 3d 30 ff 0c 3e c6 c4 a9 bd 53 e5 45 be
       0.05833597 0.13769221 -0.08289485 -0.19325761
000230 31 15 66 be 64 d6 bf bd ae 90 27 be da be de 3c
       -0.22469021 -0.09367064 -0.16363785 0.027190614
000240 4a af c7 bd 6e ae a3 be 50 f5 02 be 0c 51 58 be
       -0.097502306 -0.31969017 -0.12788892 -0.21124667
000250 e2 ac 2d be 1e dd b0 3e 4f 59 a4 be 92 fe 02 3e
       -0.16960481 0.345437 -0.32099387 0.12792423
000260 cb 1d c5 3d 81 1e a3 bd b4 2a 8a bd 7c 29 0d be
       0.09624823 -0.079648025 -0.06746426 -0.13785356
000270 e5 d6 5c be 9e 18 22 3e 4c 62 f0 bd 88 72 94 3e
       -0.21566351 0.15829703 -0.11737499 0.2899363
000280 8f e0 d6 bd 44 d5 5f be e4 76 74 be 23 04 55 3d
       -0.1049205 -0.21858698 -0.23873478 0.0520059
000290 d2 bc f6 3d 99 ce 5a 3d 15 2b a4 be 0e 55 85 3d
       0.12047733 0.053419683 -0.3206412 0.065103635
0002a0 7b 50 d0 be b0 43 70 be 8f 92 03 3d db 81 83 be
       -0.40686402 -0.2346332 0.03212219 -0.2568501
0002b0 ca 8e 29 be 80 39 00 be 06 37 1b 3d 71 d2 a0 be
       -0.16558376 -0.12521935 0.03789427 -0.31410554
0002c0 3d 33 01 3e cb d1 a0 bd a2 9c 4d 3d 8f bf 9e be
       0.12617202 -0.07852515 0.050198205 -0.31005523
0002d0 5e bd 0e 3e 86 37 b6 bd d5 02 bb bd a7 68 08 bd
       0.13939425 -0.08897309 -0.091313995 -0.03330293
0002e0 c3 e3 87 be 09 dd fd 3d 87 09 35 be 54 c7 61 bd
       -0.26540956 0.12395675 -0.17679416 -0.055121735
0002f0 3c 8d 71 3d da 7b 1a be b7 32 8b be 3c 63 09 bd
       0.058972582 -0.15086308 -0.2718713 -0.033541903
000300 1f 4a 06 bd 04 40 4a be 54 00 d9 bd e3 00 83 be
       -0.03278553 -0.19750983 -0.10595766 -0.25586614
000310 92 66 74 be 5c cb 5a be 84 a1 c7 bd a0 4a 02 3d
       -0.23867252 -0.21366638 -0.097476035 0.03180945
000320 fb d2 3e be 3e 4e 3e be e8 2f d6 bc 73 32 48 3d
       -0.1863517 -0.18584535 -0.02614589 0.048876237
000330 4e c3 b0 be e5 dd 6e bd f6 50 d7 bd 4e 89 81 bd
       -0.34524006 -0.058317084 -0.10513489 -0.06325017
000340 35 99 89 be ce a9 4c be f9 a7 d5 bc 90 36 06 be
       -0.268747 -0.1998665 -0.026081072 -0.13106751
000350 9f c5 97 bd 41 e4 95 be ad 88 c6 be 52 d4 71 3d
       -0.0741074 -0.29275706 -0.3877615 0.059040375
000360 b6 0c 25 be 85 20 ee 3d b4 2b 8f be 4e b4 88 3d
       -0.1611813 0.11627296 -0.2796303 0.066750154
000370 cb 7d 3e 3d 7f 69 1c bd 8a 9b ad bc 08 e1 af be
       0.046506684 -0.038186546 -0.02119233 -0.34351373
000380 dd be 02 3e e6 be 93 3d 96 7b 39 be 9d e6 9f be
       0.12768121 0.07214145 -0.1811355 -0.3123063
000390 a4 aa 9f 3d d4 26 ba be 9f 2d b7 bd 69 8c 9c be
       0.07796219 -0.36357749 -0.089442484 -0.30575874
0003a0 fa 9e 3a 3d 63 9c 1a be 5c ce 21 be f4 93 46 bc
       0.045561768 -0.1509872 -0.15801376 -0.012120236
0003b0 02 e0 cf 3d 6b f0 b7 bc e6 31 35 be da 16 d6 bc
       0.10150148 -0.022453507 -0.17694816 -0.026133943
0003c0 5d dd f7 bd 7a 80 5e 3e 87 63 9f be 67 0e 83 3e
       -0.121027686 0.21728697 -0.3113062 0.25596926
0003d0 1c e7 0e be 3d c6 02 3e fb db 85 3d 6e 3f a9 be
       -0.13955349 0.12770934 0.065360986 -0.33056206
0003e0 47 bf 71 3c 7a 50 7c be ad a1 b4 be e6 de b3 be
       0.014755077 -0.24640074 -0.352796 -0.35130996
0003f0 dd 0c 00 3e c8 0f cf bd 78 94 44 be de d6 66 3d
       0.12504907 -0.10110432 -0.19197261 0.056357257

value_stream.0.bias f4 [256]
000000 0a 94 49 3d 5e b1 04 3e a1 4f e3 3d d1 de 1b be
       0.049213447 0.12958285 0.110991724 -0.15221716
000010 d3 75 ec 3c 85 7c cd 3d 44 a9 01 3e e1 c0 43 3e
       0.028864777 0.10033516 0.12662226 0.19116546
000020 fd 28 a4 3e f8 8d bf bd 02 9b c4 3e 62 73 0a be
       0.32062522 -0.0935325 0.38399512 -0.13520578
000030 a9 ab 17 be 90 bc ce 3e 33 db 12 3e cc be b4 3e
       -0.14811577 0.40378237 0.1434143 0.35301816
000040 1e 2f 11 3e d5 ab 81 3e 72 46 85 3e c1 b0 02 be
       0.1417813 0.2532641 0.26030308 -0.12762739
000050 e9 1a 42 3e e2 03 a1 3e f3 26 d6 3d 13 19 97 3e
       0.18955578 0.31448275 0.10456648 0.29511318
000060 d1 17 14 3e 72 7f 8e 3e 60 40 4f 3e 9b 1c 91 3e
       0.1446221 0.27831608 0.20239401 0.28342137
000070 78 ae d0 3d 22 a0 22 3e c0 8d d5 3d b6 7a 0d bb
       0.10189527 0.15881398 0.10427427 -0.0021588034
000080 9a 70 40 3d 66 1d 86 3e 66 d8 1d 3e 31 5f d7 3d
       0.046982385 0.26194304 0.1541458 0.10516203
000090 70 01 b2 bc 6c af 9c bd ac 5b 3d 3d 72 80 8d 3d
       -0.021729201 -0.076506466 0.046230003 0.069092646
0000a0 ac 0f d9 bd d6 41 c2 3e 18 f2 22 3e 74 d6 8d 3e
       -0.10598692 0.37940854 0.15912664 0.27702677
0000b0 c0 4e 73 bc b0 e9 67 3e b9 1d 3c 3e fa 97 35 3e
       -0.014850318 0.22647738 0.18370713 0.17733756
0000c0 10 2b 90 3e c9 ad 1b bd bc d1 14 3e 39 47 72 bd
       0.28157854 -0.03800753 0.14533132 -0.059149954
0000d0 62 d5 9d 3e 7c 08 eb 3c 38 73 d1 3d 14 42 a8 3e
       0.3082686 0.02869057 0.10227054 0.32862914
0000e0 84 de 14 3e e0 dc f7 3d ba d6 8a 3e 34 cd cd 3e
       0.14538008 0.121026754 0.27116948 0.4019562
0000f0 cd bc 87 3e b2 7e 7f 3e 38 bf 8e 3e 4c cf a2 3e
       0.2651123 0.24950674 0.27880263 0.3179878
000100 d1 28 8a 3e 19 22 ad 3e 47 de 99 3e e2 6d a3 3d
       0.26984265 0.33815077 0.30052397 0.07979943
000110 c7 28 9e 3e 60 96 09 3d ed eb 2b 3e 2f e9 fb 3d
       0.30890486 0.033590674 0.16789217 0.123003356
000120 a6 1b 2c 3e 2d a9 04 bd da ed 17 3e cc ed 53 3d
       0.16807422 -0.0323879 0.14836827 0.051740453
000130 b7 c4 7c 3e c7 37 a1 bd 46 e6 18 3e 68 52 d6 bd
       0.24684416 -0.07871967 0.14931592 -0.104649365
000140 07 41 2a 3e 88 ff 3e be 33 96 14 be a3 92 a8 3d
       0.16626368 -0.18652165 -0.14510421 0.08231094
000150 30 e6 05 3e 09 a2 b9 3d 77 68 23 bd 25 67 e2 3d
       0.13076091 0.09064109 -0.039894547 0.110548295
000160 65 f1 18 bd 3e 08 dd 3d ac d2 8e bd 54 a7 3a be
       -0.037339587 0.10792588 -0.06973776 -0.18227893
000170 14 85 99 3e 25 28 8d 3e bc a6 92 bd 39 f1 c8 3e
       0.29984343 0.2756969 -0.07160708 0.39246538
000180 40 6d 5d 3e 8a 58 71 3e 07 27 03 3e d3 5f b9 3d
       0.21623707 0.23568931 0.12807857 0.0905148
000190 a1 51 c3 3d b4 02 d0 bd 43 9a 71 bd 5d 05 6c bd
       0.09537054 -0.101567656 -0.058985006 -0.057622302
0001a0 b9 68 d1 3e f3 5b da 3e 0c 21 f8 bd 63 5d 82 3c
       0.4090021 0.42648277 -0.12115678 0.01591367
0001b0 de 25 10 3e a5 f9 06 3d 1a 6e 99 3e 56 ae 57 bd
       0.14076945 0.032952923 0.29966813 -0.052656494
0001c0 b7 df e6 3c d3 8d 2e 3e 3a 91 a8 3e ff f7 55 be
       0.028182847 0.17046289 0.329233 -0.20895384
0001d0 56 c3 86 3e c3 b1 94 3e d3 42 f4 bd cd cd 58 bd
       0.26320904 0.2904187 -0.11926808 -0.052930642
0001e0 56 48 56 3e ad e0 8e 3e 60 62 8d bd 5b 20 3f 3e
       0.20926031 0.2790579 -0.06903529 0.18664686
0001f0 5b c6 fc 3d ea e5 1b 3e 75 f9 74 3e 61 50 14 3e
       0.12342521 0.15224424 0.23923285 0.14483787
000200 a6 84 a3 3e fc 45 88 3e cb 32 d4 3e 9c 15 99 bd
       0.3193714 0.26615894 0.41445002 -0.07474825
000210 fa ae bb bd 56 59 76 3e e1 e5 45 3e 30 d1 16 3e
       -0.091642335 0.24057516 0.19325973 0.14728236
000220 5d d5 80 3e 4e 4a b5 bd 6a 0b 53 3e cb 54 6b 3e
       0.25162783 -0.08852063 0.20609823 0.22981565
000230 f3 c6 ca 3d ea b2 1d 3e 47 83 14 3e 08 2d 0f 3e
       0.09901228 0.15400282 0.14503203 0.13982022
000240 7c da 53 3e ba 96 28 3e 91 2e b3 3d 0a 64 11 3e
       0.20688814 0.16463748 0.08749116 0.14198318
000250 f0 0c 91 3e 17 02 eb bd 06 10 96 3e 08 67 42 3e
       0.28330183 -0.11475008 0.293091 0.18984616
000260 39 58 b3 bc 8e 59 fa 3c 8e 2a 14 3e d3 f9 c7 bc
       -0.021892654 0.030560281 0.14469358 -0.024411118
000270 52 da 89 bc ca 17 09 3e 1d 96 40 bd 38 c8 8d 3e
       -0.016827736 0.13387981 -0.04701816 0.27691817
000280 7a 7b 9e 3e 42 fb 6c 3e a7 94 72 3e 8c 83 17 be
       0.3095358 0.23142722 0.23689519 -0.14796275
000290 ed fb 1c 3e b8 4a 71 bd db a0 c5 3d 1f 7e bd bc
       0.15330477 -0.058909148 0.09649821 -0.023131428
0002a0 5d 98 a4 bd bb 61 d2 bd 70 ad b5 3d 04 43 84 3e
       -0.080368735 -0.10272547 0.08870971 0.2583238
0002b0 9c bb 94 3e 49 79 11 3e ae c7 95 3e 0c c5 43 3e
       0.29049385 0.14206423 0.29253906 0.19118136
0002c0 71 24 a1 3e a9 d0 e7 3d 1d d9 b1 3e dc dd d3 3d
       0.31473115 0.11319096 0.34735957 0.10345051
0002d0 12 13 c2 bb 83 dd e2 3d e7 d8 2d 3e f3 b0 97 3e
       -0.0059226835 0.11077406 0.16977273 0.2962719
0002e0 e4 eb 95 3e c5 d1 d5 3e 8a da 6d 3d 0e 64 99 3e
       0.29281533 0.41761604 0.058069743 0.29959148
0002f0 3c eb ce 3e 42 b8 fd 3d 25 bd c4 3a 5a 09 16 3e
       0.40413845 0.1238866 0.0015009983 0.14652005
000300 67 0d be 3e cb 5a 28 3d 9d 1b e2 3d d1 9e 1b 3e
       0.371196 0.041102212 0.11040423 0.15197302
000310 5d 0e 17 3c a6 a9 98 3e 72 8d 6c 3c 33 c9 73 3e
       0.009219733 0.2981693 0.01443802 0.2380722
000320 84 a9 f4 3d 5a df ac 3e 4a 48 9c 3e 11 26 75 3e
       0.11946395 0.33764154 0.30523902 0.23940302
000330 79 39 e0 3d 7d 64 64 be e9 7a 1f 3e b4 88 b9 3e
       0.10948462 -0.22303958 0.1557423 0.3623711
000340 b6 d1 9d 3e 62 df eb 3d eb 7b d4 bb da 12 5d 3e
       0.3082406 0.11517216 -0.0064844987 0.21589223
000350 44 0e ba bd 58 4a 28 3e 76 b1 ab bd b1 fa 41 bd
       -0.09084752 0.1643461 -0.08383457 -0.04735822
000360 79 ab 23 3e 7d ac fc 3d 8a c3 14 3e b2 95 9f 3e
       0.1598338 0.12337587 0.14527717 0.31168896
000370 32 a0 39 3e cd e7 af bc d5 6b 22 3e fd af a7 3e
       0.18127516 -0.021472836 0.15861447 0.32751456
000380 13 96 88 3e cb 7e 27 3e 00 5a 6f 3e e1 da 0a be
       0.26676998 0.16356961 0.23374176 -0.13560058
000390 4a 8b ce 3e 0d be b2 3e ec d1 9a 3e 35 b8 82 3e
       0.40340644 0.34910622 0.30238283 0.25531164
0003a0 8f 4d 36 be f9 69 fe 3d 51 6f aa bc e9 fd 4e 3e
       -0.17803024 0.124225564 -0.020805033 0.20214047
0003b0 a9 7e 24 3e 0b e4 35 3e 77 f4 24 3e 61 56 a0 3d
       0.16063942 0.17762773 0.16108881 0.078289755
0003c0 62 6d ee 3d 92 7f 83 3e b0 b3 f8 3d c3 95 ac 3d
       0.11641957 0.25683266 0.12143648 0.08427002
0003d0 c1 2e 74 3e 54 e4 0f be bf 8f 78 3e d2 49 e7 bd
       0.2384596 -0.14051944 0.24273585 -0.11293377
0003e0 3d 59 0b 3d 49 18 32 3e 7b 5e 8c bd 50 09 22 bd
       0.03402065 0.17392077 -0.06853958 -0.039559662
0003f0 47 89 38 3e cc f5 45 3e 0d c6 15 be d6 39 d5 bd
       0.18021117 0.19332045 -0.14626332 -0.10411422

value_stream.2.weight f4 [1, 256]
000000 10 91 7e be 4d 02 a4 bf 61 35 24 be 49 65 4d be
       -0.24860024 -1.2813202 -0.16035987 -0.20058168
000010 18 a1 21 be 1b 65 48 be 53 7b 5a be d0 e2 86 bf
       -0.15784109 -0.19569819 -0.21336107 -1.0537968
000020 6b 48 c0 3e 2e 8f 36 3e 96 ee 90 be 37 fb e0 3d
       0.3755525 0.17828056 -0.28307027 0.109854154
000030 71 f7 4f be d4 ed bf bf 9e e3 1a be 0d bd 80 be
       -0.20309235 -1.4994454 -0.15125892 -0.25144234
000040 0e 5b ba 3e 64 d1 89 be 89 a5 b6 3e 7d 88 f3 3d
       0.36397594 -0.26917565 0.35673168 0.118912674
000050 37 4d f4 3d 0a 9e dc be 83 de 1d be 71 10 9d be
       0.1192879 -0.43089324 -0.15416913 -0.30676606
000060 18 64 eb be 88 f7 ad be f2 97 8e be 57 1c c2 be
       -0.45974803 -0.33977914 -0.278503 -0.37912247
000070 83 f5 4b be 42 f2 ff bd 6b 2b da bd 0e 49 57 3c
       -0.19917874 -0.12497379 -0.106528126 0.013139976
000080 8c 3c df 3e 05 86 c1 3d 2f 6e ba bd 16 9d 1a be
       0.4360088 0.0944939 -0.09103047 -0.15098986
000090 33 c7 ba be a1 93 07 3e 3d 30 7b 3e cc 7c 28 3e
       -0.36480102 0.1323991 0.2453012 0.16453856
0000a0 e2 53 03 3e 19 ea 99 bf 4e 9d f2 bd 1f 64 72 3e
       0.12824968 -1.2024566 -0.1184641 0.23671006
0000b0 08 1a 12 3e be 65 87 be 35 1e 68 be 44 e8 f0 bd
       0.14267743 -0.2644481 -0.22667773 -0.11763051
0000c0 51 57 a6 be 06 89 44 be 2c d1 13 3f 91 ff 75 3e
       -0.32488492 -0.19192895 0.57741046 0.24023272
0000d0 af c8 cd be 06 ae 3f 3a 64 12 87 3e 79 24 8a be
       -0.40192172 0.0007312003 0.26381218 -0.2698095
0000e0 63 7b 10 bf 9a a9 a7 bd a0 a4 6b 3e 2a 43 44 3e
       -0.56438273 -0.08186646 0.23012018 0.19166246
0000f0 5f 62 b0 3e bd aa 7d be 7b d4 b3 3e 24 9a 8a be
       0.3445005 -0.24772163 0.35123047 -0.27070725
000100 97 5c 54 3e 1a 0b 87 3e 11 fd 25 be 46 1c 5e be
       0.20738445 0.26375657 -0.16209818 -0.21690473
000110 4d b3 e6 be 9d 72 3d 3e 2a 8c d0 3e d3 09 1d be
       -0.4505867 0.18500753 0.40731937 -0.15335779
000120 b6 e6 07 3e 11 9d 2d 3e 9a d5 26 be ed a8 f0 bd
       0.13271603 0.16954447 -0.1629242 -0.1175097
000130 fc e3 b3 bd 0a 03 07 3e 50 4f 6e 3e 0c b8 18 3e
       -0.08783719 0.13184753 0.23272443 0.14913958
000140 1d b5 10 be a9 39 00 3e c4 c3 2d be f1 dc d2 bd
       -0.14131589 0.12521996 -0.1696921 -0.102960475
000150 fc 29 fc bd 35 e5 4e be f9 84 2c 3e 69 dc 54 be
       -0.123126954 -0.20204623 0.168476 -0.20787205
000160 66 46 0d 3e fa 40 06 be 05 20 16 be 49 c7 66 be
       0.13796386 -0.13110724 -0.14660652 -0.22536959
000170 d4 ac 6f be cc 37 b9 3e fd 07 27 3e 51 cd 74 be
       -0.23405772 0.36175382 0.16311641 -0.23906447
000180 4a 91 77 be 4e 01 8c 3e 0c 2b 68 3e 27 7c 51 be
       -0.24176517 0.27344745 0.22672671 -0.20457517
000190 3f 2d ae be 1f 04 0d be 70 40 1e 3e 90 af 3c 3e
       -0.34018895 -0.13771103 0.15454268 0.18426347
0001a0 16 dd 80 be 83 63 53 bf 73 87 87 3e 9c ea e2 bd
       -0.25168675 -0.8257372 0.26470527 -0.110799044
0001b0 f5 51 96 3e c9 68 09 be 36 de 9e 3e 0a 24 ee 3d
       0.29359403 -0.13418879 0.31028908 0.11627968
0001c0 fc f3 56 3e fc 62 7e 3e dc 02 d4 3e fa b9 81 be
       0.2099151 0.24842447 0.41408432 -0.253372
0001d0 1f 00 81 3e 60 0f 85 be da 91 e5 3e b7 00 0f 3e
       0.25195405 -0.25988293 0.44837838 0.13965116
0001e0 3a 56 0d bf 17 94 98 be fb 82 3a be 6b db ef bd
       -0.55209696 -0.29800484 -0.18214028 -0.117117725
0001f0 fa fa b4 bd 5b e5 1d be 1d 56 99 3e 77 65 1c be
       -0.088369325 -0.15419523 0.29948512 -0.15273081
000200 8e 14 9a 3e e9 23 59 be 2c 2d 8a bf 87 ee ec 3d
       0.30093807 -0.21205105 -1.0795035 0.11568933
000210 35 ba 02 3e 7e 64 93 be 7f 26 48 3e c7 78 8d bf
       0.12766345 -0.28787607 0.19545935 -1.1052483
000220 4a d7 c8 bf 35 2d 09 3e ac 2a 69 bf b0 0e 66 be
       -1.5690701 0.13396151 -0.9108074 -0.2246654
000230 d1 df 14 be 8d 68 35 be c8 14 55 3e 5e cb 01 be
       -0.14538504 -0.17715664 0.20808709 -0.12675235
000240 b3 a1 72 3e d9 8f 10 be a5 c0 fa bd 2a bc b7 3e
       0.23694496 -0.14117374 -0.12243775 0.35885745
000250 a9 20 7d be cd 63 2f be 2c 70 46 bf bf 32 97 3e
       -0.2471949 -0.17127915 -0.7751491 0.29530904
000260 6a 25 8c 3e 34 f8 4a bf a1 6d 21 3e 20 a8 ad be
       0.27372295 -0.7928498 0.15764476 -0.33917332
000270 38 4d 86 3e eb 4d 24 be 96 e4 93 3e 7c 03 a6 be
       0.26230788 -0.16045348 0.28885335 -0.32424533
000280 a3 72 85 3e 64 de 3f 3e 8e 0f 26 bf 24 43 e5 3d
       0.26064023 0.18737179 -0.64867485 0.11194447
000290 03 17 11 be 12 e9 51 be a7 45 24 be 98 e1 95 3e
       -0.14168935 -0.20499066 -0.16042195 0.29273677
0002a0 8f e2 ce 3d c2 a9 50 be 2b 6d 18 be 66 b8 14 bf
       0.10101806 -0.20377257 -0.14885394 -0.5809387
0002b0 ec 7e 68 be 81 76 f2 bd b3 3e 86 be fd b1 05 bf
       -0.22704667 -0.11839009 -0.2621971 -0.52224714
0002c0 24 c3 8d 3e 40 6b 5e 3d d1 53 8f be 54 29 19 be
       0.27687943 0.0543015 -0.27993634 -0.14957172
0002d0 29 7f 09 be 60 6c 13 be 76 94 13 3e 4b 23 ab 3e
       -0.13427414 -0.1439681 0.14412102 0.33425364
0002e0 3e 5d 81 be 6e 2f a9 be 25 6b 13 be f1 e7 bd 3e
       -0.2526645 -0.33043998 -0.14396341 0.3709102
0002f0 48 b5 92 be 69 d2 ec bd 7b e7 46 3e 1f 02 26 be
       -0.28653932 -0.1156357 0.1942424 -0.16211747
000300 15 05 a3 3e c7 c5 ac be 9a 3b c3 bd bd 81 19 be
       0.31839815 -0.33744642 -0.095328525 -0.14990897
000310 00 16 18 3e e9 4e d8 3e b0 a3 06 be 63 72 3d be
       0.14852142 0.42247704 -0.1314838 -0.18500666
000320 ce 86 71 be c4 e4 01 3f eb bc ec 3e 0c a4 62 be
       -0.2358658 0.50739694 0.46237883 -0.22132891
000330 e1 4c c7 3e 61 56 42 be 7e fa b3 be 0b fa 59 bf
       0.3892584 -0.18978263 -0.35152048 -0.8514716
000340 c0 4b 4c be 36 08 49 3d 10 5f 75 3e ff d9 a2 3e
       -0.19950771 0.049080096 0.23962045 0.31806943
000350 90 79 14 3e 1a 08 a2 be 03 35 27 be 08 6e 2b 3e
       0.14499497 -0.31646806 -0.16328816 0.16741192
000360 66 85 b7 bd 6b 83 f6 be 5b 2c 3a be 91 d9 81 be
       -0.089609906 -0.4814714 -0.18180983 -0.25361302
000370 7f 1e cd bd 0d 73 14 3e 17 2c ef bd 07 75 7c 3e
       -0.10015582 0.14497013 -0.11678331 0.24654017
000380 dd 4f 38 be 90 d0 18 be 62 71 a6 3e fd 50 6b 3e
       -0.17999215 -0.1492331 0.3250838 0.22980113
000390 1b 31 88 be 64 b2 1f 3e 0d 96 89 3e 5b 89 95 be
       -0.26599964 0.15595394 0.26872292 -0.29206356
0003a0 df 01 33 be 28 57 0d be 89 c1 31 3e 2d 4a 97 be
       -0.17481183 -0.13802779 0.17358984 -0.2954878
0003b0 17 e6 d9 3d c5 07 06 be 0b ec e0 3d d0 8d 16 be
       0.10639589 -0.13088901 0.109825216 -0.14702535
0003c0 0b c4 01 be 74 21 a0 3d 1c db 06 be da d7 61 be
       -0.1267244 0.07818881 -0.13169521 -0.22054997
0003d0 8b 81 af 3e 9b ab f0 3d 7f 9d 39 bf c3 07 1b 3e
       0.3427852 0.11751481 -0.72505945 0.1513968
0003e0 f1 9b b0 3e 8d e0 67 3e e3 49 2f be 85 3d db bd
       0.34493974 0.22644253 -0.1711803 -0.10705093
0003f0 e9 61 17 be 75 5b 10 bf e8 90 4b be c8 ff 42 be
       -0.14783444 -0.5638955 -0.19879496 -0.19042885
