active_slam_rl/training_output_frontier/20260124_140852_frontier/d3qn_frontier_ep580.pth (torch, 901938 bytes, 11 tensors)

feature.0.weight f4 [256, 100]
00000000: 2336 7bbd d3d3 5ebd 4bc7 94bd d34f 1bbe
00000010: f584 aabd 9e5b b0bd 3ba9 29bd 6dad 56be
00000020: 91c3 9ebd b75e 35be ebf2 a3bd 0c47 2ebe
00000030: f5d9 cbbd c4ac babd c17f 3ebd 6a59 24be
00000040: 2512 eabd b93a 34be 5e67 41be c476 9dbd
00000050: 8110 73bd 2e58 c4bd 9657 efbd 4941 b7bd
00000060: 923e e4bd 849d 19bd 8303 753c cbe6 62bd
00000070: 6946 243d 0f38 5dbd 81fd 603d c34e fdbd
00000080: 7e2b 8abd 3e0f 8f3c 99a3 4e3d 6f96 1abe
00000090: 8c40 14bd 5d56 cbbd 4b2f 5cbd e936 28be
000000a0: aacc b4bc c315 4c3c 93b9 26be 644c 1bbd
000000b0: 2bfc 6cbd cb2e 50bd 2956 cebc 826c b9bd
000000c0: 5abf 8abe 0481 68be 51fc 97be 37f7 adbe
000000d0: 3d0c 3cbe b9a0 6abe ce1d cbbd 913a a9bb
000000e0: b367 a73d 42a7 f4bd 118a ebbd 5f7c 513a
000000f0: 7628 cf3c 1c4b 633d 915d b83d a0e9 e1bd
00000100: f4d2 e23d 76d1 c83d ceff 78bd decb 0d3e
00000110: aec1 143e f598 0c3d 88cd 8f3d adc0 ce3d
00000120: 1453 273c 3dad f9bc cf82 1dbd cf7a 773d
00000130: b0a7 01bd 1dea 4c3e a2e7 0d3e bfa9 083e
00000140: 686c 1d3d e5c8 5abd a810 2c3d 1e9c 1fbc
00000150: 2d52 01bd fd46 1ebd e062 ad3d cf6f 0ebd
00000160: 25ea 803d ff02 943d dd77 ecbd 3325 6cbd
00000170: ff55 543c 3a56 e4bd ceee a4bd fbc5 aabd
00000180: a355 d1bd a02a ac3d 95a6 22bd 491d 0d3d
00000190: 03f3 7f3d 231d f13b e208 13bc ce24 2dbd
000001a0: a512 04be 198c a83d 6fe6 3e3d 709d b33d
000001b0: e42c 82bc 5569 5e3d 5ead a23d 05b2 f9bc
000001c0: e5ea 2c3e 86cf 113e 9e94 29bd 0e6c 833d
000001d0: 3fb6 90bd 7248 9f3d 3473 3f3c d3cc ed3d
000001e0: 767d 36bd f721 b8bd e761 3fbc 633f 91bd
000001f0: b058 6ebd f92e 303d 955c f6bc 403b 44bd
00000200: ba6d 72bd 6ed3 7cbd d40f ebbd 1f1d c4bd
00000210: f79f 0abe 0164 16be aba9 693d 396c d43d
00000220: 8389 183e 67a0 af3c b5c9 303e 3127 433e
00000230: 17ae 1a3e bc37 183e 5315 293e b2f0 0a3e
00000240: 1046 423e 576f b83d a250 32bd 6042 7dbc
00000250: 271c 9d3d a8fa db3d 74f1 a53d a2ba 5d3d
00000260: 044c e93a 7904 a2bd 54f0 b8bd f9b3 f0bc
00000270: d125 053e 3cd0 b03d d6f7 e3bc 1fdf 4cbc
00000280: 87ea 45bd 872d dabd 8a7d 52bd d7c3 e5bd
00000290: 48bb 31be faef d5bd 831c ddbe 60fc 12bf
000002a0: 1ccf d4be a978 22bf dc57 06bf 9758 ccbe
000002b0: 026b ddbe ed52 c5be 75a0 aebe 005d 0cbf
000002c0: 8189 17bf 3993 cfbe 31a8 f4be 9735 c4be
000002d0: ae22 bcbe 9525 e7be 6a20 8bbe 2979 d4be
000002e0: 9924 e5be 3c04 d0be d288 e7be cc6e d1be
000002f0: 3cc4 b6be 1541 6bbe fa84 6fbe e4c0 75be
00000300: 4989 b8bd fe37 debd da5b 00be d55c cbbd
00000310: e435 b53c fb3c e5bc f988 6b3d c804 323e
00000320: bd1d abbd 19a2 283d 8149 96bd fd44 b9bc
00000330: 1346 f7bc 5efa 5f3d 1157 843d dc95 783e
00000340: 9f63 db3d 9a3b 2b3e 694b 043e a39a 043e
00000350: eeec 5a3e 9fdd e23d aebb 1b3e c4ba 393d
00000360: f9ba be3d 02b3 c03c 4c7d 6e3e 63ac 833c
00000370: fd76 05be 7ffc 85bd 50c3 16be 001c efbd
00000380: 2016 07bd 7dc8 0d3b 2631 fcbd 0971 1dbe
00000390: 3308 18be 6287 24be e1c0 78be da96 b2bd
000003a0: 313f 44bd 82b6 20be 3039 a1bd dfba c53c
000003b0: 2350 c53d baf8 2a3d 40bd 653e 3a0e 913d
000003c0: 29c2 173e 6c3f 4c3c 5ad9 143e 5896 e63d
000003d0: 54b1 093e 9477 b83d 15ae 7e3e a9d1 113e
000003e0: b853 39be e435 5ebe ebc3 d2bd db2b c6bc
000003f0: c681 313a ef95 45bd 1b24 7ebd 02a8 78bc
-0.061330926 -0.05440123 -0.072645746 -0.1516717 -0.08326141 -0.086112246 -0.041421156 -0.20964594
-0.07752145 -0.17711912 -0.08005317 -0.1701929 -0.099536814 -0.09114984 -0.046508554 -0.16049734
-0.11429242 -0.17600526 -0.18887088 -0.07688668 -0.05934191 -0.095871314 -0.116866276 -0.08947999
-0.11144747 -0.037503734 0.014954451 -0.055395883 0.04010621 -0.05400854 0.05492926 -0.12368538
-0.06746577 0.017463323 0.050448988 -0.15096448 -0.03619437 -0.09928582 -0.05375604 -0.16427197
-0.022070248 0.01245636 -0.16281728 -0.03791465 -0.057857674 -0.050825875 -0.025187569 -0.09053899
-0.27099115 -0.22705466 -0.2968469 -0.33977672 -0.18364044 -0.22912873 -0.09917794 -0.0051644524
0.08174076 -0.119459644 -0.115009435 0.000799125 0.025287848 0.05549155 0.090022214 -0.110308886
0.11075392 0.098055765 -0.06079083 0.138473 0.14527008 0.03432556 0.07021624 0.10095344
0.010212678 -0.030478114 -0.038454827 0.060419854 -0.03165406 0.20011182 0.13857892 0.13346003
0.038433462 -0.053414244 0.042008072 -0.009741811 -0.03157251 -0.03864192 0.084661245 -0.034774598
0.062946595 0.07227134 -0.115462996 -0.057652663 0.012959956 -0.11149259 -0.08053361 -0.08338543
-0.10221412 0.084065676 -0.039709646 0.034451757 0.062487613 0.0073582097 -0.008974286 -0.042271428
-0.12897737 0.082298465 0.046606477 0.08770263 -0.015890546 0.05429967 0.079432234 -0.030480394
0.1688648 0.1423932 -0.041401498 0.06417094 -0.07066011 0.0777749 0.011685181 0.11611333
-0.044553243 -0.08990853 -0.011681057 -0.07092168 -0.058190048 0.043013547 -0.030073443 -0.047908068
-0.059186675 -0.061725073 -0.11477628 -0.09575867 -0.13537584 -0.14686586 0.057046574 0.10372204
0.14896207 0.02143879 0.17264445 0.19057919 0.15105473 0.14865011 0.16512041 0.1356838
0.18972039 0.090056114 -0.04353393 -0.01545772 0.07671385 0.10741168 0.08102694 0.054133065
0.0017799144 -0.07911009 -0.09030214 -0.029382693 0.13002707 0.086334676 -0.027828138 -0.012504368
-0.048319366 -0.10653215 -0.051389255 -0.11218994 -0.17356598 -0.104461625 -0.43185815 -0.57416344
-0.41564262 -0.6346536 -0.5247781 -0.3991134 -0.43245703 -0.3853983 -0.34106794 -0.54829407
-0.5919419 -0.4054201 -0.4778457 -0.38322136 -0.36745209 -0.4514586 -0.27173167 -0.41498688
-0.44754484 -0.4062823 -0.45221573 -0.40904844 -0.3569659 -0.22974046 -0.2339057 -0.23999363
-0.0901056 -0.108505234 -0.12535039 -0.09929816 0.022120424 -0.02798318 0.057503674 0.17384636
-0.083552815 0.041170213 -0.073382385 -0.022615904 -0.030184781 0.054682128 0.06461919 0.24275917
0.107123606 0.16721955 0.12919392 0.12949614 0.21379444 0.11077427 0.15208313 0.04534413
0.09313006 0.023522858 0.23289984 0.016073411 -0.13033672 -0.065423004 -0.14722943 -0.116752625
-0.032980084 0.0021634393 -0.12314062 -0.1537515 -0.14846878 -0.1606727 -0.24292327 -0.08720179
-0.047911827 -0.15694621 -0.07872236 0.024136959 0.096344255 0.04174111 0.22435474 0.070827916
0.1482016 0.012466293 0.14536038 0.112591445 0.13446552 0.09007183 0.24871095 0.14240135
-0.18098342 -0.21700245 -0.10291275 -0.024190834 0.0006771352 -0.04823869 -0.06204615 -0.015176775

feature.0.bias f4 [256]
00000000: 405e 8f3e 168d ba3e 8761 86bd ba2d 483e
00000010: 9d1d cbbe 1619 71be b526 383e 1d6e 6c3e
00000020: b624 223f a6c5 f43e 5942 adbe c5e3 a2bd
00000030: 8d12 d73e e1b5 5f3e be8e 78be cc14 283e
00000040: d897 bcbd 96eb b23e 154e a23d 14c6 cbbe
00000050: dc34 a73e 8603 80bd fce7 f2be 097c 853e
00000060: da9f 25bf 8e35 ebbe a2f8 93be 0bae 453e
00000070: d8f2 a1be 6708 d13e 7160 1b3c 3bc3 32bf
00000080: 7be7 17be 87e7 abbe 7760 5e3d 1408 08bf
00000090: 1f33 c2bc 3f01 973e 04b9 763e c388 0f3f
000000a0: 304e 743e 74a5 debc 11b5 8e3d 76b4 cc3d
000000b0: afea fcbe f5fd 15be 7c5e babe 93ba 42be
000000c0: 0a3b cf3e 2235 7e3e b188 f8bd 0642 21be
000000d0: 3481 95bd 6c80 163e 0dd8 2e3d 870d cfbc
000000e0: 1d9b 053e a917 87be 376c 453d 5ab4 d53d
000000f0: 8de4 90bd f7b4 643e fc5c 24bf 4fe5 643e
00000100: 8591 023f cfde 963e e9eb 8bbd 0c1f df3e
00000110: 546b 9dbe ecc0 bfbe f477 3ebe d764 2f3e
00000120: b42e 243e 0bea 84be 453f 6abe d6cf 93bd
00000130: 0164 d6bc 24ff 4bbe 4348 5dbd 95c9 c93e
00000140: 97fb 263f 22eb d63d c9e6 bd3e 6cbb 08be
00000150: 979b db3e 1fbf 46be 6661 6e3d 0880 513e
00000160: 425a b93c 88f4 d13e 1c9d 233f a5a3 85be
00000170: a209 8a3d 217f fbbd 5b08 0e3f 913b bd3e
00000180: 345d 2f3e fcc8 1e3f bb89 4e3e af44 1ebe
00000190: 0250 ed3e d00f 5d3e aeab 78be 9ab9 303e
000001a0: 0c84 0c3f 4be6 1b3f de5d 843e 54c6 da3e
000001b0: baf9 313e a876 5dbd b4cf a7be 882d 56be
000001c0: 0572 d2bd ff36 0c3f 2b42 6a3e c653 6bbe
000001d0: 4dad 8cbd 3ee6 ebbe c787 f83e da05 c1bd
000001e0: 5e16 aebe 1f22 a9bd 66df 813d 11f9 dabe
000001f0: 0fe4 a03e 6f7b 253e 6fe5 173f 3577 aabd
00000200: 1032 fe3d cdb7 d83e f702 823e 0749 0bbd
00000210: 5b8d 973e 2cdb 8abe 5958 a43e 0132 a83e
00000220: 5da3 a83e 7d84 ce3e 576f 543e ba39 a3be
00000230: 82c4 0c3f 727c 9abd e1d2 18bf dfa3 9dbe
00000240: f88e be3e 50a4 183f 92a6 6c3d 0f1d 0b3d
00000250: cddb 953e d91c d9be 6145 f23e 82ce 1cbf
00000260: 4c83 fc3e 79b5 eabd ad35 163f b3a5 413f
00000270: c0ac ef3e 1d16 d93c dd61 303e 50e4 8b3d
00000280: 4287 9dbd b019 b63e fe28 723e e47b 033f
00000290: 99c1 bc3c 09d5 34be 70ff ed3c 084e e7bd
000002a0: abdb db3e 7b0e a9bd 9b4a 963e 4c4e 87bc
000002b0: e686 433e 7e19 9e3d 47ca c63e 5dfe f6be
000002c0: 31d6 8f3d 7ff3 53be 6c07 80bc 0301 0f3e
000002d0: aa44 da3e c660 103e bc25 9ebe 739e e1be
000002e0: cf4e a73e f396 a6be 4c44 72bc 4f19 e3be
000002f0: f6a1 193e 8bd5 843e 97b3 153f e8be c63d
00000300: 9b5a 59be efe3 2abe 9067 bd3e 54df e7bd
00000310: b373 683e f8cf 093e a391 11be 5560 6ebe
00000320: 1d55 133d 65b7 ccbe b253 a7be 2d0b 20be
00000330: 756b cc3e 04ce b3be ed19 223f 794e c23d
00000340: 9218 083f f599 4e3e 13d1 b33e 1611 c0be
00000350: 0ba4 d43d 55ef 203e 1111 93be c9a3 98be
00000360: 8e92 e03e c6c3 9ebe a17e e5bd 565e ee3d
00000370: c020 053f 428a 233f d844 64be 4d4a e93e
00000380: e76a 1abd a11c f63e f58f 333e 6387 9d3e
00000390: 1bee 273e 8df5 be3e 38a2 e33e 4066 31be
000003a0: 8472 873b f835 833d 05c8 cdbe 8fd1 5bbe
000003b0: 0eed 1fbe d352 8ebe cb19 9dbd 2aa4 b1bd
000003c0: 94f8 f93e 73b8 f13e 3fc9 183c 4097 aabe
000003d0: 7c29 943d d464 b33c 9958 71be b06a 893e
000003e0: 175a 00bf ed14 043f f490 033f 92d1 0bbe
000003f0: 1d07 6ebd 8422 fe3e 47b3 9e3e cb61 ebbd
0.28001595 0.36435765 -0.065615706 0.19548693 -0.3967103 -0.23544726 0.17983516 0.2308888
0.63337266 0.47807044 -0.33839682 -0.079536 0.4200634 0.21846725 -0.24273202 0.16414183
-0.092086494 0.34945363 0.07925049 -0.3979956 0.32657516 -0.06250672 -0.47442615 0.26071194
-0.6469704 -0.45939296 -0.2890063 0.19304673 -0.31630588 0.40826723 0.009483443 -0.6982915
-0.14834397 -0.3357508 0.054291215 -0.53137326 -0.023706017 0.29493138 0.24094015 0.56068057
0.23857951 -0.027178504 0.069681294 0.09995358 -0.493978 -0.14647658 -0.3640021 -0.19016485
0.4047473 0.24824956 -0.12135447 -0.15747842 -0.07300034 0.14697427 0.04268651 -0.025275005
0.13047452 -0.2638524 0.048198905 0.1043479 -0.070748426 0.22334658 -0.6420438 0.223531
0.51003295 0.29466864 -0.06832106 0.43578374 -0.30745947 -0.37451875 -0.18600446 0.17128311
0.16033441 -0.2595981 -0.22875698 -0.07217376 -0.026170732 -0.19921547 -0.054023992 0.39411607
0.65227646 0.10494067 0.37090138 -0.13352746 0.42892143 -0.19408844 0.058198355 0.20458996
0.022626046 0.41006875 0.63911605 -0.26101413 0.067401186 -0.12280107 0.554815 0.36959508
0.17125398 0.6202543 0.20169728 -0.15455888 0.46350104 0.21588063 -0.2428424 0.17258301
0.5488899 0.60898274 0.25852865 0.42729437 0.1738042 -0.054068238 -0.32775652 -0.20915806
-0.10275654 0.5477142 0.22876804 -0.22981176 -0.06868992 -0.46074098 0.4854109 -0.09424944
-0.3400144 -0.08258461 0.06341438 -0.42768148 0.31423995 0.16160367 0.5933446 -0.08323518
0.124118924 0.4232773 0.25392887 -0.03400519 0.29600033 -0.2712034 0.32098654 0.3285065
0.32937136 0.40335456 0.20745598 -0.3187998 0.5498735 -0.07543267 -0.59696776 -0.30789086
0.37218451 0.5962572 0.05777604 0.03396326 0.29269257 -0.42404822 0.47318557 -0.61252606
0.49318922 -0.114603944 0.5867565 0.7564346 0.46811485 0.026499802 0.17224832 0.068306565
-0.07691814 0.35566473 0.2364845 0.5136092 0.023041533 -0.17659391 0.029052466 -0.1129418
0.4294103 -0.08254715 0.29353794 -0.016516827 0.19094428 0.07719706 0.388262 -0.4824094
0.07023276 -0.20698355 -0.015628539 0.1396523 0.42630512 0.14099416 -0.30888164 -0.440662
0.32677314 -0.3253704 -0.014786791 -0.44355246 0.1500319 0.2594417 0.5847716 0.09704381
-0.2122597 -0.16688512 0.36993074 -0.11321893 0.22700386 0.1345824 -0.14215712 -0.23278935
0.035969842 -0.3998367 -0.32681042 -0.15629263 0.39925733 -0.35118115 0.6332081 0.09487624
0.5316249 0.20175917 0.35120448 -0.37513036 0.10382851 0.15716298 -0.28723958 -0.29812458
0.43861812 -0.31008738 -0.11205793 0.11639087 0.520031 0.6388284 -0.22291887 0.455645
-0.037699606 0.48068717 0.17535384 0.30767354 0.16399424 0.37296715 0.444597 -0.17324162
0.0041335244 0.06406778 -0.40191665 -0.21466659 -0.15617773 -0.27797565 -0.07670935 -0.0867389
0.48822463 0.47211036 0.009325325 -0.3331852 0.07234475 0.021898665 -0.23568954 0.2683921
-0.50137466 0.5159443 0.51393056 -0.13654163 -0.058112253 0.49635708 0.30996153 -0.11493262

feature.2.weight f4 [256, 256]
00000000: 6729 1dbc c53a 04bd c603 d03e 4f3f afbe
00000010: a945 813d 3d7f 873c 36c2 03be 19e1 c93d
00000020: 6223 ecbc aa6f 04bb 2861 233e f1f9 41be
00000030: 9d25 9fbc b99b 86be 94b3 133e 861c a73c
00000040: fe4c f2bd d4d0 e3be 9f90 66be c5f2 1e3e
00000050: 260c dfbe b0fc 1dbd 47df db3d e5bc dbbe
00000060: 2781 583d b614 1a3e ed75 633e 3e5f 10bd
00000070: 15d1 84bd b3b3 e5be 39cf dd3c 647f 693e
00000080: 9155 dd3d 75ad 9f3e e53c 953e f0db 55bc
00000090: 5362 9dbd efdf 8abe 3f8a 04be 70ce c8bd
000000a0: f40e 093e 0e50 733b 7cce 9ebd 2cbd 90be
000000b0: 9f03 e43d bcc2 40be aef5 aebc dbfa c83e
000000c0: f3f9 fbbe 04a3 3abe 99de ab3d 515d a03d
000000d0: e024 3bbe 9a02 1ebd 30c9 f4be c6de a7be
000000e0: fc17 e2be 58a4 ccbc 8088 54bd a08b b5bd
000000f0: 08f2 983d cc02 afbe 82e4 e03c cba0 10be
00000100: 3799 acbe 15ce dabe a9a3 be3d 051c 86be
00000110: 3248 fdbe 18d1 b2bb 1446 a63e e931 7fbd
00000120: a0a1 7cbe 7654 88be 0dda 7bbd 25ff 8a3d
00000130: 2837 0cbe 5580 08bd 0f47 0f3d fb24 ebbd
00000140: 6f7c b7bd 7deb aabe 4b12 f3bd 2034 243d
00000150: 9451 983d 4bd4 5d3e 4be9 0fbf eeca 7c3d
00000160: 3ec9 a5bd ff08 c7bd 83d6 95bd 7c13 16be
00000170: 76a5 a8be cf74 b33d 9774 283d 6d7c f03e
00000180: f6ab c0be 40bc ffbc 2838 3fbe ec6c 373e
00000190: 7254 4dbe 8bcf 23be ab8e 35bd 3d26 30bf
000001a0: 91eb 4cbf 6ea1 43bf a305 8abe fbe9 3fbf
000001b0: 5f65 6f3c 1c3c 44be 9ebd c5bc 0793 80bd
000001c0: beb1 d0bd f43c 00bc 26c6 0fbd f402 c63d
000001d0: bbed d03d 7906 de3c 754c ecbc 5858 82bd
000001e0: 4c64 3c3e ba68 cc3d 065c 77be 0bde 3cbe
000001f0: 936f cdbe 6b7c 463d 537f 39be 5a75 e6bd
00000200: c3e3 d03e a88e a6be 2314 e6be e1fd 1bbe
00000210: 3662 01be cf40 b63d 3beb 67bd 06fe 86bd
00000220: 8186 b5be 496b 99be 1273 24be e504 713d
00000230: d884 93bd 8952 00bf ac6c 213e dff7 253e
00000240: 361e 0bbf eab9 0b3d d931 0bbf 0966 8a3d
00000250: 8313 29be 295e c73d 069e 27be 0859 e23e
00000260: 8b23 8a3e 118b 223e b145 8ebe 615b 11be
00000270: 43e2 61be 2d49 143e b7e9 493d 7515 d7bd
00000280: 709c 6ebe 16f9 ecbd 548b a6bd 4161 41bf
00000290: 23cc 93be fb06 8e3e 20c2 b0be 0da9 1cbf
000002a0: 54f7 66be 2db0 96be f296 f4bc d5ad 61be
000002b0: 2bac 673e 7c2f ffbe f78a 36be cf4a 053d
000002c0: cc36 6bbd 3491 a33e 0189 98be bd1b 19bd
000002d0: 29cd 06be 1696 09be 9f8d 8b3d fe07 a53d
000002e0: fcac 613d 52e1 033e 0b91 93bd 6f20 093f
000002f0: 3f84 fdbd 59eb 0dbe 5337 ecbd a99f 303e
00000300: 67db 8f3e b432 2ebe 8ba8 95bd 3ecd b23d
00000310: 8fe9 03be 9426 b6be 5bd2 88bc 14bf 123e
00000320: c106 83be 8039 c6bd 4661 e9bd 1ea7 afbd
00000330: ebaa 443d 4075 4b3d 2262 cebd dabc 263e
00000340: bce3 85be ac93 1ebe 7521 87be 3a02 523d
00000350: f4dd dcbe c044 d1be 48d8 a13d 3513 483e
00000360: 8ea8 103d c25a 99bc 315d 4a3e 9877 95be
00000370: d863 3bbe f40c 85bd a7d6 94bd 65d5 053e
00000380: d45b fa3b f320 43be 5dc7 1cbe e106 6ebe
00000390: 0061 c8be 2b4c 29bd 3c0c 03bf e944 5e3d
000003a0: 1141 ab3d 0aee 69be 6542 59bc a142 013d
000003b0: 4321 50bd a029 2b3e b3de 0cbf 405e 24be
000003c0: 18ea 18be 407c a8be 4be1 93be 7d38 143d
000003d0: 04ce 05bf 1ac5 1abe 9eaa f0bd 55ee b3bd
000003e0: f301 e6bb a6ca 3cbe c332 d0be 9ca2 1ebe
000003f0: 6447 353e ca7e b4bc aaf9 edbe d648 adbd
-0.009592391 -0.03228261 0.4062788 -0.34227988 0.06312115 0.016540164 -0.12867054 0.09857387
-0.028825466 -0.0020208159 0.15955031 -0.18943001 -0.019427115 -0.26290682 0.14423972 0.020399343
-0.11831091 -0.4449526 -0.22516106 0.15522297 -0.43563956 -0.03857106 0.10735946 -0.42917553
0.052857544 0.15046963 0.22212954 -0.03524708 -0.06485192 -0.44863662 0.02707635 0.22802502
0.10807336 0.31187025 0.2914802 -0.0130529255 -0.076847695 -0.27123973 -0.12943362 -0.09805
0.1338461 0.0037126574 -0.077542275 -0.28269327 0.11133503 -0.18824285 -0.021357384 0.39253888
-0.49214134 -0.18226248 0.083920665 0.07830299 -0.18275785 -0.0385767 -0.47809744 -0.3278715
-0.44158924 -0.024980709 -0.05188799 -0.08864522 0.07468039 -0.3418182 0.027452711 -0.14123838
-0.33710644 -0.42735353 0.093085594 -0.26193252 -0.49469143 -0.005457055 0.3247534 -0.062303457
-0.2467103 -0.2662694 -0.061487246 0.06786946 -0.13692915 -0.033325512 0.034979876 -0.11481663
-0.08959281 -0.33382788 -0.118687235 0.040088773 0.07437435 0.21663015 -0.5621535 0.061716966
-0.080950245 -0.09718513 -0.073163055 -0.1465587 -0.32938737 0.08762514 0.041126814 0.4696993
-0.37631196 -0.031217694 -0.18673766 0.17912644 -0.20051745 -0.1599714 -0.044325512 -0.68808347
-0.80046946 -0.764182 -0.26957425 -0.749664 0.014611571 -0.19163555 -0.024138268 -0.06278043
-0.10190152 -0.007827032 -0.03510108 0.09668532 0.102015935 0.027102696 -0.028845051 -0.063645065
0.18397635 0.099809125 -0.24156198 -0.18444078 -0.40124187 0.048458498 -0.18114977 -0.11252852
0.40798768 -0.32530713 -0.44937238 -0.15233566 -0.12635121 0.0889908 -0.056620818 -0.0659142
-0.3545418 -0.29964665 -0.16059521 0.05884256 -0.07203072 -0.5012594 0.15764111 0.16207837
-0.54342973 0.03411285 -0.54372936 0.06757743 -0.1651135 0.097347565 -0.16368875 0.4420855
0.26980242 0.15873362 -0.27787545 -0.14195015 -0.22058968 0.1448104 0.049295153 -0.105021395
-0.23301864 -0.11570947 -0.081320435 -0.7553902 -0.2886668 0.277397 -0.34523106 -0.6119545
-0.22555286 -0.29431286 -0.029857133 -0.22038968 0.2262427 -0.49840915 -0.17826448 0.032542046
-0.057425305 0.3194672 -0.29792026 -0.03737997 -0.131642 -0.1343616 0.068141215 0.08058165
0.05509661 0.12878922 -0.07205399 0.53565115 -0.123787396 -0.1385931 -0.1153399 0.17248406
0.28097078 -0.17011529 -0.07307538 0.08730553 -0.12882064 -0.35576308 -0.016701868 0.14330703
-0.2559109 -0.09678936 -0.113955066 -0.08576797 0.048014563 0.049672365 -0.10077311 0.16282979
-0.2615031 -0.1548602 -0.26392713 0.051271655 -0.43138087 -0.40872765 0.079025805 0.19538577
0.035316996 -0.018720035 0.19762112 -0.29192805 -0.18299806 -0.06496611 -0.07267504 0.13069685
0.0076403413 -0.19055538 -0.15310426 -0.23244812 -0.39136505 -0.041332405 -0.51190543 0.054264937
0.0836202 -0.22844711 -0.013260459 0.031557683 -0.05081297 0.16715097 -0.5502731 -0.16051579
-0.1493305 -0.32907295 -0.28882822 0.036186684 -0.5226748 -0.15114251 -0.11751293 -0.087856926
-0.0070192753 -0.18436679 -0.40663728 -0.15491718 0.17703015 -0.022033114 -0.4647954 -0.08461158

feature.2.bias f4 [256]
00000000: b2b5 53be db2f 853d 2c12 9ebe facd 263e
00000010: b305 b2be 94af e23e 4c8f 99be b2cf 68bd
00000020: b5e4 6bba 8a9c 43bc 8964 c8be 53a3 83be
00000030: d31b 73bd 03c4 cd3e 6d7b 8cbe 51e0 b33e
00000040: 2a6c 7b3c b1e8 7cbe d4ad 01be fc35 0b3e
00000050: 2835 4a3e 6afb 193e 36ab 4f3c 3f39 043f
00000060: 2065 173f 6b8b 82be 0e4f 883e 1388 6e3d
00000070: 214d 0d3d d5e4 09be 4d83 5c3e 1aa6 d9bb
00000080: 61ce 1f3e a398 383e 6a5c 183e 0a77 963e
00000090: 26cd 0c3f f34f 193f 2dab 973e c37c f2bd
000000a0: 29db 903e 85f6 9abd a3cb 38bc 6de3 183f
000000b0: 759a 113e 787c dcbd 40de 413d 52ce c6bc
000000c0: 2d06 dd3e 5c2f 9a3d 605c 9c3c cf63 3abd
000000d0: 4fb5 0e3e 6fc1 a83c fb35 c8bd dbe3 f63e
000000e0: f4e3 683c 53b4 ec3d 4a1e 083f 3c56 733e
000000f0: 4238 18be e59d 6c3e e33d 9ebe 7cac ce3d
00000100: 8013 f53e 4162 7c3e 3d37 533e 32bb 9e3e
00000110: a7df 673e 4d66 5bbe 97df ea3e 6771 313e
00000120: 821b 02bc 944b 27be e012 df3e f0cc ca3e
00000130: ca17 c43e c415 093f 5099 0b3e 436f 0e3f
00000140: 8e7c 85be 99db f43d 11f4 ea3e 03c3 8b3e
00000150: 1f8e c63d 6af1 183f beed 91be 6858 cc3e
00000160: 2d88 253e 434e dfbd b6fc 4e3e 21f7 1abe
00000170: e17b 003f 4aea 173d 36d3 81bd e53b d83c
00000180: ffe2 ae3e 0fa2 a63e fffa c93e 1bda d33e
00000190: f926 f7bd 9034 f03e fe87 6fbe fe01 123f
000001a0: 63f3 5d3b 9163 c93e 27fd ed3e 7426 123f
000001b0: 5ac2 113f 8859 553e ed35 2d3e 6a21 fd3c
000001c0: 7965 983e 4729 743e 1728 213e a789 8bbe
000001d0: 94aa 1d3e d72b 0a3f 5334 c73e 1ecb ca3e
000001e0: 0a7e 933d 256a bc3e 4a74 993e 2249 493d
000001f0: 00a3 26bd 7f4d ab3d 3f6b f0bc 8383 2e3e
00000200: f6dd 133f ea7b e5bd 3c1f d7bc 75c1 683c
00000210: b507 263c faa4 43bc 373f 36be 248f d83d
00000220: 506b de3e 0030 003f 4088 683d 1bda 61bd
00000230: a506 96bd 6369 b1bd b2f5 84be cb2f b93e
00000240: ae06 af3e 1bbe 92bd b2cf 9a3e bf88 0c3e
00000250: e7ee bebc 03af 6f3d 8a04 44be 05f1 8dbb
00000260: 4cf6 193f 759d 163f 72ae 9abd 0e81 733e
00000270: 970f c1bd acb5 f13e 7762 d43d d0d2 5d3e
00000280: 9d35 113f 9763 1c3d 4f89 f13d 0afa 393d
00000290: 2a12 023f 774e 103f 8fe6 1abd f68d c43d
000002a0: 8c4f c1be 129f c4bd bef1 91bc 19cf 873e
000002b0: b894 26bc 0d89 9bbb 98ad 853e c16a 82be
000002c0: b297 ff3e 5484 06be 1b38 c83e 173d 193e
000002d0: 63dd d03e 676d 7ebe c3df 91bc f1a7 a53d
000002e0: 2211 bcbd 8524 093e 47e7 36be 7dc2 a33d
000002f0: 55af 0c3f 7f6f 543d d028 94be 229a 813e
00000300: 1097 d3be 8d00 ef3d 89da 683e ea19 a03d
00000310: 4e85 c1bc a953 a0bd d247 59be 1911 093e
00000320: 60e3 d9be bc18 ac3d b48d 45bc 3dc1 ac3e
00000330: afd1 29be 7a58 9e3e e30e 8abd 37b0 1abc
00000340: a394 3cbe de5d 76bd 3865 fcbd bf44 babd
00000350: ea94 9c3d 0093 15be 462c 873e dbd1 1a3f
00000360: 2763 3e3e a2ef 1f3e cbff 0abe d5da 103f
00000370: e0d9 1b3f 481d acbe f578 45bd c0af 15be
00000380: b479 893e 7b1f f63e 9802 86be 572d e33e
00000390: 3433 ec3b acee b03d d04d 453e 7aec e4bd
000003a0: c408 723e 43ed ad3c adf2 253e f74a 013f
000003b0: 30b0 613e 11e3 4ebd b2f4 50bd 5669 74be
000003c0: 875a 31be 79fd e6bd 4100 46be 6468 ec3d
000003d0: d188 383e 0aa0 043f 5130 013e 1de9 b83d
000003e0: 95b0 9c3e 21e0 f53d cd00 723e 782f 4f3d
000003f0: ba0c cbbd 37ac 97bc cbf4 a1be 7d5f e23e
-0.2067478 0.06503268 -0.3087324 0.16289511 -0.34769973 0.4427458 -0.2999214 -0.0568387
-0.00089986186 -0.011939177 -0.39139202 -0.25710544 -0.059352707 0.40188608 -0.27437916 0.35132077
0.015345613 -0.2469814 -0.12663966 0.13594812 0.1974684 0.15037313 0.012675097 0.5164985
0.5913868 -0.25496992 0.26622814 0.05823524 0.034497384 -0.13466199 0.21534462 -0.0066421153
0.15606071 0.18026976 0.14879003 0.29387695 0.5500053 0.5988762 0.29622784 -0.11840203
0.28292206 -0.07566551 -0.0112790195 0.59722024 0.14219077 -0.10765928 0.047331095 -0.024268303
0.43168774 0.07528564 0.019087017 -0.04550534 0.13936351 0.020600049 -0.09775921 0.48220715
0.0142145045 0.115578316 0.5317122 0.23763365 -0.1486521 0.23107107 -0.3090659 0.100914925
0.4786644 0.24646856 0.2062654 0.31002194 0.2264391 -0.21425743 0.4587371 0.17328416
-0.007941129 -0.16337425 0.43569088 0.3960948 0.382994 0.53548837 0.13632703 0.5563852
-0.2607159 0.119559474 0.45889333 0.2729722 0.09695076 0.5974337 -0.28501695 0.399112
0.16165228 -0.10903599 0.20213589 -0.15133335 0.50189024 0.03708867 -0.063391134 0.026395747
0.3415756 0.32545516 0.39449307 0.4137734 -0.1206798 0.46915102 -0.2339172 0.5703429
0.0033866994 0.39333776 0.46482202 0.57089925 0.5693718 0.20834935 0.16915102 0.030899722
0.29764917 0.23843871 0.1573795 -0.27253458 0.15397102 0.53973144 0.38907108 0.3960809
0.072017744 0.36799732 0.29971534 0.04914201 -0.040682793 0.083643906 -0.029348014 0.17042355
0.5776056 -0.11205275 -0.02626001 0.01420628 0.010133673 -0.011941189 -0.17797552 0.10574177
0.43441248 0.5007324 0.056770563 -0.055139642 -0.07325486 -0.08662679 -0.259687 0.36169276
0.34184784 -0.07165166 0.30236584 0.1372404 -0.023307277 0.058516514 -0.19142357 -0.0043317103
0.60141444 0.5883401 -0.07552804 0.23779699 -0.09426802 0.47208917 0.10370343 0.2166245
0.5672243 0.038180914 0.11793768 0.04540447 0.50808966 0.5636973 -0.037817534 0.095973894
-0.37756002 -0.09600653 -0.017815467 0.2652519 -0.010167293 -0.0047465623 0.26109004 -0.25472072
0.49920422 -0.13136417 0.39105305 0.1496471 0.40793905 -0.24846421 -0.017806893 0.08088673
-0.09182955 0.13392837 -0.17861663 0.0799608 0.54955035 0.051864143 -0.28937387 0.25312907
-0.4132619 0.11670027 0.22739615 0.07817443 -0.023623135 -0.07828457 -0.21218804 0.13385428
-0.42556286 0.08403155 -0.01205771 0.3374118 -0.16583894 0.30926877 -0.06741121 -0.009441427
-0.18416075 -0.060148112 -0.123239934 -0.090951435 0.076455906 -0.14606857 0.26400965 0.60476464
0.18592511 0.15618756 -0.1357414 0.5658391 0.60879326 -0.3361609 -0.048211057 -0.14617825
0.26850665 0.48070893 -0.26173854 0.4437053 0.0072082523 0.08639273 0.19267964 -0.11177917
0.23636156 0.0212313 0.16205855 0.5050501 0.22039866 -0.050509516 -0.05101461 -0.23868307
-0.1731969 -0.11278815 -0.19336034 0.115433484 0.18020941 0.518067 0.12616087 0.09028838
0.3060347 0.1200564 0.23633118 0.05058238 -0.09914537 -0.018514736 -0.31632075 0.44213477

value_stream.0.weight f4 [256, 256]
00000000: 22e7 51be b5da e9bd 8e76 9e3c 21d4 dcbe
00000010: a347 bbbe 065f 16be 65c0 9cbe 3bda afbe
00000020: b926 88be 3b88 f8bd 4f89 83be 416e aabd
00000030: b103 1dbe 4a08 efbd dbb4 b13e 4917 3d3d
00000040: e0c0 bbbe d275 e83d 5a1b 89be 7673 1ebd
00000050: e974 333e ee96 6b3d e14c 75be d351 97bc
00000060: 7f0f 253d 4372 8abe 81e6 f5bd e703 acbe
00000070: 0522 cc3d 67db c5be 6fa9 71bc 9350 80be
00000080: c90f 07bf a7de e8bd dbf7 703e 5c30 f03c
00000090: bd00 1dbe 2ff8 c8bc 9ea8 173d 6852 cbbe
000000a0: badf b3bd f1ec aabe ef53 a9be c64b 5c3d
000000b0: 7b68 83be 9d96 57be 4464 3bbe d981 123e
000000c0: 67ba c13c e2d8 80be bfcc 3abe 999d 1a3e
000000d0: 74b6 443e 26a5 72be 2b76 95bd b229 d1bc
000000e0: 4dfe c6be 374b 39be 0a9f a9ba df22 ca3d
000000f0: 9bec 73bd 4770 8c3e 72f8 8fbe a623 5f3e
00000100: 61dc b83c 3f5e 02be 1525 fc3c ff24 edbb
00000110: 3bff bebd d2b4 28be 97bd cbbd a360 db3d
00000120: 9234 bd3d d32b 2fbe 626b b13d 399c 443c
00000130: 5646 83bc f0b1 8a3d 5b5e 7abd 2edd 2f3d
00000140: eed6 88be 79f7 923e a923 31bd a466 a7be
00000150: 7466 94bd 6f68 e03d c72d 103e 6518 4fbd
00000160: 69cb 67be 8ba3 1fbe 7f60 54bd 68df 0ebe
00000170: 5da1 2e3d dc3c 013d 7987 8bbe 6b3e 043e
00000180: fb27 4bbc b4b5 66be 4542 a2bc 319e 8abd
00000190: 25d2 aebe d725 a93d 9ee1 8bbe 2749 413e
000001a0: 6cb7 21be 820c c83d 4f27 9abc f93a 5d3c
000001b0: c2b0 623c 77ea 90be eed5 dabe 3cff 5dbe
000001c0: 0385 403c ddca b03e b2e2 f73d 17b6 663d
000001d0: 44c0 93bc a6ed 5c3b 5c6b 28be 433d a03d
000001e0: a03c 2a3e 01a3 8abd 8f32 0fbd 6140 423d
000001f0: 5479 babe 8ee1 6bbe b556 11bc 850a 273e
00000200: 038c a0bd 0dc8 bfbe c93e b1bc 02a9 a5be
00000210: c7a4 c43d a742 19be 4b96 89bd 7e9d f33d
00000220: d57e 94bb d675 203e e26f 9ebd 0c6a 2ebe
00000230: caf8 74be 2734 c0bd aced 42be f0fc 19bc
00000240: edcd 6abd 1da5 b9be e155 b93d 76a7 71be
00000250: 057b 2ebe 99a6 fa3e 84de acbe 29bd 2a3e
00000260: e8da e33d 53c7 adbd bab4 833d 8f80 ebbb
00000270: 2e5d 64be 9507 1c3e cb52 00be 0bd5 133f
00000280: 27f8 01be ac51 79be eb23 6cbe 9663 8b3d
00000290: bd0a c83d 1656 583d f389 b5be 30be 123e
000002a0: 9253 e6be 37de 7ebe 6576 8d3d 82da 78be
000002b0: 96db 01be b14d f3bd 6bbd 193e 6b3f acbe
000002c0: 272f e63d 45a2 e9bd b323 ad3c 0cf6 a9be
000002d0: e2d2 ec3d 3705 68bd ceea bebd 8c70 ab3b
000002e0: f846 9fbe 9bb8 fd3d ac57 35be 9ed6 2b3e
000002f0: 327b 2e3d 6587 e6bd d3dd 85be 80aa 4f3d
00000300: 242a de3d a2f4 50be d64b 2dbe 6307 89be
00000310: ffd7 7abe e343 03be bb39 84bd 30ee f33c
00000320: 5e21 05be b61b 3bbe a6d4 883c 03e9 533d
00000330: 4dd8 bebe e5d9 993c 8a8d c9bd 6422 17bd
00000340: 07b8 9abe d5ec 56be 394a 20bd 6365 943d
00000350: 49b7 a7bd 3047 3ebe bcd7 c3be fe3a a03d
00000360: 70bf 39be 5a06 b83d 44b0 99be 3d94 9f3c
00000370: 538d 943c b0cf 013d fab9 0dbd c048 bdbe
00000380: 1c8d a63d ca23 c23c 07e4 35be 0eea bcbe
00000390: 96cd 8d3d 0881 b6be dc14 17be 1411 a2be
000003a0: 0ad1 ba3d 342e e7bd 7bf0 f5bd a0c3 cdbd
000003b0: 8a2f 493e f91b 10bd 03c4 5bbe c9bc 17bd
000003c0: f4a6 2ebe e26d 513e 9597 a6be 41d2 183e
000003d0: bee3 c0bd b66e f13d 43e5 c73d 79a9 a7be
000003e0: 57cb bcbd 51d3 7ebe 03a4 a2be e507 bfbe
000003f0: 3aa1 fe3d f49f ebbd 17c6 2fbe 6a3f 573d
-0.20498326 -0.11418668 0.01934364 -0.43130592 -0.36578092 -0.14684686 -0.30615535 -0.34346184
-0.26592043 -0.12135359 -0.25690696 -0.083218105 -0.1533344 -0.11671503 0.34708294 0.046164785
-0.3667059 0.113505974 -0.2677868 -0.03868433 0.17525066 0.057516985 -0.23955108 -0.018471634
0.04029798 -0.270403 -0.12006856 -0.33596727 0.09967426 -0.38643953 -0.014749869 -0.25061473
-0.5275846 -0.113705926 0.2353205 0.029319935 -0.15332313 -0.024532406 0.03702604 -0.39711308
-0.08782907 -0.33383897 -0.3307185 0.0537832 -0.2566565 -0.21053548 -0.18299967 0.14307345
0.023648454 -0.25165468 -0.18242167 0.15099181 0.19210225 -0.23695812 -0.072979294 -0.025532577
-0.3886589 -0.18095098 -0.0012941074 0.098699324 -0.059551816 0.2742941 -0.28119236 0.21790943
0.022566022 -0.12731265 0.0307794 -0.0072370763 -0.09326025 -0.16475227 -0.09948271 0.10711791
0.092385426 -0.17106561 0.0866306 0.012000137 -0.01602475 0.0677222 -0.06112514 0.042935543
-0.26726478 0.28704432 -0.0432469 -0.32695496 -0.07246104 0.10957419 0.14079963 -0.050560374
-0.22636189 -0.1558973 -0.05184984 -0.1395241 0.042634357 0.03155218 -0.27251795 0.12914436
-0.012399669 -0.22530252 -0.01980699 -0.06768454 -0.34144703 0.082591705 -0.2732057 0.18875562
-0.15792626 0.09768011 -0.018817572 0.01350283 0.013836088 -0.28303882 -0.4274134 -0.21679395
0.011750462 0.34529772 0.121037856 0.056326 -0.018036015 0.0033710985 -0.16447204 0.07824185
0.16624689 -0.06769372 -0.034960326 0.047424678 -0.3642069 -0.23035261 -0.00887077 0.16312607
-0.07839205 -0.37457314 -0.021636384 -0.32355505 0.09601741 -0.14966832 -0.06718119 0.118952736
-0.004531721 0.15669951 -0.07736184 -0.17032641 -0.2392303 -0.09384947 -0.19035977 -0.009398684
-0.057325292 -0.36258784 0.09049583 -0.23599038 -0.17039116 0.4895523 -0.33763516 0.16673721
0.111257374 -0.08485284 0.06430955 -0.0071869562 -0.2230117 0.15237267 -0.12531583 0.5774695
-0.12692319 -0.24347562 -0.23060577 0.06806104 0.09767673 0.052816473 -0.3545681 0.14330363
-0.44985634 -0.24889456 0.069073476 -0.24302104 -0.12681422 -0.11880053 0.15013663 -0.33642134
0.11239462 -0.114079036 0.021135187 -0.3319553 0.1156366 -0.0566456 -0.09322129 0.0052319225
-0.31108832 0.12388726 -0.17709225 0.16781089 0.042597957 -0.11256293 -0.261458 0.05069971
0.108478814 -0.2040582 -0.1692346 -0.26763448 -0.24496458 -0.12818865 -0.06456324 0.029776663
-0.1300101 -0.1827229 0.016702961 0.05173589 -0.372744 0.018780658 -0.098414496 -0.03689803
-0.30218527 -0.20988782 -0.039133284 0.072459005 -0.08189256 -0.18581843 -0.3825053 0.07823752
-0.18139434 0.089855865 -0.30017292 0.019479865 0.018133795 0.031692207 -0.03460119 -0.36969566
0.08132383 0.023698706 -0.17762767 -0.3689732 0.06923978 -0.35645318 -0.14754051 -0.31653655
0.09121902 -0.112881094 -0.12008759 -0.10047078 0.19647041 -0.035182927 -0.21461491 -0.037045274
-0.17055875 0.20452073 -0.32537523 0.14923956 -0.094184384 0.117886946 0.09760525 -0.32746485
-0.092184715 -0.24885298 -0.31765756 -0.3731071 0.12433095 -0.11505118 -0.17165409 0.05255071

value_stream.0.bias f4 [256]
00000000: 6ef4 96bd b0de 0a3e b904 303d 804f 81be
00000010: 3542 97bd d1c5 ac3d 08d6 143d 08b4 593e
00000020: 9f56 da3e a9ac a7bc e2e2 ac3e 6901 7bbd
00000030: 17f3 79be 25a6 df3e d3bf 283d ef6a bd3e
00000040: 0358 763e f997 583e 0cf0 ab3e 1f45 5ebd
00000050: 2e3d 863e 4fa3 a93e b19e 373e a1ac 863e
00000060: 815b 0e3e 417d a13e e8de 2c3e b6c5 893e
00000070: ed4d 793a 2823 c33d ec9a 093c 681b 783a
00000080: 9c50 a03d c645 ba3e bb46 b93d 8813 9d3d
00000090: 7051 deb9 1454 93ba a3ed b23c 0eb0 293e
000000a0: c073 f1bc cd33 bf3e 8bd2 833d 7a64 bf3e
000000b0: 866c 8b3d cf24 413e 1d74 003e 11f3 9a3d
000000c0: 2141 913e d1d2 08be 2c5e 2c3e 8979 f6bb
000000d0: 870d d13e 43ec 3e3c 950c 5e3e ee18 a93e
000000e0: 4d08 7f3e ef98 283d 65f1 903e 58ae fe3e
000000f0: 8234 ba3e e743 363e c141 c13e 1e8c 963e
00000100: 9bcb b43e 39fd de3e 419a 8d3e 6e9c f0bc
00000110: cc36 b53e 204d e73d dbe3 863e 552e 923c
00000120: 2d6a 9a3e 6eed 493d 9fb9 293e 2e3d 8fbd
00000130: 3f0c 2c3e a686 1fba a269 7a3e 35e7 c6bc
00000140: 4c61 dc3d 412d ecbd 5d25 70be 23dc e9bc
00000150: 6466 653d 3022 0cbd 7f58 cd3c 091d 9f3c
00000160: bfb1 163d c03f a53c 4526 29be 47ce 8ebe
00000170: 7d14 9f3e 2a57 d53e 2175 103c 53c9 e33e
00000180: 0a0c 3d3e 0fe9 883e 3076 553e 1a8f 33bc
00000190: 8bbf 0d3e f15b febc c9ff 933c d457 7c3c
000001a0: 9a8a fe3e 0df5 fb3e 8f94 1cbe 3e41 a8bd
000001b0: e04c e73d 4ec3 89bd 95ac cb3e 1c3f 153c
000001c0: 83d2 d03d 417b 8e3e 8559 e33e e7f3 81be
000001d0: ddbe c83e 5703 a33e 85de 16be 7583 c53c
000001e0: 21dc 613e 9770 823e a14c 36be 42bc ac3d
000001f0: 5b70 373e e7cb 0b3e 36a5 ac3e 6e9e e33c
00000200: e6b1 d53e 8588 a23e 8db4 ee3e f431 6abb
00000210: 37b3 67bc 62fd 2b3e 2dfd 423e a987 293e
00000220: 833f 983e 7d38 73bc ea8f dd3c 7dc8 913e
00000230: 6ec2 c0bc aa24 083d 4186 ac3d 65d6 773d
00000240: 58dd 9b3e a548 643d 1167 5f3d 8263 3f3e
00000250: a1a9 8a3e 3338 5ebe 23df b33e 4c4d 523e
00000260: c149 063d 5f62 ab3d 7779 683e 6cd8 c9bd
00000270: c2ed 393c ce29 ad3c 4f43 e53c 92da 623e
00000280: 27be e13e 0fa9 a03e 556c 933e 8f0b 9abd
00000290: b085 023d a0bc 1ebe c077 eb3d d84c 303d
000002a0: e951 d4bb 1a0b 50be 853e af3d 17fe a73e
000002b0: 7186 7f3e b2b1 583d c2a4 a43e ca5e 713e
000002c0: 6e1d d33e b15b 363e bc33 8a3e 2d3b 2a3d
000002d0: 8f5f e9bd 1d4b d53c 93ed 2c3e 6418 ca3e
000002e0: eddb b13e 5580 f03e ea13 49bc cb95 d73e
000002f0: 7539 c73e 709a 4f3d 161e a03d f961 be3c
00000300: 106e 003f daf1 3f3d 64c5 173c 2c6d ff3d
00000310: 32d3 ad3d f23d cb3e 4161 bcbd 153b 043e
00000320: 1019 11bc f62b eb3e c13c cb3e 5969 4c3e
00000330: 7c57 6f3e efb6 a5be 5f0b 0c3e 7f24 d23e
00000340: 8c4e 8f3e 07bf 3f3e 20a0 80bc 9145 623e
00000350: a45c 3fbc 1383 2f3e 2dbe 30be 01cb ea3c
00000360: b8fe 1b3d 594a 2a3e fa90 113e 0c8f c93e
00000370: e768 663e df8a 663d 72ec f53d 8310 e83e
00000380: 090b 3e3e 4d4e 533e c3be 963e 9771 b1bd
00000390: 18ba bc3e 5bb9 e23e 28b4 cc3e 8059 633e
000003a0: 140b 8ebe ac55 3f3d 2ea0 403d 1022 2d3e
000003b0: d493 6c3e f752 e23d bd62 543e cfbf 31bd
000003c0: bffa 6b3d 5827 bd3e 2ec0 533a 526a c5bc
000003d0: 1529 dc3e 3f5d 90bd 35dc 8a3e 3cad 9bbd
000003e0: dcea 293e 65d6 2f3e 7789 2cbe 8d92 0fbe
000003f0: 8dfb 903d 43c2 693e 714d 72be 1bc0 51be
-0.0737084 0.13561511 0.042973254 -0.25255966 -0.07385675 0.08436168 0.03633693 0.21260083
0.42644212 -0.020468073 0.33766848 -0.06128064 -0.24409138 0.43681446 0.041198563 0.36995646
0.24057011 0.21151723 0.3358158 -0.054265138 0.2621855 0.33132407 0.1793163 0.2630358
0.13902093 0.31540874 0.16881907 0.26908654 0.0009510208 0.0952819 0.008398753 0.0009464533
0.07827875 0.36381358 0.09046694 0.07669741 -0.00042403815 -0.0011240267 0.02184183 0.16571066
-0.02947414 0.37344208 0.06436642 0.37381345 0.068078086 0.18861698 0.12544294 0.075658925
0.28370002 -0.1336167 0.16832799 -0.0075218123 0.40830633 0.011653009 0.21684487 0.33026832
0.2490551 0.041161474 0.2830917 0.4974239 0.36368185 0.1779934 0.3774548 0.29403776
0.3531159 0.4355257 0.2765675 -0.029371466 0.3539337 0.11294007 0.26345715 0.017844358
0.3015913 0.049298696 0.16574715 -0.06994091 0.16801547 -0.0006085433 0.24454358 -0.02428017
0.107607454 -0.11532069 -0.23451753 -0.028547352 0.05600585 -0.03421229 0.025066612 0.019423025
0.036790606 0.020172 -0.16518505 -0.27891752 0.3107032 0.41668063 0.008816988 0.44489536
0.18461624 0.2674031 0.20845866 -0.010959411 0.13842599 -0.0310497 0.018066304 0.015401799
0.4971512 0.49210396 -0.15291046 -0.08215569 0.112939596 -0.067267045 0.39780107 0.009109285
0.10196402 0.2782841 0.44404235 -0.25381395 0.39208117 0.31838486 -0.14733322 0.024110535
0.22056629 0.25476524 -0.17802669 0.08434345 0.17913954 0.13652001 0.33719796 0.027785506
0.41737288 0.3174478 0.46622124 -0.003573534 -0.014141849 0.16795877 0.19041891 0.16555656
0.29735956 -0.014845011 0.027046163 0.28473273 -0.023530211 0.03323809 0.084240444 0.060507197
0.3044231 0.05573334 0.05454165 0.18690303 0.27082542 -0.21701126 0.35131177 0.20537299
0.03278518 0.08368372 0.22702585 -0.09855732 0.01134819 0.021138098 0.027986197 0.2215369
0.44090387 0.3137898 0.28793588 -0.07521736 0.031865776 -0.15501642 0.1149745 0.043042034
-0.006479491 -0.20316735 0.085568465 0.32811043 0.24953629 0.05290384 0.3215695 0.23571315
0.4123339 0.17808415 0.26992595 0.04156034 -0.113951795 0.026036793 0.16887502 0.39471734
0.34738103 0.4697291 -0.012272814 0.4210647 0.38911024 0.050684392 0.078182384 0.023240076
0.5016794 0.046861507 0.00926337 0.12471995 0.08487548 0.39695698 -0.09198237 0.12913163
-0.008856073 0.45931977 0.3969479 0.19962062 0.23373216 -0.3236613 0.13676213 0.4104347
0.27989614 0.18725215 -0.015701354 0.2209685 -0.011679802 0.17139845 -0.17260046 0.028661253
0.038084716 0.16629924 0.1421546 0.3936695 0.22500955 0.05628478 0.12007989 0.45325097
0.18558897 0.20635338 0.29442415 -0.08664244 0.36860728 0.4428204 0.39981198 0.2220211
-0.27742827 0.046712562 0.04702776 0.16907525 0.23103267 0.110509805 0.2074079 -0.043395814
0.057612177 0.3694408 0.0008077648 -0.024098549 0.43000093 -0.07049035 0.2712113 -0.07601401
0.16593498 0.17171629 -0.16849314 -0.14020748 0.070792295 0.22828011 -0.23662354 -0.20483439

value_stream.2.weight f4 [1, 256]
00000000: 33d5 82be d841 b7bf 87c2 21be 2882 59be
00000010: 4c39 30be fc0a 58be 9a4c 65be e24c 97bf
00000020: c370 ee3e 8225 423e 4e03 98be bc6a f93d
00000030: 66a5 5bbe f47a d2bf 09bc 1fbe 0530 a3be
00000040: a42e c03e e9b3 a2be 6f06 0c3f 0a85 0a3e
00000050: a1f4 293e 882a 0dbf 7310 6abe 7b6d 9cbe
00000060: 43de 18bf 19fe afbe f57c 9bbe 50a5 e6be
00000070: 780c 5bbe 934a 0fbe 9120 ecbd b8c1 123c
00000080: 207c 483f e775 fb3d 1783 bebd 19f6 1bbe
00000090: 7465 f4be fa6a 183e e684 e33e a7b3 1c3e
000000a0: 593c 103e 069c a9bf 3bb8 00be 1226 7e3e
000000b0: 1176 263e 7961 a4be be8a 6bbe cd17 febd
000000c0: 6f1a e8be 7808 4ebe 6a7b 3b3f 3e10 7a3e
000000d0: 2ebb 06bf 7496 81bb f262 bf3e ba40 80be
000000e0: bb48 32bf fb3a b4bd acfb 883e 1c0c 503e
000000f0: b4c9 b53e 517a a0be 39ba b93e b370 b0be
00000100: 6335 a13e 7bbb 8c3e 8951 38be 92a0 63be
00000110: 36bb 13bf b7e3 553e db4e 063f e92e 2abe
00000120: 319d 983e 8857 423e 4927 32be 130e fcbd
00000130: 274b d1bd b9d3 143e 5005 5f3e 273a 263e
00000140: a56c 09be db7c 093e 96ac 3abe eff6 e9bd
00000150: f7d2 f5bd c326 55be a860 2a3e d067 65be
00000160: 580c 1f3e 1a2c 08be 82d4 22be d3dd 72be
00000170: 8ffc 6abe 45c2 db3e e3f5 363e bb89 91be
00000180: 1aec 80be 24a4 9f3e be98 6f3e 11b7 50be
00000190: 942c eebe 4a31 07bf 34ff 2c3e d27d 4e3e
000001a0: 3a48 cdbe 9574 7dbf 5b1d fc3e b1d1 f8bd
000001b0: 8dff e73e b9e2 16be bd2f a43e 3a95 d93d
000001c0: 357f 693e c304 bb3e 215e fb3e e0fd 4cbe
000001d0: 1434 803e b01c 9dbe 5148 3f3f 6ec8 1c3e
000001e0: 5b95 66bf 06a4 9abe 421d 20be 01f7 07be
000001f0: 24bc a6be 0e4f 2ebe 06ed 9e3e 7950 26be
00000200: 15cd 9f3e 5cb7 7ebe 3c64 a2bf 7cf0 fa3d
00000210: e3c1 133e 55a7 afbe 404a 813e ac61 a1bf
00000220: 476b ddbf 274e 0b3e 7cb8 54bf ee34 b3be
00000230: ffdb 1abe 45f0 3bbe 812f c53e 6ee9 01be
00000240: 7b8c 9f3e d0e4 16be 85c1 07be 3698 033f
00000250: ad2a 87be 1fb0 3bbe 2244 74bf f75a 843e
00000260: 1c81 a13e e48b 7dbf d6f8 553e 14c1 05bf
00000270: 78c3 723e 9762 2abe 73cd 973e 83af c9be
00000280: 12fe 803e 412d 6b3e 67ce 50bf 6c0e 023e
00000290: d6e2 0ebe 3820 61be 225a 2ebe 97ee a13e
000002a0: cd36 f73d fb0c 5dbe 008d 39be 1c0a 35bf
000002b0: 28ce 8ebe 1aa9 e8bd d3b1 93be dd68 20bf
000002c0: e93d 933e 1ac0 813d 6784 afbe cc17 21be
000002d0: 730b 14be 5a4a 23be 79ae 003e a0e8 af3e
000002e0: 370f b1be 160f afbe f7c8 15be a1a4 ca3e
000002f0: 8b44 bbbe 00be e1bd 61e9 573e f2e7 2bbe
00000300: 396f ad3e 4f96 cebe 7ea7 d0bd 768e 08be
00000310: d22b 1b3e dca8 ca3e 54ef 10be bc47 41be
00000320: 4975 77be 5d32 ed3e 8229 f33e 4617 6abe
00000330: f095 d63e 870f 4ebe e154 eabe 00a0 82bf
00000340: 07af 58be 19ec 6f3d b39c 843e fe75 ab3e
00000350: 08c7 283e e795 e1be 9567 35be 6e84 3a3e
00000360: bbb2 c4bd 26bb 2ebf 3eab 58be df2d 89be
00000370: bb6f 0cbe 9379 203e 5c9b 0fbe 4eb5 863e
00000380: 1ab6 38be 610f 4dbe 4c99 f33e 3cf1 6b3e
00000390: c741 adbe ddab 283e bfc2 8e3e 44b8 b2be
000003a0: e11d 3fbe 6a52 1cbe d128 3c3e 5f99 94be
000003b0: 1cdf 2f3e 02e3 03be 5572 313e caf4 1bbe
000003c0: 3f97 05be da40 043e f1e2 0bbe 7639 9bbe
000003d0: cfab e63e f883 033e 3f03 65bf caba 2f3e
000003e0: fd71 b43e e72b 743e 1d00 3bbe d536 cbbd
000003f0: 6c96 1abe 9cc2 3cbf 9fc2 57be cdb2 52be
-0.25553283 -1.4316969 -0.15796863 -0.21241057 -0.17209357 -0.2109794 -0.22392502 -1.1820338
0.46570405 0.1895962 -0.2969002 0.12178561 -0.21449813 -1.6443772 -0.15599073 -0.31872573
0.37535584 -0.31777886 0.54697317 0.13527313 0.16597225 -0.5514302 -0.22857837 -0.30552277
-0.59714144 -0.3437355 -0.30368772 -0.45047998 -0.21391475 -0.13993292 -0.11529649 0.008957319
0.783144 0.122783475 -0.09302347 -0.15230598 -0.47733653 0.14884558 0.4443733 0.15302907
0.14085521 -1.325074 -0.12570278 0.2481921 0.16255976 -0.32105616 -0.23002145 -0.124068834
-0.45332667 -0.20120418 0.7323519 0.24420258 -0.52629364 -0.003954703 0.37380177 -0.25049382
-0.6964223 -0.08800312 0.2675451 0.2031712 0.3550545 -0.3134332 0.3627489 -0.34460983
0.31486043 0.27486786 -0.17999853 -0.22229221 -0.57707536 0.20887648 0.52464074 -0.16619457
0.29807428 0.18978703 -0.17397799 -0.12307372 -0.10219412 0.14533891 0.2177937 0.16233121
-0.13420351 0.13426535 -0.18229899 -0.11424052 -0.12003129 -0.20815568 0.16638434 -0.22402883
0.15532053 -0.13298073 -0.15901378 -0.23717432 -0.22947906 0.42921653 0.17867236 -0.28425393
-0.2518013 0.31179917 0.2339811 -0.20382334 -0.46518385 -0.52809584 0.16894227 0.20165184
-0.40094167 -0.99006015 0.49241146 -0.121493705 0.45312157 -0.14734925 0.3206767 0.10624166
0.22802432 0.3652707 0.49095252 -0.2001872 0.25039732 -0.3068595 0.7471972 0.15310833
-0.9007165 -0.30203265 -0.15636161 -0.13277818 -0.32565415 -0.17022344 0.3104021 -0.16241635
0.31211153 -0.24874634 -1.2686839 0.122529 0.1442943 -0.34307352 0.2525196 -1.2607932
-1.7298363 0.13604032 -0.83094 -0.3500132 -0.15122984 -0.18353374 0.38512805 -0.12686703
0.31161866 -0.14735723 -0.13257416 0.5140413 -0.26399747 -0.18328904 -0.9541646 0.2585065
0.31543815 -0.9904158 0.20895705 -0.5224774 0.23707378 -0.16639172 0.29648933 -0.39391717
0.2519384 0.22966482 -0.81564945 0.12700814 -0.13953719 -0.21984947 -0.1702657 0.31627342
0.12070999 -0.21586983 -0.18120193 -0.7071855 -0.2789166 -0.113603786 -0.28846607 -0.6266001
0.2875817 0.063354686 -0.34280702 -0.15731734 -0.14457493 -0.15946332 0.12566556 0.34357166
-0.3458192 -0.34191197 -0.14627443 0.39578727 -0.36575732 -0.11022568 0.2108512 -0.16787699
0.3387392 -0.4034905 -0.101881966 -0.13335595 0.15153435 0.39581954 -0.14153796 -0.1887502
-0.24165834 0.46327487 0.47492605 -0.2286044 0.41911268 -0.2012311 -0.45767882 -1.0205078
-0.21160518 0.05857477 0.25900802 0.33488458 0.16482174 -0.4405968 -0.17715295 0.1821458
-0.09604403 -0.68254316 -0.21159074 -0.2679281 -0.13714497 0.15671377 -0.14024109 0.263102
-0.18038216 -0.20025398 0.47577894 0.23041242 -0.33839247 0.1647181 0.27882954 -0.3490621
-0.18663742 -0.15265813 0.18374945 -0.29023263 0.17174953 -0.12879565 0.1732877 -0.15230098
-0.13045977 0.12915364 -0.1366079 -0.30317277 0.45052955 0.12843311 -0.8945808 0.17161098
0.35243216 0.23844872 -0.18261762 -0.09922568 -0.15096444 -0.7373445 -0.21070336 -0.2057602

advantage_stream.0.weight f4 [256, 256]
00000000: eda4 57bb 0e29 0ebf 6fe4 a13d c61c 323d
00000010: 89da 643e a1ed 4bbe 21ba a5bd 4da1 283d
00000020: ce60 49be 8869 333e f224 c93d 7458 463e
00000030: 9d19 b03e 509e 243d 76b4 b23e 1c25 acbe
00000040: 2152 d13d dcf1 2ebd c818 62bd daf3 72be
00000050: a08a c4bd cc6b c9be 30a5 f2bd 4e71 e73c
00000060: da5c 3ebe 6d60 b13c c1e6 1bbf 1a40 f13c
00000070: e77e 9c3d b28a 683c cada 14bf bf48 b5be
00000080: 9558 35bd 0967 a13c 4397 1fbe fb4f 03bf
00000090: caf9 c3be 6d82 49ba 7b64 eabe ca90 c43d
000000a0: f49b c23e 28fb 4f3d 2c6a 093e 01da a9be
000000b0: ae88 b1be 48af 5fbe e261 0fbf 89c3 6bbd
000000c0: 1f54 91be cd2f 64be 88d8 1ebe 3113 6d3e
000000d0: 65d0 a73e fc67 be3d 4727 dfbe f891 8dbe
000000e0: a6ed 0f3d da20 8c3d 30d3 b9bd b8db 74be
000000f0: d306 0cbf 6344 10be fccd a33e 99bf 843d
00000100: bbb9 103e 9095 523d 070c 50bd 1a4c ac3e
00000110: 7fc4 d7ba a9db 803d a0f8 29bd eacc 983d
00000120: fd8e 6dbe 7e83 45bc 11a2 9bbe ba2a d1bd
00000130: 3b92 aebe 140f 3cbe 82a3 fbbe 7d8d aabe
00000140: 575d 81bd cd07 d3bd 9e72 3ebe 46fe 73bf
00000150: 4841 81be 0c0e b4be f3dc 393e 6580 d0be
00000160: 102f 583d a9b6 67be fe0a 063f 7d44 21be
00000170: c349 aeba b72a 4cbe b3f6 873c 1fba d6bb
00000180: 011a 50be 6a64 ffbe 0bb4 fcbe 5ffc 31be
00000190: ab5b 0c3d 216e 52be df51 d93d d051 7ebe
000001a0: 59cf c43c 5361 23be d5c9 63be 92df 82be
000001b0: 47dc 41be deee 183e 4bcc 7b3d c5b9 6cbe
000001c0: e58f 9abe 4d23 02bf 589f d33d 0ea8 353e
000001d0: cbfb b8be 1bbe 96bd ce36 f73d 40b3 3abf
000001e0: c3da 64bd 25cb 83be 1d59 7ebe 37da 5f3e
000001f0: 56b6 ae3d c552 233e 1c18 59be 5878 b13d
00000200: 718a 89be fbff bc3d d35c 09bf 8691 9f3d
00000210: 6767 a2be eba5 7e3b e3d6 ccbe 018e d13e
00000220: 331a 86be 446a bbbe 19be 07bf 3f65 8b3d
00000230: 8d9f 2b3b 851e 05bf ddf2 2b3c e1a2 9ebe
00000240: 25be d0be c2d6 103d bac2 8cbe 0fd0 94bc
00000250: 34e3 33bf 5cb7 60bf c28c c73d 7338 88bd
00000260: 6dd3 443c 3139 33bc e2f5 6c3e 6197 5fbe
00000270: 2aa2 1ebe cf95 4dbd efc6 02bf 179d c83e
00000280: f9ab dfbe c772 90bc 5dd3 c4bc 4833 9ebe
00000290: e20a 82be 0968 a0bd 0467 623d 7895 9c3c
000002a0: 1ee5 d43d 7093 71be 0382 e1bd abcb dc3b
000002b0: 10c5 8fbe 453a cabe d528 503e c4f6 4e3d
000002c0: fd7c 82be b891 123c 6bd0 c4be f0a3 283d
000002d0: 4ea1 b5be a237 083d 502f c6bc 026b c7be
000002e0: e437 223c 9d75 663e 6d5f ffbc c4b2 b5bc
000002f0: 2bf3 1a3d c1b8 84be 831f 693e 88f1 383b
00000300: 52a1 f53d 925f 80be 6c07 18be 7e57 d53d
00000310: a22f 283e 3003 be3e d70b 4f3d b1a8 b23e
00000320: 8e67 ee3d 2358 923d 0405 2f3e bdaa 75be
00000330: 5975 733d b5c3 ef3d 2a8e c6be 7ec0 f73c
00000340: d947 95bb cf97 343d 07dd 07bf 35a8 de3d
00000350: 5561 30be 97df 6d3d 3384 db3d e4ce e83c
00000360: d41b a83c e3ee d1be c544 12bd 2c36 193e
00000370: d410 88be 81d6 e13c f6f6 72be 3de0 313d
00000380: 7b1e 22bf 0aa4 36be 5d1a 073c 9a0a dabe
00000390: b532 d9be ed33 5f3e f499 cb3d f7ea 9dbb
000003a0: ea2b 53bc 47e2 703b 86e4 a7bc 5364 cfbe
000003b0: 056d 373e 8522 96be 9bc4 853c f2d2 debe
000003c0: b59c 49bb ef21 c83d 0057 9e3d 3d48 59be
000003d0: 87a8 473c f03b 1fbe d000 113e 0849 7c3c
000003e0: 28a5 b9bd 844e a23c be5f 4a3d 4402 0a3d
000003f0: f998 1f3c 5add d6be daa1 843d e44d 63be
-0.00329047 -0.55531394 0.079048984 0.04348447 0.2234899 -0.19914867 -0.08092142 0.041169453
-0.19665834 0.17520726 0.098215 0.1936968 0.3439454 0.04019004 0.34903306 -0.33622062
0.10220743 -0.042711124 -0.055199414 -0.23725834 -0.09596753 -0.39340055 -0.11847913 0.02825227
-0.18590108 0.021652425 -0.6089898 0.029449511 0.07641392 0.014193224 -0.58146346 -0.35407063
-0.04427393 0.019702451 -0.15585046 -0.51293916 -0.3827651 -0.00076869765 -0.45779786 0.09597929
0.38009608 0.05077663 0.13419408 -0.33174136 -0.3467459 -0.21844208 -0.5600873 -0.057559524
-0.28384492 -0.2228386 -0.15512288 0.23151852 0.3277618 0.09297177 -0.43584654 -0.27650428
0.03513875 0.068422034 -0.09073484 -0.23911941 -0.5469791 -0.14088587 0.3199309 0.06481857
0.1413335 0.051412165 -0.05079272 0.3365181 -0.0016461759 0.06291897 -0.041496873 0.07460959
-0.23199077 -0.012055276 -0.30397084 -0.102132276 -0.3409594 -0.18365127 -0.49148184 -0.33311072
-0.06316631 -0.10304222 -0.1859841 -0.95309865 -0.25245118 -0.35166967 0.18150692 -0.40722957
0.052779257 -0.22628273 0.5236052 -0.15748782 -0.0013297129 -0.1993817 0.016597128 -0.006552949
-0.2032242 -0.49881297 -0.49356112 -0.17381428 0.03426711 -0.20549823 0.10611319 -0.24835896
0.024024652 -0.15955095 -0.22244962 -0.25561196 -0.18931685 0.1493487 0.061474126 -0.2311774
-0.30187908 -0.50835115 0.10333127 0.17739889 -0.36129603 -0.073604785 0.12071 -0.72929764
-0.05587269 -0.25740924 -0.24838682 0.21860586 0.085308716 0.15949543 -0.21200603 0.08665532
-0.26863435 0.09228512 -0.53657264 0.07791428 -0.31719515 0.003885622 -0.40007696 0.40928653
-0.26191863 -0.36604512 -0.5302444 0.068064205 0.002618763 -0.51999694 0.010494915 -0.30983642
-0.4077007 0.03536106 -0.27492315 -0.018165616 -0.7026856 -0.87779784 0.09743644 -0.06651392
0.012013298 -0.010938928 0.23140672 -0.2183509 -0.15491548 -0.050191697 -0.510848 0.3918235
-0.43685892 -0.017632855 -0.024026567 -0.308985 -0.25398928 -0.07832343 0.055274025 0.019114241
0.10395263 -0.23591399 -0.11011126 0.0067381463 -0.28080034 -0.3949758 0.20328076 0.050528303
-0.25485983 0.008945875 -0.3844026 0.041171968 -0.35474628 0.03325618 -0.024192482 -0.38948828
0.009901021 0.22505803 -0.031173432 -0.022179969 0.03782956 -0.25922206 0.22765927 0.0028220136
0.1199366 -0.25072914 -0.14846581 0.104170784 0.1642442 0.37111807 0.0505484 0.34894326
0.11640845 0.07145717 0.17091757 -0.23990913 0.059438083 0.1170725 -0.38780338 0.030243155
-0.004555684 0.04409009 -0.53071636 0.10871927 -0.17224629 0.05807456 0.107185744 0.028418966
0.020521082 -0.4100257 -0.035710115 0.14962071 -0.2657534 0.027568104 -0.2372702 0.04342674
-0.6332776 -0.17836013 0.008246032 -0.42586213 -0.424215 0.21797152 0.099414736 -0.0048192698
-0.012888888 0.0036755966 -0.02049471 -0.4050623 0.17912681 -0.2932321 0.0163291 -0.43520314
-0.003076357 0.09772097 0.07731438 -0.21218963 0.012186176 -0.15550208 0.14160466 0.015398271
-0.09064704 0.01981283 0.049407713 0.033693567 0.009741061 -0.41965753 0.06476183 -0.22197682
