active_slam_rl/training_output_frontier/20260124_140852_frontier/d3qn_frontier_ep280.pth (torch, 901938 bytes, 11 tensors)

feature.0.weight f4 [256, 100]
-0.08681758 -0.032407433 -0.10201798 -0.13473749 -0.033675075 -0.06847874 -0.024242485 -0.15882339
-0.040869027 -0.154709 -0.014743776 -0.12286854 -0.09923934 -0.063008435 0.025948457 -0.14331406
-0.074361905 -0.19063993 -0.12956238 -0.03775002 -0.008049625 -0.043066885 -0.04245928 -0.062808335
-0.028461223 -0.06776008 0.006414687 -0.065881774 0.04213033 -0.07780767 0.08078291 -0.06760304
-0.05168747 0.05997996 0.0417184 -0.14904407 -0.060794123 -0.09307436 -0.02789763 -0.2117763
-0.062220044 -0.017961042 -0.19418706 -0.04694095 -0.096173346 -0.1154633 -0.031232923 -0.105776295
-0.31200236 -0.3066325 -0.33940482 -0.340054 -0.22418098 -0.256936 -0.15536028 -0.13833271
0.0069264625 -0.20638384 -0.20279773 -0.05376198 -0.051155157 -0.0126981875 0.024297748 -0.118254416
0.0704679 0.08328474 -0.05927067 0.08699628 0.070131734 -0.021399178 0.06808821 0.03645156
0.0020111313 -0.049053278 -0.037508864 0.01021304 -0.007293687 0.15109554 0.089750096 0.1059349
0.066507034 -0.046556797 0.013987205 -0.027099188 -0.02955679 -0.053601988 0.09305168 -0.035563387
-0.0005737616 0.034742985 -0.17312266 -0.06401541 -0.003968853 -0.12898442 -0.09735913 -0.08080819
-0.1518089 0.060347624 -0.058336373 -0.0010120838 0.06424132 0.026374491 -0.033281554 -0.026867587
-0.10556655 0.054783292 0.0016730303 0.096800976 -0.034995504 0.0100022955 0.057523616 -0.059767425
0.11373572 0.07743714 -0.04596954 0.036773134 -0.10583853 -0.016360141 -0.015792275 0.023445973
-0.06260755 -0.15610337 -0.1102169 -0.14867654 -0.11718364 -0.054547966 -0.061756656 -0.07138515
-0.06811655 -0.03293321 -0.13440247 -0.070282914 -0.081233285 -0.101557724 0.07507688 0.111664936
0.15457451 0.044793602 0.1968937 0.15347342 0.13635433 0.122011 0.1366851 0.14023738
0.14545178 0.03476625 0.0042694584 -0.003305767 0.027523302 0.09652092 0.151526 0.16012013
0.09083591 -0.025516368 -0.039505277 0.035669457 0.15588602 0.09329309 0.066647455 0.007954996
0.071561866 0.020112988 0.0512458 0.08873529 -0.025790472 -0.027051646 -0.034446023 -0.2582137
-0.15478727 -0.40493435 -0.32040483 -0.21238348 -0.26062262 -0.21261749 -0.16337746 -0.45820647
-0.4142432 -0.21470629 -0.2973455 -0.25251123 -0.21240589 -0.34530464 -0.15436219 -0.2796778
-0.26339826 -0.2487109 -0.27975363 -0.2307619 -0.21385269 -0.091832034 -0.14511879 -0.13315044
-0.060773 -0.08285664 -0.15984818 -0.078860335 0.016900245 -0.061443076 -0.004724695 0.087291025
-0.0635357 0.028542165 -0.038550172 -0.043893754 -0.0604808 0.041462224 0.05721218 0.115978666
-0.0033410948 0.084983125 0.00695577 0.016370848 0.09995809 0.028212398 0.04944117 0.012714214
0.07434866 -0.008121369 0.18056451 0.08242637 -0.05878955 0.012980154 -0.033303328 -0.04609817
0.017107053 0.035243034 -0.08960496 -0.1018718 -0.06947711 -0.052051228 -0.14335056 -0.062197138
-0.06366572 -0.12824689 -0.045050096 0.036353372 0.088669665 0.008857656 0.15486185 0.022918727
0.08282872 -0.026038803 0.1108458 0.091552086 0.10162194 0.024484403 0.14593366 0.112460345
-0.068179265 -0.09912111 -0.014663357 0.006193311 0.05301784 0.039218023 -0.029138973 0.015469917
00000000: 6acd b1bd a8bd 04bd cdee d0bd a0f8 09be
00000010: e0ee 09bd 953e 8cbd 2d98 c6bc 99a2 22be
00000020: 4866 27bd 096c 1ebe e18f 71bc 80a2 fbbd
00000030: ff3d cbbd 910a 81bd dc91 d43c ecc0 12be
00000040: 0e4b 98bd 1d37 43be 00ac 04be c49f 1abd
00000050: 93e2 03bc e766 30bd c8e9 2dbd a8a1 80bd
00000060: 8327 e9bc ccc5 8abd 4b32 d23b 06ed 86bd
00000070: da90 2c3d a159 9fbd 8371 a53d 7673 8abd
00000080: 3eb6 53bd 8cad 753d eae0 2a3d 029f 18be
00000090: 4203 79bd c59d bebd 9289 e4bc e3db 58be
000000a0: 72da 7ebd 0923 93bc f9d8 46be 2745 40bd
000000b0: 88f6 c4bd 0678 ecbd 30dc ffbc 3ea1 d8bd
000000c0: c6be 9fbe effe 9cbe 78c6 adbe 8f1b aebe
000000d0: b38f 65be 1e8d 83be c416 1fbe 17a7 0dbe
000000e0: 61f7 e23b 4956 53be 35aa 4fbe 8635 5cbd
000000f0: 1288 51bd 0f0c 50bc 120c c73c 5f2f f2bd
00000100: 7951 903d 3191 aa3d cdc5 72bd 1b2b b23d
00000110: 3aa1 8f3d 544d afbc d571 8b3d 3b4e 153d
00000120: 2fcd 033b 17ec 48bd e5a2 19bd 9854 273c
00000130: e2ff eebb cab8 1a3e e6ce b73d 66f4 d83d
00000140: d734 883d 57b2 3ebd 972a 653c 1eff ddbc
00000150: 1521 f2bc c28d 5bbd e191 be3d eaaa 11bd
00000160: 7d68 16ba a94e 0e3d 1147 31be 831a 83bd
00000170: 270d 82bb 7e14 04be 3964 c7bd c47e a5bd
00000180: cb73 1bbe 122f 773d 1ff2 6ebd e6a7 84ba
00000190: f490 833d 510f d83c 3d52 08bd 6a19 dcbc
000001a0: 4633 d8bd 7264 603d 9549 db3a 973f c63d
000001b0: 7257 0fbd abe0 233c e29d 6b3d b0ce 74bd
000001c0: 46ee e83d 5d97 9e3d 8e4a 3cbd 6d9f 163d
000001d0: dfc1 d8bd b405 86bc cd5e 81bc c511 c03c
000001e0: 6338 80bd 90d9 1fbe 66b9 e1bd aa3e 18be
000001f0: fafd efbd b06d 5fbd 8cf4 7cbd 6132 92bd
00000200: b180 8bbd f9e4 06bd cda0 09be 7df0 8fbd
00000210: a35d a6bd 7ffd cfbd e8c1 993d 96b0 e43d
00000220: c848 1e3e 7f79 373d 819e 493e 2328 1d3e
00000230: 78a0 0b3e e7e0 f93d 2ef7 0b3e 639a 0f3e
00000240: 50f1 143e 0e67 0e3d d0e6 8b3b 91a5 58bb
00000250: 8c78 e13c c3ac c53d a229 1b3e 88f6 233e
00000260: 2d08 ba3d b407 d1bc 49d0 21bd 231a 123d
00000270: 96a0 1f3e 7310 bf3d 767e 883d ac55 023c
00000280: 078f 923d fec3 a43c 1ee7 513d d9ba b53d
00000290: 8a46 d3bc 6a9b ddbc 4617 0dbd 9634 84be
000002a0: 8e80 1ebe 8e53 cfbe 1a0c a4be 0e7b 59be
000002b0: 5470 85be 66b8 59be 6c4c 27be 0a9a eabe
000002c0: af17 d4be f7db 5bbe ab3d 98be 2749 81be
000002d0: ee80 59be c5cb b0be 1f11 1ebe ee31 8fbe
000002e0: 23dc 86be 12ae 7ebe de3b 8fbe d94c 6cbe
000002f0: 33fc 5abe 6f12 bcbd 059a 14be 9758 08be
00000300: 1ced 78bd beb0 a9bd 3eaf 23be 8781 a1bd
00000310: 6272 8a3c bcab 7bbd 9dd1 9abb a3c5 b23d
00000320: 011f 82bd 42d1 e93c c9e6 1dbd f0c9 33bd
00000330: b7ba 77bd 4bd4 293d 5257 6a3d 3986 ed3d
00000340: 45f6 5abb a20b ae3d 3aed e33b 281c 863c
00000350: d4b6 cc3d b01d e73c d382 4a3d 474f 503c
00000360: 1c44 983d 7e0f 05bc e7e5 383e 28cf a83d
00000370: 50cd 70bd b6aa 543c 1269 08bd 6fd1 3cbd
00000380: 1724 8c3c 005b 103d ce82 b7bd 2aa2 d0bd
00000390: 044a 8ebd ab33 55bd 7dca 12be 6dc2 7ebd
000003a0: 2c63 82bd 2753 03be 7386 38bd 46e7 143d
000003b0: 7198 b53d b41f 113c 1b94 1e3e 0ec0 bb3c
000003c0: 1ba2 a93d 544f d5bc 1f03 e33d a97f bb3d
000003d0: 2a1f d03d 8493 c83c a26f 153e 9c51 e63d
000003e0: 92a1 8bbd 0200 cbbd 943e 70bc 42f1 ca3b
000003f0: 3c29 593d 14a3 203d dbb4 eebc 8975 7d3c

feature.0.bias f4 [256]
0.19237152 0.20079908 0.033396445 0.20402122 -0.28871372 -0.28336406 0.11551055 0.19115159
0.42415693 0.31280747 -0.24606442 -0.05557213 0.2681299 0.26885295 -0.13544182 0.06847026
-0.08154105 0.31519398 0.07121115 -0.19407853 0.31728548 -0.095690735 -0.25637007 0.21682397
-0.43726066 -0.2611848 -0.1433855 0.21467339 -0.2286679 0.25900015 -0.011139532 -0.3276878
-0.085043214 -0.22032471 0.100231364 -0.2760609 -0.04352482 0.28963208 0.2634502 0.37566617
0.119562514 -0.11137297 0.05696594 0.09915309 -0.26914442 -0.12595649 -0.27500817 -0.08867276
0.31985453 0.12791562 -0.047307096 -0.20507142 -0.17611942 0.19423206 0.047170587 -0.08384095
0.15805174 -0.10112035 -0.009584834 0.09670539 -0.0070515405 0.20631076 -0.32243976 0.23957226
0.39846644 0.29470977 -0.12682231 0.29087567 -0.2679691 -0.23225139 -0.06926485 0.16204916
0.050372217 -0.22910711 -0.15791087 0.015124991 -0.021649782 -0.16079232 -0.007842726 0.3127967
0.44835526 0.062204897 0.27479732 -0.15984415 0.3116436 -0.09837125 0.053103752 0.189906
0.021133862 0.28861383 0.45676842 -0.17072201 0.016975371 -0.0282756 0.34966555 0.3944094
0.1196168 0.3617732 0.15650107 -0.14103103 0.33663103 0.23888065 -0.08396176 0.062003233
0.41189444 0.46041822 0.26001796 0.3185252 0.15197203 -0.077478416 -0.21160598 -0.24024272
-0.013708465 0.34613058 0.20056655 -0.11679636 -0.061333656 -0.21501824 0.3077774 -0.07531418
-0.24992682 -0.08820669 0.06405871 -0.36088628 0.28105015 0.16085485 0.40571976 -0.041145638
0.14879681 0.3120549 0.30113345 -0.022419183 0.25088307 -0.13229074 0.24521802 0.22752723
0.27614743 0.29925305 0.17590071 -0.25986624 0.34496713 -0.083657734 -0.2991848 -0.2163783
0.33365393 0.3885057 0.047488865 0.061696906 0.21253362 -0.14124444 0.3061893 -0.3793559
0.29682395 -0.11045477 0.40390176 0.4778056 0.37429422 0.08477662 0.19167618 0.09447727
-0.08556259 0.2516747 0.16859584 0.38195202 0.03502472 -0.07154203 0.01962818 0.0025664559
0.33039993 -0.12222608 0.14901112 -0.09267851 0.2489822 0.093429826 0.28511018 -0.3250726
-0.09432889 -0.20394668 -0.0014475713 0.14607723 0.26695478 0.09954296 -0.26174733 -0.36911428
0.220942 -0.14413948 0.038100623 -0.28045464 0.17706728 0.20610867 0.41225946 0.12658675
-0.01735324 -0.14282148 0.3375292 -0.068930335 0.13284354 0.06536531 -0.09714858 -0.25271598
0.032182675 -0.32220754 -0.13277394 -0.16429143 0.3123002 -0.18216468 0.40214795 0.031397197
0.37883174 0.1176667 0.26966017 -0.2664475 0.11929414 0.056778934 -0.19187519 -0.16791311
0.27941778 -0.27927613 0.031182118 0.10962212 0.36284527 0.40193343 -0.23561893 0.34411758
-0.019854896 0.3293869 0.21236213 0.24146383 0.21153224 0.24881642 0.27406412 -0.05310091
-0.012371229 0.08859097 -0.34087577 -0.22377333 -0.021040441 -0.21309882 -0.15206498 -0.06650137
0.32979786 0.31306118 -0.016007734 -0.26893812 0.10004078 0.12095271 -0.20864663 0.18039553
-0.25779593 0.37088266 0.4235751 -0.07034278 -0.07782012 0.37703326 0.22072743 -0.1416636
00000000: 0afd 443e 469e 4d3e b6ca 083d f0ea 503e
00000010: 49d2 93be 1815 91be cc90 ec3d 3ebd 433e
00000020: 192b d93e 4d28 a03e 50f8 7bbe 9a9f 63bd
00000030: 5248 893e 18a7 893e 43b1 0abe 233a 8c3d
00000040: fefe a6bd 1b61 a13e 27d7 913d 86bc 46be
00000050: 3e73 a23e 81f9 c3bd f042 83be 1a07 5e3e
00000060: a1e0 dfbe 04ba 85be a6d3 12be 57d3 5b3e
00000070: eb27 6abe ab9b 843e 9582 36bc b2c6 a7be
00000080: 232b aebd cd9c 61be 1a46 cd3d db57 8dbe
00000090: 1547 32bd a84a 943e f2e2 863e 5157 c03e
000000a0: 31dd f43d 8317 e4bd 1e55 693d c610 cb3d
000000b0: 4ccd 89be bdfa 00be dfcd 8cbe 109a b5bd
000000c0: f9c3 a33e 50fc 023e 16c5 41bd 3efe 51be
000000d0: a658 34be c5e4 463e f235 413d ceb4 abbd
000000e0: 51d8 213e 3018 cfbd b509 1dbc 7a0d c63d
000000f0: 9c10 e7bb 2143 533e d316 a5be 6e52 753e
00000100: cb03 cc3e 33e4 963e b5dd 01be a8ed 943e
00000110: 3f33 89be 4fd3 6dbe bbda 8dbd 37f0 253e
00000120: 1953 4e3d 0e9b 6abe 63b3 21be cfce 773c
00000130: e25a b1bc bea6 24be c77e 00bc e426 a03e
00000140: d28e e53e 90ca 7e3d 3cb2 8c3e 2fae 23be
00000150: c08f 9f3e de76 c9bd 5283 593d b876 423e
00000160: ec20 ad3c 31c5 933e 8ddd e93e c0d1 2ebe
00000170: ef0f 8b3c 3ba2 e7bc 5d07 b33e 07f0 c93e
00000180: a7f9 f43d 563a b93e d141 203e 706a 10be
00000190: e75a ac3e 219d 743e 25f4 abbd 1af7 7d3d
000001a0: d4e3 d23e f0bb eb3e 1321 853e bc15 a33e
000001b0: 8e9e 1b3e 01ad 9ebd 3daf 58be 3002 76be
000001c0: 7899 60bc 0738 b13e 5161 4d3e ee32 efbd
000001d0: 0039 7bbd be2d 5cbe 0095 9d3e 523e 9abd
000001e0: d1ec 7fbe b6a5 b4bd 3731 833d 16c6 b8be
000001f0: cee5 8f3e 22b7 243e 80ba cf3e 5488 28bd
00000200: 315e 183e a9c5 9f3e 2a2e 9a3e 6fa8 b7bc
00000210: bf73 803e 3977 07be 6f1a 7b3e e6fc 683e
00000220: 3263 8d3e b237 993e 511f 343e 300d 85be
00000230: 889f b03e bf54 abbd c02e 99be 4692 5dbe
00000240: b0d4 aa3e 38ea c63e af83 423d e5b5 7c3d
00000250: 6aa2 593e 62a2 10be d8c4 9c3e f03a c2be
00000260: 4ff9 973e 1c36 e2bd 36cc ce3e f0a2 f43e
00000270: 7ea3 bf3e 5d9f ad3d c346 443e 4d7d c13d
00000280: 703b afbd 82db 803e 63a4 2c3e 378f c33e
00000290: 1576 0f3d a184 92bd 47cb a03c fc31 283b
000002a0: 2e2a a93e ab51 fabd 5f96 183e 3bce bdbd
000002b0: 31f5 7e3e 2358 bf3d f6f9 913e ea6f a6be
000002c0: 812f c1bd 66d7 50be 6fbc bdba 4595 153e
000002d0: 4cae 883e 2edd cb3d bf03 86be 8cfc bcbe
000002e0: 9f3e 623e 4d99 13be 660f 1c3d c097 8fbe
000002f0: 2051 353e 270e 533e ac13 d33e f59f 013e
00000300: 6228 8ebc cb3f 12be a1d0 ac3e 592b 8dbd
00000310: 2308 083e 3fde 853d d6f5 c6bd fd63 81be
00000320: fbd1 033d 63f8 a4be e4f5 07be 033c 28be
00000330: d0e5 9f3e 6189 3abe 56e6 cd3e 599a 003d
00000340: 3cf6 c13e 3dfb f03d e610 8a3e cf6b 88be
00000350: 7c50 f43d 0791 683d ee7a 44be 6af1 2bbe
00000360: d90f 8f3e 48fd 8ebe a471 ff3c 9081 e03d
00000370: dbc6 b93e 38ca cd3e 1746 71be 2e30 b03e
00000380: bca6 a2bc 66a5 a83e 7575 593e 4b42 773e
00000390: e89b 583e bbc9 7e3e 2252 8c3e 5780 59bd
000003a0: b2b0 4abc 2f6f b53d 4587 aebe d624 65be
000003b0: 015d acbc 9436 5abe ecb6 1bbe df31 88bd
000003c0: 44db a83e 8e49 a03e a722 83bc 42b2 89be
000003d0: 2ee2 cc3d 0eb6 f73d 76a7 55be 9bb9 383e
000003e0: d4fd 83be 55e4 bd3e d6de d83e e00f 90bd
000003f0: 2860 9fbd 810a c13e 5f06 623e 4310 11be

feature.2.weight f4 [256, 256]
-0.038992383 -0.061945885 -0.025843177 -0.19582698 0.050994936 -0.010801778 -0.08522256 0.042926747
0.06332236 -0.021123715 0.086545445 -0.16916034 -0.021270392 -0.13213553 0.11003698 -0.007345051
0.02556427 -0.3078587 -0.20065865 0.015658509 -0.3553152 -0.0774519 0.16080065 -0.40278625
0.008822048 0.16224189 0.061147552 0.005074729 -0.1654272 -0.41174254 0.054230858 0.091877386
0.11045389 0.11916106 -0.014302457 -0.013540839 0.0139291575 -0.13989572 0.013134859 -0.0010515156
0.048091207 0.06175328 -0.066337906 -0.23429333 0.08152604 -0.08633552 -0.086662516 0.03926315
-0.2801614 -0.1967134 0.09852103 0.06236311 -0.08254266 -0.07705892 -0.4377263 -0.06837371
-0.3457971 -0.016757628 -0.064122036 0.0042248843 0.096016705 -0.28898755 0.08489702 -0.043599732
-0.26576948 -0.3719186 0.059886035 -0.15260631 0.009769139 0.010959732 0.050247785 -0.0011223372
-0.18150996 -0.06408051 0.06971033 0.07364979 -0.110429384 0.0020852436 0.062076826 0.061018072
-0.0025456245 -0.048133522 -0.00838915 -0.047409598 0.042247053 0.12060773 -0.030473098 0.022437418
-0.027418707 0.060560945 0.031694125 -0.019899886 -0.3145285 0.036928564 0.053619977 0.20762146
-0.35818344 -0.08181408 -0.11766243 0.07537934 -0.07693753 -0.15689161 -0.021453891 -0.31665462
-0.3171029 -0.32933176 -0.25097317 -0.7102675 0.007023287 0.067199595 -0.042491227 -0.093759224
-0.09209763 0.06155976 0.004411649 0.054946873 0.12864253 0.005079437 -0.039807115 0.043551914
0.12725534 0.036473576 -0.21318002 -0.011176365 -0.17217237 -0.04162174 -0.13237783 -0.0946506
0.23491019 -0.11310244 -0.23993348 -0.050240472 -0.08455479 0.03168954 0.025667742 -0.056742385
-0.18014064 -0.2121537 -0.18395919 0.021634143 -0.09331669 -0.31110412 0.17135936 0.1199411
-0.26868296 0.0056682746 -0.2689806 0.10488874 0.026797174 0.070801795 -0.03521638 0.08852488
0.07891741 -0.037095983 0.028707083 -0.03256062 -0.15902781 0.056304272 0.045519788 0.003815662
-0.22545987 -0.00095511955 0.028705057 -0.3398383 -0.12396643 -0.12278681 -0.11167104 -0.25716949
-0.1612541 -0.066118725 -0.02562369 -0.06310842 0.10083613 -0.13465331 -0.17617503 -0.007600966
-0.049188387 0.26707724 -0.28517455 -0.012070479 -0.060239293 -0.13820456 0.00873072 0.14019242
0.032240372 0.020707482 -0.1168341 0.088607915 0.11599559 -0.04587311 -0.04154958 -0.029176254
0.21364792 -0.03883154 -0.0191508 0.048377763 -0.032938298 -0.066209756 -0.027778089 0.12928246
0.034590673 -0.092633724 -0.029908655 0.063522145 0.06718563 0.04095076 -0.039346438 0.14288186
-0.043020453 -0.18902966 -0.06818903 0.046423517 -0.14426845 -0.15354073 -0.101001635 0.09412345
0.07825044 0.103047304 0.097958855 -0.24850854 -0.02384596 0.00527952 -0.09348457 0.03311974
0.038292177 -0.17274928 0.019841839 -0.013543089 -0.25414723 -0.015684651 -0.3142189 0.027005643
0.02700753 -0.20978506 0.11914149 -0.0031800906 0.031589825 0.1528366 0.005701788 -0.1477567
-0.10629463 -0.21567465 -0.26878405 0.042945705 -0.3720472 -0.1430776 -0.0198956 -0.06938375
-0.032509487 0.011465003 -0.19278452 0.0619074 0.100109875 0.02957029 -0.4440132 -0.06737589
00000000: 7ab6 1fbd f8ba 7dbd 12b5 d3bc de86 48be
00000010: 11e0 503d f1f9 30bc 2a89 aebd f5d3 2f3d
00000020: 27af 813d a40b adbc bd3e b13d 5e38 2dbe
00000030: 3f3f aebc 894e 07be 115b e13d c1ae f0bb
00000040: 296c d13c a89f 9dbe 7679 4dbe 4646 803c
00000050: e0eb b5be 1a9f 9ebd eda8 243e 003a cebe
00000060: 5a8a 103c bd22 263e db75 7a3d ea49 a63b
00000070: bf65 29be ebcf d2be 2d21 5e3d 362a bc3d
00000080: a635 e23d b70a f43d da54 6abc 65da 5dbc
00000090: 1f37 643c d340 0fbe 9733 573c 02d3 89ba
000000a0: 49fb 443d 02f1 7c3d 2bdc 87bd 97ea 6fbe
000000b0: 20f7 a63d add0 b0bd 1e7c b1bd 66d2 203d
000000c0: 5171 8fbe 3d6f 49be 65c5 c93d 7670 7f3d
000000d0: 200c a9bd 11d1 9dbd a91d e0be 8407 8cbd
000000e0: 510c b1be 4b47 89bc 6a52 83bd e670 8a3b
000000f0: 68a4 c43d 2df6 93be 7dde ad3d a295 32bd
00000100: f012 88be 1d6c bebe 0f4b 753d d444 1cbe
00000110: bd0e 203c 7390 333c 9fd0 4d3d 631b 93ba
00000120: bfdd 39be a43c 83bd 4ac4 8e3d b3d5 963d
00000130: cd28 e2bd 95a8 083b 4544 7e3d 16ee 793d
00000140: 7ed4 26bb a827 45bd a572 09bc 9130 42bd
00000150: 3f0b 2d3d 2f01 f73d b8a2 f9bc adce b73c
00000160: 329d e0bc c10e 783d b3d1 013d 1605 a3bc
00000170: e109 a1be 6842 173d 9fa0 5b3d b89a 543e
00000180: d263 b7be 248e a7bd 00f9 f0bd 7c60 9a3d
00000190: 6c91 9dbd 32a8 20be 12c0 afbc 8e20 a2be
000001a0: 505b a2be 2c9e a8be 8e7f 80be 17d4 35bf
000001b0: 9a23 e63b f19f 893d 480b 2ebd d604 c0bd
000001c0: af9d bcbd 1626 7c3d 988f 903b f90f 613d
000001d0: deba 033e 6871 a63b c90c 23bd 7e63 323d
000001e0: 394f 023e 5165 153d dd4b 5abe 131d 37bc
000001f0: f44d 30be 8f7b 2abd 0e8e 07be 2cd8 c1bd
00000200: 4c8c 703e 41a2 e7bd 1fb1 75be f4c8 4dbd
00000210: 102b adbd e4cc 013d 2845 d23c b46a 68bd
00000220: ca76 38be d23e 59be cc5f 3cbe 163a b13c
00000230: d21c bfbd 0a49 9fbe d478 2f3e aea3 f53d
00000240: d090 89be efbc b93b d3b7 89be e8cf d63d
00000250: bf85 db3c 8800 913d 0d3f 10bd 884c b53d
00000260: 739f a13d f5f1 17bd 1e2b eb3c 495e 05bd
00000270: 30d8 22be 4f9f 663d f572 3a3d 3010 7a3b
00000280: f4de 66be fd60 7aba de26 eb3c 49ff adbe
00000290: 1de2 fdbd a777 fbbd c9b3 e4bd b8ab 83be
000002a0: cb1f 25be 4169 87bd c6e8 d1bc fd3e 81bd
000002b0: 2c83 ce3d 8fe2 09be 3a67 34be 8611 f9bb
000002c0: c379 49bd 59be 883e 6602 92be 42c3 45bc
000002d0: 7abd 76bd 7f85 0dbe 4b0b 0f3c 9a8e 0f3e
000002e0: 7b0e 043d bda2 a93c b746 efbd 1178 b53d
000002f0: 198f ed3d 71e5 3bbd e42f 2abd 0a03 efbc
00000300: 85c6 5a3e d20d 1fbd 23e2 9cbc c327 463d
00000310: 4fea 06bd fb98 87bd e08e e3bc 9f62 043e
00000320: f3ae 0d3d c0b6 bdbd ff02 f5bc e617 823d
00000330: 9f98 893d fcbb 273d bb29 21bd 9f4f 123e
00000340: 3736 30bd fe90 41be b1a6 8bbd 9626 3e3d
00000350: 1cbb 13be c839 1dbe f2d9 cebd ccc3 c03d
00000360: c441 a03d 770a d33d a79e c83d 0679 7ebe
00000370: 9a58 c3bc d3ff ac3b d774 bfbd 91a8 073d
00000380: 42d8 1c3d 30e5 30be 5a8b a23c d5e3 5dbc
00000390: 961f 82be 197d 80bc 4de1 a0be f03a dd3c
000003a0: e53e dd3c e5d1 56be 7400 f43d 1169 50bb
000003b0: 5564 013d 3381 1c3e 10d6 ba3b 884d 17be
000003c0: 00b1 d9bd d1d9 5cbe 109e 89be d6e7 2f3d
000003d0: f87c bebe ef82 12be 19fc a2bc 1119 8ebd
000003e0: ab28 05bd b5d7 3b3c 4e69 45be 9d92 7d3d
000003f0: 6806 cd3d 653d f23c b355 e3be 5ffc 89bd

feature.2.bias f4 [256]
-0.14855285 -0.010496891 -0.2561986 -0.06581868 -0.22834562 0.29453868 -0.23084144 -0.11781728
-0.025895894 0.022152916 -0.18662037 -0.18915711 0.03904048 0.25102776 -0.22657187 0.2541945
-0.03406952 -0.17046845 -0.17421028 0.2298896 0.16329148 0.15328175 -0.05991724 0.3383079
0.37129137 -0.17601082 0.190427 -0.022035124 0.096380785 -0.05056919 0.23739159 -0.1332978
-0.035333768 0.20509477 0.15007463 0.22787082 0.30575728 0.33481368 0.26485646 -0.08341634
0.2683326 -0.060203586 -0.13575734 0.38543832 0.14908819 -0.05714697 -0.015066117 0.042972054
0.25858772 0.05270797 -0.09497694 0.053021792 0.18770178 0.017053612 -0.0974453 0.30816618
0.0064716022 -0.105438136 0.3041365 0.2224836 -0.12890051 0.20895088 -0.21077277 0.09955299
0.3368707 0.042564373 0.08634309 0.19115709 0.16281642 -0.1296283 0.25125575 0.1289171
-0.043490317 -0.14443158 0.30983105 0.28011045 0.31857118 0.35210925 0.19974661 0.37459713
-0.21075621 0.1128041 0.23152015 0.1302876 0.15865207 0.4004454 -0.15423307 0.3198989
0.0069065094 -0.07159299 0.18524142 -0.12080162 0.28529996 0.14817104 -0.07516167 0.1221326
0.2695248 0.26493242 0.18481477 0.21250793 -0.11101124 0.35107374 -0.14393957 0.39373392
-0.07640456 0.27619246 0.31334168 0.37705657 0.35260358 -0.015696215 0.15111855 0.13168602
0.14742815 0.19613384 0.080435865 -0.09751711 0.2376096 0.34260988 0.26326197 0.33639708
0.13841832 0.24083023 0.17124784 0.09370308 -0.050573062 0.0052434662 -0.041756336 0.16995746
0.32136303 -0.052293446 -0.060900882 -0.08985098 0.14435703 -0.12579031 -0.11416186 0.174868
0.32192174 0.33754715 -0.023931306 -0.13983317 -0.03737489 -0.07107263 -0.18424639 0.23249216
0.28957993 -0.03122944 0.20100312 -0.026946774 -0.051392004 0.110760145 -0.1454731 0.05891214
0.35791558 0.327633 -0.03520766 0.23401693 -0.050012674 0.30148 0.0035350332 0.18947643
0.3967005 -0.05067427 -0.040229496 0.17266576 0.35450435 0.30747694 -0.04457107 0.12283954
-0.1737013 -0.08845451 0.13779652 0.048110597 0.06634837 -0.037847828 0.1972505 -0.17815696
0.3529646 -0.113756776 0.24727719 0.042095102 0.26259375 -0.14626956 -0.079233214 0.16320093
-0.09897378 0.22899523 -0.13744728 0.10327789 0.3404765 0.115409955 -0.16133755 0.22221111
-0.2575814 -0.017409353 0.003013194 0.046819184 -0.10259845 -0.10406309 -0.21457142 0.22248407
-0.27305737 0.0034038923 0.1302286 0.32318062 -0.052400015 0.22921285 -0.08733474 -0.06307986
-0.15393814 -0.05153554 -0.1049253 -0.05101983 -0.0025421672 -0.14452332 0.017624756 0.37979835
-0.0019910184 0.21529382 -0.12773049 0.316198 0.38237533 -0.23850343 -0.07861167 -0.06520635
0.19075063 0.2308732 -0.11416682 0.27808008 0.0055520856 -0.07600791 0.012472944 -0.11054868
0.13666745 0.11533406 0.26290324 0.26451153 0.21776256 -0.0730487 -0.08400569 -0.16293369
-0.13536686 -0.047298502 -0.16212903 0.16006792 0.13048115 0.36293238 0.13851182 -0.015036819
0.25449246 -0.045107517 0.05278911 -0.026814872 -0.049855594 -0.08979057 -0.22540262 0.267317
00000000: 3d1e 18be 27fb 2bbc 772c 83be f2cb 86bd
00000010: 6fd3 69be c6cd 963e b361 6cbe 304a f1bd
00000020: a023 d4bc 087a b53c 6919 3fbe 67b2 41be
00000030: e9e8 1f3d b686 803e 7502 68be c825 823e
00000040: 7b8c 0bbd 488f 2ebe 2e64 32be 2e68 6b3e
00000050: e235 273e e4f5 1c3e c86b 75bd b136 ad3e
00000060: e719 be3e 2e3c 34be 4cff 423e 0183 b4bc
00000070: 4a63 c53d a421 4fbd c816 733e 387f 08be
00000080: 24ba 10bd 5d04 523e 2aad 193e f856 693e
00000090: 388c 9c3e b36c ab3e 449b 873e 30d6 aabd
000000a0: e462 893e 0998 76bd f903 0bbe 2c58 c53e
000000b0: 93aa 183e f112 6abd e0d7 76bc 7703 303d
000000c0: 9c65 843e 50e4 573d 4583 c2bd 612d 593d
000000d0: e534 403e 04b4 8b3c 6791 c7bd f5c7 9d3e
000000e0: bc0f d43b f3ef d7bd c8b7 9b3e bed2 633e
000000f0: 7ffe 03be 38f7 553e d1d4 57be 70e2 cb3d
00000100: 517a ac3e fb57 2e3d a5d4 b03d afbe 433e
00000110: 59b9 263e 48bd 04be 98a4 803e d802 043e
00000120: e722 32bd dfe5 13be 2da2 9e3e a36a 8f3e
00000130: c31b a33e aa47 b43e 608a 4c3e 32cb bf3e
00000140: 7ad0 57be d605 e73d 9e13 6d3e 1d6a 053e
00000150: b075 223e 2e07 cd3e 46ef 1dbe cac9 a33e
00000160: 0050 e23b 589f 92bd edaf 3d3e d766 f7bd
00000170: d612 923e 26ba 173e 5dee 99bd a820 fa3d
00000180: 28ff 893e 39a5 873e 1540 3d3e ae9b 593e
00000190: dc59 e3bd f0bf b33e e564 13be 7e97 c93e
000001a0: fe79 9cbd 1969 8d3e 526e a03e 8f0d c13e
000001b0: 7588 b43e 5995 80bc d2be 1a3e b3d8 063e
000001c0: 68f7 163e 4fd7 483e 8fbb a43d 0db7 c7bd
000001d0: ee4f 733e 906a af3e 46ca 863e 3d3c ac3e
000001e0: 88bd 0d3e 339c 763e 985b 2f3e 67e7 bf3d
000001f0: b325 4fbd 62d1 ab3b b108 2bbd 5409 2e3e
00000200: b289 a43e a731 56bd 3473 79bd ca03 b8bd
00000210: 54d2 133e 2dcf 00be b1cd e9bd 9910 333e
00000220: edd2 a43e fbd2 ac3e 960b c4bc 6d30 0fbe
00000230: 6a16 19bd 878e 91bd 16ab 3cbe 6d12 6e3e
00000240: d243 943e e2d4 ffbc c3d3 4d3e 7bbf dcbc
00000250: 6c80 52bd 37d6 e23d e6f6 14be db4d 713d
00000260: b640 b73e 83bf a73e e835 10bd 22a2 6f3e
00000270: 17da 4cbd 965b 9a3e 04ac 673b 1c06 423e
00000280: 541c cb3e d38f 4fbd afc7 24bd 4bcf 303e
00000290: 9881 b53e 9e6d 9d3e 2790 36bd 4c93 fb3d
000002a0: c1de 31be a327 b5bd 881a 0d3e 9e0f 453d
000002b0: a7e1 873d 5306 1bbd 09fc 493e c76e 36be
000002c0: c7b7 b43e 50f9 e8bd 3b36 7d3e ea6b 2c3d
000002d0: b072 863e b0c7 15be 0645 a2bd 251e 273e
000002e0: c4b2 cabd ba7d 6a3e fbbe 0cbe 5c83 d33d
000002f0: f052 ae3e 0e5c ec3d ac35 25be 4f8b 633e
00000300: b6e1 83be 0f9e 8ebc 0279 453b 79c5 3f3d
00000310: 231f d2bd 081f d5bd 9cb8 5bbe ddd2 633e
00000320: 2dce 8bbe d613 5f3b a55a 053e ee77 a53e
00000330: 66a1 56bd c6b6 6a3e 8edc b2bd 0330 81bd
00000340: f6a1 1dbe ee16 53bd 13e3 d6bd 2bfa 50bd
00000350: 7d9a 26bb ecfd 13be cb61 903c ee74 c23e
00000360: bf7b 02bb fc75 5c3e c8cb 02be b4e4 a13e
00000370: b3c6 c33e 3e3a 74be 28ff a0bd e88a 85bd
00000380: 2254 433e 066a 6c3e 4bd0 e9bd 8360 8e3e
00000390: 45ee b53b 09aa 9bbd 525b 4c3c 5967 e2bd
000003a0: 8df2 0b3e 4334 ec3d 419b 863e 0e6e 873e
000003b0: 26fd 5e3e 8f9a 95bd 2d0b acbd 17d8 26be
000003c0: 9c9d 0abe 13bc 41bd 2705 26be d8e8 233e
000003d0: da9c 053e 46d2 b93e 0bd6 0d3e fd5c 76bc
000003e0: d64c 823e a9c2 38bd 6539 583d ddaa dbbc
000003f0: 6135 4cbd 1ee4 b7bd f2cf 66be c6dd 883e

value_stream.0.weight f4 [256, 256]
-0.13475038 -0.10118426 -0.11332621 -0.30992973 -0.15670522 -0.020926535 -0.31117153 -0.25203022
-0.26112092 -0.059668805 -0.19519326 -0.19407931 -0.2176427 -0.08229024 -0.15342252 0.08567213
-0.18061607 0.10103792 -0.15139711 -0.0975395 -0.09407085 -0.1269574 -0.16974096 0.0020871765
0.11654848 -0.18961109 -0.14279605 -0.2476684 0.047925573 -0.2146355 -0.06309413 -0.14746605
-0.1651034 -0.28188688 -0.04487281 -0.2325056 -0.084554076 0.028742284 -0.005513782 -0.20576835
-0.18984292 -0.26156497 -0.2658096 0.06269555 -0.25749657 -0.17540215 -0.0838871 0.08826355
0.098296925 -0.18194288 -0.13588272 -0.05775227 0.07109131 -0.13258 -0.06412196 0.07507822
-0.27698058 -0.083820276 -0.08179227 0.103864335 -0.055439588 0.029002558 -0.1925652 -0.029311009
0.021448554 -0.13251014 -0.11674999 -0.19154602 -0.1295417 -0.10801687 -0.09031849 0.13739137
0.01643552 -0.17343673 0.10203859 -0.051224943 0.10762611 0.09329065 -0.16336456 0.09645345
-0.17206167 0.031226398 -0.04158126 0.07801052 -0.1830271 0.08427926 -0.13346697 0.006529926
-0.16941556 -0.12869088 -0.103020236 -0.09624291 0.029266749 -0.06730859 -0.22799802 -0.0905235
-0.14222093 0.0019238415 -0.008720312 0.04116635 -0.24020614 0.05000633 -0.16113581 0.14847222
-0.1055352 0.119701214 0.0020921866 0.075231075 0.06739244 -0.16903044 -0.16371739 -0.11059922
0.06930291 0.118581295 -0.0324659 0.057724006 -0.03914331 0.0024626567 -0.1647966 0.02501368
0.036537874 0.08258878 0.10546458 -0.047598127 -0.27357617 -0.171661 0.025219066 -0.10063645
-0.10851461 -0.22715133 -0.031292852 -0.19097893 0.02081056 -0.15771136 -0.040950853 0.107738495
0.06400904 0.12547411 -0.03608036 -0.105641685 -0.15790929 -0.08905373 -0.1587389 0.03185048
-0.0458092 -0.25847307 -0.0017700676 -0.17361675 -0.15433072 -0.008405936 -0.23364443 0.1267708
0.092025444 -0.08742248 -0.03414742 -0.062176038 -0.19194819 0.1483504 -0.07420716 0.097539805
-0.1018573 -0.16029173 -0.23588473 -0.025215577 0.13082147 0.0022835294 -0.21931686 0.023224857
-0.32652256 -0.22767673 0.010802183 -0.20796956 -0.094264396 -0.02973679 -0.023638537 -0.22386791
0.12491962 -0.13824825 0.017464088 -0.22560982 0.14770381 -0.089507185 -0.08775954 -0.08172074
-0.20026782 0.091260076 -0.170617 -0.10630078 0.037823375 -0.11936497 -0.2686573 -0.08528351
-0.040765617 -0.17854652 0.05507622 -0.18085109 -0.11826882 -0.14446726 -0.044083074 -0.016100194
-0.2670638 -0.16957311 -0.08212436 0.036359742 -0.24414837 -0.11751851 -0.07057084 -0.08148577
-0.23258463 -0.1343862 -0.033030372 -0.13458431 -0.083649196 -0.2663111 -0.27373123 0.066677324
-0.09853901 0.07900483 -0.19533332 0.06870486 0.04790577 -0.0791283 -0.051631097 -0.26845843
0.08236607 0.09715503 -0.14839357 -0.29333213 0.055088054 -0.20846109 -0.09405596 -0.24796034
-0.0019863667 -0.115571454 -0.18335138 -0.01880087 -0.04945434 -0.03809549 -0.10250847 -0.028632555
-0.1420134 0.18295506 -0.29752305 0.038412526 -0.06735321 0.11648008 0.040434834 -0.26115772
-0.0026834365 -0.15938897 -0.286087 -0.25899613 0.1457705 -0.0931948 -0.25502095 0.06735081
00000000: 01fc 09be b139 cfbd 9217 e8bd 1caf 9ebe
00000010: 5577 20be 206e abbc e051 9fbe 1b0a 81be
00000020: a4b1 85be 4767 74bd bee0 47be babc 46be
00000030: badd 5ebe c987 a8bd cb1a 1dbe df74 af3d
00000040: 6bf3 38be f8ec ce3d d807 1bbe cac2 c7bd
00000050: 38a8 c0bd 1f01 02be 93d0 2dbe 03c9 083b
00000060: f8b0 ee3d 6929 42be 2139 12be c99c 7dbe
00000070: 9b4d 443d 69c9 5bbe 7f37 81bd 5701 17be
00000080: de10 29be 7a53 90be 8dcc 37bd f315 6ebe
00000090: b02a adbd f074 eb3c f5ac b4bb f0b4 52be
000000a0: 2f66 42be d8eb 85be 3218 88be 8666 803d
000000b0: 97d6 83be 9f9c 33be 00cd abbd 85c3 b43d
000000c0: e64f c93d 3c4f 3abe d724 0bbe a58d 6cbd
000000d0: 5298 913d 0dc3 07be 6052 83bd 9cc2 993d
000000e0: 66d0 8dbe f7a9 abbd b582 a7bd d3b6 d43d
000000f0: 9f14 63bd c696 ed3c d02f 45be a41d f0bc
00000100: e1b4 af3c bdb0 07be 9e1a efbd a424 44be
00000110: 94a6 04be f337 ddbd e7f8 b8bd 53b0 0c3e
00000120: c9a3 863c 6699 31be 9cf9 d03d 3fd1 51bd
00000130: 146b dc3d 2b0f bf3d 0a49 27be 6389 c53d
00000140: ef30 30be 81ce ff3c 1c51 2abd fbc3 9f3d
00000150: 756b 3bbe 9b9a ac3d 91ab 08be fdf8 d53b
00000160: 467b 2dbe 8bc7 03be 46fc d2bd 011b c5bd
00000170: d2c0 ef3c 16d9 89bd 5078 69be 6364 b9bd
00000180: 5da2 11be 6929 fc3a a4df 0ebc 0c9e 283d
00000190: 99f8 75be 70d3 4c3d c900 25be 1a09 183e
000001a0: d722 d8bd e925 f53d 111d 093b c012 9a3d
000001b0: 0c05 8a3d 5116 2dbe 88a5 27be d881 e2bd
000001c0: afee 8d3d c0da f23d f7fa 04bd 0270 6c3d
000001d0: bc54 20bd 8664 213b 71c0 28be 7de9 cc3c
000001e0: bda8 153d 4e24 a93d d0fd d73d 41f6 42bd
000001f0: 2d12 8cbe e7c7 2fbe 3798 ce3c 7c1a cebd
00000200: e83c debd 5c9a 68be ef2c 00bd fb8f 43be
00000210: e87a aa3c 167f 21be 15bc 27bd 00a6 dc3d
00000220: 2c17 833d 497c 003e 00c9 13bd ab5a d8bd
00000230: f9b2 21be cd61 b6bd 738c 22be a675 023d
00000240: 6da2 3bbd 9556 84be 9d01 e8ba 97c8 31be
00000250: df08 1ebe 0db9 09bc 7c40 6fbe 34d0 013e
00000260: d677 bc3d 8f0a b3bd 2ade 0bbd 4dac 7ebd
00000270: 118e 44be 2be9 173e ecf9 97bd f3c2 c73d
00000280: 8f9a d0bd 8423 24be c48b 71be e690 cebc
00000290: 10f6 053e 44a7 153b 9994 60be 0e42 be3c
000002a0: f72d a7be 1724 69be a4fb 303c f9f5 54be
000002b0: b10d c1bd 929a f3bc 9ba5 c1bc a13d 65be
000002c0: dcd5 ff3d f390 0dbe d910 8f3c 4306 67be
000002d0: ab3f 173e 8b4f b7bd 46bb b3bd 345d a7bd
000002e0: 0213 4dbe 90e6 ba3d 39b6 2ebe 39b4 d9bd
000002f0: afec 1a3d 9f75 f4bd 738d 89be 1fa9 aebd
00000300: d9f9 26bd e6d4 36be 9a97 613d 0731 39be
00000310: ec36 f2bd 3aef 13be 7490 34bd 8ee4 83bc
00000320: 96bc 88be 93a4 2dbe d130 a8bd f4ed 143d
00000330: 0802 7abe 8bad f0bd 7287 90bd 03e2 a6bd
00000340: aa2a 6ebe 899c 09be db4a 07bd 78d0 09be
00000350: 4550 abbd ee59 88be 8026 8cbe 1f8e 883d
00000360: d2ce c9bd 49cd a13d 7505 48be 22b5 8c3d
00000370: d738 443d 050e a2bd 217b 53bd 6273 89be
00000380: 8baf a83d 37f9 c63d 7cf4 17be a12f 96be
00000390: 03a4 613d d376 55be 69a0 c0bd 51e9 7dbe
000003a0: b42d 02bb bab0 ecbd 77c0 3bbe 4804 9abc
000003b0: a290 4abd 040a 1cbd f6ef d1bd d28e eabc
000003c0: f66b 11be 9258 3b3e f154 98be 7456 1d3d
000003d0: 7bf0 89bd 1c8d ee3d ff9e 253d 77b6 85be
000003e0: 98dc 2fbb dd36 23be ff79 92be 249b 84be
000003f0: dd44 153e eadc bebd 1b92 82be 39ef 893d

value_stream.0.bias f4 [256]
0.07251618 0.08755115 0.08680901 -0.04984792 0.15826584 0.16119076 0.19416057 0.17000403
0.18853879 -0.14799431 0.2965497 -0.19991197 -0.045652647 0.31776908 0.17357382 0.2630354
0.03652667 0.2001482 0.11229569 -0.18976042 0.13102895 0.17589596 0.106383264 0.2102781
0.15470748 0.1947585 0.09007043 0.1665816 0.22567414 0.16823308 0.18674374 -0.013771565
-0.07512139 0.13448822 0.16192965 0.08048933 -0.03997884 -0.13951518 0.017611267 0.03036258
-0.16754438 0.3684824 0.1392265 0.17390193 -0.08929613 0.1616963 0.20148827 0.2200178
0.1740408 0.06413356 0.09510337 -0.13617338 0.13601217 0.013447085 -0.050910365 0.22920534
0.14806159 0.124224074 0.16820514 0.29997933 0.16005327 0.14327122 0.1737079 0.2446297
0.1399899 0.23445249 0.22483239 0.07021313 0.19241396 -0.01679292 0.1431772 0.18838741
0.12525913 -0.08949389 0.13671672 0.1017109 0.26006716 -0.13900088 0.08371375 -0.16153283
0.15766522 -0.24322917 -0.043917835 0.17875475 0.12359158 0.106060825 -0.09908509 0.20168293
-0.09363173 0.0847958 0.048932318 -0.07918807 0.19887806 0.120322816 -0.13014475 0.26609397
0.110756464 0.09853699 0.090539835 0.14836942 0.07038074 -0.06332295 -0.116001956 -0.10645637
0.27745563 0.35211796 -0.11286934 0.095548525 0.07493422 0.14944938 0.19537915 -0.106526606
-0.04530113 0.13607545 0.15565956 -0.07256157 0.13558294 0.18088444 -0.09195624 -0.11277321
0.22133169 0.19435075 -0.0541705 0.16631308 0.1066102 0.13880223 0.13479018 0.17267974
0.21487725 0.23439334 0.33073595 -0.13147794 -0.15325081 0.16444513 0.12996349 0.08314883
0.21791388 -0.14406668 0.1682828 0.19422962 0.13049436 0.18504415 0.07204928 0.13647218
0.1427713 0.15434277 0.07039391 0.08671893 0.17616673 -0.013472703 0.20867836 0.14468533
-0.08164962 0.0005842918 0.09511183 0.015366832 -0.07138668 0.19696586 -0.061505336 0.1934728
0.14406177 0.16603902 0.17675342 -0.20799752 0.1911168 0.06034782 0.1028448 -0.10152924
-0.13109349 -0.00026813647 0.08882186 0.18998349 0.14731717 0.17798805 0.1858208 0.15822774
0.21079546 0.04827428 0.24132814 0.12787576 0.09390171 0.16199568 0.10003691 0.19135511
0.21751387 0.33112714 0.063589625 0.12904812 0.30939293 0.12561865 -0.07740867 0.17885603
0.1746212 0.027419316 0.15966114 0.15175712 -0.05087292 0.20071003 0.11660961 0.21732691
0.1377028 0.18087967 0.21689218 0.15558954 -0.11887368 -0.1210668 0.07672056 0.28030127
0.2053998 0.023827173 -0.099178515 0.14000048 -0.15225597 0.08684669 0.017105961 -0.101084426
0.19197412 0.14015503 0.15356658 0.21132377 0.16595784 -0.0888938 0.13897678 0.14673646
0.25536808 0.16161671 0.14094459 -0.20657445 0.326087 0.24960415 0.1984222 0.16927288
-0.076631516 0.13485721 -0.0746723 0.13349256 0.090335965 0.14485426 0.100325115 0.13463992
0.11383811 0.12330099 0.19635628 0.078834355 0.21574919 -0.20574403 0.18083572 -0.15643403
-0.099707305 0.084619015 0.032708496 0.0256026 0.22680424 0.12849842 -0.04119066 -0.0020331547
00000000: 5d83 943d 044e b33d ecc8 b13d 552d 4cbd
00000010: 7110 223e 310f 253e 07d2 463e 8915 2e3e
00000020: 5010 413e d28b 17be 5dd5 973e b9b5 4cbe
00000030: 45fe 3abd a1b2 a23e 56bd 313e 93ac 863e
00000040: fd9c 153d a6f3 4c3e 48fb e53d 8e50 42be
00000050: 742c 063e 121e 343e 78df d93d 2453 573e
00000060: a36b 1e3e c66e 473e d876 b83d 5e94 2a3e
00000070: 1f17 673e 4b45 2c3e c039 3f3e 21a2 61bc
00000080: 3ed9 99bd 48b7 093e e3d0 253e 97d7 a43d
00000090: dac0 23bd 11dd 0ebe 8145 903c f2ba f83c
000000a0: c190 2bbe baa9 bc3e 6491 0e3e 5913 323e
000000b0: e4e0 b6bd b793 253e f152 4e3e 594c 613e
000000c0: c037 323e 7558 833d 8ec5 c23d 0971 0bbe
000000d0: c646 0b3e 2a51 5c3c 6387 50bd ceb4 6a3e
000000e0: 759d 173e 3169 fe3d f83d 2c3e e496 993e
000000f0: 01e5 233e b1b5 123e 7ce0 313e 3580 7a3e
00000100: 8359 0f3e 5014 703e 763a 663e e7cb 8f3d
00000110: 2a08 453e 4e91 89bc 0b9d 123e a1e8 403e
00000120: ee43 003e 9348 b7bd 78ff 0b3e ce4d d03d
00000130: 8627 853e 3f56 0ebe 1d72 ab3d dd68 25be
00000140: fe72 213e 1111 79be 30e3 33bd 7c0b 373e
00000150: 951d fd3d 6b36 d93d 20ed cabd f885 4e3e
00000160: fec1 bfbd 6ca9 ad3d 416d 483d 5b2d a2bd
00000170: b1a6 4b3e cf6b f63d aa44 05be 783d 883e
00000180: 49d4 e23d c3cd c93d f36c b93d 27ee 173e
00000190: c723 903d 76af 81bd 6f92 edbd cc05 dabd
000001a0: aa0e 8e3e ce48 b43e 0a28 e7bd f2ae c33d
000001b0: 1d77 993d 4209 193e 7911 483e 9f2a dabd
000001c0: ad8d 39bd 5d57 0b3e 3865 1f3e 299b 94bd
000001d0: 41d6 0a3e c539 393e 8e53 bcbd a4f5 e6bd
000001e0: c6a4 623e e203 473e e3e1 5dbd fa4d 2a3e
000001f0: 7356 da3d 2c22 0e3e 7006 0a3e f5d2 303e
00000200: c808 5c3e cf04 703e 3956 a93e 27a2 06be
00000210: c8ed 1cbe 4e64 283e 2615 053e ef49 aa3d
00000220: d124 5f3e 3786 13be 5452 2c3e 21e4 463e
00000230: 50a0 053e 377c 3d3e 938e 933d 5dbf 0b3e
00000240: a432 123e 080c 1e3e af2a 903d b299 b13d
00000250: 0d65 343e 9dbc 5cbc c8af 553e 6428 143e
00000260: ea37 a7bd 292b 193a fec9 c23d 2ac5 7b3c
00000270: 2e33 92bd 6bb1 493e 05ed 7bbd bc1d 463e
00000280: ee84 133e 2206 2a3e d9fe 343e 4dfd 54be
00000290: 1fb4 433e 472f 773d 4ba0 d23d 90ee cfbd
000002a0: 5f3d 06be ab94 8cb9 3ce8 b53d 088b 423e
000002b0: 50da 163e 8042 363e cf47 3e3e 7406 223e
000002c0: c4da 573e 40bb 453d b91e 773e ddf1 023e
000002d0: 8a4f c03d 32e2 253e 27e0 cc3d 98f2 433e
000002e0: f5bb 5e3e 7f89 a93e 473b 823d 3125 043e
000002f0: c068 9e3e 2da2 003e 7088 9ebd 0926 373e
00000300: e6cf 323e 799e e03c 367e 233e 3866 1b3e
00000310: 1f60 50bd ee86 4d3e 05d1 ee3d f28a 5e3e
00000320: f601 0d3e 8538 393e fc18 5e3e dd52 1f3e
00000330: 0b74 f3bd dff1 f7bd ab1f 9d3d a683 8f3e
00000340: 5354 523e 3431 c33c 1b1e cbbd 495c 0f3e
00000350: fde8 1bbe addc b13d cd21 8c3c 5a05 cfbd
00000360: dd94 443e cd84 0f3e 8f40 1d3e 4265 583e
00000370: daf0 293e f40d b6bd ee4f 0e3e 1542 163e
00000380: 9bbf 823e da7e 253e c753 103e 4188 53be
00000390: e0f4 a63e 3b98 7f3e 302f 4b3e df55 2d3e
000003a0: fcf0 9cbd 0218 0a3e caed 98bd 46b2 083e
000003b0: 1002 b93d ad54 143e 4177 cd3d 0cdf 093e
000003c0: f423 e93d 3b85 fc3d 9f11 493e e873 a13d
000003d0: 5bed 5c3e 90ae 52be 002d 393e 3e30 20be
000003e0: 5833 ccbd bc4c ad3d 58f9 053d 8bbc d13c
000003f0: 5f3f 683e 1795 033e 8ab7 28bd ad3e 05bb

value_stream.2.weight f4 [1, 256]
-0.20087568 -0.8933728 -0.14330119 -0.17936274 -0.1620286 -0.16755338 -0.17510012 -0.74658054
0.17929722 0.17971584 -0.111560464 0.10060185 -0.1804695 -1.0188442 -0.11369201 -0.109977655
0.33804077 -0.13279057 0.14213398 0.10833637 0.12336373 -0.2903863 -0.1319222 -0.13175616
-0.29524294 -0.15625833 -0.15340523 -0.1961913 -0.19634768 -0.10632146 -0.0989391 -0.0027818787
0.21660191 0.023989225 -0.07625024 -0.12267564 -0.15120788 0.11876276 0.1291414 0.14646086
0.11820316 -0.87407476 -0.10413263 0.20934501 0.13238566 -0.099658154 -0.18274851 -0.1137294
-0.1952432 -0.1697305 0.04480011 0.16545105 -0.25879154 0.021853358 0.1506892 -0.10230517
-0.4572938 -0.11083642 0.08682221 0.15260787 0.30706105 -0.094156526 0.3242992 -0.12521246
0.16765657 0.2371266 -0.08344981 -0.16867825 -0.29139814 0.17347197 0.25237185 -0.1704634
0.12654084 0.15764958 -0.14370896 -0.09535221 -0.09447434 0.11865433 0.21547152 0.1488079
-0.1316004 0.12120239 -0.14980412 -0.09391034 -0.12730572 -0.15683731 0.15937586 -0.20394734
0.12327129 -0.10895398 -0.15429795 -0.20044619 -0.10628764 0.15535949 0.15440182 -0.106382236
-0.108129814 0.19189037 0.18394206 -0.15659945 -0.24263921 -0.0066605667 0.14649722 0.16609524
-0.115600824 -0.59074265 0.11896318 -0.11386965 0.14221284 -0.13672803 0.282962 0.095788844
0.19978017 0.15347463 0.2968529 -0.10405474 0.20199758 -0.13163927 0.1924856 0.12996578
-0.34935677 -0.11823802 0.0024955377 -0.100102544 0.020933505 -0.14168443 0.27060497 -0.12370513
0.27003235 -0.18306245 -0.8025342 0.109559454 0.11692385 -0.13457702 0.17904964 -0.7607702
-1.175019 0.1275912 -0.697735 -0.15161346 -0.123204164 -0.13601191 0.19145608 -0.10954885
0.12778696 -0.11859184 -0.09405154 0.12551373 -0.12520652 -0.14966777 -0.60793525 0.1665584
0.15664802 -0.22618337 0.1633426 -0.15400858 0.14384717 -0.14271092 0.14980309 -0.1555755
0.17114206 0.18586536 -0.48563203 0.107425414 -0.113467954 -0.20617393 -0.14253087 0.19039145
0.08971946 -0.18160914 -0.1312143 -0.3305452 -0.10578246 -0.09832353 -0.14396149 -0.46057722
0.24822855 0.07035754 -0.1173571 -0.1154159 -0.1211912 -0.16337928 0.09211229 0.293402
-0.1064549 -0.1494812 -0.12915353 0.216885 -0.12264973 -0.10018052 0.17631593 -0.12492297
0.17708616 -0.12590903 -0.10794933 -0.13261153 0.17937171 0.3049134 -0.11932837 -0.16662063
-0.18335186 0.31016493 0.38686538 -0.10624247 0.12252207 -0.16546212 -0.20073426 -0.6585111
-0.08042026 0.07469132 0.1584995 0.08861142 0.1283005 -0.15786783 -0.1457829 0.15706466
-0.10497623 -0.33073205 -0.16860636 -0.1197015 -0.08919143 0.14017174 -0.104677044 0.18266927
-0.17053215 -0.143737 0.13811699 0.17620549 -0.12540187 0.1199209 0.23432077 -0.12480518
-0.15249191 -0.13096988 0.17314805 -0.11288073 0.09274862 -0.09441786 0.11459546 -0.12018063
-0.11329681 0.022073016 -0.10860003 -0.0027081128 0.2615781 0.114631094 -0.37377152 0.13811564
0.27597538 0.089333974 -0.14764298 -0.0770929 -0.12058171 -0.30824244 -0.1785696 -0.17219909
00000000: 5bb2 4dbe 14b4 64bf 8cbd 12be deaa 37be
00000010: d3ea 25be 1d93 2bbe 724d 33be e71f 3fbf
00000020: b199 373e 6e07 383e d079 e4bd 5808 ce3d
00000030: ffcc 38be 7d69 82bf 5bd7 e8bd f73b e1bd
00000040: ae13 ad3e 40fa 07be 928b 113e 75df dd3d
00000050: 20a6 fc3d 83ad 94be 9d16 07be 16eb 06be
00000060: 152a 97be 2f02 20be 4316 1dbe 5fe6 48be
00000070: 5e0f 49be 11bf d9bd 95a0 cabd 2e50 36bb
00000080: e4cc 5d3e 0d85 c43c 1629 9cbd 5e3d fbbd
00000090: 3dd6 1abe e439 f33d a53d 043e d6f9 153e
000000a0: 8014 f23d 5dc3 5fbf 7d43 d5bd 8a5e 563e
000000b0: 1b90 073e 9319 ccbd 6d22 3bbe f6ea e8bd
000000c0: d5ed 47be d5cd 2dbe 5280 373d 006c 293e
000000d0: 5380 84be d005 b33c 454e 1a3e 5f85 d1bd
000000e0: 6a22 eabe 34fe e2bd d8cf b13d 3d45 1c3e
000000f0: 1b37 9d3e 23d5 c0bd 8b0a a63e b237 00be
00000100: 2aae 2b3e 51d1 723e bce7 aabd feb9 2cbe
00000110: 2332 95be a3a2 313e e236 813e f58d 2ebe
00000120: ec93 013e e46e 213e 7128 13be 0548 c3bd
00000130: c37b c1bd 0b01 f33d 91a4 5c3e 1961 183e
00000140: 41c2 06be f538 f83d 4066 19be 1054 c0bd
00000150: 6e5c 02be f699 20be 6d33 233e 92d7 50be
00000160: a875 fc3d 4423 dfbd 4800 1ebe c441 4dbe
00000170: 56ad d9bd 8f16 1f3e 831b 1e3e eede d9bd
00000180: 2a73 ddbd e97e 443e 4f5b 3c3e 9b5b 20be
00000190: 6a76 78be e240 dabb 5e03 163e df14 2a3e
000001a0: 20c0 ecbd e93a 17bf f8a2 f33d 7e34 e9bd
000001b0: 3ea0 113e 6f02 0cbe 65e0 903e f12c c43d
000001c0: 2c93 4c3e 7428 1d3e 1afd 973e a71a d5bd
000001d0: 74d8 4e3e 72cc 06be f21a 453e c015 053e
000001e0: e4de b2be c626 f2bd 2d8c 233b 9002 cdbd
000001f0: be7c ab3c b915 11be bc8c 8a3e 1d59 fdbd
00000200: ae41 8a3e b974 3bbe e272 4dbf b560 e03d
00000210: c575 ef3d 8fce 09be ca58 373e d6c1 42bf
00000220: 0667 96bf 44a7 023e c39e 32bf 8f40 1bbe
00000230: 7752 fcbd b546 0bbe 100d 443e 265b e0bd
00000240: 96da 023e 47e0 f2bd 189e c0bd ac86 003e
00000250: 2336 00be 8242 19be a5a1 1bbf 498e 2a3e
00000260: 5768 203e 9d9c 67be 4843 273e 6db4 1dbe
00000270: ac4c 133e d022 12be fb65 193e 2f4f 1fbe
00000280: dd3f 2f3e 7d53 3e3e c3a4 f8be db01 dc3d
00000290: e361 e8bd 421f 53be 9df3 11be faf5 423e
000002a0: d6be b73d bff7 39be 0b5d 06be 383d a9be
000002b0: 79a4 d8bd d95d c9bd a46a 13be c7d0 ebbe
000002c0: a02f 7e3e 9d17 903d eb58 f0bd 2c5f ecbd
000002d0: 1833 f8bd e64c 27be 5ea5 bc3d c938 963e
000002e0: 0705 dabd 9a11 19be d340 04be 1a17 5e3e
000002f0: c82f fbbd 722b cdbd 2a8c 343e 9dd7 ffbd
00000300: 1356 353e 4cee 00be 8a14 ddbd 51cb 07be
00000310: 38ad 373e 9c1d 9c3e 6f62 f4bd 999e 2abe
00000320: 97c0 3bbe f0cd 9e3e 3813 c63e a795 d9bd
00000330: daec fa3d e76e 29be 488d 4dbe 2f94 28bf
00000340: 61b3 a4bd c3f7 983d b14d 223e e779 b53d
00000350: 3561 033e 1ba8 21be 1d48 15be 8fd5 203e
00000360: c7fd d6bd b655 a9be 25a7 2cbe 0f26 f5bd
00000370: ffa9 b6bd 2e89 0f3e eb60 d6bd a70d 3b3e
00000380: fb9f 2ebe cb2f 13be 8a6e 0d3e 366f 343e
00000390: 5969 00be 1799 f53d c9f1 6f3e dc99 ffbd
000003a0: d726 1cbe f81c 06be b94d 313e 032e e7bd
000003b0: fdf2 bd3d 275e c1bd 06b1 ea3d 4321 f6bd
000003c0: 2808 e8bd 78d2 b43c b169 debd 987a 31bb
000003d0: 91ed 853e b5c3 ea3d fb5e bfbe 306e 0d3e
000003e0: a54c 8d3e bbf4 b63d b92f 17be e2e2 9dbd
000003f0: 8bf3 f6bd f4d1 9dbe f3da 36be f554 30be

advantage_stream.0.weight f4 [256, 256]
-0.0011828134 -0.49140337 0.06525332 0.06190236 0.17485003 0.11179407 0.005756833 0.018641679
-0.17584759 0.0469996 0.07025013 0.051493574 0.1435545 0.13346963 0.02192809 -0.3481897
0.096526764 -0.051207226 0.11196428 -0.14602661 -0.0488893 -0.35548508 0.06341796 0.07075996
-0.32126486 0.015362193 -0.3480929 0.051987432 0.078987606 0.042409908 -0.1676192 0.008880375
0.049666997 -0.0501794 -0.13535772 -0.24877958 -0.30719513 0.01992046 -0.28613475 0.11626716
0.29123497 0.07312273 0.09147618 -0.38219762 -0.23305707 -0.19019724 -0.45517716 -0.033955898
-0.32408133 -0.20847651 0.046748415 0.1563367 -0.019471021 0.1307582 -0.37543204 -0.3841136
0.096364096 0.06592516 -0.019966971 -0.3373994 -0.48438984 -0.093332596 0.089944005 -0.09479271
0.20262088 0.051792584 -0.11079714 -0.038263403 -0.14868218 0.05066022 0.072278105 0.03709894
-0.2578825 -0.0009728991 -0.31729078 0.038739003 -0.43005887 -0.1938835 -0.17033635 -0.333024
0.035180647 -0.05941569 0.040301956 -0.20087555 -0.20669763 -0.4041897 0.12554677 -0.31504405
0.06259428 -0.19610912 0.2593879 -0.12216935 -0.0034433252 -0.1563997 0.07080228 0.16415839
-0.09910048 -0.38285097 -0.35578963 -0.2497869 0.014154206 -0.08932082 0.060539823 -0.24150103
0.12397536 -0.15538111 -0.07748903 -0.1769994 -0.32528767 0.098300375 -0.23007518 -0.12807356
-0.29416573 -0.34164673 0.047605995 -0.014566143 -0.28538078 -0.047819536 -0.21346955 -0.4307104
-0.26647985 -0.2564094 -0.3657515 0.21602163 0.13962701 0.17638278 -0.17290397 0.1105264
-0.20704041 0.06695566 -0.46809793 0.068700925 -0.35337517 0.11039026 -0.3358484 0.3926261
-0.2875517 -0.27228364 -0.44488192 0.047523852 0.13918106 -0.45212385 -0.01738819 -0.2665111
-0.23233129 0.04902195 -0.2274406 0.053189736 -0.522006 -0.2714481 0.08430003 -0.015940135
0.014309876 0.04098319 0.12952521 -0.267341 -0.13149908 -0.04946121 -0.43367058 0.21137035
-0.22092935 0.019870555 0.009617251 -0.2804069 -0.3984347 0.017178208 0.051871877 -0.10857337
0.08672281 -0.2193982 -0.07913737 0.0066110697 -0.19443823 -0.40595156 -0.035534784 0.05236254
-0.3424932 0.05751686 -0.3298963 0.038025722 -0.2908613 0.046243694 -0.02457906 -0.03005856
0.08860758 0.2917972 0.061310668 -0.27094045 0.1143068 -0.19965978 0.05479521 -0.14659967
0.034330733 -0.18738456 0.008547833 0.099828444 0.09894887 0.08936396 0.026512826 0.21141735
-0.01652464 0.080568954 0.15447678 -0.087003976 0.041319814 -0.2287522 -0.37762383 0.011939984
-0.0037422094 -0.029538801 -0.45324737 0.011269947 -0.1454889 0.058862045 0.09667262 0.049328644
0.100591175 -0.32976386 -0.06416864 0.15531985 -0.26781592 -0.05263821 -0.20135473 0.07615336
-0.44331914 -0.08636122 7.440261e-05 -0.2652037 -0.42364216 0.14490157 0.08875818 0.097351216
-0.16274616 0.09889624 -0.16347905 -0.33698052 0.074231945 -0.23408455 0.021010194 -0.3529832
0.11808965 -0.052732155 0.0912881 -0.26009592 -0.19418956 -0.16291817 -0.14665903 0.065014936
-0.051097877 0.02092195 0.044246133 0.056168675 -0.055974267 -0.40018323 0.08144125 -0.2573818
00000000: a208 9bba 3999 fbbe 88a3 853d 548d 7d3d
00000010: e30b 333e 4af4 e43d d1a3 bc3b 6fb6 983c
00000020: 6411 34be a782 403d 4ddf 8f3d edea 523d
00000030: f3ff 123e 43ac 083e 8aa2 b33c ec45 b2be
00000040: d3af c53d abbe 51bd 874d e53d 0088 15be
00000050: 2640 48bd 2402 b6be 47e1 813d 99ea 903d
00000060: d47c a4be b5b1 7b3c 3c39 b2be c6f0 543d
00000070: 41c4 a13d 03b6 2d3d 5ea4 2bbe fe7e 113c
00000080: 9f6f 4b3d ea88 4dbd 379b 0abe 13c0 7ebe
00000090: ae48 9dbe 3c30 a33c 4180 92be 7a1d ee3d
000000a0: c01c 953e 5fc1 953d dd57 bb3d 68af c3be
000000b0: 83a6 6ebe 11c3 42be fb0c e9be 5715 0bbd
000000c0: fded a5be de7a 55be 447b 3f3d ba16 203e
000000d0: b181 9fbc 7ae5 053e a138 c0be 8aaa c4be
000000e0: 8a5a c53d c503 873d c691 a3bc 9dbf acbe
000000f0: f201 f8be 2925 bfbd 9034 b83d ae22 c2bd
00000100: d97b 4f3e 7624 543d 9ce9 e2bd 16ba 1cbd
00000110: 2440 18be 1781 4f3d 8b06 943d 0ff5 173d
00000120: 2d09 84be 270a 7fba f073 a2be caac 1e3d
00000130: ad30 dcbe 6589 46be a76c 2ebe 1f82 aabe
00000140: 9519 103d de5d 73bd aa13 253d 52b2 4dbe
00000150: 8ba8 53be f4f1 cebe 558f 003e 744d a1be
00000160: 6e31 803d d4d0 48be 7ece 843e ed33 fabd
00000170: 69a9 61bb 3e27 20be c900 913d 2319 283e
00000180: 31f5 cabd 0b05 c4be 0f2a b6be 23c8 7fbe
00000190: 0be7 673c d6ed b6bd 9bf8 773d 0c4c 77be
000001a0: cbe6 fd3d 3a1c 1fbe 92b2 9ebd 553f 35be
000001b0: 1b8c a6be b551 c93d d498 6bbe b725 03be
000001c0: e49c 96be 52ec aebe 81fe 423d d5a6 6ebc
000001d0: 6e1d 92be 6bde 43bd c397 5abe 1386 dcbe
000001e0: 0c70 88be 1848 83be c843 bbbe c634 5d3e
000001f0: 62fa 0e3e b09d 343e bd0d 31be aa5b e23d
00000200: 6702 54be 0d20 893d 88aa efbe 12b3 8c3d
00000210: 97ed b4be 4a14 e23d 52f4 abbe 4a06 c93e
00000220: fa39 93be c368 8bbe 90c7 e3be 5fa8 423d
00000230: 7b85 0e3e c77c e7be ad71 8ebc 2574 88be
00000240: 41e8 6dbe 3ecb 483d 30e6 68be 7bdd 593d
00000250: 2fa2 05bf 3ffb 8abe 7ea5 ac3d e394 82bc
00000260: f873 6a3c fddd 273d 42a2 043e ebe0 88be
00000270: b2a7 06be d697 4abd 120a debe 7871 583e
00000280: 4e3b 62be 93c7 a23c ad91 1d3c 7e91 8fbe
00000290: a2ff cbbe 50b9 8c3c 9b77 543d b75b debd
000002a0: bb9b b13d eca9 60be c612 a2bd aca1 d83b
000002b0: d11a 47be e2d8 cfbe ec8c 11bd 1a7a 563d
000002c0: 455b afbe cd96 6b3d 2be8 a8be dcc0 1b3d
000002d0: c6eb 94be 076a 3d3d 065a c9bc 5f3d f6bc
000002e0: e477 b53d 7166 953e e520 7b3d b5b8 8abe
000002f0: af19 ea3d 9d73 4cbe f170 603d 391e 16be
00000300: 629e 0c3d bde1 3fbe 360c 0c3c db72 cc3d
00000310: b5a5 ca3d 7404 b73d 6d31 d93c ca7d 583e
00000320: af5e 87bc 5601 a53d 292f 1e3e 242f b2bd
00000330: f73e 293d 043e 6abe e957 c1be ec9f 433c
00000340: db3f 75bb 5bfb f1bc 0a10 e8be 95a5 383c
00000350: 0bfb 14be 5419 713d 4bfc c53d d50c 4a3d
00000360: bf02 ce3d cfd6 a8be d96a 83bd 2b0c 1f3e
00000370: 2b1f 89be 2a9b 57bd ef2f 4ebe 4bf6 9b3d
00000380: bafa e2be 27de b0bd 9908 9c38 c8c8 87be
00000390: a0e7 d8be 1461 143e d9c6 b53d 1360 c73d
000003a0: eea6 26be 1d8a ca3d 0d67 27be b688 acbe
000003b0: eb06 983d dcb3 6fbe 921d ac3c 37ba b4be
000003c0: fdd8 f13d acfd 57bd 41f5 ba3d 4b2b 85be
000003d0: a1d9 46be 05d4 26be c92d 16be 8d26 853d
000003e0: 024c 51bd 8264 ab3c 6f3b 353d 2011 663d
000003f0: 4645 65bd d1e4 ccbe acca a63d 8cc7 83be
