active_slam_rl/training_output_frontier/20260124_140852_frontier/d3qn_frontier_ep640.pth (torch, 901938 bytes, 11 tensors)

feature.0.weight f4 [256, 100]
00000000: d478 f8bd 081b dfbd d20f c1bd 0c16 32be
00000010: f794 c5bd cf48 ffbd 2f4a a8bd 5ae8 69be
00000020: d8ac e9bd 7039 52be 14f8 bdbd 0f8e 2ebe
00000030: 7120 b4bd 7527 d7bd c338 93bd 7f7e 2ebe
00000040: f4e8 debd 5ba3 10be f44b 42be 8c74 85bd
00000050: 2087 28bd c7cc c9bd 6548 edbd 67a9 cbbd
00000060: 354f ebbd 6a7e 4dbd f892 df3b 5b15 8dbd
00000070: a45d 373d 0eb7 48bd 54ee 063d ed4c 05be
00000080: 011f 86bd d02c be3b 3d92 dd3c 6f44 23be
00000090: 3380 edbc 742a d4bd 3186 52bd 4cc2 1abe
000000a0: 0521 1abc 4e37 2d3d e238 1ebe 9275 63bc
000000b0: d803 3bbd e8ad f6bc b6d7 a3bc 981d b0bd
000000c0: 7b67 77be cd84 61be 25a8 91be fbd2 b0be
000000d0: 6c41 5cbe c253 82be 87c8 57bd 6530 093d
000000e0: fcdc cd3d afb1 82bd ebea 95bd b9e8 0b3d
000000f0: ab8a 423d 962f e73d 2367 2d3e 011c 54bd
00000100: e16f cd3d 7228 c03d a555 27bd 22e1 2f3e
00000110: cc2f 313e 1c34 703d b99b ae3d 1f43 eb3d
00000120: e285 1d3d e718 46bc 1b2f 6cbc 3bcf a53d
00000130: 0653 0dbd 2e25 443e 6498 043e 7b49 003e
00000140: f487 5d3c 958c 8cbd f6da ee3c a6ec a4bc
00000150: f8ae 3dbd 6d6f fdbc 243f 983d 319b 01bd
00000160: 5cd7 903d 689c a13d 3439 edbd da56 0cbd
00000170: 378b 1b3d 0e89 bcbd e580 78bd a97a e5bd
00000180: 3669 f6bd 4e91 bc3d 9058 e4bc 4330 363d
00000190: 1db5 da3d 52eb 103d 465d 3fbc 7315 b3bc
000001a0: d526 08be d3e7 1a3e 9470 9a3d 84c5 e13d
000001b0: e53a cb3b 23a4 853d 05a7 b83d b61d b5bc
000001c0: 17b6 333e 4e89 133e 8ce1 12bd cade ae3d
000001d0: ff67 81bd 72ea c23d 9223 0e3d a4cb fc3d
000001e0: 0374 30bd c33c 92bd 52d2 6d3c fe7d 77bd
000001f0: cd21 81bd 4539 163d aae1 06bd 23e9 64bd
00000200: eecd a3bd 08e7 bebd a7ad 13be 5953 97bd
00000210: 9d0d f2bd c847 11be fd64 483d cbc1 b63d
00000220: 6b55 0b3e e560 a83b b66d 1d3e 3aa0 303e
00000230: 689c 113e 6f71 143e 9564 233e 206e 0c3e
00000240: fead 3c3e 0eec be3d 3433 2dbd 41b1 24bc
00000250: 0ba0 ab3d e0bd b33d 2421 933d 43f5 2c3d
00000260: a6c7 9f3c 5528 51bd 1ba0 babc 5bd6 b0bd
00000270: d583 873d bf20 823c 670d 2bbd 7c00 4bbd
00000280: 9268 bbbd 5c14 08be b13d bbbd e511 0bbe
00000290: 5b44 6bbe 8a62 22be d9a6 f3be bf20 22bf
000002a0: f2e7 ebbe 43ad 2ebf ca17 15bf 9b93 e3be
000002b0: 45d2 f2be 6aad efbe 3c35 d8be 3496 1abf
000002c0: 8d13 28bf 477d d2be d218 0fbf 9c26 eabe
000002d0: 0198 cfbe ce82 f1be c078 94be 1934 ebbe
000002e0: 5f76 fabe 901b e6be 3427 fabe e3b3 f3be
000002f0: ba0b dfbe e446 89be 2769 86be 1ab1 8fbe
00000300: 7b98 f1bd 43cb 46be 5568 31be 6139 ecbd
00000310: a731 e0bc 0063 12bd 94aa 643d 5716 143e
00000320: e415 a9bd 840d 453d b387 54bd 2c04 6dbb
00000330: 2c55 123c a816 463c 01f7 753d f63c 833e
00000340: ce95 e63d 1774 393e 2077 0d3e b4c0 0d3e
00000350: 6e59 6b3e e79d 193e 93b0 383e f0a2 623d
00000360: fa6d e43d 3654 0b3d 908a 713e 419e a63c
00000370: dfa2 0abe cbf3 9fbd 2ff4 27be 1390 f2bd
00000380: 8c7c 05bd dc33 413c d283 ebbd 700e 11be
00000390: 2e6f 10be 6de3 22be a2cd 7dbe 462d f5bd
000003a0: fdf8 99bd 143e 2fbe 3eea bcbd 0fda 9a3c
000003b0: ec3b ba3d 3628 263d 9f97 633e 2139 943d
000003c0: bbb4 0b3e cafd 5f3b 256b 0e3e d05b de3d
000003d0: b04f 1d3e d048 c43d 1495 7d3e 7041 013e
000003e0: 2553 32be d2d7 5cbe 24f2 e4bd ea96 26bd
000003f0: 8311 09bd 33ae 8bbd e60e c4bd 7305 0e3d
-0.12132421 -0.10893828 -0.094268456 -0.17391223 -0.096475534 -0.12465059 -0.082172744 -0.22842541
-0.114099205 -0.20529723 -0.09275833 -0.17046379 -0.0879525 -0.10505573 -0.07188561 -0.17040442
-0.10884276 -0.14124815 -0.18974286 -0.0651637 -0.04114449 -0.09853511 -0.11586074 -0.0994442
-0.11489717 -0.050169386 0.00682294 -0.06888839 0.044767037 -0.0490027 0.03294213 -0.13017626
-0.06548882 0.005803682 0.02704727 -0.15944074 -0.028991794 -0.1035966 -0.051397506 -0.15113181
-0.0094072865 0.04228907 -0.15451387 -0.013883011 -0.045657963 -0.030112222 -0.02000032 -0.085993946
-0.24160568 -0.22023316 -0.28448597 -0.34535965 -0.21509331 -0.25454527 -0.052681472 0.03349342
0.10051915 -0.06381547 -0.07320198 0.03415749 0.047495525 0.11288373 0.16933875 -0.05178452
0.10031105 0.09382714 -0.04085316 0.17175725 0.1730339 0.058643445 0.085257955 0.11487412
0.03845776 -0.012090898 -0.014415528 0.08096167 -0.034503005 0.19154808 0.12948757 0.1252803
0.013521183 -0.068627514 0.029157143 -0.020132374 -0.04630944 -0.030936921 0.07433918 -0.031642143
0.070723265 0.0789116 -0.11583176 -0.034262516 0.037974562 -0.092058286 -0.0606698 -0.11205036
-0.12031786 0.09207402 -0.027874261 0.04447962 0.10679076 0.03538067 -0.011679953 -0.021860814
-0.13296063 0.15127496 0.07541004 0.11024001 0.006202089 0.06525447 0.090162314 -0.022108894
0.1754993 0.14407846 -0.03585963 0.085385874 -0.06318664 0.09517373 0.03470189 0.12343529
-0.043079387 -0.07140496 0.014515476 -0.06042289 -0.06305275 0.03667571 -0.032930054 -0.0558864
-0.07998262 -0.093214095 -0.14421712 -0.07388944 -0.11819003 -0.14187539 0.048924435 0.08923682
0.13606803 0.005138504 0.15373883 0.17248622 0.1421982 0.14496396 0.15956338 0.13713884
0.18425748 0.093223676 -0.04228516 -0.010052026 0.08380135 0.0877645 0.071840554 0.042226087
0.01950438 -0.051063854 -0.022781422 -0.08634635 0.06616942 0.015884755 -0.04176083 -0.04956101
-0.091508046 -0.13289016 -0.09142626 -0.13581045 -0.22975294 -0.15857902 -0.47588232 -0.63331217
-0.46075398 -0.68233126 -0.58239424 -0.44448552 -0.47426048 -0.46811992 -0.42228115 -0.6038544
-0.6565483 -0.41111204 -0.5589725 -0.45732582 -0.40545657 -0.4717011 -0.28998375 -0.45938185
-0.48918435 -0.44942904 -0.48858035 -0.4759818 -0.43563634 -0.26811898 -0.262521 -0.28064805
-0.117966615 -0.19413476 -0.17324956 -0.11534382 -0.027367426 -0.035738945 0.05582674 0.14461647
-0.082561284 0.048108593 -0.051887225 -0.0036165817 0.008931439 0.012090363 0.060050014 0.25632447
0.11259042 0.18110691 0.13814974 0.13843042 0.22983333 0.15001641 0.18036108 0.05533117
0.11153789 0.034015857 0.23588014 0.020339133 -0.13538693 -0.07810172 -0.16401742 -0.11843886
-0.03258948 0.011792149 -0.11499752 -0.14165664 -0.14104912 -0.15907069 -0.24785474 -0.11971526
-0.07518194 -0.17113525 -0.09224366 0.018902807 0.090934604 0.040565692 0.22225808 0.07237459
0.13643162 0.003417837 0.1390806 0.108573556 0.1536243 0.095842004 0.247639 0.12622619
-0.1741453 -0.21566704 -0.11178997 -0.040671267 -0.033463966 -0.06820335 -0.09573154 0.034673166

feature.0.bias f4 [256]
00000000: fdb6 9f3e 2838 bf3e a1d7 21bd 48f9 4d3e
00000010: f5f1 c8be 2788 66be 28aa 243e c3a4 7b3e
00000020: e5ad 283f 9211 e93e e841 abbe b592 e1bd
00000030: f065 df3e 01af 483e bd28 91be b1f7 453e
00000040: a6c8 d0bd 8499 bf3e 54a7 6b3d 7156 d7be
00000050: c6cb 963e 1a4a acbd f588 febe 7f61 803e
00000060: 979b 30bf eb1e 04bf a0ae 8abe 30e2 313e
00000070: dd43 adbe ba9f c83e 25fd 8d3c 404f 47bf
00000080: c349 04be 918a a6be 665b 2c3d eae7 17bf
00000090: c010 43bd 4288 913e 806c 873e 81dc 163f
000000a0: 602d 5a3e 2f4f 3ebd ae7a 283d acf9 ce3d
000000b0: 704e 0cbf 9cd5 2cbe 27dd c4be 0c27 54be
000000c0: 3521 d73e 36df 8b3e 3fcc b3bd 4bd6 41be
000000d0: cb24 a1bd 1ef4 073e bc97 be3c 62ea 663b
000000e0: 9263 133e 1e3f 95be 21ee 553d b772 9b3d
000000f0: a23c 98bd 5860 453e a0fc 32bf d1ac 733e
00000100: cd22 0d3f b07a 873e 1de7 3fbd 93c5 d43e
00000110: 73ab b2be e1e1 d0be f7af 65be 717c 473e
00000120: a49a 2e3e 0616 81be 7602 82be 5292 8dbd
00000130: a1ac 29bd 67ec 64be 2a26 10bd 19be d23e
00000140: 8838 243f aeaf e73d fed3 c13e 383c 10be
00000150: 7504 d43e 5f0d 5fbe 437c 6c3d 91c7 763e
00000160: ad05 843d a211 df3e b5fc 293f 3fab 95be
00000170: cbf1 1d3d 4dc0 febd 2b9b 103f 9223 be3e
00000180: a747 143e 98e0 273f b43c 4e3e 8141 1cbe
00000190: 40a1 f73e 271e 483e 0009 97be 8bac 4b3e
000001a0: 8e55 113f b3e2 163f 5b1c 713e d336 df3e
000001b0: 07c8 2f3e cc9c 92bd 8086 b0be f19a 6dbe
000001c0: 9fa3 0ebe 542b 153f 1637 653e 4cb1 75be
000001d0: d2fa 63bd abec f8be dea6 fe3e 5c65 f4bd
000001e0: fdc6 a2be 04b9 b4bd d1d7 113d b495 e1be
000001f0: 8335 aa3e 28ad 1c3e 1a8c 1d3f 5e1e efbd
00000200: 1631 033e 4aa1 db3e de1e 653e 0d1d e6bc
00000210: 6323 893e 4804 83be 076c b13e b0a1 bc3e
00000220: 1b81 9d3e fc72 df3e 195a 3f3e f0a8 9ebe
00000230: 065c 0f3f 3430 ccbd b9fa 26bf fbdd b6be
00000240: c993 b23e 0c8a 1f3f 3c12 9f3d 3b55 1e3d
00000250: 0151 923e 9f34 ddbe f5bf f73e 36f1 1fbf
00000260: 7057 003f 9c70 2dbe dff8 103f d3c0 443f
00000270: ad0f f13e 2b2e 1b3d ff6f 4e3e ce37 b63d
00000280: 8cec d2bd 09a5 c03e 4f3f 5b3e 55f1 033f
00000290: 0fac 9a3c 1b83 37be 37ca 903d ae34 09be
000002a0: 477b de3e 8f9c d9bd b189 af3e 5401 873b
000002b0: e175 223e 76b9 8b3d ea99 be3e aba9 01bf
000002c0: dadd 993d ff73 3cbe 47dc 81bc 3a37 353e
000002d0: 041e e13e 5164 fb3d 7269 a6be b86f f4be
000002e0: d8ea b93e 846b aebe 5a05 3dbc 5c27 f1be
000002f0: abf2 f63d 7ad8 6f3e 8c4e 1f3f 25ee 553d
00000300: 1843 81be 4bb1 30be 5703 d43e c160 debd
00000310: 7196 763e a5b3 013e ba6d 13be ebc4 7dbe
00000320: a157 393d bd81 d5be 58d6 bdbe 48f7 ffbd
00000330: ba71 bf3e c0b1 bbbe f4ec 273f 5ac5 bb3d
00000340: a5ea 053f ac75 413e 2b42 b23e 27f3 babe
00000350: 8770 ce3d 10c6 163e 2f22 8fbe 92d9 83be
00000360: 45a2 e33e e048 a3be a402 32be 3721 b63d
00000370: c8f8 003f 8d33 2f3f d66e 7dbe fda1 e03e
00000380: 9edf 8abd bff1 eb3e 81f8 183e af29 a43e
00000390: 38d7 0c3e ce73 bc3e bed9 d63e f7b9 35be
000003a0: 82aa 2dbc 2fe0 143d 0e8d b9be b9ac 6abe
000003b0: 8103 35be ec78 8fbe f482 4ebd 2065 f3bd
000003c0: 0d85 013f c46a eb3e 9d98 b1bc d921 9abe
000003d0: 4ab1 3c3d b50b 8c3c 6a87 7ebe 82b0 973e
000003e0: 8651 09bf f8dc 0b3f c158 013f 14ad 0bbe
000003f0: 34a1 a5bd b2d4 063f 895e 9c3e 0828 07be
0.31194296 0.3734753 -0.03951228 0.20114625 -0.392471 -0.22512875 0.16080534 0.2457457
0.6589034 0.45521218 -0.3344872 -0.1101431 0.4363246 0.19598009 -0.28351393 0.19332768
-0.10194521 0.3742181 0.057532623 -0.42058137 0.29452342 -0.08412571 -0.49713865 0.25074384
-0.6898741 -0.5160968 -0.27086353 0.1737144 -0.33840838 0.39184362 0.017332623 -0.778553
-0.12918763 -0.32527593 0.04207935 -0.5933825 -0.047623396 0.2842427 0.26449966 0.5893021
0.21306372 -0.046462234 0.04113262 0.10106215 -0.54807186 -0.1687836 -0.38449976 -0.2071802
0.42017522 0.27318734 -0.08779191 -0.18929403 -0.07868346 0.13276717 0.023265712 0.0035234918
0.14393452 -0.29149717 0.05222905 0.075902395 -0.0743344 0.19275033 -0.69916725 0.23796393
0.55131227 0.2646079 -0.046851266 0.41556987 -0.3489643 -0.40797332 -0.22430407 0.19481064
0.17051178 -0.25212115 -0.25392503 -0.06912674 -0.041424397 -0.22355805 -0.035192646 0.41160658
0.6414876 0.11312805 0.3785705 -0.14085472 0.4140965 -0.21782444 0.057735693 0.24099566
0.06446395 0.4356814 0.66401225 -0.29232213 0.03856067 -0.12439022 0.5648677 0.37136513
0.14480458 0.6557708 0.20140344 -0.15259363 0.4836521 0.19542752 -0.29499054 0.19890039
0.5677117 0.58939666 0.23545973 0.43596515 0.17166148 -0.07158813 -0.34477615 -0.23203637
-0.13929604 0.5826924 0.22384295 -0.23993415 -0.055659123 -0.48618063 0.49736685 -0.11933395
-0.3179244 -0.088243514 0.03560621 -0.44059527 0.3324395 0.15300429 0.61541903 -0.11675714
0.12811694 0.4289649 0.22375056 -0.028090024 0.2678481 -0.25589204 0.3465273 0.36842108
0.30762562 0.43642414 0.18686713 -0.30988264 0.5599979 -0.099701315 -0.6522632 -0.35716233
0.34878376 0.6232002 0.0776715 0.0386555 0.28577426 -0.4320421 0.4838864 -0.62477434
0.5013342 -0.16937488 0.5662975 0.76856726 0.47082272 0.037885826 0.2015991 0.08897363
-0.10299024 0.37625912 0.21410869 0.5154012 0.018880872 -0.17921107 0.070698194 -0.13399002
0.43453428 -0.10625564 0.34284738 0.0041200314 0.1586528 0.06822483 0.37226802 -0.5064952
0.07513018 -0.18403624 -0.015852107 0.17696849 0.43968213 0.12274993 -0.32502323 -0.47741485
0.36311984 -0.34066403 -0.01153692 -0.4710034 0.12058004 0.23422423 0.6222923 0.052229065
-0.252465 -0.17255132 0.41408798 -0.10858298 0.24080826 0.12666185 -0.14397326 -0.2478215
0.045249585 -0.41700545 -0.37077594 -0.12498337 0.37391454 -0.3665905 0.65595937 0.09168501
0.52311164 0.18892545 0.34816107 -0.36513636 0.10080057 0.14723992 -0.27955768 -0.2575193
0.4445974 -0.31891537 -0.1738382 0.08893054 0.5037961 0.68438035 -0.24749312 0.43873587
-0.06780933 0.46082875 0.14938547 0.32063052 0.13753974 0.36807102 0.41963 -0.17746721
-0.010599734 0.03634661 -0.3624043 -0.22917451 -0.17677118 -0.28021944 -0.050417855 -0.118845224
0.50593644 0.45979893 -0.021679217 -0.3010395 0.046067514 0.017095426 -0.24856344 0.29626852
-0.5364002 0.54634047 0.5052605 -0.13640243 -0.08087388 0.526683 0.30540875 -0.13198864

feature.2.weight f4 [256, 256]
00000000: 44c0 11bc 2af9 70bd d2b6 b33e c807 c7be
00000010: 30dc 993d 6cdc 3b3d 32ea eabd 94f3 733d
00000020: e242 99bc aadf 48bd f594 3e3e 9732 4ebe
00000030: e8c4 91bc 9c9a 8ebe fc87 1f3e a0c8 46bd
00000040: 00c8 1bbe 80a8 f9be a3b7 6cbe 5659 203e
00000050: 4d33 dbbe 2892 27bd 8854 ce3d b217 e1be
00000060: bcb4 7c3d 5b85 363e 767e 2d3e f6a1 2bbd
00000070: 22b0 16be ae1f f3be b65c 89bd 6edb 353e
00000080: 5aeb ef3d cbb1 a43e ffc8 7b3e 5869 a13b
00000090: 97a9 93bd cce9 80be 5faf 6fbe a860 febd
000000a0: aa59 0a3e 1c85 6abd 18ec a5bd 0676 91be
000000b0: ebc5 b23d a0cd 2bbe 8a7b 06bd 1f5f d33e
000000c0: d0af 09bf b909 3ebe 5783 5c3d 05df 963d
000000d0: a9c6 11be 5550 69bd 945a fabe 7778 9bbe
000000e0: 2d43 e0be d520 6dbd e299 4e3c 9713 fcbd
000000f0: fe16 853d 23b8 b4be 6943 203d 31c6 5fbe
00000100: d7e4 d4be 44c4 d6be aafa d43d 046c 88be
00000110: 81ab f6be 76de a9bb 028b a33e 2120 80bd
00000120: e9ab 85be 3fc5 79be 391a 4ebd fe5d 523d
00000130: 635e 0abe ecea 20bd 5c4f 423d 6919 58be
00000140: 5363 cdbd fe12 acbe 34bb 2bbe 3e49 ba3d
00000150: 0ccb bb3d bbc1 543e d94d 13bf a860 f63d
00000160: b058 a3bd 234a 96bd 44dd 6ebd fbb6 22be
00000170: 6d2a a7be 93f5 8d3d 5019 653d cd12 da3e
00000180: b951 bfbe 8e31 3bbb 5d92 3abe 4416 3b3e
00000190: bb7d 2abe d7ab 1cbe 8631 96bc 80b2 41bf
000001a0: 0dbb 5cbf ba5e 4cbf 8dc0 8bbe 1c58 42bf
000001b0: debe 633b 08ea 1dbe 8e53 fcbc c841 34bd
000001c0: 3286 cabd 54c0 0abd 8224 83bb 1f18 0e3e
000001d0: 4a7b c63d b92b 313e 22de ddbc 4bf4 30bd
000001e0: 845b 3c3e 1ff6 ee3d ccff 70be 21f2 1abe
000001f0: 4428 cebe 8afa 163c 1b7f 56be b34b febd
00000200: aa65 bf3e a175 aabe 4246 dfbe 1b1f 24be
00000210: fc2c f9bd 8ea5 953d 4f51 d8bc 0889 ffbd
00000220: 5b9d aebe f8fc a6be 8e60 26be f1af 92bc
00000230: a2a9 cbbd be5d fbbe d8e1 fe3d a45a 203e
00000240: 8c8b 08bf 14d7 813c e83d 3bbf f18c d23d
00000250: 2434 38be 6ac0 433d 2a9b 6dbe c836 dd3e
00000260: 89c8 7a3e 4bef 453e 8c71 99be 1992 12be
00000270: 0b18 68be 7ac1 2d3d bbd8 173d cdb9 9ebd
00000280: f784 76be fd38 fdbd c122 a9bd 94d9 47bf
00000290: 4c65 a2be d2bc 873e 86e3 cfbe 3aac 1cbf
000002a0: d08b 66be b3ff a4be 9993 bb3c 8d4a b1be
000002b0: a5f5 7c3e 1ae4 0ebf edca 3ebe 8ef8 2b3d
000002c0: e7e0 95bd 8b42 8e3e 9c30 9ebe 7a0c e0bd
000002d0: 74cd d7bd 7859 02be 2dfb a7bd 342f 093e
000002e0: 94c3 02bd 06c2 c43d 49f1 96bd eff2 043f
000002f0: db97 e7bd a89e 23be f5b0 21be 917c ca3d
00000300: a692 943e ac8f 35be e340 d8bd 8569 583e
00000310: 2fe5 4dbe 37ad c3be 2c68 acbd 84ea 273e
00000320: b0f2 8cbe cb02 c2bd 3108 5ebe 6c5b 4ebe
00000330: 23d1 d63c 8710 0b3d c2ad c1bd e756 2b3e
00000340: 3d15 afbe b161 04be 8c58 a1be ab67 08bd
00000350: 716a 03bf ee5e d7be 6da0 353e 018b 263e
00000360: 0f4c 543d fced 793b 96ee 373e 9792 92be
00000370: 3b1c 21be d54a 56bd 5a18 a6bd 93b6 eb3d
00000380: 1384 9ebb 2387 37be 211a 2dbe a5e9 7dbe
00000390: 6bdb c7be f2f4 97bd dc50 10bf 19cc 8e3d
000003a0: 8cef 7d3d 08c1 75be af19 1c3c 1c06 033d
000003b0: 20a7 46bd 111a 3b3e 130d 1bbf 938f 25be
000003c0: 046c 01be 40b2 aabe deef 91be 6e73 5d3d
000003d0: 3527 03bf f6c8 16be 684b 59be 012c d0bd
000003e0: 82f3 c1bc da63 3dbe 002f d5be 2702 1fbe
000003f0: 49f0 313e 3891 33be f388 efbe 01d2 91bd
-0.008895937 -0.05883137 0.35100418 -0.38873124 0.075127006 0.045864508 -0.114704505 0.059558466
-0.01870865 -0.049041428 0.1861151 -0.20136486 -0.017794088 -0.27852333 0.15579218 -0.048531175
-0.15213013 -0.48761368 -0.23116927 0.15659079 -0.42812577 -0.04091087 0.10074717 -0.4396339
0.0616958 0.17824309 0.16942772 -0.041902505 -0.14715627 -0.47485107 -0.06707136 0.17759487
0.117148116 0.32166895 0.24588393 0.004925888 -0.07210081 -0.25178373 -0.23406743 -0.124207795
0.13510767 -0.05725585 -0.08101672 -0.28410357 0.08729156 -0.16777658 -0.03283266 0.4128351
-0.53783894 -0.18558396 0.053836193 0.07366756 -0.14235939 -0.056961376 -0.4889723 -0.30365345
-0.4380125 -0.05789264 0.012609931 -0.12308424 0.06498526 -0.35296735 0.039126787 -0.21852948
-0.4158084 -0.41946614 0.10399373 -0.2664491 -0.48177722 -0.00518399 0.31941992 -0.06256128
-0.2610772 -0.2439165 -0.050317977 0.05135917 -0.13512568 -0.03928654 0.047438964 -0.21103443
-0.1002871 -0.3360824 -0.16770631 0.09096001 0.091695875 0.20777027 -0.5754066 0.120301545
-0.079759 -0.07338359 -0.058316484 -0.15890114 -0.32649556 0.06931605 0.055932343 0.4259247
-0.37367037 -0.0028563472 -0.18219896 0.18270212 -0.16649525 -0.15299927 -0.018334161 -0.75662994
-0.86222917 -0.7983204 -0.27295342 -0.75915694 0.0034751217 -0.15421307 -0.03080156 -0.044008046
-0.09888877 -0.033874825 -0.004002155 0.13876389 0.09691484 0.17301835 -0.02708346 -0.043201726
0.18394285 0.116680376 -0.23535079 -0.15131427 -0.40265095 0.009215007 -0.20946924 -0.12416782
0.3738225 -0.3329287 -0.4360829 -0.16027491 -0.12166783 0.07306968 -0.026405958 -0.124773085
-0.34104428 -0.32614875 -0.1624777 -0.017906161 -0.09944464 -0.49094957 0.1244542 0.15659577
-0.5333793 0.015849628 -0.73141336 0.10280789 -0.1798864 0.047790922 -0.23203722 0.43205857
0.2449056 0.19329564 -0.29969442 -0.14313544 -0.22665422 0.04242084 0.037071925 -0.077502824
-0.2407416 -0.12364385 -0.08258582 -0.7806637 -0.31717908 0.26511246 -0.40603274 -0.61200297
-0.22514272 -0.32226333 0.022897528 -0.3462719 0.24703081 -0.55816805 -0.18632098 0.041985087
-0.07318287 0.27785143 -0.3089646 -0.1093988 -0.10537234 -0.12729442 -0.08202205 0.13396913
-0.0319248 0.096073195 -0.0737024 0.5193319 -0.11308261 -0.15978491 -0.1579016 0.098870404
0.29018134 -0.17730588 -0.10559251 0.21134003 -0.20106958 -0.3821809 -0.08418307 0.16398054
-0.27528906 -0.09473189 -0.21682812 -0.20152062 0.026222771 0.03395131 -0.0945697 0.1673237
-0.3419589 -0.12927891 -0.31512868 -0.03330199 -0.5133429 -0.42064613 0.17736979 0.16263963
0.051830348 0.0038136235 0.17962107 -0.28627464 -0.15733425 -0.05231746 -0.081101134 0.11509433
-0.004837522 -0.17922644 -0.16904499 -0.2479616 -0.3903459 -0.074197665 -0.5637338 0.06972522
0.061996028 -0.23999417 0.009527608 0.03198825 -0.048499227 0.18271662 -0.60566825 -0.1616805
-0.12638861 -0.3333912 -0.28503317 0.05406516 -0.512317 -0.14725098 -0.21220171 -0.10164643
-0.023675684 -0.18495122 -0.4163742 -0.15528165 0.17376818 -0.17535865 -0.4678417 -0.07120133

feature.2.bias f4 [256]
00000000: ba01 46be e52d b93d 8bc5 abbe 1ab1 473e
00000010: f3a5 b4be 59c3 eb3e cdc2 b5be baad 23bd
00000020: ac78 8d3c a1f2 04bd 577d d4be b0fc 90be
00000030: 1b3f d5bd a339 c53e 633c 9fbe 0595 bd3e
00000040: 4319 1ebc 0d30 95be 73c9 03be a5c8 b03d
00000050: e218 413e 45c9 d43d bb7d ef3c e1d5 133f
00000060: 5923 203f 97a2 8bbe 31d0 933e 7c2a fd3d
00000070: 86c3 393b e1fc 2abe dd98 2e3e caa8 a6ba
00000080: cd49 283e c436 393e 7b89 133e c42b 7e3e
00000090: 251a 1c3f 1d33 273f 431f b03e a1f0 bbbd
000000a0: 3ca6 893e c62f b7bd 0b69 f13c cabc 223f
000000b0: a154 d93d 519e 53bd 037b b43d 385a 7abd
000000c0: 66ae e83e 3fe3 af3d e832 5a3d 07a9 11bd
000000d0: 53f0 193e bc0b 443d 240a 9bbd 867f 003f
000000e0: 5c22 9f3c 652a 0e3e 5be0 0a3f d834 773e
000000f0: 2ed2 f2bd 7c5b 643e 0ac8 9ebe 8ed0 c53d
00000100: 4adf 023f 5aac 833e bdec 323e 43e6 773e
00000110: d1e4 6b3e 600d 76be 7b31 f83e 383e 293e
00000120: bcc0 f23c 9879 1abe 6cf7 eb3e 3d94 cd3e
00000130: 86f6 c93e 6afb 113f d442 cb3d 140c 1b3f
00000140: 5fae 63be 65ec e63d e972 ee3e a9a0 963e
00000150: 155d 7b3d 5704 243f 0fb7 78be a6ee df3e
00000160: 0355 773e 93ea e5bd 9f91 2e3e 2e8f 15be
00000170: a975 0d3f f1d8 d63a fbf6 a4bc df1f 353c
00000180: 55c7 ab3e 15f9 9c3e cbff d13e aa2e d03e
00000190: 7957 acbd f657 043f afe7 8abe 5377 1a3f
000001a0: 9b42 fa3c 5c9c df3e 97a6 043f e61e 193f
000001b0: 2ccf 1c3f 2f84 8e3e 8850 1c3e 1550 8a3d
000001c0: 1297 b93e 5455 813e 26ec 0a3e e7f6 97be
000001d0: ee66 de3d 719c 163f 5a1b d23e bff2 b63e
000001e0: 2190 683d ffb5 b83e a80b a83e 56d0 083d
000001f0: 7277 f63c 6772 d43d 51d3 09bb 5f4f 453e
00000200: 68d9 233f 51ff e9bd 1be2 18bd 6d1d 023d
00000210: 8762 d43c 33c7 90bc cf24 44be d046 b73d
00000220: df1e fa3e b0e1 0b3f 2e4e 973d 1528 dcbd
00000230: 3db0 2bbd aa0b 8cbd 9b34 74be ac5b cc3e
00000240: 2ecb 8f3e ed5a aebd dc1c 8a3e 6383 603e
00000250: c275 c93a 7d94 f03b e50c 3fbe 53b0 40bd
00000260: ad25 2e3f 18d5 2a3f 5c09 87bd 3104 7a3e
00000270: 0f94 99bd d62a 003f 942e 1b3e 991d 663e
00000280: 787b 193f aed3 473d 6709 4e3e 6d09 243d
00000290: 6172 0d3f c563 233f c6dc 52bb f8be d73d
000002a0: 19d4 bfbe 043c b0bd ae33 74bd 5227 a93e
000002b0: b0a5 5dbd fdd1 243d f269 9c3e 98cb 72be
000002c0: ac91 0d3f ae6f 14be 05fc df3e ec53 3d3e
000002d0: 0f9d d03e a0fd 8dbe e01c bd3c 75f0 c93c
000002e0: 7a69 99bd 4449 f23d 2939 51be 22fa 00ba
000002f0: 0dcf 163f 747a 613c 3f51 acbe 210b 793e
00000300: 7fd3 e8be b549 073e 246d 773e 48f3 c63d
00000310: 9bf6 893c d2e6 c9bd 5ee7 73be 77c2 dd3d
00000320: 1e10 ffbe 383e e73d 8ace 3dbd 168c a83e
00000330: 8472 23be 5396 9f3e ea3d 97bd 2852 023d
00000340: 55a4 10be c506 adbd 3846 e4bd 055f e7bd
00000350: 2314 d33d eafa 30be 3abb a53e 546e 2d3f
00000360: 986e 653e ce26 333e c1f2 15be 581e 1d3f
00000370: 3fa0 213f 8c8a b9be 950a eebc 8b89 26be
00000380: 43c3 823e 3ec4 073f 97bb 99be dc77 cd3e
00000390: 7d1f f53c b8f8 3e3e 15d7 873e 4c06 e6bd
000003a0: f9e6 463e d12d 2e3d 4581 2b3e cbf3 103f
000003b0: 5fc5 7f3e 8875 41bc 6535 24bd 4197 88be
000003c0: ff02 2fbe a99b 0cbe 6c68 82be 01fa 873d
000003d0: b6f4 473e 1ce3 113f ea3b d03d a4f8 cf3d
000003e0: b28d a33e 03bf 153e 5caf a03e 7aed b93d
000003f0: f356 00be 2bf0 d43b 36ce a9be 8b8c ec3e
-0.19336596 0.09041957 -0.3354915 0.19501153 -0.3528286 0.46047476 -0.35500184 -0.0399606
0.017269455 -0.03245795 -0.41501877 -0.28317785 -0.10412427 0.38520536 -0.3110076 0.37027755
-0.009649578 -0.29138222 -0.12869816 0.0863202 0.18857148 0.103899516 0.029234758 0.5774823
0.62553936 -0.27272484 0.28869775 0.12361619 0.00283453 -0.16698028 0.170505 -0.0012715098
0.16434403 0.18087298 0.14407913 0.24821383 0.60977393 0.6531237 0.3439885 -0.09176756
0.2688464 -0.08944659 0.029469034 0.6356932 0.10611845 -0.051664654 0.08812525 -0.061121196
0.45445555 0.08588266 0.053271204 -0.035561588 0.15033083 0.047862753 -0.075702935 0.50194585
0.019425564 0.1388336 0.5424859 0.24141252 -0.11856495 0.22300524 -0.31011993 0.09658919
0.5112196 0.2571743 0.17473121 0.24208932 0.23036505 -0.2402854 0.4847525 0.16527641
0.029632919 -0.15085447 0.46087205 0.4015216 0.39445895 0.5702425 0.09924856 0.60565305
-0.22234486 0.112755574 0.46572044 0.2941945 0.061368067 0.6406912 -0.24288581 0.43736762
0.24153523 -0.11226382 0.17047738 -0.146054 0.5525766 0.0016391558 -0.0201373 0.011054962
0.33550516 0.30658785 0.41015467 0.40660602 -0.084151216 0.5169672 -0.27129886 0.60338324
0.030549338 0.4367398 0.51816696 0.5981277 0.6125362 0.27835223 0.15265095 0.06753556
0.3624807 0.25260413 0.13566646 -0.2968056 0.10859476 0.5883246 0.41036493 0.35732076
0.056778077 0.36076352 0.32821393 0.03340181 0.030086253 0.10373383 -0.0021030495 0.19268559
0.6400361 -0.11425651 -0.037325006 0.031766344 0.025925888 -0.01767311 -0.19154666 0.08949053
0.48851678 0.54641247 0.073879585 -0.107498325 -0.04191612 -0.06838162 -0.23848192 0.3991369
0.280847 -0.085134365 0.26975143 0.2192512 0.0015370178 0.00734192 -0.18657263 -0.047043156
0.6802624 0.66731405 -0.06593582 0.24415661 -0.07498943 0.5006536 0.15154487 0.22472228
0.59954023 0.048785858 0.20120774 0.04004805 0.55252653 0.6382411 -0.0032175048 0.10534471
-0.37466505 -0.08605197 -0.059619598 0.33037812 -0.05411309 0.040239323 0.3054958 -0.23710477
0.553004 -0.14495727 0.43746963 0.18489045 0.40744826 -0.27732563 0.023085058 0.024650792
-0.07490821 0.118303806 -0.20431961 -0.0004920085 0.58909684 0.013762105 -0.33655736 0.24320652
-0.4547386 0.13211711 0.24162728 0.09714371 0.016841223 -0.098584786 -0.23818728 0.10828107
-0.49816984 0.11291164 -0.04633955 0.32919377 -0.15961653 0.31169376 -0.07384856 0.03181663
-0.14125188 -0.08448557 -0.11146206 -0.112974204 0.10306575 -0.17283216 0.32369405 0.6774647
0.2240547 0.17495272 -0.14643385 0.61374426 0.6313514 -0.36238515 -0.02905778 -0.16263406
0.25539598 0.53033817 -0.30025932 0.40130508 0.029922241 0.18649566 0.26531282 -0.1123167
0.19424047 0.042524163 0.16748531 0.56622 0.24977635 -0.011807807 -0.040089983 -0.26677898
-0.17090987 -0.13731255 -0.25470293 0.06639481 0.19526944 0.56987166 0.10167678 0.10154846
0.31944042 0.14623646 0.3138379 0.09078498 -0.12533168 0.006498357 -0.3316514 0.46200976

value_stream.0.weight f4 [256, 256]
00000000: d305 4cbe f49d f4bd 7127 ec3b 5884 d8be
00000010: 4fca c0be 1b4b 4fbe 5ff4 85be 676b b7be
00000020: 04dc 7ebe 368a 03be 6a9e 8dbe 9321 e3bc
00000030: 2dc4 4dbe cda5 0ebe f7bc ba3e 3c13 183d
00000040: d22f dabe faae f43d 7bfa 97be 022c 15bd
00000050: 7552 343e 4dbe 7f3d 52b2 d7be 6601 a7bc
00000060: c4bc 153d 4df9 8ebe ba63 d8bc 9389 c1be
00000070: 9b3f be3d debc c0be 246e 03bc 0783 97be
00000080: ba78 e8be 4a03 d2bd 72f2 8e3e 3c74 ec3c
00000090: 07c6 22be 7349 05bd 4f14 a5bc 4a9c c6be
000000a0: 1e6b b0bb c10d 9ebe 11d3 b2be 37e5 9c3d
000000b0: 8e0f 7cbe b7a4 45be 267b 3bbe bccb 183e
000000c0: 2c14 123d 58a7 70be bdeb 39be 20b4 a63e
000000d0: 1caa 233e 769a 66be 3abb 8abd e62e 2fbd
000000e0: 763c ccbe a49e 3ebe 14cb 4dba 8753 113e
000000f0: 993e 44bd 21b2 873e 23bd 93be 752b 903e
00000100: e8f0 f1bc d067 bcbd a54a fc3d 6106 71bc
00000110: c0ab 7ebd e294 2cbe 135e f0bd ad51 c73d
00000120: 3bab da3d ca86 f3bd 4ed7 9e3d 2652 c53c
00000130: 8040 c2bc ff53 863d bc9f e7bd 8e24 223d
00000140: 41db b7be c8ab 913e 8895 84bc 8fc9 90be
00000150: 9cbd 72bd a7bb fc3d 6cc3 443e 09f5 b5bd
00000160: 00ec 6cbe 1842 0ebe 7136 30bd 071a fcbd
00000170: af69 1b3d cf3e d03c 5d84 81be a88a 533e
00000180: 4eb5 0bbd a2cb 2abe 7077 88bc b728 41bd
00000190: ebd9 a7be 7e44 653d 0dea 95be 625d 483e
000001a0: bd15 dabe 09d9 b23d 5341 71bd 74d2 bf3c
000001b0: e1ca 763b 3c74 93be 8052 eebe 61b2 4abe
000001c0: d0ed a33c e08b e23e 7813 d63d a100 723d
000001d0: fd5e 52bc 4c07 153c f98b 47be bee3 db3d
000001e0: 49e1 573e 3f5c 50bd 5804 7ebd a70f 813d
000001f0: 10ee c3be 0bb7 61be 7b77 513b eafa 463e
00000200: 471e b4bd d244 bcbe 7363 94bc ce6f 9dbe
00000210: dd10 fc3d 6f53 3bbe 452b 74bd b604 c83d
00000220: a7f0 5c3c 5a82 143e 439a 93bd a47d f6bd
00000230: 2746 59be 33ad afbd 083e 33be 411e 1bbd
00000240: 76eb b3bd 83e3 c1be 760b f83d b2c9 81be
00000250: fee9 24be ed14 fd3e 644c a9be c27f 313e
00000260: f78e b93d c822 c2bd c831 f43d 6019 783c
00000270: 21d8 7fbe d141 293e 6d22 febd 660d 1b3f
00000280: 0564 10be 44bd 7bbe 1961 82be 3b81 ad3c
00000290: 8cc2 a33d b5de 2a3c 4a65 b7be a12e c13d
000002a0: 13e0 e3be aa1d 6ebe 3360 8e3d 3581 78be
000002b0: 9566 f3bd aa53 e2bd c1ba 173e 29d0 a5be
000002c0: 3698 d83d 349f d1bd c494 8a3c 19b6 a8be
000002d0: 8658 af3d 06e4 7ebd 11fa cdbd dc8e c3bc
000002e0: f3b6 a3be e110 e03d e414 c1bd 0950 773e
000002f0: e5b0 253d 0cba ddbd da28 75be 262a fc3b
00000300: 0f95 c23d ee57 46be 59f4 13be 01d1 85be
00000310: b548 7bbe 697b 0dbe 2d69 f2bd c661 f63c
00000320: 87af 07be a72f 54be 089e 673c a3a8 8b3d
00000330: 633b b9be e539 8d3d 0a7e b2bd abe8 17be
00000340: ff25 94be 7442 95be 18a0 10bd b7d1 f73d
00000350: c04f 87bd f0d8 13be 0825 dbbe 1d4d ad3d
00000360: 972e 35be 4b91 8e3d a76f 95be fdc3 133c
00000370: d0cf 2c3c 92fa a23d fc82 a7bc a6e1 18bf
00000380: 254c bd3d 8120 2fbc a269 41be 1ab8 c8be
00000390: 93e0 b83d a0bc bebe 5be5 36be 77eb 96be
000003a0: 9063 943d 043b 96bb d32c a7bd 7f97 17be
000003b0: de05 863e 005f c6bc b075 6dbe d851 e7bc
000003c0: ccb2 2ebe 3534 473e 5909 a0be 58c6 b53d
000003d0: 6333 48bd 7456 d53d 1044 e13d 0ef4 a3be
000003e0: 8f13 30bd 326e 7fbe 02df 9dbe e151 bfbe
000003f0: 335c 1c3e 1c4b cbbd 7a93 24be 6dbe 6a3d
-0.19924097 -0.1194419 0.00720685 -0.4228847 -0.3765435 -0.20243494 -0.26163003 -0.3582413
-0.24888617 -0.12845692 -0.27659923 -0.02772597 -0.20094366 -0.13930435 0.36472294 0.03712772
-0.4261461 0.11947437 -0.2968329 -0.036418922 0.1760958 0.062437344 -0.42128235 -0.020386409
0.036556974 -0.27924576 -0.02641474 -0.37800273 0.092894755 -0.37644094 -0.008021865 -0.29592153
-0.45404607 -0.102545336 0.27919346 0.028864019 -0.15895854 -0.03254075 -0.020151285 -0.38791114
-0.005383863 -0.30869868 -0.34926656 0.07660907 -0.24615309 -0.19301115 -0.18308696 0.14921468
0.03566377 -0.23501337 -0.18156333 0.325593 0.1598286 -0.2251986 -0.06773992 -0.042769335
-0.39889878 -0.18615204 -0.00078503904 0.1419202 -0.04791126 0.2650309 -0.28855237 0.28158155
-0.029533818 -0.09199488 0.12318925 -0.0147109935 -0.062175512 -0.1685367 -0.11736693 0.09732375
0.10677191 -0.11890943 0.0775591 0.024087023 -0.023712397 0.0655899 -0.11309764 0.039585643
-0.35909465 0.2845137 -0.016184583 -0.28278777 -0.059262857 0.12340479 0.19215173 -0.08884627
-0.23136902 -0.138924 -0.04302067 -0.12309652 0.037942585 0.025420574 -0.25296298 0.20658362
-0.034108452 -0.16679242 -0.016658515 -0.04715797 -0.32783446 0.055973522 -0.2928013 0.19566873
-0.4259471 0.087328024 -0.05890019 0.023415782 0.0037657546 -0.28799617 -0.46547318 -0.19794609
0.020010859 0.4424734 0.10452932 0.05908263 -0.01284003 0.009095978 -0.19486989 0.10736798
0.21082033 -0.050869223 -0.06201586 0.063018136 -0.38267565 -0.22042482 0.0031962085 0.19431654
-0.087948374 -0.36771256 -0.018113827 -0.30749363 0.12307904 -0.18293546 -0.059611578 0.097665235
0.01348511 0.1450285 -0.072071575 -0.12035683 -0.21218167 -0.08577957 -0.17504132 -0.03787065
-0.08785145 -0.3786889 0.12111561 -0.25349194 -0.16104886 0.49430028 -0.33066094 0.17333892
0.090604715 -0.0947929 0.119235575 0.015142769 -0.2498479 0.16529013 -0.1240891 0.6056732
-0.14100654 -0.24583918 -0.25464705 0.021179786 0.07996091 0.010429074 -0.35819465 0.09432722
-0.44506893 -0.23253503 0.06951942 -0.24268039 -0.118848 -0.11051114 0.14817335 -0.32385376
0.10575907 -0.10235444 0.01691664 -0.3295143 0.085618064 -0.06222918 -0.10057462 -0.023871832
-0.31975517 0.109407194 -0.09427813 0.24151625 0.040451903 -0.10826501 -0.23941365 0.007695454
0.09501087 -0.1936948 -0.1444868 -0.2613602 -0.24539454 -0.13816608 -0.11836467 0.030075919
-0.13250552 -0.20721303 0.014136799 0.06819274 -0.3617812 0.06895808 -0.08715446 -0.1483485
-0.2893524 -0.29152262 -0.035308927 0.12100547 -0.06607008 -0.14438224 -0.4280169 0.08461974
-0.17693554 0.06961306 -0.29186746 0.009018895 0.010547593 0.07957949 -0.0204482 -0.5971931
0.09243039 -0.010688902 -0.18887952 -0.39202958 0.09027209 -0.37253284 -0.1786093 -0.2947652
0.072455525 -0.004584672 -0.081628464 -0.14803885 0.2617635 -0.024215221 -0.23189425 -0.028237268
-0.17060393 0.19453509 -0.31257132 0.08875722 -0.04887713 0.1041688 0.1099931 -0.32022136
-0.042987403 -0.2494438 -0.30834204 -0.37367156 0.15269546 -0.09926435 -0.16071883 0.05731051

value_stream.0.bias f4 [256]
00000000: 15ee 08be 804c cd3d f0d0 473d 84f8 9bbe
00000010: bea7 00be 0b34 c43d 5dc1 043d 637a 3b3e
00000020: 2a7b f93e 42f6 fd3c 1961 bc3e 6ff0 37bc
00000030: a03e 99be d054 e83e 7b03 87bc b50c cc3e
00000040: 0848 953e 2675 583e 1596 c13e 3458 0a3b
00000050: 741f 953e df4c aa3e 8b80 1c3e db61 963e
00000060: b04c 193e 3a1d aa3e ace9 1a3e 69a2 8a3e
00000070: 35cb 5dbd 4abe 013e 7ff5 49bd 2c98 fc3c
00000080: d217 c23d 2a15 d73e aafe c73d 465c ae3d
00000090: 2315 98bd e781 603d 8aab 813d 35b6 563e
000000a0: 5ac4 a53c 05a9 c53e 18ba f83d d050 d93e
000000b0: d452 e43d d169 3c3e 75b6 1f3e 8746 a83c
000000c0: 8068 9d3e 216c 44be 53ff f43d fc9f 2e3d
000000d0: 2eee c23e 0f1e 4fbc ceef 873e 9e6c a73e
000000e0: de3d 803e 685e e13c 2aec ac3e f21e 0c3f
000000f0: e644 d43e bc1b 333e ff56 db3e 0e14 a53e
00000100: 3323 a03e eeee f83e ed6e 8d3e 60f2 a8bd
00000110: 13a8 c03e cdfe 2b3e f140 883e e846 22bd
00000120: 4b06 a03e af0b d13d 653d 513e b8a5 00be
00000130: 3b22 473e dd1d 3e3d 7b5a 903e 431c be3c
00000140: 9068 ba3d 980b 81bd fc5c 95be 6f19 a0bd
00000150: b5b9 b43d e9b3 bcbd e870 a53d 90b9 29bd
00000160: 1fd4 bd3d 9e36 82bb 77f7 62be 879f a9be
00000170: 1a67 993e 82a6 ee3e 86f3 6d3d 7487 e53e
00000180: ebc6 503e 9a9d 8f3e 94fa 833e 409d b2bb
00000190: f885 cf3d a200 053b 4a07 973d 6628 903d
000001a0: caf7 fe3e 0cb2 003f d491 16be db8e 08be
000001b0: d450 de3d d4e0 f7bd 5299 e53e f72c 633d
000001c0: 5195 203e d3b9 863e 962c 053f 2563 adbe
000001d0: 86d4 e33e c643 a33e 52bb 0ebe bc16 933d
000001e0: a3ff 3b3e 9ae4 953e 59ad 6abe b1c2 063e
000001f0: 8c6e 5b3e 766c 1e3e 3988 c63e 90c6 efbc
00000200: 05a0 ef3e 5758 a93e 28ed ed3e c729 5a3d
00000210: b0ee 2b3d 1c72 403e 4257 713e f734 143e
00000220: d894 b33e 510a 083d cac0 aa3c d0c8 8b3e
00000230: 7383 9ebd 3453 c8bc ceac ea3d 48a5 0e3d
00000240: ad60 c13e 9ebc 813d 268f 7d3d bec4 4a3e
00000250: c89f 8a3e 4c18 8bbe 2281 b53e 602d 853e
00000260: 4828 8a3d d8f9 033e f081 823e 5df1 08be
00000270: fc8a 873d b296 10bd d4a9 a83d f1c7 7e3e
00000280: 1aaa fd3e 154b ab3e 8813 943e f972 e5bc
00000290: 5063 bcbc a144 57be b8d1 d23d b112 c73d
000002a0: 7391 4c3d cab3 82be 6057 dd3d e577 a73e
000002b0: 14cb 5e3e 147c 4abb 00f7 a83e f6e2 4f3e
000002c0: 65ea ec3e dce0 6a3e f076 943e eb0c 1d3d
000002d0: 5104 2abe ceb9 a6bc 544b 673e 8c36 e43e
000002e0: 7eee b03e 920e f53e 7796 9dbb b8cf f43e
000002f0: b584 d43e 0246 f93c f71d 013e b2f8 fcbc
00000300: 9873 0c3f 8be3 56bb 7103 2ebd dfc4 0f3e
00000310: 6c5b 0c3e 342c e63e 7d31 12be 4a64 143e
00000320: 581b 8dbd 0a19 083f b23a e93e 4f28 423e
00000330: c949 963e 524d c0be c6a9 0e3e c6cb d73e
00000340: 24b6 973e 00d6 7a3e ae60 013d 99ac 9c3e
00000350: 3650 343d 1439 4d3e 39d9 6abe 4217 ac3d
00000360: 9c72 e9bb 8c30 063e b4a7 2a3e 6fbd c23e
00000370: e5e4 443e 78c3 e53d 46fe ec3d ac95 003f
00000380: ae2e 463e 9df2 343e f914 9b3e baac 01bd
00000390: a3af b73e ceec fb3e d9a9 e63e 95b1 843e
000003a0: 199c a8be ac3e 183d f5c8 d13d 77fe 423e
000003b0: 8bd5 833e 6f81 113e 1c8e 8a3e cffe ccbd
000003c0: a868 493d acaf d83e e78c 60bd 548e babd
000003d0: 2bcc 003f a4c2 62bc 3df0 813e 1460 b6bc
000003e0: 3a68 563e 4d44 643e 1d67 61be dd6d 54be
000003f0: 5eb5 9a3c b7fc 4e3e f0a7 8fbe 9987 83be
-0.13372071 0.10024357 0.048783243 -0.3046304 -0.12563989 0.09580239 0.032410968 0.18308406
0.4872678 0.031001214 0.3679283 -0.011226757 -0.29930592 0.45377207 -0.016481152 0.39853445
0.29156518 0.21138439 0.37809816 0.0021109702 0.2912556 0.33261773 0.1528341 0.29371533
0.1497066 0.33225423 0.15128201 0.27077034 -0.05414887 0.12670246 -0.04930639 0.03083428
0.094771996 0.42008334 0.0976537 0.085136935 -0.074259065 0.054811385 0.063315466 0.20967944
0.02023523 0.38605514 0.121448696 0.42444468 0.11148611 0.18399741 0.15596946 0.020541443
0.3074379 -0.19181873 0.11962762 0.04263304 0.38072342 -0.012641444 0.26550144 0.32700056
0.250472 0.027510837 0.3377393 0.5473472 0.41458815 0.17491049 0.4283981 0.32241863
0.31276855 0.4861979 0.27623692 -0.08249354 0.3762823 0.16796418 0.26612046 -0.039618403
0.312548 0.102073066 0.20433576 -0.12563217 0.19446652 0.0464152 0.2819403 0.023206836
0.09101975 -0.063010395 -0.29172504 -0.07817351 0.08824483 -0.09214003 0.08078176 -0.04143673
0.092689745 -0.003973796 -0.22164713 -0.33129522 0.29961473 0.4661141 0.05809357 0.44829905
0.20388381 0.28049928 0.25777113 -0.0054508746 0.101329744 0.0020294567 0.07374437 0.070389554
0.49798423 0.5027168 -0.14704067 -0.13335745 0.108552605 -0.121034294 0.44843537 0.055462804
0.1568196 0.26313648 0.5202116 -0.33864704 0.4449808 0.31887645 -0.13938645 0.071820706
0.18359236 0.29275972 -0.2291769 0.13160206 0.21428889 0.15471062 0.38775805 -0.029269487
0.46801773 0.3307521 0.46469998 0.0532625 0.041975677 0.1879353 0.23568442 0.1447333
0.35074496 0.033212963 0.020843882 0.27301645 -0.07739916 -0.024453737 0.11458741 0.034825593
0.3776907 0.06334804 0.061904095 0.19801614 0.27075028 -0.27166975 0.35450083 0.2601118
0.06745964 0.12888277 0.2548976 -0.13373323 0.06618306 -0.035299964 0.08235517 0.24880959
0.4954384 0.3345572 0.2892115 -0.028008925 -0.022996575 -0.21022274 0.10293907 0.09720362
0.0499434 -0.25527793 0.10807681 0.3270866 0.21757156 -0.003089671 0.33000946 0.20301422
0.4627258 0.2293734 0.28996992 0.038342398 -0.16603209 -0.02035227 0.22587329 0.44572866
0.34556955 0.4786268 -0.0048091966 0.47814727 0.41507497 0.03042889 0.12609087 -0.030880306
0.5486388 -0.0032789435 -0.04248375 0.14039944 0.1370675 0.449556 -0.14276691 0.14491382
-0.06889981 0.53163207 0.45552593 0.18960689 0.2935317 -0.3755899 0.13931951 0.42147654
0.2963115 0.24495697 0.03158634 0.30600432 0.044021808 0.20041305 -0.22934426 0.084028736
-0.007124258 0.13104457 0.16665536 0.3803515 0.19227941 0.11218923 0.11571936 0.5022838
0.19353744 0.17670675 0.30289438 -0.031658866 0.35876188 0.49204105 0.45051458 0.25916734
-0.32931593 0.037169144 0.10243408 0.19042383 0.25748858 0.14209531 0.27061546 -0.100095384
0.049172074 0.42321527 -0.054821875 -0.09109178 0.50311536 -0.013840351 0.253786 -0.02226261
0.20938197 0.2229168 -0.22011991 -0.20745035 0.01888531 0.2021359 -0.28057814 -0.2568939

value_stream.2.weight f4 [1, 256]
00000000: 4459 81be 065a bdbf c3da 4abe ae42 56be
00000010: cf53 28be 375c 5ebe 9092 7dbe eb33 97bf
00000020: 5be6 f63e 7160 3a3e 42e9 babe 5e9a e93d
00000030: 03d7 59be 1be2 ddbf a5e4 18be aadb c8be
00000040: 097b be3e 24b6 cbbe bf83 0b3f 3a25 063e
00000050: 1391 283e bbfb 1abf 2d08 7cbe e020 c0be
00000060: e8df 1dbf 1eb6 b8be ca8c b6be e5f0 f1be
00000070: d84f 54be 708e 28be 7669 dabd 70c3 f5b9
00000080: 3225 413f 85cf f83d 6825 0fbe 09a6 58be
00000090: 1747 20bf 8977 113e 95f4 e43e 4dd7 173e
000000a0: 3fc8 083e a3b1 b1bf e1cd 1fbe 7666 7b3e
000000b0: b318 1b3e fbcf c9be e8c9 82be 323c efbd
000000c0: 3707 06bf 51e6 4bbe 8b1a 873f ed86 703e
000000d0: 6de4 0dbf a6e2 c5bc f59e ba3e 6d19 94be
000000e0: 52d6 34bf da2f 9fbd 65e6 883e 5fcb 503e
000000f0: 16f8 b43e d9a0 bdbe 250d b83e 01f9 dabe
00000100: 0837 903e 8433 8b3e 4d16 5fbe 7a4e 5cbe
00000110: a292 23bf 5504 513e dcb3 293f b6e2 21be
00000120: add5 c13e 520c 3b3e 5761 39be 5aed eebd
00000130: 5857 18be 1ac5 133e ee8e 5e3e 89a7 223e
00000140: 23d1 1dbe 2128 033e 75cf 36be 0fae dbbd
00000150: a969 29be 219e 50be b517 253e c652 5ebe
00000160: 3e54 173e da68 04be 60fc 18be a6fd 70be
00000170: 166b 76be fac0 d93e 25fc 323e 384d abbe
00000180: 3ca3 9dbe 45ec c73e 9d65 693e 6baa 6cbe
00000190: becd f9be 4c20 2ebf 7835 2c3e 825a 433e
000001a0: 927b d1be e846 86bf 5d4f 0b3f ba6e ecbd
000001b0: 866a e63e 7051 0fbe 05d8 a23e b784 d03d
000001c0: 6647 623e d46f ad3e 3a75 f93e 9d78 78be
000001d0: f534 7e3e 47ea b7be 2dbb 503f f351 163e
000001e0: 9798 6dbf 537d bfbe 9d7e 0ebe 9bc6 00be
000001f0: 1151 c2be e53d 6ebe b4ee 9d3e 070f 21be
00000200: b0b7 9e3e faa2 88be e69b abbf 2130 ee3d
00000210: 3218 0e3e 4d41 d9be 32a1 733e 7eac a1bf
00000220: 6a4c e7bf b9e9 043e 8bae 55bf c828 b7be
00000230: 97d0 15be c20b 38be 1cd4 cb3e 8c13 2bbe
00000240: 381b bc3e bd85 35be 8762 45be afc1 263f
00000250: 2596 a4be 3f2b 39be 35f7 81bf b36a 823e
00000260: c023 ba3e 350a 84bf fe18 a73e 9f58 60bf
00000270: 5bd6 6e3e 4554 23be cb32 963e 2978 f5be
00000280: 19d4 833e 469c 993e 2fa3 54bf f2f5 f83d
00000290: 648a 08be 7504 5bbe 4aff 32be 352d 9e3e
000002a0: ddee e23d 88e8 59be 8787 59be 6ce1 41bf
000002b0: 3064 8dbe 37bd d9bd 7d1b b9be 265d 26bf
000002c0: da2b 923e 1dc3 5e3d faeb cebe 9fd0 3dbe
000002d0: 65cd 0ebe f2c9 1bbe f709 f33d 0c98 af3e
000002e0: 2291 bbbe adcc c2be f1d8 45be 9d08 c93e
000002f0: e9d4 e5be 8bab 17be 0b77 563e fb04 26be
00000300: cf0a ab3e c41e d1be c5f7 c3bd b24a 37be
00000310: 13c7 163e a2cd cf3e c8dc 09be 81f4 66be
00000320: 7340 74be 6074 ed3e a6c8 fa3e e9a2 92be
00000330: 3ffb d63e 9253 4cbe ffbf f8be 749a 84bf
00000340: 441d 91be ab5d 633d 3623 c83e 2ba6 143f
00000350: 53d5 233e 9fa8 04bf c1a2 2fbe fffd 353e
00000360: 18a0 b5bd ba3f 2bbf 85cb 78be 891d 96be
00000370: 8741 20be 2799 1d3e 4d68 15be 4402 853e
00000380: ba0b 54be 2391 60be 9f9f e33e 9e9b 653e
00000390: 29a7 d6be 45d6 273e b027 8e3e b284 ddbe
000003a0: 1f6c 3cbe 578d 32be a534 383e e0aa b0be
000003b0: 02e7 153e 19c8 21be 8446 9d3e 8c92 15be
000003c0: a343 26be 2051 043e b0a8 04be 1ff3 49bf
000003d0: 752b f43e 32c8 f63d a583 69bf 742c 2d3e
000003e0: 56fd b33e b9c5 743e b97d 38be a799 c2bd
000003f0: 8fd1 13be 4f60 42bf a78f 53be 2fd2 4dbe
-0.25263417 -1.4793098 -0.19810013 -0.20923874 -0.1643822 -0.21714865 -0.2476294 -1.1812719
0.48222622 0.18200852 -0.36506087 0.11406396 -0.21273427 -1.7334627 -0.14930971 -0.3923009
0.37203243 -0.397874 0.54497904 0.13100138 0.16461591 -0.6054036 -0.24612494 -0.37525082
-0.6166978 -0.36076444 -0.3565429 -0.472541 -0.20733583 -0.16460586 -0.10664646 -0.00046875654
0.7544738 0.12148956 -0.13979113 -0.21157087 -0.62608474 0.14205755 0.4471785 0.14828224
0.13357638 -1.3882335 -0.1560588 0.24550804 0.15146141 -0.3941649 -0.25544667 -0.11681403
-0.5235476 -0.19912077 1.0554975 0.2348897 -0.55426675 -0.024155926 0.364494 -0.28925648
-0.70639527 -0.07772799 0.26738277 0.2039008 0.35345525 -0.3703678 0.35947528 -0.427681
0.28166986 0.2718774 -0.21785851 -0.21514311 -0.6389562 0.20411809 0.6629007 -0.1580914
0.37858334 0.18266419 -0.18103538 -0.11666365 -0.14877069 0.14430657 0.21734211 0.15884222
-0.1541181 0.12808277 -0.17852576 -0.107265584 -0.16544212 -0.20372821 0.16122325 -0.21711263
0.1477823 -0.12930623 -0.14940023 -0.23534259 -0.24064288 0.42530042 0.17478998 -0.3345735
-0.307886 0.39047447 0.22792669 -0.23111884 -0.4878978 -0.6801803 0.16817272 0.19077495
-0.4091459 -1.0490389 0.54417974 -0.11544557 0.45003146 -0.1399591 0.31805435 0.10181563
0.22097549 0.3387438 0.4872225 -0.2426476 0.24824889 -0.35920927 0.8153561 0.14679699
-0.9281096 -0.37400302 -0.13915487 -0.12575762 -0.37952474 -0.23265798 0.3084618 -0.15728389
0.30999517 -0.2668684 -1.3406951 0.116302736 0.13876417 -0.42432633 0.2379196 -1.2630765
-1.8070195 0.12979783 -0.83469456 -0.357733 -0.14630352 -0.17973235 0.39810264 -0.16706675
0.36739516 -0.17726798 -0.19275866 0.6513929 -0.321458 -0.18082903 -1.0153567 0.2547203
0.363554 -1.0315615 0.32636255 -0.87635225 0.23323958 -0.15950115 0.29335627 -0.47943237
0.25747755 0.3000204 -0.830615 0.12156285 -0.13334042 -0.21388419 -0.17480198 0.30893865
0.11080716 -0.2128011 -0.21243106 -0.7573459 -0.276155 -0.10631793 -0.36153784 -0.64985883
0.2854908 0.054385293 -0.4041441 -0.18536614 -0.1394554 -0.15213755 0.11867135 0.3429569
-0.36634165 -0.3804678 -0.19321038 0.39264384 -0.44889 -0.14811532 0.20943849 -0.16212837
0.33406684 -0.40843785 -0.09568743 -0.17899588 0.14724378 0.40586573 -0.13463128 -0.22554208
-0.2385271 0.4637785 0.48981208 -0.28639916 0.4198856 -0.19953755 -0.4858398 -1.0359635
-0.2834264 0.05550925 0.39089364 0.5806605 0.15999345 -0.51819795 -0.1715193 0.17772673
-0.08868426 -0.66894114 -0.24296387 -0.2931941 -0.15649997 0.15390454 -0.14590569 0.2597829
-0.20707598 -0.21930365 0.4445772 0.22422644 -0.41924408 0.16390331 0.27764654 -0.432653
-0.1840062 -0.1743673 0.17988832 -0.34505367 0.14638904 -0.15798987 0.30717862 -0.14606684
-0.16236739 0.12921572 -0.12954974 -0.788866 0.47689405 0.12049903 -0.912165 0.16911489
0.35154217 0.2390355 -0.1801671 -0.09501963 -0.14435409 -0.75928205 -0.20660268 -0.2009971

advantage_stream.0.weight f4 [256, 256]
00000000: a4b5 463d dca5 07bf c03f 8e3d 9382 233e
00000010: a264 683e 178b 83be 2f6d af3b bfa1 9c3d
00000020: 72a8 5bbe d9d2 4f3e da20 043e 9de6 803e
00000030: df34 dd3e 5f30 9e3d bfab b63e 709f d2be
00000040: 3a4e ac3d 7368 b9bd 7b47 08be ceb0 88be
00000050: a1f6 9abd 9c47 d5be 2e2e 48be 9351 103d
00000060: 6e2c 3dbe b0b4 5c3d 4b12 13bf 356a 853c
00000070: f691 393d 44b9 d33b 5046 19bf 48d4 c1be
00000080: c802 8ebc 24ab 833d fed6 26be 9c8f 0bbf
00000090: 593a abbe ad28 213d b4fd 11bf 248b 5c3e
000000a0: da24 d33e 2703 8e3d 899d 1e3e e76b 96be
000000b0: 755d c0be f27c 7fbe b12d 13bf e3f9 b6bd
000000c0: 0d84 82be b8e5 6cbe e349 9fbd 6222 f43e
000000d0: 77bd a53e 210e ca3d 7650 e0be 4ab1 88be
000000e0: aa19 0a3e 7495 bb3d 9a1c 86bd 5cdf abbd
000000f0: 6d66 0dbf ccd2 cabd 04fc af3e bb9f 213c
00000100: 9b4b d13d ef04 8a3d 49c5 763d f610 9e3e
00000110: ca0b 913c 9bd4 a23d 27bb 873c 4dc2 e93d
00000120: c2d8 6cbe 9948 a93c ec79 92be 600c 1ebd
00000130: 3cac b2be 3e7e 23be 1c3d fdbe 4bc7 b2be
00000140: 3734 04bd 3778 5abd afb2 46be 3d2b 68bf
00000150: 14d9 90be 6675 a4be 47b6 5b3e 1503 efbe
00000160: f749 d83d 9963 87be b5da f63e 75bb 51be
00000170: 4273 4b3d 5353 61be 2bcc bb3c 8077 4cbd
00000180: a97d 72bd aee3 f8be 9794 ebbe a501 25be
00000190: ef7c fabb 2fbe 3ebe 16d2 033e 9fb2 96be
000001a0: 6ea6 57be 3b38 48be c983 76be 4876 a9be
000001b0: b20a 35be 9680 453e c5ee c93d da63 3cbe
000001c0: fda8 99be 340b debe 5f66 da3d aaea 5e3e
000001d0: dd1d c4be b03a 2bbd cbc8 183e c665 3fbf
000001e0: 5558 91bc 6bea 81be 6ac9 7abe 8889 3e3e
000001f0: ab4f df3d 29dd 2b3e 61cd 81be 3c5c 2a3e
00000200: 639d 7fbe 8469 fc3d decd 04bf 27e4 9f3d
00000210: 40b1 a6be d17a 493d b029 dbbe 96dc 9e3e
00000220: 9166 76be 9dc0 d5be 255d 00bf 239f f03d
00000230: 4781 c13c 3cd7 ffbe 72c4 8ebc 1c87 a8be
00000240: 38ba c5be 9478 853d 6cb5 f1bd a51e 75bd
00000250: ecc8 2fbf 7c7f 67bf 56f5 f43d c3de b8bd
00000260: 1319 563d f2dc 2c39 b055 893e 429b 80be
00000270: 402a 2bbe fb81 06bd 53e4 01bf 0c0a fb3e
00000280: 52a9 cabe aaf4 003d 6215 24bd 7683 c1be
00000290: 0c38 7ebe 2227 44bd 5c2c ae3d e6bf a23d
000002a0: 8353 263e a80f 84be b6b2 08be 137d 2bbc
000002b0: f095 9dbe f62e d7be 480c 813e 8adf aa3d
000002c0: 3564 73be b9f4 94bd eaa4 d0be 33b8 8a3d
000002d0: 2dd3 abbe 4ddc 8abd eb3f 933c 6d34 ebbe
000002e0: c506 d03d 35be 3d3e 21f7 383c 81e3 2dbb
000002f0: ee4b 8a3d 5367 93be 16b4 893e d267 2a3d
00000300: 9dce 103e 6bb0 74be 3c87 cfbd 98e8 103e
00000310: 9790 413e d07f d93e 8c25 cb3d c236 a43e
00000320: f655 093e fd9e ba3d 9c04 2e3e e767 85be
00000330: baf9 a13d cc9a 0e3e 1ac1 cebe f58d e4bd
00000340: 7763 133d f7a2 c03d 3a6b 06bf 8463 7d3d
00000350: f8e5 33be 8460 c03d 4d3f 083e 7b5c 8e3d
00000360: c1ad a53d 82de aebe 2673 b2bc 442a 3e3e
00000370: 27ec 94be dbfd 8abc 6efd 75be 311a 8abe
00000380: 4643 17bf 9ff2 07be 22a5 583d cc4b 0dbf
00000390: 2187 e6be bba2 493e cdf3 0a3d 2338 863c
000003a0: 0b1e efbc 1f83 27bd de84 5dbd d865 e7be
000003b0: 983c 783e ff4b 9bbe 7982 373d 45a0 c9be
000003c0: f5ec 4c3d 0408 053e 9bd7 0f3e 01e5 4fbe
000003d0: 540a e5bb 18b7 0dbe 2a01 203e 5166 f13d
000003e0: 8702 83bd 27ed 6b3d 889a d23d 142a c13d
000003f0: f5fb 013d 240c f3be 7051 e83c 01fa 57be
0.04851307 -0.52987456 0.06945753 0.15967779 0.22694638 -0.25692055 0.005353592 0.07648038
-0.21450976 0.20295276 0.12903157 0.25175944 0.432044 0.0772407 0.35677907 -0.41137266
0.08413358 -0.09053125 -0.13308518 -0.2669739 -0.07566572 -0.41656196 -0.19548866 0.035234045
-0.1847398 0.053883255 -0.5744979 0.016285995 0.045305215 0.0064612944 -0.59872913 -0.3785727
-0.01733531 0.06429127 -0.1629295 -0.54516006 -0.33442953 0.039345432 -0.57027745 0.21537453
0.41239053 0.06934195 0.15489782 -0.29379198 -0.37571302 -0.24950007 -0.57491595 -0.08934381
-0.25491372 -0.23134506 -0.07777765 0.47682482 0.32371113 0.09865976 -0.43811387 -0.2669776
0.13486353 0.09159365 -0.06548424 -0.08392212 -0.55234414 -0.099034876 0.3437196 0.009864743
0.10219499 0.06739222 0.06024674 0.30872315 0.017705817 0.079507075 0.016568733 0.11414013
-0.23129562 0.0206645 -0.28608644 -0.03858602 -0.3489703 -0.15966126 -0.49460685 -0.34917673
-0.03227636 -0.053337302 -0.194041 -0.90690976 -0.28290617 -0.32120818 0.21456252 -0.4668204
0.10560983 -0.26443174 0.48213735 -0.20481665 0.049670465 -0.22004442 0.022924503 -0.04991865
-0.05920187 -0.48611206 -0.46011803 -0.16113909 -0.007644288 -0.18627237 0.1287311 -0.29433152
-0.21059582 -0.195527 -0.2407371 -0.33098054 -0.17679861 0.19287333 0.09859995 -0.18397465
-0.3001174 -0.43367922 0.10664057 0.21769205 -0.38304034 -0.041804016 0.14920346 -0.7476467
-0.017742315 -0.2537416 -0.24490896 0.18607152 0.10903867 0.16783585 -0.25352004 0.16636747
-0.24962382 0.12324813 -0.5187663 0.078071885 -0.32557106 0.049189392 -0.42805243 0.3102767
-0.24062563 -0.41748515 -0.5014213 0.11749103 0.023621215 -0.49968898 -0.017427657 -0.3291558
-0.38618636 0.06517139 -0.118021816 -0.059843678 -0.6866596 -0.904289 0.119608566 -0.090268634
0.052270006 0.00016485507 0.26823187 -0.25118452 -0.16715336 -0.032838803 -0.5073902 0.49031103
-0.39582306 0.03148333 -0.040059455 -0.3779561 -0.24826068 -0.047888882 0.08504555 0.07946758
0.16242795 -0.25793195 -0.13349423 -0.010466832 -0.30778456 -0.42028016 0.25204682 0.08343418
-0.23768695 -0.0727324 -0.4075082 0.067734145 -0.33559552 -0.067803 0.017974814 -0.45938435
0.10157541 0.1852959 0.011289389 -0.0026533308 0.06752764 -0.28789768 0.26895207 0.041602917
0.14141317 -0.23895423 -0.10133216 0.14151227 0.18902813 0.42480326 0.09919271 0.32073027
0.13411698 0.09112356 0.16993946 -0.26055834 0.0790896 0.13926238 -0.403817 -0.11159889
0.03598353 0.09406083 -0.52507365 0.061862484 -0.17568195 0.09393409 0.13305397 0.06951233
0.080897816 -0.34154135 -0.021783423 0.1857081 -0.2908642 -0.01696675 -0.24022457 -0.26973107
-0.59087026 -0.13276146 0.052891858 -0.5519378 -0.4502497 0.19690983 0.033923913 0.01638419
-0.02918913 -0.04089653 -0.05408179 -0.45194888 0.24241865 -0.30331418 0.044802163 -0.39380088
0.050030667 0.12991339 0.1404709 -0.20302202 -0.0069897566 -0.13839376 0.15625444 0.117870934
-0.063969664 0.057599213 0.10283381 0.09431854 0.031734426 -0.474702 0.028359145 -0.21091463
