active_slam_rl/training_output_frontier/20260124_140852_frontier/d3qn_frontier_ep1580.pth (torch, 901954 bytes, 11 tensors)

feature.0.weight f4 [256, 100]
000000 ff 16 1a be 44 a8 06 be 6a ca ad bd ca cd f2 bd
       -0.15047835 -0.13150126 -0.08485873 -0.118556574
000010 33 ff 06 be 55 61 09 be d3 d7 f4 bd 70 9e 55 be
       -0.13183288 -0.13416035 -0.11955228 -0.2086122
000020 ec 30 25 bd 10 ae 6e be 8d 9b e5 bb 3b b6 29 be
       -0.04032986 -0.23308587 -0.0070070685 -0.16573422
000030 a3 c7 ef bd 51 52 5a bd 75 bb b7 bd 2a 72 30 be
       -0.117079996 -0.05330116 -0.089713015 -0.1723105
000040 f5 18 d4 bd d8 98 09 be 4c d0 41 be 03 dd 1f 3c
       -0.10356323 -0.13437212 -0.18927115 0.009757283
000050 04 1e 15 bd fc 91 2d bd 79 de 5b bd b6 c4 6d be
       -0.03640558 -0.04237555 -0.053678963 -0.2321957
000060 d4 ef 2f be 3a 40 ab bd e1 36 93 3d 0f d1 85 bd
       -0.17181331 -0.083618596 0.07188202 -0.065340154
000070 98 01 90 3d 57 64 a9 bd 99 02 2f bd 94 46 0e be
       0.07031554 -0.082710914 -0.042727087 -0.13894111
000080 23 b3 3d bd 73 ad ee 3c e2 34 56 3d ec 61 09 be
       -0.046313416 0.029135441 0.052296527 -0.1341626
000090 16 1a 05 3d cc aa 1a be f4 f8 ba bc dc ef 25 bc
       0.03249558 -0.15104216 -0.022823788 -0.010127988
0000a0 df d8 be 3d d3 0e 42 3d ae da 0c be 42 db 20 3c
       0.09318709 0.04737742 -0.13755295 0.0098179
0000b0 2a dd 5e bc a8 e4 7e bd 6b 83 a4 bd e0 df 57 bd
       -0.013602534 -0.062229782 -0.080328785 -0.05270374
0000c0 2f 22 93 be 52 ad 8e be 6d 29 b3 be 0e d4 ab be
       -0.28737018 -0.27866608 -0.34992543 -0.33560222
0000d0 47 df bc be b4 1b 86 be 93 db 5d 3e c1 55 cd 3d
       -0.36889097 -0.2619301 0.21665792 0.10026122
0000e0 14 b0 bb 3c 56 41 3b bd 1f 38 db bc 10 73 45 3e
       0.022911109 -0.045716606 -0.026760159 0.19282174
0000f0 34 74 34 3e e7 5f f8 3d 47 6f cc 3d 85 92 fa bd
       0.17622453 0.12127667 0.09982162 -0.12234978
000100 f8 38 61 3d a2 97 99 3c bb 7f 43 be 9e 81 f8 ba
       0.05498597 0.018749062 -0.19091694 -0.0018959527
000110 c4 f8 84 3d bb 7d 41 3d 19 7e 2e 3d 76 d3 40 3d
       0.06492761 0.047239047 0.042600725 0.047076665
000120 43 50 49 bc ac f2 e4 bd 0e a6 14 bd b4 0f 51 3d
       -0.012287202 -0.111790985 -0.036291175 0.051040366
000130 bb 31 44 bd c6 db 33 3e 21 72 a7 3c 9c 1d 23 bc
       -0.04789899 0.17564306 0.020440163 -0.00995579
000140 53 36 a4 bd 3e 11 d7 bd 71 6a b0 bd 75 4e b9 bd
       -0.08018174 -0.105013356 -0.08614052 -0.090481676
000150 ab 25 0b be 9d 2e d6 bd 67 6a 43 3d 75 41 16 bc
       -0.13588588 -0.104581095 0.047708895 -0.00917088
000160 1e 5e 88 bc d6 0e 28 3d 3c fe 02 be e2 76 c3 bc
       -0.016646441 0.041029774 -0.12792295 -0.023860399
000170 33 39 5f 3d c3 ef d1 bd 88 54 81 bd 92 67 1d be
       0.05449791 -0.10250809 -0.06314951 -0.1537154
000180 bc 12 ee bd 7f a1 90 3d 27 ac e0 bc cc 92 c1 3d
       -0.11624667 0.07062053 -0.027425839 0.094518274
000190 dc 93 bd 3c 4c e5 b1 3d f3 e9 f5 3d 59 9f 08 3e
       0.023141794 0.08686313 0.12007513 0.13342036
0001a0 06 cf 75 bd c9 c3 46 3e d2 1c de 3d 4e 40 2b 3e
       -0.060011886 0.19410624 0.10845341 0.16723749
0001b0 4c f3 75 3d 68 e2 cf 3d fb 2f e9 3d 0c 42 cc 3a
       0.06004648 0.101506054 0.11386105 0.0015583648
0001c0 20 9f 62 3e 91 ba 82 3e 30 7e e0 3d 4b c8 c8 3d
       0.22131014 0.25532964 0.10961568 0.09803828
0001d0 05 e8 e9 bc ff 0e 4d 3e 51 3b 1e 3e 5a f1 5d 3e
       -0.028553018 0.20025252 0.15452315 0.216741
0001e0 b8 37 b8 3b 01 f9 ea 3d 0c 7f e3 3d 17 ef ed bc
       0.0056218766 0.11473275 0.11108217 -0.029044671
0001f0 46 71 6f bd 2d aa 81 3d de ad 01 3b 52 db dc bc
       -0.058457635 0.063312866 0.001978747 -0.026960049
000200 79 60 4f bc a1 1d 1f be 54 b8 13 be 7a c9 d5 bd
       -0.012657278 -0.15538646 -0.14425784 -0.10438819
000210 8f b0 12 be e7 97 0b be 63 ed 78 bc ad a7 b7 3d
       -0.14325164 -0.13632165 -0.015193316 0.089675285
000220 48 75 dc 3d f8 ca 85 bd c8 52 1b 3e ac c9 51 3e
       0.10764557 -0.06532854 0.15168297 0.20487088
000230 66 76 1a 3e 5d bd d9 3d af 98 fb 3d 60 26 d7 3d
       0.15084228 0.10631821 0.122849815 0.10505366
000240 64 7d 54 3e 73 1c f0 3d 01 71 eb bc 6d d7 c8 3c
       0.20750958 0.11724176 -0.028740408 0.024516786
000250 ee d2 63 3c 4e c1 9b bd e1 30 24 3d 83 87 19 3d
       0.01390527 -0.07605229 0.040085677 0.03748275
000260 a1 d4 52 bd 13 71 da bb 44 58 7a bd fb d4 92 be
       -0.05147231 -0.0066663115 -0.061119333 -0.28678116
000270 e3 f0 f6 bd ee 96 1a be f9 a8 9c be da 07 e1 be
       -0.12057664 -0.15096638 -0.30597666 -0.43951303
000280 04 9b 28 be ba 00 bd be 88 cb 1a bf d6 c9 4a bf
       -0.16465384 -0.36914617 -0.60466814 -0.7921423
000290 c2 49 68 bf ec 08 69 bf d5 8b 96 bf 48 ab 9c bf
       -0.90737545 -0.9102924 -1.1761423 -1.2239771
0002a0 62 40 84 bf 84 59 a5 bf eb 7e 93 bf 63 57 85 bf
       -1.0332148 -1.2917943 -1.1523107 -1.0417293
0002b0 ad 57 83 bf 6d f3 81 bf 01 cb 55 bf 77 1b 8f bf
       -1.0261132 -1.0152413 -0.83512884 -1.1180257
0002c0 fa 78 8e bf a6 db 67 bf b9 d2 78 bf cd 0e 48 bf
       -1.1130669 -0.9056953 -0.9719654 -0.78147584
0002d0 88 ef 36 bf 59 26 5a bf d9 a2 28 bf 6e 6c 49 bf
       -0.71459246 -0.85214764 -0.65873486 -0.78681076
0002e0 d3 09 62 bf 0e ab 1d bf 3f 8f 4c bf 61 ab 67 bf
       -0.8829624 -0.61589134 -0.79906076 -0.9049588
0002f0 2c 15 27 bf 63 0e de be 01 b9 a7 be 85 ee 22 bf
       -0.6526668 -0.4337035 -0.32758334 -0.636452
000300 44 65 09 be fe e9 50 be 09 90 42 be 92 e3 81 be
       -0.13417536 -0.20401761 -0.19000258 -0.25368935
000310 b2 14 69 3c f2 1a ad 3d 30 c7 d8 3d 4f 45 66 3e
       0.014226126 0.08452405 0.10584867 0.22487377
000320 b0 17 a8 bc 13 f1 0c 3d de 7f de bd 6a 39 8f bd
       -0.020519108 0.034409594 -0.108642325 -0.06993373
000330 12 5e e0 3b 62 93 f9 3c 05 2e e8 3d 6e b4 a5 3e
       0.0068471516 0.030465785 0.113369025 0.3236422
000340 74 4c 2b 3e e2 01 46 3e 18 53 45 3e ba 31 61 3e
       0.16728383 0.19336656 0.19269979 0.21991625
000350 41 3e af 3e 6f 84 5d 3e 6e 41 25 3e d7 ff 0b 3e
       0.34227183 0.2163255 0.1613824 0.13671814
000360 58 fb 45 3e b2 b3 87 bd 93 0c c5 3d a5 01 aa bd
       0.19334161 -0.06626071 0.09621539 -0.08301095
000370 61 ec 7c be 98 27 54 be 56 63 97 be 57 ad 9c be
       -0.24699546 -0.20718229 -0.29567975 -0.30600998
000380 b8 05 15 be b2 fd da bd 68 5a 6b be 76 58 9b be
       -0.14552963 -0.1069292 -0.22983706 -0.30340928
000390 09 a0 75 be 40 a2 83 be 25 10 c3 be 83 e2 e7 bd
       -0.2398683 -0.25709724 -0.38098255 -0.113225006
0003a0 58 07 90 bd 59 18 73 be d2 c9 26 bd 97 54 af 3d
       -0.07032651 -0.23739757 -0.040719815 0.08561056
0003b0 aa 09 7b 3e a8 dc 8c 3e 20 55 e4 3e bf cf af 3e
       0.24515405 0.27512097 0.44596195 0.34338185
0003c0 25 3a a3 3e 75 a4 2f 3e f5 5f a6 3e 1e 68 83 3e
       0.31880298 0.17152579 0.32495084 0.25665373
0003d0 3f 7c b7 3e d0 3f d9 3e 71 54 dc 3e e5 52 90 3e
       0.3583698 0.42431498 0.43033174 0.28188244
0003e0 77 89 36 be 5a f4 a9 be 30 38 98 be 22 a2 4e be
       -0.17825876 -0.33194238 -0.29730368 -0.20179036
0003f0 02 f8 db bd 51 ce 25 be 82 cf 18 be c5 6a 5a bd
       -0.10740663 -0.16191985 -0.14922908 -0.05332448

feature.0.bias f4 [256]
000000 52 3b dc 3e db cb 1c 3f 37 bc 95 be 10 38 a8 3d
       0.43014008 0.6124856 -0.2924516 0.08213818
000010 18 37 0c bf 75 8e 08 be 60 7f d7 3e eb 17 ba 3e
       -0.54771566 -0.13335593 0.42089367 0.36346373
000020 3f 16 4c 3f 2a 95 0d 3f 1d a0 e3 be d9 51 5e be
       0.79721445 0.5530573 -0.44458094 -0.2171091
000030 78 ce fd 3e 30 cf b3 3d c4 fc b9 be 3c 1b 19 3e
       0.49571586 0.08779752 -0.36325657 0.14951795
000040 e5 10 38 be 67 d8 d5 3e cc c1 b1 3b 42 c0 1c bf
       -0.17975195 0.41766664 0.0054247137 -0.6123086
000050 84 d6 8f 3e ba 5e 4c be aa 56 49 bf 1f c3 73 3e
       0.2809335 -0.1995801 -0.78647864 0.23804902
000060 58 db 9d bf f9 4f 2c bf a4 74 e1 be 49 5a 2f 3e
       -1.2332563 -0.6730953 -0.44034302 0.17124285
000070 cc 62 fd be 98 7d d5 3e 47 1f 44 3d 38 c6 9c bf
       -0.4948944 0.41697383 0.04788139 -1.2247992
000080 31 df 89 be 82 c9 0d bf 1a 60 73 bd b4 13 25 bf
       -0.26928094 -0.553856 -0.05941782 -0.6448319
000090 64 9a 6e bd 40 3f d5 3e 78 30 87 3e 3a fd 37 3f
       -0.058252707 0.41649818 0.26404166 0.7187077
0000a0 b6 45 ee 3d 28 4b 96 bd 92 5e 94 bc ed d1 f5 3c
       0.1163439 -0.07338554 -0.0181115 0.030007327
0000b0 68 4b 6e bf a6 03 80 be 60 6a 29 bf 6d 9b f1 be
       -0.9308381 -0.25002784 -0.6617794 -0.47188893
0000c0 0c 7f f8 3e 3f f4 a9 3e 16 bc 02 be 86 10 31 be
       0.4853443 0.33194157 -0.12767062 -0.1729146
0000d0 bc fa e0 3b 2f f3 ba 3c 33 e0 74 bd 50 5e 3f 3d
       0.0068658274 0.022821037 -0.059784126 0.046720803
0000e0 dc a5 00 3e 3d 9b e2 be 8f eb 19 3e a8 5d 2c 3e
       0.1256327 -0.44259062 0.15031265 0.16832602
0000f0 13 6c 81 be c8 55 5a 3e 5e 81 9e bf 86 34 d8 3e
       -0.25277767 0.21321785 -1.238323 0.42227572
000100 d3 b0 1c 3f 68 d9 8a 3e ee 12 4f bd 82 40 1b 3f
       0.6120731 0.27118993 -0.050555162 0.60645306
000110 77 88 09 bf 9a d8 01 bf 9f 12 cd be 11 58 b4 3e
       -0.53723854 -0.5072113 -0.4005327 0.3522344
000120 1d fb bb 3e 65 d2 af be 71 5a ad be 49 fd 1c be
       0.36715022 -0.34340206 -0.33858064 -0.15330996
000130 3c 7a 00 bd 21 a1 a7 be f0 4e 46 bd 4f 59 1d 3f
       -0.03136657 -0.3274012 -0.048415124 0.614644
000140 29 3c 74 3f e9 09 ca 3d 17 a4 ff 3e 45 f9 e5 bd
       0.954043 0.098651715 0.49929878 -0.11229185
000150 e0 a8 e5 3e a3 95 d3 be d1 f0 14 bb 42 c7 a9 3e
       0.44855404 -0.413251 -0.0022726546 0.33159834
000160 65 e4 1f bd 0d 21 df 3e 54 9c 89 3f 34 6d ef be
       -0.039036173 0.43579903 1.0750833 -0.46763003
000170 c2 c1 0c 3d 2d 5e 21 be c9 74 50 3f 7b 35 83 3e
       0.03436447 -0.15758581 0.814282 0.2562674
000180 e9 97 65 3e 79 d9 7a 3f 88 b2 d5 3d 35 a0 86 be
       0.2242123 0.97988087 0.10434443 -0.26294103
000190 5c 14 38 3f 62 fc 27 3e 56 92 fe be dc 06 ab 3e
       0.71906066 0.1640487 -0.4972102 0.3340367
0001a0 20 fe 18 3f f4 b7 0b 3f 95 62 66 3e f6 28 0a 3f
       0.59762764 0.54577565 0.22498544 0.5396875
0001b0 55 f7 07 3e c8 8d 91 be 2b 0f 0d bf e4 e5 c3 be
       0.13277943 -0.28428483 -0.5510127 -0.3826133
0001c0 de 79 95 be 08 f9 51 3f c0 c9 82 3e df a7 62 be
       -0.2919454 0.82020617 0.25544548 -0.2213435
0001d0 41 61 65 bd c1 5e 24 bf 43 d1 31 3f b7 fe 5a be
       -0.05600095 -0.64207083 0.69459933 -0.21386229
0001e0 15 cf 13 bf df 58 5f be ec a3 40 3c 7a 14 0e bf
       -0.5773786 -0.21811245 0.011757832 -0.55499995
0001f0 4c 5e a1 3e 0d 89 ca 3d 3b ec 4b 3f c3 81 86 be
       0.31517255 0.098894216 0.79657334 -0.26270875
000200 2e bb 82 3d 60 84 11 3f 25 64 39 3e f6 17 80 bd
       0.06383358 0.56842613 0.18104608 -0.0625457
000210 f9 5b b2 3e 83 4f a9 be 4c e1 ae 3e ac 3c a7 3e
       0.34835795 -0.33068475 0.34156263 0.32663476
000220 74 53 89 3e 06 e0 25 3f a2 06 58 3e a1 16 c9 be
       0.26821482 0.6479496 0.2109628 -0.39275077
000230 51 bd 4d 3f da 3e 0d be 68 6b 8a bf be 78 0b bf
       0.80367 -0.13793507 -1.0814028 -0.5448111
000240 51 dd c6 3e ec e3 66 3f ba 18 1d bc cd 29 70 3e
       0.38840726 0.9019153 -0.009588415 0.23453446
000250 12 47 1e 3f 55 24 44 bf b6 50 39 3f e2 11 4e bf
       0.61827195 -0.7661794 0.7238878 -0.80496037
000260 bb 4b 30 3f f7 6f 49 be c7 8e 47 3f 81 f9 91 3f
       0.68865556 -0.19671617 0.77952236 1.1404268
000270 b6 7c 17 3f 52 4c fb 3d 89 ff 3e 3e ae d9 2b bc
       0.5917467 0.12270416 0.18652166 -0.010488911
000280 7a 88 14 be 0c c2 e8 3e 72 f7 dd 3e 92 a2 4f 3f
       -0.14505187 0.45460546 0.43352848 0.8110744
000290 47 9f 51 bd 61 e4 98 be eb 59 fe 3c e3 d3 80 be
       -0.05117729 -0.2986174 0.031048736 -0.25161657
0002a0 15 f9 ea 3e 93 fd 58 be 24 65 ed 3e d1 7e 9a 3e
       0.4589316 -0.21190481 0.46366227 0.30174878
0002b0 c0 c4 c1 3d 78 d6 22 3d 9d b9 06 3f a8 a3 3b bf
       0.09461355 0.039755315 0.52626973 -0.73296595
0002c0 07 6b 3a 3e c8 2e 8b be f4 db 39 bd ae df 5f 3e
       0.1820489 -0.2718413 -0.04537578 0.21862671
0002d0 94 5e fa 3e cc 18 82 3d ed 7c 10 bf 6e 1b 23 bf
       0.48900282 0.06352386 -0.5644062 -0.6371373
0002e0 93 fd fb 3e 00 f9 15 bf 09 9a a7 3d 3f 7a 27 bf
       0.492169 -0.5858307 0.08183677 -0.6542091
0002f0 e8 19 d6 3d c6 97 99 3e f0 b1 67 3f d4 db e4 bd
       0.1045416 0.29998606 0.90505886 -0.111747414
000300 76 da 03 bf 5b ad f6 bd 90 1f 14 3f 7d 8a cc be
       -0.5150522 -0.12044784 0.5786066 -0.39949408
000310 19 10 a1 3e 38 21 a5 3e cc 40 01 be 61 28 10 bf
       0.31457594 0.32251906 -0.12622374 -0.56311613
000320 0a 19 0a be 88 4b 17 bf 57 1f cf be cf a9 4e be
       -0.13486114 -0.59099627 -0.40453598 -0.20181964
000330 25 95 e1 3e 58 ba 8d be 7f c5 44 3f 0f d7 12 3d
       0.440591 -0.27681231 0.76863855 0.035849627
000340 78 18 30 3f b0 4c 02 3f b8 02 a5 3e c8 15 d8 be
       0.68787336 0.50898266 0.32228637 -0.42204118
000350 45 b4 31 3c 51 66 79 3e 03 9b a7 be 5d a4 7e be
       0.010846202 0.24355437 -0.32735452 -0.24867387
000360 42 cb 2e 3f 39 0c bb be bb 8e ed be 3c 07 d8 3d
       0.68278897 -0.36532763 -0.46397957 0.10548255
000370 81 54 1a 3f bf c2 85 3f 22 38 f5 be 3e 8f eb 3e
       0.6028519 1.0450057 -0.47894388 0.46007723
000380 43 0f 8f be c0 d4 07 3f 9a 0e af 3d 00 cb d7 3e
       -0.2794133 0.53059006 0.08547707 0.42147064
000390 c0 6f 79 3d 63 bd 92 3e 84 2c 1c 3f 28 75 8b be
       0.06089759 0.28660116 0.61005425 -0.2723782
0003a0 ba 45 74 3c 03 48 47 bd 37 9c c2 be b5 95 82 be
       0.014909202 -0.04865266 -0.38009807 -0.25504842
0003b0 53 96 b2 be 47 c4 de be 5a e0 82 3d 43 fd 28 be
       -0.34880313 -0.43509123 0.06390448 -0.16502862
0003c0 b0 18 11 3f a6 13 ea 3e c5 d4 cd bd d7 c6 8b be
       0.56678295 0.45718116 -0.10050348 -0.2730014
0003d0 1e 85 c6 3c 41 fa d4 3d cb 3c 45 be c3 64 c6 3e
       0.024233397 0.10399295 -0.19261472 0.3874875
0003e0 70 c1 49 bf 8a 16 28 3f 3e fd 0b 3f af 66 a0 be
       -0.7881079 0.6565939 0.5468329 -0.3132834
0003f0 47 73 19 be cb 65 2f 3f ce de c5 3e d5 72 19 be
       -0.14985381 0.685147 0.3864655 -0.14985211

feature.2.weight f4 [256, 256]
000000 20 f8 7a 3b 12 c0 39 bf 8d fc e4 3e 44 35 8c be
       0.0038294867 -0.725587 0.4472393 -0.27384388
000010 80 e3 d7 be 00 de b7 3e e2 db c6 bd e9 1d 3c 3e
       -0.42165756 0.3591156 -0.09709908 0.18370785
000020 c1 21 a4 bd fe 42 38 bf dd a6 2a 3e 19 79 98 bd
       -0.080142505 -0.7197722 0.16665216 -0.074449725
000030 0f 7c e9 bc 61 50 47 bd 3e ee 00 3e 71 c2 d1 3e
       -0.028501539 -0.04866064 0.12590882 0.4096866
000040 6d fa eb bd 68 8b 20 bf fa 00 c4 bd 10 43 8b 3d
       -0.11522374 -0.6271272 -0.09570499 0.067999005
000050 13 d1 cb be 41 4a 6b 3d 14 85 10 3e c0 e7 9e be
       -0.39807948 0.05744386 0.14113265 -0.31036186
000060 8e ca 1b 3e 1d 8f 7b be fc 0e 17 be 5d 41 6d bc
       0.15213987 -0.24566312 -0.1475181 -0.014480916
000070 22 33 ee 3d bb 66 ac be 37 fb 57 be c0 d7 0f 3e
       0.116308466 -0.33672127 -0.21091925 0.14047146
000080 0d 4f 58 be c2 bc f3 3e bb 0e cc 3e 6d d0 4d 3d
       -0.21123905 0.47604948 0.39854988 0.0502476
000090 9c b3 f6 be 19 99 b4 be 82 eb 5d be 4d 27 43 be
       -0.48183906 -0.35273054 -0.2167187 -0.19057961
0000a0 d3 79 fe 3d e7 40 ef be d1 1a 3f 3e a7 a4 cb bd
       0.1242558 -0.46729204 0.18662573 -0.09943514
0000b0 a0 3c da 3e 7a ef e0 bd f9 21 71 bc 59 da 10 3f
       0.42624378 -0.109831765 -0.014717572 0.5658317
0000c0 60 eb 44 bf 23 57 07 bf 45 60 cd 3d 5a 84 e6 3d
       -0.76921654 -0.52867335 0.100281276 0.11255713
0000d0 f5 92 f8 be 71 cb cb 3d d9 57 b5 be 5b 70 93 be
       -0.4854962 0.09950913 -0.35418585 -0.28796658
0000e0 36 40 df be 8a 09 9a bd 3c a9 73 bf 87 70 f9 3d
       -0.43603677 -0.07521351 -0.95180106 0.12179666
0000f0 37 47 c5 bd 74 9b b4 be 53 c0 98 3e be 04 ba be
       -0.09632724 -0.3527485 0.29834232 -0.36331743
000100 72 1d 38 be 43 54 a1 be 85 56 26 3d 4b 44 17 bf
       -0.17979982 -0.315096 0.040609855 -0.5908858
000110 97 39 07 bf 88 7b a8 be a0 45 cd bc c4 14 aa be
       -0.5282225 -0.32906747 -0.025057614 -0.33218968
000120 18 5d bf be 51 8f 93 be 11 8f a9 be 21 62 61 be
       -0.37375712 -0.2882028 -0.33116964 -0.2201009
000130 48 c4 5b 3d 77 6f db 3c 4a f0 f8 3d c9 ec 39 bf
       0.053653985 0.026786549 0.121552065 -0.7262693
000140 e7 09 66 be d0 30 f7 be cf b2 eb be 93 38 45 3d
       -0.22464715 -0.48279428 -0.46034858 0.048149657
000150 96 9f ad 3e 80 61 26 3e fe ac f5 be 4c 74 b6 3e
       0.33910817 0.16248131 -0.47983545 0.35635602
000160 80 f5 00 3f 7b 94 27 bf 7d cc cf bd a9 ab 9b be
       0.50374603 -0.6546094 -0.10146425 -0.30404404
000170 79 d2 61 be 9d 8f 70 3e fd f7 cd 3c 66 7e 09 3f
       -0.22052945 0.23492284 0.025142664 0.53708494
000180 c8 19 75 be 82 52 67 bd 66 ff aa bc f8 22 7b 3e
       -0.23935616 -0.05647517 -0.020873737 0.24525058
000190 09 d1 8b bd 38 a4 1c bc 50 be 0d 3e 20 5f 7f bf
       -0.0682698 -0.009560637 0.1384213 -0.99754524
0001a0 9f f5 a0 bf 68 15 2d bf 89 d1 b2 be 98 12 2e bf
       -1.2574958 -0.6761079 -0.34925488 -0.6799712
0001b0 4e c5 6a 3e 1e 32 4c bd 08 0b 0f bc fa f5 6c 3e
       0.22926828 -0.049852483 -0.008730657 0.23140708
0001c0 ae 4e f1 3c d9 66 6b be 66 72 26 bf 10 4c 17 3f
       0.029456463 -0.22988452 -0.6501831 0.5910044
0001d0 b8 6c 9c be ec 42 dc 3e a7 aa 7c be 02 e2 00 3d
       -0.30551696 0.43019807 -0.24674474 0.031465538
0001e0 1d f4 ce 3e bf eb 0e 3f 73 76 14 be 2c b4 a3 be
       0.4042062 0.5582847 -0.1449831 -0.31973398
0001f0 d0 df d3 be eb 16 81 be 87 55 ab be c7 db ee 3c
       -0.41381693 -0.25212798 -0.3346369 0.029157532
000200 4e 87 f6 3e 37 df 21 bf f7 ee bb be cc 7a 88 bd
       0.48150104 -0.63231224 -0.36705753 -0.06664047
000210 fe f5 2b be 20 89 9b 3d 5d 9a 28 bd 4a 6d 19 bf
       -0.16793057 0.07594514 -0.041162837 -0.59932387
000220 de 3d 80 be 9a e9 84 bf 65 ad 99 3c 25 1a db bd
       -0.250472 -1.038379 0.018759439 -0.10698346
000230 17 f1 a8 bd 43 15 bd be e8 47 38 3e 73 92 cc 3e
       -0.08249109 -0.36930284 0.1799618 0.39955482
000240 1e 8f 09 bf 5b 99 9b be 06 51 29 bf 3a 19 06 bf
       -0.53734004 -0.30390438 -0.66139257 -0.5238224
000250 fd b2 04 3e 0f c6 e7 bd 7a b5 1c bf 1d b0 d7 3e
       0.12958904 -0.113170736 -0.6121441 0.4212655
000260 35 b2 40 3e f9 c2 1b 3f ff 09 9c be 94 50 a4 be
       0.1881798 0.6084438 -0.30476376 -0.32092726
000270 5d 5d b8 bd 4b c1 2c bd 91 54 47 be c6 74 bc be
       -0.09002183 -0.042176526 -0.19465853 -0.3680784
000280 49 fa 2e bd fc 23 cc be 12 32 30 bd b8 b2 94 bf
       -0.04271916 -0.39871204 -0.0430165 -1.1617041
000290 3e 2e 0b be 18 8b 1a be 9a f0 41 be 5f 4f cb be
       -0.13591859 -0.15092123 -0.18939438 -0.39708993
0002a0 fc 84 e5 be 7f fb a1 be dd eb b3 be bd 85 43 bf
       -0.44828022 -0.3163719 -0.35140887 -0.76375943
0002b0 02 6d b7 3e 29 1a aa be 11 f8 50 be 9d 7a b2 3e
       0.35825354 -0.33223084 -0.2040713 0.34859172
0002c0 48 5b b7 be 5f ba a7 3d 9e 5d cf be e0 c7 9f bd
       -0.3581183 0.08189844 -0.40501112 -0.07801795
0002d0 e9 db 49 bf 92 85 15 bd 09 67 62 3e 1a a8 1e 3f
       -0.7885118 -0.036504336 0.22109617 0.6197525
0002e0 ae b2 99 bc cf 69 96 3e cd 24 9a be e6 cc ab 3e
       -0.018761959 0.293776 -0.30106202 0.33554763
0002f0 9b ae 77 be a0 09 2a bf ae 3e a2 be d2 13 a7 3e
       -0.241877 -0.66420937 -0.31688446 0.3263231
000300 4d 44 a6 3e 20 57 23 bf 60 a6 21 3e e2 09 4b 3f
       0.32473984 -0.6380482 0.15786123 0.79311955
000310 f7 a7 d0 be 57 e4 0f bf 4f cf 07 3e 0f 3a 90 3e
       -0.40753147 -0.56207794 0.13262676 0.28169295
000320 eb 75 54 bd 9b 64 18 3e c0 a9 a0 be c3 11 d6 be
       -0.051870268 0.14882128 -0.3137951 -0.41810426
000330 85 3c 71 bd 96 16 36 3e 66 b9 00 be 98 99 4c 3e
       -0.058895607 0.17782053 -0.12570724 0.19980466
000340 1b d9 02 bf 4c c9 9b be c6 8c f4 be 5b ba 96 be
       -0.51112527 -0.30427015 -0.47763652 -0.29439053
000350 ab b1 f2 be 14 48 3a be 48 ce 0f 3e ec 9c 50 be
       -0.47401175 -0.18191558 0.14043534 -0.20372361
000360 3e 13 f5 3d 7b 2d 98 3d 4e 39 a5 3e 0b 07 52 be
       0.11966561 0.0743055 0.32270283 -0.20510499
000370 65 12 1a be c4 cb 38 bd 72 70 8d bd b6 82 cc 3c
       -0.1504608 -0.0451162 -0.06906213 0.024964672
000380 c1 95 94 3d 8a 1a 62 be 4a d5 f2 be 4f 0c e4 be
       0.07255126 -0.22080436 -0.47428352 -0.4454064
000390 53 e0 26 be f6 a4 10 3e c8 1e 85 bf ca b2 c4 3d
       -0.1629651 0.14125428 -1.0400019 0.09604414
0003a0 54 a1 af be 95 66 95 be da 74 40 be f9 f1 39 3e
       -0.3430277 -0.29179826 -0.18794575 0.18158711
0003b0 b0 f0 20 3e a6 6d 3d 3e 2a 09 2a bf b9 a1 04 be
       0.15716815 0.18498859 -0.66420233 -0.12952317
0003c0 9d 06 be be bc b2 bf be 1f 05 35 be 39 bf 83 bd
       -0.3711442 -0.3744105 -0.17677735 -0.06432957
0003d0 8b f4 d9 be d2 ad 91 be 04 47 33 bf 6a 4f 20 bd
       -0.42569384 -0.28452927 -0.70030236 -0.039138235
0003e0 6f d2 17 be 75 8a db be 2f 26 8e be 54 97 61 bd
       -0.14826368 -0.42879072 -0.27763507 -0.05507596
0003f0 69 d3 20 bc ba 86 8f be ee 5f a5 be 08 cd 67 3d
       -0.009816029 -0.28032476 -0.3229975 0.056592017

feature.2.bias f4 [256]
000000 5a 41 d1 be 6b 8a d7 3d 31 f6 1d bf d3 42 f5 3e
       -0.40870172 0.10524448 -0.61703783 0.47902545
000010 d6 82 08 bf 95 1c 07 3f ec aa d9 be 6f 39 2c be
       -0.5332464 0.5277799 -0.42513216 -0.16818784
000020 1c d2 a8 3d 2b 22 15 be 29 8b 54 bf 11 00 07 bf
       0.082432 -0.14563815 -0.8302484 -0.52734476
000030 d7 25 d5 be 9f b5 c0 3e d1 84 ce be cd a3 c0 3e
       -0.41630432 0.37638566 -0.40335706 0.3762497
000040 51 46 d6 3c 71 3a ff be 1c 87 41 be f4 2b 16 be
       0.026156576 -0.49849275 -0.18899196 -0.14665204
000050 f4 1f 9f bd 33 f6 8b 3e 6e b7 16 bc 2b 3f 5f 3f
       -0.077697664 0.27336273 -0.0091990065 0.8720576
000060 b6 ed 5b 3f fb e6 02 bf 0d f2 31 bd ea df db 3e
       0.85909593 -0.511337 -0.04344373 0.4294427
000070 99 87 4d be 0a ea 3b be 54 d6 43 bd 8a 2f d1 bd
       -0.20071258 -0.18350998 -0.04781182 -0.102141455
000080 4f 71 3d 3e 8c e8 91 bd a4 a5 c6 bd 2c 69 18 3d
       0.18500255 -0.07124433 -0.09699562 0.037209675
000090 4f 0d 82 3f 0a 0b 7c 3f e9 21 05 3d 78 91 cd bc
       1.0160311 0.98454344 0.032503042 -0.025093779
0000a0 5b cc 1b 3e d9 4b bd be e4 ed 0d 3e ee bd 86 3f
       0.15214674 -0.3697193 0.1386028 1.0526712
0000b0 3a 7a 75 3d c9 9a ba bd 8a b5 6e 3e 5b fb 28 be
       0.059931017 -0.09111554 0.23311439 -0.16502135
0000c0 30 99 30 3f 2c 8e c0 3d 3f d5 85 bd 21 b5 82 be
       0.68983746 0.09402117 -0.06534814 -0.25528815
0000d0 84 46 cc bd 58 74 29 3e 9e 07 3b bc 7a 30 46 3f
       -0.09974387 0.16548288 -0.01141539 0.7741772
0000e0 f4 5b 73 3e 6c 0b fa 3e 11 64 57 3f 0d 9b 80 3e
       0.23765546 0.4883684 0.84137064 0.25118294
0000f0 80 36 f1 be ca 5b 21 3e 83 7d f4 be a0 c7 26 3e
       -0.47111893 0.15757671 -0.47752008 0.16287088
000100 27 b0 44 3f c4 3e b3 3e 94 f4 8c 3d b9 7b dd bc
       0.7683129 0.35008824 0.06882587 -0.027036535
000110 e7 3d 99 3e f0 6d 8c be 0d 05 32 3f c8 54 b7 3c
       0.2993004 -0.27427626 0.69538957 0.022379294
000120 d2 b2 11 bd 3a 32 b6 be 5f d9 3c 3f 4a 01 bf 3e
       -0.035570927 -0.35585195 0.7376918 0.3730567
000130 05 1b 01 3f c9 27 79 3f 10 1b aa 3b df d9 6a 3f
       0.50431854 0.9732633 0.0051912144 0.91738695
000140 76 7c 80 be 57 af 1e be 03 2a 28 3f cf bb ec 3e
       -0.25094956 -0.15496574 0.65689105 0.46237037
000150 4b 11 d5 bd 1a 71 7d 3f cc 10 ae be 38 ec 3e 3f
       -0.10403689 0.99000704 -0.3399719 0.7457919
000160 fe 9f 06 3f f2 94 3c be 5c 7d 73 3e 20 7b 7a be
       0.5258788 -0.18416193 0.2377829 -0.24461031
000170 e3 4e 23 3f 98 47 9a bd 00 50 17 be 99 a5 33 be
       0.63792247 -0.07533187 -0.14776611 -0.17543639
000180 48 79 4b 3e d2 a8 94 3d 1e f8 1d 3f 7f e6 0f 3f
       0.19870484 0.072587624 0.6170672 0.56211084
000190 86 be 20 be 8c 3d c2 3e a0 19 dd be f1 db 68 3f
       -0.15697679 0.37937582 -0.43183613 0.90960604
0001a0 ca e5 b0 3c da 0a 8e 3e 88 4d 4b 3f a4 97 58 3f
       0.021593947 0.27742654 0.7941518 0.84606385
0001b0 88 2b 73 3f ad 01 19 3f 93 2d 12 bd c2 63 3f bd
       0.949883 0.5976818 -0.035687994 -0.046725996
0001c0 4d dd fa 3e 03 b8 84 3d ee 76 b8 3d 28 79 e2 be
       0.48996964 0.0648041 0.09007059 -0.4423306
0001d0 1c 99 13 3e ac 22 20 3f 6a 15 12 3f 33 90 9d 3e
       0.14413875 0.62552905 0.57063925 0.30774078
0001e0 4c 56 33 be c5 9f 1d 3f 8f 64 03 3f 12 c6 88 bd
       -0.17513388 0.61571914 0.51325315 -0.06678404
0001f0 84 2e 92 3d 4e 76 13 3e 9b 3b 60 ba c7 29 8b 3e
       0.071377784 0.14400598 -0.0008553804 0.2718031
000200 43 2e 81 3f 7a 48 a1 bd 28 97 06 bd 69 75 42 3d
       1.0092243 -0.07875152 -0.032858998 0.047475252
000210 5f 02 6a 3e 48 08 a7 bd 10 38 91 be 84 4c 16 be
       0.22852467 -0.081558764 -0.28363085 -0.14677626
000220 25 cb 3c 3f 92 a3 4e 3f bb fd 5a 3e 90 4d aa bd
       0.73747474 0.8071834 0.21385853 -0.08315575
000230 69 9f 8a 3d 2f 02 5a be a4 dd 85 be 75 2b 30 3f
       0.06768686 -0.21289895 -0.2614566 0.6881631
000240 4a 18 40 3e 7c 5a 8c be f6 cf 0e 3e ae 36 34 3e
       0.18759266 -0.27412784 0.13946518 0.17598984
000250 b7 74 09 3e 6f b8 95 bd 28 55 03 bf 3f 65 88 be
       0.1342343 -0.073105685 -0.51301813 -0.26639745
000260 f5 fd 06 3f 97 8b 6f 3f 92 eb ae be b1 bb 36 bd
       0.5273126 0.9357237 -0.341641 -0.04461259
000270 cc 6e 09 3e 7e ab 53 3f de a8 a8 3e e7 ce 44 3c
       0.13421172 0.8268355 0.32941335 0.01201222
000280 d0 46 55 3f 6b 1c e4 3d 83 94 e2 3e 05 bf 80 3d
       0.83311176 0.11138233 0.4425393 0.06286434
000290 40 cd 35 3f 26 85 3f 3f 74 a4 3d 3e 86 38 34 3d
       0.7101631 0.74812543 0.18519765 0.043999217
0002a0 94 f3 28 bf e4 77 f2 bd 10 2e a6 be cd 84 41 3f
       -0.6599667 -0.118392736 -0.32457018 0.7559326
0002b0 fe 34 87 be 99 2c 30 bd fe e1 1e 3e 2d 1d 31 bf
       -0.26407617 -0.04301128 0.15515897 -0.69185144
0002c0 d7 eb 4d 3f 5e 61 ae be 63 af 0e 3f 43 a9 e0 3e
       0.8043799 -0.3405866 0.5573637 0.43879136
0002d0 f1 ec 42 3f d1 32 12 bf f3 c5 61 3e f0 e5 1d bd
       0.76142794 -0.5710879 0.22048168 -0.038549364
0002e0 2d a9 dc bd 56 73 92 bd 18 02 54 be 6a 56 5f be
       -0.10774455 -0.07150905 -0.20703924 -0.21810308
0002f0 e7 d4 17 3f 41 7a 3f bc d3 d1 f3 be 87 fe 80 bd
       0.5930924 -0.011686862 -0.4762102 -0.06298547
000300 2b f0 40 bf 0a bf 2b 3e c1 85 12 3e 86 25 8a 3d
       -0.7536647 0.16772094 0.14308836 0.06745438
000310 9c a7 21 3e b5 5d f9 3d 77 4d bd be f7 d7 77 bd
       0.15786594 0.12176076 -0.36973163 -0.060508694
000320 38 90 41 bf 56 91 72 3e 92 10 be be 35 4a d9 3e
       -0.75610685 0.23688254 -0.37122017 0.42439428
000330 50 5c 18 be f3 1b 2f 3e 59 75 dc bd 00 78 1b 3c
       -0.14878964 0.17100506 -0.1076457 0.009489059
000340 7f c6 3d be 3f 73 6a be 0c 19 6e be f7 70 68 be
       -0.18532752 -0.22895525 -0.23251742 -0.22699343
000350 3d b6 92 3e ad 54 d4 bd 11 49 16 3f f5 f9 81 3f
       0.28654662 -0.10367713 0.5870524 1.0154406
000360 d3 21 7c 3e 9b a4 bb 3c a9 5c 92 be b3 42 1b 3f
       0.24622278 0.022905638 -0.2858632 0.6064865
000370 8f c6 7c 3f c3 c9 de be 67 7d 91 bd a6 c4 1b be
       0.98740476 -0.43513307 -0.07103997 -0.15211734
000380 d9 71 f4 3c 0f 22 64 3f 14 de 30 bf 67 9b 8d 3e
       0.029839443 0.8911447 -0.69088864 0.27657625
000390 cc 2f 3b 3c 8e bb 9d 3e 8f 61 10 3f 52 28 6c be
       0.01142497 0.30807155 0.5639886 -0.23062256
0003a0 d7 39 52 3d 77 4d 95 bd 82 d8 fb bc cb 66 1c 3f
       0.05132469 -0.07290166 -0.030742887 0.6109435
0003b0 25 7e a9 3e 64 d5 b4 3d 54 c0 94 3e 94 7e 07 bf
       0.33104053 0.088297635 0.29052985 -0.5292752
0003c0 0f 97 19 be ab 43 b1 be 84 d6 36 be 6c 36 23 bd
       -0.1499903 -0.3462194 -0.17855269 -0.039846823
0003d0 bb 54 4c 3c 60 e9 56 3f e6 23 d5 3d 31 e2 a7 3e
       0.012471373 0.8394985 0.10407238 0.32789758
0003e0 da e7 84 3e e1 13 2f 3e 4f 2d 51 3e a2 bd c6 3e
       0.2595814 0.17097427 0.2042744 0.38816553
0003f0 ca 0c d0 bd 7c a5 a7 3d 5b 5d 06 bf 85 05 37 3f
       -0.10158689 0.081858605 -0.524862 0.714928

value_stream.0.weight f4 [256, 256]
000000 e7 f6 41 bd 0c 2d 30 3e 6f 58 10 be 2d 11 c9 be
       -0.047354605 0.17204684 -0.14096235 -0.39270917
000010 65 67 04 bf df 37 3c bf ae 0a 17 3e 05 e1 2e bd
       -0.5172027 -0.7352275 0.14750168 -0.042695064
000020 a4 67 32 bb 37 9b a3 3e 3f 76 95 3d 0d c9 9d 3b
       -0.002722242 0.31954357 0.07297944 0.004815227
000030 56 83 de be ac 16 00 be 60 f3 05 3f 62 80 79 3e
       -0.43459576 -0.12508649 0.52324486 0.2436538
000040 f2 4a 2b bf 0f aa cb 3e e9 5f 4e be 2a 13 41 be
       -0.6691123 0.39778182 -0.20153774 -0.18854967
000050 c8 39 cb 3d a7 e6 20 3d 16 2f 74 bf aa 05 52 3e
       0.0992313 0.039282467 -0.9538435 0.20509973
000060 9b b9 3b 3e db f3 26 be 16 96 d5 bc c0 3b 18 bf
       0.18332522 -0.16303961 -0.026072543 -0.5946617
000070 a7 0b a0 bd 55 8b cb be 62 33 22 be cd 1d f1 be
       -0.078147225 -0.3975474 -0.15839913 -0.4709305
000080 ee 38 2b bf 01 b8 cd be 58 74 8d 3d b0 f6 4f be
       -0.6688374 -0.40179446 0.069069564 -0.20308948
000090 96 59 69 bd 66 5a 9d 3d 85 54 6a be 7d a7 88 bf
       -0.0569702 0.07683258 -0.22883804 -1.0676113
0000a0 80 30 3e 3e d3 b5 00 bf 5a 97 28 bf 37 55 54 3e
       0.18573189 -0.5027744 -0.65855944 0.20735632
0000b0 6f eb 9d be e0 70 11 bd 89 27 00 3d 1d 6b cf 3d
       -0.30843684 -0.035508037 0.031287704 0.10127852
0000c0 69 02 40 be 46 1e 84 3d 1b 4f 99 be dd f6 77 3e
       -0.1875092 0.06451087 -0.29943165 0.24215265
0000d0 ae 19 32 3e 0d b2 fa be 44 bc fc 3d b1 67 a2 bd
       0.17392609 -0.48963967 0.12340596 -0.07929934
0000e0 15 0e 2d bf c5 40 13 be f3 cf 04 3d 82 bb 30 3f
       -0.6759961 -0.14380176 0.03242488 0.69036114
0000f0 f7 78 08 bc 7e 8d 46 3f db 88 15 3e d7 31 e0 3e
       -0.0083296215 0.7755965 0.14602987 0.43788025
000100 b8 c6 0c be 0e a4 30 bf 53 bf 04 3e 53 30 92 be
       -0.1374768 -0.6900033 0.1296361 -0.28552493
000110 2f 00 e8 bd 22 69 55 be f2 32 19 be 31 53 17 bd
       -0.1132816 -0.20840886 -0.1496084 -0.036944572
000120 c3 a6 5b 3e 11 20 5e 3d dc bc 4d bd a5 09 07 bf
       0.21450333 0.0542298 -0.05022894 -0.5274909
000130 9e 88 98 be 2b 31 2e 3e 25 7c ac 3e bf 2f 6d 3d
       -0.2979173 0.17010944 0.33688465 0.057906862
000140 85 2d ff be 77 f3 a9 3d fa e8 8c be ee d1 35 bf
       -0.49839416 0.0829839 -0.27521497 -0.7102345
000150 45 29 41 3d 35 4e 47 3e c2 15 06 3f 42 eb f7 3c
       0.0471585 0.19463427 0.5237695 0.030263547
000160 89 67 27 be 84 cc f3 bc 10 e6 b9 be 77 4a c5 3a
       -0.1634809 -0.029760607 -0.36308336 0.00150521
000170 24 fb 9e 3e 73 31 4e be 7e 1b 14 be 84 e7 18 3e
       0.3105098 -0.20136051 -0.14463612 0.14932066
000180 7f 59 f8 3d 68 c4 01 bf 95 95 13 bd b9 38 ea 3d
       0.12126445 -0.5069032 -0.036031324 0.114366
000190 16 76 27 be 99 68 34 3e 47 41 9b be 91 77 17 3f
       -0.1635364 0.17618026 -0.3032324 0.5916682
0001a0 44 3a 52 bf d2 01 2f 3f ab 0c 23 be 97 17 d6 bd
       -0.82120156 0.6836215 -0.15922801 -0.10453718
0001b0 ab df d8 3d 28 db 6f bf 65 a2 1e bf e1 9f 3f 3e
       0.10589536 -0.9369378 -0.61966544 0.18713333
0001c0 c3 1f 62 3d 6f 50 21 3f bb fc 7f 3d 74 b0 d8 3e
       0.05520607 0.63013357 0.062496882 0.42322123
0001d0 af 91 0a 3e 4a 7d d6 be e5 fd 63 3e 49 c6 72 be
       0.13532136 -0.41892463 0.22264822 -0.23708452
0001e0 7f ad 9d 3e 27 4b 9e be ad ae 27 3d 8b 1b b1 3c
       0.3079643 -0.30916712 0.04093807 0.021619579
0001f0 e3 5f 27 bf c8 15 d1 be 27 65 72 3e 16 09 3b 3f
       -0.65380687 -0.4083693 0.23671399 0.7306074
000200 04 57 0a bf 38 de 32 bf 65 1a 56 3e a6 36 ed be
       -0.54039025 -0.6987033 0.20908506 -0.46330756
000210 6c 71 b3 3e 82 df e0 bd 96 d5 83 3e 64 25 11 be
       0.35047472 -0.10980131 0.2574889 -0.1417442
000220 7c fc e8 3d 52 c2 71 3d ca 31 2c 3e 29 2f 38 be
       0.113762826 0.05902321 0.16815868 -0.1798674
000230 8e 7d a8 3c 94 a1 20 3e 39 c2 ab 3b 0a 44 d2 bd
       0.020567682 0.15686637 0.005241659 -0.10266884
000240 99 f2 3e be ad 70 e0 bd 05 64 36 3d cb 2c a3 be
       -0.18647231 -0.10958991 0.04452898 -0.31870112
000250 d0 9a 22 3e a9 a7 b0 3e f6 dc f6 be 7f 66 06 be
       0.15879369 0.34502915 -0.48215455 -0.13125037
000260 c5 64 a7 3e 23 32 72 3d 93 36 b7 bb 9d ce 98 be
       0.3269407 0.059129845 -0.0055912226 -0.29845133
000270 1d 60 c7 be 15 e5 9e 3e bc 64 06 3e 77 3f 27 3f
       -0.38940516 0.3103415 0.13124365 0.65331215
000280 55 5b 73 be 14 ba cc 3b ec ba 9f be 65 15 31 3e
       -0.23765309 0.006247768 -0.31197298 0.17293318
000290 11 f2 ea 3d a7 be bb 3d 98 e8 23 bf 87 e1 f4 3e
       0.11471952 0.091672234 -0.64026785 0.47828314
0002a0 42 40 cb be c5 24 0c be 93 11 2f be 69 11 e6 be
       -0.39697462 -0.13685901 -0.17096548 -0.44935158
0002b0 81 80 95 be b1 82 e2 3d a4 17 92 3e 03 f3 8e be
       -0.29199603 0.11060084 0.2853366 -0.27919778
0002c0 b8 9b d0 3e 39 2a a3 be 10 9c 76 3e 72 9d a2 be
       0.40743804 -0.3186815 0.2408297 -0.31760746
0002d0 ab 93 63 3d 84 11 ad 3c f0 6f 26 be 2f ef 44 3e
       0.05556075 0.021126516 -0.16253638 0.19231866
0002e0 a1 a2 e9 be cb 6c ab 3d 4c ea 41 3d 88 71 8d 3e
       -0.45631889 0.0837036 0.047342584 0.2762568
0002f0 e5 3d 83 3e b2 bf aa bc 3a 88 41 3d ca 43 6e bd
       0.2563316 -0.02084336 0.047249056 -0.058170117
000300 e9 a6 ab 3e 4a 86 09 bd cd 75 92 be 73 5e 80 bf
       0.3352578 -0.033575334 -0.286055 -1.0028824
000310 52 32 e6 be 73 21 9f 3d 1e 8d 8f be a5 37 85 be
       -0.44960266 0.07770052 -0.2803735 -0.26019016
000320 4a 22 34 3f 1f 93 96 bd 1a ca 2a 3c 6f 65 07 be
       0.7036482 -0.0735228 0.010424161 -0.13222288
000330 2f 62 aa be 1a 47 6b 3e 5f 5c 6c 3e f1 d8 83 be
       -0.33278033 0.22976342 0.23082112 -0.2575145
000340 4e 57 9a be e8 bf 81 bf 75 5f 4f 3e 26 17 6d 3e
       -0.30144733 -1.013669 0.20251258 0.23153362
000350 ca 67 97 3e 06 07 24 3e e3 0d 24 bf 27 69 ea 3e
       0.29571372 0.16018304 -0.6408369 0.4578335
000360 b5 40 2e bf bc f4 fb be 01 17 88 bd ca 98 14 3e
       -0.68067485 -0.49210155 -0.06645013 0.1451141
000370 8a 13 92 3e 59 4c 3a bd 3a be 5c 3d 36 7f 91 bf
       0.28530532 -0.045482967 0.05389235 -1.1366947
000380 e7 0b 22 3e 12 a0 b5 3d 30 ac 21 3e cb ec 78 bf
       0.15824853 0.088684216 0.1578834 -0.9723632
000390 ca 4d 69 3e 8a 71 5c bf d8 b0 a1 3d 26 3c 8c 3e
       0.2278358 -0.86110747 0.078950584 0.2738964
0003a0 46 4c 3c be 1d d3 33 be cb f4 52 be 0b 79 67 be
       -0.18388471 -0.17561002 -0.20601194 -0.22604768
0003b0 0a 60 47 3f 32 55 2c 3e bb c8 fb be ff aa fc bc
       0.7788092 0.16829374 -0.49176583 -0.030843256
0003c0 9b b9 d3 3e ad 27 6d 3e c7 df 9e be 1d 4f 97 be
       0.41352543 0.23159666 -0.31030104 -0.29552546
0003d0 ad b0 d3 bd 03 5f 00 3d 34 21 ae 3e 01 5d 31 bf
       -0.103364326 0.03134061 0.34009707 -0.6928254
0003e0 c2 e1 8d 3e 6c a9 ff be 53 f5 e9 bd e2 1e a4 bf
       0.27711302 -0.49933946 -0.11423745 -1.2821925
0003f0 55 b8 18 3f 24 f2 c6 3d c6 49 53 be a9 5d 5f be
       0.5965627 0.097141534 -0.20633611 -0.21813072

value_stream.0.bias f4 [256]
000000 71 55 c6 bd 3f f9 f5 3e f2 86 97 be 86 30 05 bf
       -0.096842654 0.48041722 -0.29595143 -0.52027166
000010 c3 f1 b1 be c7 f8 ba 3e c2 15 84 be 4e c9 5f 3e
       -0.34754762 0.36517927 -0.2579785 0.21854135
000020 5a 77 4a 3f 86 b9 b1 3e bf 21 14 3e 68 2d 14 3e
       0.79088366 0.34711856 0.14465998 0.14470446
000030 db 3c 06 bf 86 7c 0a 3f 36 21 a4 be 66 29 04 3f
       -0.5243661 0.5409626 -0.32056588 0.5162567
000040 28 96 e3 3e fe 2e 43 bc 29 52 cc 3e 3c 5b 2b 3e
       0.44450498 -0.011913059 0.39906433 0.16734022
000050 ee 56 09 3f 17 c7 00 3f 99 7b 0b be 0f 5e 93 3d
       0.5364827 0.50303787 -0.13621368 0.07195675
000060 f1 4c 55 bc fa 49 0e 3f 0d 30 88 3e 8d 21 e9 3e
       -0.013018833 0.5558163 0.2659916 0.4553341
000070 ce 00 80 be 24 1b 0c be e3 92 93 be 44 bd d8 3d
       -0.25000614 -0.13682228 -0.28823003 0.105829746
000080 67 b0 7b 3e cc 89 34 3f 7f 75 b3 3e 64 fa 43 bd
       0.24579011 0.7052276 0.3505058 -0.047846213
000090 55 83 43 be cf cd 53 3e 99 10 83 3e ec 64 8c 3e
       -0.19093068 0.20683978 0.255986 0.27420747
0000a0 71 fe 46 3e 2b 48 17 3f 0d 03 8d ba 1c 9a 10 3f
       0.19432999 0.59094495 -0.0010758355 0.5648515
0000b0 bd 6c 04 3f 6e 94 28 bd 22 9b f1 3d 99 7a 5d be
       0.5172842 -0.04115718 0.11797167 -0.21628799
0000c0 93 52 3d 3f e7 a5 d5 bc 05 cb 33 3e 6b a9 80 3e
       0.73954123 -0.026080085 0.17557915 0.25129256
0000d0 3e af 74 3e a7 dc 48 3e 87 9b 2b 3f c3 f5 a9 3e
       0.23894975 0.19615422 0.6703419 0.33195314
0000e0 c5 8b e6 3e e9 02 88 be 01 2b fc 3e 2a eb 40 3f
       0.4502851 -0.2656472 0.4925156 0.7535883
0000f0 52 b5 13 3f 2a 8f 71 3e 1f b8 14 3f 74 08 01 3f
       0.5769855 0.23589769 0.58093446 0.50403523
000100 ff c0 fb 3e 21 29 21 3f bf 31 25 be 58 68 af be
       0.49170682 0.6295338 -0.16132258 -0.34259295
000110 b0 45 da 3d 5b 6c b9 3e 23 5b ae 3e 94 ae 78 be
       0.10657823 0.3621548 0.34053907 -0.24285346
000120 bf 0c 86 3e 16 4d 85 3e e2 9b a3 3e d0 81 d8 be
       0.261816 0.26035374 0.31954867 -0.4228654
000130 29 5e 86 3c 97 8e 15 3e 28 19 d8 3e 38 d3 46 3e
       0.016402321 0.14605175 0.42206693 0.19416511
000140 a5 55 4c be 12 49 f8 3d 9c 87 09 bf d3 b4 9c be
       -0.19954546 0.12123312 -0.5372255 -0.30606708
000150 e5 f3 55 be f4 48 d8 be 8c 12 85 3e ac 8d 84 be
       -0.2089382 -0.4224316 0.25990713 -0.25889337
000160 e4 54 5a 3e 22 26 9d bd 5e 9b e7 be 91 a6 0e bf
       0.21321446 -0.07673289 -0.45235723 -0.5572291
000170 f2 98 c4 3e 61 e9 44 3f 82 83 2f 3e ef 23 43 3f
       0.38397938 0.7691861 0.1714001 0.76226705
000180 39 37 42 be 99 29 06 3f dc 61 dc 3e 41 36 9b be
       -0.18966378 0.52407223 0.4304341 -0.3031483
000190 a0 7f 04 3e 68 0b 35 be 80 33 66 3e c3 86 ef 3e
       0.1293931 -0.17680132 0.22480583 0.46782503
0001a0 f5 27 2a 3f d0 93 4f 3e 29 68 8d bd 6d 25 d4 be
       0.6646722 0.2027123 -0.069046326 -0.41434804
0001b0 19 62 6b 3e 63 0c b3 be 7e bf 18 3f 35 5b 6c 3e
       0.2298664 -0.34970388 0.59667194 0.23081668
0001c0 65 36 a3 3e f5 e4 34 3f e4 a0 56 3f f4 1c eb be
       0.31877437 0.7066186 0.8383925 -0.45920527
0001d0 f2 21 3b 3f 19 1b 01 3f ce 62 63 3d 0f 95 7a 3e
       0.7309867 0.5043197 0.05551415 0.24470924
0001e0 2e 2e 5a bc 5f 40 ac bd 60 dc 08 3d 23 49 84 be
       -0.013316674 -0.08410715 0.03341329 -0.2583705
0001f0 16 7d 0d 3e da 3b 35 be 95 9c 09 3f 0f 05 a3 3e
       0.13817248 -0.17698613 0.5375455 0.31839797
000200 94 35 1e 3f 60 8c 60 3d 86 35 4b 3f b7 7c 66 3e
       0.61800504 0.054821372 0.79378545 0.22508512
000210 c4 13 60 3e 9f 79 88 3e 8a b2 60 3e ae 37 9f 3e
       0.2188254 0.2665529 0.21943107 0.31097168
000220 dc 23 e1 3e 0e 13 d8 3e 0d dc 61 be 5b b6 a3 3e
       0.4397267 0.42202038 -0.22056599 0.31975064
000230 dc 53 bb be 8d c7 13 3e 4f f1 59 3e 7c e5 8c be
       -0.36587417 0.14431591 0.21283458 -0.27518833
000240 d3 73 26 3f 9d 19 25 be 37 9f a1 bd c2 24 23 3e
       0.65020484 -0.16123052 -0.07891696 0.1593199
000250 ac e1 12 be 18 87 04 bf 45 c8 28 3e 6e f4 cc 3e
       -0.143439 -0.51768637 0.16482647 0.40030235
000260 8a 8b f4 3e 4c bc 1b 3e f4 03 e1 3e 00 a2 a5 be
       0.4776271 0.15208548 0.43948328 -0.3235016
000270 4c f4 49 3e 19 c4 b6 be 2e 96 75 3e 66 3f d7 bb
       0.19722098 -0.35696486 0.2398307 -0.006568837
000280 d4 87 46 3f 14 d7 af 3e 4a af 80 3e ca f4 30 3e
       0.7755101 0.3434378 0.25133735 0.1728088
000290 b7 b9 a4 be 76 e8 e2 be 7c dd 2f 3e 1b c0 84 3e
       -0.3217294 -0.4431798 0.17174333 0.25927815
0002a0 98 fe 9a 3e f9 b0 fa be 2c 74 43 bd 67 7a 06 3f
       0.30272365 -0.48963144 -0.047718212 0.5253052
0002b0 6b cf 76 3e a7 8c 3f be 19 d0 cc 3e 46 d9 8a 3e
       0.24102561 -0.18705998 0.40002516 0.2711889
0002c0 2a 0c 1c 3f 00 d7 23 3f 97 82 4a 3c f5 f0 87 be
       0.6095606 0.6399994 0.012360237 -0.26551023
0002d0 62 56 d4 be 20 cd 9a be a4 10 d2 3e 1d fa 21 3f
       -0.41472155 -0.30234623 0.4102832 0.6327227
0002e0 a9 29 05 3e e8 60 53 3e 0b 82 d3 3e 2e 3f 39 3f
       0.13004173 0.20642436 0.41310152 0.7236203
0002f0 dd 66 ff 3e 2a d5 3a be 57 23 e1 3e 6f 3b a7 be
       0.49883166 -0.18245378 0.43972275 -0.32662532
000300 7f 26 50 3f 7d a8 29 be f8 31 87 be f6 28 83 be
       0.8130874 -0.1656818 -0.2640531 -0.25617188
000310 f0 93 a1 3e 3a f0 5c 3f f7 86 c9 be 44 79 1e be
       0.3155818 0.86304057 -0.39360783 -0.15475947
000320 0e c0 b6 be 50 ea 4f 3f e2 a4 64 3f 28 84 be 3e
       -0.356934 0.8121691 0.8931409 0.37210202
000330 d7 68 08 3f 97 eb 19 bf b7 63 a5 3e 62 64 69 3f
       0.5328497 -0.60125107 0.3230264 0.91168797
000340 bc b4 81 3d a9 5c be 3e 09 6b 7a 3d 5f 6f 6f 3e
       0.063333005 0.3718007 0.061137233 0.23382328
000350 df c9 e2 3e ff b0 b4 3e 4c 93 f0 be 1f e6 82 3e
       0.4429464 0.35291287 -0.4698738 0.25566193
000360 e5 13 cd bd 75 67 6a be 1a ac 3d 3c fe 3a cc 3e
       -0.1001356 -0.22891028 0.011576677 0.39888757
000370 ad f0 98 bd 22 02 90 3e f9 5e 8f bd bb 03 45 3f
       -0.0746778 0.28126627 -0.070005365 0.7695882
000380 9d 15 ed bd 69 8b 90 3e f0 8e 4a 3e f2 47 81 3e
       -0.11576388 0.28231362 0.19781089 0.25250202
000390 63 1b f5 3d e2 24 2f 3f d3 a8 1a 3f 25 cb 50 3d
       0.11968114 0.68415654 0.60413855 0.050974984
0003a0 ee 7d 16 bf 32 06 81 be f1 0a 6d 3e 7c c6 95 3e
       -0.58785903 -0.2520004 0.23148705 0.29252994
0003b0 fa ae be 3e b0 ed 11 3f 1f dd 98 3e 29 1f b4 be
       0.37242872 0.5700331 0.29856202 -0.35180023
0003c0 d6 f2 22 be 2e 1d 3f 3f 1d af ad be 8e b0 24 3e
       -0.15912947 0.746539 -0.33922663 0.16082975
0003d0 c3 e4 6d 3f a1 52 2b 3e c5 e0 a4 3e a2 f5 ca 3e
       0.9292719 0.16730739 0.32202736 0.39640528
0003e0 59 ea 04 3f 49 11 c1 3e 7a 62 e4 be 04 41 61 3e
       0.51920086 0.377085 -0.44606382 0.21997458
0003f0 15 d5 8c be 43 7b 9b 3e 86 52 04 bf 25 e1 01 bf
       -0.2750632 0.3036748 -0.5168842 -0.5073417

value_stream.2.weight f4 [1, 256]
000000 0a 18 81 bf bd ba 26 c0 cb 87 8c bd 01 46 fb bd
       -1.0085461 -2.6051476 -0.06861838 -0.122692116
000010 f9 5c cc bd 62 b7 8d bf 81 cf c0 bd cf 08 0e c0
       -0.099786706 -1.1071589 -0.09414578 -2.2192876
000020 7a c6 1e 3f 49 c9 4b 3f 56 4a 8e be 53 1c eb 3e
       0.620216 0.7960401 -0.2779109 0.45920047
000030 8a c1 f4 bd 89 07 24 c0 ca 8a be bd 53 a3 41 bf
       -0.11950977 -2.56296 -0.09303816 -0.7563984
000040 29 05 a5 3e 47 7b 06 bf 1b 79 7e 3f 5e 91 e4 3e
       0.322305 -0.52531856 0.9940354 0.44642156
000050 75 9e c5 3f 77 ce 83 bf 1b 33 79 be fe 96 af be
       1.5438982 -1.0297383 -0.24335901 -0.34294885
000060 e5 5d 90 bf 18 f3 67 bf 9e 6b 26 bf 7a d3 88 bf
       -1.1278654 -0.90605307 -0.6500796 -1.0689538
000070 a7 e9 15 be b1 bc 15 be ee b2 4c bd a6 d7 da 3e
       -0.14639913 -0.14622761 -0.04997533 0.42742652
000080 37 4c 8c 3f a6 07 af 3e 67 cb 88 bf 63 d8 fe be
       1.0960759 0.34185523 -1.0687073 -0.49774465
000090 84 34 ba bf 2a f0 f9 3e fe 6f 22 3f 0a ab 82 3f
       -1.4547276 0.48816043 0.63452137 1.0208447
0000a0 25 a2 ee 3e 37 bd 1a c0 80 8d 19 be 47 4f 58 3e
       0.4660808 -2.4177988 -0.14995384 0.21123992
0000b0 1e f5 31 3f 40 e9 9e be df 31 9b bf 9f 3e 76 bd
       0.69514644 -0.3103733 -1.2124594 -0.060118314
0000c0 56 14 df bf 8c 53 da bf 2d d3 9b 3f 80 fa 1c 3f
       -1.7428081 -1.7056746 1.2173821 0.6131973
0000d0 3e 9c 92 bf b0 dc 82 bf 66 a4 56 3f 9e 93 d7 be
       -1.1453931 -1.0223598 0.838446 -0.4210481
0000e0 0f a7 e4 bf c6 95 97 bd 8b ea ee 3e 7b eb 5c 3e
       -1.7863482 -0.07401614 0.46663317 0.21574204
0000f0 52 33 ab 3e 0c 7a 0d bf 36 a9 9e 3e 21 d3 71 bf
       0.33437592 -0.55264354 0.30988473 -0.9446278
000100 c4 0a 00 3f 26 1a 6f 3e 92 6c a7 bd c5 6a 04 be
       0.5001643 0.23349819 -0.08175005 -0.12931354
000110 9b 7c 50 bf fa 12 9e 3f eb a9 a9 3f d0 30 4f 3d
       -0.8144013 1.2349541 1.325498 0.05058366
000120 99 07 aa 3f 67 f6 fc 3e af f5 57 bf e9 7f d3 bc
       1.3283569 0.4940674 -0.8435926 -0.025817828
000130 49 e9 a9 be 9e 5d 90 3f d1 cc 1a 3f 59 85 e7 3e
       -0.33185795 1.127857 0.60468775 0.45218924
000140 cc 85 40 ba 41 43 e2 3e b1 8f d0 bd b2 ba 6e bd
       -0.0007344156 0.44191936 -0.10183657 -0.058283515
000150 94 cb e1 bd ce f7 d5 bd b5 9c 05 3f e2 ae 26 be
       -0.110251576 -0.104476556 0.5219224 -0.1627765
000160 c2 5c 0c 3f 68 66 f4 be 48 06 9e bd f3 cd 0f be
       0.5482904 -0.4773438 -0.07716042 -0.14043407
000170 1b 4a 0f bf 4d db 07 3f 91 65 12 3f d6 9b ac bf
       -0.5597245 0.53069 0.5718623 -1.3485057
000180 c6 23 56 be 09 07 81 3f 3a a0 04 3f 64 e6 cf bd
       -0.20912084 1.0080272 0.51806986 -0.101513654
000190 7a c9 89 bf b5 f7 90 bf fc 54 f6 3e 68 bd f7 3e
       -1.0764611 -1.1325594 0.48111713 0.48386693
0001a0 d4 71 9a bf d4 e2 97 bf c9 ec 5b 3f ba 95 00 be
       -1.2065988 -1.1866097 0.8590818 -0.12557116
0001b0 c5 4c 67 3f 87 ad 4e bd a3 91 8d 3e 1f 64 f2 3e
       0.90351516 -0.050458457 0.27650174 0.4734201
0001c0 08 f4 0f 3f d0 e1 3f 3f 22 a6 28 3f 09 4b 54 bf
       0.5623174 0.7495394 0.658785 -0.82926995
0001d0 00 9d c4 3e 83 10 5c bf b8 a6 ac 3f c4 06 f8 3e
       0.38401031 -0.85962695 1.3488379 0.48442662
0001e0 34 3e 9a bf 97 95 7c be 9f 47 25 c0 13 1d 08 bd
       -1.2050233 -0.24666439 -2.5824964 -0.033230852
0001f0 b1 a3 a7 bf 3e c9 3a be 82 3a 8c 3e b5 15 77 bf
       -1.309683 -0.1824083 0.27388388 -0.965175
000200 fd 4b 93 3e d7 d0 8e be d3 38 03 c0 3a 53 e0 3e
       0.28768912 -0.27893707 -2.0503433 0.43813497
000210 5e e9 03 3f cd c4 61 bf 5d d8 01 3f b4 db 0f c0
       0.51527965 -0.8819092 0.5072077 -2.2477846
000220 4f 13 27 c0 c3 e8 3a 3f e4 c8 3b bf 93 6a 41 bf
       -2.6105535 0.73011416 -0.7335341 -0.75553244
000230 29 c7 1e bd d7 bc 81 bf 8a b7 25 3f f8 be 4d bd
       -0.038764153 -1.0135754 0.64733183 -0.05023095
000240 9a a5 db 3e 35 8e 4e bc 78 d3 0a bf da 84 6f 3f
       0.4289978 -0.012607147 -0.54228926 0.9356209
000250 3a 35 4e be 8e fb b6 bd 7d e3 98 bf 46 31 d9 3e
       -0.20137492 -0.08934699 -1.1944424 0.42420405
000260 e3 03 d9 3e ce 37 ed bf f3 85 d8 3f 55 9d 67 bf
       0.42385778 -1.8532655 1.6915878 -0.90474445
000270 07 4f ab 3f 8e e3 9d bd e5 6d ae 3f f8 3f bd be
       1.3383492 -0.07709418 1.3627287 -0.36962867
000280 ed 8c e5 3e 25 61 83 3f db e6 85 bf 88 59 bc 3f
       0.4483408 1.0264021 -1.0461076 1.4714823
000290 c7 16 07 bd 73 bb 57 be 8f b7 3d bf 81 2b 31 3f
       -0.032980707 -0.210676 -0.74108213 0.69207007
0002a0 16 02 ae 3f 32 97 05 be 5e e3 84 be 69 1b b4 bf
       1.3594387 -0.13045958 -0.25954717 -1.4070865
0002b0 b8 c6 3a bf bb 97 5e bd 50 d9 2c bf 40 97 8a bf
       -0.7295947 -0.05434392 -0.6751909 -1.0827408
0002c0 11 4a 83 3e 29 48 ba 3e f5 55 95 be a3 fc 8d bd
       0.25642446 0.3638318 -0.29167143 -0.06932952
0002d0 af 8c 33 bd 83 b6 62 bd f7 ea af 3e 08 61 aa 3e
       -0.04383534 -0.055349838 0.3435895 0.33277154
0002e0 7d da ae be 62 08 b7 be dc 6d 92 bf 7a a8 15 3f
       -0.34151068 -0.35748583 -1.1439776 0.584602
0002f0 d3 1f 99 bf 38 45 81 bd ba 08 3d 3f 28 86 90 bd
       -1.1962837 -0.063120306 0.7384144 -0.07056838
000300 64 4a 01 3f e2 e2 35 bf e8 0f 82 be 27 75 75 bd
       0.50504136 -0.7104932 -0.2540276 -0.05992618
000310 76 df f5 3e 8c 4f 32 3f 78 a9 4f bd 3c 22 96 bd
       0.4802205 0.6965263 -0.050698727 -0.073307484
000320 72 62 5d be 7e 62 28 3f f5 eb 47 3f a2 d6 24 bf
       -0.21619585 0.6577529 0.78094417 -0.64390004
000330 47 6e 15 3f 93 e8 e7 bd 59 87 95 bf 8c 89 0e c0
       0.58371395 -0.11323657 -1.168193 -2.2271452
000340 69 a0 6b be 42 ff 9b 3e bd 90 e2 3f 0c 4e 75 3f
       -0.2301041 0.30468184 1.7700421 0.95822215
000350 ac b2 17 3f 86 1e b9 bf 94 d5 b0 bd 8d 13 0a 3f
       0.59257007 -1.446244 -0.08634487 0.5393608
000360 fe 8b 29 bf b8 33 0f bf 92 12 91 be d3 ca 22 bf
       -0.66229236 -0.5593829 -0.2833448 -0.63590735
000370 c0 98 12 be 54 6f f7 3e 61 ed c1 be 83 e4 d6 3e
       -0.14316082 0.48327124 -0.37876418 0.41971216
000380 b7 4f 2d bd dc 9c 18 bf ed 06 9e 3f c6 26 47 3f
       -0.04231235 -0.5961435 1.2345864 0.7779354
000390 42 9b 06 bf 7f 8b 44 3e 03 4b 87 3e 5b 82 b5 be
       -0.52580655 0.19193839 0.26424417 -0.35451016
0003a0 10 08 d2 bd fe ac 18 bd d3 9a 38 3f ea bf 2d bf
       -0.10255444 -0.037274353 0.72111243 -0.6787096
0003b0 28 6e 86 3f b5 b6 aa bf c7 84 5d 3f 13 57 51 bd
       1.0502367 -1.3337008 0.8653073 -0.05110843
0003c0 a0 c9 91 be c3 1c 8d 3e e0 6f 1f bd 68 c4 1b c0
       -0.2847414 0.27561006 -0.03892505 -2.4338627
0003d0 5b cc 41 3f 3b 94 ef 3e 45 83 e5 bf 42 42 cb 3e
       0.75702447 0.46792778 -1.7930685 0.39698988
0003e0 c2 6b 03 3f 95 40 0f 3f aa 61 aa bd 55 be 2d c0
       0.513363 0.5595792 -0.08319409 -2.714742
0003f0 14 88 33 bd 07 1f d8 bf dc 42 01 be 71 17 f7 bd
       -0.043830946 -1.6884469 -0.12623161 -0.12065018
