active_slam_rl/training_output_frontier/20260124_140852_frontier/d3qn_frontier_ep740.pth (torch, 901938 bytes, 11 tensors)

feature.0.weight f4 [256, 100]
-0.14468549 -0.11933162 -0.09341305 -0.1887602 -0.1043481 -0.1622859 -0.13806832 -0.27350408
-0.14211343 -0.23157391 -0.1160876 -0.21212068 -0.13720363 -0.11578727 -0.11783087 -0.22200166
-0.14458399 -0.1934046 -0.20751315 -0.09736555 -0.10790174 -0.1327774 -0.1611583 -0.12350098
-0.13150549 -0.10204243 -0.017752541 -0.11101916 0.01078997 -0.10112711 0.00369266 -0.17818272
-0.10906719 -0.049669676 -0.01586643 -0.19025017 -0.056891747 -0.13900839 -0.07738351 -0.19684899
-0.040751744 -0.0025989995 -0.18255445 -0.063389234 -0.0812225 -0.065182306 -0.06435574 -0.11728941
-0.29510754 -0.2788813 -0.34121096 -0.42586824 -0.3200932 -0.34528857 -0.0344496 0.010297608
-0.027802944 -0.07263126 -0.11624704 0.10123928 0.07097707 0.11735199 0.15869704 -0.06490416
0.07796627 0.04036025 -0.08488202 0.14102934 0.1397789 0.028234942 0.06803629 0.10067871
0.033278894 -0.01312504 -0.023948897 0.06296156 -0.05297157 0.17629972 0.11958475 0.116232514
-0.004050074 -0.09449607 -0.0083607985 -0.052146673 -0.084344275 -0.07205206 0.027769411 -0.083431855
0.011350513 0.035788383 -0.16145143 -0.0723572 -0.00029757182 -0.12772484 -0.09537942 -0.15126105
-0.15436521 0.053900987 -0.05572485 0.014079867 0.13211265 0.06817754 0.02539907 -0.0021143365
-0.11772514 0.17122214 0.12533511 0.1507513 0.03377145 0.080170825 0.11318615 0.0029760434
0.1980243 0.17661528 -0.0026358247 0.103984706 -0.04129377 0.12084337 0.056299143 0.14417279
-0.028733844 -0.08976565 0.023540724 -0.058473505 -0.056744646 0.045352213 -0.024942148 -0.043310683
-0.07189244 -0.077636 -0.11906901 -0.052951258 -0.09405546 -0.12865235 0.06049751 0.10756787
0.15466663 0.015844503 0.16459674 0.22106779 0.13548294 0.13428916 0.1431692 0.120635696
0.16601825 0.09883775 -0.05227495 -0.00973652 0.049533583 0.071031414 0.055123787 0.02415855
0.038570985 0.05879556 -0.124076396 -0.16929154 0.02593886 -0.008921455 -0.05700346 -0.04984834
-0.06624514 -0.100894265 -0.12786548 -0.15655169 -0.2534596 -0.18303502 -0.49716145 -0.64385504
-0.47922838 -0.70008194 -0.60303754 -0.46731427 -0.48772106 -0.47558257 -0.41794723 -0.65301365
-0.67280656 -0.44156945 -0.6089828 -0.4716015 -0.40121883 -0.5015796 -0.31511536 -0.49013895
-0.52467823 -0.4641251 -0.5193217 -0.48469448 -0.45203355 -0.30259272 -0.28605127 -0.30548587
-0.12980726 -0.22665009 -0.17971116 -0.124397926 -0.010137622 -0.036898043 0.06588416 0.13181293
-0.088345714 0.031574335 -0.064177215 -0.0142539255 0.0027305007 0.009244354 0.039739538 0.23634425
0.109428085 0.1778821 0.138074 0.13518679 0.22542079 0.15107323 0.17790872 0.07339844
0.12710494 0.040129695 0.24120985 0.02133645 -0.13178356 -0.07410038 -0.2037129 -0.14145598
-0.0462043 0.0010422743 -0.12777492 -0.15964729 -0.15016827 -0.18034771 -0.2789119 -0.1407275
-0.09656571 -0.18899667 -0.08601937 0.041633677 0.12592888 0.06940001 0.25283697 0.10180562
0.163345 0.031892467 0.16550942 0.13632098 0.1937844 0.12717941 0.2770501 0.13395299
-0.11444981 -0.19689357 -0.10435081 -0.04608535 -0.06438494 -0.15662788 -0.02253554 0.08566217
00000000: 6f28 14be 2364 f4bd 574f bfbd 5b4a 41be
00000010: 75b4 d5bd 462e 26be c861 0dbe ba08 8cbe
00000020: 2f86 11be b621 6dbe 56bf edbd 2a36 59be
00000030: 1c7f 0cbe e021 edbd 5051 f1bd 6754 63be
00000040: d30d 14be db0b 46be 547e 54be 9767 c7bd
00000050: 96fb dcbd ccf6 07be ae06 25be 15ee fcbd
00000060: 60a9 06be 9ffb d0bd c76d 91bc 035e e3bd
00000070: 6ac8 303c bb1b cfbd 8e00 723b 8875 36be
00000080: 9e5e dfbd 6e72 4bbd 51fa 81bc f1d0 42be
00000090: 5207 69bd 3758 0ebe 3f7b 9ebd c892 49be
000000a0: 4deb 26bd fa53 2abb 8eef 3abe 37d2 81bd
000000b0: fb57 a6bd 4d7e 85bd f1cc 83bd 6e35 f0bd
000000c0: 5618 97be 88c9 8ebe 34b3 aebe 670b dabe
000000d0: 42e3 a3be aac9 b0be 061b 0dbd 4cb7 283c
000000e0: 00c3 e3bc b3bf 94bd ee12 eebd 8a56 cf3d
000000f0: 6d5c 913d 3d56 f03d 7a81 223e 79ec 84bd
00000100: c8ac 9f3d ca50 253d a0d6 adbd ff69 103e
00000110: 3322 0f3e f74c e73c 9c56 8b3d a430 ce3d
00000120: 734f 083d 680a 57bc 7a30 c4bc fef1 803d
00000130: b8f8 58bd ea87 343e d9e8 f43d 500b ee3d
00000140: 7cb6 84bb 2887 c1bd bbfb 08bc c097 55bd
00000150: b1bc acbd 0890 93bd ad7c e33c 52de aabd
00000160: 81f7 393c d796 123d 8653 25be 0330 94bd
00000170: 6a03 9cb9 4dca 02be 4956 c3bd 2de4 1abe
00000180: ea11 1ebe 48c7 5c3d be3f 64bd 3eaf 663c
00000190: 8a48 073e aba0 8b3d b611 d03c ae90 0abb
000001a0: e119 f1bd db54 2f3e d957 003e 8c5e 1a3e
000001b0: ef53 0a3d 9a30 a43d 24ce e73d b909 433b
000001c0: e2c6 4a3e a3da 343e cdbd 2cbb eff5 d43d
000001d0: a823 29bd bb7c f73d ee99 663d 08a2 133e
000001e0: 3d63 ebbc 0ed7 b7bd 7ad8 c03c ea81 6fbd
000001f0: 136d 68bd 3ec3 393d 7a53 ccbc 8b66 31bd
00000200: 583c 93bd a0ff 9ebd 74da f3bd 6be3 58bd
00000210: 26a0 c0bd 71bd 03be 3dcc 773d 8b4c dc3d
00000220: ee60 1e3e 55cc 813c 0c8c 283e 985f 623e
00000230: 0abc 0a3e 1983 093e f29a 123e d90f f73d
00000240: b000 2a3e 726b ca3d 421e 56bd ed85 1fbc
00000250: bae3 4a3d eb78 913d 7bc9 613d 27e8 c53c
00000260: 9cfc 1d3d 9dd3 703d c41b febd c35a 2dbe
00000270: bb7d d43c 4b2b 12bc 767c 69bd c62d 4cbd
00000280: 88ab 87bd a7a1 cebd 2bef 02be 164f 20be
00000290: 75c5 81be 886d 3bbe f28b febe afd3 24bf
000002a0: 6c5d f5be 9238 33bf ab60 1abf d143 efbe
000002b0: 93b6 f9be 8f7f f3be 2efd d5be e72b 27bf
000002c0: 0d3d 2cbf 6415 e2be 4ce6 1bbf c075 f1be
000002d0: 8e6c cdbe 8567 00bf cd56 a1be 7ef3 fabe
000002e0: 5051 06bf cea1 edbe 44f2 04bf e029 f8be
000002f0: f170 e7be 6fed 9abe 5075 92be a568 9cbe
00000300: 32ec 04be f616 68be 3406 38be 57c4 febd
00000310: 4518 26bc 6722 17bd 46ee 863d f8f9 063e
00000320: 99ee b4bd 1754 013d 586f 83bd 4c89 69bc
00000330: 33f2 323b a275 173c edc5 223d 3a04 723e
00000340: d51b e03d ba26 363e 4563 0d3e 686e 0a3e
00000350: b5d4 663e f1b2 1a3e b42d 363e ec51 963d
00000360: cc27 023e 095f 243d b7ff 763e c7c9 ae3c
00000370: 45f2 06be f1c1 97bd 1d9a 50be d6d9 10be
00000380: b840 3dbd ec9c 883a 6ed7 02be 947a 23be
00000390: b6c5 19be 12ad 38be 8acd 8ebe df1a 10be
000003a0: 3ec4 c5bd 5888 41be ec2a b0bd 1388 2a3d
000003b0: 80f3 003e 9821 8e3d d973 813e 777f d03d
000003c0: e943 273e ada1 023d 4d7b 293e ba97 0b3e
000003d0: 6b6f 463e 523b 023e 83d9 8d3e f92a 093e
000003e0: a964 eabd 789e 49be e1b5 d5bd fec3 3cbd
000003f0: 40dc 83bd 0f63 20be 749c b8bc a66f af3d

feature.0.bias f4 [256]
0.29634166 0.40215966 -0.07319186 0.17828557 -0.45929787 -0.21267287 0.23969899 0.29479498
0.7006887 0.4362284 -0.3443787 -0.07427454 0.44640744 0.23005997 -0.30666098 0.22339761
-0.13556693 0.40673184 0.09972673 -0.48199105 0.32952067 -0.09360975 -0.5341069 0.30868366
-0.7432678 -0.5264177 -0.28130087 0.21708876 -0.3767521 0.43483517 0.05885854 -0.816795
-0.167634 -0.343925 0.035642184 -0.64055866 -0.053316887 0.36742777 0.21465883 0.576965
0.17654625 -0.0048357253 0.08193221 0.09594648 -0.58803904 -0.13248268 -0.42260888 -0.28835618
0.4778049 0.27601352 -0.11921799 -0.18836528 -0.07363329 0.12085793 0.070183866 0.026556365
0.1671608 -0.30751723 0.06609921 0.08716728 -0.12623902 0.21261223 -0.76526535 0.2692902
0.58454025 0.31224474 -0.11313521 0.4638867 -0.32747087 -0.3987353 -0.2482586 0.21516284
0.2066039 -0.23738612 -0.2590416 -0.042873316 -0.005349477 -0.18692823 -0.053550243 0.4735318
0.6877451 0.11932422 0.3774889 -0.143175 0.448739 -0.27451935 0.063565366 0.24003358
0.0369953 0.44949737 0.7109142 -0.2755546 0.08246264 -0.10738917 0.6115873 0.33988383
0.18989494 0.71625996 0.18672997 -0.19388548 0.486386 0.23707035 -0.2935826 0.19857962
0.5833509 0.62391657 0.27535924 0.5070539 0.16454977 -0.06493963 -0.34272483 -0.23734722
-0.12257576 0.5978795 0.21553265 -0.24394298 -0.05004802 -0.4908951 0.53151834 -0.099324614
-0.37677568 -0.0686601 0.0761081 -0.43168512 0.38549504 0.14181691 0.66381985 -0.08588058
0.071819 0.5189073 0.22738168 0.018415876 0.2921467 -0.27600017 0.37127975 0.40156537
0.3648479 0.44171378 0.21935403 -0.2900458 0.6004312 -0.057426523 -0.68818 -0.39752352
0.39276534 0.66190356 0.08277611 0.028074484 0.31632867 -0.4498514 0.49545556 -0.6922434
0.49414784 -0.1615942 0.57250005 0.8139903 0.50488377 0.042912014 0.1538832 0.0842686
-0.062008034 0.38977233 0.279352 0.56800026 0.0012065392 -0.17320378 0.01488122 -0.13444975
0.43616915 -0.0867187 0.38674405 0.05730241 0.17263003 0.06874148 0.4367673 -0.529178
0.084942974 -0.24170968 -0.015614366 0.18969572 0.4749907 0.1511774 -0.34393886 -0.5041991
0.3891551 -0.34007147 -0.024986234 -0.46581608 0.12017585 0.2537824 0.67063373 0.073017076
-0.29994246 -0.14773837 0.46053985 -0.16927134 0.26258278 0.18871203 -0.15648237 -0.3107064
0.04880597 -0.40380025 -0.33586133 -0.12704487 0.3771119 -0.31379277 0.6597061 0.08113965
0.5795536 0.20416091 0.34938413 -0.38575223 0.1254584 0.17762066 -0.29498082 -0.2720953
0.48521513 -0.29859614 -0.18740888 0.13566536 0.578447 0.7032446 -0.2144801 0.39525822
-0.05884523 0.48618674 0.17894441 0.38230258 0.1779714 0.3937131 0.45736134 -0.19794816
0.02479363 0.07074978 -0.33922896 -0.20297804 -0.23110332 -0.30687457 0.028499933 -0.08663454
0.54480475 0.46162114 0.013594459 -0.32120377 0.09200251 0.024085931 -0.27078703 0.31719244
-0.5484723 0.58128464 0.53420156 -0.13834158 -0.10327623 0.5885394 0.37525088 -0.078070424
00000000: 18ba 973e dfe7 cd3e 9de5 95bd 7e90 363e
00000010: 1729 ebbe ebc6 59be a773 753e 5eef 963e
00000020: 5660 333f 5459 df3e 6852 b0be 401d 98bd
00000030: 848f e43e d794 6b3e ab02 9dbe 58c2 643e
00000040: 0fd2 0abe 283f d03e 873d cc3d 88c7 f6be
00000050: efb6 a83e 78b6 bfbd 3bbb 08bf c90b 9e3e
00000060: cc46 3ebf 4fc3 06bf ab06 90be 844c 5e3e
00000070: a7e5 c0be b7a2 de3e a715 713d 7a19 51bf
00000080: 3fa8 2bbe f016 b0be 8afd 113d a7fb 23bf
00000090: cf62 5abd 7e1f bc3e 86cf 5b3e fab3 133f
000000a0: 8ac8 343e 0175 9ebb 13cc a73d 977f c43d
000000b0: ba89 16bf 8aa9 07be 3160 d8be 6ca3 93be
000000c0: d8a2 f43e a551 8d3e 9028 f4bd d4e2 40be
000000d0: 0dcd 96bd 5d84 f73d 8fbc 8f3d bc8c d93c
000000e0: 332c 2b3e e672 9dbe 065f 873d c284 b23d
000000f0: cd44 01be 05b7 593e 6ee8 43bf 68e0 893e
00000100: 6ea4 153f 8bde 9f3e 6fb3 e7bd 8f82 ed3e
00000110: 43aa a7be 0927 ccbe 8137 7ebe a653 5c3e
00000120: f98f 533e 5915 73be 1aa1 84be ee9b 2fbd
00000130: aa4a afbb 1d6a 3fbe 8057 5bbd c372 f23e
00000140: 1010 303f 4260 f43d 3a46 c13e 789c 12be
00000150: 1ec1 e53e cd8d 8cbe 8f2e 823d 5dcb 753e
00000160: 6288 173d 8524 e63e 79fe 353f 7e15 8dbe
00000170: 2ce2 a83d daee dbbd fc90 1c3f 4105 ae3e
00000180: d273 423e d05c 373f 2436 3f3e ea89 46be
00000190: 9607 f93e 92c2 723e 7550 96be 7558 4b3e
000001a0: 7c56 153f ffb8 1f3f e3fb 8c3e 49ce 013f
000001b0: bc7f 283e 12ff 84bd a179 afbe 260b 73be
000001c0: 0009 fbbd a20e 193f 97b4 5c3e 30cc 79be
000001d0: 27ff 4cbd 9a56 fbbe 9611 083f b46a cbbd
000001e0: bee8 c0be ab9d 8cbd 90de 9b3d d505 ddbe
000001f0: 9b5f c53e 7438 113e 19f0 293f 28e2 afbd
00000200: d715 933d 1cd7 043f bed6 683e e4dc 963c
00000210: 4194 953e e54f 8dbe 6118 be3e fa99 cd3e
00000220: 58cd ba3e 4f28 e23e 589e 603e e280 94be
00000230: dcb5 193f 1338 6bbd 912c 30bf 3488 cbbe
00000240: 8a18 c93e 8372 293f 8586 a93d 76fc e53c
00000250: d5f5 a13e ec52 e6be 5aac fd3e dd36 31bf
00000260: f200 fd3e f378 25be 5d8f 123f ab61 503f
00000270: 1040 013f 82c4 2f3d 8f93 1d3e 0495 ac3d
00000280: 23fc 7dbd 3d90 c73e 3a07 8f3e 7768 113f
00000290: bd24 9e3a 555c 31be 5cd0 733c 32ad 09be
000002a0: 9051 df3e 9399 b1bd 5103 c63e efb5 6a3d
000002b0: edc5 303e 55c8 8c3d f79f df3e 3678 07bf
000002c0: 95f6 ad3d be82 77be 66d3 7fbc 983f 423e
000002d0: fb31 f33e 40ce 1a3e c118 b0be 3113 01bf
000002e0: 563f c73e d91d aebe eeaf ccbc 727f eebe
000002f0: c21e f63d c4ef 813e a7ae 2b3f fa89 953d
00000300: 0f92 99be ba48 17be e1cb eb3e 7755 2dbe
00000310: 4071 863e ba3d 413e ea3c 20be e914 9fbe
00000320: c5e8 473d e8be cebe 04f6 abbe 0d18 02be
00000330: d014 c13e 72a9 a0be 80e2 283f 8b2c a63d
00000340: a05d 143f 8f0f 513e 7ae2 b23e 5181 c5be
00000350: 2b78 003e 31e2 353e ba07 97be 1350 8bbe
00000360: 1e6e f83e 98e1 98be 1de8 3fbe dceb 0a3e
00000370: 1a15 143f d707 343f aca0 5bbe 495f ca3e
00000380: b207 71bd 78ed f83e 343d 373e 2abd c33e
00000390: 223e 363e c394 c93e 442b ea3e ecb2 4abe
000003a0: 031c cb3c 43e5 903d 6baf adbe 7ad9 4fbe
000003b0: 59a6 6cbe aa1e 9dbe b178 e93c 736d b1bd
000003c0: 5378 0b3f 9b59 ec3e 4bbb 5e3c d274 a4be
000003d0: d06b bc3d dc4f c53c 99a4 8abe 0c67 a23e
000003e0: ae68 0cbf 12cf 143f 6fc1 083f 6aa9 0dbe
000003f0: 7d82 d3bd 85aa 163f e220 c03e 63e3 9fbd

feature.2.weight f4 [256, 256]
0.008194413 -0.052314058 0.39033014 -0.36069208 0.039208304 -0.007328006 -0.09403077 -0.016658649
-0.14267083 -0.1065331 0.18894376 -0.15096173 0.025537616 -0.23815994 0.09479859 0.09586984
-0.10942907 -0.44668803 -0.18019433 0.20875925 -0.3838085 -0.043172553 0.08173079 -0.39291516
0.010540288 0.14700891 0.15363242 -0.014191171 -0.0906737 -0.4323731 -0.0443871 0.214839
0.07129444 0.41988298 0.2580562 0.0043866746 0.011285136 -0.23343107 -0.19325756 -0.16057734
0.12484946 -0.075165816 -0.025783723 -0.24144708 0.14604165 -0.11705617 -0.043647747 0.45587382
-0.54542947 -0.14630829 0.024400475 0.15296505 -0.21242686 0.06656746 -0.44327796 -0.35672435
-0.40454158 -0.14887528 -0.030098591 -0.05414579 -0.0039427713 -0.31858042 0.0737439 -0.16923507
-0.430573 -0.37658963 0.110382505 -0.23048611 -0.43096122 -0.044164363 0.3538996 -0.14845008
-0.38695621 -0.24564792 0.007863971 0.050091982 -0.094142795 0.009562347 -0.0021763945 -0.2446914
-0.023405652 -0.32923302 -0.19827999 0.1053967 0.13738108 0.25322577 -0.5082181 0.2588734
-0.05336583 -0.100787126 -0.18078405 -0.11262604 -0.27720678 0.15959884 -0.009731356 0.35984185
-0.32618496 -0.12789859 -0.1371246 0.17831954 -0.2158527 -0.10476717 0.10540071 -0.7848162
-0.9145766 -0.74680525 -0.22558428 -0.7173314 0.04454153 -0.103166185 0.031469468 0.02252686
-0.05243904 -0.054415822 -0.008312646 0.16298024 0.049493764 0.22850753 -0.035350565 0.012727505
0.2382002 0.18939765 -0.18169488 -0.10009788 -0.35582933 -0.015862048 -0.2576471 -0.07453226
0.4316732 -0.30025062 -0.4098705 -0.14301297 -0.1185466 0.009467119 -0.023954287 -0.101610005
-0.31078973 -0.38348562 -0.13529345 -0.033091158 -0.067280844 -0.444722 0.13342106 0.16966526
-0.48858383 -0.064385965 -0.6442204 0.08088213 -0.12831594 0.09980699 -0.17315735 0.49263078
0.24815308 0.3604632 -0.25139478 -0.25720176 -0.15714084 0.02062082 0.062964216 -0.10565367
-0.1897828 -0.121054545 -0.081833735 -0.8603647 -0.30115834 0.22699517 -0.37094387 -0.546495
-0.31018406 -0.32557055 0.058332346 -0.39599597 0.13526139 -0.62035006 -0.14967048 0.15601508
-0.16085617 0.33124366 -0.29173416 -0.03740334 -0.18549338 -0.07885509 0.12374134 0.23831837
-0.085869424 0.09168795 -0.12272693 0.549977 -0.06947194 -0.20476665 -0.24150246 0.13864906
0.31216973 -0.12007964 -0.06389885 0.26003495 -0.14423735 -0.42633283 0.016445622 0.14531788
-0.17836493 -0.044300854 -0.2334877 -0.14197564 -0.0035847663 0.05953188 -0.16133265 0.13761897
-0.40040028 -0.20533118 -0.3322944 -0.044809498 -0.52092594 -0.37093207 0.19748795 0.18100123
0.03748791 0.060578857 0.18485086 -0.24199152 -0.2012388 -0.066757634 -0.022370843 0.035572708
0.02008874 -0.1672204 -0.13365425 -0.35601667 -0.34689668 -0.022063807 -0.5692611 -0.029337116
-0.016403567 -0.19068298 -0.011431618 0.07850461 0.012883905 0.17227581 -0.5828732 -0.10155814
-0.12646505 -0.332901 -0.23171622 0.074515216 -0.4655082 -0.121387504 -0.21362954 -0.091600426
-0.04870525 -0.28645307 -0.37272778 -0.12788086 0.07112412 -0.21068513 -0.42424107 -0.01866191
00000000: dc41 063c 4447 56bd 5ad9 c73e a2ac b8be
00000010: e398 203d c51f f0bb 3493 c0bd b877 88bc
00000020: 4d18 12be 072e dabd 797a 413e b695 1abe
00000030: 4334 d13c 33e0 73be c325 c23d 6857 c43d
00000040: 591c e0bd 4bb4 e4be dd84 38be fcc4 553e
00000050: 8c82 c4be b4d5 30bd 7962 a73d 2d2c c9be
00000060: 2cb1 2c3c 8189 163e d151 1d3e 1682 68bc
00000070: 22b3 b9bd 0260 ddbe 3fcf 35bd c1fe 5b3e
00000080: d202 923d e7fa d63e f11f 843e 18be 8f3b
00000090: 4be5 383c 8e08 6fbe 4fe5 45be 636e 24be
000000a0: 13b1 ff3d 89f0 99bd 6338 d3bc e73d 77be
000000b0: f18b 153e 25bb efbd fbc7 32bd 4b68 e93e
000000c0: 44a1 0bbf d7d1 15be 81e3 c73c dfa2 1c3e
000000d0: 6d86 59be 8554 883d 54f5 e2be 93a4 b6be
000000e0: 1320 cfbe c372 18be 5291 f6bc fac7 5dbd
000000f0: 5d32 81bb f91c a3be 0b07 973d f54b 2dbe
00000100: 1074 dcbe 5bd0 c0be 3910 e23d 8d04 6cbe
00000110: f3a6 dcbe b1e5 34bd 5432 b53e 4c03 18be
00000120: 201f c6be 218b 7bbe e3d7 003c 402d 4d3d
00000130: f0cd c0bd 64ab 1c3c d7a1 0ebb 6290 7abe
00000140: 36bd bfbc 3b91 a8be e909 4bbe 3ada d73d
00000150: a0ad 0c3e cfa6 813e 951a 02bf 0e8b 843e
00000160: 2196 5abd 7b69 cebd 741f 39be 7ba8 e6bd
00000170: 0cee 8dbe e16d 233e 4470 1fbc 313d b83e
00000180: b701 a7be d9f7 02be 646a 0cbe 6699 363e
00000190: 7d08 5dbe 2c90 d6bd 54dc d73d b7e9 48bf
000001a0: b121 6abf a12e 3fbf 91ff 66be 08a3 37bf
000001b0: 2e71 363d cb48 d3bd 21e6 003d 408a b83c
000001c0: 52ca 56bd 20e3 5ebd c431 08bc 4be4 263e
000001d0: f9b9 4a3d e1fd 693e c1cb 10bd 0687 503c
000001e0: c1ea 733e 75f1 413e 390e 3abe 1e00 cdbd
000001f0: 432f b6be 20f1 81bc 52ea 83be 5fa4 98bd
00000200: 4504 dd3e 73ba 99be 8cda d1be fe71 12be
00000210: 8fc8 f2bd fa1b 1b3c c83b c4bc e818 d0bd
00000220: d51f 9fbe 3a58 c4be 5e8a 0abe 988a 07bd
00000230: 8aca 89bd 9ab2 e3be 889f 083e bbbc 2d3e
00000240: a927 fabe cadc 83bd a1eb 24bf 88a5 a53d
00000250: 4165 03be 9b67 cc3d 2950 31be 1a3a fc3e
00000260: d71b 7e3e a28e b83e d1b6 80be f3af 83be
00000270: 87e9 20be feec a83c 62f3 803d f460 d8bd
00000280: 6c56 42be 72eb f7bd 7298 a7bd dc40 5cbf
00000290: 6d31 9abe 6c71 683e 5bec bdbe 19e7 0bbf
000002a0: 72d0 9ebe 2fb1 a6be e6ed 6e3d fcbf cabe
000002b0: f681 0a3e 43cf 1ebf 3843 19be 6bc2 1f3e
000002c0: 7bb7 24be c598 a93e 2e5e 95be 3f34 19bd
000002d0: faf1 3dbe c77e a1bd 1a6c fd3d bb09 743e
000002e0: 4fdc afbd e4c6 bb3d 4258 fbbd 4bcb 0c3f
000002f0: 4e47 8ebd 59ae 51be 6c4c 77be 05fa 0d3e
00000300: b6d4 9f3e 50ec f5bd 66dd 82bd 4d23 853e
00000310: f5b2 13be 4c48 dabe f8b8 863c 36ce 143e
00000320: 4ca5 36be d074 35bd 6617 6fbe 1062 11be
00000330: 66ee 6abb b3d7 733d 6334 25be fdeb 0c3e
00000340: 4401 cdbe 5642 52be 7e22 aabe 2a8a 37bd
00000350: 675b 05bf cfea bdbe 483a 4a3e 6358 393e
00000360: ec8c 193d 8921 783d 8b49 3d3e a0cc 77be
00000370: 8b11 4ebe 3ab8 88bd 0f43 b7bc b0b4 113d
00000380: 2491 a43c d33b 2bbe a9dc 08be d147 b6be
00000390: 719c b1be 28bf b4bc 18bb 11bf 6454 f0bc
000003a0: c660 86bc 6642 43be ae4b 3bbc 06c7 a03d
000003b0: 0417 533c 1269 303e 2e37 15bf b7fd cfbd
000003c0: 0e80 01be 0072 aabe 0447 6dbe 6f9b 983d
000003d0: 1757 eebe 039a f8bd b4c1 5abe 0199 bbbd
000003e0: 287f 47bd faa9 92be 2dd6 bebe 33f3 02be
000003f0: 86a9 913d d8bd 57be 2036 d9be dde0 98bc

feature.2.bias f4 [256]
-0.29240468 0.04841754 -0.3772809 0.20288819 -0.3544785 0.38286448 -0.30931777 -0.122591764
-0.035508465 0.0065222033 -0.47077855 -0.30087548 -0.114020124 0.40162498 -0.23747934 0.41088828
0.027295003 -0.29307267 -0.03364448 0.10621836 0.22379412 0.121899515 0.005369769 0.6001306
0.6516006 -0.30805212 0.23085454 0.14469124 0.046319563 -0.15185943 0.19694395 -0.034432437
0.1853404 0.15403901 0.16360484 0.26035434 0.61226404 0.63140374 0.29354534 -0.10073206
0.31320462 -0.17571549 0.0133978585 0.6386835 0.11609747 -0.10544402 0.09405224 -0.018860176
0.48019367 0.041309386 0.10673784 -0.031408653 0.13663277 0.011086233 -0.13209267 0.54675335
0.040904325 0.1701737 0.582657 0.2581322 -0.18979004 0.27205494 -0.3189678 0.11403214
0.49065277 0.30662572 0.15499729 0.25873753 0.2905713 -0.23221356 0.48602957 0.13943127
-0.010133133 -0.11722528 0.49891946 0.40051052 0.3994287 0.58512807 0.10736698 0.60799015
-0.26802817 0.12210757 0.5373633 0.3286909 0.066162504 0.6769687 -0.211648 0.46024922
0.2460957 -0.14621231 0.22697319 -0.19030544 0.58533865 0.036090836 0.002767992 0.025296438
0.36414096 0.28111616 0.44439283 0.42387083 -0.13269463 0.49676067 -0.29680282 0.65606195
-0.00034447026 0.46097514 0.5388891 0.6104612 0.6371093 0.30788672 0.11415138 0.084890224
0.36997256 0.2499697 0.1268628 -0.30979022 0.13324544 0.61734194 0.44166395 0.38412306
0.03480969 0.39911896 0.34694284 0.06681501 0.05352198 0.0943905 -0.058397803 0.19194198
0.67664427 -0.15690123 -0.034665845 -0.011987808 0.03307345 -0.05018407 -0.25170687 0.041889377
0.5005275 0.55268496 0.04180258 -0.057701856 0.01825953 -0.08123901 -0.3042668 0.38462678
0.31260392 -0.09520083 0.29550847 0.21030705 -0.0110928975 0.04687365 -0.26463392 -0.016487068
0.6784073 0.6977179 -0.076158024 0.20910498 -0.072441444 0.5189836 0.12425866 0.27110133
0.59979093 0.026702702 0.16379872 0.053086642 0.561984 0.6716512 0.0076978765 0.092179224
-0.4353018 -0.15482448 -0.03665022 0.3477185 -0.02039448 0.017249161 0.33980694 -0.31906214
0.5914079 -0.18115762 0.44431064 0.1827532 0.425824 -0.25301504 0.0075145382 0.06990853
-0.05117422 0.1208571 -0.23145589 -0.0213243 0.59318435 0.043609574 -0.3620721 0.19432901
-0.45486557 0.09838008 0.27400059 0.07233562 0.010121112 -0.053680696 -0.27555662 0.118084885
-0.50632775 0.13033023 -0.071161374 0.37825677 -0.19451559 0.31702596 -0.09572269 -0.029121308
-0.20409775 -0.100446895 -0.19185358 -0.099034876 0.07301821 -0.1572905 0.32602748 0.74947375
0.25159252 0.17210437 -0.18715729 0.62420475 0.69460523 -0.32302988 -0.08714251 -0.16476367
0.27632985 0.56364954 -0.3444418 0.3635236 -0.0037860605 0.16185197 0.314135 -0.08410852
0.20527318 0.01891789 0.15684777 0.60759354 0.29234606 -0.050038427 -0.0136880465 -0.3217293
-0.19134724 -0.17584114 -0.27962324 0.0684441 0.18592118 0.55497116 0.14768213 0.09080034
0.3158256 0.16603042 0.3333899 0.09619184 -0.09206377 -0.023458458 -0.33090463 0.49868938
00000000: 11b6 95be 7851 463d f62a c1be ecc1 4f3e
00000010: 357e b5be d006 c43e e65e 9ebe 6411 fbbd
00000020: 5371 11bd 35b8 d53b e309 f1be 5a0c 9abe
00000030: 6283 e9bd caa1 cd3e c92d 73be f35f d23e
00000040: c599 df3c 9f0d 96be cbce 09bd 0389 d93d
00000050: 492a 653e 74a6 f93d e3f4 af3b 29a2 193f
00000060: 4ccf 263f 02b9 9dbe 2265 6c3e f129 143e
00000070: 95b9 3d3d 0a81 1bbe adab 493e 0709 0dbd
00000080: e0c9 3d3e 67bc 1d3e 0788 273e 2a4d 853e
00000090: 56bd 1c3f ada3 213f 934b 963e 9c4c cebd
000000a0: 5b5c a03e c3ee 33be b182 5b3c c380 233f
000000b0: 83c4 ed3d 09f3 d7bd 769e c03d a880 9abc
000000c0: f2db f53e 0834 293d 5e99 da3d 5ca6 00bd
000000d0: 76e9 0b3e 08a3 353c 4d43 07be 07f8 0b3f
000000e0: 4b8b 273d 0442 2e3e 0229 153f e729 843e
000000f0: 5258 42be c94a 8b3e bf4f a3be af89 e93d
00000100: d736 fb3e 0cfe 9c3e 9cb7 1e3e 3f79 843e
00000110: c3c5 943e 64c9 6dbe ded8 f83e 12c7 0e3e
00000120: 7105 26bc cf13 f0bd 5f72 ff3e b70f cd3e
00000130: eb81 cc3e f4ca 153f 38e3 db3d 3ea5 1b3f
00000140: fd3a 89be 8913 fa3d a490 093f 2c4a a83e
00000150: 3580 873d d24d 2d3f 41ba 58be c9a5 eb3e
00000160: 8300 7c3e aeb8 15be a96b 683e 6edf 42be
00000170: c1d8 153f fcd3 133d 3367 353b 7a3a cf3c
00000180: af70 ba3e 75ee 8f3e 7587 e33e 9905 d93e
00000190: 1ae1 07be 6a57 fe3e 8af6 97be adf3 273f
000001a0: 049a b4b9 ef04 ec3e a3f4 093f 2f47 1c3f
000001b0: 9819 233f 54a3 9d3e 33c8 e93d edda ad3d
000001c0: 0b6d bd3e 0ff8 7f3e 52e8 013e d39c 9ebe
000001d0: 7e71 083e 1f0a 1e3f c721 e23e c7ab c43e
000001e0: 9b94 0e3d 5259 cc3e 7ea2 b13e 4fd6 883d
000001f0: dd39 5b3d ce4f c13d 8932 6fbd 708c 443e
00000200: 8f38 2d3f b7aa 20be c6fd 0dbd 8368 44bc
00000210: 0778 073d d08d 4dbd b9df 80be 3294 2b3d
00000220: 9222 003f c37c 0d3f 2f39 2b3d c858 6cbd
00000230: 0395 953c a360 a6bd dcc8 9bbe cded c43e
00000240: 9f0d a03e a7f8 c2bd e34c 973e bb5a 573e
00000250: fcbe 35bc 96fe 3f3d 197e 87be e30f 87bc
00000260: 1aac 2d3f a49d 323f bdf8 9bbd 9e1f 563e
00000270: 2e5c 94bd 1cdc 043f 537b fe3d cbcd 8a3e
00000280: e68b 193f a0bf da3c daba 273e 6171 593d
00000290: 2fde 0f3f 55f1 2b3f 783e fc3b 76c8 bc3d
000002a0: e1df debe 4f8a 1ebe 8b1e 16bd 2908 b23e
000002b0: 5312 a7bc 1d4e 8d3c 2dfb ad3e 1d5c a3be
000002c0: 8266 173f 6281 39be af7c e33e a823 3b3e
000002d0: 9a05 da3e 308b 81be 843c f63b 342c 8f3d
000002e0: 0f9c 51bd ed83 f73d c602 6dbe 4cb0 aebc
000002f0: eeda 173f f49f 323d 8461 b9be 2ffe 463e
00000300: 24e4 e8be 7f7b c93d ce49 8c3e b324 943d
00000310: 05d3 253c 4ae0 5bbd c215 8dbe 7dd6 f13d
00000320: b29e 01bf 4a75 053e 0ebd 91bd dfaa c13e
00000330: 182f 47be 3a51 a23e 420a c4bd cf8f eebc
00000340: 00ff 50be 1ab7 cdbd 4475 44be ccd2 cabd
00000350: 928a 953d c310 21be 13ed a63e 83dd 3f3f
00000360: bcd0 803e 213c 303e 29a6 3fbe e2cb 1f3f
00000370: a6d1 313f 2c64 a5be c677 b2bd cfb7 28be
00000380: 1b7b 8d3e 564b 103f ad5a b0be c41f ba3e
00000390: 8e1f 78bb 86bc 253e 4dd6 a03e 1641 acbd
000003a0: 2233 523e b1f9 9a3c b49c 203e 408b 1b3f
000003b0: 62ae 953e 18f5 4cbd d443 60bc b4b9 a4be
000003c0: 88f0 43be b30f 34be c72a 8fbe 6c2c 8c3d
000003d0: 1f62 3e3e 9712 0e3f fc39 173e 87f5 b93d
000003e0: e5b3 a13e e103 2a3e 15b2 aa3e 3a00 c53d
000003f0: ee8b bcbd f42b c0bc 556c a9be 3754 ff3e

value_stream.0.weight f4 [256, 256]
-0.18324828 -0.0965399 0.054696348 -0.43659186 -0.3990209 -0.41431597 -0.19541177 -0.38485214
-0.22841255 -0.044570822 -0.25181893 -0.048523042 -0.21479031 -0.13005628 0.4219552 0.05085673
-0.5033824 0.14403728 -0.27127054 -0.044115055 0.33924764 0.040656123 -0.5607546 -0.009220877
0.048278827 -0.27852473 0.1438359 -0.38264173 0.11166516 -0.3834246 -0.017386388 -0.39561903
-0.4336109 -0.088052794 0.284337 0.0129871685 -0.12796335 0.003570586 -0.045582023 -0.4158393
-0.034223683 -0.2923657 -0.36451986 0.10788116 -0.2534683 -0.18583485 -0.18675451 0.15670049
0.04301276 -0.222829 -0.19152993 0.44898567 0.18101664 -0.20958905 -0.050824206 -0.013090801
-0.41496006 -0.20245196 0.056701522 0.3362699 -0.03069923 0.3441791 -0.29161325 0.27442095
-0.028282864 -0.061821386 0.2785554 -0.022250392 -0.07589815 -0.16265121 -0.10726873 0.08258255
0.1267434 -0.007984855 0.11821874 -0.08325474 -0.08256134 0.11600211 -0.066328764 0.061817024
-0.43879008 0.31611854 -0.083569534 -0.34435365 -0.055306826 0.15874557 0.28228617 -0.05487677
-0.22972785 -0.13508974 -0.104373544 -0.112388685 0.070743755 0.052296273 -0.2434579 0.34965232
0.18744606 -0.22448672 -0.013138196 -0.060825635 -0.30308166 0.08353415 -0.28086415 0.23986384
-0.6160633 0.13383889 -0.047044996 0.008758185 0.019175343 -0.26620167 -0.44388437 0.10762521
-0.0024228268 0.55698675 0.07900109 0.06167016 -0.0027591623 0.05197665 -0.11817399 0.099395685
0.19532995 -0.03587504 -0.045509655 0.057319626 -0.39538786 -0.21705908 0.027442683 0.34029192
-0.085694425 -0.36241752 -0.00657062 -0.31287518 0.09862979 -0.23302183 -0.043627534 0.071329944
0.006394678 0.15544155 -0.055445418 0.02917082 -0.19218247 -0.072915085 -0.1632866 -0.061902672
-0.07863608 -0.371842 0.27380633 -0.22056112 -0.14473078 0.5179842 -0.3170942 0.16253597
0.13467969 -0.05049389 0.14573176 -0.05049852 -0.27366456 0.19366895 -0.10740166 0.8173789
-0.11921142 -0.22942413 -0.26942778 0.16019033 0.10098367 0.056488745 -0.3521522 0.037202645
-0.46610802 -0.20916085 0.04485632 -0.221596 -0.1278917 -0.082712434 0.14355679 -0.3148854
0.14645246 -0.24175763 0.037066735 -0.3178831 0.060008183 -0.05855556 -0.11906289 0.03020091
-0.377001 0.0833453 -0.0039090826 0.22178733 0.056437533 -0.12183803 -0.19032735 0.13266428
0.13830222 -0.17502627 -0.16760407 -0.2730089 -0.25057846 -0.082438886 -0.14427537 0.00807212
-0.04718021 -0.21923402 0.08208475 0.041577533 -0.34805575 0.16097432 -0.07327032 -0.18001221
-0.28569967 -0.2650758 -0.020636834 0.29530388 -0.041966207 -0.11294724 -0.4170783 0.13196173
-0.1898525 0.07956745 -0.26729405 0.04400639 -0.054460358 0.13427937 -0.0026567366 -0.69499147
0.2313308 -0.02304662 -0.1482466 -0.5124261 0.10562426 -0.40376958 -0.19190843 -0.30226067
0.0644785 0.025374455 -0.08303257 -0.15713774 0.3395675 -0.0062004924 -0.23242728 -0.013935929
-0.15693834 0.20209871 -0.3187542 0.062452536 -0.03249484 0.13940048 0.15151742 -0.31565288
0.048911847 -0.2512123 -0.29508054 -0.39306226 0.18945262 -0.07908414 -0.19514008 0.047837835
00000000: 70a5 3bbe b6b6 c5bd 4709 603d f888 dfbe
00000010: 784c ccbe 3921 d4be 061a 48be 570b c5be
00000020: fbe4 69be e58f 36bd 69ee 80be 19c0 46bd
00000030: fef1 5bbe 792d 05be 830a d83e 264f 503d
00000040: abdd 00bf 827e 133e f9e3 8abe fdb1 34bd
00000050: deb1 ad3e 0987 263d 9d8d 0fbf 2913 17bc
00000060: 05c0 453d cb9a 8ebe b849 133e 9ee9 c3be
00000070: b4b0 e43d 3b50 c4be e66d 8ebc 948e cabe
00000080: 3f02 debe 0655 b4bd 9f94 913e 22c8 543c
00000090: d308 03be 7e00 6a3b 37b4 3abd e4e8 d4be
000000a0: 222e 0cbd f5b0 95be 59a2 babe ccf0 dc3d
000000b0: 99c6 81be 7e4b 3ebe 933c 3fbe 1876 203e
000000c0: 262e 303d 492d 64be 6c20 44be 73e1 e53e
000000d0: 6d5c 393e 839e 56be 0b2d 50bd cd7a 56bc
000000e0: a575 d4be 914f 4fbe db3f 683d 912b ac3e
000000f0: f47c fbbc 3e38 b03e 554e 95be e780 8c3e
00000100: 77b1 e7bc 6c38 7dbd d09e 8e3e 7446 b6bc
00000110: 7d70 9bbd 0a8e 26be b5af dbbd 0a21 a93d
00000120: 06c9 013e e9d2 02bc ab1c f23d 7681 aabd
00000130: eb15 a9bd 8492 ed3d 60d7 87bd d933 7d3d
00000140: 18a9 e0be 4ada a13e 8126 abbd 1f4f b0be
00000150: 6989 62bd 338e 223e d087 903e 77c6 60bd
00000160: c73d 6bbe f754 0abe ccc1 d5bd 0a2c e6bd
00000170: 1ae2 903d 9e34 563d 074d 79be a105 b33e
00000180: dcf1 3f3e d9df 65be 9741 57bc 4d24 79bd
00000190: 852d 9bbe f413 ab3d 6dcd 8fbe de9e 753e
000001a0: 53b6 1dbf 100d 093e 41b2 40bd 7e7e 0f3c
000001b0: 9c15 9d3c 964b 88be d044 e3be 9b6a dc3d
000001c0: 4ac8 1ebb af96 0e3f 53cb a13d da99 7c3d
000001d0: 10d3 34bb 78e5 543d 3405 f2bd f78f cb3d
000001e0: 9304 483e b5f1 12bd 5568 3abd fcc7 6a3d
000001f0: 4770 cabe bc44 5ebe 7acf e03c be3a ae3e
00000200: 8f80 afbd ca8e b9be 5b4e d7bb 2d31 a0be
00000210: 6afe c93d 469d 6ebe c9b2 32bd 6f15 923d
00000220: 728a d13b 122c 1f3e bc1a 63bd a5f7 ee3c
00000230: 7bcb 44be 8154 95bd 9a34 27be a88d 7dbd
00000240: f40b a1bd 1362 bebe 5830 8c3e c6da 61be
00000250: 4e34 14be 9d9a 043f 2c5a a2be d46f 263e
00000260: 79e9 093e aed2 4ebd b53a 153e 89d7 4ebd
00000270: c31d 8cbe 2751 463e 67f5 dbbd be3f 513f
00000280: 1e25 f4bd 29ee 6abe 70f2 89be ef08 243e
00000290: 87d0 ce3d be60 673d 4b4d b4be cd61 183d
000002a0: b6a5 eebe 432e 56be 43bb 373d 10ea 62be
000002b0: 0bf6 02be 2365 a9bd 8d00 133e a938 a1be
000002c0: a2f7 153e 508f 77be 4ad3 173d 93c1 a2be
000002d0: 24cb 753d f4d7 6fbd 3fd7 f3bd e667 f73c
000002e0: 4606 c1be f1b0 aa3d c317 80bb 381c 633e
000002f0: 0b2b 673d 3886 f9bd 2ce5 42be 25d9 073e
00000300: 199f 0d3e 163a 33be 67a0 2bbe d3c7 8bbe
00000310: d24b 80be b8d5 a8bd ecbc 13be ed40 043c
00000320: 0940 41bd e27e 60be 0d1c a83d 344d 2a3d
00000330: 5d34 b2be 74d6 243e c00e 96bd 1f55 38be
00000340: 3a47 92be 04b8 87be 940e a9bc 1232 973e
00000350: c2e4 2bbd e250 e7bd 498b d5be fa20 073e
00000360: b268 42be 42f4 a23d c4da 88be 0b40 343d
00000370: d311 5fbd 8880 093e a51c 2ebb f6ea 31bf
00000380: fbe1 6c3e 44cc bcbc f5cd 17be 5b2e 03bf
00000390: 8851 d83d e3ba cebe a583 44be e9c1 9abe
000003a0: 4e0d 843d 17de cf3c fb0c aabd b7e8 20be
000003b0: cbdb ad3e 802d cbbb 6b01 6ebe 8653 64bc
000003c0: 72b4 20be f7f2 4e3e c033 a3be 3bce 7f3d
000003d0: 4f19 05bd 00bf 0e3e 6227 1b3e 419d a1be
000003e0: ca57 483d e69e 80be cc14 97be 753f c9be
000003f0: deff 413e def6 a1bd cdd2 47be 9bf1 433d

value_stream.0.bias f4 [256]
-0.10851154 0.16947106 0.07211963 -0.2748006 -0.0952056 0.19089301 0.030788803 0.24335445
0.5079305 -0.002890182 0.36612952 -0.046326887 -0.26948908 0.49618882 0.00040893207 0.42556635
0.26292825 0.27024305 0.35503837 -0.03478983 0.26688808 0.32242453 0.15949762 0.28507602
0.24399333 0.47196886 0.1751203 0.34828475 -0.02439059 0.15104617 -0.017037684 0.032855436
0.06474316 0.38249967 0.10011655 0.050649155 -0.039679166 0.017664516 0.037338052 0.24662642
-0.013465171 0.47796965 0.08002659 0.39501107 0.07778245 0.18306682 0.13090032 0.035230406
0.33748478 -0.16848233 0.1338496 0.008815528 0.4185271 0.0022434012 0.31936318 0.29401422
0.3281554 0.021218602 0.31249487 0.5173321 0.3858381 0.15402646 0.39971462 0.37491676
0.270714 0.4569918 0.19488768 -0.054269914 0.4095618 0.13542105 0.3389032 -0.010496702
0.29647192 0.06772817 0.19186287 -0.10705388 0.22675829 0.016040698 0.2508604 -0.010535838
0.08610993 -0.0963988 -0.26145956 -0.045963895 0.07150011 -0.09015375 0.046781737 -0.011778977
0.062075183 -0.0069595245 -0.1909154 -0.30173966 0.2771564 0.45452565 0.022584377 0.55217487
0.15471439 0.28834414 0.22900625 -0.00414634 0.16651016 0.057322845 0.038118344 0.14264767
0.5990246 0.52229774 -0.11387441 -0.108161174 0.06801577 -0.090023555 0.41953665 0.022883138
0.12233674 0.34311858 0.5356163 -0.3739717 0.42416027 0.381438 -0.10183433 0.038018297
0.19428915 0.26817724 -0.18797392 0.09947873 0.25611413 0.11910833 0.3587878 0.018260533
0.43903932 0.28370774 0.5010304 0.016726911 0.008742525 0.2428214 0.19399473 0.19230832
0.364175 -0.00022381984 0.030685432 0.31260207 -0.06895481 0.0050675767 0.091214456 0.04196657
0.35981548 0.056079883 0.037496272 0.13445184 0.2156041 -0.24870771 0.4114946 0.23499256
0.13527367 0.14346687 0.28168908 -0.14017603 0.03617502 -0.011436757 0.05017044 0.21405339
0.47288615 0.3271667 0.2881248 -0.06252901 -0.00977345 -0.18053867 0.09552181 0.071109906
0.014783427 -0.22549108 0.12771879 0.40391725 0.27982497 0.022589084 0.28140086 0.26952818
0.43360883 0.19840795 0.27465314 0.044795696 -0.1348803 -0.012582615 0.19076331 0.41691858
0.41650632 0.53971446 0.012447573 0.43357658 0.44762108 0.05635003 0.08946815 -0.00032767522
0.5177115 0.045104995 -0.019563219 0.09394353 0.10357956 0.47163054 -0.11153669 0.13788255
-0.044419892 0.5195519 0.49533397 0.21129423 0.2550818 -0.34561375 0.22486573 0.47999072
0.2814768 0.22865269 0.05730387 0.27446356 0.10198213 0.21844593 -0.19894959 0.049748033
0.01435547 0.10192401 0.18474951 0.3239467 0.21962333 0.076516844 0.08101531 0.4663789
0.18704616 0.19440764 0.27584893 -0.052742813 0.41442755 0.4613624 0.42131737 0.2480244
-0.2991156 0.036573693 0.06840899 0.18680494 0.25247422 0.12608147 0.3048535 -0.084359124
0.042312212 0.41369873 -0.03303345 -0.021387937 0.52461946 -0.052960776 0.3071097 -0.0555745
0.18981758 0.19286638 -0.1898163 -0.096032985 0.03854666 0.21596803 -0.25071454 -0.22699
00000000: 4c3b debd d289 2d3e 75b3 933d aab2 8cbe
00000010: 27fb c2bd 7579 433e cd38 fc3c e931 793e
00000020: bc07 023f 3569 3dbb 5475 bb3e 43c1 3dbd
00000030: 79fa 89be 760c fe3e ef65 d639 d5e3 d93e
00000040: 889e 863e 4c5d 8a3e 97c7 b53e c87f 0ebd
00000050: 8ea5 883e d414 a53e 5853 233e 7cf5 913e
00000060: 63d9 793e e7a5 f13e bc52 333e 6152 b23e
00000070: c6ce c7bc d9ab 1a3e 9d92 8bbc 6c93 063d
00000080: 1098 843d ffd6 c33e e809 cd3d 7d75 4f3d
00000090: 9f86 22bd 2db5 903c c9ef 183d a38b 7c3e
000000a0: 059d 5cbc 70b8 f43e fbe4 a33d e43e ca3e
000000b0: 684c 9f3d de75 3b3e bc0a 063e c24d 103d
000000c0: ceca ac3e a286 2cbe df0f 093e 016f 103c
000000d0: 2f49 d63e 0706 133b 9283 a33e 0889 963e
000000e0: fc03 a83e a2d2 ad3c 54ff 9f3e e06f 043f
000000f0: 928c c53e 1db9 1d3e 65a7 cc3e 17f5 bf3e
00000100: 079b 8a3e d4fa e93e a390 473e 214a 5ebd
00000110: 16b2 d13e d1ab 0a3e b884 ad3e 5cfa 2bbc
00000120: 2bcb 973e 11b5 8a3d b377 443e 113f dbbd
00000130: 5333 683e c867 833c c670 803e 829e 2cbc
00000140: 675a b03d bc6c c5bd 07de 85be a344 3cbd
00000150: a66e 923d 87a2 b8bd 359e 3f3d 9cfc 40bc
00000160: 8c42 7e3d b90c e4bb 547f 43be 9f7d 9abe
00000170: 72e7 8d3e 96b7 e83e df02 b93c 555b 0d3f
00000180: 736d 1e3e d8a1 933e 9d80 6a3e 05de 87bb
00000190: a481 2a3e 5ccb 6a3d fb21 1c3d 3b12 123e
000001a0: ad59 193f 4eb5 053f fd36 e9bd 9b83 ddbd
000001b0: da4b 8b3d 455e b8bd 82cd d63e 6b75 bb3c
000001c0: af8b fa3d 3dad af3e 261e 093f 3879 bfbe
000001d0: 892b d93e d74b c33e 848e d0bd 13b9 1b3d
000001e0: bcf3 463e 874e 893e 3c7c 40be 81bb cb3d
000001f0: 6421 833e 11ef f33d 09b3 b73e 1d97 953c
00000200: c3c9 e03e 2442 913e 8743 003f e006 893c
00000210: cf3c 0f3c 2ca6 783e 8ea6 463e 79ec 443e
00000220: 2575 ba3e 2eb1 6ab9 0460 fb3c 610d a03e
00000230: 2e38 8dbd ea0d a63b a5ce ba3d 23e5 2b3d
00000240: bc39 b83e 05b4 653d b195 193d bead 093e
00000250: 52c7 5c3e 3cad 7ebe 6caf d23e e4a1 703e
00000260: 2e85 0a3e fbe8 123e 8d39 903e 4e8a 0fbe
00000270: 422c 143d 3c61 3bbc 857f 4d3d d030 5b3e
00000280: 221e f23e 6582 a73e 1885 933e 360f 80bd
00000290: d220 20bc 21df 38be f0a0 c33d 12a2 913d
000002a0: 3036 723c 22e7 66be b7c8 023e 3ece ce3e
000002b0: 3845 8f3e be0c b93c c613 903e 99ff 893e
000002c0: fa01 de3e 742b 4b3e 569f 8c3e b17b 373d
000002d0: 101e 0abe 5027 4ebc 7557 433e 5a76 d53e
000002e0: 5140 d53e ba2a 0a3f e8f0 4b3c c0fd dd3e
000002f0: 972e e53e 4acf 663d 143b b73d d3cb abb9
00000300: be88 043f 04c0 383d 0b43 a0bc 7765 c03d
00000310: 8521 d43d 8f79 f13e 596d e4bd 1531 0d3e
00000320: a2f1 35bd 5a01 053f 6a9c fd3e 845d 583e
00000330: 159a 823e 49f4 b0be 3443 663e 58c1 f53e
00000340: ba1d 903e ee23 6a3e 76b7 6a3d 7d86 8c3e
00000350: 02dc d03d 4ab0 5f3e 71b9 4bbe 98c4 4b3d
00000360: 3533 6b3c 89bd d03d fa2e 3d3e 58dc a53e
00000370: f0e4 603e ddb4 9c3d 5beb a53d 37c9 ee3e
00000380: 0789 3f3e cc12 473e 123c 8d3e d908 58bd
00000390: d92f d43e b137 ec3e e9b6 d73e 1cfa 7d3e
000003a0: ae25 99be 4cce 153d 031a 8c3d cb49 3f3e
000003b0: 4d44 813e 801b 013e c215 9c3e 7ac4 acbd
000003c0: 924f 2d3d 52d0 d33e 154e 07bd c135 afbc
000003d0: 764d 063f 66ed 58bd 7c3d 9d3e 16a2 63bd
000003e0: 8a5f 423e c47e 453e 345f 42be f1ac c4bd
000003f0: 1ae3 1d3d b926 5d3e a85d 80be 1170 68be

value_stream.2.weight f4 [1, 256]
-0.25722846 -1.4967037 -0.19514522 -0.21341665 -0.16471738 -0.352677 -0.24147128 -1.2275398
0.5552617 0.2459444 -0.36410895 0.19349137 -0.21863517 -1.7465283 -0.14972371 -0.44033825
0.37025818 -0.5249417 0.59835774 0.21648395 0.20125271 -0.6202075 -0.345982 -0.36886752
-0.94426435 -0.48420277 -0.3795058 -0.6131049 -0.20789158 -0.2773521 -0.10780333 0.08563645
0.82012856 0.16885825 -0.12469734 -0.20073818 -0.9090147 0.23617451 0.47600257 0.32487437
0.21812297 -1.5043784 -0.1295825 0.24550474 0.22787175 -0.38803977 -0.24383174 -0.120524
-0.65426815 -0.20667009 1.1380733 0.2797025 -0.72179884 -0.19263782 0.5750595 -0.2812423
-0.90158874 -0.06391814 0.30030465 0.21521324 0.35790497 -0.359979 0.35755506 -0.55500853
0.29820186 0.27087072 -0.18424056 -0.21636152 -0.8160488 0.2994112 1.0543464 -0.15664561
0.4030701 0.27225152 -0.24158673 -0.11668215 -0.15198165 0.2291521 0.25890025 0.22954583
-0.15162078 0.19859546 -0.18136232 -0.10966022 -0.16854273 -0.20785837 0.24440242 -0.21948716
0.24132496 -0.108360335 -0.1493363 -0.24146649 -0.23744729 0.4797114 0.24181081 -0.55085224
-0.29656336 0.46194237 0.28922346 -0.23228718 -0.56508815 -0.83080333 0.24531737 0.31703904
-0.58870906 -1.1810063 0.567496 -0.119714335 0.46290007 -0.14090197 0.31693125 0.20072496
0.3057696 0.57465154 0.51682884 -0.4394454 0.2788239 -0.3944409 0.85927004 0.22569665
-0.9666589 -0.37043142 -0.29053795 -0.1474492 -0.71255875 -0.24191365 0.30946934 -0.17440738
0.31288573 -0.3797869 -1.3455423 0.1928779 0.23124701 -0.5581789 0.28736398 -1.3177898
-1.8734733 0.20282753 -0.82674325 -0.41270423 -0.14914644 -0.1829364 0.51558566 -0.16959824
0.37959483 -0.17012346 -0.17701 0.84881365 -0.2995926 -0.18785596 -1.1710789 0.2806597
0.38604048 -1.3431482 0.51975036 -1.0196477 0.28371403 -0.15826343 0.35414627 -0.48328948
0.3082794 0.3950238 -0.845913 0.19454937 -0.13589321 -0.21551573 -0.23457092 0.3916735
0.2108626 -0.2174415 -0.33400434 -0.76123273 -0.3131998 -0.10851924 -0.36819324 -0.7281048
0.28650275 0.11165916 -0.3973375 -0.18121591 -0.1446372 -0.15396659 0.14293572 0.34898415
-0.41772246 -0.4020454 -0.19154267 0.4341381 -0.56221956 -0.1506299 0.27558577 -0.1628143
0.36928642 -0.5558209 -0.09739135 -0.18716666 0.21203296 0.5189387 -0.13576983 -0.2162364
-0.24280103 0.52254343 0.6139515 -0.3175313 0.44049066 -0.20538647 -0.5590684 -1.098798
-0.26860172 0.13828443 0.5871386 0.56983244 0.2871832 -0.6865645 -0.1757477 0.2662918
-0.08763515 -0.6542089 -0.3650855 -0.3321021 -0.2562798 0.2324901 -0.15599656 0.29411224
-0.18514487 -0.31468058 0.47707108 0.25857192 -0.53923905 0.17292352 0.28184628 -0.4091481
-0.18910854 -0.16844077 0.25279602 -0.34520602 0.22223185 -0.14578228 0.4686624 -0.14773959
-0.1545327 0.17933226 -0.1290404 -1.0517243 0.5437005 0.1937285 -0.9982364 0.25250095
0.41115472 0.2775036 -0.18678737 -0.31392562 -0.14598076 -0.7920762 -0.21014014 -0.20564766
00000000: 73b3 83be fd93 bfbf 26d4 47be e589 5abe
00000010: acab 28be 1492 b4be 3f44 77be 0620 9dbf
00000020: a125 0e3f d9d8 7b3e 7d6c babe 9a22 463e
00000030: e6e1 5fbe 3d8e dfbf 2c51 19be 0474 e1be
00000040: 7b92 bd3e 9462 06bf f92d 193f f8ad 5d3e
00000050: 3115 4e3e ebc5 1ebf 8d24 b1be 34dc bcbe
00000060: 4fbb 71bf 6de9 f7be 964e c2be 71f4 1cbf
00000070: 88e1 54be 1801 8ebe fec7 dcbd 2a62 af3d
00000080: f2f3 513f 2de9 2c3e 5261 ffbd 4f8e 4dbe
00000090: 30b5 68bf bbd7 713e 9cb6 f33e ef55 a63e
000000a0: a15b 5f3e 798f c0bf 46b1 04be 9865 7b3e
000000b0: 3657 693e 26ad c6be 07af 79be 49d5 f6bd
000000c0: 1e7e 27bf 53a1 53be 63ac 913f 2b35 8f3e
000000d0: cfc7 38bf d942 45be 1937 133f fefe 8fbe
000000e0: 85ce 66bf 84e7 82bd 88c1 993e dc60 5c3e
000000f0: 523f b73e 2b4f b8be 7511 b73e 0a15 0ebf
00000100: eaad 983e 91af 8a3e 8fa9 3cbe e08d 5dbe
00000110: 93e8 50bf 6d4c 993e d3f4 863f b567 20be
00000120: 345f ce3e 8d64 8b3e 8362 77be 0df7 eebd
00000130: 14a1 1bbe d9a6 6a3e 938e 843e 100e 6b3e
00000140: 7a42 1bbe 9c5c 4b3e 0bb7 39be 8a95 e0bd
00000150: 7796 2cbe d3d8 54be a144 7a3e 3ec1 60be
00000160: e41d 773e 06ec ddbd 9deb 18be fe42 77be
00000170: 6225 73be bc9c f53e 419d 773e a704 0dbf
00000180: 27d7 97be b683 ec3e 1915 943e b1dc 6dbe
00000190: 9ea9 10bf 87af 54bf 7a34 7b3e f152 a23e
000001a0: a3b5 16bf 372b 97bf 6b47 113f ca2c f5bd
000001b0: 3d01 ed3e 9b48 10be d044 a23e d88a 4d3e
000001c0: d58d 9c3e 5d1c 133f e54e 043f fdfe e0be
000001d0: 02c2 8e3e 28f4 c9be 1ff9 5b3f 061d 673e
000001e0: f576 77bf 30a9 bdbe 64c1 94be ecfc 16be
000001f0: 406a 36bf 36b8 77be c472 9e3e d997 32be
00000200: 8f32 a03e 6e73 c2be bb3a acbf c981 453e
00000210: 04cc 6c3e d0e4 0ebf 5f21 933e 56ad a8bf
00000220: f9cd efbf 05b2 4f3e 72a5 53bf f84d d3be
00000230: d8b9 18be ae53 3bbe 6cfd 033f 29ab 2dbe
00000240: 415a c23e d834 2ebe 1c42 35be da4b 593f
00000250: 3464 99be 505d 40be eae5 95bf a1b2 8f3e
00000260: 19a7 c53e 48ec abbf 5c0e 053f d183 82bf
00000270: f742 913e cf0f 22be a952 b53e b871 f7be
00000280: ccd6 9d3e 8f40 ca3e c18d 58bf f337 473e
00000290: 9727 0bbe 28b0 5cbe 5c33 70be 6e89 c83e
000002a0: 5eec 573e fca8 5ebe 9e02 abbe 26e0 42bf
000002b0: b95b a0be 563f debd d383 bcbe 1465 3abf
000002c0: 7db0 923e 8fad e43d d26f cbbe aa90 39be
000002d0: c61b 14be 6ba9 1dbe be5d 123e 0dae b23e
000002e0: b8df d5be e5d8 cdbe c323 44be 5947 de3e
000002f0: 9fed 0fbf b93e 1abe 9419 8d3e cbb8 26be
00000300: 1c13 bd3e 474a 0ebf 1e75 c7bd 9ea8 3fbe
00000310: 2b1f 593e 2bd9 043f 3f07 0bbe 136d 5dbe
00000320: d5a0 78be 68c5 053f ed2b 1d3f 7693 a2be
00000330: fe87 e13e d550 52be 1b1f 0fbf 6aa5 8cbf
00000340: 2a86 89be 6f9a 0d3e b74e 163f 8ae0 113f
00000350: ad09 933e b1c2 2fbf 34f7 33be 6657 883e
00000360: 0f7a b3bd 3c7a 27bf 7dec babe 4909 aabe
00000370: 1b37 83be e311 6e3e 90bd 1fbe e195 963e
00000380: 9e96 3dbe d01d a1be a942 f43e 8a63 843e
00000390: 920b 0abf dd12 313e 284e 903e dc7b d1be
000003a0: aba5 41be bd7b 2cbe 7b6e 813e d8be b0be
000003b0: bf90 633e f347 15be 85f4 ef3e 0c49 17be
000003c0: d23d 1ebe e0a2 373e 2b23 04be e79e 86bf
000003d0: f52f 0b3f c460 463e 6c8c 7fbf ce47 813e
000003e0: df82 d23e f414 8e3e 3045 3fbe dcba a0be
000003f0: fb7b 15be 81c5 4abf fa2e 57be 4d95 52be

advantage_stream.0.weight f4 [256, 256]
0.080137506 -0.50457066 -0.24807923 0.13726634 0.16879272 -0.43572825 0.058743514 0.08746934
-0.18259512 0.19326967 0.16474271 0.2502719 0.41849986 0.12462485 0.2644457 -0.49945927
-0.04424614 -0.12899897 -0.25041735 -0.24558619 -0.11625888 -0.4211462 -0.43029913 0.14353369
-0.16332929 0.0679225 -0.36488095 0.00053920585 0.1706892 -0.0025184988 -0.5965707 -0.570013
-0.007875023 0.022501461 -0.14148293 -0.5985702 -0.37962374 0.041839603 -0.5547568 0.120509185
0.4803806 0.049351204 0.12562507 -0.3037406 -0.37579715 -0.2371072 -0.5038818 -0.06696138
-0.30098817 -0.2047056 -0.074933924 0.5690126 0.22127248 0.096487865 -0.40863645 -0.30582252
0.1649129 0.058960233 -0.10345047 -0.14768825 -0.5121534 -0.104034334 0.32779598 0.03512629
0.14806774 0.059627865 0.34836236 0.31701756 -0.15501514 0.053626675 -0.047590986 0.20387563
-0.19096813 -0.105856284 -0.28427446 -0.12706836 -0.3314316 -0.15636693 -0.55096036 -0.38899532
-0.06233642 -0.102547415 -0.26096323 -0.9227074 -0.28684273 -0.32012945 0.17290266 -0.43570402
0.07451538 -0.26826313 0.7016481 -0.19962884 0.04378052 -0.14585264 0.049676187 -0.23565906
0.06815865 -0.38080904 -0.4875406 -0.14649354 0.011840596 -0.10316581 0.14856288 -0.21966535
-0.4311629 -0.179039 -0.20440668 -0.36657563 -0.21954395 0.11918423 0.16512613 0.069459215
-0.27210236 -0.54834515 0.12019976 0.15032125 -0.48218495 0.00045425683 0.23167683 -0.6419226
0.03155146 -0.23809437 -0.25372624 0.21216872 0.05458427 0.16669235 -0.23931174 0.24377048
-0.294912 0.10587086 -0.50151426 0.01623405 -0.2694068 0.036644354 -0.3967314 0.27954835
-0.29227948 -0.41906586 -0.4724972 -0.18968347 0.03576386 -0.4741446 0.012248393 -0.33323908
-0.40660107 0.063519776 0.07565549 -0.15572162 -0.663513 -0.8990723 0.15862416 -0.079965755
0.086340204 -0.03795167 0.109185934 -0.28055826 -0.15326494 -0.01590617 -0.4914804 0.34615165
-0.36636207 0.009184283 -0.090771236 -0.21649003 -0.27653357 -0.03876023 0.071099766 0.063505806
0.16181017 -0.23881905 -0.12115061 -0.06782937 -0.28245735 -0.3943834 0.2964337 0.07665769
-0.23488134 -0.01741378 -0.37193352 0.06818437 -0.36527544 0.04884153 -0.0777504 -0.37725022
0.05553169 0.1228853 -0.057970494 -0.011980713 0.114813864 -0.25919107 0.23467627 -0.020019492
0.2510136 -0.22124086 -0.15112017 0.09028529 0.13187373 0.4243733 0.082927205 0.34327704
0.013012836 0.014671777 0.111287445 -0.13914074 0.08188494 0.26396322 -0.34861755 -0.22503099
0.024239382 0.101629525 -0.49680042 0.3160569 -0.16031241 0.051163908 0.061121374 0.11770896
0.0063404725 -0.39224702 0.026949346 0.19606748 -0.2443186 0.14339368 -0.23770267 -0.33073628
-0.59484726 -0.15296243 -0.015632547 -0.7977536 -0.42778537 0.11320247 -0.098251976 0.008009986
-0.02006402 -0.089236766 -0.04947108 -0.526225 0.31363595 -0.30331042 0.027290301 -0.3837645
-0.101991884 0.12660663 0.18409589 -0.13021538 0.0897468 -0.17774098 0.23209314 0.09857328
-0.11771264 0.017021822 0.033535667 0.0474803 0.028840935 -0.4708562 0.035880897 -0.26148045
00000000: 221f a43d 8b2b 01bf 7b08 7ebe 8c8f 0c3e
00000010: 00d8 2c3e c617 dfbe 0a9d 703d 2023 b33d
00000020: 37fa 3abe 7ce8 453e 50b2 283e a323 803e
00000030: 9d45 d63e 503b ff3d 6d65 873e 20b9 ffbe
00000040: 713b 35bd 4e18 04be b436 80be f27a 7bbe
00000050: 2319 eebd 7aa0 d7be 2b50 dcbe 7ffa 123e
00000060: cb3f 27be f41a 8b3d add1 babe 7e59 0d3a
00000070: 26c9 2e3e 660d 25bb dbb8 18bf 5fec 11bf
00000080: 3e06 01bc fc54 b83c e7e0 10be e63b 19bf
00000090: 0b5e c2be 0160 2b3d 8b04 0ebf 85cd f63d
000000a0: 72f4 f53e 7d24 4a3d dca3 003e e383 9bbe
000000b0: 7c68 c0be 3bcc 72be 66fe 00bf 0c23 89bd
000000c0: 1f1b 9abe 589e 51be f576 99bd cfaa 113f
000000d0: 4195 623e 6e9b c53d cc38 d1be c594 9cbe
000000e0: edde 283e 4980 713d d7dd d3bd 973b 17be
000000f0: 7c1c 03bf f40f d5bd e0d4 a73e 96e0 0f3d
00000100: 129f 173e 593c 743d 8d5c b23e 2050 a23e
00000110: 4abc 1ebe a5a7 5b3d c4ee 42bd c6c4 503e
00000120: 268d 43be 2ecb d8bd 6c8c 91be 351e 02be
00000130: 67b1 a9be a71e 20be bd0b 0dbf 652a c7be
00000140: 7954 7fbd 6104 d2bd f99c 85be 8d36 6cbf
00000150: 0ddd 92be 02e8 a3be 650d 313e 9914 dfbe
00000160: 859b 983d c959 89be 369f 333f 816b 4cbe
00000170: 3453 333d 655a 15be 4279 4b3d 9c50 71be
00000180: c396 8b3d 67f9 c2be ec9e f9be 6702 16be
00000190: 0fff 413c 9948 d3bd de20 183e f4ef 60be
000001a0: 62c1 dcbe 0056 37be fc4f 51be cdaf bbbe
000001b0: 21d0 60be dd16 f43d d316 293e a240 8e3d
000001c0: 0051 8bbe 5960 0cbf 4b2b f63d d0ed 193e
000001d0: f2e0 f6be 5229 ee39 b13c 6d3e 0a55 24bf
000001e0: 1b3c 013d 03cf 73be 68e8 81be c242 593e
000001f0: c193 5f3d 66b1 2a3e 230e 75be f89e 793e
00000200: b5fe 96be d2d2 d83d 3d63 00bf 45fd 843c
00000210: b0ef 89be 6418 163d 6120 cbbe f620 8f3e
00000220: a8a5 95be cd8f d6be 27eb f1be 623c 42be
00000230: 207d 123d 15c3 f2be 7cad 483c 509e aabe
00000240: 042e d0be a816 823d 44f1 9a3d 7d75 1fbe
00000250: fddb 29bf 9a29 66bf 5f6e 223e 16c5 a3bd
00000260: 22d3 b03d 3673 1bbd e09c df3d 55a5 8fbe
00000270: 7cf1 1cbe a84d 82bc 52a3 fbbe ca3a b13e
00000280: cf93 bbbe ad79 163c 45e6 b9bd 90af 5dbe
00000290: cf95 8dbe 0cc3 1ebd c19c 913d 550f 823d
000002a0: 91b1 253e fb8c 74be d01d f8bd 20ea 8abd
000002b0: 409e 90be 9fec c9be 28c6 973e b5fe 9c3d
000002c0: bc84 70be 58a7 8ebc 126e bebe 3fa4 8b3d
000002d0: 6205 bbbe 0e0e 483d 9a3b 9fbd f126 c1be
000002e0: 3375 633d 4aab fb3d 7872 6dbd c14a 44bc
000002f0: 8823 eb3d b1b4 84be fa4e 703e ebff a3bc
00000300: db84 803e f78c 62be 3fbf 1abe 7ee7 b83d
00000310: e809 073e 7547 d93e bdd5 a93d 02c2 af3e
00000320: ca33 553c e561 703c acea e33d e97a 0ebe
00000330: 4bb3 a73d 3026 873e 007e b2be 866e 66be
00000340: ab91 c63c 2423 d03d a05c febe 36d2 a13e
00000350: f028 24be 3f91 513d 685a 7a3d 6511 f13d
00000360: bdc3 cf3b 9ad4 c8be e0c4 dc3c eac5 483e
00000370: a82e 7abe cbd5 123e 5468 73be 4456 a9be
00000380: e947 18bf 2fa2 1cbe d40f 80bc 9439 4cbf
00000390: af06 dbbe b2d6 e73d 5538 c9bd 513c 033c
000003a0: 4d5d a4bc c4c1 b6bd 30a2 4abd aeb6 06bf
000003b0: e494 a03e 814b 9bbe e98f df3c c87c c4be
000003c0: 1fe1 d0bd 2ba5 013e a283 3c3e 2e57 05be
000003d0: 2ccd b73d bb01 36be d3a9 6d3e cae0 c93d
000003e0: 5313 f1bd 5971 8b3c b25c 093d b47a 423d
000003f0: d343 ec3c 1014 f1be d9f7 123d c4e0 85be
