active_slam_rl/training_output_frontier/20260124_140852_frontier/d3qn_frontier_ep360.pth (torch, 901938 bytes, 11 tensors)

feature.0.weight f4 [256, 100]
000000 ea c2 c4 bc 57 5d a3 39 dc 1d 73 bd e9 d1 e0 bd
       -0.024018724 0.00031159326 -0.059354648 -0.10977537
000010 d1 1a 9a bc 56 84 72 bd 91 b9 35 bc 4d 66 18 be
       -0.018811615 -0.059208237 -0.011091606 -0.14882775
000020 56 c5 4f bd 7a bf 15 be 2f 96 26 bb fb cd f5 bd
       -0.050725304 -0.14623824 -0.0025419106 -0.12002178
000030 66 95 87 bd dd c4 c5 bc f8 f3 40 3d 7f a7 01 be
       -0.06620292 -0.024141723 0.047107667 -0.12661551
000040 28 c9 4b bd c7 ee 4b be 14 ba e5 bd c0 00 d6 bc
       -0.049752384 -0.19915305 -0.11217132 -0.026123405
000050 67 f8 0c bb de 2c 78 bc 1c 96 47 bd cc 69 ed bc
       -0.0021510364 -0.015147416 -0.04872714 -0.028981112
000060 65 ac 5e bd d4 0b 0f 3a 13 8a 17 bc 24 5e 85 bd
       -0.054363627 0.00054567796 -0.009249228 -0.065120965
000070 eb f2 3c 3d 97 15 69 bd 34 c8 b1 3d 56 a0 87 bd
       0.046130102 -0.056905355 0.08680764 -0.066223785
000080 bc 63 08 bd cc 10 56 3d 9b 45 6c 3d 42 d8 06 be
       -0.03329824 0.052262112 0.05768357 -0.13168433
000090 e5 d6 2c bd 7a 76 ca bd af 9b 2f bc 15 7c 37 be
       -0.042197127 -0.09885879 -0.01071827 -0.17918427
0000a0 c4 92 69 bd ce 82 6c 3c 15 89 30 be 07 4e 0c bd
       -0.057024732 0.014435483 -0.17239793 -0.0342541
0000b0 e7 d2 d9 bd 32 3d c4 bd 95 ba 10 bc 06 38 ad bd
       -0.106359296 -0.095819846 -0.008833547 -0.08457951
0000c0 68 99 88 be 76 0d 94 be 5d e3 a6 be c4 8e a8 be
       -0.2667954 -0.2891652 -0.3259534 -0.32921422
0000d0 f9 9a 62 be 0e 72 7d be 71 26 2f be a4 c2 14 be
       -0.2212943 -0.2475054 -0.17104508 -0.14527375
0000e0 9b 7d 75 3c 29 2b 3e be b3 1b 48 be 49 c5 91 bd
       0.01498356 -0.18571152 -0.19541816 -0.07117707
0000f0 e1 ce 2b bd 77 2f 63 bb 69 94 09 3d b2 ff 05 be
       -0.041945342 -0.0034665742 0.0335888 -0.13085821
000100 1d 0a 9d 3d 6c 77 aa 3d cd ca 77 bd 77 1d d7 3d
       0.076679446 0.08323559 -0.06049614 0.10503667
000110 d8 3d eb 3d 60 9e 97 3c d2 7c 52 3d e6 1d 2d 3d
       0.11486405 0.018508136 0.05138857 0.04226484
000120 29 1d fb bb f8 93 4b bd 90 9a 9f bc c9 29 55 3d
       -0.0076633883 -0.04970166 -0.01948288 0.052041803
000130 0f 10 29 bd 05 10 2c 3e ab 41 9b 3d 28 b1 ca 3d
       -0.04127508 0.16802986 0.075808845 0.09897071
000140 0e 52 26 3d 69 ec 7e bd 3f 25 f8 bb c2 77 16 bd
       0.040605597 -0.062237177 -0.0075727995 -0.036735304
000150 a8 3e 4c bd ba 9a 69 bd 9c a6 a1 3d ea ad 1e bd
       -0.04986444 -0.057032324 0.07893106 -0.038740076
000160 c5 07 d1 3b fc b9 e1 3c 21 79 2b be dd 41 84 bd
       0.0063791 0.027554505 -0.16745426 -0.06457875
000170 9f c3 c4 3b e4 c5 ee bd 38 b9 b2 bd 29 72 a8 bd
       0.006004765 -0.116588384 -0.08726734 -0.08224899
000180 b3 ea 1c be f2 d7 96 3d 29 79 46 bd fb e1 56 3c
       -0.15323906 0.07365407 -0.04845539 0.013115401
000190 55 05 dc 3d 55 9f 8c 3d 4a c5 8d 3b 8b bb 88 bb
       0.107432045 0.06866328 0.004326497 -0.0041727475
0001a0 96 49 be bd 6a e0 98 3d 4f 66 80 3c de c1 de 3d
       -0.09291379 0.074646786 0.015673785 0.10876821
0001b0 94 14 08 bd 11 99 00 3d 44 fe 97 3d e3 7d 1d bd
       -0.03322275 0.031395976 0.07421544 -0.038450133
0001c0 ea e8 32 3e 03 25 25 3e b6 fb 2a 3c 02 af b7 3d
       0.17471662 0.161274 0.010435989 0.08968927
0001d0 da 4b 4f bd 29 13 f5 3c ca 4a 6a 3c d1 d1 98 3d
       -0.050609447 0.029916363 0.014300058 0.07461894
0001e0 f3 0e c2 bc ab 1f fa bd 55 b7 ad bd 70 54 c1 bd
       -0.023688769 -0.122130714 -0.084822334 -0.09439933
0001f0 61 bb a1 bd cc 0a 56 bc a2 9c 3c bd 67 57 8f bd
       -0.07897068 -0.013064098 -0.046047814 -0.069990925
000200 f1 4b 94 bd 8c c0 2d bc 2b 16 e4 bd ae 7a 38 bd
       -0.07241047 -0.010604989 -0.11137041 -0.04503887
000210 f2 b7 50 bd cd 8a bc bd 72 d0 a9 3d 88 6d f7 3d
       -0.050956674 -0.09206162 0.08291711 0.12081438
000220 45 c3 28 3e 18 d4 5c 3d 71 53 4b 3e b4 c0 1f 3e
       0.1648074 0.053913206 0.19856049 0.15600854
000230 fa 5c 14 3e 7e 56 0e 3e bf 1a 1e 3e 20 51 15 3e
       0.14488593 0.13900182 0.1543989 0.14581728
000240 f5 97 11 3e 33 fa 34 3d 43 7f c6 3b f3 69 7b bb
       0.14218123 0.04418392 0.0060576512 -0.0038362711
000250 53 78 75 3d 52 e0 f0 3d 0e 80 10 3e 0a 2f 01 3e
       0.059929203 0.11761536 0.14111349 0.126156
000260 b3 c6 78 3d 30 1d 75 bd 2f d6 82 bd 86 60 ed 3c
       0.06073637 -0.05984229 -0.063885085 0.02897669
000270 67 c4 77 3e f0 ce b7 3d 4f 1a 99 bc 41 67 4a bd
       0.24196015 0.08975017 -0.018689303 -0.049414877
000280 62 ec af 3c 22 a4 5e 3c 31 ac af 3d bd f6 ef 3c
       0.02147502 0.013588937 0.08577765 0.029292459
000290 83 60 62 bd 44 d1 a0 bd 01 86 ad bd 4c 21 a5 be
       -0.055267822 -0.07852414 -0.08472825 -0.32251966
0002a0 db 74 57 be 2b 51 e1 be 84 d6 b1 be a5 7d 5b be
       -0.2104067 -0.4400724 -0.34733975 -0.21434648
0002b0 00 da 85 be 9d 4d 54 be 31 2f 20 be fe 4a d4 be
       -0.26142883 -0.20732732 -0.15643002 -0.41463464
0002c0 72 b8 d4 be 8f 2d 38 be 86 f5 93 be a0 0b 58 be
       -0.4154697 -0.17986129 -0.28898257 -0.21098185
0002d0 6e b5 40 be fd 76 a0 be ad 07 e7 bd 33 02 81 be
       -0.1881921 -0.3134078 -0.11280761 -0.2519699
0002e0 c4 7b 5e be ce 46 58 be 9e b7 88 be b1 1d 48 be
       -0.217269 -0.2112076 -0.2670259 -0.19542576
0002f0 80 5c 36 be 94 cd 4f bd ea cd a8 bd a4 46 bd bd
       -0.17808723 -0.050733164 -0.082424 -0.09241989
000300 31 8f 36 bb bd 27 d9 bc b7 2c f5 bd a4 7b 73 bd
       -0.0027856345 -0.026508207 -0.11971419 -0.059444085
000310 33 c4 a2 3d 1b e9 e3 bc 31 eb 1e 3d 1b 7a 14 3e
       0.07947578 -0.027821114 0.038798515 0.14499705
000320 45 b2 a4 bd 98 eb d4 3c 18 97 35 bd ef 9e 37 bd
       -0.08041815 0.025991246 -0.044333547 -0.044829305
000330 c1 de 1c bd 17 f0 70 3d 1d 47 96 3d c8 ec 15 3e
       -0.038298372 0.058822718 0.073377825 0.14641106
000340 a7 ff 43 3d 76 a1 00 3e 1f c8 54 3d 7c 14 aa 3d
       0.04785123 0.12561592 0.051948663 0.08304688
000350 4f 1c 26 3e 1c a7 80 3d 34 98 bf 3d 66 de 3d 3d
       0.16221736 0.062818736 0.09355202 0.046354674
000360 e2 7c ad 3d 14 ba 20 3c 86 f5 4d 3e 01 3c 86 3d
       0.08471085 0.0098099895 0.20113191 0.065544136
000370 a8 aa 97 bd f7 0f cb 3b 63 0e 1e bd 62 ef 34 bd
       -0.07405597 0.0061969715 -0.03858794 -0.044173606
000380 db 97 b0 3c 54 30 40 3d 0c 3f aa bd 0c 21 e3 bd
       0.021556785 0.04692109 -0.083128065 -0.110902876
000390 a8 4b c3 bd 9d 9b 05 be 2f 0a 50 be 1d 43 d6 bd
       -0.09535915 -0.13047643 -0.20316385 -0.104620196
0003a0 33 2f dc bd 15 91 30 be 47 1e a9 bd 8a 4f 17 3c
       -0.1075119 -0.17242844 -0.08257728 0.009235272
0003b0 80 bb 90 3d fa e4 cd bb 9d 22 16 3e 14 54 66 3c
       0.07067013 -0.0062833996 0.14661641 0.014058132
0003c0 b9 a2 94 3d 7b ef 27 bd 0e e3 b5 3d 43 73 90 3d
       0.072575994 -0.04099987 0.08881198 0.070532344
0003d0 49 cc d3 3d 48 20 32 3d b2 5f 27 3e 7a 59 11 3e
       0.10341699 0.043487817 0.16345099 0.14194289
0003e0 c8 13 bf bd 3b c4 12 be aa 0e 26 bd a9 6a 93 bc
       -0.09329945 -0.14332668 -0.04054133 -0.017995195
0003f0 fb 99 0a 3c da b1 43 bc 4d bd 8a bd 8a fc cf bc
       0.008459563 -0.011944259 -0.067743875 -0.025388975

feature.0.bias f4 [256]
000000 72 f1 6c 3e e7 79 9b 3e cc 45 e1 3b 4c cf 50 3e
       0.23138979 0.30366442 0.0068747755 0.20391577
000010 9f 52 81 be cf 48 85 be a8 49 25 3e 26 51 33 3e
       -0.25258347 -0.2603211 0.16141379 0.17511424
000020 7a 6b ed 3e 13 41 ad 3e bb d1 84 be d8 c5 1d bd
       0.4637106 0.3383871 -0.25941262 -0.038518757
000030 c9 19 96 3e ea e4 73 3e 82 58 08 be d5 59 0c 3e
       0.29316548 0.23817793 -0.13315013 0.13706143
000040 a9 52 03 be b8 2d a9 3e d0 e5 be 3d 9d b4 84 be
       -0.12824501 0.33042693 0.09321177 -0.25919047
000050 a4 eb ad 3e cd 44 94 bc 30 27 9b be c2 a6 6b 3e
       0.33968842 -0.018099213 -0.30303335 0.23012832
000060 ac 62 f1 be 32 e5 9c be 00 91 1e be 13 a7 40 3e
       -0.47145593 -0.30643612 -0.15485 0.18813734
000070 ef e4 79 be a8 3c a7 3e c0 16 c3 bc 09 19 f2 be
       -0.24403737 0.32663465 -0.023814559 -0.47284725
000080 21 30 e7 bd b0 f8 83 be e2 94 9f 3d 62 eb a9 be
       -0.11288477 -0.2577567 0.07792069 -0.33187395
000090 bc 55 26 bd a6 ca 8b 3e 19 d8 89 3e ba f0 e5 3e
       -0.040609106 0.27303046 0.26922682 0.44910222
0000a0 94 9e 2b 3e a7 4c a1 bd ca 20 98 3d 4a 94 eb 3d
       0.16759712 -0.078759484 0.07428129 0.11502893
0000b0 1c ac 9e be b0 dd d8 bd 09 ee 87 be b3 37 c3 bd
       -0.30990684 -0.105891585 -0.26548794 -0.09532108
0000c0 26 e0 a4 3e 12 9e 27 3e 95 ab 80 bd 24 91 38 be
       0.32202262 0.16368893 -0.06282727 -0.18024117
0000d0 70 af 0e be 44 b4 26 3e 86 cb 43 3d 38 32 a0 bd
       -0.13934112 0.16279703 0.047801517 -0.078220785
0000e0 d3 2d 27 3e 8f 25 1c be 3b fa a1 b9 db 32 86 3d
       0.16326074 -0.15248702 -0.0003089475 0.06552669
0000f0 0e 1b 07 bd 49 0b 57 3e ba 90 d5 be e5 9e 67 3e
       -0.032984786 0.21000399 -0.4171198 0.22619207
000100 b1 cf d9 3e d9 81 99 3e 78 8c eb bd 7a a9 a9 3e
       0.42541268 0.29981878 -0.11501402 0.33137113
000110 78 5c 71 be ab fc 7e be 7c 4c 7e bd 2f 71 16 3e
       -0.2357043 -0.24901073 -0.06208466 0.14691614
000120 70 15 43 3d cd c0 5a be 59 6f 05 be 30 90 9c bc
       0.047627866 -0.2136261 -0.13030757 -0.019111723
000130 1f 1e a9 bb 05 7c 30 be 58 43 8a bc ea be a9 3e
       -0.0051610614 -0.1723481 -0.016877815 0.33153468
000140 21 b0 fd 3e ee 36 84 3d a2 f7 a9 3e 2d 35 1b be
       0.49548438 0.064557895 0.3319674 -0.15157004
000150 40 82 a5 3e 68 62 01 be b3 82 8c 3d e1 a8 64 3e
       0.32325935 -0.12635195 0.068608664 0.22330047
000160 04 3a 23 3d 09 7d 8f 3e d1 d9 f4 3e 37 b2 4a be
       0.03985025 0.28025082 0.4782243 -0.19794546
000170 04 fd 25 3d f2 80 60 bd 09 15 d1 3e 49 33 c7 3e
       0.040524498 -0.05481047 0.4083636 0.38906315
000180 ea 7d 0e 3e bf af d9 3e b8 e9 41 3e f3 b1 1a be
       0.1391522 0.42516896 0.18936813 -0.15106945
000190 76 25 ab 3e d9 e7 6f 3e 46 d4 fa bd 39 d1 ca 3d
       0.33427018 0.23428287 -0.12247519 0.09903187
0001a0 40 87 f5 3e 49 05 06 3f 2d 3f 8f 3e 45 63 b1 3e
       0.4795475 0.52351815 0.27977887 0.3464605
0001b0 12 74 45 3e 5a f1 49 bd fb 9a 80 be 96 e7 7f be
       0.19282559 -0.049302436 -0.2511824 -0.24990687
0001c0 57 bc d1 bc 10 67 c7 3e 7f 1f 39 3e b8 ca 40 be
       -0.025602503 0.38945818 0.18078421 -0.18827331
0001d0 b3 af a9 bc e8 f4 99 be 30 c8 b2 3e 06 63 58 bd
       -0.020713663 -0.3006966 0.34918356 -0.05282881
0001e0 70 fa 82 be 22 1c 7e bd aa b9 a9 3d 10 e5 cb be
       -0.25581694 -0.06203855 0.08287366 -0.39823198
0001f0 91 fc 9b 3e 13 61 15 3e 91 67 e6 3e 90 38 f0 bc
       0.3046613 0.14587812 0.4500089 -0.029323846
000200 2b 65 04 3e d7 41 b3 3e 8c 80 8a 3e 44 b4 bf bc
       0.12929218 0.3501117 0.27051198 -0.023401387
000210 0a 83 7d 3e 76 35 31 be 21 4b 66 3e 2d f2 7b 3e
       0.24757019 -0.1730555 0.22489597 0.24604101
000220 e2 23 94 3e 60 2b a9 3e 7f 60 46 3e 95 16 a2 be
       0.28933626 0.33040905 0.19372748 -0.31657854
000230 1a 71 c5 3e 1a 16 91 bd 4e 1f c9 be 37 10 37 be
       0.38562852 -0.07084294 -0.39281696 -0.17877279
000240 c4 f7 ab 3e 77 b9 dd 3e 7b 16 8b 3c 91 a5 8c 3c
       0.33587468 0.4330556 0.016978493 0.017168792
000250 fa a5 5c 3e c9 48 66 be cd db a1 3e 20 8e ed be
       0.2154769 -0.22488703 0.31613007 -0.46397495
000260 9c cb b1 3e 90 ed e5 bd 69 6f ed 3e 54 94 0d 3f
       0.34725654 -0.11226952 0.46374062 0.55304456
000270 4d 54 de 3e f8 32 6d 3d e1 4b 21 3e 4d 28 99 3d
       0.4342369 0.057909936 0.15751602 0.0747839
000280 d8 02 89 bd cb f8 7a 3e f7 14 43 3e 65 18 c9 3e
       -0.066899955 0.2450897 0.19050966 0.39276424
000290 e0 cc 0e 3d 1f 23 cd bd b1 82 fe 3c ff 88 0d bd
       0.034863353 -0.100164644 0.031068178 -0.034554478
0002a0 c1 df ab 3e 83 b1 03 be 78 07 3a 3e 55 7b c8 bd
       0.33569148 -0.12860684 0.18166912 -0.09789149
0002b0 28 8d 42 3e c2 95 5a 3d ec 20 a9 3e 1c c7 bf be
       0.1899916 0.053365476 0.3303293 -0.37456596
0002c0 dd b4 36 bd 37 78 51 be 81 7c 7e 3c 4f f9 25 3e
       -0.04460608 -0.20456015 0.015532614 0.16208385
0002d0 9f ca ab 3e 2a 97 d9 3d d4 2e 85 be 09 c0 b4 be
       0.33553025 0.106245354 -0.2601229 -0.3530276
0002e0 52 0c 80 3e b8 7c 37 be ed 38 83 bb 32 fd c1 be
       0.250094 -0.1791867 -0.004004589 -0.37888485
0002f0 16 6b 48 3e cc 5a 62 3e 2e 8d e0 3e 12 c5 05 3e
       0.195721 0.22104949 0.43857712 0.13063458
000300 a2 21 85 bd c5 ec 0a be e4 0a b8 3e 8d 3d b5 bd
       -0.065005556 -0.13566883 0.3594581 -0.088496305
000310 56 13 32 3e eb 6e 97 3d fb cf df bd f6 5b 62 be
       0.17390189 0.07394203 -0.10928341 -0.22105393
000320 94 5a 8a 3c ef e2 a4 be 16 13 6e be 13 db 07 be
       0.016888894 -0.32204387 -0.23249468 -0.13267164
000330 4a cd a2 3e a3 cc 4e be 39 76 e7 3e a9 f9 f9 3c
       0.31797248 -0.2019525 0.45207384 0.030514555
000340 a1 40 d4 3e 1d 21 54 3e 36 93 84 3e 60 5b 98 be
       0.41455558 0.20715757 0.25893563 -0.29757214
000350 db 65 e8 3d 32 c8 c6 3d c3 2b 83 be 14 89 5f be
       0.113475524 0.09706153 -0.25619325 -0.21829635
000360 d3 46 a3 3e 1a 1c 89 be cd ba 2d 3c 51 d1 e4 3d
       0.31889972 -0.26779252 0.010603619 0.111727364
000370 65 02 cb 3e 02 02 ed 3e 1d 94 54 be 25 f0 b8 3e
       0.39650264 0.46290594 -0.20759626 0.36120716
000380 71 20 76 bc b9 1f c6 3e 58 a8 4a 3e af 51 87 3e
       -0.015022383 0.38696077 0.1979078 0.26429507
000390 e8 65 41 3e 99 9f 9a 3e 54 90 b2 3e 02 b0 9f bd
       0.1888653 0.30199888 0.3487574 -0.07797243
0003a0 e9 06 66 3c 5f f3 ce 3d 8e da b6 be c2 4d 55 be
       0.014039733 0.10105013 -0.3571362 -0.20830444
0003b0 27 6f 07 bd 29 3a 56 be 2c bb 07 be 54 ed 56 bd
       -0.033064988 -0.20920624 -0.13254994 -0.052472427
0003c0 eb 6c be 3e 70 fb c0 3e 99 ff 5a 3c 85 8d 83 be
       0.37192473 0.37691832 0.013366603 -0.25693908
0003d0 00 ff ba 3d 4e 46 dc 3d 6b 21 87 be bf 8f 7f 3e
       0.09130669 0.10755597 -0.26392683 0.24957179
0003e0 cf 8d b3 be 79 03 c6 3e a5 f8 ec 3e 0f ea 4e bd
       -0.3506913 0.38674524 0.4628345 -0.050516184
0003f0 7f 03 83 bd 74 5c c8 3e 51 2f 84 3e e7 b6 e9 bd
       -0.06397151 0.39133036 0.2581735 -0.11411839

feature.2.weight f4 [256, 256]
000000 9e 05 4d bc d2 cf c3 3c e8 d3 eb 3d f5 59 49 be
       -0.012513546 0.023902807 0.11515027 -0.19663222
000010 fd 90 df 3c e7 d2 94 bd 8e 95 a3 bd 1e b5 8d 3d
       0.027290815 -0.07266789 -0.0798751 0.06919311
000020 0f 63 d7 bb 91 a4 ce bc bc 37 24 3e ad c8 17 be
       -0.006573088 -0.025224956 0.16036886 -0.14822645
000030 b7 06 4a bd ea d8 67 be ee 7d dc 3d b0 c6 29 3b
       -0.04932281 -0.2264134 0.10766207 0.002590578
000040 2b 07 3c 3d bd 16 a0 be 83 57 3c be 6f ff 70 3d
       0.045905273 -0.31267348 -0.18392758 0.05883735
000050 80 d2 d0 be b2 f5 8d bd 3e d5 06 3e 8c 58 c6 be
       -0.407856 -0.06931628 0.13167283 -0.3873943
000060 33 db 40 3c 46 22 21 3e 0c a4 94 3e df 39 13 3c
       0.011771011 0.1573573 0.29031408 0.0089859655
000070 f0 75 39 be d2 5c cb be 90 4e 87 3d f1 f8 07 3e
       -0.18111396 -0.39719254 0.066067815 0.13278557
000080 d5 b2 a7 3d 7f ef 29 3e 6e 21 60 3d 8d 85 d8 bc
       0.081884064 0.16595267 0.05471938 -0.02643087
000090 6a 20 80 bd e9 34 13 be 06 78 42 3c f8 ce d6 bc
       -0.062561825 -0.14375652 0.011869436 -0.026221737
0000a0 25 7e 59 3c f9 47 88 bc 2a a0 2f bd f7 28 5a be
       0.013274704 -0.016635882 -0.042877354 -0.2130469
0000b0 d4 6b a6 3d 2d b2 13 be ce a6 8e bd 60 44 34 3e
       0.08126035 -0.14423437 -0.06965409 0.17604208
0000c0 38 49 c8 be 06 51 2b be dd 6f 9c 3d 7c 6b 47 3c
       -0.3911836 -0.16730127 0.07638524 0.012171622
0000d0 8e 41 81 bd 56 41 00 be 3f 1d df be cf f8 ba bd
       -0.06311332 -0.12524924 -0.43577 -0.09129488
0000e0 ff 32 ac be 9e cb 06 bd 65 e3 bf bd e5 a6 93 bd
       -0.33632657 -0.03290903 -0.09369544 -0.07209567
0000f0 09 29 a5 3d 9e 23 8e be 02 d6 6a 3d 88 f3 5e bd
       0.080644675 -0.2776155 0.057333 -0.05443147
000100 ca b4 80 be 03 8f c3 be 98 f5 7d 3d d7 53 0d be
       -0.2513793 -0.38195047 0.062001795 -0.13801514
000110 32 88 b2 be a7 6e 6a 3c f1 ec 51 3d 98 9b 51 bd
       -0.34869534 0.014308608 0.051251356 -0.051173776
000120 ee 48 0c be b0 c0 49 be 89 d9 f1 bc 88 5a b2 3d
       -0.13699695 -0.1970241 -0.029522674 0.08708674
000130 6f 5d e1 bd f8 be f1 3b 89 9a ce 3c 03 38 01 3d
       -0.11004149 0.0073775016 0.025220172 0.031547558
000140 52 28 1e bd c8 06 11 be c4 43 38 bc 61 f0 6b bd
       -0.03861267 -0.14162743 -0.011246625 -0.05760229
000150 56 2d 71 3c e3 7e 28 3e d3 8f 5b bd b9 67 73 3d
       0.014720282 0.16454653 -0.05360396 0.05942509
000160 cf 9d 9d bd 2b 6e 81 3c ad 7f 3b 3c fd e4 be 3c
       -0.07696115 0.015799602 0.0114440145 0.02330255
000170 de 4d 98 be 7c 86 ae 3d bb 6d 50 3d 2c d8 b1 3e
       -0.29746908 0.085217446 0.050885897 0.3473524
000180 f4 9a ae be 1b c6 18 be 7b ad cb bd e3 56 d8 3b
       -0.34102595 -0.14919321 -0.09945198 0.0066021546
000190 b2 5d e7 bd 61 3b 01 be 3f 9e 93 bd a6 01 cd be
       -0.11297168 -0.12620308 -0.072079174 -0.4004032
0001a0 bc 18 cc be ee 71 c6 be 72 ce 68 be cb 35 32 bf
       -0.3986262 -0.38758796 -0.22735003 -0.6961333
0001b0 d7 c2 3f ba 44 27 3b be 97 2a 9a bd e9 57 b1 bd
       -0.0007315105 -0.18276697 -0.075276546 -0.08659346
0001c0 60 cd 8f bd a9 bd 04 3c 6a 2e 31 3c f7 78 69 3d
       -0.07021594 0.008101859 0.010814289 0.057000127
0001d0 63 92 e4 3d e5 a3 ef bc 75 2d 6b bc 73 7e 3e bd
       0.111607336 -0.029252956 -0.0143540995 -0.04650731
0001e0 69 2d 20 3e 65 98 85 3d 1c a8 4f be 40 2b 8e bd
       0.15642323 0.065232076 -0.20278972 -0.06941843
0001f0 18 fd 33 be a2 66 3e 3d 00 09 02 be 99 5d 96 bd
       -0.17577016 0.046484597 -0.12698746 -0.07342071
000200 41 8d a5 3e 46 ed 6e be ec fe 83 be 37 38 10 be
       0.3233433 -0.233327 -0.25780427 -0.14083944
000210 8b e4 a5 bd 05 e7 cd 3b b6 fd ea 3c f3 ee 51 bd
       -0.08100232 0.006283643 0.028685432 -0.05125327
000220 85 65 43 be 50 c0 7c be df fe 1f be 8d 80 8b bd
       -0.19081695 -0.24682736 -0.1562457 -0.068116285
000230 96 78 96 bd b0 72 de be 96 f7 11 3e 8e 39 cf 3c
       -0.07347219 -0.43446875 0.14254603 0.025295999
000240 3c 51 b6 be 4a d2 de 39 f2 c3 d1 be 78 e0 96 3d
       -0.35608852 0.00042499817 -0.40969807 0.07367033
000250 05 95 dd 3c 7b fe be 3d d0 45 0d bc 57 91 0f 3e
       0.027048597 0.09325882 -0.008622602 0.14020287
000260 e4 10 d1 3d 67 63 91 bd 55 51 65 bd 15 5e 7c bd
       0.102083 -0.070990376 -0.055985767 -0.06161316
000270 42 7c 1e be 5c fc 98 3d c3 d1 3a 3d 4a 01 b6 bc
       -0.15477088 0.07470009 0.0456102 -0.022217412
000280 f5 c6 50 be 78 45 9f 3a a6 5e 47 3d d8 35 f1 be
       -0.20388396 0.0012151441 0.04867425 -0.47111392
000290 67 8f 45 be 9b 13 2e 3d 02 a0 00 be 4e 0d f9 be
       -0.19292985 0.042499166 -0.12561038 -0.48642963
0002a0 65 64 33 be 93 a0 22 be be b1 a5 bd 8e 3c 14 be
       -0.17518766 -0.15881567 -0.08090542 -0.14476225
0002b0 c1 4e 19 3e c8 1b 9a be de b7 1b be dd 60 0c bd
       0.14971448 -0.3009932 -0.15206859 -0.034272064
0002c0 a2 b8 94 bd 6d 39 c2 3e 24 a1 7a be 24 1e 44 3b
       -0.072617784 0.37934437 -0.24475533 0.0029925192
0002d0 a8 29 f0 bd 15 25 e9 bd 7d c9 18 be 10 b9 89 3d
       -0.11726695 -0.11384026 -0.14920612 0.06724751
0002e0 df 81 53 3d 22 c1 71 bc 27 05 1e be 4e 71 9e 3d
       0.051637527 -0.014755519 -0.15431653 0.07736455
0002f0 c5 48 b7 3d 3b 86 a6 bd 5f c7 62 bd 3c d3 07 bd
       0.089494266 -0.08131071 -0.055365916 -0.033160433
000300 d8 82 87 3e 7f 52 4c bd ac 33 51 3c a4 94 b7 3b
       0.26467013 -0.049883362 0.012768667 0.005602436
000310 7d 69 a5 bd de 06 f0 bd 34 83 a7 bd f3 65 be 3d
       -0.08076761 -0.1172006 -0.08179322 0.09296789
000320 67 80 10 be 39 80 5b bd 02 fe 74 bd 5c d0 a6 bc
       -0.14111482 -0.05358908 -0.059812553 -0.020363025
000330 73 d3 e7 3c 0c 33 b9 3b 88 03 bc bd fc 81 08 3e
       0.028299069 0.005651837 -0.09180361 0.13330835
000340 ec b1 7f bd 8a be dc bd 47 84 76 bd 1d e6 43 bd
       -0.06242554 -0.1077853 -0.060184743 -0.047826875
000350 d4 d6 50 be ff 21 07 be ca 41 18 bd f8 7f 54 3e
       -0.2039445 -0.13196562 -0.037172116 0.20751941
000360 f9 32 5d 3d 82 a7 68 ba d9 b9 d8 3d f2 c8 83 be
       0.05400369 -0.0008875058 0.105823226 -0.25739247
000370 bf bf a3 bd 8b b8 b6 bc ab 8a 91 bd a4 6d 4e 3d
       -0.07995557 -0.022304794 -0.07106527 0.05039753
000380 44 d2 76 3d a8 70 39 be 78 4d 69 bc 96 0f 68 bd
       0.06025912 -0.18109381 -0.014239661 -0.05665549
000390 03 41 bb be 8d 75 89 bc f7 ce af be f6 92 0f 3d
       -0.36573038 -0.016779685 -0.3433759 0.035052262
0003a0 81 70 ea bc 8f fe 41 be eb 63 67 3d 98 01 8d 3d
       -0.0286181 -0.18944763 0.056491774 0.068850696
0003b0 e2 84 3c bb 87 d0 00 3e bf 31 d3 be 85 25 02 be
       -0.0028765728 0.12579547 -0.4124889 -0.12709625
0003c0 4d 67 11 be a1 83 5c be 33 17 81 be 2d ff 6f 3c
       -0.14199562 -0.21534587 -0.25213012 0.014648241
0003d0 70 5b f6 be 38 1a 10 be fd 5c 0b bd 74 37 7f bd
       -0.48116636 -0.14072502 -0.034024227 -0.062308744
0003e0 06 a7 f9 bc fa e0 c7 bd 74 82 7f be 68 c5 ff bd
       -0.03047515 -0.09759708 -0.24952108 -0.12488824
0003f0 75 e4 90 3d 1a a2 ad 3c 39 da d8 be e8 bd 12 be
       0.07074825 0.02119546 -0.4235399 -0.14330256

feature.2.bias f4 [256]
000000 81 df 2e be 1c 35 e9 bc 76 d3 82 be b4 8a c7 3c
       -0.17077447 -0.028467707 -0.25551957 0.024358131
000010 ff 48 82 be 43 e0 b0 3e 18 3a 53 be 2d 44 8f bd
       -0.25446317 0.34546098 -0.2062763 -0.069954254
000020 24 d4 69 bc 34 e8 34 3d 37 f1 5e be cb 22 62 be
       -0.01427177 0.04416676 -0.21771704 -0.22083585
000030 f6 f0 6d ba 00 77 ab 3e 76 53 67 be 78 4a 89 3e
       -0.00090767385 0.33489227 -0.22590432 0.26814628
000040 61 cb ce bc c6 8d 52 be 30 6e 28 be b8 da 84 3e
       -0.025243463 -0.20561895 -0.16448283 0.2594812
000050 b7 0c 4b 3e 47 4d 1c 3e 24 a4 0c bc 58 a6 c2 3e
       0.19829069 0.15263854 -0.008584056 0.38017535
000060 63 69 d4 3e ad f8 2f be ae 27 69 3e 71 b3 ac 3b
       0.41486654 -0.17184706 0.22769043 0.0052704145
000070 e7 c8 19 3e 93 f0 91 bd f9 64 6c 3e 9a 64 c9 bd
       0.15018044 -0.07125964 0.23085393 -0.09833641
000080 c7 1d c0 3c 4d ec 4c 3e c3 29 07 3e 8b 64 88 3e
       0.023451699 0.20012017 0.13199525 0.26639208
000090 65 9b b7 3e 49 97 cf 3e ae e4 86 3e f9 3b bc bd
       0.35860744 0.4054511 0.26346344 -0.091911264
0000a0 4b 3a 8b 3e 2f a2 7a bd c4 e5 6f bd 7c 53 d7 3e
       0.27192912 -0.061189827 -0.05856873 0.4205588
0000b0 10 8e 3f 3e 5f 1f 9c bd 58 e9 a7 bb 22 2e b5 3d
       0.18706536 -0.07623171 -0.0051242523 0.0884669
0000c0 ef 43 86 3e f9 06 37 3d 67 7d 86 bd d3 8e 22 3d
       0.26223704 0.044684384 -0.06566887 0.03968699
0000d0 5c df 28 3e 05 b1 15 3b a7 38 cc bd a9 33 b2 3e
       0.16491455 0.0022841108 -0.09971743 0.3480504
0000e0 44 0a 7b bb f6 bf 6b bd 79 ac bf 3e ae ac 57 3e
       -0.003830568 -0.057556115 0.37436274 0.21061966
0000f0 7d fb 22 be 88 0e 5c 3e ea 7a 7b be 34 41 06 3e
       -0.15916248 0.21489918 -0.24558607 0.1311081
000100 a3 f5 cd 3e 65 c2 e0 3d f1 8a 26 3e 23 06 7a 3e
       0.40226468 0.10974578 0.1626394 0.24416403
000110 ee a5 5f 3e 40 fd fe bd 0d 71 a5 3e 3a 16 23 3e
       0.21840641 -0.12450647 0.32312813 0.15926448
000120 b5 cb 12 bd 73 2c 02 be 79 71 b2 3e f1 0b bc 3e
       -0.0358388 -0.12712269 0.34852198 0.3672786
000130 fe 10 a1 3e 98 18 c8 3e 40 42 38 3e f3 53 cf 3e
       0.31458277 0.39081264 0.17994022 0.40493736
000140 e4 27 31 be 1b 70 e3 3d c5 a4 9b 3e 56 cd 18 3e
       -0.17300373 0.11105367 0.30399147 0.1492208
000150 88 bc 45 3e d8 3b e0 3e 02 17 2f be f3 28 9b 3e
       0.193102 0.43795657 -0.1709862 0.3030468
000160 11 0d be 3c 30 00 ae bd 9f 87 5e 3e 1c 09 14 be
       0.02319959 -0.084961295 0.21731423 -0.144566
000170 5e dc be 3e b6 41 d8 3d 91 11 76 bd ec e9 b0 3d
       0.37277502 0.10559408 -0.060075346 0.08638367
000180 9e f5 98 3e ea bf 8d 3e b4 f7 76 3e c5 18 7b 3e
       0.2987489 0.2768548 0.24117929 0.24521168
000190 9c d0 99 bd ad d5 b5 3e 82 94 d8 bd 82 81 df 3e
       -0.07510492 0.35514584 -0.105752006 0.43653494
0001a0 08 50 d6 bc 7b 03 85 3e 96 4b ad 3e fb 8f cb 3e
       -0.026161209 0.25979218 0.3384673 0.39758286
0001b0 2f c8 c1 3e 9e e1 84 3d 74 d9 3e 3e cb 4a 23 3e
       0.3784804 0.064883456 0.1863764 0.159465
0001c0 2f 5f 2e 3e 17 aa 1c 3e 96 af fe 3d 19 5a 09 be
       0.17028497 0.15299259 0.12435834 -0.13413276
0001d0 c5 2e 7d 3e 29 f4 c3 3e 78 aa 86 3e 3a 54 b8 3e
       0.24724872 0.38272217 0.26301932 0.3600176
0001e0 ed 91 15 3e a3 40 7f 3e 9b 07 41 3e 8c ad 0a 3e
       0.14606448 0.24927 0.18850558 0.13542765
0001f0 35 50 60 bd 52 8a ac 3c 80 6c 31 bd 0a b1 38 3e
       -0.05476399 0.02106205 -0.043316364 0.18036285
000200 fe 72 c7 3e f5 08 96 bd 79 47 c5 bd 2b c8 50 bd
       0.3895492 -0.07325927 -0.09632773 -0.050972145
000210 10 03 05 3e 36 d4 ca bd cc b1 fe bd bf 1e 32 3e
       0.1298945 -0.09903757 -0.12436256 0.17394541
000220 73 68 b6 3e 6b af c1 3e 72 6e 18 bd aa 82 07 be
       0.35626563 0.37829146 -0.037214704 -0.13233438
000230 4d 40 c2 bc 53 7c d7 bd 50 4e 4b be 30 ec 6f 3e
       -0.023712302 -0.1052176 -0.19854093 0.23429942
000240 52 33 a7 3e cd 3b c3 bc ff 46 60 3e f9 b0 11 3d
       0.32656342 -0.023832226 0.21902083 0.035569165
000250 3f 10 85 bd 63 03 ce 3d 36 27 06 be ee 6d f5 3d
       -0.06497239 0.1005924 -0.13100895 0.11983858
000260 49 5d df 3e d9 6e cc 3e d7 e0 a5 bc 9f e2 7e 3e
       0.43625858 0.3992832 -0.020248814 0.24891137
000270 d5 df de bd 47 48 aa 3e 6c 27 c5 bb aa 27 62 3e
       -0.10882536 0.33258268 -0.0060166623 0.22085443
000280 13 79 df 3e f1 d8 96 3b 24 8f ba 3c cf c4 04 3e
       0.4364706 0.004603498 0.022773333 0.12965702
000290 7c 2f b9 3e 6b 30 be 3e f9 87 03 bd fc 81 11 3e
       0.3616904 0.37146315 -0.032112096 0.14209741
0002a0 0d 89 55 be d0 8a a7 bd 55 35 b6 3d 22 a9 f5 3d
       -0.20853062 -0.08180773 0.08896891 0.1199515
0002b0 9d e0 b6 3d ad 1e 49 bd 4a dc 6c 3e c5 70 17 be
       0.0892956 -0.04910152 0.23130909 -0.14789112
0002c0 e0 9f ba 3e 39 c9 b7 bd bf e2 91 3e b5 e4 88 3d
       0.364501 -0.08973927 0.28493306 0.066842474
0002d0 71 8e 98 3e 9a c3 42 be 83 a8 ac bd e7 e8 f3 3d
       0.29796174 -0.19019929 -0.084305786 0.11909657
0002e0 1b fd af bd 28 bd 5c 3e 87 95 fa bd 29 77 e4 3d
       -0.08593198 0.21556532 -0.12235551 0.111555405
0002f0 61 bf d0 3e f5 2b 23 3e df 3b 30 be ab 0a 4d 3e
       0.4077101 0.15934737 -0.17210339 0.20023601
000300 56 a3 8d be 3c 87 94 3c f2 e7 05 3d 2d cd 01 3d
       -0.27663678 0.018130891 0.032691903 0.03168981
000310 4a 84 cc bd 03 c0 d4 bd 6c 6a 41 be 6c 36 6a 3e
       -0.0998617 -0.10388186 -0.18888253 0.22872323
000320 b3 3e 93 be 30 b4 97 3c ff 5d 98 3d b5 7d a7 3e
       -0.28758773 0.018518537 0.07439803 0.32713094
000330 1a e7 d1 bd 26 3f 81 3e 7c 0f e0 bd 7e 03 f3 bc
       -0.10249157 0.2524349 -0.109404534 -0.029664751
000340 76 da 1d be 92 db e8 3b e5 87 26 be 23 5c 7a bd
       -0.15415367 0.007106253 -0.16262777 -0.061123025
000350 41 a0 05 3c 74 83 d1 bd fa 0a ed 3d 7e e7 e7 3e
       0.008155883 -0.10230151 0.11574359 0.45293802
000360 f4 b0 3a 3d b9 5d 28 3e 85 99 e5 bd f3 cd c9 3e
       0.045578912 0.16442002 -0.11210922 0.3941494
000370 d6 80 d8 3e 31 16 91 be 53 ac 98 bd d7 27 88 bd
       0.42285794 -0.28337243 -0.07454743 -0.06648224
000380 82 a8 40 3e c6 7b a2 3e 1f 81 01 be 3e 58 a5 3e
       0.1881428 0.31735057 -0.12646912 0.32293886
000390 8e 83 a1 bc 08 70 6d bb e6 2f 6f 3d ef b0 b3 bd
       -0.01971605 -0.0036230106 0.05839529 -0.08773982
0003a0 b7 7b 23 3e ff 23 bc 3d 62 4a 97 3e 32 71 ad 3e
       0.15965162 0.09186553 0.29548937 0.33875424
0003b0 52 ba 60 3e 70 60 a6 bd 5d 7c 63 bd ca 42 5e be
       0.21946076 -0.08123863 -0.055538524 -0.21705166
0003c0 37 d9 23 be 97 d6 0d bd 95 ce f8 bd 14 05 e2 3d
       -0.1600083 -0.034628477 -0.121487774 0.11036125
0003d0 89 c2 24 3e 61 71 bf 3e 9d e6 02 3e 6e 72 c9 3c
       0.16089834 0.3739119 0.12783284 0.024590697
0003e0 3c 7a 78 3e c8 94 77 3b 79 9b e3 3d 98 a4 de bc
       0.24265379 0.003777789 0.111136384 -0.027178094
0003f0 36 20 56 bc 1e a8 b2 bd a7 ed 6a be 92 f1 9b 3e
       -0.013069203 -0.08723472 -0.2294222 0.3045774

value_stream.0.weight f4 [256, 256]
000000 1b af 2c be 1e 72 0c be 2f 02 48 bb b4 90 cd be
       -0.16863672 -0.13715407 -0.003051888 -0.40149462
000010 ff c2 7a be fe a7 02 bd 2c 9c 90 be a5 33 a8 be
       -0.24488448 -0.03189849 -0.2824415 -0.32851902
000020 62 9f 7f be e4 6e d1 bd c6 ce 26 be 27 05 dd bd
       -0.24963143 -0.10226229 -0.16289815 -0.10791998
000030 de 4d 02 be c0 ee 6e bd 7c 29 0b be 56 c9 de 3d
       -0.12725016 -0.05833316 -0.13590044 0.108782455
000040 ab 7e 9a be 2c dd db 3d 1b 1f 2d be b7 e7 85 bd
       -0.30174765 0.107355446 -0.16906397 -0.06538337
000050 0c b8 da bd 2d d0 2c be 6f 0c 5d be b0 1c 12 3c
       -0.106796354 -0.16876288 -0.21586774 0.008917972
000060 f2 16 d7 3d 57 00 4f be bb a9 5e be 93 b3 9a be
       0.10502423 -0.20214973 -0.21744435 -0.3021513
000070 ec 44 85 3d 38 59 93 be fc b2 16 be cd 0c 04 be
       0.065072864 -0.28779006 -0.14716715 -0.12895508
000080 ec 3b 8b be a5 81 87 be 8b 29 8a 3c 11 88 56 be
       -0.27194154 -0.26466098 0.016865512 -0.20950343
000090 3b de 94 bd e4 df 19 3d f5 4c eb 3c 98 69 a2 be
       -0.072689496 0.037567034 0.02872322 -0.31721187
0000a0 6c db 2d be 85 0a 9d be c7 1a 8d be b7 16 71 3d
       -0.16978234 -0.30672088 -0.27559492 0.058859553
0000b0 f9 39 9c be 9a ae 38 be e1 63 43 be 15 fb cb 3d
       -0.3051298 -0.18035355 -0.1908107 0.099599995
0000c0 0d 6a ae 3d 47 21 68 be 87 bc 2a be 0b 9d 8f bd
       0.08516321 -0.22668944 -0.1667348 -0.070123754
0000d0 4a 96 03 3e ca 03 19 be 42 3e cd bd 80 7e 7b 3d
       0.128503 -0.14942852 -0.1002164 0.061399937
0000e0 ed 68 b4 be 98 ee 01 be 92 83 3b bd 3d ba e8 3d
       -0.35236302 -0.12688673 -0.045779772 0.11363647
0000f0 23 03 a0 bd 0b 4d a6 3d b0 23 4c be 03 21 43 3d
       -0.07813098 0.081201635 -0.19935489 0.047638904
000100 41 ee d1 3c 00 be 1d be d1 88 53 bd db 8f 17 be
       0.025626304 -0.1540451 -0.05164415 -0.1480097
000110 0a 6f cd bd 49 68 f7 bd eb 35 e8 bd 49 a4 f4 3d
       -0.10030945 -0.12080438 -0.11338409 0.119453974
000120 a2 c5 28 3d 96 aa 54 be 19 7f 02 3e 61 30 ce bc
       0.041204102 -0.20768198 0.12743796 -0.025169553
000130 82 fe bc 3d 02 37 00 3e 56 1f 18 be 89 94 00 3e
       0.09228231 0.12520984 -0.14855704 0.12556662
000140 dc 81 58 be 96 45 78 3d d4 b6 10 bd b8 ce b7 bc
       -0.21143287 0.060613237 -0.03533061 -0.022437438
000150 b9 df 51 be 19 6a e8 3d fd 6e eb bd 9b 02 c4 3c
       -0.204955 0.113483615 -0.11495779 0.023927024
000160 e3 42 58 be 8f be fb bd 9d 2f f7 bc 96 10 d1 bd
       -0.21119265 -0.122922055 -0.030174071 -0.10208242
000170 e3 08 5d 3d 39 76 5d bd 2f 9f 73 be 02 2e 87 bd
       0.053963553 -0.054067824 -0.23791192 -0.06600572
000180 df 8c 1a be 67 6a ac bc 8e d5 0c 3d c2 95 86 b9
       -0.150928 -0.02104683 0.03438335 -0.0002567005
000190 a2 8c 93 be 96 97 c2 3d 63 44 45 be 25 21 36 3e
       -0.28818232 0.09501569 -0.19264369 0.17786081
0001a0 ad 5f 26 be dc d7 00 3e 10 8f 83 bc 3a 45 ff 3d
       -0.16247435 0.12582344 -0.016059428 0.12464376
0001b0 0d 85 ba 3d 9d 6a 88 be c2 18 81 be a8 09 4c be
       0.09107409 -0.2664384 -0.252142 -0.19925559
0001c0 9d ed bb 3d e9 71 2c 3e 2c 9f 5b 3d b3 89 40 3d
       0.091761805 0.16840328 0.053618595 0.04700632
0001d0 53 6b 9b bd 64 61 ce 3c d8 02 33 be 5f d7 72 3d
       -0.0758883 0.025192924 -0.17481554 0.059287425
0001e0 eb f2 b7 3d c4 52 a8 3d 8f 1a bb 3d 4a 8e 23 bc
       0.0898188 0.08218911 0.09135925 -0.009982655
0001f0 2d a9 b4 be 0d ae 53 be 78 6d d9 3c e5 0e 9e bd
       -0.3528532 -0.20671864 0.026541457 -0.07717685
000200 c1 bd a2 bd 29 6a 9b be 38 14 29 bd 21 b7 8f be
       -0.07946349 -0.3035443 -0.041279048 -0.28069404
000210 2d 3a 9d 3d d4 4c 8d bd 4a a8 a3 bd 32 62 16 3e
       0.07677112 -0.068994194 -0.07991083 0.14685896
000220 ba b5 bb 3d 0c 1d 1b 3e 05 04 b9 bd 4f 03 08 be
       0.09165521 0.15147799 -0.0903397 -0.13282512
000230 c8 2d 4e be 5e f2 dd bd 04 44 1b be 60 67 70 3d
       -0.20134652 -0.108372435 -0.15162665 0.058692336
000240 fc b8 a5 bd 76 fc 93 be 2d ea e8 bd 28 2e 50 be
       -0.080919236 -0.2890355 -0.113727905 -0.20330107
000250 dd 56 3e be da dd ed bc 60 37 95 be 42 b7 ed 3d
       -0.18587823 -0.029036451 -0.2914381 0.11607219
000260 df 18 f0 3d a7 66 86 bd 9d 0f 14 bd a7 17 d9 bd
       0.11723494 -0.06562548 -0.036147702 -0.106002145
000270 ff c6 57 be e0 67 30 3e 8e 5a 10 be 79 fb 33 3e
       -0.21072005 0.17227125 -0.14097044 0.17576398
000280 02 17 c2 bd d1 8f 5f be f0 ee 5e be 32 3a db bb
       -0.09477045 -0.21832205 -0.21770835 -0.006690287
000290 42 0d 21 3e d9 1b 37 3d 89 37 97 be 66 1a 93 3d
       0.15727714 0.044704292 -0.29534557 0.071827695
0002a0 9d 57 b4 be 5b 6e 69 be e0 15 90 b9 4e 2b 7b be
       -0.35223094 -0.22796004 -0.00027482118 -0.24528238
0002b0 92 fa 11 be ce 7f 08 be 4c 49 ea 3c c9 17 87 be
       -0.14255741 -0.13330004 0.028599404 -0.26385334
0002c0 a7 07 1d 3e 38 80 97 bd 27 6f 69 3d 10 7b 95 be
       0.1533495 -0.07397503 0.05699077 -0.29195452
0002d0 ef 3c 2f 3e b9 07 ad bd d7 ff 80 bd fd 2a 99 bd
       0.17113088 -0.084487386 -0.062987976 -0.074789025
0002e0 c9 7b 89 be 2c de 09 3e 3d 33 17 be 30 5a f5 bd
       -0.26852253 0.13463658 -0.1476564 -0.119800925
0002f0 3a 87 8a 3d 0b 66 00 be 46 18 6d be 10 fd 72 bd
       0.06764074 -0.12538926 -0.23153791 -0.05932337
000300 90 0b 41 bc f8 8d 4f be 7e 93 98 3c 1d 41 51 be
       -0.011782542 -0.20269 0.018625017 -0.20434995
000310 28 f4 35 be f6 4b 3f be c9 55 8e bd 97 f0 8d 3c
       -0.1776892 -0.1868132 -0.06949956 0.017326636
000320 88 df 6e be 3b 31 37 be cf ca 83 bd 4a 00 43 3d
       -0.23327458 -0.17889874 -0.06435167 0.047607698
000330 12 99 9b be 63 39 25 bd fc f0 ed bd 05 5d 51 bd
       -0.3039022 -0.04033793 -0.1161823 -0.0511141
000340 2b f8 86 be ae 39 0b be e0 cf 5b bd 6d 28 e6 bd
       -0.26361212 -0.13596222 -0.053665042 -0.11238179
000350 b4 c5 91 bd fd 6a 92 be 7c a9 af be d1 6a 8c 3d
       -0.07117787 -0.2859725 -0.34308994 0.06856311
000360 30 d3 20 be 46 25 06 3e 22 a4 83 be f2 e3 a1 3d
       -0.15705562 0.13100156 -0.2571116 0.07904805
000370 26 1c 4f 3d c9 94 8e bd a7 77 26 bd 6b b5 98 be
       0.050563954 -0.06961972 -0.040641453 -0.2982591
000380 0d fc eb 3d ed 09 9c 3d bf 74 44 be 60 55 b0 be
       0.11522684 0.07619081 -0.1918516 -0.34440136
000390 70 ec a3 3d 09 1b a5 be fd 22 93 bd 03 a8 95 be
       0.08004081 -0.3224719 -0.07184408 -0.29229745
0003a0 03 93 6e 3b 67 56 3d be 98 7b 13 be f5 01 6c 3c
       0.0036403544 -0.18489991 -0.14402616 0.0144047635
0003b0 9d 4f 81 3c f9 90 c7 bc 50 40 16 be 7b 59 5f bd
       0.015785033 -0.02436112 -0.14672971 -0.054528695
0003c0 b3 e8 ed bd 02 2f 79 3e 66 67 ac be 26 e5 39 3c
       -0.116166495 0.24334338 -0.33672637 0.011346137
0003d0 2e 40 ee bd 23 10 1a 3e 59 bb ba 3d fe b8 9d be
       -0.11633335 0.15045218 0.09117765 -0.308052
0003e0 be 1f 74 3b bf 8e 57 be ca c8 a5 be 2f 75 a0 be
       0.0037250365 -0.21050547 -0.32379752 -0.31339404
0003f0 5e ae 02 3e 32 3e be bd 7f 72 3e be 40 d9 c3 3d
       0.12761828 -0.092892066 -0.18598364 0.095629215

value_stream.0.bias f4 [256]
000000 33 50 cc 3d 29 77 e9 3d f5 15 8e 3d b4 40 e1 bd
       0.09976234 0.11399681 0.06937782 -0.10998669
000010 69 31 90 3d a4 c2 12 3e af e7 41 3e 4f 73 3f 3e
       0.07040674 0.14332062 0.18936037 0.1869633
000020 43 6f 86 3e b7 cd 10 be 4b 91 a9 3e 04 98 39 be
       0.2625676 -0.14140974 0.33118662 -0.18124396
000030 aa c4 d8 bd 09 3e a5 3e 44 7b 46 3e cb 30 a5 3e
       -0.10584386 0.32273892 0.1938296 0.3226379
000040 8a 74 c9 3d 45 b0 4a 3e 4c f3 31 3e 8f ef 35 be
       0.09836681 0.19793804 0.17377967 -0.17767166
000050 79 c3 10 3e 76 74 7a 3e 34 02 a2 3d 7b 25 79 3e
       0.14137067 0.24458489 0.079105765 0.24330704
000060 15 1a 0e 3e dd 27 68 3e 84 b9 d0 3d d9 25 43 3e
       0.13877137 0.22671457 0.10191634 0.19057406
000070 3a 8e 13 3e 93 b7 0b 3e c7 ea 13 3e 32 27 03 bd
       0.14409724 0.13644247 0.14445029 -0.0320198
000080 6e 2c 3c bc f1 00 52 3e 64 2b 09 3e 91 25 99 3d
       -0.011485202 0.20508172 0.13395458 0.07477868
000090 8c d7 32 bc c3 21 01 be cd 8d ec 3c 74 73 eb 3c
       -0.010915648 -0.12610535 0.02887621 0.028741576
0000a0 90 43 1f be 94 68 ba 3e d5 f6 20 3e fc 34 70 3e
       -0.15553117 0.36407912 0.15719159 0.23457712
0000b0 0d 99 82 bd 97 6b 2d 3e c7 a2 68 3e 4e 79 67 3e
       -0.06376848 0.16935574 0.22718345 0.22604868
0000c0 b4 f6 50 3e c3 78 87 3b 28 f8 09 3e 85 4a 78 bd
       0.2040661 0.004134269 0.1347357 -0.060617942
0000d0 8d 1c 5f 3e 01 ed f0 3c 28 8e e6 3c df 22 8d 3e
       0.21788235 0.029409887 0.028143957 0.27565667
0000e0 23 96 23 3e 11 65 04 3e 8e 29 79 3e 3d 3b b8 3e
       0.15975241 0.12929179 0.24332258 0.35982695
0000f0 92 16 63 3e cd 97 27 3e e1 20 71 3e af 37 82 3e
       0.22176579 0.16366501 0.23547699 0.25433108
000100 e3 1d 62 3e 78 48 97 3e 1e ba 7f 3e cb 34 b6 3d
       0.22081713 0.29547477 0.24973342 0.08896788
000110 83 37 6d 3e e0 1a d9 bb 4f c9 3e 3e 1e 2b 33 3e
       0.23165707 -0.006625518 0.1863148 0.17496917
000120 b3 7e 01 3e b9 16 a5 bd c4 36 ff 3d 86 26 d4 3d
       0.12645988 -0.08060975 0.124616176 0.1035891
000130 5a 0a 8a 3e 3b 05 fa bd dc 1f db 3d 44 c8 16 be
       0.26961023 -0.12208029 0.10699436 -0.14724833
000140 49 8c 0e 3e 59 b6 6b be 7a a3 d3 bd 29 35 fa 3d
       0.13920702 -0.23018779 -0.10333915 0.12217171
000150 da 4c cc 3d f5 30 07 3e 05 a2 b4 bd 0c 2c 1d 3e
       0.09975596 0.1320227 -0.08819965 0.15348834
000160 32 62 b1 bd 37 25 d4 3d e7 0b e9 bc 23 1b 0f be
       -0.086613074 0.10358661 -0.028448058 -0.13975196
000170 49 f9 6d 3e ae 12 5b 3e 2b fd ea bd 31 2c a8 3e
       0.23239626 0.21393844 -0.11474069 0.32846215
000180 ed f5 1c 3e c9 b8 31 3e bf 2b a6 3d 0a c7 21 3e
       0.15328188 0.17355646 0.08113813 0.15798584
000190 9a 61 0a 3e c7 de de bd e6 62 dc bd 76 b2 ad bd
       0.13513795 -0.10882335 -0.10761051 -0.08481304
0001a0 49 fb a7 3e 94 72 c4 3e 0e c8 0a be 87 ff 65 3d
       0.32808903 0.38368666 -0.13552877 0.056151893
0001b0 8f 80 c8 3d 61 6a 97 3d 31 81 83 3e a9 56 bc bd
       0.097901456 0.07393337 0.25684503 -0.091962166
0001c0 da de 98 bc 8f d2 42 3e a7 74 84 3e 90 91 06 be
       -0.018660951 0.19025634 0.2587025 -0.13141465
0001d0 f5 fa 5b 3e 62 28 60 3e 18 c0 0a be 4f f2 d0 bd
       0.21482451 0.21890405 -0.1354984 -0.10202467
0001e0 58 71 6c 3e f4 c6 6b 3e 0d de 90 bd 8d 0a 3a 3e
       0.23090112 0.23025113 -0.07073603 0.18168087
0001f0 a5 69 e9 3d 89 30 f2 3d eb de 48 3e 83 c7 45 3e
       0.11397103 0.118256636 0.19616286 0.19314389
000200 26 73 8d 3e 93 d3 6b 3e d9 16 ac 3e 3b c5 f3 bd
       0.27626914 0.23029928 0.3361118 -0.11902853
000210 41 95 10 be cc 6c 53 3e ef 80 24 3e 77 9b 0a 3e
       -0.14119436 0.20646971 0.1606481 0.13535868
000220 92 57 76 3e 56 1c 0d be 73 dc 4b 3e f0 70 89 3e
       0.24056843 -0.1378034 0.19908313 0.26843977
000230 31 72 27 3e a7 d1 5a 3e 12 b2 db 3d 58 df db 3d
       0.16352154 0.21369039 0.107273236 0.10735959
000240 85 54 18 3e f9 db 0d 3e 83 55 71 3d 84 ad cc 3d
       0.14875992 0.13853444 0.05891944 0.09994033
000250 7d 44 5d 3e 74 62 95 bd 5d 21 7e 3e 44 43 40 3e
       0.21608157 -0.07294169 0.24817415 0.1877566
000260 4c aa 89 bd c0 1c 56 bd 6b 1e c6 3d c1 87 8c b9
       -0.06721935 -0.052273512 0.096737705 -0.00026804025
000270 a6 83 43 bd 4e ea 43 3e db fc 3e bd 63 5b 5d 3e
       -0.04773297 0.19132349 -0.04662786 0.21616893
000280 7b 6f 7e 3e 9f 54 45 3e 3e dd 65 3e 34 05 4b be
       0.24847214 0.19270562 0.22447678 -0.19826204
000290 18 7a 50 3e 79 38 88 bc 85 6c 92 3d 45 27 41 bd
       0.20359075 -0.01662849 0.07149605 -0.04715659
0002a0 98 9a fe bd 36 9d 77 bd bc 88 72 3d 03 24 71 3e
       -0.1243183 -0.060452662 0.05921243 0.23548894
0002b0 f2 60 62 3e 0e a6 3d 3e ea 6f 65 3e 4a f5 5e 3e
       0.22107294 0.18520376 0.22405973 0.21773258
0002c0 e9 3e 8b 3e 7c 23 6c 3d 0d 1f 8b 3e 60 1b 19 3e
       0.27196434 0.057651028 0.27172127 0.14951849
0002d0 af be 0f 3d 43 1b 16 3e 62 cb 2b 3e 40 89 81 3e
       0.03509396 0.14658837 0.16776803 0.25300026
0002e0 14 70 6c 3e ba 81 bb 3e f2 18 0d 3d c9 cd 62 3e
       0.2308963 0.3662241 0.034447618 0.22148813
0002f0 16 fc b2 3e b2 a0 c0 3d a9 50 3d bd a1 fd 50 3e
       0.3495795 0.0940565 -0.0462195 0.20409252
000300 79 6f 89 3e 4c d0 28 3c b9 3c 24 3e 57 35 fd 3d
       0.2684286 0.010303568 0.16038789 0.123636894
000310 43 39 21 bd 01 b0 79 3e da 40 6f 3d 52 4a 58 3e
       -0.03936125 0.24383546 0.058411457 0.21122101
000320 dd d1 2d 3e 5e 69 6c 3e c6 f2 89 3e 96 a8 34 3e
       0.16974588 0.2308707 0.26943034 0.17642435
000330 85 dd 58 bc 01 4a 39 be 71 17 a0 3d 50 1d a4 3e
       -0.013236408 -0.18094636 0.07816971 0.32053614
000340 71 17 6e 3e ce 6b 74 3d 03 9e 96 bd 36 49 23 3e
       0.2325113 0.059673123 -0.07354357 0.15945897
000350 96 13 0c be 36 42 e1 3d 93 cd 2c bd a5 52 b6 bd
       -0.13679346 0.10998957 -0.04218824 -0.08902482
000360 0f 56 44 3e fb 4b 1c 3e b1 1d f6 3d a3 57 80 3e
       0.19173454 0.15263359 0.12017382 0.25066862
000370 8f ef 21 3e 87 c0 83 bd d9 be 25 3e f7 e4 78 3e
       0.1581404 -0.06433206 0.16186084 0.24306093
000380 32 74 87 3e c9 5f 10 3e 5c 9e 39 3e 7d 9a 08 be
       0.26455837 0.14099039 0.18126816 -0.13340183
000390 31 9d ae 3e 15 dd 9d 3e b1 da 84 3e a3 51 4e 3e
       0.34104303 0.30832735 0.25948098 0.2014833
0003a0 8d 70 0b be a3 58 1d 3e 05 ea 7d bd fb 99 0b 3e
       -0.13617153 0.15365843 -0.061990757 0.13632958
0003b0 a9 8b 03 3e 8e 0d 2d 3e 73 16 ed 3d 54 1e 07 3e
       0.12846245 0.16899702 0.115765475 0.13195163
0003c0 87 88 bc 3d 03 4c 35 3e 85 d4 31 3e f3 85 b0 3d
       0.09205728 0.17704777 0.17366226 0.08619299
0003d0 95 fc 8f 3e ce 02 3d be 7e 4b 56 3e 0e d2 0e be
       0.28122392 -0.18458101 0.20927235 -0.13947317
0003e0 e9 48 64 bd f9 23 f9 3d c3 08 db bc 74 74 23 3b
       -0.055733595 0.12165064 -0.026737576 0.0024941238
0003f0 3c 09 73 3e db d9 2a 3e 50 7f cf bd b6 03 7e bd
       0.23733991 0.16684668 -0.10131705 -0.062015258

value_stream.2.weight f4 [1, 256]
000000 28 49 81 be d7 78 92 bf 66 04 25 be af 1b 49 be
       -0.25251126 -1.1443127 -0.16114959 -0.19639467
000010 c3 6b 26 be 02 1f 57 be 95 82 65 be 32 aa 6c bf
       -0.16252045 -0.21007922 -0.22413094 -0.924472
000020 97 36 90 3e e5 19 21 3e 3f 13 1f be f5 49 a2 3d
       0.2816665 0.15732534 -0.15534686 0.079242624
000030 4f c6 4b be ac d9 a7 bf f9 25 1e be 3c 0e 19 be
       -0.19899867 -1.3113303 -0.15444173 -0.14946836
000040 43 2f b9 3e 15 10 21 be 8b 45 78 3e 34 22 b7 3d
       0.3616887 -0.15728791 0.24245279 0.089420706
000050 07 a3 d2 3d ac 88 b6 be 58 47 1a be cc 5c 36 be
       0.10285001 -0.35651147 -0.15066278 -0.17808837
000060 f7 7a b9 be 4c f2 5e be c1 b6 29 be 38 7d 82 be
       -0.36226627 -0.21772116 -0.16573621 -0.2548616
000070 99 1a 50 be 20 8e fa bd a3 c2 df bd 1c 01 c7 3b
       -0.20322646 -0.122341394 -0.10925796 0.0060731303
000080 6e af 9d 3e e1 08 6f 3d 3b 50 ba bd 3c 47 12 be
       0.30797905 0.058358077 -0.09097334 -0.14284986
000090 f7 a0 7b be 4e 0c c9 3d 55 ae 00 3e 0b a7 2a 3e
       -0.24573122 0.098168 0.12566502 0.16665284
0000a0 4f f1 cd 3d ab 0c 8b bf 34 de f4 bd e8 7c 6f 3e
       0.100557916 -1.0863241 -0.119564444 0.23387492
0000b0 62 41 ee 3d 6d 88 06 be 4f 6d 74 be 03 e5 fd bd
       0.116335645 -0.1313798 -0.23869823 -0.12397196
0000c0 09 93 52 be 76 59 3f be 73 8f b2 3e aa 58 7d 3e
       -0.20563902 -0.1868647 0.34875068 0.24740854
0000d0 3f b3 9e be f0 1b 96 3a 32 c8 6d 3e bb ca 0b be
       -0.3099613 0.0011452418 0.232209 -0.13651554
0000e0 de 6f f2 be 0b fd e0 bd 8b a5 2a 3e 1d 51 3e 3e
       -0.47350973 -0.10985764 0.16664712 0.1858563
0000f0 ea ea ac 3e 99 38 f6 bd b2 96 b2 3e 69 6b 24 be
       0.33772975 -0.12022514 0.34880596 -0.16056599
000100 6c 81 53 3e 32 99 85 3e 48 2f ba bd bb 9b 43 be
       0.2065484 0.2609344 -0.090910494 -0.19102375
000110 7a b7 ba be 72 6e 1a 3e d6 ee bd 3e 9f a7 26 be
       -0.36468107 0.15081194 0.3709628 -0.1627488
000120 f3 d5 e1 3d 76 ca 10 3e 47 f8 24 be 3a 01 04 be
       0.11027136 0.14139733 -0.16110335 -0.12891093
000130 3c 85 d6 bd 18 da cd 3d 9c 7c 5c 3e 7c 27 03 3e
       -0.10474631 0.10051364 0.2153191 0.12808031
000140 60 97 13 be 1c 48 d0 3d 6c 3c 2b be 49 3d d7 bd
       -0.14413214 0.10170004 -0.16722268 -0.10509736
000150 ca 0e 0a be 2f 54 51 be db c6 0e 3e 70 e4 55 be
       -0.13482204 -0.2044227 0.13943045 -0.20887923
000160 33 a2 db 3d 77 89 e7 bd 1a 7e 1b be 12 a2 60 be
       0.107242964 -0.11305516 -0.15184823 -0.21936825
000170 93 d9 e2 bd eb 31 8f 3e 52 a5 11 3e 36 57 15 be
       -0.11076655 0.27967772 0.14223221 -0.1458405
000180 95 66 eb bd f1 8c 80 3e 09 ed 5d 3e b3 ff 68 be
       -0.11494175 0.2510753 0.21672453 -0.22753792
000190 cc d1 9a be a6 8e 0d bc 5e 67 02 3e 31 dc 13 3e
       -0.30238187 -0.008639967 0.12734744 0.14439465
0001a0 e0 89 22 be 80 29 3f bf 55 31 21 3e e6 70 ea bd
       -0.15872908 -0.746727 0.15741475 -0.11447315
0001b0 f6 4e 06 3e ea 14 0e be d4 04 9d 3e 87 a8 98 3d
       0.13116059 -0.13875166 0.30667746 0.07454019
0001c0 0b 13 3e 3e c3 d9 81 3e 8e 89 c2 3e c5 6d 3d be
       0.18561952 0.25361452 0.3799557 -0.18498905
0001d0 38 34 52 3e 32 67 0e be 8e 8f 96 3e 2e 79 e4 3d
       0.20527732 -0.13906553 0.294064 0.11155926
0001e0 18 40 0b bf de a6 2d be 43 3c bc ba 93 03 f0 bd
       -0.54394674 -0.16958186 -0.0014361221 -0.11719432
0001f0 43 9f 99 bc 04 a0 1b be b7 67 97 3e 76 d5 1e be
       -0.0187527 -0.1519776 0.29571316 -0.15511116
000200 f5 2d 98 3e 37 2f 4e be b3 9a 70 bf 9d 30 b4 3d
       0.29722562 -0.20135199 -0.9398605 0.08798335
000210 41 05 ce 3d 42 dc 38 be 28 b4 47 3e 56 7d 73 bf
       0.10059596 -0.18052772 0.19502318 -0.9511312
000220 6f b3 b8 bf 20 78 db 3d d2 79 57 bf 27 66 51 be
       -1.4429759 0.107162714 -0.8417026 -0.20449124
000230 cb 09 21 be 98 20 3a be 34 5b 57 3e 75 1b 00 be
       -0.15726392 -0.18176496 0.21030885 -0.12510474
000240 fd 9c f4 3d cc 1a 0a be 79 70 e6 bd bd 57 e2 3d
       0.11944006 -0.13486785 -0.11251921 0.11051891
000250 0c 51 fe bd 19 c7 2a be b8 1f 35 bf 23 11 46 3e
       -0.12417802 -0.16677512 -0.70751524 0.19342475
000260 89 61 88 3e 99 ab b8 be 58 41 10 3e 0d f4 87 be
       0.26636913 -0.3606842 0.14087427 -0.26553383
000270 cc 9a 24 3e 0a 17 32 be 5c e1 49 3e 5e 9e 56 be
       0.16074675 -0.17391601 0.19714874 -0.2095885
000280 03 ed 7d 3e d5 90 45 3e e3 51 1d bf 67 82 b0 3d
       0.24797444 0.1929353 -0.61453074 0.08618622
000290 d4 4b 1b be 47 f1 55 be 4b a4 21 be 67 93 8d 3e
       -0.15165645 -0.20892821 -0.15785329 0.27651522
0002a0 36 93 88 3d de 00 4c be d5 ad 17 be f7 0c ec be
       0.06668703 -0.19922206 -0.14812405 -0.4610364
0002b0 15 62 0d be e5 06 01 be 8d 96 0a be 04 04 f9 be
       -0.13806947 -0.12600286 -0.13533993 -0.48635876
0002c0 a8 3d 8c 3e 8d 40 32 3d 93 38 16 be b9 e7 28 be
       0.2739079 0.04351859 -0.14670019 -0.16494645
0002d0 22 3b 09 be a2 8c 19 be 08 11 06 3e 00 b3 a6 3e
       -0.13401464 -0.14995053 0.13092434 0.3255844
0002e0 20 0b 13 be 25 9f 57 be 56 4f 13 be 5d a4 94 3e
       -0.14359713 -0.21056803 -0.14385733 0.2903165
0002f0 92 eb 38 be ad e2 eb bd 13 1c 30 3e 25 10 2d be
       -0.18058613 -0.11517844 0.1719821 -0.1690069
000300 39 32 95 3e 01 2e 2a be be 96 d3 bd aa ef 15 be
       0.2913988 -0.16619112 -0.10331486 -0.14642206
000310 29 77 04 3e 73 21 c5 3e af 09 08 be 82 0a 39 be
       0.12936081 0.38502082 -0.13284944 -0.18070415
000320 b3 c0 72 be 29 33 d0 3e e1 43 f9 3e 2b b0 fb bd
       -0.23706321 0.40664032 0.486846 -0.12289461
000330 3f ce 93 3e 60 90 3c be 39 26 72 be 3b c4 48 bf
       0.2886829 -0.1841445 -0.23647393 -0.78424424
000340 c1 a3 a6 bd 04 43 3a 3d ea fc 6e 3e 53 ff 93 3d
       -0.08136702 0.045474067 0.23338667 0.072264336
000350 19 27 de 3d 91 00 58 be e4 45 25 be a1 3f 0d 3e
       0.10847301 -0.21093966 -0.16139942 0.13793804
000360 fc f7 e3 bd b5 6c b6 be 1b ec 3c be 5c 4a f5 bd
       -0.11131284 -0.35629812 -0.18449442 -0.119770736
000370 a2 16 c9 bd a4 d8 f3 3d e8 58 02 be 2f 49 52 3e
       -0.0981877 0.11906555 -0.12729228 0.2053573
000380 f5 56 38 be cf 97 1b be 34 74 4a 3e 72 95 72 3e
       -0.18001921 -0.15194629 0.1977089 0.23689821
000390 08 71 25 be 5b f9 1a 3e 4b d1 86 3e c0 44 37 be
       -0.16156399 0.15134184 0.26331553 -0.1789732
0003a0 ab 35 2e be 2c 78 16 be ca 1d 17 3e 3c 71 1e be
       -0.1701266 -0.1469428 0.14757457 -0.15472883
0003b0 78 89 d5 3d f4 8c ef bd 7d 12 ba 3d be bb 23 be
       0.10426611 -0.116968066 0.090855576 -0.15989587
0003c0 ce 1a 04 be de 60 33 3d 47 ae 13 be f1 d1 22 be
       -0.1290085 0.04379355 -0.1442195 -0.15900399
0003d0 30 07 b6 3e 82 e3 bc 3d f9 e4 0d bf 95 98 ec 3d
       0.3555236 0.09223081 -0.5542751 0.1155254
0003e0 39 1a a1 3e 61 69 af 3d e8 47 2a be 33 b9 cc bd
       0.3146532 0.08565021 -0.16628993 -0.099962614
0003f0 8c 95 1c be 0d 06 e5 be 24 ae 49 be ca 94 40 be
       -0.15291423 -0.4473118 -0.19695336 -0.18806759
