active_slam_rl/training_output_frontier/20260124_140852_frontier/d3qn_frontier_ep240.pth (torch, 901938 bytes, 11 tensors)

feature.0.weight f4 [256, 100]
0	0xbd82b2cb	-0.06381758
1	0xba54f367	-0.0008123428
2	0xbd8604b0	-0.06543863
3	0xbddda5c6	-0.108226344
4	0xbc7082c4	-0.014679614
5	0xbd3e9b90	-0.046535075
6	0x3a2b0afb	0.00065247685
7	0xbe0d141b	-0.13777201
8	0x3b40c0d8	0.0029411819
9	0xbe0ed0c1	-0.13946821
10	0xbb86ee1f	-0.0041177417
11	0xbdd2cb60	-0.10292697
12	0xbdae99e3	-0.08525445
13	0xbd2f061e	-0.042730443
14	0x3d445c1a	0.047939397
15	0xbe00a6ce	-0.12563631
16	0xbd5cb730	-0.05388564
17	0xbe2ae43f	-0.16688631
18	0xbdcadd95	-0.09905545
19	0xbc602b13	-0.013682145
20	0x3c7e8709	0.015535125
21	0xbc9eefed	-0.019401515
22	0xbc7098ed	-0.014684898
23	0xbd875795	-0.06608502
24	0xbc98d0e5	-0.018654296
25	0xbd74c90d	-0.05976205
26	0x3cef9ef9	0.029250609
27	0xbcc95865	-0.024578283
28	0x3d90984e	0.070603
29	0xbd860e02	-0.065456405
30	0x3db5ca2e	0.08876453
31	0xbd761acd	-0.060084153
32	0xbd288bd9	-0.041148994
33	0x3d957261	0.07297207
34	0x3d57b9e1	0.052667502
35	0xbe010652	-0.12600067
36	0xbd3601d4	-0.044435337
37	0xbd9eb1a5	-0.07748727
38	0xbc2d6ef5	-0.010585536
39	0xbe3b63ae	-0.18299744
40	0xbd0385a4	-0.03210987
41	0x3c3bef0d	0.011470568
42	0xbe23527f	-0.15949439
43	0xbc044f12	-0.008075492
44	0xbd94623b	-0.072452985
45	0xbdb98dfb	-0.09060284
46	0x3b5a94e1	0.00333529
47	0xbd878b1e	-0.066183314
48	0xbe8dd8fd	-0.2770461
49	0xbe898224	-0.26857102
50	0xbea335cd	-0.31876984
51	0xbea9d87d	-0.3317298
52	0xbe5ac7fb	-0.21365349
53	0xbe7b705c	-0.2455458
54	0xbe10bc05	-0.14134224
55	0xbe051483	-0.12996106
56	0x3b949599	0.004534435
57	0xbe2e6d3c	-0.17033857
58	0xbe3168c8	-0.17325127
59	0xbcce3e62	-0.02517623
60	0xbc93322f	-0.017968265
61	0x3b860183	0.0040895357
62	0x3d35ff24	0.044432774
63	0xbdbe111b	-0.09280606
64	0x3da903e3	0.082526945
65	0x3db75fc9	0.089538164
66	0xbd45f199	-0.04832611
67	0x3dc93af9	0.09825701
68	0x3da3d098	0.079987705
69	0xbcc81c8c	-0.024427675
70	0x3d8761b2	0.06610431
71	0x3d152b97	0.036418524
72	0xba821a53	-0.0009926058
73	0xbd497430	-0.04918307
74	0xbd188247	-0.037233617
75	0x3c9ad172	0.0188987
76	0xbbdc4a43	-0.00672272
77	0x3e1809c5	0.14847477
78	0x3dbe6d60	0.092982054
79	0x3de3ac3d	0.11116836
80	0x3d965997	0.07341307
81	0xbd0b151e	-0.033955686
82	0x3ccc79f0	0.024960488
83	0xbccd2df2	-0.025046322
84	0xbcc1f107	-0.023674501
85	0xbd2ed2b5	-0.042681415
86	0x3ddf107a	0.108918145
87	0xbc0036a2	-0.0078255255
88	0x3ce42eba	0.027854312
89	0x3d85e3db	0.065376006
90	0xbe0b83ce	-0.13624498
91	0xbcc9a8d4	-0.024616636
92	0xb8bcfdf2	-9.0118396e-05
93	0xbe036fa0	-0.1283555
94	0xbdd258fe	-0.1027088
95	0xbd94c42b	-0.072639786
96	0xbe0d67f1	-0.13809182
97	0x3d887ab8	0.06664032
98	0xbd34f416	-0.04417809
99	0x3bc00b83	0.0058607473
100	0x3db3a6cf	0.087720506
101	0x3d535da6	0.051602982
102	0xbc4d5e13	-0.012534636
103	0xbbd052a3	-0.0063575073
104	0xbdbe2cfb	-0.09285923
105	0x3d48d934	0.049035266
106	0xbb811920	-0.0039397627
107	0x3d9b295a	0.075762466
108	0xbd5b1a78	-0.05349204
109	0xbbb0c015	-0.0053939917
110	0x3d1f3fbe	0.03887915
111	0xbda96285	-0.08270744
112	0x3db14f0f	0.08657657
113	0x3d50ebfe	0.05100631
114	0xbd849924	-0.06474522
115	0x3c58561d	0.013204125
116	0xbdf88c71	-0.12136162
117	0xbd1f712f	-0.0389263
118	0xbce70651	-0.028201254
119	0x3c8655cc	0.016398333
120	0xbd89eedb	-0.06735011
121	0xbe277193	-0.16351919
122	0xbdf88e2d	-0.12136493
123	0xbe1ead73	-0.15495853
124	0xbde7a8dd	-0.11311505
125	0xbd41902e	-0.04725664
126	0xbd55ab08	-0.05216506
127	0xbd539ae7	-0.0516614
128	0xbd5cd4eb	-0.053913992
129	0xbc9fe7c0	-0.019519687
130	0xbe07b2cf	-0.13251804
131	0xbd8ebc19	-0.069694705
132	0xbda87588	-0.08225542
133	0xbda92c3c	-0.0826039
134	0x3dbbd87b	0.0917215
135	0x3df6c8f1	0.12050045
136	0x3e192864	0.14956814
137	0x3d20cb76	0.039256535
138	0x3e3a237b	0.18177597
139	0x3e0a50b9	0.13507356
140	0x3df583d3	0.11988034
141	0x3dc7dd07	0.097589545
142	0x3de5903a	0.1120915
143	0x3df4c0d3	0.11950841
144	0x3e0c9662	0.13729241
145	0x3ce807df	0.028324066
146	0xbc795907	-0.01521898
147	0xbca3dd18	-0.020002887
148	0x3d186eec	0.03721516
149	0x3de9ce3c	0.11416289
150	0x3e1bdc20	0.1522069
151	0x3e1d9a52	0.153909
152	0x3db5b3e0	0.08872199
153	0xbca2c8c4	-0.019871123
154	0xbd1fa6a7	-0.03897729
155	0x3c62974a	0.013830015
156	0x3cf621eb	0.03004547
157	0x3e20039c	0.15626377
158	0x3df580eb	0.1198748
159	0x3d3124ab	0.04324786
160	0x3de52251	0.11188186
161	0x3d3169c3	0.043313753
162	0x3d852a58	0.06502217
163	0x3dd25612	0.10270323
164	0xbb96fa17	-0.0046074498
165	0xbc8d33cc	-0.017236613
166	0xbbc551c3	-0.0060217096
167	0xbe71ec6d	-0.23625346
168	0xbde2e31d	-0.11078475
169	0xbeb0af86	-0.34508914
170	0xbe8c91c8	-0.27454972
171	0xbe280c31	-0.164109
172	0xbe4be025	-0.19909723
173	0xbe29823d	-0.16553588
174	0xbe0d6e11	-0.13811518
175	0xbed71c5b	-0.4201382
176	0xbeb8d46f	-0.36099574
177	0xbe49decd	-0.19713898
178	0xbe7f9e2b	-0.2496268
179	0xbe524f7c	-0.20538133
180	0xbe2875e5	-0.16451223
181	0xbe9c570b	-0.3053516
182	0xbe122302	-0.14271167
183	0xbe7ae797	-0.24502407
184	0xbe712e3f	-0.23552798
185	0xbe60f419	-0.21968116
186	0xbe695171	-0.22784974
187	0xbe2be6f5	-0.16787322
188	0xbdfb75c1	-0.12278319
189	0xbd3e16d2	-0.046408482
190	0xbde703ca	-0.112800196
191	0xbd8b9a22	-0.06816508
192	0xbd1450f4	-0.036210015
193	0xbd5d7bee	-0.054073267
194	0xbe1191cb	-0.14215772
195	0xbd3a23f4	-0.045444444
196	0x3c8cda83	0.017194038
197	0xbdc1b86c	-0.09459004
198	0xbd54383f	-0.051811453
199	0x3c4b48a9	0.01240746
200	0xbd04c48a	-0.032413997
201	0x3d499e63	0.049223315
202	0xbcdd3ec7	-0.027007474
203	0xbcfb1e24	-0.03065402
204	0xbd0d2455	-0.034458477
205	0x3d54c61a	0.051946737
206	0x3d7b78ad	0.061394382
207	0x3df32f89	0.11874301
208	0xbc97f095	-0.018547336
209	0x3dac7822	0.08421351
210	0x3c8c2fd4	0.01711265
211	0x3cb10d0f	0.021612672
212	0x3dc7606c	0.09735188
213	0x3cfacaff	0.030614374
214	0x3d00eef5	0.031477887
215	0xbba33734	-0.004980946
216	0x3d6f7f1f	0.05847084
217	0xbcd5e62e	-0.026110735
218	0x3e2530a0	0.1613183
219	0x3da09825	0.07841519
220	0xbd5e2775	-0.054236848
221	0x3b211cc9	0.0024583808
222	0xbd089c43	-0.033352148
223	0xbc9bdf49	-0.01902737
224	0x3d33a22c	0.04385583
225	0x3d7bf4dc	0.061512813
226	0xbd936792	-0.07197489
227	0xbd979235	-0.07400934
228	0xbcecdf30	-0.028915018
229	0x3b7f5f62	0.0038966765
230	0xbdba78d6	-0.09105079
231	0xbca38d3d	-0.019964809
232	0xbc10c7a5	-0.008836661
233	0xbd8cfa32	-0.068836585
234	0x3c4dccb3	0.012561011
235	0x3d918867	0.07106095
236	0x3ddbc8ee	0.10731684
237	0x3ca8d891	0.02061108
238	0x3e228fee	0.15875217
239	0x3cc9e7b9	0.024646627
240	0x3daa757e	0.08323191
241	0xbcb459e2	-0.022015516
242	0x3dfa7993	0.1223022
243	0x3dd718b1	0.105027564
244	0x3e0768d2	0.1322358
245	0x3d5d86b2	0.054083534
246	0x3e2abfb5	0.16674693
247	0x3e01c99e	0.12674567
248	0xbd30679f	-0.04306757
249	0xbd9b9658	-0.07597035
250	0x3bc4c381	0.006004751
251	0x3cd1b239	0.025597678
252	0x3d9f02f0	0.07764232
253	0x3d884ec8	0.06655651
254	0x3c48bb42	0.012251677
255	0x3d6a478b	0.057197135

feature.0.bias f4 [256]
0	0x3e4f72b9	0.20258607
1	0x3e3395e1	0.17537643
2	0x3cd9e565	0.026598642
3	0x3e45534c	0.19270056
4	0xbe8af823	-0.27142438
5	0xbe81dac0	-0.25362206
6	0x3df103fa	0.117683366
7	0x3e513955	0.20432027
8	0x3ec5c305	0.3862535
9	0x3e87b76f	0.26507136
10	0xbe69b1da	-0.22821751
11	0xbd0b399b	-0.033990484
12	0x3e8e383a	0.27777272
13	0x3e8bf488	0.27335
14	0xbde6eb23	-0.112753175
15	0x3db386dc	0.08765957
16	0xbd5fe609	-0.054662738
17	0x3ea38e3f	0.31944463
18	0x3db18826	0.086685464
19	0xbe1d11fa	-0.15338889
20	0x3ea36b6e	0.319179
21	0xbd3b229b	-0.0456873
22	0xbe827216	-0.25477666
23	0x3e57df6c	0.21081322
24	0xbeccec99	-0.4002426
25	0xbe59319d	-0.21210332
26	0xbe09d614	-0.1346057
27	0x3e5fd275	0.21857627
28	0xbe47b8ff	-0.19504164
29	0x3e7afd23	0.24510626
30	0xbc252259	-0.01007899
31	0xbe957c7a	-0.2919653
32	0xbdbef249	-0.09323556
33	0xbe4131dc	-0.18866676
34	0x3d8be124	0.068300515
35	0xbe837289	-0.2567332
36	0xbcc4a95d	-0.02400654
37	0x3e909776	0.28240556
38	0x3e7ae86d	0.24502726
39	0x3eaee5e6	0.34159774
40	0x3dfca9a4	0.12337044
41	0xbe06750f	-0.13130592
42	0x3d8fb1f1	0.070163615
43	0x3e02586e	0.12729046
44	0xbe7a26db	-0.24428885
45	0xbdfcce83	-0.123440765
46	0xbe7d9682	-0.24764445
47	0xbd9b2738	-0.0757584
48	0x3ea2f123	0.31824598
49	0x3dfc31d5	0.12314192
50	0xbd891531	-0.06693495
51	0xbe3f360d	-0.18672962
52	0xbe189e2f	-0.14904092
53	0x3e30bcdd	0.17259546
54	0x3ce5c7e8	0.028049424
55	0xbdbe0f6c	-0.09280285
56	0x3e233609	0.15938582
57	0xbdc6510f	-0.096834294
58	0xbceb3c74	-0.02871535
59	0x3d9e0b97	0.07717054
60	0xbc8e993c	-0.017407052
61	0x3e4eafa5	0.2018419
62	0xbe99e9e5	-0.3006126
63	0x3e81cde5	0.25352398
64	0x3ec55438	0.38540816
65	0x3e96e0e2	0.29468447
66	0xbe1c5a9e	-0.15268943
67	0x3e92048b	0.2851909
68	0xbe8954c7	-0.26822492
69	0xbe40b718	-0.18819845
70	0xbd5396de	-0.05165755
71	0x3e1d73bf	0.15376185
72	0x3d5faee7	0.05461016
73	0xbe5c513b	-0.21515362
74	0xbe1497ef	-0.14511083
75	0x3ceeb159	0.0291373
76	0xbcb3e2a2	-0.021958653
77	0xbe20567f	-0.15657996
78	0xbc98a11e	-0.018631514
79	0x3e8c9e65	0.27464595
80	0x3ed037fc	0.40667713
81	0x3d667cd0	0.056271374
82	0x3e8b487e	0.27203745
83	0xbe367ee5	-0.17821844
84	0x3e9014ec	0.28140962
85	0xbdd58e91	-0.10427583
86	0x3cf42ead	0.029807413
87	0x3e5302ca	0.20606533
88	0x3d113e66	0.0354599
89	0x3e828fc7	0.25500318
90	0x3ed4f425	0.41592517
91	0xbe1767ae	-0.14785644
92	0x3cc60230	0.024170965
93	0x3ca145ad	0.019686544
94	0x3ea47926	0.3212368
95	0x3eb6fdad	0.35740414
96	0x3e0355e5	0.12825735
97	0x3e9b6b29	0.30355194
98	0x3e2fd754	0.17171985
99	0xbe31094e	-0.17288706
100	0x3ea12eb2	0.31480938
101	0x3e77755f	0.24165867
102	0xbd99a407	-0.07501989
103	0x3d16c41a	0.03680811
104	0x3ec58fe2	0.38586336
105	0x3eda00de	0.42578787
106	0x3e91a6ea	0.28447658
107	0x3ea2acd0	0.3177247
108	0x3e1ed891	0.15512301
109	0xbd98f770	-0.0746907
110	0xbe37ab6d	-0.17936487
111	0xbe6dc887	-0.23221026
112	0x3abdf2ac	0.0014491878
113	0x3e9db47f	0.3080177
114	0x3e3fc39b	0.18726961
115	0xbdcb5de9	-0.09930021
116	0xbd877e74	-0.06615916
117	0xbe5c9ec7	-0.21544944
118	0x3e96f175	0.29481092
119	0xbd934cab	-0.07192358
120	0xbe64970c	-0.22323245
121	0xbd011032	-0.031509586
122	0x3da8b67c	0.08237931
123	0xbe9865cb	-0.29765162
124	0x3e90a34e	0.28249592
125	0x3e0a3686	0.13497362
126	0x3ed4f509	0.41593197
127	0xbc686832	-0.014184998
128	0x3dfffd04	0.12499431
129	0x3eae2b47	0.34017393
130	0x3e9d97d2	0.30779892
131	0xbb4f2de1	-0.003161304
132	0x3e7ee5b2	0.2489231
133	0xbdd30cfd	-0.10305212
134	0x3e77ba6f	0.24192213
135	0x3e6bf03d	0.23040862
136	0x3e8d3348	0.27578187
137	0x3e7e5421	0.2483678
138	0x3e477226	0.19477138
139	0xbe7104c5	-0.23536976
140	0x3ea40cb7	0.3204095
141	0xbda558aa	-0.08073552
142	0xbe92d7f5	-0.28680387
143	0xbe5e2674	-0.21694356
144	0x3ea95cab	0.33078513
145	0x3eaf1c13	0.34201106
146	0x3d323bd2	0.04351408
147	0x3d44b837	0.048027243
148	0x3e6e9c6f	0.23301862
149	0xbddb3159	-0.10702772
150	0x3ea00db8	0.31260467
151	0xbead5b02	-0.33858496
152	0x3e935b74	0.2878071
153	0xbdeddc98	-0.116143405
154	0x3ec36f03	0.38170633
155	0x3edc9c4c	0.43087995
156	0x3eb16b13	0.34652004
157	0x3dbcf17f	0.09225749
158	0x3e4706fa	0.19436255
159	0x3d97e621	0.074169405
160	0xbd8fa591	-0.07014001
161	0x3e7dc6e6	0.24782905
162	0x3e327877	0.17428766
163	0x3ec1bbf5	0.37838712
164	0x3d3de49d	0.0463606
165	0xbd41121f	-0.047136422
166	0x3d0b995c	0.0340818
167	0x3b62b507	0.0034592764
168	0x3ead33b0	0.33828497
169	0xbdc8ba6c	-0.09801182
170	0x3e070c8c	0.1318838
171	0xbddc8218	-0.10767001
172	0x3e88b4ee	0.26700538
173	0x3d8b8f62	0.068144575
174	0x3e913c2b	0.28366217
175	0xbe945977	-0.28974506
176	0xbdbe8714	-0.09303108
177	0xbe2bd246	-0.16779432
178	0xbb58addd	-0.0033062615
179	0x3e20fb8c	0.15720958
180	0x3e762de6	0.24040946
181	0x3dec2c71	0.11531914
182	0xbe889a16	-0.26680058
183	0xbeac9f03	-0.33715066
184	0x3e775632	0.24153975
185	0xbdfa7b53	-0.122305535
186	0x3d07a3e1	0.03311527
187	0xbe876d8c	-0.26450765
188	0x3e3913a8	0.18073905
189	0x3e515b76	0.20445046
190	0x3eb77c01	0.35836795
191	0x3e156bad	0.14591856
192	0x3cc3a0cd	0.023880387
193	0xbe085667	-0.1331421
194	0x3ea8a674	0.32939494
195	0xbdab3589	-0.083598204
196	0x3e11ec8e	0.14250395
197	0x3d57a0e7	0.052643683
198	0xbdcfa971	-0.1013974
199	0xbe7edcbe	-0.24888894
200	0x3d853db1	0.06505907
201	0xbe974a11	-0.29548696
202	0xbe04fc3d	-0.12986846
203	0xbe1ae103	-0.15124898
204	0x3e9879b1	0.29780343
205	0xbe3de86b	-0.18545692
206	0x3eb8a1e7	0.36061022
207	0x3b3ff0e9	0.002928788
208	0x3eb818ea	0.35956508
209	0x3e0619ee	0.13095829
210	0x3e8270b9	0.25476626
211	0xbe78bcfa	-0.24290839
212	0x3ddf3133	0.10898056
213	0x3d3bc7af	0.04584473
214	0xbe278405	-0.16358955
215	0xbe107e15	-0.14110596
216	0x3e77040b	0.24122636
217	0xbe85a247	-0.2610037
218	0x3d3c03f6	0.045902215
219	0x3dcb55ab	0.09928449
220	0x3ea40148	0.32032228
221	0x3ec7c10a	0.39014465
222	0xbe62127f	-0.22077368
223	0x3ea998f3	0.33124503
224	0x3ca591ac	0.020211063
225	0x3e996691	0.29961064
226	0x3e5e73f0	0.21723914
227	0x3e7e9a35	0.24863513
228	0x3e5ad94c	0.21371955
229	0x3e79462b	0.24343173
230	0x3e839829	0.25702026
231	0xbd9159c5	-0.070972
232	0xbce04030	-0.027374357
233	0x3ddc7679	0.10764784
234	0xbe9c7c47	-0.30563566
235	0xbe4c0740	-0.1992464
236	0xbc0f8c18	-0.008761428
237	0xbe4671d2	-0.19379357
238	0xbe0b4d08	-0.13603604
239	0xbd3f11f1	-0.04664797
240	0x3e91c507	0.28470632
241	0x3ea00411	0.31253102
242	0x37624bfb	1.348834e-05
243	0xbe813720	-0.2523737
244	0x3db2507e	0.08706759
245	0x3e17a037	0.14807211
246	0xbe2aaba4	-0.16667038
247	0x3e2a5bd1	0.16636588
248	0xbe523f1b	-0.20531885
249	0x3ea969f4	0.33088648
250	0x3ecbd8ab	0.39813742
251	0xbd6a4af8	-0.057200402
252	0xbdc2a1c2	-0.09503509
253	0x3ead7f58	0.33886218
254	0x3e668a3b	0.22513668
255	0xbe030ba7	-0.12797414

feature.2.weight f4 [256, 256]
0	0xbc6b15cd	-0.014348459
1	0xbdaea32f	-0.085272186
2	0xbce8cf02	-0.028419022
3	0xbddfcbd7	-0.10927551
4	0x3d32f052	0.04368622
5	0x3d6b3cb9	0.057430957
6	0xbdb163fa	-0.08661647
7	0x3d5c058b	0.053716224
8	0x3d54794e	0.051873498
9	0xbca66a8c	-0.020314477
10	0x3dd54bac	0.10414824
11	0xbe26d057	-0.16290413
12	0xbbf2f259	-0.007414144
13	0xbdbb93aa	-0.09159024
14	0x3cfef2e8	0.031121686
15	0x3c77dfeb	0.01512907
16	0x3ce0cd22	0.027441565
17	0xbe93f9db	-0.28901562
18	0xbe469d13	-0.19395857
19	0xbb238f95	-0.0024957408
20	0xbea67b65	-0.32516018
21	0xbd205d81	-0.039151672
22	0x3e22e19c	0.15906376
23	0xbeb5bac8	-0.35494065
24	0xbbd52cd2	-0.006505587
25	0x3e14ac25	0.14518793
26	0x3d9f3f0f	0.07775699
27	0x3d625e3f	0.05526566
28	0xbe2b86ec	-0.16750687
29	0xbece2e6b	-0.4026979
30	0x3d806028	0.0626834
31	0x3d97dd62	0.07415272
32	0x3dccdc8b	0.10003003
33	0x3df33b8d	0.11876593
34	0xbc897791	-0.016780647
35	0xbabc2990	-0.0014355648
36	0xbd398b1b	-0.045298677
37	0xbe03976b	-0.1285073
38	0x3c9e2023	0.019302433
39	0x3d12784a	0.035759248
40	0x3d714b21	0.05890954
41	0x3d47b292	0.048754282
42	0xbd6b4551	-0.057439152
43	0xbe67552c	-0.22591084
44	0x3dd6fa0b	0.10496911
45	0xbdb8264d	-0.0899168
46	0xbdb07ac6	-0.08617167
47	0x3b3b6603	0.002859474
48	0xbe8467eb	-0.25860533
49	0xbe4ea858	-0.20181406
50	0x3db80f19	0.08987255
51	0x3d2fe4c8	0.042942792
52	0x3cbce7d6	0.023059767
53	0xbd6bdb33	-0.05758209
54	0xbec17979	-0.3778799
55	0xbd5e49d7	-0.054269638
56	0xbe8b5c20	-0.27218723
57	0xbb57040e	-0.0032808813
58	0x3c80424d	0.015656615
59	0x3c247961	0.010038705
60	0x3dee8504	0.116464645
61	0xbe698817	-0.2280582
62	0x3db6f9f5	0.08934394
63	0xbd200f5b	-0.039077144
64	0xbe3fd6ff	-0.18734358
65	0xbeb1c363	-0.3471938
66	0x3d87707f	0.06613254
67	0xbd9c0bb2	-0.07619418
68	0x3ca38df1	0.019965144
69	0x3c824b7e	0.015905138
70	0x3d92e4e1	0.071725614
71	0x3bce4fe7	0.006296146
72	0xbe1fcdb9	-0.1560582
73	0xbd3cb438	-0.046070307
74	0x3d9c2ee9	0.07626135
75	0x3dbb3f02	0.09142877
76	0xbdb53602	-0.08848192
77	0x3dd51854	0.10405031
78	0x3d436dd6	0.04771217
79	0x3d5fef09	0.05467132
80	0x3be29509	0.006914739
81	0xbd44b38c	-0.04802279
82	0x3b03302e	0.002001773
83	0xbd9d0eeb	-0.07668861
84	0x3d293cd0	0.04131776
85	0x3e241b6f	0.1602609
86	0xbd3283f3	-0.043582868
87	0x3d3bb7cf	0.04582959
88	0xbc84a2f1	-0.016190978
89	0x3db7aebc	0.08968875
90	0x3d309d2d	0.043118645
91	0xbc25f903	-0.01013017
92	0xbe9d2152	-0.30689484
93	0x3d560781	0.05225325
94	0x3d380980	0.044930935
95	0x3e808e49	0.25108555
96	0xbeb29f56	-0.3488719
97	0xbd79a89e	-0.06095182
98	0xbd8cc16b	-0.06872829
99	0x3dd362dd	0.10321591
100	0xbd2cb8b5	-0.042168338
101	0xbdcc8b78	-0.09987539
102	0xbd214351	-0.03937084
103	0xbe8afb96	-0.2714507
104	0xbe682ede	-0.22674128
105	0xbeba1e8f	-0.3635144
106	0xbe6d479a	-0.23171845
107	0xbf3326e6	-0.6998123
108	0xbc6e6316	-0.014549991
109	0x3cab92c4	0.020944007
110	0xbcccc1d4	-0.024994768
111	0xbde58cf1	-0.11208523
112	0xbdd06748	-0.10175949
113	0x3d62a4df	0.055333015
114	0x3c47332e	0.012158198
115	0x3da3d52b	0.07999643
116	0x3de08278	0.10962385
117	0x3bdc9f82	0.006732882
118	0xbcd4150f	-0.025888948
119	0x3c759574	0.014989246
120	0x3e15f1d5	0.14643033
121	0x3d76da65	0.06026687
122	0xbe54be44	-0.20775706
123	0xbc8591dc	-0.016304903
124	0xbe2a4b8f	-0.16630386
125	0xbd46bd42	-0.048520334
126	0xbe0115c2	-0.12605956
127	0xbdb148b9	-0.08656449
128	0x3e32be73	0.17455463
129	0xbdbcc08f	-0.09216415
130	0xbe17c294	-0.1482032
131	0xbca96936	-0.020680051
132	0xbda331c4	-0.079684764
133	0x3d51b886	0.051201366
134	0x3d344aea	0.044016756
135	0xbd5ca4f0	-0.053868234
136	0xbe286a0d	-0.16446705
137	0xbe57401d	-0.21020551
138	0xbe1e4fc0	-0.1546011
139	0x3cb0ca1f	0.021580754
140	0xbdafbf09	-0.08581359
141	0xbe7b60bf	-0.24548624
142	0x3e29fd75	0.16600592
143	0x3e04f56e	0.12984249
144	0xbe5a52ce	-0.2132065
145	0x3b6d07b4	0.0036167921
146	0xbe93119c	-0.28724372
147	0x3dcae883	0.09907629
148	0x3cd836e3	0.02639336
149	0x3d823c8d	0.063592054
150	0x3b2cfccf	0.0026395803
151	0x3dfbe396	0.12299268
152	0x3dc08930	0.094011664
153	0x3cfff435	0.031244377
154	0x3d731c54	0.059353188
155	0xbd3b3db0	-0.045713127
156	0xbe3f94c7	-0.18709098
157	0x3d1b9e9d	0.037993062
158	0x3d22a280	0.039705753
159	0x3b9b5b94	0.0047411416
160	0xbe5f829a	-0.21827164
161	0x3deb79b6	0.11497824
162	0x3d55239c	0.052035913
163	0xbe708e2e	-0.23491737
164	0xbe030cee	-0.12797901
165	0xbe419eaf	-0.18908189
166	0xbc621b59	-0.0138004655
167	0xbe78c7cf	-0.24294971
168	0xbdd5861d	-0.10425971
169	0xbd82c6e7	-0.06385594
170	0xbcbdc82b	-0.023166737
171	0xbd7d7551	-0.06187946
172	0x3e05b195	0.13056023
173	0xbe168bfe	-0.1470184
174	0xbe2d457c	-0.16921037
175	0x3bd5c8a3	0.006524162
176	0xbcc7649b	-0.024339965
177	0x3dca56dc	0.09879848
178	0xbe1a4d2e	-0.15068504
179	0x3c28baeb	0.010298471
180	0xbd0a8ade	-0.03382384
181	0xbe0c8758	-0.13723505
182	0xbb78893f	-0.0037923602
183	0x3e09c049	0.13452257
184	0x3d9ad502	0.07560159
185	0x3cbaf193	0.02282027
186	0xbdbb541f	-0.09146904
187	0x3db83f12	0.08996405
188	0x3e09be44	0.13451487
189	0xbcae6af7	-0.02129124
190	0xbd646f45	-0.055770177
191	0xbd82c7b9	-0.0638575
192	0x3e2f0091	0.1709006
193	0xbd35f85b	-0.044426303
194	0xbc7bac8b	-0.015360962
195	0x3ce067ce	0.027393248
196	0xbc6e6c92	-0.014552252
197	0xbd922622	-0.071361795
198	0xbcacd25b	-0.021096399
199	0x3e09af09	0.13445677
200	0x3d4e4874	0.050362065
201	0xbdbb2e4b	-0.09139689
202	0xbcc71371	-0.024301263
203	0x3d97c9d7	0.07411545
204	0x3da25541	0.07926417
205	0x3d358ef8	0.0443258
206	0xbd3447f2	-0.044013925
207	0x3df672bd	0.12033603
208	0xbce16cde	-0.027517732
209	0xbe120642	-0.142602
210	0xbbbe3292	-0.0058043683
211	0x3d565891	0.052330557
212	0xbdd77345	-0.10520033
213	0xbe57c9e2	-0.21073106
214	0xbd880816	-0.06642167
215	0x3dcc2b87	0.0996924
216	0x3da3df26	0.080015466
217	0x3e004d90	0.12529588
218	0x3dc27041	0.09494067
219	0xbe7e075b	-0.24807493
220	0xbc85b945	-0.016323695
221	0x3ca4e45d	0.020128423
222	0xbdb5e083	-0.08880713
223	0x3d0340ed	0.03204434
224	0x3d8e53f9	0.0694961
225	0xbdd6fb36	-0.104971334
226	0x3ce69997	0.02814941
227	0x3bc65ffa	0.0060539218
228	0xbe08327c	-0.13300508
229	0xbbdfda2f	-0.0068314294
230	0xbe995498	-0.29947352
231	0x3d4afa3c	0.04955505
232	0x3ca756dc	0.02042716
233	0xbe496c71	-0.19670273
234	0x3dfa97f2	0.122360125
235	0x3d188f06	0.037245773
236	0x3d652f61	0.055953387
237	0x3e134fbd	0.14385886
238	0x3d52688c	0.051369235
239	0xbe0b76f8	-0.13619602
240	0xbdec7906	-0.11546521
241	0xbdf97202	-0.121799484
242	0xbe85315c	-0.2601422
243	0x3d849f6f	0.06475722
244	0xbeb47bc4	-0.35250676
245	0xbe0375fc	-0.12837976
246	0xbc93faef	-0.01806399
247	0xbd119c9a	-0.035549738
248	0xbd3d603b	-0.04623435
249	0x3c018b14	0.007906694
250	0xbe50c4a1	-0.20387508
251	0x3da78b37	0.0818085
252	0x3dcc5b06	0.09978299
253	0x3d801818	0.062545955
254	0xbed257fa	-0.41082746
255	0xbd81b523	-0.06333377

feature.2.bias f4 [256]
0	0xbe1c6868	-0.15274203
1	0xbcd10b75	-0.025518158
2	0xbe75c870	-0.24002242
3	0xbddc313c	-0.10751578
4	0xbe4b7d5b	-0.19872038
5	0x3e97b69e	0.29631513
6	0xbe55d2dd	-0.20881219
7	0xbdecd1be	-0.11563443
8	0xbd6a0657	-0.057134952
9	0x3cbedb3f	0.023297904
10	0xbe2f6d36	-0.17131504
11	0xbe27885c	-0.1636061
12	0x3d60983f	0.054832693
13	0x3e73e4c5	0.23817737
14	0xbe4f1504	-0.2022286
15	0x3e72be58	0.23705423
16	0xbd64432b	-0.05572812
17	0xbe328752	-0.17434433
18	0xbe26fe3d	-0.16307922
19	0x3e695ef2	0.22790125
20	0x3e40fb84	0.18845946
21	0x3e388a46	0.18021497
22	0xbd866449	-0.065620966
23	0x3e9cafbb	0.30602822
24	0x3e924ec0	0.28575706
25	0xbe3d57a3	-0.18490462
26	0x3e5717b9	0.21005143
27	0xbc7b7639	-0.015348011
28	0x3df365d4	0.118846565
29	0xbd9d71de	-0.07687734
30	0x3e799dfd	0.24376674
31	0xbe08ae3b	-0.13347714
32	0xbcb460af	-0.022018759
33	0x3e4454f2	0.19173029
34	0x3e3c2f70	0.18377471
35	0x3e672413	0.22572355
36	0x3e837a84	0.2567941
37	0x3e9ae814	0.30255187
38	0x3e820f57	0.25402328
39	0xbd963602	-0.0733452
40	0x3e6a41d9	0.22876681
41	0xbd82e79b	-0.063918315
42	0xbe022193	-0.1270812
43	0x3e9377bf	0.28802297
44	0x3e302b0a	0.17203918
45	0xbd792d61	-0.060834292
46	0xbce1f40d	-0.027582193
47	0x3da583b7	0.08081763
48	0x3e66b68c	0.22530574
49	0x3ba8f0a2	0.005155639
50	0xbdc8f0fe	-0.098115906
51	0x3d55060b	0.052007716
52	0x3e1a2f97	0.15057217
53	0xbbe103d3	-0.006866911
54	0xbdf1ee22	-0.11812998
55	0x3e8a7f32	0.27050167
56	0xbc3f88c7	-0.011690325
57	0xbe160312	-0.14649609
58	0x3e816420	0.25271702
59	0x3e61c62b	0.22048251
60	0xbe0e6d60	-0.13908911
61	0x3e66cef4	0.22539884
62	0xbe40b061	-0.18817283
63	0x3df0e498	0.11762351
64	0x3ea3e93b	0.32013878
65	0x3c7f0601	0.015565396
66	0x3dde0810	0.108413815
67	0x3e41422b	0.18872897
68	0x3e1ff86d	0.1562211
69	0xbe08035f	-0.13282536
70	0x3e778b38	0.24174201
71	0x3e08c99f	0.13358162
72	0xbd86ddb5	-0.06585256
73	0xbe22aa4f	-0.1588528
74	0x3e8443df	0.25833032
75	0x3e72ba47	0.23703872
76	0x3e845d7b	0.2585257
77	0x3ea6fefc	0.32616413
78	0x3e50f496	0.20405802
79	0x3ea53e4c	0.3227409
80	0xbe5c3fd2	-0.2150872
81	0x3e08187f	0.13290595
82	0x3e613bee	0.21995518
83	0x3e03a517	0.12855946
84	0x3e1ee277	0.15516077
85	0x3ea835ac	0.32853448
86	0xbe0ca7de	-0.13735911
87	0x3e91d595	0.28483263
88	0xbcf3b744	-0.029750474
89	0xbdb73b5d	-0.089468695
90	0x3e283848	0.1642772
91	0xbe0c948b	-0.1372854
92	0x3e8224e6	0.25418776
93	0x3e40286c	0.1876542
94	0xbd75999f	-0.059960958
95	0x3e047c77	0.12938105
96	0x3e6e496b	0.23270194
97	0x3e7b416a	0.24536672
98	0x3e3e81a0	0.18604136
99	0x3e4dcc01	0.20097353
100	0xbdf01e2c	-0.11724505
101	0x3ea40d60	0.32041454
102	0xbe0f29dd	-0.13980813
103	0x3eacb6d7	0.33733246
104	0xbd99775d	-0.0749347
105	0x3e7af295	0.245066
106	0x3e9403dc	0.28909194
107	0x3eb2a1cc	0.34889066
108	0x3e9d585a	0.3073147
109	0xbcecc98f	-0.028904704
110	0x3e381d50	0.17979932
111	0x3e0826f9	0.13296117
112	0x3e12f6b9	0.1435193
113	0x3e48473b	0.19558422
114	0x3ddbd198	0.10733336
115	0xbd6d7c05	-0.057979602
116	0x3e7a6061	0.24450828
117	0x3e9c0d27	0.30478784
118	0x3e841568	0.25797582
119	0x3ea1d49f	0.3160753
120	0x3e1b837f	0.1518688
121	0x3e48edeb	0.19622009
122	0x3e2ba418	0.16761816
123	0x3de27358	0.11057156
124	0xbd6748be	-0.056465857
125	0xbc5f0008	-0.013610847
126	0xbd86aa49	-0.06575448
127	0x3e4076c3	0.18795304
128	0x3e8deac3	0.2771817
129	0xbda883f6	-0.082282946
130	0xbd9e54c3	-0.07731011
131	0xbe07283f	-0.13198946
132	0x3e22870e	0.15871832
133	0xbde89c58	-0.11357945
134	0xbdf2c410	-0.11853802
135	0x3e3497db	0.17636053
136	0x3e91d3dd	0.2848195
137	0x3e86933a	0.262842
138	0xbd430a35	-0.047617156
139	0xbdfa5a4a	-0.122242525
140	0xbd08ddae	-0.033414535
141	0xbdb476c0	-0.08811712
142	0xbe4b74fc	-0.19868845
143	0x3e620803	0.22073369
144	0x3e9d984a	0.3078025
145	0xbd2cf833	-0.04222889
146	0x3e6b6ab8	0.22989929
147	0xbd1d34da	-0.03838048
148	0xbd742f79	-0.059615586
149	0x3e01ec26	0.1268774
150	0xbe1c980f	-0.15292381
151	0x3d8fc1be	0.07019375
152	0x3ea3f546	0.32023066
153	0x3e91d990	0.284863
154	0xbcc990b4	-0.024605133
155	0x3e7cd765	0.24691541
156	0xbda456f5	-0.08024398
157	0x3e87b276	0.26503342
158	0xbcc2625a	-0.023728538
159	0x3e43c795	0.19119103
160	0x3ebdd6db	0.37077984
161	0xbd900473	-0.070320986
162	0xbd56bfe5	-0.0524291
163	0x3e35a112	0.17737225
164	0x3e9dad07	0.30796072
165	0x3e91cec1	0.28478053
166	0xbd8c24ca	-0.068429545
167	0x3e1442f3	0.14478664
168	0xbe401cbb	-0.1876096
169	0xbdf58b2a	-0.11989434
170	0x3e30802f	0.17236398
171	0x3c0c286d	0.00855456
172	0x3dbfc25c	0.09363243
173	0xbd54312b	-0.051804703
174	0x3e6191ee	0.22028324
175	0xbe460f4c	-0.19341773
176	0x3e91c5b4	0.28471148
177	0xbe028568	-0.12746203
178	0x3e759820	0.23983812
179	0x3c9c13b7	0.01905237
180	0x3e841a96	0.25801533
181	0xbe1e47f4	-0.15457135
182	0xbdbd9250	-0.092564225
183	0x3e1f1060	0.1553359
184	0xbde6f068	-0.112763226
185	0x3e3f2bc5	0.1866904
186	0xbdf667a2	-0.12031485
187	0x3e0e4362	0.13892892
188	0x3e91f1a8	0.28504682
189	0x3e1cad06	0.15300378
190	0xbe1d9763	-0.1538978
191	0x3e610aa1	0.21976711
192	0xbe73cc02	-0.23808292
193	0xbd4012f1	-0.046893064
194	0xbc4b59c6	-0.01241154
195	0x3ccddd37	0.025129898
196	0xbde93c22	-0.113884225
197	0xbdcaf942	-0.099108234
198	0xbe51f5a7	-0.20503865
199	0x3e77e84c	0.24209708
200	0xbe745855	-0.23861821
201	0xbc854359	-0.016267465
202	0x3e10a3ec	0.14125031
203	0x3e97959c	0.2960633
204	0xbd8903cc	-0.06690177
205	0x3e6f37a4	0.23361069
206	0xbdd20097	-0.10254019
207	0xbd8f7b1e	-0.070059046
208	0xbe2a29e0	-0.16617537
209	0xbd0ca3a9	-0.034335766
210	0xbdffd599	-0.124919124
211	0xbc95bb34	-0.018277742
212	0xbcdc9779	-0.026927697
213	0xbe08e599	-0.13368835
214	0x3c1a890f	0.009432091
215	0x3eb01280	0.34389114
216	0xbc4f4614	-0.012650985
217	0x3e3c1bf1	0.18370034
218	0xbe0a1b2a	-0.13486925
219	0x3e940e67	0.28917238
220	0x3eb0e65c	0.3455075
221	0xbe5f4f4c	-0.21807593
222	0xbdb8f314	-0.090307385
223	0xbdaab488	-0.08335215
224	0x3e5057fe	0.20346066
225	0x3e597fe2	0.2124019
226	0xbdb34473	-0.0875329
227	0x3e6b425d	0.22974534
228	0xbb375e30	-0.0027979724
229	0xbda61ef3	-0.08111372
230	0xbccdd331	-0.025125118
231	0xbdbb261e	-0.0913813
232	0x3df953d4	0.12174192
233	0x3e17483f	0.14773653
234	0x3e87d42a	0.26529056
235	0x3e789063	0.24273829
236	0x3e64aa7b	0.22330658
237	0xbdb95f1c	-0.09051344
238	0xbdc3069f	-0.09522747
239	0xbe359d80	-0.17735863
240	0xbdfa8191	-0.12231744
241	0xbcfcba4e	-0.030850556
242	0xbe2dba2d	-0.16965552
243	0x3e39853a	0.18117228
244	0x3e25cde0	0.16191816
245	0x3e9e2e05	0.30894485
246	0x3e01a1e3	0.12659411
247	0xbd1afa24	-0.03783621
248	0x3e50b8dd	0.2038302
249	0xbd67bce5	-0.05657663
250	0x3cfa73d5	0.030572811
251	0xbd38f790	-0.04515797
252	0xbd6be584	-0.05759193
253	0xbdea7020	-0.114471674
254	0xbe55a9e8	-0.20865595
255	0x3e7b8119	0.24560966

value_stream.0.weight f4 [256, 256]
0	0xbe1e5a52	-0.15464142
1	0xbdb5915e	-0.08865617
2	0xbddeb28d	-0.108738996
3	0xbe934aed	-0.287681
4	0xbdd0d6e4	-0.10197237
5	0xbd139b3b	-0.03603671
6	0xbe776155	-0.24158223
7	0xbe79be92	-0.24389103
8	0xbe7fc641	-0.24977972
9	0xbd6ade6b	-0.05734102
10	0xbe63182e	-0.22177193
11	0xbe5b47a3	-0.21414046
12	0xbe235f17	-0.15954243
13	0xbdb7eb9c	-0.08980486
14	0xbe524a2a	-0.20536104
15	0x3d9307b6	0.07179205
16	0xbe25b605	-0.16182716
17	0x3d931063	0.0718086
18	0xbe054480	-0.13014412
19	0xbdf09622	-0.117473856
20	0xbdb6d3f5	-0.08927146
21	0xbd91d77b	-0.07121178
22	0xbe0f5b46	-0.13999662
23	0xbba8edc2	-0.005155296
24	0x3dd77801	0.10520936
25	0xbe7eb515	-0.24873765
26	0xbe08b68c	-0.13350886
27	0xbe4e9e14	-0.2017749
28	0x3d7e0108	0.062012702
29	0xbe55f325	-0.20893534
30	0xbda60803	-0.08106997
31	0xbe14c0b2	-0.14526632
32	0xbddcbb9a	-0.1077797
33	0xbe8ad312	-0.2711416
34	0xbd3ea76e	-0.046546392
35	0xbe3a677f	-0.18203543
36	0xbd8f2ed3	-0.06991353
37	0x3cc9b2d9	0.024621414
38	0xbbcafc5a	-0.0061946334
39	0xbe5ddbcd	-0.21665879
40	0xbe745505	-0.23860557
41	0xbe8f4a22	-0.27986246
42	0xbe5e8b20	-0.2173276
43	0x3d945455	0.072426476
44	0xbe7015e3	-0.23445849
45	0xbe4ef632	-0.20211104
46	0xbda7fe86	-0.08202843
47	0x3dc9ee23	0.09859874
48	0x3dac61d7	0.08417099
49	0xbe24562d	-0.16048498
50	0xbded67d7	-0.115920715
51	0xbd17e3f6	-0.037082635
52	0xbbc2f5a6	-0.0059496937
53	0xbe0ac1ef	-0.13550542
54	0xbd8df950	-0.06932318
55	0x3d8a2c5f	0.06746744
56	0xbe8e70d0	-0.27820444
57	0xbd80dd36	-0.06292193
58	0xbd95d7b3	-0.07316532
59	0x3dc0942d	0.09403262
60	0xbd8c398c	-0.06846914
61	0x3cbc1a71	0.022961827
62	0xbe4677c5	-0.19381626
63	0xbc399b83	-0.011328581
64	0xbd214bfc	-0.039379105
65	0xbe0eb6cc	-0.13936919
66	0xbdc5c13e	-0.09655999
67	0xbe454bdb	-0.19267218
68	0xbe00c861	-0.12576438
69	0xbe104c91	-0.14091708
70	0xbda34a5f	-0.079731695
71	0x3d601729	0.054709587
72	0xbb15a371	-0.0022833014
73	0xbe28740a	-0.16450515
74	0x3db4f008	0.08834845
75	0xbd3dad3e	-0.046307795
76	0x3dd0ba74	0.10191813
77	0x3dad6c93	0.084679745
78	0xbe1a35b7	-0.15059553
79	0x3daabc79	0.083367296
80	0xbe3fc2b2	-0.18726614
81	0x3ccd016d	0.025025094
82	0xbd09430f	-0.033511218
83	0x3d68da7e	0.056848995
84	0xbe036262	-0.12830499
85	0x3d9fab7b	0.07796379
86	0xbe32fecd	-0.17480011
87	0xbb822331	-0.0039714803
88	0xbe23ad0b	-0.1598398
89	0xbe0b54eb	-0.13606612
90	0xbdb50220	-0.08838296
91	0xbde9a001	-0.114074714
92	0x3cd1ec8f	0.025625495
93	0xbd35da12	-0.04439742
94	0xbe521d82	-0.20519069
95	0xbde06eaf	-0.10958611
96	0xbe0ff738	-0.1405915
97	0x3d88f60f	0.06687557
98	0xbc969fbe	-0.018386718
99	0x3d75efe8	0.060043246
100	0xbe747133	-0.23871307
101	0x3d28f352	0.041247673
102	0xbe389364	-0.18024975
103	0x3e0f4272	0.1399019
104	0xbd6756bc	-0.0564792
105	0x3df80dd9	0.12112016
106	0xbbdcc547	-0.0067373845
107	0x3d893b01	0.06700707
108	0x3d5a27df	0.05326068
109	0xbe10146e	-0.14070293
110	0xbde9c8bb	-0.114152394
111	0xbdb3c409	-0.08777625
112	0x3cfee1d7	0.031113548
113	0x3dcb47c8	0.099258006
114	0xbc974c4c	-0.018468998
115	0x3d822563	0.06354787
116	0xbb4232b8	-0.0029632282
117	0x3b6c691c	0.0036073392
118	0xbe1a8245	-0.15088756
119	0x3c8fb23c	0.017541043
120	0x3cbf74f9	0.023371207
121	0x3d932860	0.07185435
122	0x3dceebba	0.10103555
123	0xbd05fe7c	-0.0327134
124	0xbe97930b	-0.29604372
125	0xbe5140ae	-0.2043483
126	0x3c752672	0.014962779
127	0xbde71da8	-0.11284953
128	0xbe07d1e9	-0.13263668
129	0xbe74c861	-0.23904563
130	0xbd011a5e	-0.031519286
131	0xbe61a4b6	-0.22035488
132	0x3c816ed3	0.015799915
133	0xbe1400a6	-0.14453372
134	0xbd66004a	-0.05615262
135	0x3db18824	0.08668545
136	0x3d49edd4	0.049299076
137	0x3df39841	0.118942745
138	0xbd0240e9	-0.031800184
139	0xbe00c09d	-0.12573476
140	0xbe017775	-0.12643225
141	0xbdb0ddaa	-0.08636029
142	0xbe55e17a	-0.20886794
143	0x3c5f57a5	0.013631736
144	0xbd626e92	-0.05528123
145	0xbe8b4650	-0.27202082
146	0xbc3f1b15	-0.011664172
147	0xbe1860db	-0.14880697
148	0xbe1027d8	-0.14077699
149	0xbcd29835	-0.025707344
150	0xbe77b5d4	-0.24190456
151	0x3e0fdbfe	0.14048764
152	0x3dac0bd6	0.08400695
153	0xbdca666e	-0.09882818
154	0xbab90c0b	-0.0014117969
155	0xbda628ae	-0.08113228
156	0xbe4d018a	-0.20020118
157	0x3e0fd968	0.14047778
158	0xbd9f9485	-0.07792
159	0x3e19b4ed	0.15010424
160	0xbdbfa8c3	-0.093583606
161	0xbe2397c4	-0.15975863
162	0xbe2c16fa	-0.1680564
163	0xbd1ad4c5	-0.03780057
164	0x3df1a4df	0.11799025
165	0xbb3a9c2a	-0.0028474429
166	0xbe66b617	-0.225304
167	0x3c6ba89d	0.014383462
168	0xbe9d0172	-0.30665165
169	0xbe773d9e	-0.24144599
170	0x3cdaab3f	0.026692985
171	0xbe361a51	-0.17783476
172	0xbdd5ba8b	-0.10435971
173	0xbcf5b0d1	-0.02999154
174	0xbcd9fbf2	-0.026609395
175	0xbe4877b5	-0.19576915
176	0x3de5143b	0.11185499
177	0xbe256faa	-0.16155878
178	0xbc5ed7b2	-0.01360123
179	0xbe705c94	-0.23472816
180	0x3e099d77	0.13438974
181	0xbe147fc6	-0.14501867
182	0xbd847687	-0.0646792
183	0xbd990e64	-0.07473448
184	0xbe308641	-0.17238714
185	0x3cd959d3	0.02653209
186	0xbdfb00a9	-0.12255985
187	0xbdddbc72	-0.10826959
188	0x3d0abdd9	0.03387246
189	0xbdd04c2b	-0.10170778
190	0xbe55be4a	-0.20873371
191	0xbdc208a0	-0.09474301
192	0xbdb07299	-0.08615608
193	0xbe45ce6f	-0.1931703
194	0x3ced295d	0.028950388
195	0xbe593693	-0.21212225
196	0xbe1d9c64	-0.1539169
197	0xbe293731	-0.1652496
198	0xbd2b3b16	-0.041804396
199	0xbd07ec7e	-0.03318452
200	0xbe619ffd	-0.22033687
201	0xbe40a1e3	-0.18811755
202	0xbdb108f7	-0.08644288
203	0x3d129051	0.035782162
204	0xbe84bcf9	-0.25925425
205	0xbdd2e413	-0.10297408
206	0xbd93510c	-0.07193193
207	0xbd2a0d8b	-0.04151682
208	0xbe6bb658	-0.23018777
209	0xbe16be21	-0.14720966
210	0xbcecf6f2	-0.028926346
211	0xbdd6d78b	-0.1049033
212	0xbdc79978	-0.09746069
213	0xbe6b9af0	-0.23008323
214	0xbe3b88a1	-0.18313839
215	0x3d86c4f7	0.06580537
216	0xbdec9f4a	-0.115538195
217	0x3d9d4f8c	0.07681188
218	0xbe359905	-0.17734154
219	0x3d80501f	0.06265282
220	0x3cceb6f9	0.025233733
221	0xbd023c32	-0.031795688
222	0xbdb07231	-0.0861553
223	0xbe82a01a	-0.25512773
224	0x3da0835a	0.07837553
225	0x3dccdbac	0.100028366
226	0xbe0ea2bc	-0.13929266
227	0xbe38f398	-0.18061674
228	0x3c93d2f2	0.018044923
229	0xbe39dfa7	-0.18151723
230	0xbe0512fa	-0.1299552
231	0xbe62f507	-0.22163783
232	0x3c5fe832	0.0136661995
233	0xbdb183ca	-0.08667715
234	0xbe172aac	-0.14762372
235	0xbd3b8bd1	-0.045787636
236	0xbd7b9374	-0.06141992
237	0xbd9ad126	-0.07559423
238	0xbdf010e1	-0.117219694
239	0xbd17df68	-0.03707829
240	0xbde9322e	-0.11386524
241	0x3e20d9e7	0.15708123
242	0xbe626d6f	-0.22112058
243	0x3cba0ebf	0.02271211
244	0xbd840c9f	-0.0644772
245	0x3dcc9166	0.0998867
246	0x3c83edbe	0.016104575
247	0xbe799cc4	-0.24376208
248	0xbcf6a917	-0.030109925
249	0xbe3d01af	-0.18457673
250	0xbe9b11f1	-0.30287126
251	0xbe8788e7	-0.26471636
252	0x3d5a4b7b	0.05329464
253	0xbde51af5	-0.11186782
254	0xbe512403	-0.20423894
255	0x3d37feaf	0.04492062

value_stream.0.bias f4 [256]
0	0x3d84616f	0.064638965
1	0x3dc39c16	0.095512554
2	0x3dd7d335	0.105383314
3	0xbb33bf50	-0.0027427264
4	0x3e2412c2	0.1602278
5	0x3e17806b	0.14795081
6	0x3e386c71	0.18010117
7	0x3e2cf14d	0.16888924
8	0x3df361c2	0.1188388
9	0xbe36c2db	-0.17847769
10	0x3e95b5d3	0.29240283
11	0xbe66bcae	-0.22532913
12	0x3ac22160	0.0014810972
13	0x3ea16612	0.31523186
14	0x3e3e4d76	0.18584237
15	0x3e86a71c	0.2629937
16	0xbc3c3487	-0.011487133
17	0x3e525656	0.20540747
18	0x3dbd1e49	0.09234292
19	0xbe5c342b	-0.21504276
20	0x3dceb8fd	0.100938775
21	0x3e39549f	0.18098687
22	0x3df9b178	0.121920526
23	0x3e49ab1b	0.19694178
24	0x3e3f3712	0.18673351
25	0x3e4311ce	0.1904976
26	0x3d9c5e60	0.07635188
27	0x3e22fa1e	0.15915725
28	0x3e7702b5	0.24122126
29	0x3e277f89	0.16357245
30	0x3e628952	0.22122696
31	0xbc3711ae	-0.011173649
32	0xbde74d0b	-0.11293992
33	0x3dfb0937	0.12257617
34	0x3e267d15	0.16258653
35	0x3dc1667f	0.09443378
36	0xbd63acf2	-0.055584855
37	0xbe2cb61b	-0.16866343
38	0x3b279b15	0.0025574614
39	0xbcbf9d3d	-0.023390407
40	0xbe47e364	-0.19520336
41	0x3eb2c026	0.34912223
42	0x3e093bf9	0.13401784
43	0x3e01908b	0.12652795
44	0xbe05dd5f	-0.13072728
45	0x3e360bc1	0.17777921
46	0x3e456419	0.19276465
47	0x3e811ac9	0.25215748
48	0x3e2775c9	0.16353525
49	0x3df4d73f	0.119551174
50	0x3dfe3db5	0.124141134
51	0xbe39d959	-0.18149318
52	0x3dff54b4	0.12467328
53	0xbc6cc87a	-0.014452094
54	0xbdad571a	-0.08463879
55	0x3e67e046	0.22644147
56	0x3e1114da	0.1416811
57	0x3dea64c8	0.11445004
58	0x3e0fb86a	0.14035192
59	0x3e81a087	0.25317785
60	0x3de592d4	0.11209646
61	0x3e18880d	0.14895649
62	0x3e00bf60	0.12573004
63	0x3e81f7d2	0.25384384
64	0x3dfa7ad1	0.122304566
65	0x3e3f5dbd	0.18688102
66	0x3e6c17b3	0.23055916
67	0x3d8bee3b	0.06832548
68	0x3e284d76	0.16435799
69	0xbd2b27e7	-0.0417861
70	0x3de07f6c	0.10961804
71	0x3e3f29bf	0.18668269
72	0x3db8959c	0.09012911
73	0xbdedef18	-0.11617869
74	0x3e13824c	0.14405173
75	0x3debea5d	0.115193106
76	0x3e890470	0.26761198
77	0xbe2f38ec	-0.17111558
78	0x3d74888e	0.05970054
79	0xbe41a62f	-0.1891105
80	0x3e23ff71	0.16015412
81	0xbe8bcf5a	-0.27306634
82	0x3b364da0	0.0027817264
83	0x3e651e06	0.22374734
84	0x3e08f4a8	0.13374579
85	0x3dca35f1	0.0987357
86	0xbe06c24b	-0.13160054
87	0x3e31f700	0.1737938
88	0xbdfbfe02	-0.123043075
89	0x3dcb2142	0.09918453
90	0x3d83e4ca	0.064401224
91	0xbd027183	-0.031846534
92	0x3e494daa	0.19658533
93	0x3d5af7f8	0.053459138
94	0xbe33230a	-0.17493835
95	0x3e85519c	0.26038826
96	0x3deb8d48	0.11501557
97	0x3db5eb09	0.0888272
98	0x3dba94c0	0.09110403
99	0x3e1a3fd3	0.1506341
100	0x3d3965c6	0.045263074
101	0xbd87039b	-0.065924846
102	0xbe15958d	-0.1460783
103	0xbe0e4853	-0.13894777
104	0x3e898103	0.2685624
105	0x3eba41ec	0.3637842
106	0xbdd1ba88	-0.10240656
107	0x3df13bcf	0.11778986
108	0x3daa9f5e	0.08331178
109	0x3e2d5b1d	0.16929288
110	0x3e1719af	0.14755891
111	0xbe079aba	-0.13242617
112	0xbdb82a7f	-0.089924805
113	0x3de04cc6	0.10952143
114	0x3e105375	0.14094336
115	0xbd35540a	-0.0442696
116	0x3dfae553	0.122507714
117	0x3e3cc4b2	0.18434408
118	0xbd846e26	-0.06466322
119	0xbe0db8c8	-0.1384002
120	0x3e65287e	0.22378728
121	0x3e3f9594	0.18709403
122	0xbc8dac61	-0.01729411
123	0x3e2b24fa	0.16713324
124	0x3d8283af	0.06372773
125	0x3e165f9e	0.14684913
126	0x3db23b81	0.08702756
127	0x3e304865	0.17215116
128	0x3e2b1d8c	0.1671049
129	0x3e5c9c26	0.21543941
130	0x3e9fbd48	0.31199098
131	0xbe2195ff	-0.15779875
132	0xbe33e12b	-0.17566364
133	0x3e17a6ac	0.14809674
134	0x3de37d92	0.11107935
135	0x3dbbc396	0.091681644
136	0x3e68e8b3	0.22745018
137	0xbe337d37	-0.17528234
138	0x3e24d53f	0.16096972
139	0x3e5d4c62	0.21611169
140	0x3e19e2c4	0.1502791
141	0x3e380823	0.17971854
142	0x3d7016b7	0.058615413
143	0x3e0f1acd	0.13975067
144	0x3decc329	0.11560661
145	0x3e098df6	0.1343306
146	0x3da1537f	0.07877254
147	0x3d019c88	0.03164342
148	0x3e371d8c	0.17882365
149	0x3d2ec2e4	0.04266633
150	0x3e489f04	0.1959191
151	0x3e03a18e	0.12854597
152	0xbe051114	-0.12994796
153	0x3bb43f32	0.0055006975
154	0x3dba6290	0.091008306
155	0xbb118bbd	-0.0022208535
156	0xbdc5a079	-0.09649748
157	0x3e55c71f	0.2087674
158	0xbdb5a6ee	-0.0886973
159	0x3e4596ae	0.19295761
160	0x3dcf1b37	0.10112613
161	0x3e11fcb5	0.14256556
162	0x3e099730	0.1343658
163	0xbe723916	-0.23654589
164	0x3e50d43d	0.20393462
165	0x3d9aa0fd	0.07550237
166	0x3dd53517	0.10410517
167	0xbe1d708c	-0.15374964
168	0xbe27275b	-0.16323607
169	0x3d3fec7a	0.04685638
170	0x3db6a32a	0.0891784
171	0x3e438287	0.19092761
172	0x3e1a030d	0.15040226
173	0x3e42b4f9	0.19014348
174	0x3e4092b4	0.18805963
175	0x3e14d491	0.14534213
176	0x3e271093	0.16314916
177	0x3d56bb4a	0.052424707
178	0x3e7ce4ea	0.24696699
179	0x3e12dbc0	0.1434164
180	0x3dee0a81	0.11623097
181	0x3e2b4eac	0.1672923
182	0x3d824ad3	0.06361928
183	0x3e12dff7	0.14343248
184	0x3e6a111b	0.22858088
185	0x3e9e21a5	0.30885044
186	0x3d8b305e	0.06796335
187	0x3d8d0e18	0.06887454
188	0x3e943a56	0.28950757
189	0x3e0dca2d	0.13846655
190	0xbdee2175	-0.11627475
191	0x3e45f80a	0.193329
192	0x3e1d905d	0.15387101
193	0x3c2b098b	0.010439287
194	0x3e2f6e8a	0.17132011
195	0x3e192f60	0.14959478
196	0xbdacf0b8	-0.08444351
197	0x3e0c6dbd	0.13713737
198	0x3e2edaf8	0.17075717
199	0x3e4983e2	0.19679216
200	0x3e085211	0.13312556
201	0x3e1185f9	0.14211263
202	0x3e3f290f	0.18668006
203	0x3e30d285	0.17267807
204	0xbe1621c2	-0.14661315
205	0xbd97c700	-0.07411003
206	0x3d8d8796	0.069106266
207	0x3e8b81c0	0.2724743
208	0x3e4f9ab4	0.20273858
209	0x3c7694e0	0.015050143
210	0xbe206bce	-0.15666124
211	0x3da74971	0.08168305
212	0xbe38a09b	-0.18030016
213	0x3db44676	0.08802502
214	0x3d828530	0.0637306
215	0xbe06c467	-0.13160859
216	0x3e5287d3	0.20559625
217	0x3e10b449	0.14131273
218	0x3e297d77	0.16551767
219	0x3e5bd123	0.21466498
220	0x3e32cbff	0.17460631
221	0xbe006569	-0.12538685
222	0x3e13adbe	0.14421746
223	0x3de24ede	0.11050199
224	0x3e840f22	0.25792795
225	0x3e25a826	0.16177425
226	0x3df320da	0.118715
227	0xbe774900	-0.24148941
228	0x3ea8b4f8	0.32950568
229	0x3e506e43	0.20354562
230	0x3e1a7489	0.15083517
231	0x3e2719bf	0.16318415
232	0xbcf4998a	-0.02985837
233	0x3e0b13d0	0.13581777
234	0xbdda2e3a	-0.10653348
235	0x3e127111	0.14300944
236	0x3d8e15df	0.06937765
237	0x3e07ebb1	0.13273503
238	0x3db5ecad	0.08883033
239	0x3e1acc3b	0.1511697
240	0x3defc11a	0.11706753
241	0x3dd23d83	0.10265639
242	0x3e49733f	0.19672869
243	0x3d8d01db	0.068851195
244	0x3e443d38	0.19163978
245	0xbe6cfa79	-0.23142423
246	0x3e3e2a78	0.18570888
247	0xbe3c7386	-0.18403444
248	0xbe099ed3	-0.13439493
249	0x3d9c9183	0.07644942
250	0x3da2a897	0.07942312
251	0x3d2d087d	0.042244423
252	0x3e722ea2	0.23650602
253	0x3e0141b7	0.12622724
254	0x3bc175b9	0.005903926
255	0x3d383044	0.044967905

value_stream.2.weight f4 [1, 256]
0	0xbe5383ef	-0.20655797
1	0xbf46e9ed	-0.7770069
2	0xbe18f8c2	-0.14938644
3	0xbe308ded	-0.1724164
4	0xbe08dcb9	-0.13365449
5	0xbe27b485	-0.16377456
6	0xbe3375f2	-0.17525461
7	0xbf3514a5	-0.70734626
8	0x3dfc55e1	0.123210676
9	0x3e5015db	0.20320837
10	0xbdf638ab	-0.12022527
11	0x3e04515e	0.12921664
12	0xbe30ec39	-0.17277612
13	0xbf7361ed	-0.950713
14	0xbdeb51bd	-0.114902
15	0xbded0d24	-0.11574772
16	0x3ea783b2	0.32717663
17	0xbe0a5ca8	-0.13511908
18	0x3dd5c55f	0.10438036
19	0x3e0d199a	0.13779297
20	0x3d80873f	0.06275796
21	0xbe563424	-0.20918328
22	0xbe0c2679	-0.13686551
23	0xbe093a1c	-0.13401073
24	0xbe7a8b83	-0.24467282
25	0xbe1e891e	-0.15481994
26	0xbe25c188	-0.16187108
27	0xbe525380	-0.20539665
28	0xbe2e1c6f	-0.17003034
29	0xbde10897	-0.109879665
30	0xbddb1f5d	-0.106993414
31	0x3c67b670	0.014142618
32	0x3e36819c	0.1782288
33	0x3d09ca5b	0.033640247
34	0xbd9c4d1d	-0.07631896
35	0xbe0f6b69	-0.14005817
36	0xbd8d9dbf	-0.06914853
37	0x3e1656b7	0.14681517
38	0x3d87665d	0.06611321
39	0x3e26608b	0.16247766
40	0x3e16426b	0.14673774
41	0xbf525ead	-0.82175714
42	0xbdd32717	-0.1031019
43	0x3e4a32e2	0.19745973
44	0x3e1b532c	0.15168446
45	0xbdd042cd	-0.10168991
46	0xbe3f3f05	-0.18676384
47	0xbe058a71	-0.13041092
48	0xbe47c9ee	-0.19510624
49	0xbe2a166f	-0.1661012
50	0x3cfed542	0.031107549
51	0x3e112ca8	0.14177191
52	0xbe85712b	-0.26062903
53	0x3d45713e	0.0482037
54	0x3e0be102	0.13660052
55	0xbdda5efe	-0.106626496
56	0xbe97f388	-0.29677987
57	0xbe03690f	-0.12833045
58	0x3d96bbf4	0.07360068
59	0x3e077c57	0.13231026
60	0x3e9377c1	0.28802302
61	0xbdd3fabc	-0.10350558
62	0x3e9fefe0	0.31237698
63	0xbe00fde8	-0.12596858
64	0x3e0f9f1c	0.14025539
65	0x3e67a96b	0.22623222
66	0xbdb70b10	-0.08937657
67	0xbe20f117	-0.15716968
68	0xbe6d67cb	-0.23184125
69	0x3e4bb853	0.19894533
70	0x3e4685ea	0.19387022
71	0xbe1b064c	-0.15139121
72	0x3da826a4	0.08210495
73	0x3e3c5b6f	0.18394254
74	0xbe1e1561	-0.15437843
75	0xbdcc16d2	-0.0996529
76	0xbdd702b6	-0.10498564
77	0x3e137b7b	0.14402573
78	0x3e347f5a	0.17626706
79	0x3e330857	0.1748365
80	0xbe0c5cc1	-0.13707258
81	0x3e188a0d	0.14896412
82	0xbe13ed11	-0.14445902
83	0xbddc20c4	-0.10748437
84	0xbe0e5a48	-0.13901627
85	0xbe269b0b	-0.16270082
86	0x3e3ee002	0.1864014
87	0xbe29738a	-0.16547981
88	0x3e196d2c	0.14983052
89	0xbdf18377	-0.11792653
90	0xbdf93ce5	-0.12169818
91	0xbe448a8a	-0.19193473
92	0xbde15180	-0.11001873
93	0x3d727232	0.059190936
94	0x3e268e98	0.16265333
95	0xbddefc10	-0.10887921
96	0xbdeca82d	-0.115555145
97	0x3daa5557	0.083170585
98	0x3e14e257	0.14539467
99	0xbe1efb72	-0.15525606
100	0xbe345e4c	-0.17614096
101	0xbb00624b	-0.0019589837
102	0x3e3304d5	0.17482312
103	0x3e26ffc9	0.16308512
104	0xbdfc1c89	-0.1231013
105	0xbf0a749a	-0.5408417
106	0x3df012c6	0.11722331
107	0xbe046221	-0.12928058
108	0x3dd373fb	0.10324856
109	0xbdfcf380	-0.123511314
110	0x3e8ab478	0.27090812
111	0x3df99ee0	0.12188506
112	0x3e3fdf9a	0.18737641
113	0x3dd88d78	0.10573858
114	0x3e8594d2	0.26090103
115	0xbd9d4efc	-0.07681081
116	0x3e3573ab	0.17719905
117	0xbe0e901d	-0.13922162
118	0x3e342053	0.17590456
119	0x3e21409b	0.15747301
120	0xbe937020	-0.28796482
121	0xbdf9be91	-0.12194551
122	0x3c0a72b1	0.008450196
123	0xbddf900a	-0.10916145
124	0x3cf18514	0.029482402
125	0xbe17ae22	-0.1481252
126	0x3e83f218	0.2577064
127	0xbe09ca42	-0.13456061
128	0x3e82dc7a	0.25558835
129	0xbe453bd0	-0.19261098
130	0xbf43a05d	-0.7641657
131	0x3e0b86a1	0.13625576
132	0x3e12a222	0.14319661
133	0xbe0c3dc7	-0.13695441
134	0x3e3c3ef8	0.18383396
135	0xbf20bec5	-0.6279109
136	0xbf85a4e1	-1.0440942
137	0x3e2017ca	0.15634075
138	0xbf27bfa1	-0.6552678
139	0xbe1293cf	-0.14314197
140	0xbe12be0f	-0.14330314
141	0xbe1107fe	-0.14163205
142	0x3e47cb0c	0.1951105
143	0xbde794ea	-0.113077
144	0x3d82e92f	0.063921325
145	0xbe0619b1	-0.13095738
146	0xbde0fbbe	-0.10985516
147	0x3d85b1dd	0.06528065
148	0xbe03b4bf	-0.12861918
149	0xbe164b6b	-0.14677207
150	0xbf0ca419	-0.54937893
151	0x3da2fe7e	0.07958697
152	0x3e4292a2	0.19001248
153	0xbdce729b	-0.10080453
154	0x3e3b4449	0.18287767
155	0xbd9f64f9	-0.07782931
156	0x3e2c26f4	0.16811734
157	0xbe1663bf	-0.14686488
158	0x3e204516	0.15651354
159	0xbe14f7b1	-0.14547612
160	0x3deb9770	0.11503494
161	0x3e4519b8	0.19248092
162	0xbebfad75	-0.37437025
163	0x3e0a7db4	0.13524514
164	0xbde8ef4e	-0.11373769
165	0xbe3c3ccd	-0.18382569
166	0xbe191fdd	-0.14953561
167	0x3e2ad11d	0.16681333
168	0x3de97e7a	0.114010766
169	0xbe32bcb0	-0.17454791
170	0xbe0a82eb	-0.13526504
171	0xbe66c27c	-0.22535127
172	0xbde69641	-0.112591274
173	0xbdd1aba8	-0.10237819
174	0xbe151e42	-0.14562324
175	0xbe9c3d02	-0.30515295
176	0x3e7125fa	0.23549643
177	0x3dd15aee	0.102224216
178	0xbdfe7f6b	-0.12426647
179	0xbdf2cda7	-0.11855631
180	0xbdfb5bfc	-0.12273404
181	0xbe1d6841	-0.15371801
182	0x3ddc1a59	0.10747213
183	0x3e8b3420	0.27188206
184	0xbdf2dce0	-0.11858535
185	0xbe181033	-0.1484993
186	0xbe0a9723	-0.13534217
187	0x3df9437a	0.12171073
188	0xbdfed615	-0.12443177
189	0xbddae672	-0.10688485
190	0x3e45eb32	0.19328001
191	0xbe05e43c	-0.13075346
192	0x3dfe053b	0.124033414
193	0xbda07ec1	-0.078366764
194	0xbe020459	-0.12696971
195	0xbe104f72	-0.14092806
196	0x3e51ca37	0.20487295
197	0x3e946683	0.2898446
198	0xbdf41c99	-0.11919517
199	0xbe2ffbfd	-0.1718597
200	0xbe3ebbd5	-0.1862634
201	0x3e88c559	0.26713064
202	0x3eb79ff4	0.35864222
203	0xbdeadffc	-0.11468503
204	0x3e04e344	0.1297732
205	0xbe20c038	-0.15698326
206	0xbe44febf	-0.19237803
207	0xbf1aba06	-0.604401
208	0xbdac650d	-0.084177114
209	0x3d9f878b	0.07789525
210	0x3e233468	0.1593796
211	0x3d695775	0.05696817
212	0x3e1e5192	0.15460804
213	0xbe227517	-0.15864979
214	0xbe11b8f8	-0.14230716
215	0x3e258d78	0.16167247
216	0xbde2f536	-0.110819265
217	0xbe3dbdce	-0.18529436
218	0xbe2bf8f4	-0.16794187
219	0xbdfacd23	-0.12246158
220	0xbdd0b3c9	-0.10190541
221	0x3e24bfb1	0.1608875
222	0xbde76a1c	-0.11299536
223	0x3e01ddcf	0.1268227
224	0xbe38d08b	-0.18048303
225	0xbe176f2f	-0.14788507
226	0x3d9912a7	0.07474261
227	0x3e25401f	0.16137742
228	0xbe084b39	-0.13309945
229	0x3dd347b9	0.103164144
230	0x3e5ed115	0.21759446
231	0xbe024849	-0.12722887
232	0xbe150eb9	-0.14556397
233	0xbe0f65c8	-0.1400367
234	0x3e388eea	0.18023267
235	0xbded2a42	-0.11580326
236	0x3dbea29b	0.09308358
237	0xbddbfd80	-0.10741711
238	0x3dcd096e	0.10011564
239	0xbdf78db1	-0.12087572
240	0xbdff53b8	-0.1246714
241	0x3cdeb6c1	0.027186753
242	0xbde83ffd	-0.1134033
243	0x3c2a4c2d	0.010394138
244	0x3e66399e	0.22482917
245	0x3e133b6a	0.14378133
246	0xbe921574	-0.28531992
247	0x3e1dcb78	0.15409648
248	0x3e3d3637	0.18477713
249	0x3d3aeeae	0.04563778
250	0xbe0f0906	-0.13968286
251	0xbd59121d	-0.05299579
252	0xbe038a3c	-0.12845701
253	0xbe59a3ac	-0.21253842
254	0xbe304792	-0.17214802
255	0xbe2c6b58	-0.16837823
