active_slam_rl/training_output_frontier/20260124_140852_frontier/d3qn_frontier_ep1860.pth (torch, 901954 bytes, 11 tensors)

feature.0.weight f4 [256, 100]
000000 4b e3 31 be 1d 7c 18 be 2b 26 dd bd 42 c0 f1 bd
       -0.17371862 -0.14891095 -0.107982956 -0.118042484
000010 73 5a 95 bd 4c fb 92 bd 4f cd 26 bd 09 05 ef bd
       -0.072926424 -0.07176837 -0.04072314 -0.11670882
000020 59 01 c5 3d ea ec bf bd b0 1a f6 3d c3 20 57 bb
       0.09619398 -0.0937136 0.12016809 -0.0032825924
000030 25 b6 34 3d e8 c4 fa 3d 36 dc 4a bd af 11 10 be
       0.04411902 0.12244588 -0.049526416 -0.14069246
000040 57 d5 2b bd 7f 88 0f be 92 0c d6 bd 5e 18 f3 3d
       -0.041951504 -0.14016913 -0.10451616 0.11869882
000050 70 c3 2d 3d 4a 23 dc bb 3e 8c a9 bd af 22 35 be
       0.04242271 -0.006718074 -0.08278702 -0.17689012
000060 ec e3 c9 bd 22 c0 82 3d 2c 2c 31 3e 72 84 8a 3d
       -0.09857926 0.06384303 0.17302006 0.06763543
000070 ce cf 10 3e f7 b7 17 3d fe 87 41 3d 91 d9 b3 bd
       0.14141771 0.037040677 0.047248833 -0.08781732
000080 bc 73 2b bb 92 5a f6 3d b9 4c 41 3e 60 34 46 bd
       -0.0026161512 0.12028994 0.18876924 -0.048389792
000090 2b f1 ff 3d ab 76 10 bd 9a a5 9a 3d 12 b6 0c 3e
       0.12497171 -0.03526942 0.07551117 0.1374133
0000a0 e0 24 36 3e 41 b4 43 3e 8c de 8c 3d 9c 8b 30 3e
       0.17787504 0.1911173 0.06878385 0.17240757
0000b0 6a f4 3a 3e 9a 76 69 3d 2a dc 08 3d a9 21 86 3d
       0.18257299 0.056997873 0.03341309 0.06549389
0000c0 13 a8 5c be ca 77 1f be 47 62 84 be 5b c5 96 be
       -0.2154849 -0.1557304 -0.2585623 -0.29447445
0000d0 f2 fc d6 be a7 6c ab be d5 23 a4 3d ab 68 8b 3d
       -0.41989857 -0.33481333 0.08014647 0.06807073
0000e0 cb 22 7d 3d 9b f9 16 bc 99 30 02 bd 03 72 1a 3e
       0.06180076 -0.009214784 -0.031784628 0.15082555
0000f0 0a 8e c0 3d b5 1d 49 3c 0b f0 79 3d 35 c8 1f be
       0.09402092 0.012275149 0.06101994 -0.15603717
000100 18 8b 1e 3b 0c ff 85 bd 50 fd 9a be dc 43 04 be
       0.0024191793 -0.06542787 -0.30271387 -0.12916511
000110 9c 53 6e bc ba 56 aa 3b 69 98 65 3c ac 03 28 3c
       -0.014546301 0.005198327 0.014013388 0.010254782
000120 9d ac 94 bd e1 c6 17 be 5d 96 75 bd e3 e7 71 3d
       -0.07259486 -0.1482196 -0.05995785 0.059059035
000130 7c 7c ca bc f1 4f 49 3e da f6 2f 3d e2 3c 0d bc
       -0.024717562 0.19659401 0.042960025 -0.008620473
000140 12 0c cf bc ec ea 6c bd 88 b3 38 be 57 cb 3b be
       -0.02527431 -0.057841226 -0.18037236 -0.18339287
000150 14 a5 6f be 6e 4f 1b be dd d7 7e 3c 2a ab 72 bc
       -0.23402816 -0.15167019 0.0155543955 -0.0148113165
000160 a9 4e 7d 3b 9f b1 3e 3d 8a 8e 84 bd cb 60 91 3c
       0.0038651621 0.04655611 -0.064725 0.01774635
000170 6e 7b a6 3d e7 6b 72 bd 4d 9c 1f bc 83 61 87 bd
       0.08129011 -0.059184935 -0.009741855 -0.06610396
000180 b5 68 44 bd dd 22 08 3e 90 13 64 3c ae 72 31 3e
       -0.04795142 0.1329455 0.01392068 0.17328903
000190 c5 3e b8 bc 6e fb 8d 3d bc 9d b1 3d ec f0 ac 3d
       -0.022490868 0.06932722 0.086726636 0.0844439
0001a0 99 4a c9 bd aa d4 0d 3e 81 47 5a 3c 76 59 bd 3d
       -0.098286815 0.13850656 0.013322712 0.09245579
0001b0 92 70 14 bd 64 6d e3 3d f8 f9 c1 3d 7d 1c 2e bc
       -0.036240168 0.11104849 0.09471506 -0.010626909
0001c0 18 bf 4b 3e 33 75 f7 3d ac 42 1c 3e 61 48 71 3d
       0.19897115 0.12082901 0.15259808 0.058906917
0001d0 8b 73 0d 3d 42 9c 81 3e 75 20 4e 3e f6 5a 4b 3e
       0.03453402 0.25314528 0.20129569 0.19858918
0001e0 4d c9 15 bc 24 03 dd 3d 67 2e 2f 3e f0 a6 d7 bc
       -0.009142232 0.10791615 0.17107545 -0.02632472
0001f0 c1 48 26 bd dc 02 a6 3d df 7e 06 3d 7b cb f9 3b
       -0.040596727 0.08106014 0.032835837 0.0076231337
000200 91 cb 22 bb 64 e7 17 be f4 59 00 be a1 69 a5 bd
       -0.0024840573 -0.14834362 -0.12534314 -0.08076788
000210 31 f9 13 be 33 4d 58 bd ab 45 d0 39 2d 53 8f 3d
       -0.14450528 -0.052807998 0.00039724758 0.069982864
000220 30 7c ed 3d 19 01 8b bd 1e 26 16 3e 11 be 76 3e
       0.115959525 -0.06787319 0.14662978 0.24095942
000230 fa f6 61 3e a2 a6 2f 3e 75 45 45 3e ce 52 fb 3d
       0.2206687 0.17153409 0.19264777 0.12271653
000240 c7 b2 9e 3e 4f 6d 16 3e c7 61 2c 3a 5c a9 17 3d
       0.3099577 0.14690135 0.0006575849 0.037026748
000250 93 8e 94 3c 8e a4 10 be d1 e6 bd bb 90 c2 98 3d
       0.018134391 -0.14125273 -0.0057953377 0.07458985
000260 d4 da c4 3d 0d 4f 64 3e a8 0f b4 3d 9e 1b a0 be
       0.09612051 0.2229578 0.08792049 -0.3127107
000270 ba 55 97 bc 5d d0 ed bd be ca 29 be 97 3d c0 be
       -0.018473495 -0.11612008 -0.16581246 -0.3754699
000280 dc 26 f1 bd 58 7d bb be a8 ad 29 bf e0 1c 56 bf
       -0.1177499 -0.36619067 -0.66280603 -0.8363781
000290 7d 0e 7e bf 8f dd 73 bf 0b d3 9c bf e9 9e a6 bf
       -0.9924086 -0.95259947 -1.2251905 -1.3017246
0002a0 dc 63 93 bf 44 c0 b2 bf ff 18 9e bf d3 b9 8b bf
       -1.151485 -1.3964925 -1.2351378 -1.0916084
0002b0 ef 2b 95 bf 86 41 8e bf a5 18 73 bf 79 48 a4 bf
       -1.1654032 -1.1113746 -0.9495948 -1.2834617
0002c0 70 45 9d bf 5d 78 80 bf 74 96 8a bf 3a e7 6a bf
       -1.2286816 -1.0036732 -1.0827165 -0.91759074
0002d0 dc f5 49 bf 0a 52 7f bf a9 39 39 bf f2 fc 6c bf
       -0.78890777 -0.99734557 -0.7235361 -0.92573464
0002e0 b1 dc 82 bf 5c e3 2c bf 33 50 74 bf fc 68 8a bf
       -1.02236 -0.6753442 -0.95434874 -1.0813289
0002f0 8e 1f 44 bf 84 a9 18 bf a1 cd d9 be de 1a 4a bf
       -0.7661065 -0.5963366 -0.42539695 -0.78947246
000300 3d e5 a5 be 26 6b ba be 8d 91 b7 be ca 3e ca be
       -0.32401457 -0.36409873 -0.35853234 -0.3950103
000310 3a 84 41 be 7d e0 74 bd 8e e6 32 bd d8 4b 09 3d
       -0.18898097 -0.0597844 -0.043676905 0.033519596
000320 ac 21 07 bd 75 78 89 3b 4d 78 d7 bd 77 fe 48 bd
       -0.032991096 0.004195268 -0.105209924 -0.0490708
000330 93 a4 1f 3d 04 b5 72 3d a5 8f 34 3e 88 12 bc 3e
       0.03897531 0.05925466 0.17632921 0.36732888
000340 33 2c 64 3e 4c 20 33 3e d1 03 1a 3e f2 7b 38 3e
       0.22282486 0.17492789 0.15040518 0.18016031
000350 76 d9 9d 3e 70 a3 1f 3e 44 f8 cc 3d 96 6f 1d 3e
       0.30829972 0.1558969 0.100082904 0.15374598
000360 59 06 66 3e 18 e0 9a bd 08 01 1c 3d 15 2b 1d be
       0.22463359 -0.07562274 0.03808692 -0.15348466
000370 3a 45 9a be c1 fc 8b be 0a 41 ca be 10 85 c0 be
       -0.3013094 -0.27341273 -0.39502746 -0.3760152
000380 85 e9 2d be 9d b2 e9 bd 4e c6 7d be 2a 1b a7 be
       -0.16983612 -0.11411021 -0.24782678 -0.32637912
000390 42 28 82 be 46 88 86 be 9c 91 d0 be ae 66 d2 bd
       -0.2542134 -0.26275843 -0.4073609 -0.10273491
0003a0 2d d6 45 bd 6a 1e 92 be 12 74 71 bd 3a 21 aa 3d
       -0.048299957 -0.2853883 -0.058948584 0.08307119
0003b0 48 be 57 3e 2a 33 81 3e 92 73 e8 3e 53 fc a8 3e
       0.2106868 0.25234348 0.45400673 0.33005008
0003c0 6e f5 94 3e f0 de 1c 3e c0 d3 a6 3e b2 8f 26 3e
       0.29093498 0.15319419 0.32583427 0.16265753
0003d0 9e 2f 73 3e 9c 1f c0 3e b0 ca b8 3e 77 40 74 3e
       0.23748633 0.37524116 0.36092138 0.23852716
0003e0 65 68 8f be c7 4d 03 bf 15 88 f6 be ae 05 a8 be
       -0.28009334 -0.51290554 -0.48150697 -0.32816833
0003f0 61 b9 81 be 2f 3b aa be 2e 90 63 be df 8d 01 be
       -0.25336745 -0.33248278 -0.22222969 -0.12651776

feature.0.bias f4 [256]
000000 17 27 0d 3f fb 4e 27 3f 31 17 a3 be 19 b6 88 3d
       0.5513777 0.6535489 -0.3185363 0.06675357
000010 f1 cf 15 bf 1f c0 bf bd a9 65 db 3e 57 30 c9 3e
       -0.5852042 -0.09362816 0.42850998 0.39294693
000020 79 1b 55 3f 9e 2d 1b 3f 70 35 f1 be 32 48 7d be
       0.83245045 0.6061648 -0.47111082 -0.24734572
000030 58 c5 08 3f 37 ec ce 3d b5 0e 9b be df 92 e9 3d
       0.5342612 0.10103648 -0.30284658 0.114049666
000040 39 63 3a be da d9 c2 3e 21 41 13 bd 53 79 2d bf
       -0.18201913 0.38056833 -0.035950784 -0.6776325
000050 96 d2 ac 3e dd 87 15 be 54 d4 63 bf b2 58 97 3e
       0.33754414 -0.14602609 -0.8899586 0.29559857
000060 82 1b 9e bf 35 31 35 bf 5c 43 f1 be a6 dc 47 3e
       -1.2352145 -0.7077821 -0.47121704 0.19517764
000070 84 e3 04 bf 1c 03 03 3f cc da 1b 3d 5b ae ab bf
       -0.5190966 0.5117662 0.038050458 -1.3412584
000080 54 4b 91 be 55 74 3a bf 70 70 14 be 5d 8d 1c bf
       -0.28377783 -0.7283376 -0.14496017 -0.61153203
000090 db 21 a3 bd c8 b0 ec 3e 0c b7 08 3e 4b 91 38 3f
       -0.07965442 0.46228623 0.13351077 0.720967
0000a0 cc 26 f0 3c 23 a9 ab bd 68 6e e0 bd 20 98 10 3d
       0.029315375 -0.0838187 -0.10958558 0.035301328
0000b0 83 23 7e bf 20 9b 88 be ad aa 3f bf 9b 9a 0a bf
       -0.99272937 -0.2668085 -0.74869806 -0.5414216
0000c0 83 99 ff 3e 65 dd 96 3e af 49 b2 bd 8a 9e 70 be
       0.49921808 0.29465786 -0.0870546 -0.23497978
0000d0 1f 36 e5 3c 16 26 92 bc 89 f4 90 bd b1 26 ea 3d
       0.027979909 -0.017840426 -0.070778914 0.11433161
0000e0 df 47 87 3d ec 16 0b bf ab 21 01 3e 60 3e 1c 3e
       0.06605505 -0.5433185 0.126105 0.15258169
0000f0 7f 50 90 be 11 0f 38 3e 8b a0 ac bf 05 79 04 3f
       -0.28186414 0.17974497 -1.3486494 0.5174716
000100 be 2c 2e 3f 4a 9d b1 3e 07 bd f0 3c 9f ef 34 3f
       0.6803702 0.34690315 0.02938701 0.7067813
000110 c4 99 0e bf df 5b 00 bf 70 8c e7 be 5f 45 b8 3e
       -0.5570338 -0.50140184 -0.45224333 0.35990426
000120 d5 45 d1 3e f6 91 cf be 44 97 87 be d6 92 39 be
       0.4087359 -0.40541047 -0.26482594 -0.1812242
000130 b7 79 b7 bd d1 90 bc be 5c 18 b0 bd ce 77 1f 3f
       -0.08958762 -0.36829236 -0.08598396 0.6229218
000140 7e e8 85 3f 8d 1b 7d 3d 9c 7c fe 3e 6b 63 b2 bd
       1.0461576 0.061793853 0.49704444 -0.08710369
000150 4b e3 da 3e 56 82 e5 be 02 42 a8 bc d0 3c b4 3e
       0.42751536 -0.44826 -0.020539287 0.35202646
000160 26 46 86 bd 12 a0 0a 3f 7e b1 95 3f 5f 66 fb be
       -0.065563485 0.541505 1.1694791 -0.4910154
000170 d7 ac d0 3d 0d 7d 35 be 56 f9 60 3f 92 72 82 3e
       0.101892166 -0.17723484 0.87880456 0.25478035
000180 f2 fd 9d 3e 26 bc 82 3f fd ea 84 3d bd f9 98 be
       0.30857807 1.0213668 0.06490133 -0.29878035
000190 70 88 3a 3f 9d 85 19 3e a7 84 03 bf 8f b0 c0 3e
       0.7286444 0.14992376 -0.51374286 0.37634704
0001a0 e4 11 14 3f ee 9d 13 3f 61 bd 60 3e 7a 63 15 3f
       0.578398 0.57662857 0.21947242 0.58354914
0001b0 02 30 0c 3e ed 1d ab be 43 a2 0d bf 42 e9 de be
       0.13690189 -0.3342127 -0.55325717 -0.43537337
0001c0 b2 fd a4 be c4 59 59 3f 17 e4 61 3e d6 68 5e be
       -0.32224804 0.84902596 0.22059666 -0.21719679
0001d0 2a 43 91 bd 08 4f 34 bf ef 1b 3c 3f 3e 5a 76 be
       -0.07092889 -0.7043309 0.73480123 -0.24057862
0001e0 d8 26 1c bf 4b 45 76 be c1 f6 52 3b 65 8f 19 bf
       -0.6099677 -0.2404987 0.0032190534 -0.5998443
0001f0 2b d6 c3 3e ef a4 f2 3d b1 07 62 3f 75 63 8f be
       0.38249335 0.11847865 0.88292986 -0.28005567
000200 38 e3 c2 bc ff de 16 3f c8 e5 34 3e 0f 64 92 bd
       -0.023789987 0.58934015 0.1766578 -0.07147991
000210 32 e4 9e 3e a4 63 a8 be 8b 69 c5 3e 3a a8 c5 3e
       0.31033474 -0.3288852 0.38557085 0.3860491
000220 ef 9d 94 3e 1b 04 3a 3f 1a ff 65 3e ab 54 a2 be
       0.29026744 0.72662514 0.22460595 -0.31705222
000230 43 29 4f 3f 22 cf 31 be e8 ed 96 bf 10 ff 2d bf
       0.80922335 -0.17364171 -1.1791353 -0.6796732
000240 03 f0 e1 3e 18 b6 7b 3f 7c 0b 99 bd 94 9c 66 3e
       0.44128427 0.9832473 -0.074728936 0.22520667
000250 db 13 20 3f 33 22 43 bf 9e 9c 3e 3f 2e 3f 64 bf
       0.625303 -0.7622406 0.7445773 -0.89158905
000260 b7 d1 3b 3f eb 1a 5c be 64 78 56 3f 8d 27 9f 3f
       0.73366874 -0.21494643 0.8377745 1.2433945
000270 85 a5 30 3f 2c c3 e4 3d 9d b6 96 3e 6a d7 82 3c
       0.6900256 0.111700386 0.29436198 0.015971858
000280 c5 22 36 be bd 97 f1 3e 92 56 ca 3e 1a 12 78 3f
       -0.17786701 0.4718608 0.39519173 0.9690262
000290 e5 f2 95 bd 17 5b 96 be 13 b2 dd 3c 3b 8a 94 be
       -0.07321719 -0.2936637 0.027062451 -0.2901171
0002a0 84 f2 f5 3e cd 5c 88 be 4a 64 12 3f 52 3c b8 3e
       0.48036587 -0.266333 0.5718428 0.3598352
0002b0 04 27 f7 3d b0 e0 c7 3c ea 18 fc 3e f7 92 59 bf
       0.120679885 0.024399132 0.49237758 -0.84989876
0002c0 73 71 53 3e 83 23 e6 be 7a a0 86 bd 22 53 64 3e
       0.20648746 -0.44948968 -0.06573577 0.22297338
0002d0 39 5f 00 3f f1 ba c1 3d 09 96 03 bf fc 4f 1e bf
       0.501453 0.09459484 -0.5140081 -0.61840796
0002e0 4e c4 1f 3f cd d7 21 bf e0 49 c0 3d 21 2d 38 bf
       0.6240891 -0.6321991 0.093890905 -0.7194386
0002f0 62 52 1d 3e df 08 ac 3e 0e 93 72 3f b3 27 e0 bd
       0.15363458 0.33600518 0.9475564 -0.10945072
000300 8b b9 09 bf 14 6d 2c bd c0 2b 14 3f b7 0e c2 be
       -0.5379874 -0.042096213 0.5787926 -0.37901852
000310 64 77 a2 3e aa 3b 94 3e 36 04 45 bc 8e 94 22 bf
       0.31731713 0.2895177 -0.01202493 -0.63507926
000320 40 4f 1c be ed ed 16 bf c9 7a cf be 99 8a 52 be
       -0.15264606 -0.58956796 -0.40523365 -0.20560683
000330 d3 21 dd 3e c1 81 8a be 6f 0d 57 3f 07 f2 e2 3c
       0.43189868 -0.2705212 0.84004873 0.027703298
000340 65 90 43 3f 68 1f 0d 3f 6b b4 a9 3e a6 3d cd be
       0.76392204 0.5512605 0.3314546 -0.40086097
000350 f7 ee bd 3d 5c f2 77 3e 44 fd bb be 46 7d 86 be
       0.092740946 0.24213547 -0.36716664 -0.2626745
000360 24 f7 34 3f 30 35 d9 be 15 3a 07 bf 1d 82 77 3e
       0.70689607 -0.4242339 -0.52823 0.24170728
000370 d8 c9 15 3f 6c 81 89 3f d9 eb 0d bf 7e ee f4 3e
       0.58511114 1.0742621 -0.55438 0.47838205
000380 f2 c0 9e be cf fd 15 3f 8d 05 84 3d d5 7d d6 3e
       -0.3100658 0.58590406 0.06446371 0.41892877
000390 66 1e 15 3d 46 6d d7 3e d2 ad 16 3f 1e ed ae be
       0.036405943 0.42075557 0.5885898 -0.3416528
0003a0 42 9b ee bb 77 bd 9c bd 6d 95 b1 be b4 9b 85 be
       -0.007281692 -0.07653325 -0.34684315 -0.26095355
0003b0 51 bd af be 42 99 05 bf 1e 31 6b 3d 2a c4 7e be
       -0.34324124 -0.5218698 0.05741989 -0.24879518
0003c0 ee 00 16 3f 27 83 ea 3e db 77 4b bd e9 1d 9e be
       0.5859517 0.45803186 -0.04967485 -0.30882195
0003d0 44 38 20 3d 56 ed 4c 3e d5 d6 17 be b2 d9 d6 3e
       0.03911616 0.20012411 -0.14828046 0.41962963
0003e0 05 02 59 bf 22 e5 33 3f 0f 72 19 3f be af 8f be
       -0.84768707 0.70271504 0.59939665 -0.28063768
0003f0 81 52 49 be 93 f8 41 3f 4f d6 f6 3e aa d6 2d be
       -0.19660379 0.7576992 0.4821038 -0.16976419

feature.2.weight f4 [256, 256]
000000 2c 8b 10 3e d6 ac 47 bf 08 b1 12 3f 31 d0 26 be
       0.1411559 -0.779981 0.5730138 -0.16290356
000010 69 20 c3 be 35 7c cb 3e ea 46 aa 3c af 02 12 3e
       -0.38110664 0.397432 0.020785768 0.14258836
000020 bf 21 2c bd 50 b0 4a bf f7 c5 ac 3d 62 26 0f 3d
       -0.04202437 -0.7917528 0.08436196 0.034948714
000030 90 80 b3 3d be 90 c8 bd 52 02 15 3e 4f 83 04 3f
       0.08764756 -0.097932324 0.14551666 0.5176286
000040 e1 f8 31 bd 00 b8 1d bf e5 49 64 3c fc d4 89 3e
       -0.04345024 -0.61608887 0.013933633 0.26920307
000050 92 00 bd be 6a 3d 9d 3d 59 35 87 3d 53 b4 47 be
       -0.36914498 0.076777294 0.06601972 -0.19502382
000060 16 64 5f 3e 8a de 27 be be 52 de be 6d 69 94 be
       0.21815524 -0.16393486 -0.43422502 -0.28986683
000070 c5 5c 75 3d 54 a7 59 be 85 54 63 be 02 2a 47 3e
       0.059902925 -0.21255237 -0.2220021 0.19449618
000080 35 25 99 3c 28 db 0e 3f 45 c7 f3 3e c7 01 ce 3c
       0.0186945 0.55803156 0.47612968 0.025147332
000090 1b 43 d8 be 29 b8 a5 be 4b 93 90 be 23 81 a6 be
       -0.42238697 -0.32367066 -0.28237376 -0.32520398
0000a0 e1 16 11 3e 5f ae d1 be 08 8f 7c bb dc e0 9b bc
       0.14168884 -0.40953347 -0.0038537402 -0.01902812
0000b0 4d ae 9d 3e 3f 19 0d be 29 33 7b 3d 87 9b 2e 3f
       0.30797043 -0.13779162 0.061328087 0.68206066
0000c0 55 98 3a bf 6a a1 1b bf 33 47 a7 3c eb 08 c6 3d
       -0.7288869 -0.60793173 0.020419693 0.0966967
0000d0 5f a4 dc be 8d 7d 60 3e ea 8e 7c be f3 86 a2 be
       -0.43094155 0.21922894 -0.24663892 -0.31743583
0000e0 01 07 d1 be 33 a2 a8 bd 95 18 61 bf 95 c6 7f 3e
       -0.40825656 -0.08234062 -0.87928134 0.24978097
0000f0 da a9 ab bd fb 0b 02 bf b0 8a 5f 3e fb b8 b0 be
       -0.08382006 -0.5079953 0.21830249 -0.3451613
000100 10 7e 5b be c5 a1 07 bf 93 1f 03 3e ad d2 0b bf
       -0.21434808 -0.52981216 0.12805013 -0.5461834
000110 6f ce e0 be 8e e8 c6 be 99 79 0b 3e 94 e7 8c be
       -0.43907496 -0.388493 0.13620605 -0.2752043
000120 17 5e 9c be 2c 0a 9c be ee 83 48 be ff 95 28 be
       -0.30540535 -0.3047651 -0.19581577 -0.16463469
000130 da 6b 79 3d 06 3f 3d 3b e0 5a 72 3e 19 b3 30 bf
       0.06089387 0.0028876676 0.23667479 -0.6902328
000140 4f 47 be be 08 fb c2 be 08 ab b2 be 00 4d 81 bc
       -0.3716378 -0.38082147 -0.3489611 -0.015783787
000150 96 79 fc 3e 2f 02 e0 bd d4 77 c5 be 50 1b e1 3e
       0.49311513 -0.109379165 -0.38567984 0.4396615
000160 d0 ab 14 3f d5 5d 60 bf 55 a4 cb bd 85 0d f8 bd
       0.58074665 -0.87643176 -0.09943453 -0.12111954
000170 84 d5 46 be 4c 01 19 3e d1 51 fe 3d 58 a4 0b 3f
       -0.19417387 0.14941901 0.12417949 0.54547644
000180 33 e6 49 be 76 4c a6 bd a3 f9 f4 bb 24 ef a1 3e
       -0.1971672 -0.081200525 -0.007476048 0.31627762
000190 6f 0b 97 be 9c 26 8f 3c 41 01 54 3e 5e 5d 87 bf
       -0.2950091 0.017474465 0.20703603 -1.0575368
0001a0 7f 26 99 bf c2 67 13 bf 08 fc db be 55 60 13 bf
       -1.1964873 -0.57580197 -0.42965722 -0.57568866
0001b0 9e e4 d5 3e 08 4f 95 3c aa 51 79 3d a3 43 6c 3e
       0.41775984 0.018226162 0.060868897 0.23072676
0001c0 ec 54 ff 3d d4 48 e8 bd 11 78 1f bf f8 cb 19 3f
       0.124673694 -0.11342016 -0.6229258 0.60076857
0001d0 e2 86 84 be cc 0e a9 3e d0 50 77 be 11 57 73 3d
       -0.25884157 0.33019102 -0.24151921 0.059409205
0001e0 c3 f0 f9 3e 9c fa 13 3f 26 0a 2f bd df 1b 29 be
       0.488165 0.57804275 -0.042734288 -0.16514538
0001f0 77 21 f1 be 79 68 9f be 87 9a ce be 73 e8 8f 3d
       -0.47095844 -0.31134394 -0.4035227 0.07026758
000200 ad 0a 0e 3f 1b 12 0d bf 6e 2f 84 be fe 41 ad 3c
       0.5548504 -0.5510575 -0.25817436 0.021149632
000210 f1 e2 49 be 88 3d 4a bd 0b e0 af bd 50 ca f6 be
       -0.19715478 -0.049375087 -0.08587655 -0.48201227
000220 cd cd 81 be 3f c6 82 bf 91 79 ad 3d dd c9 33 bd
       -0.25352326 -1.021675 0.084704526 -0.043893684
000230 be ab f2 bd 45 61 b3 be 4a 99 c1 3d db e1 ba 3e
       -0.118491635 -0.35035148 0.09453066 0.3650044
000240 10 d5 09 bf 4f 8d 37 be b7 9b 1a bf fd ce 33 bf
       -0.5384073 -0.17924999 -0.6039385 -0.70237714
000250 a1 2e 4f bb 7a be 82 3e 81 e9 49 bf 2e 04 5d 3e
       -0.0031613486 0.25535947 -0.78871924 0.21583626
000260 a9 34 53 3d ce 8b 17 3f 85 cb 01 be c0 38 c0 be
       0.051563893 0.591977 -0.12675293 -0.37543297
000270 4c f9 a2 3b f8 e4 2e 3d e8 0a 05 be ee 12 f6 be
       0.004973566 0.04269883 -0.12992442 -0.48061317
000280 87 71 7f 3d d7 2a bd be 29 bd 64 3d a1 0d 98 bf
       0.062364127 -0.36946747 0.05584446 -1.1879159
000290 0c 7d ca bd d3 d6 92 bd 5f f3 0e be cd 1a 8a be
       -0.09887132 -0.07169881 -0.13960026 -0.26973572
0002a0 6c 17 04 bf ba 23 6d be e9 9e 72 be fd 46 39 bf
       -0.5159824 -0.2315816 -0.23693432 -0.72373945
0002b0 30 16 c7 3e 0a 85 8f be 42 c4 49 be c8 99 af 3e
       0.38884115 -0.28031188 -0.19703773 0.34297013
0002c0 5f f8 a0 be 5f ba 1c 3e 5a d1 cc be 72 ef 09 3d
       -0.31439492 0.1530547 -0.40003473 0.03367562
0002d0 60 4d 35 bf 2e e3 6e 3c 6a b2 90 3e 99 22 6c 3f
       -0.7082119 0.014580531 0.2826112 0.9224029
0002e0 67 71 cb 3d a0 36 ab 3e d7 7d 99 be 03 aa e4 3e
       0.09933739 0.33440113 -0.2997882 0.4466096
0002f0 0e 3c 9d be 74 40 80 bf 82 1d c5 be 91 fe d8 3e
       -0.3070988 -1.001967 -0.38499075 0.4238172
000300 85 13 da 3e 51 65 3e bf f6 fc b6 3e f4 c2 35 3f
       0.42593017 -0.74373347 0.3573987 0.710006
000310 65 aa d8 be b6 7d 1c bf b1 2f c2 3d 24 77 be 3d
       -0.423175 -0.6112932 0.09481753 0.09300068
000320 8e 89 c4 bd 0f a0 c9 3d af 80 dc be 07 50 90 be
       -0.09596549 0.09844982 -0.43066928 -0.28186056
000330 c6 3d 8f be 45 ac 16 3f d1 27 9f bd c9 af 4a 3e
       -0.27976817 0.5885661 -0.07771266 0.19793619
000340 30 f1 13 bf 05 4a 00 bf a4 77 9f be 12 53 33 be
       -0.577899 -0.50112945 -0.31145966 -0.17512158
000350 e8 05 f3 be c5 c1 64 3c bc fc 2f 3d 08 62 84 bd
       -0.47465444 0.013962214 0.042965636 -0.064640105
000360 c4 ec e4 3d 2d 97 f6 3d 79 d5 ab 3e 9e 51 54 be
       0.11177972 0.12040553 0.33561304 -0.2073426
000370 e2 af 25 be a0 d5 c0 bd 7c 9a d1 3c 61 be d8 3d
       -0.16180375 -0.09415746 0.02558636 0.10583187
000380 37 ea 02 3e b9 7b 30 be e3 4f 27 bf 20 ed d5 be
       0.12784658 -0.17234696 -0.6535627 -0.41782475
000390 0a 18 01 be c9 2f 20 3e d4 d9 7b bf 8a 92 53 bd
       -0.12606826 0.15643229 -0.98379254 -0.051653422
0003a0 8a af 97 be cc b8 53 be d9 98 13 be 7e b2 81 3e
       -0.29626113 -0.20675963 -0.14413776 0.2533149
0003b0 8b 1d 33 3e 99 96 1f 3e f2 38 19 bf 3a 59 b3 bd
       0.17491738 0.15584792 -0.59852517 -0.08757253
0003c0 cb 64 82 be 44 06 c6 be 4d da 16 be 3e f8 57 3d
       -0.25467524 -0.38676655 -0.14731713 0.052726977
0003d0 61 f4 ef be aa aa 33 be 49 ea 37 bf 49 12 40 3e
       -0.46866134 -0.17545572 -0.71841866 0.18756975
0003e0 aa 96 82 be ec 55 5e be 51 a5 9f be 5f f8 70 3d
       -0.25505573 -0.21712464 -0.31180814 0.058830615
0003f0 c6 bb bc 3c 8a 03 89 be a6 ed 6f be 1b 0b 1c 3e
       0.023038756 -0.26760513 -0.234305 0.15238611

feature.2.bias f4 [256]
000000 83 04 e6 be 9e fe c6 3d 96 15 38 bf 9d 59 00 3f
       -0.44925317 0.09716533 -0.7190794 0.5013674
000010 bc ff 23 bf c7 3c 17 3f e0 dd f5 be a2 96 5e be
       -0.64062095 0.59077114 -0.4802084 -0.2173715
000020 7a 23 91 3d d0 b8 16 be 6c b4 58 bf f4 1f 10 bf
       0.07086845 -0.14718938 -0.846503 -0.56298757
000030 a9 c2 ec be 72 cd d3 3e 5e ba e8 be ee c7 b2 3e
       -0.46242264 0.4136768 -0.45454687 0.3491816
000040 1b 59 21 3d 35 ce 01 bf 17 75 a3 be 5a 35 33 be
       0.03939162 -0.5070527 -0.3192527 -0.17500821
000050 ca 0f 27 be 7c 88 41 3e 97 48 86 bc c8 5a 60 3f
       -0.16314617 0.18899721 -0.016392035 0.8763852
000060 37 a7 65 3f 23 06 08 bf 16 58 da bd ac 65 b1 3e
       0.89708275 -0.53134364 -0.10661332 0.34647882
000070 14 e3 83 be 87 5b 9c be 15 ed d7 bd cd d0 e8 bd
       -0.25759184 -0.3053858 -0.10543267 -0.113679506
000080 f4 ba e4 3d a8 1e 0f be 51 0a 24 be 54 1e 48 3d
       0.11168471 -0.13976538 -0.1601956 0.04885705
000090 59 7e 8a 3f 26 07 91 3f 31 5e 43 bd 99 a3 3b be
       1.0819808 1.1330307 -0.04769725 -0.18324126
0000a0 0c 15 03 3e 3f b3 00 bf 3f cc 02 3e b7 ca 91 3f
       0.12800997 -0.5027351 0.12773226 1.1389989
0000b0 f8 9a 96 bc 49 0c 10 be e2 1d 8a 3e f7 ff 60 be
       -0.018384442 -0.14067186 0.26975924 -0.21972643
0000c0 15 39 39 3f 3a 62 b5 3d a2 a8 8f 3c 87 ad a0 be
       0.72352725 0.08856626 0.017536465 -0.3138239
0000d0 3f d6 14 be fe 3d 52 3e e6 76 18 3d 85 86 5d 3f
       -0.14534853 0.2053146 0.037222765 0.86533386
0000e0 6a 7c 07 3e 7e 0c f6 3e 44 02 6f 3f 95 e2 58 3e
       0.13231054 0.48056406 0.9336283 0.21180184
0000f0 d4 c6 0a bf ca 17 84 3d be a3 0e bf 41 3d 4f 3e
       -0.5420964 0.0644985 -0.557186 0.2023821
000100 de c6 53 3f d8 de a6 3e f0 d6 d8 3c 78 4c a1 bd
       0.8272532 0.3259189 0.026469678 -0.078759134
000110 ad fa 53 3e 1b 58 c5 be b3 95 30 3f 4f 5b 54 bd
       0.20701094 -0.38543782 0.6897842 -0.05184489
000120 01 c2 79 3c 42 71 cf be fb ea 4d 3f 1e 7e d1 3e
       0.015244008 -0.40516096 0.80436677 0.40916532
000130 25 e2 fa 3e 44 76 83 3f c2 e7 1c 3d 34 4a 7e 3f
       0.4900066 1.0270467 0.03830696 0.99331975
000140 92 c5 c9 be a5 f1 65 be c0 79 20 3f 6f 14 e8 3e
       -0.39408547 -0.22455461 0.62685776 0.4532809
000150 c4 c9 3c be e2 88 86 3f 88 44 aa be 9e af 53 3f
       -0.18436342 1.0510523 -0.3325541 0.82689846
000160 08 d8 fe 3e c8 2f 7b be da ff 97 3e da 6e 92 be
       0.49774194 -0.24529946 0.29687387 -0.28600198
000170 79 d7 20 3f 0c ce b8 bd a7 2a 49 be 5d 10 84 be
       0.62828785 -0.09023675 -0.19645177 -0.25793734
000180 96 f5 66 3e fb cd c0 bc ef 09 13 3f fe 19 f6 3e
       0.22554621 -0.02353572 0.5743703 0.48066705
000190 a9 e6 2c be ee 7b 94 3e df d3 e2 be 1a 27 7b 3f
       -0.16884865 0.290008 -0.4430227 0.9810654
0001a0 ba 6e 6d 3d 22 c1 6f 3e 15 6c 2c 3f cc f9 68 3f
       0.057966925 0.23413518 0.6735242 0.9100616
0001b0 e8 85 7f 3f bb 25 0a 3f 69 16 29 bd 06 8b d1 bd
       0.998137 0.5396382 -0.041281138 -0.10231595
0001c0 dc 5f fb 3e 73 43 d9 3b 5e 5c 94 3d ce 78 0e bf
       0.49096572 0.006630355 0.0724418 -0.55653083
0001d0 e1 d9 91 3d 31 29 2e 3f 41 28 f4 3e 0d 26 a9 3e
       0.07121635 0.68031603 0.4768696 0.33036843
0001e0 c9 c3 3b be 59 07 38 3f e8 49 02 3f 57 f7 ba bd
       -0.18336405 0.7188621 0.5089402 -0.091292076
0001f0 7c 5b b2 3d a1 41 45 3d ff 62 d8 3c ab 15 f3 3d
       0.087088555 0.04815829 0.026414393 0.11869367
000200 71 93 90 3f 2f 56 1c be df 4b 8c bd 2d 9a 85 bc
       1.1294996 -0.15267251 -0.06850409 -0.016308868
000210 d0 bc 4e 3e 9c 39 39 bd 1b 2f a3 be 60 62 4d be
       0.20189214 -0.045220956 -0.31871876 -0.20057058
000220 a1 72 36 3f 70 22 61 3f d9 2d 57 3e da b3 cc bd
       0.7126866 0.8794317 0.21013583 -0.099952415
000230 44 76 59 3d 77 a5 84 be b7 90 91 be 3b 95 41 3f
       0.053091303 -0.2590749 -0.2843072 0.7561833
000240 6c 09 3d 3e 1d 13 a0 be cd 17 b0 3d c5 4e f0 3d
       0.18460625 -0.31264582 0.0859829 0.11733774
000250 3a 6b b2 3d ec af 02 be f5 9a 17 bf be db a4 be
       0.08711858 -0.12762421 -0.5922082 -0.321989
000260 a5 75 07 3f 25 b0 7c 3f bf b3 cb be 6e 1e e2 bd
       0.52913886 0.98706275 -0.39785573 -0.1104096
000270 19 a3 b2 3d 27 c1 4d 3f ae 4c c5 3e 53 d4 11 bd
       0.08722515 0.8037285 0.38535064 -0.03560288
000280 46 18 70 3f 28 cc 11 bc 55 92 e0 3e b6 51 68 bc
       0.9378704 -0.008898772 0.43861642 -0.014179638
000290 db 61 2f 3f c0 e6 4f 3f b7 2e 16 3e a4 a1 e9 3c
       0.6850869 0.8121147 0.14666258 0.02851946
0002a0 34 29 3d bf 80 0d 2e be 0d 94 c6 be e8 72 4a 3f
       -0.73890996 -0.16997337 -0.3878483 0.79081583
0002b0 b8 51 89 be b5 38 81 bd 03 36 30 3e f4 f4 5b bf
       -0.2682016 -0.06309644 0.17208104 -0.85920644
0002c0 8f 71 50 3f de c4 c7 be f6 c5 cf 3e aa 14 f6 3e
       0.81423277 -0.39017385 0.4058072 0.4806264
0002d0 c6 92 56 3f be 54 14 bf 95 47 a7 3e 9d 04 ac bd
       0.8381771 -0.57941806 0.326718 -0.083993174
0002e0 a5 ca 97 be 09 90 05 be 10 f3 36 be dc 79 86 be
       -0.29646793 -0.13043226 -0.17866158 -0.26264846
0002f0 44 d7 1d 3f b3 db 36 bc 4d ad f5 be f9 56 44 bd
       0.61656594 -0.011160779 -0.4798378 -0.047934506
000300 e5 5b 47 bf 08 e9 27 3e 19 0d 18 3e ff 17 38 bd
       -0.77874595 0.16397488 0.14848746 -0.04494476
000310 b3 4d d8 3d 4f f8 4e 3d 95 86 b4 be 56 56 db bd
       0.10561695 0.050529774 -0.35258928 -0.10709827
000320 6d d9 43 bf f4 3f 11 3e bc 27 d6 be ac 04 d8 3e
       -0.7650364 0.14184552 -0.4182719 0.42191064
000330 13 93 1a be 40 00 e3 3d 26 fd 4d bd 43 47 99 bd
       -0.15095167 0.11084032 -0.05029025 -0.07484295
000340 38 85 46 be fe 15 80 be 3c 17 54 be 8c 17 8e be
       -0.19386756 -0.2501678 -0.20711988 -0.2775234
000350 1c cb bf 3e 2e f9 91 be 1b 71 17 3f fd ef 80 3f
       0.37459648 -0.28510422 0.5915696 1.0073239
000360 40 89 0a 3e 16 95 32 3d 70 e0 80 be b9 23 12 3f
       0.13528919 0.04359921 -0.25171232 0.5708576
000370 f8 81 87 3f 08 68 0a bf 3d 35 b7 bd d7 73 0c be
       1.0586538 -0.5406499 -0.08945701 -0.13716064
000380 58 95 ff bc b6 16 74 3f ee ee 3f bf 34 8f a2 3e
       -0.031199142 0.95347154 -0.7497395 0.3174988
000390 d0 1f 9b 3d 7f 7c 9e 3e fc 78 21 3f 5c 5d 96 be
       0.07574427 0.30954358 0.6307523 -0.29368103
0003a0 48 9a ba bc 72 a4 33 be 82 ca ca bd 53 80 2b 3f
       -0.022778645 -0.175432 -0.099019065 0.6699268
0003b0 91 0f ba 3e 71 9a c8 3d d6 76 76 3e 0c db 17 bf
       0.3634 0.09795082 0.2406877 -0.59318614
0003c0 a3 04 64 be 3f b3 db be 9b f0 70 be 39 26 01 3c
       -0.22267394 -0.4291019 -0.23529284 0.007882648
0003d0 c2 da 83 bd b5 cb 68 3f 60 92 49 3d 18 a3 a7 3e
       -0.06438209 0.9093583 0.04921186 0.32741618
0003e0 97 fa 0d 3e 06 5e 69 3e 5a 6a fb 3d cc 38 ac 3e
       0.13865124 0.22789773 0.12276144 0.33637083
0003f0 89 0c e6 bd 13 4d 9d 3d de ec 29 bf 34 ab 39 3f
       -0.1123286 0.07680716 -0.66377056 0.7252686

value_stream.0.weight f4 [256, 256]
000000 b2 10 73 bd d0 ab ff bd 46 f3 b7 bd be 2c d0 be
       -0.059342094 -0.124839425 -0.089819476 -0.40659136
000010 9b 6d 86 be c3 d9 26 bf 39 66 1b 3e b1 0b 0f 3e
       -0.26255497 -0.6517603 0.15175714 0.13969304
000020 7a 12 29 bd 16 60 d9 3e 64 27 90 bc 78 ff 4f 3d
       -0.041277386 0.4245612 -0.017596908 0.050780743
000030 27 f5 d0 be ea 5a c2 3d 8c df 01 3f e7 a6 17 3f
       -0.40812036 0.09489997 0.5073173 0.5923905
000040 67 43 20 bf e0 fc d9 3e a4 9f 71 be bf b8 6b be
       -0.6260285 0.4257574 -0.23596054 -0.23019694
000050 13 3c 35 3e 7a 5d 3c 3d 7d 96 71 bf 56 f1 a2 3e
       0.17698698 0.045987584 -0.9437025 0.3182475
000060 fa 56 59 3e 94 24 c1 be 9b 11 60 bc 1c 3e f1 be
       0.21224585 -0.3772322 -0.0136760725 -0.47117698
000070 30 87 1b 3c b2 f8 13 bf 29 20 e4 bd f0 9a e9 be
       0.00949268 -0.57801354 -0.111389466 -0.4562602
000080 db 25 0f bf 1a 08 c6 be 5e 16 01 3e c0 e3 4f be
       -0.5591714 -0.38678056 0.12606189 -0.20301723
000090 fd 10 2d 3c 6c f4 6c 3e 8b 24 83 be a0 02 bc bf
       0.010563132 0.23140115 -0.25613818 -1.4688301
0000a0 5d 61 94 3e 45 c6 20 bf 20 de 57 bf 81 d1 ad 3e
       0.28980532 -0.62802535 -0.8432331 0.339489
0000b0 b6 9d 95 be ec c0 c6 be 39 27 75 be ce 84 7e 3e
       -0.29221886 -0.38819063 -0.23940744 0.24855348
0000c0 73 fe 5f be 86 e4 9c bc 67 79 89 be 8f 4f 9c 3e
       -0.21874408 -0.019151937 -0.26850435 0.30529448
0000d0 84 e2 8b 3e 6a 55 20 bf cb 2c 7d 3d 92 35 f7 3d
       0.27321255 -0.6263033 0.061810296 0.120707646
0000e0 5e 5a 1f bf 3a 77 06 bf 77 07 45 3e f0 fa 6b 3f
       -0.62247264 -0.52525675 0.19241129 0.92179775
0000f0 ef 57 85 be 77 7d 5b 3f 85 ff b4 3c 7b e8 4a 3f
       -0.2604365 0.8573832 0.022094497 0.7926099
000100 b9 84 31 be f3 bf 0d bf fb cf 2d 3e 90 75 86 be
       -0.17335786 -0.55371016 0.1697387 -0.26261568
000110 8a f2 bf bd 7c a3 c7 be 1c 28 80 3d f9 31 9f bc
       -0.093724325 -0.38991916 0.0625765 -0.019433009
000120 57 8f 93 3e d3 dd bd 3d b7 83 5b bb 02 5e 00 bf
       0.28820297 0.09270825 -0.0033495256 -0.50143445
000130 c8 7e 2d bf c6 2d 7f 3e 8d 08 38 3f 71 92 2b 3e
       -0.6777158 0.24919805 0.7188805 0.16755082
000140 f7 14 60 bf b0 0d f3 3d 99 5b ab be 16 57 86 bf
       -0.8753199 0.11867845 -0.3346832 -1.0495327
000150 3f de 80 3d 4f 29 b0 3e 98 89 3c 3f 82 5f da 3d
       0.0629239 0.34406516 0.7364745 0.10662748
000160 74 91 e5 3b be 68 b8 be f7 db 3d be 1b 69 00 be
       0.0070058648 -0.36017412 -0.18540941 -0.12540095
000170 e1 3a 14 3f ea 42 1f be f0 be 16 bc 58 c0 0b 3e
       0.5790234 -0.1555287 -0.0092007965 0.13647592
000180 b9 d8 d1 3e 4f 63 20 bf 46 4b 4b bd 2d 02 b2 3e
       0.4098566 -0.6265153 -0.049632333 0.34767285
000190 f5 28 2d be 3a 26 90 3e 1c 4f f1 be ab c5 27 3f
       -0.16910155 0.28154165 -0.47130668 0.6553599
0001a0 e9 1e 5f bf 8c 6d 2f 3f f4 56 80 be 32 51 9c be
       -0.8715654 0.6852653 -0.2506634 -0.30530697
0001b0 75 37 34 3e 47 9a 7f bf f9 ea 0d bf b3 b2 3a 3e
       0.1759928 -0.99844784 -0.55436665 0.18232231
0001c0 84 09 a5 bc 2a c5 36 3f 47 23 54 3e a5 ea dc 3e
       -0.020146139 0.713946 0.20716582 0.4314777
0001d0 33 bb cc 3d 0a 69 b3 be 5e 53 68 3e 31 ae 55 be
       0.09996643 -0.35041076 0.22688052 -0.2086723
0001e0 07 c1 d8 3e 12 82 3b be 7f c6 57 3d 2f 16 1c 3e
       0.42334768 -0.18311337 0.052679535 0.15242837
0001f0 1c 78 83 bf b6 8c 4f bf 91 06 78 3d ce 2c 5e 3f
       -1.027103 -0.8107408 0.060553137 0.86787117
000200 e1 15 e8 be f9 69 8d bf 2f 15 77 3e c8 94 19 bf
       -0.45329192 -1.1047965 0.24129175 -0.5999265
000210 03 03 1c 3f 2f 56 31 be ba 80 2f 3e ae d6 6c be
       0.60942096 -0.17318033 0.17138949 -0.23128769
000220 c0 1d fc 3d db 59 78 3d 0e 8c 34 3d fe 3f cb bd
       0.12310362 0.060632568 0.04407888 -0.09924315
000230 fc c0 2a 3f b7 ad 19 3d 68 89 2e be 9e 37 7d bd
       0.6670072 0.037519183 -0.17044604 -0.06182062
000240 a5 63 67 be d6 da 1b be f3 60 bd 3d 61 7b 83 be
       -0.22596605 -0.15220198 0.09247007 -0.25680068
000250 99 07 1a 3e d9 1e 83 3e 22 79 5c bf 93 98 b7 bd
       0.15041961 0.25609472 -0.86122334 -0.08964648
000260 ac b4 ae 3e 9e 27 65 bd ac 34 ce 3c 5e cd 8d be
       0.34122217 -0.055945985 0.0251716 -0.27695745
000270 d4 0c 67 bf 33 0b 83 3e 38 d6 92 3d 77 1d 43 3f
       -0.9025395 0.25594482 0.07169765 0.76216835
000280 d1 52 dc be 09 d2 db bd 0f 87 42 bf 8a fa 88 3e
       -0.43031934 -0.107334204 -0.75987333 0.26753646
000290 04 3b 09 3e c5 93 a6 3e 90 8a 3e bf 09 bd 18 3f
       0.13401419 0.32534614 -0.7443018 0.59663445
0002a0 60 55 b4 be c0 10 d9 be 63 55 04 be ab 5e 6e bf
       -0.35221386 -0.42395592 -0.12923197 -0.931132
0002b0 13 a0 10 be e8 9c 02 3e 4d 26 c6 3e 3d f8 e7 be
       -0.14123563 0.12755167 0.38701096 -0.45306578
0002c0 b6 89 39 3f 53 1e 54 be 15 9f 0d 3d 8d cb 86 be
       0.72475755 -0.20714693 0.03457554 -0.26327172
0002d0 75 04 d5 3d 12 9a 9c 3c 7a 2c 01 be 29 df 86 3e
       0.10401241 0.019116435 -0.12614623 0.26342133
0002e0 99 e4 bf be bc c8 12 3e dd 67 2f 3d 30 50 c4 3e
       -0.37479094 0.14334387 0.04282366 0.38342428
0002f0 2f b3 17 3f f0 34 8c 3c e6 7b 15 be 1a f9 40 bd
       0.5925779 0.017115086 -0.14598045 -0.04711256
000300 66 4f 85 3e 5b b7 8d be 78 73 ba be 6d 41 b0 bf
       0.2603714 -0.27678952 -0.3641622 -1.3769966
000310 59 53 33 bf 99 6f c1 3d 1e 6c 74 be 29 d5 84 be
       -0.70049053 0.09445114 -0.23869368 -0.25943878
000320 f4 23 13 3f c0 91 51 bd 1d a3 bc 3c c4 ce 73 bd
       0.57476735 -0.05116439 0.023026997 -0.05952336
000330 47 3d 27 bf c6 9f 89 3e be cd 4d 3e c8 c3 a2 be
       -0.65327877 0.2687971 0.20098016 -0.31789994
000340 34 34 8e be 32 95 80 bf f2 a8 03 3e 80 5f 93 3e
       -0.27774203 -1.0045531 0.12857416 0.28783798
000350 60 d3 3b 3e ae bb 80 3e b3 2e 7a bf 66 85 24 3f
       0.18342352 0.25143188 -0.9772751 0.6426605
000360 f7 bd 30 bf 70 ad f4 be 4e c2 df 3d e3 35 54 3e
       -0.69039863 -0.47788572 0.109257326 0.20723681
000370 93 7e d6 3e 2f 0a 66 3d 5f 38 96 be 1e be 8b bf
       0.41893443 0.056162056 -0.29339883 -1.0917394
000380 41 ec 3d 3e 26 18 9b 3e 31 ac 1a 3e e0 a1 71 bf
       0.18547155 0.3029186 0.15104748 -0.94387627
000390 c8 05 37 3e 1b 92 33 bf 05 31 09 3e 7c 63 94 3e
       0.17873299 -0.70144814 0.13397606 0.2898215
0003a0 df 9f 35 be 75 ee 8a be 3b 6f 4a be ec fc e6 be
       -0.17736767 -0.27135053 -0.19768994 -0.4511484
0003b0 b0 9c 90 3f dc e2 b4 3c 78 d4 f2 be 02 1a 50 be
       1.1297817 0.022080831 -0.47427726 -0.20322421
0003c0 bd b9 0b 3f 67 6c 82 3e 26 79 16 bf 0d a3 86 be
       0.5458029 0.2547333 -0.5877861 -0.26296273
0003d0 05 80 37 bd 52 e4 61 3b ad ff e5 3e 95 5f 85 bf
       -0.044799823 0.0034468365 0.44921628 -1.0419794
0003e0 27 dd 98 3e b9 45 c5 be 1d 2d 17 be 92 6d cf bf
       0.29856226 -0.38529757 -0.14763303 -1.6205313
0003f0 5d 77 46 3f 09 4f 91 3c 5d 1e 3f be fe 5b d9 be
       0.77525884 0.017737882 -0.18663926 -0.42452997

value_stream.0.bias f4 [256]
000000 dc 5d 3a bd 45 d3 0a 3f 15 6a a2 be 6c 2b 0f bf
       -0.045499668 0.5422862 -0.3172156 -0.5592563
000010 52 5d 54 be 21 5d 7b 3e 3e 96 94 be a5 3b d5 3d
       -0.20738724 0.24547245 -0.29020876 0.10411767
000020 a4 1e 5c 3f 07 3c 82 3e 42 ca db 3d 2c b9 4a 3e
       0.85984254 0.25436422 0.10731937 0.197972
000030 03 68 05 bf 2a 55 01 3f fe 5d b3 be 47 3e 04 3f
       -0.52111834 0.50520575 -0.35032648 0.5165753
000040 e4 e6 fa 3e c8 46 39 bd 73 6f c9 3e ad 59 6a 3e
       0.4900428 -0.045233518 0.39342842 0.22885771
000050 5c ee f8 3e 5a 7a 06 3f 18 42 24 be 8b 77 3b 3c
       0.48619354 0.52530444 -0.16040838 0.0114420755
000060 f3 5f 57 bd ce bc 30 3f 89 49 59 3e 7d c4 9a 3e
       -0.05258174 0.69038093 0.21219458 0.30228034
000070 b9 68 63 be af 9e 36 be 59 f6 a7 be ed d9 2b 3e
       -0.22207917 -0.1783397 -0.32805136 0.16782351
000080 f6 b7 9b 3e fa c5 47 3f cb ed bf 3e a8 e0 14 be
       0.3041379 0.78036463 0.3748611 -0.14538825
000090 9b e4 8c be 5c 37 89 3e c3 d0 a1 3e ac 68 a5 3e
       -0.27518162 0.26800048 0.31604585 0.3230642
0000a0 b1 29 80 3e ff ad 2a 3f 6a b9 34 3d 31 97 1d 3f
       0.25031808 0.66671747 0.044122137 0.61558825
0000b0 b4 71 19 3f f2 e2 bd bd 3b 8e 39 bb 91 72 76 be
       0.5993912 -0.09271802 -0.0028313536 -0.24067141
0000c0 9a ec 4b 3f 77 c7 30 3d a1 68 6f 3e ba 57 8f 3e
       0.796579 0.043158974 0.23379757 0.27996618
0000d0 77 c1 48 3e 5a fd 87 3d 73 c9 3f 3f 8d b6 80 3e
       0.19605051 0.0664012 0.7491676 0.25139275
0000e0 05 11 7b 3e 27 64 36 be 0b d0 0d 3f 69 f0 50 3f
       0.24518211 -0.17811643 0.55395573 0.81616837
0000f0 8f ad 23 3f f2 b6 b8 3e 86 9d 1f 3f d5 d7 36 3f
       0.63936704 0.36077076 0.62349737 0.71423084
000100 4c 82 0d 3f c1 10 2d 3f 96 fa 41 be 29 bc b6 be
       0.5527694 0.6760369 -0.18943247 -0.3569043
000110 d7 a8 46 3d 6c a3 d9 3e 7c 0f cc 3e 2e 22 69 be
       0.048500862 0.42507493 0.39855564 -0.22766945
000120 4c 86 55 3e 59 8f a4 3e 7e e4 ce 3e 21 83 9f be
       0.20852011 0.32140616 0.404087 -0.3115473
000130 7f 6a 3e 3e df 0c 30 3e 5d f5 f6 3e 1b 73 77 3e
       0.18595313 0.1719241 0.48234072 0.24165003
000140 39 58 09 be 69 27 37 3e 4d 24 0d bf 2a 67 9a be
       -0.1341256 0.17886128 -0.55133516 -0.30156833
000150 1c 2b 05 be 94 84 f2 be bd 2c a4 3e 81 f7 94 be
       -0.13004726 -0.47366774 0.32065383 -0.2909508
000160 25 33 8c 3e 60 e1 57 be 40 ed e8 be 35 4d 12 bf
       0.2738277 -0.21082067 -0.45493507 -0.5714906
000170 69 c1 af 3e 8d 7e 54 3f 0d 6f 6d 3e 51 fc 5a 3f
       0.34327248 0.830056 0.23186894 0.85541254
000180 16 48 75 be 86 2e e2 3e 90 87 fb 3e 2b 3b af be
       -0.2395328 0.4417612 0.49126863 -0.3422483
000190 2c 8b 8c bd 55 66 87 be 3f 90 8f 3e e8 b2 0c 3f
       -0.068624824 -0.2644526 0.2803974 0.5496049
0001a0 db 4e ef 3e 5f 9c 0e 3e 2b 54 22 bc dd 56 f0 be
       0.4673985 0.13926838 -0.0099077625 -0.4694127
0001b0 70 df 93 3e 0f 2b 72 be c7 4b 25 3f 03 82 95 3e
       0.28881407 -0.23649238 0.6456875 0.29200754
0001c0 f1 26 c2 3e 06 09 4b 3f 51 5f 6c 3f b6 94 0b bf
       0.37920335 0.79310644 0.9233294 -0.5452379
0001d0 b5 6d 4c 3f 85 8e c1 3e b9 5d e7 3d de b5 99 3e
       0.798549 0.37804046 0.11297173 0.30021566
0001e0 cb 0e 31 3d 2a 1c 04 be 09 5b e8 3d 30 71 93 bc
       0.043227 -0.12901369 0.113454886 -0.017998308
0001f0 cd 0b 94 3c 6e 2e 7f be e7 58 15 3f 4c e9 c7 3e
       0.018072033 -0.24920055 0.5833878 0.3904518
000200 38 cd 2b 3f f2 75 0d bd 01 cc 60 3f 06 7e 8c 3e
       0.67110014 -0.03453631 0.87811285 0.27439898
000210 72 16 8b 3e a2 c7 00 3e 4c a4 8f 3e cb d9 b7 3e
       0.27165562 0.12576154 0.28055036 0.3590835
000220 c8 50 ea 3e b6 fe 03 3f 94 94 74 be 81 4e b5 3e
       0.45764756 0.51560533 -0.23884803 0.35411456
000230 c5 82 ad be 32 c3 44 3e 98 b9 8b 3e 5f 59 1f bd
       -0.33888832 0.19215086 0.27290034 -0.03890359
000240 b3 ec 3a 3f ca 02 e8 bd 05 8c 38 be cf 68 5f 3e
       0.73017424 -0.11328657 -0.18022163 0.21817325
000250 69 e5 48 be 35 1c 11 bf b5 e9 01 3e 5d ae ec 3e
       -0.19618763 -0.56683666 0.12686808 0.4622678
000260 49 e8 0d 3f 68 e8 14 3e fa 39 ed 3e b2 ee c4 be
       0.55432564 0.14541781 0.46333295 -0.3846336
000270 5f 3b 70 3e 0e 6d ba be 4f 4d 6d 3e 2a b4 20 bd
       0.23460148 -0.36411327 0.23174022 -0.039234318
000280 2e 59 59 3f a8 99 d4 3e 99 b8 d9 3e 57 37 60 3e
       0.849017 0.4152348 0.4252365 0.2189611
000290 e7 c4 b1 be 2f 3c ec be e7 f0 90 3d bc c5 9f 3e
       -0.34720537 -0.46139666 0.070771985 0.31205547
0002a0 b1 bc 69 3e 22 de 08 bf 9f 73 f3 bd 3d 02 ba 3e
       0.22825886 -0.5346395 -0.11887287 0.36329833
0002b0 a1 14 a2 3d fb 2d 94 bd 5e 97 b0 3e 1c d5 c8 3e
       0.07914091 -0.072353326 0.34490484 0.3922509
0002c0 c2 55 28 3f 3b 12 37 3f a3 f9 68 bc bf 15 9d be
       0.65755856 0.7151219 -0.014219674 -0.30680653
0002d0 44 01 da be c9 b0 32 be 66 4f f2 3e 04 30 31 3f
       -0.4257909 -0.1745025 0.473262 0.6921389
0002e0 38 07 4f 3d c0 b2 37 3e ab d5 1f 3f fd c7 4b 3f
       0.050543994 0.17939281 0.62435406 0.7960203
0002f0 35 b9 de 3e 54 cb 8a 3c f2 2c 16 3f ef 78 8e be
       0.43500677 0.016942658 0.5866233 -0.2782664
000300 a9 e4 63 3f e6 05 7b be a0 0b 2f be 12 14 9a be
       0.8902078 -0.24513969 -0.17094278 -0.30093437
000310 3a 39 b8 3e 18 a3 6e 3f e6 2d da be 6c 4c 49 be
       0.3598116 0.9321761 -0.42613143 -0.19658059
000320 c2 23 d1 be af f1 62 3f e6 ca 78 3f a1 c2 6f 3e
       -0.40847594 0.8865003 0.971846 0.23414089
000330 ab 35 1c 3f b1 51 0f bf c3 d7 5a 3e f8 49 81 3f
       0.6101939 -0.55984026 0.21371369 1.0100698
000340 7a 97 a6 ba 88 31 df 3e c4 5b e5 3d 1e ce 95 3e
       -0.0012709938 0.43592477 0.111991435 0.29258817
000350 6a 5c 07 3f c5 b9 a8 3e 93 f8 ec be 4c ee a1 3e
       0.5287539 0.3295423 -0.46283397 0.3162712
000360 ed 5d 4b 3c fc 13 82 be 89 ef 6b bd 91 30 bd 3e
       0.01241253 -0.25405872 -0.057601485 0.36951116
000370 18 20 03 be 25 4c af 3e 41 63 47 3d 5f 10 58 3f
       -0.12805212 0.3423778 0.04867864 0.8439998
000380 75 16 27 be 47 8d e7 3e ec 65 50 3e 65 72 89 3e
       -0.1631716 0.45224974 0.2035138 0.2684509
000390 ac ab b9 3d cc 9e 43 3f ef c4 2b 3f 8d 86 1e 3d
       0.09065947 0.7641418 0.6709737 0.038702536
0003a0 a5 d9 21 bf b8 1f 8b be 61 0c 95 3e da 19 41 3e
       -0.63222724 -0.27172637 0.29111007 0.18857518
0003b0 f4 79 93 3e fc db 29 3f 63 9c aa 3e a6 30 7c be
       0.2880398 0.66351295 0.3332244 -0.24627933
0003c0 24 36 3f be 14 a8 54 3f f0 5d 9d be d3 a4 a6 3e
       -0.18672997 0.83068967 -0.3073573 0.32547626
0003d0 b7 f8 80 3f 17 e2 61 3e 7c f8 1f 3e 7c e0 f5 3e
       1.0075902 0.22058903 0.15622133 0.4802283
0003e0 35 73 19 3f b9 11 e0 3e 1a ed e7 be b6 1b a7 3e
       0.59941417 0.4376352 -0.45298082 0.3263833
0003f0 5e 84 81 be 66 5a e5 3e 7c 17 0a bf 22 40 08 bf
       -0.252963 0.4479553 -0.53942084 -0.5322286

value_stream.2.weight f4 [1, 256]
000000 33 1d e2 bf 28 2e 3d c0 89 af 93 bd 20 18 df bd
       -1.7665161 -2.9559422 -0.07211215 -0.10893273
000010 45 20 0e be bf ad 8c bf 4f 2d cf bd cf b5 09 c0
       -0.13879497 -1.0990523 -0.10116064 -2.1517217
000020 be 61 20 3f c9 77 6e 3f ba 71 8f be ea 12 fb 3e
       0.6264914 0.9315153 -0.28016454 0.49037868
000030 9d aa dd bd 5a 1a 37 c0 00 71 9b bd 57 86 3e bf
       -0.108235575 -2.8609834 -0.075899124 -0.74423736
000040 37 cf 9f 3e c1 ff 07 bf 59 84 7e 3f 60 0a f8 3e
       0.3121278 -0.53124624 0.99420696 0.48445415
000050 9f 2c d9 3f fa 20 84 bf 52 39 7a be c9 9a b2 be
       1.6966742 -1.0322564 -0.24435928 -0.34883717
000060 cf 2c 91 bf de 93 8e bf b9 e0 22 bf 14 83 88 bf
       -1.13418 -1.1138875 -0.6362415 -1.0665002
000070 e6 16 01 be c3 57 18 be a3 92 e1 bc 2d 17 e7 3e
       -0.12606391 -0.14877228 -0.027535742 0.4513487
000080 d2 1d 92 3f e3 98 b5 3e f5 f9 df bf be b9 f8 be
       1.141535 0.35468206 -1.7498156 -0.4857921
000090 c9 08 b6 bf 5e 8b 05 3f d3 1f 2a 3f 03 6e 83 3f
       -1.4221431 0.5216578 0.6645481 1.0267948
0000a0 52 d7 01 3f 82 13 34 c0 06 0d 81 be 8b 76 58 3e
       0.5071918 -2.8136907 -0.2520525 0.2113897
0000b0 90 dd 34 3f eb ae 9e be fa 53 97 bf 93 8e 3c bd
       0.7065058 -0.30992827 -1.1822503 -0.046034407
0000c0 3c 34 0a c0 9c 6b 04 c0 12 cd 9d 3f 53 52 24 3f
       -2.1594381 -2.069068 1.2328207 0.64188117
0000d0 69 20 90 bf 9e 38 82 bf f9 d8 5d 3f e9 51 cd be
       -1.1259891 -1.0173528 0.866592 -0.40101555
0000e0 bd 42 dc bf e7 7c b2 be 33 5d ff 3e 9a 72 63 3e
       -1.7207867 -0.34860918 0.49875793 0.22211686
0000f0 a6 e7 ac 3e 1f 2d 63 bf e9 8a 97 3e d2 c0 86 bf
       0.33770484 -0.88740724 0.29598168 -1.0527594
000100 1e 9e 09 3f 5a d6 69 3e 49 dd 81 bd 01 5e e6 bd
       0.5375689 0.22835675 -0.06341035 -0.112483986
000110 21 1c 51 bf b0 20 a2 3f 02 0e ad 3f ae f9 98 3e
       -0.81683546 1.2666225 1.35199 0.2987799
000120 33 3b a8 3f 98 24 08 3f 3b e3 95 bf 33 fe 07 bf
       1.3143066 0.5318084 -1.170997 -0.5312225
000130 63 e2 aa bf e2 0c 93 3f 82 7b 1e 3f 98 cf f8 3e
       -1.3350338 1.1488307 0.6190721 0.4859588
000140 3a 92 04 3f 42 22 f7 3e 82 d7 c9 bd 3c 45 26 bd
       0.51785624 0.48268324 -0.09855558 -0.04059337
000150 87 57 d3 be 55 75 bf bd a1 dd 0f 3f bc 39 16 be
       -0.41277716 -0.09348551 0.56197554 -0.14670461
000160 82 3e 15 3f 8f 53 e6 be a9 53 09 be 0b 7b 17 be
       0.58298504 -0.44985625 -0.1341082 -0.14793031
000170 23 40 19 bf 83 e7 05 3f aa bc 19 3f 2c 9a cf bf
       -0.5986349 0.52306384 0.60053504 -1.6218925
000180 04 76 5d be 09 14 91 3f 8b a5 0c 3f d2 38 b1 bd
       -0.2162705 1.1334239 0.549401 -0.08653416
000190 4f 8c 86 bf 14 85 8d bf 28 11 04 3f 04 23 01 3f
       -1.0511569 -1.1056237 0.5158868 0.50444055
0001a0 32 40 98 bf 06 17 98 bf 21 ee 5e 3f f3 92 cc bd
       -1.1894591 -1.1882026 0.87082106 -0.09988966
0001b0 50 4c 6a 3f 95 2c d4 be 5a 75 88 3e 85 4e 05 3f
       0.91522694 -0.41440263 0.26652032 0.52072936
0001c0 d3 03 1a 3f 35 e9 46 3f 73 d4 2f 3f ef 10 51 bf
       0.60162085 0.77699596 0.68683547 -0.81666464
0001d0 e4 ca ce 3e c1 b7 5f bf b2 ee b6 3f 49 4b 06 3f
       0.40389168 -0.8738976 1.4291594 0.52458626
0001e0 7b 3e db bf 29 02 84 be 85 1c 41 c0 12 6c 8b bf
       -1.7128443 -0.25782898 -3.0173657 -1.0892355
0001f0 44 68 a4 bf f8 0b 3b be fb 73 88 3e fa 6b bc bf
       -1.2844319 -0.18266284 0.26650986 -1.4720452
000200 e4 ca 94 3e 16 6b 82 be 05 a7 14 c0 32 36 f6 3e
       0.29061043 -0.25472325 -2.322694 0.48088223
000210 d5 18 0f 3f 83 b7 60 bf 65 6b 0a 3f 28 83 17 c0
       0.55897266 -0.87780017 0.5407012 -2.3673801
000220 5a b9 37 c0 9d 05 3d 3f bc f0 3f bf 28 5e 38 bf
       -2.870688 0.7383669 -0.74976707 -0.7201867
000230 5c c7 3a be 82 5a c1 bf a1 0a 2c 3f 96 5e 66 bf
       -0.18240112 -1.5105746 0.6720372 -0.89988077
000240 5f d9 e3 3e f5 fa b7 3e dc 01 06 bf 5b ef 73 3f
       0.44501778 0.35933653 -0.5234659 0.952871
000250 1f 4b 56 be 7f cb 8e bd bf 0b 9a bf 59 91 e5 3e
       -0.20927094 -0.069724075 -1.2034835 0.44837454
000260 92 ff df 3e f3 c4 ec bf 2c ea ea 3f 68 82 56 bf
       0.43749672 -1.8497604 1.8352714 -0.83792734
000270 35 a1 ad 3f 6c e9 7a bd 58 68 ae 3f e5 88 c2 be
       1.3564821 -0.061257765 1.3625593 -0.37995067
000280 bb fc f0 3e 8f 6b 83 3f ca 55 9d bf dd e3 bd 3f
       0.47067818 1.0267199 -1.2291806 1.4835163
000290 60 d5 2b bf 8a c3 30 be 2d 83 2d bf bf 5e 3c 3f
       -0.6712246 -0.17262092 -0.67778283 0.7358207
0002a0 b5 76 b4 3f b2 75 00 be 41 5d 78 be 9f b1 ae bf
       1.4098727 -0.12544897 -0.24254324 -1.3647956
0002b0 a5 76 30 bf 56 5f 33 bf aa a6 26 bf e3 d0 85 bf
       -0.6893104 -0.70067346 -0.6509806 -1.0454372
0002c0 0d c1 82 3e e2 23 bf 3e 75 52 98 be dd f9 8d bd
       0.2553791 0.37332064 -0.2975041 -0.06932423
0002d0 79 0d 15 bf 92 69 be be 54 bd c9 3e 53 8f ad 3e
       -0.5822368 -0.3718992 0.39402258 0.3389841
0002e0 1b a4 ae be c1 3d ba be 98 40 f1 bf 79 28 19 3f
       -0.34109578 -0.3637524 -1.8847837 0.5982738
0002f0 f4 b8 90 bf 58 48 8c bf 63 7f 60 3f b6 47 56 be
       -1.1306443 -1.0959578 0.87694377 -0.20925793
000300 7c 77 05 3f 02 b3 40 bf 06 0f 5b bf e5 b6 07 bd
       0.52135444 -0.75273144 -0.855698 -0.033133406
000310 5d 12 05 3f 96 56 35 3f 19 ee 50 3b 43 e6 1d bd
       0.51981145 0.70835245 0.0031880199 -0.038549673
000320 e9 e5 5b be e4 eb 2b 3f 21 d4 4d 3f 7d c1 20 bf
       -0.21474423 0.67156816 0.8040181 -0.6279524
000330 1e fa 19 3f 79 49 10 be db b4 93 bf 28 36 29 c0
       0.60147274 -0.14090528 -1.1539568 -2.6439304
000340 fd c7 72 be 0a 5e ad 3e b5 74 d8 3f e5 7f 78 3f
       -0.23709102 0.3386081 1.6910616 0.9707015
000350 c8 7f 18 3f e0 17 b9 bf 02 d6 7a bd ba c0 14 3f
       0.5956998 -1.4460411 -0.06123925 0.5810658
000360 af 39 a9 bf 84 49 0f bf e4 7a 89 be 91 c7 1c bf
       -1.3220729 -0.5597155 -0.2685157 -0.61242014
000370 ff 14 14 be 41 8a 05 3f a8 c7 a7 bf e0 88 de 3e
       -0.14461134 0.52164084 -1.3107805 0.43463802
000380 5a 57 37 3c 8d 86 4a bf f2 65 aa 3f 24 f0 70 3f
       0.01119026 -0.7911156 1.3312361 0.94116426
000390 d3 a7 07 bf d8 a6 50 3e 80 f6 8a 3e 3a 1d b9 be
       -0.52990454 0.20376146 0.2714119 -0.3615511
0003a0 a6 54 c5 bd fb a3 b6 bc aa 3b 3d 3f af 10 25 bf
       -0.09635286 -0.022294989 0.73919165 -0.6447858
0003b0 fd 96 99 3f 43 d2 f7 bf 3a 1e 63 3f 8f 30 b0 be
       1.1999203 -1.9361042 0.88718 -0.34412047
0003c0 59 1a 83 be 0a cc 8d 3e 6e ac 9a be d2 50 2d c0
       -0.2560604 0.27694732 -0.30209678 -2.7080579
0003d0 e6 e1 40 3f 6c 3a 03 3f fc 21 e0 bf fc 16 d5 3e
       0.75344694 0.5126102 -1.7510371 0.41619098
0003e0 1c d4 04 3f f9 30 16 3f ec 30 cb bd f3 a0 43 c0
       0.51886153 0.58668476 -0.099214405 -3.0566986
0003f0 6b e4 45 be 98 a0 02 c0 53 9b f5 bd 6c 20 ee bd
       -0.19325416 -2.0410519 -0.11992516 -0.11627278
