active_slam_rl/training_output_slam/20260126_164625/d3qn_ep280.pth (torch, 901794 bytes, 11 tensors)

feature.0.weight f4 [256, 100]
00000000: 519f 67bd ac18 50bd 0931 043e 35c1 373e
00000010: 9817 a1bc 503f 9b3d fca7 4f3c d38b c33c
00000020: 9541 103e 0e96 413d 7a02 80bb 4c09 0c3e
00000030: 7bc8 2f3d 5269 7cbd 8b1b a0bd 32e5 163e
00000040: 0448 2e3e 29cf 4b3d 8ee0 ba3d f966 253d
00000050: c6c0 c13d 9a90 293e 7ef8 2a3e 50da 093d
00000060: db61 ee3d 2947 8c3d 87be 4fbd 3215 063d
00000070: fc29 a0bd 2929 acbd 0518 a63d 99e7 a3bc
00000080: 1208 52bd 4daf 83bd fdcf 6fbd 0fe1 3fbd
00000090: 3d42 cabb 839d 01be f7cb 5abd ccf5 50bd
000000a0: 7348 87bd 5de1 f6bd b02a cdbd 29e6 24bc
000000b0: e24f f63c 926c b2bc 12e7 953b 328c 90bd
000000c0: db50 acbc fd2f 09bd e044 f7bd 9200 ffbd
000000d0: 0110 3dbd 5e10 1e3d 2bd4 0bbd 7802 95bc
000000e0: ef78 183d d136 4c3d 7893 01bd d83e ad3d
000000f0: 9346 103d 62db 883e 1e02 ad3d f577 ae3b
00000100: c41b 5c3d 9335 803c 134a 1e3e 2273 8a3d
00000110: e8a6 c9ba 240a 243e 1d0d 2fbd 9597 0a3e
00000120: 67be 2a3d 64bc a6bd ada1 f53d 8dea 94bd
00000130: 407c c5bc 4d3b 0f3d 9c80 b23d 85d5 763d
00000140: 04e2 ccbd edb5 dfbc 8e44 d3bc 00bc 033d
00000150: c1b2 0bbd 4924 cdbd 200b e3bd b46c e9bd
00000160: 9c5c 81bd 8ef2 3cbd 9148 16be 6e16 f3bd
00000170: d850 53be 70c8 12be 984c 88bd 8c27 dbbd
00000180: 1fe8 08be 6401 57be d3ec 1cbe 0f99 52be
00000190: a82f 483e 577f 4e3e e999 063e 1ed3 093e
000001a0: 1394 8d3b bb91 073e 5d66 883d 7aef ce3d
000001b0: 5b1e 20bc 5a86 783d b6c4 eabb 1917 b43c
000001c0: 56c9 06be 2fb7 20be 3d68 8fbd 9859 99bd
000001d0: 67a5 f3bd 0589 d0bd b9a7 3d3c c335 fdbb
000001e0: e9e5 47be 9c2e 38bd aad1 36be 8d1d a6bd
000001f0: 8747 dc3c c391 80bc 21bb f3bd 4e93 d7bd
00000200: 1a34 87bd 2a9d d9bd 317e 96bd 720d dbbd
00000210: 35d0 f3bd ec76 a0bd 51da 3abe 7295 46bd
00000220: 9e66 1dbe 0af3 3ebe e7e2 13be f49f 56be
00000230: 238d 0ebe cccb c8bd 2b90 f8bd e6e7 dabc
00000240: 0b19 00bd 23b7 edbd be6d 76bd ab9e cbbb
00000250: e512 a83b 789a d0bd f841 f6bc 58e5 81bd
00000260: 6d36 17be 1283 13be 8059 26be ef73 ccbd
00000270: c7cf 12bd 01b6 60bc 6d3b a6bc 012f 2cbe
00000280: e08b f6bd 5959 c3bc 98df 1cbe d995 d2bc
00000290: 9c56 bdbd 6ee3 03bd 29e4 76bd 9003 a6ba
000002a0: 2b47 21be eac0 0cbe 2bce 9ebd 16f2 24be
000002b0: b32a 9cbd 03b0 dcbd 98b6 95bd 6cac 11be
000002c0: 9662 0c3d a666 f2bd a5ac 42bc 658b e2bc
000002d0: 76d5 093d 0f68 41bd 7896 dc3d 1601 133c
000002e0: e41d 3c3d 8d62 49bd 0755 8f3d b268 1e3b
000002f0: 3f29 7f3b f0c9 21bc e1b0 ee3d ee11 d13d
00000300: c77b 2c3b 779e debc 7cbc 9a3d 3a42 563d
00000310: 5ae7 88bd 2eeb 88bd 7bad 81bd f053 9b3b
00000320: 7bdf 163d 5d09 49bc 4569 8bbd 5d48 723d
00000330: 5a1e 42bd ec81 6dbd c6f1 0b3e 9b38 1c3d
00000340: 9f22 eb3d 1cef 323d 4bbc 043e 6c11 3bbd
00000350: afcc 223e ea9d 34ba f30c bcbd 4836 dfbd
00000360: e654 97bd 8c13 1bbc 010c 753d df0a 0d3e
00000370: 7e03 783d 9d32 8abd 2368 043d 4dff a5bd
00000380: 87d5 fcbd f5b3 3e3d 36b5 a1bd da7c 9dbc
00000390: 2e87 d6bd cc39 173d 7921 ce3b a2af 43bd
000003a0: 8bad 0d3e b1e9 043e a1a7 363c 735c 833d
000003b0: 5d78 973d 85e6 d53d f1e6 3cbc a45f d5bc
000003c0: 1d56 143d acd3 3fbd a192 b3bd d59e 1ebe
000003d0: 41da 94bd 9b36 e2bd 59f6 1bbe 3fd0 04be
000003e0: b09d 62bd ad44 89bd ff7a 14be 1344 15be
000003f0: 543b a1bc ef90 cebd a065 01bd 4e86 00be
-0.05654842 -0.05080478 0.1290933 0.17944796 -0.01966457 0.07580435 0.012674328 0.023870384
0.14087518 0.047262244 -0.003906545 0.13675421 0.042915802 -0.06162388 -0.078177534 0.14735869
0.1701966 0.04975811 0.09124862 0.040381406 0.09460597 0.16559067 0.16696355 0.033655465
0.11639758 0.0684951 -0.05071881 0.032735057 -0.07820508 -0.08406288 0.0811005 -0.020007895
-0.051277228 -0.0642992 -0.058547962 -0.046845492 -0.006172447 -0.12657742 -0.053417172 -0.05101566
-0.066056155 -0.120547034 -0.100179076 -0.01006464 0.030067388 -0.021780286 0.004574665 -0.0705799
-0.021034649 -0.03349303 -0.12073684 -0.12451281 -0.04615784 0.038589828 -0.034137886 -0.018189654
0.037224706 0.049856964 -0.031634778 0.08459252 0.035223555 0.26729876 0.084476694 0.0053243586
0.053737417 0.015650546 0.15457945 0.06760241 -0.0015384825 0.16019493 -0.042737115 0.13534386
0.041685488 -0.081414014 0.11993728 -0.072712995 -0.024107099 0.034968663 0.087159365 0.06026222
-0.100040466 -0.027308429 -0.025789525 0.032161713 -0.03410602 -0.100166865 -0.11086106 -0.113976866
-0.06316492 -0.046129756 -0.1467612 -0.118695125 -0.20636308 -0.14334273 -0.06655234 -0.10700902
-0.13369797 -0.20996624 -0.15324716 -0.205662 0.1954943 0.20165764 0.1314465 0.13459441
0.0043206303 0.13239186 0.06660149 0.1010427 -0.009772862 0.060675003 -0.007164563 0.02198367
-0.13162741 -0.15694879 -0.07002304 -0.07487792 -0.11896782 -0.101823844 0.011575633 -0.007727356
-0.19521298 -0.044966325 -0.17853418 -0.08111105 0.026889576 -0.015694505 -0.119009264 -0.10526143
-0.066017345 -0.1062568 -0.07348288 -0.10695924 -0.11904947 -0.078351825 -0.18247344 -0.048482366
-0.15371177 -0.186474 -0.14442025 -0.20959455 -0.13921027 -0.09804496 -0.12136873 -0.026721906
-0.031273883 -0.11607196 -0.060163252 -0.006213983 0.0051292055 -0.101857126 -0.030060753 -0.06342572
-0.14766856 -0.14405468 -0.16245079 -0.0998305 -0.035842683 -0.013715268 -0.020292008 -0.16814806
-0.12038398 -0.023846315 -0.15319669 -0.025706219 -0.09245035 -0.032199316 -0.060276184 -0.0012665857
-0.15749805 -0.13745466 -0.07754167 -0.16107973 -0.07625332 -0.10775759 -0.073102176 -0.1422593
0.034273706 -0.11835985 -0.011881982 -0.02765436 0.033650838 -0.04721838 0.10770887 0.008972427
0.045926943 -0.04916625 0.069986396 0.002417129 0.0038934497 -0.009874806 0.11654831 0.10208498
0.0026318894 -0.027175171 0.07555482 0.052309252 -0.06684752 -0.06685482 -0.06331917 0.0047402307
0.03683422 -0.012270299 -0.06807188 0.059151042 -0.047392227 -0.05798523 0.13666448 0.03813992
0.11481213 0.043685064 0.12962453 -0.04567091 0.15898393 -0.0006889986 -0.09182157 -0.10899025
-0.0738924 -0.00946511 0.0598259 0.13773678 0.060550205 -0.06747935 0.032325875 -0.081053354
-0.123454146 0.04655834 -0.07895891 -0.019224573 -0.10475002 0.036920354 0.0062906113 -0.04777492
0.13835733 0.12979771 0.011148364 0.06414118 0.07396004 0.10444359 -0.01152967 -0.026046582
0.036214937 -0.046832725 -0.087682016 -0.15490277 -0.07268191 -0.110455714 -0.15230693 -0.12970065
-0.055326164 -0.06702552 -0.14500044 -0.1457675 -0.01968161 -0.10086238 -0.031591058 -0.12551233

feature.0.bias f4 [256]
00000000: 4983 b4be a2b8 a83d a221 823e 6061 39be
00000010: adf8 06bf 251a bbbe d305 893e 0d1e a53e
00000020: f1a3 ba3e c491 a5bd 266f 903e e07a c03d
00000030: 2956 97bd e7e0 82be 20b2 3fbe a4ec 803e
00000040: 1b8f 953e 8786 3b3d 5595 e03d edb0 8a3d
00000050: ed98 50bd 386a ebbd ff62 9ebd 2d20 5a3e
00000060: cd71 a4be 05bc 0a3c 28eb 793e 7694 60be
00000070: 7266 dcbe 072c cc3d 59a8 983e 3fba 653e
00000080: 4b3c 2b3d 853a aabe 6686 babe 73b4 8f3d
00000090: e075 173e 912a 60bd 9f8d a5be 8201 ba3e
000000a0: 7d6b 993e 8308 1f3e 4bae 673e 6e2b dabd
000000b0: 4396 90be e7d5 b13d b05a 26be a8f3 d43e
000000c0: 35bf 273e 3850 7c3e ea51 223e dc4b cebe
000000d0: be3c 23be 38cd 67bc 3956 6ebd 12a2 ccbd
000000e0: 08e1 743e 1ebd b63e 6e61 47be 38fd 25be
000000f0: ad89 cf3b d9cc 473e 1950 27be 5802 223e
00000100: e11d 7fbc 05a1 83be 1eb9 75be 336c 2d3c
00000110: 6b98 3c3e fad7 7c3e aa96 673e d18b 543e
00000120: b5e0 68be e2a4 e9bd 2ba8 893e c74a 743e
00000130: 3810 223c 1085 a83e 561e aa3e e0fc adbe
00000140: d013 e73b c089 9bbe 45c9 0bbe eefc 0c3e
00000150: 7487 ea3d 7e48 6ebe db32 863e 6f25 ef3e
00000160: 0e97 11be c2f4 8fbe 19e7 2d3e f1ad a9be
00000170: 07c7 b1be 2166 63be 8bb0 d73d 5d41 573d
00000180: 08df fd3d b77e 0e3e f95e 363c 6a51 9ebd
00000190: fc55 42ba 0dda 60bd 196c 3d3e 6c7c 853e
000001a0: 409b 7c3d c882 823e 385f 9f3d 0a61 9abe
000001b0: c761 c03e b619 d5bc af80 1fbe 2f9e 043e
000001c0: a6b2 ad3d 7141 9b3e d404 2b3b 0775 b1be
000001d0: f059 923e 86a3 203e 145d cfbe ff2a b23e
000001e0: d040 a83e e694 123e a186 7cbd 9b0d 213e
000001f0: 6d27 cd3d 7394 fbbd 1f25 003d d5fe 143e
00000200: 962a b43e cfc0 8c3a 3bb3 ccbd 394e 46be
00000210: d724 a3be 4128 4abe 35db 2bbd 5f23 f93d
00000220: 847f 103e 4b66 8ebe cd3f 56be 3e55 d53d
00000230: cb33 8c3e 794e 843e 3306 a5be 2432 11ba
00000240: 68a7 723d c304 4bbe 8b8f 913c 4515 bd3e
00000250: 94c5 263e 0fd2 81be 73f2 9e3e 0ad3 883e
00000260: 7461 3ebe 8a6a 89be 788e 28be 53c8 53be
00000270: 14cd 95bd 1eda 60be 9bb0 9a3d 289d 873e
00000280: 17f9 9bbc 3dc2 a53e 62da 94bd 6431 47be
00000290: 19c4 72bd 36ab 35be c739 863e 2bce b2be
000002a0: cb50 17be 2fbe da3c b003 febd 08fc ac3e
000002b0: fc37 11be 28f8 643c 0eac d43d 055d 9e3e
000002c0: d94e 67bd 5efe 213e e32b b53e 009d 6a3e
000002d0: 7b9e 933d ecb2 813e 0463 373d 0d49 d93d
000002e0: d0bb 273e 1e3e 84bd 16af 35bd 5327 b8be
000002f0: 884c d6be 3e02 323e 5795 dcbd ac9c ba3d
00000300: 0425 283d ad0a 53bc 218f 493e d572 0bbe
00000310: c91f 95bc 836f a83e 67aa 65be fcb5 2fbc
00000320: 5229 d33d d072 e63d 35a9 2cbd ed0b 1b3e
00000330: ad01 063e c5d3 663e 5226 c13b 43f1 8e3e
00000340: 9372 7d3e b48f 483e b17c 3fbd 6993 db3e
00000350: 3d28 11be 8939 633e 3ffd 94be beba bb3e
00000360: e957 0d3e 26e6 c13d 8f87 c7bd 6248 883e
00000370: a6c4 72bd 8e7d 923e 409d 8abd 72e9 893e
00000380: 8415 afbe 6516 5e3d 8a08 993e 3861 393d
00000390: f9c1 afbe aabe 47be 59fe 8f3e c56a 0cbe
000003a0: f656 853d 0581 bfbd cb85 02be 7f7a a8be
000003b0: 938f 903d 944b 403e c07d 5dbe b5f3 27bd
000003c0: 2a6b 4dbe 535e 5b3e 4c34 e03c b739 18bd
000003d0: ee7a 08be 47f7 3e3e 1a3c 5a3d 5267 a03e
000003e0: deb3 71be 02e8 893d 881f 9cbe c486 bfbd
000003f0: 2b51 fd3c b529 873e 9228 3cbd fafb f33d
-0.35256413 0.08238341 0.25416285 -0.18103552 -0.527232 -0.36543384 0.26762256 0.3224949
0.36453202 -0.08084443 0.282098 0.093984365 -0.073894806 -0.25562212 -0.18720293 0.25180542
0.29210743 0.045782592 0.10965983 0.06772027 -0.05092709 -0.11494869 -0.07733726 0.21301337
-0.32118073 0.008467679 0.24406111 -0.21931633 -0.4304691 0.09969335 0.2981594 0.22434328
0.041805547 -0.33247772 -0.36430663 0.0701684 0.1479106 -0.054728094 -0.3233461 0.36329275
0.2996482 0.1553059 0.22625081 -0.10652815 -0.2823964 0.08683377 -0.16245532 0.41592145
0.16381533 0.24639976 0.1585156 -0.4029225 -0.1594114 -0.014148049 -0.058187697 -0.0999185
0.23913968 0.3569116 -0.1947076 -0.16209877 0.006333551 0.19511737 -0.16339149 0.15821207
-0.0155710885 -0.25708786 -0.23996398 0.010584879 0.18417518 0.24691764 0.22616068 0.2075646
-0.22741969 -0.11408402 0.26886114 0.2385665 0.009891562 0.3291402 0.3322627 -0.3398199
0.0070519224 -0.30378532 -0.13650997 0.1376836 0.11451617 -0.23269841 0.26210675 0.46708247
-0.14217779 -0.28116423 0.16982688 -0.3314052 -0.34722158 -0.22206928 0.1053172 0.05255257
0.123960555 0.13915525 0.011131042 -0.07730372 -0.00074133254 -0.05489545 0.18498267 0.2607149
0.061671495 0.25490403 0.077818334 -0.3015216 0.37574598 -0.026013236 -0.15576433 0.12950967
0.0848134 0.30323365 0.0026095407 -0.34659597 0.28584242 0.15687379 -0.405007 0.34798428
0.32861948 0.14314613 -0.06165183 0.15727846 0.100172855 -0.12284174 0.0312854 0.14550336
0.3518874 0.0010738614 -0.09995123 -0.19365777 -0.31864044 -0.19741918 -0.0419571 0.121649496
0.14111143 -0.27812418 -0.20922776 0.10416649 0.27383265 0.2584112 -0.32231292 -0.00055387826
0.059241682 -0.19826035 0.017768642 0.3693029 0.16286308 -0.25355574 0.3104435 0.2672351
-0.18591863 -0.26839095 -0.16460598 -0.20681886 -0.07314506 -0.21958205 0.07553216 0.26487088
-0.019039674 0.32374755 -0.07268216 -0.19452435 -0.059269045 -0.17741093 0.26215956 -0.3492292
-0.14776914 0.026702015 -0.12403047 0.33786035 -0.14181513 0.013975181 0.10384379 0.30930343
-0.05647168 0.1581969 0.35385045 0.22911453 0.07207962 0.2533182 0.044772163 0.106096365
0.16380239 -0.064571604 -0.044356428 -0.35967502 -0.41855264 0.17383668 -0.10770672 0.09111914
0.041050926 -0.012880963 0.19683506 -0.13618024 -0.018203633 0.32897577 -0.22428285 -0.010724541
0.103106156 0.112523675 -0.042153556 0.15141268 0.13086577 0.22541721 0.0058944607 0.27918443
0.24750738 0.19586068 -0.046749774 0.42885903 -0.14175506 0.22189917 -0.2909946 0.3666591
0.13803066 0.094677255 -0.097426526 0.26617724 -0.05926957 0.28611416 -0.06768274 0.26935917
-0.34196103 0.054220576 0.29889327 0.04525873 -0.34327677 -0.19506326 0.2812374 -0.13712604
0.06510727 -0.093507804 -0.1274635 -0.32905957 0.070586346 0.18778831 -0.21630001 -0.0410039
-0.20060411 0.214227 0.027368687 -0.037164416 -0.13328144 0.18649016 0.053279974 0.31328827
-0.2360377 0.06733705 -0.30492806 -0.093518764 0.030922493 0.26399007 -0.04593713 0.11913295

feature.2.weight f4 [256, 256]
00000000: e282 36be 4808 f7bc 706c b6bd e47a 0fbe
00000010: 65ae a1be 4470 0fbe 15e9 c13d 90b2 4e3e
00000020: 3c9a 6f3e 987f 1f3e 61b9 e5bc 7b8a aebc
00000030: 681a 83bc b26f 82bd bd4a 69be 3074 fa3d
00000040: 8b7e 24be 9e28 253e be95 8d3c ba92 593d
00000050: 1b92 233d 3d6e 2ebd f1c4 06be 4e57 42bd
00000060: 006b 833c 3aeb fb3d 9893 e73d 247f 953b
00000070: b361 b5be 9869 2b3d 8504 ea3b c4dc 083f
00000080: 72dd 7ebc 05da 26bd 9f68 23bd a5df 1e3d
00000090: d658 9fbd 9e5d 833e b7d0 a43b 1617 a83d
000000a0: cfd5 223e e6f5 09be 7149 993d 747f 303d
000000b0: f4a4 263b 62cc 5b3e 8c80 07bd 9e90 9ebd
000000c0: 575d 7b3d c520 f23e cd04 9c3d a25e 763d
000000d0: 0e8b dfbd f131 a03d 8d12 debc 1eb3 07be
000000e0: 8c53 0fbd 9af0 ca3d 1a7b 673c caba 6abe
000000f0: bdb9 ac3a 82f0 013b 4fbe 60bd 5fa1 fc3d
00000100: ab60 91bd cfc1 66be e7e4 23be 30e7 a53d
00000110: cf16 1a3f c65d 503e 64a0 eb3c 523b a13e
00000120: 9b54 4fbe 2675 783c 5d79 833d db93 a93e
00000130: 3da5 ca3d d7a0 64bd d49d 0fbc 8a0e 74be
00000140: 33ba 90bd 05f9 9db9 4671 6bbc a698 1a3e
00000150: 1928 253e 1954 bdbd 2ced 8cbd 0608 a93c
00000160: b9b9 24be 4366 6abe b564 563d 1d53 cebe
00000170: ebaa e8be 1875 81bd 4abf 203e 2737 4c3e
00000180: 38cd b43d b305 fa3c 0dd5 153c 3547 f0bd
00000190: a2b6 073e 7244 1fbe f31d cb3e 87d1 9fbc
000001a0: c5b4 2a3d 0266 283e 3ebb 383d e26f c73d
000001b0: 2082 803d ccfe e0bd 7c6c 433c 9e6a debd
000001c0: 34e5 0b3e 8b90 a73d 3344 c03d a7fc eebe
000001d0: af89 273d 4f1b ba3d 02ff 22bf 09c6 423c
000001e0: 8044 f03e d26b 9dbc 3553 03be 8967 9e3d
000001f0: aedd 203d b25b 913a 5fd5 d6bd b7ca bbbd
00000200: 80c8 123e 7045 613c e42e 963d 20c5 86bd
00000210: c483 aebe a562 afbd b47b 19bd 269b 75be
00000220: 94ac d33e d8c4 02bd 5606 30bd 94b5 c23d
00000230: 4077 143e 41f4 50bd 2556 9fbd 3883 89bc
00000240: e97d 6fbd d8d6 34be 3ee7 95be 8984 efbb
00000250: 83af 4fbd 2f0c 3bbb 33b0 1d3d 7415 763e
00000260: 34fe 67bd e21e b8bd aaec c7bd 98a5 e5bc
00000270: 3711 e13c ba6f d83d 4e4e 18be 0bf4 2d3c
00000280: 73ee 563c 7def 74bc 07d7 93bd c468 8bbd
00000290: 82d7 a23d 0561 f23c 8ba2 943e 70c0 133d
000002a0: 8f81 9cbd f057 923d a522 103e e11b 4a3b
000002b0: ae71 87bd f631 22bd b061 7e3d b9e4 893c
000002c0: 2412 a1bc a288 d83d 226b 27bc 15f4 b83d
000002d0: 6a3a d63c 9764 d53d 2d9e 4b3e 1e7d 6f3e
000002e0: 4aa6 a33e 1737 cebd 9bce c2bd 1061 0ebe
000002f0: b0ab 4fbe c9e5 643d e00e 41bd 4a80 d9bd
00000300: 9f6b 6bbe 514f 0abe 4e7b b03e df05 2fbc
00000310: 7c26 1e3e f5e4 e3ba 05a4 f3bd bd57 ff3c
00000320: 1328 fa3d 69dc 9d3c 0883 7b3c 7dd4 d03d
00000330: e05a 09be 836c 283e 0c71 d33e 282a 933d
00000340: ac05 01bd 5083 8c3d 1558 0ebe a283 f4bd
00000350: abe2 83be 328f 3c3d 96ec 3dbd ad86 2e3e
00000360: 0af4 9f3d 351a 2dbe 617f cf3d 3a0b 833d
00000370: e4a5 8e3d 60c9 373d 2957 5c3d a747 2f3e
00000380: 5d84 3bbe e1cf a93d 8ae9 b13e f476 32be
00000390: ad57 27be 04fc 373d 5084 20bd 7743 a63d
000003a0: 105b afbd d103 90bd 33bd bbbd 8cd5 27be
000003b0: abc7 2bbd 84d5 653e 412d e23c e495 53be
000003c0: 25d6 ef3c e757 633d 2eb2 c4bc 11cf 1cbd
000003d0: 69c6 6cbd dfa4 083e 1b0a 71bd 62f5 973e
000003e0: 56c6 3fbe 2486 66be bbbe 1abe 432a 03be
000003f0: ae26 d3bd 26f9 c13d 1ac6 1ebd 62d2 c0bc
-0.17823365 -0.030155316 -0.089074016 -0.14011723 -0.31578365 -0.1400767 0.09468285 0.20185304
0.2339868 0.15576017 -0.028042497 -0.021306267 -0.016003802 -0.063689604 -0.22782417 0.12229192
-0.16063897 0.16128775 0.017283317 0.053118445 0.03993426 -0.0425856 -0.13161065 -0.04744654
0.016042233 0.12300725 0.11307448 0.0045622755 -0.354261 0.04184875 0.007141652 0.5346186
-0.015555726 -0.040735263 -0.039894696 0.038787503 -0.07780616 0.25657362 0.0050297636 0.08207528
0.15901874 -0.13472709 0.07484711 0.0430903 0.002542791 0.21464685 -0.033081576 -0.07742427
0.061368313 0.47290626 0.07618103 0.060148843 -0.109151945 0.078220256 -0.027108455 -0.13251922
-0.034991786 0.09909172 0.014128471 -0.22922817 0.0013177913 0.0019827192 -0.054868992 0.123354666
-0.07098516 -0.2253487 -0.16005288 0.08100736 0.60191053 0.20348272 0.028763004 0.3149057
-0.20247118 0.015164649 0.064196326 0.33120617 0.09894798 -0.05581745 -0.0087656565 -0.23833671
-0.07066765 -0.00030130908 -0.014370268 0.15097293 0.16128577 -0.09244556 -0.068811744 0.020633709
-0.16086473 -0.22890572 0.052342135 -0.40297785 -0.454429 -0.06321162 0.15697971 0.19942914
0.08828205 0.030520296 0.009145034 -0.11732332 0.13253263 -0.15553454 0.39671287 -0.01950909
0.0416763 0.16445163 0.045100443 0.09738137 0.062748194 -0.10986099 0.01192772 -0.10860179
0.13661653 0.08181866 0.09388008 -0.46677133 0.04090279 0.0908724 -0.6367036 0.011888036
0.4692726 -0.019216452 -0.1282471 0.077345915 0.03927391 0.0011089949 -0.10489916 -0.09169524
0.14334297 0.013749465 0.073331624 -0.06580567 -0.34084904 -0.08563737 -0.037471488 -0.23984966
0.41342604 -0.031926006 -0.042974792 0.095072895 0.14498615 -0.05101419 -0.07780103 -0.016786203
-0.058469687 -0.17660081 -0.29277986 -0.0073095006 -0.05070449 -0.0028541198 0.038498115 0.24031621
-0.05663891 -0.089902654 -0.09761937 -0.028033063 0.027474029 0.10568185 -0.14873621 0.010617266
0.013118374 -0.014949677 -0.072187476 -0.06807092 0.07951261 0.029587278 0.2903026 0.036072195
-0.07641899 0.07145679 0.14075716 0.003083937 -0.066134796 -0.039598428 0.06210488 0.016832696
-0.01966197 0.10572936 -0.010218414 0.0903093 0.0261509 0.104195766 0.19884558 0.23387572
0.31962806 -0.10069101 -0.09512063 -0.13904214 -0.20280337 0.055883203 -0.047133327 -0.10620172
-0.22990273 -0.1350682 0.34469074 -0.010682552 0.15444368 -0.001738696 -0.118965186 0.031169767
0.12214675 0.019270139 0.0153510645 0.10196779 -0.13413572 0.16447644 0.41297185 0.07185775
-0.03149955 0.06860983 -0.13900788 -0.119391695 -0.2575887 0.046035 -0.046368204 0.17043562
0.07810219 -0.16904528 0.101317175 0.06398626 0.06965235 0.04486978 0.05379406 0.17117177
-0.18312211 0.08291603 0.3474849 -0.1742819 -0.1634204 0.044918075 -0.039188683 0.08118337
-0.08562291 -0.07031978 -0.09166946 -0.16390055 -0.041938465 0.22444731 0.02760947 -0.20662647
0.029276917 0.055503752 -0.024010744 -0.03828341 -0.057806406 0.13344143 -0.058847528 0.296794
-0.18728003 -0.22512108 -0.1511182 -0.1280909 -0.10310112 0.094713494 -0.038763143 -0.023537818

feature.2.bias f4 [256]
00000000: e452 303e 7b74 8b3c a7bd 383d 5875 cf3d
00000010: 7090 26be 0cc0 2f3d c11b f13d abfa 193d
00000020: b166 293e eebc 00be be96 c03d a39e 183e
00000030: 1e64 0e3e 00e5 8a3e 1011 933e 64f0 5ebd
00000040: 66e2 2bbe 7a4e bfbd ec88 16be 2c24 403e
00000050: 501c be3d ab28 993c 0f1a 9abe d97f 403e
00000060: d049 0fbe 9e60 bf3d d3af 3fbd cb81 75bd
00000070: b690 c13d 033d 0dbe 8cc8 e13e 8964 8a3d
00000080: 948d 073e 76b4 013d e99f 3f3e 6a55 083e
00000090: a894 983e 32e7 aa3d 85ab 2ebe 926b 17be
000000a0: 4eec 5a3e 399c 52be 9497 873c 546d 373d
000000b0: 3fc5 3cbd 06fa ea3d 5503 833d 8980 ba3d
000000c0: 9d01 3bbd 16c4 b9bd 9725 7a3e d8c0 513e
000000d0: 14bc d6bc d9da f33d bf31 eb3d 215e 093e
000000e0: 112d 6c3e 28ca 84be 555a aa3d b830 c83d
000000f0: c456 ae3d 0f98 64bd 86fe 22be 1630 d9bd
00000100: 8a9c 33be 2161 513e 9d33 803d a069 b83e
00000110: 1284 433e 8856 f9bd 6077 48be ab63 283d
00000120: 5ba8 0e3e 8971 2fbe 67a1 d63c 4975 1b3e
00000130: bc2e cbbd c494 f6bd 6439 203e c550 1a3e
00000140: be9b 993e cf40 4fbd e7e5 543e 37ea 8fbe
00000150: 3d32 183e be63 b3bc 2a2c 0abe 5676 4f3e
00000160: d236 9d3e 1ec5 7d3e d6bb 4ebe 9f5c bd3d
00000170: 3618 b23c 8191 90bd f821 5bbe 63ad 5d3e
00000180: 073f 7c3e f0f2 f5bd 8691 603e e872 2b3e
00000190: 2742 bc3d 67c6 65bc e98e acbd db02 78bd
000001a0: 01aa 34be fba7 35be c97f 603e e0ba 4e3e
000001b0: 4056 7abe 1515 5a3e 27cc c23d c86a fb3d
000001c0: e361 06be 3a79 08be 4b6a 32be a5a6 183e
000001d0: 674a 773e 12fb 94be 5765 533e 26da 0bbe
000001e0: fcba 543d 533f b9bc dd91 873e f8c5 6abe
000001f0: 7b21 a23d d573 8c3d c33c 63be a768 92bb
00000200: 56da 9f3c 1d18 323e fc72 553d 1d4d 5b3d
00000210: 39ed 1d3e 8a7b 153e d806 2d3e 3c8d 243e
00000220: 7983 4c3e 8421 a33e 542e 0f3e 5e33 0abe
00000230: 3fa4 c13e ce09 e83d 558f a8bd 67ad 79be
00000240: ad30 1e3e 769b 623d 6e2c 2f3e 68bd 22be
00000250: c370 ecbd 2875 483e dd3e f43d cf87 9f3c
00000260: 5c00 483c cc3e ea3d be2f 073e a8c0 dc3d
00000270: 8f49 8a3e 1a7a a33e 18a8 033e 280b 4fbe
00000280: 5c67 fc3d 5a4b 433e 2756 04be 07ae 0bbe
00000290: 87ac 453d 2298 27be e1dd 323e 86b2 5fbe
000002a0: 6cc5 5c3e aac4 b13d a5ad 7f3d 3847 513e
000002b0: b706 a53e c531 20bd dd93 053e 46ea 043e
000002c0: dd52 553e 575e 233e 4237 173e c2d0 6d3e
000002d0: 7c93 0f3e 11b7 8ebc e941 65be 57fc 1b3e
000002e0: 59ae 24be c25c 693e df7b f03d 9fe2 78be
000002f0: 06d9 003e 7137 2d3e 652c e43c 4901 903d
00000300: 14c5 903e a587 24be 53ac 95be 4953 9d3d
00000310: 07d3 c8bc 44da a0be 38f0 bc3e 2b17 45be
00000320: ec37 2a3e b6ab cfbc 77f5 093d 3eb9 a83e
00000330: 5940 f9bd a16f ea3d 3d0d 1bbe 0da7 bd3e
00000340: cb88 123d fb93 89be dc75 823e 26d0 193e
00000350: a3a1 863e 739d f83d 5b57 103d 56d8 953d
00000360: 1975 c1bd 57bc 383e d797 ad3c d135 4c3d
00000370: cc1a 393e 199c f03d 96e1 343e 4370 6ebe
00000380: 213c c83e 6dbd 963d 22a0 11be 085f 3d3d
00000390: 718b 6c3e 726e 723e 30e0 703d e769 6abe
000003a0: eed2 a53d 281c 9e3d 6c18 423e 0439 993e
000003b0: 2be1 9a3d a9bc 813e 2332 23bd 84c4 3e3e
000003c0: ed8d 303e 6288 093e 22dd d1bd 4ed8 a43e
000003d0: 6d96 2cbd 1088 64be 1b3d 273e d895 6a3d
000003e0: ceb9 4e3e 5e3b 37be 9ef1 213d a368 41bb
000003f0: 3d5c e93d c8ba 013e 2e00 44bd 7bb7 0a3e
0.1721912 0.017023316 0.04510274 0.101298034 -0.16266036 0.04290776 0.11772872 0.03759257
0.1654308 -0.12572071 0.09403752 0.14904265 0.13905379 0.27127838 0.28723955 -0.054428473
-0.16785583 -0.0934114 -0.14700669 0.18763798 0.09282744 0.01869615 -0.30098006 0.1879877
-0.13993001 0.093446 -0.04679854 -0.059938233 0.094514295 -0.13792805 0.44098318 0.06757457
0.13237602 0.03166624 0.18713345 0.13313833 0.29800916 0.08344878 -0.17057617 -0.14787129
0.21379206 -0.20567407 0.01655177 0.044781998 -0.046086546 0.114734694 0.0639712 0.091065474
-0.045655835 -0.090706035 0.24428402 0.2048372 -0.02621273 0.11906976 0.11484098 0.13414814
0.23064066 -0.25935483 0.08318011 0.09774917 0.08512643 -0.055809077 -0.15917405 -0.10604875
-0.17540184 0.20447208 0.062598445 0.36018085 0.1909335 -0.12174708 -0.19576788 0.041110676
0.1393141 -0.17133154 0.02620001 0.1518146 -0.09921023 -0.120400935 0.15646893 0.15069874
0.30001634 -0.050598916 0.20790826 -0.2810838 0.14862914 -0.021898147 -0.1349341 0.20259985
0.30705887 0.24782225 -0.20188841 0.09246182 0.02174006 -0.07059003 -0.21399677 0.21648173
0.24633418 -0.12009227 0.21930513 0.16743052 0.09192305 -0.014024354 -0.084256954 -0.0605496
-0.17642976 -0.1773986 0.21923746 0.20188475 -0.24446964 0.21297105 0.09511595 0.12276226
-0.13123278 -0.13327494 -0.1742336 0.1490732 0.24149476 -0.290978 0.20644127 -0.13657436
0.051936135 -0.022613203 0.26478472 -0.22927082 0.07916542 0.06858031 -0.22191148 -0.004468042
0.01951329 0.17392011 0.05211161 0.053540338 0.15422525 0.14597908 0.16897142 0.16069502
0.19972028 0.31861508 0.13982517 -0.13496158 0.37820622 0.11329995 -0.082304634 -0.24382554
0.15448256 0.05532404 0.17106792 -0.15892565 -0.11544945 0.19575942 0.11926053 0.019473938
0.012207117 0.11437759 0.13201806 0.10778934 0.27009246 0.31929094 0.12857091 -0.202191
0.12324402 0.19071713 -0.1292349 -0.13640605 0.048260238 -0.16366628 0.17467453 -0.21845445
0.21559685 0.08680089 0.06242146 0.20437324 0.32231686 -0.039109964 0.13044687 0.12979993
0.20832391 0.15953957 0.14767173 0.23224166 0.14021105 -0.017421277 -0.22388424 0.15232979
-0.16082133 0.2278929 0.117423765 -0.24305199 0.12582788 0.1691568 0.0278532 0.07031495
0.2827536 -0.1606737 -0.29233035 0.07681901 -0.024514688 -0.31416523 0.36902022 -0.19247119
0.16622895 -0.025350433 0.03368136 0.3295383 -0.121704765 0.11447073 -0.15141769 0.37041512
0.035774987 -0.26870713 0.25480545 0.15020809 0.26295194 0.12139406 0.03523956 0.073166534
-0.09446163 0.18040596 0.021190567 0.04985601 0.18076628 0.11748523 0.17664179 -0.23285012
0.39108375 0.07360349 -0.14221242 0.046233207 0.23100068 0.23674944 0.05880755 -0.22891961
0.08096872 0.07720214 0.18954629 0.29926312 0.07562479 0.2533925 -0.039842736 0.18629652
0.1724164 0.13430932 -0.10247256 0.32196277 -0.042135645 -0.22317529 0.16331904 0.05727181
0.20188066 -0.1789374 0.039537065 -0.0029511831 0.11394546 0.12668908 -0.047851734 0.13546555

value_stream.0.weight f4 [256, 256]
00000000: 9869 06bf 829a 0ebc 8b3c 9ebe 7ae7 fdbe
00000010: 1031 a2bd 7991 4f3c 49fa a9be 5b03 d3bc
00000020: fd8d 92be 42bc 16be 392b a33d 7752 4a3d
00000030: 2830 81be 473c 053f 03c0 9a3e 731a 8bbc
00000040: f4e5 9d3d f0e3 72be ed16 aebb ad5e 36be
00000050: a57b e4be a5b6 1bbe 1c4b e23c c323 8ebe
00000060: d49d babb 3ed8 b63c a68e 4039 b73f c5bd
00000070: c483 0abe 12ce c5bc beff 723e 2958 403e
00000080: 3726 44bd 524f 133d c420 a9be 71b4 5abe
00000090: 99ab cf3d bae2 62be 9cce 82bd 7885 c1be
000000a0: edee 89be d1ec 95bc 63e8 69be 6454 a0be
000000b0: e757 b0be c2b4 d9bd 7405 6b3c 5801 3ebe
000000c0: ad07 93bd e950 873b 7eca 7abe d08a afbe
000000d0: 17d1 6dbe 2611 6ebd 2c77 20be b102 903d
000000e0: a7f9 b0be fcc2 afbc e428 29be a6e7 03be
000000f0: 368f d1be 638f bcbc 27f8 90bd 9a58 e93c
00000100: a3b8 013b 0478 a9be 8513 82be e100 423e
00000110: 6c00 0a3e 39fa 4ebe b569 b1be d257 82be
00000120: 48b3 cabe 6115 83bd 3e9b d63d ce25 01be
00000130: 665d 2dbe dea7 2dbd 5b64 c1be a468 60be
00000140: ea9f 123e 19fa 82bd 9b1b 62be 0531 5a3d
00000150: 37e0 9fbe ee07 453c c88b 9f3c 28ab 7bbe
00000160: c6bf 0c3e 322c b8bd be31 433d 1654 99be
00000170: d890 56be 530b 0bbd d5f3 9eba fb94 fb3d
00000180: a136 8f3d a888 9b3d 0ebc c33d fa71 c0bd
00000190: 26b3 4fbe 024c 983d f1ed 8abc 02fd 71be
000001a0: f683 58be 7af0 293d f07d c1be 03bc ccbe
000001b0: dd2d adbd a8ee e73d fade 25be b5d9 b7bd
000001c0: ae2f 62be c3f9 1cbd 63db 56bd aa2c 81be
000001d0: e939 a5be 630f bcbd 228c 153d 123e c8bb
000001e0: b589 39be 31e3 5dbd a129 383e f799 95be
000001f0: 61c3 3ebe ff6d 81be 376b 87be 8f93 f4be
00000200: 9760 8abe a9eb 30be 8950 7ebd 294d bcbe
00000210: d7d9 16be 988d 10be e534 78be 70a6 e5be
00000220: 9e70 a2bc c84b 163e 210c c63d 35a9 9c3d
00000230: 7152 d53d 9b64 5bbe 887f 25be b22a 73bd
00000240: e510 f5bc 20a3 e8bc 52ac 86be 1a06 653c
00000250: f7f9 f2bd 6490 01bf eef2 0ebe d1df c9bd
00000260: 5bfc 5cbd 28e7 403d e03c 823d 09c8 67be
00000270: 0040 5fbe e2d9 d73d d4ed 32be 32e2 80bd
00000280: 144d 94be e3e0 9dbe 3ce4 00be 704f 3a3d
00000290: 494a 0ebd f7cb 923c 1a4f c1bd 93ef 63bc
000002a0: d4bd 873c ad25 4dbd f6e1 23be 7bd7 0b3c
000002b0: ee93 833e cf6d 94be 298a 86be 3a6b 9abd
000002c0: 9866 21be 04fa 733d 20ee 94be f1cb 73be
000002d0: 6816 6f3c acd7 c7bc 09d7 bfbc cece e6bd
000002e0: 5cdb 6bbe c1ab c33c ef0d 26be 745d c4bc
000002f0: e88e 13be 4d89 17be 461c bf3d 3268 afbd
00000300: 4b99 843d 70d7 07be 4d94 d3bd 83f7 fa3c
00000310: 8d4b 89be ff15 b2be 08d9 043e b746 cc3b
00000320: 58dc 99be f263 523a 52fc 82be 1f03 a93c
00000330: 0d73 1dbe 039c afbe 5090 1d3d 621f 153e
00000340: 19e2 a53d 615e ffbd b414 723e fbc4 50be
00000350: 9487 abbe 15ed ee3c ae3b 183d cc68 41be
00000360: af84 f73d 8ca1 a7be abf7 4dbe d390 e4bd
00000370: 5a9f 1ebe ed6b 1dbe 32d0 0cbe efd0 913d
00000380: 6709 1a3e bd4d a7bd caac 83bb 3cf1 86be
00000390: 0e1c 503d ead6 fcbe f0b5 773d ae2b 06bf
000003a0: 595c 463d 3bef b4be 4ef4 94be cb5f 8e3d
000003b0: a0bd 73be b93a b23d 7636 78bd c675 8fbe
000003c0: a6bc 6cbe a098 47be 0e20 f0bb f094 f83e
000003d0: bbfd dfbd bcf8 04bf 622e e3bd b4c1 0dbe
000003e0: d40c 8fbe 8ed8 a9bd 87ad 74bd 3350 4e3d
000003f0: 9aac b9bd 4c03 aebe 3897 01bf bec9 fdbe
-0.52504873 -0.00870383 -0.30905566 -0.49590665 -0.07919514 0.012668961 -0.33198765 -0.025758436
-0.28623953 -0.14720252 0.079672284 0.04939505 -0.25232053 0.520451 0.30224618 -0.016980385
0.07709876 -0.23719764 -0.0053127916 -0.17809553 -0.44625583 -0.15206392 0.027623706 -0.2776166
-0.005695084 0.02231991 0.00018363688 -0.09631293 -0.13526827 -0.024146114 0.2373037 0.1878363
-0.047888007 0.035964318 -0.3303281 -0.21357895 0.101401515 -0.22156802 -0.06387064 -0.3779714
-0.26940098 -0.0183014 -0.22842555 -0.31314385 -0.34442064 -0.1063018 0.014344562 -0.185552
-0.071791984 0.0041295183 -0.24491307 -0.34285593 -0.23224293 -0.058121823 -0.1567046 0.07031763
-0.3456547 -0.02145528 -0.16519505 -0.12881336 -0.40929574 -0.02301759 -0.07078581 0.028484631
0.001979389 -0.33099377 -0.25405517 0.18945648 0.13476723 -0.2021264 -0.3465096 -0.25457627
-0.39589906 -0.06400562 0.10478829 -0.12612078 -0.1693016 -0.04239642 -0.37771878 -0.21914917
0.14318815 -0.063953586 -0.22080843 0.053269405 -0.3122575 0.012025816 0.019475833 -0.2457701
0.13745031 -0.089928046 0.04765486 -0.29946965 -0.20953691 -0.033946346 -0.0012127111 0.12284275
0.069928415 0.075944245 0.09557353 -0.09396739 -0.20283183 0.07436372 -0.016959162 -0.23631671
-0.21144089 0.041489102 -0.37791395 -0.39987192 -0.08456013 0.11324817 -0.1619834 -0.08977071
-0.22088501 -0.03832413 -0.052455317 -0.25229388 -0.32270744 -0.09182622 0.036510594 -0.006110915
-0.18118937 -0.054171745 0.1798463 -0.29219028 -0.18629219 -0.25279233 -0.26448986 -0.47768828
-0.27026817 -0.17277397 -0.062088523 -0.3677762 -0.14731537 -0.14116514 -0.24238928 -0.44853544
-0.01982909 0.14677346 0.09670282 0.07649461 0.10416115 -0.21425097 -0.1616193 -0.05936689
-0.029915283 -0.028398097 -0.26303345 0.0139785055 -0.11864083 -0.5061095 -0.13959858 -0.09857143
-0.053951602 0.047095448 0.06359267 -0.22634901 -0.21801758 0.10539605 -0.17473537 -0.06293143
-0.28965056 -0.30835637 -0.12587065 0.045485914 -0.034738813 0.017919524 -0.094389156 -0.013912099
0.01657001 -0.05008476 -0.16004166 0.008535261 0.256988 -0.28990027 -0.26277283 -0.07539983
-0.15761793 0.059564605 -0.29087925 -0.23808266 0.014592744 -0.024394833 -0.023417966 -0.112699136
-0.23032898 0.02388561 -0.16216253 -0.023970343 -0.14409983 -0.1479847 0.093315646 -0.085647956
0.06474551 -0.13265777 -0.103310205 0.0306356 -0.26815453 -0.34782407 0.12973416 0.006234016
-0.3005092 0.0008025757 -0.2558313 0.020631371 -0.1537592 -0.34298715 0.038467705 0.14562753
0.08099765 -0.12469173 0.2364071 -0.20387642 -0.33501875 0.029165784 0.03716629 -0.18887633
0.12085854 -0.32740438 -0.20114009 -0.111604355 -0.15490475 -0.15373202 -0.13751295 0.07119929
0.15042649 -0.08169124 -0.004018401 -0.26355922 0.050808005 -0.49382716 0.060476243 -0.524104
0.048427913 -0.35338768 -0.2909264 0.06951865 -0.23802805 0.08702607 -0.060598813 -0.28019542
-0.23118839 -0.19491816 -0.00732804 0.4855113 -0.10937067 -0.5194204 -0.11092831 -0.13843423
-0.27939475 -0.08293258 -0.0597358 0.050369453 -0.09066124 -0.3398689 -0.50621367 -0.4956798

value_stream.0.bias f4 [256]
00000000: f9a6 5e3e b426 1e3e 08d5 2bbd b048 433e
00000010: 9dec 063d e483 843e f379 0f3e f73a 543d
00000020: 26a9 833e 84be adbd 919f 39be a42a 333e
00000030: 8b5f b13b f164 2e3e 1bd3 fe3d 8e5b b53b
00000040: 601b 003e ebde 903e 537a 4fbe 14f0 5fbd
00000050: ddef 5bbe a44f 1cbe 80fe fcbd c68f 5bbd
00000060: 872e 23be 2663 ae3c 0ab6 8abd f307 393e
00000070: 2379 23be 7926 583e 4436 233d 0413 603e
00000080: 43e3 a23c 1a77 86bc 8492 13be 9a82 4bbe
00000090: 2b41 4abd db88 8bbd a222 de3d 079c 743e
000000a0: adc0 d03d 8bf6 8bbd b1cf 103e 0945 46be
000000b0: e683 88bd 85f6 283e 7f5f 393d c059 173c
000000c0: 51c1 ca3d bd05 f6bc 09c1 793e 8aa8 303c
000000d0: 70d1 08be f0e1 9e3d 2af6 35be b36a bbbd
000000e0: 1dd3 09be 7157 873e a42d 5fbc 3d61 71bc
000000f0: a858 a93d 7d40 973e bc17 04bd 2bf4 3c3e
00000100: 48d2 06be 3cea 00bd f670 113e 64b9 093e
00000110: e222 34be 738f e43d 970c 073d 2200 ba3d
00000120: e069 20bd 7457 50be 3582 a13d 3fb7 153e
00000130: 15f9 833e 72ce 1d3e 82c4 f8bd 2c9f be3e
00000140: 70b9 143e 358d 983e dbb6 09be 3bc5 7ebc
00000150: 4cd0 003e 0682 6d3d 843c 32be 2b5b 953e
00000160: 66e9 4e3d 5d1a 47be e3e8 e23c ff13 813d
00000170: 264f 29bd d038 59bd dd55 81bd e03b c1bd
00000180: 8714 583d cd37 1fbe a5a7 273e cf91 b83e
00000190: 2185 9e3c 1264 93bd 4842 e73d 55d6 1d3e
000001a0: fa3b 9abc 5fb4 933e f106 f73d 1b14 373e
000001b0: 6c61 5f3d 5da3 11be 5c03 d53e cf7e 393d
000001c0: 1977 ed3d 7813 fa3d d539 db3d 6323 4dbe
000001d0: 3f70 8d3c 35ec 093e 564b 0ebd 0c7d 223e
000001e0: d1fd 8d3e 9264 123e c0d9 67be e9f7 2d3d
000001f0: d8ee 323e 85f5 273e cdad 0ebe df6a 2ebe
00000200: ce3d d2bc 75c4 f4bd d455 813d 6f0b c63d
00000210: 4193 c53c 29fe 4b3e 0380 1f3e 65e0 863d
00000220: a212 96bd 3fa0 c43d 484d fb3d 34d7 133e
00000230: 4202 dc3c 0edd be3d a16f 36be 2718 73be
00000240: df6e 6cbd a466 c93e 8c6f 28be 88d1 493e
00000250: 445f 69be c510 143e ffb5 793e d7ac 103e
00000260: d891 403e a987 a53d f445 703d 9ecd c43d
00000270: 56ca 2abb cc08 1abd 9931 e23d 8448 babd
00000280: 32c0 57be 8d91 213e 4206 73bb 636d df3d
00000290: 5f87 4c3e b5b2 033e 235d 893e 9e40 933e
000002a0: 5d10 763e 04bd b63e e871 423e da49 f53d
000002b0: 1f59 0e3e bf13 313e 3150 ba3d d2a1 753c
000002c0: 9a2e ca3d d0dd 6f3e 5b3b 02be d2ad 133e
000002d0: 32d3 c4bd bc2a 6e3e e533 4cbe efa2 37be
000002e0: fd90 4d3e 349e 3a3e 4039 523d 8616 e43d
000002f0: b6ea 87b8 00d7 3f3e 83e2 fcbd 68a4 8e3e
00000300: f639 91bd 4d0b 443e 2d5a 223d e340 d83b
00000310: b166 1bbd c711 5dbe 18f4 3d3e e55a a53d
00000320: fb3e 653e e862 acbc eba5 afbd 9afe 18bd
00000330: 2114 4e3d b4ce 643e d035 923d 2147 103d
00000340: 9726 bb3d 2b89 39be cfbd ca3d d196 14bd
00000350: abf3 173e 4d06 1dbe ec3d 773d 5e6c 283d
00000360: f75b 02be 7101 493e af5d 0e3e c53d 093e
00000370: 8e16 0b3e 4418 883e 9e72 593e cd88 ffbd
00000380: 2958 6f3d 767d 453d 0831 183d 2f90 fbbd
00000390: 3431 ad3e 3931 283d 83fb 043e 1633 1bbe
000003a0: b9e4 ea3d f310 bf3d 41c5 4ebe fe34 7e3e
000003b0: 7cfa 2e3e 2d42 1b3e 666c d63c 39d0 c93e
000003c0: cde7 35be fd8f 503d 5d78 8bbd bd25 5f3e
000003d0: a6b2 2e3e f5e0 32be 7afc 06bd ff10 353e
000003e0: 3c7c 553e 80ad b73d ce20 623e a93a 993b
000003f0: 0b99 043d 508b 0f3e 44bb ba3c ab06 773e
0.21743383 0.15444452 -0.04195121 0.19070697 0.032940496 0.25881875 0.14011364 0.051814046
0.25714988 -0.084836036 -0.18127276 0.17496735 0.005413001 0.17030694 0.12442609 0.005534596
0.12510443 0.28295073 -0.20261507 -0.054672316 -0.2147822 -0.15264755 -0.123532295 -0.05360391
-0.15935718 0.021287512 -0.067730024 0.18069439 -0.15964179 0.21108426 0.039846674 0.21882254
0.019883757 -0.016414214 -0.1441136 -0.1987404 -0.049378555 -0.068132125 0.108464494 0.23887645
0.10193 -0.06834134 0.14141728 -0.19362272 -0.06665783 0.1650029 0.045257088 0.009237707
0.099001534 -0.030032033 0.24390043 0.01078237 -0.13361144 0.07757938 -0.17769685 -0.09151211
-0.1345944 0.264339 -0.013621721 -0.014732656 0.08268863 0.29541388 -0.032249197 0.18452518
-0.13166153 -0.031473383 0.14203247 0.13449627 -0.17591432 0.11160173 0.03297099 0.090820566
-0.03916347 -0.2034586 0.07886163 0.14620684 0.25775972 0.15410784 -0.12146856 0.37230814
0.14523864 0.29795232 -0.1344866 -0.015549953 0.12579459 0.05798533 -0.17405897 0.29171118
0.050515555 -0.1944365 0.02769894 0.06302642 -0.041335247 -0.053032696 -0.06315205 -0.094352484
0.05275395 -0.1554863 0.16372545 0.36048743 0.01935059 -0.07196821 0.11291939 0.15413792
-0.018827427 0.2884855 0.12061871 0.17878763 0.054536268 -0.14222474 0.41604125 0.04528695
0.11594982 0.122107446 0.1070439 -0.2003303 0.017265437 0.13469012 -0.034739815 0.15868014
0.2773271 0.14296177 -0.22641659 0.042472754 0.17473924 0.16402252 -0.13933487 -0.17032956
-0.025664236 -0.11951534 0.063151985 0.096701495 0.024118068 0.19921173 0.15576176 0.065857686
-0.07327773 0.09600877 0.122705996 0.14437562 0.026856545 0.093195066 -0.1781602 -0.23739682
-0.057722922 0.3933612 -0.16448802 0.19708836 -0.22790247 0.14459522 0.24385832 0.14128433
0.18805635 0.08082516 0.058660462 0.09609531 -0.0026060543 -0.037606046 0.11044616 -0.090958625
-0.2106941 0.1577818 -0.0037082587 0.10909536 0.19973515 0.1286114 0.2682887 0.28760237
0.2402968 0.35691082 0.18988764 0.11976977 0.13901184 0.17292689 0.090973265 0.014992194
0.0987217 0.23424459 -0.12717955 0.14421776 -0.09610595 0.2325849 -0.19941671 -0.17933248
0.2007484 0.18224412 0.05132413 0.111371085 -6.48102e-05 0.1873436 -0.12347891 0.27859807
-0.07091133 0.19144936 0.03963678 0.006599532 -0.03793973 -0.21588813 0.18550146 0.080739774
0.22387306 -0.021043256 -0.08576568 -0.037352182 0.050312165 0.22344476 0.0713917 0.035224084
0.0913822 -0.18118732 0.09899484 -0.036276642 0.14839046 -0.15334435 0.060361788 0.041118972
-0.12730394 0.19629456 0.13902925 0.1340247 0.13582823 0.26581013 0.21235129 -0.124772646
0.058433685 0.048215352 0.037156135 -0.1228336 0.33826602 0.041062567 0.12986569 -0.15156206
0.11469407 0.09329405 -0.20192434 0.24824902 0.1708774 0.15161963 0.026174735 0.39416674
-0.17764206 0.050918568 -0.06810067 0.2179174 0.17060336 -0.17468627 -0.032955624 0.17682265
0.20848173 0.089686394 0.22082826 0.0046761823 0.032372516 0.14017987 0.022794373 0.24123637

value_stream.2.weight f4 [1, 256]
00000000: 7e5e 663e faef 95be bfb3 9f3e 64ed 96be
00000010: 5fc1 74be 94b4 7ebe 436b 9dbe e42a 483e
00000020: e2e3 97be df29 c6bd 1375 6dbe e4b3 84be
00000030: c071 983e e36c 86be c0a7 913e 0189 7f3e
00000040: 79ad c93e 1a49 b13e 848d 21be b2b6 293e
00000050: f6c8 31be f4f3 09be f7f4 35be b44c a83e
00000060: 9a95 28be eefd ad3e 9b0f a33e 5309 8bbe
00000070: 5a20 953e afad 683e 1fd0 423e 0d79 53be
00000080: 2284 ad3e 6eb3 9c3e 1a53 903e aa11 36be
00000090: 43c3 933e e16c a63e bd2d 56be a7c1 4bbe
000000a0: c7b2 a53e 2234 a13e 80e7 bbbe 813c a9bd
000000b0: 9ab6 a93e 183c 5fbe 3b2c a03e e9bd 0a3e
000000c0: 8a94 90be 0ae7 9b3e 985f f53e e10c 9c3e
000000d0: 6782 15be ec75 9a3e 8d87 03be 24dc 983e
000000e0: 9b3f 9e3e a44e b8be 35a8 af3e efbf a23e
000000f0: d487 db3e f825 68bf e20c b33e 5b43 89be
00000100: c738 c2bd 65c9 a13e 0712 7f3e 4b82 a2be
00000110: f083 2fbe f789 ab3e db3f b83e 5d14 f93d
00000120: 2523 b13e eb19 f2bd 09ff ba3e 3b15 9dbe
00000130: 6cb2 80be 732e 8cbe 0953 a5bd 8f87 3bbf
00000140: 3e86 81be 3ed1 b43e 084c a03e ce4b 8c3e
00000150: 19e8 04be d63b 483e a6d7 29be 2810 953e
00000160: 43f7 103e 9cb3 c3bd d553 4a3e e39e 6abe
00000170: 0274 9e3e 970b 9c3e 2a12 9c3e 6a6c a93e
00000180: 7605 bc3e e1f9 15be a60a dc3e a16a 6abf
00000190: 5478 3fbe aedd 9d3e 7e33 8ebd 52b3 db3e
000001a0: b7e5 a03e 5a9a 8abf e049 93be a501 c73e
000001b0: 1c77 00be 8412 02be 88d0 73bf 5d05 d03e
000001c0: b106 513e 6725 96be 2a5b a23e 1137 e9bd
000001d0: 7d7e ac3e eb07 b2be ba79 b4bd a36b 9dbe
000001e0: edae 86be a0b4 99be 0977 33be 3969 c73e
000001f0: fdc4 4ebe b2e5 b7bd b16a 9c3e c061 cebd
00000200: a348 b13e 354c 0abe 4827 943e 5952 a23e
00000210: 477b ae3e 869e 81be a14c 47be 7704 ba3e
00000220: b9ad 983e 0f32 713e 2fe8 96be 3356 dd3e
00000230: 2ee0 6b3e 07c4 113e ba42 09be 4e10 1cbe
00000240: 1cc4 9f3e 3dec 3ebf ebbd b7bd 4351 87be
00000250: 428f 5abe 319b 4dbe 0695 8dbe 79d9 82be
00000260: 1ddc d63e 9a69 b73e 1858 533e b4de 753d
00000270: 3e3a ac3e 47dd a63e 4b49 8e3e 57f4 a23e
00000280: aa10 27be 725c b33e b816 e63e 08c3 9abe
00000290: 0580 8fbe ed42 99be 5800 56bf eabc 86bf
000002a0: 898f 833e b1a5 bebe 7403 9c3e 4f24 a4be
000002b0: 66ba a1be 837c 95be e330 b1be a4bb 9c3e
000002c0: c7a4 063e 3148 753e 01c2 48be 769e 6ebe
000002d0: 4e5e 953e d36e 353e 5c7b fdbd 657e e3bd
000002e0: 1c5c a4be f229 d23e 6364 6b3e d263 6fbe
000002f0: 6d46 5ebe 1207 a9be 8a7f e1bd 29fd 85bf
00000300: cd00 b43e 0e51 893e 1e61 b63e 6bdd 6f3e
00000310: 5e13 a73e e602 1ebe 4220 94be b939 083e
00000320: 7a31 81be f079 a83e b16c 993e 07d6 a43e
00000330: cf42 693e daa4 70be be73 b43e 0432 17be
00000340: c478 b23e 6ff5 d7bd 1110 b43e 813f 9e3e
00000350: e347 82be f97a 1dbe de36 8ebe 492a 87be
00000360: 734f 9f3e c993 a6be b723 89be 2f6a 77be
00000370: 15aa 94be df80 c43e 5a88 98be 5f78 01be
00000380: 8293 543e 65e8 a53e 1f48 96be ed3c 26be
00000390: a643 6fbf 1cfb b4be 3d48 ab3e f85b 05be
000003a0: 2e22 a53e bb27 bc3e 9850 d8bd dd70 0fbf
000003b0: 85de c03e 5a51 97be 6521 b13e d237 87bf
000003c0: 5dbc fdbd 06b4 ad3e 9653 a13e 58ab df3e
000003d0: 391c 67be fa6f 0dbe ded9 a63e e0ec 87be
000003e0: 4a57 8abe 1fcf 403e cb5a a63e 56ab a43e
000003f0: ed15 31be b7b0 81be 931f d13d c2f0 93be
0.22496983 -0.2928465 0.31191823 -0.2947799 -0.2390189 -0.24873573 -0.30745897 0.19547611
-0.29666048 -0.09675955 -0.23189192 -0.25918496 0.29774284 -0.2625495 0.28448296 0.24954607
0.39390162 0.34626085 -0.1577664 0.16573599 -0.17361817 -0.13471967 -0.17769228 0.3287102
-0.16463318 0.33982795 0.31847844 -0.2715555 0.29126245 0.22722505 0.19024704 -0.20651646
0.33889872 0.30605644 0.281884 -0.17780176 0.2885991 0.32504943 -0.20915885 -0.19898091
0.3236296 0.31485087 -0.36700058 -0.08263493 0.33147126 -0.21800268 0.31283745 0.13549007
-0.28238326 0.30449706 0.47924495 0.30478576 -0.14600526 0.30168092 -0.12844677 0.29855454
0.30907902 -0.35997498 0.3430802 0.3178706 0.42877066 -0.90682936 0.34970766 -0.268092
-0.09483486 0.31598964 0.2490922 -0.3174003 -0.17140174 0.33503696 0.35986218 0.12162087
0.34597126 -0.1182135 0.365227 -0.3068026 -0.25136125 -0.27379188 -0.08072478 -0.7325372
-0.2529773 0.3531589 0.31308007 0.27401584 -0.12979163 0.19554076 -0.1658617 0.2911389
0.14156823 -0.09555742 0.19758542 -0.22912173 0.30947882 0.30477592 0.30482608 0.33090526
0.36722916 -0.14646102 0.42976874 -0.9156895 -0.18698245 0.3083319 -0.06943415 0.42910248
0.3142526 -1.0828354 -0.287673 0.38868442 -0.12545437 -0.12702376 -0.9524007 0.40629092
0.20412709 -0.2932541 0.31710178 -0.11387456 0.33690253 -0.34771666 -0.0881228 -0.30746183
-0.26305333 -0.30020618 -0.17525877 0.38947466 -0.20192333 -0.08979358 0.3055015 -0.10077238
0.3462573 -0.13505633 0.2893622 0.3170345 0.34078428 -0.25316256 -0.19462825 0.3633153
0.2982004 0.23554252 -0.29474017 0.43229827 0.23034737 0.14234935 -0.1340436 -0.15240595
0.31204307 -0.7457922 -0.08971771 -0.26429185 -0.21343711 -0.20078732 -0.27652758 -0.25556543
0.41964808 0.35822755 0.20639074 0.06002684 0.33638185 0.32590696 0.27790293 0.31827042
-0.1631495 0.35031468 0.44939208 -0.30226922 -0.2802736 -0.29933873 -0.83594275 -1.0526402
0.25695446 -0.37235788 0.30471385 -0.3205895 -0.31587523 -0.29196557 -0.3460761 0.30611908
0.13148795 0.2395332 -0.19605257 -0.23302636 0.2917351 0.17718057 -0.123770446 -0.11108092
-0.32101524 0.41047627 0.22987513 -0.23377922 -0.21706553 -0.33013207 -0.11010654 -1.0467883
0.3515686 0.26819652 0.3562097 0.23424308 0.32631963 -0.15430793 -0.2893086 0.1330327
-0.2523306 0.3290553 0.29965737 0.3219454 0.22779392 -0.23500386 0.35244554 -0.14765173
0.34857762 -0.105448596 0.35168508 0.30907825 -0.2544547 -0.15378942 -0.27776235 -0.2639945
0.31115302 -0.32534626 -0.2678506 -0.241616 -0.29036012 0.3837957 -0.29791528 -0.12643574
0.20759395 0.32403865 -0.293519 -0.16234179 -0.934626 -0.3534783 0.3345355 -0.13023365
0.3225264 0.36749062 -0.10562247 -0.5603159 0.3766977 -0.29554254 0.3459579 -1.056391
-0.12389443 0.3392641 0.31509084 0.43685412 -0.2256936 -0.13812247 0.32588094 -0.2654791
-0.2701972 0.1882901 0.32491145 0.3216197 -0.1729352 -0.25330135 0.102111004 -0.2889462

advantage_stream.0.weight f4 [256, 256]
00000000: bac5 56be c97f 0d3e 562d 103e 89e1 a03c
00000010: bd3e c3bd 2209 ffbd e317 f3bd 3071 31be
00000020: 1280 313d ee0a 83be 9c75 90bd bc73 fdbd
00000030: 3849 62bd fb1b b33a 92c9 6c3d 71bf 103c
00000040: 11e8 0ebe 61f6 bbbd acd4 b7bd 2c4e a2bd
00000050: 3566 ac3e cefd 99bd 05fc 61bd de78 0f3e
00000060: 1460 68bd 3892 2b3e 1593 4d3d efce d23d
00000070: 816a 5cbe 6ce2 1dbe c200 93be c87e b1bd
00000080: ecdf 5b3e a6d6 e0bd 5165 f4bd 494c 53be
00000090: 2a8d 943c 656f 4e3e 85bb bc3d b9a3 0ebc
000000a0: b51d c2bd 4cae 273d f3b5 623e 9b6b d23d
000000b0: d3d2 b03e ea8c 92be d4f1 e7bd d9c6 1a3e
000000c0: f092 35be fbb7 c7bd 9979 89bc 8405 993e
000000d0: da5c 513e 4f97 8cbe 4484 123d 741d 2cbd
000000e0: 3e16 8fbe 8e5c 23be ee30 723d 10d3 1bbd
000000f0: 0484 97bd ed89 ba3d 6d63 bcbd cca8 543e
00000100: 335e 95bc 39f8 46bd 7e9d ed3d 2549 c0bc
00000110: 15b4 9bbe 0339 27be 3363 b3be a24c 0f3e
00000120: 1210 f2bd 317f c1bd a7ce 58bd bd89 febc
00000130: 095a 053e 5383 fcbd 025e 2ebe d801 38bc
00000140: 14c6 50be 88b1 e53d 6d2d 973d b9ef 03be
00000150: c300 943d 1eb1 a0bc a87d 47be b70a 553d
00000160: bade 55be 588b 84be 80d1 afbc 1fad 033e
00000170: 9467 603d 0c14 e03c 10dd 00bd cafa 89be
00000180: 0b9b 8fbe b573 c5bd 77b1 adbc 4cd4 83be
00000190: 2cef 8e3d 024d 83bd 3d63 be3b fd01 05bf
000001a0: a4ac 2a3e eff3 b3bd 52c7 40be 99da ccbd
000001b0: 3f41 d3bd 13e4 00bd ceae e4bd 757e b43d
000001c0: 60ef 0bbe 99cf 14be b683 65bc 4a68 033e
000001d0: bb5a f23d e732 b5bc b552 dfbc 39ae 40bd
000001e0: d919 62bd 3638 3f3c 9c12 c8bd 6ddc c4be
000001f0: 4233 9ebe a6e8 f63d 107e 64be fb4f f03d
00000200: aed3 ea3d 02c3 b03b 5413 d23d f7c9 8b3e
00000210: 3b5d 9ebc cb81 603d 9a2b 0e3e a011 d6bd
00000220: 9f2a 93be f08a adbd 2711 28be 8f94 17be
00000230: cf94 2cbe e1fe 1c3e ac63 5f3e 091e b3bd
00000240: d5e9 b5bc bbbe f5bd 77e6 8e3d b650 04bd
00000250: 8a49 953d 3134 41be 934a 1bbd b55b 8a3d
00000260: a05d f53d feca 8d3e e963 ff3c a3d0 223e
00000270: ea82 1c3e a862 39be 1d2a 4abe 76e4 203b
00000280: 9c53 f3bd 3c0f 39be e133 a4be 9804 c5bd
00000290: 1cf9 ae3c 5bac fdbd e331 4bbe 984c 43bd
000002a0: 7bdd 9bbe a3ef 173e d958 c1bd ff3c 88be
000002b0: a2b0 9ebe 9f0e 2d3e b77d b53d 636d 68be
000002c0: d78b b83d 820d e2bd 040c 453d 563b 153e
000002d0: 5cf8 833e c4cd 7fbd 6e2b e6bd 1cbb 09bc
000002e0: 0b89 80be 963c 7dbe a341 a03d 001c 99bd
000002f0: ef69 f23d a734 63bc 5cdc 17be 8317 46be
00000300: 7cbd 26be d92e acbe 03ef c8bd 6436 9cbc
00000310: 6d84 453e f71e 953e bb9f a6be 5fcd 00bc
00000320: e124 d73d 091f 81bd b48b e63d 5601 01be
00000330: 170c 8c3d 2fea 533e 14b5 afbd 71fa c8bc
00000340: c496 00be 7fd7 40be d93f b8be 085d f53d
00000350: 997b 1bbc 4656 1e3d 3743 033e 7483 1c3e
00000360: 045c dbbd af0c 1cbe 1bbf 1d3e 4afe 793d
00000370: c635 9fbd db70 333c c425 d2bc a914 03be
00000380: 800e 84bd d64c 39bc c5f6 e7bd 5bfa 4c3e
00000390: ea8a 37be 30ad 9dbe 9a6a cf3c e91f cabe
000003a0: e2b6 1ebe 51eb 063e b2be dfbd 7810 69be
000003b0: 0e9b 113e 3eaa 3ebe 3110 cc3c 12be 0cbe
000003c0: 4e33 923d eace 893d 7047 4ebe 5e07 c83d
000003d0: ff2a 5dbd fb20 a8be f26e 803e be06 153d
000003e0: 312c a9bd 5a8c c8bd b716 bdbd 5110 f0bd
000003f0: 3a5b 1bbe afdc f43d c926 843e 25f9 01be
-0.20973864 0.13818277 0.14079794 0.019638794 -0.09533451 -0.12452914 -0.118697904 -0.17328334
0.043335028 -0.25594276 -0.07053682 -0.1237559 -0.055245608 0.0013664955 0.05780942 0.008834706
-0.13955714 -0.091778524 -0.08976111 -0.07925066 0.33671728 -0.075191125 -0.055171985 0.14010951
-0.056732252 0.16754997 0.050189096 0.10293376 -0.21525003 -0.15418404 -0.28711516 -0.0866676
0.21472138 -0.10978441 -0.11933387 -0.20634569 0.018133719 0.20159681 0.09215454 -0.008706027
-0.094783224 0.040937707 0.2213972 0.1027443 0.34535846 -0.28623134 -0.11325422 0.15114917
-0.17731833 -0.09751888 -0.016781615 0.2988702 0.20445576 -0.2745919 0.03577067 -0.042020276
-0.27946657 -0.15953276 0.059128694 -0.03804308 -0.07398227 0.091083385 -0.091986515 0.20767516
-0.018233394 -0.048576567 0.11602305 -0.023472378 -0.3041083 -0.16330342 -0.3503662 0.13994077
-0.118194714 -0.09448088 -0.052931454 -0.031071538 0.13022627 -0.123297356 -0.17028049 -0.011230908
-0.20388061 0.11215502 0.07381711 -0.12884416 0.07226708 -0.019615706 -0.19481528 0.05201217
-0.20885745 -0.2588756 -0.021462202 0.12859009 0.05478628 0.02735331 -0.03146082 -0.2694915
-0.28047976 -0.0964121 -0.021202786 -0.25747907 0.06979212 -0.064111724 0.00581017 -0.5195616
0.1666742 -0.08786761 -0.18826035 -0.10002632 -0.10315179 -0.03146751 -0.11166154 0.08813182
-0.13665533 -0.14532317 -0.014008453 0.12832752 0.11833712 -0.022118999 -0.027261117 -0.04704115
-0.05520043 0.011671117 -0.097691745 -0.38449422 -0.30898482 0.12056093 -0.22313714 0.11734005
0.11466156 0.0053943405 0.10257593 0.27302524 -0.019331565 0.05481128 0.1388382 -0.104525805
-0.28743455 -0.08473766 -0.16412793 -0.14802764 -0.16853641 0.15331604 0.21815366 -0.08745963
-0.022206226 -0.119992696 0.069775514 -0.032303534 0.07289417 -0.18867566 -0.037912916 0.06755773
0.11980748 0.27693933 0.03117557 0.15899901 0.15284315 -0.1810404 -0.19742627 0.0024550236
-0.118811816 -0.18072218 -0.3207083 -0.09620017 0.021359019 -0.1238639 -0.19843249 -0.047680467
-0.30442414 0.14837508 -0.094407745 -0.26609036 -0.30994135 0.16900109 0.08861869 -0.22697978
0.09011047 -0.11037733 0.048107162 0.14573416 0.2577542 -0.062452093 -0.11238752 -0.008406427
-0.25104555 -0.24730143 0.07825019 -0.07476044 0.118366115 -0.013867534 -0.14830154 -0.19344907
-0.1628322 -0.33629492 -0.09811213 -0.019068904 0.19288798 0.29125187 -0.3254374 -0.007861464
0.10505081 -0.063047476 0.11257115 -0.12598166 0.068382435 0.20694803 -0.0857946 -0.024533482
-0.12557513 -0.18832205 -0.35986212 0.11980635 -0.009489917 0.038656496 0.12818609 0.1528452
-0.1071091 -0.15239213 0.15404932 0.061033525 -0.07773928 0.0109522 -0.025652774 -0.1280085
-0.06448078 -0.011309823 -0.113263644 0.20017378 -0.17924085 -0.30796194 0.025319386 -0.3947747
-0.15499452 0.13175704 -0.10925044 -0.22760189 0.14219305 -0.1861963 0.024910064 -0.13744381
0.07138692 0.06728919 -0.20144439 0.0976703 -0.053996082 -0.32837662 0.25084645 0.036383383
-0.08260382 -0.09792395 -0.09232848 -0.11721862 -0.15171519 0.119561546 0.2581084 -0.12692697
