active_slam_rl/training_output_slam/20260126_164625/d3qn_ep1300.pth (torch, 901810 bytes, 11 tensors)

feature.0.weight f4 [256, 100]
000000 8c bb b2 bd e9 95 fd bc 46 26 23 3e ab 92 5e 3e
       -0.08727178 -0.030955272 0.15932569 0.21735637
000010 51 a5 8c bd 91 e9 72 3d 03 e2 96 3c be b7 47 3d
       -0.06867469 0.059304778 0.018418318 0.048759215
000020 06 45 1c 3e c4 8d ed 3d 10 48 bd 3c 61 d8 24 3e
       0.15260705 0.11599305 0.023105651 0.16098167
000030 6f fb bd 3d 1b 0b fe bc 80 74 cb 3b d3 0e 6f 3e
       0.09276473 -0.031011155 0.0062089562 0.23345499
000040 8b c8 6d 3e d9 9d c9 3d ca 27 d7 3d b1 30 16 3e
       0.23221032 0.0984456 0.10505636 0.14667012
000050 16 8e ee 3d 66 89 2c 3e 2d e8 32 3e 3c b7 12 3e
       0.116481945 0.16849288 0.1747138 0.14327711
000060 d1 9e 36 3e e0 5c 55 3d ed 44 b6 bd fa ae 11 ba
       0.17834021 0.052090526 -0.08899865 -0.00055573846
000070 85 c3 6b bd d8 0e 52 be 0f 36 3f bc 6c 8b 0f be
       -0.05755951 -0.20513475 -0.011670603 -0.14018029
000080 c0 d7 62 be d4 39 26 be d9 e2 43 be 5a 8b 86 be
       -0.22152615 -0.16232997 -0.19129504 -0.26278192
000090 3f 11 84 be 4a f5 8d be 4f 20 5f be 0b 43 26 be
       -0.25794408 -0.27726203 -0.21789669 -0.16236512
0000a0 13 67 6d be 4a 2c 9b be d1 47 8b be f6 b3 81 be
       -0.23183851 -0.30307227 -0.2720323 -0.25332612
0000b0 4f d1 0f be 7d 97 36 be 1a ec 58 be 1f 98 93 be
       -0.14044689 -0.17831226 -0.21183816 -0.28826997
0000c0 3a 0e 3c be 30 66 50 bd e4 e2 4b be c8 e9 50 be
       -0.18364802 -0.050878704 -0.1991077 -0.2040168
0000d0 3f d6 bf bd 15 5a 3f bd 75 b6 c7 bd dc e2 00 be
       -0.09367036 -0.04671677 -0.09751598 -0.1258654
0000e0 1d 5e df bd 79 d3 a3 bd f8 7e 09 be 67 eb 64 3d
       -0.109066226 -0.079993196 -0.13427341 0.05588856
0000f0 03 e5 6a bc 07 12 6f 3e d9 b6 cc 3d 42 88 c4 3c
       -0.014336827 0.2334672 0.09995813 0.023990754
000100 77 b4 91 3c b7 17 ac 3c 8d 26 62 3e f4 49 1d bd
       0.017786248 0.021007402 0.22085018 -0.038400605
000110 d5 2a 44 bd 5c f0 18 3e 0c 99 8b bd 08 8a e6 3d
       -0.04789241 0.1493544 -0.06816301 0.11256796
000120 d5 dd 2b bd 4e 3d 3f be cc 7e 3d 3d 19 3e 8b be
       -0.041959602 -0.1867573 0.0462635 -0.27195814
000130 6b 4b 63 be 06 73 9a bc 9b d2 1c 3e 7a d2 1f 3e
       -0.22196738 -0.018853676 0.15314715 0.15607634
000140 68 dc 3f be 14 95 6a be 15 f1 1e be 41 ba 81 bd
       -0.18736422 -0.22908431 -0.15521653 -0.06334353
000150 d5 54 7d be db e3 56 be 03 0f 52 be 25 16 8b be
       -0.24739392 -0.20985357 -0.20513539 -0.27165332
000160 85 d8 2b be 27 18 03 be 83 f9 79 be d0 2d 7d be
       -0.16781814 -0.12802182 -0.24411587 -0.24724507
000170 e2 70 b0 be e3 a2 91 be 1f a0 70 be fe a6 9a be
       -0.34461123 -0.28444585 -0.23498581 -0.3020553
000180 01 4c be be 84 83 e4 be a6 e7 ea be 6c cf 2a bf
       -0.3716736 -0.44631588 -0.4587986 -0.6672275
000190 e6 a1 9a 3e 06 6d a1 3e e8 40 39 3e 0e dc 24 3e
       0.30201644 0.3152849 0.18091166 0.16099569
0001a0 7a 82 72 3d 74 b1 0b 3e b0 e1 78 3c cd ae f6 3d
       0.059206463 0.13641912 0.015190527 0.12045059
0001b0 2e c4 3f 3c 32 71 49 3b a7 83 c5 bd 74 8b 71 bc
       0.011704488 0.0030737636 -0.09644251 -0.014742721
0001c0 70 8b 63 be 0d 43 73 be 20 b7 52 be 81 27 9a be
       -0.2222116 -0.23756047 -0.20577669 -0.30108264
0001d0 9c ff a5 be c5 a3 98 be 2b ed 4b be 79 9f 09 be
       -0.32421577 -0.29812446 -0.19914691 -0.1343974
0001e0 5c db b4 be 23 97 12 be 63 dc 23 be e1 1e 82 be
       -0.35323608 -0.14315467 -0.1600204 -0.25414184
0001f0 3a e0 db bb f1 02 25 be 40 66 62 be 2a 5f 88 be
       -0.0067100795 -0.16114403 -0.22109318 -0.26635104
000200 3d 9f 4d be e6 47 3b be d1 61 4b be b4 00 63 be
       -0.20080276 -0.18289146 -0.19861533 -0.22168237
000210 d1 7f 2d be f6 14 5a be 20 e8 69 be f2 9c c2 bd
       -0.1694329 -0.21297058 -0.22842455 -0.09502591
000220 fb 50 33 be 30 ce 40 be ac 44 6c be 39 37 60 be
       -0.1751136 -0.18828654 -0.23073071 -0.21896066
000230 07 a6 76 bd 1b 47 f0 bd 98 24 0a bd 26 60 36 3b
       -0.06021693 -0.11732312 -0.033726305 0.0027828305
000240 b3 76 e9 bc 45 7d e8 bd b0 1e dc bc 75 e4 17 bd
       -0.028498983 -0.11352018 -0.026870102 -0.037083108
000250 23 4b 5b bc 81 59 a3 bd e5 34 01 be c1 3f 78 bd
       -0.013384613 -0.07976056 -0.12617834 -0.060607675
000260 cb 79 82 3d 34 2b 81 3d 30 1a 46 3e 4b f6 fe 3b
       0.063708864 0.063070685 0.19345927 0.0077808253
000270 cb 29 3a 3e 6c 74 17 3e 6e b7 08 3e b8 99 ef bd
       0.18180005 0.14790505 0.13351223 -0.116992414
000280 dc b9 a3 bd ea fe cf 3c 89 81 fd bd 64 19 d4 bb
       -0.07994434 0.025390107 -0.123782225 -0.0064727534
000290 6c 61 9b bd 8b 3d 9b 3b 81 70 b9 bd 39 ec 3c bd
       -0.07586941 0.004737561 -0.090546615 -0.046123717
0002a0 7c d6 41 be 53 b6 fd bd 8d d6 cd bd ec 24 48 be
       -0.18929476 -0.12388291 -0.10050688 -0.19545335
0002b0 e8 d8 2f be 25 d9 60 be 77 e8 1a be 62 67 85 be
       -0.17172587 -0.21957834 -0.15127741 -0.26055437
0002c0 09 ce 00 bd f4 4a 63 be 45 df 3b be 8a 60 59 be
       -0.03144649 -0.22196561 -0.1834689 -0.21228233
0002d0 53 c9 df bd d0 3c 62 be 17 b9 01 3c d3 a1 aa bd
       -0.109270714 -0.2209351 0.007917664 -0.08331647
0002e0 89 68 20 bd 48 b7 7b be 0d 45 9c bd 2a 8a f0 bd
       -0.039162192 -0.24581635 -0.07630358 -0.11745103
0002f0 95 d4 6f be c3 fa 49 be c2 7b 49 bd c0 f9 32 bd
       -0.23420937 -0.19724564 -0.04919029 -0.04369521
000300 f1 1c 3a be d9 f9 5f be 7b ad 19 be 1d 52 4a be
       -0.18175103 -0.21872653 -0.15007584 -0.19757886
000310 f1 ad 84 be d2 05 9c be be ee 7b be 90 7b 29 be
       -0.25913957 -0.3047319 -0.24602792 -0.16551042
000320 c6 24 60 3e 92 93 e5 3d 6e 97 1e 3d 0e 36 e2 3d
       0.21889028 0.112097874 0.038718633 0.11045466
000330 bd b4 0b 3c bd 27 a2 3c c4 0b 1b 3e 82 71 d2 3d
       0.008526978 0.01979434 0.15141207 0.10275556
000340 63 97 20 3e 18 eb 00 3e a0 a1 30 3e fd 08 d0 b8
       0.1568275 0.12589681 0.17249155 -9.919887e-05
000350 4b 2d 6c 3e 34 f7 43 bd e7 92 77 be a1 2b 85 be
       0.23064153 -0.047843173 -0.24177133 -0.2600985
000360 af cd ff bd e9 ae de bc 6f 10 29 3d d9 ad 0d 3e
       -0.12490403 -0.027183013 0.041275438 0.13835849
000370 03 3f 4b bd d8 b7 45 be b3 3a 91 3c 91 ff 1a be
       -0.04962064 -0.19308412 0.017728185 -0.15136553
000380 81 87 8c bd 8d 37 83 bd 77 aa 51 be d6 39 37 be
       -0.06861783 -0.0640708 -0.20475183 -0.17893156
000390 ca 03 4e be 22 ec ec bd a4 4e 0e be dc 59 62 be
       -0.20118633 -0.11568476 -0.13897187 -0.22104591
0003a0 fa 45 88 3c fc a8 0c bd ab 58 6e bd e3 16 46 bd
       0.01663493 -0.034340844 -0.05819003 -0.04836167
0003b0 d7 bc f8 3c 8b da 7c bc 5d 20 83 be 74 d7 37 bd
       0.030363483 -0.015432964 -0.2561063 -0.044883206
0003c0 c2 62 93 3d 3b 51 41 bd 00 73 11 bd 83 39 1a be
       0.07196571 -0.047196608 -0.035510063 -0.15061001
0003d0 ef 97 98 bb db 30 80 be ef b1 7b be 2b b9 81 be
       -0.004656784 -0.25037274 -0.24579595 -0.25336584
0003e0 a1 2d 02 bd d3 31 8d bd 3a ff 75 be 00 ba 41 bc
       -0.031781796 -0.06894269 -0.24023142 -0.011824131
0003f0 28 be 11 3e 07 14 43 bd 0f fb 06 3e 16 9b 07 be
       0.14232695 -0.04762652 0.13181709 -0.13242754

feature.0.bias f4 [256]
000000 3b 5c fe be 49 f1 3a 3e 22 8e f2 3e 4a 85 bd be
       -0.4967974 0.18256105 0.47374064 -0.37015754
000010 b9 ed 88 bf 12 a1 1e bf 5e 52 16 3f d5 cc 03 3f
       -1.0697547 -0.61964524 0.5871943 0.51484424
000020 47 eb f3 3e ba f3 f7 bd 0f 4e b6 3e 2c 05 d6 3d
       0.4764044 -0.12107034 0.3560643 0.10450205
000030 93 06 2d be 9e ad 97 be cc bf 93 be 8b 00 f4 3e
       -0.16897039 -0.29624647 -0.28857267 0.47656664
000040 6f 2c dc 3e dd 70 3b 3e 45 c5 bf 3e 63 5f 81 3d
       0.4300265 0.18304773 0.37455192 0.06317022
000050 28 ec c5 bb 3e e8 83 bd 74 46 99 be bd a7 b8 3e
       -0.006040115 -0.06440781 -0.29936564 0.36065474
000060 ab 2c 5b bf 7a aa 8a 3d a6 d6 51 3f e3 76 e0 be
       -0.8561503 0.06770797 0.8196815 -0.43840703
000070 5d 80 5f bf f0 e9 e3 3d 37 48 d9 3e 5a 1e c6 3e
       -0.8730524 0.111286044 0.42437908 0.3869503
000080 e4 ab 85 3e 83 e2 e5 be 9f f7 18 bf 9d f3 91 bd
       0.26107705 -0.44899377 -0.5975284 -0.07126544
000090 4b fc 3b 3d d1 5c 64 3c dc a5 22 bf a0 02 2a 3f
       0.045894902 0.013938145 -0.6353433 0.66410255
0000a0 d4 c0 f9 3e d9 34 6f 3e a9 25 83 3e 81 62 9f be
       0.4877993 0.23360004 0.2561467 -0.3112984
0000b0 4e 30 dd bd 76 53 d8 3d ae 69 c2 be 31 46 63 3f
       -0.10800229 0.10562794 -0.37971252 0.8877898
0000c0 fe 97 f2 3d 39 ba e8 3e 2c 46 66 3e be bf 42 bf
       0.118453965 0.45454577 0.22487706 -0.76073825
0000d0 93 f5 d2 be 4b b6 6a 3d 67 ca 0d 3d 60 0e cd bd
       -0.41202983 0.057302754 0.034616854 -0.100125074
0000e0 1e 99 83 3e ef 4f b9 3e 0c a0 c7 be 5a 04 06 be
       0.25702757 0.36193797 -0.38989294 -0.13087597
0000f0 45 bd 08 3e c8 ce db 3e 53 c4 3e be 22 a6 99 3e
       0.1335345 0.429312 -0.18629579 0.30009562
000100 a9 7a 0f be 6e 47 dc be 2e bd a8 be 1c f4 06 3d
       -0.14011635 -0.43023247 -0.32956833 0.032947645
000110 4c bf ab 3e 75 82 f8 3e 0e 63 4a 3e c9 1b 14 3f
       0.33544385 0.4853703 0.19764349 0.57854897
000120 aa 6a 01 bf 8d cc 03 be ea 7f 3b 3f 44 94 e8 3e
       -0.5055338 -0.12870999 0.73242056 0.45425618
000130 ed 01 38 bd 77 79 04 3f 73 0c 23 3f 91 1b 17 bf
       -0.04492371 0.5174784 0.6369087 -0.5902644
000140 96 89 ad 3d 6c dc dc be 58 32 7f be 1b 89 4f 3e
       0.08473508 -0.4313692 -0.24921548 0.20267145
000150 f4 b9 a5 3e ec de df be ad d9 81 3e 3a 4c 38 3f
       0.32368433 -0.43724763 0.25361386 0.7199131
000160 63 d6 52 be 85 fb ae be cc cc b8 3e e3 90 08 bf
       -0.20589595 -0.3417627 0.36093748 -0.5334608
000170 ba d8 02 bf 73 50 c6 be 3f fa af 3e 1e ba 22 3e
       -0.5111195 -0.38733253 0.3437061 0.1589131
000180 22 3b 57 3e 29 9b 30 3e de 4a 98 bc f9 4a 11 bc
       0.21018651 0.17246689 -0.018590387 -0.0088679725
000190 e8 e0 11 be 7e 37 07 be d4 b2 68 3e df c4 a6 3e
       -0.14245951 -0.13204762 0.22724468 0.32572076
0001a0 1b a7 d6 3d dd 7b f8 3e 16 45 ad 3e de e8 00 bf
       0.104810916 0.48532 0.3384177 -0.5035533
0001b0 6a 8b 4f 3f a8 3a fe bd 10 ab c1 be 5e 2f 0a 3e
       0.81072104 -0.124135315 -0.37825823 0.13494632
0001c0 0f 47 11 3e 02 47 c2 3e 43 65 9e 3b 1d 12 06 bf
       0.14187263 0.379448 0.0048338487 -0.5237139
0001d0 90 85 e2 3e 5c a8 d8 3e ac d5 3c bf f3 a8 0e 3f
       0.44242525 0.42315948 -0.7376354 0.55726546
0001e0 a3 dc 17 3f 6c 3c 6a 3e 8d 0e 47 be d2 13 05 3e
       0.5932104 0.22874612 -0.19439144 0.12995842
0001f0 36 2e 87 3e 8c a0 e5 be 12 b1 70 3e 98 0f 30 3e
       0.26402444 -0.4484905 0.23505047 0.17193449
000200 99 f6 ef 3e 8f 43 7c 3d 8b 57 d0 bd ce 67 68 be
       0.46867827 0.061587866 -0.101729475 -0.22695848
000210 6e 02 2e bf 19 9b bf be 24 f2 0c be b7 69 ca 3d
       -0.6797246 -0.37423018 -0.13764244 0.09883445
000220 8c cc 9f 3e f7 8c 14 bf 27 ce ae be d5 7c 90 3e
       0.31210744 -0.58027595 -0.34141657 0.2822024
000230 0e 63 e3 3e 05 61 f7 3e 65 7a 2f bf ac 94 ae bd
       0.4441151 0.48316208 -0.68546134 -0.08524451
000240 fd 65 13 bd 9c 56 1a bf d2 05 dd 3d 51 67 11 3f
       -0.035985935 -0.60288405 0.10792126 0.56798273
000250 40 30 b7 3e 0f ba e5 3d aa f9 44 3f aa f3 cc 3e
       0.35779 0.112171285 0.7694346 0.4002965
000260 0a 1d cb be e8 06 04 bf f7 bd 84 be 0d 0a e0 be
       -0.39670593 -0.5157304 -0.25926182 -0.43757668
000270 28 de 10 bc c4 ab dd be 76 7a 27 3e ac 77 01 3f
       -0.008842029 -0.4329511 0.16355309 0.5057323
000280 91 68 07 bb 9d 43 2d 3f cb 32 46 be d3 e2 81 be
       -0.0020661692 0.67681295 -0.19355313 -0.25368366
000290 dd 1b 84 bd 43 4d 45 3e 41 1b 19 3f 32 9e 23 bf
       -0.06450627 0.19267754 0.5980721 -0.6391326
0002a0 3f 39 84 be 84 aa ff bc ff 0d 92 bd dd 78 0a 3f
       -0.25824925 -0.031209238 -0.07131576 0.5409067
0002b0 50 5b f0 be 3f 06 4c be d2 fd ca 3e b3 69 04 3f
       -0.46944666 -0.19924258 0.39646775 0.51723784
0002c0 aa 7e 74 be 70 0e c9 bd dd 43 da 3e 69 73 c5 3e
       -0.23876444 -0.09817207 0.426299 0.38564613
0002d0 b2 c9 3a 3e 5c 1d ed 3e b7 5f 46 3d 84 02 f5 3e
       0.18241003 0.46311462 0.048431125 0.47853482
0002e0 bc 75 90 3e 46 66 69 bd 64 37 c8 3b 73 a7 0d bf
       0.28214824 -0.0569823 0.0061101187 -0.5533363
0002f0 24 5b 58 bf 29 f7 a9 3e 31 93 bd be df ab ef bd
       -0.8451407 0.3319638 -0.3702636 -0.11702704
000300 06 15 10 be 54 82 30 be 2a 16 aa 3e 43 4a 5a be
       -0.1407052 -0.17237216 0.33220035 -0.21317391
000310 d6 21 ed bd f6 f4 0e 3f 10 b1 0a bf 35 45 3d be
       -0.11578719 0.5584253 -0.54176426 -0.18483432
000320 70 55 54 3e 42 4d 70 3e 30 2e 00 3d fd b9 87 3e
       0.20735717 0.23466972 0.031294048 0.26509085
000330 24 92 e3 bc 7f e1 e0 3e 40 31 d4 3e 8c 1f d0 3e
       -0.027779646 0.4392204 0.41443825 0.40649068
000340 03 0b bf 3e c0 ff 83 3e 86 96 92 bd 20 b6 49 3f
       0.3731309 0.2578106 -0.07157616 0.78793526
000350 72 4c d0 be fd e1 e0 3e 02 33 f5 be 53 af 3d 3f
       -0.40683323 0.43922415 -0.47890478 0.7409565
000360 a8 a8 d8 3e 4a e8 76 3d 37 55 8f 3d ca 4e 19 3f
       0.42316175 0.060280122 0.06998675 0.5988585
000370 f4 62 96 bc 76 6a 0c 3f a4 7e 88 be 88 3d c4 3e
       -0.018357731 0.54849946 -0.2665912 0.38328195
000380 d0 1f 22 bf bd ea e3 3d 54 68 0d 3f 02 fd eb bd
       -0.6332979 0.11128757 0.5523732 -0.11522867
000390 2a 75 09 bf 54 bd cc be 4c 89 0f 3f bb 6c 6f bc
       -0.53694403 -0.39988196 0.56068873 -0.014613326
0003a0 45 66 c8 bd 59 52 bb be 7f b0 48 be d4 ec e5 be
       -0.09785131 -0.36586264 -0.19598578 -0.44907248
0003b0 ee a6 a6 3c e2 58 f2 3e da a4 dc be bf a0 95 bb
       0.02034327 0.47333437 -0.43094522 -0.0045662816
0003c0 3a be e7 be ac d7 b2 3e 39 14 77 3e 37 ad 84 be
       -0.4526232 0.3493017 0.24128808 -0.25913402
0003d0 1d 8a 26 3e 87 34 d7 3e 4b 6c 2c 3e 17 35 ee 3e
       0.16263624 0.42032263 0.16838185 0.4652488
0003e0 53 5b be be 04 87 7d bd c0 8c 1d bf 47 6e fe bd
       -0.3717905 -0.06189634 -0.6154289 -0.124233775
0003f0 d7 c3 41 3d 6b 02 bb 3e c6 f7 e7 bd 61 b5 80 3e
       0.047305908 0.36525282 -0.11326556 0.2513838

feature.2.weight f4 [256, 256]
000000 87 8e 4f bd 34 cf d0 3d 05 0a de 3c 6d a8 27 3c
       -0.050673034 0.10195771 0.027104387 0.010233027
000010 58 d4 af be aa 68 e0 bd 9d 2a c1 3d 05 19 6a 3e
       -0.34341693 -0.10957463 0.09431956 0.22861107
000020 0e cf 99 3e 72 7d 3d 3e 18 fe b5 bd 46 f5 91 3d
       0.30040783 0.18504885 -0.08886355 0.0712686
000030 58 a9 45 3d 9c 97 d6 bd 2a 02 a6 be 1a 19 69 3e
       0.048257202 -0.10478136 -0.32423526 0.22763482
000040 2a 20 dc bd 61 bc 4a 3e 7f 1c a2 3d ab 61 c1 3b
       -0.10748322 0.19798423 0.079155914 0.0059015355
000050 af 60 30 be 54 ef d5 bb 16 b7 16 be a5 ab 3f be
       -0.17224382 -0.0065287743 -0.14718279 -0.18717821
000060 74 9c c7 bc 16 4d 51 3e 08 15 e4 3e f8 26 f6 bd
       -0.024366595 0.20439562 0.44547296 -0.120191514
000070 46 52 ad be e8 e7 a2 3d 64 65 70 3d 02 7b de 3e
       -0.33851832 0.07954389 0.058690444 0.43453223
000080 95 64 77 3e b9 6d 33 3c da 03 20 be e7 ee 07 3e
       0.24159463 0.010951453 -0.15626469 0.13274728
000090 7c 2d 18 bd 41 f2 a2 3e c4 e4 8d 3c dc 14 45 3e
       -0.037152752 0.3182545 0.017320998 0.19246238
0000a0 0e 16 8c 3e e8 6e e6 bd 21 f7 4e 3e 49 cc fd 3d
       0.27360576 -0.112516224 0.2021146 0.1239248
0000b0 54 14 18 3d f3 e7 d6 3e 33 f8 5f 3d 13 41 2d 3d
       0.03712876 0.41973838 0.05468006 0.042298388
0000c0 ef 17 09 3d 01 3f 04 3f cd cd 84 3e 12 85 82 be
       0.03347009 0.51658636 0.25938264 -0.2549215
0000d0 1d 98 92 bc fa 3b 96 3e 18 39 0e be a3 bc 3e 3b
       -0.017894799 0.29342633 -0.13888967 0.0029104135
0000e0 4f 5f 18 3e 4e b5 78 3e 16 27 ca bd 6f be 1f be
       0.14880107 0.24287912 -0.09870736 -0.15599988
0000f0 b5 24 84 3c 5b b4 8d 3d d6 c6 8d 3c 72 32 a4 3e
       0.016130785 0.06919166 0.017306726 0.32069737
000100 99 14 33 3c db 89 0d be dd f3 15 be 51 d5 f2 3d
       0.010930204 -0.13822119 -0.14643808 0.11857093
000110 dc a9 25 3f fc 94 a0 3e 10 41 a9 3d 7b 45 85 3e
       0.6471231 0.31363666 0.08264363 0.26029572
000120 51 83 98 be 0e 3e e8 bc 98 d2 f7 3e 84 70 be 3e
       -0.29787686 -0.028349902 0.48402858 0.37195218
000130 6b 68 3b bd e8 86 f2 bc 4d 0b 04 3e 4a 7e 44 be
       -0.045753878 -0.029605344 0.12894936 -0.191888
000140 fa 47 a8 3c a5 1f c3 bc 05 8d 9a 3d 83 8d 6f 3d
       0.020542134 -0.0238188 0.075464286 0.058484565
000150 2e ce 87 3e 1f e3 90 3c d3 82 18 3e b4 56 99 3c
       0.2652449 0.017686425 0.14893655 0.018718101
000160 58 ea fa bd e3 76 6a be 07 c4 4b 3e 53 50 a5 be
       -0.12251729 -0.22896914 0.19898997 -0.32287845
000170 bf eb c1 be f8 69 b1 bd 6d 7a bc 3e dd 3d 74 3e
       -0.37875172 -0.0866279 0.36812153 0.23851724
000180 d1 e7 6b 3d a5 b8 af 3d be 5a 50 bc c7 2d a1 3c
       0.057594124 0.0858014 -0.012716947 0.019675149
000190 7b 4b 2b 3e 09 d7 9b be 4d 8f e3 3e 78 a6 7a be
       0.16728012 -0.30437496 0.44445267 -0.24477565
0001a0 9d f8 40 3c c2 c2 29 3e fe c7 b0 3e 44 bc 37 3e
       0.011778024 0.165782 0.34527582 0.17942911
0001b0 72 df bf 3e 39 af 3c bd 6d f8 6f 3e 04 d2 56 bd
       0.37475163 -0.046065543 0.2343461 -0.05244638
0001c0 69 21 43 3e 4b 74 d8 3d 12 4f 08 3d 2b 74 eb be
       0.19055714 0.10569056 0.033278532 -0.45987067
0001d0 e1 32 52 3d eb 5b 48 3e 72 7c 00 bf a4 3f 85 3d
       0.051318053 0.19566314 -0.5018989 0.06506279
0001e0 59 fd f7 3e e6 cf 61 3e 9b 31 a0 3d 31 5d 81 bb
       0.48435476 0.22051963 0.078219615 -0.003947877
0001f0 f6 4b fb bc 9a 4d 93 3e e3 f3 00 bd 7f 57 f3 bc
       -0.03067587 0.28770143 -0.03148259 -0.029704807
000200 65 c2 a0 3e 96 27 b1 bb b4 4d 97 3d cb 5b e3 3d
       0.3139831 -0.0054063303 0.073878676 0.111014925
000210 4a d5 ee be 91 75 a4 be 4c 28 af bc 06 73 a3 bd
       -0.46647102 -0.32120946 -0.02138152 -0.07980923
000220 ff 4d d7 3e 56 36 03 3d c4 4c 32 be 27 b5 04 3e
       0.42051694 0.03203424 -0.17412096 0.12959729
000230 ec 09 18 3e 75 7a 60 3e c6 f3 0a be 20 6e 03 bd
       0.14847535 0.21921714 -0.13569555 -0.032087445
000240 34 56 8e 3e b8 18 84 be 47 8d 9f be ad 5c 51 3e
       0.27800143 -0.2580011 -0.31162474 0.20445509
000250 f4 73 86 bb 38 3a 06 3e 5c 12 1e 3f ef c6 96 3e
       -0.004103178 0.13108146 0.61746764 0.2944865
000260 69 f7 e5 3c 15 1b b1 be e0 c0 a1 bd 30 f1 e6 bd
       0.028072076 -0.34590974 -0.07898116 -0.112764716
000270 1e d9 85 bd 1d f4 41 3e cf 3a 27 bd 46 44 a0 3e
       -0.065355524 0.18940778 -0.04082757 0.31302088
000280 b9 4d 07 be c5 9e bf 3e 9b f4 42 3e 2a 5c 4f 3e
       -0.13213243 0.3742582 0.19038622 0.20250002
000290 28 82 e6 3c 98 65 06 be 8b 01 05 3f 91 31 df bc
       0.028138235 -0.13124692 0.5195548 -0.027245315
0002a0 de e6 9e bd 06 6c fa 3d 5a d7 3f 3e 2f c2 97 bd
       -0.07758878 0.12227635 0.18734494 -0.074100845
0002b0 a6 0c 80 bd 8d 85 0f 3d 5c 6c af 3b d3 fb 1a 3e
       -0.062524125 0.035039473 0.0053534936 0.15135126
0002c0 8c 7f c5 3b dc 8d 19 3e 01 e5 69 3e 81 58 cf 3d
       0.0060271677 0.14995521 0.22841264 0.10124303
0002d0 12 78 7e 3d 4b 1d 8f 3e b8 53 7b 3e c0 2d 05 3f
       0.062126227 0.27952036 0.24543655 0.52022934
0002e0 8d 14 b4 3e 69 ad ee bc 3c 49 52 be e1 96 b3 bd
       0.3517193 -0.029135423 -0.20535749 -0.08769012
0002f0 55 5b 6b be 9e 69 3a 3e 70 56 36 3d 4f 2a 92 bc
       -0.22984059 0.18204352 0.044516027 -0.01784244
000300 ab 2b 15 be 21 10 82 be a7 cf c3 3e cc 85 45 be
       -0.1456744 -0.2540293 0.38244364 -0.1928932
000310 dd 31 55 3e 07 39 91 3e f1 7f 0d be d6 c7 b7 3d
       0.20819803 0.2836382 -0.13818337 0.089736626
000320 49 8c ce 3d a8 02 0f bc 3c 2b bf 3d 11 78 94 3e
       0.10085351 -0.008728661 0.09334418 0.28997853
000330 44 9f 29 bd 09 1e de 3e ff cc 00 3f 0f 17 5a 3e
       -0.041411653 0.4338229 0.503128 0.21297859
000340 ec 73 10 3e 73 73 4f 3d cf e0 d9 bd ba 0e a7 3d
       0.1410672 0.05064721 -0.10638582 0.08157106
000350 dc eb 2c be c1 7d 53 3e c2 21 2c be fc f1 7f 3e
       -0.16886848 0.2065344 -0.16809753 0.24994653
000360 1a 89 f7 3a ea 1c d3 bd c5 e9 b0 bc 3b 3c 84 3e
       0.0018885464 -0.10308249 -0.021595845 0.25827202
000370 13 ca 44 bd a4 a1 54 bd 46 fb 1d 3e 14 70 71 3e
       -0.048044275 -0.051911965 0.15427884 0.2357791
000380 81 c4 9b be fe 84 a6 3e f8 ae c6 3e 45 74 8e be
       -0.30423358 0.3252334 0.38805366 -0.27823082
000390 52 ca 29 be 9b 19 b7 3d 1a 8b c9 3d 02 4b bd 3e
       -0.16581085 0.08940431 0.09840985 0.3697129
0003a0 2c 7b e3 bd 19 0b aa 3c ea fa 0f be 87 ba a8 be
       -0.111074775 0.020757245 -0.1406056 -0.3295481
0003b0 ca 8f 5a bd 09 82 61 3e 58 d6 0d 3e 1c 1a 1b be
       -0.053359784 0.2202226 0.13851297 -0.15146679
0003c0 3d 20 93 3d 40 07 18 3e f9 c2 30 3e 9b ba 4f 3d
       0.07183883 0.14846516 0.17261876 0.05071507
0003d0 1f 69 de 3d 5f 97 5f 3d 52 16 12 3a 16 92 41 3e
       0.10859894 0.054587718 0.0005572784 0.18903384
0003e0 9a c2 47 be 04 da 2f be 15 7a 50 be c0 5d ab be
       -0.19507828 -0.1717301 -0.2035907 -0.33469963
0003f0 4e 9a a9 3c e3 cc 0a bc e7 2e a7 be b8 07 83 3e
       0.020703461 -0.0084717 -0.3265297 0.25591826

feature.2.bias f4 [256]
000000 ec 73 ab 3c 69 d0 33 be 32 13 0d be 98 9b 31 3d
       0.0209293 -0.17559971 -0.13776854 0.043361276
000010 c7 6b 8e be 94 bc b9 bc 9e dc 5e 3d 86 33 08 3d
       -0.27816603 -0.022672929 0.054409616 0.03325226
000020 22 15 35 bc e5 92 c8 be 3b 0e 45 3e c5 63 3a bc
       -0.011052402 -0.39174572 0.1924371 -0.011376326
000030 83 91 94 3d 92 b3 14 3f 05 bf 30 3f 77 ea 5e be
       0.07254317 0.580865 0.6904147 -0.21769129
000040 96 15 62 be dc 07 ab bd 38 53 fb bd c3 7b 48 3e
       -0.22078547 -0.083511084 -0.12271732 0.19578461
000050 e4 ce 80 bd fb 4d 40 be e0 0c 35 bf 26 9f 88 3e
       -0.06289461 -0.18779747 -0.7072277 0.2668392
000060 e0 08 b3 be d9 88 8d 3d 7e b6 7f be 41 36 89 be
       -0.3496771 0.06910867 -0.24971959 -0.26799205
000070 19 57 15 bc 0d fe 55 be 28 bb 6f 3f 4d 33 44 3d
       -0.009115004 -0.20897694 0.9364495 0.047900487
000080 61 24 ba 3d 43 3a b3 3c 3f 85 12 3d 65 a9 8a bd
       0.0908897 0.021878367 0.035771605 -0.06770591
000090 86 80 f4 3e b4 68 1d 3e 35 bc 8a be e3 15 8f be
       0.47754306 0.15371972 -0.27096716 -0.27946386
0000a0 a3 8e 75 3d 2a 78 4a be 5f 20 57 be f1 cd 6b be
       0.059950482 -0.19772401 -0.21008442 -0.23027779
0000b0 7d 12 81 be 7e f3 6b bd 73 8a 1a 3e 18 63 9b bd
       -0.25209418 -0.05760526 0.15091877 -0.0758726
0000c0 9f b9 09 be 1f c9 77 be 7a 24 27 3d 9f 04 3f 3e
       -0.13449715 -0.24197815 0.04080627 0.18654107
0000d0 2a 5d 2a be 60 df 28 3c 13 6c 43 bd d6 e6 fb 3d
       -0.16637102 0.010307163 -0.04771049 0.12299888
0000e0 10 44 96 3d 3e 82 be be 98 0e e9 bd ac 03 00 bd
       0.07337201 -0.37208742 -0.11379737 -0.0312535
0000f0 5a 5e c6 bc 56 4b 09 be f4 fa 9e be 47 ab 5a 3d
       -0.024214912 -0.13407645 -0.31050837 0.053386
000100 36 c0 85 be 8b de 41 3e 59 ae f9 3d 83 18 4a 3f
       -0.26123208 0.1893255 0.12191457 0.7894365
000110 be 04 02 3f 0f eb bf be 30 91 da be ee 76 09 bc
       0.50788486 -0.37484023 -0.42688894 -0.008390171
000120 3d 9a f5 3d d1 f1 8a be 48 5c 8a 3e 6b 46 c8 3d
       0.11992309 -0.27137616 0.2702353 0.09779056
000130 c5 a3 d2 be 30 d7 4c be a0 a5 0f 3e 5d eb 0e 3e
       -0.4114057 -0.20003963 0.14028025 0.13956971
000140 56 ee 21 3f 61 b4 79 bd 73 10 48 3d 96 e1 fc be
       0.63254297 -0.06096304 0.048843812 -0.49390858
000150 3b ed 20 3e 87 3c b8 3d 65 e6 94 be 9c 92 14 3e
       0.15715496 0.0899592 -0.29082027 0.14509052
000160 d1 71 52 3f 26 39 96 3e 7b 18 9f be 67 54 a6 3a
       0.8220492 0.29340476 -0.31073365 0.0012689949
000170 ad 98 0d be 9e 91 49 be 0a 46 1d be a7 36 08 3f
       -0.13827772 -0.19684455 -0.15358749 0.5320839
000180 10 3a ed 3e f6 e4 59 be be 95 fc 3e 00 f8 3c 3e
       0.4633336 -0.21278748 0.49332994 0.1845398
000190 b9 a5 29 3d fa 1b bf bd bc cb 94 bd 52 c3 38 be
       0.04141781 -0.09331508 -0.07265422 -0.18043259
0001a0 1a af b1 be 25 b4 8c be 0d 96 27 3e 33 18 9b 3d
       -0.34703904 -0.2748119 0.16365834 0.07572975
0001b0 8c 8e 01 bf c2 50 28 3e ef fa 3f bc 23 ac 07 bd
       -0.50608134 0.16437057 -0.011717542 -0.033123147
0001c0 36 8a 73 be 6a e0 68 be 07 d9 74 be d6 39 40 3c
       -0.23783192 -0.22741857 -0.23910914 0.011732539
0001d0 05 90 9c 3d 94 ad f2 be 81 a0 13 3e e6 5c 54 be
       0.07644657 -0.47398055 0.14416696 -0.20738563
0001e0 71 d6 96 3d 98 ab fa 3d 67 3a 3e 3e 3c 2e ac be
       0.0736512 0.1223976 0.18576966 -0.33629024
0001f0 97 c1 6b 3d 5a 3b c8 bd 47 1a cd be 2e 9f 10 bd
       0.05755767 -0.097769454 -0.4005911 -0.035308056
000200 7b 2d 2c be 8b 8f 07 3e 59 e9 4f bd 10 a8 89 bd
       -0.16814224 0.13238351 -0.050759647 -0.067215085
000210 ac 6a a5 3d 47 fa 05 3e dd 7b 6a 3d a3 ea 94 3e
       0.08076987 0.13083754 0.05724703 0.29085264
000220 6d b3 90 3d 77 0a de 3e c2 27 a3 3e 84 4d 98 be
       0.07065473 0.4336736 0.3186627 -0.2974664
000230 6e 92 40 3f 01 c7 98 3d 44 b6 b4 be 96 c9 d1 be
       0.75223434 0.07459832 -0.35295308 -0.4097411
000240 70 7d 80 3e fb ea f1 3c 18 13 bd 3c 9a f4 3f be
       0.250957 0.029530993 0.023080394 -0.18745652
000250 69 7e 08 bf e1 9a 28 3e a9 d9 11 3d 52 2c 8c bd
       -0.53317887 0.16465332 0.035607968 -0.06844391
000260 22 a2 5e bd 5e 8e 7c bd 47 e4 f4 3d 83 10 da bd
       -0.05435384 -0.06165921 0.11957603 -0.106476806
000270 c6 f9 70 3e a9 f9 37 3f cb a0 10 3e a9 64 8a be
       0.23532781 0.71865326 0.14123838 -0.27029923
000280 4c 59 9a 3d 7f 2c ee 3a 7f e7 b8 be 1b d2 5a be
       0.07536563 0.001817122 -0.36114118 -0.21369211
000290 a6 db f5 bd d8 5e c7 be df 6f dd 3d 6b 6f f9 be
       -0.12004785 -0.38939548 0.10812353 -0.48717818
0002a0 00 ac 4e 3e ab c1 50 3d 83 96 57 bd 02 e3 d8 3e
       0.201828 0.050965946 -0.052633774 0.42360693
0002b0 8b 6f 2b 3f 64 8f a2 be 32 9b 50 be 86 73 d0 3d
       0.66967076 -0.31750023 -0.20371702 0.10178284
0002c0 75 e5 49 3e f0 4e dc 3d 82 fb 0c 3e a5 66 01 3e
       0.19716437 0.10757244 0.13767818 0.12636812
0002d0 d1 87 30 3d ea 51 6e bb 23 ee e0 be 55 c5 55 3e
       0.043098275 -0.0036364743 -0.43931684 0.20876057
0002e0 ec ae da be b3 1a 03 3f 6f a0 18 3e 2f 60 dc be
       -0.4271158 0.51212615 0.1490495 -0.43042132
0002f0 93 5a 07 be f9 55 42 3d f8 7a c7 3d 1f 8a 80 3d
       -0.13218145 0.04744527 0.09740251 0.062763445
000300 ec 12 67 3e 75 df bd be 39 a8 e8 be a7 a3 83 3e
       0.22565812 -0.37084547 -0.45440844 0.25710794
000310 57 8a a8 be ea 82 16 bf 28 34 3a 3f cc 12 b9 be
       -0.32918045 -0.5879351 0.72735834 -0.36147153
000320 58 36 28 3e 73 4a 0f be 6d 2e 4d 3d ad ae 10 3f
       0.1642698 -0.13993244 0.050093103 0.56516534
000330 1e df b5 bd 76 4e 11 3e fa 3c 0f be 06 bd 34 3f
       -0.08880447 0.14190087 -0.13988104 0.70600927
000340 ea cd 00 be cb 05 b7 be 4a 44 f5 3e 90 e7 7c bd
       -0.1257855 -0.35746607 0.47903663 -0.061744273
000350 74 c9 8a 3e d2 02 b8 3d 88 36 9f bd 2f 8a a8 bc
       0.27106822 0.08984913 -0.07774073 -0.020573704
000360 73 f1 16 3c 86 e1 aa 3c da ef 25 be 54 c5 ab 3d
       0.009212839 0.020859491 -0.16204777 0.08387247
000370 7b 93 68 3e ef 81 46 3e 36 2c 97 3d 59 96 1a be
       0.2271251 0.19385503 0.073814794 -0.15096416
000380 68 dc 2e 3f 87 fe 1f 3e 65 4c a8 be 3c 8c de 3d
       0.68305063 0.15624438 -0.32870784 0.10866591
000390 9c fc 7b 3e a3 97 17 3e 86 e5 62 3d da 7d b1 be
       0.24608082 0.14803939 0.05539467 -0.3466633
0003a0 9c af a4 bd bc 81 0a 3d 7d 80 8d 3e 82 be 30 3f
       -0.08041307 0.03381513 0.2763709 0.6904069
0003b0 22 4f 3a be ba 27 e7 3e 79 ac a9 bd 7c 12 24 3c
       -0.1819425 0.45147496 -0.0828485 0.010014173
0003c0 29 a8 8d 3e 0a 18 9d 3c 7a cc 98 be 4d 6b 25 3f
       0.2766736 0.019176502 -0.29843503 0.64616853
0003d0 95 fd d6 bd dd 40 bc be ba b1 84 bd 18 ff 3e be
       -0.10497586 -0.36768237 -0.06479211 -0.18651998
0003e0 8f 9c 0e 3e 44 b7 05 be ef 9d ac bc 55 6e 2b 3d
       0.1392691 -0.13058192 -0.021071402 0.041853268
0003f0 76 1f b2 bc c0 2f d5 3b 80 48 31 be 16 90 55 bc
       -0.021743517 0.0065059364 -0.17312813 -0.013034841

value_stream.0.weight f4 [256, 256]
000000 bc 55 04 bf 0d 39 8b be d8 1f 24 bd 78 4d 3d bf
       -0.5169332 -0.27191964 -0.04006943 -0.7394633
000010 83 c6 2e bd e9 a4 e0 bc f3 2d 69 bf 69 a1 b7 be
       -0.042669784 -0.027422385 -0.9108574 -0.35865334
000020 26 5d 02 bf a8 7b 47 3e 35 cb c8 3c c9 3c 32 be
       -0.50923383 0.19480765 0.02451096 -0.17406
000030 13 09 0e be 0f b4 e7 3e 98 dc 85 3e 8f b1 0e 3e
       -0.13870649 0.4525456 0.26144862 0.1393492
000040 71 48 6d 3d e2 e1 51 bf 0f cc 9b be 3c be d5 be
       0.057930414 -0.81985295 -0.30429122 -0.417467
000050 f6 72 dc be c5 d3 a1 be f7 4f 47 bb 56 d8 6a be
       -0.43056458 -0.3160688 -0.0030412653 -0.22934088
000060 2f 84 9c bd 0d 7c 1f be 1a ca 66 be 44 ca 9e be
       -0.076423995 -0.15574665 -0.22538033 -0.3101369
000070 ed 8f b1 be 63 66 91 bd ce 1d 50 3e c4 cc 38 3e
       -0.3468012 -0.07099607 0.2032387 0.18046862
000080 ae 0d d3 bd e7 06 a2 3d 91 20 00 be b0 b9 57 be
       -0.103053436 0.07911473 -0.12512423 -0.21066928
000090 ea 28 70 3e 77 0f e6 be c7 01 3a be d1 48 14 bf
       0.23453107 -0.44933674 -0.1816474 -0.5792361
0000a0 18 02 7b be 4b d6 4c 3d 0d c2 33 be 57 75 c7 be
       -0.24512517 0.050009053 -0.17554493 -0.3895671
0000b0 dd 02 83 be a3 18 8b be e1 9a 4c 3b bb 11 8b be
       -0.25588122 -0.27167234 0.0031220245 -0.27161965
0000c0 c7 6c cd bd 78 c1 b8 bd 1c 9e 29 be e2 53 d3 be
       -0.10030513 -0.09021276 -0.1656422 -0.41274935
0000d0 1b cc 37 be d6 ed 53 be 6a 9e e5 be ac 17 90 3e
       -0.17948954 -0.20696196 -0.44847423 0.2814306
0000e0 c6 0f 80 be 5b db 8f 3b 7d 84 21 be ed a3 87 be
       -0.25012034 0.004390163 -0.15773197 -0.26492253
0000f0 c0 5c 68 bf e0 81 60 be 5d 4b 08 be e8 98 8e 3e
       -0.90766525 -0.21924543 -0.13309999 0.27851033
000100 f8 0f 90 3d 3c 0f 3c be f5 1d c1 be f1 5e b0 3d
       0.07034296 -0.18365186 -0.37718168 0.08611859
000110 a9 a0 93 bd bc cf 8f be 79 f5 c7 be ac 09 05 bf
       -0.07208378 -0.28088176 -0.39054468 -0.51967883
000120 ae ad de be bd 11 5b bd 95 ef 56 3c fb f7 3e be
       -0.43491882 -0.053483713 0.013118644 -0.18649285
000130 c7 f7 bb bd 0a 2d 18 bf 39 2e 1d bf d0 6f 6b be
       -0.09178119 -0.59443724 -0.61398655 -0.22991872
000140 85 7c ec 3d 89 86 09 be ce ce e0 be 2e e9 2f 3d
       0.11547188 -0.13430227 -0.4390778 0.042946987
000150 73 cd be bd 34 90 cd 3d 90 55 5e be c9 b7 12 be
       -0.0931653 0.1003727 -0.21712327 -0.14327921
000160 77 51 06 3d 36 53 d5 b9 10 c4 38 3d 79 03 f4 be
       0.032792535 -0.00040688523 0.045108855 -0.476589
000170 ae e4 79 be 20 82 24 bd 5c 14 03 3d e3 64 5a 3d
       -0.2440364 -0.04016316 0.032001838 0.05331887
000180 56 e3 a9 bd 5b 5a a8 3d 45 70 3e bd f7 37 15 bf
       -0.08295314 0.08220359 -0.046493787 -0.5828852
000190 0f bd 73 be 12 93 05 be 7b 6e cc 3d 1d 3b 33 bf
       -0.23802589 -0.13044384 0.0998201 -0.70012075
0001a0 67 3f df be 89 52 e3 3c 7d a3 71 be 35 9e 03 bf
       -0.4360306 0.027749317 -0.23597522 -0.5141328
0001b0 06 2b 04 be 9e 90 64 3e 08 26 a0 be 1f 92 07 be
       -0.12907037 0.22320792 -0.31279016 -0.13239335
0001c0 bc ce dd be b9 da ac 3d 4c 69 41 bd 59 85 8f be
       -0.43321788 0.084401555 -0.04721956 -0.28031424
0001d0 51 f6 b5 be 87 0f b5 bc e1 49 76 be 24 e2 bc bc
       -0.35539487 -0.02210213 -0.2405162 -0.023057051
0001e0 e7 29 1b bf 03 94 53 3d d2 78 36 bf 8e b9 a2 bf
       -0.6061081 0.051654827 -0.7127811 -1.2712877
0001f0 b6 85 ab bd 8b 09 31 be df 99 9a be c4 85 39 bf
       -0.08375113 -0.17288797 -0.3019552 -0.72469735
000200 b0 a2 af be 94 33 66 3e aa 7a b1 be c5 00 ad be
       -0.34303808 0.22480613 -0.34663898 -0.3378965
000210 c0 da dd be 75 8a 27 bf 66 f0 a2 be 6c be e7 be
       -0.43330956 -0.65445644 -0.31824034 -0.45262468
000220 57 54 30 3e 17 46 cb 3d 91 ec bc 3e 99 f2 1d 3d
       0.17219673 0.09925478 0.36899236 0.038561437
000230 33 98 b1 3c af 30 6b bd 05 7f 66 bd e8 d5 8a bd
       0.02167902 -0.057419475 -0.05627348 -0.06779081
000240 f7 32 ff be 98 bd 4c bd ed 72 03 bf d1 1c 2e 3d
       -0.4984357 -0.0499855 -0.5134724 0.04250795
000250 3f fe 2f be 4f f6 16 bf a1 01 c4 be c8 fe 0a bf
       -0.17186831 -0.5896959 -0.38282493 -0.54295015
000260 cd 59 1c be ca 5e df 3c 41 c2 8b 3e ad 93 0e be
       -0.15268631 0.027266879 0.2729664 -0.13923521
000270 07 87 0f bf 45 c3 fc 3d 81 f6 e9 bd 6d d2 55 bd
       -0.5606541 0.12341932 -0.1142397 -0.05220263
000280 de d0 c6 be 9c 73 de be a5 12 05 3e ae 86 23 3d
       -0.38831228 -0.43447578 0.12995394 0.039923362
000290 33 b2 20 bf 51 b2 e3 3d a0 e8 9c bd ff 28 c4 3c
       -0.6277191 0.111179955 -0.07661557 0.02394533
0002a0 69 23 15 be 3a 61 da bd ce 54 8a be 7e 1b a4 bd
       -0.14564289 -0.10663076 -0.27017826 -0.08013056
0002b0 38 d1 ef 3d b5 a1 5e be ea ae 56 be 0e 1c 3c bd
       0.11709827 -0.21741374 -0.20965162 -0.045925193
0002c0 49 d9 5f be 5e 53 4a be c2 b1 90 be 1c 6d 29 be
       -0.21860231 -0.19758365 -0.28260618 -0.16545528
0002d0 3d 4e e2 bd bc ba 51 3e e8 7b 7f bd 75 32 03 bf
       -0.11050079 0.2048139 -0.062374026 -0.51248866
0002e0 0e a1 00 bf 70 d3 ca 3c 8a a5 eb be 39 fa ac bc
       -0.5024575 0.024759024 -0.46024734 -0.02111541
0002f0 7b 3a 25 be e1 0c 67 be ed ad 52 bd ba 72 10 bf
       -0.1613559 -0.22563507 -0.0514354 -0.5642506
000300 c8 cb a4 bd 37 2b 1e be 6f 5e a7 bd 40 0a 89 bd
       -0.08046681 -0.15446173 -0.08172309 -0.06691408
000310 c2 af 93 be 35 c8 88 be 4c de 82 3d dc 1f 97 ba
       -0.2884503 -0.26715246 0.06390056 -0.001152988
000320 ab 38 bd be 88 ce 83 3e 47 b8 07 bf 05 65 cc bd
       -0.36957297 0.25743508 -0.5301556 -0.099802054
000330 21 91 4b be c1 7e 02 bf 09 f7 ea bd 6b 7b a8 3d
       -0.19879581 -0.5097466 -0.114728995 0.08226665
000340 58 89 63 3c 45 25 11 bf 69 2f f0 3e 15 5e ca be
       0.013887726 -0.56697494 0.4691117 -0.39524904
000350 69 ef 6a bf 2a 63 b9 3d db 63 aa 3c 58 29 8b be
       -0.9177156 0.09052117 0.020799568 -0.2717998
000360 eb b9 14 3e c5 e0 62 be 0f 43 96 be 3f 7a 06 bf
       0.14524047 -0.22156055 -0.29348037 -0.5253028
000370 9a a1 02 bf 7f ec 75 bf 80 8b fd be 5e 7f f6 3c
       -0.51027834 -0.9606399 -0.49520493 0.03009003
000380 3e 3a 3f bd 23 6c 17 be 27 d8 59 bd 9b 61 bc be
       -0.046686403 -0.14787345 -0.053184655 -0.36793217
000390 b1 ac 7b be 20 a0 25 bf a4 6a 72 bc 11 96 48 bf
       -0.24577595 -0.64697456 -0.014795933 -0.78353983
0003a0 9f c1 56 be 74 5e 91 be ff 5b 24 bf c1 25 11 bd
       -0.20972298 -0.28392375 -0.64202875 -0.035436396
0003b0 86 65 a9 bd 4e 64 23 3e 66 65 4a bd f5 d3 7c be
       -0.08271317 0.15956232 -0.049413107 -0.2469023
0003c0 02 1b 36 be 64 79 3a be 5e c6 23 3d 70 b5 a5 3e
       -0.1778374 -0.1821037 0.0399841 0.32364988
0003d0 59 cc 12 bf ab 9c 2a bf e2 85 17 be 4c 6c a5 3c
       -0.5734306 -0.66645306 -0.14797166 0.020193242
0003e0 9c 04 01 bf 2c d2 a9 3b 05 76 a0 be 53 7c 87 3e
       -0.5039766 0.005182525 -0.31340042 0.2646204
0003f0 9b dc 83 be d1 88 10 bf 0b f3 11 bf e4 eb 4d bf
       -0.25754246 -0.56458765 -0.5701148 -0.80438066

value_stream.0.bias f4 [256]
000000 79 33 01 3f 25 7a 06 3f b7 3a 09 be 9f ff f5 3e
       0.50469166 0.5253013 -0.13401304 0.48046586
000010 46 e6 80 3e 23 a3 df 3e d1 f8 78 3e 95 26 2c 3e
       0.25175685 0.4367915 0.24313666 0.16811593
000020 2a 69 bb 3e 66 80 19 be a6 1a 5e 3d 97 fc 33 3f
       0.3660367 -0.14990386 0.054224633 0.70307297
000030 b3 df 5b 3e e0 aa 83 3e 26 ff a3 3e 84 48 73 bd
       0.21472053 0.25716305 0.320306 -0.05939533
000040 39 a5 cd 3e 0e af 09 3f 11 93 c3 be 72 87 60 3d
       0.40165117 0.5378274 -0.3819814 0.05481667
000050 58 f7 e1 be cf 2b 17 3c ee 50 94 be 9b 21 6e 3d
       -0.4413402 0.009226753 -0.28967994 0.058137517
000060 b0 82 84 be d5 cf a4 3d f1 e6 84 3c 4d 5f ed 3e
       -0.25880957 0.08047453 0.016223403 0.4636177
000070 15 08 16 be bb d0 fb 3e 85 03 2a 3d ac 7f e5 3e
       -0.1465152 0.49182686 0.041507263 0.44823968
000080 fc 7d 49 3d e4 93 52 3c 9c fc 3a bd 5c 1f ae be
       0.049192414 0.012852643 -0.045651063 -0.340083
000090 e2 cf 9f 3e a4 cb a1 bc 87 d9 ed 3e 59 1c 18 3f
       0.3121329 -0.019750424 0.46455023 0.59418255
0000a0 67 0f d8 3c 2f 5d ff bc 3f 94 ab 3e 75 90 81 bd
       0.026374532 -0.031172363 0.3351154 -0.06326381
0000b0 5f 83 53 3e 81 9d 8a 3e ef 26 d8 3e 9d ec 36 3e
       0.20655583 0.2707329 0.42217204 0.17863698
0000c0 ac 45 9e 3e 98 6d a3 3d c3 d1 06 3f fc c2 e8 3d
       0.3091253 0.07979888 0.5266382 0.11365315
0000d0 dd 33 73 be 86 db 6d 3e cd af 2a 3c f7 5f 8a 3e
       -0.23750253 0.23228273 0.010417891 0.2702634
0000e0 4b be 8c bd d2 e4 2b 3f c0 3d b0 bc 10 3f 93 3d
       -0.06872233 0.6714603 -0.02151382 0.071897626
0000f0 98 7a 23 3e b7 db 09 3f ac 47 27 bc 2b 83 99 3e
       0.15964735 0.53850883 -0.010209959 0.29982886
000100 1b ff 90 3d cc eb 9e 3b e7 57 ac 3e 36 34 13 3f
       0.070799075 0.0048498865 0.33660814 0.5750154
000110 59 d6 b4 be c9 67 a2 3d bc 53 6b 3e 20 34 1b 3e
       -0.35319784 0.07929952 0.22981161 0.15156603
000120 c3 4a ac 3e ab 4f 44 bd 8c 99 da 3b e7 8d b3 3e
       0.3365079 -0.04792754 0.0066711362 0.350692
000130 b7 40 33 3f 23 80 af 3e 1e 0c 92 3d f9 3e 54 3f
       0.7002062 0.34277448 0.071312174 0.8290859
000140 c8 a2 6d 3e 77 4e 0c 3f be 30 d4 bc 54 75 b3 3d
       0.23206627 0.5480723 -0.025902148 0.08762613
000150 36 74 fb 3d b0 24 d8 3d 9a ae a0 be d8 db 0b 3f
       0.12278025 0.105538726 -0.3138321 0.5463233
000160 ab b7 4d 3e 75 d1 ee be 7a a2 28 3e c8 8f f0 3d
       0.20089595 -0.46644178 0.1646823 0.11746174
000170 90 fc 60 3d 07 87 16 3d 58 04 ac 3c f1 8f e9 bc
       0.054928362 0.036749866 0.020998165 -0.02851102
000180 08 15 98 3e af d6 b9 be c6 94 e1 3e 03 2f 19 3f
       0.29703546 -0.36296603 0.44058818 0.5983736
000190 07 45 be bd 59 49 07 bb c7 bb 71 3e e8 ca de 3e
       -0.0929051 -0.0020643084 0.23606788 0.4351418
0001a0 4b e8 6f 3d 4a bc fa 3e cd dd 8b 3e 3a 3e c0 3e
       0.05857114 0.48971778 0.27317658 0.37547475
0001b0 c9 14 a6 3e 0c 73 1b 3d e2 17 27 3f cd d0 b0 3e
       0.32437733 0.037951514 0.6527082 0.34534302
0001c0 9b 5f 17 3e 8c 43 2d 3f 57 da 6c 3e 1c 21 09 be
       0.14782564 0.67681193 0.23130165 -0.13391536
0001d0 56 f6 46 3d 92 91 c5 3e b3 99 f6 3d 11 66 09 bd
       0.048574768 0.38587624 0.120410345 -0.033544604
0001e0 a8 f1 0b 3f d1 a9 14 3f dd 51 01 bf a2 4d 52 bd
       0.54665613 0.5807162 -0.5051554 -0.051343568
0001f0 d9 d9 b5 3e e4 22 d8 3e fc 72 7e bd 09 c7 d8 3d
       0.35517767 0.4221412 -0.062121376 0.10584838
000200 cd 2f f0 3c 05 6a ae 3b 27 70 0b 3e be f2 59 3e
       0.029319668 0.005322697 0.13617001 0.21284005
000210 98 8e 20 3e 97 c1 ba 3e c9 e7 a8 3e 29 8d 8d 3e
       0.15679395 0.36475822 0.32989338 0.2764676
000220 c2 50 e8 3b a0 e4 11 3e 8f 81 75 3e e0 24 af 3e
       0.007089705 0.1424737 0.23975204 0.3420782
000230 00 f6 c7 3d e0 0d 41 3e 7e 04 70 ba b3 63 90 be
       0.09763718 0.18852949 -0.0009155943 -0.28201064
000240 17 5a 9f bc c1 5b 1c 3f 80 e1 7e be 3b c3 c4 3e
       -0.019452138 0.61077505 -0.24890709 0.384302
000250 5b 89 e0 be 08 a1 c9 3e 7c 60 d2 3e 4f e2 96 3e
       -0.43854794 0.3938067 0.41089237 0.29469535
000260 65 74 86 3e 8a 6d 18 3e dc c7 2e 3e c4 55 4b 3e
       0.26260677 0.14885536 0.17068428 0.19856936
000270 c9 ad 85 3d 9c 04 c1 3c af 98 09 3e d6 92 56 bd
       0.065272875 0.023561768 0.1343715 -0.052386127
000280 72 39 11 be 73 47 ec 3e d0 63 24 3c 85 e8 a8 3e
       -0.1418207 0.4614826 0.010033563 0.32989898
000290 79 85 fb 3e ef 4d 0b 3f 7d 29 37 3f 23 54 0a 3f
       0.4912527 0.5441579 0.7154768 0.5403463
0002a0 ef f1 04 3f 3a 59 dc 3e fb 7e cf 3e a0 30 6a 3e
       0.5193166 0.43036824 0.40526566 0.22870111
0002b0 ef 05 b4 3e 99 68 cf 3e c4 af cc 3d e8 7c e2 3e
       0.35160777 0.4050949 0.09994462 0.4423592
0002c0 35 21 2b 3e bb 5f 01 3f 83 d6 c3 be 76 33 9f 3e
       0.16711886 0.505367 -0.38249597 0.3109395
0002d0 71 11 96 3e a3 66 03 3f f8 08 97 3d 69 92 3d 3d
       0.29310182 0.51328486 0.073747575 0.046282206
0002e0 dd 87 a9 3e e7 06 06 3f 4d 12 10 3e e8 68 66 bd
       0.33111468 0.5235428 0.14069481 -0.05625239
0002f0 47 10 52 be bc d5 b2 3e b0 88 6f bd 05 b9 06 3f
       -0.20514022 0.3492869 -0.058479965 0.5262607
000300 1b 7c 98 3e 28 bb 00 3f 08 95 0c 3e 5b 1c 12 3e
       0.29782185 0.5028558 0.13728726 0.14268629
000310 80 3b 61 bd d0 54 ce bd fa e7 cb 3e c8 ed 07 3e
       -0.054988384 -0.100747705 0.39825422 0.132743
000320 91 44 30 3f 87 59 55 bc b9 3e 47 3d dc fe 24 bd
       0.68854624 -0.013021833 0.0486438 -0.040282115
000330 6c 17 3c 3e 33 c0 02 3f 33 13 57 3e 8d 36 e6 3e
       0.1836831 0.5107452 0.21003418 0.44963494
000340 2a e7 d7 3e d2 e9 24 3d 40 74 8b 3e 75 85 1a 3d
       0.42168552 0.04026205 0.2723713 0.03772493
000350 44 1c 95 3e d6 3b 84 be f1 00 7d 3e f9 cf 2d 3e
       0.29123127 -0.258269 0.2470739 0.16973867
000360 12 09 97 bd fd 3d c1 3e ec 3a 09 3e 09 80 c0 3e
       -0.07374777 0.37742606 0.13401383 0.37597683
000370 59 0a af 3e e7 c2 16 3f 4b 2a 34 3f b5 7a e5 bd
       0.34187582 0.5889115 0.70377034 -0.11205045
000380 4f f9 4d 3e 84 9d 39 3d 12 f9 2f be 55 8a 0e be
       0.20114635 0.045316234 -0.17184857 -0.13919957
000390 c4 af 11 3f b9 fb a3 3e 73 18 ac 3e a7 5c ec 3c
       0.5690882 0.32027987 0.33612403 0.028852774
0003a0 e8 92 a5 3e b4 0f 9b 3e 13 87 dd bd b7 cc 13 3f
       0.32338643 0.30285418 -0.10816779 0.57734245
0003b0 5e a7 e4 3e c9 40 b5 3e 85 57 d3 3d c6 6d 1c 3f
       0.4465894 0.3540099 0.103194274 0.61105
0003c0 0e 44 f5 bd 24 c8 d9 3d 32 79 ad 3e 05 12 01 3f
       -0.11975871 0.10633877 0.33881527 0.5041812
0003d0 a1 5e fa 3e a8 88 bc be c0 85 b9 3d ee 1b cd 3e
       0.4890032 -0.3682301 0.09058714 0.4006037
0003e0 45 83 c5 3e 7c 13 e9 3d d1 d0 09 3f 8c 24 ae 3e
       0.38576713 0.113806695 0.53834254 0.34012258
0003f0 be 07 ed 3d 95 c4 d9 3e 5a 81 cf 3d 52 f2 fb 3e
       0.11573742 0.42532793 0.10132094 0.49208313

value_stream.2.weight f4 [1, 256]
000000 4a 0b 71 3e 17 90 82 bf 84 e1 9b 3f 9e de a4 bf
       0.23539463 -1.0200223 1.2178197 -1.2880437
000010 c1 c2 5f bf 86 22 84 bf 36 9d 44 bf 6c 6e ff 3e
       -0.87406546 -1.0323036 -0.76802385 0.49888933
000020 ed 33 4b bf f3 2d a5 bf aa 77 73 bf 8b 4d 92 bf
       -0.7937611 -1.2904648 -0.9510447 -1.1429914
000030 db 67 8f 3f b6 be 5d bf 7f db 56 3f 0b 7d f3 3e
       1.1203569 -0.86619127 0.83928674 0.47556338
000040 15 56 d6 3e bf 9e c1 3e 0a 1f 5d bf a8 0e a0 3e
       0.4186255 0.37816426 -0.86375487 0.31261182
000050 9b a7 fc be 2d e5 06 c0 60 57 07 bf 6b 9c 9b 3f
       -0.49346623 -2.1077378 -0.528677 1.215711
000060 e2 01 73 be 8e b6 f3 3e 3d e6 fd 3e 51 6e ac bf
       -0.23731187 0.47600216 0.4958972 -1.3471166
000070 20 8a 79 3f 51 7b 83 3e 95 8e 5e 3f 0f 78 8a bf
       0.9747639 0.2568002 0.8693631 -1.0817889
000080 5f 2e 8f 3f 2e 69 14 3f bb da f1 3e db bc 1a bf
       1.1186026 0.5797299 0.4723719 -0.6044442
000090 2b de e3 3e 9a 7b c2 3f d1 d9 da bf 05 01 95 bf
       0.44505438 1.519397 -1.7097722 -1.1640936
0000a0 87 b5 f6 3e f3 ad 1c 3f 8a 1d 73 bf 23 c1 f2 bf
       0.4818537 0.61202925 -0.9496695 -1.8965191
0000b0 88 47 5d 3f 04 78 5e bf 33 6d bd 3e c4 fc 90 3f
       0.86437273 -0.8690188 0.36997375 1.1327138
0000c0 4d 9b 9a bf 3f 17 e3 3e 50 37 05 3f a8 9a 97 3f
       -1.2078644 0.44353673 0.52037525 1.1844072
0000d0 ef 71 90 be 56 29 92 3f 39 d9 03 c0 82 dd f4 3e
       -0.28211924 1.1418865 -2.0601332 0.47825247
0000e0 12 43 08 3f d4 95 a0 bf 5f e4 b3 3f c0 9b 91 3f
       0.5322734 -1.2545724 1.4054068 1.1375656
0000f0 b2 22 6f 3f 72 85 d8 bf 9e 09 11 3f 80 92 b2 bf
       0.93412316 -1.6915724 0.566553 -1.3950958
000100 cd fc 09 c0 ea 9e 20 3f b1 12 08 3f 75 14 9d bf
       -2.1560547 0.62742484 0.5315352 -1.2271868
000110 b4 65 ee be f4 ec 9e 3f 1a 53 b3 3e 8f 31 e0 3e
       -0.46561968 1.2416062 0.3502434 0.4378781
000120 ab d9 fd 3e 30 a8 a4 bf e1 1d aa 3f 85 bf 89 bf
       0.4958013 -1.2863827 1.3290368 -1.0761572
000130 fc d7 8e bf 01 4a 9a bf 48 5a 06 c0 5b 13 b3 bf
       -1.1159663 -1.2053834 -2.0992603 -1.3990282
000140 19 70 92 bf 28 b1 9a 3e a8 a3 b2 3f c4 f3 e1 3e
       -1.144046 0.30213284 1.3956194 0.4413129
000150 7a ef 32 bf 31 66 92 3f a7 7b d2 be de da a6 3e
       -0.6989666 1.1437436 -0.41109964 0.32588857
000160 1c 67 be 3e 7b 94 f1 be 52 0b 6d 3f 28 f7 b7 bf
       0.3718804 -0.47183594 0.925954 -1.4372301
000170 12 90 ef 3e 08 99 56 3f a7 e7 04 3f dc d8 0a 3f
       0.46789604 0.8382726 0.51915973 0.5423715
000180 87 c4 27 3f 1a 5b ea be b6 0e f0 3e e7 9e d5 bf
       0.6553425 -0.4577263 0.46886224 -1.6689118
000190 f9 b0 32 bf 61 f1 04 3f 9e c0 83 bf a9 7b f2 3e
       -0.6980129 0.51930815 -1.0293157 0.4735997
0001a0 b5 8d 06 3f f2 6a df bf b9 c9 88 bf 99 69 c5 3e
       0.5255998 -1.7454512 -1.0686561 0.38557127
0001b0 27 71 ae bf 37 91 08 c0 01 b8 da bf ed 3c 30 3f
       -1.3628281 -2.1338632 -1.7087404 0.68842965
0001c0 ed 3f a0 3e 0c 49 92 bf b0 79 8e 3f 4c c8 7c bf
       0.31298772 -1.1428542 1.1130886 -0.9874313
0001d0 2c 99 74 3f 50 f6 c3 bf e7 e1 8c bf 68 a0 06 bf
       0.9554622 -1.5309544 -1.100644 -0.5258851
0001e0 37 19 83 bf 70 01 9e bf c5 ff bf be 8a 01 79 3f
       -1.024207 -1.2344189 -0.37499824 0.97267973
0001f0 f7 a5 a5 bf 80 55 4b bf cc 6e 02 3f 66 e8 d5 bf
       -1.2941273 -0.7942734 0.5095031 -1.6711547
000200 5d d5 30 3f 53 10 a1 bf 8c 0b 14 3f 5c 9e a4 3f
       0.69075567 -1.2583107 0.5783012 1.2860827
000210 0d 53 a8 3f 82 d4 94 bf 6c 0d a6 bf 00 0a b7 3e
       1.3150345 -1.1627352 -1.2972846 0.35749817
000220 8d 44 72 3f c2 a0 99 3e e5 f9 97 bf e9 7a d5 3e
       0.9463585 0.3000546 -1.1873137 0.41695336
000230 68 de 03 3f 90 9d de 3e ec 12 05 c0 e6 8a b4 bf
       0.5151124 0.43479586 -2.07928 -1.4104888
000240 e0 50 ae 3f 37 9a c7 bf 4b 37 a1 bf b9 1c 87 bf
       1.3618431 -1.5593938 -1.2594999 -1.055564
000250 4e 0c d2 be 81 7a bc bf 16 8a 83 bf fe cd 96 bf
       -0.41025013 -1.4724885 -1.0276515 -1.1781614
000260 8f d5 86 3f 16 ed 98 3f ad f8 91 3f 5e a9 68 3f
       1.0533923 1.1947353 1.1404015 0.90883434
000270 a4 58 a8 3f 47 b6 a0 3f ed d9 be 3e 49 3c 1a 3f
       1.3152051 1.2555627 0.3727564 0.6024824
000280 e2 b6 7f bf b3 46 d7 3e 6e 26 97 3f 99 11 b1 bf
       -0.9988843 0.42046127 1.1808603 -1.3833495
000290 84 3f e6 bf b9 4c 95 bf 49 f1 d8 bf d2 51 ea bf
       -1.7988133 -1.1664039 -1.6948634 -1.830622
0002a0 8c 68 9c 3e 3d 79 61 bf e9 44 92 3e 51 69 60 bf
       0.30548513 -0.8807562 0.285682 -0.876607
0002b0 95 8c 85 bf 93 77 86 bf 4c a0 14 c0 bc 13 32 3f
       -1.0433527 -1.0505241 -2.3222837 0.6956136
0002c0 b4 05 7a 3f fc 85 8f 3e e2 00 40 be 82 60 c0 bf
       0.9766495 0.2803191 -0.18750337 -1.5029452
0002d0 0d 06 01 3f 3e 96 52 3e 4e 8a b5 bf 28 bd bb bf
       0.5039986 0.20565125 -1.4182832 -1.4667101
0002e0 2b a9 99 bf b5 32 fc 3e 25 29 92 3f d2 b9 24 bf
       -1.2004751 0.49257436 1.1418806 -0.6434604
0002f0 64 fc a4 be 67 9a 9f bf 69 48 b6 bf c6 ec e6 bf
       -0.3222381 -1.2468995 -1.4240848 -1.8041008
000300 8b ae 0f 3f 2e 19 a5 3e df 80 a2 3f ee ae f9 3e
       0.56125706 0.32245773 1.2695578 0.48766273
000310 c1 77 bb 3f 09 c1 de bf d9 8c 92 bf 1e e0 a6 3f
       1.4645921 -1.740266 -1.1449233 1.3037145
000320 9d 35 93 bf f7 76 89 3f 51 0d a7 3f 05 94 a2 3f
       -1.1500736 1.073943 1.3050939 1.2701422
000330 cb c9 93 3f 40 3b c1 bf bd 74 87 3f 60 04 b2 bf
       1.1545957 -1.5096207 1.0582501 -1.3907585
000340 9d 2e b6 3e a6 32 06 c0 9d ca 74 3f 40 7a 17 3f
       0.35582438 -2.0968413 0.95621663 0.59170914
000350 ef 8b 83 bf a2 01 44 bf 04 08 95 bf e0 3c d4 bf
       -1.0277079 -0.7656499 -1.1643071 -1.6581078
000360 aa 5d 83 3f a3 b3 b1 bf a9 08 62 bf 4a 7e 77 bf
       1.0262959 -1.3882946 -0.88294464 -0.96677077
000370 71 e4 6e bf 90 d5 ca 3e 11 72 9b bf af 4b a8 bf
       -0.93317324 0.3961606 -1.2144185 -1.3148097
000380 07 40 60 3f 66 44 66 3f d1 e1 0e bf f9 6a 1b bf
       0.875977 0.8994812 -0.5581332 -0.607101
000390 f1 88 de bf 08 04 24 c0 6a 1f a5 3e 92 fc 07 c0
       -1.7385541 -2.562746 0.3225053 -2.1247907
0003a0 39 ac a2 3e 89 b5 b8 3e bb c9 ac bf 6f d8 d0 bf
       0.3177202 0.36076 -1.3499063 -1.631605
0003b0 cb 08 e3 3e b1 49 95 bf dc 87 10 3f 72 d6 f0 bf
       0.44342646 -1.1663114 0.56457305 -1.8815444
0003c0 ec fa b8 bf 57 9c 35 3f 35 45 07 3f 18 77 fa 3e
       -1.4451575 0.7094168 0.52839977 0.48918986
0003d0 cd 40 dd bf 63 96 48 bf 5d cb a2 3f f7 7d a4 bf
       -1.7285401 -0.7835447 1.2718312 -1.2850941
0003e0 0a e9 8f bf 2f d0 6b 3f 26 b4 d6 3e 7c 0d cf 3e
       -1.1242993 0.9211454 0.41934317 0.40439975
0003f0 26 2d 9e bf 17 47 9d bf b6 ea 73 3f c4 33 9a bf
       -1.2357528 -1.228732 0.95280015 -1.2047048
