active_slam_rl/training_output_slam/20260126_164625/d3qn_ep640.pth (torch, 901794 bytes, 11 tensors)

feature.0.weight f4 [256, 100]
0	0xbe4a83bc	-0.19776815
1	0xbe26d649	-0.16292681
2	0x3d18d095	0.037308294
3	0x3e0e36ee	0.13888142
4	0xbd94b91e	-0.07261871
5	0x3d132d8e	0.035932116
6	0xbb8ea709	-0.0043534082
7	0x3cb56ddb	0.02214711
8	0x3ded202c	0.11578402
9	0x3d8153d5	0.06314818
10	0xbcfbe557	-0.030749006
11	0x3dc61719	0.09672374
12	0x3c72105e	0.01477441
13	0xbdca8024	-0.09887722
14	0xbdd9c694	-0.10633579
15	0x3de07f3c	0.10961768
16	0x3df0909f	0.11746334
17	0x3d2293ef	0.03969186
18	0x3da5bdf6	0.08092873
19	0x3b25f6ed	0.0025324181
20	0x3d82fb6a	0.0639561
21	0x3e10ab61	0.14127876
22	0x3e23e665	0.16005857
23	0x3cbb01a6	0.022827934
24	0x3d8dc222	0.069217935
25	0x3cbf1a8d	0.02332809
26	0xbde4d546	-0.11173491
27	0xbd3fdbf2	-0.046840616
28	0xbe22dc2d	-0.15904303
29	0xbe4d4871	-0.20047165
30	0x3d5b06e2	0.05347336
31	0xbde50252	-0.11182083
32	0xbe0963ab	-0.13416927
33	0xbd72f975	-0.059319932
34	0xbd676ff1	-0.05650324
35	0xbdb38cbb	-0.087670766
36	0xbddf613f	-0.1090722
37	0xbe41103f	-0.18853854
38	0xbdd270a0	-0.10275388
39	0xbdafd9cb	-0.085864626
40	0xbddf2c46	-0.10897116
41	0xbe4cd5ba	-0.20003405
42	0xbe34b756	-0.17648062
43	0xbe160377	-0.14649759
44	0xbd2075ad	-0.039174724
45	0xbdc728e3	-0.097245954
46	0xbe101294	-0.14069587
47	0xbe40b23f	-0.18817995
48	0xbe260b95	-0.16215356
49	0x3c9a1bef	0.018812148
50	0xbe176378	-0.14784038
51	0xbe1324dc	-0.1436953
52	0xbd430bb4	-0.047618583
53	0xbcb48378	-0.022035345
54	0xbd277c33	-0.04088993
55	0xbdeb2e6c	-0.11483464
56	0xbda168cd	-0.07881317
57	0xbd984caa	-0.074364975
58	0xbd94f4ab	-0.07273229
59	0x3e06cd8c	0.13164347
60	0x3d31a7bb	0.04337285
61	0x3e9f0d85	0.31065002
62	0x3e0c1b5f	0.13682316
63	0x3d99f741	0.07517863
64	0x3de47935	0.11155931
65	0x3d49c8cf	0.04926377
66	0x3e42e827	0.19033872
67	0x3d46c314	0.048525885
68	0x3d3b5fac	0.045745537
69	0x3e71ebb3	0.23625068
70	0x3b913efd	0.0044325576
71	0x3e2737b7	0.16329847
72	0x3dddbe83	0.10827353
73	0xbd93247b	-0.071846925
74	0x3ddd35d5	0.10801283
75	0xbd9f779f	-0.07786488
76	0xbcd98c28	-0.02655609
77	0x3d172225	0.036897797
78	0x3e036154	0.12830096
79	0x3e03602c	0.12829655
80	0xbe25a406	-0.16175851
81	0xbe3827a2	-0.17983869
82	0xbe13907d	-0.14410587
83	0xbcb6c506	-0.022310745
84	0xbe28e2ed	-0.16492815
85	0xbdffb94e	-0.12486516
86	0xbe10c815	-0.14138825
87	0xbe6fb5a6	-0.23409137
88	0xbe382968	-0.17984545
89	0xbe080426	-0.13282833
90	0xbe605563	-0.21907572
91	0xbe4b7fdd	-0.19872995
92	0xbe92dda9	-0.28684738
93	0xbe72b883	-0.23703198
94	0xbe09c51c	-0.13454098
95	0xbe3ad5ee	-0.1824567
96	0xbe719f4e	-0.23595926
97	0xbea4cf56	-0.32189435
98	0xbe99b88b	-0.30023608
99	0xbeea95e8	-0.45817494
100	0x3e811630	0.2521224
101	0x3e87a629	0.26493958
102	0x3e41974d	0.18905373
103	0x3e2c1a57	0.16806923
104	0x3d805009	0.062652655
105	0x3e3fa014	0.18713409
106	0x3dd1eb2e	0.10249935
107	0x3e198ce7	0.14995156
108	0x3d5c3af1	0.05376715
109	0x3d764012	0.060119696
110	0xbc8e325d	-0.017358
111	0x3d0c7207	0.034288432
112	0xbe1431b2	-0.14472082
113	0xbe3a3a30	-0.1818626
114	0xbdd6d835	-0.10490457
115	0xbe8adae0	-0.27120113
116	0xbeb1d496	-0.34732503
117	0xbe959fc6	-0.2922346
118	0xbe34a1a1	-0.17639782
119	0xbe188a6c	-0.14896554
120	0xbe9f56d7	-0.3112094
121	0xbe02b8fd	-0.1276588
122	0xbe801f89	-0.2502406
123	0xbe348021	-0.17627002
124	0xbd518cdf	-0.051159736
125	0xbdfe401d	-0.124145724
126	0xbe6015c4	-0.21883303
127	0xbe8737e1	-0.2640982
128	0xbe60864e	-0.21926233
129	0xbe6284c1	-0.22120954
130	0xbe53d159	-0.20685329
131	0xbe717372	-0.23579195
132	0xbe3e9a36	-0.18613514
133	0xbe498bf6	-0.19682297
134	0xbe93b8ad	-0.28851834
135	0xbe278fe7	-0.16363488
136	0xbe5aeedf	-0.21380185
137	0xbea8d96b	-0.32978377
138	0xbe75b081	-0.23993112
139	0xbe8b5874	-0.27215922
140	0xbdb6935d	-0.08914826
141	0xbe2243c3	-0.15846162
142	0xbe22383b	-0.15841763
143	0xbd8c39f9	-0.06846995
144	0xbe12d755	-0.14339955
145	0xbe341658	-0.17586648
146	0xbe16ba10	-0.14719415
147	0xbd9425c8	-0.07233769
148	0xbd451e69	-0.048124705
149	0xbe211a5d	-0.15732713
150	0xbdac6873	-0.084183596
151	0xbe45ed69	-0.19328846
152	0xbe3e2537	-0.18568884
153	0xbe0c0c13	-0.13676481
154	0xbe0d6692	-0.13808659
155	0xbe3ba266	-0.18323669
156	0xbd479a7a	-0.048731305
157	0xbcb55a43	-0.022137767
158	0xbd971003	-0.07376101
159	0xbe515049	-0.20440783
160	0xbe2d221f	-0.16907547
161	0xbd18b466	-0.037281416
162	0xbe1cfe8e	-0.1533148
163	0xbd87ad8c	-0.06624898
164	0xbdad9ee2	-0.0847757
165	0x3c3b579b	0.011434461
166	0xbd27454b	-0.040837567
167	0x3d1a80a7	0.03772035
168	0xbdba725b	-0.09103843
169	0xbd5241dc	-0.05133234
170	0x3b4be882	0.0031113927
171	0xbde85532	-0.11344375
172	0xbd745c37	-0.059658255
173	0xbd6818ee	-0.0566644
174	0xbd1dce9c	-0.038527116
175	0xbe02739f	-0.12739418
176	0x3d0bc1cc	0.034120366
177	0xbe1bca47	-0.15213881
178	0xbdb4e52d	-0.08832774
179	0xbdfabd17	-0.12243097
180	0xbda4827f	-0.08032703
181	0xbe120eb4	-0.14263421
182	0x3cbb65f2	0.02287576
183	0xbdaa5b50	-0.08318198
184	0xbd51f4a2	-0.05125869
185	0xbe08bc70	-0.13353133
186	0x3c06fcdd	0.008238998
187	0xbd603c3d	-0.054744948
188	0xbdbf000c	-0.09326181
189	0xbda707fe	-0.08155821
190	0x3dbf7c41	0.093498714
191	0x3da176d5	0.078839935
192	0x3a6abb8c	0.0008954338
193	0xbdc6adfe	-0.09701155
194	0x3c334785	0.010942345
195	0xbcaae65c	-0.020861797
196	0xbe0a9b46	-0.13535795
197	0xbe00dd38	-0.12584388
198	0xbdfc59d2	-0.12321819
199	0xbd803a0b	-0.06261071
200	0x3e19d3ee	0.15022251
201	0x3d6a4b0f	0.057200488
202	0x3d1c8340	0.038211107
203	0x3d9caa2f	0.076496474
204	0xbc0a3b6a	-0.008437017
205	0x3d2fe7f1	0.042945806
206	0x3e3e0c40	0.1855936
207	0x3da59966	0.08085899
208	0x3e268102	0.1626015
209	0x3dcfd6c1	0.10148383
210	0x3e57bcd3	0.21068124
211	0x3b9e3987	0.004828635
212	0x3e724321	0.2365842
213	0x3ce4dc4b	0.027937075
214	0xbda9db9b	-0.082938395
215	0xbe0dd6a3	-0.13851409
216	0xbd915e3f	-0.07098054
217	0x3b3c9d55	0.00287803
218	0x3de76724	0.112989694
219	0x3e34c5a0	0.17653513
220	0x3d889867	0.066696934
221	0xbd4d2eff	-0.050093647
222	0x3c86e7b3	0.016467905
223	0xbde14362	-0.109991804
224	0xbe1cdb81	-0.15318109
225	0xbcd26fdb	-0.025688102
226	0xbe0124dc	-0.12611717
227	0xbe0acd43	-0.13554864
228	0xbdf8e8b1	-0.12153757
229	0x3d3d6ccc	0.046246335
230	0x3d24e0c3	0.040253412
231	0xbd31a4ca	-0.043370046
232	0x3e2f723c	0.1713342
233	0x3df7d12e	0.12100445
234	0x3d3a2ae0	0.045451045
235	0x3d220aad	0.039560962
236	0x3e30e17b	0.17273514
237	0x3d3f4e0b	0.046705287
238	0xbde3bc7e	-0.111199364
239	0xbc3f3b78	-0.011671893
240	0x3e001e62	0.1251159
241	0xbd064de9	-0.032789145
242	0xbd0b1fde	-0.033965938
243	0xbe0781d4	-0.13233119
244	0xbd61c244	-0.055116907
245	0xbe800a57	-0.2500789
246	0xbea37f6a	-0.31933147
247	0xbe80b00e	-0.2513432
248	0xbdf940cd	-0.12170563
249	0xbe55a0a0	-0.20862055
250	0xbe85dcac	-0.26144922
251	0xbe868327	-0.26271936
252	0xbdade5e0	-0.08491111
253	0xbe530cfc	-0.20610422
254	0xbdf0d236	-0.117588446
255	0xbe723460	-0.23652792

feature.0.bias f4 [256]
0	0xbee6c93e	-0.4507541
1	0x3e018179	0.12647046
2	0x3ebb3704	0.3656541
3	0xbe8700aa	-0.26367694
4	0xbf4c97e1	-0.7991925
5	0xbf06f5dd	-0.5271891
6	0x3f022531	0.50838
7	0x3ecf2f23	0.4046565
8	0x3ed9d13e	0.42542452
9	0xbdbe7ec5	-0.09301523
10	0x3eb6a49b	0.3567246
11	0x3dce3723	0.1006911
12	0xbe7db7d9	-0.24777164
13	0xbeae660f	-0.3406224
14	0xbe9633bf	-0.29336354
15	0x3eb39272	0.35072666
16	0x3eb5e720	0.35527897
17	0x3e07f521	0.13277103
18	0x3e954398	0.29153132
19	0x3c41cd0c	0.011828672
20	0x3b6b121c	0.0035868948
21	0xbdb7bdf9	-0.08971781
22	0xbe7544e4	-0.23952061
23	0x3e938181	0.2880974
24	0xbf1677be	-0.5877646
25	0x3d3bd119	0.045853708
26	0x3ef88730	0.4854064
27	0xbec7c3c1	-0.39016536
28	0xbf365df3	-0.71237105
29	0x3df57eb5	0.11987058
30	0x3eb4966a	0.35271007
31	0x3e8b85bf	0.27250478
32	0x3e0d7276	0.13813195
33	0xbee847e1	-0.4536734
34	0xbefd7ac1	-0.49507716
35	0xbd1b7e93	-0.037962507
36	0x3e1e09ba	0.15433398
37	0xbca33be1	-0.019926013
38	0xbed61107	-0.41809866
39	0x3f17c55a	0.5928551
40	0x3ede8fbf	0.43469045
41	0x3e549ee5	0.20763738
42	0x3ea97768	0.33098912
43	0xbe86e41c	-0.2634591
44	0xbe58c2c6	-0.2116805
45	0x3dc8b759	0.09800596
46	0xbea18158	-0.31543994
47	0x3f114424	0.567446
48	0x3e11df79	0.14245404
49	0x3ec358fa	0.3815382
50	0x3e6a0f81	0.22857477
51	0xbf20ced3	-0.6281559
52	0xbeb06038	-0.3444841
53	0x3d2e7666	0.042593382
54	0x3d49c1a3	0.049256932
55	0xbdd8312a	-0.10556252
56	0x3e8080bd	0.2509822
57	0x3ed91874	0.4240147
58	0xbea650ef	-0.32483622
59	0xbe7df9d5	-0.24802335
60	0x3db177c2	0.0866542
61	0x3eb2bee0	0.3491125
62	0xbe37b500	-0.1794014
63	0x3e781627	0.242272
64	0xbdab07ce	-0.08351098
65	0xbeb8c8c7	-0.3609068
66	0xbe97daac	-0.2965902
67	0x3c6e33ca	0.014538715
68	0x3e9c1968	0.30488133
69	0x3ea786f7	0.32720158
70	0x3e64c44a	0.22340503
71	0x3ed3ac86	0.41342562
72	0xbec6929e	-0.38783735
73	0xbe1c3749	-0.15255465
74	0x3ed669df	0.41877648
75	0x3eb7d9d8	0.3590839
76	0xbd8a9ac0	-0.067677975
77	0x3ee53601	0.44767764
78	0x3edffaf8	0.4374616
79	0xbf0a5211	-0.54031473
80	0x3cf8ec29	0.030386047
81	0xbefc9c06	-0.49337786
82	0xbe3f2480	-0.18666267
83	0x3e54a50a	0.20766082
84	0x3e4ac2dd	0.19800897
85	0xbec1ebfc	-0.37875354
86	0x3e82db22	0.2555781
87	0x3f2ebf4c	0.68260646
88	0xbdb3c8c4	-0.087785274
89	0xbe9e4938	-0.30915236
90	0x3e55b692	0.20870426
91	0xbed4645c	-0.41482818
92	0xbeedfd1e	-0.46482176
93	0xbec1b423	-0.37832746
94	0x3e6e45c2	0.23268798
95	0x3dd32faa	0.103118256
96	0x3e0fd6c4	0.1404677
97	0x3e3c7275	0.18403037
98	0xbb82402b	-0.0039749346
99	0xbdadea65	-0.08491973
100	0xbda53c3c	-0.080681294
101	0xbdc715d5	-0.09720961
102	0x3e6ca830	0.23111033
103	0x3e85ccc7	0.26132795
104	0x3dc7d85d	0.09758065
105	0x3ee316c6	0.44353312
106	0x3e254d0a	0.1614267
107	0xbee224a4	-0.4416858
108	0x3f17ad98	0.5924926
109	0xbdf79ef6	-0.12090866
110	0xbe8a66c4	-0.2703153
111	0x3e186c6a	0.14885107
112	0x3e0c8d4f	0.1372578
113	0x3ec7f132	0.39051205
114	0xbd13c2aa	-0.036074318
115	0xbef00a75	-0.46882978
116	0x3ebfb1eb	0.37440428
117	0x3e88c9d3	0.2671648
118	0xbf1316d0	-0.57456684
119	0x3ee58a36	0.4483201
120	0x3ee52def	0.44761607
121	0x3e3300e7	0.17480813
122	0xbe0f68e1	-0.14004852
123	0x3e430d5e	0.19048068
124	0x3e7348bf	0.23758219
125	0xbea43469	-0.32071236
126	0x3e3fd4e6	0.18733558
127	0x3e3f4c82	0.18681529
128	0x3ef6a9ee	0.4817652
129	0xbb9be623	-0.004757659
130	0xbdc0b2d6	-0.0940911
131	0xbe7d6bbc	-0.24748129
132	0xbef76e94	-0.48326552
133	0xbe832b0b	-0.25618777
134	0xbe2b254c	-0.16713446
135	0x3e30431f	0.17213105
136	0x3e77d040	0.24200535
137	0xbee87544	-0.45401967
138	0xbeaae936	-0.3338105
139	0x3dbd9a31	0.09257925
140	0x3eba871f	0.36431214
141	0x3ec66ece	0.38756412
142	0xbf0fe60a	-0.56210387
143	0x3c82790c	0.01592686
144	0x3ae10789	0.0017168383
145	0xbed00d7f	-0.40635297
146	0x3d0f151d	0.034932245
147	0x3f0d4fde	0.5519999
148	0x3e932e29	0.28746155
149	0xbe6ea0c7	-0.23303519
150	0x3ef4bbfe	0.47799677
151	0x3ebc6fd2	0.36804062
152	0xbea3b8a0	-0.31976795
153	0xbeef784b	-0.46771464
154	0xbe3fccd1	-0.18730475
155	0xbea1f1fc	-0.31629932
156	0xbd6ce5b5	-0.057836253
157	0xbeb82bdf	-0.3597097
158	0x3dffb52f	0.1248573
159	0x3ebe73e7	0.371978
160	0xbda1756e	-0.07883726
161	0x3f0b621c	0.5444658
162	0xbe156482	-0.14589122
163	0xbe84a266	-0.2590515
164	0xbc1890a9	-0.009311833
165	0xbd74c259	-0.059755657
166	0x3ec01466	0.37515563
167	0xbf06f040	-0.5271034
168	0xbe53a6e5	-0.20669134
169	0xba349982	-0.00068893295
170	0xbd9dbf37	-0.07702487
171	0x3eebf9ec	0.46089113
172	0xbe8b79ad	-0.2724127
173	0xbe04715a	-0.12933865
174	0x3e259591	0.16170336
175	0x3eb059d7	0.34443542
176	0xbe072a6c	-0.13199776
177	0x3d475245	0.048662443
178	0x3ed66864	0.4187652
179	0x3e985a1f	0.29756257
180	0x3df913f9	0.121620126
181	0x3ea826bb	0.3284205
182	0x3d52aafb	0.05143259
183	0x3e8aba78	0.2709539
184	0x3e81ed21	0.25376227
185	0xbcba021c	-0.022706084
186	0xbcf57f61	-0.029967966
187	0xbedceb87	-0.43148443
188	0xbf1e4f71	-0.6183997
189	0x3e930c71	0.2872043
190	0xbe978dfe	-0.2960052
191	0xbd84edac	-0.06490645
192	0xbdbabe83	-0.091183685
193	0xbd70fd39	-0.058835242
194	0x3e999bd0	0.30001688
195	0xbe1a1320	-0.15046358
196	0xbd9ed338	-0.077551305
197	0x3ed7b2cf	0.42128608
198	0xbeabf7c4	-0.33587468
199	0xbdd06774	-0.10175982
200	0x3e3b0984	0.18265349
201	0x3def54a7	0.11686068
202	0xbd3231dc	-0.04350458
203	0x3e4ebb95	0.20188744
204	0x3cfc2393	0.030778682
205	0x3e7615f9	0.2403182
206	0x3e65d66c	0.22445077
207	0x3ea4a991	0.3216062
208	0x3e9487f5	0.29009977
209	0x3e75d69e	0.24007651
210	0xbd7e1f6b	-0.06204168
211	0x3f22be0d	0.63571244
212	0xbeb19e96	-0.34691304
213	0x3e8c3ed9	0.273917
214	0xbec24bbb	-0.37948403
215	0x3f1ec9a6	0.6202644
216	0x3eaa8fd1	0.33312848
217	0x3d6cd2ad	0.057818104
218	0xbdb9fb5b	-0.090811454
219	0x3eb2fcda	0.34958535
220	0xbdf64165	-0.12024192
221	0x3ee60ad2	0.4493013
222	0xbe47c8ed	-0.19510241
223	0x3eaae21f	0.33375642
224	0xbed7a978	-0.42121482
225	0x3d4b6065	0.049652476
226	0x3ee336fd	0.4437789
227	0xbd472ce8	-0.04862681
228	0xbf058847	-0.5216107
229	0xbeb901d7	-0.36134216
230	0x3ec4e5f2	0.38456684
231	0xbd917c18	-0.07103747
232	0x3cea655b	0.028612783
233	0xbe954f14	-0.29161894
234	0xbe12f858	-0.14352548
235	0xbecc5798	-0.3991058
236	0x3e11dad4	0.14243633
237	0x3e962c3f	0.29330632
238	0xbea7f8a7	-0.32806894
239	0xbd54eced	-0.051983763
240	0xbeaa60ea	-0.33277065
241	0x3e99e475	0.3005711
242	0x3d9add5c	0.07561752
243	0xbe527e02	-0.2055588
244	0x3c9915a8	0.018687084
245	0x3ea3ec67	0.32016298
246	0x3e0fcd66	0.14043197
247	0x3ec668ed	0.38751927
248	0xbea22b3c	-0.3167361
249	0x3d020c5a	0.03175006
250	0xbede2dba	-0.43394262
251	0xbe6ba495	-0.23012002
252	0x3dffade6	0.1248434
253	0x3ebeaf86	0.3724329
254	0xbdad2e04	-0.084560424
255	0x3e3fa35a	0.18714657

feature.2.weight f4 [256, 256]
0	0xbd3e70a4	-0.04649414
1	0x3ca2233d	0.019792194
2	0xbccb6a9c	-0.024831109
3	0x3d11e3bf	0.035617586
4	0xbea7d61c	-0.3278054
5	0xbb90303f	-0.0044002826
6	0x3dfcefd3	0.1235043
7	0x3e5bdca9	0.21470894
8	0x3e91411d	0.2836999
9	0x3e37c5de	0.17946574
10	0xbda0c402	-0.078498855
11	0x3ce06599	0.027392196
12	0x3d374ca0	0.04475081
13	0xbdb025df	-0.08600973
14	0xbe3df737	-0.18551336
15	0x3e2e6fd4	0.17034847
16	0xbdc94e09	-0.09829337
17	0x3e3cc338	0.18433845
18	0x3d44d9c6	0.048059247
19	0x3dda359f	0.10654759
20	0x3d982694	0.07429233
21	0xbbb1a759	-0.0054215607
22	0xbe31ba61	-0.17356254
23	0xbde301c7	-0.110843234
24	0x3c108e7c	0.008823033
25	0x3e7ab768	0.24484026
26	0x3e20110f	0.15631507
27	0x3d2f3045	0.042770643
28	0xbea75b96	-0.32687062
29	0x3d8dac77	0.06917661
30	0x3c444363	0.011978957
31	0x3f1d4f1a	0.61448824
32	0x3dd61e36	0.10454981
33	0xbd14ee98	-0.036360353
34	0xbde6d6f1	-0.112714656
35	0x3dc112e7	0.094274335
36	0x3d5dfedc	0.05419813
37	0x3e911eca	0.28343803
38	0xbd12f7da	-0.0358809
39	0x3d95a23c	0.073063344
40	0x3dfe4a2f	0.12416493
41	0xbdfe1d63	-0.12407949
42	0x3dcdadca	0.10042913
43	0x3dcaf27b	0.09909531
44	0x3d26fa03	0.040765774
45	0x3e6fee3e	0.23430726
46	0x3ce1cf9b	0.027564814
47	0xbdb40e5c	-0.08791801
48	0x3d1fcec7	0.039015558
49	0x3f015241	0.50516135
50	0x3db468b1	0.08809031
51	0x3b55045a	0.0032503814
52	0xbd4aac9c	-0.04948102
53	0x3e8b5835	0.27215734
54	0xbdff4919	-0.12465114
55	0xbd9426b7	-0.07233947
56	0xbd08b353	-0.033374142
57	0x3e1e3980	0.15451622
58	0xbce2e1b5	-0.027695516
59	0xbe132d38	-0.14372718
60	0x3c1d1256	0.009586891
61	0x3c00b9ff	0.007856845
62	0xbc1b0567	-0.009461737
63	0x3e38d59a	0.18050233
64	0xbc97c7fe	-0.01852798
65	0xbe61c1c9	-0.2204658
66	0xbe871a2a	-0.2638715
67	0x3e0bc1b5	0.13648112
68	0x3f20881a	0.62707675
69	0x3e818395	0.25295702
70	0x3cd643f2	0.026155446
71	0x3eb7764b	0.35832438
72	0xbe890f6c	-0.26769578
73	0x3d89108b	0.066926084
74	0x3e48d780	0.19613457
75	0x3ebcf617	0.36906502
76	0x3e6b3cec	0.22972459
77	0x3d1491e4	0.036271945
78	0xbc055ccb	-0.008139799
79	0xbd69a125	-0.057038445
80	0xbd76c084	-0.06024219
81	0xbc538e6a	-0.012912372
82	0xbd511ccd	-0.051052857
83	0x3e11e964	0.14249188
84	0x3e5f702c	0.21820134
85	0x3cc859ef	0.024456946
86	0x3e2bff27	0.16796552
87	0x3d8a7cb6	0.06762068
88	0xbe13ba6e	-0.14426586
89	0xbe7cb8f3	-0.24679928
90	0x3e3d59b5	0.18491252
91	0xbeb8d2ea	-0.36098415
92	0xbf021d8f	-0.5082635
93	0xbd9710fe	-0.07376288
94	0x3e274327	0.1633421
95	0x3e6f33a2	0.2335954
96	0x3da5f323	0.08103015
97	0x3e51eb1b	0.20499842
98	0xbb7caf80	-0.0038556755
99	0xbd7ce1f5	-0.061738927
100	0x3e437dc3	0.19090943
101	0xbe75e9d3	-0.24014978
102	0x3ed85c41	0.42257884
103	0x3ce652a1	0.028115572
104	0x3d8c2e4f	0.0684477
105	0x3e2b20fc	0.16711801
106	0x3e2d63f0	0.16932654
107	0x3e00cbc6	0.12577733
108	0x3e5e78df	0.21725796
109	0xbd879cfd	-0.0662174
110	0x3e8e28cc	0.277655
111	0xbdb25706	-0.08708005
112	0x3df61c81	0.120171554
113	0x3dced688	0.10099512
114	0x3de93ad4	0.11388174
115	0xbf04db65	-0.5189727
116	0x3d284bfa	0.041088082
117	0x3dc3937f	0.09549617
118	0xbed90c97	-0.42392418
119	0x3d8d6bc9	0.06905324
120	0x3f04943c	0.5178869
121	0x3df98e10	0.121852994
122	0x3dbd1498	0.092324436
123	0xbd0f02d4	-0.034914806
124	0x3e060ede	0.13091609
125	0x3dd84720	0.10560441
126	0xbc05fe90	-0.008178368
127	0xbd643877	-0.05571791
128	0x3e83fbd7	0.25778076
129	0x3b6f11d4	0.0036479132
130	0x3dc26dca	0.09493597
131	0xbd6a733d	-0.057238806
132	0xbed83632	-0.42228848
133	0xbe04e3f8	-0.12977588
134	0x39ba979a	0.00035589637
135	0xbde13201	-0.109958656
136	0x3ecfd8b0	0.40595007
137	0xbd463f7e	-0.048400395
138	0xbce32c5a	-0.02773111
139	0x3d455f08	0.048186332
140	0x3ddbf9fb	0.10741039
141	0x3d641b4d	0.0556901
142	0xbd564948	-0.05231598
143	0xbd58ecbf	-0.052960154
144	0x3d874074	0.0660409
145	0xbe878fe6	-0.26476973
146	0xbe6c02bb	-0.23047917
147	0x3e185a47	0.14878188
148	0x3cb0101d	0.021492058
149	0x3dd10416	0.102058575
150	0x3e539388	0.20661747
151	0x3e8bd09c	0.27307594
152	0xbd7db0e0	-0.06193626
153	0xbe8f4ecb	-0.27989802
154	0xbe03c6d8	-0.12868822
155	0xbe42041e	-0.18946883
156	0x3cc59ffd	0.02412414
157	0x3dbcfaec	0.09227547
158	0xbdd1c11b	-0.1024191
159	0x3d82f713	0.06394782
160	0xbcf2f843	-0.029659396
161	0x3e2156e3	0.15755801
162	0x3c5e3149	0.013561555
163	0xbcdd6866	-0.02702732
164	0x3d84bcaa	0.06481297
165	0x3cd0ce97	0.025489135
166	0x3eabde9f	0.33568284
167	0x3d56ac8e	0.052410655
168	0xbd3d9578	-0.046285123
169	0x3de3573e	0.111006245
170	0x3e287ebb	0.16454594
171	0xbd9c1dd9	-0.076228805
172	0xbd864f86	-0.06558137
173	0x3b24581c	0.0025076931
174	0x3d9ce3cd	0.07660637
175	0x3e59ce50	0.21270108
176	0x3d716d74	0.058942273
177	0x3e31d6d9	0.17367114
178	0x3e40aeb6	0.18816647
179	0x3da63ff7	0.08117669
180	0x3dbf0d36	0.09328692
181	0x3e326c00	0.17424011
182	0x3e1d229a	0.1534523
183	0x3e8b1a70	0.27168608
184	0x3eacea3e	0.33772463
185	0xbc1ccaba	-0.009569818
186	0xbe4bdc69	-0.19908299
187	0xbd98197d	-0.074267365
188	0xbe482e97	-0.19549023
189	0x3d935f9a	0.07195969
190	0x3c275fda	0.010215724
191	0xbd64bc82	-0.055843838
192	0xbe3059e8	-0.17221797
193	0xbdb4a419	-0.08820362
194	0x3ebb1b39	0.36544207
195	0xbdf4cb05	-0.119527854
196	0x3e4ba73e	0.19888017
197	0x3e190b12	0.14945629
198	0xbd7c04d6	-0.06152805
199	0x3d0cd5fa	0.03438375
200	0x3e12678c	0.14297312
201	0xbe0c01a7	-0.13672505
202	0x3d4b9693	0.049704146
203	0x3e2a6105	0.16638573
204	0xbe1be86b	-0.15225379
205	0x3e985894	0.2975508
206	0x3eed07da	0.46295053
207	0x3e3fbae5	0.18723638
208	0x3e086830	0.13320994
209	0x3d49183e	0.049095385
210	0xbe1ba227	-0.15198575
211	0xbda8b61f	-0.08237862
212	0xbe4b3d41	-0.19847585
213	0x3d932c09	0.071861334
214	0xbb156e01	-0.0022801163
215	0x3e304a7d	0.17215915
216	0x3df16c9f	0.11788296
217	0xbe073ecc	-0.13207549
218	0x3db0ebdb	0.08638736
219	0x3e37de3e	0.17955872
220	0x3dc3960f	0.09550106
221	0x3df053a4	0.11734703
222	0x3de16493	0.11005511
223	0x3e01c41e	0.12672469
224	0xbe720ff5	-0.236389
225	0x3e9bc8b2	0.30426556
226	0x3ed90004	0.42382824
227	0xbe9dea6c	-0.30842912
228	0xbdb35fb2	-0.08758487
229	0x3d5cea75	0.053934533
230	0x3d1b69bc	0.037942633
231	0x3e84d196	0.2594115
232	0xbe84a61e	-0.25907987
233	0xbc42715e	-0.011867849
234	0xbdff1908	-0.12455946
235	0xbe706f51	-0.23479964
236	0xbcb93486	-0.022608053
237	0x3e3861c5	0.18006046
238	0x3d83d754	0.06437555
239	0xbe3cfb5a	-0.18455258
240	0x3d4ffc7b	0.050777894
241	0x3e01034d	0.12598915
242	0x3d057b0a	0.032588042
243	0x3cb86a0c	0.022511505
244	0x3bd2326e	0.006414703
245	0x3db81dee	0.08990084
246	0xbbd1adc4	-0.0063988883
247	0x3e95b8a7	0.2924244
248	0xbeaf77df	-0.34271142
249	0xbe7bc8e7	-0.24588357
250	0xbe5fea9d	-0.21866842
251	0xbe02222a	-0.12708345
252	0xbc8001d5	-0.015625874
253	0x3d902dc8	0.07039982
254	0xbea1d6d6	-0.3160922
255	0x3d653ca9	0.055966053

feature.2.bias f4 [256]
0	0x3d599864	0.053123847
1	0xbde9718d	-0.11398611
2	0xbe051dae	-0.12999603
3	0x3e157ac6	0.14597616
4	0xbe4c8533	-0.19972686
5	0x3d9c9ad4	0.076467186
6	0x3ddeb95a	0.10875197
7	0x3d80d2bb	0.06290194
8	0x3e063607	0.13106547
9	0xbe8920ad	-0.26782742
10	0x3dfa2d06	0.12215619
11	0x3dccb6f4	0.09995833
12	0x3da72132	0.081606284
13	0x3ed286b6	0.411184
14	0x3f051dda	0.51998675
15	0xbe247d89	-0.16063513
16	0xbe4aed61	-0.19817115
17	0xbdae70b8	-0.08517593
18	0xbe72f994	-0.23728019
19	0x3e40d154	0.18829852
20	0xbd4395c2	-0.047750242
21	0xbd99416d	-0.07483182
22	0xbef1a2d2	-0.47194535
23	0x3e94a5b4	0.2903267
24	0xbe9b3e34	-0.30320895
25	0x3d03febf	0.032225367
26	0xbe2655d9	-0.16243686
27	0xbe493501	-0.19649126
28	0x3e15203a	0.14563075
29	0xbdefb48b	-0.11704358
30	0x3f344695	0.704202
31	0x3e07da2e	0.13266823
32	0x3de711e6	0.11282711
33	0x3cfc694c	0.030811928
34	0x3da16720	0.07880998
35	0x3b796d26	0.0038059442
36	0x3eb8f34a	0.36123115
37	0x3e5c010f	0.21484779
38	0xbe364970	-0.17801452
39	0xbe7ca607	-0.2467271
40	0x3e339dc8	0.17540658
41	0xbe906478	-0.28201652
42	0xbe1c8107	-0.15283595
43	0xbe190747	-0.14944182
44	0xbe438954	-0.19095355
45	0xbc25e844	-0.010126177
46	0x3e0d0e8b	0.13775079
47	0x3d52d701	0.051474575
48	0xbd843f5c	-0.06457397
49	0xbe6a6e46	-0.22893628
50	0x3db19958	0.08671826
51	0x3e6ea26d	0.23304148
52	0xbe45b0d7	-0.1930574
53	0x3e0c4002	0.13696292
54	0x3c9fede3	0.019522613
55	0x3d6bf81d	0.057609666
56	0x3e147c10	0.14500451
57	0xbebe4807	-0.37164328
58	0x3d335727	0.043784287
59	0x3da6daeb	0.08147224
60	0x3dadd1e5	0.084873
61	0xbc9a3127	-0.018822266
62	0xbe8948b5	-0.26813284
63	0xbd18dcbc	-0.037319884
64	0xbe9dcf65	-0.30822292
65	0x3e2ad05a	0.16681042
66	0x3e371b0a	0.17881408
67	0x3f1669bc	0.5875509
68	0x3ec979df	0.39350793
69	0xbe36ef7d	-0.17864795
70	0xbeacec22	-0.33773905
71	0x3d8d5b99	0.069022365
72	0x3d7db136	0.06193658
73	0xbe7228a7	-0.2364832
74	0x3e21214a	0.15735355
75	0x3e551b8c	0.2081129
76	0xbe8ece2e	-0.27891678
77	0xbe60ff04	-0.2197228
78	0x3e13bf5b	0.14428465
79	0x3decadb8	0.11556572
80	0x3f0455e9	0.5169359
81	0xbe20c34b	-0.15699498
82	0x3e42361f	0.18965958
83	0xbec9ed8e	-0.39439052
84	0x3e83fa64	0.2577697
85	0xbd0323b0	-0.032016456
86	0xbe8345f8	-0.2563932
87	0x3e0ed5cf	0.13948749
88	0x3f068f21	0.5256215
89	0x3e88e107	0.26734182
90	0xbe87b964	-0.2650863
91	0x3d28f0b4	0.041245177
92	0xbd93a794	-0.07209697
93	0xbde76f5f	-0.11300539
94	0xbe9b3027	-0.30310175
95	0x3eccc92a	0.39997226
96	0x3ef0a9e0	0.47004604
97	0xbe28cc86	-0.1648427
98	0x3ed9200d	0.42407265
99	0x3e749ccd	0.2388794
100	0x3e02d29c	0.12775654
101	0xbd73ffad	-0.059570003
102	0xbde7aa06	-0.11311726
103	0xbde3505f	-0.11099314
104	0xbe7eee30	-0.24895549
105	0xbe85a9ee	-0.2610621
106	0x3e9e74aa	0.30948383
107	0x3e743355	0.23847707
108	0xbea30057	-0.31836197
109	0x3e69bba6	0.22825488
110	0x3c494747	0.01228506
111	0x3e153983	0.1457272
112	0xbe74b629	-0.23897614
113	0xbe95d73b	-0.2926577
114	0xbe529919	-0.20566215
115	0x3d947638	0.07249111
116	0x3dc4b91e	0.09605621
117	0xbed2ed5b	-0.41196713
118	0x3d93a36e	0.07208906
119	0xbde498d6	-0.11161964
120	0x3c8d7085	0.017265568
121	0xbd918aa0	-0.07106519
122	0x3ea137e3	0.3148795
123	0xbeaccb92	-0.33749062
124	0x3dc3cee3	0.09560945
125	0xbd5e5a4f	-0.054285344
126	0xbeb3d121	-0.3512049
127	0xbd5de233	-0.0541708
128	0xbbc761a9	-0.00608464
129	0x3def49a2	0.11683966
130	0x3b96209c	0.004581524
131	0xbc612ee3	-0.013744089
132	0x3e09c173	0.13452701
133	0x3e150dc5	0.14556034
134	0x3dd3ee4c	0.10348186
135	0x3e15a3f5	0.14613326
136	0x3e1322ca	0.1436874
137	0x3f07a79f	0.52990144
138	0x3e3acdb5	0.18242534
139	0xbe312999	-0.17301024
140	0x3f18370b	0.5945899
141	0x3d8be0a9	0.0682996
142	0xbe899f22	-0.2687922
143	0xbebcbbbc	-0.3686198
144	0x3e69ca24	0.22831017
145	0x3ddd3af0	0.10802257
146	0x3e2cfd85	0.16893585
147	0xbe8c5ce1	-0.2741461
148	0xbe51ae42	-0.2047663
149	0x3dd61662	0.10453488
150	0x3de1d6fe	0.11027335
151	0xbddf184f	-0.10893308
152	0xbd86b06e	-0.0657662
153	0x3d7b2c53	0.061321568
154	0x3e1a2756	0.15054068
155	0x3d4ec6ec	0.050482675
156	0x3e70f920	0.23532534
157	0x3f092496	0.5357145
158	0x3d883337	0.066503935
159	0xbe7be049	-0.24597277
160	0x3dc2fb52	0.09520592
161	0x3dd2411d	0.102663256
162	0xbe9f30c8	-0.31091905
163	0xbde10e2b	-0.109890305
164	0x3c88c31b	0.016694596
165	0xbe6c9e38	-0.2310723
166	0x3e97d3c8	0.29653764
167	0xbeadb5f2	-0.33927876
168	0x3e17b4a5	0.14815004
169	0x3d2107be	0.039314024
170	0x3d49401e	0.049133413
171	0x3e6ef767	0.23336564
172	0x3f07baad	0.5301922
173	0xbe563c38	-0.20921409
174	0xbda710ab	-0.08157476
175	0x3e019c74	0.12657338
176	0x3e792f14	0.24334365
177	0x3e1a485f	0.1506667
178	0x3e0414eb	0.12898605
179	0x3dde6935	0.108599104
180	0x3e0f1372	0.13972262
181	0x3b730286	0.0037080362
182	0xbe92c873	-0.28668556
183	0x3e54dd48	0.20787537
184	0xbe922c2e	-0.2854933
185	0x3edd5e8d	0.432362
186	0x3d7ffb4a	0.062495507
187	0xbeb8c9ae	-0.3609137
188	0x3cd7630c	0.026292346
189	0x3e4fa8f7	0.20279299
190	0x3e06671b	0.13125269
191	0xbd0b25c7	-0.033971574
192	0x3e7af004	0.24505621
193	0xbe918dc4	-0.2842847
194	0xbecd41f9	-0.40089396
195	0x3e1eeebf	0.15520762
196	0xbe490da3	-0.19634108
197	0xbef5f64c	-0.48039472
198	0x3f1e358c	0.61800456
199	0xbe9e45d5	-0.30912653
200	0x3cf7e759	0.030261682
201	0xbda559e1	-0.08073784
202	0xbb097f39	-0.0020980372
203	0x3f067bd1	0.5253268
204	0xbe5c4741	-0.21511556
205	0x3ded7763	0.11595037
206	0xbe775cb6	-0.2415646
207	0x3f24f501	0.64436346
208	0xbd89fe5e	-0.0673797
209	0xbeb96632	-0.3621078
210	0x3ecb7251	0.39735654
211	0x3cd2df14	0.025741138
212	0x3e7fae92	0.24968937
213	0x3e117e15	0.14208253
214	0x3ce39fc8	0.02778615
215	0xbd174fd3	-0.03694136
216	0xbd13da3a	-0.03609679
217	0x3e070622	0.13185933
218	0xbdb87e77	-0.09008496
219	0x3d9e9ac7	0.07744365
220	0x3e34a3c2	0.17640594
221	0x3ded2b53	0.11580529
222	0x3dbcd9bd	0.09221218
223	0xbe700045	-0.23437603
224	0x3f20b3e2	0.6277448
225	0x3da5d14a	0.08096559
226	0xbe801007	-0.25012228
227	0x3d347192	0.04405362
228	0x3e6cfe0d	0.23143788
229	0x3e95dfda	0.29272348
230	0x3e029b83	0.12754636
231	0xbe9bec1e	-0.3045358
232	0xbd0dc9a1	-0.034616116
233	0x3dd1edf3	0.10250463
234	0x3e91d750	0.28484583
235	0x3f0518c1	0.51990896
236	0xbddbd8a6	-0.10734682
237	0x3ecba820	0.39776707
238	0xbe22d75a	-0.15902463
239	0x3e2c5a22	0.16831258
240	0x3e6e12d4	0.2324937
241	0x3d58948b	0.052876037
242	0xbe43bbca	-0.19114605
243	0x3f085b39	0.53264195
244	0x3bd9e76e	0.006649903
245	0xbea6f828	-0.32611203
246	0x3dd8eee5	0.105924405
247	0xbe09d42d	-0.13459845
248	0x3e06bd57	0.13158165
249	0xbe70f3dc	-0.23530525
250	0x3d02149b	0.031757932
251	0xbdaafa07	-0.0834847
252	0xbb89738a	-0.0041946815
253	0x3d09f727	0.03368297
254	0xbdfc9673	-0.123333834
255	0x3e22b658	0.15889871

value_stream.0.weight f4 [256, 256]
0	0xbeef8cdd	-0.46787158
1	0xbb0bc633	-0.0021327853
2	0xbe92be5f	-0.28660867
3	0xbf2ca0d5	-0.6743291
4	0xbdb7079f	-0.089370005
5	0x3d8f7976	0.07005589
6	0xbf462883	-0.77405566
7	0xbdf0c485	-0.11756233
8	0xbf1612b2	-0.58622277
9	0xbd38ea68	-0.045145422
10	0x3e2b7b75	0.16746314
11	0xbd92747f	-0.07151126
12	0xbe62d87f	-0.22152899
13	0x3ee82409	0.45339993
14	0x3eb99495	0.36246172
15	0x3df11323	0.11771228
16	0x3d5d2be3	0.05399693
17	0xbf1cde88	-0.61277056
18	0xbd822d46	-0.063562915
19	0xbed20815	-0.4102179
20	0xbecc9c10	-0.39962816
21	0xbe673f3b	-0.22582714
22	0x3b6bf49d	0.0036003955
23	0xbe947728	-0.2899716
24	0xbd7dbba0	-0.06194651
25	0x3cb50620	0.022097647
26	0xbcab623e	-0.020920869
27	0xbe2daf51	-0.16961409
28	0xbe46a472	-0.19398668
29	0xbd5e6f07	-0.054305103
30	0x3e1ee42b	0.15516727
31	0x3e6f8d80	0.23393822
32	0xbd8ec4e8	-0.06971151
33	0x3d201ca1	0.039089803
34	0xbe95553e	-0.29166597
35	0xbe5d29d9	-0.21597995
36	0x3e56ebbc	0.20988363
37	0xbeb59e2a	-0.35472232
38	0xbd639238	-0.055559367
39	0xbebb8dde	-0.36631674
40	0xbea88557	-0.3291423
41	0xbd8a64db	-0.06757518
42	0xbe49e62a	-0.19716707
43	0xbe968473	-0.29397926
44	0xbe9df46b	-0.3085054
45	0xbd999611	-0.07499326
46	0x3d4d97ea	0.050193705
47	0xbeaa2fee	-0.33239692
48	0xbe1f17ec	-0.15536469
49	0x3dbd6d56	0.0924937
50	0xbe3909e1	-0.18070175
51	0xbef77b71	-0.48336366
52	0xbe514ff2	-0.20440653
53	0xbe631e77	-0.2217959
54	0xbefc2cbc	-0.4925288
55	0x3d94234d	0.072332956
56	0xbea40dec	-0.32041872
57	0xbda391c3	-0.07986786
58	0xbe8d982a	-0.27655154
59	0xbe4cf8df	-0.20016812
60	0xbeffe79b	-0.49981388
61	0xbd9c655e	-0.07636522
62	0xbc15efad	-0.009151381
63	0x3dc13f2b	0.094358765
64	0x3d495177	0.049149957
65	0xbe8015df	-0.25016686
66	0xbeca04bb	-0.39456734
67	0x3e236463	0.15956263
68	0x3e02b7a9	0.12765373
69	0xbde1e0f8	-0.110292375
70	0xbecfa7f6	-0.40557832
71	0xbee7e9d4	-0.45295584
72	0xbeb2376a	-0.34807903
73	0xbd9cbeab	-0.076535545
74	0x3e237410	0.15962243
75	0xbe5f2b02	-0.2179375
76	0xbe131546	-0.14363584
77	0xbdcb3b1c	-0.099233836
78	0xbf2a4b27	-0.66520923
79	0xbe469ad6	-0.19395003
80	0x3ded9c83	0.11602118
81	0xbddcabe2	-0.107749715
82	0xbec8fdd0	-0.39256144
83	0x3d55f3f8	0.05223462
84	0xbe999209	-0.29994228
85	0x3c79d5da	0.01524874
86	0xbafffdd7	-0.0019530606
87	0xbe72a152	-0.23694351
88	0x3dceb974	0.10093966
89	0x3dc3d5a2	0.095622316
90	0x3d3c65eb	0.045995634
91	0xbe95d872	-0.29266697
92	0xbddf3f3a	-0.109007314
93	0xbddad014	-0.10684219
94	0x3b59b712	0.003322069
95	0x3d8bda49	0.06828744
96	0x3db4a4dc	0.08820507
97	0x3dc5cc8c	0.09658155
98	0x3d8ad8bf	0.06779622
99	0xbe2d859b	-0.16945498
100	0xbe86993a	-0.26288778
101	0xbccb3c29	-0.02480896
102	0xbd8793fc	-0.06620023
103	0xbf26316c	-0.6491916
104	0xbe5b5c4f	-0.21421932
105	0x3cc1b977	0.023648007
106	0xbe9c0cd0	-0.30478525
107	0xbef72551	-0.48270658
108	0xbd836792	-0.06416239
109	0x3e7a2591	0.24428393
110	0xbe4e3b4b	-0.20139806
111	0xbe133c79	-0.14378537
112	0xbe10bb1f	-0.14133881
113	0xbe15d960	-0.14633703
114	0xbd5ac5f4	-0.05341144
115	0xbe92c768	-0.2866776
116	0xbe8cf791	-0.27532628
117	0xbde47182	-0.111544624
118	0x3d345fed	0.044036794
119	0xbc21ea02	-0.009882452
120	0xbe32df20	-0.17467928
121	0x3ddccd20	0.10781312
122	0xbcefb86e	-0.029262748
123	0xbf2079d9	-0.62685925
124	0xbe2cb2fb	-0.1686515
125	0xbe710bec	-0.23539704
126	0xbe8b5dea	-0.27220088
127	0xbf1e598e	-0.618554
128	0xbe8ac7de	-0.27105612
129	0xbdc305b0	-0.09522569
130	0xbdd47711	-0.103742726
131	0xbec2f4aa	-0.3807729
132	0xbea39182	-0.3194695
133	0xbeff2f09	-0.49840572
134	0xbeadc1b6	-0.33936852
135	0xbf34c001	-0.70605475
136	0x3dd1b85c	0.10240242
137	0x3e40e506	0.18837366
138	0x3d43fd07	0.047848728
139	0x3d6d66c0	0.05795932
140	0x3dc44984	0.095843345
141	0xbe91f0a8	-0.2850392
142	0xbe0cc420	-0.13746691
143	0xbda09376	-0.07840626
144	0xbe476a35	-0.19474109
145	0xbd1f1722	-0.03884042
146	0xbf0b1181	-0.54323584
147	0x3d587d89	0.052854095
148	0xbe0d2b2c	-0.13786
149	0xbf11448e	-0.5674523
150	0xbec5a50c	-0.38602483
151	0xbe5d55b1	-0.2161472
152	0xbdaf729d	-0.085667826
153	0x3cda8b38	0.026677713
154	0x3e3c29f1	0.18375374
155	0xbe09a79a	-0.13442841
156	0xbea80ffa	-0.3282469
157	0x3dc48332	0.09595336
158	0xbe13e296	-0.14441904
159	0xbe0496d9	-0.12948169
160	0xbe77d497	-0.2420219
161	0xbeb4804d	-0.35254136
162	0xbd14f449	-0.03636578
163	0x3cc1fd00	0.02368021
164	0xbec39404	-0.38198864
165	0x3dad591c	0.08464262
166	0xbe1e1145	-0.15436275
167	0xbc8befdb	-0.017082145
168	0xbcca97f6	-0.024730664
169	0xbe46bb30	-0.19407344
170	0xbead7bdb	-0.33883557
171	0x3ca9b6f8	0.02071713
172	0x3e862548	0.26200318
173	0xbe851fd3	-0.26000842
174	0xbe724902	-0.23660663
175	0xbe11aac3	-0.14225297
176	0xbe81a9a8	-0.2532475
177	0xbd0cff8d	-0.0344234
178	0xbebef72b	-0.3729795
179	0xbe5d52f2	-0.21613672
180	0xbd56bb9a	-0.052425005
181	0x3da41795	0.080123104
182	0xbd08619e	-0.03329622
183	0xbf1da688	-0.6158223
184	0xbe330b4b	-0.17484777
185	0x3b6c99e1	0.003610246
186	0xbe33d386	-0.17561159
187	0xbd0e51ad	-0.03474586
188	0xbe8479ac	-0.25874078
189	0xbe6f5b85	-0.23374756
190	0x3e140a57	0.1445707
191	0xbd5290f9	-0.051407788
192	0xbd437954	-0.04772313
193	0xbd16b630	-0.03679484
194	0xbdfbc6d3	-0.12293782
195	0x3d77d7ee	0.06050866
196	0xbe74f33e	-0.23920915
197	0xbe9d1b08	-0.30684686
198	0x3d95042d	0.07276187
199	0x3bf0c704	0.0073479433
200	0xbe925eb4	-0.28587878
201	0x3bb196aa	0.005419572
202	0xbeb6fc10	-0.35739183
203	0xbc6a276c	-0.0142916255
204	0xbe5d6d4c	-0.21623725
205	0xbec631ab	-0.3870977
206	0xbe79168f	-0.24325012
207	0x3e189c39	0.14903344
208	0x3e0c5e30	0.13707805
209	0xbf0b0e99	-0.5431915
210	0x3ece0a87	0.40242407
211	0xbe5e2931	-0.21695401
212	0xbf176e5a	-0.5915276
213	0x3d4938e3	0.049126517
214	0x3d0b35c8	0.033986837
215	0xbe702c53	-0.23454408
216	0x3db0bab5	0.086293615
217	0xbe93f4d0	-0.28897715
218	0xbe2e0f4b	-0.16998021
219	0xbd88bde4	-0.06676844
220	0xbed32ea0	-0.4124651
221	0xbee2194a	-0.4415992
222	0xbddd4dd1	-0.10805858
223	0x3c06d464	0.008229349
224	0x3e5aaa27	0.2135397
225	0xbd2f5c20	-0.042812467
226	0xbb87a67c	-0.0041397195
227	0xbe8f2464	-0.2795745
228	0xbe8b25b6	-0.2717721
229	0xbf3199e4	-0.69375443
230	0xbd7db744	-0.061942354
231	0xbf35c9a1	-0.71010786
232	0xbdebf444	-0.11521199
233	0xbeb3bb8e	-0.3510403
234	0xbefc5758	-0.49285388
235	0x3c2b47ff	0.010454177
236	0xbe4fffb3	-0.20312385
237	0x3e1bb6c6	0.15206441
238	0xbdb08623	-0.086193345
239	0xbea1677b	-0.31524262
240	0xbedc5e81	-0.4304085
241	0xbe6fdcfb	-0.23424141
242	0x3dd6a234	0.104801565
243	0x3ece8757	0.4033763
244	0xbf2fdcc9	-0.68696266
245	0xbf33e14b	-0.70265645
246	0xbe4cd3f6	-0.20002732
247	0xbdb35dbf	-0.08758115
248	0xbeed3b29	-0.46334198
249	0xbd9bfcc1	-0.07616568
250	0x3d20a3c6	0.039218687
251	0x3dbe2f37	0.09286349
252	0xbbf3617d	-0.007427393
253	0xbebc5f32	-0.36791378
254	0xbee76fbf	-0.45202443
255	0xbf55be29	-0.83493286

value_stream.0.bias f4 [256]
0	0x3ec3c7c3	0.38238344
1	0x3eaee1c4	0.3415662
2	0x3d03b7a6	0.032157563
3	0x3eaabfe2	0.3334952
4	0x3ccd1220	0.025033057
5	0x3e979d05	0.29611984
6	0x3e27c756	0.16384634
7	0x3dc83213	0.09775176
8	0x3ed39b7b	0.4132956
9	0xbe06b7ad	-0.13156004
10	0xbe48f00e	-0.19622824
11	0x3eb306c4	0.349661
12	0x3ddec58e	0.10877524
13	0x3e5f46e0	0.2180438
14	0x3e683702	0.22677234
15	0xbd2db537	-0.042409148
16	0x3e94df31	0.29076532
17	0x3edb9d6f	0.4289355
18	0xbe88c29f	-0.26710984
19	0xbc9c7266	-0.019097518
20	0xbea15d14	-0.31516325
21	0xbe1cd7ff	-0.15316771
22	0xbe7aafeb	-0.2448117
23	0x3d810017	0.06298845
24	0xbe90ca55	-0.28279367
25	0x3c19ab13	0.009379166
26	0xbd5defac	-0.054183647
27	0x3ec3f75f	0.38274667
28	0xbd55d9c4	-0.05220963
29	0x3ec4531e	0.38344663
30	0x3dcf9a3c	0.1013684
31	0x3eb6a32c	0.35671365
32	0x3dd2f30d	0.103002645
33	0xbd39502b	-0.04524247
34	0xbdd8b0db	-0.105806075
35	0xbea2fb61	-0.31832412
36	0x3e4def44	0.20110804
37	0x3c8c3724	0.017116137
38	0x3e7b5f65	0.24548109
39	0x3ecf28c2	0.40460783
40	0xbd3626a4	-0.044470444
41	0xbc95a06a	-0.018264968
42	0x3e29a24b	0.16565816
43	0xbe44de5b	-0.19225447
44	0x3e048749	0.12942232
45	0x3e1624d7	0.14662491
46	0x3e97960e	0.2960667
47	0x3de6fab4	0.112782866
48	0x3e28926c	0.16462106
49	0x3c0284ef	0.007966264
50	0x3ed47b4a	0.41500312
51	0x3d23cf2a	0.03999249
52	0xbe6e334f	-0.2326176
53	0x3e1b132f	0.15144037
54	0xbe326c67	-0.17424165
55	0x3e1b24af	0.15150712
56	0xbe06c4c3	-0.13160996
57	0x3edd8ac0	0.4326992
58	0x3d77d4b7	0.060505595
59	0x3d88cec9	0.06680066
60	0x3da368ab	0.07978948
61	0x3ecd58ff	0.4010696
62	0xbd925900	-0.07145882
63	0x3e9e9941	0.30976298
64	0xbe0a1e6e	-0.1348817
65	0xbd76ec41	-0.060283903
66	0x3e4c81ab	0.1997134
67	0x3ea4e9c5	0.32209602
68	0xbe9ab1e8	-0.30213857
69	0x3ddc036a	0.10742839
70	0x3e226a1e	0.15860793
71	0x3da25111	0.079256184
72	0x3e54efc2	0.20794585
73	0xbe5792b8	-0.21052063
74	0x3c93235f	0.017961202
75	0x3e4cef1d	0.2001309
76	0x3ee393fc	0.4444884
77	0x3e9a634e	0.30153888
78	0xbdeff6de	-0.11717008
79	0x3f09edf9	0.5387874
80	0x3e534dd1	0.20635153
81	0x3ee5e4dc	0.44901168
82	0xbda2b397	-0.0794441
83	0x3ce57b23	0.028012818
84	0x3e01e407	0.12684642
85	0x3e0fd45e	0.14045855
86	0xbe987f4b	-0.29784617
87	0x3ee11685	0.43962494
88	0x3e014648	0.12624466
89	0xbe9d1c47	-0.30685636
90	0x3e1bf076	0.15228447
91	0x3cbfb7cd	0.023403073
92	0xbc859b65	-0.01630945
93	0x3ba06175	0.0048944303
94	0xbd486819	-0.0489274
95	0xbdba84a6	-0.09107332
96	0x3e099695	0.13436349
97	0xbe830538	-0.2558992
98	0x3eaa7448	0.3329184
99	0x3efdc532	0.4956451
100	0xbc93aaa7	-0.01802571
101	0xbd79bdcb	-0.060972016
102	0x3e6882e4	0.22706181
103	0x3ea82f56	0.32848614
104	0xbc37eb25	-0.011225496
105	0x3ed23932	0.41059262
106	0x3e89955b	0.26871762
107	0x3e9c83f1	0.30569413
108	0x3e33248e	0.17494413
109	0xbdf2a2da	-0.11847468
110	0x3f011dc7	0.5043606
111	0x3e23f592	0.16011646
112	0x3dad3616	0.08457582
113	0x3eacb72c	0.337335
114	0x3e61d99b	0.22055666
115	0xbe560c55	-0.20903142
116	0x3d4cdd0a	0.050015487
117	0x3e825d06	0.25461596
118	0xbdb0fc78	-0.086419046
119	0x3e36f9ef	0.1786878
120	0x3f05a1e6	0.5220016
121	0x3ea348a1	0.3189135
122	0xbebccc13	-0.36874446
123	0xbbe08f2c	-0.006853005
124	0x3ea3ea54	0.32014716
125	0x3e75a0fa	0.23987189
126	0xbdf5b476	-0.11997311
127	0xbe7010ee	-0.23443958
128	0x3da94b7f	0.08266353
129	0xbe0b2355	-0.13587697
130	0x3d907dcd	0.070552446
131	0x3e601415	0.2188266
132	0x3df893cd	0.12137566
133	0x3eb66154	0.3562113
134	0x3e34949d	0.17634816
135	0x3e4c99ee	0.19980595
136	0x3d13adb9	0.036054347
137	0x3d816585	0.063181914
138	0x3e1d6753	0.15371446
139	0x3e8d9cb9	0.27658632
140	0x3d49bdfb	0.049253445
141	0x3dee079b	0.116225444
142	0xbe36bfd3	-0.17846613
143	0xbe8bcd28	-0.2730496
144	0x3d67ff1d	0.05663978
145	0x3f1536f0	0.5828695
146	0xbe54637c	-0.20741075
147	0x3e7f21bb	0.24915211
148	0xbeb5901e	-0.35461515
149	0x3e8a4c01	0.2701111
150	0x3eb7c605	0.35893264
151	0x3ea5aa55	0.32356516
152	0x3e0094e0	0.12556791
153	0x3de47677	0.11155408
154	0x3e3582dc	0.177257
155	0x3e224d9e	0.15849921
156	0x3d98a6bb	0.07453676
157	0x3dba86fb	0.09107777
158	0x3da7eb8d	0.081992246
159	0xbc1c3c4f	-0.009535863
160	0xbe6ccb09	-0.23124327
161	0x3ea8dc34	0.32980502
162	0xbcbcb4fc	-0.023035519
163	0x3e7c8619	0.24660529
164	0x3e967d09	0.2939227
165	0x3e941e70	0.28929472
166	0x3ed6742a	0.418855
167	0x3ed33a17	0.41255257
168	0x3ed0cf99	0.40783384
169	0x3f0cc0b5	0.5498155
170	0x3ea680e1	0.32520202
171	0x3e2a37cc	0.16622847
172	0x3e47346d	0.19453593
173	0x3e7d9d19	0.24766959
174	0xbd4807ba	-0.048835494
175	0x3e809b6e	0.25118583
176	0x3e152c72	0.14567736
177	0x3ecc99c8	0.39961076
178	0xbe81023e	-0.25197023
179	0x3e3c94d4	0.18416148
180	0x3e34c16d	0.17651911
181	0x3ed0125d	0.4063901
182	0xbe27e649	-0.1639644
183	0xbe73940c	-0.23786944
184	0x3eb72604	0.3577119
185	0x3ecff13e	0.4061374
186	0x3cf3770e	0.029719856
187	0x3e879ad1	0.26485303
188	0xbdf36112	-0.11883749
189	0x3ebc3385	0.36758056
190	0xbe279dd7	-0.16368805
191	0x3ed023cb	0.40652308
192	0x3e331867	0.17489778
193	0x3ec4840c	0.38381994
194	0x3dcf5950	0.10124457
195	0x3d93cf3d	0.07217262
196	0x3adb9b55	0.0016754667
197	0xbe52c599	-0.2058319
198	0x3ebd8fd2	0.3702379
199	0x3e1cf208	0.15326703
200	0x3ee35d8a	0.44407302
201	0x38cf40fe	9.882635e-05
202	0x3d27a071	0.040924493
203	0x3c93154b	0.01795449
204	0x3df9fa03	0.12205889
205	0x3eb0129a	0.34389192
206	0x3e249564	0.16072613
207	0x3e2958e9	0.16537823
208	0x3e9c46a9	0.3052266
209	0xbe15c689	-0.14626516
210	0x3d862be5	0.06551341
211	0xbccd935b	-0.025094679
212	0x3e708333	0.23487549
213	0xbe76f508	-0.2411691
214	0x3e0e7111	0.13910319
215	0x3d0ee1cb	0.0348833
216	0xbd3606fb	-0.04444025
217	0x3ea9c020	0.33154392
218	0x3e98a4e4	0.29813302
219	0x3e0aab96	0.13542017
220	0x3e421bb2	0.18955877
221	0x3eee4d94	0.46543562
222	0x3ec8b4cd	0.3920044
223	0xbde491ca	-0.111606196
224	0x3e0a7f6a	0.13525167
225	0x3e2b45e0	0.16725874
226	0xbdf2f641	-0.118633755
227	0xbe1dd5b9	-0.1541356
228	0x3ee2fbed	0.4433283
229	0x37dde27b	2.6450716e-05
230	0x3e86a4ae	0.26297516
231	0xbe1a50d6	-0.15069899
232	0x3e7aeef6	0.24505219
233	0x3e65e8c4	0.22452074
234	0xbe560712	-0.20901135
235	0x3ead55e1	0.33854583
236	0x3ead7f64	0.33886254
237	0x3eac6154	0.33668005
238	0x3d0cf67d	0.034414757
239	0x3f0275b4	0.5096085
240	0xbe555c26	-0.20835933
241	0x3d287b4b	0.041133206
242	0x3e5e1f07	0.21691523
243	0x3ec81bbb	0.39083657
244	0x3e8e1ee6	0.2775795
245	0xbe6d15db	-0.23152868
246	0x3ddd3881	0.10801793
247	0x3e6b8f87	0.2300397
248	0x3e6ec61b	0.23317759
249	0x3e0c804b	0.13720815
250	0x3edeb127	0.43494532
251	0x3e434b12	0.19071606
252	0x3d9336ca	0.071881846
253	0x3e9f12c9	0.3106902
254	0x3d8a2c7b	0.06746765
255	0x3ed28e60	0.41124249

value_stream.2.weight f4 [1, 256]
0	0x3e8cb2d0	0.27480173
1	0xbf05d2ee	-0.5227498
2	0x3f078345	0.52934676
3	0xbf17fee0	-0.59373283
4	0xbed5e010	-0.4177251
5	0xbf1bf565	-0.6092132
6	0xbf189c08	-0.59613085
7	0x3ee4235a	0.4455822
8	0xbf1ae844	-0.6051066
9	0xbf444ef9	-0.76683
10	0xbeef281c	-0.4671029
11	0xbf11d552	-0.56966126
12	0x3f24788f	0.6424646
13	0xbf3158ec	-0.6927631
14	0x3ee51d33	0.4474884
15	0x3ecdface	0.4023041
16	0x3edf17aa	0.43572742
17	0x3ec71f2f	0.3889098
18	0xbf26cf98	-0.6516051
19	0x3e8857f1	0.26629594
20	0xbe93904e	-0.28821033
21	0xbfa23eaf	-1.267538
22	0xbe9295bf	-0.28629872
23	0x3f1c182a	0.6097437
24	0xbe871794	-0.26385176
25	0x3ed48ceb	0.41513762
26	0x3ee15a04	0.4401399
27	0xbf176cdf	-0.591505
28	0x3f165030	0.58716106
29	0x3e8e30a3	0.27771482
30	0x3f08660e	0.53280723
31	0xbef4a24b	-0.4778007
32	0x3f37502b	0.716067
33	0x3f07516f	0.5285863
34	0x3ed4f9f7	0.41596958
35	0xbe80ed91	-0.2518125
36	0x3ed16d39	0.40903643
37	0x3f2df1f3	0.6794731
38	0xbf71a75e	-0.9439601
39	0xbf0d78b1	-0.55262285
40	0x3ed85f31	0.42260125
41	0x3f123dcd	0.5712555
42	0xbf20cf72	-0.62816536
43	0xbf97721c	-1.1831698
44	0x3eda05dc	0.42582595
45	0xbf0fd3c7	-0.5618252
46	0x3ebd47c7	0.36968824
47	0x3f015aca	0.5052916
48	0xbf22225f	-0.63333696
49	0x3ecb8217	0.39747688
50	0x3f0770c0	0.5290642
51	0x3f1cee40	0.6130104
52	0xbe6d79ba	-0.23190966
53	0x3f2135c2	0.6297265
54	0xbf9613ca	-1.1724789
55	0x3edd7318	0.43251872
56	0x3ef60599	0.48051146
57	0xbf3e1699	-0.7425323
58	0x3f2ec38e	0.6826714
59	0x3f1626eb	0.58653134
60	0x3f088b62	0.5333768
61	0xbfa39df6	-1.2782581
62	0x3f05091d	0.5196703
63	0xbf2f045c	-0.68366027
64	0xbf9689e6	-1.1760833
65	0x3f12f1b9	0.5740009
66	0x3ea3507d	0.31897345
67	0xbf2303e9	-0.6367784
68	0xbe85224d	-0.26002732
69	0x3f317ecd	0.6933411
70	0x3ebbb8e9	0.36664513
71	0x3ec06aec	0.37581575
72	0x3ee59513	0.44840297
73	0xbf3c4a01	-0.7355042
74	0x3efac4c5	0.48978248
75	0xbf28347d	-0.6570509
76	0xbf1943b8	-0.59868956
77	0xbf1dd9dc	-0.6166055
78	0xbf9b5469	-1.2135135
79	0xbf869524	-1.0514264
80	0xbf1246f9	-0.57139546
81	0x3ebe6d9f	0.3719301
82	0x3f194ce7	0.5988297
83	0x3ecc93ce	0.39956516
84	0xbeb5a08c	-0.3547405
85	0x3f14680f	0.5797128
86	0xbe7c25ce	-0.24623796
87	0x3eae35ad	0.34025326
88	0x3ea6db8c	0.32589376
89	0xbe7e6cb8	-0.2484616
90	0x3ed7626d	0.4206728
91	0xbf2d3425	-0.6765769
92	0x3ecfa7f4	0.40557826
93	0x3f09f300	0.53886414
94	0x3ee85019	0.4537361
95	0x3f00cf83	0.5031664
96	0x3f1ad568	0.6048188
97	0xbe77fb2c	-0.24216908
98	0x3ef0c2ca	0.47023612
99	0xbfa2e88d	-1.2727219
100	0xbf0e683b	-0.55627793
101	0x3ef2b269	0.4740174
102	0xbf20cd60	-0.6281338
103	0x3eefd5e3	0.4684287
104	0x3eee5d2d	0.46555462
105	0xbfb28250	-1.3946018
106	0xbf29b6c6	-0.66294515
107	0x3ecdcc08	0.40194726
108	0xbf483028	-0.7819848
109	0xbfa0dcd8	-1.2567396
110	0xbfa6bec6	-1.302697
111	0x3f1b5d08	0.6068883
112	0x3e8dd387	0.27700445
113	0xbf1507a7	-0.582148
114	0x3f2d6861	0.67737395
115	0xbf39088b	-0.7227866
116	0x3f1212d4	0.5705998
117	0xbf3c1ba2	-0.73479664
118	0xbed664da	-0.4187382
119	0xbf0bed18	-0.5465865
120	0xbf131730	-0.57457256
121	0xbf2170cf	-0.6306276
122	0xbe136d97	-0.14397274
123	0x3f2c058a	0.6719595
124	0xbf095710	-0.5364847
125	0xbeeef1eb	-0.46668944
126	0x3ee66293	0.4499708
127	0xbf2360a9	-0.63819367
128	0x3f1ec4ae	0.6201886
129	0xbf5d7ac9	-0.8651548
130	0x3f08da02	0.53457654
131	0x3f3b8485	0.73249084
132	0x3f2c154d	0.6722
133	0xbf2303bf	-0.6367759
134	0xbf11168f	-0.56675047
135	0x3ec35aea	0.381553
136	0x3f063eaf	0.524394
137	0x3e7e7a7a	0.24851409
138	0xbf428d77	-0.7599711
139	0x3ee132ab	0.4398397
140	0x3eecf1a3	0.46278104
141	0x3ec3b425	0.38223377
142	0xbf973e67	-1.1815919
143	0xbf6126ba	-0.8794972
144	0x3f1ef40e	0.6209115
145	0xbf8dd0f8	-1.1079397
146	0xbf51b677	-0.81919044
147	0xbf1d1a17	-0.61367935
148	0xbe90bf33	-0.28270873
149	0xbf14ea8d	-0.58170396
150	0xbf025eb6	-0.5092577
151	0xbf1fcfe6	-0.624266
152	0x3f15f95e	0.5858363
153	0x3f2da3dd	0.6782816
154	0x3f219a97	0.6312651
155	0x3ec3b028	0.38220334
156	0x3f3526b6	0.70762193
157	0x3f0c8604	0.5489199
158	0x3ea84d99	0.32871702
159	0x3f099d30	0.53755474
160	0xbf3a3bb0	-0.72747326
161	0x3ed3c067	0.4135773
162	0x3f2ac720	0.6671009
163	0xbf839cf5	-1.0282274
164	0xbf4aeaae	-0.7926434
165	0xbf1aed5f	-0.6051845
166	0xbfa6a03b	-1.3017648
167	0xbfb6b4b0	-1.4273891
168	0x3e9d6f02	0.30748755
169	0xbf371891	-0.7152186
170	0x3ea0614f	0.3132424
171	0xbf30acbd	-0.6901358
172	0xbf250b1a	-0.64470065
173	0xbf30490b	-0.68861455
174	0xbfd30dbf	-1.648857
175	0x3ece2abb	0.40266976
176	0x3f0c1c46	0.5473064
177	0x3e96ab65	0.2942764
178	0xbe84d646	-0.25944728
179	0xbf27eaeb	-0.6559283
180	0x3ee74ef1	0.45177415
181	0x3e619f33	0.22033386
182	0xbf389435	-0.72101146
183	0xbf1fd0dd	-0.62428075
184	0xbf348028	-0.7050805
185	0x3ef49e86	0.47777194
186	0x3f0c69d4	0.5484898
187	0xbf182545	-0.5943187
188	0xbe8d3067	-0.2757599
189	0xbf333bfb	-0.700134
190	0xbf3ef691	-0.7459498
191	0xbfb38186	-1.4023902
192	0x3f036302	0.5132295
193	0x3ea2d959	0.31806448
194	0x3f37b447	0.71759456
195	0x3ee1415b	0.43995175
196	0x3f51216a	0.8169161
197	0xbf8e2de2	-1.1107752
198	0xbf2d1173	-0.6760475
199	0x3f15aa9a	0.5846344
200	0xbf0f3a4a	-0.5594832
201	0x3f1e5abf	0.6185722
202	0x3f22a05d	0.63525945
203	0x3f4373ac	0.76348376
204	0x3f0d2e42	0.5514871
205	0xbf18c814	-0.59680295
206	0x3f1795e4	0.5921309
207	0xbf1e0dd1	-0.6173983
208	0x3eafc319	0.34328535
209	0xbf9fa2bc	-1.2471538
210	0x3ef1b35c	0.47207153
211	0x3f092022	0.53564656
212	0xbf0a997a	-0.54140437
213	0xbec6e4f0	-0.3884654
214	0xbf37ed57	-0.71846527
215	0xbfa0c198	-1.255908
216	0x3efc74c4	0.49307835
217	0xbf318ac1	-0.69352347
218	0xbf268adb	-0.65055627
219	0xbf09f9be	-0.538967
220	0xbf15e508	-0.585526
221	0x3eceb1b4	0.40369952
222	0xbf1ab915	-0.6043866
223	0xbf90d356	-1.1314495
224	0x3f0b9527	0.54524463
225	0x3f2eb321	0.6824208
226	0xbf109c7e	-0.5648879
227	0xbec674de	-0.38761038
228	0xbfa4af53	-1.2866005
229	0xbfdfa499	-1.7472106
230	0x3eb138da	0.34613687
231	0xbfa3891a	-1.2776215
232	0x3ead0ce7	0.33798906
233	0x3ec321f8	0.38111854
234	0xbf486905	-0.7828525
235	0xbf5c40d2	-0.8603641
236	0x3edc24f1	0.42996934
237	0xbf233713	-0.6375591
238	0x3f04af97	0.5183043
239	0xbfb8baed	-1.4432045
240	0xbf5dbd5f	-0.8661708
241	0x3f274919	0.65345913
242	0x3ef1f4ab	0.4725698
243	0x3efb090a	0.49030334
244	0xbf306f75	-0.6892007
245	0xbf31de1d	-0.6947954
246	0x3f39839c	0.72466445
247	0xbf22b3e6	-0.63555753
248	0xbf06cb5a	-0.5265404
249	0x3ec538c1	0.38519862
250	0x3ec512d6	0.38490933
251	0x3eb839c3	0.3598157
252	0xbf41ac14	-0.75653195
253	0xbf1f2276	-0.6216196
254	0x3ed2d779	0.41180018
255	0xbf1a8177	-0.603538
