active_slam_rl/training_output_slam/20260126_164625/d3qn_ep1380.pth (torch, 901810 bytes, 11 tensors)

feature.0.weight f4 [256, 100]
0	0xbe05e3ba	-0.13075152
1	0xbd483c96	-0.048885904
2	0x3e0b866e	0.136255
3	0x3e326e1d	0.17424817
4	0xbdef43cb	-0.11682852
5	0x3c6c1dad	0.014411372
6	0xbcd85890	-0.026409417
7	0x3be388a7	0.0069437805
8	0x3df658c7	0.12028652
9	0x3dc4e057	0.09613102
10	0x3c8cf50e	0.017206695
11	0x3e1ef77b	0.15524094
12	0x3dc0d481	0.09415532
13	0xbce9c498	-0.028536126
14	0x3c4eca42	0.012621464
15	0x3e7958e3	0.24350314
16	0x3e777c2e	0.24168465
17	0x3de24161	0.11047626
18	0x3dfc5cf0	0.12322414
19	0x3e2fb1eb	0.17157714
20	0x3e2025c9	0.15639414
21	0x3e5c4a74	0.21512777
22	0x3e765d56	0.24059042
23	0x3e2c53f6	0.16828904
24	0x3e1ebe18	0.15502203
25	0xbcff32a9	-0.031152086
26	0xbe511d30	-0.2042129
27	0xbb8b4a59	-0.0042508063
28	0xbdcda0ac	-0.10040411
29	0xbe64b5a8	-0.22334921
30	0xbd25cd20	-0.040478826
31	0xbe1e726f	-0.1547334
32	0xbe74c28f	-0.23902343
33	0xbe3e9d03	-0.18614583
34	0xbe5e6de6	-0.2172161
35	0xbe8f7c88	-0.28024697
36	0xbe8cda9b	-0.27510533
37	0xbe954ece	-0.29161686
38	0xbe73916e	-0.23785946
39	0xbe2c772c	-0.16842335
40	0xbe701349	-0.23444857
41	0xbea76738	-0.32695937
42	0xbe8d1e7c	-0.2756232
43	0xbe821729	-0.25408295
44	0xbe193dc7	-0.14964972
45	0xbe3e1c46	-0.18565473
46	0xbe675ea5	-0.22594698
47	0xbe99b5bc	-0.30021465
48	0xbe608cc0	-0.21928692
49	0xbda6a4ee	-0.081369266
50	0xbe3d60eb	-0.18494003
51	0xbe56d8c8	-0.20981133
52	0xbdd78a5e	-0.10524438
53	0xbd92827f	-0.071537964
54	0xbdaab13b	-0.08334585
55	0xbdff3528	-0.124613106
56	0xbde5c506	-0.1121922
57	0xbdadf06c	-0.084931225
58	0xbe1e0f30	-0.15435481
59	0x3d230aee	0.039805345
60	0xbce4c01a	-0.027923632
61	0x3e5235d7	0.20528351
62	0x3d97185c	0.07377693
63	0x3bfea20c	0.0077707823
64	0x3cd3d24d	0.025857115
65	0xbb10799f	-0.0022045148
66	0x3e57e3d9	0.2108301
67	0xbd67f81f	-0.05663311
68	0xbd2bb028	-0.041916043
69	0x3e2afca0	0.16697931
70	0xbda87974	-0.0822629
71	0x3de858d4	0.113450676
72	0xbd4cdf5d	-0.050017703
73	0xbe4eb699	-0.20186843
74	0x3d1da7ed	0.038490225
75	0xbe926378	-0.28591514
76	0xbe627593	-0.22115164
77	0xbd24dbe0	-0.04024875
78	0x3e1da9ce	0.15396807
79	0x3e2c42ca	0.16822353
80	0xbe4be886	-0.1991292
81	0xbe64c4a3	-0.22340636
82	0xbe26f495	-0.16304238
83	0xbd8fa20f	-0.07013332
84	0xbe8b79e0	-0.2724142
85	0xbe68ee97	-0.22747265
86	0xbe79e1c3	-0.24402528
87	0xbe88e104	-0.26734173
88	0xbe223b09	-0.15842833
89	0xbe0e6b27	-0.13908063
90	0xbe65c0f9	-0.22436894
91	0xbe858e8f	-0.26085326
92	0xbeaec5aa	-0.3413518
93	0xbe96d5d1	-0.29460004
94	0xbe784767	-0.24245988
95	0xbe9780a4	-0.29590333
96	0xbec0e51e	-0.37674803
97	0xbee35a87	-0.44405004
98	0xbee992b2	-0.45619732
99	0xbf2ee9e3	-0.6832563
100	0x3e9e2c90	0.30893373
101	0x3e9f9dbe	0.31175035
102	0x3e2647e2	0.16238359
103	0x3e25b55c	0.16182464
104	0x3d5374b7	0.05162498
105	0x3e0625b5	0.13100322
106	0x3c4e9eef	0.012611135
107	0x3e11a47b	0.142229
108	0x3d36dd09	0.04464439
109	0x3b18d588	0.0023320634
110	0xbdb84c3c	-0.089989156
111	0xbcd66b5e	-0.026174244
112	0xbe5703bb	-0.20997517
113	0xbe3d156c	-0.18465203
114	0xbe1c0c3d	-0.15239044
115	0xbe939a2b	-0.28828558
116	0xbe9b09af	-0.30280825
117	0xbe89eaed	-0.26937047
118	0xbe3afd04	-0.1826058
119	0xbe0505e2	-0.12990525
120	0xbeb14744	-0.34624684
121	0xbe07ab00	-0.13248825
122	0xbe3d4c34	-0.184861
123	0xbe8f1ec3	-0.27953157
124	0xbd85b120	-0.065279245
125	0xbe0798cf	-0.13241886
126	0xbe5c0a22	-0.2148824
127	0xbe912733	-0.2835022
128	0xbe54afd4	-0.20770198
129	0xbe3f4f65	-0.1868263
130	0xbe4cc56d	-0.19997187
131	0xbe7efb16	-0.24900469
132	0xbe39ebae	-0.18156311
133	0xbe104231	-0.1408775
134	0xbe3c8545	-0.18410213
135	0xbd83c92d	-0.064348556
136	0xbe3c6d65	-0.18401106
137	0xbe1e63d4	-0.15467769
138	0xbe3f6f35	-0.18694766
139	0xbe5959d9	-0.2122568
140	0xbd91af2f	-0.07113492
141	0xbdf70573	-0.12061586
142	0xbcddd76e	-0.027080264
143	0x3bfaab69	0.007649828
144	0xbce5dcc5	-0.028059373
145	0xbdf5fcbd	-0.120110966
146	0x3a4657a6	0.0007566161
147	0xbbef7589	-0.0073077125
148	0x3d28589b	0.041100126
149	0xbd492788	-0.049109966
150	0xbe0d479c	-0.13796848
151	0xbcb9b714	-0.022670306
152	0x3e048c05	0.12944038
153	0x3e40abdb	0.18815558
154	0x3e4dbe13	0.20092039
155	0x3d2d681d	0.04233562
156	0x3e799b00	0.24375534
157	0x3e40af5c	0.18816894
158	0x3e38c099	0.1804222
159	0xbdb300d4	-0.08740392
160	0xbd05aa10	-0.032632887
161	0x3d21efb5	0.039535243
162	0xbde079c3	-0.10960724
163	0x3c21ad48	0.009867974
164	0xbd80ce20	-0.06289315
165	0x3bf93cf5	0.0076061436
166	0xbdaa3223	-0.08310344
167	0xbd350360	-0.04419267
168	0xbe34744d	-0.1762249
169	0xbdcf730e	-0.10129367
170	0xbd2ce6e6	-0.04221239
171	0xbe6506bd	-0.22365852
172	0xbe31de4d	-0.17369957
173	0xbe55fa19	-0.20896186
174	0xbdeee7f9	-0.11665339
175	0xbe50245d	-0.20326371
176	0x3d2dd1c2	0.04243637
177	0xbe41e431	-0.18934704
178	0xbe1a2e9c	-0.15056843
179	0xbe3d4101	-0.18481828
180	0xbd8a140a	-0.067421034
181	0xbe5b7a37	-0.2143334
182	0x3cba9866	0.022777747
183	0xbd672d6c	-0.056439802
184	0xbcd99384	-0.026559599
185	0xbe633af4	-0.22190458
186	0xbd169028	-0.036758572
187	0xbd91e37c	-0.07123467
188	0xbe32165b	-0.1739134
189	0xbe0414f6	-0.12898621
190	0xbd3f59a6	-0.046716355
191	0xbc1be0ba	-0.009514028
192	0xbe28b0e2	-0.16473725
193	0xbe422c06	-0.18962106
194	0xbdee71c0	-0.1164279
195	0xbe1388c4	-0.1440764
196	0xbe4c9bc3	-0.19981293
197	0xbe801760	-0.25017834
198	0xbe41f04d	-0.18939324
199	0xbe14447c	-0.1447925
200	0x3e5dff46	0.2167941
201	0x3dd759bc	0.10515162
202	0x3d0b7ada	0.034052707
203	0x3dceaf76	0.1009206
204	0x3a00a865	0.0004907905
205	0x3c13367a	0.008985156
206	0x3e1f6154	0.15564471
207	0x3e05e54a	0.13075748
208	0x3e336c34	0.17521745
209	0x3e1a0786	0.15041932
210	0x3e3ae4da	0.18251362
211	0x3c678440	0.014130652
212	0x3e84e864	0.2595855
213	0xbd0f7893	-0.035027098
214	0xbe7c1236	-0.24616322
215	0xbea01ee6	-0.31273574
216	0xbe2c3be5	-0.16819723
217	0xbda222d1	-0.07916797
218	0xbc49fa86	-0.012327796
219	0x3db639ac	0.08897719
220	0xbe00f43f	-0.12593172
221	0xbe8910ef	-0.26770732
222	0xbd606970	-0.054788053
223	0xbe576f7f	-0.21038626
224	0xbdeeb1bd	-0.11654995
225	0xbdec4068	-0.11535722
226	0xbe7ab6e0	-0.24483824
227	0xbe5d285b	-0.21597426
228	0xbe6c1b89	-0.23057379
229	0xbe19cf06	-0.1502038
230	0xbe25bc2a	-0.1618506
231	0xbe72a081	-0.2369404
232	0x3acfb228	0.0015845941
233	0xbd66d039	-0.05635092
234	0xbd84d2a1	-0.06485487
235	0xbd6bbdf5	-0.057554204
236	0x3cad1373	0.021127438
237	0xbc54bb06	-0.012984043
238	0xbe80abfd	-0.25131217
239	0xbd355dbb	-0.04427884
240	0x3dab3260	0.08359218
241	0xbd54fa0c	-0.051996276
242	0xbce1d2f4	-0.02756641
243	0xbe215135	-0.15753634
244	0xbb97d989	-0.0046340865
245	0xbe78c1e0	-0.24292707
246	0xbe740c85	-0.23832901
247	0xbe709342	-0.23493674
248	0x3ba15130	0.0049230084
249	0xbd078487	-0.033085372
250	0xbe5ac4b6	-0.21364102
251	0x3c3ccc40	0.011523306
252	0x3e14c27e	0.14527318
253	0xbd4e9bee	-0.050441675
254	0x3e04e80e	0.12979147
255	0xbdc317cd	-0.09526024

feature.0.bias f4 [256]
0	0xbf0339c5	-0.51260024
1	0x3e4de657	0.20107399
2	0x3eed8ccb	0.4639648
3	0xbeb9f617	-0.36320564
4	0xbf8eaa46	-1.1145713
5	0xbf287872	-0.65808785
6	0x3f1d976d	0.6155918
7	0x3f0486da	0.5176827
8	0x3ef9718d	0.48719445
9	0xbe0fe1fe	-0.14051053
10	0x3eb53561	0.35392287
11	0x3d9782f8	0.07398027
12	0xbe45c65d	-0.19313951
13	0xbe944258	-0.28956866
14	0xbe898568	-0.26859593
15	0x3f05476a	0.52062094
16	0x3ed6af23	0.41930494
17	0x3e30b4ea	0.17256513
18	0x3ec52275	0.3850285
19	0x3da166da	0.078809455
20	0xbcde7a45	-0.027157912
21	0xbd8d7ae7	-0.069082074
22	0xbe9bde7f	-0.3044319
23	0x3ec49a8d	0.38399163
24	0xbf5f99ed	-0.8734425
25	0x3dbbd8d3	0.09172215
26	0x3f5ab1bf	0.8542747
27	0xbed95855	-0.42450204
28	0xbf6ac641	-0.9170876
29	0x3de122cd	0.10992966
30	0x3edf5f2c	0.43627298
31	0x3ec92c62	0.39291674
32	0x3e8d4eb8	0.2759912
33	0xbee26291	-0.44215825
34	0xbf1bd7d3	-0.60876197
35	0xbdb6d854	-0.0892798
36	0x3d863e35	0.06554834
37	0x3caa11ef	0.020760505
38	0xbf2e4358	-0.6807151
39	0x3f332e9d	0.69993
40	0x3ef84217	0.48487923
41	0x3e9220ca	0.2854064
42	0x3e580ac3	0.21097855
43	0xbea2b252	-0.31776673
44	0xbd9d1092	-0.07669176
45	0x3dd513bb	0.10404154
46	0xbecf5f69	-0.4050248
47	0x3f6648e7	0.8995499
48	0x3dd9d708	0.10636717
49	0x3ef11b06	0.4709093
50	0x3e702fd7	0.2345575
51	0xbf3d4ed9	-0.73948437
52	0xbeda49f2	-0.4263454
53	0x3d76d350	0.060260117
54	0x3cecd605	0.028910646
55	0xbd33c790	-0.04389149
56	0x3e93012e	0.28711838
57	0x3ebfc7b5	0.37457052
58	0xbecfbafb	-0.40572342
59	0xbdbad80f	-0.09123241
60	0x3e0cc047	0.13745223
61	0x3eeb816d	0.45997182
62	0xbe502d43	-0.20329766
63	0x3eae4424	0.34036362
64	0xbe1d91a4	-0.15387589
65	0xbedaf4dc	-0.42764938
66	0xbe983672	-0.29729038
67	0x3b8e73bd	0.004347293
68	0x3eae3677	0.34025928
69	0x3f02c54a	0.5108229
70	0x3e50c0a4	0.20385987
71	0x3f1a7d7f	0.6034774
72	0xbf0720be	-0.52784336
73	0xbe029517	-0.12752186
74	0x3f40388f	0.750863
75	0x3eee3c58	0.46530414
76	0xbd8053c2	-0.062659755
77	0x3f065887	0.5247883
78	0x3f240852	0.64075196
79	0xbf1d3a25	-0.61416847
80	0x3da75bbe	0.08171795
81	0xbeeb193d	-0.45917693
82	0xbe9da90d	-0.30793038
83	0x3e549d3d	0.20763107
84	0x3ea4f4e2	0.3221808
85	0xbeea0381	-0.45705798
86	0x3e894e29	0.26817444
87	0x3f343dbf	0.7040672
88	0xbe2e9df6	-0.17052445
89	0xbea99e05	-0.33128372
90	0x3ecd531e	0.40102476
91	0xbf0c1220	-0.54715157
92	0xbf0a6755	-0.5406392
93	0xbed8539b	-0.42251286
94	0x3e9f25af	0.31083438
95	0x3e2f66ec	0.17129105
96	0x3e4d5ad9	0.20054187
97	0x3e228ce6	0.15874061
98	0xbc1952c2	-0.00935811
99	0x3c6ef254	0.014584143
100	0xbdf95a3b	-0.12175413
101	0xbdd71477	-0.1050195
102	0x3e67d7ed	0.22640963
103	0x3ebc45c5	0.3677198
104	0x3dbabd03	0.091180824
105	0x3ef833d1	0.48477033
106	0x3eb30ff4	0.3497311
107	0xbf142ac0	-0.5787773
108	0x3f4cca9b	0.7999665
109	0xbe0a1fe7	-0.13488732
110	0xbecde341	-0.40212443
111	0x3e0ef353	0.13960008
112	0x3e183d93	0.14867239
113	0x3ec76ac1	0.38948634
114	0x3d96138d	0.07327948
115	0xbf058c76	-0.5216745
116	0x3ee5eea1	0.44908622
117	0x3eea8806	0.45806903
118	0xbf449cf5	-0.76802
119	0x3f15309d	0.58277303
120	0x3f173f74	0.59081197
121	0x3e5ec53e	0.2175493
122	0xbe370a96	-0.17875132
123	0x3dd2b440	0.10288286
124	0x3e8c9c0e	0.2746281
125	0xbedd3258	-0.43202472
126	0x3e881a9e	0.26582807
127	0x3e2596d7	0.16170822
128	0x3ef29be2	0.47384554
129	0x3d8e0ff1	0.06936634
130	0xbde54913	-0.111955784
131	0xbe4ab88b	-0.1979696
132	0xbf2d9d1e	-0.67817867
133	0xbebaa1aa	-0.36451465
134	0xbe27f7cb	-0.1640312
135	0x3de79f0b	0.11309632
136	0x3ea4e4f7	0.32205936
137	0xbf14febb	-0.5820119
138	0xbeb7461d	-0.3579568
139	0x3e852987	0.26008245
140	0x3eee2179	0.46509913
141	0x3f07fba2	0.53118336
142	0xbf2fe88a	-0.687142
143	0xbdf4c108	-0.1195088
144	0xbd2d7691	-0.0423494
145	0xbf141af5	-0.57853633
146	0x3dbbd05e	0.09170602
147	0x3f152f45	0.5827525
148	0x3ec28d08	0.37998223
149	0x3e0ff4c5	0.14058216
150	0x3f4bd0dd	0.79615575
151	0x3ed296b2	0.41130596
152	0xbecdab56	-0.4016978
153	0xbefe3425	-0.49649158
154	0xbe7844ff	-0.2424507
155	0xbeea5d90	-0.45774508
156	0x3c0d3c9b	0.0086204065
157	0xbee532b0	-0.44765234
158	0x3e36cd88	0.17851841
159	0x3f0a9a20	0.54141426
160	0xbbc756cf	-0.0060833464
161	0x3f2f7a35	0.6854585
162	0xbe444f49	-0.1917087
163	0xbe85ee11	-0.26158193
164	0xbdcc01a9	-0.09961254
165	0x3e1baefc	0.1520347
166	0x3f20beda	0.62791216
167	0xbf21f15b	-0.63258904
168	0xbe7fb06b	-0.24969642
169	0xbd195bc6	-0.037441038
170	0xbda0deb9	-0.07854981
171	0x3f1282e7	0.5723099
172	0xbf017ad2	-0.50578034
173	0xbe5a19e4	-0.21298939
174	0x3eb94864	0.36188042
175	0x3f10f4d1	0.5662356
176	0xbe87a76f	-0.2649493
177	0xbde3230f	-0.11090671
178	0x3edc6dc5	0.43052498
179	0x3ec9ef05	0.3944017
180	0x3e2eb0ea	0.17059675
181	0x3ef170e2	0.47156435
182	0x3d676483	0.05649234
183	0x3ef30a67	0.47468874
184	0x3e9056da	0.28191262
185	0xbd23d3e7	-0.039997008
186	0x3d119426	0.035541676
187	0xbf0284be	-0.509838
188	0xbf61b02a	-0.8815943
189	0x3eaddc62	0.339572
190	0xbec9848b	-0.39358935
191	0xbe12b930	-0.14328456
192	0xbe2ab86e	-0.16671917
193	0xbe451a39	-0.19248284
194	0x3ea92c3a	0.33041555
195	0xbe76a579	-0.2408656
196	0xbe0e0554	-0.1386922
197	0x3f1b73bb	0.60723466
198	0xbf131e52	-0.5746814
199	0xbe54654b	-0.20741765
200	0x3e604139	0.2189988
201	0x3e6faddf	0.2340617
202	0x3cb93a6d	0.022610867
203	0x3e9aa4d6	0.30203885
204	0xbcf5193d	-0.029919261
205	0x3eebca62	0.46052843
206	0x3eeaa912	0.45832115
207	0x3ecfa0f4	0.40552485
208	0x3ed5c091	0.4174848
209	0x3e884340	0.26613808
210	0xbcac4b84	-0.021032102
211	0x3f52f179	0.8239971
212	0xbee76da2	-0.4520083
213	0x3ee12f2c	0.43981302
214	0xbeeb36f2	-0.45940357
215	0x3f3faae8	0.7487016
216	0x3ee71c95	0.45138994
217	0x3d064764	0.032782927
218	0x3e022bde	0.12712047
219	0x3f223e3d	0.6337622
220	0xbccb852f	-0.02484378
221	0x3f111539	0.5667301
222	0xbe91fc6f	-0.28512904
223	0x3edb7c31	0.42868188
224	0xbf2dea89	-0.67936
225	0x3e07a3eb	0.13246123
226	0x3f177370	0.5916052
227	0xbe0c5a90	-0.13706422
228	0xbf177e36	-0.5917696
229	0xbed0bc07	-0.40768453
230	0x3f1143b9	0.5674396
231	0xbd4fb9f6	-0.050714456
232	0xbd916fb2	-0.07101382
233	0xbec73a66	-0.38911742
234	0xbe6e1dbb	-0.23253529
235	0xbee99992	-0.45624977
236	0x3caac411	0.020845445
237	0x3ef314cd	0.47476807
238	0xbed87881	-0.42279437
239	0xbcb8377b	-0.022487393
240	0xbef309e7	-0.47468492
241	0x3eb8d0ff	0.3609695
242	0x3e71024c	0.23536032
243	0xbe8be217	-0.2732093
244	0x3e228709	0.15871824
245	0x3edc1578	0.4298513
246	0x3e231e18	0.15929449
247	0x3eed8930	0.46393728
248	0xbee0de61	-0.43919662
249	0xbd95ae66	-0.073086545
250	0xbf1d552d	-0.6145809
251	0xbdf96bbf	-0.12178754
252	0x3ce54bfa	0.02799033
253	0x3ebeb11d	0.37244502
254	0xbe05730c	-0.13032168
255	0x3e80a787	0.25127813

feature.2.weight f4 [256, 256]
0	0xbcf25913	-0.02958349
1	0x3dd26d32	0.102747336
2	0x3b6708d8	0.0035253074
3	0xbd8913a1	-0.06693197
4	0xbeb2000e	-0.34765667
5	0xbdbbf6df	-0.09177946
6	0x3da7a853	0.08186402
7	0x3e6f610e	0.23376867
8	0x3e990d83	0.2989312
9	0x3e418fe1	0.18902542
10	0xbce80945	-0.028324733
11	0x3cddf195	0.027092734
12	0x3cd9adce	0.026572134
13	0xbe035eb0	-0.12829089
14	0xbe8e0c64	-0.27743828
15	0x3e5857dc	0.21127266
16	0xbdbf33bb	-0.09336039
17	0x3e2d8649	0.16945757
18	0x3d829d9e	0.06377719
19	0xbd74e759	-0.059790943
20	0xbe09013a	-0.13379374
21	0xbc02d4fe	-0.007985352
22	0xbdecfb94	-0.11571422
23	0xbe368c2e	-0.17826912
24	0xbd264a2d	-0.040598083
25	0x3e5047be	0.20339867
26	0x3ee42659	0.44560507
27	0xbdd2c985	-0.10292343
28	0xbea8efb3	-0.32995376
29	0x3d7f8d01	0.06239033
30	0x3cfe946c	0.031076632
31	0x3edf5221	0.43617347
32	0x3e70d62c	0.235192
33	0x3e5bdf94	0.21472007
34	0xbe202b64	-0.15641552
35	0x3dfedddb	0.12444659
36	0xbd775d55	-0.060391743
37	0x3e9c8ce1	0.30576232
38	0x3cf25d0c	0.029585384
39	0x3db9791e	0.090563044
40	0x3e874dbb	0.2642649
41	0xbdf03f29	-0.11730797
42	0x3e537021	0.20648243
43	0x3de42704	0.11140254
44	0x3d5123ec	0.05105965
45	0x3ed03b88	0.4067042
46	0x3d567532	0.05235786
47	0x3d671378	0.05641505
48	0x3cf71eb3	0.030166006
49	0x3f03f95a	0.51552355
50	0x3e7eb2ea	0.24872938
51	0xbe89e44c	-0.2693199
52	0xbcda97b3	-0.026683664
53	0x3e950e92	0.2911268
54	0xbe125cd7	-0.14293228
55	0x3c59cfa2	0.013294132
56	0x3d56736e	0.052356176
57	0x3e86f769	0.26360634
58	0xbdf1a8c0	-0.11799765
59	0xbe0604d8	-0.13087785
60	0x3d0c8edc	0.03431593
61	0x3dc353f7	0.095374994
62	0x3bb348ae	0.0054713106
63	0x3e8dd5a9	0.27702072
64	0x3bc1a257	0.005909245
65	0xbe1fb79a	-0.15597382
66	0xbe4560db	-0.19275229
67	0x3dd934bd	0.10605762
68	0x3f253c11	0.6454478
69	0x3e963a3d	0.29341307
70	0x3d83ed4d	0.06441746
71	0x3e81b15c	0.25330627
72	0xbe88fa36	-0.26753396
73	0x3a940460	0.0011292808
74	0x3efe1738	0.4962709
75	0x3ebaece7	0.36508867
76	0xbcb6cd33	-0.022314643
77	0xbb3dbe74	-0.002895263
78	0x3df5d391	0.12003244
79	0xbe275ced	-0.16344042
80	0xbdf51487	-0.11966806
81	0x3ca1b2c6	0.019738566
82	0x3cfa1b9a	0.03053074
83	0x3dcc2aea	0.09969123
84	0x3e979c8c	0.29611623
85	0x3cd8160a	0.026377697
86	0x3e25e035	0.1619881
87	0xbcb786bd	-0.022403115
88	0xbd04a8f9	-0.032387707
89	0xbe709e0e	-0.23497793
90	0x3e866bf7	0.26254246
91	0xbe9c3309	-0.30507687
92	0xbeaf7462	-0.3426848
93	0xbe06adff	-0.13152312
94	0x3ebf6fa0	0.3738985
95	0x3e6d88ab	0.23196666
96	0x3cbba74a	0.022906918
97	0x3dc3d222	0.09561564
98	0xbc04cc91	-0.008105413
99	0x3de10313	0.109869145
100	0x3e8afddc	0.27146804
101	0xbe9f8ccb	-0.31162104
102	0x3ee2176b	0.44158491
103	0xbe857fe5	-0.26074138
104	0xbc2306a8	-0.009950317
105	0x3dedb861	0.11607433
106	0x3ea6f5ba	0.3260935
107	0x3e19abc2	0.15006927
108	0x3e9dc202	0.3081208
109	0xbd374d64	-0.04475154
110	0x3e85751f	0.2606592
111	0xbd7060cf	-0.058686074
112	0x3e6d8319	0.23194541
113	0x3dc32d5e	0.095301375
114	0x3d84eb77	0.06490224
115	0xbef0bcfd	-0.47019187
116	0x3d186172	0.037202306
117	0x3e334b8f	0.17509292
118	0xbef55fb8	-0.4792459
119	0x3d57a800	0.05265045
120	0x3eee7645	0.46574607
121	0x3ea3849b	0.31937107
122	0x3dd835f4	0.10557166
123	0x3d42a978	0.0475249
124	0xbc464aea	-0.012102822
125	0x3e896b0a	0.26839477
126	0xbd89d594	-0.0673019
127	0xbd2e91c5	-0.042619485
128	0x3e9a10cd	0.30090943
129	0xbdc616dc	-0.09672329
130	0x3d468f8a	0.048476733
131	0x3e31ba5e	0.1735625
132	0xbee6a985	-0.45051208
133	0xbe89cdd2	-0.2691484
134	0x3ac02686	0.0014659918
135	0xbdbf6066	-0.093445584
136	0x3ed7dfb8	0.4216287
137	0x3dc196a9	0.09452564
138	0xbe1eb045	-0.15496929
139	0x3e000b2e	0.12504265
140	0x3e0c7697	0.13717113
141	0x3e4b2208	0.198372
142	0xbe5cb7c8	-0.21554482
143	0xbd909b16	-0.0706083
144	0x3e8b0c5e	0.27157873
145	0xbe8f77fb	-0.28021225
146	0xbe658008	-0.22412121
147	0x3e48f760	0.19625616
148	0xbce4a516	-0.02791075
149	0x3d77dc8f	0.060513075
150	0x3f142995	0.5787595
151	0x3e92fd69	0.28708962
152	0xbdf4d47f	-0.11954593
153	0xbeb3c0ad	-0.35107937
154	0xbdacca97	-0.084370784
155	0xbdc78867	-0.097428136
156	0xbd8176ca	-0.06321485
157	0x3e27cddc	0.16387123
158	0xbd333e56	-0.04376062
159	0x3ea0dae0	0.31416988
160	0xbe5f3e13	-0.21801023
161	0x3eae73db	0.34072766
162	0x3ea7d18e	0.32777065
163	0x3e325e80	0.17418861
164	0x3b44df39	0.0030040278
165	0xbe3ad755	-0.18246205
166	0x3f0819d7	0.5316443
167	0xbe00ac1f	-0.12565659
168	0xbd2862f1	-0.041109983
169	0x3ddc2add	0.10750363
170	0x3e3b4c36	0.18290791
171	0xbd2897e9	-0.041160498
172	0xbd9e78f8	-0.07737917
173	0x3cd062cc	0.025437735
174	0x3d5042df	0.050845023
175	0x3e21e603	0.15810399
176	0xbd8e7ea1	-0.06957746
177	0x3dda656b	0.10663875
178	0x3e5eacc4	0.21745592
179	0x3da97fb7	0.08276313
180	0x3d8b6473	0.068062685
181	0x3e84aec6	0.25914592
182	0x3e89cd5f	0.26914498
183	0x3f0672da	0.52519
184	0x3eb307f7	0.34967014
185	0xbcb74d92	-0.022375856
186	0xbe490664	-0.19631344
187	0xbdc826b3	-0.09773006
188	0xbe66d6ca	-0.22542873
189	0x3dd7405d	0.10510323
190	0x3d086711	0.033301417
191	0xbcca2418	-0.024675414
192	0xbe1e14f4	-0.1543768
193	0xbe29701c	-0.16546673
194	0x3ec22504	0.37918866
195	0xbe1645a8	-0.14675009
196	0x3e379a1b	0.1792988
197	0x3e92516d	0.28577748
198	0xbe1b6b7c	-0.15177721
199	0x3ddebc29	0.108757325
200	0x3db6c577	0.08924382
201	0xbd55ec09	-0.052227054
202	0x3ddd3342	0.10800792
203	0x3e7f3b24	0.24924904
204	0x3baf3598	0.005346965
205	0x3ed32825	0.41241565
206	0x3f0724db	0.5279061
207	0x3e4edb1f	0.20200776
208	0x3e0a4460	0.13502645
209	0x3d0d4515	0.03448971
210	0xbd959163	-0.07303121
211	0x3e04ee19	0.12981452
212	0xbe3ced53	-0.18449907
213	0x3e15613f	0.14587878
214	0xbe31a76e	-0.17349026
215	0x3eb83f9f	0.3598604
216	0x3c6c9ce1	0.0144417
217	0xbddef81b	-0.10887166
218	0xbcbc4526	-0.022982191
219	0x3e67b974	0.22629339
220	0xbd568f3e	-0.0523827
221	0xbd404036	-0.046936236
222	0x3e17bb35	0.14817508
223	0x3eac9f8e	0.3371548
224	0xbecbd10d	-0.3980793
225	0x3ed6ea03	0.41975412
226	0x3ee45fc7	0.44604322
227	0xbe8b0753	-0.27154025
228	0xbe34aaaa	-0.17643228
229	0x3d908a41	0.0705762
230	0x3bab2a1c	0.0052235257
231	0x3ec25682	0.37956625
232	0xbe1363f2	-0.14393595
233	0x3c1a5741	0.009420217
234	0xbe21fe90	-0.15819764
235	0xbeabb5c7	-0.33537123
236	0xbd0a87f6	-0.03382107
237	0x3e56b1b5	0.20966227
238	0x3dad5f40	0.08465433
239	0xbdcfcd82	-0.101466194
240	0x3daffb58	0.08592862
241	0x3da3f5e3	0.080058835
242	0x3e08b452	0.13350037
243	0x3d23b02d	0.039962936
244	0x3e20e47c	0.1571216
245	0x3d982aa8	0.07430011
246	0xbca75441	-0.020425918
247	0x3e66f063	0.22552638
248	0xbe89f502	-0.2694474
249	0xbe2c6c82	-0.16838267
250	0xbe82ef95	-0.25573412
251	0xbe842bc0	-0.2581463
252	0x3c15981d	0.009130505
253	0x3b63928a	0.0034724795
254	0xbea9d4d4	-0.33170187
255	0x3ea6ef08	0.3260424

feature.2.bias f4 [256]
0	0xbc1f15fd	-0.009709832
1	0xbe4fb72e	-0.20284721
2	0xbe1ffeaa	-0.1562449
3	0x3cf220b8	0.029556617
4	0xbe9166e5	-0.28398815
5	0xbd0fb9f3	-0.035089444
6	0x3d638371	0.055545274
7	0x3cc72d75	0.024313668
8	0xbd5274ef	-0.051381048
9	0xbecae3e6	-0.39626998
10	0x3e25a995	0.16177972
11	0xbcbd64b0	-0.0231193
12	0x3d432c25	0.04764952
13	0x3f1fc632	0.624118
14	0x3f37300a	0.71557677
15	0xbe308d78	-0.17241466
16	0xbe868f8f	-0.26281402
17	0xbe05417e	-0.13013265
18	0xbdd8fcd3	-0.105950974
19	0x3e4aa4c1	0.19789411
20	0xbc0a92a6	-0.008457815
21	0xbe3d863d	-0.18508239
22	0xbf479f8f	-0.7797784
23	0x3e5855fd	0.21126552
24	0xbeb9cc20	-0.36288548
25	0x3d5728f0	0.052529275
26	0xbe867462	-0.26260668
27	0xbe9a2092	-0.30102974
28	0xbd2052c1	-0.03914142
29	0xbe605b58	-0.21909845
30	0x3f75aff1	0.9597159
31	0x3d164343	0.03668524
32	0x3d8eaac1	0.069661625
33	0x3cba7a3a	0.02276336
34	0x3dd365a6	0.10322122
35	0xbd3a36e8	-0.04546252
36	0x3f02ce3b	0.5109593
37	0x3e04aeef	0.12957357
38	0xbe948274	-0.29005778
39	0xbe83c51e	-0.25736326
40	0x3d2216d5	0.039572556
41	0xbe23c7a6	-0.15994129
42	0xbe3b6a17	-0.18302189
43	0xbe8c81ba	-0.27442724
44	0xbe917d1a	-0.28415757
45	0xbb98c500	-0.004662156
46	0x3e343808	0.17599499
47	0xbe085dac	-0.13316983
48	0xbdd5f426	-0.10446958
49	0xbe75642f	-0.23963998
50	0x3cebcd21	0.028784337
51	0x3e24d3f4	0.16096479
52	0xbe33ae10	-0.17546868
53	0x3a15ca30	0.0005714027
54	0xbd8a0d10	-0.06740773
55	0x3e0a634c	0.13514441
56	0x3d6412d8	0.055682033
57	0xbea07456	-0.31338757
58	0xbe1d19d5	-0.15341885
59	0xbd7b3d8c	-0.061337993
60	0xbd5457b0	-0.051841438
61	0xbe001daf	-0.12511323
62	0xbeade567	-0.33964083
63	0x3d602323	0.05472101
64	0xbe793469	-0.24336399
65	0x3e91f93d	0.28510466
66	0x3df14ff7	0.1178283
67	0x3f54fcaf	0.83198065
68	0x3ee48bc2	0.44637877
69	0xbec591ef	-0.385879
70	0xbed3b8b9	-0.4135187
71	0xbcd8a4fb	-0.026445856
72	0x3dbe8f2c	0.093046516
73	0xbe965c0c	-0.293671
74	0x3eadab66	0.3391983
75	0x3db1040e	0.086433515
76	0xbee184ae	-0.4404654
77	0xbe2d5dc7	-0.16930304
78	0x3e39bc55	0.18138249
79	0x3e0f8f5d	0.14019533
80	0x3f180f36	0.5939821
81	0x3ad192c9	0.001598918
82	0x3cd25e81	0.025679829
83	0xbefca6c5	-0.49345985
84	0x3e046586	0.12929353
85	0x3e0b9bb1	0.1363361
86	0xbe7a95aa	-0.24471155
87	0x3dc835e7	0.09775906
88	0x3f4fd235	0.81180125
89	0x3ea0e8a7	0.314275
90	0xbea338db	-0.31879315
91	0x3c40eac0	0.011774719
92	0xbe2b4d1a	-0.1672863
93	0xbe3503fd	-0.17677303
94	0xbe0805b8	-0.13283432
95	0x3f107ca6	0.564402
96	0x3ef04192	0.46925026
97	0xbe82c979	-0.25544336
98	0x3efde9ae	0.49592346
99	0x3e24ee34	0.16106492
100	0x3c223227	0.009899653
101	0xbd79eded	-0.06101792
102	0xbc1cda89	-0.009573587
103	0xbe3b0504	-0.18263632
104	0xbeb7b779	-0.35882166
105	0xbe878c17	-0.26474068
106	0x3e1fe00d	0.15612812
107	0x3d825c32	0.06365241
108	0xbf10d6ec	-0.56577945
109	0x3e3852db	0.18000357
110	0x3cd27f3d	0.025695438
111	0xbd5ccd4c	-0.053906724
112	0xbe844585	-0.2583429
113	0xbe7848a6	-0.24246463
114	0xbe78d1b6	-0.24298748
115	0xbbc5952f	-0.006029747
116	0x3d90a9ab	0.070636116
117	0xbef4ad45	-0.47788444
118	0x3e149f5e	0.14513919
119	0xbe594b2d	-0.21220084
120	0x3d58276c	0.05277197
121	0x3dc3afa4	0.09554985
122	0x3e22a550	0.15883374
123	0xbec3a43d	-0.3821124
124	0x3d9ed14f	0.07754766
125	0xbe0d1ec8	-0.13781273
126	0xbebe1dab	-0.3713201
127	0xbd6b3001	-0.057418827
128	0xbe58b896	-0.21164164
129	0x3e276583	0.16347317
130	0xbd94e6ed	-0.07270608
131	0xbda3fd66	-0.08007316
132	0x3d9494f1	0.07254971
133	0x3de18153	0.11010995
134	0x3d1bc001	0.038024906
135	0x3e76c366	0.24097976
136	0x3db4a5f5	0.08820716
137	0x3ef9f49b	0.48819432
138	0x3e960b36	0.29305428
139	0xbea4ce7a	-0.3218878
140	0x3f501560	0.81282616
141	0x3dafe060	0.08587718
142	0xbec738ce	-0.38910526
143	0xbed75645	-0.42058006
144	0x3e7af152	0.24506119
145	0x3d69cec9	0.05708197
146	0xba189816	-0.00058210024
147	0xbe2ba7fa	-0.16763297
148	0xbf0dc974	-0.5538552
149	0x3e15b1b2	0.14618567
150	0x3ccef386	0.025262605
151	0xbd86cd77	-0.06582158
152	0xbdcef357	-0.10105007
153	0xbdd6c46e	-0.10486685
154	0x3e2fc49e	0.17164847
155	0xbe1ebfb3	-0.15502815
156	0x3e59bfdb	0.21264593
157	0x3f3c4c29	0.7355371
158	0x3df769bb	0.12080713
159	0xbe803bae	-0.25045532
160	0x3da344af	0.07972085
161	0xbb9b2edb	-0.00473581
162	0xbec01161	-0.3751326
163	0xbe6e9295	-0.23298104
164	0xbe0f4870	-0.13992476
165	0xbec08541	-0.37601665
166	0x3e07446c	0.13209695
167	0xbef86302	-0.48513037
168	0x3e27b680	0.16378212
169	0x3d53edd5	0.051740486
170	0xbd913793	-0.07090678
171	0x3ebb13e0	0.365386
172	0x3f2ce100	0.6753082
173	0xbed4c959	-0.41559866
174	0xbe81a630	-0.25322104
175	0x3e163104	0.14667135
176	0x3e1ae522	0.1512647
177	0x3e066594	0.13124686
178	0x3e041c31	0.12901379
179	0x3e17fa65	0.14841612
180	0xbc4b6742	-0.012414755
181	0x3c860e55	0.016364256
182	0xbee3a603	-0.44462594
183	0x3e37c8db	0.17947714
184	0xbed080f9	-0.40723398
185	0x3f10f326	0.56621015
186	0x3e27726b	0.1635224
187	0xbef13d72	-0.47117192
188	0xbe35d008	-0.17755139
189	0x3bdbfde8	0.0067136176
190	0x3d7acded	0.061231542
191	0x3dc1d44c	0.094643205
192	0x3e6a80f8	0.2290076
193	0xbec9e246	-0.39430445
194	0xbeed28aa	-0.46320087
195	0x3e8ab414	0.27090514
196	0xbeb23a96	-0.34810323
197	0xbf216558	-0.63045263
198	0x3f399468	0.72492075
199	0xbed56dae	-0.4168524
200	0x3e2148dc	0.1575045
201	0xbe16548b	-0.14680688
202	0x3d3052bf	0.043047663
203	0x3f0f6879	0.5601879
204	0xbd9de9b3	-0.0771059
205	0x3e12c400	0.1433258
206	0xbdfacccb	-0.122460924
207	0x3f40eef6	0.75364625
208	0xbdf5c964	-0.12001303
209	0xbeab0847	-0.33404753
210	0x3ef1fa75	0.47261396
211	0x3bc2edee	0.0059487736
212	0x3e8073ba	0.25088292
213	0x3e003d81	0.12523462
214	0xbdcb8d95	-0.09939114
215	0xbd813f0d	-0.06310854
216	0x3d5e53c8	0.05427912
217	0x3cca253f	0.024675963
218	0xbe3464fc	-0.17616647
219	0x3d102131	0.035187904
220	0x3e471f8e	0.19445631
221	0x3e61dd32	0.22057036
222	0x3d1b8646	0.03796985
223	0xbe2c83eb	-0.16847198
224	0x3f2b0614	0.6680615
225	0x3e3c485a	0.18386975
226	0xbeaf3dd6	-0.34226865
227	0x3d81b0e2	0.06332566
228	0x3e80c720	0.2515192
229	0x3e11325c	0.14179367
230	0x3d7bce88	0.06147626
231	0xbeb63af4	-0.35591853
232	0xbd94ba61	-0.072621115
233	0x3d0cf150	0.03440982
234	0x3e995a26	0.2995159
235	0x3f36a3dc	0.7134378
236	0xbe5141bb	-0.2043523
237	0x3eef84d8	0.4678104
238	0xbdcd34da	-0.10019846
239	0xbd15885b	-0.03650699
240	0x3e94334f	0.28945395
241	0xbc7a2138	-0.015266709
242	0xbe9d7e11	-0.30760244
243	0x3f2fe232	0.6870452
244	0xbe1ce4c3	-0.1532164
245	0xbec8712e	-0.3914885
246	0xbddec125	-0.10876683
247	0xbe1fbc2f	-0.1559913
248	0x3e03ec59	0.12883128
249	0xbded11a1	-0.11575628
250	0x3ce48e05	0.027899751
251	0x3dd12591	0.10212243
252	0xbd5efbcd	-0.054439355
253	0xbc8989f7	-0.01678942
254	0xbe5694a3	-0.20955138
255	0xbcecd2d2	-0.02890912

value_stream.0.weight f4 [256, 256]
0	0xbf0315cf	-0.5120515
1	0xbe880115	-0.26563326
2	0xbd3dc91e	-0.04633438
3	0xbf3999ba	-0.72500193
4	0xbd0e00f3	-0.034668874
5	0xbc999d98	-0.018751904
6	0xbf685be5	-0.9076522
7	0xbeb2f894	-0.34955275
8	0xbf026384	-0.509331
9	0x3e11c00c	0.14233416
10	0x3c80e521	0.015734257
11	0xbe50047f	-0.20314215
12	0xbe1765a9	-0.14784874
13	0x3ebd7305	0.37001815
14	0x3e366122	0.1781049
15	0x3d60a98d	0.054849196
16	0x3d3be998	0.04587707
17	0xbf4b9b49	-0.7953382
18	0xbe9535ce	-0.29142612
19	0xbecf0bbb	-0.40438637
20	0xbf08de22	-0.5346395
21	0xbe98e449	-0.29861668
22	0xbbd11ad9	-0.0063813743
23	0xbe96e7ea	-0.2947381
24	0xbdb318e9	-0.087449856
25	0xbe3dcb67	-0.18534623
26	0xbe84fdcc	-0.25974882
27	0xbeed1bd1	-0.46310285
28	0xbeb029c9	-0.3440688
29	0xbd9cb7df	-0.07652258
30	0x3e40cfca	0.18829265
31	0x3dcfa864	0.1013954
32	0xbddaf044	-0.10690358
33	0x3c7a94c9	0.015294262
34	0xbe09333d	-0.13398452
35	0xbe7a70ab	-0.24457042
36	0x3e26158b	0.16219155
37	0xbef00759	-0.46880606
38	0xbec8aae8	-0.3919289
39	0xbf3a85b2	-0.7286025
40	0xbe728754	-0.23684436
41	0x3d337528	0.0438129
42	0xbe8975e5	-0.2684776
43	0xbec28179	-0.37989405
44	0xbe7802a0	-0.24219751
45	0xbea404f0	-0.32035017
46	0xbcd72f56	-0.026267689
47	0xbe863953	-0.2621561
48	0x3d80b103	0.06283762
49	0xbdf0f413	-0.117653035
50	0xbe21a143	-0.15784173
51	0xbecb68d2	-0.3972841
52	0xbe6f21f1	-0.23352791
53	0xbe4d4b17	-0.20048176
54	0xbedc8c05	-0.43075576
55	0x3e8df3f3	0.2772518
56	0xbe6ddbfb	-0.23228447
57	0x3c38a60b	0.0112700565
58	0xbe1eea9d	-0.15519185
59	0xbe84ccb8	-0.25937438
60	0xbf62f55d	-0.88655645
61	0xbe2c1307	-0.16804133
62	0xbe0bdfd4	-0.13659602
63	0x3eba57ed	0.36395207
64	0x3db9a5af	0.09064805
65	0xbd75abc1	-0.05997825
66	0xbebb8bc1	-0.3663006
67	0x3d90df9a	0.070738986
68	0xbd84b9f6	-0.06480782
69	0xbe86d18f	-0.26331756
70	0xbee913c4	-0.45522892
71	0xbf014776	-0.50499666
72	0xbee2beef	-0.44286296
73	0xbd6edfca	-0.05831889
74	0x3c90f5eb	0.017695388
75	0xbe27529c	-0.16340107
76	0xbda435ba	-0.0801806
77	0xbf3d7f53	-0.74022406
78	0xbf20a7dd	-0.6275614
79	0xbe60eff6	-0.21966538
80	0x3d897dc3	0.0671344
81	0xbd9a0b5b	-0.07521697
82	0xbef18729	-0.47173432
83	0x3d53fb26	0.051753186
84	0xbdcc2cf8	-0.099695146
85	0x3dd807fd	0.10548399
86	0xbe23d894	-0.16000587
87	0xbe0d2e05	-0.13787086
88	0x3bec96a6	0.007220107
89	0xbe1c7fcc	-0.15283126
90	0x3d7cc49f	0.06171095
91	0xbeee1a78	-0.4650457
92	0xbe6d86c8	-0.23195946
93	0xbcbde170	-0.023178786
94	0x3cad9114	0.021187343
95	0x3c7d8f36	0.015476039
96	0xbda731eb	-0.08163818
97	0x3da0b96b	0.07847866
98	0xbd1cf2a3	-0.038317334
99	0xbf0c82b7	-0.54886955
100	0xbd7c2118	-0.061555
101	0xbde837d8	-0.11338776
102	0x3db7e098	0.08978385
103	0xbf2b1e92	-0.6684352
104	0xbed612a9	-0.41811112
105	0x3d4e4b25	0.050364632
106	0xbe7bbeb9	-0.24584474
107	0xbf047dbe	-0.5175437
108	0xbe05a532	-0.13051298
109	0x3e9488ad	0.29010525
110	0xbecd3fa1	-0.40087608
111	0xbdd3c15d	-0.103396155
112	0xbed5057b	-0.41605744
113	0x3dd4e26e	0.103947505
114	0xbd3e94b7	-0.046528544
115	0xbe8b315b	-0.27186093
116	0xbeb9b437	-0.36270306
117	0xbcf53acb	-0.029935261
118	0xbe523069	-0.2052628
119	0xbd19f057	-0.03758272
120	0xbf1c30af	-0.61011785
121	0x3d304bb7	0.043040957
122	0xbf3be4f7	-0.7339625
123	0xbf9e2065	-1.2353636
124	0xbd8e58c6	-0.06950526
125	0xbe261db3	-0.16222267
126	0xbe9bf2fd	-0.30458823
127	0xbf3409b3	-0.703273
128	0xbeab820e	-0.3349766
129	0x3e5d6bef	0.21623205
130	0xbe873350	-0.26406336
131	0xbea63f41	-0.32470134
132	0xbed67b5a	-0.41890985
133	0xbf3a9e05	-0.7289737
134	0xbecd747d	-0.40127936
135	0xbefbb93e	-0.49164766
136	0x3e41d583	0.18929105
137	0xba38f1af	-0.00070550566
138	0x3e922f30	0.28551626
139	0x3d48d479	0.049030755
140	0x3ac73a57	0.0015199882
141	0xbe20d256	-0.15705237
142	0xbd4a4308	-0.049380332
143	0xbd6e1c34	-0.058132365
144	0xbef9c760	-0.48784924
145	0xbd2af66f	-0.041738924
146	0xbefffa74	-0.49995768
147	0x3d284eec	0.04109089
148	0xbe23abc2	-0.15983489
149	0xbf20c63b	-0.62802476
150	0xbeb954a7	-0.36197397
151	0xbf08ac97	-0.5338835
152	0xbe140e71	-0.14458634
153	0x3d039f07	0.032134082
154	0x3e8dfa35	0.27729955
155	0xbe0f7ea7	-0.14013158
156	0xbf0de52d	-0.5542782
157	0x3da403ef	0.08008563
158	0xbe055e60	-0.13024282
159	0xbd8413fb	-0.064491235
160	0xbebcb8ed	-0.36859837
161	0xbed680df	-0.41895196
162	0x3e015bdb	0.12632696
163	0x3d00793c	0.031365618
164	0xbf1c5db6	-0.6108049
165	0x3db5be96	0.08874242
166	0xbd8daa96	-0.06917302
167	0x3a60fcde	0.0008582602
168	0xbdbd2e57	-0.09237354
169	0xbdeb149a	-0.11478539
170	0xbe803989	-0.25043896
171	0xbdc2921e	-0.09500526
172	0x3dc31718	0.09525889
173	0xbe680b7a	-0.22660628
174	0xbe4d76e5	-0.20064886
175	0xbd63b802	-0.055595405
176	0xbe65b07e	-0.22430608
177	0xbe2bb85f	-0.1676955
178	0xbe89bdae	-0.26902527
179	0xbe1676da	-0.14693776
180	0xbdf48aef	-0.11940562
181	0x3e5b488c	0.21414393
182	0xbd847c16	-0.0646898
183	0xbefe8360	-0.49709606
184	0xbeea31a2	-0.45740992
185	0x3cdc39f9	0.026883112
186	0xbf33ebbd	-0.70281583
187	0xbcb3922e	-0.02192029
188	0xbe25dda5	-0.16197832
189	0xbe6b0826	-0.22952327
190	0xbd9ba9a5	-0.076007165
191	0xbf23a1c1	-0.6391869
192	0xbe04d10c	-0.1297037
193	0xbe7cf01c	-0.2470097
194	0xbd66ab41	-0.056315664
195	0xbdbd949f	-0.09256863
196	0xbebb4dcc	-0.36582792
197	0xbe82d775	-0.25555006
198	0x3bb8fe88	0.005645577
199	0x3adf2600	0.0017024875
200	0xbeca03b3	-0.39455947
201	0x3e8588b8	0.2608087
202	0xbf0b4977	-0.54408973
203	0xbdbe1418	-0.09281176
204	0xbe3facff	-0.18718337
205	0xbf155440	-0.5833168
206	0xbdca6d72	-0.09884156
207	0x3dcadd0b	0.09905442
208	0x3c9ae6ba	0.018908847
209	0xbf3b946d	-0.73273355
210	0x3eb14b1a	0.3462761
211	0xbeea1609	-0.45719936
212	0xbf7f15d3	-0.99642676
213	0x3de7c304	0.11316493
214	0x3c1c90ee	0.009556038
215	0xbe82f743	-0.2557927
216	0x3de1e057	0.110291176
217	0xbe4f1b3b	-0.20225231
218	0xbe8fda67	-0.28096315
219	0xbf09bf46	-0.53807485
220	0xbf040ab6	-0.51578844
221	0xbf895d10	-1.0731525
222	0xbedfa6af	-0.43681857
223	0x3d12da21	0.035852555
224	0xbda4479e	-0.080214724
225	0xbee8e173	-0.45484504
226	0xbd458b9a	-0.048228838
227	0xbedd47f9	-0.43218973
228	0xbe6339c8	-0.2219001
229	0xbf20f08f	-0.62867063
230	0x3a11c4fd	0.00055606646
231	0xbf660b7f	-0.8986129
232	0xbe48e8a8	-0.19620001
233	0xbe8c4f50	-0.2740426
234	0xbf218427	-0.63092273
235	0xbd883ba0	-0.066519976
236	0xbd9cc80e	-0.07655345
237	0x3dfb4e29	0.12270767
238	0xbe14f452	-0.14546326
239	0xbe7ca858	-0.24673593
240	0xbde2df36	-0.1107773
241	0xbe48ac0c	-0.1959688
242	0x3d3f32da	0.046679355
243	0x3e921b76	0.28536576
244	0xbf0f74d3	-0.56037635
245	0xbf376325	-0.7163566
246	0xbe12b780	-0.14327812
247	0x3cf70666	0.030154418
248	0xbf01da3f	-0.5072364
249	0xbc83cefc	-0.016089909
250	0xbeaff69b	-0.34367833
251	0x3e8ee0f7	0.2790601
252	0xbe78fc08	-0.24314892
253	0xbf0da13d	-0.55324155
254	0xbf0d8ca6	-0.5529274
255	0xbf4b09dc	-0.7931192

value_stream.0.bias f4 [256]
0	0x3f05433d	0.5205572
1	0x3f00eb5b	0.50359124
2	0xbe133ace	-0.14377901
3	0x3eee8a20	0.46589756
4	0x3e8662d5	0.26247278
5	0x3ed9d74a	0.42547065
6	0x3e7cc319	0.24683799
7	0x3e230910	0.15921426
8	0x3ec531dc	0.38514602
9	0xbe4ca893	-0.19986181
10	0x3dbb71e5	0.09152583
11	0x3f25bbff	0.64739984
12	0x3e527032	0.20550612
13	0x3e93e2f3	0.28884086
14	0x3ebdefff	0.37097165
15	0xbd8bc745	-0.06825117
16	0x3edd7168	0.43250585
17	0x3f134b17	0.57536453
18	0xbeef9493	-0.4679304
19	0x3d3f20e6	0.046662234
20	0xbedfb7f8	-0.43695045
21	0x3d6548a3	0.055977475
22	0xbea651d0	-0.32484293
23	0x3db71f83	0.08941557
24	0xbe8b6620	-0.27226353
25	0x3d92a39b	0.071601115
26	0x3beeff0e	0.0072935885
27	0x3efae8c2	0.49005705
28	0xbe1fe293	-0.15613775
29	0x3f029416	0.5100721
30	0x3d0305b3	0.031987857
31	0x3ee469f3	0.44612083
32	0x3d78bd7d	0.060727585
33	0x3b74cdb2	0.003735405
34	0xbd5f4d9c	-0.054517373
35	0xbe85e3a3	-0.26150236
36	0x3eabc861	0.33551314
37	0x3c4f5cc7	0.012656397
38	0x3eff2158	0.49830127
39	0x3f1acf7d	0.6047285
40	0x3c8f6068	0.017502025
41	0xbd253f14	-0.04034336
42	0x3ea21b66	0.31661528
43	0xbc06e6f7	-0.008233777
44	0x3e75bb75	0.2399729
45	0x3e4d109d	0.20025869
46	0x3ee4c921	0.446847
47	0x3e7f366b	0.24923103
48	0x3e748f14	0.23882705
49	0x3d918bc3	0.071067356
50	0x3f0dd679	0.55405384
51	0x3e0dfeff	0.13866805
52	0xbe106823	-0.14102225
53	0x3e860c93	0.26181468
54	0x3d8c0eb8	0.06838745
55	0x3e98b11d	0.29822627
56	0xbd9f3f12	-0.077757016
57	0x3f342d92	0.70382035
58	0xbd6e9de5	-0.05825605
59	0x3d6a816c	0.057252333
60	0x3e4bed7f	0.19914816
61	0x3f017940	0.5057564
62	0xbc9e1fd0	-0.019302279
63	0x3e8be215	0.27320924
64	0x3e061268	0.13092959
65	0xbb8eb64c	-0.0043552276
66	0x3ec197e3	0.37811193
67	0x3f0fd317	0.5618147
68	0xbe9007ed	-0.28131047
69	0x3e2fe5c3	0.17177491
70	0x3e72c705	0.23708732
71	0x3e124527	0.14284192
72	0x3ec0a4bf	0.3762569
73	0xbd000a89	-0.031260047
74	0x3ca46db8	0.02007185
75	0x3ebf1dc9	0.37327412
76	0x3f4522c9	0.770062
77	0x3ebe9bb7	0.37228176
78	0x3df5cfeb	0.12002548
79	0x3f577c19	0.84173733
80	0x3e47514f	0.1946461
81	0x3f134cdc	0.57539153
82	0x3cb00118	0.021484897
83	0x3da19694	0.078900486
84	0x3de75d37	0.11297076
85	0x3dc5983f	0.09648179
86	0xbe89b13d	-0.26893035
87	0x3f13cc9f	0.577341
88	0x3e450b53	0.19242601
89	0xbef76d4e	-0.4832558
90	0x3e823aab	0.25435385
91	0x3e245dff	0.16051482
92	0x3d3cadf8	0.046064347
93	0x3ce06c02	0.027395252
94	0x3c443bdd	0.011977163
95	0xbd19bb33	-0.037532043
96	0x3ea879f2	0.32905537
97	0xbeb8d59f	-0.3610048
98	0x3eed6344	0.46364796
99	0x3f08daad	0.5345867
100	0xbddc4672	-0.10755624
101	0xbc34ef29	-0.011043348
102	0x3e343925	0.17599924
103	0x3eeaddc8	0.4587233
104	0x3d4aeaa5	0.04954018
105	0x3ee9229c	0.45534217
106	0x3e9a38ca	0.30121452
107	0x3ec45391	0.38345006
108	0x3ea85427	0.32876703
109	0x3dbfef03	0.0937176
110	0x3f237e58	0.6386466
111	0x3ebf8520	0.37406254
112	0x3e0f1458	0.13972604
113	0x3f4121c9	0.7544218
114	0x3e62ff0b	0.22167604
115	0xbdc2851a	-0.09498043
116	0x3e0484e9	0.12941326
117	0x3ee3b63d	0.44474974
118	0x3dfd83dc	0.12378666
119	0xbd9e9f97	-0.07745283
120	0x3f100094	0.5625088
121	0x3f09bd05	0.53804046
122	0xbf01549f	-0.50519747
123	0xbd6f1a7e	-0.058374874
124	0x3ec8f6f5	0.39250913
125	0x3ec6bb10	0.38814592
126	0xbd91a34f	-0.07111227
127	0x3e0a0f46	0.13482389
128	0x3ca3b387	0.019983066
129	0x3a8f7bce	0.0010946931
130	0x3e021e98	0.12706983
131	0x3e9b085c	0.30279815
132	0x3e4a8e96	0.19780955
133	0x3ecbd76f	0.398128
134	0x3e97af80	0.29626083
135	0x3e9005b8	0.28129363
136	0x3c69fc68	0.01428137
137	0x3e09a9d3	0.13443689
138	0x3e89a268	0.2688172
139	0x3eb3cd0a	0.3511737
140	0x3db59f97	0.0886833
141	0x3e382368	0.17982256
142	0x3d2909b0	0.041269004
143	0xbea8a8c3	-0.32941255
144	0x3d32493a	0.043526866
145	0x3f2dd1ca	0.6789824
146	0xbe8345dc	-0.25639236
147	0x3ed68e9e	0.41905683
148	0xbecdf69e	-0.40227216
149	0x3ebac5a0	0.364789
150	0x3efe825f	0.4970884
151	0x3ebd352d	0.36954632
152	0x3e805ba9	0.2506993
153	0x3e54737c	0.20747179
154	0x3e0d6f89	0.13812079
155	0x3e8b1a9a	0.27168733
156	0x3d1c3978	0.038140744
157	0x3da99dc0	0.082820415
158	0x3e00f2bc	0.12592596
159	0xbd7c2602	-0.061559685
160	0xbdd63a2c	-0.10460314
161	0x3efe0ced	0.49619237
162	0x3d78b3d4	0.060718372
163	0x3ebf49b8	0.3736093
164	0x3ef8bcf9	0.48581675
165	0x3f1309c2	0.57436764
166	0x3f392146	0.72316396
167	0x3ef8bcbf	0.48581502
168	0x3f0a436b	0.5400912
169	0x3ef8675d	0.4851636
170	0x3ed2b57d	0.4115409
171	0x3e642333	0.22279052
172	0x3ea43316	0.32070225
173	0x3ece9a9c	0.40352333
174	0x3e1209cd	0.14261551
175	0x3ee711e8	0.4513085
176	0x3e8a937e	0.27065653
177	0x3f093960	0.5360317
178	0xbecc2d47	-0.39878294
179	0x3eb26113	0.34839687
180	0x3ea5eb5a	0.32406121
181	0x3f09c78c	0.5382011
182	0x3d8ecf85	0.06973175
183	0x3d4762b0	0.0486781
184	0x3ed4ab5c	0.41536987
185	0x3f098f47	0.5373425
186	0x3e302bd3	0.17204218
187	0xbd92efb9	-0.0717463
188	0xbe6ceeb6	-0.23137936
189	0x3ec33c57	0.38131973
190	0xbd824a56	-0.06361835
191	0x3ef16501	0.47147372
192	0x3eb19e2f	0.34690997
193	0x3f050e94	0.5197537
194	0x3e376100	0.17908096
195	0x3e090755	0.13381703
196	0x3b343466	0.0027497052
197	0xbdb3648d	-0.08759413
198	0x3ec027c8	0.3753035
199	0x3e1c3a2c	0.15256566
200	0x3f466594	0.77498746
201	0x3dc8238f	0.09772407
202	0x3dd1b402	0.10239412
203	0x3c9b9516	0.018991988
204	0x3e57e67d	0.21084018
205	0x3f14720e	0.57986534
206	0x3e8d4597	0.27592155
207	0x3eec382f	0.46136615
208	0x3ee513eb	0.4474176
209	0x3dbb9e6d	0.09161077
210	0x3eae7587	0.3407404
211	0x3cea2140	0.028580308
212	0x3e5d0730	0.21584773
213	0xbe9c4f3d	-0.30529204
214	0x3e724a5d	0.2366118
215	0x3e2eaa4c	0.1705715
216	0x3c27348f	0.010205402
217	0x3ecbe316	0.3982169
218	0x3e0de5d7	0.13857208
219	0x3ea68fab	0.32531485
220	0x3ea996da	0.33122903
221	0x3f209d78	0.6274028
222	0x3f39d915	0.72596866
223	0xbde9fb51	-0.11424888
224	0x3e8a1182	0.26966482
225	0x3d1288c7	0.035774972
226	0xbe197aef	-0.14988302
227	0xbdcfc36e	-0.10144697
228	0x3f0252b3	0.5090744
229	0x3ecb0784	0.3965417
230	0x3eb3cf3c	0.35119045
231	0x3d9ac26d	0.07556615
232	0x3eada624	0.33915818
233	0x3ea0b4a0	0.31387806
234	0xbde8869c	-0.113538
235	0x3f2412bb	0.6409108
236	0x3ef35478	0.47525382
237	0x3e941a45	0.28926292
238	0x3dc0c568	0.09412652
239	0x3f0da9da	0.553373
240	0xbdd21b3d	-0.102591015
241	0x3dc6a5c1	0.09699584
242	0x3ebd49dd	0.36970416
243	0x3f0714d4	0.52766156
244	0x3ef6401f	0.48095796
245	0xbedd2de1	-0.43199065
246	0x3e04c77b	0.12966721
247	0x3ecba22c	0.39772165
248	0x3ec32879	0.38116816
249	0x3dc20872	0.09474267
250	0x3f12cfea	0.573485
251	0x3ec44173	0.38331184
252	0x3e258daa	0.16167322
253	0x3ee099bc	0.4386729
254	0x3e281959	0.1641592
255	0x3f0ea164	0.5571501

value_stream.2.weight f4 [1, 256]
0	0x3e615dcf	0.22008441
1	0xbf96a24c	-1.1768279
2	0x3f9f031a	1.2422822
3	0xbfc22590	-1.5167713
4	0xbf7be0e1	-0.9839001
5	0xbf95f030	-1.1713924
6	0xbf42fba8	-0.76165247
7	0x3f0741e9	0.52834946
8	0xbf58514e	-0.8449906
9	0xbfa5cb97	-1.2952756
10	0xbf87f94a	-1.0622952
11	0xbf9f78f5	-1.2458788
12	0x3fa906c6	1.3205192
13	0xbf5b6fc2	-0.85717404
14	0x3f500d44	0.8127024
15	0x3f018a68	0.50601816
16	0x3ecaa650	0.3958001
17	0x3eb38f21	0.35070136
18	0xbf5c1c9a	-0.8598114
19	0x3eb14b03	0.34627542
20	0xbee05dec	-0.43821657
21	0xc00b9761	-2.1811144
22	0xbf0db476	-0.55353487
23	0x3fa56331	1.2920896
24	0xbe2578e4	-0.16159397
25	0x3f01f96f	0.5077123
26	0x3f070efa	0.5275723
27	0xbfad4999	-1.3538085
28	0x3f803fb3	1.001944
29	0x3e7ae814	0.24502593
30	0x3f654850	0.89563465
31	0xbfa9e516	-1.3273036
32	0x3f924f73	1.1430496
33	0x3f1c8594	0.61141324
34	0x3f017ddc	0.5058267
35	0xbf445854	-0.7669728
36	0x3eea6802	0.45782477
37	0x3fda59cb	1.7058653
38	0xbfea69e6	-1.8313568
39	0xbfb4b4f6	-1.4117725
40	0x3f021c85	0.5082477
41	0x3f23d7c8	0.6400113
42	0xbf85eed1	-1.0463506
43	0xbffccc47	-1.974984
44	0x3f8a606f	1.0810679
45	0xbf807e4e	-1.0038545
46	0x3ec04779	0.3755453
47	0x3fa3f4f9	1.2809135
48	0xbfa3f0cc	-1.280786
49	0x3ef22497	0.4729354
50	0x3f019087	0.50611156
51	0x3f9f81cc	1.2461486
52	0xbf01487a	-0.50501215
53	0x3fa1e571	1.2648145
54	0xc008abdc	-2.1354895
55	0x3efa2c95	0.48862138
56	0x3f10cd91	0.5656367
57	0xbfb29d5d	-1.3954273
58	0x3fb6bced	1.4276406
59	0x3f94e73c	1.1633067
60	0x3f61db52	0.8822528
61	0xbfd7de89	-1.6864787
62	0x3f194b26	0.5988029
63	0xbfaeca0e	-1.3655412
64	0xc00d7138	-2.2100353
65	0x3f284570	0.65730953
66	0x3f007ef2	0.50193703
67	0xbfaae7e1	-1.3352014
68	0xbf171c9f	-0.5902805
69	0x3fa3160c	1.2741103
70	0x3ea9bd77	0.33152363
71	0x3ef07a41	0.46968272
72	0x3f00f8b0	0.50379467
73	0xbfa5b4e4	-1.2945828
74	0x3fc18c59	1.5120956
75	0xbf94a577	-1.1612996
76	0xbfa0bab7	-1.2556981
77	0xbfa3f179	-1.2808067
78	0xc009eac6	-2.1549544
79	0xbfca1bba	-1.5789711
80	0xbf9de01f	-1.2334021
81	0x3e8d1e4a	0.2756217
82	0x3fc1f31c	1.5152316
83	0x3eefdb5e	0.4684705
84	0xbf2bc375	-0.6709512
85	0x3f94ae99	1.1615783
86	0xbef375bb	-0.4755076
87	0x3e9ef5a4	0.31046784
88	0x3ecdda02	0.4020539
89	0xbed015c8	-0.40641618
90	0x3f78a198	0.9712157
91	0xbfd706ce	-1.6798952
92	0x3f003091	0.50074106
93	0x3f5e1052	0.8674365
94	0x3f0df2ca	0.5544859
95	0x3f11df76	0.569816
96	0x3f26f8b7	0.6522326
97	0xbecb91f3	-0.39759788
98	0x3eebb7ee	0.46038765
99	0xbfd66079	-1.6748191
100	0xbf2a7603	-0.6658632
101	0x3f0d0042	0.5507852
102	0xbf7ec3f0	-0.99517727
103	0x3eefafba	0.46813756
104	0x3f0f6861	0.56018645
105	0xbfde00d7	-1.7344006
106	0xbf8f2b05	-1.1185004
107	0x3ebbbd3c	0.36667812
108	0xbfbc5b97	-1.4715451
109	0xc00d6578	-2.2093182
110	0xbfdc6c1f	-1.7220496
111	0x3f2e6b03	0.68132037
112	0x3eadf861	0.3397856
113	0xbfa614f1	-1.2975141
114	0x3f90f880	1.1325836
115	0xbf6b3fec	-0.9189441
116	0x3f950be4	1.1644254
117	0xbfd597ad	-1.6686913
118	0xbfad4cb0	-1.3539028
119	0xbf0256e9	-0.50913864
120	0xbf7e399e	-0.99306667
121	0xbfaaf16b	-1.3354925
122	0xbe94203c	-0.28930843
123	0x3f7da656	0.99081933
124	0xbfb5964f	-1.4186496
125	0xbf5ff9e4	-0.8749068
126	0x3f0a9441	0.5413247
127	0xbff11fb8	-1.8837805
128	0x3f38aa0f	0.7213449
129	0xbf99bc9e	-1.2010686
130	0x3f1bcad1	0.6085635
131	0x3fbbc0eb	1.4668249
132	0x3fb34261	1.4004632
133	0xbf9ab39c	-1.2086062
134	0xbfb8da8a	-1.4441693
135	0x3eaa3108	0.33240533
136	0x3f92ae0c	1.1459365
137	0x3ea822a7	0.32838938
138	0xbfab91e3	-1.3403896
139	0x3ecba3f4	0.39773524
140	0x3f0c062d	0.54696923
141	0x3eee450f	0.46537063
142	0xc006d2bd	-2.1066124
143	0xbfb5a2b4	-1.4190278
144	0x3fb46365	1.4092833
145	0xbfe4c069	-1.7871219
146	0xbf9bed8b	-1.2181867
147	0xbf91b007	-1.1381844
148	0xbf109405	-0.5647586
149	0xbfc8ce24	-1.5687909
150	0xbf94b4f0	-1.1617718
151	0xbf9c6414	-1.2218041
152	0x3f7a89c3	0.9786646
153	0x3fa0d58f	1.2565173
154	0x3f94a42b	1.16126
155	0x3f7af929	0.9803644
156	0x3fa9a5df	1.3253745
157	0x3faa4ca1	1.3304635
158	0x3ecddf82	0.40209585
159	0x3f228ca4	0.6349585
160	0xbf6f4a6e	-0.93472946
161	0x3ed77905	0.42084518
162	0x3f9e9271	1.238844
163	0xbfb1810c	-1.3867507
164	0xc0066ea0	-2.100502
165	0xbfa146c4	-1.2599721
166	0xbfe9d4ac	-1.8268027
167	0xbfeb2ab2	-1.8372405
168	0x3e976669	0.2957032
169	0xbf83faaf	-1.0310878
170	0x3e85550b	0.26041445
171	0xbf66092d	-0.8985775
172	0xbf894a32	-1.0725768
173	0xbf9286b5	-1.1447359
174	0xc0176eac	-2.3661299
175	0x3f314958	0.6925254
176	0x3f8dca83	1.1077427
177	0x3e85f5b2	0.26164013
178	0xbde562ac	-0.11200461
179	0xbfd64845	-1.6740805
180	0x3f00f2fd	0.5037077
181	0x3e481b78	0.19541728
182	0xbfcb9c11	-1.5907003
183	0xbfcc6529	-1.5968372
184	0xbfa448c3	-1.2834705
185	0x3effad7e	0.49937052
186	0x3f9ef919	1.2419769
187	0xbf1f272d	-0.6216915
188	0xbe8b0186	-0.271496
189	0xbf9f8429	-1.2462207
190	0xbfbc30ff	-1.4702452
191	0xbfe6e3ce	-1.803827
192	0x3f101b34	0.5629151
193	0x3ea82d63	0.32847127
194	0x3facb012	1.3491232
195	0x3f0425d4	0.5162022
196	0x3fc1cfc5	1.5141531
197	0xbfe35b72	-1.7762282
198	0xbf989351	-1.1919957
199	0x3faef550	1.3668613
200	0xbf9dc241	-1.2324907
201	0x3f905afe	1.1277769
202	0x3fac14c6	1.344384
203	0x3fafb4a7	1.3727006
204	0x3f9cf421	1.2262002
205	0xbfdc0d70	-1.7191601
206	0x3f8cb245	1.0991904
207	0xbfbca481	-1.4737703
208	0x3eb8783b	0.3602923
209	0xc00adfe1	-2.1699145
210	0x3f66e1c6	0.9018825
211	0x3f1f1b2a	0.62150824
212	0xbf8a59af	-1.0808619
213	0xbf420c84	-0.7580035
214	0xbfb0e0cb	-1.3818601
215	0xbfcd27fa	-1.6027825
216	0x3f8690ab	1.0512899
217	0xbfac3ccd	-1.3456055
218	0xbf5b2e98	-0.8561797
219	0xbf88363b	-1.064155
220	0xbf85bb9a	-1.0447876
221	0x3ec3a25d	0.3820981
222	0xbfa69073	-1.3012832
223	0xbfa224f8	-1.2667532
224	0x3f794b31	0.9738036
225	0x3f6c99ff	0.9242248
226	0xbf10c71c	-0.56553817
227	0xbf59d6a6	-0.8509315
228	0xbfddca7f	-1.7327422
229	0xc02a4125	-2.660226
230	0x3e9a5dc2	0.30149657
231	0xc00c4b29	-2.1920874
232	0x3e990837	0.2988908
233	0x3eae54c5	0.3404905
234	0xbfadf511	-1.3590413
235	0xbfe477a3	-1.784901
236	0x3edfc3ec	0.43704164
237	0xbf9702f5	-1.1797777
238	0x3f17be91	0.59275156
239	0xbfeefda4	-1.8671155
240	0xbfc0666f	-1.503126
241	0x3f3d992c	0.74061847
242	0x3f09b316	0.5378889
243	0x3ef068ed	0.46955052
244	0xbffdf523	-1.9840435
245	0xbf47d7e3	-0.7806379
246	0x3fa94f97	1.3227414
247	0xbfb42824	-1.407475
248	0xbfa2a751	-1.2707311
249	0x3f732056	0.94971216
250	0x3ed45eb1	0.41478494
251	0x3ed72375	0.4201924
252	0xbfa9985a	-1.3249619
253	0xbfbafdcd	-1.4608704
254	0x3f814be1	1.0101281
255	0xbfb02012	-1.3759787
