active_slam_rl/training_output_slam/20260126_164625/d3qn_ep960.pth (torch, 901794 bytes, 11 tensors)

feature.0.weight f4 [256, 100]
000000 96 e3 09 be bc e3 b1 bd 5d c0 d1 3d 86 3d 3a 3e
       -0.13465723 -0.08686015 0.102417685 0.18187532
000010 12 6e 99 bd ee 7c 3d 3d 3f 6c 58 3c ff c8 ef 3c
       -0.07491697 0.04626172 0.013209402 0.029270647
000020 6f 8a 0c 3e 33 a6 ba 3d b7 2d 53 3b 5e 4f 23 3e
       0.13724683 0.09113731 0.0032223293 0.15948245
000030 a0 a3 ab 3d 74 a3 8a bd bc 40 05 bd 8b 85 48 3e
       0.08380818 -0.067694575 -0.03253244 0.19582193
000040 69 3f 5b 3e c7 e3 bc 3d 60 d7 0a 3e 27 36 f7 3d
       0.21410908 0.092231326 0.13558722 0.120708756
000050 7e f2 0f 3e 38 28 64 3e 14 64 89 3e bf 5b 12 3e
       0.14057347 0.22280967 0.26834166 0.14292811
000060 bf bf 5a 3e 35 63 0a 3e 48 e3 2d bc 14 3e 7f 3d
       0.21362208 0.13514407 -0.01061327 0.06231506
000070 f7 7d 2b bc ff a1 a6 bd 21 5a d9 3d a5 8a 9a bd
       -0.010467044 -0.08136367 0.10612894 -0.075459756
000080 8f 49 9a bd 40 58 b0 bc f2 cb 6e bd 8b c3 bf bd
       -0.075335614 -0.021526456 -0.058299966 -0.09363469
000090 6f 25 11 be 77 a7 2c be c0 c3 f2 bd 5f 07 fe bd
       -0.14174436 -0.16860758 -0.118537426 -0.1240375
0000a0 47 32 33 be 38 6c 85 be de 9f 70 be 9a a1 57 be
       -0.17499648 -0.26059127 -0.23498484 -0.2105774
0000b0 ac 8b d4 bd 9a f3 1a be 5d 75 3f be 32 d0 87 be
       -0.10378203 -0.15131989 -0.18697114 -0.26526028
0000c0 e7 a2 3b be 36 72 05 bd d2 fd 41 be 0c 7e 52 be
       -0.18323861 -0.032579623 -0.18944481 -0.20555896
0000d0 c7 37 be bd 19 ca 6e bd 7e e3 9c bd 02 00 0d be
       -0.092879824 -0.058298204 -0.07660578 -0.13769534
0000e0 5e 80 d8 bd 44 f8 c4 bd 72 78 e2 bd 2b a0 83 3d
       -0.10571359 -0.096176654 -0.11058129 0.06427034
0000f0 bd 75 ca bb e2 71 80 3e 44 74 a8 3d 8e c7 ca 3c
       -0.0061785863 0.25086886 0.08225301 0.024753358
000100 02 7e 3d 3d b6 e1 7f 3c af 5c 2e 3e 15 6d e0 bb
       0.04626275 0.0156177785 0.17027543 -0.006848941
000110 08 07 78 3c 2a d6 22 3e b8 12 9f bd 06 fd d1 3d
       0.015138395 0.1590201 -0.07767242 0.102533385
000120 6b e8 2f bd 97 fa 27 be 41 2a 8f 3d 78 dc 6c be
       -0.04294626 -0.16404186 0.06990481 -0.23130977
000130 a4 af 2d be ec 1e 08 bd 96 71 6b 3d 3b 54 25 3d
       -0.16961533 -0.033232614 0.05748137 0.04036353
000140 e8 9c 3c be 50 e3 84 be d8 a4 27 be 47 aa b0 bd
       -0.1841923 -0.25954676 -0.16371477 -0.08626228
000150 fd 7d 57 be 8c e4 50 be 43 e6 49 be d7 dc 75 be
       -0.21044154 -0.20399684 -0.19716744 -0.24010025
000160 3b cc 44 be 80 d9 0e be 57 f5 81 be 60 55 81 be
       -0.19218533 -0.13950157 -0.25382492 -0.25260448
000170 ef bd ad be 15 4c 9a be e1 2d 67 be c6 29 8e be
       -0.3393397 -0.3013617 -0.22576095 -0.27766246
000180 00 7f b0 be 28 af dd be 39 f1 cf be 46 11 15 bf
       -0.34471893 -0.43297696 -0.40613726 -0.5822948
000190 20 d9 b1 3e 30 7c b8 3e 2d 6f 8b 3e 28 0d 4e 3e
       0.34735966 0.36032248 0.27233258 0.20122206
0001a0 d1 67 83 3d 1d ef 32 3e db 50 8d 3d 7e 93 02 3e
       0.06416286 0.17474027 0.069001876 0.12751576
0001b0 cd 9f 29 3d 4e 52 67 3d c8 b0 d1 bc be 94 cd 3c
       0.041412164 0.056474976 -0.025596991 0.02509534
0001c0 17 e5 2c be 5a 42 39 be 26 cd ff bd 2e f4 86 be
       -0.16884266 -0.18091717 -0.12490301 -0.2635817
0001d0 c5 e8 b2 be 4b b1 a4 be 50 59 70 be a3 0f 10 be
       -0.34943214 -0.32166514 -0.2347157 -0.14068465
0001e0 0e 84 9c be 37 e9 d8 bd b0 dd 82 be 28 15 60 be
       -0.305695 -0.10591357 -0.2555976 -0.2188307
0001f0 b5 75 7b bd a7 9d 29 be e1 25 3f be 09 b1 88 be
       -0.06139155 -0.16564046 -0.18666793 -0.26697567
000200 8d 5e 43 be c8 af 70 be 82 b1 76 be 9e 8e 72 be
       -0.19079037 -0.23504555 -0.24091151 -0.23687217
000210 4e 19 22 be 38 3b 40 be 4b 57 90 be 64 63 1a be
       -0.15829965 -0.1877259 -0.281916 -0.15076977
000220 e1 3e 71 be 86 b0 8c be a0 f0 5b be 2a 00 8a be
       -0.23559143 -0.27478427 -0.2147851 -0.2695325
000230 76 09 ad bd af d0 1a be 9d 4c 09 be 8b c8 6f bd
       -0.0844907 -0.15118669 -0.13408132 -0.058540862
000240 6d b5 e0 bd 25 28 16 be ad f8 d0 bd c8 52 ca bd
       -0.10972104 -0.14663751 -0.10203681 -0.098790705
000250 ad 59 30 bd f6 90 0e be 71 bc 5a bd ae 4d 9e bd
       -0.04305427 -0.13922486 -0.053402368 -0.0772966
000260 3f 48 fe bc 23 43 f3 bc 3d 60 04 3d 1c 9a 0b bc
       -0.031040309 -0.0296951 0.032318342 -0.008520629
000270 c5 d4 e3 3d 94 9b b8 3d 22 05 a9 bc c8 a0 6d be
       0.11124567 0.09014049 -0.02063233 -0.23205864
000280 c6 e6 47 be ff e3 7f bd 49 e8 55 be bb 73 15 be
       -0.19521627 -0.062473293 -0.20889391 -0.14594929
000290 95 ec 1b be 9a 18 89 bd 7a fd ac bd c0 db a7 bd
       -0.15226968 -0.066941455 -0.08446784 -0.08196211
0002a0 3e a4 2b be 31 39 02 be 46 84 ab bd 3e a1 35 be
       -0.16761872 -0.1271713 -0.083748385 -0.1773729
0002b0 16 e1 2b be 44 bc 4a be f3 e6 19 be cb 3b 6e be
       -0.16785082 -0.1979838 -0.15029506 -0.23264997
0002c0 ef a8 ba 3b 93 5b 40 be b6 cd 24 be a3 48 4e be
       0.005696408 -0.18784933 -0.16094097 -0.20144896
0002d0 71 8b df bd 38 d2 3c be 11 c7 09 3b 8f c2 04 be
       -0.10915268 -0.18439567 0.0021023194 -0.12964843
0002e0 c0 40 b1 bd 84 93 63 be 37 01 b2 bd d4 e9 19 be
       -0.08654928 -0.22224241 -0.08691638 -0.15030605
0002f0 ee 3f 65 be 4e d2 51 be 18 6d 94 bd ff 51 56 bd
       -0.22387668 -0.20490381 -0.072473705 -0.05232429
000300 de 1d 24 be 47 93 85 be ed c8 0e be 07 bf 5e be
       -0.16027018 -0.26088926 -0.13943835 -0.21752559
000310 4f 0d 94 be c5 c6 8b be c6 49 68 be 48 0c 3d be
       -0.28916404 -0.27300087 -0.22684392 -0.18461716
000320 96 f2 34 3e f8 24 82 3d 88 e3 4a 3d d9 cb cf 3d
       0.17670664 0.063547075 0.049533397 0.10146303
000330 b9 ca 56 bc 37 86 34 3d 33 09 33 3e 3f ab 86 3d
       -0.013109856 0.04407331 0.17483978 0.06575631
000340 1b ec 04 3e af d1 96 3d cd 31 15 3e ae 82 9d bd
       0.12980692 0.07364213 0.14569779 -0.07690941
000350 07 b3 32 3e 5c f9 97 bc 55 b1 22 be bc cd 6e be
       0.17451106 -0.018551521 -0.1588796 -0.23320669
000360 b9 7f 2b be 53 14 b9 bd 6e 0c 8f bc 2a 27 7a 3d
       -0.16747941 -0.0903708 -0.017461982 0.061072506
000370 ec be 00 bd 30 a8 13 be 7d 02 83 3c 3f 11 2a be
       -0.031432077 -0.14419627 0.015992397 -0.16608141
000380 97 20 36 be 22 14 e3 bd 3d b0 63 be 25 ba 7c be
       -0.1778587 -0.110878244 -0.22235198 -0.24680384
000390 44 15 81 be de 37 01 be 0e 1c ed bd c9 18 35 be
       -0.25211537 -0.12618968 -0.11577617 -0.17685236
0003a0 18 10 64 3d c9 e7 7d bb 32 89 c7 bd ee 8d d7 bd
       0.05567941 -0.003874289 -0.09742965 -0.10525118
0003b0 7d 88 d2 bc be b4 d6 bd ca fb 81 be 54 d9 14 be
       -0.025699848 -0.104836926 -0.25387412 -0.14536029
0003c0 65 fe d8 bb 01 b4 26 be 6b 11 33 be 3b 0d 7f be
       -0.006622123 -0.16279604 -0.17487113 -0.24907391
0003d0 51 cb 01 be 07 65 aa be a0 47 b8 be 12 88 bb be
       -0.12675215 -0.33280203 -0.35992146 -0.3662725
0003e0 29 6b 32 be e3 21 6d be 3a 1c a0 be e8 48 4d be
       -0.17423691 -0.23157458 -0.31271535 -0.20047343
0003f0 b4 c1 10 bd 5a 75 41 be 2a 1c c1 bd 13 3e 29 be
       -0.03534098 -0.18892422 -0.094292 -0.16527586

feature.0.bias f4 [256]
000000 f0 3a ef be 3c d1 3b 3e cd b0 b4 3e 7c f8 9b be
       -0.46724653 0.18341535 0.35291138 -0.30463016
000010 07 fd 68 bf 76 20 18 bf 45 34 03 3f 18 ab ea 3e
       -0.9101109 -0.5942453 0.5125163 0.4583366
000020 83 38 db 3e 34 6f e4 bd 8f dc be 3e f7 24 fc 3d
       0.42816553 -0.11154023 0.37277648 0.12311738
000030 e1 fd 4b be 16 07 a2 be 14 5f 9e be b7 14 ec 3e
       -0.19921066 -0.3164603 -0.30931914 0.46109554
000040 e6 ad c7 3e e6 c5 33 3e 15 84 b4 3e 86 59 86 bb
       0.3899986 0.17555961 0.3525702 -0.0041000275
000050 8c 0c be bc 1a b5 b8 bd 5e 6d 55 be 43 99 ae 3e
       -0.023199342 -0.090189174 -0.20842502 0.34101304
000060 0c 32 34 bf 7b ea c3 3d b6 df 2c 3f 71 c8 c6 be
       -0.70388865 0.09566208 0.67528856 -0.388248
000070 e2 2b 52 bf d2 3b e7 3d dd e1 d5 3e 79 56 b5 3e
       -0.8209821 0.11290707 0.41773883 0.35417536
000080 6b 4d 5d 3e 80 48 ec be d9 e8 0b bf 28 23 82 bd
       0.21611564 -0.46149063 -0.5465217 -0.06354362
000090 bc 5b a2 3d c8 34 23 3c e9 d4 04 bf b5 12 2d 3f
       0.07927653 0.0099613145 -0.51887375 0.6760667
0000a0 4e 97 f5 3e e7 d6 71 3e 15 16 83 3e fb 7a 98 be
       0.47967 0.23617135 0.25602785 -0.29781327
0000b0 6e 14 03 be 97 de e7 3d 6a e8 b7 be 26 c0 45 3f
       -0.12800762 0.113217525 -0.35919505 0.7724632
0000c0 42 ff f3 3d 4f 23 d6 3e 98 b0 83 3e 02 43 2d bf
       0.11913921 0.41823813 0.25720668 -0.6768037
0000d0 38 5b d0 be 4f 9d 0c 3d d5 2c de 3c e3 82 fb bd
       -0.40694594 0.03432971 0.027120987 -0.12280824
0000e0 28 52 5f 3e 6e 8d d8 3e 11 a0 c3 be 6b 0d 73 be
       0.21808684 0.42295402 -0.38208058 -0.23735587
0000f0 31 27 ef 3d ec bd 98 3e 0b 15 4b be a1 e3 9b 3e
       0.11677397 0.298324 -0.19832246 0.30447105
000100 ef 05 f2 bd 2c 77 c8 be 32 59 98 be 4e 06 cf 3c
       -0.11817538 -0.3915342 -0.2975555 0.025271561
000110 c1 23 ac 3e f4 d9 c9 3e a8 90 42 3e 2f d5 04 3f
       0.33621028 0.39424098 0.19000494 0.5188779
000120 aa d2 f2 be 7d 6c 08 be 7e 94 1b 3f f1 56 c5 3e
       -0.4742635 -0.13322635 0.60773456 0.38542894
000130 57 d2 1b bd ea c4 09 3f 0f ec 21 3f 1e 6a 13 bf
       -0.038042393 0.5381609 0.6325082 -0.57583797
000140 1d fb 01 3d a2 80 e7 be be 89 14 be 19 a5 7a 3e
       0.03173362 -0.45215327 -0.1450567 0.24477042
000150 54 1c 89 3e e4 2e d4 be 97 08 86 3e be 9e 3a 3f
       0.26779425 -0.41442025 0.2617843 0.7289847
000160 c4 15 2f be 70 30 a6 be 3e e1 95 3e 23 9d 02 bf
       -0.17098147 -0.3245883 0.2927341 -0.5102102
000170 74 78 03 bf b7 33 c7 be d4 10 99 3e 0a 77 18 3e
       -0.5135567 -0.38906643 0.2989565 0.1488916
000180 0b 15 60 3e 72 d9 31 3e 46 44 fe bc 73 15 a3 bd
       0.21883027 0.17368105 -0.031038415 -0.079630755
000190 32 39 bb bd 12 ff 09 be 43 14 6a 3e 63 8c aa 3e
       -0.091417685 -0.13476208 0.22859292 0.33310232
0001a0 9a cb c8 3d bb 02 d0 3e 84 4d 97 3e 3c 8c 00 bf
       0.09804459 0.40627083 0.29551327 -0.5021398
0001b0 1c 7b 2e 3f 59 63 10 be 8a 79 b2 be 49 84 03 3e
       0.681566 -0.14100398 -0.34858352 0.12843432
0001c0 c8 b0 16 3e 24 80 c0 3e bf 6b 73 3b 7a 59 f5 be
       0.14715874 0.37597764 0.003714308 -0.47919828
0001d0 4b 20 cd 3e ce 6e b2 3e 09 70 2c bf 9d 50 06 3f
       0.400637 0.34850162 -0.6735845 0.52466756
0001e0 70 42 0a 3f ff 1c 43 3e 51 8e 37 be 15 1a a1 3d
       0.54007626 0.1905403 -0.17925383 0.07866303
0001f0 e5 79 7a 3e a4 99 9c be 87 b3 51 3e 16 ff 27 3e
       0.24460562 -0.30585968 0.2047864 0.16405901
000200 61 d6 ef 3e 47 6b 32 3d 79 a7 ad bd 78 96 54 be
       0.46843246 0.04355934 -0.084792085 -0.20760524
000210 ce 7c 1b bf f6 ec ab be 9b 36 06 be 45 5d ff 3d
       -0.6073731 -0.33579224 -0.13106768 0.124689616
000220 59 a9 8b 3e b8 06 0f bf 78 ff a6 be 64 d4 1e 3e
       0.2727764 -0.55869627 -0.32616782 0.15510708
000230 2b cf e4 3e a3 a8 dd 3e 9e fd 0d bf 12 19 3a bd
       0.44689307 0.43292722 -0.55465114 -0.045434065
000240 44 84 1f bd 32 98 04 bf 1c a1 7a 3d ab 7c 11 3f
       -0.038944498 -0.5179473 0.061188802 0.56830853
000250 46 c9 a9 3e e2 29 28 bc 36 9d 2b 3f 67 ea c0 3e
       0.33161372 -0.010263892 0.6703676 0.37678835
000260 a2 d7 b2 be df 4f 07 bf f1 fe 6a be 62 0c cd be
       -0.3493014 -0.5285625 -0.22948815 -0.4004851
000270 fe 9b 7a bd b1 15 cf be 91 fa 42 3e 09 9c f8 3e
       -0.061183922 -0.40446237 0.19040896 0.48556545
000280 ff c4 fb bb be 17 23 3f 3f b6 14 be 0c 2b 86 be
       -0.007683396 0.637081 -0.14522646 -0.26204717
000290 cd 11 a3 3a 5a 24 83 3d 87 6b f2 3e b7 a5 0b bf
       0.0012441218 0.06403418 0.47347662 -0.54549736
0002a0 75 45 47 be ee 9e fd bc 2f 44 b5 bd d0 8c 0e 3f
       -0.1946009 -0.030959573 -0.088508956 0.5568361
0002b0 c3 4c c5 be 7c 4b 39 be 5e 84 97 3e 77 9d d6 3e
       -0.38535127 -0.18095201 0.29593176 0.4191701
0002c0 e4 b2 7c be 85 d6 02 bc 54 fd dd 3e 00 6c b4 3e
       -0.24677616 -0.007985716 0.43357337 0.35238647
0002d0 d0 bb 05 3e 07 71 cc 3e 9a 97 70 3d d8 66 d9 3e
       0.13059926 0.39929983 0.05873833 0.42461276
0002e0 1a 28 87 3e 55 e1 d7 bd 4c b1 69 3c c9 21 f0 be
       0.26397783 -0.105410255 0.014263462 -0.46900776
0002f0 59 19 43 bf 0b e4 a6 3e b0 b9 b5 be dd 03 df bd
       -0.7621055 0.32595858 -0.3549323 -0.10889409
000300 32 2f 0f be b0 6c c3 bd fc 2e a2 3e 04 db 31 be
       -0.13982847 -0.09542215 0.3167647 -0.17368704
000310 e0 d0 e8 bd e3 ad 10 3f 09 b2 f0 be 43 81 23 be
       -0.11367965 0.5651533 -0.4701083 -0.15967278
000320 e9 e4 45 3e e4 1f 58 3e cf a1 84 3c 73 87 5b 3e
       0.19325604 0.21105915 0.016190438 0.21438389
000330 f6 3a c1 3c fb e9 c0 3e 71 c5 9b 3e b0 fa b1 3e
       0.023587685 0.37678513 0.30424073 0.34761572
000340 f2 d0 af 3e 4f 1a 6f 3e f9 96 b6 bd 6b 94 39 3f
       0.343391 0.2334988 -0.089155145 0.7249209
000350 aa 50 d8 be 31 3a a8 3e d0 61 da be fe 1a 3c 3f
       -0.42249042 0.32856897 -0.4265275 0.73478687
000360 cb 49 e3 3e b4 bf be 3c 5c 71 02 bd e0 23 09 3f
       0.44392237 0.02328477 -0.03184639 0.53570366
000370 c9 e1 92 bd ff f9 08 3f 01 37 77 be 6b 5d bb 3e
       -0.07171971 0.53506464 -0.24142076 0.3659471
000380 d9 7b 01 bf 11 12 b6 3d 2e 4d 05 3f 6e e3 a7 bd
       -0.505796 0.08890165 0.5207089 -0.08197676
000390 6f 5e 0b bf 4c 8f d0 be 38 af e2 3e d9 da 56 bd
       -0.5444097 -0.40734327 0.44274306 -0.052454803
0003a0 af 7e f8 ba 88 8f b3 be c9 24 42 be be 4b c5 be
       -0.0018958653 -0.35070443 -0.18959345 -0.3853435
0003b0 36 2f ab 3d a0 08 c1 3e 3e f9 c5 be 23 01 b2 bd
       0.08358614 0.37701893 -0.3866672 -0.08691623
0003c0 16 90 d0 be a7 6d 9f 3e 67 c9 31 3e 4c 09 85 be
       -0.4073493 0.31138346 0.17361985 -0.25983655
0003d0 53 1e b7 3d ad a7 c5 3e 6d 79 0c 3e b7 8a e0 3e
       0.08941331 0.3860449 0.13718195 0.4385583
0003e0 71 88 b8 be 36 02 e9 3a a7 f7 08 bf d3 5a 56 be
       -0.36041597 0.0017777148 -0.5350289 -0.20933084
0003f0 f1 ff 6e 3d 84 84 e4 3e bc 3d be bd 23 e6 3a 3e
       0.058349553 0.4463235 -0.09289119 0.18251853

feature.2.weight f4 [256, 256]
000000 f7 b5 d0 bd 6f cc 3f 3d 1d 3a 88 bd 66 a8 b9 3d
       -0.10190957 0.046825822 -0.06651709 0.090653226
000010 b1 e5 90 be 35 42 1c be 6f db 86 3d 1f 02 1f 3e
       -0.2830024 -0.15259631 0.065848224 0.15528153
000020 3d 3c 6f 3e f6 02 dd 3d ea fb 12 be 0e db ba 3d
       0.23362823 0.107915804 -0.1435391 0.091238126
000030 ca cd 1d 3e 90 a6 4e bb 3c 78 a7 be bb c2 35 3e
       0.15410534 -0.0031532384 -0.3270892 0.17750065
000040 8a 4b 4c bd 0f 56 0e 3e 84 68 8a 3e 37 ba 94 3c
       -0.049876727 0.13900016 0.27032864 0.0181552
000050 83 bf cb 3b 32 d3 38 bd 0f 6d c7 bc 9e a6 a8 be
       0.0062178983 -0.045123287 -0.024343995 -0.3293962
000060 d7 b3 c5 3d 05 42 c7 3d 03 ec b7 3e c1 ae 8a bd
       0.09653442 0.09729389 0.3592225 -0.06771613
000070 52 e4 68 be bf 54 4d 3d 80 e4 0e bc 3a b9 cc 3e
       -0.22743347 0.05012965 -0.008721471 0.39985067
000080 41 a3 63 3e 17 da 9b bd 06 65 c3 bd 68 72 9f 3d
       0.22230245 -0.07609957 -0.09540753 0.07785493
000090 3a 28 22 bd a8 9d 80 3e 74 04 16 bd 21 e6 30 3e
       -0.039589144 0.25120282 -0.03662534 0.17275287
0000a0 aa b6 59 3e 25 ea 6a be 27 8b 44 3e ce 73 a5 3d
       0.21261087 -0.22940882 0.19193707 0.080787286
0000b0 9f 3b 00 3e c7 7d 38 3e 95 93 ec 3b 64 96 d3 3c
       0.12522744 0.1801673 0.0072197416 0.025828548
0000c0 d7 1f d9 3d 49 2b e8 3e f5 0b 4d 3e ec d7 a3 3d
       0.10601776 0.45345524 0.20024092 0.08000168
0000d0 4a 2f 6d bd 50 4b 5e 3e 24 ae cd bd b4 e6 a3 bd
       -0.057906426 0.21708417 -0.1004298 -0.080029875
0000e0 99 e6 75 bd dd f8 14 3e c2 e5 1b be 7d 85 5c be
       -0.06003437 0.14548059 -0.15224364 -0.21535297
0000f0 8c 1f aa bd 7e 7a 5e 3d 81 da 91 bc af f3 a7 3e
       -0.08306798 0.054316036 -0.017804386 0.32803103
000100 41 87 37 bd 5d 96 72 be 09 53 1e be c1 1b 9e 3d
       -0.044806723 -0.23690172 -0.15461363 0.077201374
000110 f5 2d 13 3f 60 3c 4f 3e 6d 93 d8 3d 8f 1e 9d 3e
       0.57492 0.20237875 0.10574994 0.30687377
000120 d4 26 ab be 94 aa 59 bd ea 36 c7 3e fb 2b 9f 3e
       -0.3342806 -0.05314119 0.38909084 0.31088242
000130 82 e5 6f 3c 43 39 b6 bb 4f a7 ad 3c 44 b9 46 be
       0.014642121 -0.0055610253 0.021197943 -0.1940661
000140 31 18 bd b9 ad 7d d8 bd c9 f3 d5 3a f1 2b ac 3d
       -0.00036066913 -0.10570846 0.0016323264 0.08406819
000150 26 60 98 3e de ee 3f bd 20 ed 80 3d 12 3f 87 3c
       0.29760855 -0.04685866 0.06295228 0.016509566
000160 ed 7d f1 bd 80 39 89 be 24 06 26 3e f2 68 cf be
       -0.117915966 -0.26801682 0.1621328 -0.40509754
000170 14 23 12 bf c8 d7 6f be d5 81 4c 3e 8d f1 48 3e
       -0.57084775 -0.23422158 0.19971402 0.19623394
000180 9b b7 a6 3d 9a d8 0b 3d fb b5 b8 bc 9e f1 00 bd
       0.08140489 0.034142114 -0.022547713 -0.031480424
000190 ea 10 d3 3d bf 9b 46 be d1 76 c1 3e 2d 52 be bd
       0.103059605 -0.1939535 0.37785962 -0.092930175
0001a0 e1 a4 83 3d c7 58 0c 3e 93 43 b2 3e ea 6a 7b 3d
       0.064279325 0.13705741 0.3481718 0.061381258
0001b0 6d 91 b7 3e 13 84 cb bd d1 a3 2b 3e d2 07 d9 bd
       0.3585314 -0.099373005 0.1676171 -0.10597195
0001c0 4a d5 e1 3d 9f 46 96 3d bd d2 30 bd e1 cd 06 bf
       0.1102701 0.07337689 -0.043169726 -0.52657896
0001d0 82 2c 95 3c 15 91 1d 3d 6c 51 07 bf b3 a6 82 bc
       0.0182097 0.03846844 -0.52858615 -0.015948629
0001e0 50 96 fb 3e 80 76 b1 3d 16 b2 a7 ba 5d f3 78 bd
       0.49138117 0.0866518 -0.0012794163 -0.060778964
0001f0 09 75 f3 bd e5 84 80 3e 85 f5 3a 3d b8 5a 7d bd
       -0.11887557 0.2510139 0.045644302 -0.061854094
000200 8c a8 90 3e 99 f3 81 bc 66 4a 2d 3d d5 3c eb 3c
       0.2825359 -0.015863227 0.04230728 0.02871553
000210 75 19 d2 be a6 80 b0 be 54 a3 d9 bd f8 51 14 be
       -0.41035047 -0.3447315 -0.106268555 -0.14484394
000220 66 14 b3 3e 8b fd 87 bd 8b f7 6d be 19 b6 3d 3d
       0.349765 -0.06640156 -0.23238961 0.04631624
000230 5d 7c d0 3d 40 31 55 3e 70 dd 0d bd 29 68 ed bd
       0.101799704 0.20819569 -0.034635007 -0.115921326
000240 65 be b7 3d 5f bc 8b be 9a 10 8d be ee 26 39 3e
       0.08971862 -0.27292153 -0.27551728 0.18081257
000250 9d 67 78 3c 7c 1d 1a 3e ee 22 0f 3f ec 55 6e 3e
       0.015161422 0.1505031 0.55912673 0.23274964
000260 34 bb 2f 3c 3a 90 92 be 89 dd df bd 18 88 4c be
       0.010725785 -0.2862566 -0.10930926 -0.1997379
000270 70 90 1e bd 86 bd 2a 3e f0 ac 1c be 00 db a7 3e
       -0.038711965 0.1667386 -0.15300345 0.3278427
000280 a5 64 49 be 88 c3 e5 3e c9 df 65 3e 51 cc 37 3e
       -0.19667299 0.4487574 0.22448649 0.17949034
000290 78 3f 94 3c 45 fa 21 bd f3 9c c3 3e 23 c0 2e ba
       0.01809667 -0.039545316 0.3820568 -0.0006666204
0002a0 07 44 ea bd 5e 14 a6 3d e5 11 ee 3d 9b c4 19 bd
       -0.114387564 0.081093535 0.11624507 -0.037541013
0002b0 b7 c9 ef bd 86 c3 b3 3b 37 1b 02 3e ec a8 55 bc
       -0.11708396 0.0054859547 0.12705694 -0.013040762
0002c0 1b 2e 4e bd 49 45 16 3e 3b e9 61 3e 5b 03 08 bb
       -0.05033694 0.14674868 0.22061627 -0.0020753953
0002d0 38 c8 1f 3d 0c 92 65 3e a3 c9 66 3e 9f 52 09 3f
       0.039009303 0.22418994 0.22537856 0.53641695
0002e0 36 f8 92 3e 27 70 d8 bc 41 54 92 be b4 2c 9d b9
       0.28704995 -0.026420666 -0.28579906 -0.0002997868
0002f0 7f 37 16 be 0e dd 9a 3d fc f4 cc 3b 35 32 9e bd
       -0.14669608 0.07561694 0.0062547904 -0.0772442
000300 a0 b5 49 be 0e bc 4e be db ac a3 3e 81 4b 70 be
       -0.1969819 -0.20188925 0.31967816 -0.23466302
000310 44 0a 35 3e db 6e a8 3e 29 ec ae bd 6a f8 00 bd
       0.17679697 0.32897076 -0.08541138 -0.031486906
000320 05 2e 18 3e 74 3e 81 bb 63 f0 13 3d 5a b9 96 3e
       0.14861305 -0.0039442126 0.036117923 0.29438287
000330 64 5c 1d be 8c 66 96 3e 75 dc d8 3e a9 61 23 3e
       -0.15367275 0.29375112 0.42355695 0.15955223
000340 e6 dd b3 3d 79 f7 72 3c 61 69 3c be 98 c5 9e 3d
       0.08782558 0.01482951 -0.18399574 0.07752532
000350 db 80 53 be 4a d0 60 3d b8 45 1a be 38 00 8d 3e
       -0.20654623 0.05488614 -0.15065658 0.2753923
000360 1c 2b 47 3c 3c 3e 16 be 27 2e 0d bd 82 89 8f 3e
       0.012156274 -0.14672178 -0.034467842 0.28034598
000370 0b 7c 0c 3c 4a 19 0d bd f3 69 c4 3d a0 64 4a 3e
       0.008574496 -0.034447946 0.09590521 0.19764948
000380 7c 6c cc be 6a be 94 3e bf ab b6 3e c6 3c a9 be
       -0.39926517 0.29051524 0.35677907 -0.3305418
000390 d7 38 20 be 81 9d 29 bd 7a a5 dc 3c 17 d3 96 3e
       -0.15646683 -0.041409973 0.026934374 0.29457924
0003a0 56 de 0e be f1 0b 7d bc c4 36 57 bd 79 e5 ae be
       -0.13952002 -0.015444742 -0.052542463 -0.3415945
0003b0 81 04 7b bd 40 13 22 3e de a9 04 3e a1 de 3e be
       -0.061283592 0.15827656 0.12955424 -0.18639614
0003c0 f1 34 cb 3d 40 2f 0f 3e 5a 85 2c 3d d3 d0 50 3c
       0.09922207 0.13982868 0.04211936 0.0127451
0003d0 38 5c b9 3c dd 70 51 3c 10 ac a1 bc 70 74 70 3e
       0.022626981 0.012783256 -0.019735366 0.23481917
0003e0 d2 5f 9c be ef 0f 82 be e6 a2 92 be 98 19 9a be
       -0.30541855 -0.2540278 -0.28639907 -0.3009765
0003f0 25 7a e8 bb a9 a6 04 3c a0 c2 d8 be 95 26 2d 3d
       -0.007094639 0.0080963755 -0.42335987 0.042273123

feature.2.bias f4 [256]
000000 70 a8 62 3d 20 8c 0a be f7 74 f9 bd 12 19 e8 3d
       0.055336416 -0.13530016 -0.121805124 0.11332907
000010 9e 9d 6c be 5c 35 5a 3c 94 0a 64 3d 91 b1 01 3e
       -0.23107001 0.013318386 0.05567415 0.12665392
000020 31 ba 3d 3d 95 74 c0 be 3e b5 52 3e 42 f2 ab 3c
       0.046320144 -0.37588945 0.20576951 0.020989541
000030 76 58 b8 3d c4 07 09 3f 9f 79 22 3f 72 73 12 be
       0.090012476 0.53527474 0.6346683 -0.14301851
000040 13 a5 80 be 71 e9 a8 bd ab 58 17 be 88 e2 53 3e
       -0.25125942 -0.082476504 -0.14779918 0.20691884
000050 61 f4 dc bd ff 4a 2f be 5b 7f 0b bf ed c4 7b 3e
       -0.10788799 -0.17118452 -0.54491204 0.2458684
000060 31 2f ba be fe 12 61 3d 3a 53 84 be 96 82 8c be
       -0.3636413 0.054949753 -0.25844747 -0.2744338
000070 33 93 de 3d 31 23 24 be 2b 26 56 3f df 31 26 3e
       0.1086792 -0.1602905 0.8365199 0.16229962
000080 df 3b 03 3e d4 75 b4 3c 7b 5e 87 3c 20 fd 98 bc
       0.12815808 0.022028841 0.016524544 -0.018675387
000090 87 8e da 3e 00 67 10 3e 85 56 5e be 6f b9 a0 be
       0.42686865 0.14101791 -0.21712692 -0.31391475
0000a0 ba 89 8c 3d c8 74 5d be ad 1d 77 be 35 45 82 be
       0.06862207 -0.2162658 -0.24132414 -0.25443426
0000b0 89 dd 8c be f6 26 dc bd 3b 21 2d 3e 62 a6 4c bd
       -0.27512768 -0.10749619 0.16907208 -0.049963363
0000c0 c8 05 1c be 69 1c 48 be 68 9a 81 3d c7 e2 2c 3e
       -0.1523658 -0.19542088 0.06328279 0.16883384
0000d0 99 d8 66 be 3b f1 71 3d 2c 13 39 bd 0f e0 64 3c
       -0.22543563 0.059067946 -0.0451843 0.013969435
0000e0 35 bd bc 3d d8 a6 c1 be 53 81 54 bd 74 bc 7c 3d
       0.09215776 -0.37822604 -0.051881146 0.06170316
0000f0 08 a8 3d 3d 71 71 c3 bd 08 67 6b be 0d 02 96 bc
       0.046302825 -0.095431216 -0.22988522 -0.018311525
000100 be 49 78 be 5a 7d 69 3e ef 3e 30 3e bd 7d 35 3f
       -0.2424688 0.22801724 0.17211507 0.70894986
000110 2e 1a f2 3e 91 dd 97 be 8f f3 da be 22 53 c9 b9
       0.472856 -0.2966123 -0.42763945 -0.00038399646
000120 f1 81 18 3e ec b4 9f be d9 10 6b 3e 7d 20 10 3e
       0.14893319 -0.3119272 0.22955646 0.14074893
000130 7f 60 c1 be 55 5a 8c be f1 1f 28 3d 26 39 23 3e
       -0.37768933 -0.27412668 0.041046087 0.15939769
000140 36 f6 20 3f 89 0e c5 bd ac e9 de 3d 8f 6a d9 be
       0.6287569 -0.09621913 0.10884413 -0.4246411
000150 02 c9 19 3e 9b 5e ae 3d 9c f6 99 be aa 8b 10 3e
       0.15018085 0.08514138 -0.3007096 0.14115778
000160 a8 05 2d 3f 40 c4 93 3e f4 de 85 be 43 83 aa 3d
       0.67586756 0.28860664 -0.26146662 0.083258174
000170 84 88 4e bd 15 d9 12 be 95 78 49 be 75 22 01 3f
       -0.05042316 -0.14340623 -0.19674905 0.504432
000180 95 97 02 3f a4 00 37 be 28 eb f8 3e 65 cb 51 3e
       0.51012546 -0.17871338 0.4861691 0.20487745
000190 56 6c a3 3c 44 2f 17 bd b6 17 c4 bd 0d fc f1 bd
       0.01994912 -0.03691031 -0.09574835 -0.11815653
0001a0 ce e2 84 be d6 e7 61 be a6 53 11 3e bd 93 01 3e
       -0.25954288 -0.22061095 0.14192066 0.12654014
0001b0 a7 3a cd be b4 b4 8d 3e ff 7e b7 3c c1 b5 0b 3d
       -0.4008381 0.27676928 0.022399424 0.03410888
0001c0 f7 18 31 be 1c 0e 8e be 14 6d 77 be d4 8c 62 3c
       -0.1729468 -0.2774514 -0.24162704 0.013827521
0001d0 fe e8 08 3e 18 3f 08 bf 66 2d 1a 3e aa d3 27 be
       0.1337013 -0.53221273 0.1505638 -0.16389337
0001e0 40 f8 8a 3c 31 cc 78 3c 39 32 80 3e 3c e7 9f be
       0.016964078 0.015185402 0.25038317 -0.31231105
0001f0 fb 2f be 3d 72 0b ca bd 73 50 c8 be 89 ac 24 bd
       0.09286495 -0.09865464 -0.39123878 -0.040203605
000200 3f a8 22 be 53 14 23 3e 01 ae 4b bd 07 16 a3 bd
       -0.15884493 0.15925722 -0.04972649 -0.07963186
000210 df 73 b2 3d 0b 07 ea 3d ef 62 f3 3d 1d d3 80 3e
       0.08713507 0.114271246 0.118841045 0.25161067
000220 b3 fe 3d 3e c4 c3 e3 3e b5 76 60 3e c9 c7 88 be
       0.18554191 0.44485295 0.21920283 -0.26714924
000230 53 b4 3c 3f 07 8d 4f 3d 03 96 b7 be 52 90 da be
       0.7371265 0.050671604 -0.35856637 -0.42688233
000240 ec bc 87 3e 3a 25 73 3d a3 e8 70 3d 80 79 4a be
       0.26511323 0.059361674 0.05881561 -0.19772911
000250 00 36 d9 be c8 69 3f 3e 63 0d 9b 3c 02 43 d8 bc
       -0.4242401 0.18692696 0.018927282 -0.02639914
000260 d4 9e 1a bd 9e 53 df bc b8 6d 93 3d ec 2a 7e bd
       -0.037749127 -0.027261551 0.071986616 -0.062052652
000270 38 8d 9b 3e 68 d9 28 3f 68 cd ca 3d 04 7f 87 be
       0.3038118 0.65956736 0.099024594 -0.26464093
000280 81 e4 f2 3d 3d 6c 85 3c 80 c3 cd be bc 8e 28 be
       0.1185999 0.016286964 -0.40188217 -0.16460699
000290 b7 42 7c bd ab 18 8a be f8 0a 5f 3e 60 11 e7 be
       -0.06158706 -0.26971945 0.21781528 -0.45130444
0002a0 98 93 42 3e ff 0c 46 3d 5b 8b 34 bd 56 47 7b 3e
       0.19001615 0.048352238 -0.044078212 0.24538931
0002b0 c4 16 18 3f 5e 8c 9e be d2 46 3d be 0b d6 da 3d
       0.5940974 -0.30966467 -0.18484047 0.10685357
0002c0 50 91 59 3e 0b b3 ba 3d 6a 85 f9 3d e4 ba 53 3d
       0.21246839 0.09116181 0.1218365 0.051691905
0002d0 f0 28 8a 3d 2c 21 c4 3c 44 3f bf be 1a f2 31 3e
       0.067460895 0.023941599 -0.37352955 0.1737751
0002e0 0a f0 c3 be 39 a6 f9 3e 57 87 85 3d 5e 3e cc be
       -0.38269073 0.4875963 0.06519955 -0.39891332
0002f0 85 cb b7 bd aa 8e eb 3d 21 16 ef 3d ec 6a ae 3d
       -0.08974365 0.115018204 0.11674143 0.085164875
000300 00 5b 0d 3e ef 00 b7 be 05 d2 ee be ae e1 2e 3e
       0.13804245 -0.357429 -0.46644607 0.17078277
000310 8c aa 93 be 0c f1 0f bf 08 51 31 3f 6b b6 ac be
       -0.28841054 -0.56227183 0.6926427 -0.33732924
000320 53 7c 3d 3e 33 b8 ce bd 33 2f 0f bd b3 b0 10 3f
       0.18504457 -0.10093727 -0.034957122 0.5651962
000330 18 5f fb bd b7 11 f7 3d 56 4d 8f be 26 5d 42 3f
       -0.12273997 0.12063926 -0.2798869 0.75923383
000340 45 74 62 3d 0d ba 98 be 8f 09 04 3f 25 28 81 bd
       0.055286665 -0.29829445 0.51577085 -0.06306485
000350 de 1b 89 3e 0c 79 0a 3e 49 95 ce bc 52 04 67 bd
       0.26779073 0.13522738 -0.02521767 -0.056400605
000360 14 a5 63 bc 35 2b a5 3d 44 f8 18 be 04 cb 36 3d
       -0.013894338 0.08064882 -0.14938456 0.044627205
000370 37 ab 6b 3e 55 6f 46 3e b3 06 d4 3d 03 f9 14 be
       0.23014532 0.19378407 0.1035284 -0.14548115
000380 2f c9 28 3f e1 26 cc 3c b6 d9 82 be 24 03 56 3d
       0.6593198 0.024920883 -0.25556725 0.05224909
000390 8b d0 60 3e 3a 23 3e 3e 4a 75 69 3d 7e ea be be
       0.21954553 0.18568125 0.05699662 -0.37288278
0003a0 33 fa 8e bd bb d5 b0 3d d8 f4 87 3e 4c c3 20 3f
       -0.069813155 0.08634516 0.26553988 0.62798
0003b0 b0 e6 2c be a7 a6 bd 3e 15 81 5a be 47 cc 59 3d
       -0.16884875 0.37041208 -0.21338303 0.05317333
0003c0 27 d8 8f 3e 38 75 cf 3b 68 8f 45 be 18 42 1b 3f
       0.280946 0.0063311122 -0.19292986 0.60647726
0003d0 2d be b1 bd c8 23 c0 be 23 7a 06 bc 29 90 72 be
       -0.08678851 -0.375273 -0.008207831 -0.23687805
0003e0 25 01 72 3e bc 53 40 be b9 0c 9c bb fe 77 77 bd
       0.23633249 -0.18781942 -0.004762259 -0.060417168
0003f0 8e 70 78 3c c2 54 05 3d 58 b6 3b be d6 b5 0a 3d
       0.015163554 0.032551534 -0.18331277 0.03386482

value_stream.0.weight f4 [256, 256]
000000 90 75 0c bf 0d 91 37 be c3 27 91 be 4e 57 4a bf
       -0.54866886 -0.17926426 -0.28350648 -0.79039466
000010 44 13 8e bd d1 ec 7e bd 1b 59 73 bf d7 1d 93 be
       -0.069372684 -0.062237564 -0.9505784 -0.28733703
000020 a5 c6 0b bf 22 5a d6 bc bd 66 e6 3d b6 05 2c be
       -0.5459998 -0.026166026 0.112500645 -0.16799054
000030 66 6a ef bd 0f 56 05 3f fa 44 a5 3e 67 91 11 3e
       -0.11690216 0.5208444 0.32279187 0.14215623
000040 b2 1d b3 3d 92 56 3c bf 88 89 14 be de 41 e5 be
       0.08745898 -0.73569596 -0.14505589 -0.44776815
000050 bc 6b cb be dd c0 85 be 78 0c 9e 3c c3 20 a5 be
       -0.39730632 -0.26123706 0.019293055 -0.32251558
000060 b8 e0 be bc d3 b7 ac bd 96 a6 a0 bd 9c 1a 18 be
       -0.023300514 -0.08433499 -0.07844274 -0.148539
000070 a8 cb 8e be 0e ca 95 bd 81 4d 34 3e 82 e8 30 3e
       -0.27889752 -0.073139295 0.1760769 0.17276195
000080 18 b6 0b bc 7b 42 18 3e ce 3b 89 be 58 3c 73 be
       -0.008527301 0.1486911 -0.2680344 -0.23753488
000090 20 12 78 3e f6 7e 02 bf 46 c2 3f be d7 5c ae be
       0.24225664 -0.50974977 -0.18726453 -0.34055206
0000a0 5d 9a 8a be 9d 7c 23 bd 0e ef 43 be c6 f9 9e be
       -0.27070895 -0.039913762 -0.19134161 -0.31049937
0000b0 92 26 9d be 3d 91 02 be 57 22 02 3d 76 2b a2 be
       -0.3069349 -0.12750717 0.03177103 -0.31673783
0000c0 af 7b b8 be 4b 09 f8 3c 84 12 48 be ed 8a f5 be
       -0.36031863 0.030277869 -0.19538313 -0.47957554
0000d0 86 7f 88 be c4 fb 6f be 49 c6 f5 be 9f 47 1d 3e
       -0.26659793 -0.23435885 -0.48002842 0.15359353
0000e0 ef 85 9c be f2 cb 6c bd 27 35 37 be d7 9c 8e be
       -0.30570933 -0.057811685 -0.1789137 -0.27854034
0000f0 7b 59 34 bf 06 30 03 be 7d ca 85 bc db 69 1d 3e
       -0.70449036 -0.12811288 -0.016331905 0.15372412
000100 dd 3b 8e 3d 3e de 72 be b3 57 db be d4 19 ee 3d
       0.06945012 -0.23717591 -0.42840347 0.1162602
000110 07 4a 10 3d 72 56 90 be 43 5f d3 be 1d 03 16 bf
       0.035226848 -0.28190953 -0.41283616 -0.585985
000120 da 69 0a bf 54 77 77 bd 4f 94 be 3d d3 07 39 be
       -0.54067767 -0.060416535 0.09305631 -0.18069391
000130 6e 95 17 be 3c 32 25 be ab 7a 29 bf 09 30 9a be
       -0.14803097 -0.16132444 -0.662028 -0.30114773
000140 35 4a 17 3e 3e 3a 83 be 85 3d bc be b8 a9 81 3d
       0.14774401 -0.25630373 -0.36765686 0.063311994
000150 2f af 17 be af d8 c8 3d 3a 52 40 be c3 66 52 be
       -0.14812921 0.09806954 -0.18781367 -0.20547013
000160 84 c5 a7 3c c5 66 80 3d 82 22 49 3d aa 8a b3 be
       0.020479925 0.06269602 0.049105175 -0.3506673
000170 79 39 84 be 5c 5d 5e be 08 8d f1 3c 97 80 51 3d
       -0.25825098 -0.21715301 0.029486194 0.051148023
000180 80 28 85 3d 63 a9 be 3d 1b da 55 3c 9f 32 8c be
       0.065018654 0.09309652 0.013052489 -0.2738237
000190 5c 04 89 be 87 85 02 3d 5e 84 48 3b 0f 74 39 bf
       -0.26761138 0.031865623 0.0030596475 -0.72442716
0001a0 1f bc e7 be 62 25 e5 3c 64 99 97 be ef e8 16 bf
       -0.45260713 0.027971927 -0.29609215 -0.5894918
0001b0 5e 34 50 bd 85 f5 5a 3e 02 c7 a9 be 8c ab ee bd
       -0.05083119 0.21382721 -0.33159643 -0.11653814
0001c0 e5 c2 99 be 26 9e 25 be bd 6a 06 bd 75 d4 a9 be
       -0.30031505 -0.1617361 -0.032816637 -0.33169904
0001d0 b0 9b ae be cb 18 af bd 9f 28 91 bd d0 4c 0b bd
       -0.34103155 -0.08549651 -0.07087826 -0.0340088
0001e0 13 37 11 be 48 3f 42 3d 81 34 04 bf 9a 22 65 bf
       -0.14181165 0.04742363 -0.51642615 -0.8950592
0001f0 16 8b 0f be d7 08 61 be d0 b0 aa be a7 81 3f bf
       -0.14017901 -0.21976028 -0.33338022 -0.7480721
000200 c7 a9 c6 be 39 f8 1e 3b b1 91 3e be 1e 84 c0 be
       -0.38801405 0.002425684 -0.18610264 -0.37600797
000210 36 18 cf be 64 d1 2d bf df 9c c4 be 1e 72 2a bf
       -0.4044816 -0.6789763 -0.38400933 -0.6658038
000220 f1 01 3a 3e 90 9d 1a 3e 2c d9 56 3e 04 87 86 3d
       0.18164803 0.15099168 0.20981282 0.06568721
000230 1f fd 58 3d 31 9a 76 be 62 b8 20 be 22 68 cb bd
       0.05297577 -0.24082257 -0.15695336 -0.09931971
000240 9c 1b 91 be fe 22 66 bd 89 98 0f bf eb 74 5d 3c
       -0.28341377 -0.056185715 -0.56092125 0.013516645
000250 d3 a0 20 be 1f 5f 2f bf ba e7 d7 be a7 d4 e0 be
       -0.1568635 -0.6850452 -0.4216898 -0.4391224
000260 b4 4e 6d be ad 53 0b 3d b8 44 6d 3e 14 db 12 be
       -0.23174554 0.034015346 0.23170745 -0.14341384
000270 fc 3a 1e bf f9 38 ba 3d 5f ac fc bd d7 ee 83 bd
       -0.61808753 0.09092898 -0.12337565 -0.064420395
000280 2d 4a 9d be e9 a9 f0 be 9e 1e 03 bd d1 82 60 3d
       -0.30720654 -0.4700463 -0.03201162 0.054812256
000290 42 96 f1 be 36 39 4c 3d 61 c4 7b bd 2c 0d 2c 3d
       -0.4718495 0.049859248 -0.06146658 0.04200475
0002a0 7e f0 84 bd b2 7f 48 be 34 6a ab be 4e f0 e7 bc
       -0.06491183 -0.19579962 -0.33479464 -0.028312828
0002b0 a7 cb 28 3e a1 c8 85 be 7d 5f 7c be b4 44 75 be
       0.16483937 -0.2612963 -0.24645801 -0.2395199
0002c0 79 f5 33 be e6 5e 48 be 5c 11 a6 be 0f 3c 85 be
       -0.17574109 -0.19567451 -0.3243512 -0.26022384
0002d0 cd 9d 1c bd 45 8a 5f 3e 80 6d 66 bd ec 1d 22 bf
       -0.038236428 0.2183009 -0.05625677 -0.6332691
0002e0 c3 f7 a3 be 99 16 92 3c 48 91 21 be cc 86 f7 bc
       -0.32024965 0.017833041 -0.15778077 -0.030215643
0002f0 99 4b 52 be 51 30 78 be 7d 51 e5 3e 02 15 e7 be
       -0.2053665 -0.24237181 0.44788733 -0.45133215
000300 04 fa 80 bd 2f 79 7f bd 52 43 c5 bd a9 bf 26 3d
       -0.06297687 -0.06237143 -0.09631981 0.040710125
000310 b6 3c 77 be e8 54 9a be 11 d1 16 3d b3 f9 2e 3a
       -0.24144253 -0.30142903 0.036820475 0.00066747813
000320 18 9d d6 be 03 97 34 bc ba e1 15 bf 99 29 b4 bc
       -0.41916728 -0.011022332 -0.58547556 -0.021992492
000330 82 15 47 be 13 70 f8 be ec da 61 be 4c 81 48 3e
       -0.19441798 -0.48523006 -0.22056168 0.19580573
000340 9b d7 99 3d cb 79 26 bf f5 a0 02 3f 39 ac b8 be
       0.075118266 -0.6502959 0.5102685 -0.36068895
000350 4e 00 4d bf 2b 6c ac 3d 6a 6a d1 3c 7e 0f b1 be
       -0.8007859 0.08419069 0.025563437 -0.34582132
000360 2c b1 fd 3d 77 d2 8b be 48 a6 b2 be 5c c9 42 be
       0.123873085 -0.2730901 -0.34892488 -0.19022125
000370 12 ef d7 be 08 4a 7e bf 24 fb c3 be 68 da f7 3c
       -0.42174584 -0.9933171 -0.38277543 0.030255511
000380 e3 6f fe 3d da 59 7a 3c ff 1e 98 bc 2e 16 c4 be
       0.124236844 0.015280211 -0.018569468 -0.38298172
000390 d7 85 89 be 3e 7f 32 bf 33 c2 f3 bc 70 d4 32 bf
       -0.26859924 -0.69725406 -0.029755687 -0.69855404
0003a0 58 f0 50 be b3 9b a6 be 08 31 15 bf fc 81 23 bd
       -0.20404184 -0.32540664 -0.5827794 -0.039918885
0003b0 37 d6 67 be 96 19 98 3e eb 10 9e bd 8b a6 99 be
       -0.2264031 0.2970702 -0.077180706 -0.30009875
0003c0 3b 44 ad be e0 24 45 be 16 98 6b bc e8 8d b3 3e
       -0.33841118 -0.19252348 -0.014379522 0.35069203
0003d0 08 61 21 bf 61 0a 2f bf ac 21 47 be bc 55 c1 bd
       -0.6303868 -0.6837521 -0.19446439 -0.09440181
0003e0 82 20 fe be 7f cd 67 bd ed e4 b7 bd 73 f4 04 3d
       -0.49634176 -0.05659246 -0.08979211 0.032459687
0003f0 07 bd 69 be 78 e7 1b bf 28 58 09 bf 07 35 56 bf
       -0.22826014 -0.6090007 -0.5365014 -0.83674663

value_stream.0.bias f4 [256]
000000 6a b6 f7 3e 18 e3 b5 3e ee 99 cb bc d6 88 f2 3e
       0.48381358 0.3552482 -0.024853673 0.47370023
000010 2c e8 94 3d 84 e7 dd 3e 6d 8b 83 3e e7 6c 31 3e
       0.07270846 0.43340695 0.2569231 0.17326699
000020 16 89 8f 3e ac 41 18 be d2 ee df bd 85 a5 09 3f
       0.28034276 -0.14868802 -0.10934223 0.5376819
000030 58 83 14 3e 67 02 97 3e 02 28 92 3e 64 4b 5f bd
       0.14503229 0.2949402 0.2854615 -0.054515257
000040 dc 39 c2 3e c3 70 04 3f a6 6d b0 be 4f 59 65 3d
       0.37934768 0.5173456 -0.34458655 0.055993374
000050 10 6c ec be 02 f0 71 bd 45 24 c2 be d1 a9 94 3d
       -0.46176195 -0.05906678 -0.37918296 0.072589524
000060 37 c4 9a be f7 c4 ae 3d ed da ae 3c 88 18 e8 3e
       -0.30227825 0.08533662 0.021344626 0.45331216
000070 cd 6b 82 bd 4b 66 f2 3e ab d3 25 3e 17 69 be 3e
       -0.063682176 0.47343668 0.16194026 0.37189552
000080 e1 1d eb 3d c5 ef 9a 3c 75 2d 27 bd 7b 78 e8 be
       0.11480308 0.01891316 -0.040814836 -0.4540442
000090 27 62 9e 3e 0c f2 68 bd cd 7d b7 3e 74 c1 05 3f
       0.3093426 -0.05687146 0.35838166 0.5224831
0000a0 9b 2a 00 3d ef 42 cb bc 2a 13 97 3e 77 aa aa bd
       0.03129063 -0.02481219 0.2950681 -0.08333295
0000b0 c2 c8 43 3e ff c1 9c 3e ee ce d2 3e 69 71 2d 3e
       0.19119552 0.30616757 0.411735 0.16937794
0000c0 e3 bf 68 3e 3b 65 ac 3d 9c a2 03 3f 43 5d cb 3d
       0.22729449 0.08417746 0.5142 0.09929898
0000d0 cc a7 8d be cb 3d 59 3e 0e 9d 5c bd b8 0b 83 3e
       -0.2766708 0.21214978 -0.053860717 0.25594878
0000e0 c5 55 81 bd 2f bf 0c 3f 76 bd 74 3d 2b 59 bb 3d
       -0.06315187 0.54979223 0.059750997 0.09147867
0000f0 b4 10 5e 3e 56 52 f6 3e 61 85 8c bb ab 5f be 3e
       0.21686059 0.48109692 -0.004288361 0.37182364
000100 fb ad 70 bc 23 46 39 3c db 70 86 3e 21 33 e5 3e
       -0.014689918 0.011308226 0.26257977 0.4476557
000110 a9 8f e2 be e1 86 bf 3d a2 ed 6c 3e d3 87 1f 3e
       -0.4425023 0.09351898 0.23137525 0.15579157
000120 92 fc a4 3e c3 31 5f be 57 40 fc 3c 4c f9 95 3e
       0.32223946 -0.21796326 0.030792398 0.2929176
000130 ca f3 0a 3f 16 ed af 3e 0a 3d 98 bc 39 30 38 3f
       0.5427824 0.3436057 -0.018583793 0.7194858
000140 2f 27 31 3e b0 ac 06 3f 76 e0 56 bd c4 6d bc 3d
       0.17300104 0.5260725 -0.052460156 0.09200624
000150 9d ba 48 3e 03 f3 3c 3e 35 65 da be 43 d4 06 3f
       0.19602437 0.18452077 -0.4265534 0.52667636
000160 ac c9 50 3e d7 17 e4 be 39 3e 18 3e ae fb 8a 3d
       0.20389432 -0.44549438 0.14867486 0.06786285
000170 4b 66 74 3d 57 35 b4 3c 23 20 d8 3c df 99 ba bc
       0.059667867 0.02199809 0.026382511 -0.02277845
000180 4d 25 8f 3e 19 b5 c6 be f1 39 dc 3e 4e 71 0c 3f
       0.27958146 -0.38810042 0.43012956 0.5486039
000190 9e 2e a9 bd 66 1e 5d 3b bc 2f 93 3e 8b 68 d7 3e
       -0.08260845 0.0033740043 0.28747356 0.42071947
0001a0 ae 1f 83 3d a0 7c fb 3e 44 90 5f 3e 9e a5 c0 3e
       0.06402527 0.4911852 0.21832377 0.37626356
0001b0 fc aa 65 3e 86 7c cf bc e6 29 1b 3f d2 5a a3 3e
       0.22428507 -0.025327932 0.60610807 0.31905228
0001c0 58 c6 18 3e e5 70 f3 3e c1 16 8c 3e b5 e1 3f be
       0.14919412 0.4754707 0.2736111 -0.18738444
0001d0 66 b7 fe 3c 04 ca 9a 3e 7c f6 32 bd b9 97 67 3d
       0.03109331 0.3023225 -0.043692097 0.05654118
0001e0 88 18 16 3f ff f5 e8 3e ea 4b 02 bf 26 11 f6 39
       0.5863118 0.4550018 -0.50897086 0.00046933553
0001f0 0a 05 b6 3e 9f dd a3 3e e9 9f 68 bd 4f 03 39 be
       0.3555072 0.3200502 -0.056793127 -0.18067668
000200 f2 74 14 3d 64 74 d7 3c 8d a6 11 3e 2c db 81 3e
       0.03624434 0.026300617 0.1422369 0.25362527
000210 0e bd 0a 3e 32 ec c9 3e 0c d8 b1 3e f1 35 8d 3e
       0.13548681 0.39438015 0.34735143 0.27580217
000220 8b 96 f6 bc 69 a5 12 3e f7 3d 51 3e b0 b8 b1 3e
       -0.030101081 0.14320911 0.20433794 0.34711218
000230 3e fa d2 3d fe 57 45 3e 7f 03 88 bd 91 1f 89 be
       0.10301636 0.19271848 -0.06641292 -0.26781896
000240 d3 fd 2a 3d bf 61 2e 3f 19 d4 5b be 08 7b b5 3e
       0.041745972 0.681179 -0.21467628 0.35445428
000250 82 f4 f8 be ff 06 a9 3e 97 1a da 3e a9 37 9d 3e
       -0.48624045 0.3301315 0.4259841 0.30706528
000260 75 63 7a 3e e4 f1 58 3e e6 b3 71 3e 18 04 47 3e
       0.24452002 0.21186024 0.23603782 0.19435155
000270 ad fc 9a 3d f8 a6 b4 3d 0b a7 0c 3e 54 d9 3c bd
       0.07567725 0.08820909 0.13735597 -0.046105698
000280 f2 44 52 be 91 7c e0 3e fe 7e 60 3d d9 87 a6 3e
       -0.20534113 0.43845037 0.05480861 0.3252552
000290 7a 2e c2 3e dc 09 de 3e 76 53 01 3f 93 59 f5 3e
       0.37926084 0.43366897 0.50517976 0.47919902
0002a0 e6 55 00 3f 7a fe c9 3e 33 80 ca 3e fa 42 6f 3e
       0.5013107 0.39451963 0.39550933 0.23365393
0002b0 e6 82 a5 3e 0d ac bf 3e 53 8e 6f 3d d0 16 9b 3e
       0.3232643 0.37435952 0.05848534 0.30290842
0002c0 6c fb 07 3e c2 85 f2 3e 31 49 c1 be 36 a9 8a 3e
       0.13279504 0.47367674 -0.37751153 0.27082223
0002d0 f9 9e 8e 3e a2 30 00 3f ef ca 3a be be 38 4b be
       0.27855662 0.5007421 -0.18241476 -0.19845864
0002e0 b0 9e d0 3e a1 c4 01 3f 29 a8 f0 3d 8d d6 ef 3d
       0.4074607 0.50690657 0.11750824 0.11710844
0002f0 c7 74 25 be 77 d5 cd 3e af 99 a8 bd 0e a8 fd 3e
       -0.16157828 0.40201923 -0.08232438 0.49542278
000300 7f 83 90 3e 54 20 f8 3e f0 19 31 3e c6 4d 17 3e
       0.28225324 0.48462164 0.1729505 0.14775762
000310 0a 20 f2 bb d7 ab e1 bd 35 c3 f1 3e be 43 41 3e
       -0.0073890733 -0.11019104 0.47219244 0.18873498
000320 8c 31 12 3f c0 6b 73 3d 1c b0 fc 3d fa 04 90 bb
       0.5710685 0.05942893 0.12338278 -0.0043951245
000330 48 80 54 3e b2 48 d4 3e 6c 07 22 3e fb a9 78 3e
       0.2075206 0.41461712 0.15823144 0.24283592
000340 76 f3 d4 3e 90 60 18 bd 07 08 61 3e 62 b8 33 3d
       0.41591996 -0.037201464 0.21975718 0.043877013
000350 2b 80 60 3e e8 ce 9e be 1a 04 2f 3e d2 dd 5e 3e
       0.21923892 -0.31017232 0.17091408 0.21764305
000360 f8 6e 86 bd 69 1a cb 3e 01 94 5b 3e d3 96 90 3e
       -0.06564134 0.39668587 0.21443178 0.2824007
000370 c0 39 97 3e 57 80 10 3f aa 99 0b 3f 68 15 09 3b
       0.29536247 0.5644583 0.5453135 0.00209173
000380 31 9b 69 3e 90 2e 0d 3e 48 6e 31 be 22 aa 55 be
       0.22813107 0.13787293 -0.17327225 -0.20865682
000390 2c da 05 3f 53 ac 52 3e 98 ec aa 3e 5d 42 12 bd
       0.5228603 0.20573549 0.33383632 -0.03570782
0003a0 70 ee a5 3e 79 b9 9a 3e e1 5f cc bd 1c ff 0b 3f
       0.32408476 0.3021963 -0.09979225 0.5468614
0003b0 88 be dd 3e 92 49 c2 3e 15 7f df 3d 0e 97 17 3f
       0.43309426 0.37946755 0.10912911 0.59214866
0003c0 da df cf bd 99 27 e8 3d 8f f7 a5 3e 59 de fa 3e
       -0.10150118 0.11335678 0.32415435 0.48997763
0003d0 1a fd b2 3e ea fe 58 be 9b dc ec 3d 34 9d b6 3e
       0.34958726 -0.21190992 0.11565515 0.3566681
0003e0 cc 3f bf 3e 93 93 e6 3d 2b 61 04 3f 7a 73 9b 3e
       0.3735336 0.11258616 0.51710767 0.3036154
0003f0 71 e5 b0 3a c4 cd a5 3e ec 86 0e 3e 9e 29 c8 3e
       0.0013496113 0.3238355 0.13918656 0.3909425

value_stream.2.weight f4 [1, 256]
000000 71 64 90 3e bb 1b 58 bf ec d3 5d 3f 6d e7 7d bf
       0.2820163 -0.84417313 0.8665149 -0.9918125
000010 31 5a 26 bf a3 c3 47 bf f5 81 44 bf ce 70 f0 3e
       -0.6498137 -0.7803289 -0.767608 0.46961063
000020 11 16 2e bf 5f 6a 8b bf e0 22 2d bf 79 5b 5b bf
       -0.6800242 -1.0891837 -0.6763134 -0.8568645
000030 45 af 6d 3f 5a d1 6c bf e0 92 12 3f 5c 81 e7 3e
       0.92845565 -0.92506945 0.57255363 0.4521588
000040 a7 53 e4 3e f1 62 d3 3e 4a 55 74 bf 4b ca 93 3e
       0.44595072 0.41286424 -0.9544264 0.28865275
000050 fb a0 58 be fa 86 c4 bf 84 49 59 be a5 37 6c 3f
       -0.21155159 -1.5353692 -0.2121945 0.92272407
000060 e1 2f 8b be 6f 1f e2 3e 9b 7c ef 3e e5 bd 81 bf
       -0.27184966 0.44164607 0.46774754 -1.0136076
000070 47 5c 75 3f d3 ac 94 3e e7 84 51 3f b2 da 41 bf
       0.9584393 0.29038104 0.8184342 -0.7572433
000080 ee 88 4f 3f 92 f3 0d 3f 1a a7 e5 3e 7d 62 32 be
       0.81068313 0.55449784 0.4485405 -0.17420383
000090 08 20 ee 3e 46 68 90 3f 7f a2 ac bf c0 46 69 bf
       0.46508813 1.1281822 -1.348709 -0.9112358
0000a0 f6 82 e7 3e 80 53 16 3f 24 5e 5b bf 4b d9 bf bf
       0.45217103 0.5872116 -0.8569052 -1.4988188
0000b0 6b 43 18 3f 3d 6e 31 bf 3d ae cc 3e e6 ef 58 3f
       0.5947787 -0.69308835 0.39976683 0.84741056
0000c0 5f 26 67 bf ab 0e d8 3e bc 11 0c 3f eb 1f 66 3f
       -0.90292925 0.4219869 0.5471456 0.8989245
0000d0 41 06 82 be ec ac 5f 3f 0f e5 b9 bf 26 07 f9 3e
       -0.25395396 0.8737323 -1.4523028 0.48638266
0000e0 03 a4 01 3f 99 9c 85 bf 9e 81 97 3f 5d 57 90 3f
       0.5064089 -1.0438415 1.1836431 1.1276661
0000f0 4e 36 68 3f a2 40 bd bf b8 16 0a 3f 75 fe 93 bf
       0.9070786 -1.4785349 0.53940916 -1.1562029
000100 52 df c3 bf 03 2d 1a 3f e7 06 05 3f 85 c0 79 bf
       -1.5302527 0.6022493 0.5196366 -0.97559386
000110 8d d2 3f be 99 90 8d 3f 90 0f c1 3e 45 ea cf 3e
       -0.18732662 1.1059753 0.37707186 0.4060842
000120 f2 dd 01 3f b8 e6 5e bf 66 71 90 3f 87 fa 58 bf
       0.50729287 -0.870708 1.1284606 -0.84757274
000130 63 92 5b bf f4 2f 7b bf 5e ce be bf 6c 10 a7 bf
       -0.85770243 -0.98120046 -1.4906728 -1.3051887
000140 8a 26 63 bf c4 c6 bb 3e 3a a9 84 3f 66 13 d7 3e
       -0.8873068 0.36675084 1.0364144 0.42006987
000150 31 6e 14 bf 1d 56 5f 3f 96 d2 30 be 96 ae b7 3e
       -0.5798064 0.87240773 -0.17267832 0.35875386
000160 07 84 b2 3e c3 3d 41 be ce 8c 66 3f 53 ed 8c bf
       0.34866354 -0.18871216 0.900586 -1.1009926
000170 62 86 e0 3e 8f 89 52 3f ba 14 f8 3e d5 a4 06 3f
       0.43852526 0.8224115 0.48453313 0.52595264
000180 41 01 30 3f f2 76 2f be 32 a4 fc 3e 0b e5 b9 bf
       0.68751913 -0.17135218 0.4934402 -1.4523023
000190 f5 d6 2e bf 8b 8a fe 3e 5e a3 68 bf af 63 f9 3e
       -0.6829675 0.49715075 -0.9087428 0.48708865
0001a0 96 63 fd 3e 25 fb c4 bf c3 a4 54 bf 7f 45 d2 3e
       0.4949004 -1.5389143 -0.83063906 0.41068646
0001b0 69 1a 81 bf 70 2f c4 bf 1e f5 bf bf 98 ac 31 3f
       -1.0086185 -1.5326977 -1.4996679 0.6940398
0001c0 bf 75 96 3e b7 69 59 bf d6 97 76 3f 6b 3e 7b bf
       0.29386708 -0.84926933 0.96325433 -0.9814212
0001d0 27 df 3d 3f 80 f9 97 bf cf bf 53 bf a9 aa 0a bf
       0.7416863 -1.1873016 -0.8271455 -0.54166657
0001e0 c6 d2 72 bf 42 42 77 bf d3 e1 bd bd 72 d6 6e 3f
       -0.94852865 -0.96585476 -0.09271588 0.9329597
0001f0 46 ea 73 bf 53 b2 16 bf 15 1b f8 3e 80 d3 76 bf
       -0.9527935 -0.5886585 0.48458162 -0.96416473
000200 8b 67 2a 3f 2b 03 a3 bf 8b 1f 0e 3f 19 f1 83 3f
       0.66564244 -1.2735342 0.5551688 1.0307952
000210 da d6 88 3f e3 9e 77 bf b7 b1 8a bf 00 36 c9 3e
       1.0690567 -0.96726817 -1.0835484 0.3929901
000220 84 77 6b 3f 7e 1f 8c 3e a1 9a 70 bf 4c d1 e6 3e
       0.9197924 0.27367777 -0.93985945 0.45081556
000230 1b 57 fa 3e f9 1f d0 3e a3 d6 ba bf b6 68 9c bf
       0.4889458 0.40649393 -1.4596752 -1.2219455
000240 e4 ce 86 3f 87 1c be bf cf f4 95 bf 8c c7 40 bf
       1.0531888 -1.4852456 -1.1715335 -0.75304484
000250 98 25 63 be 8f e9 8c bf 9e 38 40 bf 17 1a 5f bf
       -0.2218231 -1.1008776 -0.7508639 -0.87149185
000260 11 b9 7b 3f dd 64 73 3f 63 34 58 3f 94 8c 15 3f
       0.98329264 0.9507578 0.84454936 0.5841763
000270 a9 15 8e 3f d7 ce 6f 3f f1 6a b3 3e 47 3a 14 3f
       1.110036 0.9367499 0.35042527 0.57901424
000280 8b d7 7c bf 4b cd e0 3e 01 ed 5c 3f 76 d4 99 bf
       -0.9876639 0.43906626 0.8629914 -1.2017963
000290 50 95 b4 bf aa ce 6a bf 7e b8 c0 bf bc 4b d0 bf
       -1.4108067 -0.91721594 -1.5056303 -1.6273112
0002a0 bb 1c aa 3e c0 96 57 bf 74 15 a3 3e d6 e0 5f bf
       0.33225045 -0.842144 0.31852305 -0.8745245
0002b0 b7 51 54 bf 3c e2 72 bf c7 c4 e7 bf 9a b7 1c 3f
       -0.82937187 -0.94876456 -1.8106927 0.61217654
0002c0 85 01 52 3f ad 18 9a 3e 63 a7 47 be b8 81 7e bf
       0.8203357 0.3009695 -0.19497447 -0.99416685
0002d0 86 e1 02 3f a2 db 76 3e 1f a8 87 bf 5f b7 53 bf
       0.5112537 0.24107221 -1.0598181 -0.8270168
0002e0 60 d4 80 bf 23 0c 03 3f 68 74 4b 3f 2e fb 2b bf
       -1.0064812 0.51190394 0.79474497 -0.67180145
0002f0 05 79 9b be 4e 7d 85 bf d4 7e 9a bf dc c8 c8 bf
       -0.30365768 -1.0428865 -1.2069955 -1.5686297
000300 98 58 12 3f 81 ca b2 3e d5 6f 86 3f a7 56 ec 3e
       0.57166433 0.34920123 1.0502878 0.4615986
000310 45 d1 98 3f d7 a3 b7 bf 2c f8 78 bf ad 7a 7d 3f
       1.1938864 -1.4346875 -0.9725368 0.99015313
000320 a1 dd 60 bf f9 52 4c 3f fb 11 88 3f 53 6d 93 3f
       -0.8783818 0.79814106 1.0630487 1.1517738
000330 71 e2 5c 3f 1c 96 93 bf 42 8c 87 3f 63 d4 64 bf
       0.8628302 -1.1530185 1.0589678 -0.89386576
000340 0d fe be 3e 80 71 c0 bf 4d 8c 55 3f 82 e1 0f 3f
       0.373032 -1.5034637 0.83417207 0.5620347
000350 9c 5f 4c bf 17 2a 3a bf 97 2c 84 bf 8f 7d da bf
       -0.7983339 -0.72720474 -1.0326108 -1.7069567
000360 07 89 62 3f 94 eb 91 bf af 70 4d bf 27 92 49 bf
       0.8849034 -1.1400018 -0.80250067 -0.78738636
000370 0b b9 54 bf 1c 67 d9 3e 1f 95 70 bf f7 c6 ba bf
       -0.83094853 0.4246148 -0.9397754 -1.4591969
000380 5c c9 25 3f 91 4d 63 3f c1 d3 13 bf 0e 38 11 bf
       0.64760375 0.8879023 -0.57744986 -0.5672616
000390 76 3e bf bf 2d 5c fc bf 83 ed b4 3e bf 1f c5 bf
       -1.4940937 -1.971563 0.35337457 -1.5400313
0003a0 96 93 b3 3e ce 77 c9 3e b4 99 9b bf 0c 7a a7 bf
       0.35073537 0.39349216 -1.2156281 -1.3084121
0003b0 44 ea ea 3e 1e f4 72 bf b8 c6 09 3f 4d 08 d3 bf
       0.45881855 -0.94903743 0.53818846 -1.6486908
0003c0 a3 de a8 bf ce aa 2d 3f 1f 23 09 3f c4 12 04 3f
       -1.3192943 0.6783875 0.53569216 0.51591134
0003d0 17 1f a6 bf 25 a7 65 bf 59 d3 89 3f 24 41 65 bf
       -1.2978238 -0.8970817 1.0767623 -0.8955252
0003e0 3e 73 56 bf fb bd 48 3f a7 60 ce 3e ad e8 d2 3e
       -0.83769596 0.7841489 0.40308115 0.41193143
0003f0 38 57 6f bf dc 8c 64 bf c2 7c 37 3f 54 d7 64 bf
       -0.9349246 -0.89277434 0.7167474 -0.89391065
