active_slam_rl/training_output_slam/20260126_164625/d3qn_ep1720.pth (torch, 901810 bytes, 11 tensors)

feature.0.weight f4 [256, 100]
-0.20186548 -0.10365703 0.09279684 0.18532683 -0.07917744 0.046736427 -0.011583141 -0.012973395
0.081918046 0.045944624 -0.028025193 0.030009214 -0.045164485 -0.11807549 -0.1452716 0.1455599
0.10630068 -0.031730935 0.013855017 0.12809727 0.10937801 0.21250121 0.26031578 0.17796464
0.059520192 -0.16183108 -0.29049674 -0.042197436 -0.16313116 -0.22129603 0.020588279 -0.1721705
-0.2527792 -0.110632434 -0.199104 -0.20123564 -0.20541611 -0.24211587 -0.19979909 -0.11464952
-0.19684228 -0.32901132 -0.22918251 -0.16730589 -0.04073863 -0.12556404 -0.31459913 -0.3752732
-0.25339794 -0.1571125 -0.3448845 -0.20937024 -0.044491168 -0.049268592 -0.03891389 -0.15325214
-0.10499477 -0.03711041 -0.081400126 0.11602906 -0.048547894 0.15348846 0.081759796 -0.032726
-0.0015790174 -0.0011648589 0.28003514 -0.07621856 -0.074505284 0.12835349 -0.09345944 0.10545245
-0.070512235 -0.26662162 0.035696976 -0.25510156 -0.21726099 -0.26513043 0.21465954 0.19760408
-0.097607 -0.09145664 -0.024917953 0.06264059 -0.17404096 -0.15649767 -0.1785981 -0.24738795
-0.13636516 -0.08460218 -0.1635162 -0.21855086 -0.29819706 -0.22822759 -0.22864203 -0.18346445
-0.23635225 -0.35458416 -0.3860997 -0.6402113 0.29073837 0.27875417 0.10853843 0.077909
0.024953749 0.07998812 -0.030711174 0.11651814 -0.012852694 -0.06838423 -0.21051201 -0.07539917
-0.2321023 -0.23487334 -0.16210999 -0.2988826 -0.3042593 -0.30244854 -0.28660583 -0.21147956
-0.3673314 -0.18534467 -0.26246488 -0.31860855 -0.14846006 -0.18376976 -0.26634914 -0.37640953
-0.2658743 -0.23933719 -0.24132799 -0.25015688 -0.16113943 -0.18163092 -0.19094682 -0.11497243
-0.21318357 -0.18428174 -0.21710607 -0.21629202 -0.03615563 -0.05690082 0.02173724 -0.01903655
-0.11985597 -0.12155866 0.068247475 0.035010807 0.069706954 -0.042022172 -0.09609539 -0.0507129
0.14455457 0.20695487 0.18006638 0.13263644 0.31101772 0.20858228 0.22104914 -0.06861488
-0.018230593 0.04959435 -0.16406348 -0.030215807 -0.0326572 -0.002076365 -0.05447478 -0.0010679589
-0.11498782 -0.037545387 -0.0458967 -0.23877059 -0.14571558 -0.15063202 -0.04942258 -0.16356851
0.085628435 -0.010191697 -0.13414137 -0.11427298 0.008570713 -0.17764524 0.054986782 0.035152573
0.0012291151 -0.16486761 0.037356652 0.07181061 -0.1288293 -0.07936369 -0.0120017165 0.026850644
-0.09439912 -0.10998058 -0.026265722 -0.07411914 -0.18038037 -0.18936476 -0.09092429 -0.007834042
0.18777764 0.09276687 0.019167101 0.09778448 0.028190462 0.043250427 0.2017423 0.14694022
0.14524001 0.09395451 0.09710027 -0.07574655 0.21859367 -0.042955473 -0.27814716 -0.33883655
-0.18669091 -0.14466749 -0.054690644 0.026748061 -0.1494896 -0.28344178 -0.098894745 -0.24612759
-0.30444106 -0.30117324 -0.37602705 -0.34377888 -0.38607204 -0.27252427 -0.29706153 -0.38550434
-0.15690534 -0.19963785 -0.20702642 -0.16407244 -0.07952975 -0.12427126 -0.3798328 -0.17692699
-0.03151147 -0.13695426 -0.12385514 -0.2539698 -0.064908154 -0.23700406 -0.32785127 -0.34482238
-0.06204583 -0.09042426 -0.22651914 0.059986766 0.20006377 -0.009719894 0.10283366 -0.09809557
00000000: d3b5 4ebe 234a d4bd 450c be3d 51c6 3d3e
00000010: c827 a2bd b26e 3f3d 37c7 3dbc 5d8e 54bc
00000020: a6c4 a73d 6e30 3c3d 1795 e5bc e2d5 f53c
00000030: 65fe 38bd 90d1 f1bd 14c2 14be a80d 153e
00000040: 2cb4 d93d 4cf8 01bd 2700 633c ee2b 033e
00000050: 9401 e03d eb99 593e 1c48 853e 5d3c 363e
00000060: 72cb 733d 0cb7 25be fdbb 94be 38d7 2cbd
00000070: db0b 27be 6d9b 62be c0a8 a83c 774d 30be
00000080: 466c 81be 4293 e2bd ebe1 4bbe b710 4ebe
00000090: 9a58 52be 39ed 77be 2298 4cbe 5ecd eabd
000000a0: 0691 49be 2c74 a8be d2ae 6abe 3c52 2bbe
000000b0: 8ddd 26bd dc93 00be 2313 a1be cf23 c0be
000000c0: 60bd 81be 19e2 20be b494 b0be 2765 56be
000000d0: 5f3c 36bd ddcd 49bd 2c64 1fbd 21ee 1cbe
000000e0: 7f07 d7bd 1601 18bd 1cb5 a6bd a5a0 ed3d
000000f0: 28da 46bd 142c 1d3e ae71 a73d b30b 06bd
00000100: 08f7 ceba 2eae 98ba c460 8f3e 7a18 9cbd
00000110: 3a96 98bd 196f 033e aa67 bfbd 74f7 d73d
00000120: b868 90bd a182 88be fe36 123d ac9c 82be
00000130: aa79 5ebe 2dbf 87be b6cf 5b3e b958 4a3e
00000140: 2ee6 c7bd 9e4d bbbd bc20 ccbc b649 803d
00000150: cb37 32be ed40 20be 6ce2 36be 4453 7dbe
00000160: 4fa3 0bbe e843 adbd ca70 27be cccb 5fbe
00000170: 49ad 98be 7eb4 69be 2321 6abe 1bde 3bbe
00000180: 5306 72be 0e8c b5be dcae c5be e3e4 23bf
00000190: a9db 943e deb8 8e3e 6549 de3d c18e 9f3d
000001a0: ce6b cc3c d0d0 a33d 0096 fbbc 10a1 ee3d
000001b0: 1b94 52bc 080d 8cbd 7690 57be e16a 9abd
000001c0: 3aac 6dbe a382 70be 2900 26be 2407 99be
000001d0: e0c7 9bbe 89da 9abe 00be 92be 198e 58be
000001e0: dc12 bcbe feca 3dbe cc61 86be a920 a3be
000001f0: ea05 18be 242e 3cbe ea5e 88be c0b8 c0be
00000200: ad20 88be cf14 75be af1e 77be 9014 80be
00000210: bc01 25be 75fd 39be 9087 43be aa76 ebbd
00000220: cb4c 5abe 5ab4 3cbe 0e51 5ebe a87b 5dbe
00000230: ed17 14bd d610 69bd 4c12 b23c 8af2 9bbc
00000240: 0c77 f5bd bff3 f8bd 55c5 8b3d 7e67 0f3d
00000250: 85c2 8e3d 711f 2cbd a9cd c4bd 54b8 4fbd
00000260: 1d06 143e faeb 533e 5263 383e d9d1 073e
00000270: b73d 9f3e 9896 553e b55a 623e f585 8cbd
00000280: 5358 95bc 7223 4b3d 4200 28be 2487 f7bc
00000290: 8ec3 05bd a013 08bb f220 5fbd c1fa 8bba
000002a0: bc7e ebbd 31c9 19bd 2efe 3bbd 4780 74be
000002b0: 7736 15be 483f 1abe 556f 4abd 817e 27be
000002c0: f65d af3d 13fb 26bc 5b5c 09be f407 eabd
000002d0: 2d6c 0c3c a2e8 35be d239 613d 25fc 0f3d
000002e0: 421a a13a 0ed3 28be 4a03 193d 7111 933d
000002f0: d4eb 03be 6e89 a2bd d9a2 44bc e2f5 db3c
00000300: 5354 c1bd 803d e1bd 362b d7bc c7cb 97bd
00000310: a2b5 38be d6e8 41be 8436 babd 5b5a 00bc
00000320: c848 403e 8ffc bd3d 5304 9d3c 3b43 c83d
00000330: afef e63c 5c27 313d 8995 4e3e 7f77 163e
00000340: ccb9 143e 396b c03d 82dc c63d 0221 9bbd
00000350: 05d7 5f3e 14f2 2fbd 4e69 8ebe fc7b adbe
00000360: e72b 3fbe b723 14be 4c03 60bd c01e db3c
00000370: cd13 19be 481f 91be 5489 cabd df08 7cbe
00000380: b3df 9bbe 6133 9abe 9e86 c0be c903 b0be
00000390: 3cab c5be 4d88 8bbe 7318 98be d360 c5be
000003a0: cbab 20be dd6d 4cbe bcfe 53be 9b02 28be
000003b0: 7ee0 a2bd ee81 febd 7279 c2be 592c 35be
000003c0: 2c12 01bd bd3d 0cbe c3a7 fdbd 5408 82be
000003d0: 91ee 84bd 31b1 72be 1fdc a7be 8f8c b0be
000003e0: c523 7ebd 5b30 b9bd a2f4 67be afb4 753d
000003f0: 84dd 4c3e 3140 1fbc 749a d23d 55e6 c8bd

feature.0.bias f4 [256]
-0.6661928 0.20389874 0.40146074 -0.43679744 -1.2312768 -0.619635 0.7119197 0.5394208
0.419423 -0.21282402 0.4120765 0.005647455 -0.011968375 -0.33459494 -0.31748208 0.48892766
0.56888217 0.2265477 0.51741254 0.025580669 -0.11456649 -0.12299122 -0.42550054 0.44486552
-0.9221605 0.120328754 1.0327685 -0.55860496 -0.9368519 0.10412008 0.45945835 0.37927216
0.36005414 -0.4349277 -0.690375 -0.09278736 0.019020453 0.005616022 -0.82711774 0.68617827
0.53672343 0.2735394 0.13545372 -0.34325296 -0.025529 0.09733787 -0.4544029 0.935867
0.18642287 0.5153614 0.29017836 -0.7585163 -0.4607539 0.0062943934 0.10894811 -0.107632786
0.39471152 0.47110957 -0.41283447 -0.016423592 0.12495502 0.5623258 -0.2460481 0.39088124
-0.20856337 -0.47284126 -0.3632857 0.10065782 0.31127644 0.5779391 0.12681103 0.5876964
-0.58872366 -0.12786123 0.8775094 0.48676267 -0.09157327 0.4776607 0.7134519 -0.585441
0.091780685 -0.49357557 -0.40430024 0.22412653 0.41137746 -0.37280482 0.28511822 0.7226722
-0.11179492 -0.31183 0.50804526 -0.5513083 -0.5638343 -0.42210183 0.29921 0.19394086
0.28984836 0.18213142 -0.1009019 0.06224175 -0.09742322 -0.20407067 0.11438912 0.406756
0.09142715 0.50527763 0.34535694 -0.6407869 0.83806884 -0.15359044 -0.31215873 0.09997744
0.25397336 0.3570694 0.046954572 -0.53679925 0.42425427 0.6398503 -0.72850287 0.54544556
0.72309476 0.2835462 -0.1688242 0.08829411 0.23529597 -0.43716964 0.3278685 0.18295996
0.49429783 0.08252107 -0.09093057 -0.16211694 -0.74031085 -0.426962 -0.17713165 0.19614054
0.35730553 -0.55592537 -0.30054617 0.23078455 0.5275659 0.5761154 -0.7778848 -0.10656456
-0.066389196 -0.75078356 0.036134735 0.63243073 0.3331444 0.31552503 0.92993337 0.35949335
-0.45653394 -0.4957652 -0.34623104 -0.5257684 -0.012342833 -0.45904002 0.16932905 0.6107891
0.1624701 0.67484176 -0.10600011 -0.21762957 -0.10002882 0.12632546 0.6626786 -0.7330566
-0.31990713 -0.06478104 -0.16752206 0.5847544 -0.54379267 -0.2615685 0.38594434 0.61025244
-0.20364138 -0.0790697 0.44824323 0.41316253 0.13194804 0.53653395 0.053797856 0.4425378
0.24339584 -0.03643592 -0.016022032 -0.5613245 -0.97665936 0.3940592 -0.4591885 -0.17928702
-0.19925186 -0.23159228 0.31823128 -0.32800782 -0.1560869 0.77852094 -0.70142794 -0.25393918
0.21607414 0.2951741 0.02593993 0.31947434 0.05550809 0.491583 0.4904142 0.3781246
0.4672843 0.3096268 0.020841653 0.9031344 -0.51322734 0.5767171 -0.5554698 0.8937318
0.43520334 -0.009801736 0.19256473 0.75155103 -0.09345467 0.59890866 -0.31013218 0.44517955
-0.738379 0.1560173 0.6959654 -0.18121064 -0.57632357 -0.3675814 0.65880316 0.003574654
-0.07311692 -0.4231845 -0.22078809 -0.48657405 -0.021196706 0.4455456 -0.46237612 -0.010532379
-0.56834817 0.3486472 0.3027186 -0.2994146 0.31350598 0.40229726 0.24044284 0.4306501
-0.48292002 -0.17030746 -0.63234484 -0.077765666 0.016516417 0.4819946 -0.14437918 0.30467224
00000000: 9d8b 2abf d5ca 503e 438c cd3e eaa3 dfbe
00000010: 7a9a 9dbf 66a0 1ebf 5f40 363f 7b17 0a3f
00000020: 9dbe d63e 8aee 59be b1fb d23e 490e b93b
00000030: 0117 44bc 0750 abbe 038d a2be ba54 fa3e
00000040: 43a2 113f 1ffc 673e 2675 043f 8d8e d13c
00000050: d6a1 eabd d2e2 fbbd 35db d9be 6ac5 e33e
00000060: b612 6cbf ec6e f63d c231 843f bc00 0fbf
00000070: 87d5 6fbf e93c d53d 203e eb3e f62f c23e
00000080: 0459 b83e d8ae debe 6abc 30bf 4d07 bebd
00000090: c8d0 9b3c 9b06 b83b fdbd 53bf 61a9 2f3f
000000a0: b566 093f 5b0d 8c3e 61b4 0a3e dabe afbe
000000b0: 3222 d1bc 1459 c73d 7fa7 e8be fb94 6f3f
000000c0: a3e5 3e3e baee 033f 4292 943e 202e 42bf
000000d0: efe7 ebbe 3341 ce3b 3020 df3d 946e dcbd
000000e0: a117 ca3e 4635 f13e 0a5f d3be c58a 86bc
000000f0: 6be8 ff3d 95f4 0f3f 08f4 7bbe 9621 c83e
00000100: a391 55be 4018 f2be 9500 babe b025 ce3d
00000110: a05f 9f3e d1f3 133f c0da 013e 4573 163f
00000120: 98b6 16bf 0eee 02be 75a4 603f f538 f93e
00000130: c48a bbbd f18f f43e c9a4 363f 76df 15bf
00000140: 83f7 bb3d f0b5 fcbe 7100 cfbe 6d81 653e
00000150: 11a0 d23e 46e0 bebe 04fb 913e 0c01 393f
00000160: bcf4 e4bd 2fa8 9fbe 410f 023f 8a22 0dbf
00000170: 7257 10bf bb1d d8be 0e32 993e 6f98 463e
00000180: 0167 943e a980 3a3e a8a5 cebd 35f1 7e3d
00000190: d385 c7bd e7f7 50be d844 ea3d 5342 d03e
000001a0: 283e bb3d e059 013f a0d2 b03e 9c0a 24bf
000001b0: ae8b 563f d046 1dbe 45d3 9fbe f9c0 cc3d
000001c0: cc08 823e cdd1 b63e 7053 403d ad6b 09bf
000001d0: db37 d93e 3bcd 233f 2a7f 3abf 52a2 0b3f
000001e0: bd1c 393f f82c 913e 40e0 2cbe 8bd3 b43d
000001f0: 6df1 703e b3d4 dfbe 61de a73e db59 3b3e
00000200: 9b14 fd3e cf00 a93d cf39 babd fc01 26be
00000210: 0385 3dbf c39a dabe 0062 35be 11d9 483e
00000220: c0f0 b63e 2051 0ebf 30e1 99be c952 6c3e
00000230: 8f0e 073f 4d7c 133f 7523 47bf 853e dabd
00000240: 0ff7 87bd 5a33 40bf 0402 143d fbe6 213f
00000250: e791 aa3e 7f8c a13e 1d10 6e3f 830f b83e
00000260: d1be e9be f0d4 fdbe 3245 b1be c298 06bf
00000270: 9839 4abc 4b07 ebbe 9864 2d3e ad5c 1c3f
00000280: 905e 263e 6ec2 2c3f 9616 d9bd 49da 5ebe
00000290: e9db ccbd 765b 013e 4ea5 293f 99a9 3bbf
000002a0: deca a3be ecab 84bd e78a 2bbe 77b2 153f
000002b0: ff35 0bbf 4eec 85be 7f9a c53e 8139 1c3f
000002c0: 5e87 50be 4bef a1bd 2380 e53e 0a8a d33e
000002d0: 631d 073e 4a5a 093f 245b 5c3d 5194 e23e
000002e0: c23c 793e d53d 15bd a340 83bc f6b2 0fbf
000002f0: 5906 7abf 21c2 c93e c11a ebbe 0497 37be
00000300: ae08 4cbe 8726 6dbe 36ef a23e a4f0 a7be
00000310: 3fd5 1fbe 264d 473f c890 33bf 5104 82be
00000320: 8a42 5d3e 0f21 973e fa7f d43c 2492 a33e
00000330: 735c 633d c4b0 fb3e 9217 fb3e 8c99 c13e
00000340: e33f ef3e 6787 9e3e 1dbc aa3c d133 673f
00000350: de62 03bf bba3 133f 4533 0ebf 9bcb 643f
00000360: f9d2 de3e 7697 20bc b02f 453e a665 403f
00000370: 2965 bfbd 1452 193f a5c9 9ebe 93ee e33e
00000380: 6806 3dbf 00c3 1f3e ca2a 323f 488f 39be
00000390: f189 13bf a133 bcbe 53a7 283f be44 6a3b
000003a0: 53be 95bd a4ab d8be 4616 62be 3c20 f9be
000003b0: b7a4 adbc 8e1e e43e 90bc ecbe 0090 2cbc
000003c0: 447f 11bf e381 b23e effd 9a3e df4c 99be
000003d0: db83 a03e e8f9 cd3e a636 763e 2b7e dc3e
000003e0: 4b41 f7be 1465 2ebe 5ae1 21bf 9b43 9fbd
000003f0: 704d 873c ffc7 f63e 23d8 13be 00fe 9b3e

feature.2.weight f4 [256, 256]
-0.04849077 0.102642775 -0.08553833 -0.102845035 -0.30848843 -0.046423014 -0.012378508 0.22307563
0.29524636 0.18431155 0.07018712 0.03181058 -0.02688484 -0.05805661 -0.41447487 0.23350756
0.06426169 0.09002061 0.093972914 -0.017619858 -0.117627464 -0.023361638 -0.11818206 -0.14408995
-0.12092827 0.2295997 0.26781598 -0.14351104 -0.3235524 0.03147463 -0.0054177325 0.45086995
0.21144623 0.2507598 -0.09833728 0.100086614 -0.13832295 0.3108385 -0.07994383 0.24020441
0.27994806 -0.1485054 0.17056037 0.073912315 0.053180195 0.34580278 0.02595186 0.042346638
0.019664424 0.49289462 0.14500348 -0.20122904 -0.05551642 0.27950156 -0.21252407 0.06090886
-0.07841179 0.2865867 -0.14857666 -0.10256002 0.024151903 0.116108045 -0.024056092 0.2939712
-0.015927618 -0.22928487 -0.19898225 0.07882008 0.636542 0.26322317 0.06113507 0.24672112
-0.27645555 -0.0367432 0.5826124 0.34225464 0.0142339105 -0.012786691 -0.002696425 -0.27385387
-0.39643285 0.024174666 -0.07520091 0.019532409 0.035368465 -0.0031582708 0.14481957 -0.007012037
-0.02845393 -0.2143845 0.2347738 -0.33927637 -0.5178685 -0.14303108 0.4212931 0.22710912
0.10483538 -0.06085225 -0.09539057 0.104331546 0.22443184 -0.20508367 0.43188122 -0.25138238
-0.08804647 0.12766124 0.29114053 -0.017144842 0.36457273 -0.06525934 0.33035085 -0.08124637
-0.010886831 0.083779395 0.12486905 -0.45207477 0.036418337 0.15610601 -0.56950295 0.051076394
0.5657323 0.357467 0.035905126 -0.06966652 -0.01585377 0.2960608 0.05490459 -0.06983985
0.2777322 -0.12540638 0.005191 0.29683036 -0.45710808 -0.34172773 -0.022090064 -0.18602635
0.41477746 0.066589035 -0.12707077 0.11183253 0.19756088 0.354424 -0.38862142 -0.007032623
0.24399875 -0.28222397 -0.20476899 0.16389869 -0.03402458 -0.039123654 0.48067164 0.27812958
-0.11050364 -0.37349907 -0.09516011 -0.26859453 0.13643438 0.26052788 -0.10250114 0.16706263
-0.046722714 0.3270444 0.27338713 0.14117053 0.016721021 -0.22238049 0.5374478 -0.040367283
-0.19650678 0.08073083 0.16689861 -0.112860665 -0.08380741 0.0016559685 0.018471928 0.1014409
-0.1413996 0.027609497 0.20259772 0.08964564 0.07197078 0.21020053 0.3564187 0.45829928
0.34297797 -0.08858342 -0.23643292 -0.062951155 -0.24709196 0.03315102 0.011058576 -0.044871032
-0.17791307 -0.117559 0.36908856 -0.14159288 0.11704019 0.10246661 -0.14693996 -0.046683192
0.12650971 -0.08991308 0.07476642 0.20145045 -0.019838864 0.40381622 0.51601505 0.19882585
0.10839661 0.077668235 0.040519353 0.13151036 -0.20461132 0.08242844 -0.25223956 0.35718626
0.11317937 -0.138269 -0.15317883 0.21100512 -0.036766388 -0.07145885 0.13056749 0.35512397
-0.5455745 0.35444248 0.40320855 -0.20671447 -0.18982922 0.23421785 -0.07775245 0.22499757
-0.18002015 -0.01926276 -0.14183314 -0.3705882 0.027375238 0.23121648 0.12005647 -0.25589827
0.07905446 0.07247998 0.08317539 0.0068845307 0.07688515 0.098437816 -0.06581931 0.26550466
-0.19526763 -0.23726307 -0.23342761 -0.22077008 -0.016813906 -0.026363729 -0.40128833 0.26142928
00000000: 429e 46bd 6036 d23d b82e afbd 6ba0 d2bd
00000010: 32f2 9dbe 0f26 3ebd 3acf 4abc f06d 643e
00000020: 882a 973e 2bbc 3c3e 44be 8f3d d04b 023d
00000030: 993d dcbc c5cc 6dbd 0d36 d4be 9b1c 6f3e
00000040: a29b 833d ba5c b83d df74 c03d 8557 90bc
00000050: abe6 f0bd e860 bfbc 7009 f2bd 518c 13be
00000060: 3ea9 f7bd 2f1c 6b3e 2d1f 893e 8ff4 12be
00000070: a9a8 a5be 8beb 003d 3c87 b1bb 6dd8 e63e
00000080: 5c85 583e 9763 803e 0e65 c9bd 36fa cc3d
00000090: 88a4 0dbe 3926 9f3e 97b9 a3bd 25f8 753e
000000a0: 5a55 8f3e cd11 18be 61a7 2e3e 575f 973d
000000b0: 7ad3 593d 100d b13e ff98 d43c ab73 2d3d
000000c0: 4917 a13c af5c fc3e cb7b 143e fc0e 4ebe
000000d0: 3065 63bd d41a 8f3e e99f 59be 927b 793d
000000e0: 5c96 a0bd 7ebb 923e 7b24 18be fd0a d2bd
000000f0: 36da c53c 0eca ed3d 4811 c5bc 6583 963e
00000100: a37a 82bc a7c9 6abe 01c2 4bbe 6c6c a13d
00000110: 6bf4 223f 30c5 863e c468 7a3d 76a4 7c3e
00000120: 958b 8dbe 0a80 16bd 1626 153f 003c af3e
00000130: 5935 693c 457f 51bc 81b6 30bb 9336 8cbe
00000140: 3ff9 cabe f309 c63c ef02 9abd 6e02 a03c
00000150: 86de 103d fefa 4ebb 954b 143e 3bc5 e5bb
00000160: 3718 e9bc 9c87 5bbe 8b68 703e a2b5 adbe
00000170: 0893 04bf bd76 12be bbb3 d73e 4b8f 683e
00000180: efb3 d63d 3540 79bd 225c c3bd c7ab d53d
00000190: 76d1 653e 7401 52be 891f dd3e 31b5 80be
000001a0: b551 b4bd a1b9 023e 5f10 953e 5773 8cbc
000001b0: 47a9 ba3e b0a6 85bd bf23 a93e 7f64 a6bd
000001c0: ae5e 32bc 8894 ab3d 58bb ff3d 5876 e7be
000001d0: 652b 153d 41da 1f3e f2ca 11bf 7b35 513d
000001e0: d5d3 103f ea05 b73e 4111 133d 52ad 8ebd
000001f0: c4df 81bc 4895 973e a3e3 603d 3208 8fbd
00000200: ea32 8e3e 886a 00be 4419 aa3b 26fa 973e
00000210: 120a eabe f0f6 aebe 39f6 b4bc b17d 3ebe
00000220: b65d d43e d55f 883d d71e 02be 7408 e53d
00000230: 664d 4a3e 1077 b53e 63f9 c6be eb71 e6bb
00000240: cfda 793e a97f 90be f6ae 51be 0fd5 273e
00000250: 5c5d 0bbd 2040 20bd 981a f63e 0067 8e3e
00000260: bb4f e2bd 453b bfbe 4ee3 c2bd 3985 89be
00000270: 74b5 0b3e e963 853e 1eec d1bd 7712 2b3e
00000280: 5160 3fbd 5d72 a73e 66f9 8b3e 028f 103e
00000290: 86fa 883c b6b7 63be 2e96 093f 2a58 25bd
000002a0: 1339 49be 3556 a53d 78e7 2a3e 7e23 e7bd
000002b0: 38a3 abbd 150d d93a 7152 973c 3fc0 cf3d
000002c0: 0fcb 10be 502d e23c c775 4f3e 2298 b73d
000002d0: 6b65 933d cf3e 573e 837c b63e 34a6 ea3e
000002e0: cf9a af3e 396b b5bd 791b 72be 89ec 80bd
000002f0: ad05 7dbe 5dc9 073d 082f 353c b0ca 37bd
00000300: d82e 36be c6c2 f0bd 2df9 bc3e b9fd 10be
00000310: c4b2 ef3d 04da d13d 6e77 16be e036 3fbd
00000320: c38b 013e 5924 b8bd 231f 993d 0749 4e3e
00000330: 1d85 a2bc 00c1 ce3e 9019 043f 0199 4b3e
00000340: 0bff dd3d 8610 9f3d 9ff7 253d a7aa 063e
00000350: a185 51be 3ed0 a83d 8b25 81be 1ee1 b63e
00000360: 96ca e73d 6496 0dbe e9da 1cbe ba11 583e
00000370: 5a98 16bd 0459 92bd 7cb3 053e cfd2 b53e
00000380: c5aa 0bbf 7c79 b53e 5a71 ce3e f5ac 53be
00000390: 9762 42be ced6 6f3e ad3c 9fbd c365 663e
000003a0: 3457 38be f0cc 9dbc b53c 11be bdbd bdbe
000003b0: 0942 e03c 03c4 6c3e 2be0 f53d 1905 83be
000003c0: 4ee7 a13d 6270 943d dc57 aa3d a197 e13b
000003d0: f675 9d3d c499 c93d 46cc 86bd 3af0 873e
000003e0: 3df4 47be 17f5 72be a607 6fbe 8d11 62be
000003f0: 51bd 89bc bff8 d7bc aa75 cdbe 0fda 853e

feature.2.bias f4 [256]
-0.019883817 -0.11664371 -0.015636548 0.07606377 -0.27608982 -0.02665016 0.0678279 0.03707749
-0.08617473 -0.3107157 0.066483654 0.01264888 0.09243571 0.60156906 0.74634117 -0.3116641
-0.29716113 -0.11020577 -0.035849836 0.12969325 -0.031037925 -0.1859046 -0.8031411 0.33846703
-0.33230403 0.06528941 -0.21408755 -0.25303423 0.010230544 -0.21999483 1.0369391 -0.049213994
0.028254256 -0.07168266 0.10105465 -0.045928083 0.54386544 0.18285175 -0.2762661 -0.3297735
-0.12949269 -0.21798031 -0.13802221 -0.32045317 -0.4062548 -0.12367829 0.06170719 -0.1921296
-0.18471777 -0.1804113 -0.0033301243 0.14586328 -0.13496928 0.041851163 -0.13238947 0.11293549
0.025023365 -0.14936486 -0.2624058 0.037036162 -0.05629633 -0.13367821 -0.2857696 0.16893275
-0.17364107 0.23971084 0.12651849 0.9348956 0.580393 -0.5845922 -0.5044635 -0.04839643
0.04319086 -0.27450928 0.2698113 0.045710213 -0.56009305 -0.21603753 0.12862246 0.0161603
0.6448206 0.07256765 -0.059253663 -0.65835494 0.120341584 0.11766376 -0.26658496 0.09976078
1.0057979 0.2988949 -0.30534473 0.025707455 -0.26734456 -0.18718798 -0.24800669 0.5370038
0.44572288 -0.40322974 0.5697173 0.19379894 -0.046795085 -0.057909135 0.007821217 -0.2599811
-0.32482305 -0.25717923 0.24667871 0.0669373 -0.5495727 0.0111929905 0.048956122 -0.21359129
-0.23364113 -0.16947344 -0.11000468 0.018202448 0.03411977 -0.6081492 0.068183675 -0.21714583
0.09717823 0.17052294 0.17654495 -0.405155 0.104165666 -0.19071212 -0.3634431 -0.060646195
-0.1806984 0.09550362 -0.105502754 -0.11759007 -0.05226979 0.06290078 0.03969429 0.26158705
0.09538253 0.38033357 0.32308537 -0.36312863 1.0218923 -0.011708965 -0.2893275 -0.20148459
0.25439388 -0.049147464 -0.073687196 -0.0920271 -0.54235804 0.14814605 -0.079114184 -0.16870032
-0.09248648 -0.31663716 0.21083206 -0.26827848 0.2092561 0.9579714 0.11872225 -0.188337
0.06872783 -0.09437026 -0.55280787 -0.35502002 -0.074023046 -0.40234804 0.12785332 -0.67225325
0.11139115 0.0504087 -0.10655278 0.41881087 0.72197473 -0.45494643 -0.17120513 0.05429456
0.050411023 0.05926353 0.05976018 0.12973529 -0.22584674 0.124928705 -0.5251006 0.20462768
-0.5328998 0.6178874 0.116518915 -0.6194723 -0.27429366 0.089018516 0.080955416 0.03709255
0.081326745 -0.44449225 -0.30223888 0.26474684 -0.38514215 -0.74407154 0.733552 -0.4996135
0.19314562 -0.26394442 -0.014856148 0.65444285 0.07515528 0.14602315 -0.16431805 0.7383449
-0.018597163 -0.3165612 0.53236496 -0.0076369843 0.24256963 0.06867547 -0.3317767 -0.1875437
0.0409978 -0.06680936 -0.26620767 0.056669313 0.21217264 0.17275289 -0.016659642 -0.1924531
0.59038204 0.139631 -0.4561122 0.101126924 0.16162218 0.122200064 0.06311221 -0.351182
-0.16139917 0.01127254 0.31875035 0.5835804 -0.3914105 0.42047974 -0.040311992 -0.08377807
0.3019672 -0.06679137 -0.43919328 0.64909095 -0.105024815 -0.42500618 -0.34135348 -0.13882415
0.103412636 -0.014528475 0.02959814 0.09733114 -0.08315878 -0.05023583 -0.1862439 -0.007863746
00000000: 63e3 a2bc e6e2 eebd 3818 80bc 52c7 9b3d
00000010: a55b 8dbe 7051 dabc 5be9 8a3d 91de 173d
00000020: 607c b0bd 2116 9fbe 9528 883d 3f3d 4f3c
00000030: ef4e bd3d 6e00 1a3f 3710 3f3f 7092 9fbe
00000040: 8125 98be 90b3 e1bd 47d7 12bd 4fce 043e
00000050: 3f43 febc c75d 3ebe a89a 4dbf 8d4b ad3e
00000060: c123 aabe 74b6 853d c439 5bbe b48d 81be
00000070: 039e 273c 5346 61be 6cba 843f 9d94 49bd
00000080: 7875 e73c 5cce 92bd bef5 ce3d 161f 3cbd
00000090: c43a 0b3f 7d3d 3b3e c072 8dbe 12d8 a8be
000000a0: bb99 04be 3b36 5fbe b255 0dbe 7012 a4be
000000b0: a100 d0be 0b4b fdbd aec0 7c3d 9fbd 44be
000000c0: a826 3dbe bdbd 38be 373e 5abb 2f5d 153e
000000d0: 6335 0abe 206c 2b3d 1b91 07be b94a e73d
000000e0: cdfd cc3c 1af3 18be 0e5a 86be 3bb3 173d
000000f0: fb96 66bd f1e2 08be 6550 92be b5fc 2c3e
00000100: f7ce 31be c276 753e 108e 013e 5155 6f3f
00000110: a394 143f d6a7 15bf 8524 01bf 563b 46bd
00000120: e6e8 303d 7b8c 8cbe b524 8a3e a23a 3b3d
00000130: 4262 0fbf f138 5dbe 9bb5 033e 9b62 843c
00000140: f612 253f 599e 943d f8b3 72bd f389 28bf
00000150: a675 f63d b3f9 f03d d37d 88be 614f cc3d
00000160: fcbd 803f c108 993e 2556 9cbe 7198 d23c
00000170: 63e1 88be 35ae 3fbe 77f5 7dbe 1579 093f
00000180: ca35 e43e 2174 cebe fed8 113f 3b73 463e
00000190: 34ac 3fbd 2132 6dbd 9024 003c 3e1c 85be
000001a0: 354f a6be ffac 83be 5899 7c3e 6c16 893d
000001b0: ccb0 0cbf ce62 373c 3786 483d adb7 5abe
000001c0: 9f3f 6fbe 728a 2dbe 224a e1bd 4d1d 953c
000001d0: 2cc1 0b3d aaaf 1bbf e2a3 8b3d 7a5b 5ebe
000001e0: 6105 c73d 919d 2e3e 33c8 343e 7a70 cfbe
000001f0: cf54 d53d 0a4a 43be 3715 babe 2568 78bd
00000200: 0009 39be 6797 c33d d411 d8bd 10d3 f0bd
00000210: d918 56bd 20d2 803d 7b96 223d bdee 853e
00000220: ea57 c33d 15bb c23e 726b a53e ffeb b9be
00000230: 5ecd 823f f5d6 3fbc bc22 94be fa51 4ebe
00000240: ea3f 823e da4e 49bd 50e9 96bd b478 bcbd
00000250: fad7 0abf 99b3 173e 9e06 a2bd c7bf 2cbe
00000260: 8d69 bdbd 441e a2be 5ce4 573e cc5b 89be
00000270: 3b47 563e 9d3d 753f a724 f33d 6adb 40be
00000280: 2dc1 8c3d 3245 c1bd d184 0dbf 2fc5 b5be
00000290: 6599 97bd 9000 cebe fbeb 023e ca18 2cbf
000002a0: 0b21 e43d 5a79 4e3d 5838 dabd 616e d63e
000002b0: 56d3 383f bdee e8be 6650 2fbe f963 5e3d
000002c0: ca7b 4e3d 51be 723d 17c7 743d 54d9 043e
000002d0: 5e44 67be 9fda ff3d fe6c 06bf eb89 513e
000002e0: 1f6c 08bf de2d 1e3f 78a1 ee3d bd95 1ebf
000002f0: 3870 8cbe 574f b63d f4cb a53d 5cee 173d
00000300: a38e a63d 7d94 e3be 0ebf 9abe e68c 873e
00000310: 5a31 c5be 797b 3ebf 10ca 3b3f 57cd ffbe
00000320: f7c7 453e b923 87be 3367 73bc 9189 273f
00000330: 03eb 993d 1887 153e fe42 28be 2c04 3d3f
00000340: 1459 98bc 4f14 a2be 1249 083f ab3f fabb
00000350: 2c64 783e baa5 8c3d a3de a9be 750b 40be
00000360: 4fed 273d 59d3 88bd 5f4c 88be 151e 683d
00000370: c943 593e 22e6 303e cd79 88bc 6d12 45be
00000380: 4723 173f 6efb 0e3e 8a87 e9be a21b cf3d
00000390: 4980 253e 0744 fa3d f940 813d 21ce b3be
000003a0: d345 25be 76b0 383c 3f33 a33e 8665 153f
000003b0: f566 c8be 1f49 d73e 301e 25bd d693 abbd
000003c0: 729b 9a3e eac9 88bd f1dd e0be d32a 263f
000003d0: 4017 d7bd 699a d9be e2c5 aebe eb27 0ebe
000003e0: 01ca d33d d708 6ebc cc77 f23c 8c55 c73d
000003f0: 274f aabd 16c4 4dbd b9b6 3ebe f1d6 00bc

value_stream.0.weight f4 [256, 256]
-0.46462065 -0.33287132 -0.19246975 -0.6849102 -0.060893502 0.0044350494 -0.9531717 -0.39800635
-0.47274712 0.050129127 0.018196536 -0.17743537 -0.10901687 0.26656052 0.17243613 0.043245293
0.045014244 -0.7040714 -0.61601174 -0.33261675 -0.75769144 -0.27580407 -0.01588346 -0.26204342
-0.091730654 -0.15608442 -0.36015406 -0.4882183 -0.40626067 -0.08976277 0.102220476 -0.12208062
-0.45605376 -0.24576503 -0.2780105 -0.19494243 0.19585858 -0.38353673 -0.15808217 -0.83987343
-0.19224004 -0.046848875 -0.5109888 -0.36521417 -0.19493616 -0.32900414 -0.065666094 -0.22778916
0.17931198 -0.31631643 -0.08828494 -0.34383166 -0.25724372 -0.14400801 -0.39465186 0.2834044
-0.17498608 0.017788704 -0.12936021 -0.23686238 -0.8600627 -0.09940921 -0.13858072 0.4799338
0.121448286 0.063971296 -0.31213194 0.08533899 -0.4426033 -0.22366394 -0.4880259 -0.3719988
-0.39269403 -0.064156204 0.06948789 -0.11354989 -0.044676732 -0.37291664 -0.56078863 -0.18576886
-0.010760831 0.02524938 -0.48745415 0.036407087 -0.08643046 0.18745713 0.06828393 -0.40349725
0.050306752 0.03608539 0.014547223 -0.42423257 -0.19644986 0.016762039 0.152785 0.015104465
-0.08123779 0.049542785 -0.014496703 -0.9444725 -0.0662972 -0.33282143 0.08071608 -0.8371215
-0.36333916 0.05280353 -0.22421598 -0.47193804 -0.10699082 0.2557387 -0.35413507 -0.08768934
-0.39655584 0.15351142 -0.053898256 -0.29829288 -0.3633155 -0.019291813 -0.1616969 -0.03690513
-1.0041525 -0.007882945 -0.67247945 -1.18579 0.008133136 -0.19845107 -0.079970695 -0.656263
-0.30026868 0.24306564 -0.22943616 -0.27025545 -0.38231274 -0.6998764 -0.4185687 -0.4863375
0.24758907 -0.3073717 0.21071233 0.042711068 -0.026782475 -0.1518388 -0.27586314 -0.043041427
-0.48204726 0.01925976 -0.46261314 0.037950598 -0.16319211 -0.56585795 -0.31661537 -0.48412046
-0.12074962 0.02129259 0.3486564 -0.13261123 -0.46692103 0.05677863 -0.08422951 -0.09748341
-0.32313502 -0.37922648 0.21425495 0.024137227 -0.433051 0.066417575 -0.038159296 -0.01860071
-0.031151822 -0.09365047 -0.18367924 -0.61758435 0.042844843 -0.17606276 -0.3313572 -0.14065872
-0.2334405 -0.11722168 -0.2556396 -0.15651841 -0.09581491 0.25526664 -0.09576628 -0.47954252
-0.31682175 0.044728763 -0.92558175 -0.038210236 -0.13401815 -0.19222192 0.18977512 -0.60459423
-0.07765316 -0.4295608 -0.08828798 -0.21997672 -0.35697573 -0.2033115 -0.12231447 0.01758917
-0.45356685 0.2706038 -0.55993456 -0.16425341 -0.13140582 -0.5707331 -0.05560111 0.064584926
0.10438938 -0.80581355 0.3508983 -0.5083447 -0.96285653 0.16234629 -0.027643234 -0.1933884
0.091676444 -0.1506647 -0.18132234 -0.7609425 -0.4889555 -1.4472879 -0.374705 0.049411852
-0.18136507 -0.42080873 -0.049694806 -0.33274826 -0.3081609 -0.568312 0.02670171 -0.81098723
-0.16160142 -0.24952051 -0.6056377 -0.25210804 -0.04087346 -0.01339139 -0.1916325 -0.21935065
-0.047105856 -0.14478879 0.088677466 0.23417433 -0.5194556 -0.6643162 -0.12447928 0.08366278
-0.47638392 -0.002577097 -0.31211218 0.26415426 -0.19708431 -0.5119253 -0.4924302 -0.7455444
00000000: c2e2 edbe 1c6e aabe ca16 45be 4656 2fbf
00000010: 776b 79bd e453 913b 0f03 74bf 7dc7 cbbe
00000020: e90b f2be 3354 4d3d e710 953c 9eb1 35be
00000030: 3d44 dfbd 9f7a 883e 1993 303e fa21 313d
00000040: db60 383d 063e 34bf f2b2 1dbf be4c aabe
00000050: 11f8 41bf 3136 8dbe 081e 82bc 8e2a 86be
00000060: 48dd bbbd 98d4 1fbe 1d66 b8be c0f7 f9be
00000070: 6601 d0be 8bd5 b7bd f858 d13d 6705 fabd
00000080: e17f e9be d4a9 7bbe 6457 8ebe fd9e 47be
00000090: 278f 483e ed5e c4be 4be0 21be f201 57bf
000000a0: 93da 44be 9be4 3fbd 29d0 02bf 5afd babe
000000b0: 589d 47be 3b73 a8be f27b 86bd 9041 69be
000000c0: 8f9d 373e 3af4 a1be bcce b4bd b40a b0be
000000d0: 73b5 83be d676 13be cf0f cabe 621a 913e
000000e0: 8d2f 33be 9eb9 913c 0177 04be 0d8c 72be
000000f0: 122d 5cbf 0e97 cbbd 1be8 0dbe e2b9 f53e
00000100: e1b9 f83d 6203 833d c2cf 9fbe 35c6 ae3d
00000110: e69c e2be 2908 65be 88de f9be a076 bebe
00000120: 310f c9be 5464 83bd ab4f 8e3d d88c e8bd
00000130: f3fe 36bd eeee bebe d88f 0fbf 313a 3ebe
00000140: 324e 30bc cad7 ce3c 9793 f9be 991f 153d
00000150: 7402 b1bd c3f4 3f3e 72d8 8b3d 3197 cebe
00000160: 740e 4e3d 46ce 133d 7a57 6e3c 0335 d9be
00000170: 272a 49be 8b50 893c ac73 1c3e b878 773c
00000180: 0060 a6bd 60ed 4a3d 9483 6dbc f3c8 71bf
00000190: d4c6 87bd 9267 aabe 794e a53d 984d 56bf
000001a0: 9707 babe 8448 583d e098 65be dda1 f1be
000001b0: 011e dbbd 2ff0 823e 3151 b5be 7896 b3bd
000001c0: 5e09 cbbe 1932 1d3e 6bc4 5cbd d8b9 98be
000001d0: 7d04 babe dd09 9ebc df93 25be d529 17bd
000001e0: 1288 80bf 7827 01bc 9d27 2cbf f7c7 97bf
000001f0: d840 053c c236 4bbe adc7 a3bd da00 28bf
00000200: d1bc 99be 33e6 783e 50f1 6abe ec5e 8abe
00000210: 7fbe c3be 1a2b 33bf a34e d6be 3b01 f9be
00000220: fd87 7d3e d35f 9dbe f9c4 573e cdf1 2e3d
00000230: ec66 dbbc a17b 1bbe ef3d 8dbe 354c 30bd
00000240: e6ce f6be a5c6 9d3c a1db ecbe 1672 1b3d
00000250: d51b 27be 11dc 10bf 691b a2be a3de f7be
00000260: 944b f7bd cc6d ae3c 1783 b23e 3dcb 07be
00000270: 4610 efbe b590 683d 8580 acbd 62a5 c7bd
00000280: f471 a5be f929 c2be a665 5b3e 6fbb c53c
00000290: dcb8 ddbe f005 883d ec4c 1cbd 8460 98bc
000002a0: 1b32 ffbc d1cb bfbd 6916 3cbe 021a 1ebf
000002b0: 137e 2f3d cc49 34be a7a7 a9be d708 10be
000002c0: 070b 6fbe ec11 f0bd 32e3 82be 5d46 20be
000002d0: 9c3a c4bd 4fb2 823e 1d21 c4bd 9986 f5be
000002e0: 7636 a2be 8235 373d edf2 6cbf 5682 1cbd
000002f0: 0e3c 09be d3d5 44be 6954 423e b0c6 1abf
00000300: 9f08 9fbd 65ef dbbe 54d0 b4bd 9441 61be
00000310: 86c5 b6be e430 50be 0280 fabd 2a17 903c
00000320: ea39 e8be 958c 8a3e df57 0fbf 0c32 28be
00000330: 3f8f 06be 901b 12bf fdbd 63bd 1a45 843d
00000340: 19ca d53d cc49 4ebf f1a8 b33e e122 02bf
00000350: c47d 76bf 1b3e 263e 1074 e2bc 9c07 46be
00000360: dcc0 bb3d d947 1abe 90ac 39be 21cd 42bf
00000370: 6058 fabe bb40 b9bf 55d9 bfbe 1564 4a3d
00000380: c4b7 39be 3e74 d7be c88c 4bbd fb5d aabe
00000390: 44c7 9dbe e57c 11bf 8bbd da3c dc9c 4fbf
000003a0: d87a 25be 4e82 7fbe 130b 1bbf 4e14 81be
000003b0: ee6a 27bd 9067 5bbc 4f3b 44be 759d 60be
000003c0: 12f2 40bd 8343 14be 889c b53d 65cb 6f3e
000003d0: 0bfb 04bf a010 2abf feee febd 6457 ab3d
000003e0: 98e8 f3be 83e4 28bb 2bcd 9fbe 3a3f 873e
000003f0: 78d0 49be 890d 03bf d01f fcbe ffdb 3ebf

value_stream.0.bias f4 [256]
0.5573797 0.4584867 -0.17136817 0.47792667 0.27813324 0.4256266 0.23385295 0.13450637
0.21391016 -0.09347249 0.098486684 0.7212896 0.18658502 0.21613312 0.4005673 -0.09272409
0.4498773 0.5845497 -0.55867594 0.024325827 -0.24107756 0.2085909 -0.10719067 0.08491072
-0.2876265 0.047081005 -0.017492998 0.5340571 -0.18316312 0.54731905 0.0052331686 0.43216747
0.031062791 -0.021596596 -0.07904623 -0.12027794 0.37898684 -0.044996828 0.4245427 0.5816366
-0.0069816806 -0.065921105 0.12406923 0.16008566 0.23297057 0.15297101 0.47726706 0.3386429
0.18413417 0.046947554 0.6026264 0.15640557 0.0923314 0.23930551 0.16567244 0.3286715
-0.102810085 0.9252666 -0.08525451 0.029869193 0.31204778 0.48960882 -0.044563428 0.27548146
0.28760758 -0.030007178 0.46420553 0.76421314 -0.18505973 0.2504394 0.25340408 0.11881415
0.40673923 0.05586355 -0.06403784 0.37201956 0.90020376 0.32483533 0.2862955 0.7615716
0.11155759 0.54111195 0.059836127 0.054867208 0.027295856 0.06906173 -0.25249177 0.60242164
0.16922605 -0.37348318 0.44463217 0.20614597 0.021547152 0.0007905073 -0.013088415 -0.062573075
0.35698903 -0.20880269 0.51104784 0.55248195 -0.16331694 -0.035940453 0.21170574 0.49904922
0.024498364 0.4913033 0.3208235 0.4029245 0.40067053 0.27074912 0.5183472 0.4009855
0.117728956 0.86393625 0.19523391 0.084582105 0.010841007 0.4769764 0.35374296 -0.11652352
0.6346141 0.70910513 -0.31481546 -0.08537528 0.3522484 0.4066015 -0.095969684 0.28430563
-0.0060551637 0.0046355007 0.10174174 0.25217304 0.14059225 0.15447968 0.3110406 0.30965912
0.13169672 0.112700425 0.32085916 0.3684841 0.06387539 0.15579925 0.2011539 -0.18689884
0.056634117 0.7327044 -0.44230115 0.43875715 -0.21908028 0.43595675 0.6144349 0.4176525
0.42735988 0.25314638 0.11438317 0.24650428 -0.0157604 0.039590012 0.10280236 -0.08710174
0.17158592 0.52258503 0.106639974 0.4435158 0.5189176 0.67692506 0.7586893 0.5021884
0.575856 0.46033528 0.4131757 0.1792552 0.32650635 0.47221893 0.4091298 0.4955803
0.25277117 0.5570313 -0.24919875 0.3590012 0.3513935 0.58070356 0.012814109 0.16611141
0.49617624 0.5765558 0.064653605 -0.215008 -0.10564769 0.33877167 -0.025406672 0.47016641
0.3533231 0.5754197 0.18362296 0.10926077 0.052590154 0.12831673 0.24986765 0.17483833
0.93767196 0.10641868 0.074482836 -0.055348895 0.17578484 0.5534522 0.21460912 0.5462626
0.48119977 0.2564136 0.5111759 0.0031075447 0.062183425 -0.3019394 0.20510569 0.22776832
-0.05358157 0.37451106 0.1244475 0.34788394 0.15399013 0.6451948 0.7156056 -0.23887533
0.25000337 0.008967103 -0.12666707 -0.076321974 0.5179219 0.47198814 0.37468126 0.27487218
0.3603783 0.32913637 0.17857596 0.5394086 0.51516265 0.32216844 0.068941735 0.65617293
0.21504238 0.07086674 0.3860959 0.571988 0.48118883 -0.507459 0.081443794 0.246559
0.22443096 0.029296096 0.61249083 0.40127498 0.22140065 0.49314573 0.117457055 0.53295803
00000000: 70b0 0e3f c5be ea3e 237b 2fbe ceb2 f43e
00000010: 7b67 8e3e bbeb d93e 2677 6f3e 0abc 093e
00000020: 440b 5b3e 816e bfbd 63b3 c93d 6fa6 383f
00000030: 2510 3f3e 0052 5d3e 2817 cd3e 21e6 bdbd
00000040: 5156 e63e 0da5 153f 6305 0fbf f546 c73c
00000050: 09dd 76be da98 553e c886 dbbd ace5 ad3d
00000060: c843 93be 03d8 403d 7a4d 8fbc f7b7 083f
00000070: 1d8f 3bbe 1a1d 0c3f 007b ab3b 0e45 dd3e
00000080: 6577 fe3c 58eb b0bc fde2 a1bd 4854 f6bd
00000090: 900a c23e 984e 38bd a95d d93e 23e6 143f
000000a0: 95c6 e4bb a501 87bd 0218 fe3d 7fed 233e
000000b0: d68f 6e3e 6fa4 1c3e 595c f43e 9a62 ad3e
000000c0: ab8d 3c3e 144c 403d b945 1a3f c828 203e
000000d0: 3f18 bd3d 810c 753e 09a6 293e a147 a83e
000000e0: 188e d2bd 46de 6c3f eb99 aebd 3db0 f43c
000000f0: bac4 9f3e 02ae fa3e 2488 36bd e80b 8d3e
00000100: 4d41 933e 9dd1 f5bc 59ac ed3e 79a3 433f
00000110: 4c80 3dbe 9839 803e 2ebe 813e d554 f33d
00000120: 2040 d03e 2ed1 643d 4526 83bd 5979 be3e
00000130: c173 663f d150 a63e 5395 923e 5bf6 423f
00000140: 4e78 e43d 5086 0a3f ba16 753d 70bc 603d
00000150: 8f9b df3c 3c70 8d3d 9a46 81be 4e38 1a3f
00000160: 9849 2d3e 3039 bfbe d4a6 e33e ee17 533e
00000170: a783 b03c 0c3a 4f3a cb70 56bc 5026 80bd
00000180: 44c7 b63e 5fd0 55be 08d4 023f 756f 0d3f
00000190: 8e3c 27be 4c36 13bd 64c9 583e 6183 ff3e
000001a0: cbb0 c83c 1b8c fb3e fa42 a43e 1f4c ce3e
000001b0: b024 cd3e a19f 8a3e 67b2 043f f94d cd3e
000001c0: e11b f13d ed2a 5d3f 66eb 473e 6239 ad3d
000001d0: 7b9e 313c 4036 f43e cc1d b53e e2a3 eebd
000001e0: 1276 223f ea87 353f 7e2f a1be 3cd9 aebd
000001f0: e759 b43e 122e d03e c18b c4bd 8290 913e
00000200: 656a c6bb 66e5 973b f95d d03d d31c 813e
00000210: 6af7 0f3e ec2f 1e3e b740 9f3e a48b 9e3e
00000220: 81db 063e 7bcf e63d a747 a43e f3a9 bc3e
00000230: 1ad1 823d d789 1f3e 4afb 4d3e 6962 3fbe
00000240: 2df9 673d 8492 3b3f 4c75 e2be c7a4 e03e
00000250: 9556 60be b935 df3e 9b4b 1d3f 8cd6 d53e
00000260: eace da3e 679c 813e b941 ea3d 9e6b 7c3e
00000270: f41b 81bc 2329 223d 0b8a d23d 6662 b2bd
00000280: 38b4 2f3e 22c8 053f 0f66 da3d 8114 e33e
00000290: c9d7 043f f64a 2d3f 7639 423f 6b8f 003f
000002a0: 4c6b 133f 11b1 eb3e c48b d33e ad8e 373e
000002b0: d72b a73e aec6 f13e 7679 d13e b3bc fd3e
000002c0: 396b 813e 9a99 0e3f f52d 7fbe 01cf b73e
000002d0: d9e9 b33e fda8 143f 45f2 513c 1c19 2a3e
000002e0: d00a fe3e 2999 133f 1c69 843d 0f2b 5cbe
000002f0: d15d d8bd 7b73 ad3e a721 d0bc a7b9 f03e
00000300: c4e6 b43e b54e 133f a807 3c3e 1cc4 df3d
00000310: c668 573d 7665 033e 4edd 7f3e d208 333e
00000320: 450b 703f 09f2 d93d 758a 983d 86b5 62bd
00000330: f100 343e 0baf 0d3f 7ec2 5b3e ded7 0b3f
00000340: d15f f63e a548 833e 6cdc 023f f3a7 4b3b
00000350: 0cb4 7e3d cd97 9abe 3a07 523e 193c 693e
00000360: 5978 5bbd eabf bf3e 55de fe3d d81d b23e
00000370: 97af 1d3e 7d2b 253f ee31 373f bc9b 74be
00000380: 7100 803e c2ea 123c 03b5 01be b24e 9cbd
00000390: 8896 043f 6ea8 f13e 39d6 bf3e 0cbc 8c3e
000003a0: 8183 b83e 9084 a83e 9edc 363e af16 0a3f
000003b0: b3e1 033f 43f3 a43e 5331 8d3d f3fa 273f
000003c0: 1234 5c3e 9522 913d 5dae c53e ce6d 123f
000003d0: 625e f63e d5e8 01bf 01cc a63d f679 7c3e
000003e0: 3bd1 653e 5efe ef3c 33cc 1c3f ea73 cd3e
000003f0: dab6 623e 997d fc3e 538d f03d f06f 083f

value_stream.2.weight f4 [1, 256]
0.22046345 -1.2545248 1.2809279 -1.6340829 -1.1064774 -1.1639802 -0.68737656 0.57912487
-0.77995485 -1.5818847 -1.1633495 -1.3647894 1.4335088 -0.7804587 0.81439346 0.55520475
0.4053958 0.35988897 -0.89188945 0.40129897 -1.3040565 -2.7685556 -1.1367466 1.3405745
-0.43979904 0.5634678 0.5900022 -1.4510283 1.0480542 0.26585323 0.9403141 -1.4923538
1.1809006 0.6610166 0.5602081 -1.6097463 0.50067955 1.9769211 -1.9796939 -1.636779
0.55910015 0.6900179 -0.98206985 -2.530355 1.4285877 -0.93493605 0.41739964 1.4429902
-1.3057152 0.5216974 0.52144396 1.3022811 -1.1085459 1.3868314 -2.3562584 0.5226743
0.6219426 -1.6478425 1.4610969 1.204271 1.1893319 -1.7978895 0.65029234 -1.4522136
-2.6565104 0.7103959 0.5011251 -1.5384065 -1.3019019 1.3592345 0.3357367 0.5226005
0.5324229 -1.6426829 1.6140256 -1.1639073 -1.5103946 -1.5533155 -2.5648677 -1.681342
-1.2155796 0.32394424 1.7827793 0.5142224 -0.60104334 1.1970882 -0.64122146 0.31374526
0.45522174 -1.5169894 1.1524788 -1.9592948 0.56079704 0.9136162 0.6183956 0.62073535
0.6693994 -1.0913426 0.48766395 -1.7688609 -0.65178895 0.60308737 -0.91682386 0.5011179
0.61924416 -1.8350991 -1.0717759 0.37088907 -1.7103925 -2.7808168 -1.7779297 0.6862216
0.38775712 -1.5203724 1.1663241 -1.13755 1.195619 -2.0868325 -1.9576702 -0.46391883
-1.0347131 -1.5634199 -1.339059 1.0340395 -1.4723601 -0.9472897 0.59682256 -2.2583709
0.77625275 -1.1795467 0.65715563 1.5138286 1.4722134 -1.1557293 -1.4335864 0.3371472
1.3257607 0.3790409 -1.3932486 0.40633616 0.59492475 0.5150312 -2.499579 -1.750768
1.4518474 -2.0883663 -1.1194148 -1.234086 -1.1944077 -1.8458964 -1.4260623 -1.2924236
1.3275936 1.2881641 1.1908642 1.0197612 1.3659256 1.3955637 0.45082262 0.6847898
-1.4276112 0.4410111 1.2669858 -1.5309093 -2.537425 -1.542128 -2.165163 -1.9084369
0.33198163 -1.0230474 0.257318 -0.8588608 -1.0263783 -1.1352292 -2.895006 0.6750792
1.265149 0.27795535 -0.7107589 -2.0210152 0.5470301 0.22165562 -1.5467125 -1.8578352
-1.6057979 0.5528773 1.3562318 -0.5634614 -0.9940973 -1.471798 -1.6281388 -1.8841763
0.59753406 0.36662167 1.3734124 0.5635808 1.517969 -2.2817771 -1.1586411 1.4053293
-1.4545393 1.1921554 1.4065638 1.4359531 1.2681153 -2.1188846 1.1434406 -1.9209832
0.41700694 -2.7131996 0.9134832 0.6779248 -1.0497699 -0.7733141 -1.4378115 -1.9058483
1.0972897 -1.5490007 -0.86123127 -1.1443595 -0.9669763 0.40369025 -1.494493 -1.1621399
1.0249894 0.96715593 -0.59775406 -1.1405292 -1.8291239 -3.1171966 0.30115843 -2.7634356
0.30283532 0.3483681 -2.352885 -1.8891311 0.46739548 -1.0723946 0.63995045 -1.9580735
-2.4232552 0.7959681 0.5794104 0.4849359 -2.3618088 -0.7888227 1.3770506 -1.4140671
-1.2920926 0.9695216 0.4475738 0.4543669 -1.4020076 -1.5582514 1.1103401 -1.4390593
00000000: 2cc1 613e 4594 a0bf 72f5 a33f a129 d1bf
00000010: 0da1 8dbf 4efd 94bf e9f7 2fbf 8741 143f
00000020: 1fab 47bf 337b cabf a3e8 94bf 6bb1 aebf
00000030: 377d b73f 24cc 47bf 177c 503f e621 0e3f
00000040: 0a90 cf3e 5e43 b83e de52 64bf 0f77 cd3e
00000050: 53eb a6bf 0430 31c0 ea80 91bf f297 ab3f
00000060: 572d e1be 6d3f 103f 620a 173f 4cbb b9bf
00000070: a426 863f ea1d 883e 6db8 703f 7305 bfbf
00000080: c027 973f 6238 293f cc69 0f3f 2b0c cebf
00000090: 892c 003f c00b fd3f 9c66 fdbf f981 d1bf
000000a0: 3021 0f3f 03a5 303f ee68 7bbf 56f1 21c0
000000b0: f6db b63f f857 6fbf 68b5 d53e e7b3 b83f
000000c0: ad21 a7bf f68d 053f 5a7d 053f 26b1 a63f
000000d0: d5e4 8dbf b183 b13f f0cc 16c0 fccd 053f
000000e0: a137 1f3f 81ec d2bf 3905 bb3f 8d25 9a3f
000000f0: 073c 983f 3e21 e6bf 8f79 263f 23e2 b9bf
00000100: 4404 2ac0 81dc 353f bc49 003f 81ea c4bf
00000110: b9a4 a6bf 65fb ad3f aee5 ab3e 25c9 053f
00000120: de4c 083f 6f43 d2bf 6498 ce3f eafa 94bf
00000130: 9c54 c1bf 0bd3 c6bf cb26 24c0 3736 d7bf
00000140: 1d98 9bbf 05dc a53e 1d32 e43f 14a4 033f
00000150: fadd 19bf 303a 993f 1727 24bf 38a3 a03e
00000160: d312 e93e b52c c2bf 6d84 933f 2cca fabf
00000170: 6590 0f3f c0e2 693f 2d4f 1e3f 83e8 1e3f
00000180: c25d 2b3f 1db1 8bbf 17af f93e 096a e2bf
00000190: a4db 26bf ef63 1a3f f8b4 6abf 4349 003f
000001a0: c986 1e3f 87e4 eabf f42f 89bf 2ce5 bd3e
000001b0: 24ee dabf e7f8 31c0 3393 e3bf 38ac 2f3f
000001c0: 1a88 c63e 909b c2bf 1c4a 953f 3d9b 91bf
000001d0: 0b0a 993f aa8e 05c0 f094 fabf c586 edbe
000001e0: 7b71 84bf 251e c8bf 4966 abbf 685b 843f
000001f0: 4c76 bcbf 9481 72bf 5dc9 183f 2689 10c0
00000200: 80b8 463f 63fb 96bf 5a3b 283f 23c5 c13f
00000210: 7d71 bc3f f0ee 93bf c27f b7bf 8f9e ac3e
00000220: 87b2 a93f a611 c23e f855 b2bf 4b0b d03e
00000230: fd4c 183f 16d9 033f 1af9 1fc0 2a19 e0bf
00000240: 23d6 b93f cba7 05c0 fc48 8fbf 88f6 9dbf
00000250: 5ae2 98bf 5546 ecbf 3689 b6bf 236e a5bf
00000260: 96ee a93f 90e2 a43f 3d6e 983f 8987 823f
00000270: a6d6 ae3f d5a1 b23f 39d2 e63e 624e 2f3f
00000280: f7bb b6bf 35cc e13e 972c a23f d6f4 c3bf
00000290: 2c65 22c0 7364 c5bf 0892 0ac0 a947 f4bf
000002a0: 7ff9 a93e 38f3 82bf 2fbf 833e 4dde 5bbf
000002b0: 5d60 83bf 314f 91bf c747 39c0 fed1 2c3f
000002c0: 67f0 a13f 2a50 8e3e 4cf4 35bf 5058 01c0
000002d0: 2a0a 0c3f b1f9 623e adfa c5bf 8bcd edbf
000002e0: c98a cdbf 5e89 0d3f 0199 ad3f 023f 10bf
000002f0: 297d 7ebf e063 bcbf da66 d0bf b02c f1bf
00000300: fef7 183f d6b5 bb3e facb af3f d546 103f
00000310: cf4c c23f a308 12c0 5a4e 94bf d5e1 b33f
00000320: 582e babf 8c98 983f 480a b43f 50cd b73f
00000330: 9a51 a23f ce9b 07c0 435c 923f c7e2 f5bf
00000340: ef81 d53e 10a5 2dc0 09da 693f 7b8c 2d3f
00000350: dc5e 86bf eaf7 45bf 350a b8bf d6f2 f3bf
00000360: fd73 8c3f a845 c6bf a779 5cbf 5f7a 92bf
00000370: c28b 77bf 7db0 ce3e 8c4b bfbf 00c1 94bf
00000380: da32 833f 8897 773f 6906 19bf dcfc 91bf
00000390: bb20 eabf 2680 47c0 7031 9a3e 21dc 30c0
000003a0: 3b0d 9b3e 4e5d b23e ab95 16c0 0ccf f1bf
000003b0: 764e ef3e 3a44 89bf cbd3 233f 27a2 fabf
000003c0: 9d16 1bc0 91c4 4b3f 3d54 143f 8549 f83e
000003d0: e027 17c0 49f0 49bf 3243 b03f 2700 b5bf
000003e0: 4a63 a5bf 9132 783f 6528 e53e c7a2 e83e
000003f0: fc74 b3bf c874 c7bf a01f 8e3f 1833 b8bf

advantage_stream.0.weight f4 [256, 256]
-0.60814327 0.001686552 -0.044943478 -0.2718385 -0.3139013 -0.26303512 -0.6518017 -0.78279984
0.010253298 -0.88492084 0.02482553 0.0026733328 -0.17100997 -0.14335366 -0.08644136 0.003275334
-0.14440893 -0.3971964 -0.26961043 -0.32543123 0.115130715 -0.39859107 -0.21111345 0.41834158
0.044567805 0.027809715 -0.21449491 -0.32499877 -0.44341925 0.14489606 0.027069619 -0.3827171
0.37229154 -0.12440936 -0.48075762 -0.41418755 -0.058325518 0.63376963 0.36542368 0.0009995456
-0.45375234 -0.2817385 0.30001634 -0.0050915056 0.13228182 -0.3393109 -0.0711373 0.055847727
-0.9627862 -0.64722955 -0.29890123 0.20606238 0.075825304 -0.5703961 -0.2844934 -0.08569206
-0.5427974 0.0011995991 -0.1723886 0.11437373 -0.8494275 -0.49259022 -0.007846755 0.3478087
0.08067876 0.30648938 -0.4362583 0.090347946 -0.4616004 -0.6983031 -0.4211004 0.13356999
-0.45709744 -0.48246336 -0.26167625 -0.39331642 -0.040316343 -0.1200497 -0.17242552 -0.33183047
0.17637284 0.06914603 -0.30220354 -0.00015828451 0.086831026 -0.19877045 -0.47320062 0.02690901
0.04097771 -0.16796711 -0.01877123 -0.7225287 -0.16937438 -0.72096074 0.05941421 -0.52846974
-0.5143027 -0.016075324 -0.003038545 -0.62194735 0.42203265 -0.47278878 0.19859432 -1.4222744
-0.22925767 -0.41899127 -0.12783042 -0.40030232 -0.24570768 0.15924111 -0.0691862 -0.3761546
-0.6114549 -1.2083359 0.017952833 -0.056201123 0.089166366 0.04223885 -0.17125973 -0.17293698
-1.0030549 -0.33851272 -1.4835635 -1.0849061 -0.84750384 0.06608172 -0.8662063 -0.12734126
0.098836064 -0.012457612 0.0834956 0.1940141 0.008727081 -0.39005437 0.0048242295 -0.849578
-0.73254335 0.32009256 -0.5370719 -0.110015295 -0.21026269 0.34980243 -0.29384932 -0.21656333
-0.26370904 -0.5431098 -0.2569393 -0.21185902 -0.099563316 0.13627376 -0.3527436 -0.51759315
0.10375339 0.115488485 0.061022613 0.0058505475 0.6238583 0.12548798 -0.20988463 0.03803744
-0.5297196 -0.6861808 -0.4889782 -0.034528766 -0.30456156 -0.18347712 -0.96845174 -0.12179838
-0.5079617 0.42341322 -0.37890857 -1.2001009 -0.2974555 0.20151936 0.010883051 -1.0936885
0.030852465 -0.429823 -0.16689822 0.81941605 -0.067359224 -0.11125577 -0.10711386 0.38287777
-0.85436684 -0.47285372 0.08111309 0.053303372 -0.04256315 -0.21132444 1.1259079 -0.14892323
-0.43483528 -0.56223375 -0.28171697 -0.62541366 -0.15530401 0.13963024 -0.08980418 -0.2912714
-0.48433912 -0.34297472 0.43176892 0.011482251 0.1330063 0.22777857 -0.38852367 0.10414184
-0.7510184 0.14707449 -0.3663448 0.40811327 -0.15105619 -0.49888685 -0.026017105 0.044073083
-0.22031026 -0.3738568 -0.08549645 0.024567923 -0.30078176 0.33891273 -0.5832427 -0.22610913
0.22465277 -1.0134399 -0.3029699 0.33178377 -0.5336273 -0.5586519 -0.55394834 -0.19261324
-0.57333577 -0.21489777 -0.78927505 -0.15367842 -0.16357312 -0.055632506 -0.39853716 -0.35182184
0.0076597175 -0.10741825 -0.18038271 0.1538021 0.11812383 -0.1707402 0.016885445 -0.23752064
-0.17632322 -0.011692087 -0.5669796 -0.5908721 -0.09935059 -0.19942448 -0.04164712 -0.4649919
00000000: 47af 1bbf 4b0f dd3a a716 38bd 6a2e 8bbe
00000010: acb7 a0be 8aac 86be 7adc 26bf 9265 48bf
00000020: 73fd 273c 2c8a 62bf e95e cb3c 1533 2f3b
00000030: 3d1d 2fbe 4dcb 12be 2b08 b1bd fca6 563b
00000040: efdf 13be 545d cbbe 610a 8abe ec9e a6be
00000050: a7c9 eb3d 2114 ccbe 202e 58be de30 d63e
00000060: bb8c 363d 33d1 e33c 8ea4 5bbe 3d66 a6be
00000070: d907 e3be a25f 143e 1bc1 dd3c 7ff3 c3be
00000080: ff9c be3e 56ca febd dd25 f6be 6410 d4be
00000090: bde6 6ebd ba3e 223f d018 bb3e 2f03 833a
000000a0: 3a52 e8be 0740 90be be9b 993e a5d6 a6bb
000000b0: e374 073e 29ba adbe 6fb0 91bd 96c0 643d
000000c0: 2879 76bf d6b0 25bf 9509 99be 0402 533e
000000d0: 4c4a 9b3d 7b05 12bf 1ea9 91be 527f afbd
000000e0: c5f4 0abf de3b 9d3a a386 30be c63c ea3d
000000f0: 1574 59bf c934 fcbe ad8f 00bc fb13 b23e
00000100: e83a a53d 2dec 9c3e 3f5d dfbe 5808 b93d
00000110: e356 ecbe fec3 32bf 799a d7be 92c6 083e
00000120: ad08 eabe 7005 f7be 6efa 85be c560 c9be
00000130: c022 25bd 9edc f5bd 5190 30be afe5 a9be
00000140: 159b 343e 6f9c 8d3d 6cba 9abe 2df9 25b9
00000150: 77d4 b13d 7b8a 4bbe 5a47 f2be 4970 dc3c
00000160: 3ed8 273d 92ff 2bbe 1fc6 99bc a4f7 38bf
00000170: 7a70 2dbe e290 38bf 515c 733d cb49 07bf
00000180: 57a9 03bf 66b0 83bc 5322 47bb f137 1fbf
00000190: aa14 d83e 5f11 f2be 4f5c 4b3e 160d b6bf
000001a0: 86c2 6abe 0686 d6be fae5 02be 6df4 ccbe
000001b0: cb9a 7bbe 1a10 233e 7fb1 8dbd 5697 c0be
000001c0: 4f88 1cbf c0aa 9abf d211 933c 2633 66bd
000001d0: db9c b63d a502 2d3d b65e 2fbe 6416 31be
000001e0: 1a64 80bf 8a51 adbe 69e5 bdbf 34de 8abf
000001f0: 03f6 58bf da55 873d b2bf 5dbf bf65 02be
00000200: 906a ca3d 031b 4cbc beff aa3d a2ab 463e
00000210: 08fc 0e3c 35b5 c7be 9214 9e3b f27d 59bf
00000220: f687 3bbf 2ce3 a33e 8b7d 09bf b34f e1bd
00000230: 1a4f 57be 4e19 b33e 6b73 96be c7c2 5dbe
00000240: df04 87be 3e09 0bbf 8c8d 83be 92f1 58be
00000250: dae7 cbbd 598b 0b3e cf9a b4be fc80 04bf
00000260: a87c d43d 3a85 ec3d d9f2 793d f3b5 bf3b
00000270: 2db5 1f3f ec7f 003e ffeb 56be 26cd 1b3d
00000280: b49b 07bf 8ba9 2fbf 5a5b fabe 096e 0dbd
00000290: 7eef 9bbe 6de1 3bbe 74ec 77bf 6e71 f9bd
000002a0: c709 02bf 9ec9 d83e 4e00 c2be e89c 99bf
000002b0: 164c 98be 175b 4e3e d34e 323c fcfd 8bbf
000002c0: 4fbe fc3c c311 dcbe 5ee7 2abe 40c5 513f
000002d0: a2f3 89bd 11da e3bd 835e dbbd 8e08 c43e
000002e0: c9b7 5abf e219 f2be 9f1e a63d a354 5a3d
000002f0: b356 2ebd 6f65 58be c01d 903f 557f 18be
00000300: bba2 debe 8dee 0fbf 353d 90be 1c1b 20bf
00000310: 0408 1fbe 3bfb 0e3e 41eb b7bd 8621 95be
00000320: 4cfb f7be 629a afbe d110 dd3e 0d20 3c3c
00000330: ce32 083e c93e 693e 93ec c6be 5148 d53d
00000340: be42 40bf b29a 163e 8c91 bbbe 39f4 d03e
00000350: 79ae 1abe 196e ffbe d321 d5bc fa85 343d
00000360: 0399 61be 296a bfbe c318 afbd ab42 c93c
00000370: 1100 9abe f885 ad3e 654f 15bf 2789 67be
00000380: 600b 663e 66b8 81bf df1e 9bbe 90df a93e
00000390: cc9b 08bf d003 0fbf 8fcf 0dbf 683c 45be
000003a0: 22c6 12bf 290e 5cbe ee0d 4abf e05d 1dbe
000003b0: b67f 27be e9de 63bd 100d ccbe fe21 b4be
000003c0: 5efe fa3b 19fe dbbd 3fb6 38be 4c7e 1d3e
000003d0: e8ea f13d 85d6 2ebe 5853 8a3c 9c38 73be
000003e0: 138e 34be 2b90 3fbc 9325 11bf 6543 17bf
000003f0: 5278 cbbd ee35 4cbe 2c96 2abd 6b13 eebe
