active_slam_rl/training_output_slam/20260126_164625/d3qn_ep980.pth (torch, 901794 bytes, 11 tensors)

feature.0.weight f4 [256, 100]
00000000: 7d61 0ebe 7bc6 bfbd 0512 f93d c325 403e
00000010: a8a7 98bd e13b 563d 9af3 b23c 09c7 1e3d
00000020: c52f 183e ab3e d33d bdf7 7e3c acd4 2f3e
00000030: 4b90 c53d 0ae7 62bd 84e8 a2bc 3284 563e
00000040: 1198 673e b664 d43d 8b4a d63d 7d3c 0b3e
00000050: 2da3 143e 1888 643e 048c 853e 4f21 073e
00000060: 4115 513e 0e9d f53d 106c cfbc 96f5 353d
00000070: cafb d6bc ca3b c9bd 8571 b93d 9e56 b8bd
00000080: 0c91 b6bd 7b84 0ebd 3db0 8dbd c4f6 cebd
00000090: fdb8 19be 7595 33be 95b4 08be ad8c f3bd
000000a0: 943b 3cbe ca17 90be eb02 81be ae2d 5dbe
000000b0: 1d38 ddbd f766 1dbe 32c3 4bbe eadd 91be
000000c0: 4506 4cbe 2d77 e1bc 26b5 43be fbb6 46be
000000d0: 20c9 cebd ea0d 97bd b076 b9bd 83a8 16be
000000e0: 7fad eabd ea40 dbbd 3e09 f5bd a332 6c3d
000000f0: 7bb9 5d3b a44d 7d3e f755 ba3d 19cd a63c
00000100: 52ac 473d c887 823c 2d62 3b3e 337c 2dbb
00000110: 83ed b3bb 7bf5 193e 1621 b1bd 45ae d23d
00000120: e316 04bd 90b9 20be 84fa 773d 008f 74be
00000130: 16b2 42be 8742 53bd f162 4f3d 2e66 2a3d
00000140: 3436 42be fe0c 82be 5f7c 38be c15d b7bd
00000150: 16f5 67be 52e1 61be 8ef0 5bbe a26a 80be
00000160: a4ef 48be 3442 18be 042c 81be 0d16 82be
00000170: 76a7 b4be 368b 96be b431 6bbe 70e9 96be
00000180: 4e65 b0be 58d7 e4be d30c d3be 477c 17bf
00000190: 9c2f ae3e 68d1 b53e 9b3d 883e e2ae 4b3e
000001a0: 3b24 6a3d fc6e 2c3e 22ff 823d 6f48 f73d
000001b0: 43e6 143d 704b 5f3d 09bf bebc b8cc d53c
000001c0: 4b09 2ebe a805 32be 5e3b fabd 1b25 83be
000001d0: ac2c b1be 23cc 9fbe 3ee3 5dbe 49f8 09be
000001e0: 87fe 99be 9511 c5bd 4ffa 80be 760c 62be
000001f0: 6a69 25bd 8f90 1abe f7ed 30be d10e 81be
00000200: 2ea9 38be 551e 5fbe 1ac2 65be fc2b 66be
00000210: 1bdc 12be d46e 34be 5073 86be b7d7 04be
00000220: 99cc 60be bfcb 84be 2860 4cbe ac92 80be
00000230: 305a aebd cf9f f0bd 7f45 f8bd af1a 49bd
00000240: bd2e b7bd fa24 00be f97c b8bd 7ad0 d3bd
00000250: 25bc e5bc 39ae 07be da09 8dbd ae1c 8cbd
00000260: 65e7 c6bc 972f debc e3fb 023d 64d2 39bc
00000270: 784a e43d 24e8 c03d b328 76bc 204e 6abe
00000280: 1313 3abe c849 5dbd 954c 4fbe 8aca 14be
00000290: 0302 19be bbc9 94bd d841 aabd d85b b5bd
000002a0: e66d 30be 0f36 01be 3439 a0bd 93f5 34be
000002b0: 836d 17be 4686 4dbe fc60 1bbe 6724 72be
000002c0: f141 2e3c e220 38be 4da6 1fbe 3bad 48be
000002d0: 221c cebd 6fef 31be 4398 9c3c c85f fcbd
000002e0: fec5 9abd 2c9d 5bbe 8c62 a4bd ffeb 15be
000002f0: f1b9 63be dfb6 4fbe 67ac 85bd 31d2 44bd
00000300: 627e 21be 8196 83be 2946 0bbe 71ca 5bbe
00000310: 77c1 91be 01f3 88be c2a7 64be 2f98 43be
00000320: 6596 253e 1db5 483d cedd 083d 3fe4 ab3d
00000330: f477 0ebd 2f9a cf3c 78c3 253e d171 523d
00000340: ecfc f13d 7e6a 873d 4931 133e 40a7 a5bd
00000350: ba7c 2c3e 3700 83bc 260b 28be d997 6bbe
00000360: 12c1 2fbe 85c8 bebd c0a7 febc 302c 7f3d
00000370: 7cdf 13bd b2cc 16be 7765 3c3c 3120 37be
00000380: f152 2dbe 2843 e0bd 8da0 65be 6bfc 7bbe
00000390: 6892 84be c72a 05be 9366 e7bd e376 38be
000003a0: e0fe 693d b2fd 18bc fab2 c1bd f0a1 d2bd
000003b0: f0df e6bc 10bc dabd 6085 82be c6aa 12be
000003c0: fb39 d4bc f6b2 1ebe ac54 40be 9518 86be
000003d0: 1ec2 febd adcd a9be 548d b7be f37d c6be
000003e0: b29a 14be 1304 69be 1d97 a8be 5a80 3cbe
000003f0: a199 c5bc 45bc 3ebe 97da cebd fdba 2ebe
-0.13904376 -0.09364029 0.1216164 0.18764405 -0.07453853 0.0523032 0.021844674 0.038764033
0.14861973 0.10314687 0.015561995 0.17170972 0.09646662 -0.055396117 -0.019886263 0.20948866
0.22616602 0.103707716 0.10463437 0.13597293 0.14515372 0.2231754 0.26083386 0.131963
0.20418264 0.119928464 -0.025320083 0.044423662 -0.02624311 -0.09825857 0.09054855 -0.09000896
-0.08914384 -0.034794312 -0.069183804 -0.101056606 -0.15011974 -0.17537482 -0.13350137 -0.11892066
-0.18382102 -0.2814315 -0.2519754 -0.21599457 -0.108017184 -0.15371309 -0.1989868 -0.2848962
-0.19924267 -0.027522648 -0.19112071 -0.19405739 -0.10096955 -0.07375701 -0.09055841 -0.1471272
-0.11458873 -0.10705741 -0.119646534 0.05766548 0.0033832479 0.24736649 0.09098428 0.02036147
0.04874832 0.015933886 0.1829917 -0.0026471734 -0.00549096 0.1503505 -0.08648889 0.102871455
-0.03224839 -0.15695786 0.060541645 -0.23882675 -0.19013247 -0.051577117 0.050631467 0.041601352
-0.1896599 -0.25400537 -0.18016194 -0.08953429 -0.22652087 -0.22058609 -0.21478483 -0.25081354
-0.19622666 -0.14869004 -0.25228894 -0.25407448 -0.35284013 -0.29403085 -0.22968179 -0.29474974
-0.3445229 -0.44695544 -0.41220722 -0.5917401 0.34020698 0.35511327 0.266095 0.19890931
0.05716346 0.16839212 0.06396319 0.120743625 0.036352407 0.054515302 -0.023284452 0.026098594
-0.16995732 -0.1738497 -0.12218355 -0.25614247 -0.34604394 -0.3121043 -0.21668717 -0.1347362
-0.30077 -0.09622494 -0.2519097 -0.22075066 -0.040383734 -0.15094207 -0.17278276 -0.25206617
-0.18033287 -0.21788915 -0.22437325 -0.22477716 -0.14341776 -0.17620403 -0.2625985 -0.12972914
-0.21953048 -0.25936696 -0.19958556 -0.25111902 -0.08513296 -0.11749231 -0.1212263 -0.049097713
-0.089444615 -0.12514105 -0.09008212 -0.10342498 -0.028043816 -0.13250054 -0.06886645 -0.06841408
-0.02428026 -0.027122302 0.0319785 -0.011341665 0.11147016 0.09419277 -0.015024352 -0.22881365
-0.18171339 -0.05402544 -0.20244057 -0.14530388 -0.14942174 -0.072650395 -0.0831334 -0.088554084
-0.17229423 -0.12618278 -0.07823411 -0.17671804 -0.14787869 -0.20070753 -0.15173715 -0.23646699
0.010635839 -0.17981294 -0.15590782 -0.19597332 -0.1006396 -0.17376493 0.019115573 -0.12322956
-0.07557295 -0.21446675 -0.08026609 -0.14640807 -0.222389 -0.20284604 -0.06527024 -0.048052017
-0.15770867 -0.25700763 -0.13600983 -0.21463944 -0.28467914 -0.26747897 -0.2232962 -0.19101022
0.16170652 0.049000848 0.033414654 0.08393144 -0.034782365 0.025342075 0.16187847 0.051378075
0.11815819 0.06612109 0.1437427 -0.08088541 0.16844454 -0.015991313 -0.16410503 -0.23007144
-0.17163494 -0.0931559 -0.031085849 0.062298 -0.036101803 -0.14726523 0.0114988005 -0.17883374
-0.16926171 -0.10950309 -0.22424527 -0.24608009 -0.2589295 -0.130046 -0.11298861 -0.18014102
0.057127833 -0.009337829 -0.09457965 -0.102847934 -0.028182954 -0.10680401 -0.25492382 -0.14322957
-0.025906553 -0.15497956 -0.187823 -0.2619063 -0.12439369 -0.3316473 -0.35850012 -0.38767967
-0.14512137 -0.2275546 -0.3292779 -0.18408337 -0.024121108 -0.18626507 -0.101002865 -0.17063518

feature.0.bias f4 [256]
00000000: 75f7 f0be abdb 403e 8101 b63e 7c1d 9fbe
00000010: b9c1 6ebf cf55 1abf 4c35 043f 6594 ef3e
00000020: c478 e03e ad61 ddbd aa21 bd3e e735 083e
00000030: a096 50be e929 93be 9f0c a5be 2132 f13e
00000040: 0f46 c13e 0622 4a3e 0d2a b73e 9d6c a13a
00000050: 5b39 9fbc c187 acbd a77d 59be ca24 af3e
00000060: a863 39bf 0079 b93d ebf8 313f 6dab cdbe
00000070: ef8e 54bf 59c0 f23d 004d e63e c8cb b83e
00000080: 0e7b 613e 0662 e7be 21f0 0bbf c1d4 5fbd
00000090: 251a a03d ec61 9d3c 58eb 09bf 56b8 303f
000000a0: edac f93e c23f 6f3e 5852 873e f8f9 96be
000000b0: 1fed e6bd d290 f93d d380 b5be d84e 4d3f
000000c0: 673b 123e ff46 db3e 304d 883e 89e0 31bf
000000d0: c4dc cebe 2ae6 1a3d 343c 363d 25cc 06be
000000e0: e575 613e 9cf1 d73e 8b96 c6be 9fed 6ebe
000000f0: d425 dc3d 0c0e 9d3e af98 42be fbf7 963e
00000100: c5ac ebbd eb1f c7be 0c27 95be b382 b93c
00000110: e616 b03e 400e cd3e b533 503e 1474 083f
00000120: b6d5 f5be 197c 0abe 4d20 213f 53da cb3e
00000130: ae24 1bbd 1eba 063f 2cd5 1f3f 291b 16bf
00000140: 0b68 e73c 9f1f e5be 13a0 0cbe 37b8 753e
00000150: a29c 8a3e b6bc ddbe 953d 863e 2f67 3c3f
00000160: bbe8 23be c08a a1be 5e9e 903e 9c2a 05bf
00000170: a8c8 02bf 3adb cfbe 46c9 993e 5dd6 343e
00000180: d314 593e 7e84 293e 05ef 05bd f5f8 a8bd
00000190: 3526 dbbd 632f 15be 7bc4 723e efb3 b93e
000001a0: 8065 e03d c78e cc3e 1106 a43e a591 00bf
000001b0: 8e3b 333f 47e3 09be cb0e b6be 5ded 0d3e
000001c0: 46e0 1d3e 7c43 c53e 415c 17bb 38c7 f9be
000001d0: d607 d13e e0bc c63e 2843 2ebf 722e 0a3f
000001e0: 2185 073f 6153 3e3e 661e 36be d0e4 913d
000001f0: 1a9b 7b3e e7c0 9bbe 2f4a 6d3e 33bf 2d3e
00000200: 1804 f43e 60c8 333d e140 a0bd c67a 5dbe
00000210: 4385 1fbf c246 b0be 13d8 fcbd cd7b 0a3e
00000220: 2b3c 903e 77cd 10bf d9b8 aabe 41b3 353e
00000230: 53ee eb3e 246a e53e a0c8 11bf 5ff2 31bd
00000240: 9456 20bd a36a 05bf beea 9a3d d44d 123f
00000250: ba2e af3e f4f8 243c 4d4d 303f 26dc c43e
00000260: 17df b8be ab22 07bf 2d7b 71be 28c3 d1be
00000270: fcf3 01bd 06eb cebe e800 3f3e 4443 f73e
00000280: 627c bcbc 6346 263f 1f77 10be 8863 89be
00000290: f4a7 19bd 2fa8 7c3d 319b fb3e f030 0cbf
000002a0: 9725 45be 7bda babc e7e6 acbd d2f7 0a3f
000002b0: a4db c0be f4a6 38be 841f 9d3e 2d9f d03e
000002c0: 430c 83be d40d 8abc 7569 e13e e2d6 b23e
000002d0: 8922 0c3e 8145 d23e a129 7c3d cc31 d93e
000002e0: 7afe 8c3e ab46 e9bd f0f6 3d3c 79b1 f9be
000002f0: 4562 46bf 5353 ad3e 5294 b3be 8ed8 d0bd
00000300: 4c66 0bbe 9349 eabd 3999 a73e c03c 40be
00000310: eb00 dfbd 4161 0d3f 494f f0be 034d 35be
00000320: ff86 513e 191e 513e 3ccb e53c f950 5e3e
00000330: 4d3c f03c 51a9 be3e c620 a13e 9bdc b33e
00000340: 5de0 b33e 9c1b 793e 4b0a c1bd 1869 3c3f
00000350: 2a81 d8be e8cd ad3e ac99 d6be 0233 3f3f
00000360: 2a5b e43e 114d 0a3d 4eb8 c3bc 5ac5 0c3f
00000370: a5f1 80bd 9b00 063f c1a5 70be fcdb c13e
00000380: 3356 06bf 65f8 d93d af73 023f 4d16 a7bd
00000390: dc09 06bf c9e8 cbbe c828 e83e 95c2 40bd
000003a0: 0a49 a3bc c1b0 b0be 2768 3cbe 095a cbbe
000003b0: 652c 923d 4bf7 c83e a470 cbbe 1296 a8bd
000003c0: 30da d4be 9ef7 a33e e7bd 373e a0c9 82be
000003d0: e76b c93d c9a3 c53e 955e 0c3e de39 e73e
000003e0: 992b bcbe bfa6 19bc bc2a 07bf 4f2c 56be
000003f0: a423 7b3d a97c e83e d028 d0bd 0c99 423e
-0.47063795 0.18833797 0.35548022 -0.31077182 -0.9326435 -0.60287184 0.51643825 0.46792904
0.43842137 -0.10809646 0.36939746 0.13301812 -0.20369959 -0.28742912 -0.32236192 0.47108558
0.37748763 0.19739541 0.3577427 0.0012315694 -0.019436529 -0.084243305 -0.21239339 0.34207755
-0.7241769 0.09056282 0.69520444 -0.4016985 -0.830306 0.11853094 0.4498062 0.36092973
0.22019598 -0.45191973 -0.5466328 -0.054646257 0.07817487 0.019211732 -0.5387473 0.69031274
0.48764744 0.23364165 0.2643001 -0.29487586 -0.11275696 0.121858254 -0.35449848 0.8019843
0.14280473 0.42827603 0.2662139 -0.6948324 -0.40402806 0.037817158 0.044491008 -0.13163812
0.2201763 0.4217652 -0.3878673 -0.23332833 0.10749403 0.3067478 -0.19003557 0.2948607
-0.115075625 -0.3889154 -0.29131353 0.02264533 0.3439247 0.40049934 0.20332225 0.5330212
-0.4801461 -0.13523902 0.6293991 0.39815006 -0.037876777 0.5262774 0.6243465 -0.58635193
0.028247854 -0.44750687 -0.13732938 0.23996054 0.27072626 -0.43308038 0.26218858 0.73594946
-0.16006748 -0.3155117 0.28245825 -0.5201814 -0.5108743 -0.40596944 0.30036372 0.17659898
0.2119935 0.16554448 -0.03269865 -0.0825061 -0.10700647 -0.14568858 0.23707764 0.3627009
0.109568596 0.3995268 0.32035878 -0.50222236 0.7001275 -0.13465606 -0.3555816 0.13860078
0.15417585 0.3852805 -0.002309576 -0.48784804 0.4082629 0.38815975 -0.6807122 0.5397712
0.52937514 0.18586494 -0.17785034 0.07123721 0.24570885 -0.3042061 0.2317283 0.16967468
0.47659373 0.043892264 -0.07824875 -0.21628866 -0.62312716 -0.34428984 -0.123459004 0.13523789
0.28170905 -0.56563514 -0.33344153 0.17744161 0.46080264 0.4480754 -0.56946754 -0.043444034
-0.039145067 -0.5211584 0.07564305 0.57150006 0.34215337 0.010069121 0.6886795 0.3844921
-0.36107704 -0.52787274 -0.23582144 -0.40969205 -0.031726822 -0.40413684 0.1865269 0.48293507
-0.02300853 0.6495115 -0.14107941 -0.2683375 -0.03751369 0.06168383 0.4914184 -0.5476217
-0.1925262 -0.022809258 -0.084424786 0.54284394 -0.37667572 -0.18032438 0.30688107 0.4074644
-0.25595292 -0.016852297 0.4402577 0.34929568 0.13685049 0.41068652 0.061563138 0.42420805
0.275379 -0.11390432 0.011594519 -0.48768213 -0.774937 0.33852634 -0.35074097 -0.101975545
-0.13613242 -0.114398144 0.32734087 -0.18773174 -0.10888847 0.5522652 -0.4693549 -0.17705159
0.20461653 0.20421638 0.028051011 0.21710576 0.029325629 0.37238553 0.31470317 0.35129246
0.35132113 0.24326938 -0.09425791 0.7359786 -0.42286044 0.33946157 -0.41914117 0.74687207
0.44600803 0.033764903 -0.023891594 0.54988635 -0.0629609 0.52344674 -0.2350073 0.37863147
-0.5247528 0.106430806 0.5095777 -0.081585504 -0.52358794 -0.39826038 0.45343614 -0.047060568
-0.019932289 -0.34509853 -0.18399106 -0.3971713 0.07137374 0.3925117 -0.39734375 -0.08231749
-0.41572714 0.32024854 0.17943536 -0.25544453 0.09835034 0.3860152 0.13707955 0.45161337
-0.36752012 -0.009378134 -0.5279958 -0.2091534 0.061313286 0.45407608 -0.10164034 0.19003695

feature.2.weight f4 [256, 256]
00000000: 6405 eebd 0da0 2b3d 738c 90bd e9c7 a03d
00000010: dd4c 9abe 5715 1ebe 5ee8 a63d 416a 1e3e
00000020: 33c4 6f3e b4ca e13d 6b73 09be b225 e23d
00000030: 0290 2a3e 550e f5b9 29b2 a7be 59c8 393e
00000040: 2d77 c4bd 409a 223e ab08 743e 577d 3e3c
00000050: 839a ba3c 0121 3cbd a982 6bbc 239c 9fbe
00000060: f51d 9a3d f7ea c43d a685 c83e 78e6 86bd
00000070: cef1 80be 31a0 8d3d c1b7 423d d175 cb3e
00000080: e690 493e f74b 8ebd 5a85 cbbd 1b42 a83d
00000090: 91c4 4a3c 569e 7e3e 1a29 38bd 4177 3d3e
000000a0: d6ef 573e 67a6 6dbe 0afd 223e 7331 aa3d
000000b0: 5b45 093e 5065 3f3e ac6c 0b3c f2a6 1b3d
000000c0: ce52 1a3e b24e e83e 2e37 563e 74c5 6d3d
000000d0: 6102 68bd 1073 5c3e 548e 8cbd 42fe a3bd
000000e0: 7bd4 67bd 0e47 0b3e f9a8 09be e5f9 5fbe
000000f0: cc11 aabd c7b4 483d e71f 55bc 6ffc 9d3e
00000100: 8efd 29bd 18a8 64be 631e 26be de73 933d
00000110: 23d8 123f 6be6 4a3e fd17 d13d b7dd 9c3e
00000120: 55fa 9ebe f7a6 66bd 9fb0 d43e da7d 9e3e
00000130: fcd8 be3c f4c7 31bd 5ae7 553d 37af 40be
00000140: e736 013d 7c32 e2bd 5d88 58bb b6f2 d73d
00000150: 0e4b a73e 8341 40bd f3bc 863d 04f1 c7bc
00000160: cba2 ccbd 4fe1 8cbe b22b 1d3e 4ce8 cebe
00000170: 6cfe 0fbf 0116 6cbe 5c38 8c3e b5ea 423e
00000180: f9fc 6e3d 1356 d33c cfe1 dabc 655c 07bd
00000190: 29e0 cf3d 02f4 67be a172 c13e 7f6a 92be
000001a0: 7f3a 843d 201a 263e 1b5b b83e 9606 813d
000001b0: 1a63 d03e 979b c8bd 4cfa 2b3e 7346 d5bd
000001c0: 1e0b d53d 35ac 793d 5f8a 2dbd e0df 07bf
000001d0: f110 823c 044f 0c3e c5f8 07bf 30df 80bc
000001e0: 3d94 f73e 724e f03d 0970 a839 03b3 7dbd
000001f0: aecd f2bd c04e 873e 82b2 783c 9c65 42bd
00000200: 19cd 963e 5218 3a3d b342 0f3d 3c45 d03c
00000210: 6083 ddbe 44e2 adbe 9b3d d0bd bbc8 f2bd
00000220: 4054 b23e 94a7 6cbd b14a 74be 2a23 3c3c
00000230: 7618 d03d 99cf 7a3e bcca dfbb 69bc f1bd
00000240: f47a e23d 613f 76be ff06 46be 6965 3b3e
00000250: 765e bc3c ac6a 3a3e 3ada 183f 4b4e 6f3e
00000260: fe79 e13c aa86 8bbe 4c84 c9bd 49db 4abe
00000270: ca52 25bd e14e 383e 0319 22be 0b09 af3e
00000280: dfaf 41be b7d4 f13e 1281 553e b490 353e
00000290: 62cb 2f3c b286 71bd 68b4 c63e 7b05 49bc
000002a0: b012 dfbd 5f49 bd3d 00a5 e63d c5ff 20bd
000002b0: bbdd bdbd 0357 183c ec17 183e cf5a 80bc
000002c0: 9791 90bd 3fb7 283e bad3 653e 4371 d8bb
000002d0: a1c9 433d 11b8 703e b95e 8d3e ad60 063f
000002e0: 885d 923e 5f0a 9ebc 1ca8 90be 5b7a 91bc
000002f0: 2462 22be fd82 aa3d 059c 033c 47d9 96bd
00000300: b813 43be a76e 6abe 4acf a23e 7094 5abe
00000310: 1d82 433e c433 b63e c2dc f8bd 5431 2dbd
00000320: 9523 1b3e 107a 37bd 322b f43c 4346 9a3e
00000330: fd06 39be 0845 c83e 44cc d73e 2141 263e
00000340: 6aa3 ba3d ee9d 803c c17c 3dbe 0246 cb3d
00000350: 8fab 4bbe 6fae 993d c420 0dbe d129 923e
00000360: d1df 9fba 196c 0dbe 145b 0cbd 4338 9c3e
00000370: 5baf 8a3c 72f2 213c 9bd7 cb3d c2db 843e
00000380: 192f d4be 8bdc 9b3e 9a82 b43e f428 a9be
00000390: 487b 1abe 7a8c 30bd 3524 363d 0298 b33e
000003a0: 1706 0cbe 635e 35bc d131 5ebd d63b c3be
000003b0: 8269 21bd d5cb 1f3e 6c7b 013e cb7b 49be
000003c0: 542c b83d 3727 133e a656 243d c842 783c
000003d0: 3649 44bd 6f85 3c3d 722b 8cbc 0df5 723e
000003e0: 65b7 9dbe 67d9 88be cffc a5be e34a b8be
000003f0: 57c0 ae3b 0502 a7b7 23be cfbe 0e6a 543d
-0.11622122 0.041900683 -0.070580386 0.0785063 -0.30136767 -0.15437828 0.08149789 0.1547022
0.23414688 0.11024991 -0.13422935 0.11042346 0.16656497 -0.0004674072 -0.32753113 0.18142833
-0.095930435 0.15879154 0.23831432 0.011626563 0.022778755 -0.045929912 -0.0143744135 -0.3117381
0.07525245 0.096151285 0.39164466 -0.06586927 -0.25184482 0.0691532 0.047538523 0.39738324
0.1968418 -0.06948083 -0.09937544 0.082157336 0.012375967 0.24865088 -0.044961073 0.18502523
0.21087584 -0.23208009 0.15916839 0.08310213 0.13405363 0.18690991 0.008509796 0.03800101
0.1507065 0.4537254 0.20919487 0.058049634 -0.056642894 0.21528268 -0.068630844 -0.0800748
-0.05659912 0.13601324 -0.13443364 -0.21872671 -0.08304176 0.049000528 -0.013008094 0.30856654
-0.041501574 -0.22329748 -0.16222529 0.07199834 0.5736105 0.1981446 0.102096535 0.30637905
-0.31050363 -0.056311574 0.41541 0.30955392 0.023296826 -0.04340358 0.052222587 -0.18816839
0.0315465 -0.110447854 -0.0033040263 0.1054434 0.3267445 -0.046937477 0.06579008 -0.024406917
-0.09991988 -0.27515647 0.153487 -0.40411603 -0.5624759 -0.23055269 0.2738675 0.19034846
0.058346722 0.02579788 -0.026719002 -0.0330471 0.10150177 -0.22651675 0.37782767 -0.28596875
0.0645647 0.16220903 0.36007008 0.06300084 0.40700608 -0.097953014 0.167947 -0.10413828
0.10402511 0.060955245 -0.04236829 -0.5307598 0.015877219 0.13702017 -0.5311397 -0.015731424
0.48355284 0.11733712 0.0003212693 -0.061938297 -0.118556365 0.2642727 0.015179278 -0.047460184
0.29453352 0.04543335 0.03497572 0.025423639 -0.43264294 -0.3396169 -0.10168 -0.118546925
0.34829903 -0.057777002 -0.23856618 0.011482993 0.101609156 0.24493255 -0.0068295877 -0.118035145
0.11058608 -0.24047615 -0.19338606 0.18300404 0.022994261 0.18204755 0.5970799 0.2336971
0.02752399 -0.27251178 -0.09839687 -0.19810213 -0.040362157 0.1799884 -0.15829854 0.34186587
-0.18914746 0.472326 0.20850018 0.17730981 0.010729643 -0.058966346 0.38809514 -0.012269373
-0.10892236 0.0924251 0.1126194 -0.03930642 -0.09270807 0.009298089 0.14852875 -0.0156683
-0.07059019 0.16476153 0.22444049 -0.0066052987 0.04779971 0.23507716 0.2761133 0.52491266
0.28586984 -0.019292055 -0.28253257 -0.017758539 -0.1585775 0.08325765 0.008032803 -0.07365661
-0.19050491 -0.22893773 0.31798774 -0.21345687 0.19092603 0.3558637 -0.12151481 -0.04228337
0.15150292 -0.044794142 0.029805753 0.3013173 -0.18069072 0.39115167 0.4214803 0.16235782
0.091132 0.015700307 -0.18504621 0.09925462 -0.19889663 0.07503974 -0.1378203 0.28547528
-0.001219744 -0.13810767 -0.034266546 0.30511674 0.01692932 0.009884464 0.09953233 0.25948912
-0.41442183 0.30441698 0.3525589 -0.33039057 -0.1508609 -0.04310272 0.044468123 0.3507691
-0.13674198 -0.011069867 -0.054246727 -0.3813159 -0.03940726 0.156051 0.12644738 -0.1967613
0.0899283 0.14370428 0.040121697 0.015152641 -0.047921382 0.04602569 -0.01711056 0.23726292
-0.3080398 -0.26728365 -0.3241944 -0.35994634 0.0053329873 -1.9908892e-05 -0.4057475 0.051858954

feature.2.bias f4 [256]
00000000: 9c06 933d 5614 14be 9bba f4bd 7726 f93d
00000010: 0541 84be 371a 2c3c b25a 563d dc8f fd3d
00000020: 5bc5 4f3d c146 c2be b40f 4d3e ba90 593d
00000030: 1718 c33d ea81 0c3f b6ef 243f 13e0 13be
00000040: fc18 82be 091a 94bd bbb9 09be 4b48 563e
00000050: c88e d2bd 3ad3 2fbe 7d48 0fbf 6c77 783e
00000060: fd49 afbe f397 733d 1348 81be 1af0 8cbe
00000070: b873 ce3d e362 21be 7a94 573f 9a45 203e
00000080: 3e02 e13d 8fa4 d5ba 8cd4 e13c 9ad2 e2bc
00000090: 9932 df3e 5660 183e cbb0 5bbe 2701 9dbe
000000a0: 4af8 8f3d f5d9 59be ea25 72be 37c3 76be
000000b0: 0d91 86be b3d7 b3bd 3628 273e 805d 36bd
000000c0: 3c7f 26be 04d8 55be 676b b93d 9370 363e
000000d0: 80a8 50be 6983 863d 1616 21bd 1368 f33b
000000e0: b11d d03d fa19 bcbe 0e4e 54bd 5d48 7d3d
000000f0: 09de 413d b131 cdbd 473c 5ebe c77f adbc
00000100: ac20 85be 142f 5b3e 42e7 383e 8350 393f
00000110: 07a8 f43e 1a3c 99be 21c1 dcbe cb62 6d3b
00000120: e73a f23d ec5d a1be 9f56 743e 7a0f 0d3e
00000130: 7804 bcbe 11d4 8dbe db9d 303d f267 133e
00000140: c18c 1e3f 21fd e5bd 0677 e63d 02a7 dfbe
00000150: 2fa8 1a3e 1685 c73d b795 9abe 963a 113e
00000160: c997 2f3f 29ae 963e 8c77 8cbe 4389 da3d
00000170: 2a81 16bd 6d3b 00be 405f 5bbe eb65 043f
00000180: 5a3f 043f f112 42be a901 fb3e 1ec5 583e
00000190: 275a 873c 68a3 23bd 4191 eebd cb59 e5bd
000001a0: 45f5 89be 502d 6fbe 77a3 1b3e 1f7f fb3d
000001b0: 7a75 d2be f675 853e fbd5 9b3c 8bdf 233d
000001c0: a927 2abe 66cb 87be ea66 88be 2639 5b3c
000001d0: cb66 ef3d 7301 06bf 13be 2d3e 79f0 2fbe
000001e0: 96f2 5c3d f84e 9d3c 9d48 803e 9556 a2be
000001f0: 4968 cf3d f1d2 bebd f9b5 c4be fb03 67bd
00000200: 3d2a 26be e149 363e 89a6 79bd 8147 8ebd
00000210: e032 9d3d 79dc f83d ef96 bd3d bd43 683e
00000220: cb06 523e 1204 e73e f156 513e 7ea2 8dbe
00000230: d972 3d3f 7aae 713d edad b1be 1ff9 cebe
00000240: 29a5 893e a28c 5f3d 9617 853d e281 38be
00000250: 772a d8be 55a5 253e f1a6 e53c 2f11 57bc
00000260: ac6c 24bd c498 e5bc 89ee 8d3d fe73 87bd
00000270: 8875 923e a1ec 263f 4851 dc3d d311 89be
00000280: 2581 003e d13d 853c 63ab d0be 4a42 30be
00000290: e0de 50bd cd6c 8fbe cab2 693e 0160 e7be
000002a0: 290c 4f3e 785e 2e3d 66cd 2bbd 9deb 943e
000002b0: 0b6f 173f 9a48 96be 6086 34be 5d8e d43d
000002c0: e596 643e 5cd3 b73d 88eb 073e 97e9 8d3d
000002d0: d7fb 803d e3e7 5c3c 92ac b6be bd2b 2a3e
000002e0: d125 babe de23 ff3e 26a4 b03d 2ee5 cabe
000002f0: 98c1 babd 9ff1 b53d a0cf e73d a6b2 c13d
00000300: 652b 163e 1280 b6be baed f4be 1ac7 2f3e
00000310: 6eb5 8bbe 542d 0ebf d8f6 323f 0a43 a6be
00000320: 35c6 183e 6f20 d8bd a381 08bd afad 163f
00000330: 0094 fdbd 6b52 bd3d c474 89be 85b5 433f
00000340: 7dba 163d 1c4b 9ebe 2982 fe3e de7d abbd
00000350: e21d 8f3e 4614 093e b145 06bd 368d 40bd
00000360: 0bbe 12bd d346 b93d a79e 0fbe f8d9 833d
00000370: 1e2a 6a3e b92c 5e3e 58a1 e33d 648d 18be
00000380: 3716 293f d2f9 e13c 7b85 81be 0fdd 9c3c
00000390: 1965 683e 5e95 493e b3b7 383d e9e8 bbbe
000003a0: f3da 85bd 796d 8d3d f4c1 913e 5f82 223f
000003b0: b9fb 23be c3cc bc3e e4d7 50be 9a39 503d
000003c0: 3bcf 943e 9802 4e3c 336c 44be 0d27 1b3f
000003d0: e0cb 99bd 0428 bdbe 6bb9 60bc d0bf 6ebe
000003e0: a114 5a3e 278f 2cbe 1427 02bd 476d c3bc
000003f0: c9e3 953c 1566 213d c95f 29be c1d9 113d
0.07178995 -0.14460883 -0.11949655 0.1216554 -0.25830856 0.010504297 0.052332588 0.123809546
0.050725322 -0.37944606 0.20025522 0.053116538 0.09526079 0.54885733 0.6442827 -0.14440946
-0.25409687 -0.07231528 -0.13449757 0.20926015 -0.102811396 -0.1717042 -0.55969983 0.24264306
-0.34236136 0.059471082 -0.252503 -0.27526933 0.10080665 -0.15760379 0.8421093 0.15651551
0.10986756 -0.0016299653 0.02756717 -0.027688313 0.4359329 0.14880499 -0.2145416 -0.30664942
0.07029779 -0.2127455 -0.23647276 -0.24097906 -0.2628254 -0.08781376 0.16323933 -0.044522762
-0.16259474 -0.20883185 0.090536885 0.17816381 -0.20376778 0.06568033 -0.039327703 0.007428178
0.10161913 -0.3673857 -0.05183225 0.06183659 0.04733089 -0.100192435 -0.21702681 -0.021179093
-0.2600149 0.21404678 0.18056968 0.72388476 0.47784445 -0.29928666 -0.43116096 0.0036222215
0.11827641 -0.3151697 0.23861168 0.13775435 -0.3672216 -0.27700856 0.043119293 0.1439512
0.61933523 -0.11229921 0.11253171 -0.43682104 0.1510322 0.09742181 -0.30192348 0.14182505
0.6859098 0.2942975 -0.27434957 0.10670712 -0.036744274 -0.12522669 -0.21423054 0.51718014
0.51659167 -0.18952538 0.49024704 0.21168944 0.01652248 -0.03995076 -0.11648799 -0.11198767
-0.26944938 -0.23357129 0.15199076 0.12280106 -0.41105253 0.2606656 0.019022932 0.04000811
-0.16616692 -0.26522368 -0.26641017 0.0133803245 0.11689528 -0.5234596 0.16967039 -0.17181577
0.053942285 0.019202694 0.250554 -0.31706682 0.10127313 -0.09317578 -0.38420084 -0.05640028
-0.1622705 0.1780162 -0.060949836 -0.06947232 0.07675719 0.12151427 0.09257304 0.2268209
0.20510404 0.45120293 0.20443322 -0.27663034 0.7400337 0.059004284 -0.34703007 -0.4042444
0.2688382 0.054577477 0.06498639 -0.18018296 -0.42219898 0.1617635 0.028033705 -0.0131266555
-0.0401427 -0.028026946 0.069302626 -0.06613921 0.28605294 0.6520482 0.10757691 -0.2677141
0.12549265 0.016264828 -0.40755758 -0.17212787 -0.0509938 -0.28012696 0.22822109 -0.45190433
0.20219482 0.04257056 -0.04194393 0.2908601 0.59153813 -0.29352266 -0.17629385 0.10378716
0.22323187 0.089758605 0.13273442 0.06929319 0.06298035 0.0134830205 -0.35678536 0.16618247
-0.36356977 0.49832052 0.08625059 -0.39627975 -0.09118956 0.08883976 0.11318898 0.094579026
0.14664991 -0.35644585 -0.4783762 0.17165795 -0.27286857 -0.55537915 0.69907904 -0.32473022
0.1491936 -0.10553061 -0.033326756 0.5885877 -0.123817444 0.092442356 -0.26846898 0.7644885
0.036798943 -0.3091668 0.4970868 -0.08373617 0.27952486 0.1338664 -0.032781307 -0.04700967
-0.03582577 0.09046712 -0.14025365 0.064380586 0.22867629 0.21696748 0.11114758 -0.14897686
0.6604952 0.027584944 -0.2529715 0.019148378 0.22694816 0.19685885 0.045097064 -0.36701134
-0.06535902 0.06905646 0.28468287 0.6348018 -0.16013993 0.3687497 -0.20394856 0.050836183
0.29064354 0.012573861 -0.191819 0.6060646 -0.07509589 -0.36944592 -0.013716082 -0.23315358
0.21296932 -0.16851483 -0.03177555 -0.023855818 0.018297093 0.039403994 -0.16540445 0.035608057

value_stream.0.weight f4 [256, 256]
00000000: 45a5 19bf 38e0 3fbe 9874 61be 6681 48bf
00000010: 069d 81bd 6f0d 81bd eb68 73bf f687 b7be
00000020: 89d7 0abf 1c18 ccbc c3b5 ed3d 8eee 36be
00000030: da48 0fbe d1cb 073f d9b2 a93e 0374 113e
00000040: 687b b33d a7ae 39bf 2589 fcbd 0fb3 d6be
00000050: f609 c5be 4370 83be 188a 563c ee10 a2be
00000060: 45ff f0bc 4fd4 a8bd 1df5 98bd 5f99 13be
00000070: bf24 92be 962e 89bd 2084 4a3e f8e7 123e
00000080: 5942 63bd 64e7 133e d2c6 84be 1b28 7dbe
00000090: 2015 723e 7e66 01bf 011f 30be ac5e a9be
000000a0: 6d7f 87be 552e 3dbd 728f 31be e268 99be
000000b0: dc5b 97be ea76 10be 15ae e43c 9dac 9ebe
000000c0: 10e0 b1be ef79 c23c f888 58be b2e7 f1be
000000d0: 0bf1 7ebe 4163 6bbe 11bc f2be 8adb 1c3e
000000e0: 5eb6 99be 3244 62bd 3f31 34be 0f83 8cbe
000000f0: 354b 37bf 508e 04be a50a dbbc 0bcf 483e
00000100: 0b55 863d 2622 66be 0265 d8be 8302 f03d
00000110: b32a c43c 2cd0 8ebe cca3 cebe 9e93 14bf
00000120: cd67 06bf 395f 8fbd bb79 a53d 3c1a 35be
00000130: 42c6 0abe b708 11be b320 28bf 058c 98be
00000140: 5fdf 083e 877d 7fbe 111a b7be a9d3 693d
00000150: b1c7 16be b358 b23d 439a 35be 96d0 2abe
00000160: 9b21 b93c 7f8b 593d d02f 323d c2bc d8be
00000170: 3d8f 78be f954 57be 891b f33c c92a 313d
00000180: 0e68 433d 0b25 c03d 8e5f 5b3c dd01 8cbe
00000190: 6be4 87be ef21 1c3d ac51 743c 3c4f 38bf
000001a0: ebed debe 86a0 ac3c f689 97be 7cb5 12bf
000001b0: f53b 5cbd 4501 5e3e 334d a7be ebe8 e6bd
000001c0: 7e63 9dbe 2f57 03be ba31 4ebd 4054 a6be
000001d0: ff7f a1be c794 9bbd aee5 86bd deca 35bd
000001e0: 1f02 53be d593 003d 8d52 04bf 6c01 61bf
000001f0: 9d07 e5bd dbb6 4dbe 1082 a8be 1d40 30bf
00000200: bb82 c1be ce9b a33d cb36 3dbe 1426 bbbe
00000210: 6cf2 d3be 12a9 2cbf eb49 bdbe 7c69 26bf
00000220: 7dc6 443e 16d9 243e 3844 663e b594 453d
00000230: f91f 2f3d e978 72be 1f37 12be 5631 c9bd
00000240: 1215 9abe 11a6 64bd 8cbc 0dbf 7694 913c
00000250: 7224 2bbe c2ac 31bf f4e6 d3be 00a5 06bf
00000260: 20e2 3cbe 2193 003d 28bb 6f3e 83e6 10be
00000270: baeb 1cbf 5244 953d 96c4 f4bd dfcf 87bd
00000280: 40e1 bcbe 3aab eebe 60cf efbc 36c4 4a3d
00000290: 52a7 f2be 16dd 763d ee23 77bc aee0 db3c
000002a0: 117a 1bbe 8366 46be 8d9e a6be ffa6 a9bc
000002b0: 1ab4 1a3e 0cee 7cbe 9163 70be 0d1e 76be
000002c0: 5970 12be 9e8a 66be 1fe9 a1be d4f2 80be
000002d0: b819 15bd 300e 603e c1f4 84bd e1ae 1ebf
000002e0: df25 bebe d555 8a3b 3d0c 15be 60ec 0fbd
000002f0: 87ec 4ebe 6a76 79be d357 fb3e 521a f6be
00000300: 97d4 67bd c346 71bd 79a5 c2bd c26b 273d
00000310: fd9f 68be a384 94be 42bf 1b3d d07d cb3a
00000320: d3c2 c2be 7551 b73c 3996 13bf a6ba d7bc
00000330: ae2c 48be 1749 eabe b1a3 4dbe 4992 383e
00000340: 0ae4 153d 244d 20bf a2ff 003f e8a5 a8be
00000350: cd01 50bf 20c7 a43d 043e b73c e2a9 abbe
00000360: 7eed dc3d ed75 86be 7ed0 acbe 1f95 30be
00000370: 14c9 00bf 2b95 77bf 410a cabe 92e1 b13c
00000380: 5e9e f43d 35f2 a93c 504b d6bc c516 c1be
00000390: e60a 88be 1ad4 32bf 2945 e0bc 7907 31bf
000003a0: ee2e 4abe 8a70 96be 6c6a 18bf 4aeb 36bd
000003b0: 81bf 58be 5ff2 943e 715f 88bd 11db 95be
000003c0: 20f5 98be 9089 3bbe 68ed 23bc 54d1 a83e
000003d0: b986 1fbf 455c 2cbf fc1f 3fbe 8af5 a7bd
000003e0: 175a 07bf 7f13 38bd 6523 08be 1520 073d
000003f0: 356a 96be 336a 1abf 5deb 06bf 5015 54bf
-0.60017806 -0.18737876 -0.22017133 -0.78322446 -0.06328778 -0.063013904 -0.9508197 -0.35845917
-0.5423513 -0.02491384 0.11606934 -0.17864439 -0.13992634 0.53045374 0.33144262 0.14204411
0.08763772 -0.72532123 -0.12330846 -0.41933486 -0.38484162 -0.25671586 0.013094448 -0.3165354
-0.029418597 -0.0824362 -0.07468627 -0.14413975 -0.2854366 -0.06698339 0.19776964 0.14346302
-0.055483196 0.14443737 -0.25932938 -0.2472233 0.23640871 -0.50547016 -0.17199327 -0.3308004
-0.26464406 -0.046186764 -0.17339876 -0.29962832 -0.2956227 -0.14107862 0.02791504 -0.30991068
-0.3474126 0.023739783 -0.21146 -0.47247082 -0.24896638 -0.22987081 -0.47409108 0.15318123
-0.30021948 -0.055240817 -0.17596911 -0.2744374 -0.7159913 -0.12944913 -0.026738474 0.1961023
0.065591894 -0.22473964 -0.42264563 0.11719229 0.023946142 -0.27893198 -0.40359342 -0.58037746
-0.5250214 -0.07000584 0.08079859 -0.17685789 -0.13552192 -0.1416348 -0.65674895 -0.29794326
0.1336646 -0.24950229 -0.35762075 0.05708662 -0.14724614 0.08708324 -0.17734627 -0.16681132
0.022599032 0.05311155 0.04350263 -0.4233151 -0.24273391 -0.21028508 0.029676216 0.043253694
0.047706656 0.093820654 0.013389481 -0.27345172 -0.26541457 0.0381183 0.01491205 -0.719959
-0.43540892 0.021072637 -0.29597443 -0.57308173 -0.053768117 0.21680172 -0.32676086 -0.11274894
-0.3073997 -0.12826227 -0.05034039 -0.32486153 -0.31542966 -0.075967364 -0.06586777 -0.044382922
-0.20606278 0.031390984 -0.5168846 -0.87892795 -0.11183093 -0.20089285 -0.3291173 -0.6884783
-0.37795052 0.07988702 -0.18477933 -0.3655249 -0.4139589 -0.6744548 -0.36970457 -0.65004706
0.19216342 0.16098437 0.22486961 0.04823752 0.0427551 -0.23678936 -0.1427884 -0.09823863
-0.300942 -0.055822436 -0.55365825 0.017770987 -0.16713122 -0.6940423 -0.4138714 -0.5259552
-0.18445635 0.031390313 0.23411238 -0.14150433 -0.6129719 0.07288422 -0.11951558 -0.06631445
-0.36890602 -0.4661501 -0.029273689 0.049503528 -0.4739328 0.060269438 -0.01508425 0.026840534
-0.15183283 -0.19375043 -0.3254284 -0.020709513 0.15107766 -0.24700183 -0.23475482 -0.24034901
-0.1430067 -0.22513816 -0.3162317 -0.25185263 -0.03640148 0.21880412 -0.064919956 -0.61985594
-0.37138268 0.0042216578 -0.1455545 -0.035137534 -0.20207416 -0.24361578 0.49090442 -0.48066956
-0.056599226 -0.058905374 -0.09504218 0.04087425 -0.2271728 -0.29007444 0.038024195 0.0015525166
-0.38039264 0.022377709 -0.57651097 -0.026334118 -0.19548294 -0.45758888 -0.20081975 0.18024553
0.036594428 -0.6261771 0.50390065 -0.32939076 -0.8125275 0.080457926 0.022368439 -0.33528048
0.107874855 -0.26261845 -0.33752817 -0.17244385 -0.5030682 -0.9671199 -0.39460948 0.021714006
0.11944269 0.020745376 -0.026158959 -0.37712684 -0.26570815 -0.6985489 -0.027376728 -0.6915203
-0.19744465 -0.29382735 -0.59537387 -0.044657983 -0.21166803 0.29091164 -0.06658829 -0.29268697
-0.29874516 -0.18314195 -0.0100053325 0.32972205 -0.62314945 -0.6732829 -0.18664545 -0.0820113
-0.5287184 -0.044940468 -0.13294752 0.03298958 -0.29377905 -0.603183 -0.52702886 -0.8284502

value_stream.0.bias f4 [256]
00000000: 6606 f23e 94b3 b73e 4d94 f3bc 552b ee3e
00000010: 7a01 7c3d c589 d53e 3d3c 883e 1714 2b3e
00000020: cb14 8e3e 6c49 28be 46ae d4bd 91b6 133f
00000030: c006 453e 6fdd 943e 23c8 8a3e d7b0 78bd
00000040: c2cf bb3e 4978 023f 13d3 b6be 2d11 4d3d
00000050: 1593 e8be 7e38 74bd 965e bebe 3906 883d
00000060: f2e8 97be a51f a23d 6a52 783c ee33 e93e
00000070: 9710 8bbd b20e ed3e e463 3f3e e8bb c93e
00000080: fcac f23d 8f87 4f3c c580 40bd 3c87 e4be
00000090: c16a 963e 06de 66bd 5206 be3e a95c 063f
000000a0: 619b cd3c c2b2 febc 34c9 8a3e 8e8f b3bd
000000b0: a98a 423e a5c4 9d3e c8c0 cc3e 3d41 2c3e
000000c0: f8a0 6f3e edcf 9f3d b34c 013f 874f c43d
000000d0: ecd6 6fbe 0bac 4d3e 8253 69bd 3cf0 773e
000000e0: 4a12 8ebd 85cf 0d3f db00 6f3d 9564 a83d
000000f0: fa67 6a3e 3280 f63e c684 2cbc 70ce bf3e
00000100: 0a7b 5fbc 29b9 a43b 8c07 873e d924 e83e
00000110: fe89 e0be 88d1 b63d 4837 623e 433b 193e
00000120: 1545 a33e b2be 5ebe b593 fc3c 9d81 a13e
00000130: caf4 0e3f cc72 af3e ea99 6bbc 5d75 3d3f
00000140: 9f3d 203e 7193 033f 4447 41bd 77d3 af3d
00000150: bfd2 493e a744 403e 0379 d6be 06c1 033f
00000160: 9792 4a3e 0965 e0be 0065 0d3e 2244 c53d
00000170: de26 5b3d f03d 983c 1c55 a53c 46b3 edbc
00000180: a30a 8c3e 0805 c5be d7fb d63e 0f35 103f
00000190: 1cd6 a5bd 4657 3abb e528 973e 906a d33e
000001a0: c6d1 6c3d 127c 023f 0007 693e c370 bc3e
000001b0: c15f 833e 6801 f2bc 97ab 183f 9e77 a73e
000001c0: 2da8 123e 056c fe3e 9231 863e ec03 2fbe
000001d0: c736 263d add9 9c3e e357 71bd 2339 073d
000001e0: 1a16 173f e0d6 eb3e 1616 00bf bb59 943b
000001f0: 3009 b63e 1721 a53e 0707 81bd 7952 35be
00000200: c13f f53c 4c75 3c3c eb3d 0b3e dd3d 843e
00000210: d9b5 093e 77bd cd3e a35e ac3e dba0 863e
00000220: 882e 03bd 6791 0c3e 75bb 5f3e 05fb ac3e
00000230: a742 c63d 8e10 3f3e 27e1 8abd 596e 90be
00000240: 7e73 303d 80b6 2d3f d364 6fbe 114d bc3e
00000250: bc34 f5be 8999 ab3e ff43 d93e 2741 9c3e
00000260: 0e69 7e3e fd4e 4f3e 185e 723e c43e 363e
00000270: 4a37 b93d 8ea7 bf3d fc6e 063e 9f8d 56bd
00000280: 8fc9 40be ac8f e03e d569 483d c9ce a43e
00000290: 7691 bf3e 1426 e53e 9020 073f 0756 013f
000002a0: 65dd fa3e dc3b cc3e 9d20 c63e 6864 803e
000002b0: d2fd a83e edb4 b73e 8f82 6b3d a091 a13e
000002c0: 9da2 eb3d 8da4 ec3e 4e6a bdbe 0394 8e3e
000002d0: c825 8a3e 0264 fa3e 1155 33be 880b 48be
000002e0: 16c4 d23e 4d61 fe3e 460f e33d d761 ab3d
000002f0: 5b1b 1ebe b1af cd3e 5b40 bcbd b62f ff3e
00000300: 3e54 8d3e 727c f13e fc38 2d3e 65f5 103e
00000310: 5ae2 c6bb 723f ebbd 505b ec3e 6051 3d3e
00000320: fa5b 1b3f a675 7c3d ecbc 003e e050 933c
00000330: 3097 4e3e b466 d33e fd70 273e 2dab 913e
00000340: c3ce cf3e f80c 2dbd f599 643e e21c 1a3d
00000350: 1b77 343e cc30 9cbe 2a5b 333e 15fc 4d3e
00000360: 094c cabd e2ed c63e 78bf 583e 120c 8c3e
00000370: 33eb 843e 33b5 0d3f 3ad4 143f 8ba4 90ba
00000380: c6e5 5e3e d168 f73d bea4 31be d8f8 4bbe
00000390: 6dad 0a3f ca10 4d3e 17fc a43e 7784 28bd
000003a0: 9f13 9f3e 739d 953e 90f5 e1bd 4dd4 0e3f
000003b0: e3e5 d83e 6aa7 c93e 29b2 d23d e10b 173f
000003c0: 05a3 d4bd 0639 db3d b312 a13e f299 f63e
000003d0: c61e b73e 71a3 62be 7a59 373e d354 c03e
000003e0: cef4 b73e 395a d33d 0b88 003f 3d64 963e
000003f0: 62cc f93b fdee a53e c3a1 ed3d 82e7 ca3e
0.47270507 0.35879195 -0.029733801 0.46517435 0.061524846 0.41706672 0.26608458 0.16706882
0.2775024 -0.16434258 -0.103848025 0.5770045 0.19240856 0.2907519 0.27105817 -0.060715523
0.36681944 0.5096479 -0.35707912 0.05006521 -0.45424715 -0.059624188 -0.37181538 0.06641812
-0.2966991 0.07916192 0.015156368 0.45547432 -0.06790274 0.46300274 0.18690449 0.39401174
0.118494004 0.012666597 -0.046997804 -0.44634426 0.29378322 -0.05636408 0.37114197 0.5248514
0.025098504 -0.031091098 0.2710663 -0.08767615 0.18998207 0.3081409 0.3999083 0.16821761
0.23401248 0.078033306 0.5050766 0.09585481 -0.2342183 0.2008516 -0.056964405 0.24212736
-0.06937082 0.55394775 0.058350425 0.082223095 0.22891226 0.4814468 -0.0105297025 0.37462187
-0.013640175 0.0050269556 0.26372945 0.45340613 -0.4385528 0.08926684 0.220914 0.14964013
0.31888643 -0.21752432 0.030832151 0.315442 0.5584227 0.3426727 -0.014379958 0.7400721
0.15648507 0.5139685 -0.047187105 0.085852556 0.197093 0.18776189 -0.418892 0.51466405
0.19782482 -0.43827084 0.1380806 0.09632136 0.053503864 0.018584222 0.020182185 -0.029016148
0.27351865 -0.384804 0.41989014 0.5633096 -0.08097479 -0.0028433367 0.29523388 0.41292238
0.057817243 0.50970566 0.22756577 0.3680478 0.25658992 -0.029541686 0.59636825 0.32708448
0.14321966 0.49691787 0.26209694 -0.1709134 0.040579583 0.30634823 -0.058921706 0.033013474
0.590181 0.46062374 -0.500337 0.0045272983 0.35553885 0.32251808 -0.063001685 -0.17707242
0.029937627 0.011502575 0.13597839 0.25828448 0.13448276 0.40183613 0.33665952 0.26294598
-0.032026798 0.13727342 0.21848853 0.33785263 0.09680682 0.18658659 -0.06781226 -0.2820919
0.043078892 0.678566 -0.23378305 0.36777547 -0.47891796 0.33515576 0.4243469 0.30518457
0.24844763 0.20244975 0.23668706 0.1779738 0.09043749 0.093581304 0.13128275 -0.052381154
-0.18826889 0.43859613 0.048929054 0.32189015 0.37415665 0.44755614 0.5278406 0.5052189
0.48997036 0.3988942 0.38696757 0.25076604 0.3300615 0.35880223 0.057497557 0.31556416
0.115056254 0.46219292 -0.36995167 0.278473 0.2698195 0.48904425 -0.17512919 -0.19535649
0.41165227 0.4968361 0.110868976 0.08368271 -0.15440123 0.40173104 -0.09191962 0.49841088
0.27603334 0.47165257 0.16916269 0.1415611 -0.0060694637 -0.114867106 0.46163416 0.18488073
0.6068722 0.061635636 0.12572068 0.0179829 0.20174861 0.41289294 0.16351695 0.2845091
0.40587434 -0.042248696 0.22324355 0.0376252 0.1762356 -0.3050598 0.17515245 0.20115693
-0.09877784 0.38853365 0.2116679 0.2735296 0.25960693 0.55354613 0.5813633 -0.0011035366
0.21767339 0.12080539 -0.17348 -0.19919145 0.54170877 0.20025936 0.3222358 -0.041141953
0.31069657 0.29221687 -0.110331655 0.55792695 0.4236289 0.3938554 0.102878876 0.590025
-0.10382656 0.10704236 0.3145958 0.48164326 0.35765666 -0.2213266 0.17905226 0.37564716
0.3592896 0.10319943 0.50207585 0.2937335 0.0076232413 0.32408896 0.11603119 0.3962975

value_stream.2.weight f4 [1, 256]
00000000: 2dbe 8b3e e1e1 5bbf b6c6 6a3f b58e 80bf
00000010: c286 23bf 7e51 4dbf 747e 48bf c068 f03e
00000020: b692 29bf a86b 8bbf e663 2dbf 86fc 5fbf
00000030: a456 763f cb22 6dbf 6d0c 163f f8a5 e73e
00000040: 160a e03e eee2 ce3e 31e3 74bf 681b 923e
00000050: 50c6 50be 27d8 c4bf 1107 51be ea99 753f
00000060: 46b3 87be cdf7 e13e f847 ef3e 1c14 83bf
00000070: 9075 753f cce8 8f3e a93c 563f f844 43bf
00000080: ef89 533f 45e7 0d3f cddf e43e aa77 2bbe
00000090: 9db9 ec3e f92a 913f 46fa b0bf 1bdc 6cbf
000000a0: 013a e83e 364f 163f da40 5abf 2208 c0bf
000000b0: 50db 1b3f abe3 35bf 6214 c83e bf6f 603f
000000c0: 8936 6ebf c665 d73e c8ff 093f 15c3 713f
000000d0: 348d 85be f5e0 673f 7b1c babf 45de f83e
000000e0: dc74 013f 9fbe 85bf 32b3 9c3f 566c 903f
000000f0: d66d 783f 81b1 c4bf 685e 0a3f d4fc 98bf
00000100: be22 c4bf 1730 1a3f e44a 123f 0b4d 7cbf
00000110: 3f55 39be 021a 8e3f 0d0c bd3e 8330 d13e
00000120: 15fb 013f 11dc 5dbf a21a 983f d860 65bf
00000130: 1e3a 5dbf 55f5 7fbf ab00 bfbf da19 a9bf
00000140: ed64 66bf 47fb b63e 783d 933f 43ca d63e
00000150: d75b 1cbf e243 653f 45d5 28be e2ee b33e
00000160: 7b1f b33e 7c09 3bbe 425c 673f b346 8fbf
00000170: 3849 df3e 5a75 513f b6a7 f73e cd7d 063f
00000180: 336d 2e3f 8756 29be 8916 f83e 9181 bfbf
00000190: ec53 2dbf 5b62 fe3e c0c2 73bf 5496 f43e
000001a0: cc31 fd3e 60ae cbbf 332d 4fbf 6976 ce3e
000001b0: a53d 85bf 7975 c4bf 2e3a c7bf 0a9c 2f3f
000001c0: 9ba0 963e 3495 5ebf 415f 7c3f a465 79bf
000001d0: 611b 403f 12f1 9cbf c76d 5abf 657b 0dbf
000001e0: 59ef 74bf 3b54 79bf f2ee b2bd 2af7 713f
000001f0: d778 7cbf 1f37 21bf f126 f83e 20e4 75bf
00000200: e78e 2a3f 320a a1bf c008 0e3f 7491 863f
00000210: c71f 913f a83e 7ebf 2d23 8dbf 80f0 c43e
00000220: d47c 6b3f 3e83 8c3e 257e 71bf f08e e23e
00000230: 7f7a fa3e a6cd cf3e a511 bbbf 025e 9cbf
00000240: d201 8f3f 606f bebf 48ec 95bf fecf 4ebf
00000250: 68a5 5abe 1308 92bf f4d7 43bf 7fd5 64bf
00000260: 7e0f 853f 3195 763f 750c 5d3f b10d 1d3f
00000270: edbb 8f3f 7a08 7f3f 9c53 b33e dcfd 133f
00000280: f78e 7abf 71ab dc3e caf5 6a3f 063b 9ebf
00000290: f9b2 babf 61ba 6cbf c4bd c3bf 1d0f d7bf
000002a0: 0288 a53e 392a 52bf beee 9e3e adcf 65bf
000002b0: 5e06 60bf 3a9f 71bf eaed e7bf 84aa 223f
000002c0: 6616 533f 8b58 963e bb67 41be b5bf 85bf
000002d0: 5eb6 023f 6de1 6d3e 5845 86bf 3a3c 53bf
000002e0: 17b8 83bf 282b 013f f5b5 583f b997 30bf
000002f0: 3841 98be e6ec 87bf 4049 9abf dc0a d1bf
00000300: 7d36 123f 2f6c ae3e 3d29 893f c970 ec3e
00000310: 82b8 9b3f 16af b7bf 004b 7bbf 46da 843f
00000320: 1e74 64bf 4207 573f 4a3d 8f3f 5e1b 943f
00000330: 2fc5 673f 2f0d 98bf 4bb1 873f e7a4 80bf
00000340: 7982 bb3e b6cc c0bf 63fb 623f 8892 0f3f
00000350: ca3a 4bbf d5b0 38bf 1be1 84bf 1b22 d8bf
00000360: 3006 623f f6a3 95bf 9976 49bf 1040 4bbf
00000370: 79d5 52bf 65df d43e 79db 75bf 6bef babf
00000380: ccbe 2b3f dea1 643f 20d7 14bf 45f1 0fbf
00000390: e9cb c5bf 6022 fabf 4f0a b13e d27d c5bf
000003a0: 4723 af3e 3972 c53e c26c 9bbf 1c7b acbf
000003b0: 9cd6 e63e 80bb 75bf 6eeb 093f 9444 d9bf
000003c0: fde4 a8bf abd7 2d3f a7df 083f fe43 023f
000003d0: b0e5 aabf 3a29 6abf a003 8e3f 781a 75bf
000003e0: 5a6a 57bf d8c6 4a3f 5958 ca3e dfcf d13e
000003f0: 849e 6cbf 4bc0 69bf d0f2 3f3f fbb7 69bf
0.2729353 -0.8589154 0.9170946 -1.0043551 -0.638775 -0.8020247 -0.7831795 0.46954918
-0.6623949 -1.0892229 -0.6773056 -0.87494695 0.96225953 -0.92631215 0.5861271 0.45243812
0.43757695 0.4040751 -0.95659167 0.28536534 -0.2038815 -1.5378464 -0.20412852 0.9593798
-0.26503962 0.4413437 0.46734595 -1.0240512 0.9588251 0.28107297 0.8368631 -0.7627711
0.82632345 0.55431014 0.44701996 -0.16744867 0.46235362 1.1341239 -1.3826377 -0.92523354
0.45356753 0.58714616 -0.85255206 -1.5002482 0.6088152 -0.7105052 0.3907805 0.8767051
-0.93051964 0.42069834 0.53905916 0.94438297 -0.26084292 0.9057763 -1.4539942 0.48607078
0.5056894 -1.0448798 1.2242186 1.1283062 0.97042596 -1.536667 0.540503 -1.1952157
-1.5323102 0.6022963 0.57145524 -0.9855506 -0.18098925 1.1101687 0.36923257 0.40857324
0.50773746 -0.8666392 1.1883128 -0.89600897 -0.86416805 -0.9998372 -1.4922079 -1.3211014
-0.8999775 0.35738584 1.1503134 0.41951188 -0.61077636 0.89556706 -0.16487606 0.3514319
0.34984955 -0.18265337 0.9037515 -1.1193451 0.4361055 0.8181969 0.4837014 0.52535707
0.68135375 -0.16536914 0.48454693 -1.4961416 -0.6770618 0.49684414 -0.9521904 0.4777094
0.49452055 -1.591259 -0.80928344 0.40324715 -1.0409437 -1.534835 -1.556463 0.6859747
0.29419407 -0.86946416 0.98582846 -0.97420716 0.75041777 -1.2261069 -0.85323757 -0.5526641
-0.95677716 -0.9739415 -0.087369815 0.9451777 -0.98621887 -0.62974733 0.4846721 -0.96051216
0.666243 -1.2581236 0.554821 1.0513139 1.1337823 -0.99314356 -1.102636 0.38464737
0.9198735 0.2744388 -0.94333106 0.44249678 0.48921582 0.40586585 -1.461476 -1.2216189
1.117243 -1.4877739 -1.1712732 -0.8078612 -0.2135216 -1.1408714 -0.76501393 -0.8938827
1.0395353 0.963214 0.8634713 0.61349016 1.1229225 0.9962231 0.35024726 0.57809234
-0.978744 0.4309955 0.91781294 -1.2361763 -1.4585868 -0.9247189 -1.5292287 -1.6801487
0.32330328 -0.82095677 0.3104152 -0.89770013 -0.87509716 -0.94383585 -1.8119481 0.63541436
0.8245605 0.29364428 -0.18887226 -1.0449129 0.5105952 0.23230524 -1.0489912 -0.82513773
-1.0290555 0.50456476 0.84652644 -0.6898151 -0.29737258 -1.0619171 -1.2053604 -1.6331439
0.5711439 0.34066913 1.071571 0.46179798 1.2165682 -1.4350307 -0.98161316 1.0379112
-0.8923968 0.8399545 1.1190579 1.1570852 0.90535253 -1.1879023 1.060098 -1.0050324
0.3662298 -1.5062473 0.88664836 0.56082964 -0.7938658 -0.72144824 -1.0381197 -1.6885408
0.8829069 -1.1690662 -0.7869659 -0.79394627 -0.82356983 0.41576687 -0.96038014 -1.4604315
0.6708801 0.8930949 -0.58140755 -0.56227523 -1.5452853 -1.954174 0.34578177 -1.5429022
0.34206602 0.38563707 -1.2142565 -1.347507 0.4508561 -0.9598923 0.5387486 -1.6974053
-1.3194882 0.6790721 0.53466266 0.50885 -1.3351345 -0.91469157 1.1094856 -0.95743513
-0.84146655 0.7920966 0.3952053 0.40978906 -0.92429376 -0.9130904 0.7497988 -0.91296357

advantage_stream.0.weight f4 [256, 256]
00000000: a61a eabe cdfd b03c 4c06 533e cc1e 1dbe
00000010: 47ab cfbd c5fd 01be 7076 0fbf f59d 44bf
00000020: ad5a 973d 64b5 94be 8ad2 c3bd 8682 43bd
00000030: 033e 17be e6ec ca3d f17a 94bd 2b55 13be
00000040: 46d7 e8bd e718 42be 3bf9 853c 4060 24be
00000050: 1209 633e 6707 c7be f319 19be 753b aa3e
00000060: 556c bbbb 01c1 323e bfef 153e 9ea7 8fbd
00000070: 579d 90be 32ca e1bc 90d4 33be 5303 8cbc
00000080: 76ca b73e 57d6 423d 9fca 78be 37ac 92be
00000090: dfec 9fbd 294b da3e 5744 3c3e 8896 0ebb
000000a0: 9d44 9dbe 4ac6 78bc 93b4 ec3d 2345 863d
000000b0: c31b 833e 0740 99be ddeb c5bd 7a1b a73d
000000c0: cc4e 40bf 6f9b ccbe cdba fdbd f54e 8b3e
000000d0: 8534 333e 4388 eebe 50ac 30be 443c b6bd
000000e0: efa1 bfbe d7c8 adbd 523e afbd 2679 7e3e
000000f0: 7729 dcbe 55cb bbbe 6912 39be 230d dd3e
00000100: 5f0f 0f3e d2a5 0d3e ba18 a1be 34ee 32bd
00000110: e4fd 7cbe 8779 14bf 6af9 a4be 92ee 323e
00000120: 7c48 07be 8a03 12be 0555 d63d c1b6 57be
00000130: 7981 f23c 2837 07bf 26b2 9ebe 5c0e 53be
00000140: 3197 34be 2ccb a7bc 2c3e 1dbd 8f7c 263c
00000150: 71c8 703e 94a4 b73a 0637 afbe d674 8fbd
00000160: 616b afbd 4c76 06be 620f cf3d b175 c8be
00000170: d3b1 8fbd acbc f5be 0eca 863d bc08 6bbe
00000180: 6282 6bbe 8907 943d 1978 8f3c ec63 8fbe
00000190: adcd 533e b8b1 74bd eea7 7b3d 5d8c a0bf
000001a0: f50c 0dbe 245f 03be a989 47bd 04be a9be
000001b0: d46a 4cbc a0a7 603d c4d1 b8bd 9596 debc
000001c0: ad97 dcbe dd1b 00bf b694 af3d d32a 933c
000001d0: a647 de3c 0884 d23d b46e 153e afb4 253e
000001e0: b937 3fbe a899 7fbd 677c 43bf ed07 90bf
000001f0: 9d8a 39bf 8ca0 2b3c f9a1 b0be e4ce 0dbe
00000200: 126b eb3d ee6d 233d d0a2 d83d b77a 603e
00000210: 6d2c ea3d 263b a7be e23c 933d 2de2 22bf
00000220: d68b 12bf 0c51 b93c 5f2a 09bf b7c9 b8bd
00000230: 95c2 5bbe 66c6 0a3e a072 013e 44e6 83bd
00000240: 153f da3c f1e1 fdbe acad 24be 2eac 0cbe
00000250: a4ba cdbd 6e34 063a 98cb 7fbe 9ec1 99be
00000260: 31e4 0c3e 5f16 943e 65b3 3f3e 84ad f63d
00000270: 1f87 303f 1e1c 2fbe bfda 89be ed3c 133e
00000280: cfe5 d5be c38f 0ebf 3ff0 99be 5664 99bd
00000290: ba73 64be d59a 05be 93de 57bf d6cb 753c
000002a0: c175 b6be b794 c9ba 1d10 a4be 5839 3bbf
000002b0: b8b1 5cbe 8cd9 8f3d 36be 7b3c d86e 2cbf
000002c0: e561 ae3e 591f 85be 389d 0ebe 63ee 973e
000002d0: 89bc eb3d 0b7c a5bd 9db1 0bbd 2a74 fb3e
000002e0: 4645 1dbf c628 6dbe 9a85 373e 88ef 603d
000002f0: 87cd 753d e6e8 5ebe 0b46 053f a8f8 5ebe
00000300: 34f0 84be 2bc0 cabe d57e debd 0938 55bd
00000310: 25bc a13d 0b96 663e 5772 68be 266e e0ba
00000320: fa68 abbd 12a9 97be 6cdb de3e 2c19 bfbd
00000330: cbe2 75bd ee06 6e3e 3a57 bdbe 42cc a6bc
00000340: bbc3 04bf 74b3 66bd cf66 80be d156 a63e
00000350: 1af5 b6bc 6c0e b7be 0eae c23d bc8a 523e
00000360: 771b 8dbc 4ae1 69be 7134 7bbc 8fa3 813e
00000370: 84f1 82be b779 b6bd 879d 63be eb14 45be
00000380: 95bc 753c 1df3 efbe 7c25 48be 9230 793e
00000390: 2054 bdbe b338 debe ebb6 e5be e939 78be
000003a0: 4a62 cfbe 3bac 25bd a7a0 c8be 85d7 c7be
000003b0: 13da 413d de56 883d 435b 37be f9f7 53be
000003c0: 1a0c a53a 8907 d13d b99b c6bc b068 69bc
000003d0: c100 473e 50bf 17be 5434 3f3e 4253 48bd
000003e0: 3373 8fbd f8b7 61bc cf1a c3be 6b3b 9ebe
000003f0: 2831 623d 63fb eebd 7cec cd3d e872 c4be
-0.45723456 0.021605397 0.20607871 -0.1534378 -0.101400904 -0.12694462 -0.56040096 -0.76803523
0.07390342 -0.2904464 -0.095616415 -0.0477319 -0.1476975 0.09908466 -0.07250012 -0.14387958
-0.11369185 -0.18954812 0.016354194 -0.16052341 0.22171429 -0.38872835 -0.14951305 0.33248487
-0.0057197013 0.17456438 0.14642237 -0.07014392 -0.2824504 -0.027562235 -0.17561555 -0.017091429
0.35896653 0.04756769 -0.24296044 -0.28647014 -0.078088515 0.42635468 0.18385445 -0.0021757204
-0.3071641 -0.015183995 0.11557879 0.065561555 0.25607118 -0.2993166 -0.09664128 0.081595376
-0.75120234 -0.39962336 -0.12389145 0.27208677 0.17500503 -0.46588334 -0.17253232 -0.088982135
-0.37428233 -0.08485573 -0.085568085 0.24850902 -0.43000385 -0.36678568 -0.18073429 0.43174085
0.13970707 0.13832787 -0.31464177 -0.0436842 -0.24706227 -0.57997936 -0.32221538 0.1747382
-0.13211244 -0.14259163 0.10465435 -0.21065809 0.029602753 -0.52818537 -0.3099529 -0.20610946
-0.176358 -0.020482622 -0.03838937 0.010161533 0.23513962 0.001401084 -0.34221667 -0.070047066
-0.08565403 -0.13131064 0.10110356 -0.3915229 -0.07016339 -0.47995508 0.065815076 -0.2295255
-0.22998956 0.07228 0.017513322 -0.28005922 0.20683928 -0.0597398 0.061439447 -1.2542835
-0.13774474 -0.12829262 -0.048715267 -0.33152783 -0.012476642 0.05484736 -0.090243846 -0.027171412
-0.4308447 -0.50042516 0.08573286 0.017964756 0.027133774 0.10279089 0.14593011 0.16182207
-0.186736 -0.062402397 -0.763617 -1.1252419 -0.7247713 0.010475289 -0.34498575 -0.13848454
0.114950314 0.03989976 0.10577929 0.21921812 0.11434255 -0.32662314 0.07189347 -0.63626367
-0.5724462 0.022621654 -0.5358028 -0.09022849 -0.21460946 0.13552245 0.12641382 -0.06440404
0.026641408 -0.49586442 -0.16081876 -0.13737556 -0.100453645 0.0005119507 -0.24980009 -0.3003053
0.13758923 0.28923318 0.18720777 0.12044814 0.6895618 -0.1710057 -0.26924703 0.1437871
-0.41776893 -0.5568811 -0.30066106 -0.07489841 -0.22309771 -0.13047345 -0.84323996 0.015002212
-0.35636714 -0.0015379403 -0.32043543 -0.73134375 -0.2155217 0.07023916 0.015365174 -0.67356634
0.34059063 -0.2600048 -0.13927162 0.29674062 0.115105696 -0.080803 -0.034104932 0.49112064
-0.6143383 -0.23160085 0.17922059 0.054915935 0.06001046 -0.21768531 0.5206 -0.21774542
-0.2596451 -0.39599738 -0.10864035 -0.052055392 0.07897214 0.22518174 -0.22699867 -0.001712267
-0.08369632 -0.29621178 0.4352678 -0.09330973 -0.06003074 0.23244831 -0.3698061 -0.02036107
-0.5186116 -0.056323484 -0.25078437 0.3248811 -0.02233367 -0.3575319 0.095058545 0.20560735
-0.01722501 -0.22839847 -0.015332327 0.25320098 -0.25574887 -0.08909934 -0.2222806 -0.19246261
0.014998575 -0.46865168 -0.19545549 0.24334934 -0.36978245 -0.43402633 -0.44866118 -0.24240841
-0.40504676 -0.040447455 -0.39185068 -0.39031616 0.047327112 0.066571936 -0.17905907 -0.20700063
0.0012592108 0.10206515 -0.024244176 -0.014246151 0.19433881 -0.14819074 0.18672305 -0.048907526
-0.070043944 -0.013776772 -0.3810639 -0.30904707 0.05522266 -0.11669042 0.100548714 -0.38368917
