active_slam_rl/training_output_slam/20260126_164625/d3qn_ep1760.pth (torch, 901810 bytes, 11 tensors)

feature.0.weight f4 [256, 100]
00000000: 6b79 60be 552b 11be a35a 323d 00dc 0b3e
00000010: 57d0 14be 3580 eebc 81ea a8bd 323d 8dbd
00000020: a07b f23c 8f32 523c fca2 52bd 0daa 1bba
00000030: fe54 7dbd f776 f1bd 1077 0dbe c796 253e
00000040: 0d22 f73d 9609 1abb fcb7 d33c 6865 0c3e
00000050: ac1d 023e 6c91 6a3e 806e 913e 028a 503e
00000060: 3b48 b33d 1d3b 0ebe 9686 89be c9f7 a0bc
00000070: 82d9 0dbe 3b30 40be 46cd 603d fd61 1ebe
00000080: e28f 71be b57c bebd 7835 36be a2b6 2fbe
00000090: 81ea 34be 8690 61be 156e 46be 1a1d f0bd
000000a0: 0169 29be 95bc 8fbe 2e20 24be 977e 04be
000000b0: 5a13 c83b 97f5 99bd 302f 86be 94b5 a9be
000000c0: 7048 57be 4bfc 05be 20c5 a1be f600 43be
000000d0: 850c 1bbd de25 5dbd cb3e 1dbd 8fd0 20be
000000e0: 2cbd 98bd 86a4 88bc fe83 6fbd 347c 073e
000000f0: 480f 84bd 4fbb 183e abd6 983d 8d9f 6bbd
00000100: 1f47 71bc b54c efbb b127 933e 78ce 87bd
00000110: 8762 82bd 7c2d 113e a84f 92bd c180 fb3d
00000120: 06ae 6cbd 6347 85be 283a 173d ae3a 7ebe
00000130: 7425 54be ab9b 80be 430e 6c3e e9a3 543e
00000140: ba43 b4bd f4b9 afbd 26c4 9bbc 0a80 803d
00000150: b907 2fbe d32c 1dbe d591 2ebe 0e5e 80be
00000160: 02bc 0fbe 667a b6bd bf57 2dbe 6602 65be
00000170: 7b7c 95be 28d3 64be 2a3c 67be 5a3e 3abe
00000180: 3886 82be 3e3e bfbe 3aee cebe ec11 26bf
00000190: 3bf7 813e 0701 7f3e 94ef 873d 3d0e b23c
000001a0: c2e0 83bc 3712 543d 5794 5cbd 4de6 bf3d
000001b0: db77 b2bc 9824 93bd 8555 64be 0f07 b1bd
000001c0: c312 82be 703c 87be 1e22 52be b986 b0be
000001d0: b438 aebe 78a7 acbe 2bf1 a3be 8f53 72be
000001e0: 7f6c c6be 60df 4dbe 65a0 92be 0779 afbe
000001f0: 4516 30be 727c 3ebe 4389 90be dd0f c5be
00000200: 85b5 87be f1a2 64be d4ce 62be c43b 6ebe
00000210: 19ed 1dbe dc14 3ebe c6d5 47be e5c1 f5bd
00000220: ed20 52be a8f0 33be 7d4d 4cbe dea6 43be
00000230: 2428 cabc eb38 46bd 3650 af3c b603 eb3c
00000240: d475 c8bd 1481 dbbd 1358 9b3d 104c 503d
00000250: 88cd b63d 8d31 c7bc f95f b1bd 8fa9 36bd
00000260: 38b8 1c3e 3ded 543e cc1d 463e ad53 0b3e
00000270: fd57 973e 3788 453e f25f 4f3e afab e2bd
00000280: d14d 48bd c27d 6e3c c618 40be 108b 28bd
00000290: 3e52 31bd a4d9 50bc 3667 87bd e48e 00bc
000002a0: ad44 f7bd 66ec 1fbd b01f 60bd 8f95 80be
000002b0: 62e4 1ebe c4ec 22be a46c 72bd 0e5f 34be
000002c0: 5610 9e3d 1533 aabc f33f 09be 0cc2 e1bd
000002d0: e849 823c 4f46 3cbe c25b 3c3d 06e4 193d
000002e0: 2ba6 1e3c bfca 2fbe 34b1 1a3d 5256 9c3d
000002f0: 1141 01be ff61 b7bd fbc2 9ebc 5921 8b3c
00000300: 9f2d bebd 6822 dbbd 551f a7bc 3add bbbd
00000310: a080 52be dcf7 66be 63a9 0dbe 828f f7bc
00000320: d217 523e 0c95 e63d 9f45 353d 4f71 013e
00000330: c800 673d 2a19 983d 3d61 6c3e 50ea 2f3e
00000340: 9eea 2a3e 1e9f eb3d 630f 013e 4333 39bd
00000350: 0a13 793e a667 c2bc 8e01 87be a4ca a3be
00000360: f0b2 32be 90f3 01be aab6 d6bc bf3e 653d
00000370: 8082 efbd ebc4 83be 62a2 93bd 700f 5cbe
00000380: 7a7b 8cbe b56c 91be d135 babe a52c adbe
00000390: 0675 c3be b847 8fbe 38bd 9fbe 891d c6be
000003a0: 791b 22be fe45 49be d7a7 4fbe 8cba 21be
000003b0: 3773 92bd 84ed eebd 4a5e bfbe 2095 37be
000003c0: 7652 0abd 9a06 04be 38e5 debd 7d88 88be
000003d0: c7f2 68bd 11ee 52be 5f88 96be 6372 a1be
000003e0: e52a 3dbd 4c99 abbd aa76 68be 9c84 a13d
000003f0: 667b 5b3e efa9 203c d535 8f3d 1ae1 e3bd
-0.21921317 -0.14176686 0.04354347 0.13658142 -0.145326 -0.029113868 -0.08247853 -0.06896438
0.029599965 0.012829437 -0.051424965 -0.00059381203 -0.061848633 -0.11790269 -0.1381495 0.16170798
0.120670415 -0.0023504249 0.025844567 0.13710558 0.12706631 0.22907037 0.28404617 0.20365146
0.08754011 -0.13889737 -0.26860493 -0.019649403 -0.13852504 -0.18768398 0.054883264 -0.15467067
-0.23590043 -0.0930113 -0.17793834 -0.17159513 -0.17667581 -0.22027788 -0.1937793 -0.11724301
-0.16543962 -0.28073564 -0.160279 -0.12938915 0.0061058225 -0.07517546 -0.26207876 -0.33146346
-0.21023726 -0.13084523 -0.31595707 -0.19043335 -0.037853736 -0.05399119 -0.038389962 -0.15704559
-0.07457957 -0.016680013 -0.058475487 0.13230973 -0.06448227 0.14915203 0.0746282 -0.057525206
-0.014726429 -0.0073028454 0.2874122 -0.06631178 -0.06366449 0.14177507 -0.071440995 0.12280417
-0.05778315 -0.26031026 0.036920696 -0.24827072 -0.20717412 -0.25118765 0.23052315 0.20765652
-0.0880198 -0.085803896 -0.01901443 0.062744215 -0.1709279 -0.1534913 -0.17047818 -0.25071758
-0.14036563 -0.089100644 -0.16928004 -0.22364196 -0.29196534 -0.22346175 -0.22581545 -0.18187848
-0.25493026 -0.37352175 -0.40416127 -0.64871097 0.25383934 0.24902736 0.06637493 0.021735305
-0.016098384 0.051775184 -0.053852405 0.09370098 -0.021785667 -0.07184714 -0.22298248 -0.086439244
-0.2540494 -0.26413298 -0.20520827 -0.34477785 -0.34027636 -0.3372152 -0.32019934 -0.23664688
-0.3875465 -0.20104742 -0.28637996 -0.34272024 -0.17195995 -0.1860216 -0.28229722 -0.38488665
-0.26505676 -0.22327782 -0.22149211 -0.23264986 -0.15422477 -0.18562645 -0.19515142 -0.11999873
-0.20520373 -0.17572272 -0.19951434 -0.19106624 -0.024677344 -0.048394125 0.021400552 0.028688293
-0.09788099 -0.10717979 0.07585158 0.05085379 0.08925921 -0.02431562 -0.086608835 -0.044595297
0.15304649 0.20793624 0.19347304 0.13606139 0.29559317 0.19290243 0.20251444 -0.11067902
-0.048902337 0.01455635 -0.1875945 -0.041148245 -0.043291323 -0.012747202 -0.06611483 -0.007846568
-0.12073646 -0.039043806 -0.05471772 -0.25114104 -0.15516809 -0.15910631 -0.05918564 -0.17614385
0.077179596 -0.020776311 -0.13403301 -0.1102334 0.015904382 -0.18386196 0.045985945 0.037570976
0.009683172 -0.17167185 0.03776665 0.07633652 -0.12622477 -0.08954238 -0.019380083 0.016983675
-0.09286045 -0.10699922 -0.020400682 -0.09173055 -0.20556879 -0.22555488 -0.13834147 -0.030219797
0.20516899 0.11258897 0.04425585 0.1264088 0.05639723 0.07426675 0.23083968 0.17179227
0.16691062 0.115049586 0.12603526 -0.045214903 0.24323669 -0.023731064 -0.26368374 -0.3199054
-0.17451072 -0.12690568 -0.026210148 0.055968042 -0.11694813 -0.25736174 -0.072087064 -0.21490264
-0.27437955 -0.2840325 -0.36369184 -0.33823124 -0.3817522 -0.27984405 -0.3119905 -0.3869441
-0.15830792 -0.19655606 -0.2027887 -0.15793818 -0.07150882 -0.11666396 -0.37376624 -0.1792798
-0.033770047 -0.12893143 -0.10883564 -0.26666632 -0.056872156 -0.20598628 -0.29400918 -0.31532583
-0.046183486 -0.083788484 -0.22701517 0.07886621 0.21433792 0.00980614 0.069926895 -0.11126919

feature.0.bias f4 [256]
00000000: eca5 2ebf c4f7 2f3e 830d e03e 3184 e3be
00000010: 1161 9ebf 6fc1 22bf 549b 353f d3b2 053f
00000020: 1243 c53e aa0f 7abe 3ebf cd3e 5d5a 973c
00000030: 9499 65bc 9ad9 b2be 6587 acbe d90f fc3e
00000040: 46f4 073f 7ba8 413e fc0a 083f 3058 803a
00000050: 0bbe c6bd b1c7 0cbe a6d2 d6be 5206 e03e
00000060: 12f0 6fbf 467d 163e 3ecb 893f f355 0cbf
00000070: b1b2 6fbf a958 943d fb5c f23e d7c7 b83e
00000080: bab7 b13e b772 e4be 3a7f 36bf f867 e9bd
00000090: 6fd1 4d3c 6080 b9bb b1b1 58bf 5b85 323f
000000a0: 4b00 003f fba4 843e cde3 153e ccd6 b4be
000000b0: be16 9b3c cb93 5a3d f86f f2be d671 763f
000000c0: b3a7 373e dff2 003f 6ee7 8e3e 127d 3fbf
000000d0: d152 f5be ae08 a6bc 3bfa e33d fff0 fcbd
000000e0: fc53 cd3e 37da ff3e 143d e5be ed9a d1bb
000000f0: a703 cb3d a2d6 153f 9253 7cbe b03c b43e
00000100: db49 6dbe ccb9 f1be ab2b a3be d98f f73d
00000110: d80c 993e e6be 173f 0c3c bc3d d13d 173f
00000120: e84a 0bbf 1c7f f5bd 579a 623f 7d3e f53e
00000130: db12 aabd 28fe fc3e 3882 333f 52c5 12bf
00000140: d0e7 9a3d 8c28 fcbe a4e5 d3be 5def 513e
00000150: 6443 cd3e cb70 c8be 7a38 863e 7a05 363f
00000160: fd34 cfbd 7de5 a6be 71fa 003f a021 12bf
00000170: 7461 15bf 4d0f ddbe a8fb a63e 7b72 2e3e
00000180: 0d1b 9b3e fef5 4a3e 9f31 bcbd 99c0 e63c
00000190: 3efc cebd da3b 58be 1295 8f3d 5c2f cd3e
000001a0: ba4d d43d 285d ff3e 3dc5 9d3e 409f 27bf
000001b0: 024a 553f 3785 1fbe d62e a4be a9a7 b73d
000001c0: f354 793e 34cf aa3e 05e3 6e3d 9707 09bf
000001d0: 27a1 d63e 8617 283f 4f57 3dbf c70f 083f
000001e0: 3565 3c3f 06fe 953e 75dc 39be 691d e33d
000001f0: f34d 653e c55c debe c0f7 a23e e021 243e
00000200: 4e59 f43e 026c e13d 83c3 bdbd 94e3 30be
00000210: 99f8 38bf b17b e4be 4aff 35be 7538 363e
00000220: 01d0 ae3e 7117 13bf 3496 a0be e9ce 683e
00000230: 29c0 063f 68aa 0f3f 2e3c 47bf 401d 0abe
00000240: 06b1 adbd 18f7 46bf ea9b a43c ac13 1f3f
00000250: c682 9d3e 9207 a03e 7a79 6f3f 57eb a53e
00000260: 394b e6be d20c ffbe 08a5 babe 6097 05bf
00000270: c597 b8bc 8ab1 f9be 903c 393e 43a8 1e3f
00000280: 5027 343e 6b81 273f ef6c f6bd 04de 71be
00000290: e3a3 f8bd 5098 223e 7210 293f cf19 3cbf
000002a0: 4670 a0be 22ac d1bd e416 46be 6319 133f
000002b0: f721 06bf 5155 8bbe 50fb ae3e 52a2 1c3f
000002c0: 333a 47be 18a2 a0bd e3b0 dc3e 8921 de3e
000002d0: 259e 0a3e 3f6e ff3e 9364 e63b 7ea9 e83e
000002e0: aa38 603e 4e08 c2bc 7670 5eba 3266 15bf
000002f0: de81 81bf 1012 ce3e 3a7e f5be 06d6 50be
00000300: 7c9a 61be 2089 82be aeeb 963e 0bc3 9dbe
00000310: 8f95 47be fd17 423f 93d7 33bf 37b0 9bbe
00000320: 6113 5a3e 7363 9f3e 357d ad3d e35d a43e
00000330: 5a8a c03d d9e4 f23e fb61 fc3e 48cc ba3e
00000340: 87c5 e13e 52b2 ae3e db1c 96bc 2712 6c3f
00000350: c4a4 08bf f771 103f 5ab1 11bf 8af1 5f3f
00000360: dc55 d43e 63d6 e9bc ebf3 533e 4f7f 433f
00000370: b341 59bc 0061 1f3f 435f a8be 7379 ef3e
00000380: 0bb6 43bf 6b35 333e eb02 363f 49a6 2bbe
00000390: 375f 18bf 2f4e c3be 3386 2d3f 5095 acbc
000003a0: bf62 b0bd eb20 e2be 798d 42be d438 02bf
000003b0: b212 2abd 4ead e03e e98e e8be 55cf 0ebc
000003c0: 7550 0dbf c106 bb3e c173 a13e 7ef2 a1be
000003d0: b5b5 a43e c7ef d53e 6962 563e 1024 df3e
000003e0: 8473 f7be eae4 7abe fbc8 1ebf 16a6 b6bd
000003f0: c2b4 74bc 8482 023f 1f22 1dbe 5927 8e3e
-0.68221927 0.17184359 0.4376031 -0.44436792 -1.2373372 -0.63576406 0.70940137 0.5222599
0.38527733 -0.24420038 0.4018497 0.018475706 -0.014013667 -0.34931642 -0.33697048 0.4923084
0.53107107 0.18911926 0.5314176 0.0009791907 -0.097042166 -0.13748051 -0.41957587 0.43754822
-0.93725693 0.14696226 1.076515 -0.5481865 -0.93632036 0.07243473 0.47336563 0.36089966
0.34710485 -0.4461877 -0.7128788 -0.113967836 0.01256214 -0.0056610554 -0.84646136 0.69734734
0.5000045 0.2590712 0.1463768 -0.35320127 0.018931743 0.053363603 -0.4735105 0.9626745
0.17935066 0.5037059 0.27910942 -0.7480022 -0.47914746 -0.02026781 0.11131712 -0.12350654
0.40103137 0.49971172 -0.4477316 -0.0063966424 0.09912806 0.5853063 -0.24641255 0.3520255
-0.23172705 -0.47212064 -0.31869254 0.12087984 0.29892612 0.5927566 0.091911405 0.590787
-0.5441117 -0.11987135 0.88516754 0.47899237 -0.08304378 0.49412656 0.70120573 -0.57332337
0.07563746 -0.49249685 -0.4138614 0.20501466 0.40090477 -0.39148554 0.26214963 0.71102107
-0.101175286 -0.3259696 0.50382143 -0.5708256 -0.58351827 -0.43175736 0.32613873 0.17035858
0.30294076 0.19820401 -0.09189152 0.02816801 -0.10106705 -0.21116582 0.07010855 0.40075195
0.10366388 0.4987576 0.30814543 -0.6547737 0.8331605 -0.15578161 -0.32066983 0.089675255
0.24348812 0.33361208 0.05832197 -0.53527206 0.41919824 0.65660894 -0.7396135 0.53149074
0.7359193 0.29295367 -0.18150504 0.11089594 0.22393017 -0.43430153 0.31829643 0.16028547
0.47724384 0.11006929 -0.092658065 -0.17274314 -0.7225433 -0.4462562 -0.17773166 0.17794974
0.3414307 -0.57457644 -0.31364596 0.2273518 0.52636963 0.56119394 -0.778262 -0.1348772
-0.0848103 -0.77720785 0.020093877 0.6213939 0.30763835 0.31255776 0.93544734 0.32406113
-0.44979265 -0.4981447 -0.36454034 -0.52184105 -0.022533307 -0.48768264 0.18089509 0.61975497
0.17593122 0.6543185 -0.12032496 -0.23619848 -0.12140634 0.15878415 0.6604072 -0.7347688
-0.31335658 -0.1023791 -0.1934467 0.5746061 -0.52395576 -0.2721353 0.3417611 0.6118518
-0.19455795 -0.07843417 0.43103704 0.4338496 0.1353689 0.498888 0.0070310323 0.45441812
0.21896616 -0.0236856 -0.0008485386 -0.5835906 -1.0117757 0.40248156 -0.47947866 -0.20394143
-0.22031587 -0.25495243 0.29476684 -0.30812868 -0.19490646 0.75817853 -0.70250815 -0.3040788
0.21296455 0.3113056 0.08471147 0.3210288 0.094013885 0.47440222 0.49293503 0.3648398
0.44096014 0.34120423 -0.018324306 0.922152 -0.5337641 0.56423897 -0.5691124 0.87477934
0.41471756 -0.02854461 0.20698516 0.7636613 -0.013260293 0.62257385 -0.3288518 0.46772346
-0.7644965 0.17500846 0.710982 -0.16762652 -0.59520286 -0.38145587 0.67782897 -0.021067291
-0.08612584 -0.4416574 -0.1899928 -0.5086796 -0.041521735 0.4388222 -0.45421532 -0.008716424
-0.5520089 0.3652859 0.31533626 -0.3163032 0.3216988 0.41784498 0.20935978 0.435822
-0.4833032 -0.24501386 -0.6202542 -0.08918397 -0.014935674 0.509804 -0.15345047 0.27764395

feature.2.weight f4 [256, 256]
00000000: d90b 07bd d416 ed3d 3337 23bd 56ad f2bd
00000010: 7ddf 95be 381f bfbc 1d66 73bd cb76 713e
00000020: 146f 9c3e 3af1 4b3e cc57 7c3d e1da 173d
00000030: 1b96 b4bc 66e3 e3bc 1131 f1be f19b 713e
00000040: 6ae8 a13d fc0c 873d f237 8c3d 3b10 0dbd
00000050: 94ae d6bd 6379 a93b 9567 eabd 9686 37be
00000060: 686b d3bd f614 7d3e 1fe9 843e c4c6 f3bd
00000070: 2e6a a6be f5f5 2d3d c272 42bb a2cc ef3e
00000080: 9d5f 5b3e c67a 8c3e a8b8 ffbd 0e66 e13d
00000090: 4d5e 18be 283b a73e 42ae 90bd 2903 713e
000000a0: 3b16 933e 3162 0fbe 9db6 3a3e b4d8 a83d
000000b0: d8b3 b33c 8d28 b93e 7087 1f3d 11de c53c
000000c0: f691 a63c f3b2 003f 00ba 213e 9f6b 71be
000000d0: 8376 32bd 7cdc 973e d9f9 54be d76d 8f3d
000000e0: 20c5 bbbd e4ed 8c3e 34ca 0abe 6ea0 b7bd
000000f0: 57ac 203d 01bf 033e 7fb3 86bc 9505 963e
00000100: 9376 1ebb dd2e 7fbe a391 51be 5bf1 8e3d
00000110: 5cc6 263f 2e75 993e 2ea0 b43d ae13 7c3e
00000120: ac63 9abe a475 823b edef 183f c879 b03e
00000130: 76d2 0d3d c37d 313c d3bf 953c 385f 8bbe
00000140: 7c63 c6be a231 3a3d 6eb2 60bd 5ecf 1e3d
00000150: ed3b 323d 262d 843c 9324 233e 6a3a 823b
00000160: f7b3 36bc 3cab d7bd 097d 823e 3691 9ebe
00000170: 9631 06bf 9f36 f6bd cfe1 dd3e 61e7 763e
00000180: 4702 c33d 9b67 41bd 29bc 9bbd 24b9 ed3d
00000190: 8160 783e 5951 45be f42a e43e 5fe2 23be
000001a0: 9334 eabd c102 0c3e 95b7 973e 0f9f 81bb
000001b0: 6dae af3e ed38 4dbd 1737 b63e 03fc 9fbd
000001c0: ab29 30bd 4fe2 b43d f966 183e 98e2 e3be
000001d0: e37c 243d a9c8 1c3e 25f7 0cbf 401a 843d
000001e0: 68a2 143f f989 b73e 5c25 613d 7b7d 5bbd
000001f0: a8a4 383a 966f 933e 4676 b83d 3eeb 7bbd
00000200: e0dc 913e e6b6 19be 4601 493c f4bd ab3e
00000210: 1c43 dabe b30b 9bbe 955d 23bc 0c64 58be
00000220: 7a60 db3e 96c9 963d bd14 05be baf0 fe3d
00000230: 4b9d 513e 424e a53e 7567 c0be 5cb3 0cbd
00000240: 9dcd 813e e796 8dbe b068 4abe 114c 213e
00000250: 2758 e0bc 447a 21bd 780e 053f da3b 933e
00000260: cb7b c8bd 9913 d9be 7e08 acbd 7be4 3cbe
00000270: 5e47 203e d573 8c3e 23cb 92bd 883e 223e
00000280: a68f 5fbd 2bd3 a73e 793c 863e a32f 183e
00000290: 2589 133d a55c 44be 091a 0e3f 18bc 82bc
000002a0: dde2 2cbe fe6a be3d 74a2 3a3e c060 bcbd
000002b0: 890c 86bd ccda 0d3c 64f4 c03c 4b82 333e
000002c0: 6495 0cbe 3387 273d 755f 513e 2c41 d53d
000002d0: e408 d23d 4b37 613e 1d0d bf3e 8ace 003f
000002e0: 0543 b63e b528 9ebd e5fc 56be 3569 a8bd
000002f0: baf6 6abe 2385 8a3c d80b ab3c f5ca f0bc
00000300: 6c54 2bbe cb0f 02be c380 c33e 82ed f3bd
00000310: ed81 003e 0796 28ba c659 37be 40f6 ba3c
00000320: 9f54 0a3e e9f7 a8bd b6b4 f43d a6ed 513e
00000330: 6594 0fbd 663a d33e ca95 183f e905 4e3e
00000340: 0e58 ef3d 502f 9e3d 6155 7c3d 7736 8f3d
00000350: eb0d 44be 5124 7f3d 2a93 43be b5ce a63e
00000360: 7595 043e 333e 0abe d06b 08be 9aab 243e
00000370: a55d 86bd e92f 22bd 669b 123e 449e ae3e
00000380: 0ce9 0cbf bbb2 923e d4a0 dd3e ea3e 4bbe
00000390: 8741 2fbe 9d99 713e 0160 73bd b297 3a3e
000003a0: fe0a 45be 02e6 1fbc 887f 13be ac4b cdbe
000003b0: 6bf0 01bd 2bc4 783e 126b da3d c181 41be
000003c0: fe9e b23d 3331 973d e880 ee3d d6a7 843c
000003d0: c1e7 fa3c c70f ae3c 1f61 80bd 207f 7c3e
000003e0: ed90 31be f9b0 15be 7474 7fbe 3088 48be
000003f0: 57bc 0cbc 8e63 3f3b 376b c1be 5c85 833e
-0.032970283 0.1157662 -0.039847564 -0.118494675 -0.2927207 -0.023330316 -0.059423555 0.23580472
0.30553496 0.1991624 0.061607167 0.037073974 -0.022044232 -0.027818393 -0.47107747 0.23594643
0.079056576 0.065942734 0.06846608 -0.034439307 -0.10482517 0.005171941 -0.11445538 -0.17922434
-0.103232205 0.24715027 0.25959107 -0.11903146 -0.32502884 0.04247089 -0.0029670452 0.4683581
0.21423192 0.2743742 -0.12486392 0.110057935 -0.14879723 0.3266232 -0.07064487 0.23536362
0.28727898 -0.14002301 0.18233724 0.08244458 0.021936342 0.3616375 0.038947523 0.024153741
0.020333271 0.50273055 0.1579361 -0.2357621 -0.043570053 0.29660404 -0.20798434 0.07003372
-0.09168458 0.27525246 -0.13553697 -0.089661464 0.039226856 0.12865831 -0.016443012 0.29301134
-0.0024179562 -0.2492022 -0.20465712 0.06979629 0.6514642 0.29972214 0.08819614 0.24616882
-0.3015417 0.003981309 0.597411 0.34467912 0.03462454 0.010833207 0.018279945 -0.27221084
-0.38747776 0.04545749 -0.054857664 0.03877198 0.04351418 0.01613481 0.1593192 0.0039742487
-0.011151305 -0.10530707 0.2548602 -0.30970162 -0.5241941 -0.12022137 0.4333634 0.24111702
0.09521919 -0.047217946 -0.07604248 0.116075784 0.24255563 -0.19269313 0.4456402 -0.16004322
-0.11435809 0.13672926 0.2963225 -0.003955729 0.34312764 -0.050103117 0.35588905 -0.07811739
-0.043008488 0.088322274 0.14883031 -0.44508815 0.040158164 0.15310921 -0.5506461 0.06450319
0.5806031 0.35847452 0.05496727 -0.053586464 0.00070435787 0.2879607 0.09006934 -0.06150364
0.28488827 -0.15011176 0.01226837 0.3354336 -0.42629325 -0.30282363 -0.009971042 -0.21131915
0.42847043 0.07362668 -0.12996192 0.12448259 0.20470159 0.32286268 -0.3757893 -0.034350738
0.25352183 -0.27654192 -0.19766498 0.15751673 -0.027385784 -0.039423242 0.519752 0.287566
-0.09789237 -0.42397764 -0.08400057 -0.18446533 0.15652224 0.27432123 -0.071676515 0.15844166
-0.054580353 0.32778296 0.26218012 0.14861922 0.036019463 -0.19175966 0.55508476 -0.01595883
-0.16883416 0.09297751 0.18226033 -0.09198141 -0.0654536 0.008658122 0.023554035 0.17530172
-0.13728863 0.04090042 0.2044657 0.10412821 0.10255602 0.21993749 0.37314692 0.50315154
0.35598007 -0.07722608 -0.20994909 -0.08223192 -0.22945681 0.016909188 0.020879671 -0.029393652
-0.16731423 -0.12701337 0.38184175 -0.119105354 0.12549563 -0.0006431047 -0.1790534 0.0228225
0.13508843 -0.0825041 0.119485304 0.20500812 -0.03505363 0.41255492 0.5960356 0.20119442
0.11686717 0.07723868 0.06160486 0.0699281 -0.19145934 0.062290493 -0.19099107 0.3257958
0.12947638 -0.1350029 -0.13322377 0.16081086 -0.0656083 -0.039596472 0.14317092 0.34105122
-0.550431 0.28651986 0.43286765 -0.19848219 -0.1711484 0.23593755 -0.05941773 0.1822193
-0.19242474 -0.009759428 -0.14404118 -0.40096796 -0.03172342 0.24293582 0.10664953 -0.18897153
0.087217316 0.07382431 0.11645681 0.016193312 0.030628087 0.021247758 -0.062685244 0.2465787
-0.17340441 -0.14618291 -0.24946767 -0.19583201 -0.008589826 0.0029203626 -0.3777711 0.25687683

feature.2.bias f4 [256]
00000000: 8b4f 65bd 7f0c eabd aa8b 0b3d d446 a23d
00000010: 4d6d 8dbe 0b41 efbc 3b8d bf3d a85d af3d
00000020: f27b efbd c5e8 a2be 6b55 313d 6512 743c
00000030: 10d4 bb3d e8b9 223f 5295 423f 7832 a2be
00000040: 23ca 73be 8f03 febd f2ef 9fbd bceb c83d
00000050: 6a50 1ebd 42d5 65be bbfd 56bf 6ef7 a73e
00000060: cf38 b2be 813c 943d b511 70be 678b 99be
00000070: 0351 83b8 3cd6 6dbe 016a 883f d9c7 61bd
00000080: 4bed 61bb 9e97 b4bd 77a7 043e b4e1 53bd
00000090: 4806 1a3f 1856 293e 21f3 83be a6c6 a8be
000000a0: c8bf 22be fa9c 38be b06f 0abe de54 a6be
000000b0: 99b4 e5be b131 09be eedf 2f3d 090d 7ebe
000000c0: 1054 4cbe 4d1f 3dbe a73d a33b 4b0e b53d
000000d0: aa01 cabd 1283 5b3c d7e4 22be 6473 0e3e
000000e0: 5d4b 033c 3834 25be 11a4 97be 54ce 463d
000000f0: 5b64 9fbd 35f8 0abe 275e 99be 44b8 063e
00000100: a7c6 23be ec7c 6d3e d064 1a3e 2cbb 743f
00000110: db8b 133f 4be8 1bbf 7a11 05bf 31ae 90bd
00000120: 8e71 533c b6e8 85be 4f78 613e 45a5 e33c
00000130: a79e 1cbf 4c4e 39be fa91 d83d f00d d2bb
00000140: 75c9 193f c2c6 d03d f95c b8bd 6e24 2fbf
00000150: f0ef d13d b097 0c3e de2f 70be 3531 c43d
00000160: c4cc 843f 10ea 943e 4215 90be cee4 3abc
00000170: d520 99be 0f30 3abe cb47 69be 209c 0a3f
00000180: 0703 f23e 1015 c0be 276a 143f f1bf 0d3e
00000190: 1d2f 1dbd fdc1 b5bd 0f53 ae3c 2142 92be
000001a0: 33af a2be 1d92 62be 6df5 583e e552 9d3d
000001b0: 5664 21bf 1451 d23c 7b42 0f3d 0747 6ebe
000001c0: ee9a 8bbe 6f50 3abe 0ee8 86bd c0ef 4bbb
000001d0: 3f40 703c aca0 1cbf cf2a 683d 85e0 7abe
000001e0: 11f0 9e3d d8f3 0e3e 9038 203e 0658 dfbe
000001f0: e975 db3d d581 5bbe eaf5 bfbe a18e b3bd
00000200: cb25 67be b83c 5c3d 1d46 02be cb19 fdbd
00000210: fbee 8dbd 9e2f c33c 2ba9 373d 4cb9 653e
00000220: 7495 cf3d 74b4 d53e 38bc 983e 1ea0 babe
00000230: 8c70 863f d0bd 7a3d 1dae b5be 4da4 21be
00000240: db83 9d3e dbc3 9ebd 562d e5bd f90d bebd
00000250: 849b 0fbf 652f 073e 622d dfbd a97a 4abe
00000260: 7856 07be 1091 b1be 11f9 473e 3a17 99be
00000270: 86ad 843e fca8 7d3f 44db 033e 36b4 3fbe
00000280: d5fa f43c 8956 07be 1239 0dbf 0d85 b3be
00000290: 7e7d d5bc a3e8 e1be 079c 903d 15aa 2cbf
000002a0: a1d3 da3d 2bef 3d3d 15ce 08be 9f75 d23e
000002b0: 2df3 443f bfad ebbe 63bd 1dbe 11eb 4d3d
000002c0: 6e46 043d 6081 e03c 3a20 053d fba0 063e
000002d0: 0246 83be 2b33 d53d d3ad 05bf 7281 4d3e
000002e0: 28e4 0dbf 9b94 273f 1c2d 8b3d 5c71 1abf
000002f0: 5785 98be 4411 9a3d dde3 b33d a8ff 843d
00000300: 54cb c43d 67a3 f6be 437e b6be caf2 953e
00000310: f74c d7be 4c5a 4cbf 2d11 323f 11f5 f6be
00000320: 0c08 343e 6960 86be 6365 a03c 7527 123f
00000330: da47 713d c466 3d3e e13a 25be a083 473f
00000340: aee3 4fbd d3f6 a0be 534a 103f 51d2 43bd
00000350: 10de 643e 583a 923d 85ed b1be c03e 5abe
00000360: 47a2 8b3d e497 c5bd 1199 99be f71b 123d
00000370: 8c89 5a3e e9c9 043e 5cdb f9bc 7301 10be
00000380: 6fe8 193f ca7f 273e 6bbf e8be fb8f 9e3d
00000390: 11c0 393e ece0 313e d7db e73c 7412 c0be
000003a0: f961 20be 000a 55bc 42d0 9c3e 62cf 043f
000003b0: 953e ddbe 13c4 d13e 811e 58bc abb9 dbbd
000003c0: de56 853e b857 b2bd ddbd cfbe 4f6e 2f3f
000003d0: 6788 fbbd 67bd e9be 61bf bfbe 18a2 f6bd
000003e0: 00a7 203e 78ba 383d 8726 67bc 1d8e aa3d
000003f0: 7903 8fbd 0128 34bd 4098 59be 5d98 e73c
-0.05598406 -0.11428165 0.03406874 0.07923666 -0.27622452 -0.02920582 0.093531094 0.085627854
-0.116935626 -0.31818214 0.04329435 0.014896964 0.09171307 0.6356492 0.76009095 -0.3167913
-0.23807578 -0.124030225 -0.07809438 0.09810588 -0.038650908 -0.22444633 -0.8398091 0.3280596
-0.34808967 0.07238103 -0.23444255 -0.29989168 -6.2616564e-05 -0.23226255 1.065735 -0.05512223
-0.0034473713 -0.08817981 0.12954508 -0.05172892 0.60165834 0.16536748 -0.2577143 -0.32964057
-0.15893471 -0.18028632 -0.13519168 -0.32486624 -0.44864348 -0.13397862 0.042938165 -0.2480966
-0.19953942 -0.18468972 0.0049817148 0.08840617 -0.09863599 0.013397949 -0.15907608 0.13911206
0.0080135735 -0.16133201 -0.2961736 0.048536614 -0.07782813 -0.13571246 -0.29954645 0.1315623
-0.15993749 0.23192185 0.1507752 0.955981 0.5763528 -0.60901326 -0.5197979 -0.070644744
0.0129054915 -0.26154107 0.2201855 0.027788768 -0.61179584 -0.18096274 0.10574718 -0.006410353
0.60073024 0.1019416 -0.09002108 -0.6841496 0.102508426 0.13729739 -0.2345576 0.09579698
1.037499 0.29084826 -0.28141218 -0.01140709 -0.2990786 -0.18182395 -0.22781293 0.5414448
0.47267935 -0.3751607 0.57974476 0.13842751 -0.03837501 -0.08874891 0.02127984 -0.28566077
-0.3177429 -0.2212605 0.21187373 0.076818265 -0.63043725 0.025673427 0.03497551 -0.23269282
-0.2726664 -0.18194745 -0.0658723 -0.0031118244 0.014663755 -0.61182666 0.05668145 -0.2449971
0.07760633 0.13960207 0.15646577 -0.43621844 0.10715849 -0.21436246 -0.37492305 -0.08767439
-0.2257301 0.053768843 -0.12722059 -0.12358435 -0.069303475 0.023826417 0.044839066 0.22433966
0.10135928 0.41739237 0.298311 -0.36450285 1.0503097 0.061216176 -0.354844 -0.15785332
0.3076466 -0.077522 -0.11190288 -0.09280009 -0.56096673 0.13201673 -0.10897328 -0.19773354
-0.13216579 -0.34680986 0.19528605 -0.29900533 0.25913638 0.99085975 0.12876612 -0.18721089
0.029904762 -0.13216604 -0.5516521 -0.35062447 -0.026060816 -0.441228 0.0706101 -0.67447025
0.10684896 0.046370666 -0.13359864 0.41105363 0.76933557 -0.46030995 -0.15404277 0.050273005
0.03229373 0.02740544 0.032501437 0.13147347 -0.2563935 0.1041015 -0.5221836 0.2006891
-0.55426264 0.6546113 0.06795713 -0.6032922 -0.2978923 0.075228244 0.08783696 0.06494075
0.09609094 -0.4817154 -0.35643205 0.29286796 -0.42050907 -0.7982528 0.6955746 -0.48233846
0.17581195 -0.2624543 0.019579595 0.57091457 0.058906414 0.18496233 -0.16135742 0.7793522
-0.05075424 -0.31438312 0.5636341 -0.047807995 0.22350335 0.071400344 -0.34751526 -0.21313
0.06818061 -0.096481115 -0.29999593 0.0356712 0.21341532 0.12967648 -0.030500107 -0.14063053
0.6012029 0.16357341 -0.4545854 0.07742306 0.18139674 0.17370957 0.02830307 -0.3751408
-0.15662374 -0.0130028725 0.30627638 0.5187894 -0.4321181 0.40969905 -0.013190866 -0.10728773
0.26042837 -0.08708137 -0.40574542 0.6852769 -0.12281876 -0.45652315 -0.37450698 -0.12042636
0.15688705 0.045099705 -0.014108307 0.08327887 -0.06983084 -0.043983463 -0.21249485 0.028270895

value_stream.0.weight f4 [256, 256]
00000000: 67be e9be 4e4c e2be b330 bfbd 44b4 2dbf
00000010: a1bb 10bd 64cd 0e3c 8f92 71bf c897 c6be
00000020: 4804 edbe 5657 83bc f349 283b 201c 32be
00000030: f7ea cebd c995 a43e 4046 423e 11f7 7fbd
00000040: 0652 533d b451 30bf 326f 19bf 270f 9dbe
00000050: 290a 44bf d811 9abe 1828 d4bc 1b69 82be
00000060: 10ce c2bd 16da 1dbe 3941 03bf 477e 09bf
00000070: b3ab cebe 5f9b bbbd 90d3 133e 8a2d f5bd
00000080: 86ef debe 6091 7abe c5e3 85be 43cb 3ebe
00000090: 1e3e 503e 921c c1be 5067 67be ff19 4cbf
000000a0: 8d34 32be 5206 4dbd 117d 03bf 8cfc b6be
000000b0: e6af 3bbe 7b05 abbe bdeb b1bd 072b 5bbe
000000c0: 9484 533e 3c4c d1be 2112 67be ed00 aabe
000000d0: 428e 5ebe ff63 14be 9152 c2be 7f39 963e
000000e0: d0fa 23be d53d 743c 0ce3 fabd bf36 81be
000000f0: 95d1 59bf 6630 d5bd bd91 07be 20e2 e83e
00000100: 6146 f73d 6515 ad3d d820 99be 3b54 d83d
00000110: 03bb cabe 4406 5dbe 9e23 f6be c434 bcbe
00000120: 780c c3be b837 81bd df19 f03d 8cf4 e0bd
00000130: c4e8 0bbd d275 cebe 2f20 0abf 4756 2cbe
00000140: d400 68bc fc98 933d 6879 f2be ae6a 4e3d
00000150: 43c5 9cbd 82ab 1d3e fc71 6bbe b0ba cfbe
00000160: f662 643d 4101 3f3d 8924 e23c c738 d4be
00000170: f9de 43be 588b af3c b67c 193e 8b4a a63c
00000180: 1041 d0bc 3f47 5f3d d16a 0ebd c972 6dbf
00000190: e421 6cbd b33b acbe 1841 973d dfa4 53bf
000001a0: 43d6 bdbe b94a 983d 6102 58be e34c ebbe
000001b0: 353d e6bd 1055 043e 3054 a9be 7c2e 9bbd
000001c0: 006a cbbe 1ff3 213e 6601 38bd e224 99be
000001d0: 0955 b5be ea6a debc 973b 16be 1c4d 0ebd
000001e0: e9eb 82bf ac81 12bd c45c 29bf 2ccc 96bf
000001f0: 1823 8b3c 1c18 42be 234f a6bd feef 24bf
00000200: e82f 92be 5d14 7f3e 0d81 5cbe b01d 88be
00000210: 42f0 bdbe bb7b 30bf f82d d4be 4cd8 f0be
00000220: 920e 823e ec21 9ebe 42b8 3b3e 943a 4a3d
00000230: f8e7 b3bc 39a3 06be 9180 82be f444 20bd
00000240: e51b f5be 189e 043d a865 e6be 950c 313d
00000250: a939 28be 5de4 0ebf f4a8 9cbe 41ed f3be
00000260: f96a e0bd 92b1 093d c5f7 b23e 2b3d 00be
00000270: b625 ebbe 66cd 923d a5b2 7cbd 9ecb c1bd
00000280: 0ac1 9ebe 0007 c4be 7612 643e 0292 c43c
00000290: eb93 d2be 84d0 ad3d d9ab 16bd 0d4a a0bc
000002a0: 53fc 80bc 88d9 a4bd be55 2fbe 8932 1abf
000002b0: 9e26 8c3d d602 1dbe cab0 46be 2ee9 06be
000002c0: 107d 5cbe c4bb e5bd faed 83be d634 0bbe
000002d0: f553 b4bd 2231 863e 4919 d2bd d4c9 efbe
000002e0: 4774 9bbe 5fc1 0b3d 38ce 69bf f18a 2abd
000002f0: 16dc f7bd d85c 48be 6ae1 4a3e 8a65 17bf
00000300: dd7a 96bd c2e9 d2be 2883 98bd 4442 61be
00000310: 2d61 b4be 5921 49be 3be7 2abe ecaf b33c
00000320: a707 dcbe 98cd 8f3e 1592 0abf fd06 87be
00000330: c7e6 d9bd d006 0ebf 9330 efbc fccd 913d
00000340: 892f 053e ec1c 54bf 0801 b03e 8250 ffbe
00000350: 7e9e 73bf 83eb 2e3e 46c1 8dbc 5133 40be
00000360: 6286 f73d 4738 08be 89d0 33be f5de 41bf
00000370: 59ba eebe 4df0 b3bf da3e bbbe 2b39 5b3d
00000380: 3428 5ebe a963 d0be 5020 2fbd 872d 9dbe
00000390: 53fd 96be bc3d 0fbf 27e9 1c3d b468 4fbf
000003a0: 5ed0 b9be 5945 7cbe a400 16bf 360a 60be
000003b0: 927b c8bc abd3 2cbd b873 60be c49f 58be
000003c0: 212d f8bc 2d5a 0fbe 65e6 fc3d b7c4 8f3e
000003d0: b72b ffbe 81c0 26bf 2770 e0bd eb9b 0a3e
000003e0: b01b eebe 63cb b43b 4963 9ebe 273d 8e3e
000003f0: 37fa 3ebe 3baa 01bf 72b2 f6be 8883 3ebf
-0.45653078 -0.4419884 -0.093354605 -0.6785319 -0.035335187 0.008715961 -0.94364256 -0.38787675
-0.4629233 -0.016032856 0.0025678843 -0.17393541 -0.1010341 0.32145527 0.18972111 -0.06249148
0.051591896 -0.6887467 -0.59935296 -0.30675623 -0.76578003 -0.3009174 -0.025898024 -0.25470814
-0.095119596 -0.15415224 -0.51271397 -0.5370831 -0.4036537 -0.09160494 0.14436173 -0.119715765
-0.43542117 -0.24469519 -0.26150337 -0.18632226 0.20336196 -0.3771711 -0.22598004 -0.79727167
-0.17402859 -0.050054856 -0.5136271 -0.35739553 -0.18328819 -0.3340262 -0.08687542 -0.21403132
0.20656043 -0.40878475 -0.2256551 -0.3320383 -0.21733955 -0.1449127 -0.37953618 0.2934074
-0.16013646 0.01490732 -0.12250337 -0.2523708 -0.8508542 -0.10409622 -0.13239188 0.4548502
0.120739706 0.08451346 -0.2990787 0.10562941 -0.39595804 -0.21584421 -0.4807405 -0.36759007
-0.3809545 -0.06309456 0.117236845 -0.109841436 -0.03415753 -0.40324265 -0.5395536 -0.16829787
-0.014160354 0.07206914 -0.4735825 0.050394706 -0.07654812 0.15397456 -0.229927 -0.4057212
0.05575844 0.046632055 0.027605312 -0.41449568 -0.19128026 0.021428749 0.1498898 0.020299217
-0.02542165 0.054511305 -0.034769837 -0.92753273 -0.057649508 -0.33639297 0.073854625 -0.8267345
-0.3707753 0.07436127 -0.21094657 -0.45957097 -0.11242143 0.12923074 -0.33072042 -0.075772256
-0.3972931 0.158154 -0.04492321 -0.29910952 -0.3541644 -0.02715059 -0.14671169 -0.034741506
-1.0228244 -0.035768196 -0.66157174 -1.1781058 0.016984507 -0.1895451 -0.08120563 -0.644287
-0.28552175 0.24910112 -0.21533604 -0.2658515 -0.37097365 -0.689388 -0.4144132 -0.4704002
0.2540174 -0.30885255 0.18332008 0.04937227 -0.021961197 -0.13148202 -0.25488713 -0.03912826
-0.47872844 0.032377332 -0.44999433 0.04322489 -0.16428246 -0.55817205 -0.3059765 -0.47641948
-0.109579034 0.03361661 0.34954658 -0.12523334 -0.4592721 0.07168083 -0.061693806 -0.09462665
-0.31006652 -0.3828659 0.22272667 0.023995403 -0.41128477 0.08487037 -0.03678498 -0.01956656
-0.015745318 -0.08049303 -0.17122552 -0.6023336 0.06843303 -0.15333113 -0.19403377 -0.13174888
-0.21532083 -0.11217454 -0.257675 -0.13594374 -0.08805076 0.2620936 -0.10258729 -0.4683367
-0.3036215 0.03411996 -0.9133029 -0.04163641 -0.12102525 -0.19566667 0.19812551 -0.5913931
-0.07347653 -0.41193968 -0.07446891 -0.21997935 -0.3523039 -0.19641627 -0.1668977 0.021934472
-0.42974588 0.28086543 -0.54129153 -0.2637252 -0.106397204 -0.55479145 -0.029197967 0.071193665
0.13006414 -0.8285663 0.34375787 -0.4986611 -0.95163715 0.17082028 -0.017304074 -0.18769576
0.12086178 -0.13302718 -0.17560019 -0.7573083 -0.46626547 -1.4057709 -0.3657139 0.053521316
-0.21695024 -0.40701035 -0.042755425 -0.30698797 -0.29490146 -0.55953574 0.03830829 -0.8101914
-0.36291784 -0.24635829 -0.5859473 -0.21878895 -0.024472985 -0.04219405 -0.21919143 -0.21154696
-0.030294957 -0.13999243 0.12348632 0.2807977 -0.4983804 -0.6513749 -0.10958891 0.1353604
-0.465055 0.0055174096 -0.30935124 0.2778103 -0.18650137 -0.50650376 -0.48183018 -0.7441945

value_stream.0.bias f4 [256]
00000000: 66fc 153f 6cf2 e63e e30b 16be 9f39 f63e
00000010: 5997 753e a92d c33e b378 473e a994 233e
00000020: d699 0f3e 9aa6 f5bd 4493 633d a196 3d3f
00000030: 51d4 403e c804 273e f1e5 d73e 6922 8abd
00000040: 07c6 f93e 567b 203f 6349 1bbf c658 4c3d
00000050: 70df 72be 3980 763e 7930 69bd 75ba e03d
00000060: f045 8cbe 2e28 943d 416f fd3b 5739 f43e
00000070: 3b0c 22be 5efe 133f 0d58 f73c 0fe7 d83e
00000080: 9e15 653d 9803 693b 9447 5cbd 1b4e 02be
00000090: 9357 d33e 9f18 90bd e9a8 e63e 4117 053f
000000a0: 3bcf 953c 0d19 27bd 526f 1a3e 7b81 5c3e
000000b0: 6345 533e 36bf 283e 6394 023f fb07 b13e
000000c0: 7b06 223e 0a01 943d 05e8 223f 0754 393e
000000d0: 7b96 083e e495 833e 0458 483e e14f bb3e
000000e0: 3af6 9ebd d1c8 703f 75a2 77bd cb29 603d
000000f0: 1a5f b03e bcde 023f 8fee 9ebc 12a3 8c3e
00000100: 2e54 a63e 4a9b a0bb 04f3 f93e 4f32 493f
00000110: 8a77 58be 9056 933e 59ec 8d3e 0098 133e
00000120: 5cda de3e e780 013d 09ea 6bbd e6ec b13e
00000130: 9937 6e3f dfb5 b73e 65c7 9d3e 24ee 463f
00000140: c0b0 013d 96f1 083f 9ff3 613d 6f3e a43d
00000150: 3706 1dbc c759 c03d 1160 82be 9079 243f
00000160: b955 473e b020 cabe b323 e13e d4cc 233e
00000170: f4bd 3f3d 0e0b d33c 2063 463c 981d 19bd
00000180: cd66 c53e 00b4 45be 3bc7 0b3f 9b45 113f
00000190: 0e8a 35be a2c3 2fbc 6ae4 383e 055e 083f
000001a0: 498b 4b3d 3dee f93e 9f63 a23e 44cb e13e
000001b0: f2dd be3e 431c 933e f77f f73e e69c da3e
000001c0: 80c4 123e a583 683f fa62 613e 4af0 fc3c
000001d0: db37 123d 26c2 023f 660b b33e dd5e 13be
000001e0: c2b2 1a3f 554c 403f 5fc4 b2be 61a6 77bd
000001f0: 58b3 a53e 0540 c13e d9e4 90bd 641d 853e
00000200: 88a2 9b3c 7948 583b 29f1 013e a1b1 893e
00000210: a921 2a3e 4304 df3d 6fea 9e3e 2e9b b23e
00000220: 91eb 283e eea3 0d3e 96bf a43e 4187 d23e
00000230: c878 b63d 577a 393e 7fb3 513e c28e 48be
00000240: 6e7e ab3d 97d4 433f 5508 e5be 9b89 ce3e
00000250: cb6a 7dbe ed68 db3e d111 1d3f 8056 d73e
00000260: dbdd f53e 766d 9b3e 9396 0e3e b8f7 8a3e
00000270: 9c60 143c a3e4 833d 1f54 033e cbd4 7dbd
00000280: 76d2 353e 0cba 0d3f 70b3 163e 1aa8 e73e
00000290: 5fd3 013f 587e 3c3f 853e 3a3f a2b6 013f
000002a0: cb28 1d3f 2e42 fb3e 2658 e63e 1c8e 033e
000002b0: 388c 903e 71fe fd3e a183 d03e a3f3 053f
000002c0: 5408 8b3e 167a 153f 74e3 85be b9d3 aa3e
000002d0: 6c93 c43e 374a 1f3f df4a 5dbd 73c3 033e
000002e0: a7be 083f cdf4 1b3f ec93 a93d 16b5 7cbe
000002f0: 2c65 fdbd 13b4 b03e 23fb 59bd d111 003f
00000300: 898a c23e d5dc 1c3f fcd5 523e 23c0 093e
00000310: 442c 563d a9f7 fe3d fd30 633e 4d6f 4c3e
00000320: 9ab3 783f abf0 0c3e dcfd d73d 0420 4abd
00000330: 3870 4d3e 7d41 143f 213b 753e ea5c 0b3f
00000340: b0c7 023f db24 8e3e 4819 0b3f 6d5e e73c
00000350: 1988 5e3c 42f8 acbe 877f 2d3e cbdc 3a3e
00000360: 180b ebbc 8e08 bc3e 00d6 093e 5e3e a03e
00000370: 95dc 233e eb74 2e3f edff 303f f37b 88be
00000380: 66c2 8c3e 92eb 0a3d 1ab4 1cbe 44ad 13bd
00000390: 0099 063f e0f9 ce3e be23 d43e 702b 973e
000003a0: bc83 c33e 2749 ba3e 7e44 443e 2e22 083f
000003b0: 5c01 0d3f 7b9c 9d3e 52be c03d b341 273f
000003c0: 24f6 313e f76c c43d 6f9a d43e 579a 1c3f
000003d0: c398 e83e 693a 0dbf 1b9e d93d b3b8 613e
000003e0: b08b 673e bfa0 433d 3195 253f e8db df3e
000003f0: 39e0 333e cc1e 023f c8d3 073e a5d1 033f
0.58588254 0.45106828 -0.14652972 0.48090836 0.23983516 0.38120773 0.19479637 0.15974678
0.14023528 -0.11994667 0.055560365 0.74057966 0.18830992 0.16310418 0.4216762 -0.067448445
0.48783895 0.62688196 -0.60658854 0.04988935 -0.23718047 0.2407235 -0.056930993 0.10973064
-0.27397108 0.07234226 0.0077342098 0.47699997 -0.15824978 0.5781001 0.030193353 0.42363784
0.05592882 0.003555512 -0.0537792 -0.12725107 0.4127775 -0.07035946 0.45050743 0.5198861
0.018287292 -0.040795375 0.15081528 0.21533768 0.20631938 0.16479191 0.5100767 0.345764
0.15822785 0.07226761 0.63635284 0.1809846 0.13338654 0.25700295 0.19564825 0.3658438
-0.07761808 0.9405642 -0.060457665 0.054727357 0.34447557 0.51121116 -0.019400863 0.27468163
0.324861 -0.0049013244 0.4881822 0.7859239 -0.2113935 0.2877698 0.2771938 0.14413452
0.4352597 0.03161707 -0.05759624 0.34751052 0.93053585 0.35880944 0.30816188 0.77707124
0.031662703 0.5349363 0.055163976 0.08019721 -0.009584001 0.09392124 -0.25463918 0.6424799
0.19466294 -0.39478064 0.4397255 0.15996104 0.046812013 0.025762107 0.012108594 -0.03738174
0.38554993 -0.19306946 0.54600877 0.56746835 -0.17728445 -0.010727795 0.18055883 0.5326846
0.04969338 0.48814574 0.3171663 0.44100392 0.37278706 0.287325 0.48339817 0.4269783
0.14332771 0.90825874 0.22010413 0.030876298 0.0356978 0.51077497 0.34969634 -0.14391656
0.6042901 0.75116473 -0.34915444 -0.060461406 0.3236339 0.37744156 -0.07074899 0.25998986
0.0189984 0.0033002181 0.12689652 0.26893333 0.16614403 0.10889485 0.31038234 0.34884018
0.16496111 0.13832065 0.32177418 0.41118816 0.08909756 0.18113075 0.20478629 -0.19585708
0.08373724 0.7649626 -0.4473292 0.4033936 -0.2474777 0.4285349 0.6135531 0.42058182
0.48020825 0.3035695 0.13924627 0.2714212 0.009056237 0.06440093 0.12825058 -0.061970513
0.17756066 0.5536201 0.14716887 0.4524544 0.5071315 0.73630285 0.7275165 0.506693
0.6139037 0.4907393 0.44989127 0.12847179 0.28231978 0.49608186 0.40725425 0.52324885
0.2715479 0.58389413 -0.26150095 0.33364657 0.38393724 0.6222262 -0.05402648 0.12867527
0.5341591 0.6092041 0.08280167 -0.24678454 -0.12372813 0.34512386 -0.05321802 0.50027186
0.3799632 0.6127446 0.20589441 0.134522 0.05228831 0.12449581 0.22186656 0.19964333
0.9714905 0.13763683 0.10546467 -0.04934694 0.2006234 0.5791243 0.23948337 0.5443865
0.5108595 0.27762493 0.5433545 0.028243268 0.013582253 -0.33783156 0.16943179 0.18248288
-0.028691813 0.36725277 0.13460541 0.31297582 0.16002114 0.6814715 0.6914051 -0.26657066
0.27492064 0.033916064 -0.15303078 -0.03605391 0.5257721 0.40425014 0.4143352 0.29525328
0.38186443 0.36383936 0.19166753 0.53177154 0.550802 0.30783448 0.09411301 0.65334624
0.17379051 0.09591096 0.41524073 0.61173004 0.45429048 -0.5516725 0.10625859 0.22043113
0.2261188 0.04776072 0.64680773 0.43722463 0.17566003 0.5082824 0.13264382 0.5149177

value_stream.2.weight f4 [1, 256]
00000000: b681 5e3e bdef a1bf a37a a43f 198d d3bf
00000010: 0350 91bf 19c0 93bf 1712 2dbf 5b35 153f
00000020: 2968 45bf dbd5 cdbf f766 99bf c5bc afbf
00000030: 9b74 b83f b690 44bf c85e 5a3f 4ee1 0f3f
00000040: 1b95 cb3e 91ba b63e e9c7 68bf 521e d03e
00000050: dd51 acbf 2295 33c0 4cf0 98bf 2566 ac3f
00000060: 3556 16bf 97a2 113f 688a 183f 1f04 b9bf
00000070: 7ae0 863f a9cf 843e 1ca9 723f 2b3f c4bf
00000080: 73b5 973f 0fa0 2a3f f9d7 103f 2a80 d9bf
00000090: cc79 003f e16b fe3f 1e16 ffbf 316e d3bf
000000a0: f69e 103f 9853 323f a03b 7abf 9e2e 23c0
000000b0: 7754 b43f 4366 71bf 0616 d63e 86b9 b83f
000000c0: 161f a7bf 0aac 063f edcd 053f 2a64 a73f
000000d0: f01d a2bf ba11 b23f fe6c 15c0 272d 033f
000000e0: e3d4 203f 7b46 ddbf 3278 bb3f 9dc0 9a3f
000000f0: aea9 9b3f 154a e6bf bbd1 273f 3ac1 b9bf
00000100: b408 29c0 af6d 373f cbe1 fe3e ad32 d3bf
00000110: cffe abbf 7949 b03f 773a a63e 49f5 063f
00000120: 4d7b 063f 9e96 d1bf d285 cf3f 2f6b 93bf
00000130: 6757 ccbf 0173 cbbf de38 25c0 b18d d6bf
00000140: 6884 9abf 8a45 c63e 6359 e03f 7ad9 043f
00000150: e7ad 16bf 5afa 993f 3810 29bf b8ed 9f3e
00000160: 92c6 ea3e 503c cdbf 598d 963f 63f0 f9bf
00000170: 2dcb 103f 6b29 6b3f c1db 1f3f f34e 203f
00000180: 81f6 2d3f eee9 95bf 1410 f83e 6f5d e1bf
00000190: 7661 2cbf ecac 1b3f f180 67bf 1f60 fe3e
000001a0: 1e11 203f 2da5 e9bf cb56 87bf fa7b b93e
000001b0: 0f4e ddbf 181b 34c0 170d e2bf 6657 323f
000001c0: b4bf c83e 5fbb cdbf 75f6 953f 65c6 90bf
000001d0: 0abd 993f 47f1 05c0 cdae f9bf 35a8 e9be
000001e0: e2fe 87bf 4eaf d4bf 230a aabf 0ef4 843f
000001f0: 2f20 babf 2087 7dbf 3060 1a3f 5a11 10c0
00000200: 7f5c 483f a7db 96bf 6a53 293f 0a8f c23f
00000210: 4b09 bd3f aed0 92bf e934 b6bf 8e71 a73e
00000220: e810 aa3f 4ba2 c33e ebf2 b1bf e080 c93e
00000230: 2291 193f caae 043f 5a98 21c0 d49b e3bf
00000240: cbfa ba3f b1c2 06c0 7539 91bf 0b9a a1bf
00000250: 375a 99bf 0c2d e9bf 0946 b6bf 52e5 a5bf
00000260: 2438 b03f 9987 a53f 4603 993f d026 833f
00000270: 7a99 af3f bc89 b33f f232 e93e 74da 303f
00000280: 395f b8bf df6a e53e 5c86 a23f 1994 c4bf
00000290: 1b38 20c0 98ac d0bf 8de2 09c0 11dc f3bf
000002a0: 5855 a63e 9e7d 80bf 47be 813e 83db 58bf
000002b0: f1ea 7fbf ef16 91bf 4ff8 3ac0 ff62 2e3f
000002c0: c0bb a53f 4128 863e dff3 4ebf cc4e 00c0
000002d0: 11d1 093f 7ff7 5b3e 6d88 c2bf 7935 ecbf
000002e0: 5a09 ccbf 48ca 0c3f 0239 ae3f dab4 0ebf
000002f0: dac7 81bf 3c97 babf 2309 cfbf fc29 f0bf
00000300: af0f 193f c09f b63e c369 b03f fb3c 113f
00000310: 7722 c33f f225 14c0 0976 93bf c37f b43f
00000320: 3b1b c1bf 368e 993f fad9 b43f 5363 b83f
00000330: 4bc6 a23f 79bb 06c0 2601 933f 73a2 f5bf
00000340: 7a5d da3e d06f 2fc0 bfd7 6c3f 0d04 2f3f
00000350: 0148 85bf 85ff 45bf 04f0 b6bf 4bff f2bf
00000360: ea52 8d3f 9718 c5bf ae99 5bbf 54d3 92bf
00000370: c607 77bf e53e cd3e 52c1 c3bf d0f2 93bf
00000380: d1ff 833f b255 793f 0b3b 18bf 308e 96bf
00000390: 2505 e9bf 9eac 46c0 6ba1 953e cbbf 33c0
000003a0: 0cb1 953e 6f77 af3e 61b5 18c0 34a5 f0bf
000003b0: 0ed0 ed3e f8f6 87bf e60e 253f 242b fabf
000003c0: 11f2 19c0 d66e 4d3f 0ff5 113f 0ba6 f83e
000003d0: 2f54 15c0 fb3d 4bbf e613 b13f 7c30 b3bf
000003e0: 1160 a3bf 370f 7a3f a23d dd3e 4441 e63e
000003f0: 6be6 b9bf 39e7 c9bf 866f 8e3f c72b b8bf
0.21729168 -1.2651287 1.2849926 -1.6527435 -1.1352543 -1.1542999 -0.6760573 0.5828454
-0.7711206 -1.6080889 -1.1984547 -1.3729483 1.4410585 -0.7678331 0.85300875 0.5620316
0.39762196 0.35689214 -0.9093004 0.40648133 -1.3462483 -2.8059773 -1.1948333 1.3468672
-0.5872529 0.5688872 0.5958619 -1.4454383 1.0537255 0.25939682 0.9478929 -1.5331777
1.1852249 0.6665048 0.5657955 -1.6992238 0.5018585 1.9876672 -1.9928625 -1.6518003
0.56492555 0.69658804 -0.9774723 -2.5497203 1.4088277 -0.94296664 0.41813678 1.4431617
-1.3056362 0.5260626 0.5226734 1.3077443 -1.2665386 1.391166 -2.3347774 0.5124077
0.6282484 -1.7287134 1.4646056 1.2090031 1.2161157 -1.7991358 0.655544 -1.4512093
-2.6411562 0.7165174 0.4978164 -1.649984 -1.3437136 1.3772422 0.3246648 0.52718025
0.5253189 -1.637409 1.6212714 -1.1517085 -1.5964173 -1.5894471 -2.581596 -1.6761991
-1.2071657 0.3872493 1.7527279 0.5189434 -0.58859104 1.2029526 -0.6604037 0.31236053
0.45854622 -1.6034031 1.1761886 -1.9526485 0.5656002 0.91860074 0.6244469 0.62620467
0.6795426 -1.1712015 0.48449767 -1.7606639 -0.67336214 0.6081073 -0.90431124 0.4968271
0.6252612 -1.8253533 -1.0573362 0.362274 -1.7289447 -2.8141537 -1.7660245 0.6966461
0.39208758 -1.6072806 1.1715838 -1.1310545 1.2010815 -2.0928514 -1.950647 -0.45636144
-1.0624659 -1.6615999 -1.3284343 1.038698 -1.4541072 -0.9903431 0.6030302 -2.251059
0.7826614 -1.1785783 0.66142905 1.5199902 1.4768461 -1.1469934 -1.4234897 0.32703823
1.3286409 0.38209757 -1.3902258 0.39356136 0.5998708 0.51829207 -2.5249238 -1.778193
1.4607786 -2.105633 -1.134566 -1.2625135 -1.1980656 -1.8216872 -1.4240123 -1.2960608
1.3767133 1.2932006 1.1954124 1.024622 1.3718712 1.4026408 0.4554668 0.69083333
-1.440406 0.448081 1.2697253 -1.5357696 -2.5034244 -1.6302671 -2.1544526 -1.9051534
0.32486987 -1.0038335 0.25340483 -0.8470995 -0.9996787 -1.1335124 -2.9214056 0.68119806
1.2947922 0.26202586 -0.8084087 -2.0048094 0.53834635 0.21481131 -1.5197884 -1.8453819
-1.5940354 0.54996157 1.3611147 -0.5574471 -1.0139115 -1.4577403 -1.6174663 -1.8762813
0.59789556 0.35668755 1.3782276 0.56733674 1.5244893 -2.314816 -1.1520396 1.410149
-1.5086435 1.1996524 1.4129021 1.4405311 1.2716764 -2.1051924 1.1484725 -1.91902
0.42649442 -2.7411995 0.925167 0.68365556 -1.0412599 -0.77343017 -1.4291997 -1.8984159
1.1040928 -1.5398129 -0.8578137 -1.1470742 -0.96496236 0.40087047 -1.5293372 -1.1558475
1.0312444 0.97396386 -0.5946509 -1.1762142 -1.8204695 -3.1042857 0.29224715 -2.808581
0.2923664 0.34270808 -2.3860705 -1.8800416 0.46447796 -1.0622244 0.6447586 -1.9544415
-2.4053996 0.8024725 0.57014555 0.4856418 -2.3332632 -0.7939145 1.3834198 -1.3999171
-1.2763692 0.97679466 0.43211085 0.4497167 -1.4523443 -1.5773689 1.1127784 -1.438836

advantage_stream.0.weight f4 [256, 256]
00000000: f1b6 1cbf c287 663c 6dc0 efbd f48e 8ebe
00000010: 5656 a7be 0b41 8ebe d25b 23bf e25b 4ebf
00000020: 7959 5a3b 4f9c 64bf 0b4d 773c 3197 cbbb
00000030: 6132 56be 8729 15be 37fd b0bd f359 6bbd
00000040: 695e 05be 320d cbbe fd18 89be 5b18 a8be
00000050: 9d5c f33d 8330 c9be e33d 77be 6ce9 d23e
00000060: 6d16 7b3d 1897 7f3c b8e8 24be 362e c5be
00000070: a2c6 e4be 1bd8 143e 41c1 543d d5a6 cbbe
00000080: a5f9 bb3e 31d8 12be eba6 f7be 81fc e7be
00000090: 2332 8dbd a7a6 1c3f 675c ba3e 36e0 14bd
000000a0: 8a27 ebbe eaef a2be f7b8 943e 84e3 e4bc
000000b0: 3226 fb3d 6bd2 adbe 3bc7 a6bd eaea a53c
000000c0: 712a 79bf 3aa5 28bf f78c a2be 12e4 4c3e
000000d0: 2bf1 4f3d 40d4 0ebf 82d0 93be 69de c1bd
000000e0: c70a 0dbf 711f a63c 2452 36be 1824 8b3d
000000f0: 1c29 58bf cb7c f6be 4f78 903c 53fb 9a3e
00000100: 1e11 573d 6ad0 953e e6de e3be 8802 d23d
00000110: d584 00bf 5a4e 35bf 24e9 d8be 7d57 103e
00000120: 4321 ebbe 46b4 06bf 0a5e a1be be42 cbbe
00000130: fe33 2cbd aee3 f7bd b4cf 1fbe 9680 aabe
00000140: 9c22 493e 091a 513d 935e 9abe 4d4f 553d
00000150: b59e 923d 442e 04be 973c e9be 9c1f c33c
00000160: c6ea e43c 500f 48be 503d 7e3c 6a08 3abf
00000170: 324f 31be ad11 38bf 0302 023d 874d 13bf
00000180: 66b9 eebe 9beb a3bc f3ef 9bb9 1bdd 1dbf
00000190: 4f69 ce3e c0ce f4be 02a8 653e de25 b7bf
000001a0: d77a 87be 67f6 cdbe ff79 febd e9b7 cabe
000001b0: e2ac 7bbe d296 3f3e 7c85 ccbd c412 c3be
000001c0: e589 1bbf 87f3 9dbf 5b6a be3c 63a8 5fbd
000001d0: c0d3 d13d d250 0abc 9a78 43be 7ebe 2dbe
000001e0: d142 82bf efb4 c9be 2a6b bebf ee7c 8cbf
000001f0: 3121 5bbf 0ff8 893d 9e01 5ebf 7406 0abe
00000200: 5a45 873d c3fd b4bc e8a2 8d3d f2d7 433e
00000210: 6df2 34bb 0f8a ccbe 4044 7d3c d555 5abf
00000220: c57f 3dbf 10f9 9d3e 7c0a 04bf 4aed 03be
00000230: 5a41 4abe b733 af3e 81bf 9bbe fdc6 5abe
00000240: bbb2 92be 8465 0bbf f268 85be 9635 4fbe
00000250: bec0 edbd c08f 013e daab bbbe 4199 06bf
00000260: f384 c23d 9d3e d63d c15e 2a3d f9c8 f6bb
00000270: d774 1c3f 34c3 093e ad3d 5cbe cacb 0c3d
00000280: ecbe 08bf 3f7f 30bf ab54 fdbe 4ed5 5dbb
00000290: 964b cabe fd58 13be d41d 76bf 34b2 abbd
000002a0: 07b5 00bf d3d1 ca3e 0b22 c1be 63fd 9abf
000002b0: fe0c 89be 45da 483e 7305 bb3c 72d4 8abf
000002c0: f688 f63b 9c88 dcbe 0379 2fbe 6392 4c3f
000002d0: a5e6 82bd e595 0dbe 1999 0bbe 7a27 b73e
000002e0: f83a 5cbf 6c68 f0be 5477 a73d 67f6 2c3d
000002f0: 8464 36bd 2d5a 1ebe fdef 8a3f cfb9 20be
00000300: 1b7f e6be b0ec 11bf ceb2 8ebe 5f4f 21bf
00000310: 776b 4fbe 375f 073e 2535 b8bd e3b6 5ebe
00000320: 6c8b febe 5473 b0be 4fc4 d93e dda9 0b3b
00000330: c5a0 0e3e 9ce3 613e 0c56 c0be cd7d 093e
00000340: 07f7 3cbf 04e0 143e b983 cbbe f9c0 d23e
00000350: 2241 25be 7a3a 00bf 2228 06bd 71f0 3b3d
00000360: 2b10 6abe 11ce c1be 0b19 c0bd 08f4 98bb
00000370: 3427 99be cca5 b13e f4e0 17bf 836c 38be
00000380: 5ff2 6d3e e76f 81bf d743 9fbe 5890 a13e
00000390: 6c35 0bbf fb26 0dbf 491c 0fbf deb8 5bbe
000003a0: af23 09bf d93e 64be 8b9b 4dbf abd8 25be
000003b0: 1a7b 30be 765b 9ebd 6675 c4be 1f60 b4be
000003c0: b015 733b 9836 f7bd fcdd 54be 9c9f f43d
000003d0: c092 d43d 99db 40be 6e35 a23c 7752 6fbe
000003e0: cd22 4abe 01bf 2339 171d 1cbf 1300 18bf
000003f0: 516d bdbd ac3e 4dbe ea99 45bd a9c5 edbe
-0.61216646 0.014070453 -0.11706624 -0.2784344 -0.32683057 -0.27784 -0.6381198 -0.8060895
0.003331749 -0.8930101 0.015094052 -0.006213092 -0.20917656 -0.14566623 -0.08642047 -0.05745883
-0.13024296 -0.39658505 -0.26776877 -0.32831082 0.11882899 -0.39294824 -0.24144702 0.41193712
0.061300684 0.015599988 -0.161044 -0.3851182 -0.44682795 0.14535563 0.051942114 -0.3977572
0.367139 -0.14340283 -0.48369536 -0.45309833 -0.068943284 0.6119179 0.36398622 -0.036346637
-0.45928603 -0.31823665 0.29047367 -0.02794052 0.122631446 -0.339496 -0.08143469 0.020253617
-0.97330385 -0.65877116 -0.31748173 0.20008877 0.050767105 -0.5579262 -0.28870016 -0.094662495
-0.5509457 0.020278664 -0.17804772 0.06793994 -0.8443773 -0.48142084 0.017635493 0.3026987
0.05250656 0.2926057 -0.44505996 0.10254389 -0.50202686 -0.7082268 -0.42365372 0.14095874
-0.45923814 -0.52618825 -0.3151706 -0.39699358 -0.04204177 -0.12103973 -0.15606576 -0.33301228
0.19642109 0.05105022 -0.3015028 0.05207758 0.07159177 -0.12908274 -0.4555404 0.023818783
0.02794398 -0.19537091 0.015517548 -0.7266909 -0.17315367 -0.7190197 0.0317402 -0.5754017
-0.46625823 -0.020009806 -0.0002974268 -0.61665505 0.4031472 -0.47813988 0.22427371 -1.4308431
-0.26460907 -0.40227053 -0.12425613 -0.39593437 -0.24577668 0.18709877 -0.099863976 -0.38100255
-0.60757285 -1.2339944 0.023244074 -0.054603945 0.10245466 -0.008442121 -0.19088975 -0.16967198
-1.0176641 -0.39395854 -1.4876454 -1.0975626 -0.8559752 0.067367665 -0.8672122 -0.13479024
0.06605025 -0.02209366 0.069158375 0.19125345 -0.0027610317 -0.3994908 0.015458167 -0.8528722
-0.74023086 0.30854082 -0.515785 -0.12883487 -0.19751492 0.34219143 -0.30419543 -0.2136497
-0.28651986 -0.54451776 -0.2605663 -0.20235285 -0.11609028 0.12652493 -0.3665455 -0.52577597
0.09498014 0.10461161 0.04159427 -0.007531282 0.61115783 0.1345337 -0.21507902 0.034374036
-0.53416324 -0.6894416 -0.4947866 -0.0033849063 -0.39510792 -0.14389415 -0.96139264 -0.08383599
-0.50276226 0.39613208 -0.37721285 -1.2108577 -0.26767725 0.19614513 0.022829747 -1.0846083
0.0075236512 -0.43072975 -0.17136006 0.7991087 -0.06391648 -0.13826711 -0.13632621 0.35772306
-0.8602748 -0.46954668 0.08177057 0.042227175 -0.044529453 -0.15464087 1.0854489 -0.1569588
-0.4501885 -0.5700178 -0.27870792 -0.63011736 -0.20255838 0.13219915 -0.089945115 -0.21749453
-0.49715745 -0.34462988 0.42532584 0.0021310963 0.13928516 0.22059482 -0.3756565 0.13426895
-0.73814434 0.1453858 -0.39748934 0.4116285 -0.16138127 -0.5008923 -0.032753117 0.0458836
-0.2285773 -0.3785253 -0.093797766 -0.0046677627 -0.29912722 0.34696805 -0.59327626 -0.18010144
0.23236988 -1.0112275 -0.31106445 0.31555438 -0.5437839 -0.55137604 -0.55902535 -0.2145724
-0.53570074 -0.222896 -0.80315465 -0.16195934 -0.1723446 -0.077322885 -0.38370818 -0.35229585
0.0037091784 -0.1207096 -0.20787805 0.119445056 0.10379553 -0.1883377 0.019800868 -0.23371302
-0.19739838 0.00015616046 -0.6098189 -0.59375113 -0.09249366 -0.20043439 -0.048242487 -0.46439865
