active_slam_rl/training_output_slam/20260126_164625/d3qn_ep1600.pth (torch, 901810 bytes, 11 tensors)

feature.0.weight f4 [256, 100]
00000000: b0b5 30be d90d c7bd 2361 993d 05c5 243e
00000010: 5537 d2bd b3e7 be3c d247 c8bc 723d 4ebc
00000020: 5d88 a73d 85f6 5a3d 2e02 cebc 1fb3 dd3d
00000030: 01c5 233d b2cc bebd f0e2 3dbd 9571 453e
00000040: 20c8 1d3e 7815 0d3d 46f7 4e3d a60f 153e
00000050: 3ecc 143e 4150 6e3e 516c 6c3e 15b9 1c3e
00000060: 4ae3 423d b1af bfbd 984d 88be 08ae ecbc
00000070: 1c4f 1fbe b17a 6fbe b9e0 063c 8f2f 0fbe
00000080: 96d8 5fbe d9b8 febd f6a9 42be 4fbe 64be
00000090: 856e 7abe 0e53 8cbe 8857 6abe f66d f2bd
000000a0: 240e 6ebe c42b bebe bcdc 8fbe 4f68 41be
000000b0: d342 07be 5cf8 35be 0bc1 56be 3528 87be
000000c0: b210 4fbe 80df 2dbe 1461 b5be 8606 51be
000000d0: 0954 87bd 0297 72bd 4cb5 81bd 625c 00be
000000e0: a5e0 07be 1e0c 04bd f720 c6bd 29e9 aa3d
000000f0: 437f 2dbd 039d 243e c9fc 4e3d a5f4 62bd
00000100: f12d 1fbc 64b7 95bc c54d 753e 3ec9 6ebd
00000110: cc3a 5bbd 37b4 203e a8f2 bebd eecc f13d
00000120: 7885 23bd 0184 5cbe 0cda 893d 9949 79be
00000130: 790c 4ebe 60d0 8bbd 81bd e73d 6e30 0f3e
00000140: 7599 26be 8c71 1ebe 7bf6 c1bd 2b5d 483c
00000150: 36f0 56be 0dfd 33be d7a9 3bbe 8c35 6abe
00000160: 7647 f6bd 9f4d 91bd 3488 17be a22a 49be
00000170: bfd2 86be a438 47be e221 2cbe 6063 48be
00000180: 888a 93be 3831 d4be 1f04 e2be 437c 29bf
00000190: 07a7 aa3e f292 ad3e 0be2 483e a67d 3e3e
000001a0: 4c78 bc3d 4eed 273e 22e6 223d 10d0 1f3e
000001b0: 594c ea3c 7e91 05bd d2b6 1cbe 49e1 b3bd
000001c0: e813 69be 06fa 41be 0c1a 31be a88d 8ebe
000001d0: 7ab3 8fbe c5b9 7abe f4b8 34be b4a1 05be
000001e0: 0e05 a9be aa4c 02be 228b 47be 5cc4 83be
000001f0: 4de3 ccbd 4cc3 22be 265b 55be 3753 a7be
00000200: 4096 5bbe 1f9c 50be a32c 4dbe a2fa 71be
00000210: 429a 1cbe 9cac 22be f9c3 28be 9405 a5bd
00000220: 55c5 2bbe ac73 23be a44b 4dbe 940a 7ebe
00000230: 7fb6 5dbd ddc2 35bd 49da 913c 11d3 cf39
00000240: ad69 3dbd 4a9c f5bd 5974 60bb 4f31 2ebd
00000250: a80c 273c 67c4 6ebd fc3a fdbd bdae 79bd
00000260: 59ce c83d 9b7e 263e 6daa 333e 8c85 ae3d
00000270: d484 a03e aaea 493e 2f02 643e fdf5 efbc
00000280: 019f f2bc b315 3c3d 6208 1ebe aaf4 17bc
00000290: 96d7 1ebd a97e e7bb 511c 70bd bd7e f7bb
000002a0: 8854 fcbd f7e6 36bd a3de 75bb 0be1 4abe
000002b0: 118b 14be 3adf 18be 71c9 8abd 1bff 1ebe
000002c0: 0385 c63d 3390 dcbd 0b1a bdbd 824c bfbd
000002d0: f34f e63c c3d5 21be ac4d 6d3d 0427 913c
000002e0: e286 86bc 5957 3abe cf5d be3c d27f 1a3d
000002f0: 1a29 0ebe 88ed 85bd b666 163b 6260 aa3c
00000300: 5b3d fdbd ea91 1cbe 6c3b 89bd 4bb4 ddbd
00000310: ae30 4cbe 4ae9 54be e85f 0dbe aec1 b8bd
00000320: 4e73 863e 2344 293e 8790 b63d 7c37 213e
00000330: 24f7 983d 19c2 b83d 9df1 7e3e 321e 4e3e
00000340: b4fc 5c3e ab68 333e dfb5 333e 9172 913b
00000350: 03a0 923e ede4 f8bb 22ce 65be 1a03 91be
00000360: 825f 05be 560a b3bd 887d 32bc 7d91 923d
00000370: 3e14 d8bd fe1f 7dbe 664a 20bd cdff 54be
00000380: f2bf 84be 1d49 67be b8f7 a8be 0552 98be
00000390: 9945 b0be d368 79be f087 83be b00b a5be
000003a0: 2d1f b4bd 1fe2 13be 1670 16be 7b59 f2bd
000003b0: b815 01bd fa11 99bd 6151 9dbe d4e5 ebbd
000003c0: 66eb 143d 4ec2 aebd 6e27 8dbd fcca 4abe
000003d0: 4322 ecbc afd5 8cbe 173f 86be 8594 8dbe
000003e0: c414 3c3a 550d 3fbd b4fb 44be 85f5 bf3d
000003f0: 85a1 743e d079 a03c 4c0e 473e 3aae e6bc
-0.17256808 -0.09719438 0.074892305 0.16090782 -0.1026446 0.023303842 -0.02444831 -0.012587892
0.08180306 0.053457756 -0.025147524 0.1082518 0.0399828 -0.09316386 -0.046359003 0.1928161
0.15408373 0.034444302 0.050528787 0.1455675 0.14531037 0.23272802 0.23088194 0.15304978
0.04758004 -0.09359682 -0.266217 -0.028891578 -0.15557522 -0.23386647 0.008232289 -0.13982986
-0.21859965 -0.12437601 -0.19010147 -0.22338222 -0.24456222 -0.27407116 -0.22884953 -0.1183738
-0.23247582 -0.37142766 -0.28098094 -0.18887447 -0.13209085 -0.17770523 -0.20972078 -0.26397863
-0.20221213 -0.1697979 -0.35425627 -0.20412645 -0.06607825 -0.059226044 -0.06333408 -0.12535241
-0.13269289 -0.03223812 -0.09674256 0.08345253 -0.042357694 0.1607552 0.050534043 -0.055409092
-0.009715543 -0.018275924 0.23955448 -0.05829739 -0.05352287 0.15693747 -0.09323627 0.11806665
-0.039922208 -0.2153473 0.06731042 -0.24344482 -0.20121945 -0.06826854 0.11315442 0.13983318
-0.16269477 -0.15473002 -0.094708405 0.012229244 -0.2099007 -0.17577 -0.18326508 -0.22871989
-0.12025349 -0.07094883 -0.14798051 -0.1964517 -0.26332662 -0.194552 -0.168098 -0.19569159
-0.28816628 -0.414438 -0.4414377 -0.66205233 0.33330557 0.33901173 0.19617479 0.18602619
0.09202632 0.16399118 0.039770253 0.15606713 0.028600859 -0.032609455 -0.15304115 -0.08783204
-0.227615 -0.18943033 -0.17295092 -0.2784245 -0.28066617 -0.24484928 -0.17648679 -0.13049966
-0.3301167 -0.12724558 -0.19486669 -0.25735748 -0.10004292 -0.15894812 -0.20835552 -0.32680675
-0.21444035 -0.20372055 -0.20036559 -0.23630765 -0.1529322 -0.15886158 -0.16481008 -0.080577046
-0.16774495 -0.15962094 -0.20048386 -0.24808723 -0.05412912 -0.04437529 0.017804282 0.00039639373
-0.04624336 -0.119927004 -0.0034249036 -0.042527493 0.010195889 -0.058292773 -0.12364766 -0.06095766
0.09804983 0.16259234 0.17545481 0.08521566 0.3135134 0.19718423 0.22266458 -0.029292101
-0.029616835 0.04591913 -0.15432885 -0.009274641 -0.038779818 -0.0070646596 -0.058620755 -0.00755295
-0.123208106 -0.04465386 -0.0037516735 -0.1981241 -0.14506175 -0.14928904 -0.06776703 -0.15527003
0.09693339 -0.10769691 -0.09233483 -0.093407646 0.028114295 -0.158042 0.0579354 0.0177188
-0.016421739 -0.18197383 0.02323809 0.037719555 -0.13882867 -0.06539446 0.0022949404 0.020797912
-0.12365218 -0.15290037 -0.06700787 -0.10825404 -0.19940445 -0.20792118 -0.13806117 -0.090213165
0.26259845 0.16529898 0.08914285 0.15743822 0.07469013 0.09021396 0.24896856 0.20128706
0.21580774 0.17520396 0.17549847 0.004438706 0.28637704 -0.0075956495 -0.22441915 -0.2832268
-0.13024715 -0.08742206 -0.010894187 0.07156656 -0.10550736 -0.24719235 -0.039133452 -0.20800705
-0.25927693 -0.22586484 -0.33001494 -0.29750076 -0.344281 -0.24356394 -0.2568965 -0.3223548
-0.08795009 -0.14441727 -0.14691195 -0.11833473 -0.031514853 -0.07474132 -0.3072615 -0.115184456
0.036357306 -0.085331544 -0.06892286 -0.19803995 -0.028824931 -0.27506778 -0.2622001 -0.27652374
0.0007174725 -0.046643574 -0.19236642 0.09373001 0.2388974 0.019589335 0.19439048 -0.02815925

feature.0.bias f4 [256]
00000000: 5764 18bf 81ae 563e 9123 e53e 4d83 c5be
00000010: 0062 9bbf 77d6 22bf bbd9 263f db09 0a3f
00000020: 4ef8 e53e 9e23 69be a9a7 ae3e 3a7a 783a
00000030: 0043 33bc d4e8 abbe 6aba a0be 1b6d f13e
00000040: f334 0a3f 85c1 5b3e 76e6 f93e 05bd 243c
00000050: 41da 6abd 8bd0 d4bd b161 bcbe 5aaa c13e
00000060: db88 65bf fa50 d23d ee8f 763f 5914 05bf
00000070: a355 71bf 3631 b83d 8ef6 e03e 4b0f be3e
00000080: 5464 a63e 2c71 e1be 883e 28bf c774 03be
00000090: ad1c ab3d bd64 0dbd 4973 4fbf 6baf 323f
000000a0: 4233 033f bd17 853e 5809 663e 9339 b6be
000000b0: 7c42 c2bd c80b c53d d528 f0be b635 663f
000000c0: 9f9f f13d af9c 053f 68c2 9d3e 9b98 46bf
000000d0: 8ba2 f2be 358a 8a3c 9dc1 ee3d 02ec 59bd
000000e0: bdb4 b13e 1f55 d43e 2749 d7be ef9d 3ebd
000000f0: 8420 d93d 753d 0a3f 81a0 70be 3e0f a33e
00000100: 58c5 6bbe a9b6 ebbe b481 acbe a545 c03c
00000110: b364 9d3e 6f77 0f3f 6926 023e 238c 213f
00000120: 5420 0ebf 7740 03be 4828 5d3f 0e32 ff3e
00000130: 4ce1 99bd 08ba e93e 15e2 303f 8a08 16bf
00000140: 7504 923d c680 f9be 4613 b5be bcd3 7b3e
00000150: fa56 cf3e 132c cfbe ee8b 833e 52d7 3c3f
00000160: 2613 2dbe d325 aabe 502a f03e 0f58 0cbf
00000170: e333 11bf 5602 d6be a580 a93e 2ab2 2d3e
00000180: 791c 643e 95c6 443e 52ef b1bd aa31 af3c
00000190: 7672 05be 5d2b 2cbe a7e7 213e 174d bd3e
000001a0: d31d a33d 4bdf f23e b8d3 ac3e e2dc 21bf
000001b0: 01d5 543f 6f60 1bbe 469a cbbe 42cb 8e3d
000001c0: d644 643e 39ed b93e 3b3b 8a3c e4e4 0abf
000001d0: 8731 de3e de98 113f a830 48bf 8692 123f
000001e0: 1a7d 333f 3deb 693e cadd 25be d134 f93d
000001f0: 65d6 693e a2f6 dfbe 3cbb 903e 1ac1 1c3e
00000200: 41e7 e83e 833e 9c3d 68bb e3bd 81d7 1abe
00000210: f95d 38bf 70bf c0be 35fa 19be 1748 f03d
00000220: 8dcb b33e 868b 14bf 97d1 a2be 27c1 683e
00000230: f986 083f a260 073f 4e28 39bf 5742 01be
00000240: ee36 4dbd dc2e 37bf 80bb 413d 841b 153f
00000250: 9b47 a13e 98d9 913e 24de 613f 501a c33e
00000260: fa06 d1be d0a8 fdbe d96d afbe b070 ebbe
00000270: f5c2 583b 3741 e6be 2c8e 2d3e 05f6 113f
00000280: e264 003e 92af 2b3f ca43 2bbe a079 8abe
00000290: 8211 d9bd c3bf ee3d 2c77 263f 3da3 33bf
000002a0: 51f9 8bbe ecb4 67bd c548 14be 7e80 0e3f
000002b0: bb04 04bf 6a8b 88be 5a32 c53e 1ccf 143f
000002c0: d14e 84be fad7 73bd 99e5 d43e 3631 cb3e
000002d0: 7bf1 043e 2653 033f 9d7e 6e3d 8d04 e53e
000002e0: 1e48 803e 5597 abbd 9688 e8bc f700 06bf
000002f0: 52f0 7bbf 63cf b43e b9bf ebbe 3b74 4cbe
00000300: 6f23 49be 6e9e 36be 0190 a43e 944e 92be
00000310: 3096 27be b649 453f 04c7 2bbf 616f 8fbe
00000320: b8e0 543e 8516 963e b207 223c c0ef 9e3e
00000330: d10f a73d 5689 da3e 0816 033f 79f8 cd3e
00000340: 9b40 de3e b263 753e d47b 6139 9de8 583f
00000350: e2ee f6be e3cb 0d3f 5d60 10bf 5296 4c3f
00000360: 4b89 e83e f16d a8bb b91a 413e ee2e 2f3f
00000370: 5ee1 3bbd 784a 143f 1be8 abbe 35f0 db3e
00000380: 170b 3abf 439a 263e 165d 2c3f 7c90 11be
00000390: 9807 13bf 7c64 d7be d0bc 153f b275 69bd
000003a0: b618 97bd 3065 dfbe 35ee 43be da1d fdbe
000003b0: 3f50 1c3b bbb1 e63e dec7 e8be eafc 06bd
000003c0: c24d 0bbf 70b5 ab3e 4c20 873e 288e a2be
000003d0: 67e7 8b3e b4cf e33e 743f 713e 652b d83e
000003e0: 5037 edbe 4159 18be 5aa5 11bf 04f6 92bd
000003f0: ee76 103b 53be f13e 6b32 0dbe ee21 803e
-0.59528106 0.20965005 0.44753698 -0.38576737 -1.2139282 -0.636085 0.6517598 0.5392129
0.44916004 -0.22767493 0.3411229 0.00094786624 -0.010941267 -0.3357607 -0.31392223 0.47153553
0.53987044 0.2146054 0.4880864 0.010054831 -0.05733705 -0.10391339 -0.36793283 0.3782528
-0.8966195 0.10269351 0.9631337 -0.51984173 -0.94271296 0.08993761 0.43938106 0.37121043
0.3249842 -0.44031656 -0.65720415 -0.12837516 0.08355079 -0.0345199 -0.81035286 0.69798917
0.5125009 0.25994673 0.22464502 -0.355908 -0.09485337 0.09621388 -0.46906152 0.89925706
0.117980234 0.52192205 0.30812383 -0.7757661 -0.47389635 0.016911605 0.116580226 -0.05320359
0.34708205 0.41471192 -0.42047998 -0.046537336 0.10601905 0.54000026 -0.23498727 0.31847566
-0.230245 -0.46037796 -0.33692706 0.02347071 0.3074089 0.56041616 0.12709965 0.63104457
-0.5551808 -0.1281756 0.8638959 0.49842876 -0.07513675 0.45649743 0.69094974 -0.5860678
0.07129756 -0.4873106 -0.35366267 0.24592489 0.40496045 -0.40463313 0.25692695 0.7376605
-0.16901836 -0.33231983 0.46907282 -0.54821867 -0.567198 -0.41798657 0.3310596 0.16962495
0.22276486 0.19216378 -0.08688225 0.021385986 -0.13031945 -0.16813417 0.15811025 0.36972877
0.07964673 0.47435984 0.3375528 -0.63227665 0.8313752 -0.15173505 -0.3976614 0.06972362
0.22291884 0.363138 0.016873946 -0.5425551 0.4339716 0.5687388 -0.78199244 0.5725483
0.70112765 0.22843643 -0.16197887 0.12168277 0.22835691 -0.43742853 0.28267848 0.15308037
0.45488933 0.07629111 -0.11119729 -0.1512127 -0.7201839 -0.37646055 -0.15036853 0.117325
0.35116234 -0.58025396 -0.3180053 0.22729932 0.5333095 0.52881825 -0.72327125 -0.12622963
-0.050101213 -0.71555877 0.047297955 0.5824511 0.31499943 0.28486323 0.88229585 0.38106012
-0.40825635 -0.49542856 -0.34263495 -0.4598441 0.0033075188 -0.4497163 0.16948766 0.5701602
0.12538484 0.67064774 -0.16725078 -0.27045918 -0.105990425 0.116576694 0.6502559 -0.70170957
-0.2733865 -0.056569025 -0.14480884 0.55664814 -0.5156972 -0.26668864 0.38514978 0.58128524
-0.25841382 -0.059532143 0.4158142 0.39685982 0.12982742 0.5129875 0.058226217 0.44730034
0.2505502 -0.08378474 -0.028385442 -0.5234522 -0.98413575 0.35314474 -0.4604471 -0.19966213
-0.19642423 -0.17833874 0.32141116 -0.28575575 -0.16365886 0.770656 -0.6710055 -0.28014663
0.20788848 0.29314056 0.00988953 0.3104229 0.081573136 0.42682904 0.5120549 0.40228632
0.43408665 0.23963812 0.00021503802 0.8472994 -0.48229128 0.5538923 -0.5639704 0.7991687
0.45417246 -0.005140059 0.1885785 0.68430984 -0.045869224 0.5792613 -0.3357552 0.429567
-0.7267317 0.16269784 0.6732954 -0.14215273 -0.5743346 -0.4206885 0.5849123 -0.05699701
-0.0737776 -0.43631887 -0.19133838 -0.49436837 0.0023851541 0.45057473 -0.45464987 -0.03295604
-0.54415524 0.33536863 0.26391828 -0.31749082 0.27324983 0.44494402 0.23559362 0.42220607
-0.46331263 -0.14877798 -0.5689293 -0.0717583 0.0022043544 0.47215518 -0.13788764 0.25025886

feature.2.weight f4 [256, 256]
00000000: ca76 0ebd aba6 ce3d 1ad9 53bd 1fac 9c3b
00000010: efad a7be 59c0 04be dff8 aa3d b1d7 5d3e
00000020: 1038 953e 4165 3d3e d4f0 af3d eb33 f63b
00000030: 2be0 9f3c 869c 4dbd b8a1 c0be ecf9 6b3e
00000040: b33b 2bbd eda1 f43d e21d 523e c50e 9cbc
00000050: 95c4 e2bd 2a17 2fbd 619e dabd 56a9 00be
00000060: e60d c7bd d65f 603e ef31 bc3e 81e3 1cbe
00000070: 3a64 a5be 40da 413d 2f5e 313b 5b9d db3e
00000080: 16f8 653e bea3 583e daea 1bbe 3be3 e73d
00000090: 83ed 02be 56c3 933e d742 64bd e2e8 513e
000000a0: 1a8f 8e3e bcf4 15be 3e6f 3b3e 943b c13d
000000b0: e0f4 aa3d 41d4 be3e 3c58 313d 024e 303d
000000c0: dc8f 243d 1b96 fe3e b2d5 273e f320 76be
000000d0: 88fd 10bd 70ef 8a3e 1a3f 04be c74c 7a3d
000000e0: 5086 53bc be0b 893e dc27 cbbc 8426 f8bd
000000f0: 5962 8a3c 4616 973d 49c8 e0ba 7bdb a03e
00000100: c2b5 ccbb 6722 58be 9b4a 4ebe 2ad4 a63d
00000110: 0549 213f 5549 513e cec3 ef3d 60e6 853e
00000120: bc7e b2be be8f 9db9 8e56 093f 063e ae3e
00000130: 6414 7a3c 627b 94bb 48db 4f3b 3d1e f9bd
00000140: c3e8 0abe 6c8b 0a3c aebf 9ebd 87f0 e63d
00000150: 3a20 4e3e e151 eb3b c341 023e aaa3 03bc
00000160: d90b 57bd de74 4fbe bf53 713e a32b 95be
00000170: 7353 e3be d247 17be d24b cf3e d4f7 563e
00000180: aa71 a43d 6a34 bbbd 449b dabd 4dce 353e
00000190: 5b75 653e 0727 67be 2e3f dc3e eb34 84be
000001a0: b2f1 8c3c 589a f13d 5f67 9e3e 7ed3 003e
000001b0: 02de ba3e 2534 5fbd 6bf9 663e 99ef 86bd
000001c0: 689c 023e 3421 bc3d 3aaf c43d 73b2 e6be
000001d0: 66ed 0b3d 0f31 513e af9a 03bf 271e 113d
000001e0: 7063 103f 61e7 ab3e 1e9c 0f3d 129b 833d
000001f0: 8dca cabc 09f0 a23e 6dfe 19ba 5f99 65bd
00000200: 2b9d 953e 7275 c9bd 51bc 913c dc7d 853e
00000210: 4b47 debe 234d adbe ba0a 81bc 7dda b4bd
00000220: f697 cf3e b7c0 be3d cfb0 1cbe 2272 ba3d
00000230: fbde 603e 0666 bf3e 3994 bebe 5b33 c9bc
00000240: 256d 853e 7544 99be b316 68be 9711 3d3e
00000250: 27d3 bfbc f06d abbc 5563 013f 8b1b 8f3e
00000260: a409 a8bd 93b0 e6be fd9c c2bd 848f 03be
00000270: ff36 3a3d ed3e 8f3e 3b4f 8fbd c564 863e
00000280: 1f84 98bd 528c b13e 12ec a63e 1045 283e
00000290: 40ac a03c d996 5cbe eb53 003f e23f f3bd
000002a0: b9d9 22be d79d be3d df8c 263e c1df 15be
000002b0: 41b6 97bd 4588 a23c 31e8 203d 358f 063e
000002c0: 41fb c6bd 7a88 3c3d 1839 603e 24e1 893d
000002d0: e811 a43d cf2a 673e e040 bd3e ee82 043f
000002e0: b4cd ab3e 14da a7bd f06a 1cbe d6b6 0ebe
000002f0: 3f47 70be 98d9 da3d 9f70 d63c 06d5 12bd
00000300: 11e5 26be fcef 90bd ca23 bb3e 1676 ffbd
00000310: cb6c 163e 659a 163e 8bda 08be 8b5a b6bc
00000320: 30f4 ee3d b774 97bd 5dbe 953d 07f1 523e
00000330: d043 d3bc c2f3 d03e e535 083f ce34 513e
00000340: c39d dc3d 976a db3c e2fa 29bd 6b2d 3a3e
00000350: 72ee 3bbe 3be8 e73d c677 33be d908 d23e
00000360: 38d5 663d 2bd0 e4bd 1502 15be ec66 643e
00000370: 2f8f 1cbd 6a89 b2bd 985f 103e 5999 923e
00000380: 82f1 06bf 7061 f43e 9f79 e13e ddd3 67be
00000390: e1b0 25be 8df3 dc3d 6d77 a13c 5ca2 be3e
000003a0: 1d58 32be 9fe9 993a aa59 13be 0100 cebe
000003b0: 75fd 1dbd 74e2 683e 7224 6c3d 691a 8ebe
000003c0: 0a42 7b3d 3721 763d f366 4e3d ac07 f13c
000003d0: add3 ff3d a4e5 063e c38c 66bd 0499 7e3e
000003e0: 2308 57be 7fd2 54be 7aa6 a0be 93df 6abe
000003f0: 96f9 02ba 19fc 9e3c 10ca 9fbe 2db3 983e
-0.034781255 0.10090383 -0.051720716 0.0047812606 -0.32749888 -0.12964 0.0834825 0.21664311
0.29144335 0.18495657 0.08590856 0.0075135133 0.019516071 -0.0501981 -0.37623382 0.23044556
-0.04180498 0.119449474 0.20519212 -0.019050011 -0.11072651 -0.0427467 -0.1067474 -0.12564597
-0.09719448 0.21911559 0.36756846 -0.15321161 -0.3230303 0.04732728 0.0027064194 0.4289349
0.22457919 0.21156213 -0.15226308 0.11322638 -0.12785916 0.28859967 -0.055727806 0.20498994
0.27843553 -0.1464414 0.18304154 0.09435192 0.083474874 0.37271312 0.043297037 0.043043144
0.040176257 0.49723896 0.16390112 -0.24036007 -0.035398036 0.271358 -0.12914696 0.061108377
-0.012910441 0.2676677 -0.02479928 -0.12116721 0.016892599 0.07377295 -0.0017149533 0.3141745
-0.006247253 -0.21106873 -0.20145647 0.08145936 0.63002044 0.2043813 0.11707269 0.26152325
-0.34862316 -0.0003005247 0.53647697 0.34031695 0.015263651 -0.00453131 0.0031716395 -0.121639706
-0.13565354 0.008456092 -0.07751404 0.11276346 0.20129481 0.0071813916 0.12720399 -0.008034626
-0.052501533 -0.20259425 0.23567103 -0.29134855 -0.44399604 -0.14773491 0.40487534 0.20992976
0.08029492 -0.091408566 -0.10674146 0.17754479 0.22408049 -0.22573482 0.43016952 -0.25821623
0.017205093 0.11797017 0.3093824 0.12580678 0.36497504 -0.05449309 0.22556083 -0.065886684
0.12754977 0.091860205 0.09603734 -0.4505802 0.034161948 0.2042887 -0.51407903 0.035429146
0.5640173 0.33574966 0.035060994 0.06426062 -0.024754787 0.31823757 -0.0005874399 -0.05605447
0.29221472 -0.09836854 0.017789992 0.26072586 -0.43413767 -0.33847913 -0.015752185 -0.08830736
0.40545624 0.09314101 -0.15301822 0.091038 0.2196006 0.37382525 -0.3722246 -0.024560621
0.26059833 -0.2993504 -0.22664909 0.18463741 -0.023416115 -0.020926446 0.50542194 0.279507
-0.08204964 -0.4505659 -0.095025994 -0.12847716 0.045462605 0.27977696 -0.06997534 0.26248756
-0.07447075 0.34677368 0.32601982 0.16432595 0.019613385 -0.21541919 0.5012805 -0.11877419
-0.15903367 0.09307449 0.16264676 -0.14636137 -0.07407809 0.019840369 0.039283935 0.13140567
-0.09715892 0.04602859 0.2189678 0.06732395 0.08011228 0.22574924 0.36963558 0.5176228
0.33555377 -0.08195892 -0.15275168 -0.13936934 -0.23464678 0.10686034 0.026176749 -0.035847686
-0.1629832 -0.070770234 0.36550742 -0.12473695 0.14689939 0.14707334 -0.13364618 -0.022259971
0.11667669 -0.073953085 0.073116995 0.20599757 -0.025789171 0.40810972 0.53207237 0.204303
0.10772278 0.026784224 -0.041499026 0.18181388 -0.18352678 0.11323591 -0.17526159 0.41022375
0.056355685 -0.111725174 -0.14551575 0.22304887 -0.038222488 -0.08717616 0.14098966 0.2863262
-0.5271226 0.4773059 0.44038102 -0.22639413 -0.16180755 0.10788641 0.019710267 0.37233245
-0.17416425 0.0011742598 -0.14389673 -0.40234378 -0.038571794 0.22742635 0.057651944 -0.27754524
0.061342277 0.06009027 0.05039115 0.029422604 0.12491546 0.13173538 -0.056286585 0.24863058
-0.20999198 -0.20783423 -0.31377012 -0.2293685 -0.00049962976 0.019407319 -0.3120885 0.298242

feature.2.bias f4 [256]
00000000: d47a fabc 69b0 19be e8f3 19be 0a64 053b
00000010: 7dbc 82be f547 7bbc f0bd a53d 8c83 39bd
00000020: 831f d8bd 1921 c7be c94b a73d 1f73 01bd
00000030: 7bfb 053b fd58 253f 185d 4b3f e3e9 93be
00000040: 3722 99be 0598 1ebe cf95 68bc b640 c53d
00000050: 5b9d 3ebd bdfd 7dbe 0f4d 5abf 90be 813e
00000060: 5d96 c0be 88cb a13c 82a0 7bbe ab14 84be
00000070: e990 bcbb 8243 91be e9f4 833f 7a21 e9bc
00000080: 9374 9c3d 1312 e8bc 8544 b83d 03e3 d0bd
00000090: 3454 083f f471 153e afcc 9abe 1fa8 95be
000000a0: 3318 c8bd e56f 15be 62e4 71be cfc3 9ebe
000000b0: b2a7 c6be 48ca abbd e021 8c3d b346 7dbe
000000c0: 10af 2bbe 240d 86be ee41 7dbd bdd3 d93d
000000d0: 0929 03be 9ac6 6fbc 49ba 15be aea6 d63d
000000e0: e79e 09bd 7369 66be 9472 6abe 41bf ceba
000000f0: 8e20 a4bd 0fb7 acbd 4221 c8be 0f94 0a3e
00000100: d58c 32be 1c76 853e 77a8 933d 536f 6c3f
00000110: 1d47 f93e 5d03 04bf f253 f7be 0ee3 5ebd
00000120: a945 143b 6b37 82be e0aa b23e 2554 d03c
00000130: 60e3 02bf b332 4abe 052b 3d3e c71b 6b3d
00000140: 19b4 183f b5c1 f43c 93db 31bc 12af 13bf
00000150: 5345 1c3e a66b 3a3e a0b0 84be fcfa 013e
00000160: a644 753f caaa a43e 7223 a0be 369d 56bd
00000170: 92ec 8cbe 4909 60be af67 24be 7d2b 083f
00000180: bdae b73e 07e8 9ebe 0f56 073f daa4 653e
00000190: 1d31 a5bc 99a2 23bd b157 903c e7a0 5ebe
000001a0: aa52 c1be 9c6d 6abe 2699 2b3e e4a1 403d
000001b0: 5776 15bf bdaa c13d bc09 4d3c 8088 3cbe
000001c0: d512 9bbe 1c25 4dbe 609e 04be 6287 c9bc
000001d0: 7609 c9ba ea0f 05bf e71a 953d 24ff 6dbe
000001e0: 4bbd c13d 2edf 3c3e 341b c63d 507e e6be
000001f0: e2e4 80bc 9874 10be b41f c3be df47 dbbd
00000200: df82 72be 4e87 093e 7fdd babd 0203 b9bd
00000210: c778 9bbc b689 9b3d 153e 683b 0129 573e
00000220: 75bd 1c3d 50e0 da3e e175 913e 3894 9fbe
00000230: dada 643f 99d8 483d 5992 c0be 8ae6 97be
00000240: 5e90 503e 6c6b 45bd a27b bcbd 44fb 01be
00000250: f124 19bf a0e2 fb3d 5ee6 a0bd 4d4f 36be
00000260: e468 09be 00bc 35be d2a5 763e f647 79be
00000270: 3a6b 443e daf9 603f 3d99 a33d 7c2e 7ebe
00000280: 73ba ee3c 3155 b6bd e61c e8be 81b3 81be
00000290: a6d1 f7bd 0883 babe a720 a03d bb2c 16bf
000002a0: f31b 9a3d 9533 313d 4c11 c4bd 62e9 e03e
000002b0: cb8f 343f 63c1 f8be 5d1c 60be 7e11 843c
000002c0: 5628 c63d f611 813d 72f7 7e3d 99e4 063e
000002d0: 3024 25be b24c 013d 7f07 06bf be80 033e
000002e0: e31a 0bbf 093d 173f 90e1 0b3e 02fe 17bf
000002f0: c88f 92be f9e1 3d3c f909 ad3d 57a2 c43c
00000300: 3810 023e d1bc edbe aa83 b8be bed8 533e
00000310: c134 ccbe 9623 3bbf 22b9 3f3f 621b 0bbf
00000320: 1a12 a13d 5975 56be 16ff a8bd 45b2 033f
00000330: 7a29 593c 81d8 023e d954 1cbe 0ff5 2d3f
00000340: d14d 94bd b69d b3be af76 073f 3d6e dbbc
00000350: df21 583e eeae 613d 911e 4cbe ab2e 2abe
00000360: 2401 c73d 221b 7fbd ef32 80be e4f1 e93c
00000370: b4d1 9b3e 7112 3b3e adf2 fabc 55e7 71be
00000380: ae08 163f da7a ad3d 484c ebbe c733 853d
00000390: 68f6 383e b94c c83d 7156 6e3c 05dd b9be
000003a0: b12f 1abe 757c 583c bf2b a83e 7cdb 243f
000003b0: 94c3 b9be e0b2 ec3e fac9 f2bc d707 92bd
000003c0: 1bc9 ab3e 7b55 3fbd 77b0 b3be 7412 2d3f
000003d0: 7666 08be 9f7b e1be 723b 77be 9283 16be
000003e0: 4d19 b43d 86dc 57bd f510 003c d5c7 f33d
000003f0: c30e fdbd 0d8a afbd 5720 6fbe 0651 6dbd
-0.030576147 -0.15008701 -0.15034449 0.0020353817 -0.2553443 -0.01533698 0.08092868 -0.04529147
-0.105528854 -0.3889244 0.08168752 -0.03160393 0.0020444083 0.6458891 0.79438925 -0.2888938
-0.29908916 -0.15487678 -0.014195873 0.09631483 -0.046536785 -0.24803825 -0.8527383 0.253407
-0.37614718 0.019750372 -0.24572948 -0.25797018 -0.0057545793 -0.28371817 1.0309116 -0.028458346
0.07639422 -0.028328931 0.08997444 -0.10199549 0.53253484 0.14594251 -0.30234286 -0.2922983
-0.09770241 -0.14593466 -0.23622277 -0.31008765 -0.38799816 -0.083881915 0.06842399 -0.24734001
-0.16766 -0.261819 -0.061830454 0.10636089 -0.12808622 -0.014634753 -0.14621843 0.104810104
-0.033598807 -0.22501163 -0.2289527 -0.0015773551 -0.08014022 -0.08433353 -0.39087874 0.13533042
-0.17436536 0.26066673 0.072098665 0.9235737 0.48687068 -0.5156763 -0.48306233 -0.054415755
0.0022624529 -0.25432906 0.34895992 0.025430748 -0.51128197 -0.19745903 0.18473442 0.057399537
0.5964981 0.029877523 -0.010855573 -0.5768901 0.1526082 0.18205127 -0.25916004 0.12693399
0.95807874 0.32161552 -0.31277043 -0.05239602 -0.2752424 -0.21878542 -0.16055177 0.5319136
0.35875502 -0.31036398 0.5286569 0.22426167 -0.02016502 -0.039949987 0.01761994 -0.21741067
-0.3775838 -0.22893375 0.1675764 0.04702939 -0.583837 0.09456394 0.012514528 -0.18411446
-0.30287805 -0.20033687 -0.1295104 -0.024600688 -0.0015337903 -0.5197741 0.07280522 -0.2324186
0.09459933 0.18444511 0.09673157 -0.45018244 -0.01573414 -0.14106977 -0.38110125 -0.10707068
-0.23682736 0.13430521 -0.09124278 -0.09033777 -0.01897849 0.07594626 0.0035437394 0.21011735
0.038266618 0.42749262 0.28410247 -0.3116777 0.8939644 0.04903469 -0.37611654 -0.29668075
0.20367572 -0.04819815 -0.092032686 -0.12693506 -0.59821993 0.12299085 -0.07856439 -0.17803688
-0.13418919 -0.17747498 0.24086693 -0.24343857 0.19181529 0.87881243 0.07988212 -0.2482242
0.02914164 -0.08902968 -0.45334548 -0.25332263 -0.12100534 -0.36428094 0.07818728 -0.58662003
0.07524862 0.043262083 -0.095736116 0.43928057 0.7053191 -0.48585042 -0.2188582 0.016121622
0.09675662 0.06302254 0.0622477 0.1317314 -0.16127086 0.031567283 -0.5235519 0.1284208
-0.543379 0.5907751 0.13660264 -0.5937196 -0.2862532 0.011589521 0.08449168 0.02400319
0.127015 -0.46433118 -0.36037952 0.2068815 -0.39883998 -0.73101175 0.74891865 -0.5433866
0.07864781 -0.20943202 -0.08251779 0.5144389 0.013254518 0.12777902 -0.15266742 0.67952055
-0.07241405 -0.3508126 0.5291547 -0.026785964 0.21106671 0.055098467 -0.19933535 -0.16619365
0.097170144 -0.062281735 -0.2503886 0.028557725 0.30433428 0.18268754 -0.030633295 -0.23623402
0.58606994 0.08470698 -0.45956635 0.06504016 0.18062747 0.09780259 0.014546976 -0.36301437
-0.15057255 0.013213267 0.32845876 0.64397407 -0.36282027 0.4623022 -0.029637326 -0.071304016
0.3355187 -0.04671238 -0.3509557 0.6760628 -0.13320336 -0.44039628 -0.2414377 -0.14698628
0.08793888 -0.052700542 0.007816543 0.11903349 -0.12356331 -0.08571253 -0.2335218 -0.057938598

value_stream.0.weight f4 [256, 256]
00000000: 86e4 febe 796f abbe 3f7b 09be a3d8 34bf
00000010: 6ab5 44bd f04d c6bc 008f 7abf 5389 adbe
00000020: 2dce fdbe 7fa8 813e b171 133d 78b9 51be
00000030: 2e0f 16be 699f 823e 3bbb 583e b49c b63c
00000040: 142d db3c a22d 3ebf 8fc3 d1be fc4f c2be
00000050: 23ff 40bf 652c 92be e07a cd3a 05c9 95be
00000060: eb5a 95bd 2920 3abe 8701 a9be 72d1 00bf
00000070: 3e40 e1be a988 7cbd 06e7 2e3e 1979 b8bd
00000080: fc66 a2be c0af 84be 41b3 86be 043b 65be
00000090: 1abd 313e b5d6 d2be 1bab 3abe 9140 56bf
000000a0: 6578 64be 6def 0fba 0d4c e2be d72d c9be
000000b0: 45be 63be 6806 bcbe c520 38bd 52e0 82be
000000c0: 6e0a ac3d 8438 a3be 7038 07be 60a7 bebe
000000d0: 0c4a 8fbe 8af1 56be f7ec d9be b518 8a3e
000000e0: b80a 59be 9490 223d f402 21be c968 5fbe
000000f0: 0f7a 61bf b48f 19be 69f9 0cbe 9aa6 bd3e
00000100: fe11 ee3d 7808 5e3d d0c7 acbe 3e84 d63d
00000110: 5d70 9ebe c02f 81be 0727 05bf ffde ccbe
00000120: 47d8 dbbe acb1 48bd 3cfe 0bba 1639 13be
00000130: b818 95bd da12 20bf ad3f 19bf ec3f 5abe
00000140: 0557 acbd a2a7 93bb 0027 06bf 3f99 103d
00000150: aaf6 dcbd 10df f23d 5a44 54bd c7a1 a0be
00000160: 7db9 fd3c 4170 d3bc 2d89 223d 327b e4be
00000170: a2d1 6bbe 0183 bfbc 81e5 953d 4230 c33c
00000180: 11ea bdbd 6d8c 8e3d f8cd aa3b 8647 2ebf
00000190: fa49 a9bd d154 b8be 194c af3d 6fde 53bf
000001a0: b697 cdbe c652 5b3d f640 80be 883a 00bf
000001b0: 3d19 c4bd 97eb 833e 80d4 c4be b6f9 dfbd
000001c0: dc4c cbbe 4a20 4b3d a0bf d5bc ab74 a3be
000001d0: dc8b c6be ae54 73bc 5a40 38be 034f d9bc
000001e0: 60e1 64bf a49b 9338 1414 35bf 64fa 9bbf
000001f0: 0777 8abd 7bb9 19be 4e80 97be 362e 2cbf
00000200: 3e39 aabe 9f4b 573e e876 85be 410b a0be
00000210: 9f42 d1be c6c2 39bf 1b97 d3be b38d 02bf
00000220: c071 3b3e f404 e3bd 2899 843e 1314 5f3d
00000230: 2148 9e3c 032a 20be 8210 40be b6cd 2cbd
00000240: f6ad f8be 064f 44bd 701b febe 8efa 0c3d
00000250: 5ff7 11be 82b4 18bf f127 b1be 5174 02bf
00000260: 31f9 16be 2cf1 3d3b fdee a63e f7cf 18be
00000270: edfa 04bf f8d3 8f3d 53e9 e9bd 7abc adbd
00000280: e252 b4be 74be d4be 515f 413e 74a4 823c
00000290: cdea f1be bc0b 923d e8e8 96bd 5038 3dbc
000002a0: ce74 8bbd 7a61 05be fc94 6abe e6bf 05bf
000002b0: dbbd 5b3d 9a72 89be 7951 39be 3f90 d6bd
000002c0: 00ef 7fbe 5f6f 16be 81e5 91be cd41 fdbb
000002d0: bb8d f6bd 6a16 8c3e 006f 98bd 783a 01bf
000002e0: 06f3 e6be cd1c 903d 02ba 5fbf de2c fabc
000002f0: 8fb2 28be 7018 67be c285 983c 9a8f 21bf
00000300: 4403 dcbd fd32 8fbe 9f81 9abd c7da 40be
00000310: 288e c8be 203c 76be 81e5 183c 0161 1dba
00000320: ebd6 cbbe 2919 803e b76b 16bf ffee d5bb
00000330: 1054 12be 977a 1abf 2c43 423b a8e3 a13d
00000340: 81c5 9e3d d73d 30bf 3d9b 9d3e daa6 08bf
00000350: fdc4 7dbf 232f f83d 381c 29bd a296 7ebe
00000360: 2aab d43d 32dc 41be a999 6ebe 84f1 54bf
00000370: 8bf8 08bf 1ea7 bcbf 3ab2 d2be 9875 3a3d
00000380: d989 f53c 89af e7be 6f74 38bd 66bb c5be
00000390: 3d65 aabe a653 19bf c011 463c e522 58bf
000003a0: 0cf8 3cbe da02 76be 241e 30bf 362e 0bbe
000003b0: 1aae 8fbd b83f 5bbc 70b7 8abe 3e91 7bbe
000003c0: a8bc bfbd 2ec7 44be 6203 823d c2a0 783e
000003d0: a882 02bf a937 33bf fff8 1fbe 5925 8e3d
000003e0: ac26 febe 5e38 2ebc 636e b1be 88da 6a3e
000003f0: 423a 6abe 0ac2 09bf 1b52 07bf f36b 45bf
-0.49783725 -0.33483484 -0.13425921 -0.7064306 -0.048024572 -0.024207085 -0.9787445 -0.33893833
-0.49571362 0.25323865 0.035997096 -0.20480907 -0.14654228 0.25512245 0.21165173 0.022291519
0.026754893 -0.7428838 -0.40969512 -0.37951648 -0.7538931 -0.28549495 0.0015676878 -0.29254928
-0.07292732 -0.1817633 -0.33008978 -0.5031959 -0.43994325 -0.061653767 0.17080316 -0.090074725
-0.31719196 -0.25915337 -0.26308635 -0.22385794 0.17357293 -0.41179433 -0.18229334 -0.8369227
-0.22311552 -0.00054906943 -0.44198647 -0.39292786 -0.22240551 -0.36723638 -0.044953126 -0.25561768
0.08400427 -0.31879056 -0.13205123 -0.37237072 -0.2798618 -0.20990577 -0.42563602 0.26971975
-0.21195495 0.03968866 -0.15723783 -0.21817316 -0.8807687 -0.14996225 -0.13767017 0.3704117
0.116245255 0.054207295 -0.33746195 0.10474442 -0.309451 -0.25231743 -0.52012676 -0.40013883
-0.42938444 -0.048997566 -0.0005340313 -0.14377245 -0.07280105 -0.62528765 -0.59862787 -0.21313447
-0.08415035 -0.0045060674 -0.5240326 0.035302397 -0.10789235 0.11858952 -0.051822998 -0.31373426
0.030972237 -0.025810363 0.039681602 -0.4462524 -0.23029187 -0.023377897 0.07319165 0.023826722
-0.0927316 0.06960378 0.0052125417 -0.68077886 -0.08266063 -0.3600221 0.08559436 -0.8276128
-0.4015481 0.053545736 -0.2504956 -0.5008931 -0.09575126 0.25765678 -0.38443375 -0.109363005
-0.39707077 0.04959134 -0.02609235 -0.31924948 -0.3877858 -0.014851732 -0.17993298 -0.026526934
-0.89406395 7.0384966e-05 -0.7073376 -1.2185788 -0.06760984 -0.15012161 -0.29590076 -0.6725801
-0.33246797 0.21024941 -0.2606728 -0.31258586 -0.4087114 -0.72562826 -0.41326222 -0.50997466
0.18305111 -0.11084929 0.258981 0.054462504 0.019321503 -0.15641026 -0.18756297 -0.04218837
-0.48570222 -0.047926925 -0.49630308 0.034418635 -0.14254521 -0.59650433 -0.34600785 -0.50958735
-0.14743496 0.002898286 0.3260421 -0.14923082 -0.5194538 0.07022852 -0.11421456 -0.08483215
-0.35219485 -0.41551554 0.18884017 0.015947558 -0.4724945 0.071311444 -0.07368642 -0.0115490705
-0.06809388 -0.13025466 -0.22908396 -0.5224594 0.053647857 -0.26845247 -0.18097486 -0.104767315
-0.24993515 -0.14690922 -0.2849541 -0.0077287913 -0.12038752 0.2736085 -0.074430466 -0.5047984
-0.45107287 0.07036743 -0.873932 -0.030538972 -0.16474365 -0.22567916 0.018618468 -0.63109744
-0.1074281 -0.27968588 -0.075442545 -0.18833457 -0.39170957 -0.24046373 0.009332062 -0.00060035294
-0.39812407 0.25019196 -0.5875811 -0.0065287347 -0.1428988 -0.6034331 0.0029642088 0.0790475
0.07752515 -0.6884436 0.307825 -0.53379595 -0.99128705 0.121183656 -0.041286677 -0.2486215
0.103842095 -0.18931654 -0.23300804 -0.83181024 -0.53504246 -1.47385 -0.411516 0.045522302
0.029972957 -0.4525111 -0.045032915 -0.38619536 -0.33280364 -0.5989326 0.012089193 -0.84428245
-0.18453997 -0.24024525 -0.6879599 -0.13591847 -0.07015629 -0.013381891 -0.27093077 -0.24567124
-0.09362155 -0.19216606 0.063483015 0.24280074 -0.50980616 -0.70006806 -0.15622328 0.06940717
-0.4963888 -0.010633556 -0.3465453 0.22934926 -0.22873786 -0.53811705 -0.5285966 -0.7711784

value_stream.0.bias f4 [256]
00000000: 6713 1a3f f35c e63e f31d ebbd 9706 f33e
00000010: 4af3 783e 06d1 de3e 1854 8a3e 4abe 423e
00000020: ea41 6e3e f877 5bbe a2ee 333d cf3d 1f3f
00000030: 2972 283e 1563 903e 0288 e53e 6c10 18bd
00000040: fdaa fb3e 724d 1f3f 9e76 04bf e364 a23d
00000050: 4d56 88be 9e56 3e3e afaa 26be 9182 2d3e
00000060: b1d9 cdbe d355 d23d e180 1c3d 295c ec3e
00000070: 37d1 01be 5f7c 163f 0012 7c3d 726f e33e
00000080: ef56 b33d 1654 0c3d dcdc bfbc abbb 35be
00000090: 085a da3e a80f 103c eb9f d43e 8712 0f3f
000000a0: ee2b 473d 7f8b 23bc 2742 e13d a0a9 203e
000000b0: 19eb 5c3e b46c 133e ab03 053f 2cc4 b03e
000000c0: ee31 033e fbc8 d13d 7240 243f aff6 3f3e
000000d0: 758d c4bd 25db 8e3e 6bbc 243e e038 ba3e
000000e0: c89e 40bd 120f 4b3f e462 eabc cee3 b03d
000000f0: f79a 973e c8df f73e 5fc2 383c f86f 6b3e
00000100: d081 843e a7a1 d43c 53a8 ff3e 6e41 2b3f
00000110: bb0e 5bbe 24c8 9f3e 7895 8e3e 3f79 323e
00000120: 8702 e63e 4b3e a93c a001 243d f3a1 bc3e
00000130: fee1 563f 7d13 aa3e 8f9d 623e 0038 553f
00000140: b201 1e3e 0e2d 223f 3956 813d a1f8 e13d
00000150: 5acc d4bb 8e96 003e 172f 2cbe bf21 263f
00000160: 49d4 653e a7c7 e2be 48d9 d53e 2058 453e
00000170: b50b 9e3d 64ab 693d a4e6 2e3d 92cb debb
00000180: a02f ce3e 3690 97be e9c8 0b3f fb73 0b3f
00000190: 499a 80be bd29 a23c 5f6e 873e 219d 083f
000001a0: f266 a43d a388 ee3e ba3e 9a3e 2ffd df3e
000001b0: d82a a63e 0853 6f3e 1333 ea3e 6f75 e23e
000001c0: 99b9 303e 2697 573f fee1 803e 5e54 f0bc
000001d0: bae5 9e3d 9df6 dc3e 8de9 993e 1fe6 10be
000001e0: 0451 0f3f 742a 2b3f e325 c1be f472 edbc
000001f0: 75b4 b53e 6a1a a43e 48d9 24bd a3ca 873e
00000200: ebe1 4c3d 1004 95bb 6c63 213e e462 aa3e
00000210: 1019 283e 5f6d 893e 6977 933e d495 af3e
00000220: bca3 3a3d 1381 2b3e c83d 983e 8662 cb3e
00000230: 6be6 f43d b855 583e 0409 113e bb19 afbe
00000240: 6426 9f3d f315 353f 5931 ddbe fc04 aa3e
00000250: 496a a9be 604f d63e 26e5 223f 50ce c03e
00000260: ddf5 db3e fc7a 883e 92fd 2e3e bf57 a53e
00000270: e7c3 4f3d 82e3 dd3d cbc9 213e 985e ffbc
00000280: 942d fa3d 6e17 0d3f 1c74 e43d a725 c83e
00000290: 22ec 063f 4e8d 193f d6b6 523f 2e41 f23e
000002a0: 255f 1c3f 87f0 e03e cf50 eb3e 73c5 9b3e
000002b0: d073 ac3e 8b84 de3e a575 b43e 82d1 0a3f
000002c0: 8eee 8e3e ddab 163f a406 a7be dc6e b73e
000002d0: d63e c33e 60d9 1e3f ad6b 383d 708e bf3d
000002e0: e989 f03e c722 1e3f 133d 363e 710d 64be
000002f0: b923 29be 2183 b53e 98e1 9fbb e1a9 eb3e
00000300: de05 c53e 45c8 1b3f 0be9 6b3e cfd7 283e
00000310: 1256 b33d 1d1f e73d c2b7 813e ce0b 793e
00000320: e3a3 593f 9f79 fd3d 02b1 ee3d 6cc6 05bc
00000330: 6b4f 803e b5c5 093f a4c9 8a3e 34bf f83e
00000340: cdf0 073f a807 533e be3c da3e 93bd 713d
00000350: 0aee 7d3d 69b0 afbe 3829 623e 150e 903e
00000360: 8ef8 c63b 1925 bc3e 4503 b33a 2ccd 9b3e
00000370: 9cb0 fa3d 8a10 2f3f 5b3b 2e3f 1ce6 74be
00000380: 9eb6 a03e 37b6 853d 5fc4 3bbe 7e5c 01be
00000390: 4709 003f 4c64 fb3e 2d5e d33e 0a0a 553e
000003a0: 8955 c63e b680 b93e c3c0 c53d 247e 0e3f
000003b0: 859f 0c3f 0f7f b13e 5181 ff3d 4fa6 113f
000003c0: 062c e83d a907 023e 0797 d63e 72ae 1b3f
000003d0: c5df 033f bbd2 08bf c121 203e 3c3c bd3e
000003e0: 9284 a93e 0720 8a3d df28 213f dc58 dd3e
000003f0: 460b d83d 18ef e93e 09c6 613e 5a7e 063f
0.60185856 0.4499279 -0.11480322 0.47465965 0.24311557 0.43518847 0.27017283 0.19017902
0.23267332 -0.21432483 0.04392875 0.6220369 0.16449799 0.28200594 0.44830328 -0.037125036
0.4915389 0.6222755 -0.51743495 0.07929399 -0.26628342 0.1858773 -0.16276048 0.16944338
-0.40205148 0.10270276 0.038208846 0.46164063 -0.12677465 0.58783525 0.061540604 0.44420964
0.08756816 0.034259878 -0.023420744 -0.17747371 0.42646813 0.008792795 0.41528258 0.55887645
0.04862588 -0.009981989 0.10998946 0.15689707 0.21574058 0.14396936 0.5195872 0.34524667
0.12812015 0.10243412 0.64160836 0.18746446 -0.09597293 0.2790157 0.16087501 0.36371517
-0.047026426 0.7931987 -0.028611608 0.086372 0.29610416 0.4841292 0.01127681 0.22991931
0.2588029 0.025955988 0.4993311 0.6689671 -0.21392338 0.31207383 0.2784841 0.17429064
0.44923803 0.020659586 0.040040612 0.36842307 0.83938587 0.33217993 0.22130416 0.83288574
0.15430334 0.6335 0.06315274 0.1103375 -0.006494087 0.12557432 -0.16814838 0.6489524
0.22444262 -0.44292948 0.41767335 0.19271898 0.07717077 0.057048216 0.042700425 -0.00679917
0.4027071 -0.29602212 0.5460344 0.5447385 -0.2511771 0.019795293 0.26451394 0.5336476
0.08027448 0.4658862 0.30125982 0.4374785 0.32454562 0.23371518 0.45742092 0.4423022
0.172583 0.8421501 0.25172418 -0.029337104 0.077586606 0.431569 0.30060998 -0.14150284
0.55982995 0.66861653 -0.37724218 -0.028985478 0.3548924 0.32051402 -0.040246278 0.26521787
0.05002014 -0.0045476034 0.15760583 0.33278573 0.1641581 0.26841256 0.2880204 0.34293997
0.045566306 0.16748457 0.29734635 0.39723605 0.11958011 0.21126449 0.14163595 -0.34199318
0.07770994 0.70736617 -0.43201712 0.33206928 -0.33088902 0.41857433 0.636309 0.37657404
0.42961016 0.2665633 0.17088917 0.32293507 0.050723936 0.10834409 0.15799634 -0.031173036
0.122157246 0.55113876 0.111549586 0.39091226 0.5270406 0.5998124 0.82310236 0.47315353
0.6108268 0.43933508 0.4596009 0.3042408 0.33682108 0.43460497 0.35246006 0.54225934
0.27916378 0.5885599 -0.32622254 0.35826766 0.38133878 0.6205044 0.045024563 0.0935334
0.46980217 0.61771816 0.17796735 -0.22270752 -0.16517533 0.35451606 -0.004879188 0.46028045
0.3848104 0.6085246 0.23038118 0.16488574 0.08756651 0.11285231 0.2533551 0.2432091
0.85015696 0.12376713 0.11654855 -0.008164983 0.2506059 0.538173 0.27106965 0.48583376
0.5310181 0.2060839 0.42624468 0.059018683 0.06199459 -0.34314278 0.22086036 0.28135744
0.0060721105 0.36747053 0.0013657591 0.3042997 0.12240717 0.6838461 0.6805932 -0.23915905
0.31389326 0.06528895 -0.18336628 -0.12632939 0.50014156 0.49099958 0.41282788 0.20804611
0.38737133 0.3623101 0.09655907 0.55661225 0.5493091 0.3466725 0.12475837 0.5689439
0.11336522 0.12698235 0.419121 0.6081306 0.5151332 -0.5344655 0.15637876 0.36960018
0.33108956 0.0674439 0.6295299 0.43231857 0.10549025 0.45690227 0.220482 0.5253655

value_stream.2.weight f4 [1, 256]
00000000: 297c 6e3e 5ae8 a4bf 5093 a23f 47ae cabf
00000010: a63e 81bf 4435 96bf b2c7 35bf e9fc 0f3f
00000020: 6385 4bbf b388 9fbf 8e15 8bbf e578 acbf
00000030: be94 b33f cea7 4ebf b48c 483f 4fe1 093f
00000040: 3469 d13e a256 b83e 24e9 64bf cf99 c43e
00000050: 82d3 56bf 02be 2cc0 2322 3fbf 0424 ab3f
00000060: 38cf a5bd 84d1 0b3f 4af1 113f 70f4 b6bf
00000070: f32c 843f 5b76 873e 4c8a 6c3f 708f b5bf
00000080: 41bb 953f ea03 253f 98f9 0a3f a04a 92bf
00000090: 4138 fc3e 05f4 ed3f e575 fabf 22ac b7bf
000000a0: 0ed3 0a3f 3ca4 2c3f d5ef 7ebf d8e6 1ec0
000000b0: 5e66 a23f 767f 6ebf 5214 d13e 7dfd ab3f
000000c0: 47ea a7bf a79a 013f e683 063f 055b a53f
000000d0: dcdc 51bf 0576 b13f bb3b 19c0 d013 043f
000000e0: 7185 1a3f 6ec5 c1bf 56bc b93f c94f 983f
000000f0: 3c61 8f3f 7207 e0bf a059 223f 3afa aebf
00000100: f355 26c0 118d 313f 4f65 023f ea61 b3bf
00000110: 9b11 77bf 8acf ae3f a0b4 a93e af3a 013f
00000120: e768 053f c402 d5bf f665 cd3f 043e 94bf
00000130: 9636 b1bf d355 b7bf b141 20c0 5092 d9bf
00000140: b1a5 9abf e05a 8c3e ed67 cf3f 3e99 ff3e
00000150: 0c2c 1ebf 9dc2 973f 263f 12bf 6566 a93e
00000160: e86f e03e 1ccb 3cbf 5df0 853f c077 f6bf
00000170: 4e96 0a3f 46d1 653f ae20 193f a1c7 1a3f
00000180: ed70 2c3f f5e4 25bf fad6 f83e b117 ddbf
00000190: df2d 1abf 5efd 153f aa4b 72bf dbc5 ff3e
000001a0: 97e8 193f 350b e6bf 5aef 86bf e3c6 bb3e
000001b0: 470d c0bf 5026 2cc0 4872 e0bf 4506 313f
000001c0: 73c4 be3e a27d b5bf 2408 943f fbdd 86bf
000001d0: 1370 993f 46de fbbf 1f8b e3bf 4d3b f4be
000001e0: c587 81bf 551f b7bf c140 59bf 0f7c 823f
000001f0: e0c1 b7bf ae27 62bf a542 143f 4715 12c0
00000200: a531 423f c546 96bf 4e24 243f 7da7 c13f
00000210: 6a5b bc3f 8ef9 95bf 7d95 b8bf 0e6f ab3e
00000220: f71c a13f f635 b93e 54ec b0bf c800 cd3e
00000230: d630 143f 6751 ff3e fdb7 1bc0 30ca b1bf
00000240: 7079 b83f 1787 01c0 679d 91bf 92e4 95bf
00000250: 9e35 43bf 8023 ddbf 4fd4 a1bf ab97 9cbf
00000260: b2dd 953f d40b a63f 3d18 973f 2c51 823f
00000270: f301 ae3f 85da b13f 3338 de3e a745 2b3f
00000280: 60ed 96bf 84e8 dd3e 7911 a33f 77ec babf
00000290: b9a0 1ac0 4cb3 b0bf 99e2 05c0 72cd efbf
000002a0: 0251 a83e 8c85 7cbf a90f 843e 1e16 5fbf
000002b0: 94be 89bf f01f 90bf ee71 34c0 15b3 2e3f
000002c0: ff13 a13f 03d7 913e 9fec a8be 33e6 e8bf
000002d0: 3c79 083f d6e6 5b3e 3837 c5bf 8913 f1bf
000002e0: 4b14 c1bf f207 0a3f 4ad0 ac3f 7a92 14bf
000002f0: 48ed 06bf 1867 b2bf 7df8 d2bf fa5c ecbf
00000300: a231 153f 76bd b73e cfae af3f 7431 0c3f
00000310: 4c0a c23f 4302 10c0 7316 95bf 38cc b33f
00000320: b166 acbf 7954 993f 3820 b33f bb7b b73f
00000330: a0e4 a13f e8c6 01c0 dc48 913f 8771 e2bf
00000340: f29c c83e e7b6 28c0 dc2c 683f edfb 283f
00000350: 10ac 87bf bf1e 45bf c328 b1bf dad5 f8bf
00000360: 9885 8b3f fc81 b7bf 3db2 51bf 49cb 89bf
00000370: cfed 7abf 0db0 cc3e 6101 adbf e15e 99bf
00000380: 5fba 823f 80f4 733f 522e 13bf 46a1 84bf
00000390: 2397 e5bf a5ac 48c0 431c 9c3e af1c 2bc0
000003a0: 9682 9a3e 960d ac3e 3151 dbbf 2c68 efbf
000003b0: cec2 ec3e 70d5 90bf 1609 203f 9758 f3bf
000003c0: c20d f0bf b73f 473f 7111 113f 9703 fa3e
000003d0: e1fa 10c0 b029 47bf 851b af3f 673e b6bf
000003e0: 9eef a5bf 96c3 773f 92ea e03e a932 e63e
000003f0: 7d9e acbf 7636 bebf bfe0 913f be39 b1bf
0.23289551 -1.2883408 1.2701206 -1.5834435 -1.0097244 -1.1735005 -0.71007836 0.56245285
-0.79500407 -1.2463592 -1.0865953 -1.3474394 1.4029768 -0.807248 0.78339696 0.5385942
0.40900576 0.36003596 -0.89418244 0.38398597 -0.83916485 -2.6990972 -0.74661463 1.3370366
-0.080961645 0.5461657 0.570088 -1.4293346 1.0326217 0.26457486 0.92398524 -1.4184399
1.169777 0.644591 0.542871 -1.1429024 0.49261668 1.8590094 -1.9567229 -1.4349406
0.54228294 0.674381 -0.99584705 -2.4828396 1.268749 -0.9316324 0.40835816 1.3436733
-1.3118371 0.50626606 0.5254501 1.2918402 -0.8197763 1.3864142 -2.3942707 0.5159273
0.60359865 -1.5138376 1.45106 1.1899348 1.1201549 -1.7502272 0.63418007 -1.3670113
-2.598996 0.69355875 0.50935835 -1.4014256 -0.9651124 1.3657086 0.33145618 0.5048017
0.52113193 -1.6641469 1.6046741 -1.1581426 -1.3844783 -1.4323066 -2.5040095 -1.6997776
-1.2081815 0.27413082 1.6203591 0.49921602 -0.6178596 1.1856266 -0.57127607 0.33085933
0.43835378 -0.7374742 1.0463978 -1.9255295 0.54135597 0.8977245 0.5981549 0.6046086
0.6735981 -0.64802486 0.48601514 -1.7272855 -0.60226244 0.5858973 -0.94646704 0.4995564
0.6012053 -1.797217 -1.0541794 0.36675176 -1.5004052 -2.6898384 -1.7534876 0.6915019
0.37259254 -1.4178965 1.1564984 -1.0536493 1.1987327 -1.9677207 -1.7776831 -0.47701493
-1.0119559 -1.4306437 -0.8486443 1.019411 -1.4356041 -0.88341796 0.5791419 -2.2825487
0.75857 -1.1740347 0.64117897 1.5129238 1.4715397 -1.1716783 -1.442062 0.33483166
1.2586964 0.3617398 -1.3822122 0.4003966 0.5788702 0.49866793 -2.4331048 -1.3889828
1.441206 -2.0238702 -1.137616 -1.1710379 -0.7625369 -1.7276459 -1.2642916 -1.2233785
1.1708281 1.297236 1.1804272 1.0181022 1.3594345 1.3894812 0.43402252 0.66903156
-1.1791191 0.43341458 1.2739707 -1.4603413 -2.4160597 -1.3804717 -2.0919554 -1.8734572
0.32874304 -0.98641276 0.25793198 -0.87143123 -1.0761285 -1.1259747 -2.8194537 0.6824201
1.2584227 0.28484353 -0.32993028 -1.8195251 0.5330999 0.21474776 -1.5407476 -1.8834087
-1.5084318 0.53918374 1.3501065 -0.58036005 -0.5270581 -1.3937712 -1.6482083 -1.8465874
0.5827886 0.35886735 1.3725222 0.5476296 1.5159392 -2.250138 -1.1647476 1.4046698
-1.3468839 1.1978904 1.3994207 1.4334635 1.2647896 -2.0277653 1.135036 -1.7690896
0.3918224 -2.6361635 0.9069345 0.6600941 -1.0599384 -0.7700004 -1.3840564 -1.9440262
1.0900145 -1.4336543 -0.81912595 -1.0765163 -0.9801912 0.39978066 -1.3516046 -1.198208
1.0213126 0.9529495 -0.57492554 -1.0361717 -1.7936748 -3.1355374 0.30490312 -2.6736257
0.30177754 0.33604115 -1.7134153 -1.8703666 0.46242374 -1.1315136 0.62513864 -1.901141
-1.8754199 0.77831596 0.5666724 0.48830864 -2.2653124 -0.77797985 1.3680273 -1.4237794
-1.296375 0.96782815 0.43928963 0.44960526 -1.3485867 -1.486037 1.1396712 -1.3845747

advantage_stream.0.weight f4 [256, 256]
00000000: 660f 16bf 0ada d3bd c556 04bd 5311 77be
00000010: 5da5 9bbe 00cb 36be 67dd 29bf ff9c 57bf
00000020: 3dfe 163d d8ee 45bf 0f31 c43b 7b70 fd3c
00000030: 187a 6ebe 3f3b 013d 3315 0dbe d98c 7cbb
00000040: 1fa0 dcbd e79b aebe 81d3 27be 8f71 9abe
00000050: 0d86 de3d c282 debe 1a04 8dbe bda2 ce3e
00000060: 2c2c 023d 8929 943d 1a9e 1cbe d18a a5be
00000070: f8b1 edbe 8667 ed3d 4c19 fbbd e32a a1be
00000080: 8933 dc3e 04e2 8cbd 4487 f8be a684 ebbe
00000090: bf43 fdbc 7f43 1f3f 2a3f d13e 2a67 773d
000000a0: f89e d6be 7b3e 54be 3a25 813e f2d7 253c
000000b0: 432e 0e3e fda7 a6be 4d91 3abd a399 1cbc
000000c0: 6ee7 73bf f082 10bf 8796 68be 6d83 623e
000000d0: 745e c83d 8ed9 0cbf 67b5 8dbe dbd0 4ebd
000000e0: fc83 f8be fcbc 35bd 26ed 1bbe 86df 353e
000000f0: abdd 51bf 0177 0abf e8b5 59bd 5833 b33e
00000100: b971 c83d 99f5 a13e 58d4 dbbe 118d 853d
00000110: 67a6 fabe 7093 2dbf 6a66 c0be 8a08 f93d
00000120: 89bb e4be aad1 d6be da20 75be 23e8 bbbe
00000130: 480a 2ebd 3809 85be e37e 85be fbac 9ebe
00000140: e596 123e 8939 ecbb 1c59 b0be d4dc 4cbd
00000150: aa38 e43d 54e9 17be 524b cdbe 83c7 5cbd
00000160: b63d cbbc 0970 40be fe62 c9bd 48ef 38bf
00000170: 9494 0dbe ff80 34bf c532 6d3b 54b0 07bf
00000180: e92e d8be 0be6 2a3d ee31 153d b2b3 17bf
00000190: e550 e03e 7248 debe e4f2 18bd feb8 afbf
000001a0: 5ca0 06be b193 efbe 05b2 f8bd 3b88 c7be
000001b0: d286 6abe 4ca0 1a3e 08e2 36be 3523 bfbe
000001c0: e0a9 11bf 30bc 95bf f43e 55bb 498b aebc
000001d0: 6200 f13d 8420 833d 0488 05be 511c 76bc
000001e0: 2772 7dbf f9d1 49be 937b b5bf 69d0 87bf
000001f0: baa3 55bf f9d6 943d 9724 48bf 06fd e7bd
00000200: 8a30 b63d 37fa 913a ef57 bf3d f9c9 4f3e
00000210: 2120 283d d067 c0be 0c6d 3f3d ecba 54bf
00000220: 871c 37bf 91d3 e13e c11f 05bf 98b7 01be
00000230: 6f0a 4dbe c503 a93e fec4 a5be c03f 6fbe
00000240: 3fa1 25be 34c2 07bf a8d2 7fbe 7436 4ebe
00000250: cf3e aabd 672f 333e ff62 b2be 8839 fcbe
00000260: 94b7 e83d f2cb 0e3e 7014 b13d af9a 383d
00000270: b8d4 233f 14b9 b23d 17d8 3ebe 64ef 55bd
00000280: 780a 09bf 1639 27bf 1cef f1be fbd9 d0bd
00000290: d428 a3be 582f 0bbe 1bd5 6fbf 5fb4 98bd
000002a0: 1a39 f5be 197c cb3e a7ec bfbe 3edb 95bf
000002b0: b126 9dbe bf50 693e 7973 b23b 55cc 87bf
000002c0: 6065 9e3d 2cd6 cebe 4051 50be 670e 343f
000002d0: 9c9c 17bd b78d d7bd 8b96 b4bd a915 ca3e
000002e0: 7f9d 53bf 0619 0bbf 2122 af3d c073 a03b
000002f0: 14d7 3abb e775 93be f0e2 713f 683a efbd
00000300: 22f0 c8be e87f fbbe 42c4 64be f52c cabe
00000310: 9837 a2bd 13e0 333e d093 77bd 5223 30be
00000320: 5f7b f9be cb2a a5be e310 db3e 0bbb 303d
00000330: 6d6f bf3d da6b 773e c32a 8dbe f506 d63d
00000340: b0f7 3abf 9380 1f3e a962 90be eeec cc3e
00000350: 2b2f 2fbe f8e6 ecbe d232 693c f7c4 893d
00000360: aad8 8cbe a774 b8be 5da6 89bd 398a 333e
00000370: 166b 79be f766 cd3e ced6 08bf f39b 64be
00000380: fd5a 443e 1620 81bf 22a7 94be 1eed b93e
00000390: 6bd9 00bf ec4a 0abf fd4c 08bf 0317 15be
000003a0: 4a91 09bf a388 2ebe 4224 48bf 2791 38be
000003b0: e995 1ebe 025d 0a3d 44c1 c4be e58f a2be
000003c0: ead6 843b db7c 82bd e0f5 1ebe 2abb 223e
000003d0: 3055 0d3e 67fb c0bd eb60 453d bdca 66be
000003e0: dca1 06be be82 70ba 5b85 09bf df07 17bf
000003f0: ebcc 8fbd 71ed 35be 40fd c0bb 8f7a dcbe
-0.58617246 -0.10344322 -0.032309312 -0.24127702 -0.303996 -0.17850876 -0.6635346 -0.8422393
0.036863554 -0.7731757 0.0059872936 0.030937424 -0.23288763 0.031550642 -0.13777618 -0.00385361
-0.10772728 -0.3410332 -0.16389276 -0.30164763 0.10865412 -0.43459135 -0.27542192 0.40358534
0.031780407 0.07234485 -0.15294686 -0.3233247 -0.46424842 0.11592011 -0.12260684 -0.31478032
0.43008068 -0.068790466 -0.485407 -0.4599964 -0.030916093 0.62212366 0.40868503 0.06040112
-0.4191816 -0.2072696 0.25223714 0.010122286 0.13884835 -0.3255004 -0.045548726 -0.009558114
-0.9527501 -0.56449795 -0.22713672 0.22120447 0.097836405 -0.5501946 -0.27677462 -0.05049215
-0.48538196 -0.044369683 -0.15227184 0.17761049 -0.81978863 -0.54087836 -0.053151995 0.3500011
0.09787316 0.3163269 -0.42935443 0.06521047 -0.4895508 -0.67803097 -0.37578136 0.12159832
-0.44674328 -0.41956836 -0.23938313 -0.36700544 -0.042490274 -0.25983596 -0.2607337 -0.3099135
0.14315374 -0.007209007 -0.34442985 -0.050015286 0.1114362 -0.14835101 -0.40096527 -0.053901207
-0.0248097 -0.18792738 -0.098333344 -0.72240114 -0.1382621 -0.7050933 0.003619359 -0.5300343
-0.4222329 0.041723292 0.03642457 -0.5925857 0.43811718 -0.43414646 -0.037341014 -1.372833
-0.1314711 -0.46792367 -0.121433295 -0.38971123 -0.22902992 0.15100211 -0.17859662 -0.37331548
-0.56899834 -1.1698055 -0.0032538744 -0.02130665 0.11767651 0.06402686 -0.13040167 -0.0150214
-0.9900231 -0.19709004 -1.4178337 -1.0610477 -0.8345295 0.07267565 -0.7818083 -0.11327557
0.08895977 0.0011137192 0.09342944 0.2029189 0.041046266 -0.37579203 0.046734855 -0.8309772
-0.71527904 0.44106725 -0.5200158 -0.12667692 -0.20023511 0.33010688 -0.32376856 -0.23364162
-0.16174792 -0.53030705 -0.24982703 -0.2013796 -0.08312761 0.17498551 -0.34841153 -0.49262643
0.1136314 0.13944986 0.08646476 0.045069393 0.6399646 0.08726707 -0.18637119 -0.052230254
-0.535316 -0.6532148 -0.47252738 -0.101978265 -0.31867087 -0.13592279 -0.9368455 -0.07456278
-0.47895128 0.39743116 -0.3748524 -1.1707532 -0.30693582 0.22784708 0.0054458943 -1.0609232
0.077341795 -0.40397775 -0.20343494 0.70334476 -0.03701459 -0.10525077 -0.08817776 0.3946965
-0.82662195 -0.5433506 0.085514314 0.004896611 -0.0028509544 -0.2880089 0.94486904 -0.11681062
-0.39245707 -0.49121022 -0.22340491 -0.39487424 -0.0792076 0.17565946 -0.0604437 -0.17200974
-0.48726937 -0.3225921 0.4278632 0.043147128 0.09347425 0.24162236 -0.27571687 0.10450546
-0.7303419 0.15576391 -0.28200272 0.40024513 -0.17107837 -0.46269965 0.014233308 0.06727021
-0.27509052 -0.360265 -0.067211844 0.17533197 -0.24357256 0.40117618 -0.53452766 -0.22325115
0.19175334 -1.0087917 -0.29033762 0.3631372 -0.50331753 -0.5402057 -0.53242475 -0.1455956
-0.5373732 -0.1704431 -0.78180325 -0.18024121 -0.15486874 0.033780105 -0.384287 -0.31750408
0.00405394 -0.063714705 -0.15523481 0.1589171 0.13802028 -0.09422951 0.04818813 -0.22538276
-0.13147682 -0.00091747555 -0.5371911 -0.58996385 -0.07021507 -0.17766358 -0.0058895648 -0.43062255
