active_slam_rl/training_output_slam/20260126_164625/d3qn_ep1400.pth (torch, 901810 bytes, 11 tensors)

feature.0.weight f4 [256, 100]
000000 0b ef 0c be 60 b3 69 bd 81 1f 08 3e 7b 44 30 3e
       -0.13763063 -0.05705583 0.13293268 0.17213623
000010 52 bb f3 bd dd c7 42 3c 6c 7c f3 bc 87 f9 3c 3b
       -0.11900963 0.011888471 -0.029722415 0.0028835253
000020 0c 1b df 3d 65 13 aa 3d 53 78 31 3b 13 b9 0f 3e
       0.10893831 0.083044805 0.0027079775 0.14035444
000030 01 1a a2 3d 0b 03 30 bd 79 8a 06 bb d7 bf 6a 3e
       0.07915116 -0.042971652 -0.0020529313 0.22924744
000040 d4 41 69 3e 8d 4a c6 3d 6a ef de 3d 88 7b 21 3e
       0.22779018 0.09682188 0.10885508 0.1576978
000050 15 4b 12 3e e6 85 4e 3e b8 9e 65 3e ac 70 13 3e
       0.14286454 0.20168266 0.22423828 0.1439845
000060 f8 c1 03 3e 51 f8 69 bd 5a 02 69 be 42 37 ce bc
       0.12866962 -0.05712158 -0.22754803 -0.025172833
000070 a1 d0 0e be 7a a9 84 be 14 8f a1 bd c0 d8 43 be
       -0.13946773 -0.2591055 -0.07888618 -0.19125652
000080 27 95 8c be 47 e5 5b be e8 30 83 be 6e 42 9c be
       -0.27457544 -0.21474181 -0.2562325 -0.30519432
000090 c1 c9 98 be 94 b1 a0 be 2d 53 86 be 6c 7d 48 be
       -0.29841426 -0.3138548 -0.26235333 -0.19579095
0000a0 49 d9 83 be 08 7a b4 be e2 9d 99 be 2c 3a 8a be
       -0.25751713 -0.35249352 -0.30003268 -0.26997507
0000b0 06 af 1e be d7 ba 45 be 53 61 72 be 50 b3 9f be
       -0.15496454 -0.19309555 -0.23669939 -0.31191492
0000c0 44 4a 6a be 4a 73 d9 bd cd 5b 58 be 3e 7e 5b be
       -0.22879893 -0.10617693 -0.21128769 -0.21434876
0000d0 b4 cb c2 bd 98 9e 96 bd 55 fb a2 bd 63 d2 19 be
       -0.095115095 -0.07354468 -0.07958094 -0.15021662
0000e0 a0 b2 0a be ff d6 c7 bd 0f a3 21 be 19 ba 24 3d
       -0.13544703 -0.09757804 -0.15784858 0.04021654
0000f0 41 ed 31 bd 1f a9 43 3e 06 95 62 3d 98 14 0f bc
       -0.043439154 0.19107483 0.0553179 -0.008732937
000100 38 d0 d9 3b e6 17 75 bb a8 3b 58 3e 04 ce 59 bd
       0.006647136 -0.0037398278 0.21116507 -0.053174987
000110 d7 70 34 bd 28 0c 2d 3e ef 1f a7 bd b3 a5 d5 3d
       -0.044052925 0.16899168 -0.08160388 0.10431995
000120 fa ec 54 bd 55 f3 50 be fe 5b 07 3d 71 1c 96 be
       -0.05198381 -0.20405324 0.033046715 -0.29318574
000130 5a 7a 6d be 8d 51 2f bd 7c 73 10 3e 6f 3e 1f 3e
       -0.23191205 -0.042802382 0.14106554 0.1555116
000140 3f 2c 55 be 53 c9 6b be 22 83 29 be c0 3a 97 bd
       -0.2081766 -0.23026018 -0.1655393 -0.073842525
000150 3c ff 8e be eb e6 6f be ce 5f 7b be f8 7b 8a be
       -0.27929103 -0.23427932 -0.24548265 -0.27047706
000160 35 b2 21 be 6f 72 0c be 2e cf 65 be 15 74 84 be
       -0.15790637 -0.13715528 -0.22442314 -0.25869814
000170 00 1c af be 79 11 96 be d0 c8 77 be 6e 55 96 be
       -0.3420105 -0.29310206 -0.24197698 -0.29362053
000180 c4 c7 c0 be b3 b3 e6 be 5d 2f f2 be 6b 34 35 bf
       -0.3765241 -0.45058975 -0.4730176 -0.7078311
000190 db 23 9d 3e 09 81 a0 3e f6 2c 21 3e 10 5f 1b 3e
       0.30691418 0.31348446 0.15739807 0.15172982
0001a0 77 9b 39 3d e3 da 03 3e e7 ae 03 3c 6f f7 02 3e
       0.04531428 0.12876467 0.008037305 0.12789701
0001b0 9f 95 05 3d f3 1f 58 bb d1 91 be bd 30 e5 e3 bc
       0.032613393 -0.0032978028 -0.09305156 -0.027819246
0001c0 85 ed 52 be 47 50 38 be c9 a0 1d be 44 df 92 be
       -0.20598419 -0.17999373 -0.15393366 -0.28685963
0001d0 75 db 9a be dc 91 84 be c7 19 3e be eb 90 00 be
       -0.30245557 -0.25892532 -0.18564521 -0.12555282
0001e0 68 0d b1 be 5a 54 06 be 1e e8 49 be 61 f1 95 be
       -0.3458054 -0.13118115 -0.19717452 -0.2928572
0001f0 fd d2 97 bd eb 54 0d be c0 33 63 be 4f fa 97 be
       -0.0741329 -0.13801925 -0.2218771 -0.29683158
000200 75 3a 48 be 48 75 3e be 45 45 4c be 1e 36 85 be
       -0.1955355 -0.18599427 -0.19948299 -0.2601785
000210 98 a1 45 be 6a 60 1a be 81 8c 3d be f9 ee 95 bd
       -0.19299924 -0.15075842 -0.18510629 -0.07320971
000220 06 06 3b be 0f 18 23 be 18 a4 3b be 71 d8 4e be
       -0.18264017 -0.15927146 -0.18324316 -0.20199753
000230 d8 c1 84 bd 62 d9 dd bd c2 e2 6e bc 9a a5 45 3c
       -0.06482285 -0.10832478 -0.01458043 0.012063408
000240 98 3f 18 bd bd a6 ed bd 8f 62 24 3c 54 b8 c5 3b
       -0.037170023 -0.116040684 0.010033264 0.0060339365
000250 c0 9a 7b 3d 75 62 cd bc 6e f3 f4 bd a6 d4 e6 bc
       0.061426878 -0.025071362 -0.11960493 -0.02817757
000260 2a 0a 06 3e 54 68 4a 3e 20 79 49 3e b0 69 98 3d
       0.13089815 0.1976636 0.19675112 0.07442033
000270 75 8c 93 3e 56 72 6e 3e 59 bd 73 3e 55 5c 7f bc
       0.28818098 0.23285803 0.23802699 -0.0155859785
000280 8e eb 03 bd 41 88 66 3d 01 a4 9a bd 66 97 25 3d
       -0.032207064 0.056282286 -0.075508125 0.040427588
000290 7c 34 d9 bc 3d 3f 35 3b ad 0f b9 bd ef 7c 5f bd
       -0.026514284 0.00276561 -0.09036193 -0.054562505
0002a0 11 bd 31 be 83 cb cc bd da b6 22 bd d0 65 61 be
       -0.1735728 -0.09999754 -0.039725162 -0.22011495
0002b0 c7 29 2d be 82 92 4f be 76 5a dc bd 23 8b 3c be
       -0.16910468 -0.20270732 -0.107594416 -0.18412451
0002c0 77 0c 88 3d ea 1e 26 be f1 83 fc bd 3b 01 1f be
       0.066430025 -0.1622273 -0.12329853 -0.15527813
0002d0 6a 7a 0b bd 9a 9c 34 be 41 e4 54 3d 98 cf e4 bc
       -0.03405229 -0.17637864 0.051975492 -0.02793102
0002e0 d7 d2 28 bd 98 64 6d be 8d d9 29 bd 00 43 90 bd
       -0.041216698 -0.23182905 -0.04146724 -0.07044029
0002f0 29 e0 24 be c4 9e f0 bd ab fd 20 bd a2 41 83 bb
       -0.16101135 -0.11749032 -0.039304417 -0.004005627
000300 71 ef 20 be 4d 20 3c be a8 5b e0 bd 40 45 0d be
       -0.1571634 -0.18371697 -0.10954982 -0.13795948
000310 d2 28 4d be 03 4d 80 be f6 9b 2c be 5b f8 f8 bd
       -0.20035103 -0.25058755 -0.1685637 -0.12156745
000320 f4 e2 5b 3e c2 ea d1 3d 7e 0f 01 3d e2 5e cb 3d
       0.21473294 0.102498546 0.031508915 0.09930207
000330 78 08 5a 39 89 b8 d7 3b 82 a3 1b 3e 9b 87 ec 3d
       0.00020793255 0.0065832776 0.15199092 0.11549302
000340 58 70 20 3e 5c 98 09 3e 83 52 2b 3e e8 1a aa 38
       0.15667856 0.13437027 0.16730694 8.1112434e-05
000350 7e be 80 3e 39 85 10 bd 3b 43 7c be 7b e7 a4 be
       0.25145334 -0.0352833 -0.24635021 -0.32207856
000360 42 b1 37 be 88 16 b8 bd f0 99 a8 bc 21 d9 a6 3d
       -0.17938712 -0.089886725 -0.020581216 0.08146883
000370 59 f8 07 be 8d 23 8c be 20 d3 82 bd 3d e5 61 be
       -0.13278331 -0.27370873 -0.06387925 -0.22060104
000380 28 46 fc bd 8c d8 f6 bd e0 54 7c be 6a 9a 5d be
       -0.12318069 -0.12053022 -0.24641752 -0.21640936
000390 42 51 7c be 10 6f 24 be de 24 2c be dc df 77 be
       -0.24640372 -0.16057992 -0.16810939 -0.2420649
0003a0 46 fe 9a bb 21 6b 76 bd 00 6b 7f bd dd 3a 64 bd
       -0.004730019 -0.06016076 -0.062357903 -0.0557202
0003b0 89 27 ac 3c e3 88 87 bc b3 7f 83 be a6 21 48 bd
       0.021014946 -0.016544765 -0.25683364 -0.048860215
0003c0 7e 38 a5 3d 1e 55 51 bd 54 4b e5 bc e3 2a 1e be
       0.08067416 -0.051106565 -0.02799002 -0.15446047
0003d0 97 be 8b 3a 4e 36 78 be 85 e9 70 be f2 ff 6d be
       0.0010661659 -0.24239466 -0.2352658 -0.23242167
0003e0 f9 59 dc 3b 3f 87 14 bd 8f c8 5a be a1 58 c1 3c
       0.0067245928 -0.036261793 -0.2136557 0.023601832
0003f0 85 cb 1c 3e c1 0e 36 bd f3 d7 0e 3e ed f3 b0 bd
       0.15312012 -0.044447664 0.13949566 -0.08640275

feature.0.bias f4 [256]
000000 3a 75 07 bf 7a 35 40 3e 22 a8 eb 3e a7 78 b9 be
       -0.5291325 0.187704 0.46026713 -0.36224863
000010 05 a6 90 bf 9a 08 27 bf b9 47 1e 3f d2 15 02 3f
       -1.1300665 -0.652475 0.6182819 0.50814545
000020 b4 26 f0 3e 79 6f 24 be cf e3 b8 3e b9 57 89 3d
       0.46904528 -0.16058148 0.36111304 0.06706185
000030 79 7b 2a be ef 80 8d be fe 3a 7b be ac bc 05 3f
       -0.16648664 -0.2763743 -0.24534222 0.52241015
000040 d4 7c d6 3e 14 19 25 3e e1 9f ca 3e 0c 0a 40 3d
       0.4189211 0.16122848 0.39575103 0.04688458
000050 26 6d b4 bc 33 a2 b6 bd 2c 68 9c be 69 36 cd 3e
       -0.022024702 -0.08917656 -0.30548227 0.40080574
000060 ed b3 56 bf 5c d9 b5 3d 78 36 5f 3f 16 05 e2 be
       -0.83868295 0.08879349 0.8719249 -0.44144505
000070 ba 12 66 bf 2d 57 c0 3d 3e 34 dc 3e 96 23 c5 3e
       -0.89872324 0.093916275 0.43008608 0.38503712
000080 c7 25 96 3e 07 d7 e0 be e8 c9 1f bf e7 3d d1 bd
       0.29325697 -0.43914053 -0.6241746 -0.10216885
000090 df 7e 83 3d b9 46 7e 3b d1 b9 2e bf 3c 97 32 3f
       0.06420683 0.0038799478 -0.68252283 0.69762015
0000a0 cd fc f2 3e 55 17 94 3e fc 78 36 3e bc 6c a8 be
       0.47458497 0.2892405 0.1781959 -0.32895458
0000b0 ae 8f 97 bd 5c cb c6 3d 9a a6 d5 be 7d 29 69 3f
       -0.074004516 0.097067565 -0.4172867 0.9107893
0000c0 01 93 a9 3d 48 67 ea 3e 86 8d 76 3e 49 99 3e bf
       0.08279992 0.45781922 0.24077424 -0.74452645
0000d0 bd a3 df be c1 00 2c 3d af 4f bc 3c 9e a5 82 bd
       -0.4367961 0.041992906 0.022987215 -0.06379245
0000e0 35 b3 92 3e 31 48 c4 3e 60 32 d1 be cb 20 c5 bd
       0.2865235 0.38336328 -0.40858746 -0.096253954
0000f0 d8 cf f7 3d 67 63 e8 3e a1 9b 64 be 89 e6 b0 3e
       0.1210019 0.45388338 -0.22324993 0.34550884
000100 46 c5 2a be 2c 1b e2 be aa 44 98 be 75 da d3 3b
       -0.16676816 -0.44161355 -0.29739887 0.006465251
000110 a1 d8 a3 3e 40 f4 01 3f 0a f9 4e 3e 2a cd 19 3f
       0.32001212 0.5076332 0.20212188 0.6007868
000120 c9 a8 06 bf e1 75 06 be 18 33 40 3f d1 c5 eb 3e
       -0.52601296 -0.13130905 0.7507796 0.4604936
000130 e8 da 39 bd a5 fb 01 3f c0 42 26 3f 09 93 1b bf
       -0.04537478 0.50774604 0.649456 -0.6077123
000140 7e 80 ac 3d 89 c3 ed be 71 bb 9c be 3f 9b 45 3e
       0.084229454 -0.46438244 -0.30611756 0.19297503
000150 37 99 b1 3e 65 a4 ec be 94 08 87 3e 72 0b 33 3f
       0.34687206 -0.46219173 0.26373732 0.6993934
000160 e9 79 26 be 68 62 aa be e5 ff d0 3e 34 6f 0e bf
       -0.16257443 -0.33278203 0.40820232 -0.5563843
000170 80 ab 09 bf b9 26 d9 be 00 13 a1 3e ee a9 23 3e
       -0.53777313 -0.42412356 0.31459808 0.15982792
000180 a6 fe 64 3e a4 23 28 3e 3b 52 46 bb 78 01 e3 3c
       0.22362766 0.16419846 -0.0030261416 0.027710661
000190 53 9c 03 be 71 47 dc bd e2 f0 4e 3e 76 d2 b6 3e
       -0.12852602 -0.10755814 0.20209077 0.35707444
0001a0 80 6c 7a 3d de 62 f9 3e c6 e0 ae 3e de 62 19 bf
       0.06113863 0.48708242 0.34155864 -0.59916484
0001b0 65 10 50 3f 37 1b 0c be 13 93 ce be 9c 03 00 3e
       0.81275016 -0.13682257 -0.40346584 0.12501377
0001c0 6f 66 32 3e 5d 5b bf 3e e1 26 9f 3d a0 a8 02 bf
       0.17421888 0.37374392 0.077710874 -0.5103855
0001d0 41 4a dd 3e f6 c1 e7 3e c7 0d 44 bf 03 65 15 3f
       0.43220714 0.45265168 -0.7658352 0.58357257
0001e0 60 d1 19 3f de eb 5e 3e 94 e0 3d be 33 2d c6 3d
       0.60085106 0.21769664 -0.18542701 0.0967659
0001f0 b9 1c 84 3e 29 6f d7 be 1f 14 90 3e a5 85 16 3e
       0.25803164 -0.42076996 0.2814035 0.14699419
000200 49 b4 ee 3e 28 16 a2 3d 01 8a d6 bd 47 5a 68 be
       0.46621922 0.07914382 -0.10475541 -0.22690688
000210 03 ff 31 bf 3f 72 b3 be f9 ce 30 be 25 86 e4 3d
       -0.6952974 -0.350481 -0.17266454 0.111583985
000220 c3 18 9d 3e 37 bf 14 bf 6d ef b3 be 6a c2 80 3e
       0.30682954 -0.5810427 -0.35143605 0.25148326
000230 92 29 e7 3e 51 e2 05 3f 06 9e 2e bf e9 02 e5 bd
       0.45148903 0.52298456 -0.68209875 -0.11182196
000240 80 a0 45 bd 63 d4 17 bf 9b 3e 95 3d 08 b6 13 3f
       -0.048248768 -0.5930845 0.07287332 0.5769963
000250 79 61 bc 3e 01 34 2c 3e 37 40 4e 3f d3 e6 c6 3e
       0.36793116 0.16816713 0.80566734 0.3884798
000260 bf 55 d2 be 9a 1e ff be 8b 4e 7a be d5 a3 e7 be
       -0.41081044 -0.49828035 -0.24444024 -0.4524218
000270 93 d6 1b bc 52 94 e1 be 88 ff 2f 3e 61 ea 08 3f
       -0.009511608 -0.44058472 0.17187321 0.53482634
000280 09 22 7d 3b 58 5d 2b 3f 6a 0a 48 be 1b a0 89 be
       0.0038625023 0.66939306 -0.19535223 -0.26879963
000290 dc 6e db bd 5d 0f 24 3e 66 99 1f 3f 5a f2 23 bf
       -0.10714504 0.16021486 0.6234344 -0.64041674
0002a0 5e 62 7c be 90 1e 55 bd 83 f0 d6 bd 54 65 14 3f
       -0.24646899 -0.0520311 -0.10495093 0.57967114
0002b0 06 6d 01 bf fd fb 68 be ed ac b5 3e 53 28 13 3f
       -0.5055698 -0.22752376 0.35483494 0.57483405
0002c0 4e e8 86 be 2e 4f c2 bd 50 45 d8 3e d1 ce c9 3e
       -0.2634911 -0.094877586 0.4224038 0.394156
0002d0 1a 23 2a 3e 0b bf f3 3e 2c 2c 67 3d dd 59 f5 3e
       0.16614953 0.47606692 0.05643861 0.47920123
0002e0 03 cb 84 3e 55 a3 0c bd a2 fc 0c 3d 0a 59 f8 be
       0.25936136 -0.034335453 0.034420617 -0.4850543
0002f0 7f 79 61 bf ca 71 a8 3e 65 ec cf be 67 7a 1d be
       -0.88076013 0.32899314 -0.40610042 -0.15378724
000300 65 bb 30 be 20 68 35 be e7 dc a0 3e 89 87 6d be
       -0.17258985 -0.17715502 0.31418535 -0.23196234
000310 93 46 18 be b0 98 1c 3f 29 5b 15 bf bc 19 4e be
       -0.14870672 0.6117048 -0.58342224 -0.20127004
000320 5a 88 59 3e 86 a8 85 3e b5 c6 06 3c 32 3d a0 3e
       0.2124342 0.26105136 0.008226086 0.31296688
000330 f1 cd 2c ba e4 7d db 3e 86 da ef 3e ca 92 c5 3e
       -0.0006591967 0.42869484 0.46846408 0.38588554
000340 a8 96 d5 3e 35 ef 75 3e 8a 65 99 bc 90 17 55 3f
       0.41716504 0.24017031 -0.018725175 0.8323908
000350 7d 0b e9 be 9e fd e5 3e cd fc e8 be e0 0a 3f 3f
       -0.45516577 0.44920057 -0.45505372 0.7462597
000360 b6 3a e7 3e 02 b0 f4 3c 23 1c 0a 3e 85 1c 20 3f
       0.4516198 0.029869083 0.13487296 0.6254352
000370 6b cf 02 bd e1 11 11 3f e9 ba 96 be 28 a5 d7 3e
       -0.03193609 0.56667906 -0.29439476 0.42118192
000380 b9 ad 31 bf 8e 8c 15 3e 11 e0 19 3f d3 a6 0c be
       -0.69405705 0.14604399 0.60107523 -0.13735513
000390 03 c1 13 bf f9 0b ce be 17 a0 15 3f 7c 93 3e bd
       -0.5771639 -0.4024351 0.584474 -0.04652737
0003a0 a9 2e 47 bd ea 4c cb be d7 44 56 be fe f0 ee be
       -0.048628483 -0.39707118 -0.20924698 -0.46668237
0003b0 a0 9a 8c 3c 8a f0 ef 3e d2 97 da be 0a 75 9a bb
       0.017163575 0.46863204 -0.42693955 -0.004713659
0003c0 91 9a 00 bf d3 d5 ae 3e 26 a5 59 3e 33 58 91 be
       -0.5023585 0.3414751 0.21254405 -0.28387603
0003d0 2e 1e 34 3e f7 43 dc 3e 9f 46 34 3e 5c 37 df 3e
       0.17589638 0.43020603 0.17605065 0.43596923
0003e0 4a 68 d8 be 13 61 a9 bd 63 38 21 bf 7b e1 14 be
       -0.42267066 -0.082704686 -0.62976664 -0.14539139
0003f0 be d7 92 3c 8c 08 c7 3e 27 35 04 be 26 b6 5f 3e
       0.01792514 0.38873708 -0.12910901 0.21846828

feature.2.weight f4 [256, 256]
000000 ae 6a b9 bc 34 b0 d0 3d f1 42 15 3c f6 4c 62 bd
       -0.022633877 0.10189858 0.009110198 -0.055249177
000010 a9 d9 ae be cc 4a b2 bd 8c c4 a4 3d e8 b0 75 3e
       -0.34150437 -0.087056726 0.08045301 0.23993266
000020 ae 3c 9c 3e a4 b1 44 3e 3e da 6f 3d 56 e9 a1 3c
       0.30515045 0.1920839 0.05855774 0.019764584
000030 14 01 c1 3c af 9e ce bd e8 30 83 be 73 fe 5c 3e
       0.023560084 -0.1008886 -0.2562325 0.2158144
000040 ac 49 b4 bd 21 3b 15 3e 73 3e 92 3d 67 24 44 bd
       -0.08803114 0.14573337 0.071408175 -0.04788628
000050 59 7d 03 be 23 1a 0f bc 6a e2 f4 bd 51 6e 27 be
       -0.12840785 -0.008734259 -0.119572476 -0.16350676
000060 7a 55 ea ba 16 cc 5a 3e a4 aa eb 3e e8 6a d9 bd
       -0.0017878257 0.21366915 0.46028626 -0.10616094
000070 e9 fb a9 be 2f 25 6d 3d c2 85 f9 3c 0a a4 e2 3e
       -0.33200005 0.05789679 0.030459289 0.44265777
000080 4b 52 71 3e 86 ee 53 3e ab 0e 1d be bc 12 01 3e
       0.23566549 0.20696458 -0.15337627 0.12604803
000090 a3 41 91 bd ba 55 9e 3e fc d8 ab 3c fd 57 f4 3d
       -0.07092597 0.3092478 0.02097749 0.11930845
0000a0 e4 48 8b 3e 6d 39 d0 bd 21 59 45 3e e9 fd e5 3d
       0.2720405 -0.10167203 0.19272281 0.1123007
0000b0 01 4b 7e 3d 8d 14 cf 3e a7 39 60 3d 45 77 0b 3d
       0.062083248 0.40445367 0.05474248 0.03404929
0000c0 ce 20 3e 3d 6a c8 04 3f ed 8d 7a 3e 46 f1 70 be
       0.046418004 0.5186831 0.24468203 -0.23529539
0000d0 b6 91 c7 bc 37 62 97 3e 43 71 14 be 5c bb 2c 3b
       -0.024361473 0.2956712 -0.14496331 0.0026356792
0000e0 f0 80 ae 3d 77 f2 87 3e 6f f6 03 be d5 86 f4 bd
       0.085206866 0.26552173 -0.12886976 -0.1193978
0000f0 b2 b9 26 3d 66 8d ba 3d e8 ec 10 3c bc 13 9d 3e
       0.040704437 0.09109001 0.008845545 0.3067912
000100 6a b4 d8 3b a7 24 23 be 48 48 3a be 43 62 e7 3d
       0.006613304 -0.1593195 -0.18191636 0.11298039
000110 b1 25 26 3f ab e8 9b 3e 1e 4d 97 3d 2a cf 7e 3e
       0.6490126 0.3045095 0.07387756 0.24883714
000120 aa 07 87 be 49 be 27 bb 2a f2 ec 3e 20 0d bd 3e
       -0.26373035 -0.0025595597 0.46278507 0.36924076
000130 5f 1f 3e bc 41 53 ca bb bd c2 03 3e f7 05 1e be
       -0.011604159 -0.0061744754 0.12867256 -0.15431963
000140 f0 7c 9e bd 77 33 cf 3c a4 b7 c5 3c d6 c6 cc 3d
       -0.07738674 0.025293095 0.024135418 0.099988624
000150 ab bf 86 3e ae 1f e5 3c 5a ca 28 3e 04 07 53 3c
       0.26318106 0.027969208 0.16483441 0.012880091
000160 4b 4c 26 bd 6c 4e 63 be 1b b0 8d 3e 51 a7 99 be
       -0.040600102 -0.22197884 0.2767342 -0.30010465
000170 6b 14 b1 be 0d c8 fb bd a5 55 ca 3e 90 c6 72 3e
       -0.3458589 -0.12294016 0.39518467 0.23708558
000180 8a c2 60 3d 30 3e c7 3d 43 22 2c bd 77 24 f5 3d
       0.054873027 0.09728658 -0.042024862 0.11969846
000190 06 26 74 3e 48 aa 93 be a4 73 e3 3e e7 fa 86 be
       0.2384263 -0.28840852 0.44424164 -0.26363298
0001a0 27 bc 4a bc 1e 7c 06 3e 0e 5b a5 3e 60 07 17 3e
       -0.012373961 0.13133284 0.32296032 0.14748907
0001b0 a8 d4 9e 3e c0 be 2c bd 13 87 88 3e 0f 59 5d bd
       0.3102162 -0.0421741 0.26665553 -0.05404001
0001c0 c6 7f 62 3e 71 56 d1 3d 47 af 8f 3d 9d 6e f3 be
       0.22119054 0.102215655 0.070158534 -0.4754533
0001d0 d4 49 31 3d cb 0f 3a 3e 74 35 f2 be 18 d3 65 3d
       0.0432833 0.18170087 -0.47306406 0.056109518
0001e0 b5 a1 e7 3e 77 43 9d 3e 2b a1 a2 3d 7d 23 8a 3d
       0.4524056 0.30715534 0.079408966 0.0674505
0001f0 91 5b ea bb aa ae 8f 3e 20 32 37 bd 99 f8 2f bd
       -0.007152029 0.28062946 -0.044725537 -0.04296169
000200 87 86 9a 3e 3a ea c7 bd ac 7e 55 3d a5 00 42 3e
       0.3018076 -0.09761472 0.052122757 0.18945558
000210 c0 e9 eb be 56 1d 81 be 38 92 bf 3b 2a 95 b6 bd
       -0.46076775 -0.25217694 0.005846288 -0.089151695
000220 a3 13 da 3e 14 b6 c4 3d c6 09 16 be fe 83 fd 3d
       0.42593107 0.09605041 -0.14652166 0.12378691
000230 aa 04 12 3e 66 cf 64 3e 6a 73 8f be 5c 00 42 bd
       0.14259592 0.22344741 -0.2801774 -0.047363624
000240 aa 8d 86 3e 7a 2d 83 be d8 40 61 be 9b f2 4a 3e
       0.26279956 -0.25620633 -0.21997392 0.19819109
000250 28 10 00 bd 4c 97 45 3d 9b ba 0c 3f cb 53 94 3e
       -0.031265408 0.04823999 0.5497224 0.2897018
000260 f9 e1 df bd 8b d1 c1 be f2 57 52 bd 1b f1 b6 bd
       -0.10931773 -0.3785518 -0.051353402 -0.08932706
000270 48 cd 63 bd bc 92 1b 3e d7 3d 23 bd 3f 03 a4 3e
       -0.055615693 0.15192693 -0.039853897 0.32033727
000280 09 82 4d be 5e da b0 3e 6c 67 a9 3e aa 18 31 3e
       -0.20069136 0.345416 0.33086717 0.17294565
000290 27 5c b5 3c 83 a3 4d be 9e f6 0a 3f 0f 27 c6 bd
       0.022138668 -0.20081906 0.5428256 -0.096754186
0002a0 cb 8a 89 bd da 1f d5 3d a0 c2 3d 3e ba 79 cf bc
       -0.06715926 0.10406466 0.18531275 -0.025326598
0002b0 00 15 9f bd 9a 0b dc 3c c4 1f 4d 3d 1c 25 55 3e
       -0.07767677 0.026861 0.050079122 0.20814937
0002c0 85 45 4e bd fe e3 d6 3d 36 21 63 3e b6 8e b0 3d
       -0.050359268 0.10492705 0.22180638 0.0862097
0002d0 df 89 82 3d bc 2b 81 3e 99 54 85 3e 99 4a 03 3f
       0.06373953 0.2522868 0.26041105 0.512857
0002e0 d2 d6 b4 3e df bd 65 bc 44 fe 3d be 53 e8 b4 bd
       0.35320145 -0.01402232 -0.18554026 -0.08833375
0002f0 04 c8 67 be c6 7b e1 3d 44 99 12 3d 1c 50 bc bc
       -0.22634894 0.11009936 0.035790697 -0.022987418
000300 94 04 1b be 15 e3 13 be 88 7e c3 3e 26 78 11 be
       -0.15138465 -0.14442094 0.38182473 -0.14205989
000310 4d 72 2c 3e 5b 8b 8b 3e d1 6c 17 be 0f 23 02 3e
       0.16840477 0.27254757 -0.14787604 0.12708686
000320 0e fa e8 3d 44 bc fa bc 66 f2 ec 3d b9 13 7a 3e
       0.11375819 -0.03060735 0.11569671 0.24421586
000330 73 8a 8b ba 17 62 d7 3e c5 60 09 3f 68 15 56 3e
       -0.001064612 0.42067024 0.53663284 0.20906603
000340 29 3c 0f 3e b2 9a 1f 3d da d6 1c bd f5 d3 07 3e
       0.13987793 0.03896589 -0.038290836 0.13264449
000350 f8 13 38 be d5 79 eb 3d a3 7d 22 be 7a b0 b3 3e
       -0.17976367 0.11497847 -0.15868239 0.35095578
000360 03 c5 92 3c 2e 0b d7 bd 3b d1 4f bd b3 8d 28 3e
       0.017916208 -0.10500179 -0.050736647 0.16460304
000370 0b 2d 5f bd 54 ce 42 bd 33 e9 19 3e b7 14 a4 3e
       -0.054486316 -0.04756005 0.15030365 0.32047054
000380 3e aa db be f0 06 e1 3e 25 fc f7 3e 27 a8 a2 be
       -0.42903322 0.43950605 0.4843456 -0.31768915
000390 a9 b7 41 be 49 ba 6d 3d 2a 41 de bb 20 c7 c0 3e
       -0.18917717 0.058038983 -0.0067826705 0.3765192
0003a0 c1 80 08 be 78 21 4a 3c 74 dc 25 be ea f8 a8 be
       -0.13330366 0.012337081 -0.16197377 -0.33002406
0003b0 c7 da 2c bd fa f7 5d 3e 5f 04 ae 3d e8 8c 13 be
       -0.04220083 0.21676627 0.084969275 -0.1440922
0003c0 e0 df b8 3d de 8e ac 3d 3f 9d 07 3e 58 93 25 3d
       0.09027076 0.08425687 0.13243578 0.04042372
0003d0 a4 f7 2b 3e a6 2d a8 3d bf 93 9a bc e3 9e 6a 3e
       0.16793686 0.08211832 -0.018869279 0.22912173
0003e0 41 02 85 be 38 48 2f be 33 82 8e be 6e 29 86 be
       -0.25978282 -0.17117393 -0.2783371 -0.26203483
0003f0 4b 1d 15 3c af 17 6b bc 34 48 a9 be 12 77 a4 3e
       0.009101222 -0.014348908 -0.330629 0.32122093

feature.2.bias f4 [256]
000000 72 d0 b9 bc 22 22 5d be b3 47 31 be d2 57 64 3c
       -0.022682402 -0.21595052 -0.17312507 0.013936954
000010 39 9c 83 be 27 ac da bc d8 4b 69 3d d9 3c 8e 3c
       -0.25705126 -0.026693417 0.056957096 0.017362999
000020 21 69 90 bd 6f 19 cb be 1f 7f 12 3e 85 03 98 bc
       -0.07051302 -0.39667842 0.14306305 -0.018556366
000030 85 79 3a 3d 21 f2 25 3f 73 94 38 3f 59 de 49 be
       0.045526046 0.64822584 0.72101516 -0.19713725
000040 18 21 85 be e8 62 13 be 82 f3 ea bd 9b 20 38 3e
       -0.2600181 -0.14393198 -0.11472227 0.17981188
000050 e6 19 37 3c b2 a7 4b be 1c 35 4c bf e6 71 50 3e
       0.011175608 -0.1988819 -0.7976854 0.20355949
000060 59 9a c2 be f2 9c 14 3d fb 64 89 be 7d f2 a7 be
       -0.38008383 0.036282487 -0.26834854 -0.3280219
000070 cc f9 44 bd 12 5c 68 be 61 fd 79 3f 42 a2 17 3d
       -0.048089787 -0.22691372 0.9765225 0.037019975
000080 44 e5 80 3d a1 1e 47 3c 00 72 fe 3d f0 d9 85 bd
       0.06293729 0.012153299 0.124240875 -0.06535709
000090 f8 10 03 3f 4f 93 f8 3d 51 c8 9b be e3 c5 84 be
       0.5119777 0.12137472 -0.30426267 -0.25932226
0000a0 86 41 51 3c 6b f7 16 be 80 6e 3c be 53 a0 91 be
       0.01277197 -0.1474282 -0.18401527 -0.2844263
0000b0 1a c2 a1 be ab ed 20 bb c9 3f 15 3e 22 38 2b be
       -0.315934 -0.0024555724 0.14575113 -0.16720632
0000c0 59 63 c1 bd d0 6d 81 be 78 51 83 ba 6a bd 10 3e
       -0.09442777 -0.25279093 -0.0010018786 0.14134756
0000d0 b1 be ed bd 73 45 81 bb 03 86 bf bd 97 45 f8 3d
       -0.11608637 -0.0039450466 -0.093517326 0.12122648
0000e0 97 bf 04 3d 64 f6 8f be e5 26 33 be 05 26 a5 bd
       0.032409277 -0.2811767 -0.17495306 -0.08063892
0000f0 ee 23 88 bd 02 83 e0 bd af d3 ab be fe 04 6b 3d
       -0.06647478 -0.10962488 -0.3355994 0.057377808
000100 7f e3 63 be 9c 6c 94 3e aa 67 da 3d 63 31 59 3f
       -0.22254752 0.28989112 0.106643036 0.84840983
000110 d1 8e dd 3e 2d 22 d1 be 3a d0 da be 33 aa 46 bd
       0.43273023 -0.40846387 -0.4273699 -0.04850216
000120 63 63 8b 3d 4b b1 9f be 7f 89 b1 3e e2 2d 8e 3d
       0.06806066 -0.3118995 0.34675214 0.06942345
000130 fa ac f2 be 6b 8e 37 be 41 59 14 3e f9 0b e8 3d
       -0.47397596 -0.17925422 0.14487173 0.113304086
000140 5f b6 1d 3f 6b f5 82 3c c5 bb 0b bb cf 81 04 bf
       0.616064 0.015986165 -0.0021321636 -0.5176057
000150 f5 0c fd 3d b1 d8 2a 3e 8c 67 76 be 43 02 a8 3d
       0.12355987 0.16684224 -0.24062937 0.082035564
000160 63 0c 4f 3f d8 dc 92 3e d0 5c a6 be a8 02 15 bb
       0.80878276 0.28684115 -0.32492685 -0.002273718
000170 b4 33 45 be da af 2c be 97 44 f4 bd fe 44 0c 3f
       -0.19258004 -0.16863957 -0.11927145 0.54792774
000180 e2 07 eb 3e 39 00 87 be ae d7 f3 3e d8 d2 11 3e
       0.45904452 -0.26367357 0.47625488 0.14240587
000190 2f 8f 95 bc 31 b2 27 bd 1a 0c f9 3a c5 15 45 be
       -0.018256752 -0.04094142 0.0019000799 -0.19246586
0001a0 90 65 bb be 96 ff 70 be 45 3b 22 3e bc b0 4f 3d
       -0.36600924 -0.23534998 0.15842922 0.050705656
0001b0 55 c0 14 bf 24 73 32 3e 21 31 a5 bb b5 60 a1 bd
       -0.58105975 0.17426735 -0.005041257 -0.078797735
0001c0 4b 8d 8c be 5d fa 78 be f3 ec 6e be d6 25 98 bc
       -0.27451548 -0.24314256 -0.23332576 -0.01857273
0001d0 ad d2 80 3d 2b d9 e8 be a2 ea 04 3e 43 b0 4b be
       0.06290183 -0.45478186 0.1298013 -0.19891457
0001e0 86 8a 31 3d a9 0b fc 3d 5a c1 17 3e e3 28 cc be
       0.043344997 0.123069115 0.14819852 -0.39874944
0001f0 b2 e4 83 3d 93 49 0a be 78 00 b6 be 86 48 99 bd
       0.064401045 -0.13504629 -0.35547233 -0.07484536
000200 5c c8 67 be 4e 27 26 3e 69 42 b2 bd e4 47 6e bd
       -0.22635025 0.16225931 -0.08704073 -0.05817403
000210 8d 18 3e 3d 97 13 b8 3d 95 f3 02 3c 0f 8d 6a 3e
       0.046410132 0.089881115 0.007992645 0.22905372
000220 5d a7 bd 3d 0f 41 ff 3e 57 93 9b 3e 2d b1 9e be
       0.09260438 0.49854323 0.3038585 -0.3099455
000230 8e 10 55 3f dc a4 88 3d 5c bc d4 be 80 a9 de be
       0.83228385 0.066720694 -0.41549957 -0.43488693
000240 a1 04 65 3e be ba 4e 3d 3e 32 cc bc 07 a7 23 be
       0.22365047 0.05047106 -0.024926301 -0.15981685
000250 ef b0 12 bf e5 87 0e 3e aa 2c 3d bb 83 dc ab bd
       -0.5730123 0.13919027 -0.0028865733 -0.08391669
000260 86 3a fe bd 79 b7 09 be 51 6b 2c 3e 39 b2 33 be
       -0.12413506 -0.13448896 0.16837813 -0.17548455
000270 55 5b 49 3e 04 82 44 3f 48 27 d4 3d 36 e2 7c be
       0.19663747 0.7676089 0.10359055 -0.24695668
000280 cd 7c 84 3d cf 9e d4 bc 36 c8 bf be e5 d2 6d be
       0.06469116 -0.025954632 -0.37457436 -0.23224981
000290 21 84 19 be 59 80 c3 be 2d d4 0a 3e 7d 07 fb be
       -0.1499181 -0.3818386 0.13557501 -0.4902915
0002a0 14 b2 18 3e 18 4c 59 3d 47 28 ab bd 7b 66 c0 3e
       0.14911681 0.053051084 -0.08357292 0.37578186
0002b0 12 3f 2d 3f 7d af e5 be be bf 8f be d4 29 0d 3e
       0.6767436 -0.4486045 -0.28075975 0.13785487
0002c0 d3 e8 02 3e dc 05 f9 3d 91 2b e7 3d 71 46 0e 3e
       0.12784128 0.12159321 0.112876065 0.13894059
0002d0 3d 05 30 bd b2 82 d0 3c 16 a2 dd be 33 09 46 3e
       -0.042973746 0.025452945 -0.43287724 0.19339447
0002e0 16 7c dd be 2f 3a 0f 3f 20 9e 28 3e c4 f0 f2 be
       -0.43258733 0.55948156 0.1646657 -0.47449315
0002f0 2f cf 4d be 36 b5 a2 3b 14 ec 5f 3d 59 76 99 3d
       -0.20098566 0.0049654497 0.0546685 0.07493276
000300 86 b6 54 3e 4d 3f da be c2 99 e1 be ae 5a 83 3e
       0.20772752 -0.4262642 -0.4406262 0.2565512
000310 14 29 c0 be 5e 21 29 bf 11 45 34 3f 15 ba e4 be
       -0.3753134 -0.6606654 0.70417887 -0.4467322
000320 aa fa 1c 3e bd 25 28 be 68 4f cf 3c e1 16 13 3f
       0.15329996 -0.16420646 0.025306419 0.57456785
000330 77 cb 7b bd 8c 7b 02 3e d0 13 f3 bd 08 d9 41 3f
       -0.061473336 0.12742442 -0.11869013 0.7572179
000340 5d 49 e9 bd 5d 32 b8 be 41 09 f4 3e f6 11 c0 bc
       -0.11390946 -0.35975924 0.4766331 -0.023446064
000350 3b 1d 70 3e a7 a6 fd 3d 4e ea ea bd 23 91 bc bd
       0.2344865 0.12385302 -0.11470471 -0.0920737
000360 22 36 33 3d fa 11 79 3b da 35 49 be 33 47 16 3d
       0.043752797 0.00380051 -0.19649449 0.036688995
000370 8c 72 41 3e ea 35 59 3e 7d 89 cb 3c 2d 4c 39 be
       0.18891352 0.21211973 0.024845833 -0.18095465
000380 94 d4 22 3f b6 84 19 3e ad 93 b0 be 28 b5 c0 3d
       0.6360562 0.14992031 -0.34487668 0.09409553
000390 6a 0b 6a 3e ce e7 04 3e 11 e1 67 3d dc 8f b5 be
       0.22855917 0.12979051 0.056611124 -0.35461318
0003a0 29 72 c0 bd 55 fa a5 3c 3a b2 95 3e 32 39 35 3f
       -0.09396774 0.02026097 0.2923754 0.707904
0003b0 95 cf 6e be fc 07 fb 3e 0a 4f df bd 30 0f 69 bd
       -0.23321374 0.4902953 -0.109037474 -0.05689925
0003c0 af a8 98 3e 2e 87 20 bd 57 d2 a8 be bb 84 30 3f
       0.29816195 -0.039191417 -0.32972977 0.6895253
0003d0 82 c0 2a be 81 a5 ca be 20 8a 16 be 1b b1 14 be
       -0.16674998 -0.39579394 -0.14701128 -0.14520685
0003e0 4f be f7 3d 65 20 d2 bd 67 71 61 3b a3 61 c4 3d
       0.12096845 -0.10260085 0.0034399868 0.09588935
0003f0 55 16 a0 bd 0b 34 18 bd f8 f1 6a be 86 75 2b bd
       -0.078167595 -0.037159007 -0.22943866 -0.041860126

value_stream.0.weight f4 [256, 256]
000000 5b b8 03 bf 5e 7d 8b be 65 2f 55 bd 50 b6 3a bf
       -0.5145318 -0.27244085 -0.052047152 -0.72934437
000010 4d ca 15 bd d2 ff cf bc df 5a 69 bf ee ac b5 be
       -0.036569882 -0.02539054 -0.91154283 -0.35483497
000020 3f 63 03 bf 7c 5e 2f 3e 1f 59 dd 3c b3 fc 55 be
       -0.5132331 0.17125887 0.027020035 -0.20897178
000030 fe e4 1c be 62 dd b6 3e 0d 59 52 3e a9 c0 4c 3d
       -0.15321729 0.35715777 0.20541783 0.049988423
000040 99 68 3c 3d 32 d4 4b bf 10 9a 91 be 90 74 d2 be
       0.04599819 -0.7962066 -0.28437853 -0.41104555
000050 70 68 f8 be d8 fb 9b be f4 41 1d bc 61 78 9a be
       -0.4851718 -0.3046558 -0.009598244 -0.30169967
000060 37 3a cf bd a2 a8 47 be 7a 3b 93 be d4 d7 e9 be
       -0.101185255 -0.19497922 -0.28756315 -0.45672476
000070 6a c8 b1 be c6 ac 89 bd 88 43 3d 3e 37 b5 c7 3d
       -0.34723216 -0.06722407 0.18482792 0.09751361
000080 6c f4 ea bd 02 69 1a bd 17 4b c4 bd 44 2a 7a be
       -0.11472401 -0.0376978 -0.09584635 -0.24430186
000090 e8 1f 2e 3e 75 f1 f2 be e7 12 c3 be 10 61 42 bf
       0.17004359 -0.47449842 -0.3810036 -0.75929356
0000a0 32 05 76 be 3f 6e 54 3d 46 f2 60 be c3 1c ca be
       -0.2402542 0.05186295 -0.2196742 -0.39475068
0000b0 34 aa 7c be 92 70 b2 be 4e 83 dd bc 52 9c 89 be
       -0.24674302 -0.3485151 -0.02704015 -0.26877075
0000c0 69 e2 dd 3d 59 0c ee bd 8f db 24 be 9a cc cd be
       0.108342 -0.11623449 -0.1609938 -0.4019516
0000d0 22 e1 76 be fd 88 4d be 49 84 df be a3 e2 90 3e
       -0.24109319 -0.20071788 -0.43655613 0.2829791
0000e0 a4 a7 70 be 0f 85 b1 3c 07 09 23 be 53 f0 87 be
       -0.2350145 0.021669893 -0.15921412 -0.2655054
0000f0 8d ef 64 bf b6 d3 2f be 65 2a 02 be 46 f6 b5 3e
       -0.89428025 -0.17170605 -0.12711485 0.35539454
000100 de 98 be 3d 92 f2 97 bd cd 03 be be 4e b1 a6 3d
       0.09306501 -0.074193135 -0.37112275 0.08139287
000110 10 bd 8a bd 75 f6 8a be c6 27 f4 be fe a1 01 bf
       -0.06774342 -0.27141157 -0.47686595 -0.50637805
000120 d0 fa e4 be 67 e8 8d bd 3a 0e df 3c 2a 69 2b be
       -0.44722605 -0.06929093 0.027228463 -0.16739336
000130 cb 80 b0 bd f5 b6 44 bf 1e 7c 24 bf 1f e1 64 be
       -0.08618315 -0.7684167 -0.6425189 -0.22351502
000140 22 87 86 bc 70 39 86 bd 58 a3 f3 be 49 e2 7c 3d
       -0.016421858 -0.06553924 -0.4758556 0.06173924
000150 8f 33 d4 bd db 70 ff 3d 39 e0 de bd 65 d0 10 be
       -0.103613965 0.12472697 -0.10882611 -0.14141996
000160 ee 9f 87 3c 13 dd 09 be 17 49 7d 3d f1 f2 f0 be
       0.016555753 -0.1346324 0.061837282 -0.4706035
000170 c3 34 75 be a2 63 e2 bc 14 7a bd 3c e8 fb 72 3c
       -0.23945908 -0.0276354 0.0231295 0.014830567
000180 8a ac d0 bd 97 20 a1 3d f5 ab 26 bd 28 6b 0c bf
       -0.10189159 0.07867544 -0.040691335 -0.5485101
000190 ac d5 90 bd 1a 17 aa be a7 f2 ca 3d e5 4c 2c bf
       -0.07072005 -0.3322075 0.099095635 -0.6730483
0001a0 c9 4f d9 be 8f 84 3f 3d bc 66 80 be 4e af 05 bf
       -0.42443684 0.046757277 -0.2507838 -0.5222062
0001b0 56 51 fc bd 97 71 8b 3e a1 a4 ce be 98 da eb bd
       -0.12320201 0.272351 -0.40359977 -0.11516303
0001c0 0f 00 d5 be 22 f6 cf 3d de 42 35 bd 43 51 8b be
       -0.41601607 0.10154368 -0.044253223 -0.27210435
0001d0 78 9a c0 be 62 71 e8 bc d7 79 54 be 82 1c 10 bd
       -0.3761785 -0.028374378 -0.20749603 -0.035183437
0001e0 4b df 22 bf 89 02 5a 3d 82 a4 3a bf 88 42 9e bf
       -0.6362197 0.053225074 -0.7290727 -1.2364054
0001f0 37 31 9f bd a2 c2 2b be 97 1c 94 be 51 76 35 bf
       -0.07773059 -0.16773465 -0.28928062 -0.7088366
000200 ee 8f ad be 41 89 53 3e bb f4 8a be b7 20 b3 be
       -0.33898872 0.20657827 -0.2713984 -0.34985897
000210 83 12 db be 6d 66 3c bf d5 eb cf be 26 ba 03 bf
       -0.4278756 -0.7359379 -0.40609613 -0.51455915
000220 f3 ca 38 3e 8d 6e e3 bc 9d 13 92 3e d6 1c 61 3d
       0.18046169 -0.027762676 0.2853059 0.05495914
000230 54 6f 48 3c a7 80 30 be b4 1a 60 bd 88 6a 68 bd
       0.012233574 -0.17236577 -0.054712966 -0.05674222
000240 97 e6 fa be c7 d8 44 bd 50 96 01 bf c8 ad 52 3d
       -0.4900405 -0.048058297 -0.50619984 0.051435262
000250 7c aa 21 be e2 e3 22 bf 7d d2 bd be bb b3 0a bf
       -0.15787691 -0.6362897 -0.37074652 -0.54180497
000260 36 4a 1a be bd 09 b5 3c a8 67 89 3e de 0a 17 be
       -0.15067372 0.02209937 0.26836896 -0.14750239
000270 02 0f 0f bf 85 63 99 3d 2a ef 07 be 64 ce 71 bd
       -0.55882275 0.07489685 -0.13274828 -0.05903472
000280 94 37 c0 be 25 72 d8 be e3 2c eb 3d d6 c7 0b 3d
       -0.37542403 -0.42274585 0.11483171 0.034126125
000290 17 4d 1e bf a1 10 c5 3d dc 8d 96 bd ea 5f ea bb
       -0.6183638 0.09622312 -0.07351276 -0.007152547
0002a0 f8 27 bc bd fc 17 f0 bd 58 0b 80 be 28 2f cc bd
       -0.09187311 -0.11723325 -0.25008655 -0.09969932
0002b0 22 b0 a7 3d 3f 26 6e be c0 e4 53 be de 8a 55 bc
       0.081878915 -0.23256777 -0.2069273 -0.013033597
0002c0 6f 06 72 be d7 bc 2e be 50 9a 8a be 5b 25 1c be
       -0.23635267 -0.17064224 -0.27070856 -0.15248625
0002d0 ba da 01 be 2b ba 52 3e 40 35 89 bd de ad 00 bf
       -0.12681094 0.2057883 -0.0669961 -0.502653
0002e0 d9 80 ec be f5 2e 06 3d 3c 28 48 bf 63 ff e7 bc
       -0.46192053 0.032759625 -0.7818639 -0.02832002
0002f0 d2 2f 2d be 9a 46 74 be a3 26 ba bd 06 cc 23 bf
       -0.16912773 -0.23855057 -0.090894006 -0.6398319
000300 f9 0a 0c be 5a c6 7a be c5 6d 5f bd 35 b5 db bd
       -0.1367606 -0.24489728 -0.054548044 -0.10727922
000310 69 d2 bd be 04 28 85 be 96 a6 4b 3c f3 40 b3 3a
       -0.37074593 -0.26007092 0.012429854 0.0013675973
000320 ad 03 d0 be 22 f2 7d 3e d9 b9 0b bf 83 22 98 bd
       -0.40627804 0.24799398 -0.54580456 -0.074284576
000330 16 e7 41 be 09 ed 15 bf ef d2 8d bd d4 c3 c5 3d
       -0.18935809 -0.5856481 -0.06924998 0.09656492
000340 9e 10 33 3c 48 7c 38 bf e7 ab a7 3e 4d 79 ec be
       0.010929255 -0.7206464 0.3274834 -0.46186295
000350 29 4b 80 bf 8c 73 dc 3d 59 ef 96 bb c7 7c 85 be
       -1.0022937 0.10764226 -0.004606169 -0.2607176
000360 10 c2 d3 3d 5e 4c 56 be fb d3 92 be 7b 43 0e bf
       0.10339749 -0.2092757 -0.28677353 -0.5557172
000370 84 75 05 bf 71 e5 9a bf 91 87 e2 be 88 ee 32 3d
       -0.5213244 -1.210127 -0.44244054 0.043684512
000380 19 d9 94 bd 7c 98 ec be 37 9b 7a bd 12 92 de be
       -0.072679706 -0.46210086 -0.06118318 -0.43470818
000390 ff 29 68 be 1f 63 21 bf 69 bf 0d bc 10 aa 65 bf
       -0.2267227 -0.6304187 -0.008651593 -0.8971262
0003a0 4e 7c 4f be d2 f1 8f be 4e 76 13 bf a7 e9 7e bd
       -0.20262262 -0.28114182 -0.57602394 -0.062234547
0003b0 fe e9 ac bd 5d d5 b3 3d f7 6e 25 be e7 bc 80 be
       -0.08443068 0.0878093 -0.16155611 -0.2514412
0003c0 33 eb 04 be f3 70 53 be 14 c4 10 3d cc 8f 8e 3e
       -0.12980346 -0.20648555 0.035343245 0.27844083
0003d0 b8 0e 11 bf 9b 7d 37 bf d2 ca 1c be 1f fa d2 3c
       -0.56663084 -0.71676034 -0.15311745 0.025754033
0003e0 76 b0 02 bf 54 b4 69 bc 70 8e b2 be ab 48 89 3e
       -0.5105051 -0.014264185 -0.34874296 0.26813254
0003f0 1e 8c 78 be a4 9c 0e bf d2 22 0f bf 67 53 4b bf
       -0.242722 -0.55707765 -0.55912507 -0.79424137

value_stream.0.bias f4 [256]
000000 f9 05 0c 3f 78 b4 00 3f dc be fc bd 19 f3 f1 3e
       0.54696614 0.50275373 -0.12341091 0.4725578
000010 49 9a 84 3e 75 2d c3 3e 74 15 7a 3e 5b 2a 38 3e
       0.2589896 0.38120618 0.24422246 0.17984907
000020 f7 9d ad 3e 27 73 65 be 61 d3 a0 3d b3 42 28 3f
       0.3390958 -0.22407208 0.07852817 0.65726775
000030 b4 84 65 3e 4f 02 89 3e 54 f2 cb 3e 77 f3 42 bd
       0.22413903 0.26759574 0.3983332 -0.047595467
000040 3a 43 e8 3e e4 a7 18 3f de f1 f7 be 03 50 8a 3d
       0.4536379 0.5963118 -0.48426718 0.06753542
000050 8f 54 e2 be 79 7c 96 3d 5e cc a4 be 84 66 c8 3d
       -0.44205138 0.0734796 -0.3218717 0.09785178
000060 d9 c0 90 be 09 f2 bc 3d 55 d0 e4 3c ae 86 fa 3e
       -0.2827213 0.09225852 0.027931372 0.48930877
000070 7b fa 0a be f7 5d 09 3f 08 c3 56 3d 9b bb d0 3e
       -0.13572113 0.53659004 0.05243209 0.40768132
000080 b5 1e a6 3d 3c 1f c7 3c 18 b2 0a bd c5 48 80 be
       0.08111326 0.024306886 -0.03386125 -0.2505552
000090 ed 07 ba 3e bc 89 18 3d 7d 1a fb 3e b6 a6 14 3f
       0.36334172 0.03724073 0.49043646 0.5806688
0000a0 08 46 1c 3d 46 1c a2 bc 16 7e 8d 3e 3d 21 73 3c
       0.038152725 -0.019788872 0.27635258 0.014839468
0000b0 25 79 67 3e 3a 94 34 3e ba 36 f2 3e 62 ec 88 3e
       0.22604807 0.17634669 0.47307378 0.26742846
0000c0 82 4b 35 3e 4c ea bb 3d 85 bf 14 3f 42 86 0f 3e
       0.17704585 0.09175548 0.58104736 0.14016059
0000d0 24 47 db bd 3c 91 87 3e 0c 1d c0 3d b7 66 a4 3e
       -0.10706928 0.26477993 0.0938054 0.32109615
0000e0 8e 17 6a bd 55 ba 38 3f a8 4c 1b bd d2 fd 9e 3d
       -0.05715137 0.7215932 -0.037914902 0.07763256
0000f0 c0 1a 66 3e cc 11 f6 3e c1 a8 a7 3a 2c 87 6b 3e
       0.22471142 0.48060453 0.0012791381 0.23000783
000100 fa 6e 1a 3e 24 a1 84 3c 47 60 d5 3e 8f 4e 16 3f
       0.15081397 0.01619012 0.41675016 0.5871362
000110 bc 95 86 be af 20 48 3e cc 43 85 3e d1 75 27 3e
       -0.26286113 0.19543718 0.26028287 0.16353537
000120 d4 5f cc 3e 10 69 3b bd 24 ba 58 3d 74 e3 c3 3e
       0.3991686 -0.045754492 0.052911893 0.3825947
000130 02 1e 42 3f 5f e8 c7 3e 9b c9 11 3e 4b e9 58 3f
       0.7582704 0.39044473 0.14237063 0.84730977
000140 b2 b3 20 3e 46 83 18 3f ab a2 e0 3c a0 f6 cb 3d
       0.15693548 0.5957531 0.027421316 0.09959149
000150 12 cb b4 3d 50 55 ef 3d cc 18 81 be 66 49 19 3f
       0.08827795 0.11686194 -0.2521423 0.5987762
000160 73 52 5a 3e 0f 95 00 bf aa 9f 9d 3e 5e 90 28 3e
       0.21320514 -0.50227445 0.30785877 0.16461322
000170 bd a7 88 3d 62 fb 43 3d 6c 7d 05 3d 09 b3 8a bc
       0.066726185 0.04784716 0.032590315 -0.016931074
000180 c8 f9 b6 3e ba c8 b6 be e2 95 fa 3e d8 26 0a 3f
       0.35737443 -0.35700017 0.48942477 0.5396552
000190 91 b5 e8 bd d2 d8 1c 3c 32 95 39 3e 8f e6 f6 3e
       -0.11362756 0.009573178 0.1812332 0.48222777
0001a0 3a ab 8f 3d 0c 5b eb 3e ef 6a 91 3e 97 e7 d0 3e
       0.07015081 0.459679 0.28401896 0.4080169
0001b0 85 96 a5 3e ba 7b fb 3d ae 19 21 3f 83 a6 cf 3e
       0.323414 0.12279458 0.6292981 0.40556726
0001c0 89 77 24 3e c3 58 3e 3f 3d df 77 3e 55 4a d0 bd
       0.16061224 0.7435419 0.24206252 -0.10170428
0001d0 64 4f e8 3d 42 01 f3 3e c0 11 52 3e 57 fc 8d bd
       0.113432676 0.47461897 0.20514584 -0.06932896
0001e0 85 29 0d 3f 8d 11 0f 3f da fa eb be 3f 78 1b bd
       0.5514148 0.55886155 -0.46089822 -0.037956472
0001f0 bb fb ad 3e 08 ac c7 3e ab cb 4e bd a0 f7 31 3e
       0.33981118 0.38998437 -0.0504872 0.17379618
000200 0e dd 25 3d 02 12 c7 bc 17 30 17 3e 4a 1f a3 3e
       0.040494017 -0.024300579 0.14764439 0.3185981
000210 e1 75 50 3e f8 75 c6 3e a1 77 87 3e f4 8a 9c 3e
       0.20357467 0.38761878 0.26458457 0.30574763
000220 68 2b ea 3c aa 14 1f 3e ff d8 7b 3e 49 2d c0 3e
       0.02858515 0.15535226 0.24594496 0.3753455
000230 76 d9 df 3d a9 55 4d 3e ca 5e 87 3d e4 a4 b5 be
       0.10930149 0.20052208 0.066098765 -0.35477364
000240 70 d5 bd 3d 32 94 33 3f 07 14 8d be 49 74 d5 3e
       0.092692256 0.70148003 -0.27554342 0.4169028
000250 78 d2 be be af 1e c1 3e 7c 5a f2 3e ff 54 c7 3e
       -0.3726995 0.37718722 0.4733466 0.38932034
000260 9c aa 82 3e 31 bf 6c 3e 8a b5 1b 3e a9 da 91 3e
       0.2552079 0.23119809 0.1520597 0.28487137
000270 2f 98 88 3d 99 c8 fa 3d cc 39 16 3e f5 f1 27 bd
       0.06669652 0.12245292 0.14670485 -0.041002233
000280 1b b6 de bd 01 68 04 3f a3 25 8b 3d 70 d7 c6 3e
       -0.108745776 0.517212 0.06794288 0.3883624
000290 b2 72 f3 3e c1 4c 1a 3f a5 95 32 3f 68 9b f9 3e
       0.47548443 0.6027337 0.6975959 0.48751378
0002a0 13 72 11 3f 69 c7 f4 3e 0c 01 df 3e a2 7b 60 3e
       0.5681469 0.47808388 0.43555486 0.21922162
0002b0 ae 6f 8b 3e 3a f3 c1 3e 56 4a 5c 3e 5f d8 f4 3e
       0.27233642 0.3788088 0.21512732 0.47821328
0002c0 dc ff 95 3e 4c 71 0e 3f 55 48 b8 be 49 a8 a3 3e
       0.29296768 0.5564163 -0.35992685 0.3196433
0002d0 f9 26 b2 3e 87 22 12 3f 7c 2e 4c 3d 6f 04 95 3d
       0.3479536 0.57083935 0.04984902 0.07276236
0002e0 c4 95 ee 3e cf 7c 10 3f 35 8d 34 3e ed ab b6 bd
       0.46598637 0.5644044 0.17631991 -0.08919511
0002f0 21 67 6c be 2c a9 c3 3e 29 0d 5f bd b3 8a f7 3e
       -0.23086216 0.38215005 -0.05445591 0.48348007
000300 24 b7 bd 3e ec dd 0c 3f 99 99 68 3e 26 2b 1e 3e
       0.37053788 0.55026126 0.22714843 0.15446147
000310 f6 fd 38 3d f6 06 8f bd d3 c1 cb 3e 89 ec 20 3e
       0.04516407 -0.069837496 0.39796314 0.15715231
000320 96 91 4e 3f a4 b3 f9 3d 24 cd 14 3e 07 00 16 3c
       0.80690897 0.12192467 0.1453138 0.00915528
000330 ae cd 54 3e 1a 32 15 3f 75 b6 8e 3e ee 71 e1 3e
       0.20781586 0.58279574 0.2787358 0.44032234
000340 95 6c f4 3e 48 77 e2 3d 6c f9 b9 3e cd 4c 49 3d
       0.47739092 0.11057907 0.36323106 0.04914551
000350 7a 4f 2f 3e 8b 69 a7 be 45 0b 5e 3e 9d 11 56 3e
       0.17120162 -0.3269771 0.21683986 0.20905156
000360 ee 66 78 3d bb d2 b1 3e 3e 64 f8 3d 64 7c a0 3e
       0.060645036 0.34731087 0.12128495 0.31344903
000370 1c 1d 8f 3e 4b 6e 26 3f 8f 64 43 3f 6d 2d 0d be
       0.27951896 0.65012044 0.76325315 -0.1378686
000380 52 78 86 3e 41 3d 66 3d 6f e5 2d be ee 93 91 bd
       0.26263672 0.05621076 -0.16982053 -0.071082935
000390 a8 ed 03 3f 57 6a f0 3e 2d 6e c0 3e 0d 47 c5 3d
       0.5153451 0.4695613 0.37584057 0.096326925
0003a0 ef dd b9 3e 76 2f ad 3e 38 ce c5 bd f2 37 22 3f
       0.36302134 0.33825272 -0.09658474 0.63366616
0003b0 95 42 ff 3e 46 62 87 3e e5 ed ea 3d ca 4f 0d 3f
       0.49855486 0.26442164 0.11471156 0.55199873
0003c0 78 b5 96 bd dd a3 f0 3d 5c b2 c9 3e 42 2a 0e 3f
       -0.07358831 0.117500044 0.3939389 0.5553323
0003d0 13 53 f3 3e 79 c8 e4 be 9a 18 0f 3e 6a f8 ad 3e
       0.47524318 -0.44684198 0.13974229 0.33978587
0003e0 bd d5 ac 3e 52 65 ee 3d 8d a3 18 3f 3a 02 d0 3e
       0.3375682 0.11640419 0.5962456 0.406267
0003f0 a0 42 3c 3e 74 70 e6 3e b7 80 3f 3e 7b 5c 07 3f
       0.1838479 0.4500767 0.18701445 0.5287549

value_stream.2.weight f4 [1, 256]
000000 d7 f2 71 3e 22 8b 99 bf 96 2b 9f 3f e4 bb c4 bf
       0.23627792 -1.1995585 1.2435176 -1.536984
000010 9d 31 7b bf 13 68 95 bf c6 c1 42 bf f7 3a 08 3f
       -0.9812258 -1.1672386 -0.76076925 0.53214973
000020 74 04 58 bf 7b 2e a4 bf f3 f7 86 bf 54 43 a6 bf
       -0.84381795 -1.2826685 -1.0544418 -1.2989297
000030 3d 98 b0 3f fc d6 5a bf 43 dc 4c 3f 3e 7f 02 3f
       1.379646 -0.8548429 0.8002359 0.50975406
000040 c7 19 d0 3e 3c 55 b8 3e 8e 6c 5d bf d7 d4 b2 3e
       0.40644667 0.3600253 -0.86493766 0.3492801
000050 40 ca da be 77 76 12 c0 85 a4 0a bf a9 87 a5 3f
       -0.4273243 -2.2884805 -0.54157287 1.2932025
000060 2a fa 15 be df 2d 03 3f 09 6c 08 3f 74 95 ae bf
       -0.14646211 0.5124187 0.5328985 -1.363936
000070 04 9d 80 3f 52 31 87 3e 6c f0 65 3f ed a4 aa bf
       1.0047917 0.26404816 0.8981998 -1.3331581
000080 02 90 92 3f da 47 1d 3f c0 76 02 3f f7 59 5a bf
       1.1450198 0.6143776 0.5096245 -0.85293525
000090 2a a3 f3 3e 1a 8c e0 3f 4d 2f ea bf 8c c3 b4 bf
       0.47585422 1.7542756 -1.8295685 -1.4122176
0000a0 cb e9 02 3f 5b d2 24 3f b7 7f 85 bf e4 35 05 c0
       0.5113799 0.64383477 -1.04296 -2.0814142
0000b0 ab f3 94 3f e8 c0 7f bf ad 15 c8 3e 36 1b a4 3f
       1.1636862 -0.99903727 0.39079037 1.2820804
0000c0 f4 bd a2 bf 72 d9 f3 3e ea 63 06 3f 4e 9f 9f 3f
       -1.2714219 0.47626835 0.52496207 1.2470491
0000d0 18 d7 1e bf 0a 06 a8 3f 73 e9 0f c0 8d 27 01 3f
       -0.62046957 1.3126843 -2.2486236 0.50450975
0000e0 f4 e1 11 3f 50 b6 b7 bf 77 e3 b6 3f fd 0e 95 3f
       0.569854 -1.4352512 1.4288167 1.1645199
0000f0 96 cf 66 3f f9 bb d7 bf 8b 41 1a 3f 40 86 ae bf
       0.901605 -1.685424 0.6025626 -1.363472
000100 09 fc 13 c0 1a 58 29 3f 88 cd 05 3f ce a1 af bf
       -2.312258 0.6615006 0.5226674 -1.3721254
000110 47 47 34 bf c0 05 a3 3f 32 e7 a9 3e a0 6d f2 3e
       -0.7042126 1.273613 0.331842 0.47349262
000120 c5 8d 03 3f b4 07 a5 bf da 12 c2 3f 41 38 94 bf
       0.513882 -1.2892976 1.5162003 -1.1579667
000130 03 68 a5 bf 71 4d a3 bf bd 3f 11 c0 e7 27 d2 bf
       -1.2922367 -1.2758008 -2.2695153 -1.6418427
000140 31 22 9d bf 51 03 91 3e bf 53 c4 3f 65 08 f1 3e
       -1.2276059 0.28322843 1.5338057 0.47076717
000150 d6 58 2a bf 01 df 94 3f 2c 3b 0a bf b8 cc a5 3e
       -0.665418 1.1630555 -0.5399654 0.3238275
000160 57 81 cf 3e 7b 89 c5 be 62 c7 7b 3f 69 31 e6 bf
       0.40528366 -0.38581452 0.9835111 -1.7983829
000170 0b 4c 01 3f ed ba 5e 3f 6c 38 0f 3f 0c b6 12 3f
       0.5050666 0.87003976 0.5594547 0.5730903
000180 c4 fb 28 3f e9 ff cd be 3c c3 f5 3e e5 ff d6 bf
       0.66009164 -0.40234306 0.48000515 -1.6796843
000190 d7 57 29 bf 40 ea 0d 3f 4b b2 7c bf b6 2b f8 3e
       -0.6614966 0.5543556 -0.98709553 0.4847085
0001a0 50 c7 10 3f ca 40 de bf 3e 5e 8e bf 23 3c bc 3e
       0.56554127 -1.7363522 -1.112251 0.3676463
0001b0 54 57 bc bf 35 61 14 c0 ab 90 dc bf 17 74 30 3f
       -1.471415 -2.318433 -1.7231649 0.6892714
0001c0 a7 93 af 3e 64 06 a9 bf 86 1f 91 3f ac 32 67 bf
       0.34292337 -1.3205075 1.1337745 -0.90311694
0001d0 a8 fe 95 3f 3e 31 e2 bf 20 6d b1 bf e7 74 02 bf
       1.171834 -1.7671278 -1.3861427 -0.5095963
0001e0 8a 52 7f bf 52 bd ad bf d7 ca a4 be 3d 41 7e 3f
       -0.9973532 -1.3573401 -0.32186005 0.99318296
0001f0 75 4c b4 bf 00 31 5d bf c0 a7 0b 3f 76 8f fe bf
       -1.4085833 -0.86402893 0.5455284 -1.9887531
000200 f8 ba 39 3f b9 c1 97 bf 90 8a 1c 3f 74 7a bb 3f
       0.72550917 -1.1855994 0.6114893 1.4646745
000210 fc 0d b8 3f 7a 6c 9a bf 39 e3 b8 bf 0e 7b aa 3e
       1.4379268 -1.2064354 -1.4444343 0.33297008
000220 08 53 94 3f b3 12 aa 3e d5 8c aa bf df a7 cb 3e
       1.1587839 0.3321739 -1.3324229 0.39776513
000230 49 be 0c 3f 00 4d f0 3e c6 16 0e c0 fe d0 b3 bf
       0.5497785 0.46933746 -2.22014 -1.4048154
000240 77 43 b5 3f d6 ca f1 bf bd 22 9a bf 26 51 91 bf
       1.4161214 -1.8890026 -1.2041851 -1.135289
000250 3b fa 32 bf ba a3 c8 bf fe 5e 92 bf eb 93 9d bf
       -0.6991307 -1.5674965 -1.1435239 -1.2310766
000260 1e e7 7d 3f fc fb a0 3f 8a ae 94 3f bb 2b 7b 3f
       0.9918078 1.25769 1.1615765 0.981136
000270 38 ab a9 3f af 18 ac 3f 80 a5 cf 3e 51 65 23 3f
       1.3255377 1.3445033 0.40555954 0.6382647
000280 23 b2 6a bf eb dc dc 3e 8b 9f 9e 3f 4d aa b2 bf
       -0.91678065 0.43137297 1.2392439 -1.3958222
000290 4a 89 0d c0 2b 6b a6 bf 98 65 f6 bf 28 ef ea bf
       -2.2115045 -1.3001455 -1.9249754 -1.8354235
0002a0 24 e5 a0 3e 68 87 83 bf 11 ee 86 3e dc db 65 bf
       0.3142482 -1.0275698 0.26353505 -0.89788604
0002b0 14 ce 88 bf ae ff 91 bf 4e b2 1b c0 cb 01 33 3f
       -1.068789 -1.1406152 -2.4327579 0.6992461
0002c0 dc 29 90 3f bb c4 89 3e 61 fd dc bd b0 4f e4 bf
       1.1262774 0.26907906 -0.10790516 -1.7836819
0002d0 f0 2b 04 3f 42 94 58 3e 74 f8 c9 bf 68 7f d1 bf
       0.51629543 0.21150306 -1.5778947 -1.6367006
0002e0 95 1c a9 bf 06 13 04 3f d6 50 9f 3f 64 2c 1e bf
       -1.3211848 0.5159153 1.2446544 -0.61786485
0002f0 88 13 86 be b7 bf 9f bf 23 dc c9 bf 7c b9 e6 bf
       -0.26186776 -1.2480382 -1.5770305 -1.8025355
000300 ab 53 12 3f cb 50 b0 3e c6 07 ad 3f a9 df 04 3f
       0.5715892 0.3443664 1.3517997 0.5190378
000310 00 91 c3 3f 4c ee ef bf d6 d6 99 bf 5c 23 af 3f
       1.5278625 -1.8744597 -1.2018688 1.3682666
000320 a7 ee a2 bf bb 8b 91 3f f3 29 ae 3f 8b 03 b3 3f
       -1.2729081 1.1370767 1.3606552 1.3985456
000330 9a 17 9d 3f 19 4f e9 bf 33 78 8c 3f 81 63 c2 bf
       1.2272828 -1.8227264 1.0974182 -1.5186616
000340 3e c2 c0 3e 8b 02 12 c0 00 6b 63 3f 85 40 20 3f
       0.37648195 -2.2814052 0.88835144 0.6259845
000350 2e bd 89 bf 49 c3 41 bf 67 f1 af bf 18 b3 cf bf
       -1.0760858 -0.75688607 -1.3745545 -1.622653
000360 4c 1c 87 3f fe bd ab bf 36 7a 5a bf 3f 09 87 bf
       1.055551 -1.3417356 -0.8534273 -1.0549697
000370 ff 59 85 bf 5d 6f c9 3e ac db aa bf 1e 72 a0 bf
       -1.041809 0.39342776 -1.3348289 -1.2534826
000380 94 aa 79 3f a0 17 6d 3f 7a e7 0f bf 85 61 7b bf
       0.97525907 0.92614174 -0.5621258 -0.9819568
000390 ff 8d dd bf 7e 96 2e c0 e7 68 9b 3e ae 55 13 c0
       -1.7308959 -2.7279353 0.30353472 -2.3021045
0003a0 8f 02 99 3e ba fa ad 3e b4 d4 bb bf 28 c5 e3 bf
       0.29884765 0.33980352 -1.4674287 -1.7794542
0003b0 a3 b9 e6 3e 8d 3a 97 bf 9c 89 18 3f 2c ac ee bf
       0.45063505 -1.1814743 0.59584975 -1.8646293
0003c0 be 21 cf bf 57 d2 3e 3f d8 e1 0c 3f 96 73 f9 3e
       -1.6182172 0.74539703 0.5503211 0.48720998
0003d0 3a e0 05 c0 19 df 47 bf bc 6b a9 3f e4 7b b3 bf
       -2.0918107 -0.78074795 1.3236003 -1.4022183
0003e0 35 18 a2 bf 48 99 72 3f f7 db da 3e 36 6f dc 3e
       -1.2663637 0.9476514 0.42745945 0.43053597
0003f0 30 3a a9 bf fe bf bd bf ec 56 83 3f 70 77 af bf
       -1.3220882 -1.4824216 1.0260901 -1.3708324
