active_slam_rl/training_output_no_slam/20260128_030605/d3qn_ep550.pth (torch, 901794 bytes, 11 tensors)

feature.0.weight f4 [256, 100]
-0.07317016 -0.13206008 -0.11742114 -0.04036191 -0.070527524 -0.162621 -0.014782772 -0.19965093
-0.007235394 -0.22102132 -0.17011243 -0.057434693 -0.16573352 -0.056725334 -0.077995196 -0.17839608
-0.078538716 -0.2340913 -0.20522076 -0.11939041 -0.044171236 -0.07624465 -0.129313 0.08054561
-0.09147292 -0.1653986 -0.08789846 -0.112646304 -0.064707845 -0.095229276 -0.11903309 -0.11253635
-0.10309586 -0.050350178 -0.04537541 -0.07834206 -0.0013301497 -0.15097734 -0.0714306 -0.0010243515
-0.074002855 -0.1771029 -0.010470497 -0.108049326 -0.12935475 -0.13890249 -0.15756305 -0.1495562
-0.09154772 -0.12985703 -0.010510105 0.08365367 -0.0075933505 0.089123406 -0.16629145 -0.060007684
-0.050191943 -0.15332118 -0.10366603 -0.087932765 -0.017061405 -0.06781694 -0.12733045 -0.12126415
-0.17656249 -0.13973467 -0.09543866 -0.14670114 -0.06323052 0.13094106 0.0802826 0.0912162
0.05944051 0.028675938 0.040292505 -0.07876306 0.053671036 -0.091042235 0.088040955 0.022128249
0.06083818 -0.07936771 0.03761757 -0.019155143 -0.040772572 -0.112014465 -0.12438375 -0.08784385
-0.013815031 -0.017450213 0.02883936 -0.0060434733 0.026505953 0.0074674473 0.046125814 0.05481332
-0.033896577 -0.10637277 -0.065341115 -0.18022507 0.10386692 0.015111729 0.16545357 0.1538028
0.09179045 0.10458649 0.18909022 0.17265975 0.02929144 0.0015366566 -0.03152833 0.028805258
0.06969454 -0.009987625 0.080503486 -0.051582232 0.07660696 0.09954745 0.043898724 -0.040097546
-0.029717864 -0.072666615 -0.1652374 -0.02449008 -0.14274593 -0.10765979 -0.2295354 -0.26405066
-0.12883568 -0.18215208 -0.14176868 -0.2401355 -0.22562557 -0.297656 -0.37918055 -0.32428697
-0.30980468 -0.29413733 -0.31278464 -0.5135546 -0.26115578 -0.49552962 -0.48965028 -0.35332984
-0.38692114 -0.47693408 -0.6109736 -0.45241207 -0.56554055 -0.49617463 -0.44146234 -0.5430193
-0.42166016 -0.26097968 -0.22435911 -0.13742648 0.08805724 -0.047800224 0.16669463 0.119873896
0.0698551 0.028436588 0.06200358 0.03297791 0.09170382 0.11715523 0.13029777 0.12493182
0.09797753 0.047194835 0.2139113 0.047364857 0.07648859 -0.034003306 -0.01988017 0.0069144648
0.076931365 -0.07535265 -0.051669464 0.01574121 -0.030633643 -0.021671936 -0.08429865 0.05920481
-0.046761315 0.04953435 0.024246152 -0.07648635 -0.10387694 -0.005343197 0.071629845 -0.024669962
-0.066700906 0.048671346 -0.07393646 0.06683122 -0.050153382 -0.05706715 0.022720171 -0.18454608
-0.5057193 -0.52045155 -0.52226865 -0.46150386 -0.5923272 -0.53113204 -0.5407921 -0.61402535
-0.6228365 -0.6062903 -0.49482712 -0.43167222 -0.5881005 -0.5296778 -0.53045404 -0.6666631
-0.68574816 -0.6679775 -0.69169027 -0.6616561 -0.72175616 -0.026611645 0.18506722 0.15304351
0.15019163 0.10176196 -0.026373347 0.19362497 0.11882909 0.024071682 -0.07988966 -0.0633959
-0.11841933 0.046620358 -0.18663917 -0.024751475 -0.086311825 -0.19639091 -0.07356311 -0.07059804
-0.1449928 -0.27246872 -0.17503613 -0.25404203 -0.14828682 -0.1808184 -0.08239303 -0.035858057
-0.1323422 -0.18435527 -0.12948486 -0.02522363 -0.053163238 -0.034863785 -0.14745678 -0.13877054
00000000: 3dda 95bd c23a 07be 7f7a f0bd 8852 25bd
00000010: bc70 90bd 1f86 26be 7133 72bc 4b71 4cbe
00000020: e216 edbb 6a53 62be f431 2ebe a440 6bbd
00000030: 0cb6 29be d358 68bd f2bb 9fbd 76ad 36be
00000040: e8d8 a0bd a1b5 6fbe 6425 52be f682 f4bd
00000050: e6ec 34bd 2826 9cbd a16a 04be 19f5 a43d
00000060: 2756 bbbd 405e 29be 1c04 b4bd 1bb3 e6bd
00000070: 8c85 84bd 9107 c3bd 9fc7 f3bd 7579 e6bd
00000080: ec23 d3bd fd3b 4ebd 91db 39bd cd71 a0bd
00000090: 6b58 aeba ce99 1abe 354a 92bd 8843 86ba
000000a0: cf8e 97bd 765a 35be 738c 2bbc f748 ddbd
000000b0: 9275 04be 743c 0ebe 3558 21be 4325 19be
000000c0: 5f7d bbbd 3ef9 04be 9332 2cbc 9e52 ab3d
000000d0: a4d1 f8bb 5586 b63d 4e48 2abe 9eca 75bd
000000e0: 1196 4dbd 3a00 1dbe db4e d4bd 1816 b4bd
000000f0: 5cc4 8bbc 9ce3 8abd ea62 02be 5759 f8bd
00000100: cccc 34be 9b16 0fbe 5875 c3bd d338 16be
00000110: 017f 81bd 6a15 063e 346b a43d 8fcf ba3d
00000120: e477 733d cde9 ea3c c109 253d 874e a1bd
00000130: 29d6 5b3d 5a74 babd d14e b43d 4d46 b53c
00000140: 7531 793d 8a8b a2bd e214 1a3d 3feb 9cbc
00000150: 2401 27bd d767 e5bd e8bc febd 7ae7 b3bd
00000160: 7158 62bc c0f3 8ebc 8640 ec3c 5408 c6bb
00000170: 0323 d93c 7db1 f43b 6cee 3c3d ef83 603d
00000180: 23d7 0abd f8d9 d9bd 90d1 85bd ec8c 38be
00000190: 2eb8 d43d 2f97 773c a96c 293e 7b7e 1d3e
000001a0: a2fc bb3d 7131 d63d dea0 413e b8cd 303e
000001b0: 9af4 ef3c a469 c93a da23 01bd 01f9 eb3c
000001c0: 03bc 8e3d 23a3 23bc 03df a43d e447 53bd
000001d0: 1ce4 9c3d 89df cb3d 26cf 333d 533d 24bd
000001e0: e172 f3bc 3cd2 94bd fe33 29be 6c9f c8bc
000001f0: fd2b 12be bc7c dcbd 540b 6bbe a631 87be
00000200: 80ed 03be 1386 3abe cf2b 11be 15e6 75be
00000210: 640a 67be 5e66 98be f423 c2be f108 a6be
00000220: b89e 9ebe 2b99 96be 4f25 a0be 5078 03bf
00000230: 36b6 85be 0fb6 fdbe 71b3 fabe a6e7 b4be
00000240: 871a c6be b430 f4be c468 1cbf 8ea2 e7be
00000250: 44c7 10bf 9a0a febe 5a07 e2be 5003 0bbf
00000260: d7e3 d7be 219f 85be 65be 65be 87b9 0cbe
00000270: 5b57 b43d 2bca 43bd ffb1 2a3e 7280 f53d
00000280: 3110 8f3d d9f3 e83c 77f7 7d3d d813 073d
00000290: 36cf bb3d 15ef ef3d c76c 053e 41dc ff3d
000002a0: 71a8 c83d 5f4f 413d 900b 5b3e a701 423d
000002b0: 0da6 9c3d 0d47 0bbd bddb a2bc bc92 e23b
000002c0: 318e 9d3d 7d52 9abd 5ca3 53bd b6f3 803c
000002d0: 68f3 fabc 5889 b1bc c5a4 acbd be80 723d
000002e0: cb88 3fbd 88e4 4a3d de9f c63c e0a4 9cbd
000002f0: 6fbd d4bd fc15 afbb abb2 923d a918 cabc
00000300: 7c9a 88bd 9b5b 473d 006c 97bd cfde 883d
00000310: a26d 4dbd 3ebf 69bd a71f ba3c a6f9 3cbe
00000320: d276 01bf 503c 05bf 66b3 05bf 3c4a ecbe
00000330: c1a2 17bf 45f8 07bf 5a71 0abf c430 1dbf
00000340: 3672 1fbf d735 1bbf fb59 fdbe 2404 ddbe
00000350: c18d 16bf f798 07bf d6cb 07bf 6faa 2abf
00000360: 318d 2fbf 9300 2bbf 9d12 31bf 4b62 29bf
00000370: 03c5 38bf aa00 dabc 4382 3d3e 70b7 1c3e
00000380: d6cb 193e 9368 d03d eb0c d8bc a045 463e
00000390: aa5c f33d fa31 c53c 319d a3bd b6d5 81bd
000003a0: d585 f2bd fdf4 3e3d 571e 3fbe 9bc3 cabc
000003b0: 41c4 b0bd b31a 49be 41a8 96bd b595 90bd
000003c0: fe78 14be 0581 8bbe ac3c 33be cc11 82be
000003d0: 80d8 17be 7528 39be adbd a8bd e6df 12bd
000003e0: b784 07be a1c7 3cbe ae97 04be c9a1 cebc
000003f0: b2c1 59bd 54cd 0ebd e9fe 16be dd19 0ebe

feature.0.bias f4 [256]
0.12725188 0.0030987228 -0.045273907 -0.03118737 0.41204092 0.38593596 -0.023347016 -0.37978598
0.17023414 0.39458916 -0.5810137 0.35475248 -0.07297284 0.32645044 0.42308053 -0.061881125
0.10623892 0.53709793 0.12395407 -0.4306954 -0.05777679 0.6076286 0.12656489 0.16525371
0.27718517 0.07212632 -0.18505135 -0.14796774 0.7090352 0.38478878 0.056091074 0.5600846
0.44532004 -0.13749987 0.39461696 0.042228643 0.1372292 -0.3017725 -0.16836426 0.17760424
0.2905259 0.25141063 0.3957259 0.1664515 0.13444407 0.3787207 0.2041329 -0.14097913
0.021806346 0.40673286 -0.43240243 0.3936374 0.20641376 -0.2763499 0.108384386 0.51177555
0.26010826 -0.0067166514 -0.27187142 -0.16021477 0.4254168 -0.41001874 0.40029666 0.07320881
0.27541667 0.10928772 0.17718741 0.3683058 0.35946268 0.07271943 0.30461994 0.36222172
0.20514965 0.09680773 0.35356516 0.20295037 -0.5053566 0.2792578 -0.12000106 -0.009301925
0.38039583 0.28365764 0.08974004 -0.05970492 0.50920016 0.17809388 0.17974104 -0.5611542
0.35905424 0.5854893 -0.41184345 0.11411206 0.28785405 -0.3978221 -0.3890638 0.26073566
-0.21612756 0.039877642 0.5738916 -0.36976746 0.3676465 -0.5179479 -0.4680672 0.5394684
0.5091751 0.12752429 -0.54765004 0.36561415 -0.13065167 0.42941293 0.23987667 0.123324
0.20602374 -0.22523835 0.23208645 -0.40736875 0.1297775 0.29214153 0.28927058 0.36793837
0.2600971 0.49095142 0.34273592 0.09384576 -0.18533579 0.12510566 0.19041207 0.34124076
0.24844718 0.010053073 0.2123195 0.28736937 -0.56920224 0.31305614 0.18566528 0.46646714
0.2742531 0.33041108 0.12883985 -0.011906509 -0.5432256 -0.47138274 -0.41895512 0.16635197
0.27665758 0.53994775 -0.52679765 0.4594734 -0.17105755 -0.3289495 0.22885454 0.20296262
0.054359302 -0.44540232 0.22143224 0.32187933 0.19930027 0.016784614 0.2341989 -0.15852016
0.18979988 -0.4443207 0.048860267 0.007130278 0.09038088 0.27142692 -0.16060042 0.41992763
-0.45019838 -0.035306532 -0.26662892 0.3059175 -0.38670236 0.22030917 0.22710322 0.13483866
0.22667116 -0.3583067 0.14296345 -0.31108123 -0.22633454 0.03916846 -0.5047395 0.2620533
0.043937597 -0.113842905 0.40524632 0.23995245 0.38313073 0.46278894 -0.17215958 -0.22199583
0.4047952 -0.207628 0.022546617 0.0866755 -0.26298216 0.37134415 -0.024766237 -0.11675084
0.11829872 0.2565618 0.3515749 0.2800445 -0.38950738 0.21862806 0.09571404 0.16065468
0.26445934 0.29315042 0.19222933 -0.18784694 0.30741787 0.18385333 -0.5832096 -0.13775848
-0.07888969 0.47998092 0.23234604 -0.56296664 -0.056489784 -0.33737427 -0.3401529 -0.030608688
-0.29913467 -0.28575176 0.093880385 0.15878776 -0.097226955 0.13804522 -0.042142835 0.037862394
0.044063017 0.18483351 0.4102656 0.072037876 -0.4543647 -0.34430858 0.37327808 0.37571356
0.0026454336 -0.4292529 0.32466662 0.041350294 0.17420802 0.28820392 0.19206733 0.3227118
0.04756285 0.42011333 -0.46402827 0.033329394 0.24144952 0.0650301 0.11349195 0.017581483
00000000: 514e 023e f113 4b3b 2271 39bd a87c ffbc
00000010: 07f7 d23e 6699 c53e 3e42 bfbc 4f73 c2be
00000020: dc51 2e3e 9707 ca3e 50bd 14bf 1ea2 b53e
00000030: c972 95bd 8324 a73e 039e d83e 1077 7dbd
00000040: ca93 d93d 407f 093f a2db fd3d 1c84 dcbe
00000050: 5ba7 6cbd 8c8d 1b3f 3a9a 013e 4538 293e
00000060: 37eb 8d3e f7b6 933d 1a7e 3dbe db84 17be
00000070: 5583 353f 0903 c53e c1bf 653d b461 0f3f
00000080: fd00 e43e c4cc 0cbe 3c0b ca3e f1f7 2c3d
00000090: d085 0c3e ed81 9abe ae67 2cbe e3dd 353e
000000a0: d0bf 943e e5b8 803e 969c ca3e 4372 2a3e
000000b0: b5ab 093e aee7 c13e 3708 513e d55c 10be
000000c0: 39a3 b23c 4a3f d03e da63 ddbe d78a c93e
000000d0: 215e 533e bc7d 8dbe a2f8 dd3d b903 033f
000000e0: e92c 853e 5b17 dcbb bb32 8bbe 570f 24be
000000f0: 3bd0 d93e faed d1be aff3 cc3e 80ee 953d
00000100: 6a03 8d3e 3dd2 df3d 9e70 353e 9492 bc3e
00000110: 7e0b b83e eded 943d 25f7 9b3e 2075 b93e
00000120: c012 523e 2243 c63d 7e06 b53e 39d2 4f3e
00000130: 0d5f 01bf e1fa 8e3e 1ec3 f5bd 1a67 18bc
00000140: 3ec3 c23e 933b 913e a0c9 b73d 258d 74bd
00000150: f15a 023f 3e5e 363e 090e 383e cda7 0fbf
00000160: f5d5 b73e a0e2 153f 25dd d2be 95b3 e93d
00000170: 9b61 933e 57af cbbe 5f33 c7be 257f 853e
00000180: 8b50 5dbe bd56 233d 8fea 123f 2952 bdbe
00000190: 293c bc3e 3c98 04bf 81a6 efbe 9a1a 0a3f
000001a0: 4d59 023f ba95 023e cb32 0cbf c731 bb3e
000001b0: 8dc9 05be 03dc db3e 3ba2 753e 4b91 fc3d
000001c0: e3f7 523e e2a4 66be 12a8 6d3e a392 d0be
000001d0: 65e4 043e 9393 953e 461b 943e 6b62 bc3e
000001e0: 722b 853e fc5d fb3e 157b af3e 3532 c03d
000001f0: aac8 3dbe b31b 003e 62fb 423e 1cb7 ae3e
00000200: f068 7e3e a5b5 243c 486a 593e 1422 933e
00000210: 3db7 11bf e548 a03e 0a1f 3e3e c8d4 ee3e
00000220: e76a 8c3e a42b a93e 98ee 033e 8513 43bc
00000230: d510 0bbf 1459 f1be 4981 d6be 2c58 2a3e
00000240: 10a6 8d3e 043a 0a3f 36dc 06bf 1940 eb3e
00000250: b629 2fbe 126c a8be d858 6a3e 6fd5 4f3e
00000260: dca7 5e3d c60b e4be 22bf 623e 5ecd a43e
00000270: 5f15 4c3e e37f 893c d6d1 6f3e 1c53 22be
00000280: e65a 423e 017e e3be b421 483d 1ba5 e93b
00000290: 9c19 b93d 78f8 8a3e 7074 24be c100 d73e
000002a0: 6780 e6be 959d 10bd 9683 88be 38a1 9c3e
000002b0: dafd c5be ba98 613e bf8d 683e 2513 0a3e
000002c0: 7c1c 683e fa73 b7be 0365 123e 0a46 9fbe
000002d0: 3ec4 67be 1b6f 203d 9c36 01bf da2b 863e
000002e0: e9f7 333d 7826 e9bd 727c cf3e 18b6 753e
000002f0: b629 c43e acf2 ec3e 9a4a 30be e052 63be
00000300: 5141 cf3e 6f9c 54be afb3 b83c ed82 b13d
00000310: 99a5 86be d220 be3e 90e2 cabc 101b efbd
00000320: 9946 f23d 115c 833e a001 b43e fe61 8f3e
00000330: 836d c7be 09e0 5f3e b905 c43d a982 243e
00000340: 3767 873e d017 963e c4d7 443e f35a 40be
00000350: e065 9d3e 0c44 3c3e 394d 15bf 8f10 0dbe
00000360: eb90 a1bd 0fc0 f53e 1fec 6d3e 951e 10bf
00000370: d561 67bd 52bc acbe 8528 aebe 12bf fabc
00000380: 2e28 99be 0e4e 92be 5c44 c03d 4299 223e
00000390: ed1e c7bd ba5b 0d3e f79d 2cbd 9915 1b3d
000003a0: 6c7b 343d ff44 3d3e 550e d23e 9888 933d
000003b0: 7da2 e8be 3749 b0be 4e1e bf3e 875d c03e
000003c0: 035f 2d3b 09c7 dbbe b43a a63e ed5e 293d
000003d0: 9663 323e 778f 933e 4cad 443e 7b3a a53e
000003e0: 43d1 423d 1819 d73e 1d95 edbe 6784 083d
000003f0: 8b3e 773e 802e 853d 786e e83d 0b07 903c

feature.2.weight f4 [256, 256]
0.35645747 0.48111692 0.20895967 0.090375766 0.40574393 0.10195633 -0.011937116 -0.035211187
0.026553746 0.05328148 -0.13083501 -0.21042627 -0.00031173794 -0.013001374 0.053836204 -0.022696719
0.54094213 0.110545464 0.48223573 0.15461375 0.20949402 -0.117164835 -0.029958552 0.006376097
-0.110316694 0.17165963 -0.016818618 -0.030266367 -0.06614371 -0.36936444 -0.5016029 -0.16939278
-0.16277362 0.09850135 -0.039568964 0.008692425 0.03902493 -0.121040784 -0.25914836 0.2523648
0.04013917 0.35919204 -0.124602236 0.061952148 0.051922873 0.15845579 -0.05728198 0.28712192
0.32057485 0.10136047 -0.0053849984 0.11307027 0.032711476 0.11000398 0.21821548 0.075087965
0.13414325 -0.08965813 -0.09311523 -0.2065198 -0.2197542 0.04823423 0.11771596 -0.2124464
0.014595912 -0.04234766 -0.29594883 0.1212736 -0.18203656 0.48188278 -0.06673216 -0.16460343
0.24941601 -0.08391257 -0.033396263 -0.20255554 0.07512154 0.02003407 0.095879264 -0.13296624
-0.15952452 0.4986177 0.2929114 -0.1116861 0.07395322 -0.08819038 0.04386245 0.03762323
-0.093846135 0.059097778 0.18200645 0.09657027 0.22500527 -0.2517144 -0.021178555 0.12407935
-0.013150856 -0.02273068 0.0068944693 -0.0013985174 0.02778489 0.071300045 -0.00067311927 -0.28728384
-0.11231519 0.2495653 -0.08787845 0.1463202 0.054052766 -0.2593485 0.04523841 0.07118768
-0.07226806 0.015402015 0.17989585 -0.21372084 0.044801272 0.0907741 0.12017449 -0.16110955
-0.21582891 0.0097560845 0.14275856 -0.04069978 0.20043296 -0.3140062 0.13600475 -0.18991096
0.32645425 0.21030886 -0.2766898 0.038256597 0.029178303 0.105190754 -0.02068212 -0.11306414
0.066299535 -0.0052792667 -0.013860782 0.0020964318 -0.0006222113 0.14596727 -0.010560337 0.06949772
0.24164468 0.09281404 0.12266037 0.13425143 0.05296561 -0.035003565 -0.29978785 0.066460885
0.25336993 0.04303916 -0.07722237 -0.14796536 -0.17944948 0.13132645 -0.14788547 0.068176575
0.17094408 -0.08486029 0.33836573 0.15602745 -0.19584997 -0.16322862 -0.23580433 -0.12584871
-0.0255535 0.21345699 0.11711369 -0.2123288 -0.4742516 -0.3277928 -0.09373731 0.34670436
0.31178418 0.10367623 -0.13748343 0.1409411 -0.32835507 0.49110842 0.071244165 -0.014484127
0.27657372 0.1412351 -0.08296021 0.009385204 -0.22381204 0.10154676 -0.1062261 0.11802761
-0.2872662 0.053121455 -0.14862856 0.5823727 0.27447084 0.039914455 0.22158234 -0.012206174
0.039602574 -0.046786074 -0.03873576 0.1381838 0.14119285 0.29796088 0.052292883 -0.15144098
0.038843486 -0.09497176 0.39293817 0.17483021 -0.031850312 0.19826017 0.11439517 -0.2580706
0.29924628 -0.0494298 0.08462111 0.033411425 -0.14216898 -0.05620293 0.085690066 0.23801823
0.10844403 -0.23466296 0.2388127 0.40294343 0.1126432 -0.2699024 -0.088732 0.38018876
0.19713263 0.08528368 0.13480033 -0.13441241 0.21780923 0.009258168 0.014023949 -0.17669162
0.32960626 0.012391277 -0.114369035 -0.011007967 -0.19617672 0.0703617 -0.26088727 0.009323678
0.22044677 0.23144098 -0.108593315 -0.03144822 0.046409093 0.24200872 0.15616944 0.29321676
00000000: 9881 b63e f554 f63e 86f9 553e ee16 b93d
00000010: abbd cf3e 7bce d03d e593 43bc 9b39 10bd
00000020: 3e87 d93c ae3d 5a3d 9df9 05be fc79 57be
00000030: c270 a3b9 b703 55bc 5a83 5c3d 78ee b9bc
00000040: 2f7b 0a3f a965 e23d 9ae7 f63e 1153 1e3e
00000050: 9a85 563e 1ef4 efbd a36b f5bc 94ee d03b
00000060: b8ed e1bd 8bc7 2f3e 33c7 89bc 2cf1 f7bc
00000070: 5a76 87bd 561d bdbe 0c69 00bf 4d75 2dbe
00000080: 21ae 26be 13bb c93d 1113 22bd ac6a 0e3c
00000090: 9bd8 1f3d 3be4 f7bd 18af 84be f635 813e
000000a0: f868 243d 05e8 b73e 752f ffbd 89c1 7d3d
000000b0: 14ad 543d 3c42 223e 82a0 6abd a501 933e
000000c0: 6322 a43e 1496 cf3d a474 b0bb 6391 e73d
000000d0: 78fc 053d c449 e13d e173 5f3e b8c7 993d
000000e0: d95c 093e af9e b7bd 33b3 bebd ed79 53be
000000f0: 3f07 61be 4291 453d 1115 f13d 8d8b 59be
00000100: b123 6f3c bd74 2dbd 9b86 97be 4b5e f83d
00000110: cb67 3abe 57b9 f63e dfaa 88bd cd8d 28be
00000120: e966 7f3e 5ada abbd 85ca 08bd b86a 4fbe
00000130: 52d9 993d 7d1e a43c 595c c43d 4d28 08be
00000140: 655a 23be d24a ff3e 7cf8 953e afbb e4bd
00000150: c974 973d 289d b4bd 1da9 333d d11a 1a3d
00000160: 6732 c0bd 8310 723d e65f 3a3e a2c6 c53d
00000170: c867 663e b6e0 80be a67e adbc 501d fe3d
00000180: b076 57bc b135 babc 00eb e13b 754e b7ba
00000190: 239d e33c c205 923d 4574 30ba de16 93be
000001a0: 8205 e6bd 0c8e 7f3e 9ef9 b3bd f6d4 153e
000001b0: 6f66 5d3d 54c9 84be e94b 393d d9ca 913d
000001c0: 4701 94bd bc58 7c3c 9e36 383e a3d9 5abe
000001d0: 8a81 373d c5e7 b93d 0b1e f63d e7f9 24be
000001e0: 4102 5dbe fcd7 1f3c 4d2f 123e d0b4 26bd
000001f0: 4c3e 4d3e 6cc5 a0be d444 0b3e 0578 42be
00000200: 0325 a73e 355b 573e 49aa 8dbe f3b2 1c3d
00000210: 5607 ef3c 406e d73d 8d6d a9bc 2c8e e7bd
00000220: 0dc8 873d b3fd acbb 5518 63bc 4a64 093b
00000230: e51b 23ba 7278 153e 4405 2dbc d254 8e3d
00000240: b471 773e 4a15 be3d 5c35 fb3d 3579 093e
00000250: 78f2 583d e65f 0fbd cb7d 99be a51c 883d
00000260: b4b9 813e d549 303d c326 9ebd 3b84 17be
00000270: 9bc1 37be 717a 063e 4a6f 17be 29a0 8b3d
00000280: f70b 2f3e 3bcb adbd 463e ad3e a9c5 1f3e
00000290: e58c 48be 6725 27be b176 71be 7cde 00be
000002a0: 9355 d1bc 7894 5a3e 4dd9 ef3d b96c 59be
000002b0: 1bd1 f2be 75d4 a7be 59f9 bfbd 3c83 b13e
000002c0: 2da2 9f3e 3454 d43d 75c8 0cbe dd52 103e
000002d0: 281e a8be 9072 fb3e 76e8 913d d54e 6dbc
000002e0: 129b 8d3e ef9f 103e 0be7 a9bd 66c4 193c
000002f0: fc2e 65be bff7 cf3d 128d d9bd 76b8 f13d
00000300: 8e14 93be e295 593d 1632 18be 6116 153f
00000310: 7187 8c3e 577d 233d 7be6 623e 68fc 47bc
00000320: 4f36 223d c1a2 3fbd 63a9 1ebd 0e80 0d3e
00000330: dc94 103e 548e 983e 1031 563d 5813 1bbe
00000340: 591a 1f3d 8e80 c2bd 312f c93e b106 333e
00000350: 7975 02bd b704 4b3e 0448 ea3d d421 84be
00000360: cf36 993e e776 4abd d54d ad3d 6bda 083d
00000370: bf94 11be 0b35 66bd 467e af3d 0dbb 733e
00000380: e717 de3d 7d4b 70be 518b 743e 9a4e ce3e
00000390: 7ab1 e63d a630 8abe 1fb9 b5bd 1aa8 c23e
000003a0: 23dd 493e 36a9 ae3d 1909 0a3e 68a3 09be
000003b0: 6209 5f3e 92af 173c b5c4 653c a6ee 34be
000003c0: 27c2 a83e c804 4b3c 503a eabd c35a 34bc
000003d0: 8de2 48be cc19 903d 0493 85be 57c2 183c
000003e0: ccbc 613e ddfe 6c3e 2c66 debd d9cf 00bd
000003f0: 7617 3e3d 22d1 773e e2ea 1f3e 8220 963e

feature.2.bias f4 [256]
-0.051456757 0.18158935 -0.15230897 -0.0385323 -0.01812625 0.17875627 0.16491702 -0.3737921
0.20285483 -0.08117502 0.24016535 0.19972482 0.02216763 0.22312795 0.177933 0.13664259
-0.032395896 0.41785166 0.24511522 0.22624429 0.03351935 0.20792641 -0.1390162 0.005658771
-0.08798644 0.09466544 0.07315458 0.013777751 0.40728715 -0.027791118 0.11590596 0.09842833
0.03426436 0.14581636 0.1778914 0.10197936 0.06633607 0.3439899 0.009742056 0.021098893
-0.1938307 -0.11387542 0.021413228 -0.43612576 0.1981428 0.62401605 -0.007515964 -0.004288846
0.41830918 0.23391327 -0.30672505 0.15506086 0.23153028 0.14054602 -0.46165934 -0.06129072
-0.028139656 -0.21547963 0.2235263 -0.013378512 -0.014998229 0.07875992 0.089946605 0.1751101
0.10545901 -0.056669585 0.16721623 0.101477414 -0.0011883688 -0.25198928 -0.025529908 -0.2525129
0.20559502 0.16730179 0.25473607 0.008444876 0.06658074 0.1952255 0.119594164 0.23480779
-0.045675512 0.16606088 0.33088127 -0.06504609 -0.2613871 0.052051857 0.10640319 -0.14270633
0.009941645 -0.022044703 0.13444217 0.46193892 -0.088860616 -0.096710525 -0.26385906 0.14898741
-0.07647684 -0.0685252 -0.05269757 0.038312126 -0.09016591 0.14559229 0.6923474 -0.06293657
-0.08332634 -0.01398279 0.13389833 0.20924489 0.1386606 0.5956247 0.23453261 0.28964898
-0.22260492 0.19889975 -0.025510993 0.07886136 0.003889569 0.047737453 0.44155127 0.3360077
0.14149635 0.09749024 -0.06640957 0.14178942 0.24324517 0.08867386 0.18591484 -0.24648
-0.011357855 0.21052232 0.018808983 0.44503468 -0.20431945 0.016640691 -0.03013269 0.16716234
0.10029679 0.13221708 0.0006092743 0.14108649 0.17706214 -0.21038085 0.118826814 0.29253644
-0.10334561 0.11678303 0.15050538 0.34803474 0.18117356 0.20099394 0.17602071 -0.30530766
-0.31394145 0.15872844 0.053591758 0.033827823 0.107657686 0.44647044 -0.04941223 0.25257275
0.052255925 0.08051637 0.0829378 0.04290182 0.11817633 0.18732831 0.17255409 -0.44843432
0.09190966 -0.19397525 0.09534132 -0.0048155114 -0.04671102 -0.08277179 0.54812574 -0.018415457
0.4639626 -0.2708909 0.1601968 0.007528152 0.14297378 0.23821703 -0.053705104 0.46325928
0.1264457 0.024473883 0.08642948 0.18423608 0.51464784 0.59956104 0.036592424 0.17430541
0.062093783 0.14926589 0.24479935 0.08803311 -0.081343 0.41786695 0.051830072 -0.115939446
0.4616016 -0.26622006 0.24386355 0.19633867 0.28617054 -0.113411486 0.5997591 0.14222409
-0.110787354 0.18684651 -0.08279359 0.02956546 0.22117907 0.20686427 0.036350425 0.5256721
0.11822707 0.11247616 -0.21125422 0.24915028 0.13603 0.42917898 -0.07185687 0.14596629
0.1348562 0.04522566 0.14795949 0.16333824 0.13657184 -0.32078925 0.09499421 0.009254518
0.1940643 0.12842467 0.23601349 -0.16306452 0.116874866 0.3254454 -0.024665575 0.1771785
0.17972422 -0.23282102 0.018247508 0.00054962444 0.13653456 -0.079424426 0.15310034 -0.13922685
0.026976272 0.13763091 0.13963202 0.58658 0.045229316 0.053749494 -0.14646703 -0.029205289
00000000: 52c4 52bd 8ff2 393e e2f6 1bbe 0cd4 1dbd
00000010: 807d 94bc e20b 373e 02e0 283e ae61 bfbe
00000020: 2db9 4f3e 173f a6bd e8ed 753e aa84 4c3e
00000030: e498 b53c a77b 643e 1134 363e 09ec 0b3e
00000040: 8fb1 04bd a7f0 d53e 7cff 7a3e 95ac 673e
00000050: 964b 093d a9ea 543e 435a 0ebe 366d b93b
00000060: 3c32 b4bd f4df c13d 12d2 953d 13bc 613c
00000070: f187 d03e 33aa e3bc 1b60 ed3d cb94 c93d
00000080: c958 0c3d e250 153e 2a29 363e 8eda d03d
00000090: 35db 873d 721f b03e 259d 1f3c 96d7 ac3c
000000a0: 8e7b 46be 8437 e9bd cb6a af3c e04b dfbe
000000b0: f2e5 4a3e 84bf 1f3f 7a48 f6bb 7389 8cbb
000000c0: 9f2c d63e f686 6f3e 110b 9dbe 46c8 1e3e
000000d0: 4616 6d3e 4ceb 0f3e 9d5e ecbe fa0b 7bbd
000000e0: 2385 e6bc b1a6 5cbe 14e4 643e 8c31 5bbc
000000f0: 22bb 75bc e24c a13d ed35 b83d 1050 333e
00000100: e5fa d73d 5e1e 68bd bb3a 2b3e 64d3 cf3d
00000110: 0ac3 9bba bd04 81be 1924 d1bc 5f49 81be
00000120: 8087 523e 2951 2b3e c46c 823e 615c 0a3c
00000130: 7c5b 883d 32e9 473e c9ed f43d 7471 703e
00000140: 3f16 3bbd dd0b 2a3e 4569 a93e e236 85bd
00000150: 88d4 85be 5434 553d eae9 d93d 9c21 12be
00000160: 48e2 223c 1897 b4bc 35ab 093e 4283 ec3e
00000170: 8efc b5bd 2b10 c6bd 8918 87be 2890 183e
00000180: e49f 9cbd f156 8cbd 68d9 57bd 2ded 1c3d
00000190: e8a8 b8bd 2516 153e ae3d 313f e3e4 80bd
000001a0: 00a7 aabd 1218 65bc a51c 093e 4b44 563e
000001b0: 0bfd 0d3e dc7a 183f 5129 703e df4c 943e
000001c0: 8bf2 63be 60ac 4b3e 6efc d0bc 1182 a13d
000001d0: 24e8 7e3b 5988 433d 0213 e23e 3409 ac3e
000001e0: 6be4 103e f7a8 c73d be01 88bd 3f31 113e
000001f0: 4315 793e a49a b53d 7660 3e3e 4165 7cbe
00000200: 4c16 3abc 2a93 573e 4c15 9a3c 96db e33e
00000210: 1e39 51be 0f52 883c d5d8 f6bc 9b2c 2b3e
00000220: 6768 cd3d ea63 073e b5b7 1f3a fa78 103e
00000230: c74f 353e 146e 57be 795b f33d 56c7 953e
00000240: dda6 d3bd f12b ef3d 151e 1a3e 9c31 b23e
00000250: 9085 393e 5bd1 4d3e c63e 343e 4951 9cbe
00000260: efbc a0be b589 223e 0883 5b3d 0b8f 0a3d
00000270: a27b dc3d c697 e43e 7a64 4abd 3751 813e
00000280: 4f0a 563d c4e5 a43d 4bdb a93d d2b9 2f3d
00000290: 6f06 f23d fed2 3f3e 05b2 303e 2f99 e5be
000002a0: 223b bc3d 73a1 46be 4f42 c33d 70cb 9dbb
000002b0: 0e54 3fbd 4284 a9bd f851 0c3f 03dc 96bc
000002c0: 828c ed3e 36b2 8abe a10a 243e b7ae f63b
000002d0: b867 123e 2aef 733e e2f9 5bbd 5230 ed3e
000002e0: fb7a 013e 747d c83c f001 b13d 62a8 3c3e
000002f0: f6bf 033f d57c 193f f0e1 153d 1e7d 323e
00000300: 0d56 7e3d 28d9 183e aeac 7a3e b44a b43d
00000310: 2997 a6bd a8f2 d53e c54b 543d a971 edbd
00000320: 0b57 ec3e ff4d 88be 5eb7 793e 010d 493e
00000330: f284 923e 4844 e8bd d089 193f 31a3 113e
00000340: 7be4 e2bd b154 3f3e b08f a9bd 4333 f23c
00000350: c47c 623e 3ad4 533e 2fe4 143d 7292 063f
00000360: 0921 f23d e759 e63d 0753 58be 4021 7f3e
00000370: 734b 0b3e 59bd db3e b229 93bd 3078 153e
00000380: be17 0a3e 8b3e 393d b182 173e 2442 273e
00000390: 7dd9 0b3e 7d3e a4be 538c c23d 43a0 173c
000003a0: cbb8 463e c281 033e 85ad 713e 63fa 26be
000003b0: 175c ef3d c8a0 a63e 760f cabc 486e 353e
000003c0: a009 383e a268 6ebe cc7b 953c ac14 103a
000003d0: b7cf 0b3e 46a9 a2bd 56c6 1c3e 7c91 0ebe
000003e0: 58fd dc3c 1eef 0c3e b2fb 0e3e 1b2a 163f
000003f0: 6042 393d 6e28 5c3d 74fb 15be ee3f efbc

value_stream.0.weight f4 [256, 256]
-0.13120611 -0.10821528 -0.09703982 -0.18054691 -0.041593596 0.04515849 -0.22912183 -0.20583421
-0.01098538 0.04268488 -0.00511048 -0.12121607 -0.11976288 0.3432752 -0.40705213 0.047288023
-0.13054189 -0.42498288 0.2532615 -0.36707366 0.2614743 -0.08138899 -0.15105826 -0.094967365
-0.3384724 -0.09776659 -0.14868008 0.057617143 -0.026739007 -0.21491791 -0.15820257 0.005867579
-0.19318044 -0.19911934 -0.015828187 -0.08357973 -0.108147286 -0.2891887 -0.069731675 -0.027478497
-0.23814869 0.09137853 -0.60123664 -0.119399846 -0.040003352 0.03527537 -0.15726466 -0.058829118
0.1308849 -0.17430578 -0.1518451 0.20241193 0.03655851 -0.32328176 -0.15847848 0.20856604
-0.13755473 -0.116494454 0.17805088 -0.07095776 -0.27614427 -0.1220724 -0.29133692 -0.055795893
-0.22327787 -0.049449455 -0.20852885 -0.31362376 -0.020000543 -0.26967114 -0.0006758381 -0.25707683
0.17839143 -0.12507488 -0.016270656 -0.106176674 -0.16682495 -0.6501013 -0.017027522 -0.4124702
-0.726811 -0.30708876 0.45081148 0.0005023834 -0.17471166 -0.21204747 -0.081583634 -0.21467373
0.0771684 -0.17763884 -0.25325066 0.15659119 -0.38479462 -0.053830575 -0.22421402 0.03825222
-0.113985375 -0.0047227787 -0.14496832 -0.19464974 0.042003036 -0.32779413 -0.035633154 -0.38900495
-0.35125673 -0.27359483 -0.06775272 -0.120141216 0.07235149 -0.009033313 0.0917108 -0.31656677
-0.48347616 -0.095840536 -0.030515708 0.037975345 -0.16495672 -0.33017892 0.20163916 0.54103065
-0.12260369 0.013086621 -0.029023673 0.071368024 -0.17678359 -0.10745803 -0.16967747 -0.14281945
-0.027183142 -0.21745214 -0.17219064 0.16960137 -0.25716665 0.0075067105 -0.22851907 -0.28678006
-0.118011914 -0.51477927 -0.0850867 0.13697335 0.12713099 -0.23962171 -0.090487614 0.08618922
-0.3958801 -0.047127947 -0.30887645 0.11768717 -0.27781373 -0.06987865 -0.040728092 -0.26287004
-0.09581538 -0.27464896 -0.09562081 -0.28505132 -0.29759264 0.16113447 -0.38422254 -0.43110085
0.04292574 -0.09080605 -0.24276638 -0.31060123 -0.07714451 -0.19240358 -0.1016197 -0.2654936
-0.16168027 -0.021052876 -0.117716596 -0.2157847 -0.103447706 -0.18618661 0.14083424 -0.6192513
0.09333313 -0.03152073 -0.033514574 -0.23635373 -0.28687277 0.099171065 -0.06086496 -0.28530976
-0.30453584 -0.04320652 0.034921877 -0.0259541 0.22454162 0.024736317 0.0015575293 0.010044318
-0.21969593 -0.089546464 -0.317468 -0.15160124 0.10966809 0.20399362 -0.26605773 -0.5643538
0.04498967 -0.3229381 0.01600699 -0.11955876 -0.14597045 0.15494466 0.021038769 -0.15475345
-0.12884963 0.13993937 -0.08107132 -0.035303812 -0.3743718 -0.10419944 -0.1790389 -0.075826116
-0.1855316 0.0647429 -0.24152805 -0.16699931 -0.41486242 0.34980068 -0.1497588 -0.5890911
-0.09672976 -0.22596821 -0.22547247 -0.0814508 -0.12470128 -0.31177318 -0.11929906 -0.16998021
-0.39374727 -0.4763707 -0.20785508 -0.12942776 -0.047050737 -0.41344553 -0.104336895 -0.11053121
-0.23223253 -0.1624435 -0.23440553 -0.62768406 -0.28053397 0.03923792 0.108436055 0.10010777
-0.06170134 -0.3188481 0.0677356 0.020444535 -0.055475853 -0.17428237 -0.32177743 -0.077330485
00000000: e55a 06be f99f ddbd d0bc c6bd 4ae1 38be
00000010: 0c5e 2abd 1cf8 383d ea9e 6abe 34c6 52be
00000020: 06fc 33bc 57d6 2e3d d075 a7bb 2240 f8bd
00000030: 3e46 f5bd c4c1 af3e 2369 d0be 16b1 413d
00000040: c6ac 05be 5b97 d9be 7eab 813e 14f1 bbbe
00000050: f6df 853e 45af a6bd 04af 1abe 407e c2bd
00000060: 414c adbe da39 c8bd 973f 18be f4ff 6b3d
00000070: c30b dbbc 7113 5cbe dbff 21be d244 c03b
00000080: 18d1 45be f1e5 4bbe 1daa 81bc d92b abbd
00000090: 537c ddbd 8b10 94be 7bcf 8ebd 961a e1bc
000000a0: 40dd 73be ab24 bb3d a5ea 19bf e887 f4bd
000000b0: 8eda 23bd e87c 103d fd09 21be cdf6 70bd
000000c0: b106 063e 377d 32be 487d 1bbe 1345 4f3e
000000d0: 60be 153d 3085 a5be 2f48 22be 5692 553e
000000e0: 26db 0cbe a594 eebd f852 363e 4d52 91bd
000000f0: c862 8dbe 1801 fabd 1d2a 95be 3c8a 64bd
00000100: f4a2 64be 838b 4abd 9688 55be 4b93 a0be
00000110: 2ed8 a3bc 5612 8abe ba2a 31ba 939f 83be
00000120: 3eac 363e a113 00be 0a4a 85bc 2873 d9bd
00000130: 29d4 2abe 0a6d 26bf 4d7d 8bbc 4b2f d3be
00000140: 4910 3abf bd3a 9dbe c3d0 e63e 61b2 033a
00000150: 9de7 32be f922 59be 5215 a7bd 6ed3 5bbe
00000160: 770a 9e3d f5e6 35be 12aa 81be 7159 203e
00000170: cd03 c5be 737d 5cbd 5c98 65be 5cae 1c3d
00000180: 2a71 e9bd 8ac1 9abb 9372 14be 4352 47be
00000190: 600b 2c3d a2d4 a7be 12f4 11bd a82b c7be
000001a0: ecd7 b3be 9f14 8cbe f0c1 8abd 990c f6bd
000001b0: 052d 943d 7600 14bc dfd2 bb3d 0a15 a2be
000001c0: 308a f7be 0b48 c4bd 14fc f9bc 098c 1b3d
000001d0: 6aea 28be 360d a9be 7f7a 4e3e fc80 0a3f
000001e0: a517 fbbd 4469 563c 0ec3 edbc 6629 923d
000001f0: c206 35be f512 dcbd eebf 2dbe 433f 12be
00000200: 2eaf debc c6ab 5ebe be52 30be fbab 2d3e
00000210: 59ab 83be dafa f53b e700 6abe d6d4 92be
00000220: 3bb0 f1bd 93c8 03bf f041 aebd be42 0c3e
00000230: a02e 023e 655f 75be 9251 b9bd f983 b03d
00000240: ccb0 cabe 3c09 41bd 0e25 9ebe f905 f13d
00000250: 9a3d 8ebe 8a1c 8fbd 80d2 26bd e796 86be
00000260: db3a c4bd ca9e 8cbe d8d4 c3bd 3ff2 91be
00000270: 105e 98be 6f00 253e d1b8 c4be 40b9 dcbe
00000280: e7d2 2f3d 86f8 b9bd c097 78be 2007 9fbe
00000290: f1fd 9dbd 7205 45be fd1d d0bd c7ee 87be
000002a0: 838f 25be 1577 acbc 6615 f1bd aaf6 5cbe
000002b0: 64dc d3bd b4a7 3ebe da36 103e 4187 1ebf
000002c0: 7125 bf3d e21b 01bd 9446 09bd b606 72be
000002d0: fde0 92be 331a cb3d 894d 79bd 1f14 92be
000002e0: 1fec 9bbe 52f9 30bd 3e0a 0f3d b19d d4bc
000002f0: 3dee 653e d1a3 ca3c 0326 cc3a ec90 243c
00000300: f8f7 60be 2364 b7bd 2a8b a2be 5b3d 1bbe
00000310: aa99 e03d b4e3 503e b838 88be 7e79 10bf
00000320: 1747 383d 2558 a5be 1721 833c 39db f4bd
00000330: 4779 15be d0a9 1e3e 7f59 ac3c b077 1ebe
00000340: 28f1 03be 444c 0f3e b808 a6bd bb9a 10bd
00000350: a9ad bfbe 8466 d5bd f955 37be b94a 9bbd
00000360: fffb 3dbe ed97 843d 2153 77be de01 2bbe
00000370: d968 d4be 1319 b33e 5f5a 19be adce 16bf
00000380: 411a c6bd 3664 67be 41e2 66be adcf a6bd
00000390: 6263 ffbd bca0 9fbe 1153 f4bd 4b0f 2ebe
000003a0: 3e99 c9be dce6 f3be f6d7 54be b688 04be
000003b0: 46b8 40bd 22af d3be 95ae d5bd 305e e2bd
000003c0: 5dce 6dbe 9757 26be 0108 70be e7af 20bf
000003d0: 26a2 8fbe f1b7 203d b913 de3d 4d05 cd3d
000003e0: 8bba 7cbd 0f40 a3be f6b8 8a3d 4c7b a73c
000003f0: a63a 63bd 1477 32be 03c0 a4be 725f 9ebd

value_stream.0.bias f4 [256]
-0.16489482 -0.009249896 0.23821461 0.29985565 -0.103206076 0.2595593 0.19622704 -0.07696176
-0.16256613 0.40000296 0.16216284 -0.002041203 -0.17940913 0.42552167 0.12063529 -0.02616379
0.3194234 0.20370343 0.14870545 0.16884737 0.34626058 0.46514884 -0.09392176 0.122712374
-0.14555277 0.06268307 0.19277161 -0.07009911 0.28402302 -0.063057415 0.47191244 0.21740538
0.27144834 0.029196288 0.1607646 0.442386 0.12691356 -0.12472728 -0.10583725 0.42505834
0.4853547 0.13691038 0.11870412 -0.027948732 -0.1333453 0.17131881 -0.028884886 -0.09651654
0.22350626 0.30108386 0.22433873 0.24947298 0.1533596 0.25277945 -0.041340385 0.085720286
-0.12858112 -0.05263408 0.1328635 -0.18830161 -0.034228183 0.032728963 -0.16970211 0.30301425
0.5013404 -0.1102139 -0.09041217 0.0907229 0.4279848 -0.077669695 0.33218175 0.1515316
-0.07264436 0.06009207 0.2884751 -0.073042884 -0.13400428 -0.19912925 -0.10950454 0.15649237
0.35893112 -0.14470871 -0.15087591 0.3977289 -0.14784928 0.13920908 0.2386955 -0.08886224
-0.043051414 -0.21049735 -0.17925753 -0.161522 0.4409779 0.16972502 0.23384564 -0.09011556
-0.15998045 0.303405 0.19715613 0.4080872 -0.13765383 -0.0643556 0.23361722 -0.11144967
0.6000875 -0.21890135 -0.09237916 0.31217793 0.29874957 -0.22537385 0.25174198 -0.1850587
-0.060534872 0.28195462 0.28449208 -0.18114047 -0.10832319 0.201447 0.2640769 0.015394699
0.21311857 0.30489352 -0.05714155 0.43694195 -0.14836277 0.047233447 -0.20289665 -0.14213961
0.28194895 -0.132533 0.19145429 0.19986823 -0.043169014 -0.06047372 0.34746352 0.40523782
0.163395 0.13730554 -0.07689478 0.32268438 0.39279494 0.20256235 0.33884117 0.29506463
-0.14099735 0.13171104 0.36830482 -0.053087283 0.19880562 0.20474857 0.30899173 -0.12459953
0.2131489 0.33930847 0.30192783 -0.19756489 0.1350409 -0.05163849 0.4850343 0.16305931
-0.170438 -0.010288435 -0.066763945 0.1981393 -0.027597297 0.106492296 0.26132125 0.129904
-0.040914986 -0.08469427 -0.22038537 0.11263421 0.26459005 0.1505204 0.39857402 0.23339754
-0.005357403 0.32631 0.57438827 -0.04499634 -0.06888791 -0.085584275 0.50721186 0.20512356
0.18253045 0.5480233 -0.22848088 0.21295653 0.16128387 0.38091964 -0.046336137 -0.08029527
-0.16752127 0.17757204 -0.022472436 -0.08070616 -0.02617049 -0.15213242 0.2973854 0.091732815
-0.09935407 0.2586301 -0.21690066 0.4531448 -0.14767016 -0.16470782 -0.03291129 0.28780317
0.07211726 0.26902336 -0.13865106 -0.13102286 0.15033348 0.15386266 -0.082636155 -0.0017897933
0.20191987 -0.077504836 0.33338243 -0.16854252 0.24768148 -0.09424801 -0.10348231 0.062430542
-0.05534754 0.23351337 0.005359433 -0.04224947 -0.21506833 0.29089054 0.19503912 -0.1629543
0.15182713 0.030508447 0.31286216 -0.17575401 0.3847474 -0.18995371 0.2508819 -0.078304544
0.5576265 0.15775844 0.45550632 -0.07499457 0.17009762 -0.041933827 0.29663455 0.13216235
0.20553249 0.34399658 0.24395901 -0.21502131 0.28363892 -0.078027494 0.27405986 0.28166643
00000000: 30da 28be e08c 17bc 88ee 733e ae86 993e
00000010: b55d d3bd f5e4 843e beef 483e 219e 9dbd
00000020: bc77 26be 30cd cc3e 040e 263e b4c5 05bb
00000030: 07b7 37be fadd d93e a30f f73d 7255 d6bc
00000040: 778b a33e a297 503e 3e46 183e 53e6 2c3e
00000050: 1149 b13e fd27 ee3e 0d5a c0bd a050 fb3d
00000060: c90b 15be fb5f 803d ec65 453e 1f90 8fbd
00000070: 776b 913e 3f24 81bd 829e f13e 849f 5e3e
00000080: 47fb 8a3e 0e2d ef3c 7a9f 243e 6b80 e23e
00000090: a1f5 013e 0471 ffbd 33c1 d8bd 3fa1 d93e
000000a0: 6980 f83e 3c32 0c3e 251b f33d bdf4 e4bc
000000b0: ac8b 08be 336e 2f3e ff9f ecbc 77aa c5bd
000000c0: d3de 643e aa27 9a3e 0db9 653e d875 7f3e
000000d0: 4d0a 1d3e 4f6c 813e 8954 29bd 1e8e af3d
000000e0: c5aa 03be d596 57bd 5f0d 083e 23d2 40be
000000f0: da32 0cbd ce0e 063d 64c6 2dbe af24 9b3e
00000100: d857 003f d3b7 e1bd 042a b9bd eecc b93d
00000110: d320 db3e 4a11 9fbd ba13 aa3e 1a2b 1b3e
00000120: 91c6 94bd 1a23 763d 02b3 933e 8297 95bd
00000130: 6b38 09be 8ae8 4bbe eb43 e0bd 893f 203e
00000140: d2c5 b73e 852e 14be 377f 1abe 1fa3 cb3e
00000150: cd65 17be d38c 0e3e 986c 743e 68fd b5bd
00000160: ae56 30bd 9e8c 57be 498f 37be 0666 25be
00000170: dbc7 e13e 65cc 2d3e 3b75 6f3e 828e b8bd
00000180: ead1 23be e657 9b3e 4ce3 493e cef0 d03e
00000190: 20f5 0cbe decc 83bd 5a39 6f3e b93f e4bd
000001a0: 569f 193f ad27 60be 4931 bdbd c9d5 9f3e
000001b0: b4f5 983e 67c8 66be 53e4 803e 0780 3dbe
000001c0: 6af3 77bd 5b5c 903e f2a8 913e e37c 39be
000001d0: 8cd8 ddbd 1f48 4e3e 1635 873e 0c3a 7c3c
000001e0: c13b 5a3e 011b 9c3e 420d 6abd dbb6 df3e
000001f0: 69ec 17be dc77 413d 24c4 4fbe 0c8d 11be
00000200: 9d5b 903e bbb6 07be 980c 443e 42aa 4c3e
00000210: fed1 30bd 4bb3 77bd bde6 b13e 557b cf3e
00000220: 0551 273e d399 0c3e 037b 9dbd e336 a53e
00000230: 6b1c c93e 816c 4f3e 977c ad3e b612 973e
00000240: 9c61 10be 42df 063e 7392 bc3e 0d72 59bd
00000250: b393 4b3e 9ca9 513e 2a34 9e3e 0a2e ffbd
00000260: b543 5a3e d7b9 ad3e 4996 9a3e 734e 4abe
00000270: 2948 0a3e e282 53bd 6a56 f83e 05f9 263e
00000280: 4d87 2ebe d390 28bc 89bb 88bd 07e5 4a3e
00000290: ba13 e2bc a218 da3d e6cb 853e 8e05 053e
000002a0: 7996 27bd 3074 adbd b4ac 61be c4ac e63d
000002b0: 5978 873e 0522 1a3e e511 cc3e c4ff 6e3e
000002c0: 278d afbb 1b12 a73e 1c0b 133f 154e 38bd
000002d0: 1b15 8dbd cf46 afbd a3d8 013f e90b 523e
000002e0: 43e9 3a3e 414b 0c3f e4f6 69be 4711 5a3e
000002f0: 9927 253e e607 c33e f6ca 3dbd d971 a4bd
00000300: b28a 2bbe 72d5 353e 1d18 b8bc 4549 a5bd
00000310: 7f63 d6bc 9ac8 1bbe e642 983e 6ade bb3d
00000320: 267a cbbd 2a6b 843e 351b 5ebe 9802 e83e
00000330: d936 17be 2ba9 28be fdcd 06bd f05a 933e
00000340: 37b2 933d 6ebd 893e 8bfa 0dbe db2a 06be
00000350: 05f1 193e 2c8e 1d3e 253d a9bd 7f97 eaba
00000360: 15c4 4e3e dbba 9ebd 1ab1 aa3e 6996 2cbe
00000370: 37a0 7d3e 1a05 c1bd 89ee d3bd 2bb7 7f3d
00000380: 1ab4 62bd 211e 6f3e 2f9e af3b c80d 2dbd
00000390: df3a 5cbe 9bef 943e 56b8 473e 7edd 26be
000003a0: 9278 1b3e daec f93c 782f a03e dcf8 33be
000003b0: 9cfd c43e 3a83 42be 9873 803e 225e a0bd
000003c0: 9cc0 0e3f 6e8b 213e 2038 e93e c196 99bd
000003d0: 122e 2e3e cec2 2bbd 7ce0 973e 9155 073e
000003e0: 1c77 523e 5220 b03e 64d0 793e 8c2e 5cbe
000003f0: 1f39 913e e1cc 9fbd 9351 8c3e 9536 903e

value_stream.2.weight f4 [1, 256]
0.54335624 0.3963205 -0.6413472 -0.8666005 0.5098871 -0.78876865 -0.6706744 0.41805398
-0.12688887 -0.5263968 -0.79896516 -0.72052634 -0.51840085 0.6141575 0.64205146 -0.26587358
-0.6487618 0.26473287 -0.558601 -0.6362794 -0.6916975 -0.6384459 0.28064698 -0.66864276
0.50848526 -0.7652648 -0.41007856 0.34516615 -0.6914573 0.5813718 -0.7024 -0.60299087
-0.91130215 0.565153 -0.5625177 0.47754866 -0.58063 0.5649815 -0.3682971 -0.61742014
-0.7348455 -0.7177218 0.7121987 -0.14648136 0.40843403 0.5166585 0.4267888 0.55622333
-0.57693183 -0.7745929 0.29014662 -0.8158227 0.485787 -0.9549508 0.42438906 -0.7242781
0.40413317 0.5989879 -0.643315 0.46340072 -0.32607904 0.21190716 0.50870955 -0.6370866
-0.75801677 -0.41917256 0.49845627 0.3490811 -0.5996205 0.6062895 -0.8223502 -0.8642671
0.37822938 -0.3646454 -0.64311475 0.5663766 0.5406374 0.4434409 0.28867072 0.29192102
-0.4456117 0.57879424 0.55835766 -0.59881246 0.4659909 -0.71646833 -0.42403153 0.6220036
-0.32129315 0.54640895 0.42125207 0.47949776 0.6297688 -0.5405403 0.38386148 0.36732572
0.69086003 -0.68280905 -0.55220306 0.6225867 0.57291704 -0.2907361 -0.6661552 0.61093736
-0.7194519 0.55480367 0.36700654 -0.5036324 -0.47886378 0.40996635 -0.8221591 0.6307995
0.15352337 -0.44441423 -0.5466591 0.5197615 -0.23955774 0.33763018 -1.0153947 -0.40378374
-0.69097745 -0.76110965 0.40539858 -0.74530077 0.58268803 -0.6209524 0.47195467 0.5418174
-0.72126305 -0.16875504 -0.33210436 -0.6869128 0.49208945 -0.27402505 0.2683265 -0.6825474
0.38289008 -0.98912656 0.47171813 0.25346023 -0.7099963 -0.46384874 0.56945187 -0.6007466
0.33557126 -0.70486885 0.43878812 0.29674146 -0.59959036 -0.35600162 -0.5061868 0.6641503
-0.57766503 -0.6489228 0.29231274 0.37795493 -0.53738993 -0.24889782 -0.57095766 0.2439282
0.5785799 0.45292816 0.51666975 -0.58395046 0.423722 -0.6478961 -0.53865874 -0.7567027
0.42466736 0.38274753 0.52312124 -0.38348594 -0.9796276 -0.7368028 -0.623597 0.38775334
0.21726346 -0.6755976 -0.69104874 0.38426447 0.4176141 0.5619498 -0.710962 -0.5992517
-0.5968945 -0.70199096 0.5808652 0.32999355 -0.69524765 0.66779625 0.51615906 0.4197968
0.46827427 -0.8150665 -0.35506207 0.45190004 0.5353889 0.52245384 0.3602046 0.590274
0.5940233 -0.82831913 0.5503749 -0.62427735 0.5114713 0.48966935 0.25997826 -0.8947071
-0.7472979 -0.6115824 0.41260356 0.58770704 -0.70708865 -0.4621443 -0.30072328 0.29437706
-0.6147895 0.4459622 -0.68026114 0.75659776 -0.5422631 0.5365377 0.5119669 -0.25728032
0.46031296 -0.47802427 -0.35489455 0.40902364 0.5582083 -0.49783546 -0.95460117 0.42957664
-0.8176022 -0.5490082 -0.6170144 0.59033746 -0.523741 0.43373752 -0.52036077 0.3715551
-0.6729642 -0.70222306 -0.5838937 0.56387675 -0.8963821 0.44879615 -0.39187008 -0.643664
-0.6869161 -0.5209498 -0.6752256 0.5387687 -0.7531322 0.472977 -0.8193212 -0.92136216
00000000: 6519 0b3f 85ea ca3e 552f 24bf 88d9 5dbf
00000010: f687 023f beec 49bf 51b1 2bbf 2c0b d63e
00000020: 28ef 01be f1c1 06bf fb88 4cbf 6a74 38bf
00000030: ebb5 04bf 6d39 1d3f 7c5d 243f 9520 88be
00000040: 4115 26bf 118b 873e 7a00 0fbf 35e3 22bf
00000050: 1613 31bf 3171 23bf f6b0 8f3e 2c2c 2bbf
00000060: 172c 023f 65e8 43bf d1f5 d1be 9eb9 b03e
00000070: 5803 31bf c8d4 143f 7dd0 33bf 9c5d 1abf
00000080: 194b 69bf dead 103f 2901 10bf 4281 f43e
00000090: 2ba4 14bf a1a2 103f 7091 bcbe 3f0f 1ebf
000000a0: d61e 3cbf 9ebc 37bf a752 363f 36ff 15be
000000b0: 441e d13e bb43 043f 1084 da3e a764 0e3f
000000c0: ceb1 13bf b84b 46bf 198e 943e c2d9 50bf
000000d0: 13b9 f83e a877 74bf 8649 d93e 4a6a 39bf
000000e0: 8bea ce3e 4557 193f 4bb0 24bf dc42 ed3e
000000f0: d5f3 a6be 31fe 583e ca3a 023f 1b18 23bf
00000100: 630d 42bf c99d d6be a935 ff3e c2ba b23e
00000110: bb80 19bf ca35 1b3f 8b85 52bf 9c40 5dbf
00000120: 48a7 c13e cdb2 babe 2ba3 24bf 0ffe 103f
00000130: 3667 0a3f b00a e33e a6cc 933e ac76 953e
00000140: 3727 e4be dc2b 143f 87f0 0e3f c64b 19bf
00000150: 5c96 ee3e 786a 37bf a91a d9be a13b 1f3f
00000160: 8980 a4be 75e1 0b3f 5aae d73e bb80 f53e
00000170: 8738 213f d960 0abf 7e89 c43e 1e12 bc3e
00000180: 34dc 303f 93cc 2ebf 2e5d 0dbf d861 1f3f
00000190: b1aa 123f 5ddb 94be 2689 2abf 6466 1c3f
000001a0: 002e 38bf 9d07 0e3f 48e8 bb3e 0eee 00bf
000001b0: a22d f5be 1ce7 d13e 0579 52bf 137c 213f
000001c0: 3b35 1d3e 438a e3be daf1 0bbf 170f 053f
000001d0: a04e 75be dddd ac3e 74f8 81bf bebc cebe
000001e0: e6e3 30bf 15d8 42bf 6790 cf3e 08cc 3ebf
000001f0: 0b2b 153f bdf6 1ebf 0ba4 f13e 8cb4 0a3f
00000200: b2a4 38bf 1fce 2cbe 9509 aabe 84d9 2fbf
00000210: 26f3 fb3e 034d 8cbe 1762 893e 6dbb 2ebf
00000220: 2b0a c43e 6637 7dbf 0a85 f13e 8ac5 813e
00000230: 51c2 35bf 957d edbe 99c7 113f 87ca 19bf
00000240: ffcf ab3e 4972 34bf d6a8 e03e 7fee 973e
00000250: c17e 19bf d845 b6be 7595 01bf c105 2a3f
00000260: dbe1 13bf ce1f 26bf 04aa 953e 4f83 c13e
00000270: 6392 09bf 12df 7ebe 482a 12bf 50c8 793e
00000280: d01d 143f 33e6 e73e 7844 043f c77d 15bf
00000290: 17f2 d83e 85dc 25bf 8ae5 09bf 45b7 41bf
000002a0: 006e d93e 7cf7 c33e 46eb 053f 4558 c4be
000002b0: e0c8 7abf 1c9f 3cbf 0ea4 1fbf 9b87 c63e
000002c0: 507a 5e3e f7f3 2cbf 92e8 30bf 50be c43e
000002d0: 84d1 d53e f1db 0f3f 9b01 36bf 8f68 19bf
000002e0: 14ce 18bf aeb5 33bf 95b3 143f eaf4 a83e
000002f0: c0fb 31bf b2f4 2a3f 0023 043f 9bef d63e
00000300: a5c1 ef3e 33a8 50bf b2ca b5be 715f e73e
00000310: 3f0f 093f 89bf 053f bd6c b83e 321c 173f
00000320: e911 183f b90c 54bf 5fe5 0c3f a4d0 1fbf
00000330: c8ef 023f f1b5 fa3e df1b 853e 860b 65bf
00000340: ea4e 3fbf aa90 1cbf c640 d33e f873 163f
00000350: c303 35bf 2d9e ecbe 67f8 99be 97b8 963e
00000360: d862 1dbf 2855 e43e 9825 2ebf 64b0 413f
00000370: c1d1 0abf 895a 093f 4310 033f 3fba 83be
00000380: 24ae eb3e 99bf f4be bdb4 b5be 8c6b d13e
00000390: bde6 0e3f 4ae4 febe be60 74bf 78f1 db3e
000003a0: 614e 51bf cd8b 0cbf a8f4 1dbf 5b20 173f
000003b0: e413 06bf d812 de3e 5d36 05bf 783c be3e
000003c0: 6247 2cbf e4c4 33bf 0f7a 15bf 3a5a 103f
000003d0: 4c79 65bf 9cc8 e53e 32a3 c8be 2ac7 24bf
000003e0: bcd9 2fbf f75c 05bf 96db 2cbf bfec 093f
000003f0: 46cd 40bf 0b2a f23e 09bf 51bf 64de 6bbf

advantage_stream.0.weight f4 [256, 256]
0.055435147 -0.19280131 0.17507063 -0.09627732 0.10822671 0.07555694 0.18110928 0.12146546
0.1585865 -0.11273985 -0.37934223 -0.18399513 -0.40598148 -0.05432657 -0.15530717 -0.025112493
-0.45906314 -0.00061330857 0.004922719 0.530291 -0.48459762 -0.027408298 -0.07243404 -0.22472253
0.19441988 -0.20661858 -0.20755191 -0.5327532 0.023005368 -0.22790542 0.2949283 -0.13795467
-0.43774638 0.057834797 0.03267962 -0.31068012 -0.09575335 -0.33403623 -0.2928609 0.070176974
-0.21315788 0.24880116 -0.51359296 0.15924108 -0.29563102 0.13537744 -0.22119984 -0.43507037
0.10739536 -0.6198928 0.15447125 0.22106972 -1.0402056 -0.55373496 0.20476484 0.05150453
-0.097268105 0.11641442 0.08355085 0.07876222 0.18547142 -0.46028534 -0.30945778 -0.19098218
-0.1868129 -0.23282683 0.37241027 -0.04945321 -0.43506506 0.08921667 -0.40201482 0.15278506
-0.16044444 -0.060019024 -0.05162763 -0.11453435 0.10512407 -0.90332896 0.01567464 -0.26946813
0.0067521357 -0.119453266 -0.09157199 -0.20800975 0.05917223 -0.5259654 0.11481713 0.08816211
-0.1586258 0.14017996 -0.5929491 0.22879533 0.31815022 0.027417012 0.110417485 0.39110538
-0.10623985 -0.17077857 -0.15177958 -0.5513973 0.11565041 -0.034328654 -0.024590747 -0.31377032
-0.350556 0.054434635 -0.18258652 -0.12149089 -0.014257964 0.21924543 0.016653804 0.27441734
-0.067121185 -0.60796314 0.5042244 0.12850875 -0.13431314 0.061796807 0.044239935 -0.13337646
0.15441275 0.026229475 -0.21186908 -0.06712822 -0.04311089 -0.39789572 -0.18021062 0.2400877
0.16622736 -0.0020827441 -0.27111876 -0.020233663 0.08589909 -0.29040924 0.039133597 0.1803544
-0.22962624 -0.37376913 -0.026038896 0.05778908 -0.049540535 0.15475146 -0.46282777 0.030487584
-0.06648607 -0.3871128 -0.19659077 0.05469682 -0.41818613 0.15929863 0.28954285 0.116321094
0.18174252 -0.09184909 -0.40084997 -0.46890444 -0.301716 0.009878847 0.09995685 -0.20668294
-0.014719676 0.071523964 -0.06599936 -0.28618944 -0.58021533 -0.1249281 -0.36595395 0.14669682
-0.59686935 0.20718326 -0.16286565 -0.30084532 0.15227178 -2.1479427e-05 0.0752684 -0.124705195
0.18264297 0.15072545 0.029775973 -0.58794427 -0.20187299 0.208239 -0.1934099 0.23404835
0.024782035 -0.16455945 -0.07447865 0.13282807 0.115467235 0.05084913 -0.15097962 -0.30004445
-0.4178413 0.3315724 0.05762306 0.104652844 0.13200742 0.0262367 -0.1531118 0.86519426
0.1264882 -0.1922281 0.3130846 -0.023406066 0.053173162 -0.3434993 0.11047125 -0.24119957
0.08780694 0.21283573 0.052837312 -0.29115465 0.26735035 0.16355468 -0.14386493 -0.043384593
-0.7014667 -0.5229299 0.119041875 0.026430609 -0.001777679 0.17787825 -0.4693956 0.5234623
-0.634151 -0.008710231 -0.009256432 -0.612063 -0.5823391 0.060051683 0.024247074 -0.06971512
-0.024171783 -0.077440344 0.21297714 0.18315297 -0.18195549 -0.30515373 -0.0059195855 0.09887441
-0.45834923 0.09081042 0.15006831 -0.83267564 0.19209942 0.18581349 -0.012618639 0.16533287
-0.26910007 -0.45290774 0.2682636 -0.19232482 -0.05643044 -0.26980886 -0.063047305 -0.19413123
00000000: f70f 633d b56d 45be b745 333e 0b2d c5bd
00000010: f7a5 dd3d 99bd 9a3d b674 393e e2c2 f83d
00000020: 8064 223e 27e4 e6bd 2539 c2be 3869 3cbe
00000030: cedc cfbe 8a85 5ebd d808 1fbe b7b8 cdbc
00000040: 530a ebbe 71c6 20ba c34e a13b 27c1 073f
00000050: 2e1d f8be 5e87 e0bc 4c58 94bd aa1d 66be
00000060: 0116 473e d293 53be 7d88 54be 8462 08bf
00000070: c175 bc3c 0a60 69be d800 973e fd43 0dbe
00000080: 4b20 e0be 2ee4 6c3d 11db 053d 7711 9fbe
00000090: 551a c4bd cc06 abbe ddf1 95be f2b8 8f3d
000000a0: 0f46 5abe bbc5 7e3e d47a 03bf 1810 233e
000000b0: f35c 97be 62a0 0a3e 3682 62be 8bc1 debe
000000c0: 19f2 db3d 4bb1 1ebf b62d 1e3e 1a60 623e
000000d0: 7525 85bf 93c1 0dbf e0ad 513e 6af6 523d
000000e0: 8034 c7bd af6a ee3d b51c ab3d 164e a13d
000000f0: 38ec 3d3e 85aa ebbe 4071 9ebe d590 43be
00000100: e14b 3fbe 286a 6ebe 8fac be3e 738f 4abd
00000110: d9c0 debe 3bb7 b63d e3d4 cdbe b073 1c3e
00000120: 8c4b 24be 82d6 75bd 7e77 53bd fc90 eabd
00000130: 4a4b d73d 9140 67bf 1a68 803c baf7 89be
00000140: 0541 dd3b eaa3 f4bd 188a bbbd 8200 55be
00000150: 955e 723d aba5 06bf 3e25 eb3d 568e b43d
00000160: cd6e 22be 568b 0f3e 83cb 17bf 5349 6a3e
00000170: 96e4 a23e a499 e03c 9022 e23d f73e c83e
00000180: 4794 d9bd 94e0 2ebe 1b6c 1bbe 6028 0dbf
00000190: 1fda ec3d 349c 0cbd 8972 c9bc 81a6 a0be
000001a0: 137c b3be daf6 5e3d f6f7 3abe 37d0 f8bd
000001b0: 3c9a 69bc e081 603e 8f6d 883c 6e80 8c3e
000001c0: d576 89bd 79a3 1bbf da14 013f cc97 033e
000001d0: 6289 09be a61e 7d3d ef34 353d d793 08be
000001e0: 601e 1e3e 32df d63c 35f4 58be 857a 89bd
000001f0: 0b95 30bd fdb8 cbbe 2289 38be 8dd9 753e
00000200: 8137 2a3e a67e 08bb 14d0 8abe 11c1 a5bc
00000210: ddeb af3d 85b0 94be 8d4a 203d d3ae 383e
00000220: 2423 6bbe ab5e bfbe 864f d5bc 3eb4 6c3d
00000230: 04eb 4abd 2b77 1e3e c3f7 ecbe 19c1 f93c
00000240: d929 88bd a633 c6be 174f 49be c609 603d
00000250: 7e1c d6be 2e1f 233e f63e 943e c139 ee3d
00000260: b61a 3a3e 601b bcbd 353c cdbe 3e14 f0be
00000270: 857a 9abe e3da 213c 2db6 cc3d b1a4 53be
00000280: cc2a 71bc 287b 923d ac2a 87bd 6c87 92be
00000290: fe88 14bf 4eda ffbd 515e bbbe b137 163e
000002a0: 6ecc 18bf d927 543e 41c6 26be 6608 9abe
000002b0: 22ed 1b3e b82e b4b7 5226 9a3d 7065 ffbd
000002c0: c206 3b3e c657 1a3e beec f33c 8483 16bf
000002d0: cbb7 4ebe 9b3c 553e 3f0d 46be 5faa 6f3e
000002e0: b203 cb3c 4682 28be 4388 98bd 1504 083e
000002f0: 167a ec3d 2d47 503d 679a 1abe 6d9f 99be
00000300: 4bef d5be dcc3 a93e 2806 6c3d 3b54 d63d
00000310: f42c 073e 59ee d63c 57c9 1cbe 5f7d 5d3f
00000320: 1f86 013e 71d7 44be a04c a03e 14be bfbc
00000330: 1acc 593d 24df afbe c03e e23d 05fd 76be
00000340: 20d4 b33d 9cf1 593e f06b 583d 3912 95be
00000350: 25e2 883e e17a 273e 5451 13be 0bb4 31bd
00000360: 5293 33bf bcde 05bf 3acc f33d 0185 d83c
00000370: 0201 e9ba b725 363e 9f54 f0be a001 063f
00000380: b857 22bf 5bb5 0ebc 4aa8 17bc 29b0 1cbf
00000390: 2d14 15bf c1f8 753d cda1 c63c cdc6 8ebd
000003a0: e703 c6bc 0b99 9ebd ae16 5a3e 748c 3b3e
000003b0: 8a52 3abe 1c3d 9cbe 15f9 c1bb ab7e ca3d
000003c0: c0ac eabe d0fa b93d 82ab 193e 3b2a 55bf
000003d0: b6b5 443e e445 3e3e 68be 4ebc 054d 293e
000003e0: 7cc7 89be 86e3 e7be d959 893e ccf0 44be
000003f0: 9b23 67bd 6324 8abe f21e 81bd 56ca 46be
