active_slam_rl/training_output_no_slam/20260128_030605/d3qn_ep190.pth (torch, 901794 bytes, 11 tensors)

feature.0.weight f4 [256, 100]
000000 33 46 11 bd c8 f5 c8 bd ac 78 03 be 21 1f 5b bd
       -0.035467338 -0.09812504 -0.12839001 -0.053496484
000010 a0 2b cf bd 1e 3a 52 be a4 bd 30 bd 69 8c 67 be
       -0.10115743 -0.20529982 -0.043149605 -0.22612156
000020 73 c5 c5 bc 33 d4 4d be d4 bb 38 be ea d3 fb bd
       -0.024142003 -0.20100479 -0.180404 -0.12296279
000030 32 39 5b be 53 e9 e8 bd 5f 7e fe bd a1 17 4a be
       -0.21408537 -0.11372628 -0.12426447 -0.19735576
000040 d6 a3 89 bd 05 41 73 be b0 82 39 be 25 a2 cc bd
       -0.06720702 -0.23755272 -0.1811626 -0.09991864
000050 f2 06 f4 bd a1 9e 25 be fc 68 69 be 3a 95 63 bc
       -0.11915387 -0.16173793 -0.22793955 -0.013890559
000060 46 fc ab bd 0e 6b 3b be 1f ce bb bd c6 a2 17 be
       -0.08397727 -0.18302557 -0.09170174 -0.14808187
000070 03 ec 21 be cb 48 18 be 40 b2 28 be 8d db 09 be
       -0.15812688 -0.14871518 -0.16474247 -0.13462658
000080 2e 7a 31 be 3f 84 16 be 40 1e 76 bd c3 91 fc bd
       -0.17331764 -0.14698885 -0.060087442 -0.12332489
000090 fa 18 82 bd 5a 61 7b be c1 40 c7 bd 1d e7 46 bd
       -0.0635242 -0.24548855 -0.09729148 -0.04856025
0000a0 58 5d 15 be 3e 88 78 be fa 0c 86 bd a1 86 40 be
       -0.14586389 -0.24270722 -0.06545444 -0.18801357
0000b0 d3 54 41 be 46 af 22 be 4a 2b 6b be 95 82 45 be
       -0.18880014 -0.15887174 -0.22965732 -0.19288094
0000c0 b6 fb 10 be 4c 8b 4c be a9 cf 8f bd 2a 5d 4a bd
       -0.1415852 -0.19975013 -0.0702203 -0.049405254
0000d0 b9 25 9d bd 5f 2b 3a bd 18 f2 9b bd a8 af 03 bd
       -0.07673211 -0.04545152 -0.07614535 -0.03214994
0000e0 c6 4e 01 be 37 50 4e be 58 3b 09 be 38 8e 57 bd
       -0.12627706 -0.20147787 -0.13401544 -0.052625865
0000f0 af 93 0b ba 5a 4a 2c bd 5c 96 ca bd 9c 55 d9 bd
       -0.0005324436 -0.042063095 -0.0989196 -0.10612032
000100 62 19 1f be e8 99 43 be 35 f2 bb bd 01 cf 17 be
       -0.15537027 -0.1910168 -0.09177057 -0.1482506
000110 9a 86 05 be e0 dc b1 3d e9 ce f9 3c f7 04 e3 3c
       -0.13039628 0.08684707 0.03049417 0.027712328
000120 15 5f 5b 3d c2 d8 da 3d ab e4 d8 3d 2b 46 26 bd
       0.053557474 0.106858745 0.1059049 -0.04059426
000130 8d b9 d7 3d a1 df 30 bd 50 41 07 3e 77 59 64 3c
       0.10533438 -0.04318202 0.13208508 0.013937346
000140 ef ca c0 3d 39 99 b2 bc d2 83 4d 3d 6a d9 7f bb
       0.094137065 -0.021801578 0.05017454 -0.00390395
000150 0c f3 fa 3c 96 59 a9 bd 7f 25 58 bd 89 23 66 bd
       0.030633472 -0.0826904 -0.052770134 -0.056186233
000160 e3 92 68 3c 2e de ff bb 9b df 6a 3d a0 d9 96 3d
       0.014195177 -0.0078084683 0.057342153 0.073657274
000170 3f 4d 9e 3d a6 e3 57 3d 4a a2 ad 3d 29 67 bd 3d
       0.07729577 0.052707337 0.0847822 0.09248192
000180 9d 05 a2 3c 21 d0 bb bd e6 88 db bc 99 5a b7 bd
       0.019778067 -0.09170557 -0.026798677 -0.08952827
000190 64 11 06 3e a9 8d 31 3d 75 fc 3f 3e 9b 88 37 3e
       0.13092571 0.04334799 0.18748648 0.17923205
0001a0 63 b3 db 3d 9d 59 dd 3d 9b bc 4b 3e ba a4 4e 3e
       0.10727575 0.10808108 0.19896166 0.20180026
0001b0 78 bf c3 3d b0 85 e5 3d 54 91 26 3d 2f 3c 52 3d
       0.09558004 0.112071395 0.04066594 0.051326927
0001c0 f5 98 94 3d ab 7a 05 bd ed 48 54 3d bc 84 6d bd
       0.07255737 -0.03258769 0.05182736 -0.057987913
0001d0 93 6b 93 3d 51 84 93 3d 96 d7 51 3d 73 0f 6d bb
       0.071982525 0.07202972 0.05123099 -0.0036172539
0001e0 cd 29 6d 3a 87 80 5f bd 91 45 e5 bd d6 07 1f 3d
       0.00090470613 -0.054565933 -0.11194909 0.038825832
0001f0 4d 79 ae bd 5a 04 0d bd 59 1c 1e be 3e 27 24 be
       -0.0851923 -0.034427978 -0.15440501 -0.16030595
000200 de 0e 57 bd 90 77 a0 bd e5 f3 ac bd 6b 60 02 be
       -0.052504413 -0.07835305 -0.08444957 -0.12732093
000210 26 ce 0b be 09 e4 31 be 94 c3 72 be 69 ff 4c be
       -0.13652858 -0.17372145 -0.2370742 -0.20019306
000220 de 3d 59 be 71 85 68 be bf b7 2e be d9 8c c5 be
       -0.21215007 -0.22707154 -0.17062281 -0.3858402
000230 c2 cc 1a be a5 26 bb be 00 87 c0 be 0c 5a 8c be
       -0.15117171 -0.3655292 -0.37602997 -0.2741245
000240 39 2b 82 be f9 82 9e be 2c 2d fa be 7b 22 9a be
       -0.254236 -0.309593 -0.48862588 -0.30104432
000250 af 37 bd be dd cd aa be 66 4f 80 be e8 f4 a9 be
       -0.36956546 -0.33360186 -0.25060576 -0.3319466
000260 e8 ae 90 be c6 da 69 be 04 c1 fd bd 02 79 91 bd
       -0.28258443 -0.22837362 -0.123903304 -0.071031585
000270 9f d0 90 3d ab 07 85 bd 87 00 26 3e cd 69 eb 3d
       0.07071041 -0.06495603 0.16211139 0.11494789
000280 d9 4e 8f 3d 16 a8 cb 3c a8 0d 20 3d 63 2e 9a bc
       0.06997461 0.024860423 0.039075524 -0.018820947
000290 32 36 82 3d 09 41 9a 3d ed aa c4 3d 1b 88 c9 3d
       0.06357993 0.07531936 0.09602914 0.09840413
0002a0 d5 0e 89 3d ab 0c ea 3c fd 5c 1e 3e a8 50 a8 bc
       0.06692282 0.028570494 0.1546516 -0.020546272
0002b0 ae 64 09 3d 60 b6 30 3d 58 eb da 3c 25 63 91 3c
       0.03354328 0.043142676 0.026723549 0.017747471
0002c0 08 29 83 3d 62 75 c2 bd cf cd a9 bd 3c 9d 0c bd
       0.064043105 -0.09495045 -0.08291208 -0.034329638
0002d0 c8 f9 83 bd 84 a0 fc bc 65 5b d6 bd 79 71 4f 3d
       -0.06444126 -0.030838259 -0.10466651 0.050645325
0002e0 2b 21 44 bd d1 13 23 3d 7a 66 06 3d 07 fd 5d bd
       -0.047883194 0.03981382 0.032812573 -0.054196384
0002f0 83 57 ce bd 71 b3 73 bc 77 2a 40 3d 75 cd 0b bd
       -0.10075285 -0.014874325 0.046915498 -0.034131486
000300 54 bc b3 bd 12 89 ee 3c df 04 d5 bd d7 58 22 3d
       -0.08776155 0.029118095 -0.1040132 0.039635506
000310 a4 0d a8 bd 48 e8 a9 bd 0b c7 96 bb 7a 96 34 be
       -0.08205727 -0.08296257 -0.0046013645 -0.17635527
000320 e5 63 3d be 04 c6 56 be ec 04 8e be f0 05 88 be
       -0.18495138 -0.20973974 -0.2773813 -0.2656703
000330 8c 5c bc be 56 64 a4 be 21 6e 97 be b1 19 b8 be
       -0.36789358 -0.321078 -0.2957621 -0.359571
000340 a3 cb ac be dd df a0 be a6 41 66 be c6 b5 55 be
       -0.33749112 -0.31420794 -0.2248598 -0.20870122
000350 6e e5 c0 be a2 f8 8a be fa be 89 be d5 66 be be
       -0.3767504 -0.27142817 -0.26903516 -0.3718783
000360 3e 41 b2 be ab df c2 be 20 0f c0 be 8f e0 b0 be
       -0.348154 -0.3806127 -0.3751154 -0.34546325
000370 28 b3 e9 be 22 7c e9 3e e7 80 4a 3e 7f d0 31 3e
       -0.45644498 0.45602518 0.19775735 0.17364691
000380 7f eb de 3d f1 d0 02 3e a8 13 1b 3c 4a 04 72 3e
       0.10884761 0.12775017 0.009465136 0.23634449
000390 4c 28 4a 3e ec 21 f4 3d f7 f7 65 bb ae d2 6d 3d
       0.19741935 0.119205326 -0.0035090426 0.058062248
0003a0 c5 14 6b bc b5 a5 0b 3e 00 b0 60 bd c3 6e b3 3d
       -0.014348214 0.13637431 -0.054855347 0.087613605
0003b0 41 af 29 3d ab 3d a2 bd 6f 21 20 3d d5 b7 8f 3c
       0.0414269 -0.079219185 0.039094385 0.017543713
0003c0 79 6c 67 bd 67 62 30 be ff 3a 92 bd aa cc 3b be
       -0.056499932 -0.17225038 -0.07140159 -0.18339792
0003d0 c9 a1 91 bd a3 d6 73 bd 61 4e a5 b8 03 92 22 3d
       -0.07110936 -0.059530865 -7.882412e-05 0.03969003
0003e0 2b 55 e0 bd 9c b4 ef bd 5b d6 fd bd ea a6 9c bc
       -0.109537445 -0.117043704 -0.12394401 -0.01912256
0003f0 97 35 35 bd 2b a6 89 bc 7f a8 41 bd 36 ea 76 bd
       -0.04424056 -0.016802868 -0.04727983 -0.060281955

feature.0.bias f4 [256]
000000 b7 9a 91 bd f9 b1 70 bd eb e2 8d 3d 4f cc b3 3d
       -0.07109588 -0.058763478 0.06928047 0.08779203
000010 b9 ba 8e 3e 69 f1 7e 3e 27 cb 58 bd 60 57 26 be
       0.27876833 0.24896778 -0.052928116 -0.16244268
000020 b6 79 9c bd 12 cf 79 3e bd 63 83 be 63 e5 37 3e
       -0.07640402 0.24395397 -0.25662032 0.17958598
000030 41 bd 14 bd 75 4c 7c 3e 0e b1 4a 3e e4 01 80 3c
       -0.0363133 0.24638541 0.19794104 0.015625902
000040 90 27 13 bd 91 c7 7d 3e 76 d7 b9 3d 4d 80 3d be
       -0.0359264 0.2478316 0.09074299 -0.18505974
000050 2d bf 99 bd b4 0d ac 3e 58 07 9c bc 34 b2 d7 3c
       -0.07507167 0.33604205 -0.01904647 0.026330091
000060 e5 7b 67 3e 84 b5 e9 3c a5 b9 6a bd 08 8e cc 3c
       0.22605856 0.028528936 -0.05730595 0.02497007
000070 2c c7 f0 3e 2f 03 e2 3d 75 b6 3c 3c c4 8c 94 3e
       0.47026956 0.110357635 0.0115181105 0.29013646
000080 7b 37 28 3e 7f 70 0d bc 43 1d 8c 3e 19 21 2b 3d
       0.16427414 -0.008632778 0.27366075 0.04177961
000090 59 2a 0a bd 7c 50 be bd 98 5d 91 bd 1c 8c 99 3c
       -0.033731792 -0.09292695 -0.0709793 0.018743567
0000a0 00 84 76 3e 26 5b c2 bc 88 1b 85 3e 31 29 1f 3e
       0.24073792 -0.023725104 0.25997567 0.15543057
0000b0 ca 4a 78 3d c2 57 02 3e 6c 23 fa 3d e8 2f fe bd
       0.0606182 0.1272879 0.122137874 -0.12411481
0000c0 ca 29 f5 bd eb 3c 1f 3e 7e 0f 2c be ce 5a 73 3e
       -0.11970861 0.15550582 -0.16802785 0.23765108
0000d0 fb 0f ea 3d 59 5c 5c be 10 a3 9f bd f6 18 95 3e
       0.11428829 -0.21519603 -0.077947736 0.29120606
0000e0 6d f4 f2 3c ca 70 e2 3c 5b 97 15 bd a0 4f 1d bd
       0.029657567 0.027641673 -0.036521297 -0.038406014
0000f0 83 da 82 3e 80 18 28 be 95 ea 86 3e 95 22 2e 3e
       0.25557336 -0.16415596 0.26350847 0.1700538
000100 5c f9 25 3e 9c 82 08 3d 59 6b 14 bd c3 2b a1 3e
       0.16208404 0.033327684 -0.036235187 0.314787
000110 37 7d 41 3e 12 1a d6 bd 57 04 63 3e 66 e1 cc 3d
       0.18895422 -0.10454191 0.22169624 0.10003929
000120 73 c6 a7 bb 70 ce d6 3d 46 e9 62 3e 3d 73 f7 3d
       -0.0051200925 0.104885936 0.22159299 0.12082527
000130 24 1a 5e be 0a 91 66 3e a4 0d fa bc 49 3f b9 3d
       -0.2168966 0.22516266 -0.030524082 0.09045274
000140 c4 f3 6f 3e 10 a6 d0 3d c0 df b1 3c 97 55 cd 3c
       0.23432833 0.10187924 0.021713138 0.025065226
000150 2a 3d 8f 3e cd be 67 3d 25 3d 39 3e a8 92 84 be
       0.27976352 0.056578446 0.18089731 -0.2589314
000160 46 91 87 3e 99 8a a3 3e 6c f0 3f be eb 42 af 3d
       0.26478022 0.3194168 -0.18744057 0.085576855
000170 92 d9 7c 3e 73 d0 85 be 9c 6a 0e be b9 27 44 3e
       0.24692371 -0.26135597 -0.13907856 0.19155778
000180 9c 87 37 bd 48 e9 37 bd 09 a2 b2 3e 50 eb 27 be
       -0.04480706 -0.04490021 0.34889248 -0.16398358
000190 dd d4 7c 3e 5e f3 80 be f5 00 58 be 52 10 b6 3e
       0.24690576 -0.25185674 -0.21094115 0.35559326
0001a0 b5 44 86 3e 90 26 b0 ba 0d 6f 89 be bb ef 8c 3e
       0.26224294 -0.0013439227 -0.26842538 0.2752665
0001b0 35 41 ca bd 27 a2 4b 3e 86 91 a9 3d c2 be 9d bd
       -0.098757185 0.19886075 0.082797095 -0.077024
0001c0 a3 88 07 3e ba c6 20 bd 15 bc 12 3e 4c ca 9f be
       0.13235717 -0.03925202 0.1432956 -0.31209028
0001d0 73 41 4d 3d 51 45 89 3e aa a1 86 3e f6 dd 36 3e
       0.050111245 0.26810697 0.26295215 0.17858109
0001e0 9d 20 46 3d 38 eb 89 3e 93 ae 83 3e 35 19 c7 3d
       0.048370946 0.2693727 0.25719127 0.09721605
0001f0 29 e7 ad bd dc c0 32 3e bd 6e 5b bb 10 9e 0f 3e
       -0.08491356 0.17456383 -0.0033482753 0.1402514
000200 fb 22 46 3e 68 c9 1d 3b fd 9d 35 3d 31 df b8 3d
       0.19349281 0.0024076346 0.044340122 0.090269454
000210 1c 54 89 be e8 55 90 3e 9d 49 6b 3c 37 4d 71 3e
       -0.26821983 0.2819054 0.0143608125 0.23564611
000220 74 68 3e 3e fd 48 86 3e 10 55 82 bd 95 20 47 bc
       0.18594533 0.2622756 -0.06363881 -0.012153764
000230 6e 97 6a be df a1 50 be 12 b0 22 be a9 ce 03 3e
       -0.22909328 -0.20374249 -0.15887478 0.12871803
000240 71 b6 3c 3e f5 69 b9 3e c0 b5 81 be ba 3f 88 3e
       0.18428971 0.3621365 -0.25333977 0.2661112
000250 b2 f4 09 be 75 f3 43 be d9 ee 76 3d 55 d1 8f 3d
       -0.1347225 -0.1913584 0.060286377 0.07022349
000260 0a 2b 6d 3c 99 8b 34 be 6f a5 d3 3d 79 63 8a 3e
       0.014475593 -0.17631377 0.10334288 0.27029017
000270 ce b7 0b 3e 7c 0b 25 3d 18 32 da 3d fb b2 9b bd
       0.13644335 0.040294155 0.10654086 -0.07602497
000280 67 1d fd 3c ba 2f 26 be 3a e6 43 bd 0b 95 ac bd
       0.03089781 -0.16229144 -0.047826983 -0.08426865
000290 8f 08 ae 3d ed 36 86 3e ca 1d 70 3c 29 50 91 3e
       0.08497726 0.2621378 0.01465554 0.2838147
0002a0 39 77 6d be 69 43 af bd 7d c5 b8 bd a1 0e 70 3e
       -0.23190011 -0.08557779 -0.09022043 0.2344308
0002b0 5c 34 83 be 5e 36 86 3d c7 c1 2e 3e 79 18 bb 3d
       -0.25625885 0.065533385 0.17066108 0.09135527
0002c0 1e bf 7f 3e e6 85 17 be fc d7 6b 3d 0d 17 4f be
       0.24975249 -0.14797172 0.057579026 -0.20223637
0002d0 1e c7 83 bd e1 3f 1b bd 90 12 62 be 31 5a a3 3e
       -0.06434463 -0.037902717 -0.22077394 0.31904748
0002e0 57 e1 51 bd ea 49 a8 bd c0 80 a3 3e 19 26 8b 3d
       -0.05124029 -0.08217223 0.31934166 0.06794376
0002f0 19 d9 a6 3e dc 28 95 3e 5d 03 23 be 05 5e 06 be
       0.32587507 0.29132736 -0.15919252 -0.13121803
000300 d4 4c 6e 3e 36 a1 0b be b5 9d 28 3d 85 f7 0c bd
       0.23271495 -0.13635716 0.041166026 -0.03441574
000310 8f 6a 0f be bf 64 88 3e 8e 39 5e bd ea 5e 4b 3d
       -0.14005493 0.26639363 -0.054254107 0.049651064
000320 09 4d 0f bd b0 b5 91 3e 0f e5 1f 3e d3 74 58 3e
       -0.034985576 0.2845893 0.15614723 0.21138315
000330 02 17 87 be e2 4d 78 3d b1 92 87 bd 5f 1b d3 3c
       -0.2638474 0.06062115 -0.06619776 0.025769887
000340 02 44 67 3e 05 b0 5f 3e ae 62 51 bc 89 49 0d bd
       0.22584537 0.2184449 -0.012779875 -0.034493957
000350 d4 4c 89 3d 76 7a 0f 3e 31 4a 94 be e4 cf 20 be
       0.06704107 0.14011559 -0.28962854 -0.15704304
000360 10 66 0c be fa 27 82 3e ea a7 ca bb 29 9f 7b be
       -0.13710809 0.25421125 -0.0061845677 -0.24572434
000370 e5 cb b3 bd 01 02 0f be 86 6e f3 bd c1 da b5 bd
       -0.08779124 -0.13965608 -0.11886315 -0.088796146
000380 58 e3 a0 bd 2b a8 6e be 8d 1c b2 3d 1b e7 c7 bb
       -0.078558624 -0.23306338 0.08696852 -0.006100548
000390 0e e3 84 3c 45 a7 35 3e 9a 70 5b 3d e3 a7 51 3d
       0.01622155 0.1773959 0.053574182 0.0511855
0003a0 79 0f 8b 3b b7 bf c9 3d 24 ef 9f 3e e3 3e e0 3c
       0.004243788 0.0985102 0.31237137 0.027373737
0003b0 3b d5 3b be 7f df a6 bd df fd 8f 3e ce fd 76 3e
       -0.1834306 -0.08148097 0.28123376 0.24120256
0003c0 37 d2 82 bd 2c 6f 29 be 5f 0e a2 3e a1 32 0e 3e
       -0.063877515 -0.16546315 0.3165159 0.13886501
0003d0 db 3f ed 3d 65 4b c7 3d 72 56 87 3e 95 1b 36 3e
       0.11584445 0.09731177 0.2643314 0.17783959
0003e0 10 f3 3b bd 36 21 7c 3e d3 52 84 be 33 f6 19 bd
       -0.0458861 0.24622044 -0.2584444 -0.03758831
0003f0 33 cc aa 3d ca 55 e6 bb a9 c2 97 bc b3 58 12 bd
       0.08339729 -0.00702927 -0.018525438 -0.03572912

feature.2.weight f4 [256, 256]
000000 be cb a2 3e 97 d0 aa 3e ef 15 58 3c 4f 1d 55 3d
       0.31796068 0.33362266 0.013188823 0.052029904
000010 ff d7 5a 3e 4f f7 a1 3d 14 f0 ac bc 83 a0 50 3d
       0.21371458 0.079084985 -0.021110572 0.050934326
000020 c0 81 e7 3d 37 b6 b1 bc 17 e6 9f bc df 91 65 be
       0.11304045 -0.021693332 -0.019518895 -0.22418927
000030 32 e3 a3 be 71 de 3a bd 6b d4 21 bd e5 48 8f bc
       -0.32009274 -0.045622293 -0.03950922 -0.017490814
000040 e9 81 fb 3e 17 5a 08 3e 30 32 c1 3e 83 9d ff 3c
       0.4912255 0.13315617 0.37733603 0.031203037
000050 84 83 4b 3e a3 1e 39 be 1a d4 1b bc ad ea 87 bd
       0.19874388 -0.18078093 -0.009511018 -0.06636558
000060 a7 4a d7 bd 89 1a e8 3d 51 62 35 bc 1c 4f 6f bd
       -0.10512286 0.11333186 -0.011070804 -0.058425054
000070 7b e3 7f bd 85 94 91 be da 51 fb be 1f d2 4b be
       -0.0624728 -0.28433624 -0.49085885 -0.19904374
000080 5b f9 02 be db 11 51 3d c5 da 83 bc 76 8a da bc
       -0.12790434 0.05104242 -0.016095528 -0.026677351
000090 86 0a d2 bc 57 86 26 be a5 23 6b be 5d 31 60 3e
       -0.025639784 -0.16262184 -0.22962816 0.2189383
0000a0 dc e0 05 be 6b 5d fe 3e ec 98 2d be b4 55 c3 3c
       -0.13074058 0.49680647 -0.16952866 0.023844577
0000b0 f4 04 92 bd 93 c4 30 3e 73 08 0c be 75 35 a7 3a
       -0.07129851 0.17262487 -0.13675098 0.001275702
0000c0 35 70 91 3e 45 61 91 bd 30 3f be 3c 25 ab 88 3d
       0.2840592 -0.07098631 0.02322349 0.06673268
0000d0 4f 07 4d bd 59 d9 15 3e ef 9b 34 3e f2 03 42 3c
       -0.0500558 0.14633693 0.17637609 0.011841761
0000e0 9f 58 a7 3d 7e 4c e2 bd 9a 77 3e be 7d 08 7a be
       0.081712 -0.11049746 -0.18600312 -0.244173
0000f0 2a 01 48 be b8 db b4 3c 55 c7 da 3d d8 62 d2 bd
       -0.19531694 0.022077426 0.10682551 -0.10272759
000100 3f 1d 0d bd 35 6f aa 3c 65 ac 0f be 35 e8 c3 3d
       -0.03445172 0.02080498 -0.14030607 0.09565774
000110 9b ca 9b be 51 2f de 3e c3 86 30 be 99 e4 b4 bd
       -0.30428013 0.43395475 -0.17238908 -0.08832664
000120 75 76 a8 3d 8d 5a bf bd 05 c1 ab bd 5c 96 ad be
       0.08225719 -0.09343443 -0.08386425 -0.33903778
000130 1c 5d 37 3c b5 31 e0 bd a0 6b f7 3c 50 c7 72 be
       0.011191633 -0.10946981 0.030202687 -0.23708844
000140 ba 88 a2 be 81 f8 e2 3e 0e 00 8a bd 3f e1 c8 bd
       -0.3174494 0.44330218 -0.06738292 -0.09808587
000150 c9 c0 fb 3d 0c 33 df bb 00 41 9d 3d 9e 21 27 3b
       0.1229263 -0.006811505 0.076784134 0.0025502215
000160 30 6d 4e bd a7 b6 08 3e 9f 97 89 bc 0d e0 9f 3c
       -0.050397098 0.13350926 -0.016795931 0.019516015
000170 38 18 12 3e 77 5c 9e be d4 7d be 3c 89 61 d8 3c
       0.14267051 -0.3092992 0.023253359 0.026413696
000180 9e 9a c4 bc 84 e2 46 3c a3 c8 d4 3d 0d 47 ad 3c
       -0.023999508 0.0121389665 0.10389831 0.021152044
000190 5e 3a 95 bd 1e 6c a3 bc eb 52 f4 3a 9b 4d 8d be
       -0.07286523 -0.019949015 0.0018640434 -0.2759827
0001a0 3a 24 75 bd 3c d3 44 3e d8 e3 17 3d 6a bb 7e 3d
       -0.059849 0.19221205 0.037082523 0.06219045
0001b0 b6 e2 50 3d 75 a9 8d be d1 bd 99 3d a4 ba e4 3b
       0.05099746 -0.27668348 0.07506908 0.006980257
0001c0 0e 27 b3 bd 1c ad 92 bd e8 41 e8 3b 56 9e 04 be
       -0.087476835 -0.07161924 0.0070879348 -0.12951025
0001d0 98 63 95 bc 0c ec 87 3d 93 71 d4 3c 84 48 80 be
       -0.018235967 0.06636819 0.025933063 -0.25055325
0001e0 ee 83 02 be b1 04 0c bc 57 50 f1 3c be 52 21 bd
       -0.1274564 -0.00854604 0.029457254 -0.03938555
0001f0 58 a9 2e 3e 57 94 ae be 3a 39 aa 3c 09 4d a6 bd
       0.17056787 -0.3409755 0.02077924 -0.08120162
000200 ac 82 2f 3e e4 6e 26 3e 43 b1 5f be c2 a4 78 bb
       0.17139691 0.16253239 -0.21844964 -0.003794
000210 99 2d 3f bc a0 58 28 3d bb fa 48 bd e7 8f 01 be
       -0.011668586 0.041100144 -0.04906724 -0.1265255
000220 a6 b3 99 bc 10 3e 7d bd dd b6 89 bd 8b fe 7d bd
       -0.01876242 -0.061826766 -0.067243315 -0.06201033
000230 39 21 29 bd 01 18 8c 3d 7b 26 4e 3d 44 5c bb 3d
       -0.04129145 0.06840516 0.050329667 0.09148458
000240 51 6f 10 3e 6a 2c 3b 3d 7b ad 6e 3d 57 d6 da 3d
       0.14104964 0.045696653 0.058270913 0.10685413
000250 e3 41 d8 3d 40 d6 f3 bc 61 05 aa be b3 6e e0 bc
       0.10559442 -0.029765248 -0.3320723 -0.027396536
000260 e0 70 35 3e 79 78 31 3d 9f a5 fe 39 1f 98 32 be
       0.1771884 0.043327782 0.00048570053 -0.17440842
000270 f5 ba 5d be cb a2 4c 3d 45 fa 48 be e4 0b 7a bd
       -0.2165335 0.04995994 -0.1962672 -0.061046496
000280 96 55 4c bd 32 c7 fc bd d6 53 38 3e 00 4c 0e 3e
       -0.04988631 -0.12342681 0.18000731 0.13896179
000290 1e 6f 44 be 02 cc 39 be 97 72 8a be a5 e4 71 bd
       -0.19183013 -0.18144229 -0.2704055 -0.059055943
0002a0 7e 07 e5 3c fe 67 22 3e 58 42 0b 3e da b1 9b be
       0.027957674 0.15859982 0.13599527 -0.30409127
0002b0 a0 27 e3 be 72 14 41 be f3 61 df bd 56 40 84 3e
       -0.4436617 -0.18855456 -0.10907354 0.25830334
0002c0 c9 fa 37 3e af 0e 34 3d 3e 71 59 be 64 f9 3f 3d
       0.1796676 0.043959316 -0.21234605 0.046868697
0002d0 6f b2 bb be 72 df 04 3f 02 5c 27 3d 65 99 72 bd
       -0.36659572 0.5190345 0.04085923 -0.05922832
0002e0 ca 4b 7f 3d 1e 98 ed bb f2 2e eb bd 72 3b e8 3c
       0.062328137 -0.0072508 -0.114835635 0.028348658
0002f0 5d a8 3c be 16 98 57 3d 95 92 c1 be 7c 72 af 3c
       -0.184236 0.052635275 -0.37807146 0.021416895
000300 ea 70 83 be 7c fd 25 3d 34 c5 49 be 14 1f 05 3f
       -0.25672084 0.040524945 -0.19704133 0.52000546
000310 51 89 e3 3c 75 c0 28 bd ad 69 64 3e 94 ab e1 3c
       0.027775439 -0.041199166 0.22305937 0.027547635
000320 6f f9 cb bb 94 ad e2 bd c5 ae ee bd c7 41 91 3d
       -0.006224803 -0.11068264 -0.116544284 0.07092624
000330 ea d5 64 3d 36 e0 85 3e a5 3d f6 ba bc fd 48 be
       0.055868067 0.26147622 -0.0018786682 -0.19628042
000340 de 55 93 3d 6d c5 44 be e4 f6 bb 3d b9 db e7 3c
       0.07194112 -0.19215937 0.0917795 0.028303014
000350 fa 76 ca bd 21 61 e6 3d 8f 02 5c 3d cc 17 98 be
       -0.09885974 0.112489946 0.053713378 -0.29705656
000360 4e c2 e1 3d c7 b2 0f bd 5d 2f 93 3d 5a 1e 81 bb
       0.11023389 -0.035082605 0.07186768 -0.0039403858
000370 ed 04 60 be 82 7e f7 3b 06 ac 13 3e bc dc 79 3e
       -0.21876879 0.0075529227 0.1442109 0.2440061
000380 5c eb 71 3c 81 65 a1 be 66 47 65 3d 8f 60 b8 3e
       0.014765587 -0.31522754 0.055976294 0.36011168
000390 02 33 a7 3d a3 bf 91 be 54 dc b7 be 76 b2 ac 3e
       0.08164026 -0.2846652 -0.35910285 0.33729905
0003a0 2d ea 43 3e 29 e8 3e bd 85 f9 8f 3d 3c 5c d8 bd
       0.191323 -0.046608124 0.07030014 -0.10564467
0003b0 de e3 00 3e 1c 04 d4 3c 95 d7 43 bd 28 a8 16 be
       0.12586924 0.025880866 -0.047813017 -0.14712584
0003c0 ee ba 9b 3e 9d 9f 84 3d b6 ad f9 bd cd cb 05 be
       0.30416054 0.06475756 -0.12191336 -0.13066025
0003d0 85 85 48 be ff 77 3a 3d 86 9a a0 be d6 37 39 bd
       -0.19582184 0.045524593 -0.31367892 -0.045219265
0003e0 e4 36 f5 3d aa 5e 35 3e fb 52 d5 bd 2c c2 5a bd
       0.1197336 0.17711893 -0.10416218 -0.053407833
0003f0 ce 37 f5 bb fe d3 32 3e 96 ef ef 3d 07 82 92 3e
       -0.007483459 0.17463681 0.11715619 0.28614828

feature.2.bias f4 [256]
000000 40 5c f4 bc 74 e0 37 3d 6c 82 bd bd 3a c8 fa bd
       -0.029829144 0.04489179 -0.092533916 -0.122452214
000010 2a 4a 40 bc 04 29 18 3e bb a6 31 3e da 01 0a be
       -0.011736432 0.14859396 0.17348759 -0.13477269
000020 87 aa 88 3e 61 9a f4 bb ee 98 e6 3d 91 9f 45 3e
       0.26692602 -0.0074646925 0.11259638 0.19299151
000030 cc 33 9c 3c ee 3b 18 3e fe ed 56 3e 84 3b 9f 3d
       0.019067667 0.14866611 0.20989224 0.077750236
000040 c1 ab be bc 51 6b 4a 3e 76 16 99 3e ba a2 f6 3d
       -0.023275258 0.197675 0.2989995 0.120427564
000050 ba 92 a6 bc 0e b0 fc 3d 84 67 b9 bd 91 f4 63 3d
       -0.020333637 0.12338267 -0.09052947 0.05565316
000060 eb 52 21 bd d2 38 8a 3d 2d 07 c4 3d 6e 79 e8 bb
       -0.039385717 0.06749119 0.09571681 -0.0070945537
000070 0d 74 0d 3e 05 f6 a2 ba 91 6c cb 3d db a0 ea 3d
       0.13813801 -0.0012432939 0.09932817 0.11456462
000080 b1 fc b5 3d f8 e7 19 3e 66 65 d4 3d 43 1d 0b 3d
       0.08886088 0.15029895 0.10370903 0.033963453
000090 86 2f bc 3a 78 01 5d 3e 8d 48 d9 3d 60 ce aa 3d
       0.0014357425 0.21582592 0.10609541 0.08340144
0000a0 5e 45 0e be 70 6c f9 bc df e7 21 3c c9 63 12 be
       -0.13893649 -0.030447215 0.0098819425 -0.14295878
0000b0 04 56 15 3e 89 23 ae 3e a2 90 f7 bd 0d ba cf 3d
       0.14583594 0.34011486 -0.120881334 0.10142908
0000c0 46 c2 78 3e 6f cc ca 3d 6b ee 12 be f9 19 10 3e
       0.2429286 0.09902274 -0.14348762 0.14072408
0000d0 b0 db ac 3d 0e 5a bd 3d 87 33 1f be 5e bc ad bc
       0.084403396 0.09245692 -0.15547 -0.021207985
0000e0 4b 55 c3 bd c6 28 ac bd d3 cf 46 3e b0 a9 19 3b
       -0.09537753 -0.084062144 0.19415216 0.002344709
0000f0 42 20 4a 3d fa 2c 50 3d b8 f7 bf 3d 78 02 a7 3d
       0.04934717 0.050824143 0.093734205 0.08154768
000100 ce 58 23 3e 05 8b f8 3c 9c 0d 1f 3e fa cd d3 3d
       0.15951845 0.030339727 0.15532535 0.10342021
000110 a5 d2 a4 3d 75 68 9d bc 17 df 4b 3d 8e db 9e bd
       0.0804799 -0.019214848 0.049773302 -0.077567205
000120 b6 f6 0c 3e 88 82 fb 3d ab 92 72 3e 6a 64 88 bd
       0.13765988 0.12280756 0.23688762 -0.066597775
000130 27 b8 87 3c ba 15 01 3e 92 2a 06 3e 20 f4 4d 3e
       0.016567303 0.12605944 0.13102177 0.20112658
000140 49 5b f4 3b e5 4c 94 3d b0 15 27 3e 03 0d 07 3d
       0.007457171 0.07241229 0.16316867 0.032971393
000150 5b 61 3a be 47 9c 6f bc 3a b2 d8 3d 59 3f 48 bd
       -0.182012 -0.014624662 0.10580869 -0.048888538
000160 58 38 52 3d 70 96 1b bd 6f d2 d4 3d 7f 37 ac 3e
       0.051323265 -0.037985265 0.103916995 0.3363609
000170 51 8c 53 bd 7e a9 56 3d 65 b9 f3 bc bf fa f2 3d
       -0.051647488 0.052407734 -0.029751489 0.11864232
000180 bd 3d eb bd 81 a8 0c bd 1b 72 fa bd 87 92 83 3d
       -0.11486385 -0.034340385 -0.12228795 0.06424432
000190 43 de cb bc 29 9c 9f 3d c7 de be 3e e5 3c 2a bd
       -0.024886256 0.07793457 0.3727934 -0.04156198
0001a0 55 81 95 bc 83 6c 0c bd 7e 32 be 3d 98 49 7b 3d
       -0.018250147 -0.034283172 0.09286974 0.06134948
0001b0 3e aa f1 3d e1 01 90 3e e1 cb 01 3e 84 7c c4 3d
       0.11800049 0.28126433 0.1267543 0.09594062
0001c0 a5 cc 20 bd 0f 73 2b 3e ac ef 40 3d 8b cb f8 3d
       -0.039257664 0.1674311 0.04710357 0.12148198
0001d0 dc ba 74 bd 6b 45 46 bc b5 ac 8a 3e a4 57 8c 3e
       -0.059748515 -0.0121015115 0.2708489 0.27410614
0001e0 14 13 24 3e 2d 76 c7 3d d9 6c 0e bd da 5d 23 3e
       0.16022903 0.09739337 -0.034771774 0.1595377
0001f0 42 a9 dc 3d d6 75 83 3d b9 e2 c9 3d 6a f7 d8 bd
       0.10774471 0.0641896 0.09857697 -0.105940655
000200 ab 1d 43 bb 92 3c 4c 3e e9 d1 8d bc 43 e5 96 3e
       -0.0029772322 0.1994498 -0.017312007 0.29471788
000210 0b 3d c1 bc f4 a3 82 3d c1 ab 06 be ff 5d 54 3e
       -0.023588678 0.06378928 -0.13151456 0.20738982
000220 2e e1 9b 3d 8b a3 fd 3c c3 15 43 bc 58 df 9f 3d
       0.07611309 0.030961772 -0.011907044 0.07806271
000230 a7 44 a1 3d f6 61 f2 bd 0c cb c9 3d f4 b8 7d 3e
       0.078744225 -0.11835091 0.09853181 0.24777585
000240 9b cc 28 be aa d8 00 3e cb 3c 1b 3e 57 70 5e 3e
       -0.16484301 0.12582651 0.1515991 0.21722542
000250 49 a9 a4 3d 8d 0e 39 3e 3f d7 42 3e 3f e6 f7 bd
       0.08040101 0.18071957 0.19027422 -0.12104463
000260 31 b3 22 be 31 1e 25 3e 02 a7 a2 3b 77 49 56 3d
       -0.15888669 0.16124798 0.0049637565 0.052316155
000270 f1 86 20 3d 9d 18 82 3e f8 a8 b7 bc 52 2f f7 3d
       0.03919119 0.25409403 -0.022419438 0.120695725
000280 78 bf 3d bb b9 43 65 3d e7 16 b6 3d 1a cf df 3d
       -0.0028953236 0.05597279 0.08891087 0.10928173
000290 9c b1 c1 3d 5f af 9e 3d db a1 f6 3d 70 9f 02 be
       0.094577044 0.07748293 0.1204259 -0.12756133
0002a0 c4 9f 1b 3e 17 14 12 be d9 b8 b0 3d f2 d9 43 bd
       0.15197664 -0.14265476 0.08629007 -0.04781527
0002b0 99 93 a4 3c 34 c1 0f be 90 3d 8c 3e e2 49 65 bd
       0.020089911 -0.14038545 0.27390718 -0.055978663
0002c0 6e 1d a3 3e 6b 5c 84 bd 87 9e 1e 3e f8 ae 12 bd
       0.3185839 -0.0646294 0.15490161 -0.035811394
0002d0 92 7f a7 3d ae c3 75 3e 07 54 07 bd 50 6b 93 3e
       0.08178629 0.24000427 -0.03303912 0.2879281
0002e0 c4 e1 eb 3d bd 96 70 3d 46 3c e6 3d 1d 23 13 3e
       0.11517671 0.058737505 0.11241965 0.14368863
0002f0 85 c7 b9 3e 48 0a 95 3e 9d 83 b3 3d 75 1a 84 3d
       0.36285034 0.29109406 0.087653376 0.06450359
000300 9f 5b a4 3b 5e cb 03 3e e7 4e aa 3d 1d c8 12 3e
       0.005015805 0.12870547 0.08315831 0.1433415
000310 73 b6 21 bd 20 a8 86 3e 91 d6 9b 3c e6 24 41 bd
       -0.039480638 0.26300144 0.019023212 -0.04715433
000320 69 76 6c 3e 95 cd 66 be 7a d2 d4 3d d9 55 79 3e
       0.23092045 -0.22539361 0.10391708 0.24349155
000330 a1 dc ce 3d b1 8e 21 bd df c1 8a 3e df b3 15 3e
       0.101006754 -0.03944272 0.27101037 0.14619397
000340 8a 4a 79 bc c3 84 e9 3d 8c 11 ba 3c a9 dc 31 3d
       -0.015215525 0.114022754 0.022713445 0.04342333
000350 1c 8a 5e 3e e9 09 48 3e be a5 61 3d a3 1a 92 3e
       0.21732372 0.1953503 0.055089705 0.28535947
000360 c5 8e 0b 3e 97 07 94 3d fc 8f 36 bd 03 e5 05 3e
       0.13628681 0.0722801 -0.044570908 0.13075642
000370 0d 48 2e 3e 42 7a 86 3e a7 bf a7 bd a3 b7 02 3e
       0.17019673 0.2626515 -0.08190852 0.12765364
000380 c2 a0 98 3d 7e 2d 1e 3d 6e 49 4d 3e a5 12 72 3d
       0.07452537 0.038617603 0.20047542 0.059099812
000390 4a 6e 0c 3e 8a 12 c4 bd 25 f4 f8 3d b2 20 09 bd
       0.13713947 -0.095738485 0.12155942 -0.033478446
0003a0 89 94 29 3e dc 46 3e 3e 61 5a 3d 3e ed a4 54 3c
       0.16560568 0.18581718 0.18491508 0.0129787745
0003b0 3b 73 07 3e 19 45 ea 3d d0 f2 99 3d a5 a1 89 3d
       0.1322755 0.114389606 0.07517016 0.067202844
0003c0 ef 70 d4 3d a0 8e 2e bd b6 88 d3 3c 93 18 f5 3c
       0.10373103 -0.042616487 0.025822025 0.029918944
0003d0 57 ed 79 3d 7c 22 6d bc 37 3d d8 3d 2e 7b 7e bc
       0.06101736 -0.014473554 0.10558551 -0.015532298
0003e0 bb bb 09 3e 0c 4f 14 3e d7 8a 08 3e ac 3e 89 3e
       0.1345052 0.14483279 0.13334213 0.26805627
0003f0 b1 9f de 3d 0d 6c e1 bc f0 30 fe bd 78 8a 19 3d
       0.108703025 -0.027517343 -0.12411678 0.03748557

value_stream.0.weight f4 [256, 256]
000000 67 c0 39 be 20 16 bf 3c a4 59 ce bd 54 39 82 be
       -0.18139802 0.02332598 -0.10075691 -0.25434363
000010 93 00 cc bd 6a 1d 24 3b f9 e7 7f be df be 56 be
       -0.09961047 0.0025041946 -0.24990834 -0.20971249
000020 2a af 9b 3c 5e b5 4a 3d 45 42 32 bd 94 66 1d be
       0.019004423 0.04948937 -0.04352023 -0.15371162
000030 df a5 c4 bd f5 b4 c1 3d a3 dd bb bd 6a d0 68 3c
       -0.0960195 0.09458343 -0.09173133 0.014209846
000040 f9 b8 8b bd 16 2d b2 bd 62 57 00 3e 2e 0e 56 be
       -0.0682239 -0.08700006 0.12533334 -0.20903847
000050 4b c0 95 bd 4c 25 51 bd 51 ac 46 be 6c 2d 25 bd
       -0.073120676 -0.05106096 -0.19401671 -0.04032652
000060 c7 99 e8 be 36 2f c3 bd a9 48 24 bd 17 11 fa 3c
       -0.45429823 -0.09530489 -0.040108357 0.030525727
000070 1f 5e 69 bd 9f 04 47 be 40 06 e2 bd 80 46 f8 3c
       -0.056974526 -0.19435357 -0.11036348 0.030307055
000080 b6 1a 04 be 80 95 e8 bd 5c 0c 07 bd a0 ce c8 bc
       -0.12900814 -0.1135664 -0.03297077 -0.024512589
000090 f2 73 05 be f8 6d d2 bc ce aa 45 bd 28 2f 93 bd
       -0.13032511 -0.025687203 -0.048258595 -0.07186729
0000a0 cd fc 92 be df 04 26 bc 7a 2a bd bd 0e 51 30 be
       -0.28708497 -0.010132997 -0.092366174 -0.1721842
0000b0 7a ab a7 3c 67 23 da 3d 97 1e 6b be 5f a1 a3 3c
       0.020467509 0.10651284 -0.22960888 0.019974409
0000c0 9e 77 c6 3d 38 32 e2 bc 59 6d cb bc 3f 69 88 3c
       0.09690784 -0.027611837 -0.024832414 0.016651748
0000d0 c6 e4 db 3b 57 3a bf bd 99 55 ee bd b9 43 62 3d
       0.0067106215 -0.09337299 -0.1163742 0.055240367
0000e0 0a fe 49 be 4a 67 3c be a9 71 2a bd 8d db 17 be
       -0.19725814 -0.18398777 -0.0416123 -0.14829846
0000f0 2c 07 43 be 17 e8 bc 3d ce b7 1d be 76 17 9e bc
       -0.19045705 0.09223955 -0.15402147 -0.019298296
000100 81 1f 11 be d4 53 82 3d 59 73 14 bd 92 78 d5 bd
       -0.14172174 0.06363645 -0.036242817 -0.104233876
000110 69 05 5b bd 30 84 33 be b7 a4 87 bc dc 3e 49 be
       -0.053471956 -0.17530894 -0.016558034 -0.19652885
000120 6a bb 94 3d a3 d1 27 be d2 e0 96 bd cb e8 20 be
       0.07262309 -0.16388564 -0.073671 -0.15713803
000130 dd 17 4a be 36 f0 f8 be f6 41 0b bd 93 af 27 be
       -0.19735666 -0.48620766 -0.033998452 -0.1637557
000140 f1 d8 3b bf 7e df 92 be 36 dd 42 3c 52 31 7d bc
       -0.733779 -0.28686136 0.011893561 -0.015453653
000150 b8 ca f6 bd 59 46 4a be 9d 52 3b be 94 3f 53 be
       -0.12050384 -0.19753398 -0.18293233 -0.20629722
000160 67 0a ff 3d 9f a3 85 be fc ee 2b be 45 26 37 3e
       0.12453156 -0.26101395 -0.16790384 0.17885692
000170 f7 26 57 be 80 ed 38 bd ed a5 62 be a3 fe cc bd
       -0.21010958 -0.045148373 -0.22133608 -0.100095056
000180 b9 2f 22 be 62 d1 da bc 24 f2 4c be 6a ed 84 3c
       -0.15838517 -0.02671117 -0.20014244 0.01622649
000190 a6 7b b7 3d 50 64 c5 bd 93 73 a4 3b 9c de 8f bd
       0.08959131 -0.09638274 0.0050186603 -0.07024881
0001a0 61 45 1c be b9 50 00 be 88 2f 26 bd 06 24 27 bd
       -0.15260841 -0.12530793 -0.040572673 -0.04080584
0001b0 1b 9a ac 3d 79 cc 7d 3b 27 5b 8b bd 00 9a 50 bd
       0.08427831 0.0038726612 -0.06804495 -0.050928116
0001c0 cc 13 49 be b0 5d f7 bd 0a f2 f9 3b 0b 0f 6b be
       -0.19636458 -0.12078416 0.0076277303 -0.22954957
0001d0 4c a0 60 be fa b0 de be 94 52 17 3e 40 5e 5d 3e
       -0.21936148 -0.43494397 0.14777595 0.21617985
0001e0 60 4f e5 bd 10 36 9d 3d d2 56 3a bd 13 03 6a bd
       -0.1119678 0.07676327 -0.045492955 -0.057131838
0001f0 86 39 6c be 4a 9d 17 bb 02 3a 3d bd aa 95 bf bd
       -0.23068818 -0.0023134523 -0.0461979 -0.09354718
000200 7c 4f 20 be 10 48 00 be 1a 8d f0 bc c5 5b aa 3d
       -0.15655321 -0.1252749 -0.029364157 0.08318285
000210 91 6f 39 be 9b e6 04 bd 2d 61 9d be 3c 86 9f be
       -0.18108965 -0.032446485 -0.30738202 -0.311571
000220 0d 51 88 bd 39 2e 62 be 4b 45 4b bd 19 dd 15 bd
       -0.06656084 -0.22087945 -0.04962663 -0.03658781
000230 23 2a 74 3d 45 ad 2d be 98 54 a7 3c fe 06 ff 3d
       0.059610497 -0.16960628 0.02042608 0.124525055
000240 85 ce a4 be f0 a9 8d bd 3b 50 2d be c3 c4 0a 3e
       -0.32188812 -0.06917179 -0.16925137 0.13551621
000250 7b 4a 79 bd 16 6a 21 be 76 7e 10 be 3e 92 75 bd
       -0.060862046 -0.15763125 -0.14110741 -0.05995392
000260 85 a8 d8 bd 7e c5 9d be c4 c3 51 3c 2d a0 74 be
       -0.105790175 -0.30814737 0.012803022 -0.23889227
000270 32 18 88 be 31 5e 36 3d 9c 71 7e be 70 41 b8 bd
       -0.2658096 0.04452342 -0.24848026 -0.08996856
000280 83 ef 30 bb 4f cc d1 3b 9e 53 84 be 6b c3 af bc
       -0.002699823 0.0064025293 -0.25845045 -0.021455487
000290 71 5c 01 be 4a 4b fc bd dc bd 0e bd 0d 58 63 be
       -0.1263292 -0.12319048 -0.034849033 -0.22201557
0002a0 2e 81 0f be e4 0d 05 bd ba d4 05 bd b3 01 8a be
       -0.14014122 -0.03248395 -0.032673575 -0.2695442
0002b0 fb 12 88 3d 35 e3 34 be 9f c6 29 3e fe be 06 bf
       0.06644245 -0.17664798 0.16579674 -0.5263518
0002c0 17 0d eb 3d cd a4 f8 bd 67 60 a1 bc 96 e4 c6 bd
       0.11477106 -0.12140808 -0.019699289 -0.09711568
0002d0 58 8e c1 bd a2 38 27 3e 2e d2 1d be 87 e7 8e be
       -0.09450978 0.16330197 -0.15412208 -0.27911016
0002e0 0e d0 9d be 44 66 11 bd f9 65 84 3d ae c5 d5 bd
       -0.30822796 -0.03549792 0.06464762 -0.10438095
0002f0 1f 19 9c 3d e6 39 35 3d 57 61 ec bc eb 47 53 bd
       0.07621979 0.04424467 -0.028855009 -0.05158226
000300 2d 6f 77 3d e3 17 9c bd f2 79 29 be 59 1f ce bd
       0.06040876 -0.076217435 -0.16550425 -0.10064573
000310 0c c8 97 bd 54 0b fb 3d ad 9d 7c be f1 fd 8b be
       -0.07411203 0.1225802 -0.24669524 -0.2734218
000320 44 68 56 bc 4e 89 cc be dd 8e 5a bd 24 7c 0f be
       -0.013086382 -0.39948505 -0.0533589 -0.140122
000330 3e f7 42 be 58 97 51 3e 86 5d f7 3c 4d 0c 02 be
       -0.19039628 0.2046789 0.030195963 -0.12700005
000340 33 6e f8 bd 57 c1 10 bd 07 de 88 bd 07 91 ad bc
       -0.12130394 -0.035340633 -0.06682973 -0.021187318
000350 46 5b a0 be 53 07 05 be e0 6d 78 be 60 f3 ca bc
       -0.31319636 -0.12991075 -0.24260664 -0.024774253
000360 f5 09 8f bd 18 8d 1a bc e1 18 37 be 2e 5f a6 bd
       -0.06984321 -0.009433053 -0.17880584 -0.08123623
000370 03 3b b2 be f3 9f 22 3d 78 5f 90 bd b6 5b 0a be
       -0.34810647 0.03970332 -0.07049459 -0.13511547
000380 9a 9a 12 be 76 6c 56 be ca b3 8b be a9 db 84 bd
       -0.14316788 -0.20939812 -0.27285606 -0.06487209
000390 d0 c8 cb ba 24 65 95 be 5c 6d 13 be 0d 3f 56 be
       -0.0015547518 -0.29178727 -0.14397186 -0.2092249
0003a0 a8 a6 6a be 3c e1 de be 6f 6d 7c bc 30 27 08 be
       -0.22915137 -0.43531215 -0.01540695 -0.13296199
0003b0 d8 99 7f 3d 90 f2 25 be 3e 90 26 be 59 18 4c be
       0.062402576 -0.16205812 -0.16265962 -0.19931163
0003c0 a9 ab b1 bd 16 55 82 bd 99 27 2f be 24 f0 b7 be
       -0.0867532 -0.06363885 -0.17104949 -0.359254
0003d0 f3 ba a2 be 84 f4 ed bc e6 ce 13 bc 67 0a 93 bc
       -0.31783256 -0.029047258 -0.009021496 -0.017949296
0003e0 3b 72 db bc 0e b7 25 be 3d 69 57 3d a5 ff 34 3d
       -0.026787868 -0.16183111 0.052590597 0.044189114
0003f0 bb 1e 23 be ba 14 ae bd 7c 98 5c be 17 68 8a bc
       -0.15929691 -0.08500047 -0.21542543 -0.016895337

value_stream.0.bias f4 [256]
000000 b2 e9 11 be 96 40 3d bd 5f ff 0d 3a 34 6f 0d 3e
       -0.14249304 -0.046204172 0.00054167764 0.13811952
000010 a3 d1 7e bd 08 65 09 3e 0f 20 a8 3d 4f 8c 96 bd
       -0.062211644 0.13417447 0.0820924 -0.073509805
000020 25 e5 2d bd ac 81 15 3e f3 57 9e 3d fe 67 6b bd
       -0.042454857 0.14600247 0.07731619 -0.05747222
000030 75 89 21 3e b9 bd 9c 3e 2f 5c 82 3d 78 10 18 3e
       0.15775092 0.30613497 0.06365239 0.14850032
000040 94 5f 64 3c 90 eb d8 3d 84 99 f2 3d 07 31 5b 3d
       0.013938803 0.10591805 0.11845687 0.053513553
000050 75 d0 c2 3d d1 7e 18 3e 8c ad 6b bd 37 df 28 3c
       0.09512416 0.14892127 -0.057538554 0.010307125
000060 a3 a3 b7 bd ea fd 4b bd 5e ea a8 3d f0 6a 32 bd
       -0.08966758 -0.0498027 0.08247827 -0.043559015
000070 c4 a1 c5 3d 10 38 01 bd b7 34 52 3e 2a fa d2 3d
       0.09649995 -0.031547606 0.20527922 0.10301621
000080 bb 2e d1 3d 58 f2 7f 3c 31 5e a7 3d f1 24 98 3e
       0.10213991 0.015621744 0.081722625 0.29715684
000090 01 7e 61 3c 6c da de bd ab 3a 2f 3d 46 48 ed 3d
       0.013762952 -0.108815044 0.04278056 0.11586051
0000a0 94 4b 57 3e e8 47 8c 3d 76 11 b2 3d 20 64 9d 3d
       0.21024925 0.068496525 0.08694737 0.07685113
0000b0 35 2a ad bd 19 31 10 3e 19 92 8c 3d 30 82 e5 bd
       -0.08455316 0.1408123 0.068638034 -0.11206472
0000c0 e2 f4 ec 3d ea 96 d8 3d f0 e2 fd 3d ec cd 02 3e
       0.11570145 0.105756596 0.123968005 0.12773865
0000d0 e1 9f 50 3d 48 84 dd 3d b0 15 bd bc c2 a1 f2 bb
       0.050933722 0.10816246 -0.02308163 -0.007404537
0000e0 c1 d9 ca bd 99 81 42 bd d6 f5 01 3d bb 94 e6 bd
       -0.099048145 -0.047486875 0.031728588 -0.11258837
0000f0 ee 10 d0 bc af 8f 6d 3d 2a f7 1a be ba a6 d2 3d
       -0.025398698 0.057998355 -0.15133348 0.10285707
000100 e6 9f 51 3e 30 33 23 3e da e1 b8 bd 99 81 a9 bb
       0.20471153 0.15937495 -0.09027453 -0.00517292
000110 61 0f 09 3e 28 8e e9 bc 67 1f e7 3d 75 f2 fc 3c
       0.13384773 -0.028510168 0.112852864 0.030877331
000120 f4 08 38 bd 64 94 55 3d c9 8b f5 3d 12 be 28 bc
       -0.044930413 0.05214347 0.119895525 -0.010299223
000130 de 06 7c bd 87 da 42 be 68 e2 31 3d ac bb 69 3d
       -0.061529987 -0.19028674 0.04342881 0.057063743
000140 6b 40 12 3e 44 8c 94 bd cb 66 b5 bd 85 37 bd 3d
       0.14282386 -0.07253316 -0.08857497 0.09239105
000150 7f 8b f8 bd 22 36 45 3d 34 e3 e1 3d d0 44 a8 bd
       -0.12135982 0.04814733 0.11029664 -0.0821625
000160 ef f4 3e bb 4b 6c fd bd 97 c3 23 be 4c 95 7d bd
       -0.002913769 -0.12374171 -0.1599258 -0.06190996
000170 99 4f a6 3e 38 4c 98 3d 28 55 0d 3e 20 6a c0 bc
       0.32482603 0.074364126 0.13802016 -0.023488104
000180 8b 1f ae bd 23 22 a8 3d 30 09 4a 3d c6 9c 94 3e
       -0.0850211 0.08209636 0.049325168 0.2902586
000190 b7 b5 06 be 33 87 0e 3d 69 4f dd 3d e8 60 d0 bd
       -0.13155256 0.034796905 0.10806162 -0.101747334
0001a0 a8 ce 8e 3e 7d 79 4d be 60 bd 6b bd 5a 60 02 3e
       0.2789204 -0.20065875 -0.05755365 0.12732068
0001b0 0b c9 11 3e ea 3c 3f be b0 a9 f5 3d 53 f9 d8 bd
       0.14236848 -0.1867558 0.11995256 -0.1059443
0001c0 03 12 4b 3d 6d 5f ce 3d 1d a8 ee 3d 3f 77 c8 bd
       0.049577724 0.10076795 0.11653159 -0.097883694
0001d0 93 00 95 3d b3 7b d4 3d 95 db c1 3d f5 52 65 3d
       0.072755 0.10375156 0.0946571 0.055987317
0001e0 51 c8 cd 3d 45 b3 1f 3e 68 44 bb bc f5 e6 04 3e
       0.10047973 0.1559573 -0.022859767 0.12978728
0001f0 94 45 2c be 5b ac 52 3d b9 e8 42 be cf d7 b8 bd
       -0.16823417 0.051433902 -0.19034089 -0.09025537
000200 4c d9 27 3e 77 1d a9 3c d6 51 01 3e 75 92 ed 3d
       0.16391486 0.020643933 0.12628874 0.116002
000210 a3 ec 7c bd 91 eb 65 3d 56 65 70 3e dd 19 e5 3d
       -0.06174911 0.056132857 0.23476157 0.11186574
000220 f8 34 83 3d d3 fa b9 3d 1e a3 9e bd 1b 6d 5c 3e
       0.06406587 0.09081044 -0.07745956 0.21525995
000230 3d a9 20 3e 19 be b4 3d 58 77 59 3e 94 56 09 3e
       0.1568956 0.08825321 0.21236932 0.13411933
000240 9e 92 a3 bd 9c 98 a5 3d a1 22 8d 3e d7 cf 47 3d
       -0.079869494 0.080857486 0.27565482 0.048782196
000250 66 24 a2 3d 78 4d c3 3d a1 a1 08 3e dc e4 6e bd
       0.07917099 0.0953626 0.13342907 -0.058323726
000260 ed c1 71 3d 81 67 da 3d fb d9 59 3e 59 f4 b7 bd
       0.059022833 0.10664273 0.21274559 -0.089821525
000270 04 e0 d2 3d bb ea 89 3d 95 9a 1b 3e b9 52 8c 3d
       0.10296634 0.067342244 0.15195687 0.068517156
000280 ba ad be bd 0d 41 a1 3c 8a fc a3 3d 3e 20 8d 3d
       -0.093104795 0.019684339 0.080071524 0.06890915
000290 41 2c 6c 3a 35 9b d0 bc 85 5f 19 3d e3 bb 0b 3d
       0.000900928 -0.025464633 0.03744461 0.03411473
0002a0 af 01 69 bd 73 90 59 bc 1c 8e 5b be 8c 61 0c 3e
       -0.05688637 -0.013279068 -0.21440929 0.13709086
0002b0 38 d7 eb 3d 5a 62 82 3d 76 db 25 3e 2f 2d 08 3e
       0.11515659 0.06366415 0.16196999 0.13298486
0002c0 f2 89 38 3d e2 b3 1c 3e c7 cc 87 3e c6 24 86 3c
       0.04505343 0.15302995 0.2652342 0.016374957
0002d0 07 21 93 3b a6 a7 94 bd 99 0e 75 3e 1a 49 50 3d
       0.004490021 -0.07258539 0.2393135 0.050850965
0002e0 2f e1 6e 3d 4a ce 6d 3e 05 42 1d be 40 d8 e6 3d
       0.05832022 0.23223224 -0.15357216 0.11271715
0002f0 a6 03 25 3d 15 38 7d 3e 91 ff c9 bc 7f 17 c6 3c
       0.040286683 0.24728425 -0.024657996 0.024181126
000300 c2 77 be bd 98 ce 80 3d c4 01 03 bd 1d 6d b0 bd
       -0.09300186 0.06289405 -0.031984106 -0.08614562
000310 f5 d8 18 3d b2 a0 2d be b9 d0 4b 3e ff fb a6 3d
       0.03731628 -0.16955832 0.1990384 0.08153533
000320 73 98 dd bd fd 1b d8 3d b6 c1 d3 bd 06 83 ef 3d
       -0.10820093 0.10552213 -0.10339682 0.116949126
000330 01 f1 12 be 1d f7 e4 bd 01 04 dc bc 95 5c df 3d
       -0.14349748 -0.111799456 -0.026857378 0.109063305
000340 9c b7 52 3a 82 33 c3 3d 28 03 c9 bd 7a cb db bd
       0.0008038224 0.09531309 -0.09815055 -0.107321694
000350 5c 4a f3 3d 4f ef 59 3d c7 d4 bc 3d 09 fd 32 3c
       0.11879417 0.053206738 0.092202716 0.010924586
000360 53 ab bb 3d 3a 1b 1b bd 49 24 39 3e b4 a6 d2 bd
       0.09163537 -0.037867762 0.18080248 -0.10285702
000370 10 8f e7 3d bf 47 0d bd 4f 60 97 bd 8d 45 0e 3e
       0.11306584 -0.03449225 -0.07391416 0.13893719
000380 90 c1 08 bd fa 2e d6 3d 9e 85 c7 3d 66 63 a1 3c
       -0.03338772 0.10458179 0.09742282 0.019700717
000390 37 10 10 be 04 bc 21 3e 9e 4a 21 3d 9b b0 11 be
       -0.14068685 0.15794379 0.0393778 -0.14227526
0003a0 cb ec f4 3c ff 00 18 3c e2 12 ff 3d 78 46 c5 bd
       0.029898068 0.009277581 0.124547735 -0.096325815
0003b0 4e 8f ed 3d ea 08 24 be 85 2b f8 3d 24 88 ba 3c
       0.11599599 -0.16019025 0.12117676 0.022769995
0003c0 d1 07 78 3e 0b d0 ce 3c 2b 76 02 3e 14 3b b7 bd
       0.24221732 0.025245687 0.1274039 -0.08946815
0003d0 71 54 76 3d 76 86 1e bd 93 e8 30 3e e9 67 25 3d
       0.060139123 -0.03870245 0.1727622 0.0403823
0003e0 a6 7c ad 3d 41 bb bd 3d 72 43 b4 3d 96 e2 23 be
       0.084710404 0.092642315 0.08801927 -0.16004404
0003f0 2a 99 03 3e 47 85 0b bd 31 7e 09 3e a3 11 06 3e
       0.12851396 -0.03406265 0.13427044 0.13092665

value_stream.2.weight f4 [1, 256]
000000 b6 9a 8c 3e d9 38 16 3e 42 1d a9 be 92 0a 51 be
       0.27461785 0.14670123 -0.33030134 -0.20414189
000010 1a e9 a0 3e 49 42 7c be b3 b9 94 be 52 bd 97 3e
       0.31427842 -0.24634661 -0.29047927 0.29636627
000020 21 f1 0a be e6 3c 72 be 4c 21 a4 be fe 2a ac be
       -0.13568546 -0.23656043 -0.32056653 -0.3362655
000030 49 72 98 be 66 ea fd 3e 0e 68 59 3e 2c c6 92 be
       -0.29774693 0.49592894 0.212311 -0.28666818
000040 77 7f 6f be 87 10 65 3e 86 24 9e be eb 33 75 be
       -0.23388468 0.22369586 -0.3088724 -0.23945586
000050 cc 48 73 be 8d 60 8f be 19 2a 7f 3e 73 9a 9d be
       -0.23758239 -0.2800335 0.24918403 -0.30781898
000060 97 3d 5d 3e eb d0 a6 be 94 63 6d be 94 2a 8f 3e
       0.21605526 -0.32581267 -0.23182517 0.27962172
000070 ab 01 55 be 13 6c b3 3e 2a e8 bf be db 2c 8e be
       -0.20801418 0.35043392 -0.37481815 -0.27768597
000080 2e ec 75 be 0a 77 9f 3e e6 38 7a be cd 5a b8 3e
       -0.24015877 0.31145507 -0.24435768 0.36006775
000090 b1 d9 bd be a5 33 93 3e 37 85 9b be 35 68 5d be
       -0.37080148 0.2875034 -0.30375072 -0.21621783
0000a0 b1 16 c6 be 4d 19 a4 be 31 3a 19 3e 0e 74 2b be
       -0.38689187 -0.32050553 0.14963605 -0.1674349
0000b0 09 d5 22 3e be 72 0d 3e cb bd 14 3e 27 f2 93 3e
       0.15901579 0.13813302 0.14525525 0.28895685
0000c0 b4 c5 c7 be b1 35 ba be fc 73 7b 3e ff a3 42 be
       -0.39018023 -0.36369088 0.24555963 -0.19007872
0000d0 d3 2e d0 3e 81 65 87 be 3a 50 57 3e 79 71 94 be
       0.40660724 -0.2644463 0.21026698 -0.28992823
0000e0 bf da 86 3e 3a f4 7b 3e 3c 91 9e be f4 89 80 3e
       0.26338765 0.24604884 -0.3097018 0.2510525
0000f0 dd 95 7b be 7b 47 03 3e 10 b6 a3 3e 22 cd 90 be
       -0.24568887 0.12820236 0.3197484 -0.28281504
000100 54 00 cf be b5 f0 83 be 29 c0 9b 3e d0 6e a0 3e
       -0.40429938 -0.25769582 0.30420044 0.31334543
000110 69 a9 74 be 37 9e a2 3e 67 dd 69 be 66 79 be be
       -0.2389275 0.31761333 -0.22838365 -0.37201995
000120 dc 43 54 3e 96 03 6a be 72 ce 7e be 55 06 69 3e
       0.20729011 -0.2285293 -0.2488344 0.22756322
000130 bb 6b 3f 3e 5c 62 73 3e a5 c8 1b 3e c5 6a 80 3e
       0.1869344 0.2376799 0.15213259 0.2508146
000140 0f 40 47 be 30 e3 b4 3e c6 5f 94 3e 6b 47 2c be
       -0.1945803 0.3532958 0.2897932 -0.16824119
000150 60 e8 91 3e 21 d2 9d be 77 bc 39 be 43 0b 9b 3e
       0.284976 -0.30824378 -0.181383 0.3028203
000160 74 af 4f be 85 80 91 3e cb d4 8f 3e 60 79 a2 3e
       -0.20281774 0.28418365 0.28092036 0.31733227
000170 b8 f5 02 3f e8 ca 7f be 9f f3 9b 3e bf fc 4b 3e
       0.5115619 -0.24979746 0.30459306 0.19920634
000180 c2 d0 c6 3e 12 6c 90 be 7f 43 5e be 87 ba 01 3f
       0.38831145 -0.2820745 -0.21705435 0.50675243
000190 87 ab 85 3e 1d e9 a2 be c3 78 a1 be 11 d2 9c 3e
       0.26107427 -0.31818476 -0.31537446 0.30629018
0001a0 d2 32 c1 be f3 6a 89 3e 5d 0c 65 3e 74 9a 37 be
       -0.37734085 0.26839408 0.22367997 -0.17930013
0001b0 71 c7 30 be 4f 76 7d 3e b4 71 5b be 89 c1 9b 3e
       -0.17263581 0.24752162 -0.21430093 0.30421093
0001c0 40 e9 1a 3e 3d 03 4d be 6d 00 6e be 0c 5b 93 3e
       0.1512804 -0.20020767 -0.2324235 0.287804
0001d0 6b 51 77 be ca f7 98 3e f9 50 33 be 2b 00 8e be
       -0.24152152 0.29876548 -0.17511357 -0.27734503
0001e0 89 06 83 be 7b f1 67 be 28 13 34 3e 26 20 c8 be
       -0.25590923 -0.22650711 0.17585433 -0.39087027
0001f0 76 af 94 3e f5 47 87 be 1f 45 81 3e f7 89 92 3e
       0.29040116 -0.26422086 0.25248048 0.28620884
000200 10 d3 4d be 69 c4 42 be de e0 47 be a6 31 88 be
       -0.20100045 -0.19020237 -0.19519374 -0.2660038
000210 33 20 93 3e c5 75 92 be 0f 81 3d 3e 03 eb b3 be
       0.28735504 -0.28605476 0.18506263 -0.35140237
000220 00 c8 b1 3e 6d 43 bc be bb 0f 92 3e c5 56 59 3e
       0.347229 -0.36770192 0.28527626 0.21224506
000230 a9 30 c5 be 70 94 57 be 59 44 e8 3e 99 40 30 be
       -0.38513687 -0.21052718 0.45364645 -0.17212142
000240 51 af 6d 3e 5b 5c 9b be af da b2 3e 71 3e 56 3e
       0.23211409 -0.303439 0.34932467 0.20922257
000250 32 92 52 be bb c1 2e be c4 5b 41 be 13 d0 96 3e
       -0.20563582 -0.1706609 -0.18882662 0.29455623
000260 88 f1 69 be 25 2e 9c be f7 eb 75 3e 7f e4 08 3e
       -0.22846043 -0.30503955 0.24015795 0.13368414
000270 86 72 a5 be 7a af 84 be 0c 80 44 be 73 54 52 3e
       -0.32313937 -0.25915128 -0.19189471 0.20540027
000280 d4 fc 92 3e 7d a7 95 3e 7b 2f 6c 3e 00 d9 77 be
       0.28708518 0.29229346 0.23064987 -0.24203873
000290 c0 f9 61 3e 71 6d 90 be 89 ed 8f be 8a 44 b2 be
       0.22067928 -0.28208497 -0.28110912 -0.34817916
0002a0 1d 62 67 3e 7f 49 14 3e 0c a0 84 3e be 72 58 be
       0.22596021 0.14481162 0.25903356 -0.2113752
0002b0 8e 68 7f be 96 9c 74 be 08 d6 83 be 95 ee 9e 3e
       -0.24942228 -0.23887858 -0.2574923 0.310414
0002c0 03 6d f3 3d 68 e9 87 be d9 14 b2 be 34 96 d4 3d
       0.11886027 -0.26545262 -0.3478153 0.103802115
0002d0 ee ee 4e 3e 94 84 a1 3e 92 1d c3 be 85 38 54 be
       0.20208332 0.31546462 -0.38108498 -0.20724685
0002e0 9a a7 8f be 6f 32 be be 1f e8 bc 3e 97 b7 83 3e
       -0.28057557 -0.37147853 0.36895844 0.25726005
0002f0 d6 89 a2 be 9a f5 0a 3f d4 e3 8c 3e ed e7 37 3e
       -0.31745785 0.5428101 0.2751757 0.17959566
000300 98 df 9c 3e 21 8f 8b be ae 08 6b be be 04 8c 3e
       0.30639338 -0.27257636 -0.2295253 0.27347368
000310 2c 17 75 3e a7 a0 86 3e 14 1e 91 3e 94 cb 23 3e
       0.2393462 0.26294443 0.2834326 0.15995628
000320 bd a0 a6 3e 23 b1 b2 be de 8b a1 3e a1 9c 3f be
       0.3254451 -0.3490077 0.31552023 -0.18712093
000330 2e 78 8c 3e 70 59 91 3e ba 95 6e 3e 76 48 80 be
       0.2743544 0.28388548 0.23299304 -0.25055283
000340 a6 5a a4 be e0 2d 5b be 54 52 8c 3e bd 8a 9f 3e
       -0.3210041 -0.21404219 0.2740656 0.31160536
000350 1a eb a5 be 37 3a 60 be 3e 37 9d be 8f 21 f4 3d
       -0.3240593 -0.21897207 -0.3070621 0.11920463
000360 50 0f 74 be 6e 0f 91 3e 38 fd da be bc 6f d3 3e
       -0.23833966 0.28332084 -0.42771316 0.41296184
000370 53 50 88 be f7 ad 7e 3e 57 e2 98 3e a6 30 8c be
       -0.26623783 0.2487105 0.29860184 -0.27380866
000380 21 bb 3d 3e 62 ba 43 be e6 0d 89 be ba af 82 3e
       0.18528415 -0.19114068 -0.26768416 0.25524694
000390 d3 96 5e 3e 3a 77 52 be 3e 1d 37 be 71 fd 8b 3e
       0.21737222 -0.20553294 -0.17882249 0.27341798
0003a0 51 56 aa be 45 c4 90 be bc df 92 be 7d 1c 84 3e
       -0.3326898 -0.28274742 -0.2868632 0.25802985
0003b0 3f 73 6f be cb 02 91 3e 5b 08 68 be 5f 56 44 3e
       -0.23383807 0.28322443 -0.22659437 0.19173573
0003c0 98 46 af be b4 43 b0 be f1 ad 3f be af 26 90 3e
       -0.34233546 -0.34426653 -0.18718697 0.28154513
0003d0 08 99 60 be 54 7a 93 3e 3d fd 33 be 28 00 8b be
       -0.21933377 0.28804266 -0.17577071 -0.27148557
0003e0 97 c6 95 be 91 0a 3a be db dc 87 be ac 72 88 3e
       -0.29253075 -0.18168093 -0.26535687 0.26649988
0003f0 2e e9 1f be 71 3c 8a 3e b2 ac 59 be 3d a3 96 be
       -0.15616295 0.26999238 -0.21257284 -0.29421416
