active_slam_rl/training_output_no_slam/20260128_030605/d3qn_ep200.pth (torch, 901794 bytes, 11 tensors)

feature.0.weight f4 [256, 100]
0	0xbcf3caff	-0.029759882
1	0xbdbe0e65	-0.09280089
2	0xbe022e6e	-0.12713024
3	0xbd52d4df	-0.05147254
4	0xbdca4a33	-0.09877434
5	0xbe492a1c	-0.1964497
6	0xbd08da66	-0.033411406
7	0xbe5fc3ca	-0.21852031
8	0xbca52c78	-0.020162806
9	0xbe484fd5	-0.19561704
10	0xbe334f5b	-0.1751074
11	0xbdedea0b	-0.11616906
12	0xbe5754b5	-0.21028407
13	0xbdd9b7b0	-0.10630739
14	0xbdfa0b6d	-0.122092105
15	0xbe4b9f6a	-0.1988503
16	0xbd8c398d	-0.068469144
17	0xbe73f631	-0.23824383
18	0xbe3bca07	-0.18338786
19	0xbdd1969b	-0.10233804
20	0xbdeda14d	-0.11603031
21	0xbe22da95	-0.15903695
22	0xbe6c0ef9	-0.23052587
23	0xbc5fc5ac	-0.0136579685
24	0xbdad4dcb	-0.084621035
25	0xbe3a9857	-0.18222176
26	0xbdba7157	-0.09103649
27	0xbe16315a	-0.14667264
28	0xbe254d96	-0.16142878
29	0xbe1af5fa	-0.15132895
30	0xbe32d581	-0.17464258
31	0xbe17dffa	-0.14831534
32	0xbe3da02b	-0.1851813
33	0xbe0d3a58	-0.13791788
34	0xbd251fd9	-0.040313575
35	0xbddc505d	-0.107575156
36	0xbd6ae264	-0.05734481
37	0xbe77cdc3	-0.24199586
38	0xbdb36c7e	-0.087609276
39	0xbd47483e	-0.04865288
40	0xbe196bae	-0.14982483
41	0xbe7c56c0	-0.24642467
42	0xbd919597	-0.0710861
43	0xbe491e1f	-0.19640397
44	0xbe48c4e2	-0.19606355
45	0xbe299c9e	-0.16563651
46	0xbe7361f7	-0.2376784
47	0xbe49920b	-0.19684617
48	0xbe03609f	-0.12829827
49	0xbe5332f6	-0.20624909
50	0xbda9141d	-0.082557894
51	0xbd16c764	-0.036811247
52	0xbd99a47d	-0.07502077
53	0xbd5b35db	-0.053518157
54	0xbdb35b55	-0.087576546
55	0xbd1431cd	-0.036180306
56	0xbe038c46	-0.12846479
57	0xbe4b9753	-0.19881944
58	0xbe07f93c	-0.13278669
59	0xbd46922b	-0.04847924
60	0x3c06396a	0.0081923995
61	0xbd098c83	-0.033581268
62	0xbdba9675	-0.09110729
63	0xbdc9cdb4	-0.09853688
64	0xbe12a4eb	-0.14320724
65	0xbe38da6f	-0.18052076
66	0xbdb37592	-0.08762659
67	0xbe170535	-0.1474808
68	0xbe0504f6	-0.12990174
69	0x3db75242	0.08951236
70	0x3d0ae8d5	0.033913452
71	0x3cf2a4b8	0.02961956
72	0x3d66fdcd	0.056394387
73	0x3ddd845a	0.1081626
74	0x3ddb4457	0.10706394
75	0xbd28eaf7	-0.041239705
76	0x3dcf8ac2	0.10133888
77	0xbd37555a	-0.044759132
78	0x3e05c56c	0.13063592
79	0x3c3e3c5d	0.011611071
80	0x3dbb13ce	0.09134637
81	0xbcddec46	-0.027090203
82	0x3d3a4b2b	0.045481842
83	0xbc0e7bcb	-0.008696507
84	0x3cd3c402	0.0258503
85	0xbdad0fbb	-0.08450266
86	0xbd607531	-0.054799262
87	0xbd76c9c5	-0.060251016
88	0x3c3f4015	0.011672993
89	0xbbf50a36	-0.007478024
90	0x3d67571f	0.05647957
91	0x3d8f7f3c	0.0700669
92	0x3d981765	0.07426337
93	0x3d516cef	0.051129278
94	0x3da8c91c	0.082414836
95	0x3dab7eb3	0.08373775
96	0x3be69c6c	0.00703769
97	0xbdd3ce7b	-0.103421174
98	0xbd1fef72	-0.039046712
99	0xbdcd007e	-0.100098595
100	0x3e0502fd	0.12989421
101	0x3d244180	0.04010153
102	0x3e38172c	0.1797759
103	0x3e2f53eb	0.17121856
104	0x3dcbf981	0.099596985
105	0x3dd663c8	0.104682505
106	0x3e484657	0.19558083
107	0x3e4904f9	0.19630803
108	0x3db67937	0.08909839
109	0x3dd7c204	0.105350524
110	0x3d0be56e	0.034154348
111	0x3d3ec376	0.046573125
112	0x3d8b86db	0.06812831
113	0xbd1b4bd4	-0.037914112
114	0x3d2a8bbc	0.041637167
115	0xbd9d9de6	-0.07696132
116	0x3d572cb9	0.052532885
117	0x3d61b2d1	0.055102173
118	0x3d093efe	0.03350734
119	0xbcabfde8	-0.020995095
120	0xbc5599c4	-0.013037149
121	0xbd8961b1	-0.06708086
122	0xbe01cb2f	-0.12675165
123	0x3cc16e77	0.023612244
124	0xbdcd5884	-0.10026649
125	0xbd4681a7	-0.04846349
126	0xbe2ceaf1	-0.16886498
127	0xbe3238e8	-0.1740452
128	0xbd86da02	-0.065845504
129	0xbdbb3d29	-0.09142525
130	0xbdc5face	-0.09666978
131	0xbe113216	-0.14179263
132	0xbe18719f	-0.14887093
133	0xbe400a60	-0.18753958
134	0xbe7fc3cf	-0.24977039
135	0xbe57b381	-0.21064569
136	0xbe64c9c7	-0.22342597
137	0xbe73c5c9	-0.23805918
138	0xbe393ecc	-0.18090361
139	0xbecb8cc6	-0.3975584
140	0xbe258ddc	-0.16167396
141	0xbec0d02a	-0.37658817
142	0xbec6abf3	-0.38803062
143	0xbe9234a5	-0.2855579
144	0xbe86bd5b	-0.26316342
145	0xbea1e5d1	-0.31620649
146	0xbf00abb2	-0.50261986
147	0xbe9ecb95	-0.31014696
148	0xbec0661b	-0.375779
149	0xbeb15aa1	-0.34639457
150	0xbe869d82	-0.26292044
151	0xbeadb543	-0.33927354
152	0xbe95dfbd	-0.2927226
153	0xbe729f94	-0.23693687
154	0xbe09e487	-0.13466083
155	0xbdaefd29	-0.0854438
156	0x3d65a1fa	0.056062676
157	0xbda89ccd	-0.082330324
158	0x3e13989a	0.14413682
159	0x3dcb804a	0.099365786
160	0x3d626cf7	0.0552797
161	0x3c3f8d68	0.011691429
162	0x3cd3bfa1	0.025848212
163	0xbd09dfe2	-0.033660777
164	0x3d556fce	0.05210858
165	0x3d8108f8	0.06300539
166	0x3daf0760	0.085463285
167	0x3db5e6b5	0.088818945
168	0x3d6a3550	0.05717975
169	0x3c992ca4	0.018698044
170	0x3e163df7	0.14672075
171	0xbced3824	-0.028957434
172	0x3cd5037e	0.026002642
173	0x3d0c348f	0.03422981
174	0x3ca10029	0.019653397
175	0x3c2e4c0a	0.010638246
176	0x3d6c4d62	0.057690986
177	0xbdcda234	-0.100407034
178	0xbdb8b2ef	-0.09018504
179	0xbd2dd3a9	-0.042438183
180	0xbd94ae08	-0.07259756
181	0xbd193edd	-0.037413467
182	0xbde7b8bd	-0.11314533
183	0x3d2d12ec	0.042254373
184	0xbd67e258	-0.056612343
185	0x3cfde7d4	0.030994333
186	0x3cc04f21	0.023475232
187	0xbd7dcb5c	-0.061961517
188	0xbdde0c98	-0.10842246
189	0xbcb6f7b3	-0.022334909
190	0x3d23c958	0.03998694
191	0xbd17fab4	-0.037104324
192	0xbdbb4cde	-0.09145521
193	0x3d0250ec	0.031815454
194	0xbdd12220	-0.10211587
195	0x3d2e08e0	0.042488933
196	0xbdaa0baa	-0.08303006
197	0xbdaa25c4	-0.083079845
198	0xbb9c836f	-0.0047764103
199	0xbe3997c2	-0.18124297
200	0xbe3cdc5e	-0.18443438
201	0xbe55b39d	-0.20869298
202	0xbe8efb50	-0.2792611
203	0xbe89d466	-0.2691986
204	0xbebe3639	-0.37150744
205	0xbea4e177	-0.32203266
206	0xbe97c6a7	-0.29643747
207	0xbeb92dc6	-0.36167735
208	0xbeade861	-0.33966354
209	0xbea246ed	-0.31694737
210	0xbe670276	-0.22559533
211	0xbe575bd6	-0.21031126
212	0xbec3a5be	-0.3821239
213	0xbe8dc1d1	-0.27686933
214	0xbe8d158b	-0.27555498
215	0xbec44e51	-0.38341
216	0xbeb6bdc6	-0.3569166
217	0xbec5771f	-0.38567445
218	0xbec47056	-0.38366956
219	0xbeb24de5	-0.34825054
220	0xbee6814a	-0.45020515
221	0x3ee96132	0.45581967
222	0x3e486dc9	0.1957313
223	0x3e3386c9	0.17531885
224	0x3dde4a58	0.10854024
225	0x3e00ac29	0.12565674
226	0x3c0b3d35	0.00849848
227	0x3e717019	0.23577918
228	0x3e4874a1	0.1957574
229	0x3df39c9a	0.11895104
230	0xb78ddfe2	-1.6912763e-05
231	0x3d84bb26	0.06481008
232	0xbbaf2b90	-0.005345769
233	0x3e0b0b80	0.13578606
234	0xbd669dd0	-0.056302845
235	0x3dae6c7b	0.08516785
236	0x3d1df032	0.038559146
237	0xbda6f13e	-0.08151482
238	0x3d229046	0.03968837
239	0x3c84f03d	0.016227836
240	0xbd703002	-0.058639534
241	0xbe3313e3	-0.17488055
242	0xbd9708bc	-0.07374713
243	0xbe3f2050	-0.1866467
244	0xbd9919a2	-0.07475592
245	0xbd7dab39	-0.06193087
246	0xbb0cf91f	-0.0021510792
247	0x3d179fac	0.03701751
248	0xbde4dd1b	-0.11174985
249	0xbdf238f0	-0.11827266
250	0xbe01d7cd	-0.12679978
251	0xbca4948a	-0.02009036
252	0xbd3c0e1a	-0.045911886
253	0xbc84d07f	-0.0162127
254	0xbd429f91	-0.047515456
255	0xbd7900ed	-0.0607919

feature.0.bias f4 [256]
0	0xbd8da15e	-0.06915544
1	0xbd813393	-0.06308665
2	0x3d804097	0.062623195
3	0x3daa097d	0.08302591
4	0x3e92a7c7	0.2864363
5	0x3e84af49	0.25914982
6	0xbd618ad4	-0.055064037
7	0xbe2cf7b8	-0.16891372
8	0xbd833fa3	-0.06408622
9	0x3e8381b2	0.25684887
10	0xbe83f09b	-0.25769505
11	0x3e47142e	0.19441292
12	0xbd0c09ab	-0.034188908
13	0x3e835747	0.25652525
14	0x3e4f74ef	0.2025945
15	0x3c8bfab3	0.017087316
16	0xbd231d94	-0.03982313
17	0x3e861f49	0.26195744
18	0x3dad5b6e	0.084647045
19	0xbe490cef	-0.1963384
20	0xbd9bbd40	-0.07604456
21	0x3eb01877	0.34393665
22	0xbc9b6aad	-0.018971765
23	0x3cc60eb0	0.024176925
24	0x3e765fa8	0.24059927
25	0x3cde76d1	0.027156265
26	0xbd53efc1	-0.05174232
27	0x3cd2be5c	0.025725536
28	0x3efb1737	0.4904115
29	0x3e058840	0.13040257
30	0x3be78093	0.007064888
31	0x3e9c4f7e	0.30529398
32	0x3e3b6ba3	0.18302779
33	0xba48e84b	-0.0007664009
34	0x3e8b41cb	0.27198634
35	0x3d32bbc7	0.04363611
36	0xbd1324aa	-0.035923637
37	0xbda8f746	-0.08250289
38	0xbd67935e	-0.056537025
39	0x3ca47fdc	0.0200805
40	0x3e791b82	0.243269
41	0xbc860196	-0.016358178
42	0x3e89edce	0.26939243
43	0x3e1be2b8	0.15223205
44	0x3d677766	0.05651035
45	0x3e0951aa	0.13410059
46	0x3df6ec9b	0.12056848
47	0xbe08dd2b	-0.13365619
48	0xbdfb6226	-0.1227458
49	0x3e22de55	0.15905125
50	0xbe4123d4	-0.18861324
51	0x3e6d6b4a	0.23185459
52	0x3de16548	0.11005646
53	0xbe635881	-0.2220173
54	0xbda23231	-0.079197295
55	0x3e98ce9e	0.29845136
56	0x3d1179cb	0.03551654
57	0x3caed0b5	0.021339754
58	0xbd2e04e6	-0.04248514
59	0xbd2ceeb0	-0.042219818
60	0x3e824c1c	0.25448692
61	0xbe2b3c84	-0.16722304
62	0x3e87cb2d	0.26522198
63	0x3e34d3f4	0.17658979
64	0x3e2b2c87	0.16716205
65	0x3cff6af9	0.031178938
66	0xbd035c28	-0.03207031
67	0x3ea8a3bc	0.3293742
68	0x3e52f98d	0.20603009
69	0xbdd4479c	-0.10365221
70	0x3e6b0a12	0.2295306
71	0x3dd650d3	0.10464635
72	0xbb8cd9c4	-0.0042984206
73	0x3dc82b8e	0.097739324
74	0x3e5ffd73	0.21874027
75	0x3e07a9ab	0.13248317
76	0xbe756ddb	-0.23967688
77	0x3e5f4d81	0.21806909
78	0xbcc67d8b	-0.024229785
79	0x3db9792a	0.09056313
80	0x3e7377a9	0.23776115
81	0x3de53af9	0.11192889
82	0x3c6bbd21	0.014388354
83	0x3cc90b8b	0.024541637
84	0x3e978ce0	0.29599667
85	0x3d6f32f7	0.058398213
86	0x3e4350a2	0.19073728
87	0xbe90a970	-0.2825427
88	0x3e88ee64	0.26744378
89	0x3eab3388	0.33437753
90	0xbe46fdba	-0.19432727
91	0x3daf50e0	0.085603476
92	0x3e7b8b5f	0.24564885
93	0xbe931811	-0.287293
94	0xbe089a96	-0.1334022
95	0x3e421e05	0.18956764
96	0xbd651e9d	-0.0559374
97	0xbd42e5e6	-0.04758253
98	0x3eb760aa	0.35815936
99	0xbe2e72c4	-0.17035967
100	0x3e7f0dd6	0.24907622
101	0xbe83627d	-0.25661078
102	0xbe698bad	-0.22807188
103	0x3ebe3e3f	0.37156865
104	0x3e87cc28	0.26522946
105	0x3bd4a090	0.006488867
106	0xbe8d6ed4	-0.27623618
107	0x3e8f6d40	0.2801304
108	0xbdc05fd7	-0.0939328
109	0x3e5a7760	0.213346
110	0x3daf7a99	0.085683055
111	0xbd9b2e18	-0.07577151
112	0x3e09ff8c	0.1347639
113	0xbd27a64f	-0.04093009
114	0x3e166301	0.14686204
115	0xbeaa6952	-0.33283478
116	0x3d388968	0.045052916
117	0x3e8fd6f2	0.28093678
118	0x3e8e0a45	0.2774221
119	0x3e3fbe2e	0.18724892
120	0x3d59261f	0.05301487
121	0x3e902c00	0.2815857
122	0x3e84742d	0.25869885
123	0x3dfa4a51	0.12221206
124	0xbdc0b51e	-0.09409545
125	0x3e3c041d	0.18360944
126	0x3aa5a55e	0.0012637784
127	0x3e0cd7e9	0.13754238
128	0x3e46d0b4	0.19415551
129	0xbabfa126	-0.001462017
130	0x3d303415	0.04301842
131	0x3dbb6c75	0.09151546
132	0xbe9ac8aa	-0.3023122
133	0x3e9ab653	0.30217227
134	0x3c570242	0.013123097
135	0x3e84154c	0.25797498
136	0x3e41fc7a	0.18943968
137	0x3e848976	0.25886124
138	0xbd8068a1	-0.062699564
139	0xbc7e0183	-0.01550329
140	0xbe73d5c9	-0.23812021
141	0xbe55bd7b	-0.20873062
142	0xbe2b4dfb	-0.16728966
143	0x3e0ae1ce	0.135627
144	0x3e411ced	0.1885869
145	0x3ec3d815	0.38250795
146	0xbe85a247	-0.2610037
147	0x3e88913f	0.26673314
148	0xbdfd9cb1	-0.12383402
149	0xbe4706f1	-0.19436242
150	0x3d5d46a8	0.05402246
151	0x3da8cafd	0.08241842
152	0x3c58dc35	0.013236095
153	0xbe3dec0f	-0.1854708
154	0x3dcbe393	0.09955516
155	0x3e90d01e	0.2828378
156	0x3e082279	0.132944
157	0x3d610f19	0.05494604
158	0x3dd2a5dd	0.10285542
159	0xbd9f3f4d	-0.077757455
160	0x3d0a959f	0.033834096
161	0xbe29f018	-0.16595495
162	0xbd5c2b74	-0.053752378
163	0xbdb2170a	-0.086958006
164	0x3d997ea1	0.07494856
165	0x3e8f1541	0.27945903
166	0x3c96fca0	0.018431008
167	0x3e92e211	0.286881
168	0xbe722e37	-0.23650442
169	0xbd89f137	-0.06735461
170	0xbdd62bed	-0.10457597
171	0x3e7a22d9	0.24427356
172	0xbe843bee	-0.25826973
173	0x3d8c8fce	0.06863366
174	0x3e30a9f6	0.17252335
175	0x3db2f1e2	0.08737542
176	0x3e82a204	0.25514233
177	0xbe1b86cd	-0.15188141
178	0x3d571074	0.052505925
179	0xbe50a849	-0.20376696
180	0xbd7a0bbb	-0.061046343
181	0xbc9e64cb	-0.019335171
182	0xbe6dde7d	-0.23229404
183	0x3ea6f8db	0.32611737
184	0xbd68724a	-0.05674962
185	0xbda300a5	-0.07959107
186	0x3ea4f5c8	0.32218766
187	0x3d92cc44	0.07167867
188	0x3ea8dda2	0.32981592
189	0x3e946d11	0.2898946
190	0xbe239bc5	-0.1597739
191	0xbe13c4b9	-0.14430512
192	0x3e845a9f	0.25850388
193	0xbe0e195e	-0.13876864
194	0x3d202ca3	0.03910507
195	0xbd20c577	-0.039250817
196	0xbe141dfc	-0.14464563
197	0x3e7d7d61	0.2475486
198	0xbd676b2a	-0.056498684
199	0x3d246b82	0.04014159
200	0xbd1abc6e	-0.037777357
201	0x3e970828	0.2949841
202	0x3e200084	0.15625197
203	0x3e53b3e6	0.20674095
204	0xbe8837d9	-0.26605108
205	0x3d74731d	0.059680093
206	0xbd98fb0c	-0.074697584
207	0x3cb6d2f7	0.022317393
208	0x3e6f059c	0.23341984
209	0x3e68338a	0.2267591
210	0xbc2b7680	-0.010465264
211	0xbd34b520	-0.044118047
212	0x3d941a85	0.07231621
213	0x3e0d56e4	0.13802677
214	0xbe9fb06c	-0.31189287
215	0xbe20e032	-0.15710524
216	0xbe084f68	-0.13311541
217	0x3e8211a9	0.254041
218	0xbb06848a	-0.0020525777
219	0xbe827df7	-0.2548673
220	0xbdab6b16	-0.083700344
221	0xbe0c0a2f	-0.1367576
222	0xbe02fb8b	-0.12791269
223	0xbdb72eed	-0.08944497
224	0xbd9da154	-0.076967865
225	0xbe6d70ca	-0.23187557
226	0x3db19420	0.08670831
227	0xbbc7cac3	-0.006097169
228	0x3cc5efbf	0.024162171
229	0x3e31eff9	0.17376699
230	0x3d521a44	0.05129458
231	0x3d46d8cc	0.048546597
232	0xbb507751	-0.00318094
233	0x3dbe23c0	0.092841625
234	0x3e9db513	0.3080221
235	0x3cac0e5c	0.02100294
236	0xbe432bc1	-0.1905966
237	0xbdbb8708	-0.091566145
238	0x3e936639	0.28788927
239	0x3e80145f	0.25015542
240	0xbd7cf1d7	-0.061754074
241	0xbe364e4d	-0.17803307
242	0x3eabc989	0.33552197
243	0x3e0f96d3	0.14022379
244	0x3df78a35	0.12086908
245	0x3dcaec07	0.099083
246	0x3e861835	0.26190343
247	0x3e3a5a02	0.18198398
248	0xbd442360	-0.0478853
249	0x3e82e120	0.25562382
250	0xbe8d5a6b	-0.27608046
251	0xbd28ab22	-0.04117883
252	0x3da1e084	0.07904151
253	0xbc06eac0	-0.00823468
254	0xbbffd525	-0.007807391
255	0xbc9c025f	-0.0190441

feature.2.weight f4 [256, 256]
0	0x3ea4b708	0.32170892
1	0x3eaf5061	0.34241012
2	0x3c82038a	0.015870828
3	0x3d41e2a2	0.047335275
4	0x3e61551b	0.22005121
5	0x3d8e55cc	0.06949958
6	0xbc96bbe3	-0.018400138
7	0x3d379586	0.04482033
8	0x3dd9c7c9	0.10633809
9	0xbce5ca5a	-0.02805059
10	0xbca7bf7e	-0.020477053
11	0xbe6c86d5	-0.2309831
12	0xbea908cb	-0.3301452
13	0xbd43df00	-0.04782009
14	0xbd3d7a4a	-0.046259202
15	0xbccb0a39	-0.024785148
16	0x3efbf711	0.49211934
17	0x3e00b596	0.1256927
18	0x3ec14b28	0.37752652
19	0x3ce8b372	0.028405879
20	0x3e4e8514	0.20167953
21	0xbe483808	-0.19552624
22	0x3c8ba528	0.017046526
23	0xbd7b912a	-0.061417736
24	0xbddf5f93	-0.10906901
25	0x3dedd35c	0.11612579
26	0x3c25994e	0.0101073515
27	0xbd97721a	-0.0739481
28	0xbd918609	-0.07105643
29	0xbe91dadd	-0.28487292
30	0xbefd3768	-0.49456334
31	0xbe49c455	-0.19703801
32	0xbe068aa7	-0.13138829
33	0x3d3499cb	0.04409198
34	0xbcb7d42f	-0.022440044
35	0xbd0af242	-0.03392244
36	0xbca7df9a	-0.020492364
37	0xbe39dee1	-0.18151428
38	0xbe6f4124	-0.23364693
39	0x3e63a721	0.22231723
40	0xbde1e97c	-0.11030862
41	0x3efa6776	0.4890706
42	0xbe2caf50	-0.16863751
43	0x3cc7c986	0.024388086
44	0xbd1c01a4	-0.038087502
45	0x3e2fcf9d	0.17169042
46	0xbe0bb9e1	-0.13645126
47	0x3bb0bf68	0.005393911
48	0x3e931431	0.28726342
49	0xbd8e1069	-0.06936724
50	0x3c86f6dc	0.016475134
51	0x3d871189	0.065951414
52	0xbd438f4e	-0.047744088
53	0x3e2f3683	0.17110638
54	0x3e373542	0.1789141
55	0x3c2d0531	0.01056032
56	0x3db1abe0	0.08675361
57	0xbdd981c4	-0.10620454
58	0xbe412c3a	-0.18864527
59	0xbe7ea7f5	-0.24868758
60	0xbe489ae5	-0.19590338
61	0x3cb2191c	0.021740489
62	0x3dd04614	0.10169616
63	0xbdca58e7	-0.09880238
64	0xbd528081	-0.051392082
65	0x3cbd6064	0.023117252
66	0xbe0d7947	-0.13815795
67	0x3da587f2	0.0808257
68	0xbe9e2662	-0.3088866
69	0x3ede2c73	0.43393287
70	0xbe28fb37	-0.16502081
71	0xbdd93119	-0.10605068
72	0x3db65832	0.08903541
73	0xbdcb2b7b	-0.099204026
74	0xbda60ff3	-0.08108511
75	0xbeaac5db	-0.33354077
76	0x3c2566a0	0.0100952685
77	0xbdcba832	-0.0994419
78	0x3cfccbe6	0.030858945
79	0xbe710045	-0.23535259
80	0xbe9fda79	-0.3122137
81	0x3ede9113	0.43470058
82	0xbd65fff8	-0.056152314
83	0xbde251b1	-0.11050738
84	0x3def57e8	0.11686689
85	0xb8ab8412	-8.1785154e-05
86	0x3d9e315a	0.07724257
87	0xbb531b4e	-0.003221232
88	0xbd2fe218	-0.04294023
89	0x3dfed0ae	0.12442146
90	0xbcced5b4	-0.025248386
91	0xbd00da09	-0.031457935
92	0x3e103e42	0.1408625
93	0xbe9b75ef	-0.30363414
94	0x3c940ccb	0.018072506
95	0x3d055806	0.03255465
96	0xbcc4456a	-0.02395888
97	0x3c862df4	0.016379334
98	0x3dc6af0a	0.09701355
99	0x3cd20eb5	0.025641778
100	0xbd92187c	-0.07133576
101	0xbca91e00	-0.020644188
102	0xbb23d298	-0.002499735
103	0xbe902c09	-0.28158596
104	0xbd8c0624	-0.06837109
105	0x3e49340a	0.19648758
106	0x3d1f1c3f	0.038845297
107	0x3d666454	0.056248024
108	0x3d332d9f	0.04374468
109	0xbe918f94	-0.28429854
110	0x3d93557d	0.0719404
111	0x3c4a8832	0.012361573
112	0xbdaa35c6	-0.08311038
113	0xbcfc7f0b	-0.030822298
114	0x3c8fe667	0.01756592
115	0xbe0be0b4	-0.13659936
116	0x3c771a5f	0.015081971
117	0x3d80e9ae	0.06294571
118	0x3cc7a322	0.02436978
119	0xbe7c02ed	-0.24610491
120	0xbe07d4a4	-0.1326471
121	0xbc2b7fd4	-0.010467488
122	0x3cc177c9	0.023616688
123	0xbd22a7c4	-0.039710775
124	0x3e333379	0.17500104
125	0xbeb27c9d	-0.34860697
126	0x3cc9eddc	0.024649553
127	0xbdad5fff	-0.084655754
128	0x3e3ad132	0.18243864
129	0x3e268e38	0.1626519
130	0xbe55ebb9	-0.20890702
131	0xbba0296e	-0.0048877513
132	0xbb35a4d5	-0.0027716656
133	0x3d238ff2	0.0399322
134	0xbd35e092	-0.04440362
135	0xbdfae91e	-0.12251495
136	0xbc4f4135	-0.012649824
137	0xbd8b6006	-0.068054244
138	0xbd818f58	-0.06326169
139	0xbd6e7586	-0.058217548
140	0xbd2f1cf5	-0.042752225
141	0x3d91c24a	0.07117136
142	0x3d2d0427	0.042240288
143	0x3db42155	0.0879542
144	0x3e0c5d98	0.13707578
145	0x3d136efd	0.03599452
146	0x3d628115	0.055298883
147	0x3dd3cfb2	0.10342349
148	0x3de78554	0.11304727
149	0xbd09ecd3	-0.03367312
150	0xbea8f2ae	-0.3299765
151	0x3c46e03c	0.012138423
152	0x3e395059	0.18097056
153	0x3d2285e9	0.039678488
154	0x3bbd9113	0.0057851165
155	0xbe3c0c4a	-0.18364063
156	0xbe5b7516	-0.21431383
157	0x3d34baf7	0.044123616
158	0xbe4737e2	-0.19454911
159	0xbd65c94f	-0.056100186
160	0xbd44ccb7	-0.048046794
161	0xbdff5cfd	-0.12468908
162	0x3e38b3a3	0.18037276
163	0x3e1204ec	0.1425969
164	0xbe465816	-0.1936954
165	0xbe407db2	-0.18797949
166	0xbe8ce18f	-0.27515838
167	0xbd28a3b5	-0.04117175
168	0x3cd6a6f2	0.026202653
169	0x3e2c8ec9	0.16851343
170	0x3e05c4ab	0.13063304
171	0xbe9cad9e	-0.3060121
172	0xbee64684	-0.44975674
173	0xbe455110	-0.19269204
174	0xbddcd58f	-0.107829206
175	0x3e856cc5	0.26059547
176	0x3e30c611	0.17263056
177	0x3d500d39	0.05079386
178	0xbe407388	-0.18794072
179	0x3d7b5f99	0.061370466
180	0xbebc4b08	-0.36775994
181	0x3f02a9b8	0.5104022
182	0x3d2531bc	0.040330634
183	0xbd6e174a	-0.05812768
184	0x3d970bf7	0.07375329
185	0xba90c9ad	-0.0011046432
186	0xbdc08aec	-0.09401497
187	0x3d6fefe2	0.05857838
188	0xbe3c0174	-0.1835993
189	0x3d549a32	0.051904865
190	0xbec1dce8	-0.3786385
191	0x3cc11081	0.02356744
192	0xbe872247	-0.2639334
193	0x3d33836a	0.043826498
194	0xbe45836d	-0.19288416
195	0x3f04f32c	0.5193355
196	0x3cd902ac	0.026490532
197	0xbd2c70a4	-0.04209961
198	0x3e672a76	0.22574791
199	0x3c902f93	0.01760081
200	0xba991c45	-0.0011681399
201	0xbdf11321	-0.11771227
202	0xbde0aa46	-0.10969977
203	0x3d8698eb	0.065721355
204	0x3d67d511	0.05659968
205	0x3e87243e	0.26394838
206	0xbb9632de	-0.0045837006
207	0xbe440746	-0.191434
208	0x3d5e9f4b	0.054351132
209	0xbe45e5ab	-0.19325893
210	0x3db0f8b5	0.08641187
211	0x3ce78656	0.028262299
212	0xbdbf46c2	-0.09339668
213	0x3de5d71f	0.11222672
214	0x3d68db1b	0.05684958
215	0xbe962b00	-0.2932968
216	0x3df5bdb3	0.11999073
217	0xbd2c821e	-0.042116277
218	0x3d9a627f	0.07538318
219	0xbc009f14	-0.007850427
220	0xbe631ddd	-0.2217936
221	0x3b8a3895	0.004218171
222	0x3e0f2d78	0.13982189
223	0x3e7afd55	0.24510701
224	0x3c358cf0	0.011080965
225	0xbe9a7a96	-0.3017165
226	0x3d8ed844	0.06974843
227	0x3eb9b202	0.36268622
228	0x3d53c303	0.05169965
229	0xbe9913b5	-0.29897848
230	0xbeb6d510	-0.3570943
231	0x3ead9bf9	0.3390806
232	0x3e47478c	0.19460887
233	0xbd17ab17	-0.0370284
234	0x3d980a32	0.074238196
235	0xbdcfd958	-0.10148877
236	0x3df7bda1	0.12096716
237	0x3cd92233	0.026505565
238	0xbd15ea93	-0.03660066
239	0xbe17a39c	-0.14808506
240	0x3e9d9bd1	0.3078294
241	0x3d5ee6bb	0.05441926
242	0xbe0bca91	-0.13651492
243	0xbdefd50f	-0.117105596
244	0xbe46b045	-0.19403179
245	0x3d456be8	0.04819861
246	0xbe9720f3	-0.29517326
247	0xbd0a2302	-0.033724792
248	0x3e025d59	0.12730922
249	0x3e2feb9f	0.17179726
250	0xbdc25baf	-0.094901435
251	0xbd5bf456	-0.053699814
252	0xbac65906	-0.0015132732
253	0x3e369c41	0.17833044
254	0x3dd7ee37	0.10543483
255	0x3e8d90c9	0.27649525

feature.2.bias f4 [256]
0	0xbd21f162	-0.03953684
1	0x3d3cb395	0.0460697
2	0xbdba0253	-0.090824746
3	0xbe059a52	-0.1304715
4	0xbc40b399	-0.011761569
5	0x3e21694f	0.15762828
6	0x3e3a91ba	0.18219653
7	0xbe13398d	-0.14377423
8	0x3e835aab	0.25655112
9	0xbb5c94d9	-0.0033658056
10	0x3e003ce2	0.12523225
11	0x3e49a87f	0.19693182
12	0x3c9168dd	0.017750198
13	0x3e179bb6	0.14805493
14	0x3e552935	0.208165
15	0x3db6d684	0.08927634
16	0xbc3dbd29	-0.011580744
17	0x3e5a9fd8	0.21350038
18	0x3e972b0b	0.29525027
19	0x3e07225c	0.13196701
20	0xbc982fc7	-0.01857747
21	0x3e076a1f	0.13224076
22	0xbdd80bb0	-0.10549104
23	0x3d497f61	0.049193744
24	0xbd3ea29e	-0.046541803
25	0x3d8e3deb	0.06945404
26	0x3dcb1f80	0.099181175
27	0xbbf538f7	-0.0074835974
28	0x3e1dbb29	0.15403427
29	0xbc22bbce	-0.009932471
30	0x3dbcd7ad	0.092208244
31	0x3dfa0559	0.12208051
32	0x3db32f1b	0.08749219
33	0x3e194ffb	0.14971916
34	0x3dccd05c	0.10000679
35	0x3d1dc324	0.03851618
36	0x3bca3fb1	0.0061721434
37	0x3e642169	0.2227837
38	0x3dd1f870	0.10252464
39	0x3da812f7	0.08206742
40	0xbe0e7a4b	-0.13913839
41	0xbccb3982	-0.024807695
42	0x3bc9ab70	0.00615447
43	0xbe12e6f9	-0.14345922
44	0x3e21cf7e	0.15801808
45	0x3eb820c8	0.3596251
46	0xbe0196b9	-0.12655152
47	0x3dc2b7d7	0.09507721
48	0x3e842d37	0.25815746
49	0x3dc45813	0.09587111
50	0xbe117949	-0.14206423
51	0x3e0b0776	0.13577065
52	0x3d8ef66b	0.06980594
53	0x3dbc1c66	0.09185104
54	0xbe224e4d	-0.15850182
55	0xbc3b66cb	-0.011438082
56	0xbdc05071	-0.09390343
57	0xbdb073d7	-0.08615845
58	0x3e443647	0.1916133
59	0x3bb49b45	0.0055116736
60	0x3d2e4516	0.042546354
61	0x3d3af31e	0.04564201
62	0x3dbed92d	0.09318767
63	0x3d9f35b2	0.077739134
64	0x3e2f7a28	0.17136443
65	0x3cc10803	0.02356339
66	0x3e2a1a11	0.16611506
67	0x3db77d4b	0.089594446
68	0x3d90da06	0.07072835
69	0xbcafd067	-0.021461679
70	0x3d4841db	0.04889093
71	0xbd9f1c4a	-0.077690676
72	0x3e0e3179	0.1388606
73	0x3def902d	0.11697421
74	0x3e6e3be1	0.2326503
75	0xbd8f30f3	-0.06991758
76	0x3c840b29	0.016118603
77	0x3df7bb5c	0.12096283
78	0x3e0b437a	0.13599959
79	0x3e537e20	0.20653582
80	0xbc53a869	-0.01291857
81	0x3d94e566	0.07270317
82	0x3e2265ef	0.15859197
83	0x3ce60db8	0.028082713
84	0xbe3d045a	-0.18458691
85	0xbc68babe	-0.014204679
86	0x3dc36585	0.09540848
87	0xbd3d026f	-0.0461449
88	0x3d810421	0.06299616
89	0xbd0dc920	-0.034615636
90	0x3dddbe5e	0.10827325
91	0x3eb4bd74	0.3530079
92	0xbd0f3460	-0.034962058
93	0x3d2b2fdb	0.041793685
94	0xbd077483	-0.0330701
95	0x3e01b4cd	0.12666626
96	0xbde61fec	-0.11236557
97	0xbd1719c4	-0.036889806
98	0xbe003df4	-0.12523633
99	0x3d757a90	0.059931338
100	0xbccd73cb	-0.025079628
101	0x3daa88ec	0.08326897
102	0x3ec75577	0.38932392
103	0xbd4ed8d2	-0.050499745
104	0x3b096e1e	0.0020970176
105	0xbd156333	-0.036471557
106	0x3dba8706	0.09107785
107	0x3d72fe46	0.059324525
108	0x3e07f3a0	0.1327653
109	0x3e997242	0.29969984
110	0x3e0592ef	0.13044332
111	0x3de36ef1	0.11105145
112	0xbd4413f1	-0.04787058
113	0x3e2c9f76	0.16857705
114	0x3d8ad491	0.06778825
115	0x3e066394	0.13123924
116	0xbd8b7ed5	-0.06811301
117	0xbcaeabbc	-0.021322124
118	0x3e923b68	0.28560948
119	0x3e8c97f9	0.27459696
120	0x3e2373cf	0.15962146
121	0x3dd2c62b	0.10291704
122	0xbd2e1909	-0.042504344
123	0x3e176580	0.14784813
124	0x3df17d94	0.1179153
125	0x3d8dcb1e	0.06923507
126	0x3ddde07f	0.10833835
127	0xbdd2b50c	-0.10288438
128	0x3c41f50f	0.011838212
129	0x3e482333	0.19544677
130	0xbcc7045b	-0.024294069
131	0x3e9f8912	0.31159264
132	0xbd1236d3	-0.035696816
133	0x3d80497b	0.06264015
134	0xbe12f067	-0.14349519
135	0x3e427f3b	0.18993847
136	0x3d9468be	0.072465405
137	0x3cee7f56	0.029113453
138	0xbd0211c8	-0.03175524
139	0x3d9d266f	0.07673346
140	0x3da069c8	0.07832676
141	0xbdd9b06c	-0.10629353
142	0x3dbda8fe	0.09260748
143	0x3e843075	0.2581822
144	0xbe2ed543	-0.1707354
145	0x3dfcbcd4	0.123407036
146	0x3e15412e	0.14575645
147	0x3e6dbc7e	0.23216435
148	0x3d9efacb	0.07762679
149	0x3e3f4acb	0.18680875
150	0x3e4577b3	0.19283943
151	0xbe056970	-0.13028502
152	0xbe2450c8	-0.1604644
153	0x3e36bf3f	0.17846392
154	0x3c096600	0.008386135
155	0x3d14cdef	0.036329206
156	0x3cfd9fd4	0.030960001
157	0x3e884eb9	0.2662256
158	0xbcfbe51f	-0.030748902
159	0x3dfc16b5	0.123090185
160	0xbafe6990	-0.0019410122
161	0x3d4ffcdc	0.050778255
162	0x3da0899b	0.07838746
163	0x3de7a2ae	0.113103256
164	0x3dade80d	0.08491526
165	0x3d8c4bba	0.06850381
166	0x3e0c8a54	0.13724643
167	0xbe069e87	-0.13146411
168	0x3e17054d	0.14748116
169	0xbe0283c6	-0.1274558
170	0x3da292a9	0.079381295
171	0xbd5a521b	-0.053300958
172	0x3d0b9691	0.03407914
173	0xbe13c2d7	-0.14429794
174	0x3e94ff25	0.2910091
175	0xbd91b140	-0.07113886
176	0x3eabc17c	0.33546054
177	0xbd838fe4	-0.06423929
178	0x3e0ddeac	0.13854474
179	0xbd385631	-0.045004074
180	0x3da2f982	0.07957746
181	0x3e828770	0.25493956
182	0xbd436cba	-0.04771111
183	0x3e93ea22	0.28889567
184	0x3ddc58fb	0.10759159
185	0x3d606151	0.05478031
186	0x3de40047	0.111328654
187	0x3e15b22c	0.14618748
188	0x3ebfc669	0.37456062
189	0x3e9e5f56	0.3093211
190	0x3da93abf	0.08263158
191	0x3d8ee71b	0.069776736
192	0x3c329cb1	0.010901616
193	0x3e0d22f1	0.1378286
194	0x3d9dfda0	0.07714391
195	0x3e109864	0.14120632
196	0xbd4f57ec	-0.05062096
197	0x3e8d7c42	0.27633864
198	0x3cdddc16	0.027082484
199	0xbd2cbca1	-0.042172078
200	0x3e7cd5ae	0.24690887
201	0xbe6cffc2	-0.23144439
202	0x3dd24948	0.102678835
203	0x3e67416e	0.22583553
204	0x3dfaf987	0.12254625
205	0xbcfe113d	-0.03101408
206	0x3e92c658	0.2866695
207	0x3e095406	0.13410959
208	0xbcc35444	-0.023843892
209	0x3de4b653	0.11167588
210	0x3cd82de7	0.026389075
211	0x3d62118b	0.05519251
212	0x3e5676ce	0.20943758
213	0x3e41ef45	0.1893893
214	0x3d440df7	0.04786488
215	0x3e99851a	0.2998436
216	0x3e0ed345	0.1394778
217	0x3d8d038d	0.06885443
218	0xbd43e8f2	-0.047829576
219	0x3e040a4f	0.12894557
220	0x3e305cff	0.17222975
221	0x3e89dad8	0.26924777
222	0xbda338cb	-0.07969817
223	0x3e18d7dd	0.14926095
224	0x3da12a25	0.078693666
225	0x3cd4729e	0.02593356
226	0x3e4d25f5	0.2003401
227	0x3d66efb1	0.05638093
228	0x3e07ac9a	0.13249436
229	0xbdd22c11	-0.10262311
230	0x3dd1e172	0.102480784
231	0xbd0adaa2	-0.03389991
232	0x3e2bcd51	0.1677754
233	0x3e3c6d6b	0.18401115
234	0x3e3afc7a	0.18260375
235	0x3c403599	0.011731529
236	0x3e159206	0.14606485
237	0x3ddd8620	0.10816598
238	0x3d95214e	0.07281743
239	0x3d91ae84	0.07113364
240	0x3dc8e81b	0.098098956
241	0xbd168dfe	-0.036756508
242	0x3d034de5	0.032056708
243	0x3d06fdee	0.03295701
244	0x3d521133	0.051285934
245	0xbc8aef1b	-0.016959717
246	0x3e0cc248	0.13745987
247	0xbcd44c74	-0.025915362
248	0x3e079de8	0.1324383
249	0x3e1aecc5	0.15129383
250	0x3e0e4d3d	0.13896652
251	0x3e8f1d8d	0.27952233
252	0x3dd5cb6c	0.1043919
253	0xbd2cdfd2	-0.04220564
254	0xbe12c17d	-0.14331622
255	0x3d03487b	0.032051545

value_stream.0.weight f4 [256, 256]
0	0xbe4190c3	-0.18902878
1	0x3cb01eab	0.021498999
2	0xbdda3d73	-0.10656252
3	0xbe75798a	-0.23972145
4	0xbdbf7037	-0.09347575
5	0xbb4d1245	-0.0031291407
6	0xbe82ae30	-0.2552352
7	0xbe4f1ba2	-0.20225385
8	0x3c76c412	0.015061395
9	0x3d464b79	0.04841182
10	0xbd4264f7	-0.04745957
11	0xbe256c44	-0.16154581
12	0xbdbe6102	-0.092958465
13	0x3d84daad	0.064870216
14	0xbdc1dc4e	-0.09465848
15	0x3bb1e9f3	0.0054295002
16	0xbd956338	-0.07294315
17	0xbdf40e0e	-0.11916743
18	0x3df38fc3	0.11892655
19	0xbe6a9687	-0.22908984
20	0xbd75c17e	-0.05999898
21	0xbd639b6c	-0.055568144
22	0xbe4dd161	-0.20099403
23	0xbd0ad15b	-0.033891063
24	0xbee7d608	-0.4528048
25	0xbdccb5e0	-0.099956274
26	0xbd3f676f	-0.0467295
27	0x3ce8c9f3	0.02841661
28	0xbdc5906d	-0.09646688
29	0xbe4a7ad6	-0.1977342
30	0xbde45474	-0.11148921
31	0x3cbe2e6f	0.0232155
32	0xbdfe2b99	-0.12410659
33	0xbdf0399e	-0.117297396
34	0xbd057807	-0.03258517
35	0xbd07611f	-0.033051606
36	0xbe1a0e01	-0.15044405
37	0xbd07084b	-0.032966893
38	0xbd55c61f	-0.052190896
39	0xbd8dbdf1	-0.06920994
40	0xbe9739cf	-0.29536292
41	0xbc7cb46e	-0.015423877
42	0xbdc08755	-0.094008125
43	0xbe2b38ed	-0.16720934
44	0xbbfbcd0c	-0.0076843556
45	0x3d9883dd	0.07447026
46	0xbe7042b4	-0.23462945
47	0x3cadee8e	0.021231916
48	0x3dc9e305	0.09857754
49	0xbccb499f	-0.024815379
50	0xbcb4d355	-0.022073427
51	0x3c533b40	0.012892544
52	0x3ca98627	0.020693852
53	0xbdc448da	-0.09584208
54	0xbdddc34a	-0.10828264
55	0x3dafedd9	0.08590288
56	0xbe51b994	-0.20480949
57	0xbe379426	-0.17927608
58	0xbd2c38e1	-0.04204643
59	0xbe0705bf	-0.13185786
60	0xbe37a852	-0.17935303
61	0x3dc3474c	0.09535083
62	0xbe23d0e7	-0.15997659
63	0xbd73c8b4	-0.059517577
64	0xbe15046b	-0.14552467
65	0x3d809b46	0.06279616
66	0xbdac1093	-0.08401599
67	0xbdd0c562	-0.10193898
68	0xbd53e3b9	-0.051730845
69	0xbe33147d	-0.17488284
70	0xbc5e9b76	-0.013586869
71	0xbe46255f	-0.19350193
72	0x3d8eee8b	0.06979092
73	0xbe3ff463	-0.1874557
74	0xbdd407cd	-0.103530504
75	0xbe28895c	-0.16458648
76	0xbe41c61e	-0.18923232
77	0xbefa7219	-0.48915175
78	0xbd07d463	-0.033161532
79	0xbe485635	-0.19564135
80	0xbf3cd226	-0.7375816
81	0xbe8b4fd0	-0.2720933
82	0x3c11421a	0.0088658575
83	0xbc91b757	-0.017787619
84	0xbde99e61	-0.114071615
85	0xbe51520d	-0.20441456
86	0xbe438e10	-0.19097161
87	0xbe514e64	-0.2044006
88	0x3e03acdd	0.12858911
89	0xbe822a4f	-0.25422904
90	0xbe1ab793	-0.1510909
91	0x3e2e04ff	0.16994093
92	0xbe4bdf87	-0.19909488
93	0xbd55e077	-0.05221602
94	0xbe605ebb	-0.21911137
95	0xbddff72f	-0.109358184
96	0xbe28d2dc	-0.16486686
97	0xbcfc22f8	-0.030778393
98	0xbe53202b	-0.2061774
99	0x3c20be91	0.00981106
100	0x3dc675b7	0.09690421
101	0xbdd3caf2	-0.10341443
102	0x3a56448a	0.0008173665
103	0xbd9bbc30	-0.07604253
104	0xbe580455	-0.21095403
105	0xbdff2146	-0.12457518
106	0xbd1c4a1d	-0.038156617
107	0xbd655b49	-0.05599526
108	0x3d9be27e	0.07611559
109	0x3bb38e2f	0.005479596
110	0xbd806065	-0.06268386
111	0xbd5b4940	-0.053536654
112	0xbe505c8f	-0.20347808
113	0xbe03bb5c	-0.1286444
114	0xbbe89660	-0.007098004
115	0xbe5f22a2	-0.21790555
116	0xbe683b5c	-0.22678894
117	0xbee0b819	-0.43890455
118	0x3e1b7cbd	0.15184303
119	0x3e67b3d2	0.2262719
120	0xbdea4938	-0.114397466
121	0x3d947b44	0.072500736
122	0xbd4fd46e	-0.050739698
123	0xbd5e56c7	-0.054281976
124	0xbe694bb7	-0.22782789
125	0xbba3c137	-0.0049973982
126	0xbd52c6f8	-0.051459283
127	0xbdc33b86	-0.095328376
128	0xbe20584a	-0.1565868
129	0xbdf47149	-0.1193567
130	0xbd0c2fbd	-0.034225214
131	0x3db6f2c0	0.0893302
132	0xbe392281	-0.18079568
133	0xbd154592	-0.0364433
134	0xbe9d0ab2	-0.30672222
135	0xbe9faa80	-0.3118477
136	0xbd943b5a	-0.07237883
137	0xbe65c48a	-0.22438255
138	0xbce97507	-0.028498186
139	0xbd199473	-0.037495088
140	0x3d81391a	0.063097194
141	0xbe236106	-0.1595498
142	0x3cb8bb32	0.0225502
143	0x3df66864	0.1203163
144	0xbea5fb65	-0.3241836
145	0xbd882ce9	-0.06649191
146	0xbe2eb063	-0.17059474
147	0x3e0f44fa	0.13991156
148	0xbd867d54	-0.06566873
149	0xbe21a0f5	-0.15784056
150	0xbe069590	-0.13142991
151	0xbd43e540	-0.04782605
152	0xbdcaa299	-0.09894294
153	0xbe9d3752	-0.3070627
154	0x3bea3434	0.0071473364
155	0xbe6a54c0	-0.22883892
156	0xbe89c0ef	-0.2690501
157	0x3d3828b9	0.04496071
158	0xbe8cba01	-0.2748566
159	0xbdccc6f0	-0.09998882
160	0xbc128e0c	-0.008944999
161	0x3ab6cc14	0.0013946318
162	0xbe849b8b	-0.2589992
163	0xbc4b2f68	-0.012401439
164	0xbe060852	-0.13089111
165	0xbdfa0006	-0.12207036
166	0xbd4a8ccb	-0.049450677
167	0xbe55b119	-0.20868339
168	0xbe0bd40f	-0.13655113
169	0xbcf3fc6a	-0.029783446
170	0xbd1a3f4e	-0.03765803
171	0xbe8aa345	-0.2707769
172	0x3d7b3ec2	0.061339147
173	0xbe2f61d1	-0.17127158
174	0x3e2e7c40	0.17039585
175	0xbf075130	-0.5285826
176	0x3dea4b82	0.11440183
177	0xbdfd517f	-0.1236906
178	0xbcc18ad4	-0.023625769
179	0xbdc4c7b4	-0.09608403
180	0xbdca5bc6	-0.09880786
181	0x3e297cee	0.16551563
182	0xbe127934	-0.14304048
183	0xbe9d9e61	-0.30784896
184	0xbe9e7cc5	-0.30954567
185	0xbd3f2077	-0.04666182
186	0x3d49244c	0.04910688
187	0xbdfb2f65	-0.12264899
188	0x3da3605c	0.079773635
189	0x3d364e16	0.044508062
190	0xbd7e8b95	-0.062144835
191	0xbd0505fe	-0.032476418
192	0x3d72edd5	0.059308846
193	0xbda66806	-0.0812531
194	0xbe1c2ee9	-0.1525227
195	0xbdcb26d3	-0.099195145
196	0xbd8e43ec	-0.06946549
197	0x3e0178b8	0.12643707
198	0xbe873d9c	-0.26414192
199	0xbe87f63a	-0.26555043
200	0xbcdd9541	-0.027048709
201	0xbecd44df	-0.40091607
202	0xbd8933cb	-0.06699332
203	0xbe16a6df	-0.14712094
204	0xbe4d2f1b	-0.200375
205	0x3e4ea327	0.20179425
206	0x3cda5470	0.026651591
207	0xbe03d567	-0.12874375
208	0xbe058031	-0.13037182
209	0xbcbfc89a	-0.023411084
210	0xbdb0f20b	-0.08639916
211	0xbcd4ac32	-0.025961015
212	0xbea56c5b	-0.3230923
213	0xbe1176a2	-0.14205411
214	0xbe7d478c	-0.24734324
215	0xbca38f33	-0.019965744
216	0xbd9a0afd	-0.07521627
217	0xbbbc6496	-0.0057492955
218	0xbe36dd45	-0.17857845
219	0xbd9df91a	-0.07713528
220	0xbeb30ba2	-0.34969813
221	0x3d40edac	0.04710166
222	0xbd400544	-0.04688002
223	0xbe0bb747	-0.13644134
224	0xbe1584be	-0.14601418
225	0xbe54625e	-0.20740649
226	0xbe8b8c34	-0.27255404
227	0xbd72a9ae	-0.05924385
228	0xba24c64d	-0.00062856526
229	0xbe8c8d10	-0.27451372
230	0xbe13aebc	-0.14422125
231	0xbe5cf125	-0.21576364
232	0xbe6f4212	-0.23365048
233	0xbefb602b	-0.49096808
234	0xbd13ee6c	-0.03611605
235	0xbe06e61c	-0.13173717
236	0x3d60f9be	0.054925673
237	0xbe21d190	-0.15802598
238	0xbe228703	-0.15871815
239	0xbe4fa9d7	-0.20279633
240	0xbdbd7839	-0.09251446
241	0xbd79e649	-0.061010633
242	0xbe35fcc9	-0.17772211
243	0xbebdbf12	-0.37059838
244	0xbea224ab	-0.316686
245	0xbd39f4fa	-0.045399643
246	0xbd002cd7	-0.031292763
247	0xbcd4a1ee	-0.02595612
248	0xbccbea33	-0.024891948
249	0xbe23204a	-0.15930286
250	0x3d42b668	0.047537237
251	0x3d455c82	0.048183925
252	0xbe265f80	-0.16247368
253	0xbdafa091	-0.085755475
254	0xbe5f2226	-0.2179037
255	0xbc4d5ea4	-0.012534771

value_stream.0.bias f4 [256]
0	0xbe10d866	-0.1414505
1	0xbd2417bb	-0.040061694
2	0xbbdec13b	-0.006797937
3	0x3e0dcc2c	0.13847417
4	0xbd84c3b9	-0.06482644
5	0x3e16421b	0.14673655
6	0x3d9f2818	0.07771319
7	0xbd8e7139	-0.06955189
8	0xbd62b54d	-0.055348683
9	0x3e11bb84	0.14231688
10	0x3d87cc81	0.06630803
11	0xbd8e6dcb	-0.06954535
12	0x3e068e0e	0.13140127
13	0x3ea5346c	0.32266557
14	0x3d8f2415	0.06989304
15	0x3e15d837	0.1463326
16	0x3c9edb30	0.019391626
17	0x3dfd3a44	0.12364629
18	0x3de53bb1	0.11193026
19	0x3d4912f0	0.049090326
20	0x3df79d27	0.12090521
21	0x3e149aff	0.14512251
22	0xbd4faf38	-0.05070421
23	0x3bffe707	0.007809523
24	0xbdbd8265	-0.092533864
25	0xbd7ff5f9	-0.062490437
26	0x3dbc5de2	0.09197594
27	0xbd2755f5	-0.04085346
28	0x3db06776	0.086134836
29	0xbcd9acdf	-0.02657169
30	0x3e560fef	0.20904516
31	0x3de54499	0.111947246
32	0x3df92786	0.121657416
33	0x3c57ecd3	0.013179022
34	0x3da30863	0.07960584
35	0x3ea13f45	0.31493583
36	0x3b99179d	0.0046720044
37	0xbdc5952d	-0.09647594
38	0x3d1fa113	0.03897197
39	0x3df0a5d5	0.1175038
40	0x3e5c0c6d	0.21489115
41	0x3d7e01b0	0.062013328
42	0x3db7978c	0.08964452
43	0x3d8d3728	0.06895286
44	0xbda7debe	-0.081967816
45	0x3e141c70	0.14463973
46	0x3d39ec17	0.04539117
47	0xbdca709c	-0.0988476
48	0x3e04c133	0.12964325
49	0x3dea8e70	0.11452949
50	0x3e1124fc	0.14174265
51	0x3e1023ff	0.14076231
52	0x3d8c5549	0.06852204
53	0x3dfb05c7	0.12256961
54	0xbcdc0805	-0.026859293
55	0xbc87eca4	-0.016592331
56	0xbdb17940	-0.08665705
57	0xbd4bfce6	-0.04980173
58	0x3cde0d59	0.027105974
59	0xbdcdfb95	-0.10057751
60	0xbd349299	-0.04408512
61	0x3d8735cb	0.06602057
62	0xbe179a29	-0.14804901
63	0x3dcd580d	0.1002656
64	0x3e5ce09b	0.21570055
65	0x3e0e3d64	0.13890606
66	0xbdb851a7	-0.08999949
67	0x3c4fb920	0.012678415
68	0x3e0b94b3	0.13630943
69	0xbce8ad96	-0.028403085
70	0x3ddf50db	0.10904094
71	0x3cbf3a98	0.02334337
72	0xbd295548	-0.041341096
73	0x3d09cee0	0.033644557
74	0x3e0be5ec	0.13661927
75	0xbbe77a58	-0.007064145
76	0xbda4b7e8	-0.0804289
77	0xbe399376	-0.18122658
78	0x3d4a0d86	0.049329303
79	0x3d9943e5	0.07483653
80	0x3e1a5a0d	0.15073414
81	0xbd9a7616	-0.07542054
82	0xbda54b5d	-0.08071015
83	0x3dbe8d05	0.09304241
84	0xbdf82f22	-0.12118365
85	0x3d13a7d7	0.036048736
86	0x3e000825	0.12503107
87	0xbda83b93	-0.08214488
88	0xbcd0f572	-0.025507662
89	0xbe083d8f	-0.13304733
90	0xbe24a49f	-0.16078423
91	0xbd734e62	-0.059400924
92	0x3eaf25f0	0.34208632
93	0x3d8d1d73	0.068903826
94	0x3e1fcaf6	0.15604767
95	0xbd6104a8	-0.05493608
96	0xbdc153a9	-0.09439785
97	0x3db74412	0.0894853
98	0x3d808c25	0.062767304
99	0x3e9d4199	0.3071411
100	0xbdff1c90	-0.1245662
101	0x3cffe7e3	0.031238502
102	0x3dc7908e	0.097443685
103	0xbdf41e77	-0.11919873
104	0x3e8e089a	0.27740937
105	0xbe41a3d2	-0.18910149
106	0xbd6b140a	-0.057392158
107	0x3e0bd158	0.13654077
108	0x3e1d5329	0.15363754
109	0xbe2e6a92	-0.17032841
110	0x3df5b35f	0.11997103
111	0xbe02f921	-0.12790348
112	0x3cad8d1c	0.02118545
113	0x3de0de1a	0.109798625
114	0x3e022fa1	0.12713481
115	0xbdbcb948	-0.09215027
116	0x3d8b6543	0.068064235
117	0x3df905a1	0.12159277
118	0x3dde3195	0.10849301
119	0x3d581bdf	0.052760955
120	0x3de423a6	0.11139612
121	0x3e27b9d7	0.16379486
122	0xbd3108dc	-0.04322134
123	0x3e088301	0.13331224
124	0xbe1e1568	-0.15437853
125	0x3d368059	0.044555996
126	0xbe374b03	-0.17899708
127	0xbdf4c9d8	-0.11952561
128	0x3e33eb6a	0.17570272
129	0x3ca4f8c4	0.020138152
130	0x3ddc853e	0.107676014
131	0x3dd5539b	0.10416337
132	0xbd398cc3	-0.045300256
133	0x3d4e08b8	0.050301284
134	0x3e817273	0.2528263
135	0x3df6713f	0.12033319
136	0x3da7d4e4	0.081949025
137	0x3dde9fea	0.10870345
138	0xbd9bd003	-0.076080345
139	0x3e6e9170	0.23297668
140	0x3e2810b1	0.16412617
141	0x3dd090ef	0.10183894
142	0x3e6b4c60	0.22978354
143	0x3e17c842	0.14822486
144	0xbd932d1e	-0.0718634
145	0x3da0c0d7	0.07849281
146	0x3e960f65	0.2930862
147	0x3c7ae49c	0.015313294
148	0x3d8360f5	0.064149775
149	0x3dddbe22	0.108272806
150	0x3e15f464	0.14644009
151	0xbd805dca	-0.06267889
152	0x3d907230	0.070530295
153	0x3ddc36d1	0.10752643
154	0x3e6c0b2c	0.23051137
155	0xbda8a3ca	-0.08234365
156	0x3dc1b3a4	0.09458092
157	0x3d8bb70b	0.06822022
158	0x3e20d7bc	0.15707296
159	0x3db08a1f	0.086200945
160	0xbdd26572	-0.102732554
161	0x3c8494c7	0.016184224
162	0x3da2e0d7	0.07953041
163	0x3d821b24	0.06352833
164	0x3b8c21bf	0.004276484
165	0xbd2e9d69	-0.042630587
166	0x3d079d1e	0.033108823
167	0x3cee93bb	0.029123178
168	0xbd63a919	-0.055581186
169	0xbc4c110f	-0.012455239
170	0xbe517aa3	-0.20456938
171	0x3e059204	0.13043982
172	0x3e089484	0.13337904
173	0x3d88b614	0.06675354
174	0x3e423014	0.18963653
175	0x3e1a96fc	0.15096658
176	0x3cdfc339	0.02731477
177	0x3e25b01c	0.16180462
178	0x3e89b402	0.26895148
179	0x3cfe78ef	0.031063525
180	0x3c215121	0.009846003
181	0xbd9350ad	-0.07193122
182	0x3e792121	0.24329044
183	0x3d876705	0.06611446
184	0x3d69443f	0.05694985
185	0x3e702efa	0.2345542
186	0xbe2c0bf4	-0.16801435
187	0x3e05c6aa	0.13064066
188	0x3cf4595f	0.029827772
189	0x3e864640	0.26225471
190	0xbc9c6e1a	-0.01909547
191	0x3ce75386	0.02823807
192	0xbdbd7135	-0.09250108
193	0x3d6838d8	0.056694835
194	0xbd4db443	-0.05022074
195	0xbda82c81	-0.082116134
196	0x3d265655	0.040609676
197	0xbe22767e	-0.15865514
198	0x3e5e4943	0.21707635
199	0x3db48f14	0.088163525
200	0xbdddc120	-0.10827851
201	0x3df2639f	0.118354075
202	0xbdb823cf	-0.08991205
203	0x3df63b13	0.12022986
204	0xbe0f82b1	-0.14014699
205	0xbdec7237	-0.11545222
206	0xbd148385	-0.03625824
207	0x3dd5a2b6	0.10431425
208	0xbc2cd8d4	-0.010549743
209	0x3dce91fc	0.10086438
210	0xbdc10330	-0.09424436
211	0xbde6ef9e	-0.11276172
212	0x3de4adfa	0.11165996
213	0x3d0fd3dc	0.035114154
214	0x3da92be9	0.08260328
215	0x3bcc2ef3	0.0062311827
216	0x3dbb4930	0.09144819
217	0xbcda2d10	-0.026632816
218	0x3e3f7ec0	0.18700695
219	0xbddf6880	-0.10908604
220	0x3e004f09	0.1253015
221	0xbd16deed	-0.036833692
222	0xbd8df7f1	-0.06932057
223	0x3e009417	0.12556492
224	0xbcf0af77	-0.029380543
225	0x3deed337	0.1166138
226	0x3dbbc2d0	0.09168017
227	0x3c5b13c1	0.013371409
228	0xbe210c85	-0.15727432
229	0x3e2f5b9d	0.17124791
230	0x3d2cbdb2	0.042173095
231	0xbe111ae4	-0.14170414
232	0x3d2d1114	0.042252615
233	0xbad1b28b	-0.0015998645
234	0x3deb1075	0.11477748
235	0xbdd046fb	-0.101697885
236	0x3ded1f01	0.11578179
237	0xbe169cfe	-0.14708325
238	0x3e0db1c2	0.1383734
239	0xbc0b2e5b	-0.008494939
240	0x3e7ce441	0.24696447
241	0x3c920e94	0.017829217
242	0x3e05e79b	0.13076632
243	0xbd9207d5	-0.071304
244	0x3d920b37	0.07131045
245	0xbd188032	-0.03723163
246	0x3e3e8c73	0.18608265
247	0x3d155a9f	0.036463376
248	0x3d91fdf9	0.071285196
249	0x3dce625b	0.100773536
250	0x3dcc2d17	0.09969538
251	0xbe163189	-0.14667334
252	0x3e0c5b14	0.13706619
253	0xbcca6057	-0.024704142
254	0x3e0dd220	0.13849688
255	0x3e164f45	0.14678676

value_stream.2.weight f4 [1, 256]
0	0x3e8bab3f	0.27279088
1	0x3e14aa01	0.14517976
2	0xbeb26979	-0.34846094
3	0xbe59043c	-0.21193022
4	0x3ea5e8b8	0.32404113
5	0xbe83cc21	-0.25741675
6	0xbe9fdac9	-0.31221607
7	0x3e96f909	0.29486874
8	0xbe0995a1	-0.13435985
9	0xbe7b5e04	-0.24547583
10	0xbea83288	-0.32851052
11	0xbeb2e279	-0.3493841
12	0xbe9710dc	-0.2950505
13	0x3efdbaf9	0.4955671
14	0x3e56d8b3	0.20981102
15	0xbe94c3d1	-0.29055646
16	0xbe771b0a	-0.24131408
17	0x3e646c2b	0.22306888
18	0xbea4d4f0	-0.32193708
19	0xbe7bb16c	-0.245794
20	0xbe76a801	-0.24087526
21	0xbe93d9e4	-0.28877175
22	0x3e72ea08	0.23722088
23	0xbea0002c	-0.3125013
24	0x3e6750f8	0.22589481
25	0xbead35a3	-0.33829984
26	0xbe75f299	-0.24018325
27	0x3e8ed391	0.27895787
28	0xbe53a935	-0.20670016
29	0x3eb8cca1	0.3609362
30	0xbec50722	-0.38482004
31	0xbe93c20b	-0.2885898
32	0xbe7ed5c8	-0.24886239
33	0x3e9f74fa	0.31143934
34	0xbe7f0b50	-0.24906659
35	0x3eb98013	0.36230525
36	0xbec847fc	-0.3911742
37	0x3e8fc7c8	0.28082108
38	0xbe9ea8da	-0.309882
39	0xbe650631	-0.22365643
40	0xbecb2cbe	-0.39682573
41	0xbeae3520	-0.34024906
42	0x3e520646	0.20510206
43	0xbe3284a9	-0.17433418
44	0x3e2e284e	0.17007563
45	0x3e026ca4	0.12736756
46	0x3e08919d	0.13336797
47	0x3e946c36	0.28988808
48	0xbece4d65	-0.40293422
49	0xbec0ef2b	-0.3768247
50	0x3e7b106d	0.24517985
51	0xbe4bc75f	-0.19900273
52	0x3ed00574	0.4062916
53	0xbe8c1017	-0.27356026
54	0x3e564169	0.2092339
55	0xbe9dada0	-0.30796528
56	0x3e86b452	0.26309448
57	0x3e65082a	0.22366396
58	0xbea206aa	-0.3164571
59	0x3e82ba99	0.25532988
60	0xbe7a23b9	-0.2442769
61	0x3e0117f0	0.12606788
62	0x3ea42435	0.32058874
63	0xbe932059	-0.28735617
64	0xbed559a8	-0.41669965
65	0xbe82e530	-0.2556548
66	0x3e9a8aa3	0.30183896
67	0x3ea01a9d	0.31270304
68	0xbe79371a	-0.24337426
69	0x3ea7efa2	0.32800013
70	0xbe6fcff3	-0.2341917
71	0xbec96a46	-0.39338893
72	0x3e525543	0.20540337
73	0xbe6899fd	-0.22714992
74	0xbe83d412	-0.25747734
75	0x3e76f156	0.241155
76	0x3e443422	0.19160512
77	0x3e774b84	0.241499
78	0x3e45ec7b	0.19328491
79	0x3e7ff1fe	0.24994656
80	0xbe4f47e7	-0.20242272
81	0x3eb94a33	0.36189422
82	0x3e8e3001	0.27771
83	0xbe338943	-0.1753283
84	0x3e9134fd	0.2836074
85	0xbea6bf7e	-0.32567972
86	0xbe416137	-0.18884741
87	0x3e9ab467	0.3021576
88	0xbe4f9ed5	-0.20275433
89	0x3e9593a3	0.292142
90	0x3e8f20c3	0.27954683
91	0x3eb30093	0.34961376
92	0x3f02ec0e	0.5114144
93	0xbe82b6ba	-0.25530034
94	0x3e9bc263	0.30421743
95	0x3e3eaa52	0.1861966
96	0x3ecd2639	0.40068224
97	0xbe93dba6	-0.28878516
98	0xbe678f88	-0.22613347
99	0x3f01bab2	0.506755
100	0x3e87e2b5	0.2654015
101	0xbea5e76d	-0.32403126
102	0xbea4f3bc	-0.32217205
103	0x3e96a4d6	0.29422635
104	0xbec5024c	-0.38478315
105	0x3e8a0ce4	0.2696296
106	0x3e62e3f0	0.22157264
107	0xbe408605	-0.18801124
108	0xbe388fc9	-0.180236
109	0x3e7c4e16	0.24639162
110	0xbe64bb83	-0.22337155
111	0x3e91f03f	0.28503606
112	0x3e0dc1e6	0.13843498
113	0xbe553aa8	-0.20823157
114	0xbe76cdd8	-0.2410196
115	0x3e8d361e	0.2758035
116	0xbe7d90a4	-0.24762207
117	0x3e98c646	0.2983877
118	0xbe41694d	-0.18887825
119	0xbe920c8a	-0.28525192
120	0xbe8753f3	-0.26431236
121	0xbe70b474	-0.23506337
122	0x3e2a6830	0.16641307
123	0xbecd5ed4	-0.4011141
124	0x3e9453d3	0.28970203
125	0xbe870713	-0.26372585
126	0x3e8355a1	0.25651267
127	0x3e8a414c	0.27002943
128	0xbe5841e8	-0.21118891
129	0xbe450183	-0.19238858
130	0xbe4677f3	-0.19381694
131	0xbe8f92c4	-0.2804166
132	0x3e924177	0.2856557
133	0xbe949c8a	-0.2902568
134	0x3e3ceccc	0.18449706
135	0xbeb995a4	-0.3624698
136	0x3eb184fe	0.34671777
137	0xbed48eb6	-0.4151513
138	0x3e92d6ef	0.28679606
139	0x3e58ed95	0.2118438
140	0xbecafd38	-0.39646316
141	0xbe6168b9	-0.22012605
142	0x3ee7c3d4	0.45266593
143	0xbe399c8a	-0.18126121
144	0x3e6b4f40	0.2297945
145	0xbea644e2	-0.32474428
146	0x3eb2e33a	0.34938985
147	0x3e463caa	0.19359079
148	0xbe4c7f9c	-0.19970554
149	0xbe363ada	-0.17795888
150	0xbe4acd6d	-0.19804926
151	0x3e9e8538	0.30961013
152	0xbe727ba3	-0.23679976
153	0xbea072bc	-0.31337535
154	0x3e75447e	0.23951909
155	0x3e1f8599	0.15578307
156	0xbeacd7ca	-0.33758384
157	0xbe86fda5	-0.2636539
158	0xbe4c5911	-0.19955851
159	0x3e515c4e	0.20445368
160	0x3e985703	0.29753885
161	0x3e9a1a7b	0.30098328
162	0x3e8f1bbe	0.27950853
163	0xbe7e27db	-0.24819891
164	0x3e830d7e	0.2559623
165	0xbe8da6e2	-0.27666384
166	0xbe93c65b	-0.2886227
167	0xbebde6cf	-0.37090155
168	0x3e67a3be	0.22621056
169	0x3e3f640a	0.18690506
170	0x3e86cad5	0.26326624
171	0xbe5ec22a	-0.21753755
172	0xbe85165d	-0.25993624
173	0xbe82a653	-0.2551752
174	0xbe8569c5	-0.26057258
175	0x3e9eb523	0.3099757
176	0x3dec8451	0.11548675
177	0xbe8c4740	-0.2739811
178	0xbeb5e674	-0.35527384
179	0x3e19cb73	0.15019016
180	0x3e6c3ebc	0.23070806
181	0x3ea1d460	0.31607342
182	0xbec802d8	-0.3906467
183	0xbe5d7d55	-0.21629842
184	0xbe93082c	-0.28717172
185	0xbec33bd1	-0.38131574
186	0x3ec16d89	0.3777888
187	0x3e838399	0.2568634
188	0xbead4770	-0.33843565
189	0x3f0aa9ee	0.5416554
190	0x3e925027	0.28576776
191	0x3e64c7c9	0.22341837
192	0x3e9c442c	0.3052076
193	0xbe8df713	-0.27727565
194	0xbe69aea2	-0.22820523
195	0x3e8bc2d3	0.27297077
196	0x3e9551b1	0.29163888
197	0x3e85f1ad	0.26160946
198	0x3e91046f	0.28323695
199	0x3e21c3c9	0.15797342
200	0x3ea59f08	0.32347894
201	0xbeb7e348	-0.3591559
202	0x3eabc2ee	0.33547157
203	0xbe4529c9	-0.19254221
204	0x3e8c3abc	0.2738856
205	0x3e9531ab	0.29139456
206	0x3e689b02	0.22715381
207	0xbe867e0f	-0.2626805
208	0xbeaad4de	-0.3336553
209	0xbe6470f8	-0.22308719
210	0x3e8bd0a9	0.27307633
211	0x3e9f30e3	0.31091985
212	0xbeac4908	-0.33649468
213	0xbe5ee6fb	-0.217678
214	0xbea72cea	-0.32651454
215	0x3df11ca0	0.11773038
216	0xbe774b3b	-0.24149792
217	0x3e8face2	0.28061587
218	0xbee06d8a	-0.43833572
219	0x3edafce1	0.42771056
220	0xbe8d1b64	-0.2755996
221	0x3e860732	0.26177365
222	0x3e98348d	0.29727593
223	0xbe8eecbf	-0.27914998
224	0x3e459b94	0.1929763
225	0xbe4c75e5	-0.19966848
226	0xbe8b7f58	-0.27245593
227	0x3e714d43	0.2356463
228	0x3e64f09b	0.22357409
229	0xbe5b79f5	-0.21433242
230	0xbe408786	-0.18801698
231	0x3e8bd9e4	0.27314675
232	0xbeae98ac	-0.34100854
233	0xbe98d710	-0.2985158
234	0xbe9c7cc3	-0.30563936
235	0x3e8b1548	0.27164674
236	0xbe771e98	-0.24132764
237	0x3e904a8f	0.28181884
238	0xbe6fc061	-0.2341323
239	0x3e37b2bc	0.17939276
240	0xbeb3b208	-0.35096765
241	0xbebbc659	-0.36674765
242	0xbe44a30b	-0.19202821
243	0x3e8fb138	0.28064895
244	0xbe6b137f	-0.22956656
245	0x3e92fe14	0.2870947
246	0xbe3df56e	-0.18550655
247	0xbe9216b8	-0.28532958
248	0xbe9f7661	-0.31145003
249	0xbe423f67	-0.18969499
250	0xbe8cee1b	-0.2752541
251	0x3e89d637	0.26921245
252	0xbe2a80f0	-0.16650748
253	0x3e8d85d8	0.27641177
254	0xbe627d85	-0.22118194
255	0xbe9b69a7	-0.30354044
