active_slam_rl/training_output_no_slam/20260128_030605/d3qn_ep810.pth (torch, 901794 bytes, 11 tensors)

feature.0.weight f4 [256, 100]
-0.046300646 -0.12327831 -0.08609576 -0.0054561235 -0.09528563 -0.16465865 -0.014245483 -0.20072848
0.012598742 -0.22503282 -0.15803547 -0.07841335 -0.18330327 -0.09032807 -0.08845083 -0.21503049
-0.12184321 -0.2893874 -0.16097009 -0.10095734 -0.05307943 -0.14930746 0.03352952 0.13687828
-0.08172419 -0.15618756 -0.04163349 -0.07249856 0.036122352 -0.07880705 -0.051096335 -0.030767424
0.014855627 -0.009092612 -0.052140832 -0.04593911 0.008866021 -0.12350034 -0.06119299 -0.031027103
-0.0950964 -0.19839656 -0.03921984 -0.13602228 -0.18987782 -0.13933247 -0.18715738 -0.14114165
-0.033384748 -0.12941754 0.028302073 0.15231799 0.048037414 0.1345348 -0.02298642 -0.017702397
-0.055286374 -0.14239961 -0.06868891 -0.043282047 -0.040270373 -0.05498308 -0.12113168 -0.11457686
-0.16168857 -0.16334407 -0.14353992 -0.16865797 -0.08713457 0.084392585 0.10260598 0.15839426
0.05797218 0.080671 0.026242306 -0.16053002 0.020767815 -0.13528277 0.13427186 0.007468934
0.02253664 -0.102957144 -0.01700323 -0.030704333 -0.046910226 -0.15639955 -0.14565024 -0.080875695
0.008417632 -0.01002991 0.066946834 0.02077544 0.060770467 0.006613261 0.029368717 0.03580991
-0.061127353 -0.13471842 -0.07815633 -0.18904954 0.09890423 0.0023528726 0.15181181 0.13857418
0.052074593 0.08641133 0.17371747 0.13739981 0.010627383 -0.023712145 -0.042108033 -0.008067606
0.02911416 -0.07141232 0.03888888 -0.09249902 0.008724029 0.036113754 0.05005713 -0.05157357
-0.04489512 -0.14566918 -0.020488542 0.008914046 -0.14446892 -0.080167525 -0.2534781 -0.28376734
-0.041275486 -0.20149145 -0.12799862 -0.22680221 -0.20074058 -0.3258572 -0.42697188 -0.305449
-0.3044659 -0.2566925 -0.27654892 -0.5473074 -0.24630842 -0.5076708 -0.5190076 -0.37014893
-0.45026842 -0.4779291 -0.6613669 -0.46985847 -0.52190894 -0.5200486 -0.48461217 -0.51203233
-0.3722374 -0.21790843 -0.10621949 -0.1478771 0.04918134 -0.07067797 0.16868375 0.13748592
0.026777403 0.029997595 0.035308886 0.0042470517 0.08318744 0.043623194 0.08868794 0.14720657
0.10095547 -0.020124873 0.21665072 0.114249706 0.05903793 -0.01989847 -0.06063771 -0.07511898
0.028012441 -0.13323233 -0.041778833 -0.010194012 -0.070666716 -0.03604213 -0.103907354 0.07436547
-0.028173784 0.015404223 -0.006758996 -0.06625521 -0.07882666 -0.0010608749 0.09997544 -0.008620821
-0.05174129 0.049713664 -0.081831 0.05420046 -0.09543738 -0.10760981 0.007632358 -0.18529716
-0.5357126 -0.554688 -0.53919494 -0.45723075 -0.614667 -0.546642 -0.55503166 -0.59381163
-0.60702986 -0.6195021 -0.49176723 -0.45371586 -0.6010529 -0.5815734 -0.5825807 -0.7353011
-0.7585481 -0.7485001 -0.6858523 -0.6900353 -0.77602196 -0.08384989 0.30853066 0.14498694
0.10933014 0.07828337 -0.009446362 0.19674383 0.17738405 0.03391684 -0.059067596 -0.032684986
-0.06864548 0.070507035 -0.1746922 -0.0018699452 -0.09509481 -0.21514395 -0.08509946 -0.0837443
-0.18880251 -0.31340304 -0.22249137 -0.31149128 -0.19534858 -0.18882716 -0.09434223 -0.07486557
-0.17100304 -0.18667933 -0.10706505 -0.029608356 -0.05884169 -0.043492764 -0.09543928 -0.11059288
00000000: bfa5 3dbd 5779 fcbd f952 b0bd 48c9 b2bb
00000010: 1d25 c3bd 479c 28be e365 69bc c48b 4dbe
00000020: f46a 4e3c 016f 66be 0dd4 21be 2e97 a0bd
00000030: dab3 3bbe ecfd b8bd b525 b5bd f430 5cbe
00000040: ef88 f9bd 962a 94be 58d5 24be b9c2 cebd
00000050: d169 59bd 0ee4 18be 4056 093d d229 0c3e
00000060: 035f a7bd a2ef 1fbe e187 2abd 207a 94bd
00000070: 08f5 133d 9765 a1bd 644a 51bd f70b fcbc
00000080: 0465 733c 2ef9 14bc a091 55bd a62a 3cbd
00000090: ca42 113c bfed fcbd 80a5 7abd 8d2c febc
000000a0: e7c1 c2bd 7828 4bbe fca4 20bd 6d49 0bbe
000000b0: 556f 42be 2cad 0ebe 2fa6 3fbe 7087 10be
000000c0: 72be 08bd 0886 04be c0d9 e73c 3ff9 1b3e
000000d0: e1c2 443d 7ec3 093e 044e bcbc 9e04 91bc
000000e0: f773 62bd 34d1 11be c5ac 8cbd 8448 31bd
000000f0: 8cf2 24bd f035 61bd e313 f8bd 46a7 eabd
00000100: b091 25be ab43 27be 21fc 12be adb4 2cbe
00000110: 9c73 b2bd 05d6 ac3d 1623 d23d 1b32 223e
00000120: 3d74 6d3d d636 a53d 1bfa d63c fb61 24be
00000130: 4421 aa3c 9187 0abe 907e 093e f6bd f43b
00000140: c29e b83c 32db d2bd 5c4a 8bbc a787 fbbc
00000150: f024 40bd 3427 20be 5625 15be 28a2 a5bd
00000160: 1cea 093c 7e54 24bc 6c1b 893d 4131 aa3c
00000170: 74ea 783d 0eb4 d83b aa96 f03c 6aad 123d
00000180: ad60 7abd a0f3 09be 6d10 a0bd 3496 41be
00000190: 4d8e ca3d a732 1a3b 8e74 1b3e 64e6 0d3e
000001a0: 2b4c 553d 6cf8 b03d fee2 313e 89b2 0c3e
000001b0: 7a1e 2e3c f93f c2bc 7979 2cbd fe2d 04bc
000001c0: d280 ee3c 9f40 92bd f249 1f3d 2070 bdbd
000001d0: 3bef 0e3c 04ec 133d b508 4d3d cf3e 53bd
000001e0: f2e3 37bd 4d2a 15be 96d7 a7bc 380c 123c
000001f0: a9ef 13be df2e a4bd e2c7 81be f449 91be
00000200: 7c10 29bd c653 4ebe 1212 03be d73e 68be
00000210: f08e 4dbe c1d6 a6be 0f9c dabe d063 9cbe
00000220: f4e2 9bbe 336d 83be d297 8dbe 561c 0cbf
00000230: 4638 7cbe b7f6 01bf afdd 04bf 2984 bdbe
00000240: 9589 e6be 1fb3 f4be 574f 29bf 4a91 f0be
00000250: d39b 05bf e821 05bf 161f f8be 8d14 03bf
00000260: e795 bebe 6323 5fbe 9b89 d9bd 186d 17be
00000270: 5f72 493d 9dbf 90bd 6fbb 2c3e 1cc9 0c3e
00000280: 495c db3c 84bd f53c 0da0 103d da2a 8b3b
00000290: 2d5e aa3d 3cae 323d 06a2 b53d 52bd 163e
000002a0: bec1 ce3d ebdc a4bc b0d9 5d3e c0fb e93d
000002b0: c2d1 713d 1e02 a3bc 3f5f 78bd fbd7 99bd
000002c0: 597a e53c 0e6e 08be 4820 2bbd c904 27bc
000002d0: b6b9 90bd eaa0 13bd 61cd d4bd ec4c 983d
000002e0: b5cc e6bc ff61 7c3c 917a ddbb d0b0 87bd
000002f0: df6f a1bd 0e0d 8bba ecbf cc3d 583e 0dbc
00000300: adee 53bd 8ea0 4b3d 0397 a7bd 4d01 5e3d
00000310: ac74 c3bd 8862 dcbd dc18 fa3b 8abe 3dbe
00000320: 7624 09bf 0800 0ebf ae08 0abf 261a eabe
00000330: d15a 1dbf bbf0 0bbf 8e16 0ebf 0a04 18bf
00000340: 4f66 1bbf b197 1ebf eac8 fbbe 724d e8be
00000350: 9ade 19bf ffe1 14bf 0224 15bf b13c 3cbf
00000360: 3530 42bf b49d 3fbf 0494 2fbf 27a6 30bf
00000370: 60a9 46bf 7eb9 abbd bbf7 9d3e 7577 143e
00000380: 7be8 df3d 0853 a03d eac4 1abc 3777 493e
00000390: 2aa4 353e 62ec 0a3d ddf0 71bd b1e0 05bd
000003a0: 0096 8cbd fe65 903d 83e2 32be f318 f5ba
000003b0: 11c1 c2bd b24e 5cbe a048 aebd 2282 abbd
000003c0: 7255 41be 5d76 a0be c7d4 63be c97b 9fbe
000003d0: 7509 48be e85b 41be 8036 c1bd 1f53 99bd
000003e0: 6c1b 2fbe de28 3fbe ec44 dbbd 398d f2bc
000003f0: fc03 71bd 7825 32bd ab75 c3bd 857e e2bd

feature.0.bias f4 [256]
0.13447101 -0.008099046 -0.12302966 -0.049933948 0.5308832 0.41151828 -0.020039415 -0.46967217
0.19984177 0.4576867 -0.629628 0.40138188 -0.11115203 0.30165488 0.53117734 -0.050738968
0.089758806 0.66113514 0.1081261 -0.44567877 -0.04457893 0.7026083 0.19447461 0.18446909
0.3240451 0.05417439 -0.24465239 -0.24625593 0.76229966 0.4627045 0.03916187 0.6212219
0.46416965 -0.09084606 0.40363756 0.010700302 0.15226388 -0.4006674 -0.1897171 0.17392373
0.2685897 0.2525798 0.4937111 0.123421885 0.12815125 0.41160265 0.21320362 -0.20650019
0.00071400986 0.4345214 -0.5118384 0.38100186 0.1959338 -0.31985903 0.10959913 0.52034384
0.33474424 -0.01901654 -0.3542915 -0.18902993 0.45777538 -0.44030237 0.3941676 0.0840112
0.256434 0.11489435 0.20002884 0.41592228 0.3700709 0.07270611 0.2720692 0.45495266
0.23752157 0.016828507 0.3644266 0.16820262 -0.5999409 0.27484414 -0.11610427 0.0052366843
0.4681196 0.3436961 0.040929582 -0.0654052 0.5408077 0.236459 0.16650207 -0.57593185
0.36372256 0.67224526 -0.44780886 0.15812895 0.27848002 -0.5299538 -0.42870554 0.27714697
-0.32776114 0.11131206 0.5801402 -0.4421336 0.4046981 -0.6067717 -0.51129675 0.57489526
0.5309748 0.18067925 -0.5685566 0.33829612 -0.059696022 0.4033923 0.23902252 0.16639501
0.20420773 -0.30822316 0.2400104 -0.45904458 0.13106444 0.3542218 0.27789557 0.4173668
0.24436252 0.49042532 0.30486098 0.11773024 -0.23109667 0.084116526 0.21253978 0.39365718
0.30660644 -0.023511028 0.20009533 0.31543007 -0.6822199 0.35249498 0.21225071 0.55530155
0.32628074 0.30813998 0.15861264 -0.009949696 -0.6919577 -0.47039816 -0.5204697 0.19069342
0.30201527 0.62225986 -0.64063466 0.47636947 -0.18401913 -0.354324 0.19637741 0.22060135
0.035828847 -0.48020715 0.21857645 0.3028069 0.22995712 -0.0076885233 0.2205134 -0.1901462
0.25746092 -0.5808727 0.07840602 -0.023949858 0.06727697 0.21093965 -0.19548926 0.5162692
-0.56887096 0.070285015 -0.36011887 0.3758657 -0.43164128 0.24492775 0.24119417 0.13767959
0.17549492 -0.4482522 0.13249013 -0.37374672 -0.3020988 0.018806772 -0.5991217 0.27614027
0.061810527 -0.093231685 0.56007355 0.32647756 0.49453068 0.5162228 -0.21329445 -0.2236717
0.39927864 -0.28115845 0.015362252 0.058939822 -0.3177013 0.46782202 -0.051638737 -0.20334777
0.12722279 0.2154566 0.3467567 0.24739654 -0.376818 0.21940109 0.13326363 0.1686289
0.36529917 0.30467978 0.29347873 -0.24786033 0.36053512 0.18631575 -0.59638023 -0.06560082
-0.05876116 0.56653696 0.21559305 -0.6601017 -0.020467483 -0.39091313 -0.4281524 -0.05909056
-0.34066033 -0.26671308 0.062519774 0.16149324 -0.14816599 0.10778561 -0.009497956 0.013418126
0.09127432 0.2022119 0.47944647 0.08112891 -0.46022448 -0.37796846 0.3957028 0.41168436
-0.020682951 -0.47437978 0.34555355 0.07257327 0.19678572 0.39706337 0.056907047 0.34467533
0.097385846 0.3877164 -0.509997 0.040485833 0.23168387 0.11573393 0.14484364 0.019654253
00000000: c5b2 093e dcb1 04bc f9f6 fbbd 8a87 4cbd
00000010: f6e7 073f 86b2 d23e b329 a4bc df78 f0be
00000020: 52a3 4c3e e955 ea3e 4d2f 21bf ed81 cd3e
00000030: ada3 e3bd 8272 9a3e 3dfb 073f aad3 4fbd
00000040: 77d3 b73d 2740 293f 3771 dd3d 0230 e4be
00000050: 6598 36bd 23de 333f 5a24 473e 77e5 3c3e
00000060: 3de9 a53e f7e5 5d3d 2886 7abe 842a 7cbe
00000070: 1226 433f 9be7 ec3e 3268 203d 6608 1f3f
00000080: a5a7 ed3e 800d babd 95a9 ce3e 5250 2f3c
00000090: 10eb 1b3e 4724 cdbe 3345 42be 1019 323e
000000a0: 9784 893e 2452 813e b4c7 fc3e 9dc4 fc3d
000000b0: 153a 033e 95bd d23e 0d52 5a3e c974 53be
000000c0: 642c 3b3a 9779 de3e d707 03bf ad12 c33e
000000d0: dfa2 483e 90c4 a3be 8275 e03d 4135 053f
000000e0: 9963 ab3e 93c8 9bbc b265 b5be 1091 41be
000000f0: 8961 ea3e 506f e1be 56d0 c93e 100e ac3d
00000100: 514b 833e bb4d eb3d 5cd4 4c3e c4f3 d43e
00000110: ef79 bd3e f1e6 943d a74c 8b3e 8eef e83e
00000120: db38 733e f0db 893c 2096 ba3e 4f3d 2c3e
00000130: ba95 19bf 5fb8 8c3e 13c8 edbd 7e98 ab3b
00000140: 5fad ef3e eff8 af3e c7a5 273d 29f3 85bd
00000150: 6072 0a3f 4f22 723e 857f 2a3e 4570 13bf
00000160: d839 ba3e 4418 2c3f 3447 e5be 8eec 213e
00000170: ef94 8e3e 0dab 07bf 4b7f dbbe 35e6 8d3e
00000180: 4fd0 a7be 94f7 e33d 1184 143f 565f e2be
00000190: 9734 cf3e 6455 1bbf 58e4 02bf 562c 133f
000001a0: f7ed 073f fb03 393e ed8c 11bf 2635 ad3e
000001b0: d183 74bd 6f89 ce3e 52c2 743e 7463 2a3e
000001c0: d51b 513e 6dcf 9dbe 49c5 753e e407 ebbe
000001d0: c235 063e 8f5c b53e 5448 8e3e 1ab1 d53e
000001e0: 2b3a 7a3e 0719 fb3e bd16 9c3e 8d1c f13d
000001f0: 9ba4 6cbe 4945 ac3d 07a4 593e 6f8d c93e
00000200: 85fb 9c3e 339a c0bc cae5 4c3e 0d80 a13e
00000210: f7a5 2ebf 397a b43e 4058 593e 3e28 0e3f
00000220: 450e a73e 86c4 9d3e 5a6b 223e 0d04 23bc
00000230: 2424 31bf 07d8 f0be 813d 05bf 2345 433e
00000240: bfa1 9a3e 6c4c 1f3f a200 24bf b3e6 f33e
00000250: 836f 3cbe f569 b5be 2917 493e 52e5 613e
00000260: 45c1 123d b6dd f5be 81d2 5f3e 8209 9b3e
00000270: e179 6b3e 02f0 fbbb 44ce 613e afb5 42be
00000280: ebd1 833e 13b4 14bf 5693 a03d 7e32 c4bc
00000290: 82c8 893d 9000 583e 562e 48be 382a 043f
000002a0: 87a1 11bf 97f1 8f3d 8061 b8be 7871 c03e
000002b0: 1600 ddbe 57ce 7a3e 9bfb 763e e1fb 0c3e
000002c0: f1b4 333e 5081 e5be 7eab 073e bb5b bfbe
000002d0: b2ac 9abe a910 9a3c 0a60 19bf 4262 8d3e
000002e0: 092d 7d3d 41f0 bebd fb60 0f3f 1128 a73e
000002f0: 2033 fd3e 2d27 043f dc69 5abe 320a 65be
00000300: 406e cc3e 00f4 8fbe f4b1 7b3c e26a 713d
00000310: bfa9 a2be 5e86 ef3e 2483 53bd 663a 50be
00000320: b146 023e a8a0 5c3e 188a b13e 8555 7d3e
00000330: 4aee c0be aeaa 603e 4376 083e 0ead 2c3e
00000340: 7e08 bb3e fdfe 9b3e d842 963e 19cf 7dbe
00000350: 0f98 b83e 8ec9 3e3e 60ac 18bf b959 86bd
00000360: 8baf 70bd 9108 113f 6dc4 5c3e 6dfc 28bf
00000370: 6cab a7bc c425 c8be cb36 dbbe f108 72bd
00000380: 086b aebe 9e8e 88be 5e0a 803d 7c5e 253e
00000390: d3b8 17be b4be dc3d 519d 1bbc b3d7 5b3c
000003a0: 08ee ba3d a310 4f3e 027a f53e ea26 a63d
000003b0: 8ba2 ebbe 1585 c1be 8f99 ca3e 4bc8 d23e
000003c0: 4b6f a9bc e8e1 f2be 65ec b03e 4ba1 943d
000003d0: 3282 493e e44b cb3e 5d17 693d 4979 b03e
000003e0: 3b72 c73d c482 c63e 2a8f 02bf 79d4 253d
000003f0: 893e 6d3e e905 ed3d e451 143e f501 a13c

feature.2.weight f4 [256, 256]
0.32245117 0.45433408 0.21009603 0.041831896 0.42137823 0.078397445 -0.054658305 -0.028764058
0.01820931 0.21194135 0.034328952 -0.1729166 -0.026265077 0.065847024 -0.05973466 0.045039453
0.5205066 0.20381986 0.467802 0.14368737 0.2066905 -0.05051697 -0.14281093 -0.057802048
-0.0281158 0.15401846 0.08014473 -0.04878045 0.08720651 -0.34210745 -0.43332377 -0.05866341
-0.03640175 0.12049948 -0.039717443 0.088952325 -0.021610918 -0.066086255 -0.23881164 0.22425994
0.08237872 0.35253412 -0.030801205 0.048189066 -0.005048002 0.1176658 -0.09968992 0.22546108
0.289977 0.06710368 0.08423741 0.08034909 -0.044167235 -0.12338191 0.19425319 0.05645436
0.07305101 -0.1385473 -0.08074731 -0.06864752 -0.24900754 0.33645287 -0.029631903 -0.3039171
-0.039903756 -0.07307043 -0.35500157 0.10728662 -0.11375704 0.45693877 -0.010646676 -0.21366182
0.16536996 -0.099292204 -0.08040607 -0.12017928 0.011246706 -0.014414308 -0.029855372 -0.121452406
-0.10220507 0.3990999 0.2744544 -0.065659255 0.008733757 -0.12223966 0.19547382 0.052243672
-0.097617045 0.08839516 0.19149685 0.091691315 0.24221395 -0.20943154 0.068846166 0.24662538
-0.068403065 0.11362845 -0.052119557 -0.01817737 -0.07583869 -0.061458338 -0.021032255 -0.20026432
-0.16291265 0.33778316 -0.0139991855 0.115695834 0.026939036 -0.0026873292 0.23693211 -0.0019474066
-0.09784328 0.00925015 0.10913746 -0.14166297 -0.017147342 -0.13790712 0.0022878612 -0.32426146
-0.19845171 0.038595945 0.11474455 0.0020675883 0.1990062 -0.33700132 0.12474919 -0.13012275
0.37298808 0.19647141 -0.30189216 -0.03247753 -0.058504596 0.12534383 -0.12250429 -0.13464238
0.07771495 0.014121126 -0.08038889 -0.052171998 -0.030184308 0.6382532 -0.014406116 0.026296746
0.36725277 0.13122635 0.10822173 -0.059577063 0.11942338 0.018141659 -0.243067 0.009999769
0.2248137 0.11750672 -0.12762879 -0.08593716 -0.034525096 0.27870786 -0.19779171 0.15993358
0.06566665 -0.1264137 0.2419219 0.101311885 -0.05751597 -0.115246125 -0.30623248 -0.07637266
0.08612045 0.19670798 0.17953597 -0.24196659 -0.4025939 -0.3128605 -0.14833398 0.3069756
0.2888118 0.06034882 -0.19663268 0.29461208 -0.26669338 0.47666806 0.07308523 0.027679441
0.24116376 0.15327512 -0.035193883 -0.009211543 -0.21028128 0.07819562 -0.02922487 0.26664996
-0.08768128 0.0793795 -0.16932838 0.56307286 0.23322007 -0.009544843 0.17937183 -0.001799868
-0.02375056 -0.13293308 0.0035496915 0.12092459 0.056584936 0.27054903 -0.0093712285 -0.23121059
0.20779753 -0.17516188 0.34502673 0.123501204 -0.08450265 0.17942207 0.041207183 -0.2581195
0.3367714 -0.08978464 0.06045939 0.041334074 -0.1929923 -0.101111285 0.20815913 0.18151513
0.09265963 -0.3405561 0.22326127 0.37857193 0.13695757 -0.4883623 -0.105596215 0.3596704
0.15867814 0.015940659 0.2035565 -0.09937588 0.13514256 0.06395503 -0.031995535 -0.10611726
0.29496017 -0.013128036 -0.065636806 -0.29036006 -0.24213287 0.101774566 -0.251994 0.08360469
0.17879766 0.20043588 -0.019258644 -0.04272467 -0.015077308 0.2986285 0.14378022 0.27497053
00000000: 5218 a53e 7a9e e83e 6a23 573e ec57 2b3d
00000010: e3be d73e d78e a03d 63e1 5fbd 9aa2 ebbc
00000020: b12b 953c 2707 593e 849c 0c3d 0d11 31be
00000030: dc29 d7bc ceda 863d 55ac 74bd 4a7b 383d
00000040: ec3f 053f 27b6 503e be83 ef3e c822 133e
00000050: ada6 533e e2ea 4ebd 073d 12be d7c1 6cbd
00000060: 1b53 e6bc 04b7 1d3e ec22 a43d 02ce 47bd
00000070: 5499 b23d b528 afbe 9ddc ddbe 0b49 70bd
00000080: 001a 15bd 6ec8 f63d c2ae 22bd a32c b63d
00000090: 6109 b1bc 3b58 87bd 0a8b 74be 66a4 653e
000000a0: 2db6 a83d 5a7f b43e cf52 fcbc e661 453d
000000b0: b669 a5bb c4fa f03d 3b2a ccbd 45df 663e
000000c0: de77 943e a76d 893d aa84 ac3d 108e a43d
000000d0: b4e8 34bd a8af fcbd 4fea 463e b03c 673d
000000e0: c59b 953d 58df 0dbe d85e a5bd 1297 8cbd
000000f0: d5fb 7ebe 8d43 ac3e 9bbe f2bc 069b 9bbe
00000100: 1f72 23bd f3a5 95bd c4c2 b5be 16b9 db3d
00000110: 73f9 e8bd e1f3 e93e 656f 2ebc 2aca 5abe
00000120: be56 293e b659 cbbd f0ab a4bd 8e20 f6bd
00000130: 1b44 383c fd29 6cbc 4193 f4bc 0abc f8bd
00000140: e450 d1bd d256 cc3e 4a85 8c3e 5c78 86bd
00000150: 0818 0f3c c958 fabd 4a2a 483e 76fd 553d
00000160: 72eb c7bd 8608 b53d c017 443e a8c8 bb3d
00000170: ef06 783e 3975 56be 38ff 8c3d 5d8b 7c3e
00000180: e816 8cbd 08b6 e83d 517b 55bd b5e8 94bc
00000190: 5151 9bbd bdbb 7bbd d64b acbc 1712 4dbe
000001a0: 93d2 26be eaf1 ac3e d75c 65bc f0f1 ec3d
000001b0: 41af dc3c e71d 30bb 559e 723e 1f40 ffba
000001c0: 0f62 c8bd f18d 173c 7683 df3d 1910 11be
000001d0: 9578 8cbc 8637 0dbe f1ef 153b 9905 a6be
000001e0: ed36 4bbe c816 1e3d 31ff ea3d 6080 073b
000001f0: 48c8 4b3e 708b acbe 817c ff3d e63e 05be
00000200: 4bf8 be3e cd2f 493e 9c91 9abe 2907 05bd
00000210: 84a2 6fbd 225a 003e 87e3 fabd b1df 09be
00000220: 0429 9f3d 4c5c 673c eea2 a4bd 4eb2 55bd
00000230: 1545 f7bc 9064 233f a107 6cbc 466c d73c
00000240: 8e08 bc3e 3360 063e 5ba3 dd3d 1407 74bd
00000250: 3f94 f43d d19d 943c 8ee6 78be 12d6 233c
00000260: 9035 663e 5da7 f03d 1fb1 02be d2ff afbd
00000270: 306a 0dbd ccb2 8e3e e989 4abe a1c5 233e
00000280: 3d7c 863d 9872 01be 60ba 773e 9b7c cf3d
00000290: de95 6bbd 2906 ecbd 81ca 9cbe 4569 9cbd
000002a0: eb5f b03d d16d 493e 47d8 373e 17c6 77be
000002b0: ca20 cebe 402f a0be dde4 17be e82b 9d3e
000002c0: 24df 933e 5330 773d 145a 49be 65d7 963e
000002d0: 098c 88be d60d f43e b6ad 953d ffbf e23c
000002e0: a2f3 763e 27f4 1c3e 7627 10bd 03ec 16bc
000002f0: fa53 57be 0625 a03d ff68 efbc 5886 883e
00000300: 3e92 b3bd b891 a23d 6b64 2dbe 8b25 103f
00000310: 3ed1 6e3e f961 1cbc 40ad 373e 8ce9 ebba
00000320: 8990 c2bc 9c1f 08be f1a1 683b 50a7 f73d
00000330: 9bc5 673d 6785 8a3e c889 19bc 78c2 6cbe
00000340: e0c8 543e a35d 33be 58a7 b03e 33ee fc3d
00000350: ba0f adbd 6bba 373e ddc8 283d 3d28 84be
00000360: 4d6d ac3e 02e1 b7bd 44a4 773d eb4d 293d
00000370: c69f 45be 6f13 cfbd ab27 553e 1adf 393e
00000380: 55c4 bd3d 5e5d aebe 9a9e 643e 2ed4 c13e
00000390: 9b3e 0c3e a00a fabe d442 d8bd b826 b83e
000003a0: 867c 223e fc95 823c 1d71 503e 9585 cbbd
000003b0: d062 0a3e dbfa 823d c00d 03bd 0254 d9bd
000003c0: 0505 973e f916 57bc 976c 86bd 13aa 94be
000003d0: aef1 77be 2f6f d03d 5c05 81be f038 ab3d
000003e0: bc16 373e 103f 4d3e 4ec4 9dbc 1000 2fbd
000003f0: d006 77bc d6e5 983e 1f3b 133e f0c8 8c3e

feature.2.bias f4 [256]
-0.02604439 0.23772158 -0.17793602 -0.025110865 0.003948059 0.1526969 0.21893346 -0.34554368
0.20896778 -0.07679313 0.2403251 0.1662645 0.008443434 0.20308533 0.1724368 0.17074355
-0.066393174 0.4861983 0.22418147 0.17060073 -0.03496612 0.17991103 -0.17257442 -0.09384718
-0.10001711 0.14177012 0.12148238 -0.04742141 0.46811843 -0.047712866 0.08427298 0.03422176
0.03289426 0.22816016 0.13318157 0.13682717 -0.012012327 0.36747003 -0.057858292 -0.02005307
-0.19717515 -0.12280884 -0.03932273 -0.4928172 0.16550499 0.64302707 0.057334125 -0.03710395
0.5262844 0.26467264 -0.33793116 0.22001432 0.19825311 0.14755064 -0.48963723 0.001762657
0.063251704 -0.19301768 0.07833097 0.0023901553 -0.117077336 0.12084799 0.047984563 0.14365435
0.048348986 -0.06960389 0.09806252 0.0882202 -0.010066414 -0.21417204 -0.047140494 -0.21368442
0.2120186 0.18212394 0.2808583 0.034234688 0.12057445 0.12421765 0.08910705 0.24532403
-0.09000792 0.2349311 0.4337286 -0.13348478 -0.3321303 0.079654545 -0.015528552 -0.14202131
0.10293539 -0.017232394 0.08097346 0.54679894 -0.07399975 -0.12314682 -0.2822127 0.112457044
-0.031919036 -0.051603384 -0.03861863 0.07953767 -0.08178883 0.23960343 0.778386 -0.10894497
-0.02433339 -0.07030786 0.14435238 0.20201224 0.082985714 0.67897254 0.22262414 0.2974317
-0.2490681 0.14737922 -0.079101615 0.13942848 0.07354811 0.025898255 0.49697366 0.30342463
0.14908071 0.038400043 -0.07683186 0.1293181 0.23387662 0.0896208 0.25240004 -0.25290623
0.06888351 0.13794494 0.05568635 0.5959851 -0.23570761 -0.04173209 -0.01288241 0.20460029
0.09501066 0.15695396 -0.13835739 0.14098223 0.17993194 -0.19301467 0.08671939 0.37002683
-0.20604023 0.07814151 0.1155732 0.3833302 0.24303104 0.23624699 0.2074336 -0.38096038
-0.33727115 0.14193065 0.059778858 0.055811357 0.0915657 0.53132695 -0.11368443 0.24845333
-0.0147386165 0.13594203 0.1754071 0.048242647 0.21807969 0.12441573 0.17083044 -0.54167587
0.14007315 -0.22975014 0.12101113 -0.006375186 -0.08535002 -0.16746253 0.6271269 -0.06901675
0.5641442 -0.24952325 0.09092346 -0.095143445 0.15740909 0.24700533 -0.020005198 0.52369076
0.14453836 0.11993191 0.124441296 0.20705464 0.61990184 0.69500333 0.06118351 0.28496197
0.13046777 0.1294575 0.15748301 0.14214922 0.013567852 0.48283625 0.009841849 -0.18624961
0.56877536 -0.3622566 0.23683652 0.24227966 0.36938286 -0.16292413 0.68461037 0.14418907
-0.032370184 0.14650242 -0.08935457 0.014954117 0.15366027 0.13560803 0.0045136414 0.5275174
0.03308017 0.070671484 -0.21096231 0.27876496 0.17902395 0.53488344 -0.057727963 0.1589826
0.09860307 0.019819312 0.2504977 0.09282896 0.0752373 -0.3317417 0.08897273 0.047694225
0.09887737 0.09137987 0.21773915 -0.13363785 0.037237223 0.2683233 -0.027883293 0.14653797
0.21795079 -0.29258397 0.05903578 -0.012322576 0.14266212 -0.04273401 0.15279722 -0.13276048
-0.031210335 0.107127845 0.15992603 0.6788696 0.026356265 0.0021203123 -0.17097387 -0.05602932
00000000: 0b5b d5bc 496d 733e dc34 36be 4db5 cdbc
00000010: b85e 813b 935c 1c3e 1830 603e 1aeb b0be
00000020: a6fb 553e b745 9dbd c817 763e 3e41 2a3e
00000030: 5456 0a3c 9af5 4f3e 4693 303e 66d7 2e3e
00000040: 25f9 87bd fcee f83e d48f 653e f5b1 2e3e
00000050: a238 0fbd 993a 383e 59b7 30be f332 c0bd
00000060: c5d5 ccbd 302c 113e c1cb f83d f43c 42bd
00000070: 38ad ef3e 916e 43bd 5097 ac3d 1e2c 0c3d
00000080: 22bc 063d d1a2 693e c060 083e 6c1c 0c3e
00000090: 5acf 44bc 0825 bc3e d1fc 6cbd 5646 a4bc
000000a0: 48e8 49be 3383 fbbd df10 21bd 8952 fcbe
000000b0: 247a 293e 6c9d 243f 30d7 6a3d 50fa 17bd
000000c0: 93ba 063f 2c83 873e 5005 adbe 6f4b 613e
000000d0: dd02 4b3e 8417 173e bbb1 fabe f408 e73a
000000e0: 1c8a 813d 6da6 45be fd6b a03d 27a4 1c3b
000000f0: 3ec6 efbd 277f f73d 768b 443d 201a 133e
00000100: 9609 463d 7c8c 8ebd 01d5 c83d cbac b43d
00000110: 9aed 24bc ea4f 5bbe 6416 41bd 17d0 5abe
00000120: 671b 593e b37e 3a3e a9cc 8f3e ac39 0c3d
00000130: bdef f63d d365 fe3d c27d b63d 3936 7b3e
00000140: 1356 b8bd c791 703e ad11 de3e 3cb0 08be
00000150: fc0c aabe ec21 a33d 786b 7ebc 096e 11be
00000160: cacf d23d f32a 8dbc 6ad5 a53d 04fb 0b3f
00000170: 2e8d 97bd 6634 fcbd 2f7e 90be e14f e63d
00000180: 89bd 02bd 125e 53bd 922e 1ebd a5e4 a23d
00000190: e780 a7bd 9a5a 753e 4e44 473f 8a1e dfbd
000001a0: d156 c7bc 91fd 8fbd 1cd1 133e 4cdc 4e3e
000001b0: 6af4 a93d 25d1 2d3f 95f7 633e f848 983e
000001c0: b50b 7fbe 94ea 163e 0700 a2bd 57c6 0e3e
000001d0: 64a0 963d 9428 d43c 5573 fe3e 795a 9b3e
000001e0: 9da8 183e 5d49 1d3d 065a 9dbd f76b 043e
000001f0: 5a7d 6f3e 1c8b b73d 943a 813e ed7c 81be
00000200: cc12 8d3d 7041 0d3e 5f17 643d 7b92 183f
00000210: 565d 71be 45ef 2abd be10 53bc bd82 513e
00000220: f394 c23d 8ab8 203e 8fad 0dbe a55d 103e
00000230: 1440 383e a3a5 45be ef99 b13d 2874 bd3e
00000240: 36fc 52be a808 a03d a4b1 ec3d db43 c43e
00000250: 21dd 783e bbea 713e 7969 543e 3d0d c3be
00000260: ceae acbe 4556 113e adda 743d 739a 643d
00000270: cc86 bb3d 0b05 083f 62d3 e8bd 8d6a 7e3e
00000280: 3d7a 71bc 6334 0b3e eb9d 333e 159a 453d
00000290: 4850 5f3e adcd fe3d 2dee 2e3e 45ab 0abf
000002a0: 566f 0f3e 9f43 6bbe afd4 f73d f0e6 d0bb
000002b0: fecb aebd 4c7b 2bbe 638b 203f a758 8dbd
000002c0: c16b 103f 0683 7fbe 1436 ba3d 91da c2bd
000002d0: d92f 213e f7ee 7c3e f1e1 a3bc 9910 063f
000002e0: dd01 143e dc9e f53d 14db fe3d 2206 543e
000002f0: e3b1 1e3f bdeb 313f 8f9b 7a3d 89e6 913e
00000300: 5899 053e 8290 043e 3a43 213e 918f 113e
00000310: b24b 5e3c 5036 f73e b53f 213c 38b8 3ebe
00000320: 439b 113f b279 b9be 4685 723e 2918 783e
00000330: c01f bd3e 95d5 26be a042 2f3f 4da6 133e
00000340: 9996 04bd bb04 163e 87ff b6bd 1d02 753c
00000350: 1e59 1d3e d5dc 0a3e 2be7 933b 610b 073f
00000360: 137f 073d 36bc 903d 8106 58be 48ba 8e3e
00000370: 0e52 373e 1fee 083f 2874 6cbd 56cc 223e
00000380: 68f0 c93d 1c5c a23c 3c41 803e 1c1d be3d
00000390: 0316 9a3d 0cda a9be 5637 b63d 055b 433d
000003a0: 3880 ca3d 5f25 bb3d 03f7 5e3e 5cd8 08be
000003b0: 0f86 183d ac61 893e 816b e4bc 0d0e 163e
000003c0: 7e2e 5f3e 91cd 95be 81cf 713d a1e4 49bc
000003d0: 0516 123e db09 2fbd e076 1c3e 5df2 07be
000003e0: d1ac ffbc d865 db3d a6c3 233e 66ca 2d3f
000003f0: 18e9 d73c f0f4 0a3b c613 2fbe 007f 65bd

value_stream.0.weight f4 [256, 256]
-0.032877687 -0.14381815 -0.0643954 -0.21325786 -0.08559636 -0.024265938 -0.32433334 -0.2356815
0.04833106 0.04904524 -0.008579061 -0.06040786 -0.16398802 0.14088495 -0.5404625 0.015240326
-0.099570245 -0.5711953 0.22784205 -0.41753665 0.11266592 -0.12388166 -0.049300276 -0.2021877
-0.20943801 -0.24287207 -0.1092661 -0.088738605 -0.2080583 -0.565425 -0.17227681 0.008971734
-0.33606637 -0.34459063 -0.03191288 -0.21426007 -0.17355424 -0.27000347 -0.041066628 0.06643034
-0.15029459 -0.009262556 -0.7291989 -0.1795099 0.029095506 -0.09676351 -0.41042832 -0.03210144
0.004606918 -0.21836846 -0.20319557 0.19670372 0.036334217 -0.45084164 -0.19044958 0.16311117
-0.14633416 -0.16819686 -0.09031536 0.06972459 -0.47396296 -0.1358877 -0.27764148 -0.10398102
-0.17073797 -0.04710511 -0.058322273 -0.41001278 -0.30390412 -0.31302384 0.020850666 -0.34683374
0.09315868 -0.17762482 -0.082363784 0.010458048 -0.21572462 -0.8601819 0.090038575 -0.33288988
-1.1621699 -0.5037419 0.35793367 0.08707739 -0.24163757 -0.66868097 -0.10782232 -0.32439616
0.015862947 -0.062548086 -0.17353287 0.023176946 -0.7056848 -0.051725414 -0.25169152 -0.03331787
0.08257251 0.04936616 -0.006383618 -0.1304004 -0.02380752 -0.3510075 -0.12524909 -0.4576827
-0.7341828 -0.2560331 -0.108107574 -0.5959196 0.17785433 -0.09160595 0.0050168205 -0.38474056
-0.82635117 -0.017599732 0.011315893 0.025069445 -0.045650724 -0.23801179 0.056908667 0.4343096
-0.092462875 0.17566176 -0.12543198 0.11832535 -0.27760997 -0.10194114 -0.22190057 -0.1921956
-0.12455592 -0.2282454 -0.17751725 0.20996392 -0.3323273 -0.02466848 -0.1812432 -0.23422472
-0.3753362 -0.6203944 -0.19588538 0.036488265 0.08983961 -0.34714538 -0.13408713 -0.031582527
-0.5752658 -0.016410962 -0.29008695 -0.010826771 -0.30909693 -0.1300115 -0.086234234 -0.29136327
-0.17978261 -0.29177395 -0.032798033 -0.1812721 -0.48681757 -0.04456584 -0.33606324 -0.45395285
0.08683275 -0.10416228 -0.53222346 -0.3101575 -0.05718081 -0.22075796 -0.14267358 -0.3450583
-0.13330065 -0.08812031 -0.07127145 -0.18953125 -0.026654394 -0.26039207 0.086387336 -0.5477871
0.0946553 -0.08079967 0.012369246 -0.19870542 -0.312658 -0.0028665361 -0.16715775 -0.40885285
-0.31667936 -0.10543767 0.008241579 -0.07040278 0.13297445 -0.06726075 -0.08054831 0.011808151
-0.21006241 -0.29312554 -0.2827613 -0.03924389 -0.0048233573 0.105313785 -0.5416493 -0.7471329
-0.03228977 -0.27169198 -0.061787218 -0.06890837 -0.15595198 0.19681941 -0.05738084 -0.032731242
-0.16925587 0.08816538 -0.084706016 0.06354879 -0.32186174 -0.06292893 -0.029593978 -0.09981636
-0.15938415 0.09166359 -0.29804358 -0.24688789 -0.30702636 0.15281871 -0.33756697 -0.72012585
-0.18850368 -0.23200302 -0.28607404 -0.1812571 -0.17722282 -0.30503517 -0.14456327 -0.06675059
-0.36381593 -0.41211632 -0.2951745 -0.1822343 -0.07815065 -0.45145023 -0.1904993 -0.08224853
-0.16347468 -0.23253898 -0.27908236 -1.0221096 -0.47755983 -0.03988219 0.13398394 -0.025732368
-0.03337321 -0.3019023 0.12354539 -0.020316793 0.021232158 -0.12708396 -0.19155815 -0.025045965
00000000: c1aa 06bd 1145 13be bce1 83bd 4560 5abe
00000010: 254d afbd 5cc9 c6bc 050f a6be 7e56 71be
00000020: caf6 453d a9e3 483d 318f 0cbc 3b6e 77bd
00000030: 7aec 27be 2544 103e c05b 0abf 8fb2 793c
00000040: 7ceb cbbd db39 12bf 6d4f 693e 5dc7 d5be
00000050: 64bd e63d abb5 fdbd 16ef 49bd 4b0a 4fbe
00000060: eb76 56be 75b3 78be e8c6 dfbd 96bc b5bd
00000070: 3c0d 55be b1bf 10bf 5569 30be 2efe 123c
00000080: e410 acbe 2f6e b0be 14b7 02bd fe66 5bbe
00000090: 34b8 31be e53d 8abe 7b35 28bd a10c 883d
000000a0: d3e6 19be fac1 17bc c7ac 3abf 71d1 37be
000000b0: b359 ee3c f22b c6bd a923 d2be cd7c 03bd
000000c0: a1f5 963b fb9b 5fbe 8012 50be b36c 493e
000000d0: 30d3 143d b7d4 e6be 3705 43be 9d06 273e
000000e0: 9fd8 15be cc3b 2cbe 42f7 b8bd c4cb 8e3d
000000f0: 46ab f2be 2526 0bbe 0627 8ebe 00f4 d4bd
00000100: efd5 2ebe 4af1 40bd 56e3 6ebd 32ed d1be
00000110: 5299 9bbe a944 a0be 04cf aa3c 3194 b1be
00000120: fac9 be3d 48e3 35be 58ae a8bd 3c58 2b3c
00000130: eae6 5cbe e234 5cbf 2566 b83d 8b70 aabe
00000140: fcc1 94bf 3bf5 00bf 1543 b73e a155 b23d
00000150: d76f 77be ad2e 2bbf f3d1 dcbd 4117 a6be
00000160: 03f3 813c 3619 80bd 9ab2 31be 94dd bd3c
00000170: c2a7 34bf 07de 53bd b6dd 80be 5278 08bd
00000180: c71b a93d 2c34 4a3d ab2d d1bb af87 05be
00000190: fd07 c3bc 41b7 b3be 4c41 00be 6355 eabe
000001a0: 67f3 3bbf c516 83be 8167 ddbd 308e 18bf
000001b0: 721f 363e e69b bbbd 2464 a43b b7fc c4be
000001c0: c08b 53bf 502d 90bc 4c66 393c 705e cd3c
000001d0: 41fc 3abd 5db9 73be 1019 693d d45d de3e
000001e0: 2d5d bdbd ade0 333e 3e71 00be 9054 f23d
000001f0: e522 8ebe 84c6 d0bd e739 63be ecce 44be
00000200: 2d17 ffbd 2ab9 69be 15c7 35be c800 573e
00000210: ce26 aabe 8d15 cabc d197 39be 9bd8 6fbe
00000220: 112c c0be 2bd2 1ebf 2d96 48be b874 153d
00000230: d4fd b73d 0abd b1be 234e 09be ae5c 01bd
00000240: 9f44 13bf 4870 86bc 4786 94be c562 31bc
00000250: f441 9ebe bc21 05be 939b b0bd 912d 95be
00000260: ef18 38be 6563 95be 3b57 06bd 659f 39be
00000270: 2740 f9be ac8a 36bd 7b10 acbe 826c e8be
00000280: 5ed5 b13d 0953 d5bd cc3f 08bf f7cc 9ebe
00000290: 6d36 6abd 600e 62be 0619 12be 7bab b0be
000002a0: f77f 08be 6c78 b4bd c4f6 91bd 7b14 42be
000002b0: 515a dabc 1c52 85be d8eb b03d c63b 0cbf
000002c0: a3da c13d 4c7a a5bd 61a8 4a3c 6f79 4bbe
000002d0: b614 a0be 7fdc 3bbb 672b 2bbe 2955 d1be
000002e0: cc23 a2be b5ef d7bd b007 073c 552f 90bd
000002f0: 742a 083e 01c0 89bd 83f6 a4bd fa76 413c
00000300: 9a1a 57be 8d14 96be 17c6 90be 34be 20bd
00000310: 410d 9ebb c1ae d73d 87a9 0abf 1a44 3fbf
00000320: 4742 04bd 361b 8bbe 9814 7dbd d51f 8dbd
00000330: e0b1 1fbe 078b 493e 2c08 6bbd 3211 06bd
00000340: 6951 2dbe 0d90 b43d 597a adbd de25 823d
00000350: 10cb a4be e2e0 80bd 126f f2bc 856c ccbd
00000360: 9935 23be 1fba bb3d 2b99 98be 2ed0 7cbe
00000370: 8f32 9dbe 827c 1c3e 94d5 acbe 2b5a 38bf
00000380: 1c07 41be 3392 6dbe 4c78 92be 769b 39be
00000390: e679 35be 922d 9cbe 6508 14be 89b4 88bd
000003a0: 1546 babe e900 d3be 1d21 97be a19b 3abe
000003b0: 730d a0bd 7c24 e7be 4012 43be eb71 a8bd
000003c0: e865 27be b31e 6ebe e2e3 8ebe 7dd4 82bf
000003d0: b982 f4be 825b 23bd 1633 093e b0cc d2bc
000003e0: 59b2 08bd f092 9abe 5e05 fd3d 676f a6bc
000003f0: 10ef ad3c 4c22 02be d227 44be 322d cdbc

value_stream.0.bias f4 [256]
-0.19036809 0.101785764 0.4209029 0.3033484 -0.13280703 0.28189838 0.22897664 -0.0713843
-0.04021349 0.50815266 0.18852307 -0.029299885 -0.4296452 0.48251188 0.23544163 -0.11248462
0.38151523 0.24953793 0.22320661 0.16508223 0.27159107 0.56033444 -0.16204853 0.15904298
-0.19438806 0.0629186 0.22720529 -0.07077806 0.30453074 -0.09893676 0.51421934 0.21531747
0.27563715 0.06436109 0.16067934 0.5198472 0.14508267 -0.05480604 -0.16247796 0.55731004
0.53475076 0.18754852 0.03712498 -0.073101036 -0.18702078 0.30359343 -0.022079699 -0.16533646
0.2745475 0.24986048 0.2720607 0.25767216 0.20083468 0.26907954 -0.027736887 0.06746968
-0.094035506 -0.03637467 0.13699462 -0.18268873 0.12255081 0.07790546 -0.17538492 0.2429745
0.6057055 -0.29328063 -0.083336726 0.13339548 0.56088835 -0.13718633 0.30229157 0.13686964
-0.09638443 0.2470811 0.33216557 -0.10289319 -0.1803798 -0.25494534 -0.13018908 0.20298542
0.31377175 -0.21293369 -0.12424159 0.39798385 -0.1290054 0.13334364 0.25705457 -0.070740856
-0.071481906 -0.22487651 -0.15915146 -0.15714957 0.5004865 0.17835099 0.28059176 -0.09229653
-0.17103785 0.47692466 0.21722211 0.46439406 -0.14555225 -0.12826942 0.23656712 0.02277422
0.76243 -0.19673847 -0.09863305 0.28829756 0.31996185 -0.17420764 0.23954692 -0.22331706
-0.05257645 0.36699444 0.3605073 -0.1712467 -0.19389011 0.24736933 0.3023737 -0.030500118
0.22554883 0.33702472 -0.08372802 0.5071093 -0.14209798 0.1885861 -0.16378175 -0.07411145
0.31035632 -0.2060601 0.21208613 0.19406776 -0.036218923 -0.11593486 0.40201417 0.5076666
0.21027523 0.23029043 -0.048584335 0.37266564 0.4495886 0.32180795 0.39925158 0.31191194
-0.079358265 0.16796124 0.43254727 0.01409589 0.295581 0.2149795 0.33406305 -0.121232316
0.2261667 0.40145388 0.3515819 -0.23715965 0.15775424 -0.11167942 0.37476388 0.20920362
-0.20566496 -0.054228745 -0.101530105 0.21789776 -0.105720595 0.20134434 0.30528173 0.2217761
-0.03955826 -0.16625589 -0.22534436 0.03593053 0.2771245 0.0644659 0.5650548 0.27963075
0.010779821 0.312316 0.7373775 -0.11623995 -0.06625276 -0.118919365 0.57214457 0.20979805
0.17718975 0.66647965 -0.23712175 0.26725176 0.19511403 0.44540468 -0.06965543 -0.11226121
-0.093931 0.15807104 0.11596623 -0.028221305 -0.045489084 -0.12336695 0.34684047 0.15324748
-0.16203323 0.2939532 -0.24351895 0.5310122 -0.12834668 -0.18358816 -0.026609635 0.3113933
0.12582467 0.28200504 -0.10961835 -0.11906686 0.18388872 0.25416094 -0.15028267 0.020506434
0.27243942 -0.04632412 0.44414842 -0.16828178 0.25999427 -0.15257286 -0.14319566 -0.030164465
-0.10469638 0.2386574 -0.061393123 -0.04691847 -0.24086654 0.3592146 0.2436785 -0.072231494
0.18624115 0.054368038 0.31594226 -0.19303213 0.49916413 -0.14943288 0.25869054 -0.10372048
0.69744986 0.19172543 0.503536 -0.15228331 0.2212881 0.004426583 0.30220014 0.14697514
0.24003036 0.42365137 0.3137462 -0.20977928 0.2909179 -0.10892472 0.31564677 0.3307049
00000000: daef 42be 0e75 d03d 9680 d73e 7b50 9b3e
00000010: 91fe 07be fc54 903e da78 6a3e ef31 92bd
00000020: e7b6 24bd 4b16 023f 310c 413e 5006 f0bc
00000030: 75fa dbbe cc0b f73e 9c17 713e 565e e6bd
00000040: f755 c33e df86 7f3e 4690 643e 510b 293e
00000050: fc0d 8b3e 1472 0f3f 0df0 25be 2adc 223e
00000060: aa0d 47be 78db 803d 81a8 683e 16f4 90bd
00000070: 74eb 9b3e 5b9f cabd e1a3 033f 2f7c 5c3e
00000080: 5020 8d3e bfcf 833d 2089 243e b514 053f
00000090: 8d90 143e 4c7c 60bd 9f60 26be dfab 0e3f
000000a0: 6de5 083f b80c 403e 5d10 183d ffb5 95bd
000000b0: 6082 3fbe 9970 9b3e 7ce0 b4bc f64d 29be
000000c0: 7d91 8c3e 6ddb 7f3e 8a4b 8b3e 9bed 833e
000000d0: 9ba7 4d3e cbc4 893e 7838 e3bc 8b2d 8a3d
000000e0: b095 c0bd 9bfd 14bd 5148 0c3e c112 3bbe
000000f0: ebfb fa3d e68c 9f3d 1b98 33be 4fce 783e
00000100: 840f 1b3f e128 96be 72ac aabd d398 083e
00000110: 6196 0f3f 937a 0cbe f6c5 9a3e 8e27 0c3e
00000120: 3365 c5bd d402 7d3e 9b11 aa3e aab9 d2bd
00000130: 7bb5 38be 3288 82be 4950 05be 69db 4f3e
00000140: b1a6 a03e 4a0b 5abe 6072 febd 8ac4 cb3e
00000150: fe19 04be 3c8b 083e a89c 833e 95e0 90bd
00000160: 1b65 92bd 0746 66be 9af8 22be d1eb 20be
00000170: e21f 003f a4a1 363e b9a9 8f3e f705 bdbd
00000180: 8c24 2fbe 782f f43e 796f 5e3e 0fc5 ed3e
00000190: a60b 15be 0f59 03be a73e 723e 0091 ba3c
000001a0: 9d2e 433f cf75 49be 2000 cabd bd9b 933e
000001b0: 0ad2 a33e 7d63 32be ca4b 753e 3aad 64be
000001c0: 675a 57bd b2e6 bb3e 6a94 b83e 4c5b 2fbe
000001d0: 218b 46be 634e 7d3e bad0 9a3e 62db f9bc
000001e0: 46f6 663e 818e ac3e 9979 abbd ead1 013f
000001f0: 2282 11be b71c 413e 67b6 27be bec7 97bd
00000200: 06e7 9e3e 6b01 53be 1b2d 593e b3b9 463e
00000210: 4b5a 14bd 426f edbd cdd4 cd3e 70f6 013f
00000220: 6452 573e 41d1 6b3e 5e00 47bd 08ce be3e
00000230: 7a30 e63e 03c4 a43e b46a cc3e ecb2 9f3e
00000240: 9686 a2bd 08fe 2b3e d676 dd3e 73f2 663c
00000250: 6556 973e 9623 5c3e 500a ab3e a648 f8bd
00000260: 3e98 673e 5d8b cd3e 8b02 b43e fbd9 72be
00000270: 548a 213e 2eb8 e4bd 0de1 bf3e 7939 563e
00000280: d699 52be f61e 5ebd 04ef cfbd 9720 5f3e
00000290: 0a84 d8bd 362d 4e3e e34d 9c3e 4619 633e
000002a0: d807 22bd fc3e 2abe acc0 66be e42b 133d
000002b0: 43e3 8d3e b306 843d 6ea7 103f c32b 8f3e
000002c0: d99d 303c e2e7 9f3e c6c4 3c3f 360f eebd
000002d0: 87af 87bd ff8b f3bd 1178 123f 4dd5 563e
000002e0: 3b71 353e 699e 2a3f 0bd0 72be 39d5 883e
000002f0: f9cb 473e 150c e43e 82a7 8ebd 35e9 e5bd
00000300: e55e c0bd 60dd 213e b47f ed3d 5e30 e7bc
00000310: c352 3abd d0a7 fcbd 1395 b13e e8ec 1c3e
00000320: 0aec 25be 0981 963e 085d 79be 6af0 073f
00000330: 506d 03be 89fe 3bbe 73fc d9bc f16e 9f3e
00000340: 2fd8 003e f762 903e 967f e0bd 53d9 f3bd
00000350: 534d 3c3e 6221 823e b3e3 19be 1cfd a73c
00000360: 2e7d 8b3e 5cbe 3dbd 6c67 e33e 0f52 2cbe
00000370: f81d 853e 0f3c 1cbe e2a1 12be 781b f7bc
00000380: 0e6b d6bd 9b62 743e 5b77 7bbd 952d 40bd
00000390: b8a5 76be faea b73e db86 793e 1bee 93bd
000003a0: 00b6 3e3e 05b1 5e3d 2fc3 a13e 37aa 45be
000003b0: 7192 ff3e ef04 19be 1673 843e 676b d4bd
000003c0: 138c 323f ac53 443e bce7 003f 28f0 1bbe
000003d0: 5999 623e df0c 913b fab9 9a3e a780 163e
000003e0: 85ca 753e d5e8 d83e 58a3 a03e 61d0 56be
000003f0: 31f3 943e ec13 dfbd 749c a13e 2752 a93e

value_stream.2.weight f4 [1, 256]
0.58511156 0.44858366 -0.8366352 -0.92681825 0.55244446 -0.84828323 -0.7319263 0.50554127
-1.0427336 -0.78533435 -0.8507953 -0.72207695 -0.7634105 0.7030369 0.72958744 -0.21488759
-0.94034815 0.2755718 -0.65124506 -0.7067507 -0.7164174 -0.8163156 0.5041551 -0.8276332
0.58051604 -0.79471 -0.4149212 0.40313157 -0.66082525 0.56635106 -0.94261605 -0.6460782
-0.9943623 0.7378113 -0.65768623 0.5777483 -0.7928804 0.63568497 -0.32005647 -0.8384483
-0.9491168 -0.7569914 1.0202885 -0.08403964 0.49022767 0.6849798 0.63060015 0.74657285
-0.5200945 -0.7904886 0.2983052 -0.92781967 0.54857385 -1.0414898 0.6052506 -0.7476634
0.48815233 0.7388012 -0.68883055 0.6898009 -0.58249754 0.2972621 0.7049447 -0.7663865
-0.9653847 -0.584792 0.6510141 0.35957897 -0.77541566 0.66543525 -0.8661815 -0.9246748
0.45540887 -0.6657453 -0.62995726 0.7096385 0.61774284 0.69999415 0.43131492 0.29451764
-0.4485241 0.63962936 0.7600287 -0.8242447 0.6997813 -0.7685505 -0.42034742 0.78252023
-0.28712 0.6410588 0.58661777 0.64680105 0.7091504 -0.6454316 0.4435309 0.52756566
0.7974155 -0.86853075 -0.54659474 0.70971185 0.9380777 -0.23782991 -0.7123605 0.7752729
-0.8927883 0.73094255 0.46953422 -0.5802978 -0.42468622 0.7034216 -0.8539462 0.67678976
0.27053636 -0.5424846 -0.572944 0.59446925 -0.19777605 0.3421698 -1.1306996 -0.33609688
-0.75204533 -0.84682894 0.45668995 -0.98577255 0.72237265 -1.6071427 0.7195402 0.7140758
-0.87942165 -0.122563876 -0.51673067 -0.71727824 0.7091844 -0.22448705 0.34919584 -0.9352306
0.38976538 -1.6994731 0.7194355 0.26767898 -0.95764744 -0.47661227 0.6558276 -0.5772999
0.55347455 -0.7473986 0.5207789 0.4931628 -0.84699833 -0.35512114 -0.4900979 0.7584798
-0.5672019 -0.932217 0.32224557 0.440812 -0.6098847 -0.20196386 -0.5813606 0.2506522
0.6739061 0.43450966 0.60168946 -0.6734644 0.5747807 -1.8331556 -0.7938802 -0.9182475
0.61759835 0.5303487 0.59985054 -0.30987525 -1.0482993 -0.79491735 -0.8387686 0.44936544
0.358965 -0.765949 -0.8748843 0.48870742 0.5506132 0.7834757 -0.943318 -0.61248785
-0.6756085 -0.8848174 0.7072425 0.3945695 -0.7578208 0.7556713 0.51461387 0.55230325
0.70043737 -0.8500183 -0.59557986 0.6501334 0.6614255 0.63002056 0.4196411 0.7106174
0.76593864 -0.8827099 0.5963126 -0.78163236 0.6364692 0.56594634 0.3844619 -1.1234866
-0.77164316 -0.814609 0.64451355 0.7339117 -0.7868511 -0.6471473 -0.2539291 0.38868174
-0.7502688 0.59520495 -0.61611193 0.8542953 -0.53837943 0.57991666 0.63796604 -0.19980806
0.5115193 -0.4619285 -0.300799 0.5607721 0.6235231 -0.46966305 -1.0515273 0.67228854
-0.90532064 -0.66891474 -0.7459977 0.69294167 -0.7484402 0.61357546 -0.5165231 0.5229172
-0.85223365 -0.7566541 -0.80561686 0.7375255 -1.0126582 0.6842548 -0.38983998 -0.77990294
-0.7496395 -0.86076766 -0.6502919 0.6825017 -0.8068005 0.54567116 -0.8955184 -1.0347486
00000000: dfc9 153f c2ac e53e b92d 56bf f643 6dbf
00000010: 006d 0d3f 1729 59bf 865f 3bbf 276b 013f
00000020: 4b78 85bf ac0b 49bf b9cd 59bf 09da 38bf
00000030: df6e 43bf 3afa 333f 3ec6 3a3f 7e0b 5cbe
00000040: a8ba 70bf bf17 8d3e ffb7 26bf 9ded 34bf
00000050: 2167 37bf 0ffa 50bf 4f10 013f c5df 53bf
00000060: b39c 143f 1d72 4bbf 8d70 d4be 4367 ce3e
00000070: d82b 29bf 62fc 103f 494f 71bf 6265 25bf
00000080: 878e 7ebf 34e1 3c3f 205e 28bf 50e7 133f
00000090: 36fa 4abf 40bc 223f 71de a3be 8ca4 56bf
000000a0: 52f9 72bf 30ca 41bf d098 823f fa1c acbd
000000b0: 1fff fa3e d65a 2f3f 036f 213f 661f 3f3f
000000c0: ea24 05bf 765d 4abf 76bb 983e 9785 6dbf
000000d0: 566f 0c3f 8a4f 85bf b4f1 1a3f de66 3fbf
000000e0: 1aef f93e 1322 3d3f 3357 30bf cb96 303f
000000f0: 8f1e 15bf bd32 983e 4177 343f e831 44bf
00000100: 7423 77bf eeb4 15bf dca8 263f bc1a b83e
00000110: a481 46bf f759 2a3f 12be 5dbf 7db7 6cbf
00000120: 5a2b e93e 496e 2abf e144 21bf deaa 353f
00000130: 6524 1e3f d132 333f 4fd5 dc3e 04cb 963e
00000140: f3a4 e5be c0be 233f 3e91 423f b301 53bf
00000150: de24 333f babf 44bf c737 d7be 3f53 483f
00000160: 6501 93be 6e1c 243f 952c 163f c194 253f
00000170: e18a 353f 013b 25bf 7b16 e33e 8b0e 073f
00000180: 6c23 4c3f 0858 5ebf a2ed 0bbf adaf 353f
00000190: dc25 703f af89 73be 425d 36bf 4978 463f
000001a0: c68d 64bf 0d1f 3b3f ca66 f03e 668e 14bf
000001b0: 7970 d9be 7013 343f 389c 5abf 1842 2d3f
000001c0: be83 8a3e 45e0 0abf 75ac 12bf 232f 183f
000001d0: ce85 4abe e130 af3e c4ba 90bf e414 acbe
000001e0: 0b86 40bf c8c9 58bf 44d3 e93e 975b 7cbf
000001f0: 6aed 383f dab6 cdbf c933 383f accd 363f
00000200: c721 61bf c502 fbbd 7648 04bf 8c9f 37bf
00000210: 1c8d 353f efdf 65be ccc9 b23e 466b 6fbf
00000220: 548f c73e 5688 d9bf ed2c 383f 380d 893e
00000230: 6228 75bf 8606 f4be 51e4 273f edc9 13bf
00000240: 82b0 0d3f 8455 3fbf c451 053f d67f fc3e
00000250: e2d4 58bf 70d2 b5be 1dee fabe bb2b 423f
00000260: 2534 11bf c6a5 6ebf 5ffd a43e 1cb2 e13e
00000270: 6721 1cbf 9dcf 4ebe 0cd4 14bf 7c55 803e
00000280: 1c85 2c3f 0d78 de3e 5208 1a3f 2a68 2cbf
00000290: d424 133f d8a4 eabf bc3b 4bbf 4512 6bbf
000002a0: ed1a 1e3f efc4 073f ce8f 193f f8a7 9ebe
000002b0: ac2e 86bf b47f 4bbf 8ab9 56bf 3a13 e63e
000002c0: 43ca b73e 3c15 44bf 6bf8 5fbf dc37 fa3e
000002d0: fdf4 0c3f dd91 483f 4a7d 71bf 01cc 1cbf
000002e0: aef4 2cbf 6583 62bf d80d 353f 0305 ca3e
000002f0: 8b00 42bf ad73 413f bcbd 033f bf63 0d3f
00000300: dd4f 333f cd9a 59bf ec77 18bf 246f 263f
00000310: 2e53 293f 0749 213f 33db d63e 06eb 353f
00000320: 8e14 443f 47f9 61bf f1a7 183f 0f19 48bf
00000330: a5ef 223f dce1 103f 31d8 c43e 69ce 8fbf
00000340: 688a 45bf 378a 50bf d7fe 243f a3e1 3b3f
00000350: 136f 49bf 72ab 25bf ff02 82be 4b01 c73e
00000360: 9e11 40bf 5a5f 183f 83b9 1dbf 19b3 5a3f
00000370: 3cd3 09bf 6b75 143f be51 233f 7c9a 4cbe
00000380: eef2 023f e481 ecbe 5402 9abe c38e 0f3f
00000390: 369f 1f3f ad77 f0be 7298 86bf 1a1b 2c3f
000003a0: 18c3 67bf ff3d 2bbf b5f9 3ebf a064 313f
000003b0: c799 3fbf 4813 1d3f dc3a 04bf e7dd 053f
000003c0: fc2b 5abf 15b4 41bf e83c 4ebf 79ce 3c3f
000003d0: c99e 81bf 532b 2f3f 1b99 c7be b8a7 47bf
000003e0: 60e8 3fbf 455b 5cbf 8879 26bf 6eb8 2e3f
000003f0: 7a8a 4ebf 1bb1 0b3f b240 65bf a472 84bf

advantage_stream.0.weight f4 [256, 256]
0.025462026 -0.164027 0.10580704 -0.03481529 0.14435875 0.102816716 0.13549474 0.1644096
0.4100732 -0.06572832 -0.55170107 -0.23918638 -0.37816483 -0.042978115 -0.05245413 -0.09715759
-0.51368725 0.22794147 -0.04239786 0.53993195 -0.5957536 -0.18997675 -0.09350558 -0.23589012
0.15355772 -0.24603102 -0.23013169 -0.7839601 0.014786804 -0.28461835 0.260552 -0.3000343
-0.7146072 0.5762521 -0.07689004 -0.26234967 -0.15167391 -0.58575094 -0.32168943 0.1513229
-0.2755116 0.2628697 -0.80341035 0.10582497 -0.30830905 0.18409686 0.07401506 -0.44514441
0.06921935 -0.5715188 0.1422068 0.171371 -1.0454944 -1.058473 0.26037824 0.028764373
0.06738059 0.17182413 0.09836202 -0.07708895 0.16079637 -0.5732443 -0.10414105 -0.1535282
-0.2562004 -0.30754626 0.25355366 -0.35084504 -0.75212026 0.07942401 -0.3791585 0.11781203
-0.1017524 0.03952595 -0.043556575 -0.11821975 0.1318815 -1.442211 -0.016710432 -0.25020257
0.01911321 0.1742384 0.024456918 -0.21538582 0.06914339 -0.44603187 0.06500872 0.15920362
-0.12368288 0.16710937 -0.7611999 0.26730374 0.25239688 -0.007151176 0.14180349 0.3897552
-0.14802693 -0.17183904 -0.13231745 -0.61089987 0.11875351 -0.2679134 0.06269825 -0.45043522
-0.28770682 0.21568929 -0.20128901 -0.08793225 -0.05665173 0.29902482 -0.12360928 0.08374076
0.034343272 -0.60230136 0.48294538 0.2958767 -0.1113709 0.023437869 0.06103984 0.06778739
0.2698663 0.056249253 -0.23496631 -0.15275744 -0.21543208 -0.56520194 -0.23416795 0.2673769
0.1583903 -0.068878174 -0.4286658 0.22735564 0.044685833 -0.5469281 0.03278073 0.121403135
-0.50813717 -0.6211482 0.038500156 0.09305307 0.038841624 0.13170168 -0.6465353 0.11058205
-0.21483906 -0.6507478 -0.3272049 0.0003944464 -0.6431835 0.27639347 0.35204968 0.10625786
0.13317607 -0.25106305 -0.40095055 -0.4672358 -0.33477294 -0.06563222 0.076975875 -0.4433444
-0.035557788 0.1882021 -0.31017694 -0.33202273 -0.6883765 -0.024976073 -0.3434855 0.13855995
-1.0146514 0.18851276 -0.29274422 -0.4613638 0.11462166 0.060141034 0.07111279 -0.22713764
0.225635 0.17019008 -0.07242497 -0.6129013 -0.4636219 0.0833932 -0.100467905 0.41631162
-0.00787895 -0.11004408 -0.15148091 0.123574466 0.14965715 0.118024506 -0.030504242 -0.29955336
-0.85723025 0.23514032 0.25844646 0.23214716 0.26042667 -0.010874065 -0.17420669 0.59256715
0.10879988 -0.25027657 0.39108154 -0.044233035 0.025484972 -0.3476831 0.18200196 -0.20769224
0.0057910895 -0.11426469 0.03429614 -0.31261927 0.1959305 0.08936299 -0.19959001 0.035294965
-0.8209662 -0.7005237 0.14366274 -0.032903392 -0.10118467 0.08214653 -0.4462153 0.9465054
-0.6996297 -0.13343242 -0.08015508 -0.58770764 -0.8847352 0.032235384 -0.022610757 -0.09482913
-0.07287374 -0.14241135 0.2553554 0.21046335 -0.27386153 -0.7483404 0.12415485 0.05950441
-0.49280095 0.108909704 0.19141434 -0.67516655 0.04308149 0.18518773 0.1841504 0.104891226
-0.14593677 -0.6522316 0.299638 -0.15730573 -0.0015876802 -0.022233658 -0.15098263 -0.4467056
00000000: bd95 d03c b2f6 27be 5db1 d83d 7a9a 0ebd
00000010: c8d2 133e 9291 d23d 22bf 0a3e fd5a 283e
00000020: 1df5 d13e 929c 86bd 483c 0dbf 46ed 74be
00000030: d29e c1be d209 30bd 24da 56bd 8ffa c6bd
00000040: 0281 03bf 7d69 693e 61a9 2dbd fb38 0a3f
00000050: 4f83 18bf 4489 42be db7f bfbd 2e8d 71be
00000060: 3c3e 1d3e 8eef 7bbe a4a7 6bbe 9cb1 48bf
00000070: 5a44 723c 7fb9 91be 1267 853e 199e 99be
00000080: 7ff0 36bf 4285 133f 8678 9dbd b252 86be
00000090: 6850 1bbe c6f3 15bf 7ab4 a4be 64f4 1a3e
000000a0: db0f 8dbe db96 863e 4dac 4dbf c3ba d83d
000000b0: afda 9dbe e383 3c3e 3595 973d f8e9 e3be
000000c0: e0c2 8d3d 0e4f 12bf a99e 113e e17b 2f3e
000000d0: c3d2 85bf 0b7c 87bf 4c50 853e 43a3 eb3c
000000e0: d6fe 893d aaf2 2f3e 0772 c93d d0e0 9dbd
000000f0: cea7 243e 23c0 12bf e747 d5bd 7f36 1dbe
00000100: b32c 83be b476 9dbe c9d1 813e f6a1 b3be
00000110: f48a 40bf 0ea9 a23d 1021 c2be 6f47 f13d
00000120: 9063 d0bd f6e5 213d 6168 32bd 321d f2bd
00000130: f20b 073e 5f9a b8bf 51e4 88bc 8d1a 80be
00000140: 4e93 9c3c 8d6b 323e e059 c83c 1a8e 5cbe
00000150: 0d9b 8d3d 4a5e e4be 4b23 853d 4606 233e
00000160: 734d fdbd b81e 2b3e ffdd 42bf 09dc 883e
00000170: 2a3a 813e 6a54 eabb ef34 113e fe8d c73e
00000180: 5f94 17be 93f6 2fbe 3a7e 07be ef63 1cbf
00000190: 0a35 f33d f22b 89be f167 803d 729f e6be
000001a0: 4f4e 93be a7dd 5c3e b51e 4ebe d315 b4bd
000001b0: a50b 68bd c819 993e dd26 fdbd 4780 ab3d
000001c0: 88ab 0c3d 6c30 1abf 9e44 f73e 277d 973e
000001d0: 6d16 e4bd c600 c03c e904 7a3d 1dd4 8a3d
000001e0: ea2b 8a3e 9e65 663d 029b 70be 726c 1cbe
000001f0: 3a9a 5cbe 13b1 10bf b9c9 6fbe a0e5 883e
00000200: 1131 223e 0010 8dbd 157a dbbe ebcf 683e
00000210: 7e08 373d 7b03 0cbf 1645 063d 35a2 f83d
00000220: 4715 02bf 9203 1fbf 57b2 1d3d 9c92 be3d
00000230: 6518 1f3d cedc 063e 5683 25bf d878 e23d
00000240: c5fe 5bbe 6897 26bf 6787 a7be b3cd ce39
00000250: ada7 24bf 7283 8d3e db3f b43e b99d d93d
00000260: 4f5f 083e 568b 80be 6449 cdbe 8839 efbe
00000270: 5c67 abbe 2f6a 86bd 87a5 9d3d 0afe e2be
00000280: 0ba5 11bd 0db8 403e 83cf 9ebe e2fe a9be
00000290: 7139 30bf 9f9a ccbc 55dd afbe a9e2 0d3e
000002a0: 19e0 81bf 7d09 413e 92e2 95be e037 ecbe
000002b0: c3be ea3d 7256 763d 95a3 913d c596 68be
000002c0: dd0c 673e 4f46 2e3e 8b53 94bd 19e7 1cbf
000002d0: da5f edbe 0eca aa3d 1ec2 cdbd cc26 d53e
000002e0: b616 01bc ca5e e1bd d01d 1bbe 9c14 fd3d
000002f0: b93f 193e d5b6 f13d 08e4 f9bc 0f5f 99be
00000300: 7173 5bbf a0c8 703e 1853 843e fcb7 6d3e
00000310: a556 853e 2229 32bc 3d63 32be 7bb2 173f
00000320: 79d2 de3d 4024 80be d73b c83e b32d 35bd
00000330: dcc5 d03c 8503 b2be b95e 3a3e 46ad 54be
00000340: 2ec3 bd3b 9b03 eabd 1c7a 0c3d a20f a0be
00000350: 01a2 483e f103 b73d 5361 4cbe 7491 103d
00000360: d72a 52bf 8555 33bf 531c 133e b5c5 06bd
00000370: e939 cfbd 713c a83d 5576 e4be 2e4e 723f
00000380: ef1a 33bf 82a2 08be 5928 a4bd 0274 16bf
00000390: 027e 62bf 4009 043d 323a b9bc c635 c2bd
000003a0: d43e 95bd 48d4 11be f1bd 823e b483 573e
000003b0: 9437 8cbe 3d93 3fbf e644 fe3d e5ba 733d
000003c0: 6850 fcbe 0d0c df3d 1f02 443e b7d7 2cbf
000003d0: 3776 303d daa1 3d3e ec91 3c3e 36d1 d63d
000003e0: 7370 15be a6f8 26bf 276a 993e c114 21be
000003f0: b519 d0ba 5c23 b6bc 319b 1abe 99b6 e4be
