active_slam_rl/training_output_no_slam/20260128_030605/d3qn_ep790.pth (torch, 901794 bytes, 11 tensors)

feature.0.weight f4 [256, 100]
000000 b0 ec 39 bd 42 42 03 be 5e e2 c9 bd e8 3c 8d bc
       -0.04539174 -0.12818244 -0.09857629 -0.017240956
000010 ad 77 da bd 04 a1 26 be 8f ae 1f bc 71 98 4b be
       -0.106673576 -0.1627236 -0.009746208 -0.1988237
000020 06 e7 66 3c 0a 1f 63 be 8d 5b 26 be ec a2 a0 bd
       0.014093166 -0.22179809 -0.16245861 -0.07843575
000030 47 16 3c be 10 1b 88 bd ab 8b 90 bd d9 5d 3d be
       -0.18367873 -0.06645787 -0.070578896 -0.18492831
000040 a1 9e c7 bd 16 08 88 be 03 0a 1c be 03 f8 eb bd
       -0.09747053 -0.2656867 -0.15238194 -0.11521914
000050 03 33 8e bd e7 f5 24 be cc d6 ac 3c e5 fa 1e 3e
       -0.069433235 -0.1610943 0.021098517 0.15525396
000060 b9 b3 87 bd 3b b1 1f be 78 84 58 bd 79 ce b3 bd
       -0.06626076 -0.15594952 -0.052860707 -0.08779616
000070 dd d6 c4 3c b0 58 b0 bd 67 78 6f bd b5 b1 43 bd
       0.024028236 -0.08610666 -0.058464434 -0.047776897
000080 08 3a 19 3b 95 f0 fc bc 51 d6 0b bd 24 b3 e9 bc
       0.0023380537 -0.030876437 -0.034139935 -0.028527804
000090 4d b8 77 3c ac d8 f9 bd 67 0e 78 bd 1e a2 d7 bc
       0.015119624 -0.1219953 -0.06056061 -0.02632242
0000a0 e3 7f ae bd fa f6 41 be b4 a8 ef bc 88 a9 03 be
       -0.08520486 -0.1894187 -0.029255249 -0.1285764
0000b0 1e c8 38 be 6b 67 10 be 50 8f 4b be 19 21 26 be
       -0.18045089 -0.14101951 -0.19878888 -0.16223563
0000c0 a1 eb 1e bd 47 8d 0a be 81 d0 bd 3c 68 ff 15 3e
       -0.038798932 -0.13530456 0.023170711 0.14648211
0000d0 21 13 24 3d 08 e0 01 3e 2e 44 14 bd e2 e1 07 bc
       0.040057305 0.12683117 -0.036197834 -0.008293601
0000e0 80 e9 41 bd fe 74 17 be 43 18 8f bd 2c ce 1f bd
       -0.047341824 -0.14790723 -0.069870494 -0.03901498
0000f0 1c 22 14 bd 32 ef 63 bd 24 72 f4 bd 77 55 e8 bd
       -0.03616534 -0.055648036 -0.11935833 -0.11344426
000100 0a 9a 2b be 85 5a 22 be c6 2c 0f be f8 5d 2d be
       -0.1675798 -0.15854843 -0.13981923 -0.16930377
000110 fb 02 b4 bd 18 6a b0 3d 8d ce c1 3d 4c 93 1f 3e
       -0.08789631 0.08613986 0.094632246 0.15583533
000120 b7 c1 73 3d a6 1a 9f 3d 19 27 c8 3c 09 cb 19 be
       0.059510913 0.07768755 0.024432706 -0.15018858
000130 96 3c b5 3c 28 47 0e be c5 b8 09 3e 9f e6 35 3c
       0.022123616 -0.13894331 0.1344939 0.011102348
000140 f9 ce ee 3c cf 45 e3 bd 83 6a fc bc b6 eb 2a bd
       0.029151427 -0.11097299 -0.030812507 -0.041728698
000150 54 b5 59 bd 6a 20 19 be 66 1d 0d be 89 60 ad bd
       -0.053151444 -0.14953771 -0.13780746 -0.08465678
000160 b0 b4 3d 3b c2 01 63 bc 00 00 6f 3d d0 4c a6 3b
       0.002894681 -0.0138554 0.05834961 0.0050750747
000170 62 c0 4a 3d 7c 94 d0 bb 2f 8e 75 3c a6 15 b8 3c
       0.049499877 -0.006365357 0.0149875125 0.02247126
000180 45 dd 89 bd ae 54 0c be 7c e8 af bd 27 8d 4e be
       -0.06731657 -0.13704178 -0.08589265 -0.20171033
000190 24 3b bd 3d 3e 9d 16 bc e0 93 09 3e d3 3c fa 3d
       0.09239796 -0.009192763 0.13435316 0.122186325
0001a0 29 00 11 3d 40 2e 9f 3d 1a 57 2a 3e 73 9c 02 3e
       0.035400543 0.07772493 0.16634789 0.12754993
0001b0 89 0c 4e 3a 0c 50 10 bd cc 46 77 bd 54 db 82 bc
       0.0007860144 -0.03523259 -0.06037025 -0.015973724
0001c0 94 4f d7 3c c1 2f 5f bd 50 44 50 3d 4a cc 9d bd
       0.026283063 -0.0544889 0.050846398 -0.07704981
0001d0 a4 50 b5 3c 96 af 4b 3d 87 bd 43 3d 91 e7 85 bd
       0.022133179 0.049728 0.04778817 -0.065383084
0001e0 25 86 86 bd 34 a8 23 be 61 19 45 bd 57 1f 64 3c
       -0.06568555 -0.15982133 -0.048119906 0.013923488
0001f0 44 48 0d be 02 fb aa bd fa 9a 89 be c6 2b 9b be
       -0.13797098 -0.08348657 -0.2687605 -0.30306834
000200 f3 1c 6a bd e2 95 5d be c5 e4 10 be b3 97 77 be
       -0.057156514 -0.21639207 -0.14149769 -0.24178962
000210 1a aa 55 be fd 96 ab be 66 1b d6 be 47 28 9a be
       -0.2086567 -0.33513632 -0.41817778 -0.30108854
000220 1d bc 9c be 33 94 85 be b6 67 8f be af 17 0c bf
       -0.3061227 -0.2608963 -0.28008813 -0.5472364
000230 df cf 75 be 1b fb ff be f8 0a 03 bf 06 45 bd be
       -0.24005078 -0.49996266 -0.5118861 -0.36966723
000240 d4 c8 e2 be 30 f2 f4 be 24 c4 2b bf bd ce fa be
       -0.44293845 -0.47841024 -0.6709616 -0.48985854
000250 0e e0 05 bf 37 be 05 bf 2b 04 f9 be c3 52 03 bf
       -0.52295005 -0.5224337 -0.48635992 -0.5129816
000260 3e cc c0 be 17 f5 68 be 0c ef f5 bd 53 76 07 be
       -0.37655824 -0.22749744 -0.12008485 -0.13228731
000270 32 e0 71 3d 9d 03 99 bd 05 5c 2e 3e fe c9 15 3e
       0.0590517 -0.07471392 0.1702729 0.14627835
000280 61 d2 13 3d 41 45 fe 3c c6 21 1f 3d 88 f0 ea 3b
       0.036089305 0.031038882 0.03885057 0.007169787
000290 79 25 9a 3d 51 bb 5b 3d 63 8a b7 3d 3e 1c 12 3e
       0.075266786 0.053645436 0.08961942 0.14268586
0002a0 d9 05 ca 3d 9a 6f 90 bc aa 7a 59 3e 53 6c ef 3d
       0.098643966 -0.01763134 0.21238199 0.11690583
0002b0 5b 71 80 3d 67 a5 a6 bc 6a fa 72 bd dc f4 7d bd
       0.06271621 -0.020342542 -0.059320845 -0.062001094
0002c0 6b 6e 04 3d 4c d7 07 be 38 cf 23 bd 83 6e 5e bb
       0.032331865 -0.13265723 -0.03999254 -0.0033940382
0002d0 e2 54 83 bd e2 2b 27 bd cb f4 e7 bd 3f 1d 7f 3d
       -0.064126745 -0.040813334 -0.113259874 0.06228375
0002e0 32 92 13 bd e4 1f cb 3c fe 81 2e 3b 08 19 8b bd
       -0.036028095 0.02479548 0.0026627774 -0.06791884
0002f0 eb 0a aa bd 6d 6d 96 bb a1 1e bb 3d b9 a7 c3 bc
       -0.08302864 -0.0045906813 0.091367014 -0.023883687
000300 a7 50 79 bd fb 89 25 3d e4 4f bb bd 66 2c 3c 3d
       -0.06086793 0.04041479 -0.09146097 0.04594078
000310 ed ed c3 bd f1 59 cf bd c5 13 7e 3b b7 70 49 be
       -0.09566865 -0.10124577 0.0038769108 -0.19671904
000320 6c 30 08 bf 68 87 0e bf 52 00 0c bf ab df ee be
       -0.53198886 -0.55675364 -0.5468799 -0.4665502
000330 53 47 20 bf 78 64 0a bf 87 99 0b bf 3e 8c 15 bf
       -0.6260883 -0.54059553 -0.5453114 -0.5841712
000340 71 cb 17 bf f9 39 1b bf 49 a6 f8 be be 72 e6 be
       -0.592948 -0.60635334 -0.48564366 -0.45009416
000350 2e a5 1a bf 85 14 12 bf 45 0b 13 bf e4 87 37 bf
       -0.60408294 -0.5706256 -0.5743907 -0.7169173
000360 a9 f1 3f bf a5 d3 3c bf 69 ca 2e bf b5 cf 35 bf
       -0.7497812 -0.73760444 -0.68277603 -0.7102006
000370 ae b4 4b bf 6f a7 ca bd da c1 90 3e 0e fc 22 3e
       -0.7957257 -0.09895217 0.28272897 0.15916464
000380 75 d8 fc 3d 50 0f a5 3d 10 1f 88 bc 7f a3 3a 3e
       0.123459734 0.08059561 -0.016616374 0.18226431
000390 08 91 29 3e 3d 43 d9 3c 79 88 82 bd d3 7c 30 bd
       0.16559231 0.02652132 -0.06373686 -0.04308779
0003a0 c2 3c 97 bd 5a 0f 83 3d 93 67 28 be af 29 4b 3c
       -0.073846355 0.063994125 -0.1644576 0.012400075
0003b0 70 c3 b8 bd 79 51 5b be 7c 47 b5 bd 22 35 aa bd
       -0.09021652 -0.21417798 -0.08851525 -0.083109155
0003c0 ae f8 3d be 43 7b 9e be e4 e2 5c be 53 3f 9a be
       -0.18551895 -0.30953416 -0.21570927 -0.30126438
0003d0 52 10 3c be 80 3c 40 be a2 25 ce bd 71 0e b2 bd
       -0.183656 -0.18773079 -0.10065772 -0.08694161
0003e0 cd 8d 33 be 18 1f 43 be 73 0b e3 bd 2d f0 1f bd
       -0.17534561 -0.1905483 -0.11086168 -0.03904741
0003f0 88 e1 8a bd 79 9c 48 bd d3 db db bd 5e c5 d9 bd
       -0.06781298 -0.04897735 -0.107352875 -0.10633348

feature.0.bias f4 [256]
000000 2c 94 0f 3e 16 69 12 bb 1e 9f f8 bd ad 18 93 bd
       0.14021367 -0.0022340468 -0.12139724 -0.07182441
000010 45 5a 07 3f ed 69 d3 3e 33 c3 95 bc 92 4b ee be
       0.52872115 0.41291752 -0.018281555 -0.4654203
000020 35 0c 49 3e 2f f9 e2 3e 86 a4 1a bf d0 ca ce 3e
       0.19633563 0.44330737 -0.6040729 0.4038911
000030 47 6d cb bd 20 53 99 3e e0 90 f8 3e 78 77 07 bd
       -0.099329524 0.29946232 0.4854803 -0.03307292
000040 4d 7d cb 3d 22 e8 2c 3f 23 34 e2 3d b0 5c d4 be
       0.099360086 0.67541707 0.110451005 -0.41476965
000050 ee 85 48 bd 8e 44 32 3f c2 62 2c 3e e1 8e 39 3e
       -0.04895585 0.69635856 0.16834548 0.1812091
000060 2c f5 a0 3e ce 0a 79 3d 1b dc 6d be 89 38 84 be
       0.3143705 0.06080132 -0.23228495 -0.25824383
000070 18 5c 41 3f 53 a6 e9 3e 3d c4 49 3d b8 d6 1a 3f
       0.7553115 0.45634708 0.049259413 0.60483885
000080 a6 f5 e5 3e b3 78 c6 bd 47 a1 d7 3e 0e 77 15 3d
       0.44913977 -0.0969099 0.42115232 0.036490493
000090 c1 ff 18 3e cf d6 c8 be 03 1c 4f be d8 6e 34 3e
       0.14941312 -0.39226386 -0.2022553 0.17620409
0000a0 c8 a5 8a 3e 5e 9a 83 3e ec c6 f1 3e 1c 63 d7 3d
       0.27079606 0.2570371 0.47222078 0.105169505
0000b0 b2 8f 01 3e c2 df d5 3e de c3 59 3e 13 6b 4b be
       0.12652472 0.41772276 0.21266124 -0.19865064
0000c0 ab b7 17 3c 48 47 e2 3e cf 64 06 bf 91 79 c5 3e
       0.009260098 0.44195008 -0.5249757 0.3856931
0000d0 c2 d2 4f 3e 1c 35 a4 be c6 42 e2 3d bb 28 04 3f
       0.20295241 -0.3207177 0.11047892 0.5162465
0000e0 da 43 a5 3e ef c0 9b bc d8 ab b5 be f0 5d 35 be
       0.3227833 -0.019012896 -0.3548267 -0.17711616
0000f0 56 5f f0 3e 0d a1 dd be 5d 1d d2 3e 6e 05 c2 3d
       0.46947736 -0.43286934 0.41038027 0.09473692
000100 16 cc 87 3e c2 26 00 3e 5e be 4d 3e 90 5f d6 3e
       0.26522893 0.12514785 0.2009215 0.41869783
000110 1e ef b4 3e 2f f9 9b 3d 07 3b 8f 3e 54 63 d4 3e
       0.35338682 0.076158874 0.27974722 0.4148203
000120 9e 20 74 3e 0b 67 c5 3c ba 3e b9 3e 6c 36 30 3e
       0.23840567 0.024096986 0.3618067 0.1720826
000130 9e d8 17 bf 63 97 8f 3e 70 5a f2 bd 85 72 98 ba
       -0.59314907 0.28045186 -0.11833656 -0.0011630809
000140 c7 85 de 3e 18 f5 ac 3e 27 12 3f 3d fe 0c b4 bd
       0.4346144 0.33780742 0.04664817 -0.087915406
000150 a5 c0 0f 3f 89 c4 7e 3e b2 22 39 3e b5 d4 10 bf
       0.5615333 0.2487966 0.18079641 -0.56574565
000160 35 c1 bc 3e d4 e1 2c 3f 9a 31 e5 be 72 a4 21 3e
       0.36866155 0.67532086 -0.44764405 0.15785387
000170 a2 2a 90 3e aa f8 08 bf ec fd e4 be 6d 7f 94 3e
       0.28157526 -0.5350443 -0.44724977 0.29003468
000180 6f a8 a6 be ad 34 d0 3d 10 77 15 3f ed b8 e7 be
       -0.3255038 0.10166297 0.583848 -0.45258275
000190 b8 9d d0 3e fc 09 16 bf 4c 98 02 bf d0 30 0f 3f
       0.4074533 -0.58608985 -0.51013637 0.55933857
0001a0 60 ed 07 3f 7c 09 3f 3e db 25 11 bf b4 d3 ab 3e
       0.5309658 0.18655962 -0.5669839 0.33559954
0001b0 e2 da 19 bd 95 87 d2 3e 44 4b 7a 3e 4e 61 24 3e
       -0.03756226 0.41119066 0.24442774 0.16052744
0001c0 b4 7d 4c 3e 39 92 9f be 94 f9 7a 3e cf 01 e7 be
       0.19969827 -0.31166247 0.24509269 -0.45118567
0001d0 d6 a7 06 3e de 2a ac 3e ac 5d 91 3e 0c e4 cd 3e
       0.13149962 0.33626455 0.28391778 0.40213048
0001e0 9c e6 7a 3e 36 d8 f6 3e e4 dd 9b 3e 65 3e 01 3e
       0.24502033 0.4821183 0.30442727 0.12621458
0001f0 d5 87 54 be e5 bf ab 3d 35 01 5c 3e 03 c0 c3 3e
       -0.20754941 0.0838621 0.21484835 0.3823243
000200 45 ea 98 3e 17 f3 04 bd b8 ec 5f 3e 84 11 a4 3e
       0.29866233 -0.03245839 0.21867645 0.32044613
000210 af 09 31 bf 4f 19 a8 3e a8 7c 54 3e d2 98 11 3f
       -0.691554 0.3283181 0.20750678 0.5687381
000220 4b f9 aa 3e d7 d9 a4 3e 41 a7 19 3e ef 0e 71 bc
       0.3339332 0.3219745 0.15005209 -0.014713033
000230 dc 4b 2a bf 57 c0 ee be dc 6f 06 bf ca 51 53 3e
       -0.66522 -0.4663112 -0.52514434 0.20636669
000240 62 00 9e 3e cb 3f 1b 3f fd c9 22 bf b8 26 fc 3e
       0.30859667 0.60644215 -0.6358946 0.4924829
000250 c3 56 3a be 9b ae ac be 0b 55 44 3e a8 10 62 3e
       -0.1819716 -0.33726963 0.19173066 0.22076666
000260 25 45 14 3d 16 ff fb be cf 98 62 3e f0 69 a0 3e
       0.036198754 -0.49218053 0.22128604 0.31330824
000270 b1 68 67 3e 84 0d ba bb 7d 9d 70 3e c9 77 59 be
       0.2259853 -0.0056778807 0.23497577 -0.212371
000280 6c 70 86 3e 90 69 0e bf 4b d3 a8 3d be 90 30 bc
       0.26257646 -0.55629826 0.08243426 -0.010776697
000290 dc 65 85 3d c3 c4 53 3e d7 fc 49 be 5a d4 08 3f
       0.06513569 0.20680527 -0.19725357 0.5344902
0002a0 96 12 10 bf 44 fd 7d 3d 18 b7 b6 be 80 b7 b0 3e
       -0.5627836 0.06200911 -0.35686564 0.34515
0002b0 b2 e0 d7 be fb e8 77 3e bf 19 75 3e e1 ea 12 3e
       -0.42163616 0.24209969 0.23935603 0.14347412
0002c0 94 84 3c 3e d4 d6 e3 be 97 17 0b 3e 74 06 bd be
       0.1840995 -0.44499838 0.13583218 -0.36918986
0002d0 97 b2 98 be f5 61 ea 3c 9c d1 10 bf 87 c2 95 3e
       -0.29823753 0.028611163 -0.5656984 0.29249975
0002e0 05 86 7c 3d 56 e2 09 be 42 ba 10 3f 96 3c a5 3e
       0.06165125 -0.13465247 0.56534207 0.32272786
0002f0 66 19 ed 3e f6 eb 05 3f 5d 98 55 be d1 7b 66 be
       0.4630844 0.5231317 -0.20858903 -0.2250817
000300 3c f1 b5 3e 0a 0a 91 be 49 0e a4 3c db 62 88 3d
       0.3553561 -0.28327972 0.020026343 0.0665948
000310 a1 27 a2 be dd 5d f0 3e 81 a2 66 bd 58 b7 48 be
       -0.3167086 0.46946612 -0.05630732 -0.1960119
000320 40 57 eb 3d f1 d6 5f 3e 13 46 b4 3e ca 44 71 3e
       0.11491251 0.21859337 0.35209712 0.23561397
000330 48 69 c6 be 8b 00 64 3e 54 78 00 3e 84 fb 2a 3e
       -0.38752198 0.22265832 0.12545902 0.16697508
000340 be 8a c0 3e 02 8d 94 3e 95 29 8b 3e a1 12 77 be
       0.37605852 0.2901383 0.27180162 -0.241282
000350 5a 48 b7 3e e0 f9 45 3e f8 81 17 bf ec 35 9b bd
       0.35797387 0.19333601 -0.5918269 -0.07578644
000360 c5 bb 96 bd 55 0f 12 3f 4e 35 5e 3e 79 cb 25 bf
       -0.07360033 0.57054645 0.21700022 -0.647636
000370 e3 32 00 bd e1 63 c2 be 22 b4 d6 be 6b 52 6b bd
       -0.03129853 -0.37966827 -0.41934305 -0.057451647
000380 fb 35 ae be 45 8a 7b be 1c b4 83 3d b0 70 2a 3e
       -0.3402556 -0.24564464 0.064308375 0.1664455
000390 65 24 0a be 18 05 da 3d 42 bd c7 bc 75 39 43 3c
       -0.13490446 0.10645503 -0.024382237 0.011915554
0003a0 76 cc b4 3d 86 a0 60 3e c6 72 f7 3e 1b c9 2b 3d
       0.0882806 0.21936235 0.48329753 0.041939836
0003b0 1b b7 f8 be 29 1d c5 be 65 ce cb 3e be 6f d4 3e
       -0.48577198 -0.3849881 0.39805904 0.41491503
0003c0 63 8a 83 bc e7 ed eb be 4b 48 b9 3e ae 04 8f 3d
       -0.016057199 -0.46079943 0.36187968 0.069833145
0003d0 a8 da 45 3e 3b e9 c0 3e 26 20 63 3d 37 a9 b6 3e
       0.19321692 0.3767794 0.05545058 0.35675976
0003e0 56 e4 cc 3d 74 eb c9 3e e4 70 00 bf 10 55 31 3d
       0.10004489 0.3943745 -0.5017226 0.043294013
0003f0 58 3d 81 3e 66 62 fa 3d 15 8a 16 3e 27 d5 b3 3c
       0.25242114 0.12225799 0.14701112 0.021952225

feature.2.weight f4 [256, 256]
000000 36 c6 aa 3e 9f 76 ec 3e 08 e9 5e 3e 03 e5 74 bd
       0.33354348 0.4618425 0.21768582 -0.059788715
000010 60 63 cd 3e 6b 88 ad 3d 2a 0c 3e bd 69 98 ce bc
       0.4011488 0.08473285 -0.04639832 -0.02521916
000020 b8 11 ae 3c e3 2a 38 3e 69 b7 99 3c a8 59 32 be
       0.021248683 0.1798511 0.018764215 -0.17417014
000030 b4 1c 9e bc dd eb bb 3d c1 96 b2 bd 8f 02 5c 3d
       -0.019300796 0.09175847 -0.0872016 0.053713378
000040 2d 15 07 3f ba 6a 5b 3e 9b ad f3 3e cc 97 05 3e
       0.52766687 0.21427432 0.47593388 0.13046187
000050 a3 55 51 3e 65 c2 64 bd 99 05 1c be ac 2e 4a bd
       0.20442824 -0.05584945 -0.1523651 -0.049360916
000060 25 4e ee bc 0c 71 25 3e ea 07 48 3d 71 f6 4a bd
       -0.029089997 0.16156405 0.048835672 -0.04955143
000070 a2 85 8d 3d 31 5f b0 be cd 5d ee be 2d 98 b6 bd
       0.06910254 -0.34447625 -0.4655594 -0.08915744
000080 1b 2d 76 bd ed 70 cf 3d c9 a8 f5 bc ff 0d bd 3d
       -0.06010161 0.10128961 -0.02998771 0.09231185
000090 7c d4 5f bc 43 c6 68 bd a8 1b 6f be 10 5b 70 3e
       -0.0136615 -0.056829702 -0.23350394 0.23472238
0000a0 e5 a7 5e 3d 30 00 b6 3e 5d ec 0f bd 8b 10 64 3d
       0.054359335 0.35547018 -0.035137523 0.05567984
0000b0 ea 48 4d 3b fe 1e fa 3d e3 11 b7 bd e6 af 70 3e
       0.0031323978 0.122129425 -0.089389585 0.235046
0000c0 fc 69 9a 3e a1 01 98 3d 67 ea a4 3d 0d 2f b4 3d
       0.30158985 0.07422186 0.08052521 0.08798037
0000d0 ba e7 03 bd b5 79 20 be 08 da 4f 3e d3 66 87 3d
       -0.032203414 -0.15671428 0.20298016 0.06611409
0000e0 01 41 a6 3d 02 ee 04 be 0a 29 b7 bd 60 37 bf bd
       0.08117867 -0.12981418 -0.089433745 -0.09336734
0000f0 cc a4 78 be 7d 8f b0 3e 74 f9 d1 bc ed da 9b be
       -0.24281615 0.34484473 -0.025631644 -0.30440465
000100 a5 99 fa bc a2 08 6f bd 91 00 bc be f8 f7 e1 3d
       -0.030590842 -0.058357842 -0.36719182 0.110336244
000110 76 ae f1 bd 5e 04 ee 3e aa 6a 67 3a fa e9 68 be
       -0.11800854 0.46487707 0.0008827845 -0.22745505
000120 37 eb 2f 3e cd fb b5 bd cd 1b 8f bd 1c 19 10 be
       0.17179571 -0.08885918 -0.069877245 -0.14072078
000130 a8 b0 ab 3c c1 3f 91 bb 44 34 68 bd a3 a5 09 be
       0.02095826 -0.004432649 -0.05669047 -0.13442092
000140 af 49 f1 bd a9 5f ca 3e a8 86 90 3e 15 40 85 bd
       -0.11781632 0.39526108 0.28227735 -0.06506363
000150 18 34 bd 3b 2a e1 df bd 65 3f 49 3e ea 0c 26 3d
       0.0057740323 -0.109316185 0.1965309 0.04053966
000160 24 0f ad bd 05 f8 a5 3d b5 4a 4b 3e 39 99 d6 3d
       -0.084501535 0.081039466 0.19852717 0.10478444
000170 bc 57 81 3e dc 3e 63 be 6f 32 8a 3d 39 4c 84 3e
       0.2526225 -0.22191948 0.06747901 0.25839403
000180 25 80 b1 bd 62 7c f3 3d ae d6 4d bd 13 93 be bc
       -0.0866702 0.118889585 -0.050253563 -0.02326349
000190 7f 35 8a bd 7c 3d cb bd 73 23 a2 bc bc 86 61 be
       -0.06748485 -0.099238366 -0.019792294 -0.22024053
0001a0 01 d3 13 be ac ba af 3e d5 ef 12 bc 5e e7 f9 3d
       -0.1443596 0.34322107 -0.008968313 0.12202333
0001b0 8f a8 c2 3c 2b 8d 2a bc 77 31 74 3e 65 a5 c7 3b
       0.023762016 -0.010409634 0.23846994 0.0060927146
0001c0 17 d6 ed bd 06 23 92 3c 5f f5 eb 3d e0 02 0d be
       -0.116131 0.017838966 0.1152141 -0.13770628
0001d0 fc 0c 16 bc 25 9d 03 be 9a a6 32 3c 3e c9 a6 be
       -0.009158369 -0.12852915 0.010903979 -0.3257541
0001e0 86 04 47 be 57 c8 1d 3d d7 38 fa 3d 66 64 55 bc
       -0.1943532 0.038521137 0.122178726 -0.013024425
0001f0 d8 ad 56 3e 45 fe a4 be 34 7a 0a 3e 33 76 00 be
       0.20964754 -0.32225242 0.1352318 -0.1254509
000200 56 ab b8 3e cb d8 51 3e 83 2e aa be 37 fc bc bc
       0.3606822 0.20492856 -0.3323861 -0.023069484
000210 90 90 88 bd 7f 0e 15 3e de 58 be bd 8c 05 ff bd
       -0.06668198 0.14556311 -0.09294294 -0.1245223
000220 c5 94 9c 3d 30 ed bd 3c 98 7a 8d bd 83 eb 35 bd
       0.07645563 0.023184389 -0.069081485 -0.044414055
000230 39 41 06 bd 77 4a 25 3f bc b8 dd bb e1 3d 05 3d
       -0.032777045 0.6456675 -0.006766407 0.032529715
000240 74 fb c2 3e b5 7e d9 3d 8d 1f f8 3d 7b 15 3b bd
       0.38082469 0.106198706 0.12115393 -0.045674782
000250 72 ab 02 3e 36 e8 20 3c ab bd 7f be 85 7f 93 3c
       0.12760714 0.009820988 -0.24974696 0.018005142
000260 60 06 70 3e 95 80 b6 3d bf 34 f4 bd fe a2 ad bd
       0.23439932 0.08911244 -0.11924123 -0.08478354
000270 02 14 9c bc db 33 91 3e 12 e9 40 be ab 4f 2b 3e
       -0.01905251 0.28359875 -0.1883891 0.1672961
000280 b7 85 a8 3d f4 31 f8 bd ac 21 84 3e d3 41 f1 3d
       0.08228629 -0.12118903 0.2580694 0.11780133
000290 ac 95 5e bd 1f ab e1 bd aa 80 9c be 72 e6 9b bd
       -0.054341957 -0.11018967 -0.30566913 -0.07612313
0002a0 85 4e b0 3d 79 ab 4a 3e ab fa 28 3e 95 95 78 be
       0.086087264 0.19791974 0.16501872 -0.24275811
0002b0 d3 22 d6 be d9 b3 9d be 56 bc 0b be 6b fe a1 3e
       -0.41823444 -0.30801275 -0.13646063 0.31639418
0002c0 55 12 98 3e c3 fc a8 3d 9c de 3f be 72 df 92 3e
       0.29701486 0.082513355 -0.18737262 0.286861
0002d0 d6 82 8f be da 3d f7 3e 88 5b a5 3d 6e 26 0a 3c
       -0.28029507 0.48289376 0.08074099 0.008432014
0002e0 9f f4 80 3e 4f fc 0f 3e b3 79 1a bd 59 97 57 3b
       0.2518663 0.14061092 -0.037713718 0.0032896607
0002f0 f2 ec 5c be 00 e3 a2 3d 42 77 4d bd f8 6c 92 3e
       -0.21574762 0.07953453 -0.05016256 0.28598762
000300 7c 36 a7 bd 42 9a ae 3d b8 d8 17 be 6a 1d 12 3f
       -0.08164689 0.08525516 -0.14828765 0.5707613
000310 f3 a3 7a 3e 68 4e c8 3c c2 46 45 3e 38 61 2d bc
       0.24476604 0.02445145 0.19265273 -0.010582261
000320 af 9b 35 bc e8 ed ea bd 34 1d 86 3c fd a5 02 3e
       -0.011084481 -0.11471158 0.016371347 0.12758632
000330 f0 d9 d4 3d 54 1d 90 3e ea e3 9e ba c2 6e 53 be
       0.10393131 0.28147376 -0.0012122367 -0.2064772
000340 d4 bc 19 3e c3 c6 0d be da 3c bc 3e fd 6c 07 3e
       0.15013438 -0.13845353 0.36765176 0.1322517
000350 e4 8f 9c bd f9 3c 3e 3e 24 5b f1 3c 21 77 90 be
       -0.076446325 0.18577947 0.029462405 -0.28215888
000360 2c fa 8d 3e 50 6f eb bd 2b 9e 91 3d 18 76 0c 3d
       0.27729928 -0.114958405 0.07110246 0.03429231
000370 ca e5 47 be 3f 93 f2 bd 04 d0 5b 3e 74 3e 4a 3e
       -0.19521251 -0.11844491 0.2146607 0.19750386
000380 43 8c 66 3d 5f 36 aa be f4 73 6e 3e fb 69 c6 3e
       0.056286108 -0.33244607 0.2328642 0.38752732
000390 4e c9 19 3e bc 57 f7 be 8f a2 b2 bd 5d e3 bc 3e
       0.15018198 -0.48309124 -0.08722412 0.36892214
0003a0 77 d6 2f 3e 58 70 cf 3c d0 52 50 3e f3 2b c1 bd
       0.17171656 0.025322124 0.2034409 -0.09432211
0003b0 6f a1 2e 3e 73 84 a1 3d 6a 66 bb bc ad 28 c9 bd
       0.1705377 0.07886591 -0.022875983 -0.098222114
0003c0 b4 ff 9c 3e 1f 31 a5 bc 00 49 7f bd 50 9c 9c be
       0.30663836 -0.020165024 -0.062325478 -0.30588007
0003d0 69 d1 79 be 9f 86 cb 3d 47 c1 7b be 11 fa c8 3d
       -0.2439629 0.09937786 -0.24585448 0.098133214
0003e0 0b a9 3a 3e 60 53 51 3e 36 2e fa bc 49 79 0d bd
       0.18228547 0.20441961 -0.030539613 -0.034539495
0003f0 53 6e 33 3a ff bb 9b 3e 7c 95 1a 3e 9a 58 90 3e
       0.00068447477 0.30416867 0.15096086 0.28192598

feature.2.bias f4 [256]
000000 a2 5c 16 bd d4 e8 75 3e b2 7d 46 be 57 1f 7d bc
       -0.036709435 0.24014598 -0.19383886 -0.0154493665
000010 c4 3d 32 bc 41 b9 08 3e 8f 0b 5f 3e 32 96 b2 be
       -0.010878984 0.13351919 0.21781753 -0.34880215
000020 ee d2 63 3e 11 8e 95 bd f5 3d 3e 3e f5 78 29 3e
       0.22248432 -0.07302488 0.18578322 0.16550048
000030 51 05 cb bb 95 b0 67 3e dd e6 38 3e db 08 f2 3d
       -0.006195702 0.22625954 0.18056817 0.11818095
000040 d5 99 7f bd 0f 9f 02 3f 87 35 64 3e 0e 34 22 3e
       -0.062402565 0.51023954 0.22286044 0.1584017
000050 5a ee f9 bc f9 2d 52 3e a7 4d 28 be 51 85 8e bd
       -0.030509163 0.2052535 -0.16435872 -0.06959022
000060 4c df c2 bd 40 31 cc 3d 7a 72 0d 3e d1 bf 62 bd
       -0.09515247 0.09970331 0.138132 -0.05535871
000070 e3 26 ed 3e d0 41 2a bd 31 91 d4 3d 0c e0 4a 3d
       0.4631873 -0.04156667 0.103792556 0.049530074
000080 01 a2 cd 3c d1 1e 65 3e 10 45 31 3e f5 67 f9 3d
       0.025101664 0.22375037 0.17311502 0.12178031
000090 8c a7 98 bb 59 3a c2 3e 2c 05 40 bd 7b b4 ad bc
       -0.004658645 0.3793514 -0.046879932 -0.021204224
0000a0 fb ee 46 be f5 9e fc bd 9e fe 19 bd 21 72 f8 be
       -0.19427101 -0.12335006 -0.037596337 -0.48524573
0000b0 cf de 26 3e 7a 61 27 3f 00 30 6c 3d d4 e8 24 bd
       0.16295932 0.6538311 0.057662964 -0.040261105
0000c0 94 c8 04 3f 84 6b 44 3e f6 ea b5 be c0 6a 40 3e
       0.5186856 0.19181639 -0.35530823 0.18790722
0000d0 ce fd 42 3e a5 2c 0b 3e 1c 82 f4 be 0d f7 66 bc
       0.19042131 0.1359125 -0.47755516 -0.014096987
0000e0 85 97 55 3d 11 92 47 be de db ab 3d fa e9 28 bc
       0.052146453 -0.19489314 0.08391546 -0.010309691
0000f0 3b d2 ef bd e4 78 dc 3d b8 09 e1 3c 69 a2 2a 3e
       -0.1171002 0.107652456 0.027470455 0.16663517
000100 b1 09 3a 3d 6a 5f 97 bd 9d 5f b5 3d 0b 61 a6 3d
       0.0454194 -0.07391246 0.088561274 0.08123978
000110 a5 f8 de bb c9 d7 4c be 27 11 44 bd 66 c7 6d be
       -0.006804543 -0.2000419 -0.04786792 -0.23220596
000120 6f ad 68 3e 82 66 29 3e d0 56 91 3e 06 b3 16 3d
       0.2272241 0.1654301 0.28386545 0.036791824
000130 3d 62 bf 3d 5c 3b 0c 3e cf 8c a6 3d 01 67 7d 3e
       0.09344909 0.13694519 0.08132326 0.24746324
000140 4f f5 d6 bd c4 c4 82 3e 9b 79 e4 3e c0 5a f0 bd
       -0.10496008 0.25540745 0.44624028 -0.11736059
000150 28 e6 af be ab 59 ad 3d c6 22 73 bc 44 b2 2a be
       -0.34355283 0.084643684 -0.014839834 -0.16669565
000160 ed 43 a3 3d d9 e2 da bc ab 4e a4 3d 88 75 0a 3f
       0.0797194 -0.026719498 0.08022817 0.5408559
000170 b6 83 9d bd 28 f3 01 be e0 bf 8a be 0b 38 df 3d
       -0.076911375 -0.12690413 -0.27099514 0.10899361
000180 f2 53 e9 bc ef 56 53 bd 65 c9 12 bd 8e 41 92 3d
       -0.028482411 -0.05159658 -0.035836596 0.0714141
000190 dc ec e5 bd 75 d2 38 3e 81 ec 44 3f 2f 7e d8 bd
       -0.11226818 0.18049033 0.76923376 -0.105709426
0001a0 33 98 a4 bc a5 13 77 bd 34 34 1d 3e e8 a3 5c 3e
       -0.020092105 -0.06032147 0.15351945 0.215469
0001b0 02 7c a3 3d ad e4 2d 3f d4 59 6a 3e 44 6c 8e 3e
       0.07982637 0.67927057 0.22885829 0.27816975
0001c0 20 1d 7c be 85 fa 14 3e 60 4d c1 bd 49 3f 15 3e
       -0.24620485 0.1454869 -0.09438586 0.14574923
0001d0 14 93 2d 3d e5 b4 b4 3c e4 a1 00 3f 7d fb 8c 3e
       0.042376593 0.022058913 0.50247025 0.2753562
0001e0 92 c6 0c 3e cd c6 64 3d aa 88 93 bd a5 88 ef 3d
       0.13747624 0.055853654 -0.07203801 0.11695985
0001f0 b4 04 5b 3e bd 1f d1 3d a5 c1 88 3e e0 80 85 be
       0.21388513 0.10211132 0.2671024 -0.26074886
000200 3d 99 85 3d ef a7 0a 3e 8f 4e 32 3d 3f 39 16 3f
       0.065233685 0.13540624 0.04353195 0.586811
000210 ef 75 66 be b6 44 19 bd 5a c8 af bb f9 89 51 3e
       -0.22505926 -0.037419043 -0.00536446 0.20462789
000220 4c 31 c7 3d 3c 6c 0d 3e 24 9b 08 be 75 c1 12 3e
       0.097261995 0.1381082 -0.13340431 0.1433161
000230 e2 28 3d 3e 49 d4 59 be 5b a5 ab 3d 68 81 be 3e
       0.18472627 -0.21272387 0.083811484 0.37208104
000240 d0 bc 47 be 8a 50 bc 3d 18 df f9 3d b3 e1 c0 3e
       -0.1950562 0.09195049 0.12200755 0.37672195
000250 36 e8 5b 3e 45 6f 5c 3e 5d 28 57 3e 65 b5 b2 be
       0.214753 0.21526821 0.21011491 -0.34904018
000260 93 fb b4 be c6 52 15 3e 5f 72 6f 3d 9a 63 6f 3d
       -0.35348186 0.14582357 0.058458682 0.058444597
000270 9c 15 aa 3d 83 04 07 3f 3c 8d b9 bd 13 ba 86 3e
       0.08304903 0.5274126 -0.090601414 0.26313838
000280 2f a3 85 bc bb 4f 02 3e 5f 37 3b 3e 04 e4 47 3d
       -0.016313164 0.12725727 0.18282841 0.048801437
000290 3b 00 5a 3e 4b e3 02 3e 68 6f 22 3e 7c 81 05 bf
       0.2128915 0.12782018 0.1586281 -0.521507
0002a0 28 b4 f9 3d c4 84 77 be c0 9c eb 3d e5 05 23 bb
       0.12192565 -0.2417174 0.11504507 -0.002487534
0002b0 aa f0 be bd c4 08 2c be 06 f5 1e 3f fd bd 87 bd
       -0.09323247 -0.16800219 0.62092626 -0.06628034
0002c0 3d 32 11 3f 45 4e 7e be 31 69 ec 3d 49 d8 ab bd
       0.5671728 -0.24834545 0.11543501 -0.083908625
0002d0 ec c3 1d 3e 2e 49 7e 3e c9 59 9b bc 52 40 0e 3f
       0.1540677 0.24832603 -0.018963711 0.55566895
0002e0 15 e5 35 3e a6 b6 ff 3d 40 2e 17 3e 5c 94 56 3e
       0.17763169 0.12486009 0.14763737 0.20955032
0002f0 00 61 1e 3f 6d 20 2f 3f 85 86 5f 3d 72 23 94 3e
       0.6186676 0.6840885 0.054571647 0.28933293
000300 cf fa e1 3d 87 c2 f8 3d e9 23 10 3e 13 0b f1 3d
       0.11034166 0.12146478 0.14076199 0.1176969
000310 f8 24 46 3b cb ea f2 3e a7 85 51 3b 0a f1 40 be
       0.0030234437 0.47444758 0.0031970532 -0.18841949
000320 2f b3 10 3f e4 62 b7 be ee c0 5e 3e af 6f 5e 3e
       0.5652341 -0.35817635 0.21753284 0.21722291
000330 1b 5e ba 3e 85 94 17 be 61 bd 2e 3f 47 46 1f 3e
       0.36399922 -0.1480275 0.6825772 0.15554152
000340 cd 60 2e bd ab 17 30 3e 43 7b a2 bd e7 8b 9c 3c
       -0.042572785 0.17196529 -0.079336666 0.01910968
000350 6a c2 18 3e 8c f5 06 3e d6 58 e8 3b 4b 4f 0c 3f
       0.14917913 0.13179606 0.007090668 0.5480849
000360 a4 c5 30 3d 18 9a 97 3d c6 70 5b be 92 2c 94 3e
       0.043157235 0.07402438 -0.21429738 0.28940254
000370 c5 93 54 3e 1f e3 fd 3e d5 f8 2b bd b2 7c 31 3e
       0.20759495 0.49587342 -0.04198535 0.17332724
000380 59 7a ee 3d f7 66 ec 3c a4 f9 7d 3e 1f 9b c8 3d
       0.1164443 0.028857691 0.24802262 0.09795212
000390 95 12 a6 3d 52 c2 a7 be 31 aa ae 3d 03 c2 1a 3d
       0.08109013 -0.32765442 0.08528555 0.03778268
0003a0 89 bb f6 3d a6 4b bc 3d 53 1f 7b 3e 65 3f fc bd
       0.12047488 0.09194116 0.24523668 -0.12316779
0003b0 19 77 27 3d a9 5f 96 3e 07 61 ff bc 33 19 19 3e
       0.040885065 0.29369858 -0.031174196 0.14951019
0003c0 b5 7a 5f 3e 3e fa 97 be 74 ea 56 3d 42 45 8d bb
       0.21824153 -0.29683107 0.052469686 -0.0043112347
0003d0 7d 95 03 3e ee aa 34 bd d6 b8 0e 3e ac 2e 05 be
       0.12849994 -0.044108324 0.13937697 -0.13006085
0003e0 00 9c 9c bc 5e a5 02 3e f3 74 3f 3e 58 d7 2b 3f
       -0.019117355 0.12758395 0.18696956 0.67125463
0003f0 23 d8 75 3c 41 f1 ba bb 28 4d 30 be fe 89 52 bd
       0.015005144 -0.0057050292 -0.17216933 -0.05140113

value_stream.0.weight f4 [256, 256]
000000 4b 0e 07 bd 8d bb 15 be c1 b5 6a bd cc 9f 65 be
       -0.032972615 -0.14622326 -0.05730224 -0.22424239
000010 1d ea 99 bd 12 ba 12 bd 16 df a3 be ae f3 75 be
       -0.07515357 -0.03582198 -0.3200614 -0.24018738
000020 37 98 7d 3d 35 57 b0 3d 31 e4 3b 3c bc 83 ba bd
       0.06191274 0.086103834 0.011467979 -0.091071576
000030 da 23 1f be c2 7b 26 3e 71 86 08 bf 2f b4 0d 3c
       -0.1554102 0.16258147 -0.5333014 0.008648916
000040 d8 78 c8 bd 62 a4 12 bf 6a a2 74 3e a1 14 c6 be
       -0.09788674 -0.5728208 0.23890081 -0.38687614
000050 61 e8 06 3e 8f a7 f5 bd 60 8a 50 bd c2 fe 50 be
       0.13174583 -0.1199485 -0.050913215 -0.20409682
000060 74 17 5f be ad a8 50 be 5a 13 ef bd 57 62 bb bd
       -0.2178629 -0.20376845 -0.11673613 -0.09149616
000070 b5 23 4b be 50 3e 10 bf 95 5c 32 be 11 9a 96 3c
       -0.1983784 -0.5634508 -0.1741813 0.018384011
000080 a6 32 ad be 56 da c7 be 8a 97 c1 bd c7 0c 4d be
       -0.33827704 -0.39033765 -0.09452732 -0.20024405
000090 de 12 37 be d0 a8 8d be 73 98 21 bd 7f 82 9b 3d
       -0.17878291 -0.27667856 -0.039452028 0.075932495
0000a0 86 70 19 be 65 67 f1 3b 24 5f 2e bf 6a 90 38 be
       -0.1498433 0.007367062 -0.68113923 -0.1802384
0000b0 95 fb 0c 3d 13 d7 be bd c5 51 cf be 73 65 d5 bc
       0.034419615 -0.09318366 -0.40492073 -0.026049351
0000c0 c7 12 5f 3c 28 a3 4f be c6 ad 4c be 3d 9a 67 3e
       0.013615317 -0.20277083 -0.19988164 0.22617431
0000d0 58 88 43 bc d8 0a e6 be 1f 8a 48 be 0f 92 34 3e
       -0.011934362 -0.44930148 -0.19583939 0.17633842
0000e0 fb 4a 00 be 8c 35 31 be dc 78 c3 bd 39 f5 d6 3d
       -0.12528603 -0.17305583 -0.095445365 0.10495991
0000f0 2a 75 f3 be 30 2b e9 bd 63 f5 8a be d3 8e ad bd
       -0.47550327 -0.113851905 -0.2714034 -0.08474507
000100 84 f4 29 be d7 ab 34 bd 26 81 90 bd 6d 45 ce be
       -0.16597182 -0.04410919 -0.07055883 -0.40287343
000110 05 fa 94 be 5f 48 a0 be d6 59 f2 3c b7 50 b0 be
       -0.29097 -0.31305215 0.029583853 -0.3443658
000120 61 0c ae 3d 27 5f 27 be 02 28 58 bd c6 bd 20 3c
       0.08498455 -0.16344891 -0.05277253 0.0098108705
000130 c3 24 5b be 3d 25 5a bf 3d ef be 3d e3 2c a7 be
       -0.21400742 -0.8521307 0.09322975 -0.32651433
000140 9c 99 84 bf 07 39 fc be 8b 54 bf 3e 10 4a b6 3d
       -1.0359378 -0.49262258 0.3736919 0.08900845
000150 f1 8f 7a be ef 22 29 bf 1a 94 d9 bd 3c 0a a4 be
       -0.24468972 -0.6606893 -0.10623951 -0.32039058
000160 84 7a 34 3d 6b ba 9c bd 3b 7f 53 be 7c db 03 3d
       0.044062153 -0.07652744 -0.20654003 0.03219174
000170 bd cc 20 bf dd 7c 14 bd 5f 4e 86 be b2 b6 d6 bc
       -0.62812406 -0.03625189 -0.26231667 -0.026210163
000180 76 d4 8b 3d 4e 24 72 3d 6d 22 2b bc 11 4e 07 be
       0.06827633 0.059116654 -0.010445219 -0.13213374
000190 b5 4d 82 bc 9f 4e aa be 46 41 06 be 34 37 e8 be
       -0.015906194 -0.33263108 -0.13110837 -0.45354617
0001a0 25 ca 39 bf c6 cc 75 be 7d f6 da bd 9a f7 17 bf
       -0.72574073 -0.24003896 -0.10691545 -0.59362185
0001b0 ca c9 35 3e 3e bc b5 bd 2e d6 76 3c 75 19 ba be
       0.17752758 -0.08873795 0.015065713 -0.36347547
0001c0 d9 51 51 bf 6d d6 a7 bc 8f 9b 73 3c 4e 44 8c 3b
       -0.81765515 -0.020487988 0.014868631 0.0042806035
0001d0 42 32 75 bd c6 eb 79 be df a7 4c 3d d7 b6 ec 3e
       -0.059862383 -0.24406347 0.04996478 0.46233246
0001e0 86 46 41 bd cd ad 3f 3e 54 b1 f3 bd 6b 1d c7 3d
       -0.047186397 0.18718643 -0.11899057 0.09722408
0001f0 0e 8f 82 be 92 16 c1 bd cd 8c 6f be 8b c2 42 be
       -0.25499767 -0.09428133 -0.23393555 -0.19019525
000200 c7 df f9 bd f3 60 63 be 98 8d 2f be 60 75 77 3e
       -0.12200885 -0.22204952 -0.17143857 0.24165869
000210 e3 0e a8 be a7 b2 ae bc a7 b8 31 be 0a 45 6b be
       -0.32823858 -0.021325422 -0.17355596 -0.22975555
000220 ea c0 bc be f8 e9 1c bf 58 ce 44 be 08 50 69 3d
       -0.36865932 -0.6129451 -0.19219339 0.05696109
000230 46 7d c6 3d 4c 4c aa be 49 2d 02 be ca 33 6e bc
       0.09691863 -0.33261335 -0.12712587 -0.014538715
000240 4d 68 17 bf 1c a1 81 bc e7 62 9d be ec 85 1a bb
       -0.59143525 -0.015823893 -0.3073952 -0.0023578359
000250 16 f9 98 be c7 56 f0 bd d3 fc 8e bd a9 d5 93 be
       -0.29877537 -0.117353015 -0.06981816 -0.28873947
000260 45 fc 30 be 43 7a 92 be e0 8a 03 bd 54 0a 32 be
       -0.17283733 -0.28608903 -0.032114863 -0.17386752
000270 27 20 fc be 96 a4 0a bd a3 70 b4 be 08 d6 ee be
       -0.4924328 -0.033848368 -0.35242185 -0.46647668
000280 5d 21 c6 3d 31 3d b1 bd 62 9c fe be c9 8b 9c be
       0.09674332 -0.086542495 -0.49728686 -0.30575398
000290 83 cd 90 bd 69 90 59 be 76 bd 21 be 7f 4a b0 be
       -0.07070448 -0.21246494 -0.1579493 -0.34431836
0002a0 3c 12 0c be 47 31 a6 bd 14 42 87 bd 7b cf 3f be
       -0.13678831 -0.08114868 -0.066044 -0.18731491
0002b0 8e b5 da bc 01 0e 82 be 47 2d ca 3d 59 d5 0d bf
       -0.0266979 -0.2540131 0.09871917 -0.5540367
0002c0 dd 32 d4 3d ec 64 ab bd 45 77 22 3c 1c 8e 45 be
       0.10361264 -0.08368859 0.009916131 -0.19292492
0002d0 df 85 a0 be 60 66 b3 ba 24 27 33 be ab 8b d2 be
       -0.31352136 -0.0013687126 -0.174954 -0.41122183
0002e0 3d 13 a6 be 05 de f9 bd 91 96 92 3c 6c c1 53 bd
       -0.32436553 -0.1220055 0.017894061 -0.051698133
0002f0 dd 11 0f 3e 40 ce 84 bd 01 06 46 bd f9 e7 46 3c
       0.13971658 -0.064846516 -0.04834557 0.0121402675
000300 92 8f 40 be b5 76 8e be 0d 53 82 be c0 5f 0e bd
       -0.18804768 -0.2782494 -0.25453988 -0.034759283
000310 ce ed c4 3c 81 11 e7 3d d3 cf ef be 19 d1 3e bf
       0.024039175 0.112826355 -0.46838245 -0.7453781
000320 f0 c4 37 bd 3f ce 88 be 6a d0 89 bd 63 b8 40 bd
       -0.04486555 -0.26719853 -0.06729205 -0.047050845
000330 9f 23 2d be 91 f9 5e 3e 9a e6 87 bd 66 e0 3f bd
       -0.1690812 0.2177489 -0.06635781 -0.046844862
000340 6e df 19 be 8b 13 02 3c b6 35 8e bd b8 0f 89 3d
       -0.15026638 0.00793923 -0.06943838 0.06692451
000350 0e 44 ac be db 40 58 bd 53 e1 02 bd 8f ee c5 bd
       -0.33645672 -0.052796226 -0.031953167 -0.09664642
000360 7d 31 1b be 61 b6 c9 3d 08 04 9a be 2b d9 74 be
       -0.15155597 0.09849239 -0.300812 -0.23910968
000370 90 e5 9d be 9d 41 1e 3e 36 6f a8 be 9d b1 2e bf
       -0.30839205 0.15454717 -0.32897347 -0.68239766
000380 eb 53 39 be ea 44 64 be 4e 5e 98 be 81 3d 33 be
       -0.18098418 -0.22291914 -0.2975945 -0.1750393
000390 a9 83 31 be d1 b5 a0 be f9 e1 14 be d0 37 85 bd
       -0.1733538 -0.31388715 -0.14539327 -0.06504786
0003a0 5e 40 bd be 31 9a d2 be dd 2a 98 be 03 0c 41 be
       -0.3696317 -0.41133264 -0.29720202 -0.18852238
0003b0 e1 44 8f bd a8 2f e3 be 98 3d 4e be fc a8 a0 bd
       -0.069955595 -0.44372296 -0.20140684 -0.07844731
0003c0 fe 69 23 be 88 0c 6e be 51 b6 8e be d4 d8 81 bf
       -0.15958402 -0.23246968 -0.2787347 -1.0144296
0003d0 84 1d f2 be 04 b2 80 bd 50 81 1d 3e c8 06 1d bc
       -0.47288144 -0.06283954 0.1538136 -0.009584136
0003e0 ef 46 2b bd 96 3b 9e be b9 e6 f4 3d 86 72 6b bc
       -0.041815694 -0.30904835 0.11958069 -0.014370566
0003f0 9e 08 ad 3c 57 06 f1 bd 8a 86 49 be d3 82 28 bc
       0.021122273 -0.11768787 -0.19680229 -0.010285097

value_stream.0.bias f4 [256]
000000 a7 e8 4e be 30 a8 c4 3d d8 34 cf 3e b1 57 98 3e
       -0.20205937 0.09602392 0.40470004 0.29754403
000010 5b 2f 09 be e1 2c 8c 3e 8d 18 72 3e 9e 3c aa bd
       -0.13396971 0.2737799 0.23642178 -0.08312343
000020 2d ae ba bc d2 62 02 3f 85 c0 36 3e e5 de ff bc
       -0.022788132 0.5093204 0.17846878 -0.031234214
000030 85 88 d6 be 49 2a f2 3e c3 89 6c 3e f1 c6 d0 bd
       -0.4190103 0.47297886 0.23099427 -0.10194195
000040 f4 70 cc 3e 54 4b 74 3e c4 ca 25 3e f6 bc 2c 3e
       0.39929926 0.2385686 0.1619063 0.16868958
000050 bd 01 8f 3e 4d 97 11 3f 8a ef 33 be 48 30 52 3e
       0.27931014 0.5687149 -0.17571846 0.2052623
000060 e1 53 43 be 3c 99 92 3d 42 b3 6d 3e a5 2a a9 bd
       -0.19074966 0.071581334 0.23212913 -0.08260087
000070 79 d4 a4 3e e1 ec c7 bd 34 9c 07 3f 0e a1 81 3e
       0.32193354 -0.09761978 0.5297272 0.25318187
000080 04 7f 87 3e 8c 11 7c 3d 20 d0 2b 3e 2f ed 00 3f
       0.26464093 0.06154017 0.16778612 0.50361913
000090 d0 38 fd 3d 00 23 5e bd ed 4c 1b be f0 88 0a 3f
       0.12364352 -0.054232597 -0.15166064 0.541152
0000a0 a2 70 0a 3f cd a2 41 3e 32 26 dd 3c 1a d5 82 bd
       0.54078114 0.1890976 0.026995752 -0.06388302
0000b0 2a 44 4a be 16 58 9c 3e e1 a4 a2 bc 3e d4 08 be
       -0.19752565 0.30535954 -0.019854011 -0.13362214
0000c0 a5 2f 8b 3e 45 2b 80 3e 19 a6 85 3e d0 dc 86 3e
       0.27184787 0.25033012 0.26103285 0.26340342
0000d0 fa 29 44 3e 3a c0 81 3e 4a 21 81 3a 91 97 86 3d
       0.19156638 0.2534197 0.000985184 0.06571878
0000e0 25 a4 d8 bd 89 90 12 bd ca cf 27 3e 10 e9 48 be
       -0.10578183 -0.03578237 0.16387859 -0.19620156
0000f0 f1 6d d3 3d bf 00 87 3d 2b d3 25 be 1e c0 80 3e
       0.10323704 0.06591939 -0.16193835 0.25146574
000100 a2 ba 18 3f 3e 43 86 be 64 af aa bd 10 04 fa 3d
       0.5965978 -0.26223177 -0.08334234 0.12207806
000110 fa 36 0e 3f f6 0c 0a be 1f 7a 89 3e 3e cc 1b 3e
       0.5555264 -0.13481507 0.26850984 0.15214631
000120 49 32 85 bd 43 13 76 3e 3e b1 ab 3e e0 1f ce bd
       -0.06503732 0.24030785 0.33533663 -0.100646734
000130 31 e1 40 be 24 fb 79 be b5 86 14 be b9 0f 45 3e
       -0.18835904 -0.24412209 -0.14504512 0.19244279
000140 61 e5 b0 3e 1a 1f 4f be ea bc fe bd 7d 29 d0 3e
       0.34550002 -0.20226708 -0.12438376 0.40656653
000150 fc 12 0f be 26 15 13 3e 8c 75 95 3e 24 66 7f bd
       -0.13972086 0.14363536 0.29191244 -0.06235327
000160 26 6d b1 bd 84 51 72 be e3 fc 30 be d3 a7 29 be
       -0.086633965 -0.23663908 -0.17283969 -0.16567926
000170 a8 b1 fa 3e d5 80 3e 3e 6f f0 87 3e e1 1e 8f bd
       0.48963666 0.18603833 0.26550624 -0.069883116
000180 0f e2 21 be 0d 01 f1 3e ca b3 67 3e 29 48 e8 3e
       -0.15808891 0.47071114 0.22627178 0.45367554
000190 c9 8b 0f be 95 f7 f0 bd c0 3e 81 3e da bc 3d 3c
       -0.14018168 -0.117659725 0.25243187 0.01158067
0001a0 fa f4 3f 3f 00 fd 33 be 9b 5f 92 bd 82 22 ae 3e
       0.7498318 -0.1757698 -0.071471415 0.34010702
0001b0 13 1f ae 3e b6 04 2f be 4a 7c 73 3e 04 9b 70 be
       0.34008083 -0.17091641 0.23777881 -0.23496634
0001c0 f6 55 6a bd 3c 7a b1 3e 61 6b a3 3e a7 6b 26 be
       -0.057210885 0.3466357 0.3191786 -0.16252004
0001d0 2d d4 3b be b2 22 72 3e e9 aa 8f 3e 55 02 a1 bc
       -0.18342657 0.23646048 0.28060082 -0.019654432
0001e0 46 c5 84 3e 50 75 a2 3e 9e 97 c3 bd 0f b2 fd 3e
       0.25931758 0.31730127 -0.09550403 0.4954991
0001f0 26 a1 2f be 4a 7d 28 3e 9c e8 3f be 9e cb 6c bd
       -0.17151317 0.16454044 -0.18741077 -0.057811372
000200 de 2a a3 3e d5 e0 48 be 98 f6 63 3e 7b a4 44 3e
       0.31868643 -0.19617017 0.22262037 0.1920337
000210 2a 5c 2f bd 20 cb d7 bd 8c bc c7 3e b4 19 fb 3e
       -0.042812504 -0.1053679 0.39011037 0.49043047
000220 65 ed 4b 3e 83 5b 77 3e ca ef 38 bd c7 44 b9 3e
       0.19914778 0.24156003 -0.045150556 0.36185285
000230 78 40 ed 3e ea 0f 8d 3e a2 81 c5 3e 78 82 a1 3e
       0.46338248 0.27551204 0.38575464 0.31544852
000240 9b 1a 91 bd 42 00 1a 3e ee 53 d9 3e f7 e6 34 3c
       -0.07085153 0.15039161 0.42446846 0.011041394
000250 4e 25 9a 3e 77 65 81 3e f4 26 b6 3e 87 96 f1 bd
       0.30106586 0.25272724 0.35576594 -0.11796289
000260 7e a6 77 3e 05 41 d5 3e fe f7 af 3e 54 32 5f be
       0.24184605 0.41651168 0.3436889 -0.21796542
000270 75 f6 29 3e 88 43 cf bd af 7b d2 3e c4 0f 4b 3e
       0.16597922 -0.101203024 0.41109988 0.19830233
000280 1f 4b 43 be 7e ee 63 bd a3 b6 e0 bd 03 8b 5f 3e
       -0.19071625 -0.055647366 -0.10972335 0.21830373
000290 21 cb e0 bd 5a ca 47 3e 43 20 84 3e 87 3d 72 3e
       -0.10976244 0.19510785 0.25805864 0.23656283
0002a0 d5 c1 28 bd 0a 9e 25 be b2 d9 6b be 09 69 3f 3d
       -0.041200478 -0.16173568 -0.23032263 0.04673103
0002b0 49 4f 7f 3e b5 ca b5 3d ca 3e 0c 3f 3c c1 89 3e
       0.24932589 0.08876554 0.5478331 0.2690524
0002c0 0c 4d c7 3c ff 88 a2 3e 66 f1 38 3f 85 49 f9 bd
       0.024328731 0.31745145 0.72243345 -0.12172226
0002d0 5a f2 6d bd 54 ce 0c be c7 2c 10 3f 13 23 6c 3e
       -0.058092453 -0.13750583 0.56318325 0.23060255
0002e0 58 65 3b 3e 94 31 25 3f 26 2a 5e be ad e4 81 3e
       0.18300378 0.64528775 -0.21695766 0.25369778
0002f0 12 c6 3d 3e 83 2b dd 3e 9e 51 81 bd 0e 21 fb bd
       0.18532589 0.4319726 -0.06314395 -0.12262164
000300 6b 98 b9 bd 4f d6 37 3e e5 97 e1 3d 96 40 00 bc
       -0.090622745 0.17952846 0.110153 -0.0078278985
000310 b3 00 4f bd d4 83 df bd e0 39 ab 3e 20 3f 23 3e
       -0.050537776 -0.10913816 0.33442593 0.15942049
000320 d6 a4 23 be 9c 16 9d 3e e7 a9 82 be 08 7a 02 3f
       -0.15980849 0.30681312 -0.2552025 0.50967455
000330 fa 07 e4 bd c9 e5 42 be dd 86 1d bd db 5f 9c 3e
       -0.11134334 -0.19032969 -0.038458694 0.30541882
000340 b9 27 e5 3d 75 6d 9a 3e 9d cb c6 bd 56 36 df bd
       0.11189217 0.30161634 -0.09706805 -0.10899036
000350 31 c8 16 3e 60 e2 7e 3e 47 f9 0e be ad 8a c3 3c
       0.14724804 0.24891043 -0.1396228 0.023869837
000360 3e 95 74 3e 00 a6 a3 bc 4a 00 d3 3e 97 28 17 be
       0.23885056 -0.019976616 0.41211158 -0.14761578
000370 8d 10 94 3e 66 73 24 be 48 5f 06 be 17 59 a1 bc
       0.28918877 -0.16059646 -0.13122284 -0.019695802
000380 ed ae e9 bd 62 c4 92 3e ae 50 4f bd a0 4c 96 bd
       -0.114103176 0.28665453 -0.05061405 -0.07338834
000390 c8 cf 72 be 9a 6c b4 3e 8a e0 5d 3e be 28 b0 bd
       -0.23712075 0.35239106 0.21667686 -0.08601521
0003a0 5d 59 32 3e 95 8a 7e 3d 7e b5 97 3e 4b 71 4a be
       0.17416902 0.06214388 0.29630655 -0.1976978
0003b0 a7 09 fe 3e 04 e9 1d be 4c 59 96 3e db f2 c6 bd
       0.4961674 -0.1542092 0.29365003 -0.0971429
0003c0 a4 c1 2d 3f d9 0e 33 3e 7e 8b 05 3f b0 3b 20 be
       0.678736 0.17486133 0.52165973 -0.15647769
0003d0 24 2d 4b 3e b7 3d 8c bc d3 dc aa 3e 20 5f 1c 3e
       0.19841439 -0.017119272 0.333716 0.15270662
0003e0 31 97 6e 3e 52 14 c9 3e c7 4e 9a 3e 83 97 51 be
       0.23299862 0.39273316 0.30138227 -0.20467953
0003f0 3f 6b 92 3e fc 60 e0 bd 7a 6e 92 3e 86 ce 9c 3e
       0.28597447 -0.10955998 0.28599912 0.30626315

value_stream.2.weight f4 [1, 256]
000000 9a 3b 16 3f f5 4d e9 3e 1f c2 51 bf 60 60 6d bf
       0.58684695 0.4556729 -0.8193683 -0.9272518
000010 57 39 0a 3f 18 6e 56 bf 28 ff 3e bf 07 f6 01 3f
       0.53993744 -0.8376174 -0.7460809 0.5076603
000020 20 41 86 bf f7 c0 44 bf b7 e5 58 bf 4e b5 39 bf
       -1.0488625 -0.7685694 -0.8472552 -0.72542274
000030 1f 94 42 bf 34 c9 33 3f 1d 63 3b 3f 83 66 5b be
       -0.76007265 0.70228887 0.7319811 -0.21425824
000040 f3 e7 6f bf e0 f2 90 3e 2c f1 16 bf 5c 2d 34 bf
       -0.937133 0.283103 -0.5896175 -0.7038171
000050 07 7b 36 bf e2 7e 4e bf 6d 00 fc 3e 7c 5b 4e bf
       -0.71281475 -0.8066236 0.49219075 -0.80608344
000060 d5 09 12 3f 1e 5f 4b bf a6 02 d6 be 18 7d cf 3e
       0.5704625 -0.7944201 -0.41798896 0.40525126
000070 46 9f 29 bf 43 d0 0f 3f 43 e3 6e bf ba 92 24 bf
       -0.66258657 0.5617716 -0.93315524 -0.64286387
000080 c6 6b 7c bf 59 5d 3f 3f f6 11 28 bf 5c 03 13 3f
       -0.9860195 0.7475181 -0.65652406 0.57427
000090 79 cb 47 bf 1e ca 27 3f 72 d0 a3 be 88 d7 53 bf
       -0.7804485 0.6554278 -0.3199497 -0.8275075
0000a0 ed 42 70 bf 11 68 3b bf 70 ab 7f 3f df 78 ad bd
       -0.9385212 -0.7320567 0.9987097 -0.0847032
0000b0 67 eb f3 3e ef 79 2f 3f a2 48 21 3f 69 72 40 3f
       0.47640535 0.6854543 0.63001454 0.75174576
0000c0 f6 ff 07 bf 56 9e 47 bf 73 28 9c 3e ba 07 6d bf
       -0.5312494 -0.77975976 0.3049961 -0.92589915
0000d0 25 62 0d 3f b2 0b 84 bf 6e f4 20 3f 39 58 3f bf
       0.5522788 -1.0316069 0.6287297 -0.7474399
0000e0 a0 74 fb 3e be 7f 3d 3f 5c ea 2f bf e6 23 30 3f
       0.49112415 0.74023044 -0.6871698 0.68804777
0000f0 cd 1b 10 bf 6a bb 98 3e af 32 35 3f e6 34 42 bf
       -0.5629242 0.29830486 0.7078046 -0.75861967
000100 d1 83 74 bf 60 58 14 bf 9c 30 2a 3f 29 2b bc 3e
       -0.95513636 -0.5794735 0.6648042 0.3675168
000110 a9 31 42 bf dc e4 27 3f 74 dc 5b bf 25 dc 6b bf
       -0.75857025 0.65583587 -0.8588326 -0.9213279
000120 3c 73 ec 3e 42 0c 26 bf 18 c6 25 bf fe ff 31 3f
       0.46181667 -0.64862454 -0.6475539 0.6953124
000130 8d 7f 1a 3f c4 b6 33 3f 30 7d db 3e 31 f9 9a 3e
       0.6035088 0.70200753 0.42868948 0.30268243
000140 08 6e e8 be d2 52 20 3f 4a a4 43 3f 12 ef 47 bf
       -0.45396447 0.62626374 0.7642256 -0.7809917
000150 2b c3 33 3f cb 07 44 bf 56 66 de be dd 34 48 3f
       0.7021968 -0.7657439 -0.4343745 0.7820566
000160 f9 72 9a be 1a c6 1f 3f 83 12 0f 3f b1 40 25 3f
       -0.30165842 0.62411654 0.5588762 0.64551836
000170 fa ad 35 3f 02 ae 24 bf 9b 53 e4 3e 1f de 00 3f
       0.7096859 -0.64328015 0.44595036 0.5033893
000180 d2 90 4a 3f d9 c7 5b bf 21 8e 09 bf 73 a5 35 3f
       0.7912723 -0.8585182 -0.53732497 0.7095558
000190 c6 6a 6d 3f 8c a9 74 be 36 44 37 bf 76 3e 4b 3f
       0.9274105 -0.23892802 -0.71588457 0.7939218
0001a0 6b 16 61 bf d6 54 40 3f 60 02 e7 3e d9 69 14 bf
       -0.8792483 0.7512945 0.45119 -0.5797401
0001b0 40 a5 e1 be 32 52 36 3f b5 13 5b bf f1 f0 2d 3f
       -0.44071388 0.7121917 -0.85576946 0.6794577
0001c0 44 02 86 3e 2a a1 07 bf 15 ab 13 bf 5b 5e 15 3f
       0.26173604 -0.5298029 -0.57682925 0.583471
0001d0 af 42 4a be 18 61 b3 3e 31 24 8f bf 3a 8c ac be
       -0.19752 0.35035014 -1.118292 -0.33700734
0001e0 9e d0 3e bf 4f 2b 58 bf f6 64 ea 3e fe af 78 bf
       -0.74537075 -0.84441084 0.45780152 -0.9714354
0001f0 79 1e 3a 3f 4a 79 c2 bf 2d 59 31 3f 1c d7 39 3f
       0.7270275 -1.5193264 0.69276696 0.72593856
000200 c3 ff 5e bf 4d 29 fb bd 48 4a f7 be aa 63 37 bf
       -0.8710901 -0.12263737 -0.4829886 -0.7163645
000210 38 82 34 3f 84 c0 66 be 6e e7 b2 3e 3c 63 6b bf
       0.705112 -0.22534376 0.34942192 -0.91948295
000220 2c 4f cb 3e 4b 41 da bf 92 e4 34 3f ce 8d 8c 3e
       0.3970884 -1.7051176 0.7066127 0.27451938
000230 47 ec 71 bf 9d f2 f2 be 89 0f 28 3f 1a aa 14 bf
       -0.94501156 -0.47450724 0.65648705 -0.58072054
000240 23 33 0d 3f 5c 8d 3f bf d7 b2 05 3f be 0c fc 3e
       0.55156153 -0.7482507 0.5222601 0.49228472
000250 8a f1 4b bf 55 2e ba be 5b af 00 bf 2d 9e 3f 3f
       -0.79665434 -0.36363474 -0.5026757 0.7485073
000260 14 db 0f bf 63 c4 6a bf 54 a2 a8 3e 64 6e dd 3e
       -0.5619366 -0.9170591 0.32936347 0.43248284
000270 a1 4b 1d bf b8 ce 4f be fe d3 14 bf 06 12 84 3e
       -0.61443526 -0.202937 -0.58135974 0.25795
000280 c2 37 28 3f 8f df db 3e eb 9e 19 3f 1a 9c 2b bf
       0.6571008 0.42944 0.60008115 -0.6703507
000290 81 64 11 3f 6d a4 e0 bf 61 e6 46 bf 3f e8 67 bf
       0.5679398 -1.7550179 -0.7769528 -0.90588754
0002a0 67 f8 19 3f 9c 8a 07 3f e8 65 1a 3f e2 9b 9e be
       0.60144657 0.52945876 0.60311747 -0.30978304
0002b0 a9 e7 85 bf a2 f4 4a bf 66 b1 4a bf 30 9a e7 3e
       -1.0461322 -0.7927953 -0.7917694 0.45234823
0002c0 a0 3a bb 3e f9 6f 43 bf 7f 85 5c bf d1 e8 f8 3e
       0.36568165 -0.7634273 -0.861412 0.48615125
0002d0 81 e8 06 3f 3d 1b 41 3f c1 f2 6d bf fb ce 1b bf
       0.5269852 0.7543219 -0.9294854 -0.608627
0002e0 2e 58 2e bf 9c dd 60 bf 40 ef 31 3f 25 a9 cb 3e
       -0.681033 -0.8783815 0.6950569 0.39777485
0002f0 ce 18 3f bf d0 26 41 3f 5b 05 01 3f e8 40 0c 3f
       -0.74647224 0.7544985 0.50398797 0.5478654
000300 91 95 32 3f d6 c5 58 bf dc d7 14 bf eb 41 24 3f
       0.6975947 -0.84676874 -0.58141875 0.6416308
000310 5f 1e 2b 3f b3 7c 28 3f 7c 3a d8 3e 18 9c 36 3f
       0.6684322 0.65815276 0.4223212 0.7133193
000320 e7 ee 43 3f f6 1f 60 bf fc 3d 19 3f 88 c2 3b bf
       0.7653641 -0.8754877 0.59860206 -0.73343706
000330 4c 8f 24 3f 54 b3 0d 3f 71 ca c5 3e 30 84 8e bf
       0.64281154 0.5535176 0.38631013 -1.113409
000340 2c 50 44 bf ff ea 4e bf 87 4b 25 3f fa ca 3d 3f
       -0.7668483 -0.80827326 0.6456837 0.7413784
000350 12 1b 47 bf ea a1 23 bf 9f 98 81 be b5 7c b5 3e
       -0.7777568 -0.63918936 -0.25311753 0.35446706
000360 30 f7 37 bf a3 38 1b 3f 4c 6d 1a bf e3 b5 58 3f
       -0.71861553 0.60633296 -0.60323024 0.8465254
000370 6a 55 0c bf 77 9f 11 3f 04 45 24 3f fb 38 4c be
       -0.5481783 0.5688395 0.6416781 -0.19943611
000380 05 a9 fe 3e 89 a0 f3 be 82 1a 9a be 8d b5 0d 3f
       0.49738327 -0.47583416 -0.3009835 0.5535515
000390 a5 cf 1d 3f 11 ce f6 be 5f 15 86 bf eb 1d 29 3f
       0.61644965 -0.4820409 -1.0475272 0.66061276
0003a0 bf 8c 65 bf 4c a9 2b bf 94 c8 39 bf f3 3e 2e 3f
       -0.89667886 -0.670552 -0.7257168 0.680648
0003b0 43 85 3b bf c5 3f 1e 3f ad 07 06 bf 31 e9 04 3f
       -0.73250216 0.61816055 -0.5235546 0.5191832
0003c0 13 93 56 bf 0a f3 3f bf 2d 36 46 bf c8 60 3c 3f
       -0.8381817 -0.74980223 -0.77426416 0.73585176
0003d0 e4 61 80 bf 99 2d 2f 3f 51 bf ce be 4a e4 46 bf
       -1.0029874 0.6842895 -0.40380338 -0.7769209
0003e0 10 f3 3c bf 63 82 4f bf 28 c4 25 bf 8d ce 31 3f
       -0.73808384 -0.8105833 -0.64752436 0.69455796
0003f0 33 37 4e bf 0a af 09 3f f7 66 64 bf 3e bf 82 bf
       -0.8055298 0.53782713 -0.8921961 -1.0214612
