active_slam_rl/training_output_no_slam/20260128_030605/d3qn_ep590.pth (torch, 901794 bytes, 11 tensors)

feature.0.weight f4 [256, 100]
0	0xbd8b010e	-0.067873105
1	0xbe00f617	-0.12593876
2	0xbdd957d7	-0.10612457
3	0xbcdba2b1	-0.026810976
4	0xbd8ca8d3	-0.06868138
5	0xbe1a5ae7	-0.15073739
6	0xbb9c6151	-0.004772343
7	0xbe49cad9	-0.19706286
8	0xbb51e34d	-0.003202635
9	0xbe638aed	-0.22220965
10	0xbe2edba4	-0.17075974
11	0xbd70d937	-0.058800902
12	0xbe35200b	-0.17688005
13	0xbd4c12e1	-0.04982269
14	0xbd94c994	-0.072650105
15	0xbe39e73c	-0.18154615
16	0xbd8a78e1	-0.06761337
17	0xbe5e69ca	-0.21720043
18	0xbe485df2	-0.19567087
19	0xbde24fcb	-0.110503756
20	0xbd371a6f	-0.044702943
21	0xbdd49d13	-0.10381522
22	0xbe07f0d4	-0.13275462
23	0x3da1e1b7	0.0790438
24	0xbdd2f3fb	-0.10300442
25	0xbe24c582	-0.16090968
26	0xbd9b2328	-0.07575065
27	0xbddb2511	-0.10700429
28	0xbd65b531	-0.056081
29	0xbdd38e86	-0.103299186
30	0xbdc26ce5	-0.09493426
31	0xbddb1a8e	-0.10698424
32	0xbdbb237e	-0.09137629
33	0xbc87f535	-0.016596416
34	0xbd0231a4	-0.031785622
35	0xbd9fa18d	-0.07794485
36	0xbb035a66	-0.0020042895
37	0xbe16ddab	-0.14732997
38	0xbd93109e	-0.07180904
39	0x3b46acc8	0.0030315388
40	0xbd9e395d	-0.07725785
41	0xbe330486	-0.17482194
42	0x3c463b4a	0.012099097
43	0xbdc2e1b4	-0.09515706
44	0xbe089736	-0.13338932
45	0xbe0f3a51	-0.1398709
46	0xbe24627c	-0.16053194
47	0xbe21860b	-0.1577379
48	0xbdb8bb53	-0.09020104
49	0xbe176bdc	-0.14787239
50	0x3bf9d8a4	0.0076247025
51	0x3da4a9a5	0.080401696
52	0xbc525b88	-0.012839206
53	0x3db27020	0.087127924
54	0xbe1ef3ef	-0.15522741
55	0xbd5bdf21	-0.05367959
56	0xbd34c428	-0.04413238
57	0xbe1a935c	-0.15095276
58	0xbdcd999b	-0.100390635
59	0xbdb98f7f	-0.09060573
60	0xbcc51a39	-0.024060355
61	0xbd841d4d	-0.06450901
62	0xbdfd8eaf	-0.1238073
63	0xbdf20b9d	-0.11818621
64	0xbe2f104f	-0.17096065
65	0xbe05bf90	-0.13061357
66	0xbdba154c	-0.09086093
67	0xbe14871b	-0.14504664
68	0xbd7b655f	-0.061375972
69	0x3e0d95fe	0.13826749
70	0x3db8c5b9	0.090220876
71	0x3de1aff5	0.11019889
72	0x3d976d71	0.07393921
73	0x3d2cad6a	0.042157568
74	0x3d51bb2d	0.051203895
75	0xbd9a4599	-0.07532806
76	0x3d77aa5b	0.060465198
77	0xbdae2c86	-0.08504586
78	0x3dd80ddf	0.10549521
79	0x3d2dbff8	0.042419404
80	0x3d88aa84	0.06673148
81	0xbda621ee	-0.0811194
82	0x3d11d2f2	0.035601564
83	0xbcca72d8	-0.024712965
84	0xbd4690bd	-0.048477877
85	0xbdeeceba	-0.11660524
86	0xbdf61516	-0.120157406
87	0xbdaafaac	-0.08348593
88	0xbc4d4a59	-0.012529933
89	0xbc3fc54a	-0.011704752
90	0x3d02aaa1	0.031901006
91	0xbb0fa026	-0.0021915524
92	0x3d192bec	0.037395403
93	0x3c9a9b22	0.018872801
94	0x3d7adb96	0.06124457
95	0x3d8fe0e8	0.07025319
96	0xbce4de7e	-0.027938124
97	0xbdc879da	-0.09788866
98	0xbd79fdab	-0.061032932
99	0xbe345396	-0.1761001
100	0x3dd608f7	0.10450929
101	0x3c6143a1	0.013749034
102	0x3e266916	0.16251025
103	0x3e1aa78b	0.15102975
104	0x3db24c49	0.087059565
105	0x3dce58d0	0.100755334
106	0x3e3e4425	0.18580683
107	0x3e277580	0.16353416
108	0x3ca0f9c2	0.019650344
109	0xbc0d449b	-0.008622314
110	0xbd337346	-0.043811105
111	0x3c90c664	0.017672725
112	0x3d479acb	0.048731606
113	0xbcc85672	-0.024455283
114	0x3d80f63a	0.06296964
115	0xbd9192d0	-0.071080804
116	0x3d819ff4	0.06329337
117	0x3dbf9bb7	0.09355872
118	0x3d0b0816	0.03394326
119	0xbd42e9e8	-0.04758635
120	0xbd27fb22	-0.041010983
121	0xbdce8d68	-0.10085565
122	0xbe367813	-0.17819242
123	0xbd22adfc	-0.039716706
124	0xbe29feb5	-0.1660107
125	0xbde4af68	-0.111662686
126	0xbe716d1a	-0.23576775
127	0xbe8d6eb6	-0.27623528
128	0xbe0fba5e	-0.14035937
129	0xbe6253bf	-0.22102259
130	0xbe1f373a	-0.15548411
131	0xbe8705af	-0.26371524
132	0xbe7c2af0	-0.24625754
133	0xbea011c4	-0.31263554
134	0xbece000b	-0.40234408
135	0xbeb462c4	-0.35231602
136	0xbeabab12	-0.33528954
137	0xbe9dc74a	-0.30816108
138	0xbea9ceda	-0.33165628
139	0xbf0689f9	-0.5255428
140	0xbe8dfdb9	-0.27732638
141	0xbf02cfdb	-0.5109841
142	0xbef658be	-0.4811458
143	0xbeb68244	-0.3564626
144	0xbed48c5d	-0.4151334
145	0xbef83090	-0.4847455
146	0xbf20a7b0	-0.6275587
147	0xbef7091b	-0.48249134
148	0xbf14e265	-0.5815795
149	0xbf05fb93	-0.52336997
150	0xbee3d5de	-0.44499105
151	0xbf133280	-0.5749893
152	0xbee096ba	-0.43864995
153	0xbe8cbecd	-0.2748932
154	0xbe6aafc2	-0.22918609
155	0xbe1b8a5b	-0.15189497
156	0x3d8fab7d	0.07015131
157	0xbd911b50	-0.070852876
158	0x3e138269	0.14405216
159	0x3dbd8ab7	0.092549734
160	0x3d1c881c	0.03821574
161	0x3b32c6a1	0.0027279037
162	0x3d0e7f0c	0.03478913
163	0x3be98a92	0.0071271146
164	0x3d9fd680	0.078045845
165	0x3ddc6236	0.1076092
166	0x3df0eaec	0.11763558
167	0x3de2119d	0.11038516
168	0x3da8435f	0.08215975
169	0x3d03ee5a	0.03220973
170	0x3e4afca6	0.1982294
171	0x3d130084	0.035889164
172	0x3d7ea87c	0.062172398
173	0xbd46570e	-0.048422866
174	0xbd1b2aa8	-0.037882477
175	0xbc777ca8	-0.015105404
176	0x3d625067	0.05525246
177	0xbdc4cb1e	-0.09609054
178	0xbd865642	-0.06559421
179	0x3af1e8ac	0.0018456182
180	0xbd4c88b0	-0.049935043
181	0xbd2fcc47	-0.042919423
182	0xbdd9251d	-0.10602782
183	0x3d06e095	0.032929022
184	0xbd922837	-0.071365766
185	0x3cdcd427	0.02695663
186	0x3bf4be90	0.007469006
187	0xbdbbd512	-0.09171499
188	0xbdf59c78	-0.11992735
189	0xbcab44e2	-0.02090687
190	0x3d5f9050	0.054580986
191	0xbd2de117	-0.04245099
192	0xbda62e08	-0.081142485
193	0x3d0238f5	0.0317926
194	0xbdb61cc0	-0.088922024
195	0x3d539b50	0.05166179
196	0xbd9c5798	-0.07633895
197	0xbda648e7	-0.08119374
198	0xbb9c4b27	-0.004769701
199	0xbe590223	-0.21192221
200	0xbf0556fc	-0.5208585
201	0xbf083600	-0.532074
202	0xbf08e228	-0.5347009
203	0xbeefe64c	-0.4685539
204	0xbf1abe1a	-0.6044632
205	0xbf08e0eb	-0.534682
206	0xbf0be3b0	-0.546443
207	0xbf1cfa40	-0.6131935
208	0xbf1e2502	-0.6177522
209	0xbf1a4941	-0.60268027
210	0xbefa10d7	-0.48840973
211	0xbedb7657	-0.42863724
212	0xbf161c39	-0.58636814
213	0xbf081275	-0.53153163
214	0xbf08af4a	-0.5339247
215	0xbf2ba6de	-0.67051494
216	0xbf2d7b66	-0.67766416
217	0xbf27a26f	-0.6548223
218	0xbf2f92e1	-0.68583494
219	0xbf275242	-0.6535989
220	0xbf399c26	-0.7250389
221	0xbd0e1028	-0.034683377
222	0x3e33d7b3	0.17562751
223	0x3e146638	0.14492118
224	0x3e04cedd	0.12969537
225	0x3db97f84	0.09057525
226	0xbcdfb148	-0.027306214
227	0x3e413523	0.18867926
228	0x3df813dd	0.121131636
229	0x3c865345	0.016397128
230	0xbd9e4a95	-0.07729069
231	0xbd8f9ba4	-0.07012108
232	0xbdf1002e	-0.117676124
233	0x3d514419	0.051090334
234	0xbe412bea	-0.18864408
235	0xbd07c8f2	-0.03315062
236	0xbdb481d6	-0.08813827
237	0xbe5073b7	-0.20356642
238	0xbd9c6dce	-0.07638131
239	0xbd986770	-0.07441604
240	0xbe222948	-0.1583606
241	0xbe8e3a85	-0.27779022
242	0xbe2fb79b	-0.17159884
243	0xbe83244a	-0.25613624
244	0xbe25effc	-0.16204828
245	0xbe44c1c7	-0.19214545
246	0xbdd08f6c	-0.101836056
247	0xbd5f71dc	-0.054551944
248	0xbe194aef	-0.14969991
249	0xbe436c7a	-0.1908435
250	0xbe016649	-0.12636675
251	0xbcf2b7dc	-0.029628687
252	0xbd8e31c2	-0.06943084
253	0xbd3e2ccd	-0.046429444
254	0xbe162863	-0.14663844
255	0xbe115eb9	-0.1419629

feature.0.bias f4 [256]
0	0x3e00674e	0.12539408
1	0xbc80e3a4	-0.015733548
2	0xbd8fc956	-0.07020824
3	0xbd160b83	-0.036632072
4	0x3ed6e182	0.41968924
5	0x3ec7a5ee	0.38993782
6	0xbce472ec	-0.02788683
7	0xbecbe959	-0.39826468
8	0x3e2186c8	0.15774071
9	0x3ecfdb0c	0.40596807
10	0xbf1ad97d	-0.6048811
11	0x3eb26985	0.3484613
12	0xbdab69a4	-0.08369759
13	0x3eb15721	0.34636787
14	0x3ee2007c	0.44140995
15	0xbd78e87c	-0.06076859
16	0x3dbb5ad8	0.091481864
17	0x3f0c1041	0.547123
18	0x3dedf505	0.116189994
19	0xbeda0314	-0.42580473
20	0xbd8d1fae	-0.06890808
21	0x3f210bdc	0.6290872
22	0x3e08e7e1	0.13369705
23	0x3e1f32e5	0.15546758
24	0x3e946b67	0.2898819
25	0x3d87f2b6	0.0663809
26	0xbe3a805f	-0.18213032
27	0xbe19948a	-0.1499807
28	0x3f392d4e	0.72334754
29	0x3ecfecad	0.40610257
30	0x3d9604a9	0.073251076
31	0x3f12f70d	0.5740822
32	0x3ee76b97	0.45199272
33	0xbdebc829	-0.11512787
34	0x3ecaf561	0.39640334
35	0x3cf18d47	0.029486312
36	0x3e057214	0.13031799
37	0xbeabb0f6	-0.33533448
38	0xbe342063	-0.1759048
39	0x3e320542	0.17384818
40	0x3e9400d4	0.28906882
41	0x3e6f15d1	0.23348166
42	0x3ed050f1	0.40686753
43	0x3e1aee52	0.15129974
44	0x3e010273	0.1259859
45	0x3ebdcef8	0.37071967
46	0x3e4e2633	0.2013176
47	0xbe297ebd	-0.16552253
48	0x3c05d748	0.008169003
49	0x3ed94593	0.42435893
50	0xbee43c1f	-0.4457712
51	0x3ecbe2fa	0.39821607
52	0x3e461fef	0.19348119
53	0xbe9e94f7	-0.30973026
54	0x3dc6c723	0.09705951
55	0x3f02a303	0.51029986
56	0x3e83295b	0.2561749
57	0xbca64091	-0.02029446
58	0xbe946395	-0.28982225
59	0xbe24bfad	-0.16088744
60	0x3ee47a18	0.446244
61	0xbedb4745	-0.42827812
62	0x3ed86e29	0.42271546
63	0x3dd54961	0.104143865
64	0x3e88954b	0.26676401
65	0x3dc11f67	0.09429818
66	0x3e2fec76	0.17180046
67	0x3ebf41d3	0.37354907
68	0x3eb52644	0.35380757
69	0x3d809280	0.06277943
70	0x3ea0f724	0.31438553
71	0x3ec01dd0	0.37522745
72	0x3e57d2b1	0.21076466
73	0x3dc3be07	0.09557729
74	0x3eb1a25f	0.34694192
75	0x3e41b1ca	0.18915477
76	0xbf0635e2	-0.5242597
77	0x3e9176fc	0.2841109
78	0xbe0680be	-0.13135049
79	0xbc16fd63	-0.009215686
80	0x3ed3651c	0.41288078
81	0x3e87f9a9	0.26557663
82	0x3dbef9b8	0.09324974
83	0xbd957d86	-0.07299332
84	0x3f020a12	0.50796616
85	0x3e4768cf	0.19473575
86	0x3e3fb8a8	0.18722785
87	0xbf16a05a	-0.5883843
88	0x3ebd3790	0.36956453
89	0x3f1a7991	0.60341746
90	0xbedde7af	-0.43340823
91	0x3dfc26ef	0.123121135
92	0x3e9c1a08	0.3048861
93	0xbed060df	-0.40698907
94	0xbec91f0d	-0.39281502
95	0x3e8953d1	0.2682176
96	0xbe73ae8c	-0.23797053
97	0x3cfd7d4f	0.03094354
98	0x3f13f3c4	0.5779383
99	0xbec4b7ba	-0.38421422
100	0x3ebcc41f	0.3686838
101	0xbf07dc6f	-0.5307073
102	0xbef56ca7	-0.47934458
103	0x3f101372	0.5627967
104	0x3f0054a2	0.5012914
105	0x3e0ee47a	0.13954344
106	0xbf0cc8cd	-0.549939
107	0x3eb5d181	0.355114
108	0xbe0df7a8	-0.13864005
109	0x3edac4c3	0.42728242
110	0x3e69edf8	0.22844684
111	0x3df17452	0.117897645
112	0x3e3c450b	0.18385713
113	0xbe7d088a	-0.24710289
114	0x3e6fe325	0.23426493
115	0xbed93051	-0.42419675
116	0x3dfa97fe	0.122360215
117	0x3e91e7ae	0.2849707
118	0x3ea0e35c	0.3142346
119	0x3ec48cff	0.3838882
120	0x3e814f92	0.2525602
121	0x3f00b212	0.50271714
122	0x3eaab91b	0.3334435
123	0x3dd4d213	0.10391631
124	0xbe4a4f8d	-0.19756909
125	0x3de73918	0.11290187
126	0x3e42242e	0.18959114
127	0x3eb08928	0.34479642
128	0x3e8170ae	0.2528128
129	0x3c05d1ed	0.008167726
130	0x3e6c4370	0.230726
131	0x3e94279d	0.28936473
132	0xbf163318	-0.5867171
133	0x3e92d007	0.28674337
134	0x3e37e188	0.17957127
135	0x3efb9618	0.4913795
136	0x3e8ad550	0.2711587
137	0x3eaa4b74	0.3326069
138	0x3e01b508	0.12666714
139	0xbcbec673	-0.023287987
140	0xbf10be3a	-0.5654026
141	0xbefa941d	-0.48941126
142	0xbee23e58	-0.4418819
143	0x3e24dbd1	0.16099478
144	0x3e8fb49f	0.2806749
145	0x3f0c7a9a	0.54874575
146	0xbf110953	-0.5665485
147	0x3eeec508	0.46634698
148	0xbe23070e	-0.1592066
149	0xbea92f24	-0.33043778
150	0x3e6406c9	0.22268213
151	0x3e4b08af	0.19827531
152	0x3d40f794	0.04711111
153	0xbef2e2cf	-0.47438666
154	0x3e5ade69	0.21373905
155	0x3ea83866	0.3285553
156	0x3e5c856c	0.21535271
157	0x3bde44dc	0.006783111
158	0x3e6d2a1a	0.23160592
159	0xbe3161a9	-0.1732241
160	0x3e4c797d	0.19968219
161	0xbee907b7	-0.45513698
162	0x3d988c72	0.07448663
163	0xba845e96	-0.001009899
164	0x3dad8593	0.08472743
165	0x3e90eb52	0.28304535
166	0xbe281b9c	-0.16416782
167	0x3edcdcc0	0.4313717
168	0xbef62786	-0.4807703
169	0xbc9cfe05	-0.019164095
170	0xbe8ae1f8	-0.27125525
171	0x3e984470	0.29739714
172	0xbec88462	-0.391635
173	0x3e62d2c1	0.22150709
174	0x3e61b398	0.22041166
175	0x3e16a033	0.14709549
176	0x3e68cfb3	0.22735481
177	0xbec00e8f	-0.37511107
178	0x3e0570a1	0.13031246
179	0xbea4b993	-0.32172832
180	0xbe78d7b5	-0.24301036
181	0x3ccfa5d5	0.02534763
182	0xbf047d1b	-0.51753396
183	0x3e867107	0.26258108
184	0x3d1cd514	0.038289145
185	0xbe1285f9	-0.14308919
186	0x3edb223f	0.42799565
187	0x3e85ffc9	0.2617171
188	0x3edd0212	0.43165642
189	0x3eea5da5	0.4577457
190	0xbe49bc83	-0.19700818
191	0xbe6a66f2	-0.22890833
192	0x3ec3fd6a	0.38279277
193	0xbe49d49c	-0.1971001
194	0x3c41efd1	0.011836962
195	0x3d967b1e	0.073477015
196	0xbe8fc1c3	-0.28077516
197	0x3ec0e894	0.37677443
198	0xbd0b5393	-0.03401525
199	0xbddc8d35	-0.107691206
200	0x3dd50dc2	0.10403015
201	0x3e7fa615	0.24965699
202	0x3ebbf02f	0.36706683
203	0x3e899b27	0.26876184
204	0xbec1db38	-0.37862563
205	0x3e5473c2	0.20747283
206	0x3dbf6085	0.093445815
207	0x3e1da835	0.15396197
208	0x3e871eaf	0.26390597
209	0x3e885f0a	0.2663501
210	0x3e51e88a	0.20498863
211	0xbe585335	-0.21125491
212	0x3e9e01f6	0.3086087
213	0x3e34f960	0.17673254
214	0xbf1934ae	-0.5984601
215	0xbe25bec8	-0.16186059
216	0xbda1a36b	-0.07892498
217	0x3f007c6d	0.5018986
218	0x3e60d8da	0.21957722
219	0xbf10c963	-0.5655729
220	0xbd900666	-0.070324704
221	0xbead8bcb	-0.33895716
222	0xbeb101f2	-0.34571797
223	0xbd2a5b61	-0.041591052
224	0xbea0527b	-0.31312928
225	0xbe9240eb	-0.28565153
226	0x3da11f4f	0.078673
227	0x3e1aaa1e	0.15103957
228	0xbdf49a70	-0.11943519
229	0x3e0ff423	0.14057975
230	0xbd5f1312	-0.054461546
231	0x3cde6caf	0.027151434
232	0x3d2983a7	0.04138532
233	0x3e413a64	0.1886993
234	0x3eda75fd	0.42668143
235	0x3d8603a1	0.06543661
236	0xbef189d9	-0.47175482
237	0xbec33993	-0.38129863
238	0x3eb4f184	0.35340512
239	0x3ebc20e9	0.36743858
240	0x3b24120d	0.0025035173
241	0xbee41f23	-0.44555005
242	0x3eaac8ff	0.33356473
243	0x3d87c569	0.0662945
244	0x3e26b053	0.162782
245	0x3e9b2864	0.30304253
246	0x3e2da66f	0.1695802
247	0x3ea43917	0.32074806
248	0x3d85dfca	0.06536825
249	0x3ebd0341	0.36916545
250	0xbef66a12	-0.481278
251	0x3cc3aee4	0.023887105
252	0x3e6c5c2e	0.23082039
253	0x3d2c4422	0.042057164
254	0x3de773fd	0.1130142
255	0x3c07735b	0.008267249

feature.2.weight f4 [256, 256]
0	0x3eb8d1f6	0.36097687
1	0x3efdd340	0.49575233
2	0x3e587202	0.2113724
3	0x3d3a50db	0.045487266
4	0x3ebcaa9f	0.36848924
5	0x3df331b2	0.11874713
6	0xbb1d6823	-0.002401837
7	0xbd0c58ce	-0.03426438
8	0x3d1d7072	0.038437314
9	0x3de05d3b	0.10955282
10	0xbd9890ac	-0.07449469
11	0xbe427577	-0.18990122
12	0x3b4bf460	0.0031121
13	0xbc61442b	-0.013749163
14	0x3d103f40	0.03521657
15	0xbc7b7f75	-0.015350212
16	0x3f0c9745	0.5491832
17	0x3de9e4ca	0.11420591
18	0x3efac323	0.48977003
19	0x3e186982	0.14883998
20	0x3e56ad72	0.20964602
21	0xbe0394fa	-0.12849799
22	0x3a337146	0.0006845187
23	0x3b470c1d	0.003037221
24	0xbdc7b04a	-0.09750421
25	0x3e362e7d	0.17791171
26	0xbc5b7b0f	-0.013396039
27	0x3aef7087	0.0018267789
28	0xbd4ac9ae	-0.049508743
29	0xbeb7308b	-0.35779223
30	0xbefd2db7	-0.4944894
31	0xbe26baf9	-0.16282262
32	0xbe22e1b8	-0.15906417
33	0x3db6073d	0.08888099
34	0xbc66089a	-0.014040137
35	0x3ccbc7e2	0.024875585
36	0x3d000cca	0.031262197
37	0xbdf5e078	-0.12005705
38	0xbe71122f	-0.23542093
39	0x3e83d71a	0.25750047
40	0x3d87deae	0.0663427
41	0x3ebe6e5f	0.3719358
42	0xbe078f71	-0.13238312
43	0x3d82f2a8	0.06393939
44	0x3d35f59e	0.044423692
45	0x3e2f6fe2	0.17132524
46	0xbd59f866	-0.053215407
47	0x3e91450c	0.2837299
48	0x3ea6e088	0.3259318
49	0x3d9b0d7f	0.075709336
50	0xbb51b88e	-0.0032000872
51	0x3df85bf4	0.12126914
52	0x3cf50220	0.02990824
53	0x3d8333a7	0.06406336
54	0x3e63c782	0.22244075
55	0x3dc198e9	0.094529934
56	0x3e061835	0.13095172
57	0xbdc27dd8	-0.09496659
58	0xbdb282f1	-0.08716381
59	0xbe418944	-0.18900019
60	0xbe5e349a	-0.21699753
61	0x3d4e72fb	0.050402623
62	0x3ded7b3c	0.11595771
63	0xbe6a804e	-0.22900507
64	0x3c09d4e7	0.008412576
65	0xbc4acae5	-0.012377475
66	0xbe916489	-0.28397015
67	0x3e063382	0.13105586
68	0xbe111521	-0.14168216
69	0x3efb7145	0.49109855
70	0xbcf1ebbe	-0.029531356
71	0xbe48cccb	-0.19609372
72	0x3e78a5a1	0.24281932
73	0xbd7bc5b8	-0.061467856
74	0xbd149201	-0.036272053
75	0xbe4940b9	-0.19653596
76	0x3d810e42	0.063015476
77	0x3cbf7782	0.023372415
78	0x3dd4c7dd	0.103896834
79	0xbe0a0bec	-0.1348111
80	0xbe280436	-0.16407856
81	0x3f01103f	0.50415415
82	0x3e985389	0.29751232
83	0xbdd6ba3c	-0.1048474
84	0x3d85d9bc	0.0653567
85	0xbd8f61ad	-0.07001052
86	0x3d865e07	0.06560903
87	0x3d955363	0.072912954
88	0xbdac7c00	-0.084220886
89	0x3dce56cd	0.1007515
90	0x3e73811a	0.23779717
91	0x3dd3ed2a	0.1034797
92	0x3e7192f9	0.23591222
93	0xbe8dd818	-0.2770393
94	0xbc221db2	-0.009894775
95	0x3e098988	0.1343137
96	0x3cd525ab	0.026018938
97	0xbc586fc2	-0.013210239
98	0x3d056c20	0.03257382
99	0x3d111eed	0.035429884
100	0x3cd202f5	0.025636176
101	0x3db88e07	0.090114646
102	0x3cc0fa7c	0.02355694
103	0xbe9335be	-0.2875194
104	0xbde87b7e	-0.11351679
105	0x3e87b9b5	0.2650887
106	0xbd6f0049	-0.05834988
107	0x3e1a6eb5	0.15081294
108	0x3d3e8513	0.04651363
109	0xbe82c793	-0.25542888
110	0x3db7b419	0.08969898
111	0x3d82fb41	0.06395579
112	0xbd5371eb	-0.051622313
113	0x3c207719	0.00979402
114	0x3e35be61	0.17748405
115	0xbe58747f	-0.2113819
116	0x3d165753	0.036704373
117	0x3cbdb38c	0.023156904
118	0x3e239124	0.15973336
119	0xbe487c86	-0.19578752
120	0xbe553ddf	-0.20824383
121	0x3cb50228	0.022095755
122	0x3e17d214	0.14826232
123	0xbd36b176	-0.044602834
124	0x3e5345e2	0.20632127
125	0xbe9f4e55	-0.3111445
126	0x3e0dee21	0.1386037
127	0xbe4244e8	-0.18971598
128	0x3ebb85a4	0.36625397
129	0x3e6137de	0.21993968
130	0xbe82d5a2	-0.25553614
131	0x3cfdaaae	0.030965175
132	0x3cc521bf	0.024063943
133	0x3de0e6de	0.109815344
134	0xbce4f090	-0.02794674
135	0xbdfaecff	-0.12252235
136	0x3d93f5bf	0.07224607
137	0xbcd2739b	-0.02568989
138	0xbc971e62	-0.018447105
139	0x3b90a4cb	0.004414176
140	0x3c85ac6b	0.016317567
141	0x3e167d90	0.14696336
142	0xba054a4b	-0.0005084618
143	0x3dc85e3f	0.09783601
144	0x3e914f3c	0.28380764
145	0x3dd4074d	0.10352955
146	0x3e06ea2f	0.13175271
147	0x3e05447b	0.13014404
148	0x3d8ecd44	0.06972745
149	0xbcd59941	-0.026074054
150	0xbe91b533	-0.28458557
151	0x3d768bfe	0.0601921
152	0x3e8557e4	0.26043618
153	0x3d0d073b	0.034430724
154	0xbd9a5d74	-0.07537356
155	0xbdfc033e	-0.12305306
156	0xbe4ddda9	-0.20104088
157	0x3e0883af	0.13331483
158	0xbe1d486b	-0.15359657
159	0x3d0d83ad	0.034549404
160	0x3e068211	0.13135554
161	0xbd657898	-0.05602321
162	0x3ea73946	0.32660884
163	0x3e239177	0.15973459
164	0xbe439443	-0.19099526
165	0xbe0b5ffb	-0.13610832
166	0xbe71319f	-0.23554085
167	0xbe0d0e2e	-0.1377494
168	0xbc6a1478	-0.014287107
169	0x3e4f1806	0.20224008
170	0x3dd80a64	0.10548857
171	0xbe65defc	-0.22448343
172	0xbef2c159	-0.47413138
173	0xbe952085	-0.29126373
174	0xbdcb7992	-0.09935297
175	0x3eb15ef4	0.34642756
176	0x3ea9e1a2	0.33179957
177	0x3ddef196	0.108859226
178	0xbe11358a	-0.1418058
179	0x3e793ba0	0.24339151
180	0xbea90136	-0.33008736
181	0x3f0068f8	0.5016017
182	0x3d8b0773	0.0678853
183	0xbce4efe9	-0.02794643
184	0x3e8fda3e	0.28096193
185	0x3e06071c	0.1308865
186	0xbd6c93f5	-0.05775829
187	0x3b2bb358	0.0026199427
188	0xbe584246	-0.21119031
189	0x3ddedb3f	0.108816616
190	0xbdca0510	-0.09864247
191	0x3e047227	0.1293417
192	0xbe8d17ee	-0.2755732
193	0x3d61f24e	0.05516272
194	0xbe1cf19c	-0.15326542
195	0x3f1755d0	0.59115314
196	0x3e8c47cb	0.27398524
197	0x3d4a84c1	0.04944301
198	0x3e670299	0.22559585
199	0x3c3d4376	0.0115517285
200	0x3d0d1892	0.03444726
201	0xbd265612	-0.040609427
202	0xbd87ae0b	-0.06624993
203	0x3e121f93	0.14269857
204	0x3e31992f	0.17343591
205	0x3e9aee1e	0.30259794
206	0x3d532951	0.051553074
207	0xbe2329cf	-0.15933917
208	0x3db5fcd2	0.08886112
209	0xbdbb98b9	-0.09159989
210	0x3ed3c047	0.41357633
211	0x3e333bda	0.175033
212	0xbd1b0ae2	-0.037852176
213	0x3e5678a0	0.20944452
214	0x3e1778dc	0.14792198
215	0xbe8e3e34	-0.27781832
216	0x3e9a42ce	0.30129093
217	0xbc438f91	-0.011936084
218	0x3dad5629	0.08463699
219	0x3d6f8cd2	0.058483906
220	0xbe054edc	-0.13018364
221	0xbd732b26	-0.05936732
222	0x3dcedaa9	0.101003
223	0x3e745af8	0.23862827
224	0x3dbc80c6	0.09204249
225	0xbe7ae65d	-0.24501939
226	0x3e76138b	0.24030893
227	0x3ed0d496	0.4078719
228	0x3df1eb9a	0.118125156
229	0xbe9f06dd	-0.31059924
230	0xbda1d1f1	-0.07901371
231	0x3ec66b84	0.38753903
232	0x3e49f787	0.1972333
233	0x3db820bc	0.089906186
234	0x3e0e57e5	0.13900717
235	0xbe0fa094	-0.140261
236	0x3e553045	0.20819195
237	0xbc05ba1c	-0.008162048
238	0x3c619b9c	0.01377001
239	0xbe3096a7	-0.1724497
240	0x3eaa5467	0.3326752
241	0x3c4f3a07	0.012648112
242	0xbdea94c6	-0.114541575
243	0xbd0ead3a	-0.03483317
244	0xbe503f55	-0.20336659
245	0x3d5bc170	0.053651273
246	0xbe89c80e	-0.26910442
247	0x3d00047c	0.031254277
248	0x3e54f676	0.20797142
249	0x3e7a56ad	0.24447127
250	0xbdd32e03	-0.103115104
251	0xbce02dee	-0.027365651
252	0x3d2b7ec1	0.04186893
253	0x3e4f5e73	0.20250873
254	0x3e26db67	0.16294633
255	0x3e9b1544	0.30289662

feature.2.bias f4 [256]
0	0xbd7fe742	-0.062476404
1	0x3e2debe7	0.16984521
2	0xbe17e848	-0.14834702
3	0xbd354fec	-0.044265673
4	0xbc72f090	-0.014827862
5	0x3e3ef9c9	0.18649973
6	0x3e1828c6	0.14859304
7	0xbec0c8ff	-0.37653348
8	0x3e546a13	0.20743589
9	0xbd974b30	-0.07387388
10	0x3e82dbb8	0.25558257
11	0x3e2bd15d	0.16779085
12	0x3cb5bcb5	0.02218471
13	0x3e749413	0.23884611
14	0x3e64e9a7	0.22354756
15	0x3e02c251	0.12769438
16	0xbcd45d67	-0.025923444
17	0x3ed6ebae	0.41976684
18	0x3e75bacf	0.23997043
19	0x3e544a51	0.20731474
20	0x3c7768e6	0.015100693
21	0x3e5b88b7	0.21438871
22	0xbe1f42cb	-0.15552823
23	0xbcd60856	-0.026127022
24	0xbddc8e64	-0.10769346
25	0x3db17fcb	0.08666953
26	0x3d7e7e37	0.062132087
27	0x3cd11d47	0.025526656
28	0x3ed69306	0.41909045
29	0xbcc7c981	-0.024388077
30	0x3dcd5919	0.1002676
31	0x3dcb23c0	0.09918928
32	0x3cf27c4c	0.029600285
33	0x3e2d8a1e	0.16947219
34	0x3e377b8e	0.17918226
35	0x3de56fad	0.11202941
36	0x3d0d0323	0.03442682
37	0x3eb44839	0.35211352
38	0x3c59fcdc	0.013304915
39	0x3cd2a8ad	0.025715197
40	0xbe5f3ed3	-0.2180131
41	0xbdd85014	-0.10562149
42	0x3bb8b400	0.005636692
43	0xbedf0300	-0.43556976
44	0x3e3decb5	0.18547328
45	0x3f298367	0.6621613
46	0xbc9b7773	-0.018977856
47	0x3be51369	0.0069908393
48	0x3ee6b23c	0.45057857
49	0x3e620b4c	0.22074622
50	0xbe9ad0e7	-0.30237505
51	0x3e21c3d1	0.15797354
52	0x3e7c63b2	0.24647406
53	0x3e18cc34	0.14921647
54	0xbeef6bb0	-0.46761847
55	0xbd677727	-0.056510117
56	0xbcf8ba8c	-0.03036239
57	0xbe5f146b	-0.21785133
58	0x3e642491	0.22279574
59	0xba149478	-0.00056678755
60	0xbc959e8c	-0.018264078
61	0x3dc24c3e	0.09487198
62	0x3d55984b	0.05214719
63	0x3e347fb2	0.17626837
64	0x3da20392	0.07910837
65	0xbd83ae9a	-0.06429787
66	0x3e1763f3	0.14784221
67	0x3d9bd27d	0.07608507
68	0xbcac38dd	-0.021023208
69	0xbe81cf7e	-0.25353616
70	0xbd41057f	-0.047124382
71	0xbe7d91d1	-0.24762656
72	0x3e439bd9	0.1910242
73	0x3e2a479f	0.16628884
74	0x3e65f6b0	0.22457385
75	0xb79165c7	-1.733274e-05
76	0x3da275bd	0.07932613
77	0x3e3343ce	0.17506334
78	0x3df7c83c	0.120987386
79	0x3e5bc8c3	0.21463303
80	0xbd9330c0	-0.07187033
81	0x3e1b2661	0.15151359
82	0x3ea81213	0.3282629
83	0xbdae7982	-0.085192695
84	0xbe846225	-0.25856128
85	0x3cfba8db	0.030720165
86	0x3ddb3ff8	0.107055604
87	0xbe162732	-0.1466339
88	0x3caaaa7e	0.02083325
89	0xbbb02c28	-0.0053763576
90	0x3df0567b	0.11735245
91	0x3ef774ab	0.48331198
92	0xbdd9b398	-0.10629958
93	0xbdb4fa17	-0.08836763
94	0xbe8a32c6	-0.26991862
95	0x3e1df223	0.15424399
96	0xbda593c9	-0.080848284
97	0xbd8e9dca	-0.069636896
98	0xbd72f5c9	-0.05931643
99	0x3cda5062	0.026649658
100	0xbdc2e373	-0.09516039
101	0x3e0cddfd	0.13756557
102	0x3f380e33	0.71896666
103	0xbd978456	-0.07398288
104	0xbde1116c	-0.10989651
105	0xbd3ccc3b	-0.046093207
106	0x3e0504b4	0.12990075
107	0x3e4ed8b5	0.20199855
108	0x3e020c5f	0.12700032
109	0x3f1de09a	0.6167084
110	0x3e614aaa	0.22001138
111	0x3e9b86bc	0.30376232
112	0xbe84083f	-0.2578754
113	0x3e38f8b3	0.18063621
114	0xbcd58c2d	-0.026067818
115	0x3da3b141	0.07992793
116	0xb9bfbd71	-0.00036571504
117	0x3cf36f87	0.029716266
118	0x3eef425d	0.4673032
119	0x3ea7c816	0.3276984
120	0x3e1c99e9	0.15293087
121	0x3d96625c	0.07342979
122	0xbdac464f	-0.08411848
123	0x3dc677eb	0.09690841
124	0x3e8a621a	0.2702797
125	0x3d81acdd	0.06331799
126	0x3e287634	0.16451341
127	0xbe7e35ba	-0.24825183
128	0xbc83c2da	-0.016084123
129	0x3e69edd3	0.22844629
130	0x3d3d6391	0.046237532
131	0x3ee268b5	0.4422051
132	0xbe557c1a	-0.20848122
133	0x3c0532c2	0.008129777
134	0xbca7364f	-0.020411639
135	0x3e14ac9f	0.14518975
136	0x3db623cd	0.08893547
137	0x3dcd7c70	0.100335
138	0xbbec793d	-0.007216601
139	0x3e1e8723	0.15481238
140	0x3e3bc38a	0.18336311
141	0xbe5962c1	-0.21229078
142	0x3dceac2b	0.10091432
143	0x3ea698ec	0.32538545
144	0xbdc2920f	-0.09500515
145	0x3dbba782	0.09162809
146	0x3e097b56	0.13425955
147	0x3ebd791b	0.3700646
148	0x3e3bb3e3	0.1833034
149	0x3e322764	0.17397839
150	0x3e41f243	0.18940072
151	0xbe9cf476	-0.3065526
152	0xbea0ebb7	-0.31429836
153	0x3e203dd3	0.15648584
154	0x3d25b475	0.0404553
155	0x3b2cd1ac	0.0026370091
156	0x3dc4cb5b	0.096090995
157	0x3eeb826d	0.45997944
158	0xbd83bef0	-0.06432903
159	0x3e807235	0.25087133
160	0x3d35da45	0.04439761
161	0x3db6efe1	0.08932472
162	0x3d832db0	0.064051986
163	0x3cc0b8b0	0.023525566
164	0x3dcd7807	0.10032659
165	0x3e39484e	0.18093988
166	0x3e39b366	0.18134841
167	0xbeed67b4	-0.46368182
168	0x3d9b932c	0.0759643
169	0xbe4434e6	-0.19160804
170	0x3da702a1	0.08154798
171	0xbc9dcdd3	-0.019263184
172	0xbd3be297	-0.04587039
173	0xbdcd27da	-0.10017367
174	0x3f1378ae	0.5760602
175	0xbcf4d8c7	-0.029888524
176	0x3efb0637	0.4902818
177	0xbe854b16	-0.2603385
178	0x3e324c99	0.17412032
179	0xbc7899c3	-0.015173378
180	0x3df7310f	0.12069904
181	0x3e8c97c3	0.27459535
182	0xbd922e9a	-0.07137795
183	0x3ee87d2f	0.45408008
184	0x3dd74481	0.10511113
185	0x3ceab928	0.028652743
186	0x3dcdea7f	0.10054492
187	0x3e3076e2	0.1723285
188	0x3f0407d8	0.5157447
189	0x3f20507d	0.62622815
190	0x3cdf5084	0.027260073
191	0x3e4ab9fd	0.19797511
192	0x3dbc881a	0.09205647
193	0x3e21b802	0.1579285
194	0x3e62d8ad	0.22152968
195	0x3dbee2f2	0.0932063
196	0xbdbbe9ed	-0.09175477
197	0x3edc8cd6	0.430762
198	0x3d0c7f4c	0.034301087
199	0xbe1388f5	-0.14407714
200	0x3efaca00	0.4898224
201	0xbe937524	-0.2880031
202	0x3e493f59	0.19653071
203	0x3e3ee4e0	0.18641996
204	0x3e9a1a6e	0.3009829
205	0xbdd7ad15	-0.1053106
206	0x3f20c1f8	0.6279597
207	0x3e13828d	0.1440527
208	0xbde72445	-0.11286215
209	0x3e326ec2	0.17425063
210	0xbdb21267	-0.08694916
211	0x3c6b7939	0.014372163
212	0x3e4d2610	0.20034051
213	0x3e5d1785	0.21591003
214	0x3d055a41	0.032556776
215	0x3f0ca831	0.5494414
216	0x3dc37dd4	0.09545484
217	0x3db59c1f	0.08867668
218	0xbe4baff9	-0.19891347
219	0x3e8be282	0.2732125
220	0x3df6f082	0.12057592
221	0x3ee86a84	0.45393765
222	0xbda67a95	-0.081288494
223	0x3e25d824	0.16195732
224	0x3e1b37f2	0.1515806
225	0x3cc63c7f	0.024198769
226	0x3e0f041b	0.1396641
227	0x3e13a186	0.14417085
228	0x3e0861c6	0.13318548
229	0xbeae3af3	-0.3402935
230	0x3da99191	0.08279718
231	0xba2a71fb	-0.000650197
232	0x3e24a8b3	0.16079979
233	0x3dd79b4e	0.10527669
234	0x3e7fbb95	0.249739
235	0xbe1ead25	-0.15495737
236	0x3dc2785b	0.09495612
237	0x3ea045e8	0.31303334
238	0xbb9230fc	-0.004461406
239	0x3e1ff1df	0.1561961
240	0x3e4aeb89	0.19816412
241	0xbe6def0d	-0.23235722
242	0x3cd6d25c	0.026223354
243	0xbce03e8a	-0.027373571
244	0x3e0ab748	0.13546479
245	0xbd9da010	-0.07696545
246	0x3e3951b6	0.18097576
247	0xbe1ed535	-0.1551102
248	0x3cb4b438	0.022058591
249	0x3e1ac530	0.15114284
250	0x3e371b9f	0.1788163
251	0x3f1b5a5b	0.60684747
252	0x3ca96695	0.020678798
253	0x3cc9ec10	0.024648696
254	0xbe114571	-0.14186646
255	0xbcc081fa	-0.023499478

value_stream.0.weight f4 [256, 256]
0	0xbdd9ef8b	-0.10641392
1	0xbe0709f0	-0.13187385
2	0xbdabf7f7	-0.08396905
3	0xbe485464	-0.19563442
4	0xbc7a5884	-0.015279893
5	0x3c415b04	0.011801485
6	0xbe5f4c8e	-0.21806547
7	0xbe604eca	-0.21905056
8	0x3c84acb4	0.016195633
9	0x3d7134c7	0.058888223
10	0x3c094f23	0.008380684
11	0xbe04ced1	-0.12969519
12	0xbe0325f4	-0.12807447
13	0x3ebc185c	0.36737335
14	0xbf017e53	-0.5058338
15	0x3d4902e4	0.049075022
16	0xbde01945	-0.1094232
17	0xbef15d64	-0.47141564
18	0x3e856ae7	0.26058123
19	0xbec8dae9	-0.39229515
20	0x3e7c4b8f	0.24638198
21	0xbd73e27a	-0.059542157
22	0xbe00e491	-0.12587191
23	0xbd917dbf	-0.07104062
24	0xbeacb5c3	-0.33732423
25	0xbd9d69c4	-0.07686189
26	0xbdfd59ae	-0.12370621
27	0x3d33e773	0.0439219
28	0xbdab135f	-0.08353304
29	0xbe3baca4	-0.18327576
30	0xbe1ecc39	-0.15507592
31	0x3c435089	0.011921057
32	0xbe7ef692	-0.24898747
33	0xbe4fe701	-0.20302965
34	0x3c479723	0.01218203
35	0xbe122e4b	-0.14275472
36	0xbdad033f	-0.08447885
37	0xbe5c2d71	-0.2150171
38	0xbd5ff7d8	-0.05467972
39	0xbcdc2d8f	-0.026877193
40	0xbe5f0622	-0.21779683
41	0x3e07b1f0	0.13251472
42	0xbf11f5f4	-0.5701592
43	0xbe17f104	-0.14838034
44	0xbc22671e	-0.00991228
45	0x3c07394d	0.008253408
46	0xbe049d28	-0.12950575
47	0xbd446ca5	-0.047955174
48	0x3deb6bd5	0.11495177
49	0xbe1b1306	-0.15143976
50	0xbe2af9be	-0.16696832
51	0x3e5242f2	0.2053335
52	0x3cd7d5a7	0.026346995
53	0xbebace1c	-0.36485374
54	0xbe1d9d6c	-0.15392083
55	0x3e65b8fc	0.22433847
56	0xbddcb931	-0.1077751
57	0xbe174c63	-0.14775233
58	0x3e09a8dd	0.13443322
59	0xbd9827db	-0.07429477
60	0xbe986adc	-0.29769027
61	0xbdbda9ee	-0.09260927
62	0xbe953e41	-0.29149058
63	0xbdc4edd7	-0.09615677
64	0xbe61861c	-0.22023815
65	0xbcbe61ee	-0.023240056
66	0xbe418016	-0.18896517
67	0xbe93c51d	-0.28861323
68	0x3b0fff7d	0.0021972351
69	0xbe8a6f79	-0.27038172
70	0x3ca0604a	0.019577164
71	0xbe97c261	-0.29640487
72	0x3e382860	0.17984152
73	0xbdebcf9f	-0.1151421
74	0xbd969328	-0.073522866
75	0xbda215c2	-0.07914306
76	0xbe5a7c5e	-0.21336505
77	0xbf3605cd	-0.711026
78	0x3bd4c933	0.0064937114
79	0xbec88c3e	-0.39169496
80	0xbf39c584	-0.7256701
81	0xbe8ddc9f	-0.27707383
82	0x3ed2d04d	0.41174546
83	0x3ced6ac9	0.028981583
84	0xbe5485cc	-0.20754164
85	0xbe3542f2	-0.17701319
86	0xbd80bc53	-0.0628592
87	0xbe7b12a5	-0.24518831
88	0x3de47a15	0.11156098
89	0xbdf8d3fe	-0.12149809
90	0xbe7f8c39	-0.24955834
91	0x3e0a5d2b	0.13512103
92	0xbec40902	-0.38288122
93	0xbd2b7298	-0.041857332
94	0xbe6737fb	-0.22579949
95	0x3d67f33d	0.056628454
96	0xbdaa8e1d	-0.08327887
97	0x3c92f2b6	0.017938
98	0xbdebabc4	-0.11507371
99	0xbe2a387b	-0.16623108
100	0x3c312f0a	0.010814438
101	0xbe9bd73f	-0.30437657
102	0xbd705a33	-0.05867977
103	0xbedc0612	-0.4297338
104	0xbea421da	-0.32057077
105	0xbe63ec24	-0.22258049
106	0xbdba0b94	-0.090842396
107	0xbe1888f4	-0.14895993
108	0x3d77c434	0.06048985
109	0xbd12019e	-0.035646074
110	0x3d4dfbcd	0.050288964
111	0xbeaf843b	-0.3428057
112	0xbef142a1	-0.47121146
113	0xbdef1fcf	-0.11675989
114	0xbcafb802	-0.021450046
115	0x3d030ef3	0.03199668
116	0xbe0b4e00	-0.13603973
117	0xbeaa4f2c	-0.33263528
118	0x3e220369	0.15821613
119	0x3f068f32	0.5256225
120	0xbdf40f3f	-0.119169705
121	0x3d3ed5d5	0.046590645
122	0xbc495849	-0.012289115
123	0x3d9fca8a	0.07802303
124	0xbe26e83e	-0.16299531
125	0xbdadb172	-0.08481111
126	0xbe1746a9	-0.14773048
127	0xbe2dae3a	-0.16960993
128	0xbd898221	-0.06714273
129	0xbe558b8e	-0.20854017
130	0xbdf7d78b	-0.121016584
131	0x3e07177e	0.13192555
132	0xbe95475c	-0.29156005
133	0x3d096fc2	0.033553846
134	0xbe34d9d2	-0.17661217
135	0xbe96939f	-0.294095
136	0xbe22dbde	-0.15904185
137	0xbefaa603	-0.48954782
138	0xbdeeeee7	-0.11666661
139	0x3dfdaca5	0.12386445
140	0x3e275ce9	0.16344036
141	0xbe8acd19	-0.27109602
142	0xbd74a11e	-0.059723966
143	0x3d8283ab	0.0637277
144	0xbecc852b	-0.3994535
145	0xbcc6c7d6	-0.024265211
146	0xbe9a7276	-0.30165452
147	0x3dc1a3b5	0.09455053
148	0xbe84c5c2	-0.25932127
149	0xbe055624	-0.13021141
150	0xbd861e05	-0.065486945
151	0xbe8cab8f	-0.2747464
152	0xbe0878fa	-0.13327399
153	0xbe832212	-0.2561193
154	0xbd953d58	-0.07287091
155	0xbe8e5958	-0.2780254
156	0xbe9321f3	-0.2873684
157	0x3ddeb200	0.108737946
158	0xbeb79baf	-0.35860965
159	0xbed7b125	-0.42127338
160	0x3d5d3aa4	0.054011002
161	0xbe1cd6b8	-0.15316284
162	0xbe7c7c12	-0.24656704
163	0xbeb27935	-0.348581
164	0xbd61fddb	-0.055173736
165	0xbe13afb0	-0.14422488
166	0xbda940c1	-0.08264304
167	0xbe915dbf	-0.28391835
168	0xbe0bc7f1	-0.1365049
169	0xbd541116	-0.051774107
170	0xbdc25c67	-0.094902806
171	0xbe4052f9	-0.18781652
172	0xbda7734f	-0.0817629
173	0xbe51620a	-0.20447555
174	0x3dfbdc86	0.12297921
175	0xbf23a47f	-0.63922876
176	0x3daec813	0.08534255
177	0xbd4a7bb7	-0.04943439
178	0xbcd88f5d	-0.026435548
179	0xbe6d36a2	-0.23165372
180	0xbe88ea59	-0.26741293
181	0x3d97e22b	0.07416185
182	0xbd0e40dc	-0.034729823
183	0xbeadf811	-0.33978322
184	0xbe900608	-0.281296
185	0xbd380593	-0.04492719
186	0x3da78e2b	0.08181413
187	0xbc26050c	-0.010133039
188	0x3e41f0cf	0.18939517
189	0xb9a0a4b9	-0.00030640306
190	0x3cfa4316	0.030549567
191	0x3c033872	0.008009063
192	0xbe1db808	-0.15402234
193	0xbe01e47c	-0.12684816
194	0xbe986f39	-0.29772356
195	0xbdf8d83f	-0.12150621
196	0x3e05db69	0.1307198
197	0x3e22f1b2	0.15912512
198	0xbe8c4951	-0.27399686
199	0xbf10e909	-0.56605583
200	0x3cc78d04	0.024359234
201	0xbea32a8b	-0.31868395
202	0xbce5b596	-0.028040688
203	0xbdd908e2	-0.105973974
204	0xbe2e3826	-0.17013606
205	0x3e2e5227	0.17023526
206	0xbad1e960	-0.0016014986
207	0xbded3757	-0.11582821
208	0xbde9c823	-0.11415126
209	0x3e08b78a	0.13351265
210	0xbd82fb74	-0.06395617
211	0xbc284e14	-0.0102725215
212	0xbebbe861	-0.3670073
213	0xbd956179	-0.07293982
214	0xbe29eaeb	-0.1659352
215	0xbdac6531	-0.08417738
216	0xbe599e7c	-0.21251863
217	0x3dc05014	0.09390274
218	0xbe8890be	-0.2667293
219	0xbe2bb067	-0.16766511
220	0xbec8e45d	-0.39236727
221	0x3e98be57	0.29832718
222	0xbde60dd3	-0.112331055
223	0xbf22e947	-0.636372
224	0xbd4d8fe5	-0.050186057
225	0xbe4fc1bd	-0.20288749
226	0xbe5e7a54	-0.21726352
227	0xbd5a60aa	-0.053314842
228	0xbe0c532e	-0.13703606
229	0xbe9d993f	-0.3078098
230	0xbddb8340	-0.10718393
231	0xbe10937e	-0.14118764
232	0xbebfc579	-0.37455347
233	0xbef224bf	-0.4729366
234	0xbe864ad7	-0.26228973
235	0xbe205712	-0.15658215
236	0xbcc36d03	-0.023855692
237	0xbeb0eaa6	-0.34554023
238	0xbd8f3152	-0.06991829
239	0xbdbc0fd8	-0.091827095
240	0xbe4a434f	-0.19752239
241	0xbe3cba1e	-0.18430373
242	0xbe836b1a	-0.2566765
243	0xbf1885e3	-0.59579295
244	0xbe7d4949	-0.24734987
245	0x3b6450e1	0.0034838247
246	0x3e01aedf	0.12664364
247	0x3e0bf460	0.1366744
248	0xbd5407e1	-0.051765326
249	0xbe8e57ef	-0.27801463
250	0x3ddb1931	0.10698164
251	0x3bf71d57	0.0075413394
252	0xbd3204c6	-0.043461584
253	0xbe1398c4	-0.14413744
254	0xbea6071d	-0.32427302
255	0xbd87cd8f	-0.06631004

value_stream.0.bias f4 [256]
0	0xbe3f6b1d	-0.18693204
1	0x3d0a990d	0.033837367
2	0x3e827bc6	0.25485057
3	0x3ea13eb9	0.31493166
4	0xbdbd2515	-0.092355885
5	0x3e71c588	0.23610508
6	0x3e676036	0.22595295
7	0xbd62ba60	-0.055353522
8	0xbe49d7d9	-0.19711246
9	0x3ec60cdb	0.38681683
10	0x3e006095	0.12536843
11	0xbd23ecb6	-0.040020667
12	0xbe669280	-0.22516823
13	0x3eea2b4d	0.4573616
14	0x3e1dc29e	0.15406272
15	0xbd6c8156	-0.05774053
16	0x3ead7890	0.33881044
17	0x3e750a26	0.23929653
18	0x3deb439b	0.11487504
19	0x3e4dd949	0.20102419
20	0x3ea86cee	0.32895607
21	0x3ee9c396	0.45657033
22	0xbe0049ac	-0.12528104
23	0x3e1bb9ef	0.15207647
24	0xbe1a1ec6	-0.15050802
25	0x3d1e8331	0.038699333
26	0x3e49b87a	0.19699278
27	0xbd92ce3d	-0.07168243
28	0x3e96ac1b	0.2942818
29	0xbd3101cb	-0.0432146
30	0x3ef204fc	0.47269428
31	0x3e839249	0.25697544
32	0x3e86bc17	0.26315376
33	0x3d1e4d89	0.038648162
34	0x3e4f7e59	0.20263042
35	0x3ef4f1ad	0.47840634
36	0x3de3dc98	0.11126059
37	0xbde0538f	-0.109534375
38	0xbe1111ce	-0.14166948
39	0x3ee2a70b	0.4426807
40	0x3ef73e0f	0.48289534
41	0x3dbfbe97	0.09362524
42	0x3deb0a32	0.11476554
43	0xbd7b80dc	-0.061402187
44	0xbdf7acd2	-0.1209351
45	0x3e13ee74	0.14446431
46	0xbcd01b4e	-0.025403645
47	0xbdb49c94	-0.088189274
48	0x3e69491f	0.227818
49	0x3e9e5eb9	0.30931643
50	0x3e85225c	0.26002777
51	0x3e83ecde	0.25766653
52	0x3e3edc05	0.18638618
53	0x3e7eca46	0.24881849
54	0xbd054064	-0.03253211
55	0x3dab4f35	0.08364717
56	0xbdbb3914	-0.09141746
57	0xbd2af208	-0.041734725
58	0x3e27b80f	0.16378807
59	0xbe2337f1	-0.15939309
60	0xbc9b2e56	-0.018942993
61	0x3d904002	0.070434585
62	0xbe18c3c1	-0.14918424
63	0x3e926907	0.28595755
64	0x3ef9b5b8	0.48771453
65	0xbe1a8621	-0.15090229
66	0xbdd0db27	-0.1019805
67	0x3e0194d6	0.12654433
68	0x3ede3689	0.43400982
69	0xbd8c2777	-0.06843465
70	0x3ea19dfe	0.3156585
71	0x3dddfc7b	0.108391725
72	0xbd790e42	-0.060804613
73	0x3db5f0c2	0.088838115
74	0x3e8e78e1	0.27826598
75	0xbd719c2d	-0.05898683
76	0xbe13a081	-0.14416696
77	0xbe459d13	-0.192982
78	0xbdbb9ee7	-0.091611676
79	0x3e44c951	0.19217421
80	0x3eaad584	0.33366024
81	0xbe17e64a	-0.14833942
82	0xbd82f78e	-0.063948736
83	0x3ebcddb5	0.368879
84	0xbdb91b76	-0.09038441
85	0x3dd3abf1	0.103355296
86	0x3e820b27	0.25399134
87	0xbda5d1bb	-0.080966435
88	0xbd846d69	-0.06466181
89	0xbe4aba5b	-0.19797651
90	0xbe452371	-0.19251801
91	0xbe1437fc	-0.14474481
92	0x3ef1e224	0.47242844
93	0x3e4931c3	0.19647889
94	0x3e888173	0.26661262
95	0xbd80ab24	-0.062826425
96	0xbe135888	-0.1438924
97	0x3e9e9257	0.30971023
98	0x3e53fb0c	0.20701236
99	0x3ee1b1e8	0.44081044
100	0xbe055233	-0.13019638
101	0xbdccc056	-0.09997623
102	0x3e8111e4	0.25208962
103	0xbddd29c9	-0.107989855
104	0x3f1976b4	0.5994675
105	0xbe468ed3	-0.1939042
106	0xbd86480a	-0.06556709
107	0x3ea1d2e6	0.31606215
108	0x3ea3970d	0.3195118
109	0xbe2970a4	-0.16546875
110	0x3e836032	0.2565933
111	0xbe49df35	-0.19714053
112	0xbd277521	-0.040883187
113	0x3e8dde68	0.27708745
114	0x3e8f42ba	0.27980596
115	0xbe4a1820	-0.19735765
116	0xbe11e0b5	-0.14245875
117	0x3e72f22e	0.23725197
118	0x3e85ad57	0.2610881
119	0x3c1a6d64	0.009425495
120	0x3e73cd24	0.23808724
121	0x3ead5738	0.33855605
122	0xbd801c91	-0.062554486
123	0x3ed929ea	0.4241479
124	0xbe1c9dca	-0.15294567
125	0x3d71ade1	0.059003714
126	0xbe4c9c85	-0.19981582
127	0xbe038225	-0.12842615
128	0x3e91b9af	0.28461978
129	0xbe2b8b63	-0.1675239
130	0x3e2a97af	0.16659425
131	0x3e31b253	0.17353182
132	0xbc80a4c3	-0.015703565
133	0xbdc4b0db	-0.09604045
134	0x3ec14195	0.37745348
135	0x3eca7e12	0.3954931
136	0x3e4c127e	0.19928929
137	0x3dda71ef	0.10666262
138	0xbd573116	-0.052537046
139	0x3eb76fe5	0.35827556
140	0x3ec8e776	0.3923909
141	0x3e6751bb	0.22589771
142	0x3ebd9c6b	0.370334
143	0x3e9f9d3f	0.31174657
144	0xbddac686	-0.106823966
145	0x3db2ada3	0.08724525
146	0x3ecf5b9c	0.4049958
147	0xbd0f165f	-0.034933444
148	0x3e6fd6c5	0.23421772
149	0x3e64c7c0	0.22341824
150	0x3ea42966	0.32062835
151	0xbde11342	-0.10990001
152	0x3e60d5b8	0.21956527
153	0x3eacba68	0.33735967
154	0x3eacde49	0.3376334
155	0xbe451491	-0.19246127
156	0x3dc86398	0.09784621
157	0xbdb148ca	-0.086564615
158	0x3eee4c9f	0.46542832
159	0x3e4b5af8	0.1985892
160	0xbe2ad349	-0.16682161
161	0xb9449a9d	-0.00018749615
162	0xbda071ce	-0.078342065
163	0x3e7c0687	0.24611865
164	0xbd0321cd	-0.032014657
165	0x3df9121a	0.12161656
166	0x3e84b40b	0.25918612
167	0x3e03b4d3	0.12861948
168	0xbaf2539e	-0.0018488055
169	0xbdb6f692	-0.08933748
170	0xbe697a9f	-0.22800682
171	0x3d9f2aef	0.07771861
172	0x3e6aa17f	0.22913168
173	0x3de3f609	0.11130912
174	0x3ed3aba0	0.41341877
175	0x3e888d32	0.26670223
176	0x3cfc5d86	0.030806314
177	0x3ea3d57d	0.31998816
178	0x3f174e62	0.5910398
179	0xbceb4731	-0.02872047
180	0xbd8890ef	-0.06668269
181	0xbde49be5	-0.11162547
182	0x3eff8dab	0.49912772
183	0x3e488841	0.19583227
184	0x3e480743	0.1953402
185	0x3f09467d	0.5362318
186	0xbe5ea9de	-0.21744487
187	0x3e7c1509	0.246174
188	0x3e03ed66	0.12883529
189	0x3ed2d3f7	0.4117734
190	0xbd1368f6	-0.03598877
191	0xbd80b6b1	-0.062848456
192	0xbdbe829b	-0.09302255
193	0x3e3c8f22	0.18413976
194	0xbc19bad8	-0.009382926
195	0xbd9629a8	-0.07332164
196	0xbd1f8046	-0.03894069
197	0xbdea253c	-0.11432883
198	0x3ea914bd	0.33023635
199	0x3df5633b	0.11981817
200	0xbe0883f2	-0.13331583
201	0x3e875077	0.26428577
202	0xbe6bf67b	-0.23043244
203	0x3ef2ef5a	0.47448236
204	0xbe1a7871	-0.15085007
205	0xbe1786f3	-0.14797573
206	0xbcc61bf7	-0.024183257
207	0x3e8f1e95	0.2795302
208	0x3d0f3723	0.03496469
209	0x3e9034a2	0.28165156
210	0xbd82cc73	-0.06386652
211	0xbe00596b	-0.1253411
212	0x3de83074	0.11337367
213	0x3e3bc011	0.18334986
214	0xbdf250d6	-0.118318245
215	0x3c6ceba5	0.014460479
216	0x3e6a2b57	0.22868095
217	0xbd847407	-0.06467443
218	0x3eb0fb03	0.34566507
219	0xbe220eac	-0.1582591
220	0x3e89c945	0.2691137
221	0xbdd86594	-0.105662495
222	0xbdcf2c61	-0.101158865
223	0x3ce0db25	0.027448246
224	0xbd36d781	-0.044639114
225	0x3e7cea4c	0.24698752
226	0xbcf966b5	-0.030444482
227	0xbc8ccf6c	-0.01718875
228	0xbe62876c	-0.22121972
229	0x3ea3aa35	0.31965795
230	0x3e288cef	0.16460012
231	0xbe16b0d4	-0.14715892
232	0x3e0b2450	0.13588071
233	0xbbe28d13	-0.00691379
234	0x3ea63506	0.3246233
235	0xbe2334d6	-0.15938124
236	0x3ebe510e	0.37171215
237	0xbdf2ea3e	-0.118610844
238	0x3e87e8ce	0.26544803
239	0xbd92d875	-0.07170192
240	0x3f0cd8b8	0.55018187
241	0x3debd56a	0.11515315
242	0x3ef2e4c3	0.47440156
243	0xbddd2691	-0.107983716
244	0x3e261692	0.16219547
245	0x3c7a582b	0.01527981
246	0x3e9ed5c8	0.31022477
247	0x3e311c5e	0.17295977
248	0x3e2d05a7	0.16896687
249	0x3ec165d2	0.37772995
250	0x3e7822b9	0.24231996
251	0xbe7ae321	-0.24500705
252	0x3e8b1b67	0.27169344
253	0xbda25a0a	-0.0792733
254	0x3e7bda08	0.24594891
255	0x3e960488	0.29300332

value_stream.2.weight f4 [1, 256]
0	0x3f063aa1	0.5243321
1	0x3ec7dc86	0.39035434
2	0xbf26f15e	-0.6521205
3	0xbf5fa064	-0.8735411
4	0x3f06eb61	0.5270291
5	0xbf4c705e	-0.7985896
6	0xbf2de7ba	-0.6793171
7	0x3ed37b40	0.4130497
8	0xbe062c48	-0.1310283
9	0xbf0b912f	-0.5451841
10	0xbf4c52ee	-0.7981404
11	0xbf38ab00	-0.72135925
12	0xbf04a932	-0.5182067
13	0x3f1fddcf	0.6244783
14	0x3f266021	0.6499043
15	0xbe88f4dc	-0.26749313
16	0xbf276982	-0.6539537
17	0x3e8a42b0	0.27004004
18	0xbf0f4f78	-0.55980635
19	0xbf294750	-0.6612444
20	0xbf32778d	-0.6971367
21	0xbf24b0f9	-0.6433254
22	0x3e8bf824	0.27337754
23	0xbf341c11	-0.70355326
24	0x3f0759f5	0.5287164
25	0xbf43fe3d	-0.7655981
26	0xbed3ac11	-0.41342214
27	0x3eaca823	0.33722028
28	0xbf30130c	-0.68779063
29	0x3f168a39	0.5880466
30	0xbf378818	-0.7169204
31	0xbf1a377b	-0.60240906
32	0xbf677b06	-0.90422094
33	0x3f115b03	0.567795
34	0xbf1dc753	-0.6163227
35	0x3efb1cab	0.4904531
36	0xbf22e804	-0.6363528
37	0x3f137956	0.5760702
38	0xbebd1354	-0.3692881
39	0xbf22fdd0	-0.6366854
40	0xbf3f663e	-0.74765384
41	0xbf37a0bf	-0.71729654
42	0x3f4043c5	0.7510341
43	0xbe170c1c	-0.14750713
44	0x3eda652a	0.42655307
45	0x3ef6f463	0.48233327
46	0x3ed800a0	0.42187977
47	0x3f1cef9d	0.6130312
48	0xbf1383fd	-0.57623273
49	0xbf4f425e	-0.80960643
50	0x3e978ec2	0.29601103
51	0xbf5203e9	-0.82037216
52	0x3efd8374	0.49514353
53	0xbf72c871	-0.948371
54	0x3ed85670	0.42253447
55	0xbf38b678	-0.72153425
56	0x3ecce409	0.40017727
57	0x3f1d35cd	0.6141022
58	0xbf29140a	-0.660462
59	0x3ef930e9	0.48670128
60	0xbeb28096	-0.34863728
61	0x3e549743	0.20760827
62	0x3f03916f	0.5139379
63	0xbf2aa6bc	-0.66660666
64	0xbf46e865	-0.77698356
65	0xbedc07ee	-0.429748
66	0x3efd7f7c	0.49511325
67	0x3eb547bc	0.3540629
68	0xbf1a5566	-0.6028656
69	0x3f1dfce4	0.61714005
70	0xbf596aff	-0.8492889
71	0xbf5cdb18	-0.8627181
72	0x3ebbc047	0.36670133
73	0xbec34638	-0.3813951
74	0xbf22c09c	-0.6357515
75	0x3f172e58	0.5905509
76	0x3f105c09	0.56390435
77	0x3f08372f	0.53209203
78	0x3e940572	0.28910404
79	0x3e9817e7	0.29705736
80	0xbede088c	-0.43365896
81	0x3f17f818	0.59362936
82	0x3f200684	0.6250994
83	0xbf1d653f	-0.61482614
84	0x3f0406cd	0.5157288
85	0xbf374277	-0.7158579
86	0xbedc8ec3	-0.4307767
87	0x3f2f9420	0.68585396
88	0xbe9e6ea6	-0.30943793
89	0x3f17b1be	0.5925559
90	0x3ed180b1	0.40918496
91	0x3ef60330	0.48049307
92	0x3f23c547	0.63972896
93	0xbf1573b1	-0.58379656
94	0x3ec9c429	0.3940747
95	0x3ec18f37	0.37804577
96	0x3f390096	0.7226652
97	0xbf329482	-0.69757855
98	0xbf0f288f	-0.5592126
99	0x3f21f4d0	0.6326418
100	0x3f258115	0.6465009
101	0xbe94d23b	-0.29066643
102	0xbf2c762a	-0.67367804
103	0x3f16b46e	0.58869064
104	0xbf38d64b	-0.72201985
105	0x3f1eb3e1	0.61993223
106	0x3ec0d019	0.37658766
107	0xbf035590	-0.51302433
108	0xbef22e8b	-0.47301134
109	0x3ef29f30	0.47387075
110	0xbf52709d	-0.82203084
111	0x3f1cbb30	0.61223125
112	0x3e2476ef	0.16060995
113	0xbed5befb	-0.4174727
114	0xbf0edb13	-0.5580303
115	0x3f03f46f	0.5154485
116	0xbe76c8a4	-0.24099976
117	0x3eafcf5b	0.34337887
118	0xbf81426d	-1.0098397
119	0xbecb6724	-0.39727128
120	0xbf3821ee	-0.7192677
121	0xbf44048c	-0.7656944
122	0x3ecb3d18	0.39695048
123	0xbf435460	-0.7630062
124	0x3f1f185c	0.62146544
125	0xbf1b7e65	-0.6073974
126	0x3eedf2f9	0.46474436
127	0x3f0ad4dc	0.5423105
128	0xbf4119a9	-0.7542978
129	0xbe2ed06c	-0.17071694
130	0xbeada479	-0.33914545
131	0xbf2f28c2	-0.68421566
132	0x3f05c80a	0.5225836
133	0xbe8c3fa0	-0.27392292
134	0x3e8d61cf	0.27613685
135	0xbf330420	-0.6992817
136	0x3ec72ebf	0.38902852
137	0xbf6f3d0a	-0.93452513
138	0x3f043f2e	0.51658905
139	0x3e8578c9	0.26068714
140	0xbf38a7a0	-0.72130775
141	0xbef1a1e2	-0.4719382
142	0x3f145d1e	0.57954586
143	0xbf1caebe	-0.61204135
144	0x3ea9d8d8	0.3317325
145	0xbf346dfc	-0.7048032
146	0x3ee460b5	0.44605032
147	0x3e9462d2	0.28981644
148	0xbf2e063e	-0.67978275
149	0xbeb9fedf	-0.36327264
150	0xbefe491e	-0.4966516
151	0x3f30f2f8	0.6912074
152	0xbf17028a	-0.5898825
153	0xbf29a8c2	-0.6627313
154	0x3e9864da	0.29764444
155	0x3ec5896c	0.38581407
156	0xbf098553	-0.5371906
157	0xbe7f3eda	-0.2492632
158	0xbf184ff0	-0.59496975
159	0x3e800a27	0.25007746
160	0x3f1ed36c	0.62041354
161	0x3eefcf9a	0.46838075
162	0x3f02cf86	0.51097906
163	0xbf1fe874	-0.6246407
164	0x3edaccb7	0.4273431
165	0xbf34cb8e	-0.706231
166	0xbf15c7a7	-0.5850777
167	0xbf45bfa1	-0.7724553
168	0x3ee54bee	0.44784492
169	0x3ec21014	0.37902892
170	0x3f00c767	0.50304264
171	0xbec3902a	-0.38195926
172	0xbf7b2b85	-0.9811328
173	0xbf3bf3a0	-0.7341862
174	0xbf242a1d	-0.6412676
175	0x3ecb7cd7	0.39743683
176	0x3e5dbd4a	0.2165424
177	0xbf2e7660	-0.68149376
178	0xbf32b15d	-0.69801885
179	0x3eca1006	0.3946535
180	0x3ed1cf44	0.40978444
181	0x3f10b75e	0.56529796
182	0xbf3acdb9	-0.7297016
183	0xbf1cf3fd	-0.61309797
184	0xbf1cdcf9	-0.6127468
185	0xbf36d4d0	-0.71418476
186	0x3f1d20ff	0.61378473
187	0x3eae25f8	0.34013343
188	0xbf3594ab	-0.70929974
189	0x3f2dcccd	0.67890626
190	0x3f05e172	0.5229713
191	0x3ee00742	0.43755537
192	0x3f051be2	0.5199567
193	0xbf5082cb	-0.81449574
194	0xbec0ee9c	-0.37682045
195	0x3ee44da4	0.44590485
196	0x3f062734	0.5240357
197	0x3f099c1f	0.53753847
198	0x3ebe1d7e	0.37131876
199	0x3f10f6b5	0.56626445
200	0x3f190e42	0.5978738
201	0xbf50d457	-0.81574005
202	0x3f0b1744	0.54332376
203	0xbf210d99	-0.62911373
204	0x3f020b25	0.50798255
205	0x3f0093bf	0.5022544
206	0x3e844e2a	0.25840884
207	0xbf6fc763	-0.93663615
208	0xbf3f4f0f	-0.7473001
209	0xbf1b7f68	-0.6074128
210	0x3eef31a3	0.46717557
211	0x3f156cf2	0.5836936
212	0xbf3524de	-0.7075938
213	0xbef5eb62	-0.48031145
214	0xbe9b419a	-0.30323488
215	0x3e942b53	0.28939304
216	0xbf27d0e3	-0.6555311
217	0x3ee2b1e7	0.44276354
218	0xbf2b587c	-0.6693189
219	0x3f4898c0	0.7835808
220	0xbf0c9309	-0.5491186
221	0x3f0d433e	0.5518073
222	0x3f02e9cd	0.51138
223	0xbe844f4c	-0.2584175
224	0x3ef314fc	0.47476947
225	0xbef970d9	-0.48718908
226	0xbeb60d43	-0.35556993
227	0x3ed193a0	0.4093294
228	0x3f1266e9	0.5718828
229	0xbf01be18	-0.50680685
230	0xbf7833d0	-0.9695406
231	0x3edd4498	0.43216395
232	0xbf5283db	-0.82232445
233	0xbf0ce68b	-0.5503928
234	0xbf255071	-0.6457587
235	0x3f1ec48b	0.6201865
236	0xbf0a6d2e	-0.54072845
237	0x3ef5573d	0.4791812
238	0xbf07e16e	-0.53078353
239	0x3ec63923	0.38715467
240	0xbf2da0bd	-0.6782339
241	0xbf3548d7	-0.7081427
242	0xbf1b8484	-0.6074908
243	0x3f125a3f	0.57168955
244	0xbf64d0ee	-0.893813
245	0x3f022bbb	0.5084798
246	0xbecd38dc	-0.40082443
247	0xbf2e78d0	-0.68153095
248	0xbf318adc	-0.6935251
249	0xbf1277fc	-0.5721433
250	0xbf2bc065	-0.67090446
251	0x3f084e76	0.5324472
252	0xbf42a888	-0.7603841
253	0x3efb8fd8	0.49133182
254	0xbf54eb6c	-0.83171725
255	0xbf6cfce9	-0.9257341
