active_slam_rl/training_output_no_slam/20260128_030605/d3qn_ep610.pth (torch, 901794 bytes, 11 tensors)

feature.0.weight f4 [256, 100]
0	0xbd91cbc4	-0.07118943
1	0xbe02f1e5	-0.12787588
2	0xbdd96261	-0.106144674
3	0xbc8d05c2	-0.01721466
4	0xbd92a4bc	-0.07160327
5	0xbe11fa52	-0.14255646
6	0x3ba3e5d5	0.0050017633
7	0xbe3b12e5	-0.18268926
8	0x3c634398	0.013871096
9	0xbe557768	-0.20846331
10	0xbe2433c2	-0.16035369
11	0xbd59e181	-0.053193573
12	0xbe31d884	-0.1736775
13	0xbd29afea	-0.04142753
14	0xbd7c52b9	-0.061602328
15	0xbe29af9f	-0.165709
16	0xbd38f30c	-0.045153663
17	0xbe4f865d	-0.202661
18	0xbe3b8235	-0.18311389
19	0xbdc63bc2	-0.09679367
20	0xbd2f9485	-0.04286625
21	0xbddf924f	-0.10916578
22	0xbdff0238	-0.12451595
23	0x3db6b718	0.08921641
24	0xbdccbfc9	-0.099975176
25	0xbe25ca47	-0.16190444
26	0xbd8bfd7d	-0.068354584
27	0xbdcd1d86	-0.10015397
28	0xbd381fa7	-0.04495206
29	0xbdc77cb8	-0.09740585
30	0xbda181dd	-0.078860976
31	0xbdc227e9	-0.094802685
32	0xbd97e2c6	-0.074163005
33	0xb996b5f5	-0.00028745798
34	0xbcab7543	-0.020929938
35	0xbd8bc9cf	-0.06825601
36	0x3b8d5dfd	0.004314183
37	0xbe10faeb	-0.14158218
38	0xbd83d357	-0.06436794
39	0x3bf19c2d	0.007373354
40	0xbd936648	-0.07197243
41	0xbe2ae912	-0.16690472
42	0x3caa4d60	0.020788848
43	0xbdb51473	-0.08841791
44	0xbdf6a688	-0.12043482
45	0xbde6a6db	-0.11262294
46	0xbe22062c	-0.15822667
47	0xbe2654f5	-0.16243346
48	0xbdafd0c4	-0.08584741
49	0xbe1be105	-0.15222557
50	0x3cdc4886	0.02689005
51	0x3dcd4492	0.100228444
52	0xbbe18239	-0.006881979
53	0x3dbb55f9	0.09147257
54	0xbde46230	-0.1115154
55	0xbc261977	-0.010137907
56	0xbd037b3a	-0.03209994
57	0xbe14684e	-0.14492914
58	0xbdbdffb8	-0.0927729
59	0xbdb5606e	-0.08856283
60	0xbcade910	-0.021229297
61	0xbd856bf9	-0.06514735
62	0xbe02987d	-0.12753482
63	0xbdf99863	-0.121872686
64	0xbe34ddc1	-0.17662717
65	0xbe086e48	-0.13323319
66	0xbdb10c55	-0.0864493
67	0xbe12c37e	-0.14332387
68	0xbd67fb33	-0.056636047
69	0x3e1c7206	0.15277871
70	0x3e09b3b3	0.13447456
71	0x3e0d9b2b	0.13828723
72	0x3d9c9a51	0.07646621
73	0x3dbfb444	0.09360555
74	0x3de50ad0	0.11183703
75	0xbdee9959	-0.116503425
76	0x3d3c610a	0.04599098
77	0xbdc1cc30	-0.09462774
78	0x3dec3976	0.11534397
79	0x3d710484	0.058842197
80	0x3d9e9158	0.07742566
81	0xbdb3af78	-0.087737024
82	0x3ca6f17a	0.020378817
83	0xbd1f0879	-0.03882644
84	0xbd76cf01	-0.060256008
85	0xbe00ef9a	-0.125914
86	0xbdfe1c63	-0.12407758
87	0xbdb24710	-0.0870496
88	0xbc4894b7	-0.012242488
89	0xbc530c0a	-0.012881288
90	0x3d018de4	0.031629458
91	0x3ac14537	0.0014745359
92	0x3d2e6961	0.042580966
93	0x3cc668d2	0.024219904
94	0x3d8d44a1	0.068978556
95	0x3da0138b	0.078162275
96	0xbcf0da68	-0.02940102
97	0xbdb74a0d	-0.08949671
98	0xbd372d67	-0.044721033
99	0xbe21b9ed	-0.15793581
100	0x3dc7bd06	0.0975285
101	0x3c22aba5	0.009928619
102	0x3e244672	0.16042498
103	0x3e1d5834	0.15365678
104	0x3da7a23c	0.081852406
105	0x3dce0764	0.100600034
106	0x3e3f83a3	0.18702559
107	0x3e2867c9	0.16445841
108	0x3ca1556d	0.019694054
109	0xbc3e806a	-0.011627296
110	0xbd478c8d	-0.048718024
111	0x3c219646	0.009862488
112	0x3d1f84dc	0.038945064
113	0xbcf04431	-0.029329391
114	0x3d73d0e0	0.05952537
115	0xbd8c1c24	-0.06841305
116	0x3d948313	0.07251563
117	0x3dc4c254	0.09607378
118	0x3d0e9c3e	0.034816973
119	0xbd363369	-0.044482622
120	0xbd45605b	-0.048187595
121	0xbdecbc74	-0.11559382
122	0xbe393d0b	-0.18089692
123	0xbd2a94aa	-0.041645683
124	0xbe32d61f	-0.17464493
125	0xbddb9a2f	-0.107227676
126	0xbe6f1e25	-0.23351343
127	0xbe8c855f	-0.27445504
128	0xbe022b89	-0.1271192
129	0xbe6489ff	-0.22318266
130	0xbe1ea1f6	-0.1549147
131	0xbe887a63	-0.26655874
132	0xbe7bebab	-0.24601619
133	0xbe9d2d86	-0.30698794
134	0xbeccbb94	-0.3998686
135	0xbeb26af6	-0.3484723
136	0xbeabbb3c	-0.33541286
137	0xbe9e1380	-0.30874252
138	0xbea73b7f	-0.3266258
139	0xbf07f68b	-0.5311057
140	0xbe912d93	-0.28355083
141	0xbf04255c	-0.51619506
142	0xbef6c2a2	-0.48195368
143	0xbeb8f71d	-0.36126032
144	0xbed4fe67	-0.41600344
145	0xbee9c704	-0.4565965
146	0xbf1f2829	-0.62170655
147	0xbefd0630	-0.49418783
148	0xbf13cd6d	-0.5773533
149	0xbf086e60	-0.5329342
150	0xbee1f1e3	-0.44129857
151	0xbf0fe959	-0.56215435
152	0xbee0cb59	-0.43905142
153	0xbe8eb3a2	-0.27871424
154	0xbe4cd33d	-0.20002456
155	0xbdef58c8	-0.116868556
156	0x3da59fc0	0.080871105
157	0xbd83c111	-0.06433309
158	0x3e1a7ce3	0.15086703
159	0x3dc2c25a	0.09509726
160	0x3d2ca5a1	0.042150144
161	0x3baab8d6	0.0052100224
162	0x3d053fee	0.03253167
163	0x3bc34b3d	0.005959897
164	0x3d9e58ff	0.077318184
165	0x3dd6c3a4	0.10486534
166	0x3e0107f0	0.12600684
167	0x3dece3fc	0.11566922
168	0x3dba18b6	0.090867445
169	0x3d0a8023	0.033813607
170	0x3e7243fd	0.23658748
171	0x3d78921a	0.06068621
172	0x3d8331b9	0.06405968
173	0xbc35a983	-0.011087778
174	0x3b974ec3	0.0046175434
175	0xbd21a989	-0.039468322
176	0x3d4cb0d4	0.049973324
177	0xbdc85f6c	-0.09783825
178	0xbd539650	-0.05165702
179	0x3ca23755	0.019801775
180	0xbd2066f4	-0.039160684
181	0xbd37b6cf	-0.044852074
182	0xbdef801f	-0.11694359
183	0x3c9d2f65	0.019187639
184	0xbda99b8c	-0.08281621
185	0x3c94b750	0.018153816
186	0x3ae637f2	0.001756428
187	0xbdc7991e	-0.09746002
188	0xbdfc14c1	-0.12308646
189	0xbcd834ad	-0.026392305
190	0x3d50b5ad	0.05095451
191	0xbd3a778e	-0.045524172
192	0xbdad8fb6	-0.08474676
193	0x3cf1ffcc	0.029540919
194	0xbdb491d6	-0.088168785
195	0x3d5db574	0.054128125
196	0xbda74fff	-0.08169555
197	0xbd9d1871	-0.076706775
198	0x3bb62384	0.005558433
199	0xbe4cefb4	-0.20013314
200	0xbf08bd89	-0.5341421
201	0xbf0aeae1	-0.54264647
202	0xbf0a6d5b	-0.54073113
203	0xbeed9e9f	-0.4641008
204	0xbf1b50eb	-0.60670346
205	0xbf06956f	-0.5257177
206	0xbf0919ed	-0.53555185
207	0xbf18f555	-0.59749347
208	0xbf19b548	-0.6004224
209	0xbf160da2	-0.5861455
210	0xbef33eec	-0.47508943
211	0xbed79f62	-0.42113787
212	0xbf14c9e0	-0.58120537
213	0xbf06318d	-0.5241936
214	0xbf06bc45	-0.52631027
215	0xbf286217	-0.65774673
216	0xbf296095	-0.66163
217	0xbf24b70d	-0.64341813
218	0xbf2d0296	-0.6758207
219	0xbf2463fd	-0.6421507
220	0xbf38b0ec	-0.7214496
221	0xbcd9ea33	-0.026600933
222	0x3e309951	0.17245986
223	0x3e114ccb	0.1418945
224	0x3dfd81a2	0.12378241
225	0x3db610af	0.08889901
226	0xbccd5bb5	-0.025068143
227	0x3e426f40	0.18987751
228	0x3e03976f	0.12850736
229	0x3c9e3a77	0.019314988
230	0xbd82f84e	-0.063950166
231	0xbd711f94	-0.058868006
232	0xbdd01c1d	-0.10161612
233	0x3d8a2b9a	0.067465976
234	0xbe32478e	-0.17410108
235	0xbc955df6	-0.01823328
236	0xbd9e7dee	-0.07738863
237	0xbe46391b	-0.19357722
238	0xbd8a2f1d	-0.067472674
239	0xbd81db0e	-0.063406095
240	0xbe15c10f	-0.14624427
241	0xbe867759	-0.2626293
242	0xbe1eb15a	-0.15497342
243	0xbe7bfb66	-0.2460762
244	0xbe150476	-0.14552483
245	0xbe275e83	-0.16344647
246	0xbdbf74b6	-0.09348433
247	0xbd3a5023	-0.04548658
248	0xbe115605	-0.1419297
249	0xbe3b4c4c	-0.18290824
250	0xbde6fb7e	-0.11278437
251	0xbc89b291	-0.01680878
252	0xbd643d0d	-0.055722285
253	0xbd08292f	-0.0332424
254	0xbdedd6cf	-0.11613237
255	0xbdde57f0	-0.108566165

feature.0.bias f4 [256]
0	0x3e17a7ce	0.14810106
1	0xbbca3df2	-0.0061719352
2	0xbd4a1ac8	-0.049341947
3	0xbd26d43a	-0.04072974
4	0x3eda07eb	0.42584166
5	0x3ecbfeb8	0.39842772
6	0xbce3401d	-0.027740533
7	0xbed3548c	-0.41275442
8	0x3e23ed98	0.16008604
9	0x3ed2eadf	0.41194817
10	0xbf1c1511	-0.60969645
11	0x3eb7a14f	0.35865256
12	0xbd8866fa	-0.06660266
13	0x3ea820a6	0.3283741
14	0x3edd420a	0.43214446
15	0xbda50914	-0.08058372
16	0x3de2704b	0.110565744
17	0x3f101861	0.562872
18	0x3e0d096c	0.13773125
19	0xbee2dbf8	-0.44308448
20	0xbd6bf234	-0.05760403
21	0x3f221b96	0.6332334
22	0x3e0f5c66	0.14000091
23	0x3e349ba5	0.17637499
24	0x3e93729d	0.2879838
25	0x3db673d5	0.08908812
26	0xbe2a960a	-0.16658798
27	0xbe23f075	-0.16009696
28	0x3f39f589	0.7264028
29	0x3eda02c6	0.4258024
30	0x3d8d2c90	0.06893265
31	0x3f132c37	0.5748934
32	0x3ee74825	0.4517223
33	0xbdb225a2	-0.08698584
34	0x3ec15efc	0.3776778
35	0x3d168457	0.036747303
36	0x3e18631b	0.14881556
37	0xbea17642	-0.31535536
38	0xbe461e5d	-0.1934752
39	0x3e4bd986	0.19907197
40	0x3e928e87	0.28624365
41	0x3e74c633	0.23903732
42	0x3ed3cd2e	0.41367477
43	0x3e26ace5	0.16276892
44	0x3e10ad45	0.14128597
45	0x3ec599d2	0.38593918
46	0x3e5d4eca	0.21612087
47	0xbe156a7f	-0.14591406
48	0x3d030f2a	0.031996883
49	0x3ed4bdac	0.41550958
50	0xbee97686	-0.4559824
51	0x3ecdb0cd	0.4017395
52	0x3e545c71	0.20738389
53	0xbe9f48c1	-0.31110194
54	0x3ded7879	0.11595244
55	0x3f045342	0.5168954
56	0x3e8d86a9	0.276418
57	0x3c01df85	0.007926826
58	0xbe9088a7	-0.28229257
59	0xbe2d3083	-0.16913037
60	0x3edd35fa	0.43205243
61	0xbec3e9ce	-0.38264316
62	0x3ede55d2	0.4342485
63	0x3de32202	0.11090471
64	0x3e93acb7	0.28842708
65	0x3dceef42	0.101042286
66	0x3e2b31db	0.16718237
67	0x3ec53676	0.38518113
68	0x3eb4fcd1	0.35349134
69	0x3da5dc83	0.080987
70	0x3ea81e98	0.3283584
71	0x3ec369c0	0.38166618
72	0x3e64ded6	0.2235063
73	0x3db6da3f	0.08928346
74	0x3eba5904	0.3639604
75	0x3e365c96	0.17808756
76	0xbf09a660	-0.53769493
77	0x3e933dc8	0.28758073
78	0xbdf81830	-0.121139884
79	0xbabdc7ef	-0.001447914
80	0x3ed237ed	0.41058293
81	0x3e83fbc6	0.25778025
82	0x3dc22c3d	0.09481094
83	0xbdbe17ef	-0.09281909
84	0x3f06b798	0.5262389
85	0x3e421b72	0.18955782
86	0x3e3269c8	0.17423165
87	0xbf19316f	-0.59841055
88	0x3ec7e19b	0.3903931
89	0x3f1e0954	0.61732984
90	0xbee0ce09	-0.43907192
91	0x3e11fec3	0.1425734
92	0x3e985def	0.29759166
93	0xbed0d796	-0.4078948
94	0xbecee7be	-0.4041118
95	0x3e8a472b	0.27007422
96	0xbe7ec3b8	-0.24879348
97	0x3d026acc	0.03184013
98	0x3f156b31	0.58366686
99	0xbecd55cb	-0.40104517
100	0x3ec3ff80	0.3828087
101	0xbf0b3180	-0.54372406
102	0xbef47831	-0.4774795
103	0x3f10bf4e	0.5654191
104	0x3f020878	0.5079417
105	0x3e3b2722	0.18276647
106	0xbf0a311b	-0.5398118
107	0x3ec1be4d	0.378405
108	0xbe1c3bb6	-0.15257153
109	0x3edb00f1	0.42774156
110	0x3e7b8ce3	0.24565463
111	0x3e082fdf	0.13299511
112	0x3e2f9179	0.17145337
113	0xbe720a45	-0.2363673
114	0x3e6c1231	0.23053814
115	0xbeddaa09	-0.4329379
116	0x3e0d4cf3	0.13798885
117	0x3e958744	0.29204762
118	0x3ea1401b	0.3149422
119	0x3ec1767a	0.37785703
120	0x3e86d028	0.26330686
121	0x3f00fe4c	0.50388026
122	0x3eb415b3	0.35172805
123	0x3dd0a324	0.101873666
124	0xbe349cce	-0.17637941
125	0x3de5ab65	0.112143315
126	0x3e4f87a4	0.20266587
127	0x3eb00330	0.34377432
128	0x3e818fff	0.25305173
129	0x3c8dca8b	0.017308494
130	0x3e6c358c	0.23067302
131	0x3e9cbd06	0.30612963
132	0xbf1973ce	-0.5994233
133	0x3e9a62f4	0.3015362
134	0x3e3f3754	0.1867345
135	0x3efc63c9	0.4929488
136	0x3e81b76e	0.25335258
137	0x3eac33ea	0.33633357
138	0x3e1624e4	0.1466251
139	0xbb859d99	-0.004077625
140	0xbf136443	-0.5757486
141	0xbefaca91	-0.4898267
142	0xbee5c197	-0.4487426
143	0x3e1ad7db	0.15121405
144	0x3e91efe3	0.28503332
145	0x3f08e2af	0.5347089
146	0xbf1380f6	-0.57618654
147	0x3eeeb131	0.4661956
148	0xbe0ff6f4	-0.14059049
149	0xbeb116ff	-0.34587857
150	0x3e5adc12	0.21373013
151	0x3e5b7f02	0.21435168
152	0x3d83ca45	0.06435064
153	0xbef2f769	-0.47454384
154	0x3e62d8e0	0.22153044
155	0x3ea6afe1	0.3255606
156	0x3e5f53fd	0.21809383
157	0x3c85126b	0.016244134
158	0x3e813e36	0.25242776
159	0xbe35f6eb	-0.17769973
160	0x3e58aa02	0.21158603
161	0xbef01d24	-0.46897233
162	0x3d88104f	0.066437356
163	0x3c20d531	0.009816454
164	0x3d9089e9	0.07057554
165	0x3e8a9b8f	0.27071807
166	0xbe353c4a	-0.1769878
167	0x3ed9f8a0	0.42572498
168	0xbefe9e3f	-0.49730107
169	0xbcb69217	-0.022286458
170	0xbe8afab1	-0.27144387
171	0x3e92c697	0.28667137
172	0xbed3e72b	-0.41387305
173	0x3e6e8240	0.23291874
174	0x3e737a96	0.23777232
175	0x3e169f85	0.1470929
176	0x3e65faaa	0.22458902
177	0xbecc6993	-0.39924297
178	0x3e1ade32	0.15123823
179	0xbea6d0cc	-0.32581174
180	0xbe860bce	-0.2618088
181	0x3d379a7a	0.044825055
182	0xbf05d150	-0.5227251
183	0x3e808cc5	0.251074
184	0x3d6e660b	0.058202785
185	0xbe1a1828	-0.15048277
186	0x3ee12e46	0.43980616
187	0x3e874c70	0.26425505
188	0x3ee97773	0.45598945
189	0x3ef0daa7	0.47041818
190	0xbe4dd93f	-0.20102404
191	0xbe69697d	-0.22794147
192	0x3ebd57f7	0.36981174
193	0xbe42f7b3	-0.19039802
194	0x3ca558b3	0.020183897
195	0x3db4b2db	0.088231765
196	0xbe8a91cf	-0.27064368
197	0x3ecb339a	0.39687806
198	0xbcfadfed	-0.030624354
199	0xbe03e86f	-0.12881635
200	0x3dfaf004	0.122528106
201	0x3e7a01a0	0.24414682
202	0x3eb79543	0.35856065
203	0x3e925b14	0.28585112
204	0xbeca07b3	-0.39459
205	0x3e6b1c83	0.22960095
206	0x3de7e9f1	0.11323918
207	0x3e321e90	0.17394471
208	0x3e906729	0.28203705
209	0x3e937145	0.28797355
210	0x3e4f73e0	0.20259047
211	0xbe4a2a7c	-0.19742769
212	0x3ea53ea2	0.32274348
213	0x3e446c1e	0.19181868
214	0xbf17608e	-0.59131706
215	0xbe1dfa96	-0.15427622
216	0xbdadf9e9	-0.08494932
217	0x3f05492b	0.5206477
218	0x3e692a38	0.22770011
219	0xbf14cb58	-0.5812278
220	0xbd9c7f2e	-0.07641445
221	0xbeb3dab9	-0.3512781
222	0xbebaf52b	-0.36515173
223	0xbcdd20e1	-0.026993217
224	0xbea41e42	-0.32054335
225	0xbe8f8a85	-0.2803537
226	0x3dbf3a75	0.09337322
227	0x3e2ebb35	0.17063601
228	0xbdf7184e	-0.120651826
229	0x3e0d988a	0.1382772
230	0xbd564be7	-0.05231848
231	0x3d3e1a10	0.046411574
232	0x3d5b9f4b	0.05361871
233	0x3e44ed1c	0.19231075
234	0x3edc8843	0.4307271
235	0x3d72b2d7	0.059252586
236	0xbef4e7b4	-0.47833025
237	0xbec0b62e	-0.37638992
238	0x3ebf0637	0.3730943
239	0x3ec01979	0.37519434
240	0x3c8093b0	0.015695423
241	0xbee37799	-0.44427183
242	0x3ea99788	0.33123422
243	0x3d752bb9	0.05985615
244	0x3e40680b	0.18789689
245	0x3e9dded8	0.3083408
246	0x3e29fcb5	0.16600306
247	0x3ea75e1d	0.3268899
248	0x3d7544fd	0.059880245
249	0x3ec4c036	0.38427895
250	0xbefc795c	-0.4931134
251	0x3d2df604	0.042470947
252	0x3e80c8a8	0.2515309
253	0x3da9e073	0.082947634
254	0x3dfdf1c4	0.12399629
255	0x3ca1108d	0.019661212

feature.2.weight f4 [256, 256]
0	0x3eb91be2	0.36154085
1	0x3ef93346	0.4867193
2	0x3e5664b9	0.2093686
3	0x3d44b841	0.04802728
4	0x3eb8f127	0.36121485
5	0x3de79d3c	0.11309287
6	0x3b56065f	0.0032657606
7	0xbd1cb3ab	-0.038257282
8	0x3d190d7d	0.03736638
9	0x3dd94925	0.10609654
10	0xbd98d389	-0.07462222
11	0xbe5cfabb	-0.21580021
12	0xbb25466a	-0.0025218972
13	0xbc2597a5	-0.010106956
14	0x3cc728e9	0.0243115
15	0xbc9b35bd	-0.018946523
16	0x3f0bc089	0.5459066
17	0x3e0a31e3	0.13495593
18	0x3ef97fe3	0.48730382
19	0x3e1d8d46	0.15385923
20	0x3e5327c2	0.20620635
21	0xbde43038	-0.111420095
22	0x3cec8427	0.028871609
23	0xba75d753	-0.0009378094
24	0xbdc4fac9	-0.09618146
25	0x3e311b9e	0.17295691
26	0xbcb47f76	-0.022033434
27	0x3c2b71e4	0.010464165
28	0xbbc30acb	-0.0059522144
29	0xbebb9723	-0.36638746
30	0xbefcf897	-0.4940841
31	0xbe09f5ed	-0.1347272
32	0xbe2b0f66	-0.16705093
33	0x3da65328	0.081213295
34	0xbbe37a09	-0.006942038
35	0x3c13fc43	0.009032312
36	0x3d1081e1	0.035280112
37	0xbe0d304e	-0.13787958
38	0xbe6d830f	-0.23194526
39	0x3e83601d	0.25659266
40	0x3d70b53c	0.05876659
41	0x3ec46572	0.38358647
42	0xbe00aec4	-0.12566668
43	0x3d87bebd	0.06628177
44	0x3d4b30f7	0.049607243
45	0x3e28639d	0.1644425
46	0xbd6ca955	-0.057778675
47	0x3e98713c	0.2977389
48	0x3ea67ef5	0.32518736
49	0x3d4215f3	0.047384214
50	0xbc522ed6	-0.012828549
51	0x3dfaaa7f	0.12239551
52	0x3cbd0c1f	0.023077069
53	0x3c80c48d	0.015718723
54	0x3e62d562	0.22151712
55	0x3dca1b6f	0.09868514
56	0x3e0604b6	0.13087735
57	0xbdc7f28f	-0.09763061
58	0xbdb1ca06	-0.08681111
59	0xbe0ab49e	-0.13545462
60	0xbe5d677f	-0.21621512
61	0x3e6c90c2	0.23102096
62	0x3dea0db6	0.114283964
63	0xbe92dbf9	-0.2868345
64	0x3c2e680c	0.010644924
65	0xbcd88fda	-0.026435781
66	0xbe8bd985	-0.27314392
67	0x3e0193b7	0.12654005
68	0xbe138b41	-0.1440859
69	0x3efa1ffc	0.48852527
70	0x3b2e08a9	0.0026555455
71	0xbe682061	-0.22668602
72	0x3e7a7d08	0.24461758
73	0xbd84f8cd	-0.064927675
74	0xbd351a79	-0.0442147
75	0xbe66e068	-0.22546542
76	0x3d90d42a	0.07071717
77	0x3c574a89	0.013140329
78	0x3df9db4d	0.122000314
79	0xbe16bc2a	-0.14720216
80	0xbe2f9fcd	-0.17150803
81	0x3f00a6d7	0.5025458
82	0x3e9972e5	0.2997047
83	0xbdd69ebe	-0.104794964
84	0x3d38c7dc	0.045112476
85	0xbd5ea099	-0.054352377
86	0x3dae49b1	0.08510149
87	0x3d6ada19	0.0573369
88	0xbd95528c	-0.07291135
89	0x3e0490ab	0.12945811
90	0x3e80a849	0.2512839
91	0x3dc73f77	0.09728902
92	0x3e6a973d	0.22909255
93	0xbe7dcb38	-0.24784553
94	0xbbef8c24	-0.0073104072
95	0x3e04abbe	0.1295614
96	0x3cdf522f	0.027260868
97	0xbcaa5bc4	-0.02079571
98	0xbb44049f	-0.002990998
99	0xbbb90b6f	-0.005647115
100	0x3c9d86ff	0.01922941
101	0x3d7fc0f5	0.062439878
102	0x3c681e9f	0.014167457
103	0xbe90ebf5	-0.2830502
104	0xbdd605e0	-0.10450339
105	0x3ea2b60d	0.3177952
106	0xbd3de943	-0.046365034
107	0x3e1a9d36	0.15099034
108	0x3d437caa	0.04772631
109	0xbe8117ee	-0.2521357
110	0x3db9b043	0.090668224
111	0x3d7abfdd	0.06121813
112	0xbd87cb80	-0.066306114
113	0x3bde9d85	0.00679368
114	0x3e2e1937	0.17001806
115	0xbe5479e4	-0.20749623
116	0x3d2bdeeb	0.041960638
117	0xbdad1c02	-0.08452608
118	0x3e2294a1	0.1587701
119	0xbe5cc18a	-0.21558204
120	0xbe26261c	-0.16225475
121	0x3ce1953c	0.02753698
122	0x3e18c560	0.14919043
123	0xbd1ae734	-0.03781815
124	0x3e502ddd	0.20329995
125	0xbe9af723	-0.30266675
126	0x3e134408	0.1438142
127	0xbe44ac41	-0.19206335
128	0x3eb50f27	0.35363123
129	0x3e5f2de9	0.21794857
130	0xbe846d2d	-0.25864545
131	0x3d13a28b	0.036043685
132	0x3d348d6f	0.044080194
133	0x3de2b9f2	0.110706225
134	0xbcd85d12	-0.026411567
135	0xbde3d32b	-0.111242615
136	0x3d94949d	0.07254908
137	0xbc989ca4	-0.01862938
138	0xbc4c0470	-0.01245223
139	0x3a519d23	0.00079961325
140	0xba032e81	-0.0005004183
141	0x3e173046	0.14764509
142	0xbb0e6b27	-0.0021731348
143	0x3dcd3309	0.100195
144	0x3eb1a4f4	0.34696162
145	0x3dcbdc46	0.09954123
146	0x3df79921	0.12089754
147	0x3e071c23	0.13194327
148	0x3d80eb9d	0.0629494
149	0xbd0710e8	-0.032975107
150	0xbe93a527	-0.2883694
151	0x3d88f5ac	0.06687483
152	0x3e829946	0.25507563
153	0x3cfc9436	0.030832391
154	0xbd8cdc6e	-0.06877981
155	0xbdeececb	-0.116605364
156	0xbe4fb4b9	-0.20283784
157	0x3e2169e3	0.15763049
158	0xbe2b01c1	-0.16699888
159	0x3d002393	0.031283926
160	0x3deaf739	0.11472935
161	0xbd6ddcc4	-0.058071867
162	0x3eb03703	0.3441697
163	0x3e2104bf	0.15724467
164	0xbe32fe34	-0.17479783
165	0xbdefd233	-0.11710014
166	0xbe6f8bb2	-0.23393133
167	0xbe159696	-0.14608225
168	0xbc8088e9	-0.015690284
169	0x3e3c7282	0.18403056
170	0x3dc910ec	0.09817681
171	0xbe6055dc	-0.21907753
172	0xbef1c234	-0.47218478
173	0xbe7dce15	-0.24785645
174	0xbdd05f7a	-0.10174461
175	0x3eacc9d7	0.33747742
176	0x3ea68e2a	0.32530338
177	0x3dd23393	0.10263743
178	0xbe0eff2a	-0.13964525
179	0x3e8f72ce	0.28017277
180	0xbeaf2852	-0.3421045
181	0x3eff85f1	0.49906877
182	0x3d8a9795	0.06767193
183	0xbcf65dfc	-0.030074112
184	0x3e8c59d7	0.27412292
185	0x3e0583bb	0.13038532
186	0xbd8405ba	-0.06446405
187	0x3c00fda5	0.007872974
188	0xbe701eb5	-0.23449214
189	0x3dd395c4	0.103313
190	0xbdc16c10	-0.094444394
191	0x3e3ea111	0.1861613
192	0xbe8310a1	-0.25598624
193	0x3d46db4e	0.04854899
194	0xbe21762a	-0.15767732
195	0x3f169bf0	0.5883169
196	0x3e8ae6a8	0.27129102
197	0x3dc493d5	0.09598509
198	0x3e663495	0.22480996
199	0xbc61c36e	-0.013779504
200	0x3d1f6c5d	0.038921703
201	0xbd167d44	-0.036740556
202	0xbd929688	-0.07157618
203	0x3e14e2ee	0.14539692
204	0x3e28dc1f	0.1649022
205	0x3e9abbcf	0.30221412
206	0x3d4d01ba	0.050050475
207	0xbe263d35	-0.16234286
208	0x3dc5ca13	0.09657683
209	0xbdc28890	-0.094987035
210	0x3eefec44	0.46859944
211	0x3e3c9a9d	0.18418355
212	0xbd02fe1d	-0.031980623
213	0x3e50682f	0.20352243
214	0x3e208ca6	0.15678653
215	0xbe8db7c1	-0.27679256
216	0x3e8d20e7	0.27564165
217	0xbc02dbad	-0.007986945
218	0x3da9e53f	0.08295678
219	0x3d29ba0c	0.041437194
220	0xbded5b8f	-0.11589729
221	0xbd3a2098	-0.04544124
222	0x3ddb8491	0.107186444
223	0x3e75785b	0.23971693
224	0x3dcd598c	0.10026845
225	0xbe76e60c	-0.24111193
226	0x3e75aabc	0.23990911
227	0x3ecf81bd	0.4052867
228	0x3e02ac74	0.12761098
229	0xbea0b1ae	-0.3138556
230	0xbda8fe6c	-0.08251652
231	0x3ec4e2fe	0.3845443
232	0x3e4851b1	0.19562413
233	0x3dd92a0c	0.10603723
234	0x3e289646	0.16463575
235	0xbe1780b9	-0.14795198
236	0x3e6a7568	0.2289635
237	0x3bbd35c2	0.0057742307
238	0x3c866054	0.016403355
239	0xbe389098	-0.18023908
240	0x3eaab268	0.33339238
241	0x3c0ce9e4	0.008600686
242	0xbdd16317	-0.10223978
243	0xbdab24bd	-0.08356617
244	0xbe5a2bee	-0.2130582
245	0x3d628569	0.05530301
246	0xbe8f89be	-0.28034776
247	0x3d34fdd2	0.044187374
248	0x3e3352af	0.1751201
249	0x3e75f527	0.240193
250	0xbdd9acef	-0.106286876
251	0xbcca51b8	-0.02469717
252	0x3d0de6da	0.034643985
253	0x3e51e63d	0.20497985
254	0x3e278e28	0.16362822
255	0x3e99616e	0.29957145

feature.2.bias f4 [256]
0	0xbd4e4d9f	-0.050366994
1	0x3e349dfc	0.17638391
2	0xbe19adc8	-0.15007699
3	0xbd44f724	-0.048087254
4	0xbca64234	-0.02029524
5	0x3e3ad175	0.18243964
6	0x3e2958d8	0.16537797
7	0xbec5e0cc	-0.3864807
8	0x3e5ae943	0.21378045
9	0xbd8f0018	-0.0698244
10	0x3e7487b3	0.2387989
11	0x3e1903e3	0.14942889
12	0x3cfbda49	0.030743735
13	0x3e7333d4	0.2375024
14	0x3e7348ce	0.23758242
15	0x3e05e7b9	0.13076676
16	0xbce22622	-0.027606074
17	0x3edae55f	0.4275312
18	0x3e619685	0.22030075
19	0x3e527530	0.20552516
20	0x3d1f84f0	0.03894514
21	0x3e5809e0	0.21097517
22	0xbe0b945e	-0.13630816
23	0xbce7b3af	-0.028283922
24	0xbdc7e9f9	-0.097614236
25	0x3dc2d8b8	0.09513992
26	0x3d919a2a	0.071094826
27	0x3c343c31	0.011000679
28	0x3ed01e79	0.4064825
29	0xbb779c2c	-0.0037782295
30	0x3dde44a6	0.108529374
31	0x3dbc666f	0.09199225
32	0x3cba52ee	0.022744622
33	0x3e492c65	0.19645841
34	0x3e484337	0.1955689
35	0x3dc0763f	0.09397554
36	0x3cdc7465	0.02691097
37	0x3eb20c93	0.34775218
38	0xba828ebf	-0.0009960755
39	0x3d4782da	0.048708774
40	0xbe527774	-0.2055338
41	0xbdd79a31	-0.105274566
42	0x3b6ac8e1	0.00358253
43	0xbedf1307	-0.43569204
44	0x3e3779d7	0.17917572
45	0x3f230e5b	0.6369378
46	0x3d376af5	0.044779737
47	0xbca63467	-0.02028866
48	0x3ee1b2e8	0.44081807
49	0x3e5978f2	0.21237543
50	0xbeaa268d	-0.33232537
51	0x3e1d2f5c	0.15350097
52	0x3e45ebb7	0.193282
53	0x3e2b99c1	0.16757871
54	0xbeed7f2c	-0.46386087
55	0xbd6f33ba	-0.05839894
56	0xbc94ed6e	-0.018179622
57	0xbe693e33	-0.22777633
58	0x3e5e31f8	0.21698749
59	0x3c413e77	0.011794678
60	0xbd0835ba	-0.033254363
61	0x3de08ff6	0.10964958
62	0x3d362bb4	0.044475272
63	0x3e3259bd	0.17417045
64	0x3d9da8a5	0.07698182
65	0xbd797c7d	-0.060909737
66	0x3e03bfdd	0.12866159
67	0x3d8c6fb7	0.068572454
68	0x3bc133ad	0.005896053
69	0xbe83d004	-0.2574464
70	0xbd14c314	-0.036318853
71	0xbe821e1b	-0.25413594
72	0x3e4ceb22	0.20011571
73	0x3e277177	0.16351877
74	0x3e6565fc	0.22402185
75	0x3c6904b9	0.014222317
76	0x3da557b0	0.08073366
77	0x3e3f4369	0.18678059
78	0x3dfccc84	0.12343696
79	0x3e6e1611	0.23250605
80	0xbd7447cc	-0.059638783
81	0x3e766a7a	0.24064055
82	0x3eaa3fe2	0.33251864
83	0xbd98c6bd	-0.07459781
84	0xbe8d5007	-0.2760012
85	0x3d211175	0.03932329
86	0x3daddf8a	0.08489902
87	0xbe1a1741	-0.15047933
88	0x3ca139f0	0.019680947
89	0xbbddb457	-0.006765883
90	0x3dfaf67d	0.12254045
91	0x3ef67b20	0.48140812
92	0xbdd028be	-0.10164021
93	0xbdbd980b	-0.092575155
94	0xbe8ee998	-0.27912593
95	0x3e232f8d	0.15936108
96	0xbd8f38ff	-0.06993293
97	0xbd65cbb3	-0.056102466
98	0xbd32eeec	-0.043684885
99	0x3cd2a010	0.02571109
100	0xbddf4307	-0.10901456
101	0x3e124469	0.14283909
102	0x3f334dd3	0.70040625
103	0xbda4859e	-0.08033298
104	0xbd545238	-0.051836222
105	0xbd1e3d7f	-0.038632866
106	0x3e03636b	0.12830894
107	0x3e772bea	0.24137846
108	0x3dfa9e83	0.12237265
109	0x3f1e26eb	0.61778134
110	0x3e72fb51	0.23728682
111	0x3e8ca1fc	0.27467334
112	0xbe551e4f	-0.20812343
113	0x3e317434	0.17329484
114	0xbd098e2c	-0.03358285
115	0x3da590f9	0.08084292
116	0x3c49aca3	0.012309226
117	0x3d276855	0.040870983
118	0x3ee7710f	0.45203444
119	0x3eae9ca8	0.34103894
120	0x3e17f9c5	0.14841373
121	0x3d7ef0ff	0.06224155
122	0xbd541016	-0.051773153
123	0x3df1c100	0.1180439
124	0x3e7c0c22	0.24614003
125	0x3d8e6611	0.06953061
126	0x3e4e7998	0.20163572
127	0xbe84cbce	-0.2593674
128	0xbd1f9052	-0.038955994
129	0x3e435f82	0.19079402
130	0x3d7cd2cc	0.06172447
131	0x3edca2fb	0.43093094
132	0xbe5e034a	-0.21680942
133	0x3d13487b	0.035957795
134	0xbab8dc63	-0.0014103766
135	0x3e2048ae	0.15652725
136	0x3daf91bd	0.08572719
137	0x3de2bc18	0.11071032
138	0xbd068664	-0.03284301
139	0x3e25e820	0.1620183
140	0x3e3c3050	0.18377805
141	0xbe6d63d4	-0.23182613
142	0x3de5e814	0.11225906
143	0x3ea1922c	0.31556833
144	0xbdd0ff7d	-0.102049805
145	0x3dd2b1a7	0.10287791
146	0x3e17ecef	0.14836477
147	0x3eb0d999	0.34541014
148	0x3e4c792f	0.19968103
149	0x3e33f14f	0.1757252
150	0x3e4237b1	0.18966557
151	0xbe9c01f3	-0.30470237
152	0xbea7d3e3	-0.32778844
153	0x3e2473e0	0.16059828
154	0x3d4b232d	0.049594093
155	0x3bf04889	0.0073328656
156	0x3de0deb6	0.10979979
157	0x3edb954a	0.42887336
158	0xbd987381	-0.074439056
159	0x3e81aa5f	0.25325295
160	0x3d3d90b7	0.04628059
161	0x3dbf128b	0.09329709
162	0x3dbfd95e	0.093676314
163	0x3cf72044	0.030166753
164	0x3ddb87a3	0.1071923
165	0x3e387f79	0.18017377
166	0x3e499c03	0.1968842
167	0xbeebb842	-0.46039015
168	0x3e0a2eb6	0.13494381
169	0xbe583467	-0.2111374
170	0x3dd53488	0.1041041
171	0xbb24a9df	-0.0025125665
172	0xbc894df0	-0.016760796
173	0xbdf42ae0	-0.1192224
174	0x3f10cbeb	0.56561154
175	0xbd0f1551	-0.03493244
176	0x3ef2375e	0.47307867
177	0xbe7ba9a9	-0.24576439
178	0x3e2f31e6	0.17108878
179	0xbc866ea4	-0.01641018
180	0x3dfb32d4	0.12265554
181	0x3e82e07c	0.25561893
182	0xbd8bb7ac	-0.06822142
183	0x3ee912a0	0.45522022
184	0x3de0acf4	0.10970488
185	0x3d44a12a	0.04800526
186	0x3dce90bb	0.10086199
187	0x3e2bd617	0.16780888
188	0x3f004cec	0.50117373
189	0x3f1e3bf6	0.61810243
190	0x3d1e1d81	0.038602356
191	0x3e40b877	0.18820368
192	0x3dcbf34c	0.099585146
193	0x3e0e9b2c	0.13926381
194	0x3e5071c0	0.20355892
195	0x3d7eca55	0.062204678
196	0xbd7d47a5	-0.061835904
197	0x3ed05b5b	0.406947
198	0x3ce21048	0.027595654
199	0xbe0a71ff	-0.13520049
200	0x3ef4ad7c	0.47788608
201	0xbe93a7d3	-0.28838977
202	0x3e49693d	0.19669051
203	0x3e4732fd	0.19453044
204	0x3e951f46	0.29125422
205	0xbddc0ead	-0.10744987
206	0x3f1c0b8b	0.60955113
207	0x3e02d67c	0.12777132
208	0xbdc0ce3f	-0.09414338
209	0x3e54bb66	0.20774612
210	0xbda8c30e	-0.08240329
211	0x3c9a2a8a	0.018819112
212	0x3e5cd021	0.2156377
213	0x3e5a1b63	0.2129951
214	0x3cfa1827	0.030529095
215	0x3f0997db	0.5374734
216	0x3db297dc	0.08720371
217	0x3daca9c6	0.08430819
218	0xbe5f2385	-0.21790893
219	0x3e8f7540	0.28019142
220	0x3e07ebef	0.13273595
221	0x3ee8b1e9	0.45448235
222	0xbdb5504b	-0.08853205
223	0x3e222397	0.15833889
224	0x3e1792c8	0.14802086
225	0x3d406854	0.046974495
226	0x3e1678c7	0.1469451
227	0x3e1448d6	0.1448091
228	0x3e023139	0.1271409
229	0xbeb082ac	-0.34474695
230	0x3dbcd5bf	0.09220456
231	0x3c101f3e	0.008796511
232	0x3e24d6bd	0.16097541
233	0x3df10ac2	0.1176963
234	0x3e83ddc8	0.25755143
235	0xbe241d1f	-0.16026734
236	0x3e002b5a	0.12516537
237	0x3ea55454	0.322909
238	0xbcb67d2a	-0.02227648
239	0x3e3705bb	0.1787328
240	0x3e54d8f7	0.2078589
241	0xbe78c406	-0.24293527
242	0x3c3203a1	0.010865123
243	0xbb39128a	-0.002823981
244	0x3e092ff3	0.13397197
245	0xbd9d41be	-0.07678555
246	0x3e37db85	0.17954834
247	0xbdf79105	-0.12088207
248	0x3c1bcd23	0.009509358
249	0x3e1ef2dd	0.15522332
250	0x3e411bb8	0.1885823
251	0x3f194ce8	0.59882975
252	0x3ceb9f0a	0.02876236
253	0x3cdc5422	0.026895586
254	0xbe0df1bc	-0.13861746
255	0xbcfd9f81	-0.030959846

value_stream.0.weight f4 [256, 256]
0	0xbdefc8a1	-0.11708189
1	0xbe20df92	-0.15710285
2	0xbdbf21f7	-0.0933265
3	0xbe414433	-0.18873672
4	0xbca546d2	-0.020175371
5	0x3cac3983	0.021023517
6	0xbe7192ec	-0.23591202
7	0xbe49ac02	-0.19694522
8	0x3bf57a52	0.0074913884
9	0x3d7b3ce6	0.061337374
10	0x3d690091	0.056885306
11	0xbdf3b3a9	-0.11899502
12	0xbe190681	-0.14943887
13	0x3eb3295d	0.34992495
14	0xbf0b69f8	-0.5445857
15	0x3d74c205	0.059755344
16	0xbded08ce	-0.11573945
17	0xbefe6b2f	-0.4969115
18	0x3e77aea6	0.24187717
19	0xbed57f8f	-0.41698882
20	0x3e5e3fac	0.21703976
21	0xbda86754	-0.08222833
22	0xbe014f0e	-0.12627813
23	0xbdbba8d4	-0.09163061
24	0xbeaaefd3	-0.33386096
25	0xbdbe5cfe	-0.092950806
26	0xbe1530d3	-0.14569406
27	0x3d751662	0.0598358
28	0xbdc6460b	-0.096813284
29	0xbe801109	-0.25012997
30	0xbe3a3635	-0.18184741
31	0x3b517643	0.0031961359
32	0xbe896a29	-0.26838806
33	0xbe858692	-0.26079232
34	0x3bc4a45f	0.00600104
35	0xbe33432e	-0.17506096
36	0xbdfdb268	-0.12387544
37	0xbe714e75	-0.23565085
38	0xbd93e730	-0.0722183
39	0xbd00ee40	-0.031477213
40	0xbe6a7e7f	-0.22899817
41	0x3e166685	0.14687546
42	0xbf1b0ac0	-0.6056328
43	0xbe019590	-0.1265471
44	0xbcb96d99	-0.022635268
45	0x3c912a73	0.017720437
46	0xbe645b85	-0.22300537
47	0xbd5c0a05	-0.053720493
48	0x3df48e94	0.11941257
49	0xbe281a09	-0.16416182
50	0xbe310e8e	-0.17290708
51	0x3e461615	0.19344361
52	0xbcf261f5	-0.029587725
53	0xbec36239	-0.38160875
54	0xbe1ad680	-0.15120888
55	0x3e7ffad2	0.24998024
56	0xbde6f78b	-0.11277684
57	0xbdefc524	-0.117075235
58	0x3dfaef13	0.12252631
59	0xbde1f62a	-0.1103328
60	0xbe9b89bd	-0.30378523
61	0xbdb63536	-0.08896868
62	0xbe9c2a03	-0.30500802
63	0xbddf8aae	-0.10915123
64	0xbe66d393	-0.22541647
65	0xbd030f5f	-0.03199708
66	0xbe4a15d6	-0.19734892
67	0xbe92092a	-0.28522617
68	0xbd2eb71d	-0.0426551
69	0xbe8c08f9	-0.27350596
70	0x3b5b2d58	0.0033443775
71	0xbe8e83a5	-0.27834812
72	0x3e444a72	0.19169024
73	0xbdd6e596	-0.10493009
74	0xbdfad06a	-0.12246783
75	0xbdb2dcc7	-0.08733516
76	0xbe53005b	-0.20605604
77	0xbf41b651	-0.7566882
78	0x3b73e1f3	0.0037213534
79	0xbed1703f	-0.4090595
80	0xbf3a8afb	-0.7286832
81	0xbecb287c	-0.39679325
82	0x3ecf6348	0.40505433
83	0x3c73803a	0.014862115
84	0xbe411f2a	-0.18859544
85	0xbeb85f88	-0.36010385
86	0xbd93db8d	-0.0721961
87	0xbe84d75f	-0.25945565
88	0x3da160e4	0.078798085
89	0xbdcc8898	-0.09986991
90	0xbe454e5f	-0.19268177
91	0x3e0a1e1d	0.1348805
92	0xbec3e49d	-0.38260356
93	0xbd2685ab	-0.04065482
94	0xbe6ae74c	-0.22939795
95	0x3d8e647b	0.06952759
96	0xbdba62d1	-0.09100879
97	0x3cad0d3d	0.021124477
98	0xbdf9d0f8	-0.12198061
99	0xbe2f7d58	-0.17137659
100	0x3cb1c0d6	0.021698397
101	0xbe9a5e52	-0.30150086
102	0xbd48cd79	-0.04902408
103	0xbee04b84	-0.43807614
104	0xbeef2db0	-0.46714544
105	0xbe8ab7bf	-0.27093312
106	0xbdf62c20	-0.12020135
107	0xbe411ba9	-0.18858208
108	0x3d66cbfd	0.056346882
109	0xbceff426	-0.029291224
110	0x3c7b1fa8	0.015327372
111	0xbeac3661	-0.33635238
112	0xbf0e0a25	-0.5548423
113	0xbde3583d	-0.111008145
114	0xbd19476d	-0.037421633
115	0x3db4f9a5	0.088366784
116	0xbe179c0d	-0.14805622
117	0xbeaa3a3a	-0.33247548
118	0x3e201b61	0.15635444
119	0x3f086d6d	0.5329197
120	0xbe09e561	-0.13466407
121	0x3d2600c4	0.040528074
122	0xbd175ae4	-0.036951914
123	0x3d8ea97a	0.06965919
124	0xbe3f5b33	-0.18687133
125	0xbdc4434c	-0.09583148
126	0xbe20764f	-0.15670131
127	0xbe12dd98	-0.14342344
128	0xbcf4c46c	-0.029878817
129	0xbe4d4675	-0.20046408
130	0xbe0d8496	-0.13820109
131	0x3df81850	0.12114012
132	0xbe8eb245	-0.27870384
133	0x3c913ce7	0.017729236
134	0xbe50f184	-0.20404631
135	0xbe95a26e	-0.29225487
136	0xbe39606f	-0.18103193
137	0xbf049fc6	-0.51806295
138	0xbdc1466c	-0.0943726
139	0x3ddcce57	0.10781544
140	0x3e24e751	0.16103865
141	0xbe91850f	-0.28421828
142	0xbd816009	-0.063171454
143	0x3d940078	0.07226652
144	0xbec5edb8	-0.38657928
145	0xbd011521	-0.03151429
146	0xbe8e6171	-0.27808717
147	0x3dc8ed04	0.09810832
148	0xbe8939a7	-0.26801798
149	0xbe1ac8aa	-0.1511561
150	0xbdc75652	-0.09733261
151	0xbe89be50	-0.2690301
152	0xbe03222c	-0.12806004
153	0xbe8241be	-0.25440782
154	0xbdc1784a	-0.094467714
155	0xbe979629	-0.2960675
156	0xbe8f3389	-0.27969006
157	0x3decac7c	0.11556336
158	0xbec0cd4e	-0.37656635
159	0xbee68915	-0.4502646
160	0x3d095a4c	0.03353338
161	0xbe13e09e	-0.14441153
162	0xbe9292f6	-0.28627747
163	0xbeb8b9bb	-0.360792
164	0xbd81aa2f	-0.06331288
165	0xbe128067	-0.14306794
166	0xbd32a3dc	-0.0436133
167	0xbe8f2cab	-0.27963766
168	0xbdda220c	-0.10651025
169	0xbd146a3e	-0.036234133
170	0xbd887f42	-0.066648975
171	0xbe52589c	-0.20541614
172	0xbdb8ae70	-0.09017646
173	0xbe62382b	-0.22091739
174	0x3dfe90ec	0.124299854
175	0xbf24e439	-0.6441074
176	0x3dd572cf	0.104222886
177	0xbcf09a75	-0.029370526
178	0xbc135b23	-0.008993897
179	0xbe71e729	-0.23623337
180	0xbe8e53c0	-0.2779827
181	0x3d84aa23	0.064777635
182	0xbd24891e	-0.040169828
183	0xbeb98ad8	-0.36238742
184	0xbe964a30	-0.29353476
185	0xbd7b0ab3	-0.0612895
186	0x3d439637	0.047750678
187	0xbcbb8788	-0.022891775
188	0x3e3d2a8d	0.18473263
189	0x3bad4b59	0.005288523
190	0x3c90245a	0.017595459
191	0x3cc9a0eb	0.024612864
192	0xbe3099b9	-0.1724614
193	0xbe0b4361	-0.13599922
194	0xbea45bf3	-0.32101402
195	0xbdbb0c02	-0.0913315
196	0x3dd3d02d	0.10342441
197	0x3e1949a9	0.14969505
198	0xbe8c03c2	-0.27346617
199	0xbf136544	-0.57576394
200	0x3d3230a9	0.043503437
201	0xbe966641	-0.2937489
202	0xbd795fd2	-0.060882397
203	0xbde633d7	-0.112403564
204	0xbe05cdaa	-0.13066736
205	0x3e30f8a4	0.17282349
206	0x3c59223c	0.013252791
207	0xbdb20060	-0.08691478
208	0xbdef4f00	-0.1168499
209	0x3def96c3	0.116986774
210	0xbd8de37d	-0.069281556
211	0xbc90a9ae	-0.017659035
212	0xbec34d7b	-0.3814505
213	0xbc80e96c	-0.015736304
214	0xbe17750f	-0.14790748
215	0xbdef4f3c	-0.11685035
216	0xbe59bd83	-0.21263699
217	0x3dc04229	0.09387619
218	0xbe8a2ba4	-0.2698642
219	0xbe32b27a	-0.17450896
220	0xbed053c4	-0.40688908
221	0x3e8d206b	0.27563795
222	0xbdf768de	-0.12080549
223	0xbf261a92	-0.64884293
224	0xbdb2b329	-0.08725578
225	0xbe6bfd06	-0.2304574
226	0xbe8b92fa	-0.27260572
227	0xbd41d465	-0.047321696
228	0xbe228446	-0.15870771
229	0xbe93e6eb	-0.28887114
230	0xbdfb66c7	-0.122754626
231	0xbe1eb224	-0.15497643
232	0xbeb8f75c	-0.3612622
233	0xbef2404a	-0.47314674
234	0xbe81cc81	-0.25351337
235	0xbe0336c9	-0.12813868
236	0x3a197eb9	0.000585537
237	0xbebc4c18	-0.36776805
238	0xbd80e528	-0.06293708
239	0xbe0831b2	-0.13300207
240	0xbe3ea44a	-0.18617359
241	0xbe4ae7bf	-0.19814967
242	0xbe6fdc42	-0.23423865
243	0xbf4793a5	-0.7795966
244	0xbe7a7421	-0.24458362
245	0xbba2cac7	-0.0049680206
246	0x3e0116ce	0.12606356
247	0x3e09a594	0.1344207
248	0xbda5c79f	-0.08094715
249	0xbe950537	-0.2910554
250	0x3e05a208	0.13050091
251	0x3c249181	0.010044456
252	0xbd3862ec	-0.045016214
253	0xbe3b60e8	-0.18298686
254	0xbea801bd	-0.32813826
255	0xbdc3ae18	-0.0955469

value_stream.0.bias f4 [256]
0	0xbe3e576b	-0.18588035
1	0x3d0e9207	0.03480723
2	0x3e98a0f5	0.298103
3	0x3eac9ef8	0.33715034
4	0xbdbabef2	-0.09118451
5	0x3e862aab	0.26204428
6	0x3e6d4977	0.23172556
7	0xbda90581	-0.08253003
8	0xbddeccba	-0.10878892
9	0x3ec5b780	0.38616562
10	0x3defa687	0.117016844
11	0xbd377c58	-0.044796318
12	0xbe68456d	-0.22682734
13	0x3edfcca3	0.43710813
14	0x3e1d3024	0.15350395
15	0xbd11ded8	-0.03561291
16	0x3eb10e4d	0.34581223
17	0x3e60bcd1	0.21947028
18	0x3e054bf1	0.1301725
19	0x3e513fde	0.2043452
20	0x3ea2942a	0.31753665
21	0x3ee81c46	0.4533407
22	0xbe073894	-0.13205177
23	0x3e1ec883	0.15506177
24	0xbdff2e39	-0.12459988
25	0x3cd74607	0.026278509
26	0x3e58b98f	0.21164535
27	0xbdbfd254	-0.09366289
28	0x3e9d4962	0.3072005
29	0xbcb5e1c0	-0.022202373
30	0x3eef88a9	0.4678395
31	0x3e8a308e	0.2699017
32	0x3e8969b2	0.26838452
33	0x3daba14a	0.08380373
34	0x3e48d109	0.1961099
35	0x3eecc260	0.46242046
36	0x3daf3bb4	0.08556309
37	0xbddd0cd1	-0.1079346
38	0xbdf86770	-0.12129104
39	0x3ed98506	0.424843
40	0x3ef5a60e	0.47978252
41	0x3dbf4c9c	0.09340784
42	0x3ddd82e9	0.10815985
43	0xbd294ebf	-0.041334864
44	0xbdeee49d	-0.11664698
45	0x3e1207a9	0.14260735
46	0xbc335499	-0.010945463
47	0xbdb0081e	-0.08595298
48	0x3e685ac8	0.2269088
49	0x3e996337	0.29958507
50	0x3e76409c	0.24048084
51	0x3e87de52	0.26536804
52	0x3e23f353	0.1601079
53	0x3e7e2725	0.2481962
54	0xbc9d1d56	-0.019179028
55	0x3d4ed4f1	0.050496046
56	0xbde3a830	-0.111160636
57	0xbd5836b2	-0.052786537
58	0x3e32c2f3	0.1745718
59	0xbe13caf7	-0.14432894
60	0x3b0cd4ca	0.0021489137
61	0x3d509ba0	0.050929666
62	0xbe265fa4	-0.16247422
63	0x3e8a3ec5	0.27001014
64	0x3ef641fd	0.4809722
65	0xbe105da9	-0.14098229
66	0xbd7b989b	-0.061424833
67	0x3dda6ffe	0.10665892
68	0x3ee289b4	0.44245684
69	0xbd83889d	-0.06422541
70	0x3eaee4ef	0.34159037
71	0x3de7cbd3	0.11318173
72	0xbd6577f4	-0.0560226
73	0x3e0e494d	0.1389515
74	0x3e9b9c14	0.30392516
75	0xbd8b2ff2	-0.06796254
76	0xbdfc5180	-0.123202324
77	0xbe3e8f37	-0.1860932
78	0xbdc1b1b5	-0.09457723
79	0x3e3033e6	0.17207298
80	0x3ea99e2e	0.33128494
81	0xbe15bd64	-0.14623028
82	0xbd6872ff	-0.056750294
83	0x3ec7b5b4	0.39005816
84	0xbda25133	-0.07925644
85	0x3dc4fb86	0.09618287
86	0x3e800372	0.2500263
87	0xbda03d1e	-0.07824157
88	0xbdb47617	-0.08811586
89	0xbe4f04f9	-0.2021674
90	0xbe0cb4c6	-0.13740835
91	0xbe15987d	-0.14608951
92	0x3ee78c85	0.45224395
93	0x3e4d751f	0.2006421
94	0x3e74503b	0.2385873
95	0xbd835fcd	-0.06414757
96	0xbe06b014	-0.13153106
97	0x3ea66a95	0.3250319
98	0x3e553ce1	0.20824005
99	0x3ed79096	0.42102498
100	0xbe03e79e	-0.12881324
101	0xbda312af	-0.07962548
102	0x3e81b318	0.2533195
103	0xbddf5325	-0.109045304
104	0x3f1bb9f3	0.6083061
105	0xbe450e97	-0.19243847
106	0xbd565def	-0.052335676
107	0x3ea0eaf4	0.31429255
108	0x3ea08317	0.31350014
109	0xbe1c9409	-0.15290846
110	0x3e970f1c	0.29503715
111	0xbe67db5e	-0.22642276
112	0xbd6091d3	-0.05482657
113	0x3e9815d4	0.29704154
114	0x3e968ae7	0.2940285
115	0xbe5991e2	-0.21247056
116	0xbe07026a	-0.13184515
117	0x3e5ec09b	0.2175316
118	0x3e844b7c	0.2583884
119	0x3ca4d643	0.0201217
120	0x3e833f84	0.25634396
121	0x3eb7987a	0.35858518
122	0xbdc8ba83	-0.09801199
123	0x3ed4806b	0.41504225
124	0xbe263539	-0.1623124
125	0x3d7cd54d	0.061726857
126	0xbe4fbe80	-0.20287514
127	0xbdf00ec8	-0.11721569
128	0x3e8eebe7	0.27914354
129	0xbe1b17af	-0.15145753
130	0x3e2ef1c1	0.1708441
131	0x3e267b79	0.16258039
132	0xbc815237	-0.015786273
133	0xbd9af545	-0.07566313
134	0x3eb6d546	0.3570959
135	0x3ec7470f	0.389214
136	0x3e37b744	0.17941004
137	0x3e2eb4cc	0.17061156
138	0xbd561d29	-0.052273903
139	0x3eae355d	0.34025088
140	0x3ecc9cff	0.3996353
141	0x3e63d880	0.22250557
142	0x3eb339e3	0.35005102
143	0x3e9d05bc	0.30668437
144	0xbda2f29c	-0.0795643
145	0x3dba64c2	0.09101249
146	0x3ec3a9f6	0.38215607
147	0xbd692bed	-0.056926657
148	0x3e87ddd6	0.26536435
149	0x3e5ecb71	0.21757294
150	0x3ea1a0dc	0.31568038
151	0xbdc82832	-0.09773292
152	0x3e5f8615	0.21828492
153	0x3eb62362	0.3557387
154	0x3ea5f701	0.32415012
155	0xbe4c345e	-0.19941851
156	0x3dce6f41	0.10079814
157	0xbd872b51	-0.06600059
158	0x3ef56971	0.47932008
159	0x3e3730df	0.17889737
160	0xbe253702	-0.16134265
161	0xba149684	-0.00056681805
162	0xbdcfb058	-0.10141057
163	0x3e7bd2eb	0.24592178
164	0xbd1adf08	-0.037810355
165	0x3e0db0b4	0.13836938
166	0x3e7634b4	0.24043542
167	0x3e1c6368	0.15272295
168	0x39cbab64	0.00038846873
169	0xbdaa023c	-0.083012074
170	0xbe6d7a8d	-0.2319128
171	0x3dd141bd	0.10217617
172	0x3e805cac	0.25070703
173	0x3dffeec4	0.12496713
174	0x3ecf3a04	0.4047395
175	0x3e76036a	0.2402474
176	0x3cde72e9	0.027154403
177	0x3ea826fa	0.32842237
178	0x3f1a634c	0.60307765
179	0xbc41f4e0	-0.011838168
180	0xbd68a12a	-0.056794323
181	0xbdb75c78	-0.08953184
182	0x3efcca5c	0.49373138
183	0x3e451005	0.19244392
184	0x3e447637	0.1918572
185	0x3f0b4534	0.5440247
186	0xbe55fc23	-0.20896964
187	0x3e60b89a	0.2194542
188	0x3e12527d	0.1428928
189	0x3ec9af78	0.39391685
190	0xbc8b0389	-0.01696946
191	0xbd973842	-0.07383777
192	0xbda0311d	-0.078218676
193	0x3e398d0b	0.1812021
194	0x3cc54322	0.024079863
195	0xbd493a25	-0.049127717
196	0xbd1cc133	-0.038270187
197	0xbe0270c3	-0.12738328
198	0x3e9c2e39	0.30504015
199	0x3e081af2	0.13291529
200	0xbe01b93c	-0.12668318
201	0x3e8c8797	0.27447197
202	0xbe84caf2	-0.25936085
203	0x3efab259	0.48964193
204	0xbe0f7a07	-0.14011393
205	0xbe1a0632	-0.15041426
206	0xbd489831	-0.048973266
207	0x3e8c1fcb	0.27368006
208	0x3d055635	0.032552917
209	0x3e8ef6e5	0.2792274
210	0xbd70e1e8	-0.05880919
211	0xbde7df69	-0.11321909
212	0x3de9312e	0.113863334
213	0x3e349c9e	0.1763787
214	0xbdcb09b4	-0.0991396
215	0x3d092e73	0.033491563
216	0x3e6f000c	0.23339862
217	0xbdaab93d	-0.08336113
218	0x3ea815e0	0.3282919
219	0xbe1c02b8	-0.15235412
220	0x3e88e31f	0.2673578
221	0xbdbe9a70	-0.093068
222	0xbdf6826b	-0.12036594
223	0x3d41e9b5	0.04734202
224	0xbd1f1ded	-0.0388469
225	0x3e7f8965	0.24954756
226	0xbc24b810	-0.01005365
227	0x3c4a0182	0.012329461
228	0xbe5b4055	-0.2141126
229	0x3ea5e13e	0.3239841
230	0x3e35afbf	0.17742823
231	0xbdfea131	-0.124330886
232	0x3e27f2ce	0.16401216
233	0xbbacb053	-0.005270043
234	0x3ea1775e	0.31536382
235	0xbe078b9a	-0.13236848
236	0x3eba7546	0.36417598
237	0xbddce027	-0.10784941
238	0x3e85eb32	0.26156002
239	0xbd78ebba	-0.06077168
240	0x3f0f79aa	0.5604502
241	0x3e078302	0.1323357
242	0x3ef869e3	0.48518285
243	0xbdc0d9e3	-0.094165586
244	0x3e30340f	0.17207359
245	0x3cad0885	0.021122226
246	0x3e9dbe2e	0.30809158
247	0x3e28245f	0.16420124
248	0x3e3e063d	0.18557067
249	0x3ecfc62c	0.4058088
250	0x3e868537	0.2627351
251	0xbe87fd73	-0.26560554
252	0x3e95a069	0.29223946
253	0xbd670928	-0.056405216
254	0x3e80ca63	0.2515441
255	0x3e94865e	0.29008764

value_stream.2.weight f4 [1, 256]
0	0x3f0957ef	0.536498
1	0x3ed89f29	0.4230893
2	0xbf29c864	-0.66321397
3	0xbf65d3e8	-0.8977647
4	0x3f058714	0.5215924
5	0xbf4c6343	-0.7983896
6	0xbf32aa1f	-0.69790834
7	0x3edd1762	0.43181902
8	0xbe88ed18	-0.26743388
9	0xbf0e880a	-0.5567633
10	0xbf4b2232	-0.7934905
11	0xbf37ae99	-0.7175079
12	0xbf0f62c5	-0.56010085
13	0x3f26c7a2	0.65148365
14	0x3f2f7afb	0.6854703
15	0xbe8789b3	-0.26472244
16	0xbf2ab96b	-0.66689175
17	0x3e900480	0.28128433
18	0xbf0e60da	-0.55616534
19	0xbf2d450a	-0.6768347
20	0xbf35f32e	-0.7107419
21	0xbf26692d	-0.65004236
22	0x3e94256f	0.2893481
23	0xbf395ccd	-0.7240723
24	0x3f06c552	0.52644837
25	0xbf42caa3	-0.7609045
26	0xbed9f307	-0.42568228
27	0x3eb0d6cc	0.34538877
28	0xbf30aaac	-0.69010425
29	0x3f14ffda	0.582029
30	0xbf3a276f	-0.7271642
31	0xbf1fe113	-0.6245281
32	0xbf68b050	-0.9089403
33	0x3f1e14d4	0.6175053
34	0xbf221fde	-0.63329875
35	0x3f044c06	0.516785
36	0xbf2c7514	-0.6736615
37	0x3f1776af	0.5916547
38	0xbebce6e2	-0.368949
39	0xbf24fe76	-0.64450777
40	0xbf4223b3	-0.7583572
41	0xbf36051f	-0.71101564
42	0x3f443ed2	0.76658356
43	0xbe14987b	-0.14511292
44	0x3ed9b879	0.42523554
45	0x3ef3ff1e	0.47655576
46	0x3edaffab	0.42773184
47	0x3f26f501	0.65217596
48	0xbf149967	-0.58046573
49	0xbf50d0ed	-0.81568795
50	0x3e9d676c	0.30742967
51	0xbf56f0d0	-0.839612
52	0x3f031e16	0.5121778
53	0xbf73be5c	-0.9521234
54	0x3ee7c26b	0.45265517
55	0xbf37695e	-0.7164515
56	0x3ed51901	0.4162064
57	0x3f228762	0.6348783
58	0xbf2d9ce0	-0.678175
59	0x3f0f3bea	0.55950797
60	0xbec620a9	-0.38696793
61	0x3e64a569	0.22328724
62	0x3f07acf6	0.5299829
63	0xbf2ca8dc	-0.6744516
64	0xbf492d2b	-0.78584546
65	0xbeec2461	-0.46121505
66	0x3f018622	0.50595295
67	0x3ebafa5b	0.3651913
68	0xbf1d46fb	-0.6143643
69	0x3f1d64f9	0.614822
70	0xbf5a328e	-0.8523339
71	0xbf5c4a94	-0.860513
72	0x3ec354dc	0.3815068
73	0xbee49d70	-0.44651365
74	0xbf26117e	-0.6487044
75	0x3f15842a	0.5840479
76	0x3f107395	0.56426364
77	0x3f17fa2f	0.59366125
78	0x3e9b73a6	0.3036167
79	0x3e9d37fb	0.30706772
80	0xbee9d7ba	-0.456724
81	0x3f16f6e2	0.58970463
82	0x3f24a333	0.6431152
83	0xbf226ebf	-0.63450235
84	0x3f10e8ab	0.56605023
85	0xbf35e11c	-0.71046615
86	0xbee50774	-0.4473225
87	0x3f3b5ab4	0.73185277
88	0xbea09222	-0.3136149
89	0x3f181941	0.59413534
90	0x3ef14ac0	0.47127342
91	0x3efbba6d	0.4916567
92	0x3f2a8388	0.6660695
93	0xbf1bc87e	-0.608528
94	0x3ed26da0	0.41099262
95	0x3ec89be1	0.39181426
96	0x3f384eab	0.7199504
97	0xbf363121	-0.71168715
98	0xbf111cff	-0.5668487
99	0x3f28f4eb	0.65998715
100	0x3f285b13	0.6576397
101	0xbe9411d4	-0.28919852
102	0xbf32c39e	-0.6982974
103	0x3f14cb2d	0.5812252
104	0xbf3b9c5f	-0.7328548
105	0x3f25d9f3	0.6478569
106	0x3ec18772	0.3779865
107	0xbf069e88	-0.5258565
108	0xbef6ceff	-0.482048
109	0x3f097fd1	0.5371066
110	0xbf568c3d	-0.83807737
111	0x3f1ffbae	0.6249341
112	0x3e270aa4	0.16312653
113	0xbedb6386	-0.42849368
114	0xbf119ef4	-0.5688317
115	0x3f066453	0.5249683
116	0xbe796bcb	-0.24357526
117	0x3eb4d7e3	0.35320958
118	0xbf8246c8	-1.0177851
119	0xbec9e750	-0.3943429
120	0xbf3cda8d	-0.7377098
121	0xbf4b4444	-0.7940104
122	0x3ecb9e5a	0.3976925
123	0xbf45e284	-0.7729876
124	0x3f2999b8	0.6625018
125	0xbf258b7c	-0.6466596
126	0x3efa4c77	0.48886463
127	0x3f11bf64	0.56932664
128	0xbf462c64	-0.77411485
129	0xbe31c20d	-0.17359181
130	0xbeb03407	-0.34414694
131	0xbf2df98d	-0.6795891
132	0x3f1500c7	0.5820431
133	0xbe8b98ca	-0.27265006
134	0x3e993897	0.29925987
135	0xbf3592e5	-0.7092727
136	0x3eccfc82	0.40036398
137	0xbf854263	-1.0410885
138	0x3f0ff62e	0.56235015
139	0x3e890536	0.26761788
140	0xbf3ab944	-0.7293894
141	0xbef70c3b	-0.4825152
142	0x3f1b646d	0.6070011
143	0xbf202d1b	-0.62568825
144	0x3ebbb061	0.36658004
145	0xbf335804	-0.70056176
146	0x3ef0c548	0.47025514
147	0x3e994cf3	0.2994152
148	0xbf37da92	-0.71817887
149	0xbebfec26	-0.37484854
150	0xbf01bcec	-0.50678897
151	0x3f2feb8e	0.687188
152	0xbf1a952b	-0.6038386
153	0xbf2d429c	-0.6767976
154	0x3e9ef9e4	0.31050026
155	0x3ec04a56	0.37556714
156	0xbf0931dd	-0.5359171
157	0xbe7ee5b8	-0.24892318
158	0xbf1de65b	-0.6167962
159	0x3e850b91	0.25985387
160	0x3f1e605a	0.6186577
161	0x3eeaa7c0	0.45831108
162	0x3f03246e	0.5122746
163	0xbf2234cc	-0.6336181
164	0x3ed5fdc6	0.41795176
165	0xbf4125e6	-0.75448453
166	0xbf16518c	-0.5871818
167	0xbf4852e1	-0.78251463
168	0x3f009110	0.5022135
169	0x3ecb2f05	0.3968431
170	0x3f074114	0.52833676
171	0xbec2b009	-0.3802493
172	0xbf7991df	-0.97488207
173	0xbf3aa299	-0.72904354
174	0xbf264a91	-0.6495753
175	0x3ed35ba7	0.41280863
176	0x3e678aba	0.22611514
177	0xbf3461be	-0.7046164
178	0xbf35dd58	-0.7104087
179	0x3ecacf89	0.39611462
180	0x3edefcf4	0.43552363
181	0x3f16a094	0.5883877
182	0xbf3dfdf8	-0.7421565
183	0xbf1c59ae	-0.6107434
184	0xbf220ec6	-0.6330379
185	0xbf3894e4	-0.7210219
186	0x3f1d072a	0.61339056
187	0x3eb6b161	0.35682204
188	0xbf33a548	-0.70174074
189	0x3f355879	0.70838124
190	0x3f04a385	0.5181201
191	0x3edbbfbb	0.42919716
192	0x3f10b880	0.56531525
193	0xbf4ff05c	-0.81226134
194	0xbed2d93e	-0.41181368
195	0x3ef7ac1c	0.48373497
196	0x3f08553f	0.53255075
197	0x3f05e2fa	0.52299464
198	0x3ec60145	0.38672844
199	0x3f16107b	0.586189
200	0x3f18ba35	0.5965913
201	0xbf568d14	-0.8380902
202	0x3f0bdf0c	0.5463722
203	0xbf24b098	-0.6433196
204	0x3f059504	0.52180505
205	0x3efe81c9	0.49708393
206	0x3e87cadc	0.26521957
207	0xbf727226	-0.94705427
208	0xbf3e09cc	-0.742337
209	0xbf226cf3	-0.63447493
210	0x3f018dc5	0.5060695
211	0x3f1b59b5	0.6068376
212	0xbf343eef	-0.7040853
213	0xbef8fd53	-0.4863077
214	0xbe9d7425	-0.30752674
215	0x3e9b52d7	0.3033664
216	0xbf2bf098	-0.6716399
217	0x3ee8c627	0.45463678
218	0xbf2cc2a3	-0.6748449
219	0x3f47b5e2	0.78011906
220	0xbf1032b1	-0.5632735
221	0x3f0aeb55	0.5426534
222	0x3f06b5a8	0.52620935
223	0xbe86530a	-0.2623523
224	0x3ef4003f	0.47656438
225	0xbefb9ce6	-0.49143142
226	0xbeb50aff	-0.35359952
227	0x3ee31a80	0.44356155
228	0x3f10c933	0.56557006
229	0xbf01fa37	-0.5077242
230	0xbf78b950	-0.97157764
231	0x3eef77df	0.46771142
232	0xbf534e43	-0.8254129
233	0xbf0cfa4a	-0.5506941
234	0xbf26122e	-0.6487149
235	0x3f1dbd2b	0.6161677
236	0xbf0dc071	-0.5537177
237	0x3f08c932	0.53432
238	0xbf092510	-0.5357218
239	0x3ec4f350	0.38466883
240	0xbf2fb107	-0.686295
241	0xbf32b961	-0.69814116
242	0xbf1cfded	-0.6132496
243	0x3f140158	0.5781455
244	0xbf624ddb	-0.8840005
245	0x3f0c7b26	0.5487541
246	0xbecf67d0	-0.4050889
247	0xbf32a2a5	-0.69779426
248	0xbf2ed7c7	-0.68298
249	0xbf1a1b5d	-0.60198003
250	0xbf2f61fd	-0.68508893
251	0x3f0e0f52	0.55492127
252	0xbf44b862	-0.76843846
253	0x3ef975ae	0.48722595
254	0xbf536951	-0.82582575
255	0xbf720382	-0.945366
