active_slam_rl/training_output_no_slam/20260128_030605/d3qn_ep750.pth (torch, 901794 bytes, 11 tensors)

feature.0.weight f4 [256, 100]
000000 0f ea 51 bd ec 48 08 be 42 38 e4 bd 78 5a ca bc
       -0.051248606 -0.13309067 -0.11143543 -0.024701342
000010 d5 ff f4 bd 8b 16 2d be cf 70 80 bc 52 ec 3f be
       -0.119628586 -0.1690313 -0.015678791 -0.18742493
000020 a0 ce 65 3c 12 0f 69 be 12 f9 2c be 84 c0 ac bd
       0.014026314 -0.22759655 -0.16891888 -0.08435157
000030 2e 37 3d be 9c 5c 45 bd 39 fe 95 bd af 53 3d be
       -0.1847808 -0.048184022 -0.0732388 -0.18488954
000040 13 9f cb bd e1 b0 8c be c3 9b 2e be e1 64 ca bd
       -0.099424504 -0.27478698 -0.17051606 -0.098825224
000050 d3 4f 79 bd e9 91 0c be f8 f2 ca bd a8 65 e7 3d
       -0.060867142 -0.13727535 -0.09909624 0.11298686
000060 45 f6 93 bd ac f0 23 be ae 2d 42 bd 67 b5 cc bd
       -0.072247066 -0.16009778 -0.047406845 -0.09995537
000070 6c 29 59 bb f7 aa d3 bd 5e b4 80 bd 73 97 3c bd
       -0.0033136262 -0.10335343 -0.06284402 -0.04604287
000080 bf 50 54 3b 0b 80 d3 bc 8c 4e 83 bc 30 36 32 bd
       0.0032396761 -0.025817892 -0.016028665 -0.04350871
000090 e9 cc 3a 3c a4 0a 06 be 01 ed 8c bd d6 f1 e5 bc
       0.011401393 -0.13089997 -0.068811424 -0.028069418
0000a0 db f2 9b bd 6f 76 2f be db 59 c6 bc 1d 88 fb bd
       -0.076146804 -0.17135023 -0.024212768 -0.12281821
0000b0 23 ed 32 be 1c 10 07 be 1c 50 49 be 83 bd 2e be
       -0.17473273 -0.13189739 -0.19659466 -0.1706448
0000c0 b1 9d 46 bd 9b 13 1e be 21 dc 00 3d 29 06 01 3e
       -0.04849023 -0.15437166 0.03145993 0.12600006
0000d0 35 77 ec 3c ea 8e ed 3d 16 ce 45 bd 03 3f d6 3a
       0.028865436 0.11599524 -0.048292242 0.0016345683
0000e0 5a 93 00 bd 99 9f 18 be 2d cd a1 bd 53 f7 4e bd
       -0.031390525 -0.14904632 -0.07900462 -0.050528836
0000f0 fd 50 08 bd da c2 57 bd f6 79 f6 bd 22 1c d1 bd
       -0.03328036 -0.05267606 -0.12034981 -0.10210444
000100 98 7b 2f be 41 23 1e be fd db 03 be fe fe 1d be
       -0.17136991 -0.15443136 -0.12876888 -0.15429303
000110 2b 2d 94 bd 89 39 e4 3d d8 53 df 3d c8 ef 0f 3e
       -0.072351776 0.111437865 0.10904664 0.14056313
000120 93 f8 47 3d e4 da 70 3d 6a 6c 03 3b c5 5f 20 be
       0.048821043 0.0588025 0.0020053633 -0.15661533
000130 51 8a 22 3c 27 53 1c be 9f e1 09 3e ab 49 3f 3c
       0.0099206725 -0.15266095 0.13464974 0.011675279
000140 c5 a7 55 3d ef 97 c8 bd 44 1f 95 bc 7f 8d 43 bd
       0.05216195 -0.09794604 -0.018203385 -0.047742363
000150 5c 50 6c bd 55 74 0e be e6 6e 08 be d0 c1 c7 bd
       -0.057693824 -0.13911565 -0.13323554 -0.09753764
000160 3a 02 4a bc 54 c0 c9 bc 81 0a 49 3d a7 bf 76 ba
       -0.012329632 -0.024627842 0.049082283 -0.00094127137
000170 be b8 21 3d 8b c7 ca bc d0 6a 8d bb ec 21 da 3b
       0.039482825 -0.024753353 -0.0043157116 0.006656876
000180 52 20 9f bd 9c 0f 17 be af 0e e1 bd 8c 93 66 be
       -0.077698365 -0.14752048 -0.10989129 -0.22517222
000190 98 4a b1 3d da 7c 73 bc 4e 00 f7 3d 06 fd e8 3d
       0.08656806 -0.01486131 0.12060605 0.113763854
0001a0 a9 81 b4 3c 51 aa 8d 3d 88 46 22 3e ee 41 05 3e
       0.022034483 0.06917251 0.15847218 0.13013431
0001b0 4e bf 82 bb 72 88 3e bd 2b 6a 94 bd 02 e8 cb bc
       -0.0039900905 -0.046516843 -0.072468124 -0.024890903
0001c0 2a f4 b5 3c f7 78 2e bd ce 8d 51 3d 46 b8 99 bd
       0.022211153 -0.04259583 0.051160626 -0.075058505
0001d0 a4 59 d3 3c 7f 44 43 3d 7d 65 99 3c 18 6a 53 bd
       0.02579958 0.047672745 0.018725151 -0.05161485
0001e0 38 7a 9c bd 27 51 20 be f7 ec 24 be ab 53 e9 bc
       -0.07640499 -0.15655957 -0.1610602 -0.028482279
0001f0 5d 2b 17 be 69 da b9 bd c7 4d 84 be d4 f3 a1 be
       -0.14762636 -0.090748616 -0.2584059 -0.3163134
000200 f5 b1 c9 bd 92 cd 80 be f2 ed 28 be 04 f1 80 be
       -0.09848396 -0.25156838 -0.16497019 -0.2518388
000210 ef 1d 5d be aa 31 aa be 88 28 d1 be 39 0a b1 be
       -0.2159345 -0.33241016 -0.40851235 -0.34578112
000220 69 a2 ae be 13 3b 9c be cf 40 a4 be 69 b7 14 bf
       -0.34108284 -0.3051382 -0.32080695 -0.5809236
000230 67 c5 86 be a6 4e 02 bf 4f fc 09 bf c5 96 cd be
       -0.2632248 -0.5090126 -0.5390062 -0.4015409
000240 1f aa e6 be df 6d ef be 55 0b 29 bf de 19 ff be
       -0.45051667 -0.46763512 -0.66032916 -0.49824423
000250 ca 09 08 bf 31 09 07 bf f7 31 ec be e5 ff 06 bf
       -0.53139937 -0.527484 -0.4613187 -0.52734214
000260 3b dd c4 be 90 c8 75 be 0a d9 05 be 4a 06 f9 bd
       -0.38450035 -0.2400229 -0.13071075 -0.12159403
000270 17 68 9d 3d 8f f4 97 bd 9e 77 25 3e 23 20 0b 3e
       0.07685869 -0.07419693 0.16158912 0.13586478
000280 c6 67 1d 3d 6d f6 03 3d 83 68 10 3d f1 8f 88 3c
       0.038429044 0.03221743 0.03525592 0.0166702
000290 b9 b0 92 3d 1e 6b 6d 3d 94 ef c5 3d fb 5e 1c 3e
       0.071626134 0.057963483 0.096648365 0.15270607
0002a0 66 bc e0 3d 1f 15 81 3b 94 ae 66 3e 33 f2 cd 3d
       0.10973434 0.0039392854 0.22527534 0.100559615
0002b0 ba df 2d 3d 97 33 44 bd bd 73 bd bd 05 6f 98 bd
       0.04244969 -0.047900762 -0.09250591 -0.0744305
0002c0 09 11 92 3c 2b c8 17 be db ee 2d bd 26 8b bc bb
       0.017830389 -0.14822452 -0.04246412 -0.0057538925
0002d0 8d 11 57 bd 46 17 34 bd 21 b2 e3 bd dd d7 1a 3d
       -0.052506972 -0.043967508 -0.1111796 0.03780352
0002e0 67 51 72 bd d1 7a d8 3c 54 db a8 39 c1 37 c5 bd
       -0.059159663 0.02642575 0.0003220687 -0.09629775
0002f0 82 f7 e3 bd 0a e2 df bc cf 66 95 3d 6c 59 10 bd
       -0.11131193 -0.027329464 0.07295 -0.03524153
000300 e9 cf 97 bd 20 e5 94 3c 7a 38 e4 bd 52 3d 0d 3d
       -0.074127026 0.018175662 -0.111435845 0.034482308
000310 53 3d c7 bd c4 9b c1 bd c0 5d 1c bc f4 e8 59 be
       -0.097284935 -0.09453538 -0.009543836 -0.21280271
000320 a9 9c 08 bf 74 29 0f bf 54 5b 0d bf f6 65 ef be
       -0.53364044 -0.5592263 -0.5521748 -0.46757478
000330 d5 9d 22 bf 0c 49 0a bf 3d ff 0b bf 4c 57 12 bf
       -0.6352208 -0.5401771 -0.5468634 -0.57164454
000340 8c 5f 17 bf b0 ab 1a bf 5a 70 f6 be 29 4d e4 be
       -0.5913017 -0.60418224 -0.48132592 -0.4459012
000350 fa 56 17 bf e2 0f 0c bf 88 af 0e bf 98 c4 33 bf
       -0.5911709 -0.54711735 -0.5573659 -0.70221853
000360 94 f5 3b bf b8 29 3b bf 00 96 2d bf 0c 02 2e bf
       -0.734216 -0.7311053 -0.67807007 -0.67971873
000370 d6 cc 44 bf bf 2e 67 bd 7d 10 20 3e d3 7d ec 3d
       -0.76875055 -0.056441065 0.1563129 0.115474366
000380 fb f7 ed 3d 40 7c 9b 3d ce da c0 bc a1 75 2e 3e
       0.11619564 0.07592058 -0.023541834 0.1703706
000390 55 16 19 3e 43 a8 50 3c a4 6a 89 bd cc 64 3a bd
       0.14949925 0.012735429 -0.06709793 -0.045506284
0003a0 6a 27 a3 bd 2e 0f 51 3d 34 d6 25 be 8a db 84 3c
       -0.07966502 0.051039867 -0.16194993 0.016217966
0003b0 4d 51 9b bd 89 57 46 be 48 f3 99 bd 7c eb 93 bd
       -0.07583866 -0.1936933 -0.07517105 -0.072226495
0003c0 4d 10 25 be 41 df 91 be df d9 46 be d2 ac 8d be
       -0.161195 -0.28490642 -0.19419049 -0.27670914
0003d0 ae eb 35 be 22 22 3d be e4 1e e6 bd 43 38 6d bd
       -0.17765686 -0.18470052 -0.11236361 -0.057914983
0003e0 b1 f8 23 be 9d b5 47 be 92 5b e3 bd 16 c0 06 bd
       -0.16012837 -0.19502874 -0.1110145 -0.03289803
0003f0 2e d7 5b bd 90 bc 12 bd 5b 34 dc bd d0 27 c4 bd
       -0.05367201 -0.03582436 -0.107521735 -0.09577906

feature.0.bias f4 [256]
000000 0a cc 01 3e 0e df 6d bc 71 1e f5 bd fc 9f 85 bd
       0.12675491 -0.014518512 -0.11968697 -0.06524655
000010 cf 0a 02 3f 7c f0 d3 3e e2 e9 cc bc 9a 2b e4 be
       0.5079774 0.41394413 -0.025013868 -0.44564515
000020 23 74 46 3e 60 f9 db 3e f7 e5 16 bf 18 9c cb 3e
       0.1938024 0.42963696 -0.5894465 0.39767528
000030 40 f2 e2 bd ca de 97 3e 46 21 f4 3e a0 3e 83 bd
       -0.11081362 0.29662162 0.47681636 -0.06408429
000040 ee c4 b2 3d 0f 36 27 3f 09 88 d0 3d 39 80 e5 be
       0.087289676 0.6531686 0.10182197 -0.4482439
000050 f3 f4 f4 bc c9 b5 31 3f 38 11 25 3e e8 34 2b 3e
       -0.029901957 0.6941801 0.1611985 0.16719401
000060 dc ae 97 3e de 36 4f 3d 74 41 48 be f4 79 74 be
       0.29625595 0.050589435 -0.19556218 -0.23874646
000070 49 75 45 3f 6f 84 e4 3e 66 58 45 3d 5c ce 20 3f
       0.7713209 0.4463229 0.048180006 0.6281488
000080 39 65 f0 3e dc 10 bf bd 25 61 d2 3e 16 bf 33 3d
       0.46952227 -0.093293875 0.4108974 0.043883406
000090 67 76 0f 3e 2e 55 c6 be 55 90 42 be 45 02 25 3e
       0.1401001 -0.38736862 -0.19000371 0.16114147
0000a0 70 84 93 3e 26 32 80 3e 61 07 f8 3e bd a7 de 3d
       0.2881198 0.2503826 0.4844313 0.10871837
0000b0 7c b4 fe 3d 27 e5 d0 3e 90 dd 4d 3e 40 60 51 be
       0.124367684 0.4079983 0.2010405 -0.20446873
0000c0 cf bc ab b9 ac bc ee 3e f9 64 04 bf 72 e0 c0 3e
       -0.00032756335 0.4662832 -0.5171657 0.37671238
0000d0 99 b3 3d 3e e6 68 9b be bc 86 c9 3d 2e eb 05 3f
       0.18525542 -0.3035347 0.09840152 0.5231198
0000e0 e5 4b 9f 3e 04 90 e1 bc 49 35 b4 be a4 87 33 be
       0.3111259 -0.027534492 -0.35196903 -0.17532212
0000f0 24 38 e4 3e 46 1a dd be 74 0a d2 3e 63 57 04 3e
       0.44574082 -0.43184108 0.410236 0.1292396
000100 ce 12 85 3e 5c 93 f6 3d 01 3f 45 3e 35 d7 ce 3e
       0.2599091 0.12039825 0.19262315 0.40398565
000110 11 22 b4 3e b0 54 8b 3d e1 c2 88 3e 24 55 d6 3e
       0.3518224 0.06803262 0.2671118 0.41861832
000120 d1 6a 7c 3e f7 e6 de 3c e5 75 b5 3e 55 24 41 3e
       0.24650122 0.027209742 0.3544151 0.18861516
000130 97 bb 15 bf 8d 9d 88 3e 38 ee c5 bd e7 5f dd bc
       -0.58489364 0.26682702 -0.09664577 -0.027023269
000140 98 92 dd 3e d9 42 a5 3e 1f 1b 4f 3d ef 38 10 be
       0.43275905 0.32277563 0.050562974 -0.14084218
000150 92 bb 0e 3f 9d 94 7b 3e 5d 6c 4a 3e ff cf 13 bf
       0.5575496 0.2456841 0.197679 -0.5773925
000160 69 50 b6 3e 46 66 27 3f 62 6b d7 be 11 83 28 3e
       0.35608223 0.6539043 -0.42074114 0.16456248
000170 cd ab 91 3e 3b 23 07 bf 86 87 d7 be 47 ef 95 3e
       0.28451386 -0.5278813 -0.42095584 0.29284117
000180 fb f7 9b be 1c aa 93 3d e2 f6 13 3f b2 87 ef be
       -0.30462632 0.0721018 0.5779859 -0.46783215
000190 9b bf ce 3e 5b 97 1c bf df 68 05 bf 8e 1e 0c 3f
       0.40380558 -0.6116845 -0.52113146 0.5473412
0001a0 d0 35 04 3f 5a b5 4f 3e 60 6e 0e bf 8d cb b5 3e
       0.5164461 0.20284024 -0.5563717 0.3550686
0001b0 f8 35 34 bd 0e 0f e0 3e 1a 7e 8a 3e b0 da 14 3e
       -0.04399678 0.43761486 0.27049333 0.14536548
0001c0 f9 48 2b 3e c1 8f 99 be a6 34 7f 3e 25 e3 f4 be
       0.16727056 -0.29992488 0.24922428 -0.47829548
0001d0 e4 46 06 3e 83 0f ab 3e aa 8e 90 3e c4 5f d3 3e
       0.1311298 0.33410272 0.28233844 0.41284
0001e0 2d 44 7d 3e 90 11 f4 3e 61 52 9f 3e a6 67 f8 3d
       0.24733038 0.4766965 0.31117538 0.12129144
0001f0 e6 13 6c be ea 46 c7 3d 4b 17 59 3e 36 46 cf 3e
       -0.23054466 0.09730323 0.21200292 0.40483254
000200 a4 26 96 3e 1d fd 2a bd 02 7b 5d 3e 42 6a a1 3e
       0.29326355 -0.041745294 0.21628955 0.3152638
000210 23 6b 2d bf c8 4e a0 3e 31 78 4d 3e 57 a3 15 3f
       -0.677416 0.31310105 0.2006538 0.5845236
000220 20 83 99 3e 61 c3 9f 3e 1b 36 14 3e fe d4 db bc
       0.29982853 0.3120375 0.14473765 -0.026834961
000230 82 30 26 bf 1c d9 ea be 8d d8 03 bf 0b 14 3e 3e
       -0.6491777 -0.45868766 -0.51502305 0.18562333
000240 6e 0d 93 3e 57 dd 1e 3f c7 23 24 bf 82 d0 fa 3e
       0.28721184 0.6205649 -0.6411709 0.48987204
000250 15 78 31 be 87 47 b1 be fb 0c 50 3e 85 bd 5f 3e
       -0.17330964 -0.34624884 0.20317452 0.2184964
000260 6d 23 b9 3c 7a 93 fb be 2a 05 5a 3e a3 b7 9e 3e
       0.0225999 -0.49135953 0.21291032 0.3099948
000270 fb c5 57 3e 12 19 12 3b ac 5b 84 3e c3 c2 43 be
       0.21071617 0.0022292775 0.2585119 -0.19117264
000280 2c 85 86 3e 68 c6 0b bf ca 02 9a 3d 61 90 bb bc
       0.26273477 -0.5459962 0.07520063 -0.022895994
000290 08 ec 28 3d 58 05 59 3e 85 45 33 be 7b dc 05 3f
       0.041240722 0.21193445 -0.17506988 0.5228955
0002a0 c0 22 10 bf bf ea 6e 3d 72 54 af be 30 0d bc 3e
       -0.56303024 0.05832934 -0.34244114 0.3672881
0002b0 aa 93 d5 be f3 a7 7a 3e f9 50 6b 3e 1b f9 10 3e
       -0.4171422 0.2447813 0.22980107 0.14157526
0002c0 2e 79 35 3e 84 3b e0 be 89 24 01 3e 30 77 b0 be
       0.17722008 -0.43795407 0.12611593 -0.34465933
0002d0 93 f1 99 be b7 c5 69 3c 52 e8 0d bf 68 e3 88 3e
       -0.3006712 0.01426833 -0.5543262 0.26735997
0002e0 23 43 56 3d 57 63 09 be 4d b5 07 3f 0d 97 9e 3e
       0.05231012 -0.13416801 0.5301102 0.30974618
0002f0 37 4c e8 3e 94 cc 03 3f 2d d4 64 be 79 01 5e be
       0.45370647 0.51484036 -0.22346564 -0.2168025
000300 cb 2b b3 3e c3 af 72 be 69 6d fc 3c 06 21 59 3d
       0.3499435 -0.2369986 0.03081389 0.05301001
000310 5e b1 a3 be f0 25 eb 3e dd 32 8f bd df 7c 54 be
       -0.31971258 0.45927382 -0.06992123 -0.2075076
000320 34 b8 df 3d b3 cb 6c 3e fd 96 b3 3e a7 ff 6f 3e
       0.10923806 0.2312458 0.35076132 0.23437367
000330 e8 34 c3 be 9d 18 58 3e 39 93 ed 3d 06 01 19 3e
       -0.38126302 0.21103139 0.11600346 0.14941797
000340 65 ad b8 3e 46 20 8f 3e 41 f5 87 3e 8c 85 81 be
       0.3606979 0.2795431 0.265543 -0.252972
000350 7b bf b5 3e cf fb 33 3e d4 ce 14 bf 9a a2 ec bd
       0.3549765 0.17576526 -0.58128095 -0.11554451
000360 50 c8 98 bd 89 a1 11 3f d6 6c 50 3e cd c1 23 bf
       -0.074600816 0.5688711 0.20354018 -0.6396759
000370 e1 1b 87 bd 66 73 c9 be 65 2f cd be 57 9e 77 bd
       -0.06597114 -0.39345855 -0.40075222 -0.06045374
000380 be af b0 be 86 30 89 be 24 4a 7b 3d 7d 96 1c 3e
       -0.3450908 -0.26794833 0.061350003 0.15291782
000390 88 5f fe bd 45 54 0b 3e 8f 93 60 bc d3 73 9c b9
       -0.12420565 0.13606365 -0.013707056 -0.00029840934
0003a0 b6 4e 54 3d 48 35 6a 3e f4 fb ec 3e 0b d9 40 3d
       0.051832877 0.22871888 0.46285975 0.04708199
0003b0 1d a0 f4 be 58 74 d3 be a2 5a c4 3e da 00 d9 3e
       -0.47778407 -0.412997 0.38350397 0.42383462
0003c0 ca f2 cc bc d5 0f e7 be 32 aa bc 3e 5c b9 8d 3d
       -0.025018115 -0.45129266 0.368486 0.0692012
0003d0 fb 5e 52 3e 67 b1 c1 3e 57 e2 bd 3d c5 5f b5 3e
       0.20544045 0.3783066 0.092716865 0.3542463
0003e0 b0 d9 e0 3d 78 2b c5 3e 64 10 00 bf 6b 5c 01 3d
       0.109790206 0.38509727 -0.5002501 0.031582277
0003f0 31 da 6c 3e 9a 06 f7 3d 0a d0 0f 3e 58 e8 06 bc
       0.23130108 0.12061806 0.14044204 -0.008234106

feature.2.weight f4 [256, 256]
000000 9b 78 b1 3e da f4 f0 3e 6b a4 60 3e 70 2e 40 bd
       0.34662327 0.47061807 0.2193772 -0.046919286
000010 03 9d c9 3e 28 45 b7 3d 56 ff 25 bd f1 a7 a4 bc
       0.39377603 0.089487374 -0.04052671 -0.020099612
000020 02 23 23 3d b2 86 20 3e e8 c7 ae 3c ec b9 2a be
       0.039828308 0.15676382 0.021335557 -0.16672486
000030 3d 75 32 bc 6e 32 8c 3d 7a 7f 89 bd 94 bf 4c 3c
       -0.01089221 0.06845556 -0.06713767 0.012496848
000040 54 1b 09 3f 7a e1 6b 3e 60 3e f9 3e 0e cf 09 3e
       0.53557324 0.23035231 0.486804 0.13457891
000050 2a 9f 64 3e 48 b3 8c bd b1 8d 1e be 93 3f 35 bd
       0.22326341 -0.06870133 -0.15483738 -0.044250082
000060 5c e7 88 bd d7 30 31 3e e5 e5 01 3d 85 cb a6 bd
       -0.06684753 0.17303787 0.031713385 -0.08144287
000070 5e 32 3c 3d f5 a5 b6 be f0 7b ec be 38 35 b9 bd
       0.04594647 -0.3567349 -0.46188307 -0.09043354
000080 3d 16 ee bd 20 c9 d8 3d 41 da bd bc c7 af ce 3d
       -0.11625335 0.105852365 -0.02317536 0.100921206
000090 5c b8 d3 bb b9 2a 56 bd 55 15 6c be fb bb 7b 3e
       -0.0064611863 -0.052286837 -0.23055013 0.24583428
0000a0 b0 ef f5 3c e9 c0 b7 3e 61 0d 97 bd 91 72 8d 3d
       0.030021518 0.35889366 -0.07375599 0.069066174
0000b0 e5 af 15 3c 6f 3d 0d 3e a4 ef aa bd ff 9e 7a 3e
       0.009136175 0.13792966 -0.08346489 0.24474715
0000c0 fc 17 a2 3e cc 63 aa 3d e6 3e b0 3d 7c 81 e1 3d
       0.31658924 0.08319816 0.08605747 0.11011025
0000d0 a9 0f d9 bc 7a d9 18 be 6e f0 5c 3e d6 40 b4 3d
       -0.026496725 -0.1492671 0.21576092 0.08801429
0000e0 12 e9 c3 3d 5c ff ff bd e2 65 9d bd 68 43 2c be
       0.09565939 -0.12499878 -0.07685448 -0.16822588
0000f0 00 29 70 be 5d e7 b3 3e a9 08 c4 bc 1c d0 a1 be
       -0.2345314 0.35137454 -0.02392991 -0.31604087
000100 5d 0a bb bc b3 22 63 bd be f5 9e be 99 47 f3 3d
       -0.02283209 -0.055453014 -0.3104686 0.118788905
000110 03 4b e8 bd 40 22 f3 3e 81 19 23 ba c4 73 44 be
       -0.11342432 0.47487068 -0.0006221757 -0.19184786
000120 d4 1f 38 3e 4f ed 9d bd 33 87 89 bd 68 9d fc bd
       0.17980891 -0.07711279 -0.0671524 -0.1233471
000130 d0 2a f0 3c ce 97 a4 39 4c 33 df bb b8 b1 24 be
       0.02931729 0.0003139362 -0.006811535 -0.1608342
000140 a2 b6 10 be da da c8 3e 07 4e 92 3e a0 df 8c bd
       -0.14132169 0.3922947 0.28575155 -0.068785906
000150 e7 33 82 3c 4c de 22 be db 21 42 3e 5e 1c f6 3c
       0.01589389 -0.15905112 0.18958227 0.030042823
000160 30 89 a3 bd c5 22 90 3d 25 f2 52 3e b0 a4 ca 3d
       -0.07985151 0.07037882 0.20600183 0.09894693
000170 cc 5b 85 3e 8c 8f 5b be 0b 2d 94 3d b7 01 8b 3e
       0.26046598 -0.21441478 0.07235154 0.27149746
000180 70 51 ae bd 95 50 92 3d 0f 89 87 3b 15 58 27 bd
       -0.08511627 0.07144276 0.0041362117 -0.040855486
000190 3f e5 45 bd 07 e6 02 be 3e c1 ef bb 66 70 7c be
       -0.04831433 -0.12783061 -0.0073167374 -0.24652252
0001a0 87 cc c3 bd 39 ae b5 3e c5 fc 97 bc d5 3a 06 3e
       -0.09560495 0.35484484 -0.018553147 0.1310838
0001b0 fe 6d c1 3c 2f 31 96 3b f0 74 69 3e 4f 12 5f 3c
       0.023612019 0.0045835 0.22798514 0.013615205
0001c0 20 7d b4 bd 20 64 ec 3c f6 d4 a6 3d 94 74 06 be
       -0.08812928 0.028856337 0.08146088 -0.13130409
0001d0 fc 97 36 bb c9 fb f2 bd d2 26 91 3c 98 14 a3 be
       -0.0027861586 -0.118644305 0.017718706 -0.3185165
0001e0 3d dc 39 be 97 31 93 3c fb 36 0a 3e a1 71 9e 3c
       -0.1815042 0.017967982 0.13497536 0.019341292
0001f0 50 0a 54 3e 70 a7 9f be 96 26 1a 3e 57 32 19 be
       0.20707059 -0.31182432 0.15053782 -0.1496061
000200 0c 3d c6 3e c9 70 62 3e cf 8c b3 be a9 04 69 bc
       0.3871845 0.22113337 -0.35068366 -0.0142223025
000210 98 45 28 3d 18 6b 24 3e 4d 56 9e bd 39 aa e2 bd
       0.041081995 0.16056478 -0.07731304 -0.11067624
000220 75 8f b2 3d de 39 eb 3c 99 85 70 bd 9c ca 14 bd
       0.087187685 0.028714117 -0.05872116 -0.036326036
000230 7b 5f a6 3c 2b 78 26 3f 75 6c fd 3b c0 36 63 3d
       0.0203092 0.6502711 0.0077338764 0.055472136
000240 89 cc ab 3e 31 f2 bd 3d 1e 45 11 3e 92 01 53 3c
       0.33554485 0.0927471 0.14186522 0.012878792
000250 fb 68 ce 3d 38 b5 df bb 60 19 98 be d7 c6 c7 3c
       0.10078617 -0.006827023 -0.2970686 0.024386806
000260 a2 a6 78 3e bd ad 5e 3d b0 38 e8 bd 08 23 a7 bd
       0.24282315 0.05436491 -0.11338937 -0.081609786
000270 d5 c5 24 bd da f0 66 3e ba 24 42 be 1d cb 27 3e
       -0.04022773 0.22552815 -0.18959323 0.16386075
000280 46 25 62 3d 85 2d f4 bd 23 c0 91 3e 17 6e 17 3e
       0.055211328 -0.11922745 0.284669 0.1478809
000290 44 22 0e be 25 bc d1 bd 5f 2f 99 be 07 c0 d5 bd
       -0.13880259 -0.10240964 -0.29918954 -0.10437017
0002a0 65 84 c1 3d 45 38 27 3e ac c8 14 3e f1 53 7b be
       0.094490804 0.16330059 0.14529675 -0.2454374
0002b0 27 34 db be e0 35 7c be 37 47 06 be 87 64 a4 3e
       -0.42813227 -0.24629927 -0.13113104 0.32107946
0002c0 ca 25 9c 3e e3 b6 c3 3d 9f a3 37 be 49 b4 89 3e
       0.3049758 0.09556367 -0.1793351 0.2689536
0002d0 f8 24 99 be b4 95 fd 3e 75 02 71 3d a0 00 84 bc
       -0.29911017 0.49528277 0.058840234 -0.01611358
0002e0 f0 c0 85 3e 09 77 d9 3d e4 9d 3d bd 02 7f cb bc
       0.26123762 0.10618407 -0.046293154 -0.024840835
0002f0 33 59 45 be 56 75 a7 3d 4b 75 ba bc 03 2f 86 3e
       -0.19272308 0.08176677 -0.022761008 0.26207742
000300 28 40 a8 bd 1c c7 c0 3d 22 d6 ac bd 53 da 14 3f
       -0.08215362 0.09412977 -0.0843928 0.58145636
000310 44 8e 85 3e cb 66 1a 3b 41 ca 56 3e fa a4 85 bc
       0.26085103 0.0023559805 0.20975591 -0.016314019
000320 11 4a a3 ba 77 ce 85 bd 85 25 9b 3c 55 99 0f 3e
       -0.0012457987 -0.06533521 0.01893879 0.14023335
000330 8a 49 bd 3d 61 72 99 3e 1f 14 45 3b 11 6b 47 be
       0.09242542 0.29970077 0.0030071808 -0.19474436
000340 59 86 00 3e c9 10 05 be 84 31 ad 3e da e7 0e 3e
       0.1255125 -0.12994684 0.3382684 0.13955632
000350 fd cd 8f bd 8c 41 46 3e 0c ac 0b 3d 85 85 86 be
       -0.07021711 0.19360942 0.034099624 -0.26273742
000360 7a ab 86 3e ae 13 d3 bd 28 62 a9 3d aa b3 13 3d
       0.263027 -0.10306488 0.08270675 0.036060013
000370 e7 a0 6d be 94 c3 12 be 4e 23 5c 3e 89 46 65 3e
       -0.2320591 -0.1433242 0.21497843 0.22390188
000380 e6 61 11 3d 99 c7 a9 be 4a ec 79 3e 50 60 cc 3e
       0.035493754 -0.33160093 0.24406543 0.3991723
000390 1a e9 bf 3d 02 b1 f0 be a8 32 d3 bd 42 f5 c2 3e
       0.093706325 -0.47010046 -0.10312396 0.38077742
0003a0 4f 1a 3b 3e 4c 85 09 3d c3 0d 3a 3e 1f 02 f3 bd
       0.18271755 0.033574387 0.18169312 -0.11865639
0003b0 1d 07 35 3e f5 cf 8f 3c ca 91 81 bc f1 72 f3 bd
       0.17678495 0.017555216 -0.015816588 -0.11887158
0003c0 e5 71 a6 3e 10 e9 ac bc e8 a2 8e bd b0 bc 96 be
       0.3250877 -0.021107227 -0.06964666 -0.29440832
0003d0 85 b8 6d be 98 2f b4 3d 2b 8d 89 be 07 77 e2 3d
       -0.2321492 0.0879814 -0.26865515 0.11057859
0003e0 03 c3 24 3e 96 49 5e 3e 7d 3e 63 bd 96 46 be bc
       0.16090016 0.21707758 -0.055479515 -0.023227017
0003f0 70 e2 c6 bb 21 ca 99 3e 92 32 30 3e bd 2b 96 3e
       -0.006069474 0.30037025 0.17206791 0.29330245

feature.2.bias f4 [256]
000000 d2 aa 52 bd ba 4f 61 3e e8 01 55 be 28 68 cc bc
       -0.05143244 0.2200307 -0.20801508 -0.02495201
000010 95 29 17 bd fa 0a 2a 3e 14 83 5a 3e f1 35 bf be
       -0.03690489 0.1660575 0.21339065 -0.37345842
000020 7f eb 79 3e 8c 14 9c bd 65 49 6c 3e 33 21 20 3e
       0.24406241 -0.076211065 0.23074873 0.15637664
000030 3f 12 60 3c 95 aa 68 3e 02 3e 2e 3e f5 88 e6 3d
       0.013676225 0.22721322 0.17015842 0.11256591
000040 20 69 3c bd f7 7c fe 3e a5 ac 73 3e f4 d9 3c 3e
       -0.045998693 0.49704716 0.23796327 0.18442518
000050 c4 e3 d7 bc 42 b3 80 3e 9f 57 24 be 91 b7 58 bd
       -0.026353724 0.25136763 -0.1604905 -0.052909438
000060 65 92 01 be f2 39 f6 3d c1 68 f0 3d de 23 1f bd
       -0.12653501 0.12022771 0.1173873 -0.038852565
000070 b3 1e eb 3e 01 17 38 bd 3e dd e9 3d c4 37 57 3d
       0.4592186 -0.044943813 0.11419152 0.052543417
000080 2b 55 08 3d 6c 24 6d 3e dd fe 39 3e 1d 83 c6 3d
       0.033284348 0.23158425 0.18163629 0.096929766
000090 9f 7c 54 3c 4d 59 cb 3e 8b 6f 18 bd 58 36 b9 bb
       0.012969165 0.3971657 -0.03721575 -0.0056522302
0000a0 15 ae 38 be ae 67 fd bd c1 04 11 bc 21 c9 f1 be
       -0.18035157 -0.12373291 -0.008851231 -0.47223762
0000b0 f1 ea 24 3e 72 ec 2a 3f ef 1a 5f 3d aa 8d 16 bd
       0.16105248 0.66767037 0.054469045 -0.036756195
0000c0 0d 6d 05 3f 3b 60 3c 3e d9 d2 a8 be 40 f2 42 3e
       0.52119523 0.18396084 -0.32973364 0.19037724
0000d0 14 b5 39 3e c9 f0 0f 3e cb b2 f8 be 1a 83 83 bd
       0.18135482 0.14056696 -0.48573908 -0.0642149
0000e0 0c b7 9b 3d ea d3 5a be be 2f ca 3d c7 be a2 3c
       0.07603273 -0.21369901 0.09872387 0.01986636
0000f0 19 c8 05 be e6 6b ba 3d bf 26 52 3c a0 28 27 3e
       -0.13064612 0.09102611 0.012826621 0.16324091
000100 1e ba 0a 3d a0 6a ac bd 9a 94 f8 3d 1a f8 c5 3d
       0.0338689 -0.084187746 0.121377185 0.09666462
000110 85 08 bf bb b0 17 63 be 51 a4 23 bd 77 22 6b be
       -0.005829873 -0.22177005 -0.039951626 -0.22962366
000120 3a 2f 59 3e 6a f2 2a 3e 0d 24 9a 3e f7 b2 02 3d
       0.21209422 0.16694036 0.3010563 0.031908955
000130 5b 45 d6 3d 35 66 14 3e 61 d1 8e 3d d3 29 86 3e
       0.10462447 0.14492114 0.069735296 0.26203784
000140 29 cf c9 bd 60 f8 82 3e 64 b6 df 3e e5 07 0c be
       -0.09853966 0.2558012 0.4369384 -0.13674887
000150 29 39 bb be 76 39 a4 3d c5 66 57 bc d1 15 1c be
       -0.36567047 0.08018772 -0.013147061 -0.15242697
000160 dc 5c 01 3d d1 cc 56 bc 5f e3 9b 3d e3 3d 0b 3f
       0.0315827 -0.0131103555 0.07611727 0.54391307
000170 15 72 cd bd 5b 71 04 be fd 0d 8f be a6 c2 f0 3d
       -0.10031525 -0.12933867 -0.2794036 0.11755876
000180 56 a5 01 bd be 77 40 bd df f6 1b bd 92 be a6 3d
       -0.031651817 -0.046989195 -0.03807723 0.08141817
000190 29 11 d6 bd d7 0e 4f 3e d8 af 44 3f 29 8d d6 bd
       -0.10452492 0.20220505 0.76830816 -0.10476143
0001a0 38 f1 e2 bc 24 cb 5d bd 6e 73 11 3e 8c d2 60 3e
       -0.027702913 -0.054148808 0.14204189 0.21955317
0001b0 8f 13 a2 3d 59 30 2e 3f 4f c2 84 3e 6a 6b a1 3e
       0.07913887 0.6804252 0.25929496 0.31527263
0001c0 a9 87 72 be 1a 02 1a 3e 3c e7 e1 bd 7c 18 e9 3d
       -0.23684563 0.15039864 -0.110304326 0.11381623
0001d0 d3 e1 12 3d df ce 2e 3c fb 28 04 3f 22 30 a1 3e
       0.035859894 0.010669439 0.5162503 0.31482035
0001e0 54 ac 09 3e ac 3c 83 3d 26 f3 98 bd f4 da c0 3d
       0.13444644 0.064080566 -0.07468252 0.09416762
0001f0 79 91 73 3e b6 37 cd 3d 6e 62 5a 3e e4 f6 80 be
       0.23785962 0.10020392 0.2132661 -0.25188363
000200 a8 df 41 3d 80 8d d6 3d 1b 3e 5b 3d 1a 74 0b 3f
       0.047332436 0.10476208 0.053526025 0.5447403
000210 f4 ae 73 be 64 d3 ce 3b 89 fd c8 3a 33 6d 66 3e
       -0.23797208 0.006311821 0.0015334348 0.22502594
000220 af 8d c9 3d 07 6f 37 3e 5d ab 04 be fa f9 c8 3d
       0.09841477 0.17913447 -0.12955995 0.09813304
000230 06 08 59 3e c7 51 5b be 91 67 d4 3d 68 04 c1 3e
       0.21194467 -0.21417914 0.10371316 0.37698674
000240 cf 37 30 be 98 50 d1 3d 56 75 b1 3d fa cd c8 3e
       -0.1720879 0.1022045 0.08664958 0.39219648
000250 fd f3 63 3e 28 e6 74 3e cd 57 43 3e 7e 0b b1 be
       0.22261043 0.23915923 0.19076462 -0.3457908
000260 fd 57 b1 be 29 94 24 3e e5 1f 3d 3d 42 6e c0 3c
       -0.34637442 0.16072144 0.046172995 0.023490075
000270 d9 5c c8 3d 14 90 0a 3f 28 ca da bd 53 a1 87 3e
       0.09783334 0.54126096 -0.106830895 0.26490268
000280 40 d8 a9 bb 80 04 93 3d 49 67 22 3e ae e9 64 3d
       -0.0051832497 0.07178593 0.15859713 0.055886917
000290 cd 89 24 3e 1b 11 05 3e 5f b4 2d 3e 4b 8e fa be
       0.16068192 0.12994806 0.16963337 -0.48936686
0002a0 6f bb 08 3e 89 89 60 be ab c0 11 3e 43 45 99 3c
       0.1335275 -0.21927465 0.14233653 0.018709784
0002b0 74 c2 ad bd a4 04 08 be 16 43 25 3f 25 13 8f bd
       -0.084843546 -0.1328302 0.6455549 -0.069860734
0002c0 fb 6c 0c 3f 93 69 80 be de 81 c0 3d b8 b3 af bd
       0.5485379 -0.25080547 0.0939977 -0.085792005
0002d0 34 e8 2f 3e 64 4f 88 3e 0f ff 5f bb 88 d0 0d 3f
       0.17178422 0.2662307 -0.0034179126 0.5539632
0002e0 9c 13 33 3e 11 aa 9c 3d b9 53 f8 3d 23 01 46 3e
       0.17487949 0.07649625 0.12125344 0.19336371
0002f0 99 5a 1b 3f 82 5f 2f 3f 9d 28 5b 3d 4e d6 84 3e
       0.60685116 0.6850511 0.05350553 0.25944752
000300 22 9d 2d 3e 06 46 e7 3d 55 0a 2c 3e 73 6e 9f 3d
       0.16954473 0.11292653 0.16800816 0.077847384
000310 6f 3d 52 bc 80 ec f0 3e db 75 20 bc f7 38 46 be
       -0.01283203 0.47055435 -0.009793724 -0.19357668
000320 4f 79 10 3f b6 62 a7 be 34 e3 4b 3e a5 d1 33 3e
       0.564351 -0.32692498 0.1991089 0.17560442
000330 39 19 bc 3e 1f 08 14 be 9e d6 2e 3f 82 3b 03 3e
       0.36737993 -0.14456223 0.6829623 0.12815669
000340 d6 cc 9f bc 10 a3 30 3e a7 82 97 bd 82 39 1d 3c
       -0.019506853 0.17249703 -0.07397967 0.00959623
000350 2f 07 1d 3e a0 cc 16 3e fa 5a 50 bc fb e4 08 3f
       0.15334772 0.14726496 -0.012717003 0.53474396
000360 7a 99 68 3d a8 2a cf 3d a0 86 53 be a3 af 8c 3e
       0.05678699 0.10115558 -0.20656824 0.2747775
000370 44 c1 44 3e 43 8b 03 3f de 7e 0f bd 0e ff 1d 3e
       0.1921435 0.5138437 -0.0350331 0.15429327
000380 c8 e5 01 3e 4c 08 27 3d 7a 52 3e 3e 36 a6 c7 3d
       0.12685311 0.040779397 0.1858615 0.09748499
000390 ce 77 9c 3d 75 78 b2 be 05 e5 9c 3d c1 0c 97 3c
       0.076400384 -0.34857526 0.076608695 0.018438699
0003a0 1f 4f f4 3d 46 97 a7 3d 4a e9 86 3e 06 2d 1b be
       0.11929154 0.0818315 0.2634986 -0.15153894
0003b0 a9 96 76 3d ec 3d a7 3e e3 6c 5c bd af 69 06 3e
       0.060202274 0.3266443 -0.05381478 0.13126253
0003c0 b7 e4 43 3e a6 0b 8c be c5 7c 4a 3d 46 44 80 bb
       0.19130217 -0.27352637 0.049435396 -0.003914389
0003d0 a7 97 14 3e 7c 57 5d bd 65 a3 0d 3e 4f 9a e1 bd
       0.14510976 -0.05403851 0.13831861 -0.1101576
0003e0 53 ed 0a bd ed 67 08 3e 62 c1 55 3e 35 1c 32 3f
       -0.033917736 0.13320895 0.20874551 0.6957429
0003f0 cf d0 8e bc fc f5 0c 3d b0 bb 38 be a3 4e 0e bd
       -0.017433552 0.034414276 -0.18040347 -0.034742963

value_stream.0.weight f4 [256, 256]
000000 26 4d ee bc ef fe 24 be 24 0e 48 bd 5b eb 70 be
       -0.029089522 -0.16112874 -0.04884161 -0.23527281
000010 a8 97 b2 bd 9d 9c 83 bd 0b 36 a0 be 34 e7 83 be
       -0.087203324 -0.06426356 -0.31291232 -0.2576233
000020 5e 91 b3 3d 33 ab fb 3d ec b9 fe 3b ec b4 cb bd
       0.08767961 0.12288513 0.0077736285 -0.099466175
000030 c1 c9 11 be 47 38 17 3e e1 e5 04 bf 7e 38 40 3c
       -0.1423712 0.14767562 -0.5191327 0.011732219
000040 e1 39 dd bd f4 66 0a bf ef 8c 85 3e b8 93 c2 be
       -0.10802055 -0.54063344 0.26084086 -0.38003325
000050 45 c1 53 3e a8 11 d1 bd 57 c0 7e bd 6f be 51 be
       0.20679195 -0.10208446 -0.06219515 -0.20482801
000060 ac 41 66 be 9a 33 45 be 6e e0 b7 bd e2 a0 b4 bd
       -0.2248599 -0.19257966 -0.089783534 -0.088197485
000070 ca 17 24 be 01 4a 0c bf 6b c1 14 be 2b af 3f 3d
       -0.160247 -0.5480042 -0.14526908 0.046797913
000080 02 c6 9f be 6f 52 b4 be 88 35 c9 bd 23 0e 25 be
       -0.31205755 -0.35219142 -0.098246634 -0.16118674
000090 05 22 27 be 78 93 7a be ed a9 de bc d4 48 ce 3d
       -0.16321571 -0.24470317 -0.027180636 0.100724846
0000a0 7b 27 17 be 8f 3c e6 3c ef 4f 2a bf a0 be 40 be
       -0.14761154 0.028105048 -0.6652822 -0.18822718
0000b0 3a e9 44 3d c1 fb c7 bd 23 f3 cb be e2 46 7a bc
       0.048073985 -0.09764815 -0.39833936 -0.015275689
0000c0 bd 0e 81 3c aa 37 39 be f8 f5 4d be 91 ba 30 3e
       0.015754098 -0.1808764 -0.20113361 0.1725867
0000d0 43 18 c0 bb 8a 6b dd be d8 6e 55 be 66 ce 56 3e
       -0.005862267 -0.43246108 -0.20843065 0.20977172
0000e0 d4 30 f7 bd 4b 81 33 be 22 8f 24 be 07 f0 c7 3d
       -0.1206986 -0.1752979 -0.16070226 0.097625785
0000f0 21 c4 f7 be 8f 90 e5 bd 60 2a 90 be 85 a1 ac bd
       -0.48391822 -0.11209213 -0.2815733 -0.08429245
000100 a7 24 27 be 69 16 06 3c a5 6c af bd 0c 4a c2 be
       -0.16322576 0.008184054 -0.08565644 -0.37947118
000110 7e 34 8d be 83 7e a8 be 5c 7b 1a 3d 50 2c b2 be
       -0.2757911 -0.3290902 0.0377153 -0.34799433
000120 cc 55 cf 3d 3f 85 fb bd e8 1e c3 bb 3a d5 55 3c
       0.10123786 -0.12281274 -0.005954612 0.013051325
000130 41 4b 6b be f4 76 5c bf a9 10 cd 3d a8 c8 a0 be
       -0.22977926 -0.8611901 0.10012943 -0.3140309
000140 67 ae 73 bf 53 f3 f5 be bc b4 c5 3e 8e e3 c7 3d
       -0.9518799 -0.48037204 0.38614452 0.097601995
000150 77 0b 7d be 70 f1 26 bf 9a 1e 69 bd 2d 5f a1 be
       -0.24711405 -0.65212154 -0.05691395 -0.31517926
000160 0c bf 46 3d 9b da 32 be b9 57 65 be cc ac 20 3d
       0.04852204 -0.17466204 -0.22396745 0.039227292
000170 0d 49 1a bf 79 ea c5 bc 33 20 90 be 0b e9 c2 bb
       -0.60267717 -0.024159657 -0.28149566 -0.005948191
000180 55 ea ab 3c 31 b8 a3 3d 63 5b 21 bc 72 c0 d0 bd
       0.020985762 0.07994116 -0.009848448 -0.10192956
000190 eb 87 8b bc da 42 9d be 5f 6a 09 be 49 4b e7 be
       -0.017032584 -0.30715066 -0.13419484 -0.45174626
0001a0 e3 ab 37 bf 21 ed 64 be cc 73 dd bd 1e 5a 12 bf
       -0.71746653 -0.22356082 -0.10813102 -0.5716876
0001b0 3e ba 3f 3e 9a a9 a9 bd 42 f2 97 3c 8f 2c bd be
       0.1872339 -0.08284302 0.018548135 -0.36948058
0001c0 72 3c 50 bf e9 88 1f bb 40 64 e8 3c 75 a0 22 bb
       -0.8134223 -0.002434308 0.028368115 -0.0024814878
0001d0 03 4f 44 bd 51 2c 73 be 0c 99 77 3d 2d bc f6 3e
       -0.047926914 -0.23747374 0.06044869 0.48190442
0001e0 b4 0e 7b bd bf 47 54 3e 01 1c be bd ba f3 f1 3d
       -0.06129332 0.20730494 -0.09282685 0.11814065
0001f0 f6 40 88 be 57 b2 9f bd 26 ce 5e be e5 28 44 be
       -0.2661206 -0.077976875 -0.21758327 -0.19156225
000200 fe dd f0 bd 5c a9 5a be 9f f5 25 be d2 41 64 3e
       -0.11761092 -0.21353668 -0.16206978 0.22290733
000210 95 2d a7 be 3c 8c 9b bb fc 1e 57 be b1 a7 61 be
       -0.32651964 -0.004746942 -0.21007913 -0.22036625
000220 2a 07 b4 be 8c 2e 1a bf c6 e8 4d be 9f c0 7e 3d
       -0.35161716 -0.60227275 -0.20108327 0.062195417
000230 f6 70 fe 3d 7f 17 a8 be f8 f6 f2 bd e1 43 0f 3b
       0.12423889 -0.32830426 -0.11863512 0.0021860527
000240 18 b2 17 bf 3f 99 46 bc fb 1c 90 be b2 4f 22 bb
       -0.59256124 -0.012121498 -0.2814711 -0.002476674
000250 2c 5e a0 be 9b a6 a8 bd 9f b3 83 bd bf 7b 9a be
       -0.31321847 -0.082349025 -0.064307444 -0.30172536
000260 99 4e 2c be 89 f6 8c be fe 6f ea bc cf 8a 2f be
       -0.16826858 -0.2753184 -0.028617855 -0.17142795
000270 75 13 d6 be 96 64 1d bb 49 c4 a9 be b0 9d ea be
       -0.4181172 -0.0024016253 -0.33157566 -0.4582343
000280 f4 35 e1 3d 86 08 9e bd 53 69 d0 be 7c a7 b5 be
       0.10996619 -0.077164695 -0.40705356 -0.35479343
000290 ef db 11 bd 97 10 49 be b5 a5 13 be 79 57 b4 be
       -0.035610136 -0.19635235 -0.14418681 -0.35222986
0002a0 c6 83 14 be 31 38 a2 bd 7b 81 52 bd 57 7c 3f be
       -0.14503393 -0.07920874 -0.051393013 -0.18699776
0002b0 bb 85 c8 bc d9 fe 80 be de 35 e5 3d 6d 02 0c bf
       -0.02447783 -0.25194433 0.11191915 -0.546912
0002c0 f1 d2 b9 3d 9a 5f ba bd 99 5b 1a 3d 22 7a 43 be
       0.09073437 -0.09100266 0.03768501 -0.19089559
0002d0 6b 68 9e be f1 f8 3e 3b 6d d7 18 be 8e 3f c9 be
       -0.3093904 0.002914008 -0.14925928 -0.393063
0002e0 3a 7e 90 be be ec 24 be 34 5b b4 3c 1e 9d 04 bd
       -0.28221303 -0.16105935 0.022016145 -0.0323764
0002f0 97 1d fa 3d a3 21 88 bd f2 a4 3a bd 05 54 da 3b
       0.12212675 -0.06647041 -0.04556746 0.006662848
000300 55 71 33 be e9 1b ba be 31 2e 88 be 16 b0 8f bc
       -0.17523701 -0.3634942 -0.2659774 -0.017540019
000310 d9 ab cd 3c 3e 95 fc 3d 7c f0 e5 be 0f 6b 3e bf
       0.025106357 0.12333153 -0.44910038 -0.7438211
000320 83 eb 64 bd d2 70 a0 be 9c fd 53 bd 25 cb d3 bc
       -0.055888664 -0.31336075 -0.051755533 -0.025853703
000330 a4 6d 48 be 4c a3 76 3e e5 49 8d bd b5 06 57 bd
       -0.19573075 0.2408573 -0.0689886 -0.05249663
000340 fe cf 06 be 59 67 64 3d e1 0f 8a bd f1 12 9e 3d
       -0.1316528 0.055762623 -0.0674131 0.077184565
000350 7a 9b b3 be b0 dc ca bc e3 b5 11 bd 2e 9c 1a be
       -0.35079557 -0.024763435 -0.03557385 -0.1509864
000360 5f 9a 11 be e7 77 dd 3d 59 3c 9c be 48 65 54 be
       -0.14219044 0.10813885 -0.30514792 -0.2074176
000370 68 b4 b7 be a5 d5 86 3e 75 61 a0 be 40 34 1c bf
       -0.35879827 0.26334873 -0.31324354 -0.6101723
000380 97 23 04 be 1c 2a 5e be de d1 9f be fc d5 24 be
       -0.12904201 -0.21695751 -0.31214803 -0.16097254
000390 10 3c 2e be 34 95 ad be e3 fb 06 be c4 10 7e bd
       -0.170151 -0.33902895 -0.13182025 -0.062027708
0003a0 07 23 a7 be 73 c4 cd be 6b 67 a1 be 5e 2b 49 be
       -0.3264391 -0.4018894 -0.31524214 -0.1964545
0003b0 9d 09 0d bd 03 bd de be 14 2f 1b be a7 3d 82 bd
       -0.034432996 -0.4350358 -0.15154678 -0.063594155
0003c0 5b 81 13 be 15 42 6e be b2 f8 92 be 5b a7 80 bf
       -0.14404814 -0.23267396 -0.28705364 -1.0051073
0003d0 74 b0 eb be d6 84 96 bd ff ac 0c 3e d0 df 76 3b
       -0.4603306 -0.07349555 0.13737868 0.0037670024
0003e0 cd 8b 08 bd f0 7e a4 be 68 c4 ce 3d c8 5f af bc
       -0.03333645 -0.32128096 0.10096055 -0.021407977
0003f0 67 fb fe 3c 11 43 d1 bd b4 04 49 be 3b 7f 0b 3c
       0.031125737 -0.1021787 -0.196307 0.008514221

value_stream.0.bias f4 [256]
000000 0f f9 4c be d2 4a c6 3d 17 a9 c8 3e df 2a 99 3e
       -0.20016883 0.096822396 0.39191505 0.2991552
000010 29 e4 03 be e8 37 98 3e 5d 32 60 3e e7 88 a6 bd
       -0.12880005 0.29730153 0.21894212 -0.08131581
000020 8f f3 f0 3b 41 4b fb 3e f4 75 25 3e 47 68 65 bc
       0.007353253 0.49080852 0.16158277 -0.014001912
000030 bf d6 c8 be 9a ac f4 3e 80 52 64 3e 0a 45 c4 bd
       -0.39226338 0.47787935 0.22297096 -0.09583481
000040 4f 3e c5 3e ea e2 77 3e 4d b6 23 3e ab ea 2e 3e
       0.385241 0.24207655 0.15987511 0.17081706
000050 88 fc 8a 3e 7b d6 0b 3f f1 6c f2 bd 82 29 21 3e
       0.2714579 0.54624146 -0.11837185 0.1573849
000060 31 03 21 be 09 4d 2c 3d e3 6c 8a 3e e2 d0 a5 bd
       -0.15723874 0.042065654 0.270362 -0.08096482
000070 2a 20 ab 3e d9 ad b3 bd f2 19 06 3f dd e5 7a 3e
       0.33422977 -0.08773393 0.5238334 0.24501748
000080 cb 02 84 3e e7 80 80 3d 54 e8 26 3e d1 4c 03 3f
       0.2578338 0.06274586 0.16299564 0.5128909
000090 60 e3 d1 3d 93 26 37 bd 10 03 1f be d6 c4 05 3f
       0.102484465 -0.04471452 -0.15528512 0.5225347
0000a0 9e 6f 07 3f d2 da 03 3e f6 7a 8e 3d 26 bb 82 bd
       0.5290469 0.12876442 0.06957047 -0.06383352
0000b0 4d b9 3d be 17 95 86 3e 91 19 d1 bc ad 54 cb bd
       -0.18527718 0.26285622 -0.025524886 -0.0992826
0000c0 03 a1 8b 3e 2a cc 79 3e 6d 6f 87 3e 11 ea 88 3e
       0.2727128 0.24394289 0.264522 0.26741078
0000d0 ab d8 44 3e 71 dc 7d 3e e0 f4 b5 bc a7 f9 75 3d
       0.19223277 0.24791123 -0.022211492 0.06005254
0000e0 e2 fd d4 bd 3b d2 3a 3b ab 06 38 3e 4f 6d 36 be
       -0.10399987 0.0028506655 0.17971294 -0.17815135
0000f0 b7 7d 8b 3d 39 b7 89 3d 4e 11 1c be 96 5a 94 3e
       0.068110876 0.067244 -0.15240976 0.28975362
000100 3e 9e 13 3f c8 9a 69 be 95 00 a9 bd f7 30 01 3e
       0.57663333 -0.2281295 -0.08252064 0.12616335
000110 cf 78 0a 3f 0b 07 04 be da 64 86 3e 09 57 07 3e
       0.5409059 -0.12893312 0.2624882 0.13216795
000120 0f e7 5d bd 74 a5 56 3e 55 5d b2 3e ab 83 d4 bd
       -0.054175433 0.20961553 0.34836832 -0.10376676
000130 d2 91 3c be 43 5c 72 be 05 43 1f be ce 15 49 3e
       -0.18415001 -0.23668008 -0.1555291 0.19637224
000140 17 c3 bf 3e 88 f2 4d be 7b fa bb bd c1 15 d3 3e
       0.3745353 -0.2011205 -0.09178635 0.41227534
000150 d1 78 02 be 79 68 f5 3d fd eb 95 3e 10 ba 7a bd
       -0.127414 0.11982817 0.29281607 -0.0612126
000160 87 b3 d1 bd 39 68 75 be 51 b1 36 be 1c 3e 0f be
       -0.1023932 -0.23965539 -0.17841078 -0.13988537
000170 2b ea fc 3e 33 3b 2c 3e f3 c4 8b 3e d1 70 a7 bd
       0.49397406 0.16819458 0.27298698 -0.08175815
000180 5a 97 23 be 81 9f d9 3e ad c4 86 3e b3 2b ec 3e
       -0.15975705 0.42504504 0.26321927 0.4612709
000190 61 bc fa bd 3d 26 f9 bd f2 dd 82 3e 10 eb d0 bc
       -0.12242962 -0.121654965 0.25559956 -0.025502712
0001a0 dd be 37 3f 76 77 29 be 08 33 76 bd 14 55 b3 3e
       0.7177561 -0.16549477 -0.06010726 0.35025847
0001b0 51 78 b5 3e 2a 89 2d be 7b 7b 7e 3e 18 96 6e be
       0.35443357 -0.16946855 0.24851792 -0.23299444
0001c0 27 d7 81 bd 8d 98 b4 3e 38 51 b0 3e 27 67 18 be
       -0.06339865 0.35272637 0.34436965 -0.148831
0001d0 a1 43 40 be 6a 67 75 3e aa 71 87 3e c7 0b be bc
       -0.18775798 0.2396523 0.26453906 -0.023198975
0001e0 40 0e 91 3e 57 15 a9 3e 18 0b c0 bd 5e b1 ea 3e
       0.28331184 0.33024094 -0.09377116 0.45838445
0001f0 30 e1 34 be a4 19 fc 3d 39 53 61 be dc fd 9c bd
       -0.17664027 0.12309578 -0.22004403 -0.07665607
000200 8d 70 a0 3e 7e 7d 4e be d5 32 64 3e e4 ac 35 3e
       0.3133587 -0.20165059 0.22285016 0.17741734
000210 7b a4 23 bd 0f f5 dd bd a9 6f ca 3e c0 9d e5 3e
       -0.039951783 -0.10837757 0.39538315 0.44846916
000220 bc 25 4f 3e 45 42 8e 3e b0 09 01 bd 03 c1 bb 3e
       0.20229238 0.27784935 -0.03150338 0.36670694
000230 5d de f0 3e 97 f2 88 3e 01 1f c8 3e d8 b8 a7 3e
       0.4704465 0.2674758 0.39086154 0.32758212
000240 39 0d 84 bd 83 27 00 3e 21 37 d8 3e 98 c3 61 3c
       -0.064478345 0.12515073 0.4222956 0.013779543
000250 ac 93 95 3e 22 10 81 3e e7 24 bc 3e ae 9c e2 bd
       0.29214227 0.2520762 0.36746904 -0.110650405
000260 4a 85 81 3e 96 61 d4 3e ab 3a b4 3e 90 48 4e be
       0.25297004 0.41480702 0.3520101 -0.20144868
000270 30 21 38 3e e1 ff d7 bd 14 4a db 3e ff b3 4e 3e
       0.1798141 -0.10546852 0.42829955 0.2018585
000280 4c e7 5a be 85 3f 11 bd 1d 61 db bd 9e 04 4b 3e
       -0.21377295 -0.035460968 -0.10711882 0.1982598
000290 91 d0 8b bd 63 04 39 3e 63 06 8d 3e 97 1e 7a 3e
       -0.0682689 0.1806808 0.27543935 0.24425732
0002a0 00 dc e3 bc b9 2b 0b be 9e ef 60 be 4b 16 3c 3d
       -0.027814865 -0.13590898 -0.21966407 0.045919698
0002b0 ae 2c 5f 3e a2 4f eb 3d 7e 7d 08 3f 9d 50 8c 3e
       0.21794388 0.11489798 0.53316486 0.27405253
0002c0 9e 27 98 3d 9a cf 9d 3e 72 78 31 3f 9d c2 a8 bd
       0.074294314 0.3082245 0.6932441 -0.082402445
0002d0 84 eb 2d bd 6c 9c 0b be 7e 91 0d 3f ce c2 7a 3e
       -0.042460933 -0.13633889 0.5530013 0.24488375
0002e0 b8 5c 2b 3e 08 2e 20 3f 6d 44 6b be b5 0c 84 3e
       0.16734588 0.6257024 -0.22975321 0.25790945
0002f0 02 a7 38 3e 54 8a e1 3e 89 8c b1 bd 9d 0f cb bd
       0.18032458 0.44050848 -0.08669383 -0.09915087
000300 09 43 97 bd e8 ef 33 3e fc c6 c2 3d 28 bc 19 bc
       -0.07385833 0.17571986 0.095106095 -0.009383239
000310 dd 50 ff bc 76 2c e0 bd 84 ca ad 3e d2 c3 4e 3e
       -0.031166488 -0.1094598 0.3394357 0.20191887
000320 3a 6b 26 be 69 12 a2 3e 9e af 81 be 32 2a 02 3f
       -0.16251841 0.3165467 -0.25329298 0.50845635
000330 7e ba f9 bd bb 07 3d be 84 f5 16 bd c4 f1 ac 3e
       -0.12193774 -0.1845998 -0.036855236 0.33778203
000340 84 fb b4 3d 14 96 98 3e 4c 4d 89 bd 77 f7 e8 bd
       0.08837035 0.29802 -0.06704196 -0.11375325
000350 5e d4 05 3e cf 33 7a 3e 8a b1 11 be c3 ba 16 3d
       0.13069293 0.24433826 -0.14227882 0.036799204
000360 30 c0 90 3e 06 c7 f3 bc f9 ab cd 3e 37 6e 22 be
       0.28271627 -0.029757988 0.40170267 -0.15862356
000370 9c 94 9b 3e 93 04 1b be 15 00 9d bd 37 d1 86 bc
       0.30386817 -0.15138464 -0.07666031 -0.016457183
000380 38 81 da bd cb e1 9b 3e 76 3a 20 bd 99 0c 7a bd
       -0.10669178 0.30445704 -0.039118253 -0.06104717
000390 10 62 63 be 01 00 b8 3e 73 d9 3a 3e 2f a7 b7 bd
       -0.22205377 0.35937503 0.18247013 -0.089674346
0003a0 34 f8 30 3e 99 41 d1 3d eb 6a a5 3e a1 ce 2e be
       0.17282182 0.1021759 0.32308134 -0.1707101
0003b0 d9 a7 f2 3e da e1 df bd df af 98 3e e2 95 a3 bd
       0.47393683 -0.1093175 0.2982168 -0.07987572
0003c0 bf 61 26 3f 02 26 3c 3e 5c 91 02 3f 24 97 1d be
       0.649929 0.18373874 0.5100305 -0.15389687
0003d0 e1 af 54 3e 5a 38 d7 3b 9d 44 ad 3e 81 1a 14 3e
       0.20770217 0.006567997 0.3384141 0.14463235
0003e0 96 43 77 3e da 7f ce 3e 1c 19 9e 3e a5 66 4c be
       0.24146876 0.40331918 0.30878532 -0.19961031
0003f0 d2 a0 8f 3e 09 5e 98 bd 54 c5 89 3e c9 ee 92 3e
       0.28052384 -0.07439811 0.26908362 0.28697804

value_stream.2.weight f4 [1, 256]
000000 11 b7 18 3f 7c d3 f3 3e 0b 23 4a bf a8 88 6e bf
       0.5965434 0.47622287 -0.7895972 -0.9317727
000010 90 f5 0e 3f e2 3d 55 bf c2 a3 3e bf 26 30 04 3f
       0.5584345 -0.8329755 -0.74468625 0.5163597
000020 b9 eb 8c bf 56 b9 3a bf 6f 0e 59 bf bb 46 39 bf
       -1.1009437 -0.7293905 -0.8478765 -0.7237355
000030 d8 32 3b bf 95 63 35 3f ed e5 3f 3f 5b a7 59 be
       -0.73124456 0.70855075 0.74960214 -0.21255247
000040 54 ad 6a bf 17 3f 97 3e 23 50 17 bf d1 4b 35 bf
       -0.9167073 0.2954032 -0.59106654 -0.7081881
000050 e4 6c 33 bf 44 09 49 bf 09 a0 03 3f 79 27 49 bf
       -0.7008803 -0.78529763 0.5141607 -0.78575855
000060 70 2d 16 3f 22 73 4a bf 1c cd d7 be ab 5e d4 3e
       0.5866308 -0.7908193 -0.42148674 0.41478476
000070 5b 8a 2c bf 21 8f 1a 3f 71 1b 67 bf 25 8b 26 bf
       -0.67398614 0.6037465 -0.9027625 -0.6505607
000080 97 03 73 bf d3 77 46 3f 57 6a 28 bf 02 43 14 3f
       -0.9492735 0.7752659 -0.6578726 0.57914746
000090 b1 ad 40 bf d9 80 37 3f 4b fb a2 be d8 ff 50 bf
       -0.7526503 0.7168098 -0.31832346 -0.81640387
0000a0 4a 8d 68 bf 09 c6 31 bf fb c4 82 3f 97 08 b0 bd
       -0.9084059 -0.694428 1.0216364 -0.085953884
0000b0 4b a5 fd 3e fd a0 24 3f f4 bb 19 3f 6e df 46 3f
       0.4954017 0.6430815 0.6005242 0.77684677
0000c0 df 15 0b bf 88 d5 41 bf 50 26 a1 3e 3f 1b 69 bf
       -0.5433025 -0.7571645 0.31474543 -0.910572
0000d0 84 d3 0f 3f 17 31 80 bf 45 14 27 3f 5c 28 3e bf
       0.5618212 -1.0014981 0.65265304 -0.74280334
0000e0 26 62 ff 3e 08 35 42 3f 37 a9 33 bf cd b3 31 3f
       0.4987957 0.7586217 -0.70180076 0.6941498
0000f0 6e 33 0a bf 40 e5 9c 3e 50 17 37 3f 47 51 43 bf
       -0.53984725 0.30643654 0.7151995 -0.76295894
000100 ad 3a 6e bf bc 6a 15 bf f2 42 31 3f d4 c4 c1 3e
       -0.9305828 -0.5836599 0.69242775 0.3784548
000110 b1 f7 3e bf a8 6e 2c 3f f2 7b 5a bf 14 3b 69 bf
       -0.745967 0.6735635 -0.85345376 -0.9110577
000120 9b 69 f0 3e 1e 16 1d bf 05 3b 28 bf fb 62 34 3f
       0.4695557 -0.61361873 -0.65715057 0.7046353
000130 3c 3a 1d 3f 29 97 35 3f f2 f3 c8 3e f3 4a a1 3e
       0.61416984 0.7093378 0.39248616 0.31502494
000140 21 c4 e4 be 97 50 25 3f 25 92 46 3f 05 da 43 bf
       -0.44680884 0.64576095 0.7756675 -0.76504546
000150 8b 40 35 3f c0 c3 41 bf c2 e4 df be aa 26 51 3f
       0.7080161 -0.75689316 -0.43729216 0.8169962
000160 96 18 93 be e8 12 23 3f 0d ba 11 3f 52 f6 1e 3f
       -0.28729695 0.63700724 0.56924516 0.62094605
000170 43 9c 37 3f 29 44 23 bf 58 b5 e8 3e 25 90 ff 3e
       0.7172281 -0.6377588 0.45450854 0.4991466
000180 d2 1d 4d 3f 09 03 5b bf 62 c0 08 bf 99 58 37 3f
       0.8012363 -0.85551506 -0.5341855 0.71619564
000190 5e 33 70 3f 29 49 76 be 73 57 36 bf cd 15 49 3f
       0.9382838 -0.24051346 -0.71227187 0.7854889
0001a0 28 5a 5d bf 68 58 48 3f a6 af ea 3e 1a ed 10 bf
       -0.8646569 0.782599 0.45837134 -0.5661179
0001b0 71 f7 e4 be ea 98 38 3f c7 8a 5b bf c3 b3 30 3f
       -0.44720033 0.7210833 -0.8575863 0.69024295
0001c0 9f 86 6c 3e 20 9f fe be 10 38 17 bf b6 5a 1d 3f
       0.23098229 -0.49730778 -0.5906992 0.6146654
0001d0 c6 b4 47 be 62 ce b8 3e 76 4d 8a bf b9 45 ad be
       -0.19502553 0.36094958 -1.0804889 -0.33842257
0001e0 e3 92 3c bf fc 25 59 bf 59 b2 ee 3e 95 b5 70 bf
       -0.7366163 -0.84823585 0.46620443 -0.9402707
0001f0 63 93 43 3f ed 6b b9 bf 95 4b 2f 3f 9f 7b 3c 3f
       0.7639677 -1.4486061 0.68474704 0.7362613
000200 1d ca 59 bf 8f 85 f7 bd 1c 51 ea be 1e e7 35 bf
       -0.85074025 -0.12086021 -0.45765007 -0.7105578
000210 a8 81 30 3f 75 40 67 be 91 3b b7 3e a9 0b 62 bf
       0.6894784 -0.22583182 0.35787633 -0.8829904
000220 de 18 d1 3e 89 01 db bf d8 0e 33 3f 67 6f 92 3e
       0.40839285 -1.7109843 0.69944525 0.28600618
000230 d1 0b 6a bf 8e 82 f6 be da e7 29 3f 11 73 1a bf
       -0.9142428 -0.4814648 0.663694 -0.6033183
000240 3f 57 0d 3f 71 ed 3d bf 88 c5 06 3f d0 ae fa 3e
       0.5521125 -0.7419043 0.5264516 0.48961496
000250 eb 3f 52 bf d3 9f bc be 61 e8 fa be 8f 42 42 3f
       -0.8212878 -0.36840686 -0.49005416 0.7588281
000260 5f a1 10 bf 12 65 62 bf 4f 73 ac 3e 0a c1 e2 3e
       -0.5649623 -0.8843547 0.33681723 0.44287902
000270 ca ce 1e bf 2f f7 4e be 23 ac 17 bf a4 42 8a 3e
       -0.62034285 -0.2021148 -0.59247035 0.27003968
000280 e3 00 2b 3f c4 cb f1 3e 31 23 13 3f e5 02 2a bf
       0.6679823 0.47225773 0.5747557 -0.66410667
000290 d3 12 15 3f d2 5c cc bf 46 29 45 bf 95 12 62 bf
       0.5823185 -1.5965827 -0.77016103 -0.88309604
0002a0 c5 20 20 3f d7 82 fe 3e 40 16 1d 3f 37 d0 9f be
       0.6255 0.49709198 0.61362076 -0.31213543
0002b0 11 a1 84 bf e0 88 4b bf e8 a2 41 bf ba ab eb 3e
       -1.0361654 -0.7950573 -0.756392 0.46029454
0002c0 4e a0 c3 3e 1b d9 43 bf 50 c9 59 bf 3f 51 ff 3e
       0.3820824 -0.7650315 -0.85072803 0.49866673
0002d0 e5 88 0f 3f bc 36 41 3f 3c 54 66 bf c3 79 1a bf
       0.5606826 0.75474143 -0.8997228 -0.60342044
0002e0 02 4a 2c bf 03 51 5b bf ab 78 32 3f 59 02 d0 3e
       -0.67300427 -0.8567049 0.69715375 0.4062679
0002f0 f5 06 39 bf b7 d5 42 3f c3 56 06 3f 40 7f 0b 3f
       -0.7227624 0.7610735 0.5247614 0.54491043
000300 b8 fc 31 3f 7f 28 57 bf e9 38 0f bf 1e d3 24 3f
       0.69526243 -0.8404617 -0.55946213 0.6438464
000310 65 e7 27 3f e4 14 32 3f 8c 31 dd 3e 61 89 40 3f
       0.65587455 0.69563127 0.43201864 0.75209624
000320 4f b8 42 3f 64 26 5b bf 12 8a 1b 3f 20 07 39 bf
       0.7606248 -0.85605454 0.60757554 -0.72276497
000330 43 4b 26 3f ff ed 12 3f 9a 4d cb 3e c5 7f 8a bf
       0.6495859 0.57394403 0.39707643 -1.0820242
000340 72 60 44 bf ea 36 43 bf e5 6f 27 3f e2 25 4a 3f
       -0.76709664 -0.7625567 0.6540511 0.78964055
000350 ff 38 47 bf 45 dd 1e bf 97 32 80 be bc 1a c2 3e
       -0.77821344 -0.6205638 -0.25038597 0.37911022
000360 82 84 3b bf ca 76 1f 3f 87 01 1f bf 12 a7 5a 3f
       -0.73249066 0.6229063 -0.62111706 0.8541118
000370 ba 02 0e bf e5 e1 16 3f 71 d2 2e 3f 0d 02 4a be
       -0.5547291 0.5893844 0.6828986 -0.19727345
000380 ce 22 04 3f 9f e6 f8 be 15 d9 9a be e1 42 0f 3f
       0.5161561 -0.4861345 -0.30243745 0.55961424
000390 06 03 21 3f 44 5c fb be b8 7f 85 bf a2 7d 26 3f
       0.6289524 -0.4909383 -1.0429602 0.6503545
0003a0 1f 8c 5e bf dc e2 30 bf d9 0f 35 bf a3 b7 31 3f
       -0.8693256 -0.6909616 -0.70727307 0.6942083
0003b0 29 93 33 bf f7 27 21 3f 26 b4 08 bf 37 9f 06 3f
       -0.70146424 0.62951607 -0.53399885 0.5258669
0003c0 36 86 52 bf 80 22 3b bf 54 13 41 bf 8e 32 3b 3f
       -0.8223604 -0.7309952 -0.7542012 0.73124015
0003d0 06 42 77 bf eb 54 31 3f ac 19 d1 be ea c6 45 bf
       -0.9658512 0.692702 -0.408399 -0.77256644
0003e0 6c 68 38 bf df 1d 50 bf ca 74 27 bf 53 8b 2d 3f
       -0.72034335 -0.8129558 -0.6541258 0.67790717
0003f0 c2 0d 4d bf 34 3e 0e 3f 27 05 62 bf 1b 26 7e bf
       -0.8009912 0.55563664 -0.8828911 -0.99276894
