active_slam_rl/training_output_no_slam/20260128_030605/d3qn_ep530.pth (torch, 901794 bytes, 11 tensors)

feature.0.weight f4 [256, 100]
0	0xbd753170	-0.0598616
1	0xbdf68f38	-0.120390356
2	0xbde96d22	-0.113977686
3	0xbd172faa	-0.03691069
4	0xbd95196c	-0.072802395
5	0xbe2a7132	-0.16644743
6	0xbc79d211	-0.015247838
7	0xbe47e857	-0.19522224
8	0xbb8d1692	-0.004305669
9	0xbe5932b7	-0.21210752
10	0xbe25d049	-0.16192736
11	0xbd9b0597	-0.075694256
12	0xbe28b938	-0.16476905
13	0xbd6ac157	-0.05731329
14	0xbd980092	-0.07421984
15	0xbe3a6f05	-0.18206413
16	0xbda663bd	-0.08124492
17	0xbe6bef35	-0.23040469
18	0xbe4fd20f	-0.20294975
19	0xbdde84a7	-0.10865145
20	0xbd51beda	-0.0512074
21	0xbd8c8946	-0.0686212
22	0xbe048ab4	-0.12943536
23	0x3da505f8	0.08057779
24	0xbdb700ca	-0.089356974
25	0xbe411a06	-0.18857583
26	0xbdbd651a	-0.09247799
27	0xbdc693b5	-0.09696142
28	0xbd5a86e3	-0.053351294
29	0xbd6efaa3	-0.058344495
30	0xbe13e05a	-0.14441052
31	0xbdf5834e	-0.11987935
32	0xbdd20a0e	-0.10255824
33	0xbd9e37a1	-0.07725454
34	0xbd8882a8	-0.06665546
35	0xbdb70452	-0.08936371
36	0x3b4b5162	0.003102385
37	0xbe1f12b8	-0.15534484
38	0xbd67cb44	-0.056590334
39	0x3c0771ad	0.0082668485
40	0xbda82b06	-0.08211331
41	0xbe37c028	-0.17944396
42	0xbcea5e28	-0.02860935
43	0xbdeef455	-0.116676964
44	0xbdf93e49	-0.12170083
45	0xbdf2177e	-0.11820887
46	0xbe262368	-0.16224444
47	0xbe1157c7	-0.1419364
48	0xbdb0fcb0	-0.08641946
49	0xbdeadb0c	-0.11467561
50	0xbc991d5a	-0.018690754
51	0x3d8d93b6	0.06912939
52	0xbccaf498	-0.024774835
53	0x3daaab70	0.0833348
54	0xbe3ad7ce	-0.18246385
55	0xbd78be44	-0.060728326
56	0xbd482d52	-0.048871346
57	0xbe151fe4	-0.14562947
58	0xbdcb19d1	-0.099170335
59	0xbdc03209	-0.093845434
60	0xbc5aa0f9	-0.013344043
61	0xbd5b4459	-0.05353198
62	0xbdeebbdc	-0.11656925
63	0xbde8d5d8	-0.113689125
64	0xbe356569	-0.17714466
65	0xbe100c93	-0.14067297
66	0xbdc1076b	-0.09425243
67	0xbe13a8c6	-0.1441985
68	0xbd61cec2	-0.05512882
69	0x3e07970c	0.13241214
70	0x3d917068	0.07101518
71	0x3da7b6d8	0.081891716
72	0x3d653687	0.055960204
73	0x3cded82f	0.027202694
74	0x3d2b2890	0.04178673
75	0xbd9a1b49	-0.075247355
76	0x3d74c310	0.05975634
77	0xbdba3ef4	-0.090940386
78	0x3db0ed74	0.086390406
79	0x3c9f6004	0.019454964
80	0x3d811860	0.06303477
81	0xbda04cef	-0.07827174
82	0x3d30e044	0.043182626
83	0xbc71e9e0	-0.014765233
84	0xbd02b3d8	-0.031909794
85	0xbdcb4b50	-0.09926474
86	0xbe02802b	-0.12744205
87	0xbdb84862	-0.08998181
88	0xbc740b73	-0.014895308
89	0xbcab489b	-0.020908644
90	0x3cef4bd5	0.029210964
91	0xbb31b295	-0.00271145
92	0x3cdf8d5e	0.027289089
93	0x3c48ac9c	0.0122481845
94	0x3d50de74	0.050993398
95	0x3d726b17	0.05918416
96	0xbd0fbd69	-0.035092745
97	0xbde20e38	-0.11037868
98	0xbd8b78a3	-0.06810119
99	0xbe3603e3	-0.1777492
100	0x3dc17d6b	0.0944775
101	0x3c0c1021	0.008548767
102	0x3e21e3d6	0.15809569
103	0x3e1708b3	0.14749412
104	0x3da3f995	0.08006588
105	0x3dbed71c	0.093183726
106	0x3e37e595	0.17958672
107	0x3e2f3ad2	0.17112282
108	0x3cec2f6b	0.028831204
109	0x3c44bd08	0.012007959
110	0xbccacac2	-0.024754886
111	0x3c815c64	0.015791126
112	0x3da73485	0.08164314
113	0xbbfe9680	-0.007769406
114	0x3db52302	0.08844568
115	0xbd51b3ac	-0.05119674
116	0x3d9e1b9e	0.07720111
117	0x3dcdc802	0.10047914
118	0x3d2b01c4	0.04174973
119	0xbd19d8b4	-0.03756018
120	0xbcdb7a09	-0.02679159
121	0xbd6c8040	-0.057739496
122	0xbe295930	-0.16537929
123	0xbc9b0906	-0.018925201
124	0xbe246c95	-0.16057046
125	0xbe1a85aa	-0.15090051
126	0xbe811bd9	-0.2521656
127	0xbe871d84	-0.26389706
128	0xbdfc63a1	-0.1232369
129	0xbe15afee	-0.14617893
130	0xbe249439	-0.16072167
131	0xbe7c178b	-0.24618356
132	0xbe62f340	-0.22163105
133	0xbe99f184	-0.30067074
134	0xbec64786	-0.38726443
135	0xbea840ba	-0.32861882
136	0xbe97a773	-0.2961994
137	0xbe9ab619	-0.30217054
138	0xbe93348b	-0.28751025
139	0xbf0014af	-0.5003156
140	0xbe8d5398	-0.2760284
141	0xbf0140ef	-0.50489706
142	0xbf052fb3	-0.5202591
143	0xbebe8ea9	-0.37218216
144	0xbec10408	-0.37698388
145	0xbeeb71ad	-0.45985165
146	0xbf1f48ea	-0.62220633
147	0xbee804cd	-0.45316163
148	0xbf0f5c7c	-0.56000495
149	0xbefb268d	-0.4905285
150	0xbee08064	-0.43847954
151	0xbf079683	-0.5296404
152	0xbeda2d40	-0.42612648
153	0xbe85a11c	-0.2609948
154	0xbe7296c1	-0.2369032
155	0xbe0e68b8	-0.13907135
156	0x3dac1e3e	0.08404206
157	0xbd45a064	-0.048248664
158	0x3e258f61	0.16167976
159	0x3dcea00d	0.10089121
160	0x3d8b4ac7	0.06801372
161	0x3d32b144	0.043626085
162	0x3d989277	0.07449811
163	0x3d26f39e	0.040759675
164	0x3db61b6d	0.0889195
165	0x3de28bc8	0.110618174
166	0x3e033f9c	0.12817234
167	0x3dff0e8f	0.12453949
168	0x3dd65964	0.10466269
169	0x3d3e1b04	0.046412483
170	0x3e4d6e16	0.20061526
171	0x3d1063c3	0.03525139
172	0x3d8f5ded	0.07000337
173	0xbd24ca73	-0.040232133
174	0xbcbc238b	-0.022966167
175	0x3bba9449	0.0056939465
176	0x3da2ba3d	0.079456784
177	0xbda25694	-0.0792667
178	0xbd6e7433	-0.058216285
179	0x3c37a5e7	0.011208988
180	0xbce7d5e1	-0.028300228
181	0xbc9bdbba	-0.019025672
182	0xbda025ba	-0.07819696
183	0x3d83f790	0.06443703
184	0xbd1bb2a8	-0.038012177
185	0x3d807380	0.0627203
186	0x3c9f9952	0.019482289
187	0xbda022a1	-0.07819105
188	0xbdd5969e	-0.104291186
189	0xbbc9388d	-0.0061407746
190	0x3d97fced	0.07421289
191	0xbc9fb859	-0.019497084
192	0xbd807c05	-0.06273655
193	0x3d7197b3	0.058982562
194	0xbd756efb	-0.059920292
195	0x3da57747	0.08079391
196	0xbd314271	-0.043276254
197	0xbd60b161	-0.05485666
198	0x3ce389a9	0.027775602
199	0xbe36f3ad	-0.17866392
200	0xbef30762	-0.4746657
201	0xbefdc285	-0.4956247
202	0xbf00fcbf	-0.5038566
203	0xbee49767	-0.4464676
204	0xbf14913b	-0.58034104
205	0xbf0509ec	-0.51968265
206	0xbf06a7e5	-0.52599937
207	0xbf1a2720	-0.6021595
208	0xbf1d2bc1	-0.6139489
209	0xbf19d2a4	-0.6008704
210	0xbef8bf28	-0.4858334
211	0xbee5bb38	-0.448694
212	0xbf1a7ca1	-0.6034642
213	0xbf05ac94	-0.5221646
214	0xbf04909b	-0.5178315
215	0xbf29764e	-0.66196144
216	0xbf2e6575	-0.6812356
217	0xbf27639d	-0.6538637
218	0xbf2e617f	-0.6811752
219	0xbf24b0af	-0.643321
220	0xbf38d7bb	-0.7220418
221	0xbc331188	-0.010929473
222	0x3e49b26f	0.19696973
223	0x3e284fd8	0.16436708
224	0x3e1c85e7	0.15285455
225	0x3dbf5cd0	0.093438745
226	0xbcf73ffe	-0.030181881
227	0x3e571f2d	0.21007986
228	0x3e0637d1	0.1310723
229	0x3d44267b	0.04788826
230	0xbdb37baf	-0.08763825
231	0xbd72f6d6	-0.059317432
232	0xbde4565a	-0.11149283
233	0x3d0c1f15	0.03420933
234	0xbe44576d	-0.19173975
235	0xbccf14f7	-0.025278552
236	0xbdb3859a	-0.08765717
237	0xbe3ad4b8	-0.18245208
238	0xbd94e3a6	-0.07269983
239	0xbd8847f7	-0.06654351
240	0xbe0edd48	-0.139516
241	0xbe89ac2f	-0.26889178
242	0xbe2f7bc0	-0.1713705
243	0xbe897253	-0.26845035
244	0xbe10e5b1	-0.1415012
245	0xbe28033f	-0.16407488
246	0xbd98d767	-0.0746296
247	0xbcd96732	-0.026538465
248	0xbdf4a92e	-0.11946331
249	0xbe2bf663	-0.16793208
250	0xbe187999	-0.14890136
251	0xbd528e26	-0.051405095
252	0xbd7706c8	-0.0603092
253	0xbcf27a7c	-0.02959942
254	0xbe1b0728	-0.15139449
255	0xbe040297	-0.12891613

feature.0.bias f4 [256]
0	0x3df60e3c	0.12014434
1	0xbc20df91	-0.009818927
2	0xbd206ad1	-0.039164368
3	0xbd4447fb	-0.04792021
4	0x3ed110b5	0.4083306
5	0x3eba3444	0.36368
6	0xbc5af51e	-0.013364105
7	0xbec54055	-0.38525644
8	0x3e25bd5a	0.16185513
9	0x3ec49705	0.3839647
10	0xbf10e545	-0.5659984
11	0x3eac8a84	0.3369943
12	0xbda17413	-0.078834675
13	0x3e9d4f26	0.30724448
14	0x3ecf8cb5	0.40537038
15	0xbd65ccc9	-0.0561035
16	0x3dcf6d8f	0.101283185
17	0x3f05a516	0.52205026
18	0x3df88d39	0.12136311
19	0xbedd9481	-0.43277362
20	0xbd6d6efc	-0.05796717
21	0x3f1521d7	0.5825476
22	0x3e03d71f	0.12875031
23	0x3e1ffa0f	0.15622734
24	0x3e8ded0f	0.27719924
25	0x3d8a411d	0.067507006
26	0xbe32bfc7	-0.1745597
27	0xbe048b76	-0.12943825
28	0x3f31ac09	0.6940313
29	0x3ebaed0e	0.36508983
30	0x3d60c119	0.054871652
31	0x3f0a8e74	0.54123616
32	0x3edd7635	0.43254247
33	0xbe09b19b	-0.13446657
34	0x3ec92e6d	0.39293233
35	0x3d795ac7	0.060877588
36	0x3e0128eb	0.12613265
37	0xbe97628d	-0.29567376
38	0xbe2a0fc6	-0.1660758
39	0x3e326ce5	0.17424352
40	0x3ea09a02	0.313675
41	0x3e74d979	0.23911084
42	0x3ecdc3fa	0.4018858
43	0x3e24b032	0.16082838
44	0x3dfcae38	0.12337917
45	0x3eb8f3b8	0.36123443
46	0x3e4602b3	0.19336967
47	0xbe065981	-0.1312008
48	0x3c874e9a	0.016516972
49	0x3ec9510a	0.3931964
50	0xbed149ee	-0.40876716
51	0x3ecf38e7	0.404731
52	0x3e4a64bc	0.1976499
53	0xbe8f6bb5	-0.2801186
54	0x3dcfe218	0.10150546
55	0x3f027d80	0.5097275
56	0x3e7ffa5d	0.2499785
57	0xbc31393d	-0.010816869
58	0xbe874555	-0.26420084
59	0xbe0a8dcc	-0.13530654
60	0x3ed9f31c	0.4256829
61	0xbec9cc7c	-0.39413822
62	0x3ec134c2	0.37735564
63	0x3d76b1f8	0.060228318
64	0x3e87036a	0.26369792
65	0x3dc4de56	0.0961272
66	0x3e250da6	0.16118488
67	0x3ec2449f	0.3794298
68	0x3eb8c10f	0.36084792
69	0x3d84816b	0.06469997
70	0x3e97e799	0.29668882
71	0x3eaffe87	0.34373876
72	0x3e48d827	0.19613706
73	0x3d9b1e75	0.075741686
74	0x3eb021a3	0.34400663
75	0x3e4b5b06	0.19858941
76	0xbef553bf	-0.47915456
77	0x3e8c2f10	0.27379656
78	0xbdeb0129	-0.11474831
79	0xbc3116b5	-0.010808636
80	0x3ebf73e3	0.37393102
81	0x3e817aad	0.25288907
82	0x3d9e2b95	0.07723156
83	0xbd5058b6	-0.05086585
84	0x3efee9fe	0.49787897
85	0x3e260492	0.16212681
86	0x3e46869a	0.19387284
87	0xbf0d5f74	-0.55223775
88	0x3ebc14c8	0.36734605
89	0x3f11477f	0.5674972
90	0xbec83ad8	-0.39107394
91	0x3ddd0d1f	0.10793518
92	0x3e846580	0.25858688
93	0xbebf752d	-0.37394086
94	0xbebf6aaa	-0.37386066
95	0x3e80849e	0.2510118
96	0xbe465bf9	-0.19371022
97	0x3d5235b7	0.051320758
98	0x3f0da0cf	0.553235
99	0xbec16ab3	-0.37776718
100	0x3eb49b24	0.35274613
101	0xbf020176	-0.5078348
102	0xbef0d590	-0.47037935
103	0x3f056087	0.52100414
104	0x3efb0742	0.49028975
105	0x3df1d6f6	0.11808579
106	0xbf090f44	-0.5353892
107	0x3eb37365	0.35048977
108	0xbe0a1001	-0.13482668
109	0x3eda96ad	0.42693081
110	0x3e7207c2	0.23635772
111	0x3deaac80	0.11458683
112	0x3e6e7c0a	0.23289505
113	0xbe62ed27	-0.22160779
114	0x3e66733c	0.22504896
115	0xbecc3f5d	-0.39892092
116	0x3df1c428	0.11804992
117	0x3e987fd2	0.2978502
118	0x3e97ba69	0.29634407
119	0x3eb2c70e	0.34917492
120	0x3e7ee563	0.24892192
121	0x3ef7ea48	0.4842093
122	0x3ea8be61	0.32957748
123	0x3db97594	0.090556294
124	0xbe3bcea4	-0.18340546
125	0x3e0634b1	0.13106038
126	0x3e327d1b	0.17430536
127	0x3eaaac65	0.33334652
128	0x3e8d28cc	0.27570188
129	0x3b2fc512	0.0026820344
130	0x3e4b7907	0.19870387
131	0x3e8cf19f	0.27528092
132	0xbf0bb1ce	-0.54568183
133	0x3e9e6baa	0.30941516
134	0x3e323267	0.1740204
135	0x3ee60cdf	0.44931695
136	0x3e8be7e0	0.27325344
137	0x3ead70c9	0.3387511
138	0x3df222c1	0.11823035
139	0xbc8b4780	-0.017001867
140	0xbf06660a	-0.5249945
141	0xbeea8df1	-0.45811418
142	0xbed47b7f	-0.4150047
143	0x3e24cafe	0.1609306
144	0x3e8cc9da	0.2749775
145	0x3f089bfd	0.5336302
146	0xbf0494b6	-0.51789415
147	0x3ee53f2c	0.4477476
148	0xbe1f9d23	-0.15587287
149	0xbea53d85	-0.32273498
150	0x3e76cf8f	0.24102615
151	0x3e447faf	0.19189332
152	0x3d45018a	0.04809717
153	0xbed4402b	-0.41455206
154	0x3e67185b	0.22567885
155	0x3e9d13c9	0.30679157
156	0x3e4f3154	0.20233661
157	0x3ca4b1dc	0.020104341
158	0x3e6358cd	0.22201844
159	0xbe2044a8	-0.1565119
160	0x3e2e9a0c	0.17050952
161	0xbee33206	-0.44374102
162	0x3d3645d4	0.044500187
163	0x3b92130e	0.004457838
164	0x3db97fd4	0.090575844
165	0x3e967a91	0.29390386
166	0xbe30577c	-0.17220873
167	0x3ed223ed	0.41043034
168	0xbed94978	-0.42438865
169	0xbd1755d4	-0.036947086
170	0xbe82f552	-0.2557779
171	0x3ea91634	0.33024752
172	0xbec594b1	-0.38590005
173	0x3e5c99bf	0.21543024
174	0x3e5cc8cf	0.21560977
175	0x3e06e2a7	0.13172399
176	0x3e62da8c	0.22153682
177	0xbeb7b6ea	-0.3588174
178	0x3e07fd5d	0.13280244
179	0xbe902f44	-0.2816106
180	0xbe6441b1	-0.22290684
181	0x3d00eb6b	0.031474512
182	0xbef91f46	-0.48656672
183	0x3e865bb6	0.26241845
184	0x3d19de9a	0.037565805
185	0xbdb6041e	-0.08887504
186	0x3ed1160e	0.4083714
187	0x3e5b892e	0.21439049
188	0x3eb8eea8	0.3611958
189	0x3ee44d9f	0.4459047
190	0xbe33adfc	-0.17546839
191	0xbe512117	-0.20422779
192	0x3ecaa7f5	0.39581266
193	0xbe4bf016	-0.19915804
194	0x3c05bdb4	0.0081629045
195	0x3da693d7	0.08133667
196	0xbe853af1	-0.2602153
197	0x3eb3427d	0.35011664
198	0xbca5d998	-0.020245358
199	0xbde1f76e	-0.110335216
200	0x3de370b7	0.11105483
201	0x3e829ca5	0.25510135
202	0x3ea7e8e7	0.32794878
203	0x3e86624e	0.26246876
204	0xbebfc822	-0.37457377
205	0x3e58beb7	0.21166502
206	0x3dabc364	0.08386877
207	0x3e1962e0	0.14979124
208	0x3e8f0dd1	0.2794023
209	0x3e9128c9	0.2835143
210	0x3e42bc05	0.19017036
211	0xbe34436d	-0.17603846
212	0x3e96b7bd	0.29437056
213	0x3e329db9	0.17442979
214	0xbf11e7cf	-0.56994337
215	0xbe08ae52	-0.13347748
216	0xbd77560a	-0.060384788
217	0x3eeea7f6	0.4661252
218	0x3e653b0a	0.22385803
219	0xbf0d4a09	-0.55191094
220	0xbd4f3378	-0.050586194
221	0xbeabcf01	-0.3355637
222	0xbea50cc2	-0.32236296
223	0xbd04d948	-0.032433778
224	0xbe933d80	-0.28757858
225	0xbe8bea1d	-0.27327052
226	0x3daf9a31	0.085743316
227	0x3e1c7919	0.1528057
228	0xbda1dbe5	-0.0790327
229	0x3e0b03f2	0.13575724
230	0xbd22d763	-0.03975619
231	0x3d157a72	0.036493726
232	0x3d5d96eb	0.054099005
233	0x3e41712b	0.18890826
234	0x3ecc8552	0.39945465
235	0x3d9176b1	0.07102717
236	0xbedd3041	-0.43200877
237	0xbeadf3a6	-0.33974952
238	0x3eb91c7e	0.3615455
239	0x3ebdb062	0.37048632
240	0x39b487c8	0.0003443344
241	0xbed79566	-0.4210617
242	0x3e9d3103	0.30701455
243	0x3d5ecfa4	0.05439724
244	0x3e262d16	0.16228136
245	0x3e89fd3d	0.26951018
246	0x3e5c9d0a	0.2154428
247	0x3ea019f0	0.3126979
248	0x3d044852	0.032295533
249	0x3ebc3920	0.36762333
250	0xbee1b6a3	-0.44084653
251	0x3cfd22d6	0.0309004
252	0x3e701d7a	0.23448744
253	0x3d5a437a	0.053287007
254	0x3dc5b750	0.09654105
255	0x3c315e28	0.010825671

feature.2.weight f4 [256, 256]
0	0x3eb14eba	0.34630376
1	0x3ef0b05e	0.47009557
2	0x3e4a3ff6	0.19750962
3	0x3df613e9	0.12015516
4	0x3ee2c16b	0.4428819
5	0x3db75a25	0.089527406
6	0xbdae359b	-0.08506318
7	0xbd2ae916	-0.041726194
8	0x3c92a840	0.017902493
9	0x3c6d7af9	0.014494651
10	0xbdc256f3	-0.094892405
11	0xbe5db0c9	-0.2164947
12	0xbc8aceb2	-0.016944263
13	0xbbe4f946	-0.0069877235
14	0x3d131342	0.035907038
15	0xbd09dcda	-0.033657886
16	0x3f07bea9	0.530253
17	0x3db768ce	0.08955537
18	0x3ef0e98b	0.4705318
19	0x3e1cf254	0.15326816
20	0x3e4acb4c	0.19804114
21	0xbdcf4f69	-0.10122568
22	0xbc903df9	-0.017607676
23	0xbc06b7dd	-0.008222547
24	0xbdd9d804	-0.10636905
25	0x3e233d1d	0.15941282
26	0x3c171a27	0.009222544
27	0xbd8b57d6	-0.06803863
28	0xbd2183ba	-0.039432265
29	0xbeae75ee	-0.34074348
30	0xbef4924d	-0.4776787
31	0xbe173417	-0.14765964
32	0xbe0a0a1e	-0.13480422
33	0x3dcc70a1	0.0998242
34	0xbd184057	-0.037170734
35	0x3c3cd635	0.01152568
36	0x3ce08171	0.027405472
37	0xbe0a3115	-0.13495286
38	0xbe8c09de	-0.27351278
39	0x3e772528	0.24135268
40	0x3c78b918	0.015180849
41	0x3ebc90ac	0.36829126
42	0xbdf7ba6d	-0.12096105
43	0x3d68f6c5	0.056875963
44	0x3d279fd6	0.040923916
45	0x3e1576b7	0.14596067
46	0xbd9a29e9	-0.07527525
47	0x3e8fcd9c	0.28086555
48	0x3e9edf15	0.31029573
49	0x3dcbed23	0.099573396
50	0xbc60b2be	-0.01371449
51	0x3e04dc2d	0.12974615
52	0x3c7ca60a	0.015420446
53	0x3db6c6b7	0.089246206
54	0x3e54ecc6	0.20793447
55	0x3d56b726	0.052420758
56	0x3dfd88ed	0.12379632
57	0xbdd62384	-0.10455993
58	0xbdfc1a74	-0.12309733
59	0xbe4f2e22	-0.20232442
60	0xbe6a37ea	-0.22872892
61	0x3d326da4	0.043561593
62	0x3e09b3ec	0.13447541
63	0xbe65e111	-0.22449137
64	0xbacfad95	-0.0015844578
65	0xbc7fe619	-0.015618824
66	0xbe8dd1af	-0.27699038
67	0x3de193f3	0.11014547
68	0xbe49991e	-0.19687316
69	0x3ef097e4	0.46990883
70	0xbd98f432	-0.074684516
71	0xbe06a3f9	-0.13148488
72	0x3e72d34b	0.23713414
73	0xbdd0ea21	-0.102009065
74	0xbd4bc672	-0.0497498
75	0xbe64aaca	-0.22330776
76	0x3d95e020	0.07318139
77	0x3bf14433	0.0073628663
78	0x3de04204	0.109500915
79	0xbe0260ad	-0.12732191
80	0xbe2b2a1c	-0.16715282
81	0x3ef82138	0.48462844
82	0x3e85fcdc	0.2616948
83	0xbde0a1d5	-0.10968367
84	0x3d7c9adc	0.061671123
85	0xbd96a433	-0.07355537
86	0x3d503ce6	0.050839327
87	0x3c200512	0.009766834
88	0xbde89cc5	-0.113580264
89	0x3dc9f30a	0.09860809
90	0x3e1f37b1	0.15548588
91	0x3da91f9d	0.08257983
92	0x3e574960	0.21024084
93	0xbe7ac0f4	-0.24487668
94	0xbccbd9b5	-0.024884084
95	0x3dd70800	0.10499573
96	0x3c9396a8	0.018016174
97	0xbd17ec44	-0.037090555
98	0x3d23faf6	0.040034257
99	0xbaaba7de	-0.0013096293
100	0x3c256887	0.010095722
101	0x3d3362c7	0.043795373
102	0xbbaf2841	-0.005345375
103	0xbe94ab6d	-0.29037037
104	0xbdff58a2	-0.12468077
105	0x3e7887a4	0.24270493
106	0xbd59e51b	-0.053197008
107	0x3e0ea294	0.13929206
108	0x3c8d9ee5	0.01728768
109	0xbe6ecaf9	-0.23319615
110	0xbcc9df01	-0.02464247
111	0x3d5ebc94	0.05437906
112	0xbd97f650	-0.07420027
113	0x3c4fd483	0.012684944
114	0x3e28cf21	0.16485263
115	0xbe5948c6	-0.21219167
116	0x3d0aa639	0.03384993
117	0x3dad63df	0.084663145
118	0x3de5a6e4	0.112134725
119	0xbe172fc7	-0.1476432
120	0xbe73653f	-0.23769091
121	0x3c88c338	0.01669465
122	0x3e08d04b	0.13360707
123	0xbd3ffac6	-0.046870016
124	0x3e44a706	0.1920434
125	0xbea68089	-0.3251994
126	0x3e04bdc5	0.12963016
127	0xbe3a41af	-0.18189119
128	0x3e9b7728	0.30364347
129	0x3e4cb0ea	0.19989362
130	0xbe85130f	-0.25991103
131	0x3cbdae05	0.023154268
132	0x3c802f25	0.01564748
133	0x3dc0c8f9	0.094133325
134	0xbcf0e840	-0.02940762
135	0xbe194444	-0.14967448
136	0x3d896812	0.06709303
137	0xbc6a20eb	-0.014290075
138	0xbcc291cb	-0.02375116
139	0xbc4a0c0e	-0.012331976
140	0xbc084f2c	-0.008319657
141	0x3e107203	0.14105992
142	0xbc1a9b8e	-0.009436501
143	0x3dac3881	0.08409215
144	0x3e5b4871	0.21414353
145	0x3d9c94dd	0.07645581
146	0x3e0eb7df	0.13937329
147	0x3df9ef3e	0.12203835
148	0x3c9070e9	0.017631965
149	0xbcfe942a	-0.03107651
150	0xbe96e088	-0.2946818
151	0x3d657c55	0.056026775
152	0x3e769341	0.2407961
153	0x3d684e16	0.056715094
154	0xbdf68f77	-0.120390825
155	0xbe07dcc6	-0.13267812
156	0xbe504fda	-0.20342961
157	0x3e116c07	0.14201365
158	0xbe2b48e9	-0.16727032
159	0xbc3676ca	-0.01113672
160	0x3e061f4d	0.13097878
161	0xbdc8aa05	-0.09798054
162	0x3ea84dda	0.32871896
163	0x3e11c430	0.14234996
164	0xbe33f17f	-0.17572592
165	0xbe4245f7	-0.18972002
166	0xbe8859f7	-0.26631138
167	0xbdad5be5	-0.08464793
168	0xbc835637	-0.016032321
169	0x3e4db298	0.2008766
170	0x3e087204	0.13324744
171	0xbe45d740	-0.19320393
172	0xbeebd0f1	-0.46057847
173	0xbe977636	-0.29582375
174	0xbde73108	-0.11288649
175	0x3eac14d0	0.3360963
176	0x3e959ad1	0.29219678
177	0x3e0d8ae9	0.13822521
178	0xbe1ab178	-0.15106761
179	0x3e0506f8	0.1299094
180	0xbea48de2	-0.32139498
181	0x3ef5ce21	0.48008826
182	0x3dc16c12	0.09444441
183	0xbb0266bb	-0.0019897658
184	0x3e867244	0.26259053
185	0x3e4196a4	0.18905121
186	0xbdc1dca1	-0.0946591
187	0x3b986608	0.004650835
188	0xbe75be9a	-0.2399849
189	0x3dba93c3	0.091102146
190	0xbddf4d24	-0.10903385
191	0x3dccbff4	0.0999755
192	0xbe970c80	-0.29501724
193	0x3d64a164	0.055817977
194	0xbe3793c3	-0.1792746
195	0x3f1238d8	0.57117987
196	0x3e878736	0.26470345
197	0x3cdd7bf8	0.027036652
198	0x3e635e50	0.22203946
199	0xbc9fe2ae	-0.019517269
200	0x3cf4da54	0.029889263
201	0xbd735358	-0.059405655
202	0x3a3a317d	0.0007102711
203	0x3e09d679	0.13460721
204	0x3dfea62f	0.12434041
205	0x3e930e7d	0.2872199
206	0x3d213d4e	0.039365105
207	0xbe2f8c6a	-0.17143407
208	0x3c3a1f19	0.011359953
209	0xbddc24fd	-0.107492425
210	0x3ea7dd7c	0.32786167
211	0x3e2ea47c	0.17054933
212	0xbd31fd0f	-0.043454226
213	0x3e3f2ea9	0.18670143
214	0x3dd499d9	0.103809066
215	0xbe8d4bd1	-0.27596906
216	0x3e9ad674	0.3024174
217	0xbcf40436	-0.029787164
218	0x3d6260f9	0.05526826
219	0x3c8c032b	0.017091354
220	0xbe0c9984	-0.13730437
221	0x3c1c0411	0.009522454
222	0x3dc6d31d	0.097082354
223	0x3e7002ab	0.23438518
224	0x3df65546	0.12027983
225	0xbe7bd7ae	-0.24593994
226	0x3e69103d	0.227601
227	0x3ec8f96e	0.392528
228	0x3de77a77	0.11302655
229	0xbe7d0918	-0.247105
230	0xbe14554c	-0.14485663
231	0x3ebc967b	0.36833557
232	0x3e3fd852	0.18734863
233	0x3d921576	0.071329996
234	0x3dfdbb33	0.12389221
235	0xbdf8cb5f	-0.12148165
236	0x3e4f22e0	0.20228148
237	0x3c9bd7d1	0.019023808
238	0x3be45104	0.0069676656
239	0xbe378182	-0.17920497
240	0x3ea3a62f	0.31962726
241	0xb7779825	-1.4757771e-05
242	0xbe0132db	-0.12617056
243	0xbce55aaf	-0.027997343
244	0xbe5a1449	-0.212968
245	0x3d7e09eb	0.062021177
246	0xbe58e4b8	-0.21181
247	0xbcedc975	-0.029026726
248	0x3e778b32	0.24174193
249	0x3e645491	0.22297885
250	0xbdafb344	-0.08579114
251	0xbd28c280	-0.041201115
252	0x3d179714	0.037009314
253	0x3e8342e4	0.2563697
254	0x3e17e562	0.14833596
255	0x3e9119dc	0.28340042

feature.2.bias f4 [256]
0	0xbd45a2ef	-0.04825109
1	0x3e23ee1e	0.16008803
2	0xbe0dbde2	-0.13841966
3	0xbd49b336	-0.049243174
4	0xbc8a2aea	-0.016866166
5	0x3e329b3f	0.17442034
6	0x3e36612f	0.1781051
7	0xbeb989c8	-0.3623793
8	0x3e2885dc	0.16457313
9	0xbdaecafe	-0.085348114
10	0x3e7cbffe	0.24682614
11	0x3e5a31e6	0.21308097
12	0x3cc40b8a	0.023931284
13	0x3e76d084	0.2410298
14	0x3e4076e5	0.18795355
15	0x3e103855	0.14083989
16	0xbcf74b48	-0.030187264
17	0x3ed5b900	0.41742706
18	0x3e8627b6	0.26202172
19	0x3e54c580	0.20778465
20	0x3cc430bb	0.023949018
21	0x3e247360	0.16059637
22	0xbe128bc3	-0.14311127
23	0x3caf95b1	0.021433683
24	0xbdc112c4	-0.094274074
25	0x3da260b0	0.07928598
26	0x3d8b333b	0.06796881
27	0x3c65addd	0.014018503
28	0x3eca7508	0.39542413
29	0xbcbcf5f8	-0.023066506
30	0x3e035d11	0.12828471
31	0x3dcb34fa	0.09922214
32	0x3d3f70a2	0.046738274
33	0x3e2586cc	0.16164702
34	0x3e24e7f5	0.1610411
35	0x3ddba771	0.10725296
36	0x3d97d18a	0.07413013
37	0x3ea78455	0.3271815
38	0x3c0794e0	0.008275241
39	0x3ce190d2	0.027534876
40	0xbe4edfcd	-0.2020256
41	0xbdf6efb5	-0.12057439
42	0x3d2017db	0.03908525
43	0xbedbd0c3	-0.4293271
44	0x3e62999f	0.22128914
45	0x3f1c4f91	0.6105891
46	0xbc76991f	-0.015051155
47	0x3bc10ccf	0.0058914195
48	0x3ed1e36a	0.40993816
49	0x3e5b5b7e	0.2142162
50	0xbe945db2	-0.28977734
51	0x3e15efa4	0.14642197
52	0x3e7dd291	0.24787356
53	0x3e2ca6b5	0.16860469
54	0xbee03599	-0.43790892
55	0xbd77f2da	-0.060534336
56	0xbcebe002	-0.028793339
57	0xbe5f6265	-0.21814878
58	0x3e5c17a3	0.21493392
59	0xbcb725bc	-0.02235686
60	0xbb2042f5	-0.0024453972
61	0x3db7db2e	0.08977352
62	0x3de66cfa	0.112512544
63	0x3e2bed2e	0.16789696
64	0x3dbbe36d	0.091742374
65	0xbd837c1f	-0.064201586
66	0x3e1b9148	0.15192139
67	0x3df67541	0.12034083
68	0x3bc41246	0.0059836237
69	0xbe74a2b7	-0.23890196
70	0xbcbf735f	-0.023370443
71	0xbe7f1b45	-0.24912746
72	0x3e51b357	0.20478569
73	0x3e2b87d2	0.1675103
74	0x3e852afd	0.2600936
75	0x3badd700	0.005305171
76	0x3d5c4766	0.05377903
77	0x3e5af321	0.21381809
78	0x3e00980a	0.12557998
79	0x3e6c1c72	0.23057726
80	0xbd630e18	-0.055433363
81	0x3e49263f	0.19643496
82	0x3e982bdd	0.29720965
83	0xbd887c45	-0.066643275
84	0xbe85fa97	-0.26167747
85	0x3d45a922	0.048257
86	0x3db5c5b3	0.08875599
87	0xbdf373f9	-0.118873544
88	0xbbec307d	-0.0072079287
89	0xbce2804a	-0.027649064
90	0x3df6d5f1	0.12052525
91	0x3eedcb68	0.4644425
92	0xbd96d28f	-0.073643796
93	0xbd99d197	-0.07510679
94	0xbe7d050e	-0.2470896
95	0x3e132155	0.14368184
96	0xbd9f0bcd	-0.07765923
97	0xbd827da4	-0.0637162
98	0xbd630199	-0.055421446
99	0x3d1c7bbb	0.038203936
100	0xbdc6ff43	-0.09716656
101	0x3e225d1d	0.15855832
102	0x3f2c3279	0.67264515
103	0xbd457436	-0.04820653
104	0xbdb6314b	-0.08896121
105	0x3be3ee6c	0.0069559123
106	0x3dfd7140	0.12375116
107	0x3e3c0447	0.18361007
108	0x3e0222d8	0.12708604
109	0x3f14741d	0.57989675
110	0x3e5d9c25	0.21641596
111	0x3e8d7f87	0.27636358
112	0xbe5417ea	-0.20712247
113	0x3e700c3b	0.23442166
114	0xbc0c8a76	-0.008577934
115	0x3d990cfc	0.0747318
116	0x3b2cd3f2	0.0026371446
117	0x3d2f4905	0.042794246
118	0x3edf5bd5	0.4362475
119	0x3e9ad247	0.30238554
120	0x3de221d8	0.110416114
121	0x3e015a15	0.1263202
122	0xbd8a411f	-0.06750702
123	0x3e19147a	0.14949217
124	0x3e657de1	0.224113
125	0x3da5d0ff	0.080965035
126	0x3e3b2925	0.18277414
127	0xbe76988e	-0.24081632
128	0xbca8b789	-0.020595329
129	0x3e6b1a7e	0.22959325
130	0x3c220cb8	0.009890728
131	0x3edea726	0.434869
132	0xbe41e918	-0.18936574
133	0x3ca50515	0.020144025
134	0xbd0cb516	-0.034352385
135	0x3e4c6790	0.19961381
136	0x3df4f0d9	0.119600005
137	0x3e1142f4	0.14185697
138	0xbbc109a2	-0.005891041
139	0x3e08072d	0.13283987
140	0x3e2f5caf	0.171252
141	0xbe433684	-0.19063765
142	0x3dfe1204	0.1240578
143	0x3e95ae4b	0.29234537
144	0xbddd8ca5	-0.108178414
145	0x3e06d64a	0.13167682
146	0x3e194f46	0.14971647
147	0x3eac1ab2	0.33614117
148	0x3e4236b6	0.18966183
149	0x3e5009a1	0.20316173
150	0x3e512bf0	0.20426917
151	0xbe8d5c8d	-0.27609673
152	0xbea52d6c	-0.32261217
153	0x3e245f14	0.16051894
154	0x3d54a845	0.051918287
155	0x3c9fa806	0.0194893
156	0x3dca89e1	0.098895796
157	0x3ed93d7e	0.42429727
158	0xbcbbf415	-0.022943536
159	0x3e68469e	0.22683188
160	0x3d62d32c	0.05537717
161	0x3d9aba4e	0.07555066
162	0x3d917ecb	0.07104262
163	0x3ce49558	0.027903244
164	0x3dd97df6	0.10619728
165	0x3e673c83	0.22581677
166	0x3e3c76bc	0.18404669
167	0xbedab52b	-0.42716345
168	0x3ddc72cf	0.107640855
169	0xbe3aaa11	-0.18228938
170	0x3db882fd	0.09009359
171	0xbc159c7c	-0.009131547
172	0xbcdfa3bd	-0.027299756
173	0xbdb49da5	-0.08819131
174	0x3f0b4269	0.5439821
175	0xbd078be8	-0.03309241
176	0x3eed8487	0.46390173
177	0xbe83de3d	-0.25755492
178	0x3e28524d	0.16437645
179	0x3c3217e8	0.0108699575
180	0x3e13489a	0.14383164
181	0x3e767e90	0.24071717
182	0xbd859922	-0.065233484
183	0x3eed5b4f	0.46358725
184	0x3e13bd5c	0.14427704
185	0x3d18f5f8	0.03734395
186	0x3da8b57a	0.08237739
187	0x3e2ea211	0.17054011
188	0x3f0590d9	0.52174145
189	0x3f16616b	0.587424
190	0x3d341d5d	0.043973316
191	0x3e39dc76	0.18150505
192	0x3d878505	0.06617168
193	0x3e0ad0d0	0.13556218
194	0x3e7454d7	0.23860489
195	0x3dcd8a4e	0.10036145
196	0xbdac13b5	-0.08402196
197	0x3ecd1dbf	0.40061757
198	0x3d09217d	0.033479203
199	0xbdfe53d8	-0.12418336
200	0x3ee5ee10	0.4490819
201	0xbe905f0c	-0.28197515
202	0x3e869a5f	0.2628965
203	0x3e490fdc	0.19634956
204	0x3e90da01	0.28291324
205	0xbded0f05	-0.115751304
206	0x3f14168c	0.57846904
207	0x3e1770d7	0.14789139
208	0xbddd3224	-0.10800579
209	0x3e3fdf76	0.18737587
210	0xbd9bc2a7	-0.07605486
211	0x3d07fc66	0.03319969
212	0x3e662f3f	0.2247896
213	0x3e4bb237	0.19892202
214	0x3d1ae0d1	0.037812058
215	0x3f05529e	0.5207919
216	0x3dd4aa14	0.10384002
217	0x3e0de739	0.13857736
218	0xbe44ee43	-0.19231515
219	0x3e60e193	0.2196105
220	0x3df8af76	0.121428415
221	0x3edb283b	0.4280413
222	0xbdb58bb7	-0.08864539
223	0x3e0f8d8a	0.14018837
224	0x3dedefc8	0.11618
225	0x3d64e1f0	0.055879533
226	0x3e1f3db3	0.1555088
227	0x3e137681	0.14400674
228	0x3dfb463f	0.12269258
229	0xbe9b0ab8	-0.30281615
230	0x3dbf8f70	0.093535304
231	0x3c428297	0.011871955
232	0x3e6b0b3b	0.22953503
233	0x3df4a4a0	0.11945462
234	0x3e699c08	0.22813427
235	0xbe0f2cba	-0.13981906
236	0x3e0a9a4d	0.13535424
237	0x3e95ed6b	0.29282698
238	0x3b6d13de	0.0036175172
239	0x3e3d4e4a	0.18486896
240	0x3e06faad	0.13181563
241	0xbe5856b4	-0.21126825
242	0x3c56c589	0.0131086195
243	0x3b49c28f	0.0030786132
244	0x3df6fd78	0.12060064
245	0xbd9fbddd	-0.077998854
246	0x3e21ed46	0.15813169
247	0xbde90643	-0.113781475
248	0x3d417671	0.047232095
249	0x3def0407	0.1167069
250	0x3e236470	0.15956283
251	0x3f1358bd	0.5755728
252	0x3d49f591	0.049306456
253	0x3d5a35a6	0.05327382
254	0xbe193ab4	-0.149638
255	0xbc8cea36	-0.017201524

value_stream.0.weight f4 [256, 256]
0	0xbe0a413c	-0.13501447
1	0xbde479b3	-0.11156025
2	0xbdcbf71d	-0.099592425
3	0xbe4247c8	-0.18972695
4	0xbd803680	-0.06260395
5	0x3d6130fc	0.054978356
6	0xbe707117	-0.2348064
7	0xbe489901	-0.19589616
8	0xbce7d9b0	-0.028302044
9	0x3d31db58	0.043422073
10	0xbc945513	-0.018106973
11	0xbde4daec	-0.111745685
12	0xbdf07c9b	-0.117425166
13	0x3ea59866	0.32342833
14	0xbec1fd02	-0.37888342
15	0x3d88da81	0.06682301
16	0xbe093b9c	-0.13401645
17	0xbec8a354	-0.3918711
18	0x3e8353fb	0.2565001
19	0xbeb8a339	-0.3606203
20	0x3e55d586	0.20882234
21	0xbdce104c	-0.10061702
22	0xbe1c8fd9	-0.15289249
23	0xbdce543f	-0.100746624
24	0xbeb2852b	-0.34867224
25	0xbdc96410	-0.098335385
26	0xbe1a82f1	-0.15089013
27	0x3d246739	0.040137503
28	0xbcf779ca	-0.03020944
29	0xbe2e35d1	-0.17012717
30	0xbe245daa	-0.16051355
31	0x3c34338d	0.010998619
32	0xbdb1f4c7	-0.08689266
33	0xbe44b444	-0.19209391
34	0xbb0f360d	-0.0021852285
35	0xbd9a5b8b	-0.07536992
36	0xbdeb76fe	-0.11497305
37	0xbe59e1a9	-0.21277489
38	0xbd93740b	-0.07199868
39	0xbcebda49	-0.02879061
40	0xbe7740cc	-0.24145812
41	0xbd20c1c8	-0.039247304
42	0xbf1300d2	-0.57423127
43	0xbde0456c	-0.10950741
44	0xbd457da1	-0.048215512
45	0x3d25963a	0.04042647
46	0xbe278e71	-0.16362931
47	0xbd65f949	-0.05614594
48	0x3e0b8637	0.13625418
49	0xbe25919c	-0.16168827
50	0xbe18012b	-0.14844196
51	0x3e53f458	0.20698678
52	0xbc3fb846	-0.011701649
53	0xbe9454bd	-0.289709
54	0xbe2ec162	-0.17065957
55	0x3e64040f	0.22267173
56	0xbe0fe478	-0.14051998
57	0xbde02cfb	-0.10946079
58	0x3e2cc0c9	0.16870417
59	0xbd9338ad	-0.071885444
60	0xbe8c96bf	-0.2745876
61	0xbe0ae837	-0.13565145
62	0xbe95f017	-0.29284737
63	0xbda75472	-0.081704035
64	0xbe6a169f	-0.22860192
65	0xbd5d999e	-0.05410158
66	0xbe35e6e4	-0.17763859
67	0xbea3aa63	-0.31965932
68	0xbcd1fe1d	-0.025633866
69	0xbe85bd4a	-0.2612098
70	0xbb386c55	-0.0028140743
71	0xbe748206	-0.23877725
72	0x3e3e0701	0.1855736
73	0xbe2f9a8a	-0.17148796
74	0xbbe6c3c1	-0.0070423787
75	0xbddf7317	-0.109106235
76	0xbe23df3a	-0.16003123
77	0xbf13e4df	-0.57771105
78	0xbcbd10f3	-0.023079371
79	0xbed62f9a	-0.41833192
80	0xbf3c5014	-0.7355969
81	0xbea4e8b0	-0.32208776
82	0x3ee49298	0.44643092
83	0xbb57c13b	-0.003292157
84	0xbe2f6dc6	-0.17131719
85	0xbe5e9dcd	-0.21739884
86	0xbdde87bc	-0.10865733
87	0xbe543e92	-0.20726994
88	0x3d775e4f	0.060392674
89	0xbe422bbc	-0.18961996
90	0xbe99d6f3	-0.30046806
91	0x3e28426b	0.16431586
92	0xbec939a8	-0.393018
93	0xbd33951a	-0.043843366
94	0xbe599e1e	-0.21251723
95	0x3d3679a7	0.04454961
96	0xbdf35711	-0.11881841
97	0xbb59378c	-0.003314468
98	0xbe17d77e	-0.14828297
99	0xbe46d017	-0.19415317
100	0x3d3bf0a2	0.045883782
101	0xbea87bf4	-0.3290707
102	0xbcfdb025	-0.030967781
103	0xbeac4014	-0.33642638
104	0xbeb76dda	-0.35825998
105	0xbe87f281	-0.26552203
106	0xbdad2ac5	-0.08455423
107	0xbe0b6487	-0.13612567
108	0x3d30642b	0.043064278
109	0xbb98ed3d	-0.004666953
110	0x3dc699af	0.096972816
111	0xbe9a8a15	-0.30183473
112	0xbef5c699	-0.4800308
113	0xbd9c166b	-0.076214634
114	0xbcfa885a	-0.030582596
115	0x3d417f66	0.047240637
116	0xbe2d1e15	-0.16906007
117	0xbead015a	-0.33790094
118	0x3e4de23a	0.2010583
119	0x3f084843	0.5323526
120	0xbdb4261e	-0.08796333
121	0x3bf5637e	0.007488667
122	0xbcfcab6d	-0.030843461
123	0x3d885806	0.06657414
124	0xbe33c591	-0.17555834
125	0xbde49530	-0.11161268
126	0xbe2ec6d9	-0.17068042
127	0xbe067c40	-0.13133335
128	0xbcba1145	-0.022713313
129	0xbe39e1f8	-0.18152606
130	0xbe1c93c7	-0.15290748
131	0x3e32081e	0.17385909
132	0xbe81ac70	-0.25326872
133	0x3ba4c1b5	0.0050279745
134	0xbe7371b1	-0.23773839
135	0xbe99e05f	-0.30053994
136	0xbd818b43	-0.0632539
137	0xbf02c2cd	-0.5107849
138	0xbd954a0d	-0.07289515
139	0x3e02769e	0.12740561
140	0x3db1f90d	0.08690081
141	0xbe72f5ea	-0.23726621
142	0xbdbaca43	-0.091206096
143	0x3db6fb61	0.089346655
144	0xbed07ed0	-0.4072175
145	0xbd315d4d	-0.04330187
146	0xbe9f1ac0	-0.31075096
147	0x3dfbffc3	0.12304642
148	0xbe89e88a	-0.26935226
149	0xbda47448	-0.080299914
150	0xbd5eccf9	-0.054394696
151	0xbe80a02c	-0.251222
152	0xbdc1e044	-0.094666034
153	0xbe8ca17a	-0.27466947
154	0xbdc6d7e0	-0.09709144
155	0xbe989d57	-0.2980754
156	0xbe9e4405	-0.3091127
157	0x3e2639a9	0.16232933
158	0xbec35015	-0.38147035
159	0xbed4af80	-0.41540146
160	0x3d2dea59	0.04245982
161	0xbdb0c3f0	-0.08631122
162	0xbe7cc59a	-0.24684754
163	0xbe832840	-0.25616646
164	0xbd9c967d	-0.07645891
165	0xbe61a329	-0.22034897
166	0xbdb3103f	-0.08743333
167	0xbe874c0a	-0.264252
168	0xbe25789c	-0.1615929
169	0xbc55b29a	-0.01304307
170	0xbdf5c5df	-0.120006315
171	0xbe68160b	-0.22664659
172	0xbdd04f2b	-0.1017135
173	0xbe3828cb	-0.17984311
174	0x3e14c13d	0.1452684
175	0xbf1e3e6f	-0.61814016
176	0x3dc43504	0.095804244
177	0xbce5acea	-0.028036553
178	0xbd1b1a84	-0.037867084
179	0xbe63c90f	-0.22244667
180	0xbe93ab8e	-0.28841823
181	0x3dd6e4ba	0.10492845
182	0xbd987bb6	-0.07445471
183	0xbe968a51	-0.29402402
184	0xbe9fcb3e	-0.3120975
185	0xbd34afbc	-0.044112906
186	0x3d371d7d	0.044705857
187	0xbd9f7ca0	-0.07787442
188	0x3e651fa7	0.22375356
189	0x3cf61592	0.030039582
190	0xbbfecd93	-0.007775971
191	0x3bf9c057	0.0076218056
192	0xbe6e655e	-0.23280856
193	0xbdb83d1c	-0.08996031
194	0xbea0fd68	-0.31443334
195	0xbe2187cb	-0.15774457
196	0x3dd15651	0.10221542
197	0x3e4de2a7	0.20105992
198	0xbe954b0d	-0.29158822
199	0xbf125e64	-0.5717528
200	0x3d4d03f3	0.050052594
201	0xbea8fb6e	-0.33004326
202	0x3d1b18b7	0.037865367
203	0xbdf629c6	-0.120196864
204	0xbe1e7468	-0.15474093
205	0x3e26c8a4	0.16287476
206	0x3cd157aa	0.025554497
207	0xbe1ea65d	-0.1549315
208	0xbe046922	-0.1293073
209	0x3e01c53d	0.12672897
210	0xbdb46f60	-0.088103056
211	0xbd1c5e9c	-0.038176164
212	0xbec2cd10	-0.38047075
213	0xbdb6778b	-0.0890952
214	0xbe45b650	-0.19307828
215	0xbda9da4f	-0.08293592
216	0xbe332312	-0.17493847
217	0x3d5a7cd4	0.0533417
218	0xbe6aa56e	-0.22914669
219	0xbe1af26f	-0.15131544
220	0xbedbf69b	-0.42961583
221	0x3eb1a2b5	0.34694448
222	0xbe30321e	-0.17206618
223	0xbf032a0b	-0.5123603
224	0xbd9b9d3e	-0.07598351
225	0xbe70cbd2	-0.23515251
226	0xbe8b34a8	-0.2718861
227	0xbd93e01c	-0.0722048
228	0xbdd93665	-0.10606078
229	0xbe9cb5d9	-0.3060749
230	0xbe02abff	-0.12760924
231	0xbe321580	-0.17391014
232	0xbebbdcdf	-0.3669195
233	0xbef78fae	-0.48351806
234	0xbe50ce4e	-0.20391199
235	0xbdfad477	-0.12247556
236	0xbd506812	-0.0508805
237	0xbecec817	-0.4038703
238	0xbda9bc6e	-0.08287893
239	0xbdf1f788	-0.11814791
240	0xbe60d6d0	-0.21956944
241	0xbe1a50d2	-0.15069893
242	0xbe6f4f2d	-0.23370047
243	0xbf220d30	-0.6330137
244	0xbe8cd0cc	-0.2750305
245	0x3d562c2d	0.052288223
246	0x3ddd5069	0.10806353
247	0x3da77490	0.081765294
248	0xbd830798	-0.06397933
249	0xbe8bbaaf	-0.27290866
250	0x3d964006	0.0733643
251	0x3cb9f547	0.022699965
252	0xbd6b010d	-0.05737405
253	0xbe14a7e4	-0.1451717
254	0xbeac4277	-0.3364446
255	0xbd9b1d60	-0.07573962

value_stream.0.bias f4 [256]
0	0xbe2625c3	-0.16225342
1	0xbd3d010d	-0.04614358
2	0x3e5d6c11	0.21623255
3	0x3e8d9943	0.27655992
4	0xbdc7a768	-0.09748727
5	0x3e8429bf	0.258131
6	0x3e515ae7	0.20444833
7	0xbd99206c	-0.07476887
8	0xbe254149	-0.16138186
9	0x3ec0bc5c	0.37643707
10	0x3e29bb72	0.16575411
11	0x3c5ddd8d	0.013541591
12	0xbe27a501	-0.16371538
13	0x3edbb533	0.42911682
14	0x3de60946	0.112322375
15	0xbd032658	-0.03201899
16	0x3e9aad14	0.30210173
17	0x3e570f92	0.21002033
18	0x3e35d402	0.17756656
19	0x3e216fa8	0.1576525
20	0x3ea6751d	0.32511225
21	0x3ee9614f	0.45582053
22	0xbdbfb482	-0.09360601
23	0x3e068d61	0.1313987
24	0xbe1364cb	-0.14393918
25	0x3d4627f9	0.048377965
26	0x3e48f84e	0.1962597
27	0xbd8ae04b	-0.06781062
28	0x3e921500	0.28531647
29	0xbd7051d9	-0.058671806
30	0x3edb5659	0.42839316
31	0x3e7d8021	0.24755909
32	0x3e844bc2	0.2583905
33	0x3c9646d2	0.018344317
34	0x3e1f3ad8	0.15549791
35	0x3ee4d8f4	0.44696772
36	0x3ddebb9e	0.10875629
37	0xbdf3d9f0	-0.11906803
38	0xbde501e1	-0.11181999
39	0x3ec5ab8b	0.3860744
40	0x3eede14d	0.46460953
41	0x3e1aabbb	0.15104572
42	0x3dc99114	0.098421246
43	0xbd0eab01	-0.03483105
44	0xbe0abe54	-0.13549167
45	0x3e2f2c50	0.17106748
46	0xbbcf29d9	-0.0063221273
47	0xbdc0203e	-0.0938115
48	0x3e6d854a	0.23195377
49	0x3e945af4	0.28975642
50	0x3e6c1ad8	0.23057115
51	0x3e756219	0.23963203
52	0x3e2272ff	0.1586418
53	0x3e6a97b5	0.22909434
54	0xbd5035ae	-0.050832443
55	0x3daa51f1	0.0831641
56	0xbdfd6d8a	-0.123744085
57	0xbd62b71b	-0.055350404
58	0x3def1d26	0.116754815
59	0xbe478040	-0.19482517
60	0xbd92fae5	-0.071767606
61	0x3d17ce89	0.0370622
62	0xbe3bb642	-0.18331245
63	0x3e900d50	0.28135157
64	0x3ef660d5	0.48120752
65	0xbdbad1ce	-0.09122048
66	0xbdc17fcd	-0.09448204
67	0x3dc64603	0.096813224
68	0x3ecde9aa	0.40217334
69	0xbd9adccf	-0.07561647
70	0x3e889f0d	0.26683846
71	0x3e09ee10	0.1346972
72	0xbd7d2c66	-0.06180992
73	0x3d018611	0.031621996
74	0x3e9af823	0.30267438
75	0xbd9a336a	-0.07529338
76	0xbe174017	-0.14770542
77	0xbe3e51af	-0.18585847
78	0xbdc49ff1	-0.09600819
79	0x3e26a0ab	0.16272227
80	0x3ebcbb04	0.36861432
81	0xbe0c9c59	-0.13731517
82	0xbe156557	-0.1458944
83	0x3eb50967	0.35358736
84	0xbe0fbe2e	-0.14037392
85	0x3dfd35da	0.12363787
86	0x3e7626fe	0.24038312
87	0xbdb2274c	-0.086989015
88	0xbd900357	-0.07031887
89	0xbe5b5140	-0.21417713
90	0xbe3d9d2d	-0.18516989
91	0xbe211ad0	-0.15732884
92	0x3ee5f0cc	0.44910276
93	0x3e35cb97	0.17753445
94	0x3e756a24	0.2396627
95	0xbda86485	-0.082222976
96	0xbe202286	-0.1563817
97	0x3e91ba97	0.2846267
98	0x3e3f1c4d	0.1866314
99	0x3ed4eead	0.41588345
100	0xbe086dfe	-0.13323209
101	0xbd905ad6	-0.070485756
102	0x3e79cb81	0.24394037
103	0xbdceeba9	-0.10103542
104	0x3f17c0e4	0.592787
105	0xbe598712	-0.21242931
106	0xbd81650b	-0.063181005
107	0x3e8d6ebf	0.27623555
108	0x3ea4623a	0.3210619
109	0xbe61d0ce	-0.22052309
110	0x3e66ad29	0.22526993
111	0xbe36e247	-0.17859755
112	0xbd6bb315	-0.057543833
113	0x3e8a3dd1	0.27000287
114	0x3e9787da	0.29595834
115	0xbe35ca7f	-0.17753027
116	0xbdeac683	-0.11463644
117	0x3e548946	0.2075549
118	0x3e800e8e	0.25011104
119	0xbb0db7ec	-0.0021624519
120	0x3e60f0ac	0.21966809
121	0x3e9b6642	0.30351454
122	0xbd5d6d8b	-0.054059546
123	0x3ed4f6b4	0.4159447
124	0xbe161af1	-0.14658715
125	0x3d401ad1	0.046900574
126	0xbe40415b	-0.18774931
127	0xbe1ad639	-0.15120782
128	0x3e96f060	0.29480267
129	0xbe0e96f6	-0.13924775
130	0x3e3dcd1d	0.18535276
131	0x3e405e84	0.18786055
132	0xbd22c113	-0.03973491
133	0xbd88837b	-0.06665703
134	0x3eb4e575	0.35331312
135	0x3ebf4782	0.37359244
136	0x3e2d7c38	0.16941917
137	0x3deea420	0.11652398
138	0xbd879301	-0.06619836
139	0x3ea879c7	0.3290541
140	0x3ec13051	0.37732175
141	0x3e531070	0.20611739
142	0x3eb05fc3	0.3444806
143	0x3e9ec6f3	0.3101116
144	0xbe0b8f46	-0.13628873
145	0x3e1151bf	0.1419134
146	0x3ebe555a	0.37174493
147	0xbd0ddce6	-0.034634493
148	0x3e3f845e	0.18702838
149	0x3e550b2d	0.20805044
150	0x3ea28faa	0.31750232
151	0xbe011a78	-0.12607753
152	0x3e474f7c	0.19463915
153	0x3ea4dc71	0.32199433
154	0x3e9e0cf6	0.30869263
155	0xbe4982da	-0.19678822
156	0x3e272cc3	0.16325669
157	0xbd5ac15e	-0.053407066
158	0x3ee6affb	0.45056137
159	0x3e2d85cb	0.16945569
160	0xbe366b66	-0.17814407
161	0xbc459090	-0.012058392
162	0xbd6e3457	-0.058155384
163	0x3e2f1fea	0.17102018
164	0xbd50815f	-0.050904628
165	0x3da342ee	0.0797175
166	0x3e6b0289	0.22950186
167	0x3e06e0f3	0.13171749
168	0xbd37faf9	-0.04491708
169	0xbda06c2d	-0.07833133
170	0xbe46f338	-0.19428718
171	0x3de6d4f6	0.11271088
172	0x3e775d23	0.24156623
173	0x3e2bda34	0.16782457
174	0x3ec2fa46	0.38081568
175	0x3e730812	0.23733547
176	0xbc8425a4	-0.01613123
177	0x3e9c1483	0.304844
178	0x3f1125a4	0.5669806
179	0xbca87112	-0.020561729
180	0xbda45d4f	-0.0802561
181	0xbdaabd4a	-0.08336885
182	0x3ef4aa03	0.4778596
183	0x3e44aa5e	0.19205615
184	0x3e343b90	0.17600846
185	0x3f0a92e5	0.54130393
186	0xbe63499e	-0.22196051
187	0x3e5e19db	0.2168955
188	0x3e2377c4	0.15963656
189	0x3ec7021d	0.388688
190	0xbd2fbfeb	-0.042907637
191	0xbd84839b	-0.06470414
192	0xbe26948a	-0.162676
193	0x3e3701e4	0.17871815
194	0xbd8e66b8	-0.06953186
195	0xbdcd8b84	-0.10036376
196	0xbd1f5ece	-0.038908772
197	0xbe1030b0	-0.14081073
198	0x3e9c6756	0.3054759
199	0x3dcbb14c	0.09945926
200	0xbdefbe9d	-0.117062785
201	0x3e8bc278	0.27296805
202	0xbe63be25	-0.22240503
203	0x3eda63dd	0.42654315
204	0xbe22641f	-0.15858506
205	0xbe1ca0e1	-0.15295745
206	0xbd13c7b6	-0.03607913
207	0x3e899803	0.26873788
208	0x3dac82c3	0.08423378
209	0x3e8d7052	0.27624756
210	0xbe090341	-0.13380148
211	0xbe117c45	-0.14207561
212	0x3e27cc78	0.16386592
213	0x3df425cf	0.11921274
214	0xbdb5c97b	-0.0887632
215	0xbbad5525	-0.005289691
216	0x3e414c09	0.18876661
217	0xbd97db53	-0.0741488
218	0x3ec17189	0.37781933
219	0xbe2e40b7	-0.17016874
220	0x3e7d8c29	0.24760498
221	0xbdbda045	-0.092590846
222	0xbde9e154	-0.11419931
223	0x3d83d442	0.06436969
224	0xbd562c4f	-0.05228835
225	0x3e72a89a	0.23697129
226	0xba277b17	-0.0006388886
227	0xbc7a8136	-0.015289595
228	0xbe6796c4	-0.22616106
229	0x3e963132	0.29334408
230	0x3e27fc09	0.16404738
231	0xbe3a0469	-0.18165745
232	0x3e130520	0.14357424
233	0x3d2cd19a	0.04219208
234	0x3e940305	0.28908554
235	0xbe376add	-0.17911859
236	0x3eb8e6b6	0.36113518
237	0xbe3d854e	-0.18507883
238	0x3e838201	0.25685123
239	0xbd9cda5c	-0.07658836
240	0x3f0df55d	0.5545252
241	0x3e1a323b	0.15058224
242	0x3ed9244a	0.424105
243	0xbd9995b4	-0.07499257
244	0x3e23359a	0.15938416
245	0xbd49f80a	-0.049308814
246	0x3e9897ec	0.29803407
247	0x3dfc6024	0.12323025
248	0x3e542da4	0.20720536
249	0x3eaf1677	0.34196827
250	0x3e82776d	0.2548174
251	0xbe498a4e	-0.19681665
252	0x3e7c68ea	0.24649397
253	0xbd9880de	-0.074464545
254	0x3e84cbdc	0.25936782
255	0x3e87829c	0.26466835

value_stream.2.weight f4 [1, 256]
0	0x3f079dab	0.5297496
1	0x3eb77c23	0.35836896
2	0xbf1cbb9a	-0.6122376
3	0xbf55746c	-0.8338077
4	0x3ef82ae9	0.48470238
5	0xbf441476	-0.7659372
6	0xbf296231	-0.66165453
7	0x3ed5a7e2	0.41729647
8	0xbdfdcba7	-0.12392359
9	0xbeff1e9f	-0.4982805
10	0xbf4af820	-0.7928486
11	0xbf35649c	-0.7085664
12	0xbf0398c2	-0.51404965
13	0x3f1816e7	0.59409946
14	0x3f1dbf21	0.61619765
15	0xbe8595d0	-0.2609086
16	0xbf193d25	-0.59858924
17	0x3e840f3a	0.25792867
18	0xbf0dc2b7	-0.55375236
19	0xbf21dc23	-0.63226527
20	0xbf2db5ac	-0.67855334
21	0xbf179f9a	-0.5922791
22	0x3e93e6e4	0.28887093
23	0xbf2908e8	-0.66029215
24	0x3ef36569	0.47538307
25	0xbf40adb1	-0.7526503
26	0xbec94b78	-0.3931539
27	0x3ead54ba	0.33853704
28	0xbf2f4a08	-0.6847234
29	0x3f0d1c8a	0.5512167
30	0xbf2ab80e	-0.66687095
31	0xbf21de9f	-0.6323032
32	0xbf62d52f	-0.8860654
33	0x3f0e9454	0.5569508
34	0xbf0e508a	-0.5559164
35	0x3ee95267	0.4557068
36	0xbf0ea93e	-0.55726993
37	0x3f039fde	0.5141581
38	0xbeba8114	-0.36426604
39	0xbf142ec8	-0.5788388
40	0xbf30e870	-0.6910467
41	0xbf35bedd	-0.7099436
42	0x3f234612	0.63778794
43	0xbe13b24b	-0.14423482
44	0x3ec243bc	0.37942302
45	0x3eec19bb	0.4611338
46	0x3ed6f0d4	0.41980612
47	0x3f0cf43e	0.55060184
48	0xbf1265aa	-0.5718638
49	0xbf435659	-0.7630363
50	0x3e90f9dd	0.2831563
51	0xbf47fa9d	-0.7811678
52	0x3eeeba20	0.46626377
53	0xbf6f3fcf	-0.9345674
54	0x3ed5c1e0	0.41749477
55	0xbf36a65b	-0.7134759
56	0x3ececa24	0.40388596
57	0x3f189acc	0.596112
58	0xbf223538	-0.63362455
59	0x3eec95c0	0.46208
60	0xbe7ba249	-0.24573626
61	0x3e5b8b0f	0.21439765
62	0x3f02b98d	0.5106438
63	0xbf19e864	-0.60120225
64	0xbf35b98b	-0.7098624
65	0xbed31a27	-0.4123089
66	0x3ef9fb83	0.488247
67	0x3eaef290	0.34169436
68	0xbf0e99a6	-0.557032
69	0x3f12ff79	0.5742107
70	0xbf443f97	-0.7665953
71	0xbf5a4e18	-0.8527541
72	0x3ebc68e7	0.36798784
73	0xbe8fd74a	-0.2809394
74	0xbf269ce6	-0.6508316
75	0x3f09188f	0.535531
76	0x3f012577	0.5044779
77	0x3eeeb16e	0.46619743
78	0x3e90d0a8	0.28284192
79	0x3e919a24	0.28437912
80	0xbedc34bf	-0.43008992
81	0x3f0d6cef	0.55244344
82	0x3f0e960e	0.55697715
83	0xbf0c9bb9	-0.54925114
84	0x3eeebadf	0.46626946
85	0xbf3461b7	-0.704616
86	0xbec9d02a	-0.3941663
87	0x3f1c7a51	0.6112414
88	0xbe8d7493	-0.27628002
89	0x3f03a6f6	0.5142664
90	0x3ed2e287	0.41188452
91	0x3ef61ccb	0.48068842
92	0x3f1c3cf3	0.610305
93	0xbf03ec94	-0.51532865
94	0x3ebb8936	0.3662812
95	0x3eb4953b	0.35270104
96	0x3f296a4b	0.66177815
97	0xbf27284c	-0.65295863
98	0xbf05f327	-0.52324146
99	0x3f1a541e	0.602846
100	0x3f064e70	0.52463436
101	0xbe94ad22	-0.2903834
102	0xbf2664a4	-0.64997315
103	0x3f13a492	0.5767299
104	0xbf2e25fa	-0.680267
105	0x3ef47cee	0.47751564
106	0x3ebd4829	0.36969116
107	0xbf023b84	-0.50872064
108	0xbef56661	-0.4792967
109	0x3ecf7191	0.40516332
110	0xbf4d133e	-0.80107486
111	0x3f1de76a	0.61681235
112	0x3e154742	0.14577964
113	0xbed93f07	-0.424309
114	0xbf05b80a	-0.52233946
115	0x3f0505f3	0.519622
116	0xbe709b94	-0.23496848
117	0x3ea98ca9	0.33115128
118	0xbf7fdb13	-0.99943656
119	0xbeced02d	-0.403932
120	0xbf2883da	-0.6582619
121	0xbf3d7f34	-0.7402222
122	0x3ec56e1a	0.38560563
123	0xbf3103eb	-0.69146603
124	0x3f080acc	0.53141475
125	0xbf23be13	-0.63961905
126	0x3ef1343e	0.4711017
127	0x3f06f5b6	0.52718675
128	0xbf2e59b5	-0.6810563
129	0xbe27a2b5	-0.16370662
130	0xbe952c8f	-0.29135558
131	0xbf2dfdc0	-0.67965317
132	0x3ef64f97	0.48107597
133	0xbe8b306b	-0.27185377
134	0x3e806be5	0.25082317
135	0xbf215dbf	-0.6303367
136	0x3ec10871	0.37701753
137	0xbf82ad85	-1.0209204
138	0x3ef0668e	0.46953243
139	0x3e7cd27f	0.24689673
140	0xbf2ed71d	-0.68296987
141	0xbedd9264	-0.4327575
142	0x3f0c9d60	0.54927635
143	0xbf12bca2	-0.5731908
144	0x3ea8c420	0.32962132
145	0xbf32563e	-0.69662845
146	0x3ed7e53f	0.42167088
147	0x3e991e15	0.29905763
148	0xbf15c63f	-0.58505625
149	0xbea7f0a5	-0.32800785
150	0xbf0216a3	-0.5081579
151	0x3f219ee0	0.6313305
152	0xbf0be26c	-0.5464237
153	0xbf1e953a	-0.6194645
154	0x3e90a49f	0.28250596
155	0x3eb378ae	0.3505301
156	0xbf098195	-0.5371335
157	0xbe7b9ca8	-0.24571478
158	0xbf06b1da	-0.5261513
159	0x3e728a75	0.2368563
160	0x3f0b915c	0.54518676
161	0x3edc812a	0.43067294
162	0x3f029732	0.51011956
163	0xbf157a03	-0.583893
164	0x3ed9b8e1	0.42523864
165	0xbf1f7854	-0.6229298
166	0xbf05ee29	-0.5231653
167	0xbf3db57b	-0.7410504
168	0x3ed4b066	0.4154083
169	0x3ebb54a9	0.36588028
170	0x3f046493	0.51715964
171	0xbec3ecd2	-0.38266617
172	0xbf76040f	-0.9609994
173	0xbf3cb7b1	-0.7371779
174	0xbf1a8258	-0.6035514
175	0x3ebcd4be	0.3688106
176	0x3e616211	0.22010066
177	0xbf2bd1ab	-0.671168
178	0xbf26d5ed	-0.65170175
179	0x3ec115fa	0.3771208
180	0x3ecb9bd7	0.39767334
181	0x3f044eb7	0.5168261
182	0xbf2a2eee	-0.6647786
183	0xbf111491	-0.56672007
184	0xbf13e874	-0.5777657
185	0xbf289341	-0.6584969
186	0x3f0d0d1b	0.5509812
187	0x3e9f6e50	0.3113885
188	0xbf2fdd68	-0.68697214
189	0x3f25c746	0.6475719
190	0x3f00653d	0.5015448
191	0x3ecad5b9	0.39616182
192	0x3eef61ac	0.46754205
193	0xbf4fd45b	-0.81183404
194	0xbe986f61	-0.29772475
195	0x3ee6d98f	0.4508786
196	0x3f018bf9	0.50604206
197	0x3ef2e34f	0.47439048
198	0x3eafaa95	0.3430983
199	0x3f0ef7f3	0.5584709
200	0x3f106f7e	0.56420124
201	0xbf5773af	-0.84160894
202	0x3f0883e3	0.53326243
203	0xbf0f650e	-0.5601357
204	0x3effa530	0.49930716
205	0x3ef020fb	0.46900162
206	0x3e88243b	0.26590142
207	0xbf63ac6b	-0.88934964
208	0xbf3c9f61	-0.7368069
209	0xbf1d7a95	-0.6151517
210	0x3ed39c41	0.4133015
211	0x3f131e29	0.57467896
212	0xbf33e572	-0.7027198
213	0xbed615e2	-0.4181357
214	0xbe97bf87	-0.2963831
215	0x3e9177f2	0.28411824
216	0xbf1b42ef	-0.6064901
217	0x3ee45035	0.44592443
218	0xbf342f74	-0.7038491
219	0x3f398dc7	0.7248196
220	0xbf026628	-0.5093713
221	0x3f00bf08	0.5029149
222	0x3f036620	0.51327705
223	0xbe82391d	-0.254342
224	0x3ed9deff	0.42552945
225	0xbee44067	-0.44580385
226	0xbeb53fdf	-0.35400292
227	0x3ed3f3a0	0.4139681
228	0x3f0611ff	0.5237121
229	0xbeeeb3f0	-0.46621656
230	0xbf6e8e55	-0.9318593
231	0x3edbeb60	0.42953014
232	0xbf4de689	-0.80429894
233	0xbf09a29c	-0.5376375
234	0xbf136114	-0.57570004
235	0x3f0fe980	0.5621567
236	0xbefa32b4	-0.48866808
237	0x3ede38c9	0.434027
238	0xbefb4f09	-0.49083737
239	0x3eb24c36	0.3482377
240	0xbf20e26e	-0.62845504
241	0xbf31da38	-0.694736
242	0xbf0b9000	-0.545166
243	0x3f000f36	0.5002321
244	0xbf650957	-0.89467376
245	0x3ee55c63	0.44797048
246	0xbebdebdc	-0.3709401
247	0xbf219862	-0.6312314
248	0xbf2c9246	-0.67410696
249	0xbf021a99	-0.50821835
250	0xbf2ca89e	-0.6744479
251	0x3ef377d2	0.47552353
252	0xbf361522	-0.71125996
253	0x3ee6e717	0.45098183
254	0xbf4bc58d	-0.79598314
255	0xbf657146	-0.89625967
